logs/rl_games/yam_cube_sort_8192/2026-02-01_06-46-50/nn/last_yam_cube_sort_8192_ep_250_rew_441.1748.pth (torch, 953168 bytes, 30 tensors)

value_mean_std.running_mean f8 [1]
00000000: a841 9875 7e46 a8bf
-0.04741282639963923

value_mean_std.running_var f8 [1]
00000000: 2e0e f180 d53e ad3f
0.05712001036638657

value_mean_std.count f8 []
00000000: 0000 0004 0040 9f41
131072001.0

running_mean_std.running_mean f8 [40]
00000000: d107 1a58 51da ef3f 115b ac65 bcd6 723f
00000010: 9de9 9788 976e a23e d19f 68da 4fd7 723f
00000020: 9de9 9788 976e a23e 0000 0000 0000 0000
00000030: 6598 708c ac14 c0bf d97f 4a55 acbb c13f
00000040: 3ab7 0b69 3c12 bf3f 0091 ceab 191d bdbf
00000050: 35de e000 dc99 c03f b8b5 a510 b2c0 a13f
00000060: a8e0 1313 5afa c33f aa1f 236b cc2e d33f
00000070: 178c 8ad6 4c15 643f d3e9 7cbc 0e68 e83f
00000080: a7a0 3593 8436 d33f fe11 ca76 2998 653f
00000090: 0d54 398d 0f68 e83f e4bf 0968 ea39 d33f
000000a0: 07f1 4353 1ab2 693f eed6 f971 1068 e83f
000000b0: 7a68 b5f4 5f71 143f 9e7b cc3c 3dd3 243f
000000c0: f2b5 e12d 5190 24bf 3ba1 3b32 12eb 163f
000000d0: f57f 031d 54b2 253f 0287 0c8c 1041 24bf
000000e0: a4d2 8827 89db 163f 3781 292b dfe1 253f
000000f0: e560 3b93 0d3c 24bf 8a9f 76b0 a070 dd3f
00000100: 0000 0000 0000 0000 242a c679 eb51 e83f
00000110: 1180 ca78 fb28 cc3f e4a2 75b3 7bbc c13f
00000120: 242a c679 eb51 e83f 1180 ca78 fb28 cc3f
00000130: e4a2 75b3 7bbc c1bf 242a c679 eb51 e83f
0.9954001160369846 0.004599319387827775 5.493163978680975e-07 0.004599868704225644 5.493163978680975e-07 0.0 -0.1256309209576926 0.13853983082390078
0.1213720089396845 -0.113725285000843 0.12969541590585867 0.03467327550138627 0.1560776322510311 0.29973135435693143 0.0024515629523462856 0.7627023393063673
0.30020250678945576 0.0026360330433041748 0.7627027281074575 0.30040989074677626 0.003136683861269532 0.7627031541912552 7.798336189549114e-05 0.00015888330963151077
-0.00015688887555446968 8.742617188384632e-05 0.00016553189062218335 -0.00015452696791223164 8.71946775838442e-05 0.00016694878793811218 -0.00015437761032078344 0.45999924881697807
0.0 0.7599999788665781 0.22000068090437755 0.13856455099746434 0.7599999788665781 0.22000068090437755 -0.13856455099746434 0.7599999788665781

running_mean_std.running_var f8 [40]
00000000: 07cf 6c88 4dc1 723f daa4 4f6a b7c0 723f
00000010: dddb 4526 cef1 a23e 5ad9 f084 49c1 723f
00000020: dddb 4526 cef1 a23e 00ec bfce 4d62 503e
00000030: 540e 6925 af20 9e3f 52b0 7133 db8a 983f
00000040: 4618 f850 0f88 7e3f b5ea a30c 9343 943f
00000050: 9cd6 003c d64c 8b3f 9d26 7e51 2825 943f
00000060: ebf6 1bae 4675 9e3f 1616 4cf4 163e 653f
00000070: 574f e1c6 aaaa 713f 6eb3 a85b 6524 883e
00000080: 67c7 8461 c565 653f 2427 5cdf eca8 713f
00000090: eaff 09a8 b36e 923e 9778 f761 0521 653f
000000a0: b6de 9449 3527 713f 495e 6191 b8a2 9b3e
000000b0: d7ca da02 7e63 2f3f 496e 9417 5ab5 433f
000000c0: ea2b aaf0 adfd 043f e95f 7fd4 3bfa 2f3f
000000d0: 2c45 ce87 dfc4 423f 49fa 96d5 56da 053f
000000e0: 6324 a6a4 0d0f 303f 2b01 11a7 0991 433f
000000f0: f2bc 3ba0 bb26 073f a212 0f58 dad9 533e
00000100: 00ec bfce 4d62 503e e27f f80c efd8 593e
00000110: 3cd7 a3c1 782d 513e 5ab9 df57 fcb2 503e
00000120: e27f f80c efd8 593e 3cd7 a3c1 782d 513e
00000130: 5b21 3d56 fcb2 503e e27f f80c efd8 593e
0.004578879225664917 0.004578319993904867 5.645916414793925e-07 0.004578864273801686 5.645916414793925e-07 1.525878882966929e-08 0.02942155519327934 0.02396719457139824
0.007453975514641503 0.019789025923254672 0.013330148416666625 0.01967299458877979 0.02974424779585309 0.0025930832219980366 0.0043131514522264025 1.7987319529799167e-07
0.0026120047661146065 0.0043114903289820684 2.746645933263114e-07 0.0025792222147478882 0.004187782434477752 4.11802959181835e-07 0.00023947633001383 0.0006014528181909697
4.003703187035314e-05 0.00024396877620236283 0.0005727855164982302 4.1681075070955165e-05 0.0002450378712173849 0.0005971238262035041 4.415760125008908e-05 1.8487673173410605e-08
1.525878882966929e-08 2.407226490201427e-08 1.5997908866527575e-08 1.5552307434880785e-08 2.407226490201427e-08 1.5997908866527575e-08 1.5552307344112738e-08 2.407226490201427e-08

running_mean_std.count f8 []
00000000: 0000 0008 0040 8f41
65536001.0

a2c_network.sigma f4 [6]
00000000: dcd3 86bf 9da5 9bbf d5bc 99bf 1081 efbf
00000010: 54cc febf 554e 303c
-1.0533404 -1.2159916 -1.2010752 -1.8711262 -1.9906106 0.010760863

a2c_network.actor_mlp.0.weight f4 [256, 40]
00000000: f307 9dbd 0989 c23c e951 c33e 8da2 813e
00000010: d00b d03e 6290 8dbd cb25 73bd ea93 0abd
00000020: 455e ef3c 8934 98be 74ab 85be 8cc3 063d
00000030: a7db 9abc 9178 40bd 85be 863b 4476 1ebe
00000040: 8faa 52bc 5497 1fbc 13b7 2dbc f5ce 8dbb
00000050: f30a 90bc 6204 903e 7dcc 9f3c 4c67 6f3d
00000060: 143f b03d c90e 9dbd 57b6 e73c fa10 90be
00000070: 113c dcbc 5d5c f0bc 7e8f 28be ac7c c0bd
00000080: f3cb 1b3e dd12 0dbe c169 a03e 6e92 3abe
00000090: dfbc e8bd d6bf 083f 1339 f43d b628 fe3d
000000a0: 443d 92bd a54a d539 df4f ebbc bcad 8abd
000000b0: 876c 88bc 1faf 19bd d9d3 0d3e a369 dcbe
000000c0: c778 31bf 9a72 7a3d d0d8 a33d 7528 8c3c
000000d0: e448 db3c f835 fdbd 70e0 5b3c d82f 8f3d
000000e0: 1ac9 933e 4ef1 11be 2c34 8e3e 32d8 93bd
000000f0: ddff 69bd 46df 4f3d 137b 563d 7abe 85be
00000100: 0d63 483e 772b 863c 013e 8abe ee25 843e
00000110: bd35 7abe 0612 983e 5583 623e 975a ed3e
00000120: 2993 473d 0b8e 1dbe 20ae 4bbe 2831 76bf
00000130: b92e 963c 86cf 6fbe f6cd 573f 11f3 cebd
00000140: 1892 54be 2768 fc3d af79 933e 7eab db3d
00000150: 1809 433e 62ea bcbd 1915 0bbe e1a8 54be
00000160: 5292 973d 9e3b d1bd 79b3 1c3e aeec d33d
00000170: 6e02 05be bd7c 42bd 02d4 17bd 596c 3ebe
00000180: d3b6 933b e918 403d 1010 cebd e61e d13c
00000190: 2e53 e63c 6306 033f e7c0 5fbd cb7e e03c
000001a0: a902 8b3d 2ff7 dbbe 0fb1 39be e664 d63d
000001b0: 2483 6d3d eac1 9bbe 7182 9a3c 689e b0be
000001c0: 1af1 8dbc 427c cfbd 336c 123f ffc7 7dbe
000001d0: 01f4 cf3d e08e f73e c776 433e 942e 8cbd
000001e0: 7ebc b3bd 6bbe 853e 8fa7 32be 0169 b23d
000001f0: db83 03be 2851 c2bc f418 bcbd 3c46 9fbc
00000200: b781 043d 0fde 84be 1ae9 89be 71f8 1c3d
00000210: 819f 92bc 63c8 eebb 0ea0 c4bc 77d3 6e3c
00000220: 3f30 38bd 340b 6dbc 07dc 463e eef2 92bb
00000230: 935c 84bc 7afd abbd f41d 193d 2507 bebd
00000240: 34b1 ed3d 6b6f a83d 4d1c a8bd b956 d1bd
00000250: 3977 aa3d ca30 efbc 5cdb 01be a790 ba3d
00000260: 78fc ce3d a894 063e f6cd b13e df19 c93d
00000270: 50d8 0cbb 25fc b43e 299e b9bd 5f3c 233d
00000280: cab0 f9bd c268 79bd 36ac c93e 7a3d 343d
00000290: c478 813e 353b c3bd 9505 38bf c502 76be
000002a0: 4761 50be 9aa1 b43d f109 e63d 6ec2 e03d
000002b0: 2aae e5bd 2b64 14bc cc3d e2bc 9023 8f3e
000002c0: 9bce 18bd 17ea b5bc ed11 043d 89bf a5bd
000002d0: 5bd6 653d ae91 cfbe c8c0 f7bd ee81 85bd
000002e0: e8c3 32be 3ad8 87be b509 9e3e ab21 613e
000002f0: bd39 febe 5f03 563d 72b7 dbbd 4f67 823f
00000300: 6e77 9b3d 5c65 953d f72f 80bf 6f2d 2d3f
00000310: a389 7cbd 722e 9abf 898f 46bf 6bfd 54be
00000320: 393a 35ba 7391 a4bc 6fb9 993e a6ab 9fbc
00000330: cc43 9b3e f3e9 e3bd cde5 28be 8010 ab3c
00000340: ee3d c5bc 92e6 be3d c104 dcbd 1f51 c1bc
00000350: 9097 583c 1ebb 9dbb 8398 4c3b 3711 653e
00000360: 5c36 a9bc 57e3 963a 22f2 5fbe ef92 483c
00000370: 67b3 6dbc ecd8 233e 28be 343c 05bd 883e
00000380: d200 923e 0e45 bf3d 05a7 8dbd 565a dbbd
00000390: b191 893d 1d16 413d 93dd bc3d 32cf 88bd
000003a0: 9506 c93d c412 0a3e 8744 d13d 5405 fc3e
000003b0: 4e34 e8bd 9d4f 41bc 9628 dfbe 4838 10be
000003c0: 5985 54be 318b ae3d f580 3abe 6a2c b93d
000003d0: 8c86 6ebe e998 4dbd e04e 17be a7ba 9e3d
000003e0: c3ce 593e cc29 053d e137 95bd 5a58 063d
000003f0: 0b27 16be fd62 50bd 212c de3c 6c99 883e
-0.07667532 0.023746984 0.3814843 0.2531933 0.40634012 -0.069123045 -0.059362214 -0.033832468
0.029219756 -0.2972758 -0.2610737 0.03290133 -0.018903567 -0.04698998 0.004112067 -0.15474802
-0.012858047 -0.009740669 -0.01060273 -0.0043276497 -0.017583346 0.28128344 0.019506687 0.05844812
0.08605781 -0.07668836 0.028285189 -0.28137952 -0.02688411 -0.029340917 -0.16460988 -0.09398779
0.15214519 -0.13776727 0.31330684 -0.18219921 -0.11364149 0.5341772 0.119249485 0.12410109
-0.07140592 0.0004068214 -0.028724609 -0.067714185 -0.016653312 -0.037520524 0.13850345 -0.43049344
-0.69324917 0.06114445 0.08000338 0.017109135 0.026768155 -0.12363809 0.013420209 0.06991547
0.28864366 -0.14252207 0.2777418 -0.0721897 -0.057128776 0.05075004 0.052363466 -0.26121885
0.19569035 0.016378148 -0.2700043 0.25810188 -0.24434562 0.2970125 0.22120412 0.46358177
0.048724327 -0.15386216 -0.19890642 -0.96168756 0.018332826 -0.23419008 0.84298646 -0.10104955
-0.20758855 0.12324553 0.28803775 0.10726069 0.19046438 -0.092243925 -0.13582267 -0.20767547
0.07400955 -0.10216449 0.15302838 0.103478774 -0.12989208 -0.04748224 -0.03706742 -0.18596019
0.0045078783 0.046898756 -0.100616574 0.025527429 0.028115835 0.5118162 -0.054627325 0.02740421
0.06787617 -0.42962024 -0.18133949 0.104684636 0.057986394 -0.30421382 0.018861027 -0.34495854
-0.01732688 -0.10131122 0.5719635 -0.24783324 0.10153962 0.48351192 0.19088279 -0.068448216
-0.087761864 0.2612184 -0.17446731 0.08711434 -0.12843268 -0.023720339 -0.09184447 -0.01944267
0.03235027 -0.25950667 -0.26935655 0.03832287 -0.017898323 -0.0072870716 -0.024002101 0.014576784
-0.044967886 -0.014468003 0.19419871 -0.004484526 -0.016157424 -0.08397956 0.03738208 -0.092787065
0.116060644 0.08224376 -0.08208523 -0.10221619 0.08323521 -0.02919807 -0.12681335 0.091096215
0.10106748 0.13142645 0.34727448 0.09819388 -0.0021491237 0.3534862 -0.0906337 0.039852496
-0.12191923 -0.06089092 0.393892 0.04400394 0.2528745 -0.09532777 -0.7188352 -0.24024494
-0.20349608 0.088198856 0.11232365 0.109745845 -0.1121486 -0.009057085 -0.027617358 0.2795682
-0.03730641 -0.02220635 0.032243658 -0.08093173 0.05611263 -0.40540832 -0.12097317 -0.06518923
-0.17457545 -0.26532155 0.3086678 0.219855 -0.49653426 0.05224931 -0.10728349 1.0187777
0.07591139 0.072947234 -1.0014638 0.6764745 -0.061654698 -1.2045424 -0.7756277 -0.20799796
-0.0006913278 -0.020088887 0.30024287 -0.019491028 0.30325162 -0.11128607 -0.16493912 0.020881891
-0.024077382 0.093213215 -0.10743094 -0.023598252 0.013219729 -0.004813566 0.0031218834 0.22369848
-0.020655803 0.0011511844 -0.2186971 0.012242063 -0.014508105 0.16000718 0.011031665 0.2670671
0.2851625 0.09339343 -0.06916622 -0.107105896 0.067172416 0.04714023 0.092219494 -0.06680144
0.098157085 0.13483721 0.10218149 0.49222815 -0.11338101 -0.011798766 -0.43585652 -0.1408397
-0.20753993 0.085226424 -0.18213256 0.090416744 -0.23293513 -0.050194655 -0.14776182 0.07750445
0.2127028 0.032510564 -0.07286049 0.032799102 -0.14663331 -0.050875653 0.027120652 0.26679552

a2c_network.actor_mlp.0.bias f4 [256]
00000000: 632f 393d c340 e3bd 8407 bd3c 9e0d 093d
00000010: 58b9 e5be ef1d 3fbd 1503 12bd c006 ecbe
00000020: f9f5 86be 6cb1 a2bd 1248 183e f177 01bd
00000030: 43e4 e03c ce99 09be 3a7a 053d 06e0 343d
00000040: 765a 16be a423 47be 52d0 cfbd b60e 7f3e
00000050: a3d9 8a3b 0e9e 8cbe 09fb c1bb 768a 3c3c
00000060: fa9a b6bc 3177 43bc 5b46 63be 42aa 2dbe
00000070: d86e 32bf 7118 503e 74e5 37bd f6aa 91be
00000080: 667d 65bf 7f41 1fbd 9d6d 78bf 74d3 8bbe
00000090: fa47 693b 5bc2 a9bd 3bf2 26bf 4609 19be
000000a0: fede f53c 361c 1fbe 6f65 f1be 0f6f 923c
000000b0: f85c 9c3d 597f 603e eb4f 42bb f359 bdbe
000000c0: 2526 d2bc 147c dd3c 0e09 70bd 8415 303d
000000d0: 68cb e2bd 251c 62bc 83a4 cdbb 77ae 9c3b
000000e0: cb2c 51bf 023c 8dbd 86d1 38bd 1355 05be
000000f0: 6128 1dbf 69e5 5a3c 73e9 313d 8dc2 90ba
00000100: 59d3 38ba 8a39 893c 293a b5be 7826 8abe
00000110: 0ccd fabe 73e0 793d f90c 3cbe a09d 4bbe
00000120: 15d7 4f3c 00b8 bdbc dd6e 9bbd 451b 80bd
00000130: 8e75 ee3c 4227 13bd 4c4e c03d 8eea 4cbe
00000140: 874b 103d b6d1 ab3c 8a7c bb3c 5fe5 9abb
00000150: 0f26 69be 232e 8dbe 8bca c83e be32 5ebe
00000160: afe6 3c3d cf3b 6fbb 329b 0e3e cf81 a0be
00000170: d9b3 173d d5e1 11bf ac5c 3ebd 2d7d f2bd
00000180: e0bd a23d b45b 10bd 420b 7cbd 1c8a e7be
00000190: 6445 cdbd d877 dabe a6f0 a4be bfa1 e2bd
000001a0: 9fc8 47bf 2294 28be 181e ba3c f722 28bd
000001b0: 93f6 1fbe dabb 93be e20f fabd 44ea 1dbe
000001c0: b04d abbd 1913 523e bd11 323d d91b 5fbc
000001d0: cb2a 03be 4e2e 73bc da61 e93b b50c 10bf
000001e0: c25d 38bc 1c81 2e3c dc7c 783e 67ab a73a
000001f0: b853 b03e 5c3a ea3d 9803 a03d 4fb8 f3bd
00000200: 355c 8dbc 9139 c5be 222c b3bd ea4c 18bf
00000210: dc08 f43c 2f57 cabd ba17 d8bd 8de9 0bbd
00000220: 29a9 25be 9076 afbc fc8d 933e c388 87bf
00000230: 2268 37bf 1b15 db3b bd86 21bf c9e5 903c
00000240: ced9 33bc a944 4f3d 5c73 b4be 57f7 5bbf
00000250: 0096 ca3c 438e 773b e4a3 313c 7d50 d53d
00000260: 7977 62bd 7e79 7cbd fcca 24bc 4aa6 b43c
00000270: 7df0 d23c 05f4 b63b a485 29be 4197 92bc
00000280: 0968 bfbe 3c02 8c3d 70cb b23d 5363 d7be
00000290: 6cd4 3dbf 8055 34bd 3ac6 4cbc 0552 d3be
000002a0: 6d1b 4d3e 0b26 783d 4efd 5b3d 5b74 e1bd
000002b0: 0797 223d 94b8 e2bc ed27 673c 0036 80be
000002c0: 3a8f 03bd 0192 4fbe e7a5 12bf 1384 263e
000002d0: ccd4 433c f9f0 8fbb 06bf bfbd 20f8 09bd
000002e0: 1231 ff3c 1b92 88be 9b95 423d 4e00 6fbd
000002f0: b07c 21be 5a80 423c d5f8 d8bd cd49 abbb
00000300: ee8d 0abf 5c02 b0be f91d 23be 7c7f 6cbd
00000310: dc73 40bf 3123 ed3d 85af 1bbd b0b7 adbd
00000320: 9dd7 48be 4392 b3ba 6bf6 a0bc 93d9 5c3d
00000330: 7e41 233e a70c 0f3d ef77 0d3d b5ac c23c
00000340: 36b0 c53d 7b1a e4bd 8c74 73bd beee d2be
00000350: 462b 48bd 4771 81be d970 8dbd c6e9 0abd
00000360: e3f6 eabe 9666 66be 71bc 98bc c8e6 54bd
00000370: 94ee 983c 926d 863d ca27 bd3d adf6 9abd
00000380: cefc 0abf 78a6 69bd 38b5 6a3b 6197 9ebb
00000390: 14f0 b2bd cd49 fdbd c76b 8c3e 62a9 8abe
000003a0: 5c15 3f3b 0e92 173f 6dcf 833c 1325 e8be
000003b0: f126 26bc 001f a83d 185c 9dbc 8588 5ebd
000003c0: 3aff 073d 8603 03bd cd31 68bf 2dde 06bf
000003d0: b873 64bd 1617 99bb 7404 acbc f81c 0ebc
000003e0: a7ec ce3d 8a99 a23c dad3 9ebe 8b85 f63b
000003f0: 0a06 fdbc 73cf 35bd 7a0c 443d 62f7 b2bc
0.045211207 -0.11096337 0.023074873 0.033460252 -0.4486797 -0.046659406 -0.03564747 -0.460989
-0.26359537 -0.07943997 0.14871243 -0.031608526 0.027452594 -0.13437578 0.032587267 0.044158958
-0.14682946 -0.1944719 -0.10147156 0.24907956 0.00423737 -0.27464336 -0.0059198183 0.011507621
-0.022290695 -0.011930273 -0.22194807 -0.1695948 -0.69700384 0.20321824 -0.044896558 -0.28450745
-0.8964447 -0.03888082 -0.97042257 -0.27309763 0.003559588 -0.082890235 -0.65213364 -0.14944944
0.030013558 -0.15538105 -0.471477 0.017875222 0.0763492 0.2192358 -0.0029649686 -0.36982688
-0.025652954 0.027036704 -0.058602385 0.04298927 -0.11073953 -0.0138006555 -0.006275715 0.00478154
-0.81708974 -0.06896211 -0.045121692 -0.13020734 -0.6138974 0.01336036 0.043435525 -0.0011044309
-0.0007050536 0.01675107 -0.35395935 -0.26982474 -0.48984563 0.061005067 -0.18364324 -0.19884348
0.012685557 -0.023159027 -0.07589505 -0.06255201 0.029108789 -0.03592611 0.09389934 -0.2001135
0.03522828 0.020974021 0.022886533 -0.00472705 -0.22768424 -0.27574262 0.39217028 -0.21699044
0.046118435 -0.0036504155 0.1392639 -0.31349036 0.03703675 -0.5698522 -0.046475098 -0.11840282
0.07946372 -0.035243705 -0.061534174 -0.45222557 -0.10023001 -0.4266956 -0.3221485 -0.11066007
-0.780405 -0.16462758 0.022719428 -0.04104897 -0.15621404 -0.28854257 -0.12210061 -0.15421396
-0.08364427 0.20515098 0.043473948 -0.013617479 -0.12809293 -0.014842583 0.0071222605 -0.5626939
-0.011252822 0.010650899 0.2426638 0.0012792171 0.34438872 0.114369124 0.078131855 -0.119003884
-0.017255882 -0.38520482 -0.08748652 -0.5949236 0.02978938 -0.0987991 -0.105514005 -0.03415828
-0.1617781 -0.02141884 0.28819263 -1.0588611 -0.7164327 0.0066858656 -0.6309622 0.017687695
-0.010977222 0.05060259 -0.35244262 -0.85924286 0.024729729 0.0037774004 0.010842297 0.104157425
-0.05528972 -0.0616393 -0.010058161 0.022051949 0.02574944 0.0055832886 -0.16554886 -0.01789439
-0.3738406 0.06836364 0.08730209 -0.42067966 -0.74152255 -0.04402685 -0.012498433 -0.41273513
0.20029993 0.060583156 0.053708367 -0.11008521 0.039694812 -0.027675904 0.01410864 -0.250412
-0.032119013 -0.2027054 -0.57284397 0.1626132 0.01195259 -0.00439274 -0.09362607 -0.033683896
0.031151328 -0.2667397 0.047505956 -0.0583499 -0.15770221 0.011871422 -0.10594336 -0.0052273036
-0.5412282 -0.343768 -0.15929402 -0.057738766 -0.7517679 0.11578978 -0.038009185 -0.08482301
-0.196135 -0.0013700206 -0.019648751 0.053918432 0.15942952 0.034924176 0.034538206 0.023763994
0.0965275 -0.11137863 -0.05943732 -0.4119777 -0.048869394 -0.25281736 -0.069062896 -0.03391435
-0.45891485 -0.22500071 -0.018644543 -0.051977903 0.01866845 0.06563868 0.09236105 -0.07566581
-0.54292 -0.057043523 0.0035813581 -0.004839823 -0.087371975 -0.12367592 0.27425978 -0.27082354
0.0029157018 0.59207237 0.01609012 -0.45340785 -0.01014112 0.08209038 -0.019208953 -0.054329414
0.033202387 -0.031985782 -0.9070099 -0.52682763 -0.05577442 -0.0046719415 -0.020998217 -0.008673899
0.101037316 0.019848604 -0.31021005 0.007523244 -0.030886669 -0.044387292 0.04786346 -0.021846477

a2c_network.actor_mlp.2.weight f4 [256, 256]
00000000: b2a8 42bc a8c3 98bd 33b1 21be b15f 7d3c
00000010: ef30 983d 4ea5 ac3d 6c24 73bc 8370 633d
00000020: 5cb0 12bc f6b6 b93c ce2c a7bc 5e10 dbbd
00000030: 23da 4dbd 1115 bebc a441 03be 4850 71bd
00000040: 616f 37bc 996f 84bd 525c d9bd 4ace f4bd
00000050: 958a e9bc c5dc 83be c220 7a3c 1fb4 8cbb
00000060: 85a5 03bd dedd 1dbe a9f0 e0bd a6d2 533b
00000070: 943b ec3d e849 b3bc 3d30 e63d 69e1 0e3b
00000080: 4b6f 783d 75ea 5bbd 6e6d 773d 855f c3bd
00000090: 5a20 833d 3cb8 1ebb 0eab 8e3d 08d0 043e
000000a0: a6ea ccbd 63ea 213e 02f0 013d 368f 1fbd
000000b0: 6b98 cebd 0889 3dbb d502 edbc 8a9a 4e3d
000000c0: 46d8 c4bc c86e 46bd e44e 0cbd f2d9 ddbd
000000d0: 2803 7dbd 7cd6 583c 57fd b83d 9b4a ce3c
000000e0: 7117 a6bd 2a2b 21bd a324 d4bc 4354 0f3e
000000f0: 2893 503e adb8 7abc d2f4 1c3e 9b8c aebd
00000100: fb18 c2bd c23a 843d dca0 ba3d 0d30 973d
00000110: a845 9a3d f51b 3dbe 5b71 64bc 3ba2 d23c
00000120: 6e04 113e 4a85 67bd be93 de3d 49df 203d
00000130: c8a6 07bd acef aa3d 2c62 f23b b7b5 bbbd
00000140: 31be adbd 43eb 7c3d 51bb 3cbd 65e2 f0bd
00000150: 53c5 3b3c 7875 83bc 8e1f c53d 026f 07be
00000160: 6d44 15be c8f7 c4bd a266 84bc d24d 9fbd
00000170: cb0e 6a3d 8563 f03c dcce 6d3c 13a1 e43b
00000180: 515b 303d 1800 083e 7a82 25bd abdf 3a3c
00000190: 65d3 9d3d b9af 6a3d 35b9 9ebd 7a1c 64bd
000001a0: 8ca5 333c de87 aabd fcad 8c3d 73cd 193e
000001b0: d699 ebbd bb75 7fbc f7ad 52bd 2922 afbc
000001c0: c6dc 683c da13 49be 3e4d ae3c 0f9a 26bd
000001d0: e8b1 09be bd4b fe3c 760d 033e 8d6a 063e
000001e0: 1f9e 61bd 6998 6dbd b4ec 863d 3616 b23d
000001f0: c7ab 10be 66bd 6e3d bea5 a9bd 6b25 bfbd
00000200: c94e 4abd 3f8c 8bbc 20a2 333d 4548 803d
00000210: 01d2 c93b 488b 2f3d 22c0 0a3e 645e bb3c
00000220: 4162 2d3e eb31 09bd 48bf 78bd 8523 f6bc
00000230: 76b3 fb3d ea05 d9bd a291 33bc a346 02bd
00000240: 0f7f 70bd c809 05be 3d64 55bb 79b2 f2bd
00000250: 7dea 94bd ca24 2f3d a490 093c 30db c0bd
00000260: 62c7 a23d 2a1f 87bc 4950 e5bd 34e3 e63d
00000270: 6ca0 5639 5ca0 01be 544c ae3d feec cabc
00000280: 4104 2fbc d594 1cbe ed61 0cbe a6bf ff3d
00000290: 80c1 e73d d15e c73d 22bd 5a3d c4ba 4dbd
000002a0: 75ab 07bd 4faa 313c 09a0 1ebc eedb d13d
000002b0: 7c12 79bd 59b3 afbd 71e1 85bd 629c fb3c
000002c0: a903 4abd 9ee8 d83d 956e c93d 3380 bbbb
000002d0: 5f73 f3bc cde9 0abd 2553 a73c 5311 8dbe
000002e0: 7c22 d73c dcd9 0d3c ca53 babd 9763 9fbc
000002f0: a6e6 d5bd f974 8e3c 3c6a 0d3e d38c 5cbd
00000300: cfab a23d cc22 82bd c4b8 a93d 3bf0 bdbc
00000310: 6874 59bd e427 66bd 5735 f9bb 801f 6a3c
00000320: 315d 953d d133 04bd 3956 51bc ff45 163c
00000330: 76ea 3abe a732 ecbd 4a02 a73c d48b 01be
00000340: 2c9a 143d 3118 d7bc 8b27 f3bc 5e83 b53d
00000350: 5e46 f53b bdee c1bb 854a 3dbd 5f71 e5bb
00000360: 37ee 50bb e73e 6d3d 6b9d 823b 3ad0 983c
00000370: 470c 9f3d 773a db3c 5567 f6bb 7a04 38bd
00000380: 2040 bcbd 71f5 d7bd 4322 d6bc b6fc 07bd
00000390: e02f d9bd 57e2 60bd d191 a13c 1146 5abd
000003a0: 6a3e 543c cbf0 d0bd bc7b 15bd 988d b73d
000003b0: 2344 69bb 8daa a03d 5d7d 673c 7656 3abd
000003c0: 52ab 81bd 2f85 d73c 5dd0 153c d6b4 743e
000003d0: 6076 96bd d811 8dbc 254f 4c3d 771f 14bd
000003e0: 30a8 16bd 9789 cebd d60a ad3c e60c b4bd
000003f0: 356a dd3d 02e7 573d 17ab 00be 56ee 9ebc
-0.01188104 -0.074591935 -0.15790252 0.015464709 0.07431208 0.08429967 -0.014840227 0.05552722
-0.00895318 0.02267025 -0.020407107 -0.10696481 -0.05025686 -0.023203405 -0.12818009 -0.058914453
-0.011195988 -0.06466598 -0.10613312 -0.11953409 -0.028508464 -0.2575437 0.015266599 -0.004293933
-0.032140274 -0.15416667 -0.10983402 0.0032321601 0.11534801 -0.021885827 0.112396695 0.0021801835
0.060653012 -0.053690393 0.060407095 -0.09539703 0.06402655 -0.00242187 0.0696622 0.12969983
-0.10005693 0.15812068 0.03172303 -0.038954936 -0.10087665 -0.0028920788 -0.028932014 0.05044035
-0.024028908 -0.048445493 -0.034254923 -0.108325854 -0.06177059 0.013234731 0.09032696 0.025182059
-0.0810994 -0.039347805 -0.025896376 0.13996987 0.20368636 -0.015302819 0.15327767 -0.08522912
-0.09477421 0.0645652 0.09112713 0.07382212 0.07532817 -0.18467696 -0.013943042 0.025712123
0.14161846 -0.0565236 0.10868023 0.03927544 -0.03311804 0.08346495 0.007396957 -0.09165519
-0.08483542 0.0617478 -0.046077076 -0.11761931 0.01146062 -0.016047224 0.09625159 -0.1322594
-0.14576884 -0.09617573 -0.01616222 -0.07778515 0.057143014 0.02934433 0.014514651 0.0069772094
0.043055836 0.13281286 -0.040407635 0.011405866 0.07706336 0.05729649 -0.07750169 -0.05569122
0.010964762 -0.08326696 0.068691224 0.15019779 -0.11503951 -0.015592034 -0.051435437 -0.021378594
0.014212793 -0.19636479 0.021277066 -0.040674265 -0.13446772 0.031041974 0.12798104 0.13126583
-0.055082437 -0.058006678 0.06588116 0.08695643 -0.14128028 0.058286093 -0.08283566 -0.09333309
-0.04939154 -0.017034648 0.043855786 0.06263784 0.0061590676 0.04285744 0.13549855 0.022872157
0.16932012 -0.03349487 -0.060729295 -0.030046234 0.12290089 -0.10596831 -0.010960015 -0.031805646
-0.058714923 -0.12992013 -0.0032560967 -0.11850447 -0.072712876 0.042759694 0.008396301 -0.09416807
0.079481855 -0.016494352 -0.11196954 0.11273804 0.00020468392 -0.12658828 0.08510652 -0.02477121
-0.010682167 -0.1529115 -0.1370923 0.12487726 0.11316204 0.09734882 0.053403027 -0.05022694
-0.0331225 0.010843827 -0.00968171 0.102470264 -0.060808644 -0.0857913 -0.0653714 0.030714218
-0.049319897 0.10591243 0.09835545 -0.0057220696 -0.0297181 -0.033914376 0.020425389 -0.2755228
0.02626156 0.008657899 -0.09098013 -0.019456668 -0.10444383 0.017389761 0.13810056 -0.053845238
0.07942926 -0.06354293 0.08287194 -0.02318584 -0.05308953 -0.056190386 -0.0076052356 0.014289737
0.072931655 -0.03227598 -0.012776905 0.009171962 -0.18253502 -0.11533099 0.020386834 -0.12650996
0.036279842 -0.026256653 -0.029681941 0.08862947 0.007485195 -0.0059183524 -0.046213645 -0.0070020403
-0.0031880268 0.057921316 0.003986051 0.018653978 0.077660136 0.026761277 -0.0075196424 -0.044926144
-0.091919184 -0.10544861 -0.026139384 -0.03319999 -0.106048346 -0.054903354 0.019722851 -0.053289477
0.012954334 -0.102021776 -0.036494955 0.08962554 -0.0035593591 0.0784503 0.01412901 -0.04549261
-0.06331505 0.026308624 0.009143916 0.23897108 -0.07346797 -0.017220423 0.049880166 -0.03616282
-0.03678149 -0.10084837 0.021123331 -0.08791523 0.10811273 0.05271054 -0.12565266 -0.019400757

a2c_network.actor_mlp.2.bias f4 [256]
00000000: f3e0 f6bc 050c cd3c afc5 c9bc 0bb5 ddbb
00000010: 02a4 013d b16e 14bd 055f 60bc 4eea 993a
00000020: eff2 1aba 1c5d e53c 269b 6abc b25b aabb
00000030: 12ce d7bc 8d0a c43c 0163 23bd 5120 66bc
00000040: 2361 f63c 7ebd 8ebc 54c6 babd ad8a d63c
00000050: d8d8 44bc 8a1a 6abc 3431 95bc 8ed6 edbc
00000060: da00 a9bc 3eec c73c 49c4 eebc 3ec0 653c
00000070: 3a18 6b3c 76ce 803d ba5b 5ebe 20a9 6fbd
00000080: 0e79 293d 21ba bdbd 5abf 11bc 8bb9 31bd
00000090: f6ff e73b 588b d63c 68b2 01bd 6e64 c3bc
000000a0: d41d 5cbd b3c5 263c c801 003b 01b5 b7bc
000000b0: 09f6 8cbc d7a9 2e3d 7364 c13c 3f23 9f3c
000000c0: 7f19 17bc a53c 1c3d bce2 29bd 5191 8a3d
000000d0: faf1 06bc 1500 e0bc 01e5 023b 6073 e73c
000000e0: d579 ea3c 0dfc df3b 0d25 afbb aba7 b73a
000000f0: 8d54 9a3b 6b4e 59be 4af3 6bbc eb74 78be
00000100: c3f7 3ebc e391 4f3c 523b b63c d4ad ac3c
00000110: d4fb 8abc 58d8 df3c 99eb 64bd 67cf 8b3c
00000120: 829b 3fbd 9ecb acbc fce9 9fbc 6340 55bc
00000130: 8403 c63d 237f b8ba 84b4 f4bb 69c3 0fbd
00000140: 3669 e4be 0a66 c83c e824 9e3c 01fb 803c
00000150: f8a3 463d a0c8 55bc 17da e9bc 4b75 d6bd
00000160: 0ef7 953b 3e85 0bbc 5356 8e3c d831 213d
00000170: a7c5 27bb 268a 10bc dd20 01bd efce bbbd
00000180: 6235 34bc 8abd f5bc 6d5e 163d d380 84ba
00000190: 4b1f 8bbd 6098 b5bd 604e 84bc 5333 603c
000001a0: 6c1a c9bc d89a 78bc 867a cc3c 930e 053c
000001b0: 4f68 903c 057f e2be 099b d3bc 28d9 dd38
000001c0: 735f 713d 07df f5bd e3a0 a9bd 3e54 93bc
000001d0: 1afe 72ba a2ed 80bc 480f e6bc f9ea c1bc
000001e0: fe8f 8dbd 6422 cbbc 5912 bcbc 617a a13c
000001f0: 1a8e dcbc 3840 27bc 5501 ff3c 5239 55bc
00000200: dbf9 6d3c 4020 21be a459 b5bc 1480 16be
00000210: c6fd fe3c 8ba5 35be c3b5 6fbc 923c c8bc
00000220: c8ce 083d 81d0 0abe 3704 b6bd bbb6 003c
00000230: 4b17 cc3b e5a3 a8bc 23b6 98be 19fd fcbc
00000240: 6f3b 753d c283 bf3c b2e0 1e3d 64fc 66bd
00000250: d17a 073b 0182 90bb 8ea8 11bd cd16 99bc
00000260: 8cf2 043b 34cb 0e3c 05d9 ad3c f0f6 86bc
00000270: 46ba 18bd 7633 e1be cd35 88be c449 ff3c
00000280: 3fbe f1bb 8318 4b3d abd0 19bb 7bc9 4dbe
00000290: 1a0a aabc ef91 903c 341e ec3c f7bc 003d
000002a0: 118f 253c 36f3 b33d 2448 88bd 0afd d33c
000002b0: 32ad 163c 6a48 8ebc b396 9d3c bb05 fa3c
000002c0: acb6 8a3d 52a5 db3c 958a 68bc 3f06 06bd
000002d0: 4d19 363d 3278 493d de24 11bd 8d0a 59bd
000002e0: 3022 073d 3989 f93b 4702 723d 58f8 bcbe
000002f0: ddba 45bc 3b63 543c 94f2 6e3b cdeb 27bc
00000300: 90da bb3c 08b9 93bd a7cc 323c ba56 fe3c
00000310: 5378 ec3c a9de c8be ffe6 21bb 713e 60bc
00000320: 6e13 23be d60f fdbc fe83 5dbe 6051 563d
00000330: 794a cbbc 8592 ab3c c097 fcbb da37 0e3d
00000340: 3d88 21bb b79c 823c ace4 c23c 097a adbe
00000350: e76e 37bd 62d7 55bd 6e8b 99bb 4fbc c3bc
00000360: 8b15 5dbd 5b72 12bd bee8 aa3c 81de e33c
00000370: 0173 df3c 47fa 14bd bdb7 17bc 4b51 54be
00000380: 0fd7 fb3c 27b2 1dbc 5d5a 9ebc befc 10bc
00000390: 9d03 16bd 2357 3fbd 2b07 6a3c 2f00 d8bc
000003a0: 72dd 873c bfca 263b b33e 7abc 0903 8ebc
000003b0: fa22 933c 6f38 1cbc bf48 dc3c a00d 843c
000003c0: 40a7 2bbd 6533 893b 18e6 0a3d b6cb da3c
000003d0: 35b6 45bd 5576 543c 0339 063d 583c 963d
000003e0: f9b2 96ba aa76 c03c 3fb1 32bd fe7a 253e
000003f0: 9da7 adbe a980 a03a 8dc6 04bd 012b 19bc
-0.030136561 0.025030145 -0.024630396 -0.006765967 0.03165055 -0.036238376 -0.013694529 0.0011742802
-0.0005910834 0.0279985 -0.014319217 -0.005198919 -0.02634338 0.023930812 -0.03988934 -0.014045791
0.030075615 -0.017424341 -0.09119859 0.026189173 -0.01201459 -0.014288554 -0.018211938 -0.029032972
-0.020630289 0.024404641 -0.02914633 0.014022885 0.014349038 0.06289379 -0.21714678 -0.0585109
0.041375212 -0.09264017 -0.008895719 -0.04338984 0.0070800735 0.026189491 -0.031664282 -0.0238516
-0.053739384 0.010178971 0.0019532312 -0.022425177 -0.017207162 0.04264244 0.023607468 0.019425986
-0.009222387 0.038143773 -0.041475996 0.06765998 -0.008236403 -0.02734379 0.0019972923 0.028253257
0.028622547 0.0068354667 -0.005344993 0.0014011761 0.0047097863 -0.2122132 -0.014401266 -0.2426335
-0.011655751 0.012669059 0.022245083 0.021078981 -0.016965784 0.02732484 -0.055888746 0.01706667
-0.046779163 -0.021093186 -0.019520752 -0.013015839 0.09668639 -0.0014075976 -0.007467808 -0.035098467
-0.4461152 0.024462719 0.019304708 0.015744688 0.048496217 -0.013048321 -0.028546376 -0.104715906
0.0045765704 -0.008515654 0.017375147 0.039354175 -0.0025599988 -0.008822 -0.03152548 -0.09170329
-0.010999056 -0.029997606 0.036711145 -0.0010109193 -0.06793078 -0.08866954 -0.016150653 0.013684112
-0.024548732 -0.015173636 0.024960767 0.008121151 0.017627863 -0.44237533 -0.025830762 0.0001057855
0.058928918 -0.1200543 -0.0828264 -0.017984506 -0.00092694315 -0.015738312 -0.028083459 -0.023671614
-0.0691223 -0.024796672 -0.022957968 0.019711675 -0.026923228 -0.010208182 0.031128565 -0.0130141545
0.014524902 -0.15734959 -0.02213747 -0.14697295 0.031126868 -0.17738931 -0.014630738 -0.024442945
0.033400327 -0.135561 -0.08887523 0.007856066 0.0062283627 -0.020585964 -0.2982646 -0.030882405
0.059871133 0.023378257 0.038788505 -0.056393042 0.002067257 -0.004410029 -0.035561137 -0.01868763
0.002028617 0.00871544 0.021221647 -0.01647517 -0.03728702 -0.43984574 -0.26603547 0.031163104
-0.0073774154 0.049583923 -0.0023470323 -0.2009639 -0.02075677 0.017647712 0.028822996 0.03143021
0.0101049105 0.08786623 -0.06654385 0.025877494 0.009196566 -0.017368514 0.019236898 0.03052031
0.06773123 0.02681223 -0.014193197 -0.0327208 0.044457722 0.049186893 -0.03543555 -0.052988578
0.032991588 0.007615235 0.059084203 -0.3690822 -0.012068477 0.0129631115 0.0036460506 -0.01024909
0.022931367 -0.07213026 0.010913051 0.031047214 0.028865969 -0.39232376 -0.0024704335 -0.013686762
-0.1592538 -0.03089134 -0.21632382 0.0523237 -0.024815785 0.02094389 -0.0077085197 0.034721233
-0.0024647855 0.015943868 0.02379068 -0.33882168 -0.0447835 -0.05220736 -0.0046858108 -0.023893503
-0.053975623 -0.03575359 0.020862933 0.027816059 0.027276518 -0.036371496 -0.009260115 -0.20734136
0.030742196 -0.009624994 -0.019330198 -0.008849321 -0.03662454 -0.04671396 0.014283936 -0.026367275
0.016585086 0.0025450436 -0.015273738 -0.017335432 0.017961014 -0.009534939 0.026890157 0.016119778
-0.04190755 0.004187035 0.03391084 0.026708465 -0.04826947 0.012967666 0.032769214 0.073357284
-0.001149743 0.023494083 -0.043626066 0.16160199 -0.3391694 0.0012245375 -0.032415915 -0.009348632

a2c_network.value.weight f4 [1, 256]
00000000: 434d 1bbd 2539 a83b 4cfe 153b 96af ca3c
00000010: bd53 e83c d3dc c6bb 72ae 2e3c 6f5b ed3b
00000020: da92 a13c dfc4 4f3b a2cd 9abb 02ac 80bb
00000030: c6a6 e4bb 69d1 8dba 27ba 6dbc 00f7 553d
00000040: 1980 7ebc 5fcb a83b 63f9 8abd 393d 8abc
00000050: d3af f13a 9151 423c f101 3f3d 3bca 50ba
00000060: cc4c 3b3c 9b76 8fbc 308e 6d3a daf8 78bb
00000070: 75c7 82bc a116 263c 51c2 c03d ddc9 1d3c
00000080: 8133 b23b c0ea c4bd f941 c2bc 93aa 483b
00000090: a865 a03b ae9e 4bbc 54d6 3f39 a27b 7abd
000000a0: f5f7 433c d154 9fbc 9924 66bc c294 c23b
000000b0: b26e 46bc 0d0e 60bc 28a0 cabb 804c 31bc
000000c0: 85ac 0bbd c2de 34bb 30eb 18bd 9c4a c6bb
000000d0: 0150 d3ba c417 eb3a 7c11 1e3c 9c3d 00bc
000000e0: f49c 443c bb08 bd3b 6194 21bc b23f d6ba
000000f0: a1cd d43b e95c e3bd af06 0b3d ff73 28be
00000100: e2ed 823c 6d2f 543c bdbb d73a 49dd ae3c
00000110: e039 82bb fa08 fcba 1ac0 c0bc 3dad be3b
00000120: ad76 4ebb aea7 cf3b 2821 6f3c e34b 303c
00000130: 56d3 193d 70e9 0fbc 88c0 a63b 8243 48bc
00000140: 56a5 a7bd f658 10bd 40c4 ff3b d1fa 763b
00000150: d97f cabb 623f a9bc c263 10bb 379e 64bd
00000160: 9785 9b3b 1f9e 8fba 27d6 8abc f46f 93bb
00000170: f313 49bc 9d69 13bb d2e4 103c 79fe c1bc
00000180: 2802 a8bc 9ac9 e1bc 7114 dd3b c8cd 72bc
00000190: 44c9 e63d 0024 88bd bd3c da3b 4dd2 b9bb
000001a0: 37fb 08bc 2c5a b8bc 0aab 343a ca4e fa3b
000001b0: c1a7 483d db43 783e d2aa a8bc 133d aa3b
000001c0: 29e7 613c d59b 6a3d 4088 a33d d51a 983c
000001d0: b70b 01bb c921 f5ba 660b 603b a4c1 ec3a
000001e0: cbfa 9cba 3c47 5cbb 3d06 43bc 953b 44ba
000001f0: bb92 c53b 4084 d83c d6c1 b9bb b28f 72bc
00000200: b53f 8e3c 1c89 e13d d6cb b03d 6d59 323c
00000210: 596b 42bd 5b5c afbd fc76 3bbb 52dd 61b9
00000220: 940e 6f3c f350 453d 063a 04bd 99c8 2cb8
00000230: c1e2 f63b 9e69 d23b 21b7 9dbd 4e7b 1ebd
00000240: b3ce f13a 8ddc b0bb 30ef c6bb 0634 85bc
00000250: 7e86 32bb f352 cc3d f25a 533c 1cf6 f0bb
00000260: 7bd9 b2bc 641c 873c 1fed e539 0efb 0e3c
00000270: 5e3f ecbb 09c2 48be e60c 67be 8c88 6bba
00000280: 5a8f 8cbc f88d 8f3b 738d 573c 0512 5d3d
00000290: 539a 7abb f44c 753d 21ff c9bc fbbf d1bb
000002a0: a341 25bb e078 30bc bed3 803c f1a1 993b
000002b0: 6477 e2bd 38e7 86bd 0585 8c3b d744 9f3a
000002c0: 5999 7b3d 2f59 ddbb 29c5 96b9 c751 843b
000002d0: 883a b93c 9004 37bc 3021 36bc 2a83 e43b
000002e0: e7fe ab3c ad10 be3c c221 743c 17f0 b83c
000002f0: 41bd 4a3a 883e 033b f712 3dbb 4808 bdbb
00000300: bf79 fd3c 7a0e 983b 03ee 0b3b bfac 4b3b
00000310: 164d 99bb 3091 01be 64b3 8abb 3272 1dbb
00000320: f63f 98bd 2a4a 733a f292 83bd bbd4 24bc
00000330: 03c1 5f3c d169 4abc 1466 c8bb 6ba8 0dbc
00000340: 409b acbb 2191 f7bb d599 2bbb d7c8 11be
00000350: ad70 61bc 28bd e1bb 7009 4c3b 87ed 1ebc
00000360: b0bc 223d 7337 14bc d64d 703b 1758 4cbc
00000370: 13a0 a4bc 4fe4 113b c7d1 94bb 1000 8d3d
00000380: 03ef f63b d714 9bba 91e1 b43c 4ca5 f5bb
00000390: f5c5 593b 4c3d 6f3c e38d 643c 1007 253c
000003a0: df34 32bc 6495 163e b103 99bc ec0e 29bb
000003b0: e618 e43b c10a 0ebc 5313 8d3b 6577 123c
000003c0: 1da1 f43c 09dc 243b 38f4 89bb 9548 9f3c
000003d0: ce0a 27be ffbe 063c 8ca0 a33c 521f c73a
000003e0: d8a8 b7bb 1eca a4ba c39c 88bb 9fc2 4abd
000003f0: cfe3 70bd c802 44bb f509 40bc cb6d 5dbc
-0.03791548 0.0051337653 0.0022887168 0.024741929 0.028360242 -0.0060688048 0.010661708 0.0072435657
0.019723345 0.0031703038 -0.0047242204 -0.003926755 -0.0069778888 -0.0010819855 -0.014509714 0.05223751
-0.015533471 0.005151197 -0.06785848 -0.016874896 0.001843924 0.011860267 0.04663271 -0.0007964705
0.011431884 -0.01751261 0.000906202 -0.0037990124 -0.01596425 0.010137231 0.09412063 0.0096306475
0.0054382687 -0.096150875 -0.023713099 0.0030619248 0.004894931 -0.012427969 0.00018295023 -0.06115306
0.011960973 -0.019449623 -0.0140468115 0.0059381435 -0.012111353 -0.013675225 -0.006183643 -0.010821462
-0.034100074 -0.0027598594 -0.037333667 -0.0060513746 -0.0016121865 0.001793616 0.009647723 -0.007827189
0.012000311 0.005768863 -0.009862036 -0.0016345887 0.0064942394 -0.111017056 0.03394192 -0.16450499
0.015982572 0.01295076 0.0016459149 0.021345751 -0.0039741844 -0.001922875 -0.023529101 0.0058189915
-0.0031503842 0.0063371276 0.014595307 0.01076028 0.03755506 -0.008783683 0.0050888695 -0.012223126
-0.08185832 -0.03524109 0.0078053772 0.003768612 -0.0061797914 -0.020660106 -0.0022032117 -0.055814948
0.0047461498 -0.0010957158 -0.016947819 -0.00449943 -0.012272823 -0.002249337 0.0088436175 -0.023680912
-0.02050884 -0.027561951 0.0067468216 -0.01481957 0.11268857 -0.066474915 0.0066600726 -0.0056708218
-0.008360676 -0.022503935 0.0006891942 0.007638787 0.048988108 0.24244635 -0.020589266 0.005195269
0.013788023 0.05727752 0.07984972 0.018567482 -0.001969082 -0.0018702085 0.0034186481 0.001806308
-0.0011976598 -0.0033611795 -0.011903343 -0.0007485685 0.0060294545 0.02643025 -0.005668859 -0.014804767
0.017364362 0.1101248 0.086326286 0.010885579 -0.047465656 -0.08562537 -0.0028604856 -0.0002154012
0.014590878 0.048172902 -0.032281898 -4.1194817e-05 0.0075343554 0.006421282 -0.07700945 -0.03869181
0.0018448442 -0.0053973855 -0.006070994 -0.016260158 -0.0027240808 0.09976759 0.012900101 -0.0073535573
-0.021832218 0.01649303 0.00043854953 0.008726848 -0.0072097024 -0.19605269 -0.22563514 -0.00089848856
-0.0171582 0.0043809377 0.013156283 0.053972263 -0.0038238957 0.05988784 -0.024657788 -0.0064010597
-0.0025216124 -0.010771006 0.015725967 0.0046884944 -0.11057928 -0.0658707 0.004288318 0.0012151253
0.06142554 -0.0067550163 -0.00028757125 0.004038069 0.022610918 -0.011170521 -0.011116311 0.006973644
0.02099557 0.023201311 0.014900627 0.022575421 0.00077338895 0.0020026285 -0.0028850415 -0.0057688095
0.030941842 0.0046403976 0.0021351583 0.0031078306 -0.004678379 -0.12653041 -0.004232811 -0.0024024365
-0.074340746 0.00092807657 -0.06424512 -0.0100604845 0.013656857 -0.01235433 -0.0061156843 -0.008646111
-0.0052675307 -0.0075551425 -0.002618422 -0.1423677 -0.013759774 -0.0068890043 0.0031133555 -0.009700186
0.039730728 -0.009046423 0.0036667488 -0.012472174 -0.02009586 0.0022261327 -0.004541609 0.068847775
0.0075358166 -0.0011831772 0.022080215 -0.0074965116 0.0033229564 0.014602017 0.013949844 0.010072485
-0.010876863 0.14705426 -0.018678518 -0.0025796248 0.006960976 -0.008669556 0.004305282 0.008939599
0.029861981 0.0025155565 -0.0042100213 0.01944379 -0.16312715 0.008224248 0.019974016 0.0015191829
-0.0056048445 -0.0012572443 -0.004169078 -0.04950201 -0.058811005 -0.0029908884 -0.011721124 -0.013514946

a2c_network.mu.weight f4 [6, 256]
00000000: 7bc6 18bd 6ac0 73ba ed31 853b 20fb 13bc
00000010: 7787 a13c 1f73 afba e56b 0b3c 1105 a7bc
00000020: 7fae c8bd 18ed 32bb 85f9 c63b 9bb5 5dbc
00000030: 152c 60ba 56ac f7bb 12ed 263a 5616 efbd
00000040: 8d9e 7b3d f1f3 963a f32d 623d 8751 00bd
00000050: c05c 093a 2637 633b c5d0 0b3c 499c 9b3b
00000060: 9c7a 453b 6b4c 7e3c 0e31 df3a dff6 413c
00000070: 9344 9e3d 9729 42ba bc46 c63d adbe a93d
00000080: 9a61 11bc b410 4bbd 4734 6c3d 4b78 a6bb
00000090: e49e 383b 4b8b 32bc 9aba 643b 4f02 a9bc
000000a0: 3d4f b73c 5ca8 1a3d 9d02 d93c 74a4 9b3b
000000b0: d827 233c 68a0 3bb9 ec9f f7ba bca4 24bb
000000c0: 7680 6a3d 7ab1 2fbc cbfe ac3d e5bd cd3a
000000d0: e2a5 a33c 0b2b 3d3c 7d79 8c3c fc5a 98bb
000000e0: ee1b 61bd 6919 babb 96aa 383a ef1d 23b9
000000f0: eaf2 9dba 1623 093d 4eaa 923c eb32 113e
00000100: cea0 9b3b 626a 603b 2353 5b3c e167 543d
00000110: 3364 623b 0b92 b03a 9cca d73d eb28 93bb
00000120: 9717 5b3d 3c68 593d fe26 7b3b 0895 5d3b
00000130: 5ec3 71be fb7f 31bb 05d8 d43b daea 9f3c
00000140: bbac 0d3e be99 9f3a cc90 3d3b 96d0 203c
00000150: fd0e 323c 5668 fb3c 7703 c73c 38ff f23c
00000160: 2509 77b9 3a8e f33b 57e2 a3bc 48eb 90ba
00000170: 1f9c 843c fdae bc3a 91ed 4b3b ca86 4b3e
00000180: 54d1 393c 0eab 28bc 3b46 863a 4a68 27bd
00000190: ef82 77be 6da8 193d 5dae 403b 7a47 b037
000001a0: 07e9 c6bc 0ef5 a23d b70d 9abb f57e a33a
000001b0: 4f3f 453d ef3f 2c3d e82f 953d 0ecd 033d
000001c0: cbba 6c3c f016 5cbe 04e3 efbd 208d 1ebc
000001d0: 5b17 b23a 79e3 df3b da93 2fbd ba0d 7eb9
000001e0: 96c7 ad3b f35f 5fbc f330 c7bc cdd8 783a
000001f0: 9624 583d b4e0 923d 48f6 ce3a de14 433c
00000200: 16af 84bb 8233 a63d 1cf7 50bd c412 86bd
00000210: 9417 20bd ea74 3c3e 73f5 d539 edd5 6a3c
00000220: 9637 6a3c 98e6 3e3e 1c9a 0ebd 137c d13b
00000230: e7c4 4e3a 7d0a a53b 3733 263c 0ff7 0e3e
00000240: 418f 283d 7d27 323c 3f70 4abc e880 5a3d
00000250: c249 043b f81b 79bd 721d 693c 8328 b23b
00000260: 9df1 0bbc f713 423d eaaa 223b d973 9f3b
00000270: 444a 86bb b663 ffbd 2861 803e 3bad 823c
00000280: acf6 953b a84c 443a 4e32 0dbd 5343 103d
00000290: 7904 ebbc ae25 02bd 80be 173d ffe9 cdbc
000002a0: 273e fe3a e481 f7bb a64a ad3c a162 c8bb
000002b0: 73be 3ebc 3d14 8e3b d641 a6ba 2b53 2bbb
000002c0: 7229 c4bc 2557 123d 99c6 763b 3758 f8ba
000002d0: df98 c13b 2029 b0bb 051f 113a e2c4 c8ba
000002e0: 1a26 4abc e75f eabc 8f82 6dbc 6086 cd3d
000002f0: d0bb fabb 496f 863c e323 5c3d d367 953b
00000300: fc6e 3a3d 63f7 71bd a029 333a 5456 143c
00000310: 155b 483b 0b85 4b3c 030b 86bc e6c1 5d3c
00000320: a7ab 7f3e e57a cebc d17e edbd bda6 f6bb
00000330: 4dae 5cbb e9b3 da3b a688 da3c faed 74bb
00000340: fba1 133c 8e8f 85bb 64fe cab7 6221 8dbc
00000350: 1366 c1bc 8753 383a cacc 973b 0b57 fcba
00000360: e22e cabc 2445 bbbb 0f63 313c cfe0 ca39
00000370: 5b54 b3ba 66e3 5e3c b99e fc3a 8951 26be
00000380: 2167 f53a 7872 a03b 6e45 073d 7234 9a3a
00000390: 1546 1abb 6124 963b 2250 a13b 9a57 083a
000003a0: 34b5 a63b 2037 1abc f318 bebc 84cf bc39
000003b0: 6348 63bc 61a6 e5bb c2f5 643b adf6 c7bd
000003c0: e4cc 713c 39d9 bbbb 575c 093b 9c50 cbbb
000003d0: 9906 bbbd 3616 2b3b 302e 08bd e7fb 883a
000003e0: 26b4 2e3c 7bd3 39bb a54a 9a3b 8dcb 20bd
000003f0: 23db 30be 859f a4b9 e16d 15bd 4bc0 5b3b
-0.03729866 -0.0009298386 0.0040647895 -0.009032041 0.019717915 -0.0013385749 0.008509611 -0.020388158
-0.097989075 -0.0027301963 0.0060722255 -0.013532068 -0.00085514906 -0.007558386 0.00063677237 -0.11674182
0.061430503 0.0011516792 0.0552196 -0.03132775 0.0005239956 0.0034670322 0.008533661 0.0047488553
0.0030132895 0.015521149 0.0017028169 0.011838644 0.07727923 -0.000740671 0.0968146 0.08288322
-0.008873368 -0.049576476 0.057667043 -0.005080258 0.0028170878 -0.010897468 0.0034901262 -0.020630984
0.022376651 0.037758216 0.026490504 0.004749829 0.00995823 -0.00017893466 -0.0018892265 -0.0025122603
0.057251416 -0.010723466 0.084470354 0.0015696852 0.01997656 0.011545907 0.017147774 -0.004649518
-0.054958276 -0.0056792987 0.0007044462 -0.00015556042 -0.0012050543 0.033480726 0.017903473 0.1417958
0.004749394 0.0034243097 0.013386521 0.05185688 0.0034544587 0.0013471259 0.105366915 -0.004490962
0.053489294 0.05307792 0.0038322802 0.0033810753 -0.23609683 -0.002708434 0.006495478 0.019521166
0.13835423 0.0012176556 0.0028925417 0.009815356 0.010867831 0.0306894 0.024293644 0.029662713
-0.00023559162 0.007432726 -0.020005388 -0.0011056447 0.016187726 0.0014395412 0.0031116942 0.19875637
0.011341412 -0.010294689 0.0010244319 -0.040870942 -0.24171041 0.03751414 0.0029400804 2.1014119e-05
-0.024281038 0.07956897 -0.004701342 0.0012473749 0.04815608 0.04205316 0.07284528 0.032177977
0.014448832 -0.21493125 -0.11713222 -0.0096772015 0.0013587283 0.006832537 -0.04286561 -0.00024228441
0.0053033335 -0.013633716 -0.024315333 0.0009492755 0.052769266 0.07171765 0.001578995 0.011906831
-0.004049192 0.08115293 -0.051016912 -0.06546548 -0.039084986 0.18403974 0.000408094 0.01433323
0.014295479 0.18642652 -0.03481494 0.0063929646 0.0007887617 0.0050366507 0.0101440465 0.13961433
0.041152243 0.010873673 -0.012355863 0.05334559 0.0020185565 -0.06081769 0.014228212 0.0054369583
-0.008541492 0.04738232 0.002482111 0.004866105 -0.0040982086 -0.1247019 0.25074124 0.015951743
0.0045765247 0.00074882293 -0.034471802 0.035220455 -0.028688656 -0.031774215 0.03704691 -0.025135992
0.0019397185 -0.007553326 0.02115376 -0.006115273 -0.011642086 0.0043359087 -0.0012684416 -0.0026142101
-0.023945544 0.03572764 0.0037654995 -0.0018947189 0.005908116 -0.005375996 0.00055359333 -0.0015317465
-0.012338186 -0.028610183 -0.01449646 0.100353956 -0.0076517835 0.016410487 0.05374516 0.004559496
0.045516 -0.059073817 0.0006834511 0.009053785 0.0030571867 0.012421857 -0.016362673 0.0135349985
0.24967824 -0.025205085 -0.11596454 -0.007527201 -0.0033673227 0.006674279 0.026676487 -0.003737329
0.009010787 -0.004075951 -2.4198736e-05 -0.017227832 -0.023608243 0.00070314895 0.004632567 -0.0019252015
-0.024680559 -0.0057150293 0.01082684 0.00038695938 -0.0013681756 0.013604021 0.0019273377 -0.1624204
0.0018722751 0.0048964582 0.033025198 0.0011764897 -0.0023540307 0.0045819734 0.0049228827 0.0005201042
0.005087519 -0.009412557 -0.023205256 0.00036012765 -0.013872239 -0.0070083593 0.0034936522 -0.097638465
0.014758322 -0.005732682 0.002095958 -0.0062046777 -0.09132118 0.0026105768 -0.033247173 0.0010451049
0.010663068 -0.0028354812 0.0047086054 -0.03925662 -0.17271094 -0.0003139937 -0.03648174 0.0033531364

a2c_network.mu.bias f4 [6]
00000000: da9f acbe 738d 953e 71cf a5be 0feb bebd
00000010: 1218 62bc 277f aebe
-0.33715707 0.2920948 -0.32384828 -0.093221776 -0.013799684 -0.34081385

exp_avg f4 [6]
00000000: 20f4 8639 8c82 ba3a a3b7 bc3a f7ea 963a
00000010: 91da 6639 287d 293b
0.0002574036 0.001422958 0.001439799 0.0011514117 0.00022015932 0.0025861952

exp_avg_sq f4 [6]
00000000: 7cb1 3738 65af 1e38 714a 2f38 3caf 0538
00000010: dd71 f437 2372 0038
4.3795895e-05 3.7833484e-05 4.179258e-05 3.187287e-05 2.9140088e-05 3.0623876e-05

exp_avg f4 [256, 40]
00000000: 7689 2c38 b570 2cb8 87af dbb3 7689 2cb8
00000010: 87af dbb3 0000 0000 4856 203a eb4f e0b9
00000020: 6e57 cf3a 27e3 573a 376c 24ba 200b 803a
00000030: aec5 51ba 0b03 03b9 e90c 16b8 c948 a9b7
00000040: 3924 74b8 5d06 cd38 18f6 48b5 1b9b ca39
00000050: f2ed 24b9 1225 1bb7 8edf d037 1bdb 3fb7
00000060: 6fea 0fb8 463e ea36 e4d3 05b6 404d 92b6
00000070: 2bc4 1537 6baa 3cb7 0637 9e37 5563 b033
00000080: 0000 0000 0400 0080 7919 4434 093b 1db4
00000090: 0400 0080 7919 4434 aa7b 1d34 0400 0080
000000a0: c77f 85b6 214b 8536 1b13 2a32 c77f 8536
000000b0: 1b13 2a32 0000 0000 ac7e 8eb7 f5ff deb6
000000c0: f09e 8db9 071f d3b8 7cb7 e836 77b3 b0b8
000000d0: 065d 1b39 d941 ab39 d94b bc37 b595 82b7
000000e0: 819a 8db7 1467 a6b8 411f d733 553b 7c37
000000f0: 08a7 9b39 f070 d535 18eb 7b36 f7a3 7738
00000100: 25ad 1436 5cd2 6ab7 e144 37b7 a850 c535
00000110: 3ced 9a37 a1b4 69b8 133c b9b6 9634 0033
00000120: 0000 0000 0400 0080 3fc4 1bb3 ca71 f333
00000130: 0400 0080 3fc4 1bb3 c5cb f2b3 0400 0080
00000140: 3f5f cb38 1d63 cbb8 9292 81b4 3f5f cbb8
00000150: 9292 81b4 0000 0000 0eef e83a 8696 80ba
00000160: ccf3 583b e2c5 e73a 5fb3 d5ba 665a 223b
00000170: 2560 c8ba ac11 2bb9 3604 c836 8722 2fb7
00000180: b83f a9b9 cb8c 62b9 4b8b 91b5 0dda a73a
00000190: 72f7 a9b8 d7bd fa35 f5f5 3b38 4c07 b8b7
000001a0: 2507 69b7 4688 4f37 8023 33b7 23e4 3e37
000001b0: 1c93 6437 2b58 eeb5 0aa9 0338 ac80 8232
000001c0: 0000 0000 0400 0080 011d 7035 7aee 17b4
000001d0: 0400 0080 011d 7035 fd8a 1734 0400 0080
000001e0: c30e 5338 71df 52b8 0782 06b4 c30e 53b8
000001f0: 0782 06b4 0000 0000 2aa5 583a 89e5 05ba
00000200: 8502 d63a 54fe 723a eb25 27ba 35ac a13a
00000210: 5c79 64ba dc52 0fb9 c595 b8b7 d455 03b8
00000220: 62a4 2eb9 35c8 b6b8 14e3 55b5 c4ab 053a
00000230: b6f8 8eb9 e098 ebb6 84c6 4038 d455 cb37
00000240: e4c8 a9b7 3f10 ca37 12e2 0137 9adf 9c37
00000250: 3b78 d937 7684 31b8 c71e 0838 3b1f e0b3
00000260: 0000 0000 0400 0000 1744 f934 8de8 e9b3
00000270: 0400 0000 1744 f934 eeea ea33 0400 0000
00000280: f4be 8c37 e3e1 8cb7 6793 33b3 f4be 8cb7
00000290: 6793 33b3 0000 0000 aca7 8539 ebf1 89b9
000002a0: 2565 0239 bfd0 a039 37a5 62b8 a2b7 7c39
000002b0: 6c94 0fb8 0678 1eb9 885e 8f37 811f bf36
000002c0: 6211 51b6 9402 31b9 db65 b2b4 c88a 06b9
000002d0: fc80 d538 e4bc d135 8400 96b7 9031 3a38
000002e0: 2b03 a438 3356 a0b5 62b9 7fb6 5f30 cf36
000002f0: ef26 d9b6 15a1 c3b7 4afc 4237 cfb0 a432
00000300: 0000 0000 0400 0080 2936 5ab4 299c 3134
00000310: 0400 0080 2936 5ab4 f417 31b4 0400 0080
00000320: 81ea 05b6 673e 0536 1705 aa31 81ea 0536
00000330: 1705 aa31 0000 0000 edc3 1d39 c0fa f2b7
00000340: 90aa 183a 83bc 8e38 8d2c 96b8 7e85 5f39
00000350: b58a 54b9 5baa 24b9 45bf f1b7 a109 53b7
00000360: 8def 4439 1dd6 5138 0a9e 6832 9a1d 8c39
00000370: ac17 0eb9 72ed 8436 32c5 0c37 6f59 a637
00000380: 8181 0fb8 d445 ec36 6f26 1536 8af9 bdb5
00000390: 261e bfb5 e57b 11b8 f043 3bb6 635c 4532
000003a0: 0000 0000 0400 0000 77d5 0133 49b8 1cb4
000003b0: 0400 0000 77d5 0133 d2a1 1c34 0400 0000
000003c0: 7f16 cc38 54d0 cbb8 a2f1 81b4 7f16 ccb8
000003d0: a2f1 81b4 0000 0000 3c03 e43a d17c 86ba
000003e0: e734 6a3b aa9d e63a 8bfa c8ba 7e58 343b
000003f0: 1736 eaba c47e 5fb9 62f2 e737 af67 58b8
4.1136016e-05 -4.1112962e-05 -1.02299104e-07 -4.1136016e-05 -1.02299104e-07 0.0 0.00061163725 -0.00042784153
0.0015818903 0.00082354475 -0.0006272229 0.000976894 -0.0008002174 -0.00012494267 -3.577481e-05 -2.0180263e-05
-5.820787e-05 9.776347e-05 -7.486392e-07 0.00038644005 -0.000157289 -9.247351e-06 2.4899633e-05 -1.1435502e-05
-3.431219e-05 6.980993e-06 -1.994188e-06 -4.360132e-06 8.926766e-06 -1.1245352e-05 1.886069e-05 8.213707e-08
0.0 -6e-45 1.826319e-07 -1.4643241e-07 -6e-45 1.826319e-07 1.4666753e-07 -6e-45
-3.978584e-06 3.972455e-06 9.899646e-09 3.978584e-06 9.899646e-09 0.0 -1.6986705e-05 -6.645913e-06
-0.00027012033 -0.00010067043 6.935499e-06 -8.425762e-05 0.00014816606 0.00032664722 2.2446666e-05 -1.556692e-05
-1.6880456e-05 -7.9346966e-05 1.0017403e-07 1.5034185e-05 0.00029688352 1.5902606e-06 3.7538757e-06 5.9042093e-05
2.2154502e-06 -1.3996465e-05 -1.0923687e-05 1.4701118e-06 1.8468701e-05 -5.5719753e-05 -5.520423e-06 2.985015e-08
0.0 -6e-45 -3.6267235e-08 1.13362674e-07 -6e-45 -3.6267235e-08 -1.13060686e-07 -6e-45
9.697535e-05 -9.6982556e-05 -2.4134766e-07 -9.697535e-05 -2.4134766e-07 0.0 0.0017771439 -0.0009810484
0.0033104299 0.0017682875 -0.0016304067 0.002477312 -0.0015287442 -0.00016314414 5.9609547e-06 -1.0438852e-05
-0.00032281666 -0.00021605489 -1.0843881e-06 0.0012806073 -8.104638e-05 1.8681702e-06 4.481334e-05 -2.1937907e-05
-1.3889546e-05 1.236989e-05 -1.0677497e-05 1.1378e-05 1.3624111e-05 -1.7758042e-06 3.1390264e-05 1.5192505e-08
0.0 -6e-45 8.9449173e-07 -1.4149728e-07 -6e-45 8.9449173e-07 1.4113535e-07 -6e-45
5.0320068e-05 -5.0275998e-05 -1.2527026e-07 -5.0320068e-05 -1.2527026e-07 0.0 0.00082643575 -0.0005107751
0.0016327655 0.0009269465 -0.00063761947 0.0012334647 -0.0008715594 -0.0001366841 -2.2004251e-05 -3.1312768e-05
-0.0001665517 -8.715728e-05 -7.9679126e-07 0.00050991424 -0.00027269655 -7.0213428e-06 4.596125e-05 2.4239453e-05
-2.0239917e-05 2.4087842e-05 7.741635e-06 1.8700772e-05 2.5924403e-05 -4.2323452e-05 3.245359e-05 -1.04364936e-07
0.0 6e-45 4.6429406e-07 -1.0892209e-07 6e-45 4.6429406e-07 1.09392076e-07 6e-45
1.677822e-05 -1.6794487e-05 -4.1810747e-08 -1.677822e-05 -4.1810747e-08 0.0 0.00025492662 -0.0002631092
0.00012435445 0.00030673106 -5.4036467e-05 0.00024101001 -3.4232085e-05 -0.00015112766 1.7090948e-05 5.695911e-06
-3.1153545e-06 -0.00016880996 -3.3229193e-07 -0.00012830936 0.00010180657 1.5626688e-06 -1.7881634e-05 4.4392014e-05
7.8207195e-05 -1.1946016e-06 -3.8105868e-06 6.174712e-06 -6.4716364e-06 -2.3320821e-05 1.1622042e-05 1.9172516e-08
0.0 -6e-45 -2.0322535e-07 1.654122e-07 -6e-45 -2.0322535e-07 -1.6493124e-07 -6e-45
-1.9955044e-06 1.9854867e-06 4.94823e-09 1.9955044e-06 4.94823e-09 0.0 0.00015045675 -2.8965413e-05
0.00058237556 6.806201e-05 -7.1608556e-05 0.00021316667 -0.00020269568 -0.00015703721 -2.8818506e-05 -1.2578822e-05
0.00018781256 5.002889e-05 1.3540111e-08 0.00026724936 -0.00013550994 3.961549e-06 8.390563e-06 1.9830388e-05
-3.4214467e-05 7.041477e-06 2.2225101e-06 -1.4154223e-06 -1.4239383e-06 -3.468608e-05 -2.7904716e-06 1.14879155e-08
0.0 6e-45 3.0229298e-08 -1.4595675e-07 6e-45 3.0229298e-08 1.4587502e-07 6e-45
9.731668e-05 -9.7185984e-05 -2.4203933e-07 -9.731668e-05 -2.4203933e-07 0.0 0.0017395983 -0.0010260587
0.0035737099 0.0017594595 -0.0015333457 0.0027518566 -0.0017868903 -0.00021314161 2.7650214e-05 -5.1594976e-05
