logs/rl_games/yam_cube_sort_8192/2026-02-01_06-46-50/nn/last_yam_cube_sort_8192_ep_550_rew_730.8751.pth (torch, 953168 bytes, 30 tensors)

value_mean_std.running_mean f8 [1]
0.09041472890650212
00000000: f6e9 ba6f 6b25 b73f

value_mean_std.running_var f8 [1]
0.04277387046842725
00000000: 5a0a 92ed 74e6 a53f

value_mean_std.count f8 []
288358401.0
00000000: 0000 0001 0030 b141

running_mean_std.running_mean f8 [40]
0.997890507105805 0.0021092362691065335 2.4968927383638375e-07 0.0021094859583803698 2.4968927383638375e-07 0.0 -0.04229429548640148 0.07476920570599309
0.14235271512687087 -0.04579199391595713 0.07326906204220872 0.10886221869484673 0.07834764797213022 0.29981350052756967 0.0012492965330554156 0.7627012462168508
0.3002999015321302 0.0014612027783588246 0.7627013814652096 0.30020545493194606 0.001406245033141578 0.762701584757685 0.00011753130342419243 0.0001182982871640492
-0.00013663707686423581 0.0001212674465165655 0.00012307002566402405 -0.00013552918488014796 0.00012143678436178846 0.00012636340013654472 -0.00013542290872133403 0.45999925264554076
0.0 0.7599999851920388 0.22000068273543835 0.13856455215073413 0.7599999851920388 0.22000068273543835 -0.13856455215073413 0.7599999851920388
00000000: e543 a012 b8ee ef3f 0a81 7399 6347 613f
00000010: 9de8 260a a1c1 903e 41d2 7ba6 e947 613f
00000020: 9de8 260a a1c1 903e 0000 0000 0000 0000
00000030: ebc8 d70f 99a7 a5bf a750 411d 1324 b33f
00000040: 50bd fb1f 9d38 c23f 1249 9358 0c72 a7bf
00000050: 4fa6 47e1 c2c1 b23f 537a 10f5 64de bb3f
00000060: 0742 c269 970e b43f 7b92 eaf6 2430 d33f
00000070: 7d9e 28f0 ed77 543f 8cd5 a371 0c68 e83f
00000080: 29a4 0414 1d38 d33f 2506 5689 baf0 573f
00000090: 213a 40ba 0c68 e83f 5add c0f0 9036 d33f
000000a0: 1640 5c1b 380a 573f 3a88 6427 0d68 e83f
000000b0: f363 f86a 64cf 1e3f 1da5 2119 dd02 1f3f
000000c0: 8558 988d c7e8 21bf 430b 10de 1eca 1f3f
000000d0: 3c1f 7f78 8b21 203f f781 5bd5 9ac3 21bf
000000e0: 9834 c811 7cd5 1f3f c606 8d57 0d90 203f
000000f0: 84da 9ced 09c0 21bf b002 93b4 a070 dd3f
00000100: 0000 0000 0000 0000 8187 2b7d eb51 e83f
00000110: f722 b97c fb28 cc3f 2fa7 efb5 7bbc c13f
00000120: 8187 2b7d eb51 e83f f722 b97c fb28 cc3f
00000130: 2fa7 efb5 7bbc c1bf 8187 2b7d eb51 e83f

running_mean_std.running_var f8 [40]
0.0021051135894858664 0.0021048581165036178 2.566326412584413e-07 0.0021051067600276778 2.566326412584413e-07 6.935813162121734e-09 0.01998395011392795 0.014870788694166057
0.005344977593731023 0.013879457989135025 0.009233663598357965 0.01487108777652844 0.019244716907490075 0.0019763424865853647 0.0028044396551107622 9.828212782564178e-08
0.0019916411387148046 0.0028087746715432247 1.3110219784619193e-07 0.0020153180281577278 0.002796100834981116 1.943880818611505e-07 0.00011181654600402253 0.00029028024927287564
2.0677749171067266e-05 0.00011450240580808647 0.0002794526446015344 2.0825834856370916e-05 0.00011912596395891411 0.00029319730331870547 2.2132327028377347e-05 8.40356159186025e-09
6.935813162121734e-09 1.0941938716237052e-08 7.272098679772666e-09 7.0695295113109e-09 1.0941938716237052e-08 7.272098679772666e-09 7.0695294205428505e-09 1.0941938716237052e-08
00000000: 3bba ad40 be3e 613f ea42 bd18 353e 613f
00000010: 53ba e24a ea38 913e 8687 0b96 ba3e 613f
00000020: 53ba e24a ea38 913e ceb9 28d9 01ca 3d3e
00000030: 20a3 bc30 ac76 943f d27b db78 9374 8e3f
00000040: af26 687f 9de4 753f 7a42 3251 d56c 8c3f
00000050: b9ee 6a59 19e9 823f b6c3 3f9d bb74 8e3f
00000060: bf2b f416 e3b4 933f a8fc 0ecb b030 603f
00000070: be17 4613 56f9 663f 8eb3 407a e561 7a3e
00000080: 7df7 cb31 c650 603f 8243 656b 6d02 673f
00000090: 4e0c af20 a398 813e 5f08 b4a0 6d82 603f
000000a0: 93de 8f34 d9e7 663f 907f 84a6 1f17 8a3e
000000b0: 9864 09a2 e14f 1d3f 66a5 632d 1806 333f
000000c0: dbad 651a a4ae f53e b594 605a 2004 1e3f
000000d0: b8f2 26f8 6f50 323f e0d4 5279 64d6 f53e
000000e0: 12e1 2b7a 683a 1f3f 8042 3bd4 0837 333f
000000f0: 99d7 adee 1935 f73e c359 d426 e80b 423e
00000100: ceb9 28d9 01ca 3d3e c951 00f9 647f 473e
00000110: 0987 78ce c13b 3f3e 6bb0 90a7 075d 3e3e
00000120: c951 00f9 647f 473e 0987 78ce c13b 3f3e
00000130: 6c50 06a1 075d 3e3e c951 00f9 647f 473e

running_mean_std.count f8 []
144179201.0
00000000: 0000 0002 0030 a141

a2c_network.sigma f4 [6]
-1.6294329 -1.6990429 -1.7889624 -1.9199706 -2.1183627 0.18666467
00000000: 4291 d0bf 3d7a d9bf b8fc e4bf 99c1 f5bf
00000010: 4193 07c0 0625 3f3e

a2c_network.actor_mlp.0.weight f4 [256, 40]
-0.11203384 0.059107095 0.42903823 0.28854886 0.45389405 -0.069123045 -0.07155 0.014327419
0.07461143 -0.3332632 -0.26249993 0.047966223 -0.005157995 -0.053517923 0.0058481665 -0.07888244
0.040879447 -0.036445387 0.032165837 -0.014863374 -0.0012973652 0.23549686 0.07228161 0.08315202
0.010713003 -0.062364377 -0.04920091 -0.27833462 -0.03944259 -0.066804595 -0.23152524 -0.2859101
0.15214519 -0.13776727 0.5170074 -0.256396 -0.11364149 0.737882 0.19540052 0.12410109
-0.050516084 -0.02047168 -0.05871174 -0.088603884 -0.046640527 -0.037520524 0.13273254 -0.49445498
-0.88135254 0.11301092 0.13163488 0.068284824 0.01501351 0.0038409121 0.08097058 -0.026080152
0.21077254 -0.2544005 0.4036989 -0.113298714 0.0122415 0.15188448 -0.045061745 -0.19215934
0.2019824 0.0009902213 -0.23000242 0.20204857 -0.22619045 0.3207423 0.15859228 0.3721905
0.048724327 -0.15386216 -0.11262957 -0.76525426 0.018332826 -0.14791304 0.64557517 -0.10104955
-0.22110106 0.13674545 0.3028591 0.12077455 0.20528492 -0.092243925 -0.12200686 -0.21284321
0.065252915 -0.122137494 0.17114243 0.12682131 -0.124035574 -0.015655534 -0.018506136 -0.17681324
0.01441262 0.026094003 -0.10620014 -0.00041470004 -0.012284629 0.4774002 -0.06913477 0.05223854
0.108871676 -0.43363336 -0.20940447 0.117599644 0.04142836 -0.16816144 0.07698947 -0.47478378
-0.01732688 -0.10131122 0.7656045 -0.26586747 0.10153962 0.67715114 0.20741561 -0.068448216
-0.094313145 0.26777357 -0.16838579 0.09366764 -0.122351386 -0.023720339 -0.09837451 -0.0027067235
0.06264921 -0.22879058 -0.3007399 0.055641048 -0.06815602 -0.0071373093 -0.024092747 0.00038173035
0.01399134 -0.022470675 0.23869793 -0.01421342 -0.038902063 -0.15361574 -0.015985651 -0.10388373
0.18029217 0.1533255 -0.07895228 -0.026915452 0.09612012 0.0035432118 -0.03428018 -0.11800039
0.10106748 0.13142645 0.6125701 0.032370254 -0.0021491237 0.61878204 -0.02440962 0.039852496
-0.16281404 -0.020002937 0.43087357 0.08489585 0.28985608 -0.09532777 -0.6308513 -0.31409094
-0.18902797 0.13954629 0.05300476 0.16612206 -0.16506259 -0.018752862 -0.01718156 0.22485384
-0.04864698 -0.10839321 -0.046709836 -0.094321154 0.030925531 -0.46663615 -0.16228046 -0.13389713
-0.050433367 -0.19742528 0.34919295 0.17510043 -0.4799831 0.00021405514 -0.061743595 1.028552
0.07591139 0.072947234 -0.8938748 0.8328098 -0.061654698 -1.0969605 -0.9331446 -0.20799796
0.015637409 -0.03641943 0.31054616 -0.03581945 0.3135549 -0.11128607 -0.16796552 0.051591072
0.01766872 0.11197889 -0.13900405 -0.033067197 -0.019664988 -0.020681215 -0.050716303 0.19161591
-0.014161581 0.016202277 -0.28706938 0.0627024 -0.02671754 0.20649855 0.034142524 0.26997018
0.32254383 0.18747148 -0.06040919 -0.09982072 0.028554587 0.09958505 0.18876697 -0.008196566
0.098157085 0.13483721 0.106987044 0.34239814 -0.11338101 -0.00699309 -0.2853109 -0.1408397
-0.23187599 0.109551206 -0.18083155 0.11475651 -0.23163413 -0.050194655 -0.15418726 0.10082445
0.21670355 0.038134422 -0.07307658 0.04692748 -0.1594689 -0.045275412 0.09086484 0.29840887
00000000: ff71 e5bd 481a 723d e6aa db3e adbc 933e
00000010: cd64 e83e 6290 8dbd ce88 92bd 8dbd 6a3c
00000020: e1cd 983d 79a1 aabe 6466 86be 3b78 443d
00000030: 6604 a9bb 9c35 5bbd faa1 bf3b 1e8d a1bd
00000040: 3571 273d c247 15bd 53c0 033d 8285 73bc
00000050: 5a0c aaba 1726 713e 6108 943d 9b4b aa3d
00000060: 9785 2f3c ca71 7fbd e586 49bd e081 8ebe
00000070: 8e8e 21bd d9d0 88bd f414 6dbe cf62 92be
00000080: f3cb 1b3e dd12 0dbe 995a 043f 5646 83be
00000090: dfbc e8bd d6e5 3c3f 1317 483e b628 fe3d
000000a0: f4e9 4ebd 3ab4 a7bc b97b 70bd f475 b5bd
000000b0: 230a 3fbd 1faf 19bd 0aeb 073e 3429 fdbe
000000c0: 52a0 61bf 4572 e73d 4bcb 063e ead8 8b3d
000000d0: 3afb 753c d0b7 7b3b e7d3 a53d 0ba6 d5bc
000000e0: c2d4 573e c840 82be 9fb1 ce3e 2809 e8bd
000000f0: 9390 483c 9b87 1b3e aa92 38bd 6bc5 44be
00000100: 79d4 4e3e 50ca 813a c185 6bbe d2e5 4e3e
00000110: 789e 67be 5638 a43e 0466 223e c18f be3e
00000120: 2993 473d 0b8e 1dbe 55aa e6bd b4e7 43bf
00000130: b92e 963c 8476 17be 6a44 253f 11f3 cebd
00000140: 5168 62be 0007 0c3e 5910 9b3e a658 f73d
00000150: 3636 523e 62ea bcbd bcde f9bd 92f3 59be
00000160: 52a3 853d 3923 fabd f63f 2f3e 72dd 013e
00000170: 5d06 febd 0940 80bc 2e9a 97bc 880e 35be
00000180: e922 6c3c 17c3 d53c 767f d9bd 196c d9b9
00000190: 7845 49bc cd6d f43e 8896 8dbd 14f8 553d
000001a0: 1df8 de3d 3105 debe 206e 56be 15d8 f03d
000001b0: c9b0 293d 8332 2cbe a8ac 9d3d dc16 f3be
000001c0: 1af1 8dbc 427c cfbd a8fe 433f c81f 88be
000001d0: 01f4 cf3d c759 2d3f c264 543e 942e 8cbd
000001e0: 4027 c1bd 9e19 893e 536d 2cbe d2d4 bf3d
000001f0: 5d93 fabd 2851 c2bc 9378 c9bd 4963 31bb
00000200: 3b4e 803d 1448 6abe 95fa 99be dee7 633d
00000210: 6295 8bbd 17e0 e9bb 275e c5bc fb22 c839
00000220: ef3b 653c 6c14 b8bc 3b6d 743e 68df 68bc
00000230: c557 1fbd 724d 1dbe 57f4 82bc fec0 d4bd
00000240: 839e 383e 5c01 1d3e bcb1 a1bd cb7d dcbc
00000250: a0da c43d 3b35 683b 6069 0cbd 30aa f1bd
00000260: 78fc ce3d a894 063e 65d1 1c3f ac96 043d
00000270: 50d8 0cbb 8068 1e3f aff6 c7bc 5f3c 233d
00000280: b9b8 26be 33dd a3bc 769b dc3e e0dd ad3d
00000290: 0468 943e 353b c3bd 797f 21bf 87d0 a0be
000002a0: 8c90 41be 39e5 0e3e 851b 593d e71b 2a3e
000002b0: 2b06 29be 9a9f 99bc 58c0 8cbc 1640 663e
000002c0: 0e42 47bd 42fd ddbd d052 3fbd 732b c1bd
000002d0: 8a57 fd3c efea eebe d92c 26be 541c 09be
000002e0: 3893 4ebd da29 4abe 6bc9 b23e 874d 333e
000002f0: 58c0 f5be fd73 6039 dae6 7cbd 98a7 833f
00000300: 6e77 9b3d 5c65 953d fbd4 64bf 0633 553f
00000310: a389 7cbd 3469 8cbf 91e2 6ebf 6bfd 54be
00000320: 061a 803c 8a2c 15bd e8ff 9e3e 6ab7 12bd
00000330: 458a a03e f3e9 e3bd 27ff 2bbe 2951 533d
00000340: febd 903c 3055 e53d 1457 0ebe 7871 07bd
00000350: 7818 a1bc a76b a9bc e6bb 4fbd f636 443e
00000360: fa05 68bc a3ba 843c c2fa 92be 1e6a 803d
00000370: bede dabc 5b74 533e 08d9 0b3d 8839 8a3e
00000380: 7724 a53e 86f8 3f3e a06f 77bd ce6e ccbd
00000390: 4feb e93c 3ff3 cb3d 214c 413e e44a 06bc
000003a0: 9506 c93d c412 0a3e 061c db3d cf4e af3e
000003b0: 4e34 e8bd 4a26 e5bb 4514 92be 4838 10be
000003c0: e670 6dbe 625c e03d e82b 39be 7605 eb3d
000003d0: 7f31 6dbe e998 4dbd 44e3 1dbe 0d7d ce3d
000003e0: 89e7 5d3e d732 1c3d 2da9 95bd 0737 403d
000003f0: d14b 23be b672 39bd 5817 ba3d 0cc9 983e

a2c_network.actor_mlp.0.bias f4 [256]
-0.010027951 -0.04089912 0.006309907 0.027127193 -0.51095045 -0.058287468 -0.03700141 -0.47785193
-0.24174692 -0.09964339 0.18183573 -0.06436857 0.06943068 -0.15314719 0.012631224 0.0074096047
-0.14062369 -0.19746587 -0.079721466 0.27929118 0.010828191 -0.19891861 0.011124962 -0.04356353
0.017197859 0.009917787 -0.20980611 -0.14920782 -0.7774811 0.2196864 -0.04933219 -0.28264737
-0.9650993 -0.07375099 -1.0448905 -0.350339 0.019162782 -0.08213374 -0.749143 -0.19873077
0.029054414 -0.28064317 -0.44923133 0.05876816 0.06399433 0.19138578 -0.057273578 -0.42504466
-0.0491122 0.05920244 -0.12267678 0.03846733 -0.099901766 -0.024401382 -0.02094542 -0.033706434
-0.7576736 -0.08732724 -0.022146434 -0.120678276 -0.61863494 0.0031221134 0.079908796 0.038861245
0.0056029656 -0.004714847 -0.35465685 -0.22630258 -0.4911617 0.06897312 -0.23156202 -0.19751757
-0.02600202 -0.05313086 -0.112415224 -0.06523569 0.10638569 -0.10052566 0.053110827 -0.17641911
0.015503826 0.073202685 0.012437628 0.033218384 -0.2819354 -0.25280797 0.4086725 -0.2371421
0.026343968 0.0085915085 0.08449867 -0.3016148 0.14394157 -0.6176181 -0.056734215 -0.12334974
0.06135587 -0.064352155 -0.13099532 -0.4477071 -0.11798231 -0.46463874 -0.35909343 -0.17596541
-0.82789713 -0.10781761 0.032885082 -0.07022924 -0.19464359 -0.29641736 -0.031538103 -0.072465695
-0.08716058 0.25335842 0.028655557 -0.022806626 -0.17303447 -0.050469875 0.016097786 -0.5741624
-0.0050656707 0.022476492 0.20719242 -0.008099632 0.29876146 0.13926889 0.030125143 -0.09794694
-0.039707344 -0.46345964 -0.109618336 -0.61421794 0.028687987 -0.15082806 -0.10843024 -0.0827687
-0.16114548 -0.04809356 0.20415501 -0.99517024 -0.7991142 0.0640728 -0.5423954 -0.03278415
-0.007767707 0.021412205 -0.29995304 -0.797895 0.024133995 -0.07653956 -0.00793056 0.118007235
-0.008784199 -0.06016507 -0.03577303 -0.012974675 -0.0008828504 -0.033612404 -0.17928194 -0.0023297528
-0.32414082 0.106645 0.08840613 -0.41411057 -0.7823 0.011199764 -0.013786727 -0.3420796
0.19465765 0.04638081 0.0801564 -0.1822316 0.03562584 -0.034411505 -0.037620876 -0.2805599
-0.09028498 -0.1740715 -0.5789527 0.19963974 0.047323532 -0.01439098 -0.11172531 -0.08843348
0.016190598 -0.2774675 0.056514576 -0.07285081 -0.18127795 0.0036740971 -0.1156065 0.021521064
-0.61279184 -0.31345457 -0.16911949 -0.057580635 -0.7149422 0.08614305 -0.029389266 -0.024336623
-0.16989551 0.027937297 -0.062373724 0.055395957 0.16568257 0.019014662 0.03243395 0.014381042
-0.010483852 -0.15177312 -0.08445075 -0.46698856 -0.024903167 -0.21608476 -0.08432581 -0.016407141
-0.42210412 -0.14763089 0.0035694006 -0.056924995 0.038414676 0.0647033 0.108369865 -0.10977503
-0.46032944 -0.057600066 0.027977042 0.022756 -0.09139489 -0.110972434 0.26591155 -0.27518216
0.013839709 0.6176006 0.03313648 -0.45470756 -0.037267074 0.10184599 0.0059101065 -0.07561343
0.047610372 -0.05462403 -0.9524793 -0.5130271 -0.032762084 -0.022360453 0.02642475 0.028352804
0.13623126 -0.0068101347 -0.34093526 0.028336214 -0.04161594 -0.08574511 0.009770245 -0.03265541
00000000: 464c 24bc d685 27bd 56c3 ce3b d939 de3c
00000010: a6cd 02bf d7be 6ebd ca8e 17bd 02a9 f4be
00000020: 818c 77be d511 ccbd 2533 3a3e abd3 83bd
00000030: ac31 8e3d 9ed2 1cbe 31f3 4e3c 45cc f23b
00000040: a8ff 0fbe 7e34 4abe 0245 a3bd 41ff 8e3e
00000050: ba68 313c 52b1 4bbe 7945 363c ac6f 32bd
00000060: 86e2 8c3c 377e 223c 6ad7 56be efc9 18be
00000070: 0009 47bf 79f5 603e 8d10 4abd 28b7 90be
00000080: bf10 77bf c20a 97bd f9be 85bf a25f b3be
00000090: 44fb 9c3c bc35 a8bd d6c7 3fbf 1480 4bbe
000000a0: 8603 ee3c 76b0 8fbe a601 e6be e2b6 703d
000000b0: 760f 833d a2fa 433e b397 6abd 749f d9be
000000c0: e029 49bd 427e 723d f73d fbbd eb8f 1d3d
000000d0: 4c99 ccbd 68e5 c7bc bb95 abbc c20f 0abd
000000e0: e6f6 41bf a0d8 b2bd 706c b5bc 2c26 f7bd
000000f0: dc5e 1ebf 5f9c 4c3b 39a7 a33d f82c 1f3d
00000100: 1599 b73b 017f 9abb 9595 b5be ddbb 67be
00000110: 8c79 fbbe c741 8d3d 981e 6dbe 0c42 4abe
00000120: 3002 d5bc bf9f 59bd f439 e6bd 4a9a 85bd
00000130: bee0 d93d 66e0 cdbd bd8a 593d 36a7 34be
00000140: c203 7e3c 4aeb 953d 31c7 4b3c 0010 083d
00000150: d659 90be 0c70 81be 863d d13e 61d5 72be
00000160: 4ecf d73c 66c3 0c3c a40d ad3d 416d 9abe
00000170: 6b65 133e 381c 1ebf 2362 68bd ca9e fcbd
00000180: 4b50 7b3d 10cb 83bd a323 06be dd39 e5be
00000190: b6a0 f1bd 21e5 edbe 18db b7be 4730 34be
000001a0: 11f1 53bf 7bcf dcbd 82b2 063d 59d4 8fbd
000001b0: a650 47be 04c4 97be 192e 01bd e568 94bd
000001c0: 3f81 b2bd 32b8 813e 0fbf ea3c f6d4 babc
000001d0: f32f 31be 80b9 4ebd 81df 833c 4ffc 12bf
000001e0: edfd a5bb 9f20 b83c 402a 543e 52b4 04bc
000001f0: 43f7 983e 819c 0e3e 01c9 f63c 6898 c8bd
00000200: 2ba4 22bd 954a edbe 947f e0bd 633d 1dbf
00000210: 1203 eb3c ac72 1abe ac10 debd a382 a9bd
00000220: 5203 25be c1fd 44bd 030e 513e 7ac3 7ebf
00000230: c092 4cbf 9a38 833d 6dda 0abf ac48 06bd
00000240: 4088 febb a668 af3c 7293 99be d942 4cbf
00000250: a8b4 c53c c6c0 9cbd 2eef 01bc c7ad f13d
00000260: 9aeb 0fbc a66f 76bd be86 12bd bb93 54bc
00000270: 166f 67ba 29ad 09bd af95 37be c4ae 18bb
00000280: c9f5 a5be b268 da3d 460e b53d 4d06 d4be
00000290: d044 48bf 377f 373c b9e1 61bc 0f25 afbe
000002a0: 5654 473e cef9 3d3d 0a29 a43d ec9a 3abe
000002b0: 67ec 113d 14f3 0cbd 5918 1abd 8ca5 8fbe
000002c0: 55e7 b8bd cd3f 32be 3f36 14bf 5c6e 4c3e
000002d0: 52d6 413d 25c8 6bbc 3dd0 e4bd 9d1c b5bd
000002e0: 25a2 843c 3810 8ebe d47b 673d ce32 95bd
000002f0: eda0 39be 1fc9 703b 1ac3 ecbd f14c b03c
00000300: eddf 1cbf 1e7d a0be a92d 2dbe acd9 6bbd
00000310: 7406 37bf c46b b03d c2c1 f0bc 995d c7bc
00000320: 17f9 2dbe c2dc e43c 977b 7fbd dfe6 623d
00000330: b1a8 293e a3c4 9b3c 76d9 043d 769e 6b3c
00000340: 76c4 2bbc 6a6a 1bbe 84f4 acbd 2019 efbe
00000350: ba01 ccbc 5345 5dbe 03b3 acbd 4568 86bc
00000360: 081e d8be 8d2c 17be 9bec 693b 2f2a 69bd
00000370: b558 1d3d 2a83 843d 05f1 dd3d bbd1 e0bd
00000380: 4db0 ebbe 0cee 6bbd 1c30 e53c ca6a ba3c
00000390: 3e2d bbbd 8445 e3bd 8f25 883e ade4 8cbe
000003a0: f2bf 623c 131b 1e3f 1eba 073d 6ecf e8be
000003b0: 5ca5 18bd a194 d03d 91a9 c13b 37db 9abd
000003c0: 1803 433d 72bd 5fbd afd5 73bf be55 03bf
000003d0: 8931 06bd 452d b7bc b878 d83c 2444 e83c
000003e0: 3580 0b3e 8d27 dfbb 118f aebe 5921 e83c
000003f0: 7a75 2abd 229b afbd 6113 203c aec1 05bd

a2c_network.actor_mlp.2.weight f4 [256, 256]
0.017304657 -0.061844725 -0.16109578 -0.007259224 0.057000816 0.14522775 -0.031002663 0.050936256
0.040257853 0.004699781 -0.041269116 -0.117741704 -0.046326455 0.022298973 -0.15373394 -0.08630589
0.011187802 -0.056719393 -0.07466216 -0.1352285 0.018083844 -0.20435706 0.12308401 -0.03671735
-0.00070108345 -0.121795595 -0.117912345 0.010073548 0.12416326 -0.0077085397 0.115422204 -0.040102325
0.080655165 -0.044502802 0.0827106 -0.113648556 0.06856072 0.03776149 0.07435104 0.14589909
-0.07847234 0.15024117 0.037629228 0.048841886 -0.06610165 0.026139162 -0.06143971 0.020507932
-0.07184008 -0.007937829 -0.06898241 -0.13189289 -0.07723229 0.02258001 0.002267181 -0.0031953037
-0.08169058 -0.07424154 0.06558133 0.18686444 0.22546253 -0.005199666 0.15127079 -0.02362521
-0.029108398 0.0426671 0.2574639 0.14028996 0.10950234 -0.12505876 -0.019720217 0.03784809
0.13502184 -0.044659358 0.102735005 0.09294817 0.010431065 0.09616236 0.047601007 -0.04642595
-0.08812088 0.05545438 -0.057258822 -0.074363716 0.003578009 0.0168195 0.09898444 -0.13679776
-0.16527767 -0.048992988 -0.06171725 5.574021e-05 0.047709655 0.06961859 -0.026706273 0.05914707
0.023079542 0.119906455 -0.010566352 -0.0050635133 0.04754498 0.070070736 -0.107459195 -0.05323998
0.047955792 -0.031643722 0.04539288 0.11647645 -0.14303161 0.01964091 -0.05918737 0.0022539706
0.008609166 -0.20468667 0.022861086 -0.03336112 -0.17504977 -0.036487162 0.11752276 0.16496196
-0.06753467 -0.04847666 0.09321105 0.10879348 -0.08205324 0.14042312 -0.0930625 -0.10348805
-0.069069915 -0.018420966 0.07923038 0.040843744 0.057304744 -0.02268441 0.13875312 -0.026527185
0.18783759 -0.0815765 -0.081791505 -0.018548299 0.17689395 -0.0069478676 0.017002748 -0.013266067
-0.018857198 -0.17077456 -0.007744139 -0.11395867 -0.031679396 0.04181461 0.014971039 -0.08883505
0.07499303 -0.04956686 -0.08711555 0.0727711 -0.009246524 -0.18121871 0.07099051 0.059126057
-0.0040633897 -0.13749635 -0.10709761 0.15590638 0.15629566 0.109303586 -0.010940188 -0.02094557
-0.013545253 0.021193735 -0.05065992 0.08553347 -0.050925028 -0.14732553 -0.08241528 0.05924016
-0.028077606 0.1400354 0.19973508 0.04105726 -0.005849448 -0.011967573 -0.008150265 -0.22937709
0.0008140716 0.045835104 -0.060804583 0.012961901 -0.111872874 -0.04323547 0.0949687 -0.1416956
0.09913618 -0.064658545 0.09237971 -0.023031456 -0.02593411 -0.07967113 0.02950801 0.02278222
0.12243799 -0.14845197 -0.029229607 0.017530631 -0.2092993 -0.13924731 -0.06837853 -0.12811422
-0.040512018 0.015749728 -0.035260994 0.10819992 0.016547713 -0.04573039 -0.05470286 -0.09126724
0.0093085775 0.12060421 0.025354864 0.012170464 0.14778921 0.04182475 0.044283397 -0.052180044
-0.026723329 -0.07053622 0.0075280564 0.03279802 -0.10577541 -0.053927507 0.02326358 -0.032106508
0.0341129 -0.11335548 -0.014089643 0.07292966 0.0727526 0.0431148 0.032083325 -0.05669116
-0.030085362 -0.00057036796 0.017952401 0.3467427 -0.11016988 0.06538329 0.07232522 0.012213834
-0.02137704 -0.11691539 0.03856839 -0.103911705 0.17480867 0.095651776 -0.08802429 -0.06981978
00000000: 7fc2 8d3c e550 7dbd 4bf6 24be c9de edbb
00000010: b079 693d 95b6 143e 4cf9 fdbc 89a2 503d
00000020: 6be5 243d 9f00 9a3b ce09 29bd 9022 f1bd
00000030: cfc0 3dbd 56ac b63c 6e6c 1dbe 24c1 b0bd
00000040: 0b4d 373c 9852 68bd 79e8 98bd 5779 0abe
00000050: 9224 943c fa42 51be 7813 fc3d ef64 16bd
00000060: eac8 37ba f86f f9bd 077c f1bd 860b 253c
00000070: 4f49 fe3d eb97 fcbb 7a62 ec3d 5642 24bd
00000080: 892e a53d 9248 36bd 2d64 a93d 93c0 e8bd
00000090: 9069 8c3d cbab 1a3d 5c45 983d 9266 153e
000000a0: 1bb6 a0bd d2d8 193e 1b21 1a3d 6e0e 483d
000000b0: 4d60 87bd cc21 d63c 35a8 7bbd 4000 a83c
000000c0: e420 93bd ab0d 02bc a646 8dbd ee0e 07be
000000d0: f62b 9ebd b7f9 b83c fc94 143b 4d68 51bb
000000e0: 644d a7bd f30b 98bd 814f 863d 6459 3f3e
000000f0: a6df 663e f661 aabb bbe6 1a3e a889 c1bc
00000100: bc74 eebc b2c3 2e3d 4fd2 833e 2ca8 0f3e
00000110: c342 e03d 670f 00be 4b8c a1bc 9906 1b3d
00000120: 2a43 0a3e bbec 36bd bb66 d23d 9c5b be3d
00000130: 0fe7 2a3c c5f0 c43d 46f9 423d 2329 3ebd
00000140: b878 b4bd 2224 633d 3a88 6abd 014c 98bd
00000150: 087d 6a3b 0cc9 893c 5bb8 ca3d b614 0cbe
00000160: 8d3e 29be dfac 48bd 3acb 7cbd 98ca 6938
00000170: 336b 433d 3194 8e3d 1dc7 dabc 3344 723d
00000180: 4f11 bd3c 8491 f53d 7e1e 2dbc d4eb a5bb
00000190: 86be 423d 3f81 8f3d 9113 dcbd 2a12 5abd
000001a0: 4b6d 443d d99c 01bd e2ed 393d 348b ee3d
000001b0: e176 12be f9e5 a03c 756e 72bd 5ab7 133b
000001c0: 760d 0d3c 6299 51be 2c47 bb3c aba5 08bd
000001d0: 3f40 33be 9073 15bd c6af f03d caeb 283e
000001e0: 9e4f 8abd 768f 46bd 6fe5 be3d 1ecf de3d
000001f0: 870b a8bd 14cb 0f3e 8d97 bebd 8bf1 d3bd
00000200: 8774 8dbd 91e7 96bc 8a43 a23d c54b 273d
00000210: 61b8 6a3d a8d4 b9bc 4c15 0e3e 8a4f d9bc
00000220: 7f58 403e 9411 a7bd 4e82 a7bd 9af2 97bc
00000230: b023 353e f0aa e3bb 5949 8b3c eb59 59bc
00000240: 697a 9abc 87df 2ebe 8cc2 fdbb 2a63 e9bd
00000250: 41c2 01bd cc45 2b3d 1749 753c 27ef b5bd
00000260: f295 993d 9f06 4bbd a369 b2bd 0409 953d
00000270: bc7e 17bc 6691 39be 7963 913d 2a2e 723d
00000280: 2f26 85bb d8cb 0cbe fe55 dbbd eca5 1f3e
00000290: f80b 203e 8fda df3d 793e 33bc 0b96 abbc
000002a0: e9ec 5dbc 7c9e ad3c c780 4fbd 2c2c af3d
000002b0: c396 50bd 81dc 16be 58c9 a8bd cfa5 723d
000002c0: 0203 e6bc 7165 0f3e 5a87 4c3e a82b 283d
000002d0: baac bfbb a413 44bc b088 05bc d4e1 6abe
000002e0: 6c67 553a 97bd 3b3d 3a0e 79bd 275e 543c
000002f0: 9b1d e5bd ad17 31bd f37e c23d a718 11be
00000300: e907 cb3d b36b 84bd 9331 bd3d 77ac bcbc
00000310: c573 d4bc 9e2a a3bd c8ba f13c c7a1 ba3c
00000320: c5c0 fa3d cb03 18be ee72 efbc 669c 8f3c
00000330: 8e52 56be d996 0ebe 0b0a 8cbd 6030 03be
00000340: eeef 25bd 9305 813c d56d 10bd eb97 dd3d
00000350: 128f 873c ca4f 3bbd 1b10 60bd 52ea babd
00000360: 0183 183c 57ff f63d 01b5 cf3c a066 473c
00000370: 0e56 173e 6e50 2b3d 8262 353d beba 55bd
00000380: e2ea dabc 4b75 90bd eaad f63b 3757 063d
00000390: c7a0 d8bd 17e3 5cbd 4393 be3c 1d82 03bd
000003a0: f8b9 0b3d eb26 e8bd 3fd8 66bc 255c 953d
000003b0: 51ff 943d 2599 303d ce69 033d fd34 68bd
000003c0: 9475 f6bc bf84 15ba ea10 933c 4288 b13e
000003d0: bfa0 e1bd ade7 853d 3f1f 943d 881c 483c
000003e0: e71e afbc 5671 efbd e3f9 1d3d a9cf d4bd
000003f0: 0b01 333e 14e5 c33d 1446 b4bd acfd 8ebd

a2c_network.actor_mlp.2.bias f4 [256]
-0.05148667 0.02308594 -0.023118101 -0.007944042 0.034363136 -0.027819794 -0.009317524 0.003407954
0.0016636252 0.030890755 -0.012683824 -0.0010211364 -0.020642499 0.025296023 -0.040038727 -0.042928845
0.032686308 -0.014187084 -0.10664402 0.027943812 -0.021086402 -0.016366245 -0.04653998 -0.017699683
-0.019132288 0.014928893 -0.021520315 0.020099532 0.009376056 0.07367298 -0.24608257 -0.027669286
0.03194498 -0.06672075 -0.00064449455 -0.037468098 0.012291243 0.029498644 -0.029487025 -0.0148837725
-0.05665696 0.0060347714 0.011001212 -0.026361426 -0.019703671 0.04243564 0.026678206 0.022069173
-0.009173434 0.033006214 -0.04136168 0.07358966 -0.023965353 -0.027787577 -0.009906206 0.024567502
0.0225351 0.0051646987 0.010324294 -0.001141793 0.011046601 -0.19317026 -0.035076015 -0.26249674
-0.015441433 0.02120203 0.028195843 0.02457416 -0.013260413 0.024257148 -0.054065738 0.011267838
-0.049365457 -0.020325983 -0.011834262 -0.014556839 0.07208715 -0.0044044694 -0.0030649414 -0.02033828
-0.43400016 0.009273226 0.021545846 0.023769254 0.046626594 -0.013192969 -0.022058925 -0.15283926
0.0054763425 -0.009123457 0.009077985 0.04678308 0.0031944735 -0.013596335 -0.027530683 -0.08977862
-0.00740909 -0.023323739 0.042333517 -0.0076458016 -0.094584644 -0.07780473 -0.016826032 0.016354905
-0.032940477 -0.024360789 0.02934112 0.009000605 0.014690742 -0.4595456 -0.023842169 -0.004791545
0.050061658 -0.16027267 -0.109500155 -0.008685285 0.0080543235 -0.0114864055 -0.032072246 -0.023302281
-0.0642316 -0.028344445 -0.020975756 0.02631287 -0.027118156 -0.009883492 0.032132115 0.001400264
0.020858515 -0.14113702 -0.04925258 -0.1791115 0.03995992 -0.2154705 -0.007333221 -0.023885787
0.018514441 -0.17395756 -0.069686465 0.007498345 0.009131514 -0.0136605585 -0.3489775 -0.0622595
0.062347125 0.027674327 0.037346788 -0.051487852 -0.001365504 -0.010964557 -0.0368151 -0.010850229
0.009203782 -0.022158738 0.016090836 -0.011915791 -0.040060543 -0.31330812 -0.32318914 0.04009646
-0.011456984 0.053121727 -0.0025964833 -0.297725 -0.021632155 0.01042091 0.027618404 0.033222724
0.011363967 0.076832674 -0.05922557 0.029504703 0.007558185 -0.022926627 0.023083048 0.032501336
0.057863414 0.030716138 -0.007948146 -0.0397582 0.04789328 0.046202954 -0.03036285 -0.047446862
0.042547535 -0.015994022 0.03392895 -0.4580962 -0.0030607048 0.026633913 0.007857786 -0.0041646375
0.015793484 -0.13837709 0.016543439 0.03929852 0.026859041 -0.39863685 -0.043383442 -0.0143144075
-0.17330363 -0.04691155 -0.18740898 0.05850833 -0.02208082 0.024912938 -0.009142348 0.038394343
0.0062869596 0.017709425 0.02904467 -0.31181425 -0.034272324 -0.048846256 -0.00089336507 -0.017651917
-0.07480667 -0.041669995 0.023341833 0.03165434 0.025597489 -0.022060774 -0.007907003 -0.21044818
0.031604774 -0.0024500648 -0.027343811 -0.0055235126 -0.041776136 -0.044943787 0.0106344 -0.028860504
0.026524825 -0.0075861546 -0.01467708 -0.0076690605 0.018237283 -0.016800355 0.027435802 0.011695894
-0.03371532 0.010196206 0.028458484 0.026957892 0.0036977353 0.010213944 0.032785237 0.074550726
0.0031672006 0.032560352 -0.03999425 0.15464745 -0.36869594 0.0017053462 -0.11281482 -0.0062787426
00000000: b0e3 52bd ba1e bd3c 2c62 bdbc ba27 02bc
00000010: 5cc0 0c3d 56e6 e3bc 87a8 18bc fb57 5f3b
00000020: 000e da3a 9c0e fd3c d0cf 4fbc a7d7 85ba
00000030: 751a a9bc 9b39 cf3c a6ff 23bd 28d6 2fbd
00000040: 14e2 053d f170 68bc 2e68 dabd 6cea e43c
00000050: 64bd acbc 8112 86bc b5a0 3ebd edfe 90bc
00000060: 51bb 9cbc 5198 743c 5f4b b0bc c6a7 a43c
00000070: 079e 193c dce1 963d 12fd 7bbe b3aa e2bc
00000080: bdd8 023d e3a4 88bd 4cf3 28ba 2678 19bd
00000090: 3661 493c 24a7 f13c c68e f1bc 11db 73bc
000000a0: 2111 68bd 55bf c53b 6d3e 343c ebf3 d7bc
000000b0: 9869 a1bc fed0 2d3d 418c da3c 69ca b43c
000000c0: 2c4c 16bc 8631 073d dd6a 29bd 2db6 963d
000000d0: fd52 c4bc c6a2 e3bc a44d 22bc c941 c93c
000000e0: 889b b83c a23c a93b 3a27 293c 37a8 95ba
000000f0: cefc 343c 6dce 45be deab 0fbd f965 86be
00000100: 10fe 7cbc e1af ad3c f8fa e63c c04f c93c
00000110: 3442 59bc edb6 c63c 0974 5dbd bd9c 383c
00000120: 6f33 4abd ad82 a6bc 7ee4 41bc cf7f 6ebc
00000130: 6da2 933d 5e53 90bb 2fdd 48bb 779c a6bc
00000140: 4535 debe bbee 173c ea80 b03c bdb7 c23c
00000150: 87fb 3e3d 5327 58bc ebb4 b4bc e581 1cbe
00000160: e472 b33b 8d7a 15bc d4bb 143c 9d9f 3f3d
00000170: 5f5a 513b 2ac3 5ebc 0788 e1bc dadd b7bd
00000180: f4c7 f2bb 6d11 bfbc e965 2d3d a289 fabb
00000190: 98b5 c1bd 1658 9fbd bfd6 89bc b9fa 853c
000001a0: 98ec 06bd 4790 c7bc ca5c f03c 4677 133c
000001b0: 70b1 703c 9049 ebbe a750 c3bc 6502 9dbb
000001c0: 740d 4d3d 851e 24be 9e41 e0bd ba4c 0ebc
000001d0: 48f6 033c 7a31 3cbc 305e 03bd 6de4 bebc
000001e0: db8b 83bd 9c32 e8bc 59d5 abbc 178e d73c
000001f0: e526 debc 5fee 21bc f79c 033d 1089 b73a
00000200: 7adf aa3c 3986 10be 13bd 49bd 0169 37be
00000210: 03ad 233d 4ca4 5cbe 844b f0bb 20ac c3bc
00000220: 99ab 973c ee21 32be c7b7 8ebd adb4 f53b
00000230: 589c 153c 89d0 5fbc 2ead b2be d103 7fbd
00000240: b35f 7f3d 45b5 e23c f2f8 183d ede4 52bd
00000250: b6fa b2ba afa4 33bc 6ecb 16bd 29c5 31bc
00000260: 76cb 163c 3e86 b5bc eed0 833c 733a 43bc
00000270: 8616 24bd ec69 a0be 0c79 a5be 303c 243d
00000280: 13b6 3bbc 2b96 593d c329 2abb 696f 98be
00000290: eb35 b1bc 77bc 2a3c fe3f e23c 8d14 083d
000002a0: ef2f 3a3c 735a 9d3d 8396 72bd d9b3 f13c
000002b0: a7aa f73b 9fd0 bbbc a918 bd3c 1f20 053d
000002c0: 3002 6d3d 69a0 fb3c f138 02bc 7fd9 22bd
000002d0: be2b 443d 4f3f 3d3d 83bb f8bc a457 42bd
000002e0: 5346 2e3d e505 83bc 15f9 0a3d 968b eabe
000002f0: 1b96 48bb 5d2f da3c f1bd 003c 8377 88bb
00000300: 5661 813c b9b2 0dbe 1b86 873c 7cf7 203d
00000310: 7e07 dc3c 211a ccbe d6b2 31bd fa86 6abc
00000320: 8276 31be 5326 40bd 24e8 3fbe 6ea6 6f3d
00000330: d6e2 b4bc 3816 cc3c c9c9 15bc 6343 1d3d
00000340: d702 ce3b 5b13 913c 16ef ed3c 1ea6 9fbe
00000350: 2361 0cbd 0313 48bd b730 6aba c19a 90bc
00000360: 3d34 99bd 28ae 2abd 5f37 bf3c fba7 013d
00000370: d3b1 d13c ccb8 b4bc 608c 01bc ba7f 57be
00000380: 0274 013d 4491 20bb 2100 e0bc 95fe b4bb
00000390: 741d 2bbd fa16 38bd e83b 2e3c dd6c ecbc
000003a0: 974a d93c 4795 f8bb 2378 70bc be4c fbbb
000003b0: 5b66 953c e6a0 89bc 0cc1 e03c 23a0 3f3c
000003c0: 1319 0abd fd0d 273c c421 e93c ccd6 dc3c
000003d0: b455 723b 6358 273c d049 063d 0dae 983d
000003e0: cf90 4f3b 015e 053d 03d1 23bd e75b 1e3e
000003f0: b7c5 bcbe ec85 df3a 750b e7bd e9bd cdbb

a2c_network.value.weight f4 [1, 256]
-0.06838436 0.006345043 0.020406058 0.048618436 0.009268796 0.0012677553 0.026179506 -0.010670113
0.03948529 0.018875377 0.013598884 -0.012310974 0.001987372 0.008666408 0.02115508 0.07581976
-0.0050536445 -0.0025505733 -0.09116503 -0.011332835 -0.002383795 0.01671362 0.09024036 -0.011098487
0.018307729 0.06239624 0.021141538 0.012229156 -0.015568885 -0.020625645 0.055002566 0.034391817
0.017225936 -0.09041752 0.00466077 -0.003296911 -0.007554222 -0.006399128 -0.009256307 -0.13688226
0.05040175 -0.021341855 -0.013345757 0.002570507 0.048543997 0.00836795 0.004985277 -0.00079861423
-0.042237535 0.015199745 -0.07066266 0.0040846886 0.04985545 0.023419494 0.20742905 0.00430039
-0.06612612 -0.0028234133 -0.08022983 0.009549095 0.050763495 -0.14649095 -0.041365545 -0.051453218
0.020313606 0.04377596 0.0135969445 0.020539073 0.048606228 -0.0035883568 -0.05080548 0.017615573
-0.005615279 0.037407998 0.03351081 0.0059298575 0.04488944 0.013803529 -0.0017375485 0.0172353
-0.06504306 -0.12558635 0.0005649189 0.011697412 0.010466185 -0.0109767625 0.0058913473 -0.09523912
-0.0027603565 0.014871018 0.062775664 0.009632469 -0.07812992 0.01192662 0.006166753 -0.03814414
0.0027733734 0.0002891121 0.00052589254 -0.07857236 -0.028656162 -0.1605071 0.0065265764 -0.011620756
0.023444034 -0.061854564 0.0066303816 -0.0048719747 0.09135203 0.09233378 0.0016702886 0.008175187
0.009586942 -0.014302503 -0.014862197 -0.08932769 0.010695088 0.006567301 -0.0013697528 0.05270899
-0.0034985826 0.059123613 -0.0069955136 -0.00034954917 0.01820871 0.05595798 0.03894403 -0.007181441
0.004907288 -0.04067135 0.055795997 0.048937626 -0.026894461 -0.10078302 0.0026727796 0.029324912
-0.012838339 0.005225209 -0.05250756 0.04539017 -0.012121994 0.012807265 -0.087277435 -0.03839028
0.03312623 -0.013409297 0.010670698 -0.008536198 0.022772126 0.12021142 0.084697306 0.004356964
-0.0061295773 0.03216386 0.012404602 0.012545131 -0.011576193 -0.10986664 -0.16133186 -0.00024993802
0.016429607 -0.001384706 0.011055209 0.007203697 -0.0010811412 0.16290462 -0.006833712 -0.031929094
-0.005733855 0.04070224 0.00079915917 -0.004408305 -0.21467979 -0.2163015 0.0142679075 0.00069798087
-0.01620397 -0.0063380157 0.005810677 -0.006773942 0.016183667 0.0014914646 0.012019272 -0.016158283
0.018798893 0.015761767 0.139093 0.05243483 -0.00077625015 -0.016127015 0.008256979 0.03361429
0.04805045 0.019318411 0.0032495472 -0.013845819 0.01626219 -0.11336913 0.021129282 0.0029636214
-0.061045785 -0.09617122 -0.035787325 -0.007285882 0.01244756 0.013665093 0.017038863 0.041705053
-0.0024213565 0.018890765 0.0061947475 -0.13530561 -0.009684741 -0.0027281104 -0.013344 0.00048311442
0.08395695 0.022479845 0.014060705 0.005280148 -0.0028837651 -0.0073319837 0.006566161 0.12540951
0.00018710717 0.01701595 0.027670817 -0.0019632226 0.0036283117 -0.003665206 0.04637315 -0.0041030245
0.009528334 0.17620221 0.026721759 0.016570657 -0.00018854438 -0.017074173 -0.005429061 0.053574413
0.09673015 -0.0047250492 -0.028087173 0.008130557 -0.1716872 0.03132703 -0.001248806 0.008486427
-0.0062377322 -0.025147807 -0.0034851471 -0.04953398 -0.079335876 -0.0013743321 -0.0053575975 0.012300916
00000000: 190d 8cbd 14ea cf3b 9b2a a73c 2024 473d
00000010: 26dc 173c cf2a a63a 6776 d63c b3d1 2ebc
00000020: 54bb 213d 89a0 9a3c dbcd 5e3c f8b3 49bc
00000030: 923e 023b 8dfd 0d3c 6b4d ad3c 6447 9b3d
00000040: 0b99 a5bb 8527 27bb bbb4 babd 5bad 39bc
00000050: 7239 1cbb 00eb 883c f0cf b83d 6ed6 35bc
00000060: 17fa 953c 3393 7f3d 0531 ad3c cc5c 483c
00000070: a314 7fbc 1df7 a8bc 5f4a 613d 6fde 0c3d
00000080: 681d 8d3c d22c b9bd 5fb9 983b fd10 58bb
00000090: 6889 f7bb c7af d1bb c4a7 17bc dd2a 0cbe
000000a0: 1172 4e3d 1dd5 aebc 29a8 5abc f375 283b
000000b0: 12d6 463d ba19 093c 895b a33b 185a 51ba
000000c0: 4401 2dbd 5a08 793c 96b7 90bd dad8 853b
000000d0: 3a35 4c3d 3dda bf3c 4868 543e 49ea 8c3b
000000e0: 226d 87bd 0409 39bb 8a4f a4bd cf73 1c3c
000000f0: 62ed 4f3d b901 16be eb6e 29bd 9cc0 52bd
00000100: b868 a63c 6c4e 333d b8c5 5e3c 8f41 a83c
00000110: 5317 473d a32a 6bbb 6819 50bd 894e 903c
00000120: 6000 b8bb 2139 193d a242 093d 404f c23b
00000130: fddd 373d 3228 623c 74be e3ba 0b31 8d3c
00000140: 4c35 85bd b599 00be 1117 143a 80a6 3f3c
00000150: 5d7a 2b3c e1d7 33bc 340c c13b ba0c c3bd
00000160: 19e7 34bb 92a5 733c 8790 803d 81d1 1d3c
00000170: 9402 a0bd df67 433c 7912 ca3b 083d 1cbd
00000180: 7cc1 353b f893 9739 0ddc 093a 8cea a0bd
00000190: 54c0 eabc f95b 24be e4dc d53b fc64 3ebc
000001a0: b40d c03c 365b 7dbd ac43 d93b 16a5 9fbb
000001b0: c616 bb3d 7e19 bd3d 96ed da3a 38f1 053c
000001c0: 8d12 1d3c 0c55 6abc 9380 73bc 70f1 b6bd
000001d0: 733a 2f3c 8432 d73b 4789 b3ba 62e5 573d
000001e0: 7a48 65bb 9a2b 723d 9f3a e5bb b243 b7b9
000001f0: 6f2a 953c 3234 653d c683 1f3d 4b52 ebbb
00000200: 51cd a03b 0097 26bd 588a 643d d272 483d
00000210: c651 dcbc 5467 cebd cd29 2f3b cc3a f03c
00000220: e657 52bc 3b38 ab3b 2b12 57bd 0beb 393d
00000230: 549b 46bc 90d5 513c 83be b2bd 203f 1dbd
00000240: 5faf 073d abb2 5bbc 27d4 2e3c 69db 0bbc
00000250: 9c8c ba3c 6831 f63d c875 ad3d ddc4 8e3b
00000260: 9fda c8bb 40be 033d ac3c 4b3c 188a 4d3c
00000270: 13aa 3dbc c301 e1bd 2e34 25be 1d0a 83b9
00000280: 6297 863c 067f b5ba e820 353c fe0c ec3b
00000290: 14b5 8dba 78d0 263e 55ed dfbb 15c8 02bd
000002a0: 10e3 bbbb 64b7 263d aa7e 513a 8b73 90bb
000002b0: 05d5 5bbe 247e 5dbe f1c3 693c b4f8 363a
000002c0: 30be 84bc 21af cfbb 7e67 be3b f2f7 ddbb
000002d0: 9c93 843c 3f7d c33a 7bec 443c 605e 84bc
000002e0: 2300 9a3c d21e 813c 656e 0e3e e8c5 563d
000002f0: 447d 4bba cd1c 84bc 4848 073c 23af 093d
00000300: 8cd0 443d a541 9e3c 5bf6 543b 93d9 62bc
00000310: 4938 853c 132e e8bd 5117 ad3c 5139 423b
00000320: 250b 7abd 6bf5 c4bd bb95 12bd 68be eebb
00000330: daf0 4b3c 8ee3 5f3c 1695 8b3c ebd2 2a3d
00000340: 9faf 1ebb cec0 9a3c 4ffd ca3b 8e8d 0abe
00000350: bfac 1ebc 19ca 32bb cba0 5abc 854a fd39
00000360: 9ff1 ab3d a727 b83c df5e 663c 1705 ad3b
00000370: 8dfd 3cbb 2341 f0bb f328 d73b 5a6b 003e
00000380: 3332 4439 0965 8b3c e9ad e23c 69a9 00bb
00000390: f8c8 6d3b f433 70bb c6f1 3d3d aa72 86bb
000003a0: bb1c 1c3c 5a6e 343e 97e7 da3c 30bf 873c
000003b0: ffb3 45b9 23df 8bbc 44e6 b1bb d870 5b3d
000003c0: 751a c63d 96d4 9abb 1217 e6bc 0736 053c
000003d0: c5ce 2fbe c650 003d faae a3ba a80a 0b3c
000003e0: e465 ccbb c602 cebc 1167 64bb 25e4 4abd
000003f0: d97a a2bd ef22 b4ba c98e afbb c889 493c

a2c_network.mu.weight f4 [6, 256]
-0.026831064 -0.0010838265 -0.00027461784 -0.0005036228 0.0017450881 -0.0004918696 -0.0015157033 0.0025269045
-0.08511372 -0.00033527173 -0.0020292138 -0.0018032185 -0.0010003985 0.0031958048 0.0012816931 -0.08198317
0.0029964738 -0.0035183711 0.03572876 -0.0007608235 0.003022643 0.0020754756 -0.0065044556 -0.00073700806
0.0020372435 0.0031612054 -0.0017935985 -0.0010424451 0.0024879454 -0.0017210331 0.07932044 0.12192699
0.00065880915 -0.02340644 -0.00039498066 -0.0017984057 -0.002168653 0.0002078547 -0.0021358172 0.00097657
-0.0064542317 -0.0013391643 0.0036206085 -0.00086240924 -0.003170754 0.000937229 0.0014880507 0.001114042
-0.0043232935 0.0005094769 0.017670173 8.265697e-05 -0.0066667753 -0.0026304508 -0.018411506 0.00089750614
-0.031147 -0.0009057451 0.0023075927 -0.0014921514 0.0016615688 0.013501589 0.00043920832 0.071191095
0.0048716427 0.00462583 -0.0015640503 -0.0003032069 -0.0018077329 0.00080957264 0.07053056 -0.0060106535
-0.0018246373 -0.0028213742 0.0026366613 -0.0007391476 -0.23662259 0.002413567 0.00013301136 -0.001563824
0.085008845 -0.008118427 0.0020529802 0.0012304629 0.0012288799 -0.0030424327 0.00072327215 0.042969294
-0.00039492603 -0.0010990514 0.0027023673 -0.00012606573 -2.8039005e-05 0.0029035683 0.0002521588 0.20183738
0.0025133295 0.00519942 -0.0009059123 -0.0027997817 -0.24194492 0.028518809 0.00058765826 -0.0025095204
-0.0008791773 -4.305503e-06 0.0025922374 0.0008045457 0.0021836325 0.04403131 -0.0024367413 -0.004775705
0.0015572506 -0.19038008 -0.10882568 0.0029832914 -0.001014674 -0.0025617064 -0.001704958 -0.0017455003
0.00060184667 0.0021589093 0.00038825086 -0.0011394487 -0.0023590224 -0.0016188932 -0.0030121396 0.0022720776
0.0041220956 0.07127801 -0.016200846 -0.1299729 -0.00011399213 0.15059605 -4.167859e-05 -0.0044596414
-0.049176235 0.13393386 -0.019078918 0.0019769093 -0.0023215157 0.00065034156 0.023567531 0.16578361
0.00055645115 0.0010422351 0.0011456162 -0.0034502223 -0.0015225168 -0.010517992 -0.008238659 0.0026159002
0.00096414844 0.06213058 -0.0007666802 -0.00060010597 -0.0023522018 -0.03162346 0.24389067 -0.00018331523
0.0010051507 0.00286656 -0.0011713426 0.042533614 -0.0026143892 -0.018716803 0.0028951934 -0.0031585984
-0.0025136718 0.005954986 0.0035588285 0.0014584893 0.0072183916 0.002162781 0.000731188 -9.744672e-05
-7.6013195e-05 0.0013739849 0.002828616 0.00034119235 0.00087756943 0.0025765714 -0.00086464704 -0.0037786856
0.005667643 0.0015866568 0.0074192327 0.092788935 0.0018201382 -0.0008883989 -0.0026395184 -0.0065371417
-0.006283557 -0.070039116 0.0007340668 0.000885909 0.0012869424 -0.016164001 -0.020766145 -0.00046104554
0.18123275 0.000111576956 -0.10123022 -0.0031712344 0.0019992443 0.0020193583 -0.0013159834 -0.0018790538
-0.0014401048 0.0023770246 0.0008721789 -0.10310902 -6.321111e-05 0.0009773559 0.0019688492 -0.000636296
-0.015501995 -0.00075562124 -0.00030031282 0.0015277932 -0.00034544693 -0.0024394526 0.0024316597 -0.18220973
0.0012751403 -0.0010522198 -0.00058396754 0.00029247007 0.0030296228 0.0021389646 0.0037765992 0.0024107757
0.0007553076 -0.012224091 -0.0028714137 0.0007740022 0.00016316102 -0.002558861 -0.00069065194 -0.10555147
0.002935052 0.0006410951 -0.0020426903 0.0036293047 -0.017100897 0.00069100555 0.006244538 -0.0010825372
0.0029565038 0.0019805878 0.012282044 -0.010094046 -0.18323168 -0.0008460653 -0.020611461 0.0033895362
00000000: d2cc dbbc 2f0f 8eba 95fa 8fb9 8e05 04ba
00000010: 71bb e43a cff0 00ba 90aa c6ba 6c9a 253b
00000020: 1a50 aebd 69c7 afb9 8ffc 04bb f959 ecba
00000030: ce1f 83ba b570 513b 7cfe a73a cbe6 a7bd
00000040: 7d60 443b 7994 66bb 5258 123d 0072 47ba
00000050: 8917 463b b404 083b 5423 d5bb c633 41ba
00000060: 4683 053b 3a2c 4f3b 2e17 ebba a7a2 88ba
00000070: cc0c 233b 4a94 e1ba c172 a23d dcb4 f93d
00000080: efb3 2c3a ddbe bfbc 6815 cfb9 7bb8 ebba
00000090: f61f 0ebb 92f3 5939 11f9 0bbb 4000 803a
000000a0: 057e d3bb e686 afba bb47 6d3b 4e13 62ba
000000b0: 6dcc 4fbb 60b0 753a b20a c33a 0c05 923a
000000c0: 6aaa 8dbb 6a8e 053a 0ac1 903c 1f58 ad38
000000d0: f774 dabb a463 2cbb bad3 96bc 9e46 6b3a
000000e0: fe27 ffbc 866f 6dba fb3a 173b 4b94 c3ba
000000f0: ffc8 d93a c535 5d3c 8b45 e639 a3cc 913d
00000100: 4da2 9f3b 4694 973b d200 cdba bef7 9eb9
00000110: 73f1 ecba 8039 543a 5472 903d 04f5 c4bb
00000120: ab28 efba cee6 38bb d6cb 2c3b 5bc3 41ba
00000130: 314d 72be ef2c 1e3b f778 0b39 3af9 ccba
00000140: 1e19 ae3d 2703 05bc 4b8b 063b 7c47 a13a
00000150: 5e12 a13a 8d63 47bb f999 3d3a 9200 303d
00000160: 130e cfb9 0c0e 90ba 331a 313b 8330 04b9
00000170: 4e35 ebb7 cb49 3e3b 2e34 8439 75ae 4e3e
00000180: acb6 243b e55f aa3b bf7a 6dba 8b7c 37bb
00000190: 69c0 77be 47a0 e93c 140d 1a3a c476 24bb
000001a0: 9778 66ba fd77 90b6 87e2 293b 26e8 523a
000001b0: 461b 0f3b 2d5a 343d bcb1 1fbb 847d 9cbb
000001c0: a91c cc3a fff2 42be 00e0 debd 5383 433b
000001d0: cffe 84ba 4de2 27bb e678 dfba 45c9 e4ba
000001e0: 3fc5 1d3a 7d7c 0d3b 268e cb39 8e59 95ba
000001f0: d499 1abb 0b31 d4ba 5167 45bb 23e7 143b
00000200: a512 873b 35fa 913d a3b7 84bc 9e17 05be
00000210: 0f0f efb8 da35 1a3e 0cd0 2eb8 2f22 92bb
00000220: 056d 49bd f525 093e 644b 9cbc 098f 013b
00000230: 9224 18bb af7b 2a3a b210 c13c 2ec3 293e
00000240: cede 113a 9b9b 883a 8028 963a 201d 62bb
00000250: 308f c7ba a853 2cbc 71fb 06bc 866f 2b3b
00000260: e8be 7c3a a37c 7e3d 0afb 48ba 6e50 1dba
00000270: 6627 1abb 9a87 01bd 7abe 793e 4f38 40b9
00000280: 43bf 833a e5dc 3b3b bc87 99ba ba37 2e3d
00000290: 2c56 2bbb fb53 99bc 49bd 3d3b 7d00 4fbb
000002a0: 6abc 24bb 0b22 c33b 3c3b 693b c82a bf3a
000002b0: 4288 ec3b 72bd 0d3b 32ad 3f3a 4f5c ccb8
000002c0: 4669 9fb8 4817 b43a 4d60 393b 10e2 b239
000002d0: b00c 663a b2db 283b 7ba9 62ba d3a3 77bb
000002e0: a3b7 b93b 5ef7 cf3a 091d f33b 2008 be3d
000002f0: b491 ee3a 71e3 68ba c5fb 2cbb 8535 d6bb
00000300: 4ce6 cdbb ab70 8fbd 646e 403a 593c 683a
00000310: 9fae a83a 5e6a 84bc c31d aabc 7cb8 f1b9
00000320: 1495 393e 6cfe e938 ca51 cfbd 7cd4 4fbb
00000330: c105 033b 3657 043b 137d acba 954a f6ba
00000340: e6c1 bcba dbc7 1b3b efa2 643a d22a d3bd
00000350: 3590 84b8 9f1a 803a cf07 013b 1acd 26ba
00000360: 14fc 7dbc e214 46ba 4e73 9db9 3c40 c83a
00000370: 1a1d b5b9 39df 1fbb 7b5c 1f3b 3095 3abe
00000380: 9c22 a73a a3ea 89ba 6615 19ba ab56 9939
00000390: a38c 463b df2d 0c3b d280 773b 1bfe 1d3b
000003a0: d6ff 453a 8e47 48bc 542e 3cbb 69e6 4a3a
000003b0: 3416 2b39 90b2 27bb de0c 35ba 5e2b d8bd
000003c0: 005a 403b 2a0f 283a a8de 05bb a1d9 6d3b
000003d0: 2e17 8cbc 9924 353a fb9e cc3b ece3 8dba
000003e0: e7c1 413b c0cc 013b a03a 493c 7f61 25bc
000003f0: 16a1 3bbe 7bca 5dba 5ed9 a8bc fb22 5e3b

a2c_network.mu.bias f4 [6]
-0.33567548 0.29078844 -0.32594353 -0.10356629 -0.0060235825 -0.46717867
00000000: a8dd abbe 39e2 943e 12e2 a6be 901a d4bd
00000010: 7961 c5bb 0b32 efbe

exp_avg f4 [6]
-0.0007204876 -0.00039304618 0.00017094285 -0.000561269 -0.0017142795 -0.0013045172
00000000: 1bdf 3cba c411 ceb9 1f3f 3339 2022 13ba
00000010: adb1 e0ba 55fc aaba

exp_avg_sq f4 [6]
2.4264784e-05 2.9047122e-05 2.8429233e-05 2.835262e-05 2.8802444e-05 2.85675e-05
00000000: 3a8c cb37 38aa f337 507b ee37 cad6 ed37
00000010: c79c f137 3da4 ef37

exp_avg f4 [256, 40]
-5.7417124e-06 5.741709e-06 9.749448e-09 5.7417124e-06 9.749448e-09 0.0 -0.00075832964 0.0007933977
-0.000116265706 -0.0010766266 0.0007760693 -0.00029173944 -0.00012461246 -0.0002586095 -7.436302e-05 -2.4912072e-07
5.554732e-05 -0.00073155016 -2.3723838e-07 0.00029303713 0.00019189462 -8.266535e-06 -2.9942103e-06 1.7176363e-06
1.4400868e-05 6.201999e-07 5.9597194e-09 1.5108718e-05 -1.0439956e-05 -7.193662e-06 7.6087513e-06 2.9738377e-08
0.0 -6e-45 1.19012824e-07 -8.525611e-08 -6e-45 1.19012824e-07 8.3824396e-08 -6e-45
-1.0655837e-05 1.0655293e-05 1.811687e-08 1.0655837e-05 1.811687e-08 0.0 0.0001306979 -0.00020389484
0.00054152554 0.0007230264 -0.00022754533 4.7964084e-05 -0.0003764555 0.0007134705 0.00058603974 1.1712788e-07
0.00055576465 -6.325675e-05 1.11814565e-07 -0.0009588296 0.0005085797 -1.5888289e-06 -1.3066614e-06 -2.385069e-06
-2.7445492e-06 3.7986712e-07 1.1740304e-06 -2.339201e-06 3.987303e-06 -2.3940429e-05 -8.693963e-06 -2.1529896e-08
0.0 -6e-45 -2.5363157e-08 1.4335783e-08 -6e-45 -2.5363157e-08 -1.3618989e-08 -6e-45
-1.45450895e-05 1.4544547e-05 2.471828e-08 1.45450895e-05 2.471828e-08 0.0 -2.866246e-05 0.00043152424
-0.00021906491 -6.93271e-05 3.540379e-06 -0.00013598955 -0.0001291356 0.00041122202 0.00049958174 1.9086019e-07
0.00028181527 -0.00040021093 1.9301942e-07 -0.0011162773 0.0002600458 3.536786e-07 3.5048834e-06 4.1277017e-06
-5.0055205e-06 -5.22281e-06 2.7952241e-08 -6.0255916e-06 -9.969353e-06 -8.789142e-06 -6.329559e-06 6.249131e-08
0.0 -6e-45 -3.47703e-07 9.99332e-08 -6e-45 -3.47703e-07 -9.7805234e-08 -6e-45
7.6741605e-07 -7.679514e-07 -1.2934191e-09 -7.6741605e-07 -1.2934191e-09 0.0 -0.000635357 0.0008941407
6.991542e-06 -0.0008346716 0.0004977768 -6.160161e-05 -0.00047038458 -0.00030186065 -0.00056662015 -9.815049e-08
-0.00031730995 -0.00017088575 -1.0485579e-07 0.00021409952 8.3593244e-05 -1.3989684e-06 8.6219273e-07 2.6762016e-06
4.777663e-06 1.946936e-06 5.2965106e-07 4.988223e-06 -1.0813874e-05 -7.1693016e-06 4.548192e-06 9.633702e-08
0.0 6e-45 -2.0285378e-07 1.3016852e-07 6e-45 -2.0285378e-07 -1.2922948e-07 6e-45
-4.588758e-05 4.5888653e-05 7.799458e-08 4.588758e-05 7.799458e-08 0.0 0.00065081683 -0.0009152405
0.00048349646 0.0010302156 -0.00038731768 -1.7434078e-05 0.00071222987 -0.0009063905 0.00043513882 4.4244968e-07
0.00045283287 -0.00013902967 4.7668541e-07 0.00013397801 0.0001094525 7.7862063e-07 -4.6747778e-06 1.0525448e-06
-9.557517e-06 1.804847e-06 3.0807741e-06 -7.336948e-06 3.0454762e-06 -2.6561114e-05 -1.4990602e-05 -4.1168615e-08
0.0 -6e-45 1.5966223e-09 -5.938979e-08 -6e-45 1.5966223e-09 6.0795344e-08 -6e-45
1.2252836e-05 -1.2252969e-05 -2.082083e-08 -1.2252836e-05 -2.082083e-08 0.0 -0.00033189962 0.0004780024
-0.00015258022 -0.00049428147 0.00048824243 -1.637139e-05 0.0002823096 4.6992935e-07 0.00023059297 -1.2318276e-07
-0.00021751625 -8.682016e-05 -1.3246816e-07 0.0002854204 -2.0508056e-05 -1.2293377e-07 -2.7800145e-06 -2.7740125e-06
2.6458e-06 -1.5997123e-06 -1.4125018e-06 3.5011522e-06 -6.715014e-06 9.542654e-06 1.5192451e-06 -2.2148411e-08
0.0 6e-45 7.968345e-08 -1.24873e-07 6e-45 7.968345e-08 1.2474804e-07 6e-45
2.3665803e-05 -2.3666871e-05 -4.016024e-08 -2.3665803e-05 -4.016024e-08 0.0 -0.0004230962 0.00087395136
-0.0004123608 -0.0005909023 0.0005752691 -0.00013700048 3.5655707e-05 -2.6673626e-05 -0.0002778754 -9.046028e-08
00000000: efa8 c0b6 e8a8 c036 877e 2732 efa8 c036
00000010: 877e 2732 0000 0000 a4ca 46ba 05fc 4f3a
00000020: add3 f3b8 981d 8dba 2171 4b3a 9bf4 98b9
00000030: 67aa 02b9 fb95 87b9 58f3 9bb8 e4be 85b4
00000040: 7bfb 6838 80c5 3fba 97bb 7eb4 c7a2 9939
00000050: 5237 4939 7fb0 0ab7 24f0 48b6 8989 e635
00000060: 429b 7137 d07b 2635 3fc6 cc31 737b 7d37
00000070: 4527 2fb7 1661 f1b6 ad4e ff36 6273 ff32
00000080: 0000 0000 0400 0080 fe93 ff33 0b16 b7b3
00000090: 0400 0080 fe93 ff33 f302 b433 0400 0080
000000a0: 79c6 32b7 23c4 3237 6b9f 9b32 79c6 3237
000000b0: 6b9f 9b32 0000 0000 f30b 0939 9bcc 55b9
000000c0: 2af5 0d3a 7b89 3d3a 3c99 6eb9 0b2d 4938
000000d0: 005f c5b9 3208 3b3a 76a0 193a bc87 fb33
000000e0: bcb0 113a b6a8 84b8 b51e f033 f759 7bba
000000f0: 3552 053a bf3f d5b5 8b60 afb5 2c0f 20b6
00000100: ff2e 38b6 8af0 cb34 6193 9d35 2bfb 1cb6
00000110: acca 8536 aed3 c8b7 49dc 11b7 bef0 b8b2
00000120: 0000 0000 0400 0080 2cde d9b2 7149 7632
00000130: 0400 0080 2cde d9b2 f2f8 69b2 0400 0080
00000140: af06 74b7 5b04 7437 1354 d432 af06 7437
00000150: 1354 d432 0000 0000 2a70 f0b7 343e e239
00000160: cab4 65b9 b463 91b8 4097 6d36 6b98 0eb9
00000170: 9368 07b9 4999 d739 5df6 023a 40ef 4c34
00000180: 9bc0 9339 67d3 d1b9 c640 4f34 0d50 92ba
00000190: c256 8839 37e1 bd34 7035 6b36 b080 8a36
000001a0: 18f5 a7b6 993f afb6 a11b f032 702f cab6
000001b0: 0c42 27b7 1475 13b7 7f62 d4b6 f632 8633
000001c0: 0000 0000 0400 0080 f0ab bab4 dc9a d633
000001d0: 0400 0080 f0ab bab4 ff08 d2b3 0400 0080
000001e0: 6e00 4e35 3825 4eb5 24c4 b1b0 6e00 4eb5
000001f0: 24c4 b1b0 0000 0000 168e 26ba c464 6a3a
00000200: e398 ea36 ddcd 5aba 3c7d 023a 1d30 81b8
00000210: f39d f6b9 0d43 9eb9 3c89 14ba cdc6 d2b3
00000220: 9f5c a6b9 cb2f 33b9 152d e1b3 e77f 6039
00000230: c84e af38 30c4 bbb5 6f71 6735 cb98 3336
00000240: d04f a036 1ba8 0236 582d 0e35 8260 a736
00000250: 3c6d 35b7 d58f f0b6 ac9c 9836 d6e1 ce33
00000260: 0000 0000 0400 0000 06d0 59b4 73c4 0b34
00000270: 0400 0000 06d0 59b4 54c2 0ab4 0400 0000
00000280: 6a77 40b8 9178 4038 f97d a733 6a77 4038
00000290: f97d a733 0000 0000 949b 2a3a c0ec 6fba
000002a0: cc7d fd39 4d08 873a e610 cbb9 663f 92b7
000002b0: f0b4 3a3a d69a 6dba 5823 e439 d289 ed34
000002c0: 336a ed39 7ec8 11b9 25eb ff34 737c 0c39
000002d0: dd89 e538 6702 5135 09dc 9cb6 2a45 8d35
000002e0: 3959 20b7 123e f235 4cbf 4e36 e72f f6b6
000002f0: e260 4c36 8fcf deb7 2580 7bb7 5fd1 30b3
00000300: 0000 0000 0400 0080 2770 db30 c413 7fb3
00000310: 0400 0080 2770 db30 988e 8233 0400 0080
00000320: 8891 4d37 1a92 4db7 7dd9 b2b2 8891 4db7
00000330: 7dd9 b2b2 0000 0000 d002 aeb9 659c fa39
00000340: f1fd 1fb9 ab92 01ba cafa ff39 4b55 89b7
00000350: f402 9439 994a fc34 54cb 7139 3844 04b4
00000360: 1315 64b9 3813 b6b8 923c 0eb4 7aa4 9539
00000370: b708 acb7 c7ff 03b4 4990 3ab6 2c29 3ab6
00000380: 7f8e 3136 b2b5 d6b5 3195 bdb5 56f5 6a36
00000390: 8851 e1b6 6319 2037 dde8 cb35 df40 beb2
000003a0: 0000 0000 0400 0000 711e ab33 d414 06b4
000003b0: 0400 0000 711e ab33 7bf2 0534 0400 0000
000003c0: ed85 c637 3888 c6b7 a77c 2cb3 ed85 c6b7
000003d0: a77c 2cb3 0000 0000 03d3 ddb9 e219 653a
000003e0: 2132 d8b9 c8e6 1aba a8cd 163a c9a7 0fb9
000003f0: 068d 1538 2dc1 dfb7 ceaf 91b9 1143 c2b3
