logs/rl_games/yam_cube_sort_8192/2026-02-01_06-46-50/nn/last_yam_cube_sort_8192_ep_650_rew_618.534.pth (torch, 953122 bytes, 30 tensors)

value_mean_std.running_mean f8 [1]
000000 53 ab b1 c3 18 79 ba 3f
       0.10341028955160185

value_mean_std.running_var f8 [1]
000000 96 bb 69 b6 77 65 a3 3f
       0.03788351155969065

value_mean_std.count f8 []
000000 00 00 00 01 00 50 b4 41
       340787201.0

running_mean_std.running_mean f8 [40]
000000 a3 27 bc 77 0c f1 ef 3f b3 83 84 5f 27 e6 5d 3f
       0.9981748903821778 0.0018248924735148997
000010 a2 cd c3 4c 5f 5b 8c 3e d9 e9 7e 3a 0a e7 5d 3f
       2.1127553962545796e-07 0.0018251037490545268
000020 a2 cd c3 4c 5f 5b 8c 3e 00 00 00 00 00 00 00 00
       2.1127553962545796e-07 0.0
000030 f9 e0 73 9e 9a 19 a3 bf 27 11 96 fd b1 56 b2 3f
       -0.03730471786724538 0.07163536492413823
000040 4b 05 20 4b ca c6 c2 3f 07 68 94 a3 67 a6 a5 bf
       0.14669159572808108 -0.04228519317457829
000050 08 d6 f9 9f 5a 19 b2 3f 8e 5b af 3e 06 7f be 3f
       0.0706993713918892 0.1191257384337929
000060 ab d7 8c 4c 90 b3 b2 3f ac 62 bb a4 dd 30 d3 3f
       0.07305242413425954 0.29985753142458793
000070 f9 51 e1 34 17 05 52 3f 65 ae 2d 21 0c 68 e8 3f
       0.0010998465181916146 0.762701096345563
000080 e3 26 b1 52 cc 38 d3 3f b1 49 e9 6a aa 9a 54 3f
       0.3003416831530627 0.0012575782999602987
000090 26 05 98 56 0c 68 e8 3f 03 54 21 c5 82 35 d3 3f
       0.7627011958394732 0.3001410412883276
0000a0 3b aa b2 53 6e 0b 54 3f b0 87 2a b5 0c 68 e8 3f
       0.0012234284793445477 0.7627013719941171
0000b0 98 67 b9 ad fb 1b 20 3f 5f 99 ff 8f 12 90 1d 3f
       0.00012290427445088288 0.0001127730683943887
0000c0 df a2 69 be 22 b5 21 bf 55 9f b8 78 ed 7a 20 3f
       -0.00013509797209400925 0.00012573384116020916
0000d0 6b 93 c6 24 36 8b 1e 3f 58 c7 bd 46 8f 96 21 bf
       0.00011651533095020725 -0.00013418673494985478
0000e0 c9 41 af 15 0c 81 20 3f f4 90 ae e2 0e 77 1f 3f
       0.0001259162189328879 0.00012002971986519226
0000f0 83 8c d1 09 c5 93 21 bf 9a ee 19 b5 a0 70 dd 3f
       -0.00013410358670560085 0.45999925313638246
000100 00 00 00 00 00 00 00 00 77 fc 9a 7d eb 51 e8 3f
       0.0 0.7599999860029943
000110 44 31 3a 7d fb 28 cc 3f e4 ef 40 b6 7b bc c1 3f
       0.2200006829701896 0.13856455229858888
000120 77 fc 9a 7d eb 51 e8 3f 44 31 3a 7d fb 28 cc 3f
       0.7599999860029943 0.2200006829701896
000130 e4 ef 40 b6 7b bc c1 bf 77 fc 9a 7d eb 51 e8 3f
       -0.13856455229858888 0.7599999860029943

running_mean_std.running_var f8 [40]
000000 29 cc 83 5f 59 d9 5d 3f cf 2d c8 21 71 d8 5d 3f
       0.0018218395981051216 0.0018216233066848835
000010 a3 85 9a cc 3d 25 8d 3e c9 15 8f 2a 53 d9 5d 3f
       2.1715070479704296e-07 0.0018218338175172036
000020 a3 85 9a cc 3d 25 8d 3e 21 d3 1f 7d c6 34 39 3e
       2.1715070479704296e-07 5.868764989596033e-09
000030 5f 7d 6a c9 ce 97 93 3f 20 c2 2a a9 eb ca 8c 3f
       0.019133788150268113 0.014058915233676805
000040 14 48 dc 1a f3 0d 76 3f 25 61 ef 90 09 d7 8b 3f
       0.00538439715252716 0.01359374497944594
000050 40 ae d3 6d 19 a7 82 3f 4d d6 94 62 dd 33 8d 3f
       0.009107779182577436 0.014259080477681563
000060 58 68 44 2f c3 1c 92 3f 10 fe d6 8a a8 12 5f 3f
       0.01768784500118445 0.0018965383454626651
000070 dc fe c3 3d a3 5d 65 3f e1 b5 bc fd 6b ca 76 3e
       0.002608126478776158 8.49020120290756e-08
000080 3e cf 93 41 bd 58 5f 3f 6e 71 f4 ae c8 73 65 3f
       0.0019132469372466622 0.0026186866376873208
000090 5d 03 9a 92 9b cc 7d 3e 6c ed ef 62 4f c3 5f 3f
       1.1101085264400319e-07 0.0019386554010896962
0000a0 24 d5 9c ca 9e 76 65 3f bc bc 32 ab 99 19 86 3e
       0.0026200391193024353 1.6465783900718394e-07
0000b0 c4 10 56 aa 9f 09 19 3f e5 80 e5 f6 50 4f 30 3f
       9.551083583942121e-05 0.000248868242939805
0000c0 a2 56 6d 49 0c 00 f3 3e e1 13 bc a6 66 b1 19 3f
       1.811999080854907e-05 9.801091226442584e-05
0000d0 11 b0 f6 01 05 4a 2f 3f f2 86 65 91 1e e9 f2 3e
       0.00023871718529500143 1.8034575157150263e-05
0000e0 12 6b 98 e2 03 a7 1a 3f 0d 4e 89 4f 73 80 30 3f
       0.00010167084897043054 0.0002517968673931566
0000f0 93 20 e4 83 69 2c f4 3e a2 b4 25 a6 53 8a 3e 3e
       1.9238934549498597e-05 7.110726759452894e-09
000100 21 d3 1f 7d c6 34 39 3e ef 71 90 fa f2 e1 43 3e
       5.868764989596033e-09 9.258563542620071e-09
000110 14 3d 69 8b bd 6d 3a 3e d6 7a cc 95 45 b1 39 3e
       6.153405055096653e-09 5.981993869679643e-09
000120 ef 71 90 fa f2 e1 43 3e 14 3d 69 8b bd 6d 3a 3e
       9.258563542620071e-09 6.153405055096653e-09
000130 d6 1a 42 8f 45 b1 39 3e ef 71 90 fa f2 e1 43 3e
       5.981993778911593e-09 9.258563542620071e-09

running_mean_std.count f8 []
000000 00 00 00 02 00 50 a4 41
       170393601.0

a2c_network.sigma f4 [6]
000000 63 6b b2 bf 3d fd ba bf 26 64 cb bf 0f c5 ed bf
       -1.3939022 -1.4608532 -1.5889938 -1.8575763
000010 24 b1 08 c0 8f cb 04 3f
       -2.1358118 0.51873106

a2c_network.actor_mlp.0.weight f4 [256, 40]
000000 81 4b 02 be 03 2f 98 3d 87 14 f0 3e ce 85 9b 3e
       -0.12724115 0.07430842 0.4689066 0.30375522
000010 6e ce fc 3e 62 90 8d bd 86 ed 87 bd 6e 7d 4f 3c
       0.49376243 -0.069123045 -0.06637101 0.012664182
000020 6b ff 5f 3d da b5 a9 be ae 36 8a be 93 e2 6d 3c
       0.054686945 -0.33146554 -0.26994842 0.014519352
000030 64 b0 9d 3b 0f 57 82 bd 8c 5e ea bc c8 45 a8 3c
       0.004812287 -0.06364261 -0.028609537 0.020541087
000040 d7 a8 7a 3c c6 b9 3c bb bd 65 b9 3d 5c 20 9c 3c
       0.015299044 -0.0028797253 0.09052608 0.019058399
000050 93 bf b2 3b e0 de 57 3e 90 e6 e3 3d 08 f1 4a 3e
       0.0054549663 0.21081114 0.11127961 0.19818509
000060 86 da e9 3b f0 09 c3 bd f4 b8 f5 bb 2e 43 8b be
       0.0071366457 -0.0952338 -0.007498855 -0.27199692
000070 a3 47 00 bb 9d b3 f3 bc 70 73 8a be d6 cd b3 be
       -0.0019573949 -0.029748732 -0.27041197 -0.35117978
000080 f3 cb 1b 3e dd 12 0d be f5 14 15 3f 6b 0d a2 be
       0.15214519 -0.13776727 0.582351 -0.31650862
000090 df bc e8 bd 32 a0 4d 3f f6 a5 83 3e b6 28 fe 3d
       -0.11364149 0.80322564 0.25712556 0.12410109
0000a0 7b 8c 91 bd b7 23 b0 38 bd 1e ad bd e6 5e 8b bd
       -0.07106873 8.3989864e-05 -0.084531285 -0.0680521
0000b0 ff 65 94 bd 1f af 19 bd a4 ea 15 3e 35 39 f2 be
       -0.07246017 -0.037520524 0.1464029 -0.4730927
0000c0 e5 a8 62 bf 20 5b 6b 3d b8 1d d3 3d 04 d6 0c 3e
       -0.8853896 0.05745995 0.10308403 0.13753515
0000d0 b2 39 16 3c 62 49 c0 bc ff 7c 47 3d 91 bb 17 bd
       0.009169029 -0.023472492 0.04870319 -0.03704411
0000e0 c4 78 76 3e 1f d7 95 be 1f 00 d7 3e 82 3d 88 bd
       0.24069506 -0.29265687 0.4199228 -0.06652357
0000f0 b1 18 9b 3c a3 7a 2a 3e 50 b0 01 bd 23 20 8b be
       0.018932672 0.16648345 -0.031662285 -0.27172956
000100 ae 3e 7a 3e 64 ed 00 3d 8a 57 71 be 1e 2f 52 3e
       0.24437973 0.031476393 -0.2356855 0.20525786
000110 84 a1 73 be f1 b3 99 3e 33 51 4f 3e da 13 85 3e
       -0.23792082 0.30020097 0.20245819 0.25991708
000120 29 93 47 3d 0b 8e 1d be c4 77 48 3d 0c 29 52 bf
       0.048724327 -0.15386216 0.048942342 -0.8209388
000130 b9 2e 96 3c 4a c9 5f 3c 2c 4c 33 3f 11 f3 ce bd
       0.018332826 0.013658831 0.70038104 -0.10104955
000140 9a a5 6f be e3 42 19 3e 1c 94 9d 3e 69 e9 08 3e
       -0.23403016 0.14966922 0.3077706 0.13370289
000150 b6 3d 57 3e 62 ea bc bd 74 2b e6 bd b2 d8 7c be
       0.21019635 -0.092243925 -0.11238757 -0.24692038
000160 14 db 7f 3d e4 51 f5 bd 28 2a 29 3e 6a 7a f5 3d
       0.06246479 -0.1197851 0.16519988 0.11986239
000170 92 58 f1 bd 8c ec 2a bd f8 04 3e bc ea d1 40 be
       -0.117844716 -0.041729495 -0.011597864 -0.18830076
000180 fb 7a bd 3b e9 05 63 3d 6f ab 0b be b8 fd 76 3c
       0.0057824827 0.05542556 -0.13639615 0.01507514
000190 f0 16 19 3b fc 73 e4 3e 64 ef 08 be 6c dd c5 3c
       0.002335962 0.4461974 -0.1337257 0.024153434
0001a0 1e bc 00 3e 67 c8 f2 be 66 20 59 be c9 eb 96 3d
       0.12571761 -0.4741852 -0.21203765 0.07369191
0001b0 39 a8 1c 3d 1f 1a 36 be d2 e7 64 3d 19 b7 e4 be
       0.038246367 -0.17783402 0.055885144 -0.44670942
0001c0 1a f1 8d bc 42 7c cf bd d6 6b 3d 3f 2e 09 9f be
       -0.01732688 -0.10131122 0.7399267 -0.3106169
0001d0 01 f4 cf 3d f5 c6 26 3f cd 28 81 3e 94 2e 8c bd
       0.10153962 0.65147334 0.2522644 -0.068448216
0001e0 63 c5 8d bd 03 81 78 3e 20 65 19 be d2 73 8c 3d
       -0.06922414 0.24267964 -0.14979982 0.068580285
0001f0 18 83 d4 bd 28 51 c2 bc 72 8b eb bd 8d 93 6e 3c
       -0.10376567 -0.023720339 -0.115012065 0.014561546
000200 c5 79 46 3d 48 a4 73 be ac 69 97 be a0 e7 b4 3c
       0.048455972 -0.23793137 -0.2957281 0.022083104
000210 8b 4a 8a bd 67 72 96 3b d8 55 83 bc c9 4f da 3b
       -0.06752499 0.0045912745 -0.016032144 0.006662343
000220 c8 df 37 3b 92 67 42 ba 4f b6 7e 3e 4e 9a 85 ba
       0.0028056968 -0.0007415946 0.24874233 -0.0010193081
000230 8e a0 15 bd 4d 5b 35 be 83 38 71 bc cc 14 8c bc
       -0.03653007 -0.1771061 -0.014722946 -0.01709976
000240 af 89 3d 3e 41 f9 f2 3d 51 9a 15 bd b5 a3 72 bc
       0.18509553 0.11863948 -0.03652412 -0.014809539
000250 98 c1 a9 3d 9e 13 1d 3d 56 75 d9 bc 0f 39 5b be
       0.08288878 0.038348787 -0.026545208 -0.21408485
000260 78 fc ce 3d a8 94 06 3e d0 a0 2b 3f eb c4 6a 3d
       0.10106748 0.13142645 0.67042255 0.0573167
000270 50 d8 0c bb eb 37 2d 3f f1 cb 41 bd 5f 3c 23 3d
       -0.0021491237 0.6766345 -0.047313634 0.039852496
000280 37 7d 1d be 8d be ed bc 3d 9d e7 3e 3d 65 9b 3d
       -0.15379797 -0.029021526 0.4523715 0.07587669
000290 cb 69 9f 3e 35 3b c3 bd 86 93 22 bf a1 9b 99 be
       0.311354 -0.09532777 -0.6350635 -0.30001548
0002a0 b5 6b 1e be e7 9c eb 3d 5c ce 75 3d 15 71 42 3e
       -0.15470774 0.11504536 0.060011253 0.1898845
0002b0 9b 50 1a be 20 57 01 bd 23 97 f3 bb 36 64 0e 3e
       -0.15069811 -0.03157723 -0.0074337884 0.13905415
0002c0 e9 1e ea 3b 3e 29 e8 bd 2b e2 26 bd 06 a6 dd bd
       0.007144798 -0.11335991 -0.040743034 -0.10822682
0002d0 f6 b3 c1 3c 4d 04 e6 be 5e 27 ef bd 51 f8 1b be
       0.023645382 -0.44925156 -0.116774306 -0.15231444
0002e0 0f 97 e9 bc 0a 6b 27 be db 52 c5 3e 0b 03 52 3e
       -0.028514413 -0.16349426 0.38539776 0.20508973
0002f0 b4 22 f2 be a7 20 a2 3c 3b 5e e7 bd c5 36 7b 3f
       -0.472921 0.01979096 -0.1129727 0.98130447
000300 6e 77 9b 3d 5c 65 95 3d 42 8c 65 bf 56 46 2a 3f
       0.07591139 0.072947234 -0.8966714 0.66513574
000310 a3 89 7c bd e7 c4 8c bf 53 fa 43 bf 6b fd 54 be
       -0.061654698 -1.099759 -0.7655384 -0.20799796
000320 37 07 84 3d d0 92 ae bd af eb 9b 3e ff 5c ad bd
       0.064466886 -0.08524096 0.3045325 -0.08465003
000330 0c 76 9d 3e f3 e9 e3 bd fd f4 38 be f5 48 8f 3d
       0.30754125 -0.11128607 -0.18062206 0.06996337
000340 bb 0a cb 3c ad d5 ac 3d 18 6c 1d be 7a 1e b5 bb
       0.02478539 0.08439193 -0.15373266 -0.0055273147
000350 c0 84 e1 bc 4f a0 d9 bc b3 bc a4 bd 46 a3 4a 3e
       -0.02752912 -0.026565699 -0.08043804 0.19788846
000360 57 36 8d bd 4f cd 9f bc 8f 1f 95 be 0d df 0a 3d
       -0.0689513 -0.019507078 -0.2912564 0.033904124
000370 c7 d9 04 bd a7 e8 6c 3e d7 fe a4 3c 53 ae 90 3e
       -0.03243425 0.23135625 0.020141048 0.28258
000380 91 3f 9d 3e 44 a5 29 3e 6f 4b 33 bd ec 7e de bd
       0.3071256 0.1656695 -0.04377311 -0.10864052
000390 13 4d 57 3d ac 1f e6 3d bd d4 57 3e 36 a3 75 3c
       0.052563738 0.1123651 0.21077247 0.014992526
0003a0 95 06 c9 3d c4 12 0a 3e b7 ed 41 3d 77 9a a0 3e
       0.098157085 0.13483721 0.047345843 0.31367847
0003b0 4e 34 e8 bd c7 77 88 bd 7b 52 83 be 48 38 10 be
       -0.11338101 -0.06663471 -0.25648865 -0.1408397
0003c0 b0 e0 30 be 19 7a 4e 3d 4b c1 4e be c1 c8 63 3d
       -0.17273211 0.05040941 -0.20190923 0.055611376
0003d0 6f 63 81 be e9 98 4d bd d7 ca 3c be d2 7d e8 3d
       -0.25271174 -0.050194655 -0.18436752 0.11352123
0003e0 75 45 52 3e 2d 77 dd 3c 3d 52 85 bd 77 21 03 3d
       0.20534308 0.027034367 -0.06509826 0.032014336
0003f0 d5 84 29 be 87 d3 92 bd 42 80 b3 3d 4d b3 86 3e
       -0.16554578 -0.07169252 0.087646976 0.2630867

a2c_network.actor_mlp.0.bias f4 [256]
000000 8b 7f 5b bd dd 20 57 bc 29 c7 8d 3a 9c a5 da 3b
       -0.05358843 -0.013130394 0.0010816801 0.006672574
000010 d2 bc 08 bf 35 89 53 bd 2c 02 68 bc 3d 75 f9 be
       -0.53413117 -0.051644523 -0.014160674 -0.48722258
000020 4f 3e 62 be 80 a1 bd bd 08 af 53 3e 33 e4 a0 bd
       -0.22094081 -0.09259319 0.20672238 -0.078560255
000030 77 16 a7 3d 07 ca 10 be c9 86 c8 3c 90 fd e1 bb
       0.08158582 -0.14139567 0.024478333 -0.006896682
000040 88 31 03 be e3 59 56 be b7 5d 87 bd 48 f8 94 3e
       -0.12811863 -0.20932727 -0.066096716 0.29095674
000050 a4 e0 c3 3b 8d 41 1a be ee e8 44 3c 77 d6 73 bd
       0.005977707 -0.15064068 0.012018425 -0.0595307
000060 a4 7d ef 3c 03 2a 80 3d 28 fb 46 be 11 5d 22 be
       0.029234715 0.06258013 -0.19431746 -0.15855815
000070 97 98 47 bf 13 5e 5a 3e f2 e4 1a bd a7 bb 98 be
       -0.7796721 0.21324949 -0.037815996 -0.29830667
000080 69 b3 75 bf 90 e4 c7 bd 6e 32 85 bf 02 62 c1 be
       -0.95976883 -0.09760392 -1.0406015 -0.37770087
000090 c4 a1 82 3c 8d ff bb bd 7c 60 44 bf 17 43 49 be
       0.015946276 -0.09179602 -0.76709723 -0.19654499
0000a0 36 ff 0a 3d 25 09 97 be 5f d4 e5 be 0e a1 6d 3d
       0.033934794 -0.29499164 -0.4488859 0.05801492
0000b0 8a cd 4e 3d 71 53 32 3e ec a9 97 bd 0d 10 da be
       0.050488986 0.17414643 -0.07405457 -0.4259037
0000c0 34 8d 13 bd c6 ef 8b 3d 8c b7 0f be 88 c2 1a 3d
       -0.036023334 0.068328425 -0.14034861 0.037783176
0000d0 86 8a d6 bd ae bb bf bc ab 0c 93 bb cc 2b 3b bd
       -0.1047564 -0.023404922 -0.004487594 -0.045696065
0000e0 80 d1 3e bf 62 db 93 bd 40 db 03 bc f7 73 ea bd
       -0.7453842 -0.07219578 -0.008047879 -0.114479
0000f0 6c 7c 1a bf af 8b 9c 3b bc b6 8e 3d 43 25 0a 3d
       -0.603461 0.004777394 0.069684476 0.03372694
000100 32 25 04 3d 52 ff 90 bc 17 a9 af be e4 22 65 be
       0.032262035 -0.017699871 -0.34308693 -0.22376591
000110 2c 18 f5 be eb a9 91 3d 11 d3 81 be c3 75 58 be
       -0.47870004 0.071124874 -0.25356343 -0.21138673
000120 12 c1 39 bd 6d 48 5e bd f2 ad 04 be 79 b7 88 bd
       -0.04535014 -0.05426829 -0.1295698 -0.0667562
000130 17 a8 11 3e ea d1 13 be f8 d0 10 3d 3a e2 2c be
       0.14224277 -0.14435545 0.035355538 -0.16883174
000140 0b bf 1e 3c 4a 62 b1 3d 0b 3f 91 b9 7c 99 9e 3c
       0.009689103 0.08661325 -0.00027703526 0.019360296
000150 16 c1 96 be 8c ae 75 be 39 33 ce 3e 9d 16 80 be
       -0.29444188 -0.23992366 0.40273455 -0.25017253
000160 9f a6 00 3d d7 60 5b 3c 3c b2 a0 3d 45 6b 9b be
       0.031408902 0.013389788 0.078464955 -0.30355278
000170 6e 62 29 3e 1f e2 25 bf f9 3c 80 bd a8 5f 02 be
       0.16541454 -0.6479816 -0.062616296 -0.12731802
000180 de ca 72 3d eb c4 8d bd 57 62 13 be b2 9f df be
       0.0592755 -0.06922325 -0.14392982 -0.43676525
000190 85 27 f2 bd ba de ef be 2d f1 ba be 1d 09 6b be
       -0.11823944 -0.46849614 -0.36512128 -0.22952695
0001a0 4b fe 49 bf 29 18 e3 bd 0a 9e 0f 3d f0 0a a4 bd
       -0.78903645 -0.110885926 0.035062827 -0.08009899
0001b0 9f 7f 3c be 9e ba 9d be 87 2e ac 3b 0a db 9e bc
       -0.18408059 -0.3080644 0.00525457 -0.019391555
0001c0 60 a1 b2 bd 4a b0 8f 3e 23 20 f4 3c 8d 27 18 bc
       -0.08722186 0.28064185 0.02980048 -0.009286773
0001d0 1a 0a 24 be d0 a8 5d bd 1e 4c 75 3c fb 0c 17 bf
       -0.16019478 -0.05411607 0.014971761 -0.5900418
0001e0 db 5b 85 3b ed 02 c2 3c 18 80 33 3e 6a 52 7f bc
       0.004069788 0.023683036 0.17529333 -0.015583614
0001f0 97 80 9c 3e 4f f8 fa 3d 6c 12 08 3d 57 8d b4 bd
       0.30566856 0.12254392 0.033220693 -0.08816021
000200 44 fc 6e bd 61 7b ef be 99 0e ef bd e9 7f 1b bf
       -0.058346048 -0.46773818 -0.11672706 -0.6074205
000210 c2 45 79 3b 47 5b 1e be 60 6e b0 bd bd 45 d4 bd
       0.0038035964 -0.15464507 -0.08614802 -0.10364864
000220 5c 51 22 be 4b d1 57 bd 44 25 44 3e ac 0b 7e bf
       -0.15851349 -0.05268983 0.1915484 -0.9923656
000230 ee 22 52 bf 8b ae ae 3d 57 c8 0a bf 90 67 97 bd
       -0.8208455 0.08529385 -0.54211944 -0.073928
000240 1f 06 f9 ba 7c b2 34 bb 37 8a 96 be 59 4b 4b bf
       -0.0018999017 -0.0027572205 -0.29402325 -0.79411846
000250 20 96 d1 3b 9c 39 c9 bd 5e 6c 96 bc 78 9f fa 3d
       0.00639607 -0.09825441 -0.01836222 0.122374475
000260 7f f4 de 3a e0 cc a7 bd 1e 75 44 bd 9f 54 15 bc
       0.0017010121 -0.08193374 -0.047963254 -0.0091144135
000270 49 0a 90 bc cd 46 15 bd 89 44 43 be 7d 4e 9a 3c
       -0.01758303 -0.036444474 -0.19069113 0.018836254
000280 c5 54 a8 be cd 5d 08 3e 74 f3 b5 3d 7d 15 d7 be
       -0.32877174 0.13317032 0.088843256 -0.42008582
000290 81 16 49 bf cc 0a 0d 3d 34 48 14 bb 38 d0 a2 be
       -0.78549963 0.034434125 -0.0022626044 -0.31799483
0002a0 22 08 46 3e c4 a8 6d 3d e6 a0 ee 3d b3 17 3d be
       0.1933904 0.058022276 0.11651783 -0.18466072
0002b0 be 28 f3 3c 3b a8 28 3c ac 9d 8f bd 80 17 95 be
       0.029682513 0.0102940155 -0.070124954 -0.29119492
0002c0 dd 0e 96 bd 74 94 30 be 0a 48 15 bf 9d 5d 65 3e
       -0.07327054 -0.1724413 -0.5831305 0.22398992
0002d0 4f 0b 19 3d 00 2b 8a bc 70 0b e0 bd 48 df cf bd
       0.0373643 -0.016866207 -0.109396815 -0.101500094
0002e0 e5 ca 70 3c fe 2a 8f be d6 88 6c 3d 5a ba 6d bd
       0.014696811 -0.27962488 0.057747684 -0.058039047
0002f0 23 09 44 be 5f 50 cf bb 7a 6b de bd 6b 2c 63 3d
       -0.1914411 -0.0063267197 -0.10860343 0.055462282
000300 a4 97 20 bf 8e f4 a1 be 9e 13 1b be 01 a7 26 bd
       -0.62731385 -0.31631893 -0.15144202 -0.04068661
000310 36 0c 39 bf b6 7d 87 3d 1d 71 23 bd c3 0a c1 bb
       -0.7228426 0.06615774 -0.039902795 -0.0058911755
000320 cf 30 1a be cf 39 3a 3d f8 72 a5 bd 01 11 6e 3d
       -0.15057682 0.045465287 -0.08078569 0.058121685
000330 0e 2a 37 3e 29 a3 81 3b 72 d3 28 3d 2c 26 b7 3c
       0.17887136 0.003956218 0.041217275 0.022357069
000340 c0 c5 a9 bb df 25 41 be c8 24 e4 bd cb 09 f1 be
       -0.0051810443 -0.18862103 -0.11139828 -0.47077784
000350 8a ab 1a bc e8 aa 44 be 10 20 8c bd ea e5 40 3a
       -0.009440312 -0.1920582 -0.06842053 0.00073584786
000360 92 56 dd be a7 86 d9 bd e3 fd a6 3c 16 10 6a bd
       -0.4323011 -0.10621386 0.020384734 -0.057144247
000370 62 ff 34 3d 11 fc 44 3d d3 55 bd 3d d1 26 08 be
       0.044188865 0.04809195 0.09244885 -0.13296057
000380 bc bb dd be 61 61 7e bd c4 0b 56 3d ef c8 36 3c
       -0.43307292 -0.062104587 0.052257314 0.011156305
000390 78 91 97 bd 6e 7b c1 bd 77 78 8b 3e 70 2e 90 be
       -0.07400793 -0.094473705 0.27240345 -0.2816043
0003a0 58 08 37 3d fa 48 25 3f b4 a4 d4 3c 8e 68 d4 be
       0.04468569 0.6456448 0.025957443 -0.4148602
0003b0 37 68 e9 bc b9 ab ce 3d d3 52 4d bc 0e 4e 8a bd
       -0.028492076 0.10091347 -0.012531954 -0.06753169
0003c0 30 d9 95 3d 0a 85 8f bd f7 b0 72 bf 71 a8 00 bf
       0.07316816 -0.07007797 -0.94801277 -0.5025702
0003d0 7a 6f 40 bc ff 35 04 bd 32 68 2a 3d 86 bd f5 3c
       -0.011745328 -0.032278057 0.041603275 0.029997598
0003e0 9a f4 1f 3e 54 35 14 bb ac d6 b5 be f3 09 c3 3c
       0.15620652 -0.0022614794 -0.35515344 0.023808455
0003f0 73 30 87 bd 8c 8e 0d be a1 3e 0d bd 1b ac 1d bd
       -0.06601038 -0.13823909 -0.034483556 -0.03849421

a2c_network.actor_mlp.2.weight f4 [256, 256]
000000 62 4f 29 3c d9 57 99 bb cd 05 45 be 67 3c 9b bb
       0.010333868 -0.0046796617 -0.19240494 -0.004737425
000010 8f 7d 8f 3d a9 a6 4d 3e 05 5f 43 bd c9 3f 5f 3d
       0.0700637 0.20083107 -0.04769804 0.05450419
000020 50 f4 6b 3d b2 77 12 3d 86 48 9f bd ac 97 13 be
       0.05760604 0.03575868 -0.077775046 -0.14413327
000030 69 58 f3 bc f4 82 fc 3c 47 44 21 be 94 43 09 be
       -0.029705243 0.030824162 -0.15748702 -0.13404685
000040 6a 15 6b 3d 37 2f 2e bc d1 47 7b bd 99 2c 06 be
       0.05739347 -0.010631374 -0.061347786 -0.1310295
000050 0b 03 57 3d ec 72 3f be c5 a7 13 3e 81 4b 9e bd
       0.052493136 -0.18696183 0.14419468 -0.07729245
000060 4b 08 60 3c 52 11 b8 bd 06 ba 22 be e4 21 2f bc
       0.013673852 -0.089876786 -0.15891275 -0.0106892325
000070 ef 23 06 3e e8 b2 fc bc f6 64 12 3e ed f1 66 bd
       0.13099645 -0.030847028 0.14296326 -0.056383062
000080 b2 e4 ac 3d 9b b3 95 bd e2 28 cb 3d 39 30 d3 bd
       0.08442058 -0.07309648 0.09919907 -0.10311932
000090 3b 7b cc 3d 92 23 b4 3c 5c 9a 9d 3d 80 9d 22 3e
       0.09984442 0.021989617 0.07695457 0.15880394
0000a0 06 7e 15 bd 78 a6 38 3e e3 f7 f0 3b 00 25 f4 3d
       -0.03649714 0.18032253 0.007353769 0.1192112
0000b0 e3 24 42 bd 5c 60 26 bc e7 ef c5 bd 9c c8 f9 3c
       -0.04739846 -0.01015481 -0.09664898 0.030491166
0000c0 55 f2 54 bd 0b e7 26 3c ff c8 ca bd 07 08 0c be
       -0.05198892 0.010186921 -0.09901618 -0.13674937
0000d0 7f a1 d4 bd 16 67 b7 3b 35 6b 13 bd 77 d6 9b bc
       -0.103823654 0.0055970056 -0.035990912 -0.019023163
0000e0 4d 27 af bd 8f 5a 72 bd d7 70 3a 3d cc 55 69 3e
       -0.08552418 -0.059168395 0.04551777 0.22786635
0000f0 82 bd 77 3e ea d0 2a bc cc 7c 0c 3e 06 a2 ea bc
       0.24193385 -0.010425786 0.13719481 -0.028641712
000100 9f 38 e0 bc b3 81 9e 3c 16 ed 9a 3e ff ed ef 3d
       -0.027370749 0.019348955 0.30259007 0.11715316
000110 0e 53 f0 3d 69 52 8c bd 65 eb 95 bc 00 fc 56 3d
       0.117345914 -0.06851656 -0.018300721 0.05248642
000120 c7 f6 fd 3d db fa 19 bd d0 ec e8 3d 3f c9 93 3d
       0.12400585 -0.03759275 0.113732934 0.07216119
000130 bf 9e c5 3c 4a 8d ab 3d f3 80 da 3c 37 9b da bd
       0.024123548 0.08376558 0.026672816 -0.10674136
000140 40 96 03 be 62 bb 80 3d 30 aa a4 bd 85 7d cb bd
       -0.12850285 0.062857404 -0.08040273 -0.0993605
000150 cd 9a 3b 3c e2 99 17 bd 3d 87 a1 3d 40 72 0f be
       0.011450482 -0.03701199 0.07887123 -0.14008427
000160 25 16 2f be cb db 38 bd 5e 23 42 bd c5 b1 73 bd
       -0.17098291 -0.045131486 -0.04739701 -0.059495706
000170 63 d5 48 3d 22 d6 02 3d 3c 7a 25 bd b1 1e 67 3d
       0.049031626 0.031942494 -0.040399775 0.056425754
000180 21 c6 f6 bc b6 10 02 3e dc 0c 14 bd 94 d5 f6 bc
       -0.030123772 0.12701687 -0.036145076 -0.030131139
000190 a5 99 09 3d df 42 aa 3d 0d a1 f1 bd 37 00 d1 bd
       0.033593792 0.08313536 -0.11798296 -0.10205119
0001a0 b5 18 85 3d 32 dd 57 bd cc f2 8f 3d 07 57 e1 3d
       0.06498853 -0.052701183 0.07028732 0.11002927
0001b0 e8 6f 19 be bd bd 22 bb 6c 4e 5b bd 04 4e ac 3c
       -0.14984095 -0.002483233 -0.053541586 0.021033294
0001c0 84 95 96 3b 96 f1 6a be a2 50 6b 3d a8 cd 2e bd
       0.0045954604 -0.2294372 0.057449944 -0.042676598
0001d0 75 17 2e be 5c 98 e3 bc 76 74 8c 3d 0d a5 0f 3e
       -0.17001136 -0.027782612 0.06858151 0.14027806
0001e0 d9 a9 18 bd 37 66 3a bd 8f 9e a7 3d f7 7e be 3d
       -0.037271354 -0.045507636 0.081845395 0.0930156
0001f0 1d ed 87 bd 0b e9 d9 3d 00 e0 ac bd ca 47 01 be
       -0.06637023 0.106401525 -0.08441162 -0.12625042
000200 cf 7a cb bd 49 19 41 3a 05 80 2b 3d e6 f5 b7 3c
       -0.09935533 0.00073661335 0.041870136 0.02245612
000210 46 4d 3c 3d 39 ae 0d bc 42 2e f3 3d cb 41 a8 bc
       0.04597213 -0.008647495 0.11874057 -0.020539185
000220 20 1d 4f 3e 1b ba 16 be 37 53 c8 bd 24 9a 94 bc
       0.20225954 -0.14719431 -0.09781497 -0.018139906
000230 fa c9 1b 3e 86 cd b2 3b cd cd 02 bc 23 3e c5 bc
       0.15213767 0.005456629 -0.007983637 -0.02407748
000240 25 ee 3e bc 65 bc 56 be aa d7 87 3a 75 3e f8 bd
       -0.011653458 -0.20970304 0.0010363956 -0.12121288
000250 39 59 d9 bc 6d 27 e8 3c 07 35 a1 3b 07 25 b3 bd
       -0.026531802 0.028339112 0.0049196514 -0.08747297
000260 f2 93 cd 3d b2 b4 6a bd c8 ec 0a be 67 1d 83 3d
       0.10037984 -0.05730123 -0.13566887 0.064020924
000270 61 22 14 bb dc 17 4c be 31 20 4a 3d 90 27 a9 3d
       -0.00226035 -0.19930977 0.049347106 0.08259499
000280 d7 4f 04 bd 08 02 0a be 0e 48 06 be 6c e6 d9 3d
       -0.032302704 -0.13477337 -0.13113424 0.106396526
000290 b6 b0 3d 3e 80 f9 2e 3e 38 1f 21 3d bb 23 bb bc
       0.18524441 0.17087364 0.039336413 -0.022844186
0002a0 fe 03 02 bd 57 57 26 bc 05 4d 24 bd 05 8f ef 3d
       -0.03174209 -0.010152659 -0.040112514 0.11697201
0002b0 da 11 7e bd 23 29 1c be 4a ee bb bd bd 74 a8 3c
       -0.062028743 -0.15250067 -0.091763094 0.020563478
0002c0 52 6c 23 bd fd c4 28 3e a9 fa 5f 3e 4c 3f 41 3c
       -0.039898224 0.16481395 0.21872963 0.011794876
0002d0 8d 41 b1 3c 62 bc 76 bc 3f 2e f8 3c 2f f5 6b be
       0.021637702 -0.015059562 0.03029549 -0.23042749
0002e0 8f a4 13 3d aa 39 4b 3d 10 60 86 bd 46 bc 7d 3c
       0.036045607 0.04961554 -0.06561291 0.015486782
0002f0 b8 cf a2 bd cd fa 3d bd b2 25 e3 3d af dc ef bd
       -0.079497755 -0.04638176 0.11091174 -0.11712014
000300 90 35 dd 3d 89 22 c2 bd 6c 2a f2 3d 2b 7d 94 bc
       0.10801232 -0.09479243 0.118244976 -0.018126091
000310 d4 c1 1d bd 5c d0 9b bd 5d 1f 33 3d d5 5f 08 3d
       -0.038514927 -0.07608101 0.043731082 0.033294518
000320 c0 e3 f2 3d 1a 4f 24 be 6f 6c 1a bd 62 f4 db bb
       0.11859846 -0.160458 -0.037701067 -0.0067124823
000330 78 51 63 be 33 6a 29 be a3 d2 bb bd 2a 09 16 be
       -0.22199047 -0.16544418 -0.09171035 -0.14651933
000340 73 6e 86 bc e4 3c ba bc 5d 4d 1c bd e4 66 e9 3d
       -0.016410088 -0.022734113 -0.038159717 0.11396578
000350 88 64 71 3a da 4a 2f bd 59 02 36 bd b2 36 03 be
       0.0009208401 -0.042795993 -0.044435833 -0.12813833
000360 2c 5d 1e 3b fd d0 0f 3e c6 87 40 bd fd 30 25 bd
       0.0024164421 0.14044566 -0.047004484 -0.040329922
000370 50 62 0e 3e bc 2b 0b 3d a7 69 04 3c e1 36 78 bd
       0.1390469 0.033977255 0.00808183 -0.06059921
000380 1b 17 81 bc 20 09 be bd b2 96 48 3c 86 5c 0c 3d
       -0.015758088 -0.09279084 0.01224296 0.034267925
000390 92 61 af bd dd 73 ab bd c0 67 a9 b8 06 e7 c6 bd
       -0.08563532 -0.083717085 -8.077873e-05 -0.09712033
0003a0 4b 76 ae 3d 3b a1 ec bd 30 ca c1 bc 29 95 99 3d
       0.08518656 -0.1155419 -0.02365598 0.07499153
0003b0 95 e2 84 3d 86 a6 23 3d 0f b8 c3 bc bd 67 9d bd
       0.064885296 0.03995373 -0.023891477 -0.07685802
0003c0 1a ba 36 bd 67 98 0a bd 94 0a cd 3c ea ab b8 3e
       -0.044611074 -0.03383675 0.025029458 0.3606866
0003d0 20 ac c0 bd 7a 6b 2c 3d 90 36 85 3d ee 9c 88 3d
       -0.0940783 0.042094685 0.065045476 0.06670557
0003e0 5c 96 53 bd 4d db b9 bd d1 1f 35 3d f6 c4 8f bd
       -0.051657066 -0.090750314 0.044219796 -0.07019989
0003f0 ec 12 05 3e 73 11 55 3d 28 2f 14 be ef 8f 8f bd
       0.129955 0.052018594 -0.14471114 -0.07009875

a2c_network.actor_mlp.2.bias f4 [256]
000000 83 49 51 bd 60 c7 cb 3c c3 bf a1 bc 69 a1 e9 bb
       -0.051095497 0.024875343 -0.01974476 -0.0071298373
000010 69 2a 05 3d d9 1f 09 bd 6d 5e f1 bb d0 e3 fa 3b
       0.03251115 -0.033477638 -0.0073659928 0.007656552
000020 b2 66 60 bc f5 0f 06 3d 7e 89 1c bc cb 81 e1 ba
       -0.0136963595 0.03273006 -0.009554265 -0.0017204819
000030 7f 32 97 bc 54 e4 02 3d a3 82 1b bd 85 2b 8c bd
       -0.018456696 0.031956032 -0.03796638 -0.06844238
000040 10 6f 02 3d 49 99 7f bc 0d aa 37 bd ae a7 e6 3c
       0.0318442 -0.015600511 -0.044839907 0.028156128
000050 36 2c 96 bc f0 22 5e bc 81 b6 3b bd ec 2b 4f bc
       -0.018331628 -0.013558134 -0.045828346 -0.012644749
000060 f3 fb 8e bc d9 c2 0a 3c 12 18 a3 bc 6c 64 b2 3c
       -0.017454123 0.008469307 -0.019908939 0.0217764
000070 f3 52 02 3c af 39 93 3d d7 69 7c be af 4c 0c bd
       0.007954347 0.07188737 -0.2464975 -0.03425282
000080 21 31 1b 3d d7 d6 a6 bd 27 f0 95 3a 2b be 20 bd
       0.03788865 -0.08146446 0.0011439369 -0.03924386
000090 14 f1 4a 3c 37 76 f1 3c 9d b2 02 bd f0 d4 38 bc
       0.012386579 0.029475315 -0.03190862 -0.011281237
0000a0 11 44 46 bd 04 06 fa 3b db 32 50 3c 26 81 d5 bc
       -0.048404757 0.0076301116 0.012707437 -0.02606256
0000b0 c7 d8 75 bc 05 30 35 3d 11 1b d8 3c ac 6d c6 3c
       -0.015005297 0.044235248 0.026380094 0.024222218
0000c0 60 d0 d5 bb 1e 28 19 3d 54 d5 d8 bc e5 c8 9c 3d
       -0.0065250844 0.037391774 -0.02646891 0.07655505
0000d0 99 bf 6a bc 15 91 ca bc fa 05 c8 ba ee f9 e5 3c
       -0.014327907 -0.024727384 -0.001526057 0.028073277
0000e0 44 d9 18 3c 90 8d 4a 3b b8 12 2a 3c ea 1e bb 3b
       0.009329144 0.0030907132 0.010380439 0.0057104724
0000f0 4f 9b 51 3c a9 86 47 be aa ae 55 bd 96 5b 8d be
       0.012793376 -0.19484963 -0.052168526 -0.27608937
000100 76 7d 60 bc 48 6f b3 3c 68 bb f2 3c 36 f9 b1 3c
       -0.013701787 0.021903649 0.029630378 0.021725278
000110 58 a3 2c bc 2e 5f f3 3c 9f 5f 64 bd 51 db 47 3c
       -0.010536991 0.029708471 -0.055755254 0.012198285
000120 62 00 43 bd 6b 5a bc bc 95 d3 52 bc 76 c9 80 bc
       -0.047607787 -0.022992333 -0.012867828 -0.015721064
000130 ee 74 1a 3d 30 bb 74 bb 39 bb ea 36 ef 41 cd bc
       0.03770917 -0.0037343018 6.995539e-06 -0.025055854
000140 b4 c6 ed be 70 26 6e 3b d7 03 ac 3c ea 04 b3 3c
       -0.4644066 0.0036338829 0.020997925 0.02185293
000150 1f db 44 3d 3b 5e 32 bc 49 3f cf bc 00 e2 35 be
       0.048060533 -0.010886724 -0.025298731 -0.17761993
000160 68 82 3c 3c 00 f0 c8 bb 84 b7 75 3c 21 3d 35 3d
       0.011505701 -0.006132126 0.014997367 0.04424775
000170 d6 2c 21 3c 99 ef 74 bc c3 69 f5 bc bf 8c b3 bd
       0.00983735 -0.014949703 -0.029957658 -0.087670796
000180 08 42 84 bb d6 f3 b6 bc 61 42 1b 3d 4b 8c 7b 3a
       -0.004036192 -0.022333067 0.0379051 0.00095957954
000190 71 25 b7 bd bb 4d 6e bd a2 92 83 bc 00 2b 81 3c
       -0.08942688 -0.0581796 -0.01606113 0.015767574
0001a0 d3 eb bc bc 98 7b 9d bc 59 5f f6 3c ea 86 11 3c
       -0.023061669 -0.019223973 0.030074762 0.008882264
0001b0 b7 0c 8f 3c c5 be f7 be df af a4 bc 4d 7e fb b7
       0.017462118 -0.48387733 -0.020103393 -2.9980345e-05
0001c0 bc e9 4d 3d da 0d 36 be c8 60 e1 bd 4f 93 2f bc
       0.050271735 -0.17778721 -0.11004788 -0.010716273
0001d0 60 a1 00 3c 18 4d 3d bc b6 de 05 bd 63 30 a2 bc
       0.007850975 -0.011554025 -0.032683097 -0.019798463
0001e0 dd 90 87 bd 23 aa db bc 52 76 d6 bc fa 8a cd 3c
       -0.06619427 -0.026814526 -0.026179466 0.025090683
0001f0 ce 0a ee bc ca c7 82 bc cb 48 0a 3d 35 7a 8d ba
       -0.029057886 -0.015964407 0.033760827 -0.0010793867
000200 a5 91 a3 3c 04 42 22 be bf d1 36 bd 82 33 2b be
       0.01996691 -0.15845495 -0.044633623 -0.16718867
000210 8b e0 1d 3d f2 68 56 be a8 63 b2 bb cd 7a a9 bc
       0.03854422 -0.20938471 -0.005444009 -0.020688439
000220 65 8e 22 3c 90 59 35 be 47 70 b5 bd 4d e3 ea 3b
       0.009921645 -0.17709947 -0.08859306 0.0071682096
000230 7b df 0b 3c c6 dc 1e bc 90 59 ba be ec 7b 56 bd
       0.008537169 -0.009696191 -0.36396456 -0.052364275
000240 ea 4d 7c 3d f6 cb ef 3c 20 5d 12 3d 83 35 57 bd
       0.061597742 0.02927206 0.035733342 -0.052541267
000250 06 14 ce 3a c0 b5 09 bc 56 22 14 bd 2f f4 1c bc
       0.001572252 -0.008405149 -0.036165558 -0.009579702
000260 0f 6d f1 3b ae 1e 98 bc 09 f5 94 3c 1e a0 10 bc
       0.007367737 -0.018569317 0.018183248 -0.008827237
000270 1f c1 1c bd a6 36 97 be 19 6e 99 be af 7d 25 3d
       -0.038270112 -0.2953388 -0.2996681 0.040403064
000280 ab 8b 14 bc 3d 1b 5c 3d 23 dc ba bb f2 1b a4 be
       -0.009066503 0.053736914 -0.005702512 -0.3205257
000290 ac 1e 94 bc ea 46 97 3c a4 db da 3c 6a fe 07 3d
       -0.018081032 0.018466432 0.026716061 0.033201613
0002a0 53 d1 02 3c 24 5f a8 3d 61 b0 83 bd d9 e1 d3 3c
       0.007984477 0.08221272 -0.06430126 0.025864528
0002b0 3e cb 0f bb 51 2d 32 bd 83 31 ca 3c 09 56 0e 3d
       -0.002194121 -0.04350025 0.024681812 0.03475002
0002c0 43 dd c4 3d e3 f2 ed 3c 3d fa 40 bc f2 87 10 bd
       0.09612515 0.029046481 -0.011778411 -0.035285898
0002d0 c5 b6 4c 3d 8f cc 49 3d 4c 33 00 bd 94 dd 3b bd
       0.04997899 0.049267348 -0.03129892 -0.04586561
0002e0 44 21 27 3d 0a da d8 bc b2 b7 de 3c 8a 6e d9 be
       0.04080321 -0.026471157 0.027187202 -0.42467147
0002f0 15 1d f9 bb 97 ae c2 3c e8 f1 d1 3b d9 fb 5a bb
       -0.007602344 0.023764892 0.0064070113 -0.0033414273
000300 28 99 8a 3c ed 24 24 be 5a 0d 9e 3c 3b f6 0b 3d
       0.016918734 -0.16029711 0.019293476 0.03417037
000310 b1 b2 d7 3c 2a 58 d1 be 60 a7 44 bd 7d b5 31 bc
       0.026330324 -0.40887576 -0.048011184 -0.010846493
000320 bb e4 27 be d6 f6 34 bd 45 9b 22 be 5c 75 7f 3d
       -0.16395847 -0.044180714 -0.15879543 0.062367782
000330 ad a6 ae bc 5a 3c db 3c de 8a 17 bc 44 64 2a 3d
       -0.021319712 0.026762176 -0.009249417 0.041599527
000340 06 29 a1 3b 44 7c c2 3c 5f 08 e7 3c 8e 22 98 be
       0.0049182205 0.023740895 0.028202234 -0.29713863
000350 c1 7d 0d bd 2c 73 48 bd bc e0 40 b9 d4 08 a2 bc
       -0.034543756 -0.04893796 -0.00018394267 -0.0197796
000360 d8 ea b1 bd 1f 57 10 bd 80 fe ce 3c 6e ff 00 3d
       -0.08687371 -0.035239335 0.02526784 0.031493597
000370 ab 0c e4 3c 45 9f bb bc b1 39 e3 bb 07 5f 5a be
       0.027838072 -0.022903094 -0.0069343676 -0.21325313
000380 73 dc 0a 3d 01 ef 61 ba 9c d1 ea bc 37 2b c5 bb
       0.033901643 -0.0008618683 -0.028664403 -0.0060171145
000390 d4 3f 27 bd 7d a3 35 bd 58 7b 30 3c 38 f4 b7 bc
       -0.040832356 -0.044345368 0.010771595 -0.02245532
0003a0 c4 8a 03 3d ab 5a 07 bd 30 49 65 bc 09 6c 13 bc
       0.03211476 -0.033045452 -0.0139945 -0.008997926
0003b0 9a 21 9a 3c 71 f2 7e bc 49 08 bd 3c 7a e2 39 bc
       0.01881485 -0.015560732 0.02307524 -0.0113455
0003c0 c7 30 10 bd d5 bc 47 3c 2e 60 ef 3c 9c 43 e8 3c
       -0.035202768 0.012191017 0.029220667 0.028352551
0003d0 57 62 47 bc bf d0 83 3c d6 ab f8 3c 44 07 9e 3d
       -0.012169442 0.016090749 0.030355375 0.077162296
0003e0 1d b1 6c 3b c4 00 fc 3c 73 d8 26 bd 78 bf 09 3e
       0.003611631 0.030762084 -0.040733766 0.13451946
0003f0 1f 39 bd be a8 43 f6 3b 65 7b dd bd 21 4c a5 bb
       -0.36957642 0.0075153895 -0.10814551 -0.0050444757

a2c_network.value.weight f4 [1, 256]
000000 5a cc 23 bd 8a fe 99 bb 6d 57 42 bc ed e3 fe 3b
       -0.039989807 -0.004699533 -0.011861664 0.0077786357
000010 4b 89 7e ba b6 80 88 3c 4c 5e 4b bc 44 96 a0 bc
       -0.00097097893 0.016662937 -0.012412619 -0.019602902
000020 4f 69 3d 3d c5 68 46 bb 69 b1 bf bb 33 31 64 bc
       0.04624301 -0.003027485 -0.0058500064 -0.013927746
000030 9d 1d 17 ba 80 99 c4 bb 6d 7f 8e bc bf 85 03 3e
       -0.00057646056 -0.005999744 -0.017394746 0.12843989
000040 4b 15 54 bc 1f 05 d3 3b 10 49 92 bd f7 6c f6 3b
       -0.01294453 0.0064398195 -0.07142842 0.007520314
000050 65 4c 13 3a fe 80 b1 3a 82 bd 8c 3d 54 de 10 38
       0.00056189887 0.0013542471 0.06872083 3.4539335e-05
000060 15 fb 75 3b 89 5b b6 3d 53 be 32 bc b1 9b 0a 3b
       0.003753369 0.08904178 -0.010909635 0.0021149928
000070 b1 82 a5 3b de 08 07 bc 55 8f af 3d 3f f6 3c bc
       0.00505098 -0.00824186 0.0857226 -0.011533319
000080 0e 13 2c bc 25 4c 02 be 7a 8b 4a bc fe 7b 38 3b
       -0.01050259 -0.1272436 -0.012362355 0.0028150077
000090 6e f6 5c bb 48 ab 3d bc 4e 5f ad 3b 74 cb d9 bd
       -0.003371622 -0.011576481 0.005290902 -0.10634509
0000a0 c0 c6 1c 3d 4a 92 36 bd 6e 15 d0 3c ab 6c fb 3b
       0.03827548 -0.044573106 0.025400843 0.0076728663
0000b0 50 d6 41 3b 24 5d e8 bc 3a 7d 49 3b 4a 75 1f 3b
       0.0029577203 -0.028364725 0.0030744807 0.0024331384
0000c0 a2 cc d9 bb 8a 2f 97 bc 96 46 a1 bd b5 ac 9d ba
       -0.0066467086 -0.018455286 -0.07874791 -0.001202962
0000d0 27 73 40 3c 51 1f 18 bc 83 55 89 3e 79 37 59 3b
       0.011746204 -0.00928481 0.26823053 0.0033144637
0000e0 ca 30 54 3c d9 5d 37 3b 90 fe 2d bc 13 b4 4a bb
       0.012951085 0.0027979522 -0.010619774 -0.0030930087
0000f0 42 81 36 3c 30 e8 14 be db 68 c8 3b 44 97 84 3c
       0.011139216 -0.14541698 0.0061160154 0.01618541
000100 05 bd 39 bb b9 56 83 3c 36 e4 5e bb 12 72 3f bc
       -0.0028341424 0.016032564 -0.0034010536 -0.011684911
000110 0a 58 10 3c d2 94 8c bb 6f c4 24 3d 45 61 99 bb
       0.008810053 -0.0042902017 0.040226396 -0.004680785
000120 e7 d2 e5 3a 92 6f 12 3c 77 61 ba ba 23 1c bc 3b
       0.0017534167 0.008937733 -0.0014219721 0.005740659
000130 85 db c1 3d 56 3d 38 bc 7c e5 08 3c 90 56 43 bc
       0.09465698 -0.011245092 0.008355495 -0.011922494
000140 7a 48 98 bc fb 0b f9 bd 0e 92 d7 3b 47 61 8d 3b
       -0.018589247 -0.12160488 0.0065786904 0.004314575
000150 fa 9f 13 3b b8 80 82 bb 3d 6e 48 3b fc a8 e7 bd
       0.0022525773 -0.0039826296 0.0030583285 -0.11311528
000160 cf a4 2b bc 63 1f 5e bc 77 4d b8 3d 25 be 26 3b
       -0.010476305 -0.013557288 0.0899915 0.0025442925
000170 99 5e a2 bd 9e 68 8f bb 14 85 89 3c 34 b1 6a bd
       -0.07928199 -0.004376485 0.01678709 -0.0572979
000180 bb 75 5a 3a df c9 cf 39 d9 1f b5 b9 c2 01 28 bd
       0.0008333583 0.00039632522 -0.0003454674 -0.0410173
000190 1c c2 97 39 7f e8 53 be 6d 8d 1b 3c 88 ed df 3a
       0.00028945587 -0.20694159 0.009494168 0.001708434
0001a0 8e aa dc 3c 24 83 8d 3d 29 fe 13 bc 24 b2 a5 b9
       0.026936796 0.06909779 -0.0090327645 -0.00031603978
0001b0 33 d7 43 3e 08 3f c3 3d 96 61 c0 bc e2 8d 05 bb
       0.1912506 0.09533507 -0.023484033 -0.0020378758
0001c0 7c 73 f3 bb 9f 26 a8 bb 6e 30 43 bd 7d a6 4d be
       -0.0074295383 -0.005131557 -0.047653608 -0.20083041
0001d0 bf 32 00 bc 8a 34 34 3c 70 a6 20 3b f8 98 2b bc
       -0.007824599 0.010998854 0.0024513267 -0.010473482
0001e0 12 ec 66 bc 9b 10 e8 3b 67 c6 ac bb 6d 5f 34 bc
       -0.0140943695 0.0070820577 -0.005272675 -0.011009079
0001f0 3e 01 22 bc 92 4d b0 3c 00 92 0b bb 82 bd 6e 3c
       -0.0098879915 0.021521363 -0.002129674 0.014571549
000200 4b 15 19 3c 98 a1 9f bd b7 e0 86 3d 7f 7e 67 3d
       0.009343456 -0.077944934 0.0658583 0.05651712
000210 6e ed 32 3b 1c 61 8c bd d7 45 02 bc 02 82 7d 3b
       0.0027302164 -0.0685446 -0.007951221 0.0038682227
000220 ae 03 97 bd 80 98 6a 3c 42 36 94 bd 26 4d af 3b
       -0.07373749 0.014318585 -0.07236911 0.005349773
000230 77 a5 b5 bc d5 9e 73 3b 23 be 63 3b 8a cf a5 bd
       -0.022173626 0.0037173529 0.0034750781 -0.080962256
000240 cd 09 12 3c 2e 54 55 3b bb 46 c8 3b 4f 59 a0 3c
       0.0089134695 0.0032551396 0.0061119474 0.019573836
000250 ee 58 8a bb 36 ea 1f 3e 80 ff be 3d 64 9e e6 3b
       -0.004222027 0.15616688 0.093260765 0.0070379246
000260 99 f2 89 3c 8c f9 85 3d 5b 36 23 3c 5a 2b 3a 3c
       0.016839312 0.06541738 0.00996169 0.011362875
000270 1f 5c a7 3b c3 ca bf bd bb 2e 04 be 39 8e 4c 3b
       0.0051074172 -0.093648456 -0.12908451 0.00312127
000280 a0 11 5f 3b 40 d3 83 bb e3 dd 8c 39 5f c4 82 3c
       0.0034037605 -0.0040229857 0.000268682 0.015962778
000290 6f c0 41 bc d0 bd 62 3e 86 85 16 3d d9 b9 95 bb
       -0.011825665 0.2214272 0.03674843 -0.004569274
0002a0 77 4d 18 bc 3e 21 c6 3a 27 e6 01 bc f4 07 4b 3b
       -0.009295813 0.0015116108 -0.007928408 0.0030980082
0002b0 b9 ad 82 be dd b9 8a be 1b 33 32 bc c5 e4 0c 3c
       -0.25523165 -0.27094927 -0.010876442 0.008599465
0002c0 96 c1 24 be ad 2e 8f 3c 1a 80 4c 3c 0a 52 bb 3a
       -0.16089472 0.017478311 0.012481714 0.0014291417
0002d0 62 e5 0a 3b 0a ac 82 3c bd 50 a5 bb b7 2b c1 ba
       0.0021193852 0.015951175 -0.005045025 -0.001473776
0002e0 cb 41 95 bb 6e d2 4e bd 93 ad 14 3e 68 08 4e 3d
       -0.0045549623 -0.05049365 0.14519338 0.050300986
0002f0 73 61 a6 3a 1b db 64 3c 1d 48 89 ba 8e 2c 41 3c
       0.0012693837 0.013968254 -0.0010473762 0.011790408
000300 c6 d4 e9 3c bc a9 29 bc c0 e7 09 bc 6a 56 46 bc
       0.028543841 -0.010355409 -0.00841707 -0.012105564
000310 69 e0 b5 bb 90 d0 1e be 82 ae 4d 3d d5 d3 7f 3c
       -0.0055504334 -0.15509248 0.05021525 0.01561447
000320 29 75 99 bd bf 25 d4 bd a3 5b 28 bd 30 83 37 bc
       -0.0749305 -0.10358762 -0.041103017 -0.011200711
000330 8f 86 74 3b 62 30 b7 b9 a2 97 37 bb cb f3 31 3b
       0.0037311648 -0.00034940528 -0.0028013964 0.0027153369
000340 62 2e 8e 3b cb 69 00 3b a4 d2 35 bc bf 87 09 be
       0.0043390254 0.0019594308 -0.011097584 -0.1343069
000350 ef a1 0b bc 5d d1 30 3c 8a 4f 35 bb fa 14 15 3c
       -0.008522495 0.010792104 -0.0027665817 0.0090992395
000360 f9 4d 5b 3e 50 f1 09 bc fa cb ee 3a 42 77 92 b9
       0.21416463 -0.00841935 0.0018218749 -0.00027936144
000370 d3 ec 39 bb 99 67 91 bc 2f f3 fa ba 78 de 46 3b
       -0.0028369918 -0.017749595 -0.0019145961 0.0030345004
000380 eb 23 09 bc f8 6f 50 3b 05 61 f1 3a 78 dd 2b bc
       -0.00837038 0.003180502 0.0018415755 -0.010489814
000390 04 8a d1 3b 9d 90 09 bc cf 38 12 bc 5e a4 26 bb
       0.0063946266 -0.008396295 -0.008924677 -0.002542756
0003a0 a5 52 0c b9 94 22 58 3e 36 6c b5 3c 5f 5e 6c bb
       -0.00013382228 0.2110694 0.022146326 -0.0036066992
0003b0 39 66 c7 3a 47 3d 0b bc da a9 b5 3a 32 ca b3 3d
       0.001521296 -0.008498496 0.0013859824 0.087788
0003c0 a2 49 ce 3d 6a 5b 12 3c b9 a0 2c 3c 91 14 d5 bb
       0.10072638 0.008932928 0.010536366 -0.006502696
0003d0 53 97 3b be 7d bb b4 ba 04 dd dd 3c 16 7c 4f bc
       -0.18319444 -0.0013788786 0.027082928 -0.012663862
0003e0 ae 07 66 bd c8 3c 5d bb 79 88 8d bc 8b db cc bb
       -0.056159668 -0.0033758152 -0.01727699 -0.0062517575
0003f0 e1 9e 18 be 7f 83 1e ba f0 b4 2b 3c c2 04 de 3b
       -0.14904357 -0.0006046816 0.010480151 0.0067754695

a2c_network.mu.weight f4 [6, 256]
000000 08 f0 80 bc 21 31 9f ba 8c 1a 1b bb 69 cb 45 3b
       -0.015739456 -0.0012145379 -0.0023666946 0.0030181056
000010 42 a0 92 3a ed 1e 81 3a 17 de 2e 39 02 54 3b 3c
       0.0011186677 0.0009851136 0.00016676668 0.011433603
000020 03 93 71 bd 4e fb b1 b9 56 fa 85 38 17 3e 71 b9
       -0.058978092 -0.00033947307 6.388563e-05 -0.00023006681
000030 35 af 60 3b c6 b0 2d 3b 0d 7f 18 3b ae 66 7f bd
       0.003428412 0.002650307 0.0023269088 -0.062353782
000040 85 c8 4e bc 58 e0 f4 ba d2 b0 51 3d 68 75 c8 ba
       -0.01262105 -0.0018682582 0.05119402 -0.0015293779
000050 63 48 f3 3a 74 76 9c ba 86 d9 99 3b f8 a8 68 3b
       0.0018561002 -0.0011937157 0.0046951203 0.0035501104
000060 43 e0 96 39 dc cf ac ba fb f3 35 3b 64 2c 96 3a
       0.00028777317 -0.0013184506 0.0027763832 0.0011457321
000070 64 ba 46 bc 9b 5f bc b8 af 56 b2 3d 90 5e eb 3d
       -0.0121294 -8.9823465e-05 0.0870794 0.11492646
000080 b9 25 b9 3a c0 b9 71 bb d3 ce 38 ba 4d 3c e0 39
       0.0014125622 -0.0036884397 -0.0007049862 0.00042769537
000090 73 cd 86 ba 8f b3 0b 3c 6f 19 c1 ba 22 ee c9 39
       -0.0010284617 0.008526697 -0.0014732311 0.0003851513
0000a0 94 4f d2 ba ce 11 50 bb 57 a8 03 3b ea 9b de b9
       -0.0016045445 -0.0031748894 0.0020089352 -0.00042459305
0000b0 bc 77 cf 38 14 4f 3b bb 45 d0 bd 3a 4d ec a5 3a
       9.8928314e-05 -0.002858107 0.0014481625 0.0012658924
0000c0 6b 0f cd bb 94 13 30 bb 58 61 20 3c 65 08 b9 3a
       -0.0062579415 -0.0026867138 0.009788834 0.0014116882
0000d0 72 75 7b bb 3e f8 3b bb dc 15 06 bd f6 83 82 3b
       -0.0038369563 -0.00286819 -0.03273569 0.003983016
0000e0 31 d4 e9 bc d2 28 93 3a 82 42 c5 3b e6 c0 8b bb
       -0.028543564 0.0011227375 0.0060198912 -0.0042649386
0000f0 2f 2a 79 bb 0c 9d 93 3c c0 63 08 bb 48 7e 26 3d
       -0.0038019528 0.018019222 -0.0020811409 0.040647775
000100 08 b4 e2 ba 23 c3 32 3a 13 04 21 3b 93 b3 3e bb
       -0.0017296085 0.0006819239 0.0024569079 -0.0029098734
000110 65 09 d1 3a 42 f1 07 3b fa 81 66 3d a5 06 72 3a
       0.0015948234 0.0020743166 0.0562763 0.00092325575
000120 48 d4 01 bb 7b 74 3e bc 10 bb 95 3a 9d 98 cf b9
       -0.0019810367 -0.011624451 0.0011423547 -0.00039595822
000130 58 2d 71 be 27 e5 48 3b 06 b4 b3 3a 61 ee e3 39
       -0.23552454 0.0030654164 0.0013710267 0.0004347442
000140 15 31 c9 3d 71 dd 6b bb be e9 d9 3a 78 d5 f7 ba
       0.09823815 -0.0035990144 0.0016625447 -0.0018908223
000150 92 7e db b9 d5 10 4b b9 2e f4 16 3b c1 de b4 3d
       -0.00041865237 -0.00019365859 0.0023033726 0.088315494
000160 b7 a9 fc 39 ba 5b 9a 3a 4f 34 32 bc 6e 50 b0 ba
       0.00048191633 0.0011776604 -0.010876729 -0.0013451704
000170 15 52 9c 3c 56 f6 2f 3b 78 ee 1d b9 9a 9d 29 3e
       0.019082109 0.0026849709 -0.00015061523 0.16564026
000180 a4 d6 88 3b 58 5a 60 ba a3 9f 74 ba e7 65 76 3b
       0.004175978 -0.0008558384 -0.0009331649 0.003759736
000190 4d 20 7a be 79 93 8b 3c 31 25 06 ba 83 a4 4c 3a
       -0.24426384 0.017038094 -0.0005117236 0.00078064966
0001a0 df b3 1a bb cc 56 d8 bb 9e ed a5 ba 0f f9 93 ba
       -0.0023605747 -0.006602144 -0.0012659316 -0.0011289435
0001b0 f8 18 a9 bc 79 9f 11 3d 87 d5 39 bb 87 61 00 bb
       -0.020641789 0.035552476 -0.0028356032 -0.001958938
0001c0 6c 10 9a 39 cb e3 38 be 2f 8a da bd 0a a6 ac 3a
       0.00029385404 -0.18055646 -0.10670888 0.0013172042
0001d0 7d 40 23 39 a5 bd 1c ba c5 a7 07 3a ce 89 c1 3a
       0.00015568915 -0.0005979187 0.0005174841 0.00147658
0001e0 73 36 de 3a 97 7e 17 3b 86 bc 51 bb 16 d7 c9 3b
       0.0016953483 0.0023116225 -0.0032003238 0.0061596734
0001f0 c2 07 4b 3b 36 18 cf bb 07 49 47 3a 7e 89 64 3b
       0.0030979966 -0.006320025 0.00076021295 0.003487199
000200 d7 8e 3c 3a 9a f0 b3 3d 3d 32 c6 3b 1e 6b fa bd
       0.00071929157 0.087861255 0.0060484693 -0.12227462
000210 40 d4 17 3b b2 d2 17 3e 26 8e b3 3a 1d 3d fe b7
       0.0023167282 0.14826468 0.001369898 -3.0307618e-05
000220 3f b5 49 bd 2a d4 f2 3d 07 6c b9 bc 63 d3 12 bc
       -0.049245115 0.11856873 -0.02263452 -0.008961531
000230 de 8b b0 ba 38 d6 42 3a 91 4d e0 3c c2 77 38 3e
       -0.0013469418 0.0007432434 0.027380737 0.18014434
000240 80 46 2b bb 05 3a fb 39 9e fe ff 3a 95 fb dd 38
       -0.002613455 0.0004791768 0.0019530838 0.00010584962
000250 c6 72 42 3a d7 90 a7 3b c3 43 02 bc f6 a2 00 3a
       0.0007417615 0.005113702 -0.007950726 0.00049070956
000260 de e6 bf 3a f9 4e 81 3d 88 cb 4c ba bd af ed bb
       0.0014640947 0.06313891 -0.0007812311 -0.0072536157
000270 fd 9c 49 ba 41 9a 51 3b 9f 8f 73 3e 54 bc 74 ba
       -0.00076909346 0.0031982812 0.23785256 -0.00093359244
000280 ef a7 24 3b 1b 82 09 b8 48 f0 96 3a 55 89 7f 3d
       0.002512451 -3.2784515e-05 0.0011515701 0.06238683
000290 57 3e 00 b9 46 40 d8 bb 1c ce af bb 77 b4 51 3b
       -0.00012230255 -0.006599459 -0.0053651463 0.0031998435
0002a0 77 15 9a 3b 9c 6b 5c bb a8 76 1e 3b 07 ba ea 38
       0.004702266 -0.0033633476 0.0024179611 0.0001119264
0002b0 5a ee 64 3d c2 b3 9d bb 4f 82 3c 3b 54 02 ac ba
       0.055891372 -0.0048126886 0.0028764193 -0.0013123252
0002c0 43 e2 fb 3c d6 5c a7 b9 db 91 2b 3b 5f 09 61 3a
       0.030747538 -0.0003192189 0.0026179466 0.0008584465
0002d0 7c 52 2c bb f2 ac 85 bb bc 45 3c ba 67 f0 06 bb
       -0.0026294282 -0.0040794546 -0.0007182022 -0.0020590068
0002e0 6e 82 5b 3b d6 df 58 3c d8 61 b1 3b ad 31 bc 3d
       0.003349449 0.01323696 0.005413275 0.091891624
0002f0 e2 ef 4f ba 8e 94 84 3a f6 65 2f bb df 1e 0b 39
       -0.00079321687 0.0010115074 -0.0026763654 0.00013267573
000300 0a 08 4a bb da f6 49 bd f4 a1 96 3a 27 48 7a 3a
       -0.0030827546 -0.04930768 0.0011492358 0.00095474947
000310 c8 b6 11 39 8a 99 6d bc ec 8e c1 bc be 57 2c ba
       0.00013896369 -0.014501939 -0.02362772 -0.0006574354
000320 29 9a 35 3e 18 56 80 3b 8e 35 4a bd 59 ed a8 ba
       0.17734589 0.003916513 -0.04936748 -0.0012888118
000330 80 bf f5 3a db 32 9a 39 70 a9 00 3b ad e9 9f 3a
       0.0018749088 0.0002941106 0.0019632243 0.0012200378
000340 26 a8 18 3b 3b c8 97 3b 5f 91 30 3b ba f8 ef bd
       0.0023293584 0.0046320236 0.0026942117 -0.11717363
000350 29 b8 7d 3a 50 61 0c 3b 95 2c 0a 3b 0f 05 83 3a
       0.0009678626 0.0021420307 0.0021083702 0.0009996014
000360 0d 54 a7 bc 39 69 7a 3a ca 24 81 3a 78 aa 80 3b
       -0.02042582 0.00095524226 0.0009852883 0.0039265715
000370 d8 82 bc 3b b9 de c3 3a 9d 16 1e 3a 2c 51 1a be
       0.0057529025 0.0014943696 0.00060305913 -0.15070027
000380 8f a1 86 3b ff 94 f7 3a e1 98 82 ba db 51 e1 3a
       0.0041086148 0.0018889009 -0.0009963774 0.0017190533
000390 c0 41 01 3a 17 22 24 3b 68 5d 07 bb 34 4e ae 3a
       0.0004930757 0.0025044733 -0.002065504 0.0013298453
0003a0 60 5a 2a 3b cc d0 68 3c a1 06 c0 ba 0b 00 32 39
       0.002599381 0.014209937 -0.0014650413 0.00016975419
0003b0 98 91 70 3a 83 e6 b1 3b 22 1c c8 39 b2 82 f0 bd
       0.00091769686 0.0054290905 0.00038167933 -0.11743678
0003c0 b8 f5 63 bc e1 05 b5 b9 27 a5 84 ba bf b0 91 ba
       -0.013913564 -0.0003452739 -0.001012002 -0.0011115297
0003d0 d3 7c 6b bd 6e ef 24 bb 41 69 92 ba c0 96 0f 3b
       -0.05749209 -0.0025167125 -0.0011170284 0.0021909922
0003e0 a5 53 d0 3b 34 89 85 3b f0 a0 ef 3b fb dd 16 39
       0.0063576275 0.004075194 0.0073128864 0.00014387809
0003f0 a2 af 23 be e1 9c 49 ba af db 65 bc a7 01 aa ba
       -0.15984967 -0.0007690918 -0.014029427 -0.0012970463

a2c_network.mu.bias f4 [6]
000000 ee 96 a8 be b9 db 9a 3e 63 9f a6 be 2d c8 e0 bd
       -0.3292765 0.3024576 -0.32543477 -0.109756805
000010 06 a8 4b bc 39 66 e7 be
       -0.012430197 -0.45195177

exp_avg f4 [6]
000000 03 b5 f3 39 4e 22 8d ba 24 9d 20 bb 82 a0 63 39
       0.00046483436 -0.001076767 -0.0024507726 0.00021708201
000010 35 d9 b2 ba e3 87 cb b9
       -0.0013645055 -0.0003882042

exp_avg_sq f4 [6]
000000 64 22 ed 37 ba 6b fb 37 16 16 f6 37 f4 ab f8 37
       2.8268616e-05 2.9971696e-05 2.933577e-05 2.9643976e-05
000010 ee 07 ec 37 46 32 16 38
       2.8137085e-05 3.5809608e-05
