logs/rl_games/yam_cube_sort_8192/2026-02-01_06-46-50/nn/yam_cube_sort_8192.pth (torch, 951890 bytes, 30 tensors)

value_mean_std.running_mean f8 [1]
0.0671888403238599
00000000: 73de d8af 4933 b13f

value_mean_std.running_var f8 [1]
0.04760027388497291
00000000: 32b3 3b27 105f a83f

value_mean_std.count f8 []
240648193.0
00000000: 0000 0002 00b0 ac41

running_mean_std.running_mean f8 [40]
0.9974722852065108 0.0025274072906610015 2.991919399154106e-07 0.002527706482600914 2.991919399154106e-07 0.0 -0.05535140082746978 0.08548121324990912
0.14305423138965517 -0.05691231176300024 0.08212983064252014 0.10171021845257656 0.09046253838497273 0.2997943191812273 0.0013724506971031706 0.7627014641067175
0.3002535963803564 0.0015179168213534744 0.7627016299998196 0.3003037642881439 0.0016150843057697187 0.76270185621178 0.00010995338208512983 0.00012521394231498515
-0.00014306395936259877 0.0001149311218223589 0.00013071462232695053 -0.00014171913797449056 0.00011585087816117916 0.00013158315410287836 -0.00014157417664831495 0.45999925201300756
0.0 0.7599999841469833 0.22000068243292117 0.13856455196019737 0.7599999841469833 0.22000068243292117 -0.13856455196019737 0.7599999841469833
00000000: 6e1b 74ff 4aeb ef3f b9a4 0675 5bb4 643f
00000010: 0f61 4711 1414 943e ed2e a715 fcb4 643f
00000020: 0f61 4711 1414 943e 0000 0000 0000 0000
00000030: 7cfc aed0 0457 acbf caac 54c7 18e2 b53f
00000040: febd afde 994f c23f 2c10 864b 9c23 adbf
00000050: 7ab9 a2e8 7506 b53f b93e ec4d ae09 ba3f
00000060: 0669 e08b 8d28 b73f bb3c 1a83 d42f d33f
00000070: dee8 00b7 797c 563f b163 9ee6 0c68 e83f
00000080: e270 3ddc 5a37 d33f a9cb c4c6 9ade 583f
00000090: 5390 ae3f 0d68 e83f e9ed 9e47 2d38 d33f
000000a0: c411 8291 2776 5a3f 1ce6 20b9 0d68 e83f
000000b0: dbad 76b8 d8d2 1c3f 74eb 1193 7b69 203f
000000c0: 8671 ab0d 6ec0 22bf b61c 59a3 e520 1e3f
000000d0: f270 560e 0e22 213f e0a5 2920 4e93 22bf
000000e0: cc4e 81ee 9e5e 1e3f a43e e9af 323f 213f
000000f0: 5ad4 d5ea 708e 22bf 1f24 e5b3 a070 dd3f
00000100: 0000 0000 0000 0000 e2e5 9b7c eb51 e83f
00000110: 75d3 127c fb28 cc3f 85e7 86b5 7bbc c13f
00000120: e2e5 9b7c eb51 e83f 75d3 127c fb28 cc3f
00000130: 85e7 86b5 7bbc c1bf e2e5 9b7c eb51 e83f

running_mean_std.running_var f8 [40]
0.002521410114939431 0.0025211042498231536 3.075118642699278e-07 0.002521401938444386 3.075118642699278e-07 8.310887219872466e-09 0.022571522666575878 0.016864639138701017
0.006065690685260407 0.015432824028800961 0.01035227960791676 0.01725026643285625 0.021814956007329668 0.0020846131141382023 0.003050810743432818 1.1643321625895863e-07
0.002094648208561682 0.003066882407620966 1.5686109834517151e-07 0.00210860104794178 0.003019676220071742 2.315349492915163e-07 0.0001335483687613319 0.00034374433492332887
2.4517868550157525e-05 0.00013573791356641875 0.0003307356223573459 2.4736102092939085e-05 0.00013766140531646973 0.00034350958202246883 2.6070613972281764e-05 1.0069600374377232e-08
8.310887219872466e-09 1.3111255517702164e-08 8.713726734904049e-09 8.471005176723409e-09 1.3111255517702164e-08 8.713726734904049e-09 8.471005085955358e-09 1.3111255517702164e-08
00000000: d892 78bf c7a7 643f 7583 b089 23a7 643f
00000010: aba2 557b 03a3 943e c4ba b35b c3a7 643f
00000020: aba2 557b 03a3 943e b639 b164 f5d8 413e
00000030: f509 b23e fd1c 973f f2fd 3cc6 f644 913f
00000040: 75fb ee71 56d8 783f 39b3 e893 3e9b 8f3f
00000050: 8d24 d772 9333 853f 4ca3 b4c8 0daa 913f
00000060: 6aec 75ea a856 963f ea18 cd24 c013 613f
00000070: e48b d18b 03fe 683f 347e 5bcd 3a41 7f3e
00000080: 563d adb1 cb28 613f d36d 86f4 b71f 693f
00000090: e932 07d0 b40d 853e 47af 5191 0e46 613f
000000a0: 4acd 8253 b8bc 683f 5c1f adf3 7a13 8f3e
000000b0: 1aaf a5c0 2381 213f c4f6 3aad 1287 363f
000000c0: 8268 f218 77b5 f93e b5b8 97cc 9bca 213f
000000d0: 136b 80ae d2ac 353f e85b 08fe 0bf0 f93e
000000e0: a9d1 ae77 260b 223f 5ea9 af6b 2283 363f
000000f0: 61e3 4af3 4656 fb3e 5655 f343 d29f 453e
00000100: b639 b164 f5d8 413e 3308 b62b fd27 4c3e
00000110: 0482 cf03 6cb6 423e f10a 0ffe fb30 423e
00000120: 3308 b62b fd27 4c3e 0482 cf03 6cb6 423e
00000130: f1da c9fa fb30 423e 3308 b62b fd27 4c3e

running_mean_std.count f8 []
120324097.0
00000000: 0000 0004 00b0 9c41

a2c_network.sigma f4 [6]
-1.813312 -1.9140545 -1.9746077 -1.9832922 -2.3493564 0.13727519
00000000: 9c1a e8bf bdff f4bf f2bf fcbf 85dc fdbf
00000010: db5b 16c0 de91 0c3e

a2c_network.actor_mlp.0.weight f4 [256, 40]
-0.085049294 0.0321269 0.4031491 0.26156834 0.42800492 -0.069123045 -0.08091266 0.006327637
0.057882827 -0.33306083 -0.25088823 0.019893587 -0.031584598 -0.0148005495 -0.0034969973 -0.15438965
0.053745594 0.00731498 0.014431453 -0.0031286979 -0.049858972 0.2568815 0.0830016 0.044995736
0.06310239 -0.029635016 -0.029876715 -0.3026519 -0.0248093 -0.046511497 -0.21947771 -0.08979169
0.15214519 -0.13776727 0.31461033 -0.26674464 -0.11364149 0.5354828 0.20472433 0.12410109
-0.059950057 -0.011040881 -0.049755048 -0.07917051 -0.037683833 -0.037520524 0.13782762 -0.50402343
-0.8610615 0.12782682 0.09237234 0.04895128 0.0122667905 0.0064686714 0.058673415 -0.012393407
0.2033946 -0.21575876 0.345657 -0.0749439 0.00034675185 0.06272536 -0.025193503 -0.17645769
0.20267862 -0.001235759 -0.2065255 0.2713886 -0.24158172 0.33741772 0.18058561 0.44477013
0.048724327 -0.15386216 -0.15843128 -0.8197884 0.018332826 -0.19371504 0.700708 -0.10104955
-0.20756151 0.123217165 0.29003072 0.107235 0.1924565 -0.092243925 -0.13875178 -0.20370083
0.065152735 -0.1100985 0.16896236 0.11987038 -0.14557542 -0.030939931 -0.023338532 -0.17448948
0.030452741 0.027737461 -0.11392606 -0.0026273471 0.005177282 0.46341193 -0.096200295 0.0030729214
0.12119971 -0.4639142 -0.15465772 0.111076795 0.02676883 -0.20621744 0.051107224 -0.4255275
-0.01732688 -0.10131122 0.71109223 -0.3119305 0.10153962 0.6226389 0.25529048 -0.068448216
-0.094029084 0.26748934 -0.16866188 0.093382254 -0.122627586 -0.023720339 -0.0896422 -0.0072804797
0.048560265 -0.26494902 -0.28707862 0.03790642 -0.047706578 -0.008247098 -0.02338065 -0.029023267
0.011402097 -0.0008371848 0.22306804 0.008310545 -0.055261113 -0.15526831 -0.002036512 -0.08743495
0.14869146 0.1395912 -0.09403131 -0.048355937 0.11549675 0.030408572 -0.09669769 -0.03834487
0.10106748 0.13142645 0.50309694 0.0011901681 -0.0021491237 0.5093089 0.007039267 0.039852496
-0.15441501 -0.02840034 0.4228425 0.07649552 0.281825 -0.09532777 -0.63844013 -0.31778035
-0.19868985 0.13562573 0.05911222 0.15258071 -0.12559827 -0.065463476 -0.007519005 0.2561996
-0.04227847 -0.10025086 -0.035614304 -0.07548133 0.07877407 -0.44586152 -0.11070401 -0.110305816
-0.087592915 -0.21191277 0.38082546 0.1767351 -0.52045643 0.0064923074 -0.07572498 1.066486
0.07591139 0.072947234 -0.96802837 0.82200617 -0.061654698 -1.1711122 -0.9220646 -0.20799796
0.010808188 -0.031589396 0.31502417 -0.030989124 0.31803292 -0.11128607 -0.17165601 0.044586483
0.011586995 0.09519702 -0.10865815 -0.009674257 -0.0041793827 0.014514572 -0.021885054 0.25250986
-0.02055372 0.03869858 -0.23683874 0.044629548 -0.028921409 0.19633852 0.018447464 0.249411
0.29327488 0.16294435 -0.07842552 -0.08618009 0.0003983184 0.053416003 0.17794178 0.052048422
0.098157085 0.13483721 0.07927647 0.3384604 -0.11338101 -0.03470345 -0.2825295 -0.1408397
-0.23149896 0.109180346 -0.18120797 0.11437753 -0.23201054 -0.050194655 -0.1428091 0.09234276
0.22128585 0.023334429 -0.064954504 0.049852595 -0.14957888 -0.071303904 0.07368014 0.31990033
00000000: 532e aebd 7f97 033d 8f69 ce3e 49ec 853e
00000010: 7623 db3e 6290 8dbd 89b5 a5bd 1158 cf3b
00000020: 8b16 6d3d f386 aabe 6c74 80be e0f7 a23c
00000030: da5e 01bd 017e 72bc e12d 65bb 5218 1ebe
00000040: 5724 5c3d 80b2 ef3b e771 6c3c d70a 4dbb
00000050: ec38 4cbd f985 833e befc a93d 734d 383d
00000060: d33b 813d 22c5 f2bc 03c0 f4bc 31f5 9abe
00000070: e03c cbbc d782 3ebd c4be 60be b5e4 b7bd
00000080: f3cb 1b3e dd12 0dbe 9b14 a13e c192 88be
00000090: dfbc e8bd 6715 093f 41a3 513e b628 fe3d
000000a0: 318e 75bd d0e4 34bc f3cb 4bbd 2624 a2bd
000000b0: 5d5a 1abd 1faf 19bd af22 0d3e ae07 01bf
000000c0: 876e 5cbf 09e5 023e b62d bd3d 2381 483d
000000d0: a6fa 483c 26f7 d33b 8953 703d b70d 4bbc
000000e0: ad46 503e ddef 5cbe f4f9 b03e 307c 99bd
000000f0: 3fcc b539 2776 803d 9b62 cebc 53b1 34be
00000100: fc8a 4f3e 31f9 a1ba 6c7b 53be 72f3 8a3e
00000110: 3361 77be 04c2 ac3e 6feb 383e e9b8 e33e
00000120: 2993 473d 0b8e 1dbe cf3b 22be a7dd 51bf
00000130: b92e 963c 3c5d 46be 9961 333f 11f3 cebd
00000140: 018b 54be 4859 fc3d e87e 943e 069e db3d
00000150: 5113 453e 62ea bcbd f214 0ebe f396 50be
00000160: cc6e 853d 537b e1bd 7804 2d3e 9a7e f53d
00000170: b911 15be bd75 fdbc 7330 bfbc 5fad 32be
00000180: 0778 f93c ac39 e33c 1152 e9bd 922f 2cbb
00000190: 30a6 a93b 5444 ed3e a904 c5bd 1163 493b
000001a0: 8e37 f83d 2986 edbe 985e 1ebe 3b7c e33d
000001b0: 4e4a db3c aa2a 53be cf55 513d bede d9be
000001c0: 1af1 8dbc 427c cfbd 240a 363f 5bb5 9fbe
000001d0: 01f4 cf3d 4365 1f3f 6fb5 823e 942e 8cbd
000001e0: 5292 c0bd 5df4 883e b3b5 2cbe 323f bf3d
000001f0: 2c24 fbbd 2851 c2bc 5496 b7bd 1791 eebb
00000200: 21e7 463d 66a7 87be f8fb 92be c343 1b3d
00000210: f967 43bd d61e 07bc c788 bfbc 34c2 edbc
00000220: dccf 3a3c 8576 5bba f36b 643e f428 083c
00000230: 7a59 62bd a8fe 1ebe 0077 05bb 1811 b3bd
00000240: 9342 183e fff0 0e3e 7d93 c0bd e010 46bd
00000250: 8f89 ec3d 661b f93c 7009 c6bd 830f 1dbd
00000260: 78fc ce3d a894 063e f6ca 003f 6aff 9b3a
00000270: 50d8 0cbb 1162 023f a7a9 e63b 5f3c 233d
00000280: f81e 1ebe d4a7 e8bc d07e d83e afa9 9c3d
00000290: 5e4b 903e 353b c3bd d070 23bf 1bb4 a2be
000002a0: 5a75 4bbe 79e1 0a3e a81f 723d 1e3e 1c3e
000002b0: d59c 00be b711 86bd fc61 f6bb 982c 833e
000002c0: 302c 2dbd 5350 cdbd 4ee0 11bd f595 9abd
000002d0: 4d54 a13d f647 e4be c9b8 e2bd 04e8 e1bd
000002e0: ea63 b3bd a9ff 58be 8efb c23e 0cfa 343e
000002f0: a23c 05bf 6cbd d43b b315 9bbd 9d82 883f
00000300: 6e77 9b3d 5c65 953d b5d0 77bf ff6e 523f
00000310: a389 7cbd 01e7 95bf 6d0c 6cbf 6bfd 54be
00000320: d314 313c e263 01bd d94a a13e e7dc fdbc
00000330: 36d5 a23e f3e9 e3bd 98c6 2fbe 51a0 363d
00000340: 61d7 3d3c a8f6 c23d 2a88 debd c680 1ebc
00000350: 34f3 88bb 87ce 6d3c 4948 b3bc f948 813e
00000360: 4660 a8bc 6782 1e3d db85 72be 79cd 363d
00000370: 97ec ecbc f70c 493e 231f 973c 9965 7f3e
00000380: 2028 963e e2da 263e 8f9d a0bd 307f b0bd
00000390: 64d5 d039 bdca 5a3d 5f36 363e ba30 553d
000003a0: 9506 c93d c412 0a3e b45b a23d ae4a ad3e
000003b0: 4e34 e8bd 3425 0ebd b5a7 90be 4838 10be
000003c0: 100e 6dbe f299 df3d 958e 39be c43e ea3d
000003d0: 2c94 6dbe e998 4dbd 8c3c 12be 331e bd3d
000003e0: c298 623e d827 bf3c de06 85bd 3c32 4c3d
000003f0: 352b 19be c807 92bd 9de5 963d fac9 a33e

a2c_network.actor_mlp.0.bias f4 [256]
0.018299587 -0.050696403 0.020269068 0.027387327 -0.5023429 -0.063328825 -0.03657729 -0.4711418
-0.23853528 -0.098332986 0.15528019 -0.048368838 0.06529064 -0.14812791 0.014894039 0.0075452593
-0.14774321 -0.20009042 -0.08311579 0.26264715 0.013214653 -0.22254594 0.003256562 -0.020653758
0.026714405 -0.0120365145 -0.21368004 -0.15874575 -0.77110326 0.20526755 -0.0367201 -0.26241738
-0.95644677 -0.05333499 -1.0312525 -0.33578643 0.014494748 -0.06267189 -0.72442985 -0.18454748
0.054097354 -0.2723046 -0.47260335 0.058624957 0.0705758 0.19209592 -0.021903373 -0.40407923
-0.048300784 0.045197483 -0.08046468 0.03293387 -0.09189447 -0.021506803 -0.021043487 -0.015843315
-0.778504 -0.08520538 -0.03686821 -0.12084005 -0.6209456 0.003082461 0.074949905 0.019934671
0.0022496057 0.007980935 -0.36151117 -0.23614892 -0.50113094 0.07384784 -0.2098605 -0.18124446
0.0020973417 -0.04659738 -0.10031507 -0.06631717 0.06671106 -0.07663009 0.0609431 -0.17966388
0.022109639 0.046309523 0.02266582 0.02440402 -0.2634197 -0.2643511 0.39770684 -0.2183687
0.010797486 0.009354864 0.098660246 -0.2999618 0.095248684 -0.59486675 -0.04915937 -0.12237942
0.061520215 -0.053179648 -0.113469824 -0.44163463 -0.09549187 -0.46960625 -0.33272713 -0.12654816
-0.8286405 -0.10870873 0.034653425 -0.059948716 -0.1812656 -0.28092882 -0.06054859 -0.10601023
-0.06733554 0.23038474 0.034879982 -0.032994136 -0.17454828 -0.040834267 0.017284136 -0.5620998
-0.02665652 0.0094847 0.22949792 -0.014440783 0.294585 0.13328458 0.033986863 -0.11437995
-0.034080327 -0.4693423 -0.09926571 -0.5998374 0.03946503 -0.13196148 -0.112454884 -0.06207797
-0.16408908 -0.051400736 0.22211026 -1.0082166 -0.75812984 0.03598484 -0.5665303 -0.0070067835
-0.0032033252 0.05062523 -0.3195196 -0.8164796 0.032409497 -0.032344513 -0.015672816 0.12180854
-0.025289519 -0.044927478 -0.036915977 0.010047096 0.013203641 -0.012916634 -0.16685057 -0.00077177846
-0.34937072 0.093206875 0.07654858 -0.4133181 -0.7807112 -0.014051663 -0.01793318 -0.3709474
0.1926191 0.030243386 0.06695163 -0.17649014 0.040521063 -0.011891909 -0.0012148519 -0.26007727
-0.0785863 -0.17505087 -0.5879264 0.18433037 0.043764822 -0.022754567 -0.12936467 -0.060398385
0.020488126 -0.2760883 0.017214758 -0.08248401 -0.1813082 0.03881742 -0.11086076 -0.01947117
-0.60568964 -0.32685906 -0.15725797 -0.062477916 -0.7289894 0.11248355 -0.036641978 -0.03449062
-0.19428352 0.030699365 -0.03367859 0.03682716 0.16810179 0.024026066 0.020306434 0.02583114
0.014273309 -0.12045619 -0.06557341 -0.44603515 -0.02989193 -0.2296834 -0.08351572 -0.034988385
-0.4342849 -0.17166993 -0.020029215 -0.06762934 0.04170689 0.059827812 0.10176223 -0.08222749
-0.48841068 -0.05464868 0.0027928532 0.0037392168 -0.10789572 -0.11414708 0.2589306 -0.27012753
0.0030548137 0.60146105 0.03161309 -0.46312946 -0.025173128 0.08979377 -0.015246607 -0.08273331
0.023557931 -0.045005377 -0.9611519 -0.52602446 -0.052891914 -0.022009764 0.017931934 0.014319466
0.1191699 -0.019554919 -0.34008855 0.01788134 -0.031445447 -0.06270914 0.020264179 -0.023376223
00000000: 04e9 953c 08a7 4fbd 510b a63c 635b e03c
00000010: 8b99 00bf 8bb2 81bd 12d2 15bd 7f39 f1be
00000020: 9842 74be ce62 c9bd c501 1f3e 671e 46bd
00000030: 19b7 853d d8ae 17be 2106 743c 393e f73b
00000040: ff49 17be 81e4 4cbe 9c38 aabd b079 863e
00000050: 4682 583c 15e3 63be 0b6c 553b 1232 a9bc
00000060: 2bd8 da3c cd34 45bc f1ce 5abe 3f8e 22be
00000070: 0667 45bf a831 523e d167 16bd 925b 86be
00000080: b2d9 74bf ca75 5abd 1500 84bf 33ec abbe
00000090: 617b 6d3c 1f5a 80bd 3c74 39bf 04fa 3cbe
000000a0: 3095 5d3d 826b 8bbe 11f9 f1be b920 703d
000000b0: 0c8a 903d cbb4 443e b46e b3bc 79e3 cebe
000000c0: 0bd7 45bd ff20 393d abca a4bd aae5 063d
000000d0: 2b33 bcbd 092f b0bc 6463 acbc d7c9 81bc
000000e0: 0a4c 47bf 2980 aebd 1f03 17bd fd7a f7bd
000000f0: 4af6 1ebf 1d03 4a3b 567f 993d 094e a33c
00000100: 1f6e 133b 78c2 023c fe17 b9be 06d1 71be
00000110: 1e4a 00bf 893d 973d ace5 56be 2698 39be
00000120: 8e73 093b e5dc 3ebd fd71 cdbd 4cd1 87bd
00000130: cf9f 883d 3df0 9cbd 799f 793d cff9 37be
00000140: 461f b53c 0eaf 3d3d abad b93c f0ea c73c
00000150: f2de 86be 0759 87be 3ba0 cb3e 0b9c 5fbe
00000160: f0e7 303c 2545 193c 620e ca3d 9894 99be
00000170: be11 c33d 3049 18bf 565b 49bd 10a2 fabd
00000180: 9ffc 7b3d e7d2 59bd de62 e8bd ef1d e2be
00000190: 3e91 c3bd 3b70 f0be 365b aabe d795 01be
000001a0: c921 54bf afa2 debd c0f0 0d3d c98c 75bd
000001b0: b09d 39be e7d5 8fbe cc01 78bd e41b d9bd
000001c0: 37e7 89bd fae9 6b3e 50de 0e3d dc24 07bd
000001d0: c9bc 32be d541 27bd 7697 8d3c c6e5 0fbf
000001e0: c65e dabc b765 1b3c 8101 6b3e 0999 6cbc
000001f0: d8d3 963e c17b 083e cf35 0b3d 0940 eabd
00000200: d097 0bbd a24d f0be d24b cbbd f28e 19bf
00000210: 15a6 213d e920 07be bf4e e6bd 7845 7ebd
00000220: f806 28be 9489 52bd df70 633e 3e0d 81bf
00000230: cc14 42bf d764 133d 2108 11bf 2999 e5bb
00000240: e1ee 51bb 675c 4f3d 1398 a3be cf04 51bf
00000250: d2bf 043d ae7b 04bd 4764 80bc c176 f93d
00000260: f72b cfbc e005 38bd 3535 17bd 939c 243c
00000270: 1654 583c 4aa0 53bc e0da 2abe 2d51 4aba
00000280: b8e0 b2be 3fe3 be3d 80c5 9c3d 6e9e d3be
00000290: b0dc 47bf f238 66bc 9be8 92bc d1ec bdbe
000002a0: f13d 453e fac0 f73c f01d 893d d5b9 34be
000002b0: 6af9 253d 48d6 42bc aa3b 9fba d928 85be
000002c0: dbf1 a0bd 8940 33be 5882 16bf 1ac1 3c3e
000002d0: be42 333d c967 babc 2c78 04be 4c64 77bd
000002e0: b7d6 a73c 725b 8dbe f705 8d3c 60ed a8bd
000002f0: dba8 39be 04ff 1e3d f70a e3bd 0182 9fbc
00000300: 7a0e 1bbf 125a a7be 3c08 21be d8e8 7fbd
00000310: 0d9f 3abf c75d e63d e615 16bd 0946 0dbd
00000320: 42f2 46be 3c7d fb3c 90f2 09bd 13d8 163d
00000330: e022 2c3e 50d2 c43c ae59 a63c d49b d33c
00000340: 99da 693c bcb1 f6bd 5a4b 86bd b85e e4be
00000350: ecdf f4bc 2032 6bbe 4a0a abbd fb4f 0fbd
00000360: 975a debe 3eca 2fbe 4f14 a4bc 4081 8abd
00000370: d8d4 2a3d 020e 753d b768 d03d e366 a8bd
00000380: f710 fabe 4bd7 5fbd 4d08 373b a60d 753b
00000390: 6ef8 dcbd f2c5 e9bd 8d92 843e 284e 8abe
000003a0: 4533 483b 5af9 193f ba7c 013d 4e1f edbe
000003b0: e037 cebc cce5 b73d e8cc 79bc 1570 a9bd
000003c0: 90fc c03c 8f57 38bd 0d0e 76bf 8aa9 06bf
000003d0: 31a5 58bd d24d b4bc fee5 923c 329c 6a3c
000003e0: 590f f43d a331 a0bc 1620 aebe e37b 923c
000003f0: f1cc 00bd a66d 80bd 1001 a63c 7e7f bfbc

a2c_network.actor_mlp.2.weight f4 [256, 256]
0.0018756248 -0.0885518 -0.11731213 -0.009257849 0.07486774 0.14854033 -0.0089620175 0.06101919
0.014970971 0.02405822 -0.029581614 -0.07737086 -0.03893147 0.024692373 -0.13582598 -0.02139551
0.003853868 -0.07516835 -0.080947235 -0.14251481 0.02609438 -0.22197992 0.05837605 -0.01170666
-0.0055841566 -0.11377558 -0.08845292 0.011401195 0.14023633 0.015568646 0.10596264 0.010271608
0.08285941 -0.017774234 0.094634876 -0.10034149 0.053220205 0.06247779 0.096483074 0.1470633
-0.10045192 0.16649942 0.044089057 0.0039008157 -0.061314974 0.023512956 -0.02999963 0.053393368
-0.038062688 -0.04225711 -0.03814076 -0.09379989 -0.016386716 0.031518564 0.0154840965 0.004494984
-0.086209744 -0.060915302 0.032790978 0.16744809 0.21229169 -0.0024638446 0.1613152 -0.04981064
-0.032870904 0.06607617 0.18525869 0.12529638 0.09191652 -0.11460185 -0.0114199165 0.0297854
0.12768348 -0.03380894 0.08303944 0.09569021 -0.011787837 0.12728429 0.054938223 -0.05202545
-0.06781205 0.042896066 -0.018079026 -0.08890636 0.01963579 0.037589684 0.08140892 -0.11006847
-0.15732937 -0.043465402 -0.049090803 -0.0043178094 0.02108735 0.074286945 0.005889804 0.04935655
0.049882986 0.13460606 0.0007541018 0.03321562 0.03030372 0.07213798 -0.06526881 -0.028790615
0.035694268 -0.005299418 0.006282009 0.1429282 -0.10176466 0.026254585 -0.08416892 -0.015262723
-0.009129752 -0.1642131 0.032826316 -0.01724085 -0.15756696 -0.0001159375 0.111917466 0.15430975
-0.08421199 -0.056553513 0.094227955 0.04850358 -0.11213262 0.11567357 -0.063614756 -0.09668354
-0.045246195 -0.008573491 0.09091359 0.07721876 0.012303544 0.016657187 0.13552697 0.017546635
0.16833979 -0.063399486 -0.06152565 -0.010125318 0.17607598 -0.021336555 0.01975489 0.011725816
-0.04909702 -0.12296847 -0.0015343509 -0.10218019 -0.03689784 0.06641797 0.036181185 -0.08458132
0.056823205 -0.03744606 -0.051635683 0.09988323 -0.0006460496 -0.12857625 0.099667154 0.024534991
-0.005024744 -0.13636836 -0.103743285 0.16908541 0.15353519 0.0888059 0.011694962 -0.025572896
-0.02646659 0.02200661 -0.036930386 0.075541474 -0.05541168 -0.119843744 -0.077044286 0.05930327
-0.0056985356 0.10765527 0.15646051 0.03837053 -0.0595859 -0.008942746 -0.014020108 -0.21042606
-0.018888274 0.042261668 -0.055679236 -0.0012654953 -0.11000644 -0.035554487 0.10298424 -0.111968614
0.1072871 -0.06442399 0.07925934 -0.017769294 -0.0156436 -0.06279264 0.0039866217 0.012587889
0.11416412 -0.11444204 -0.016559547 0.027285876 -0.15408851 -0.090935506 -0.07948975 -0.09641152
0.0019324605 0.040985655 -0.012833034 0.09874537 0.0076027503 -0.04420131 -0.039853998 -0.038930345
0.00997523 0.06837369 0.030284308 0.052664742 0.11646047 0.028757185 0.026228882 -0.043763537
-0.045449395 -0.057739403 -0.028068809 -0.00014491241 -0.11442114 -0.0149263255 0.033322014 0.005869452
0.05782719 -0.12512337 -0.027240952 0.049775146 0.07007037 0.07016019 0.06194382 -0.07153554
-0.0013943663 0.024390355 0.035201747 0.269283 -0.09018317 0.0680646 0.08124344 -0.035696093
-0.0015180678 -0.090358034 0.037883744 -0.12511888 0.15727915 0.114825554 -0.09002955 -0.059088416
00000000: 86d7 f53a a55a b5bd 5841 f0bd 3cae 17bc
00000010: 4254 993d f51a 183e 6dd5 12bc 42ef 793d
00000020: ce48 753c bf15 c53c 2455 f2bc 9d74 9ebd
00000030: 9b76 1fbd a947 ca3c f715 0bbe a345 afbc
00000040: 2d91 7c3b ddf1 99bd aac7 a5bd 67ef 11be
00000050: e2c3 d53c b44e 63be ba1b 6f3d 4acd 3fbc
00000060: 4dfb b6bb 2c03 e9bd ce26 b5bd 14cc 3a3c
00000070: 1d9a 0f3e a213 7f3c f102 d93d 3f4a 283c
00000080: 32b2 a93d 459b 91bc eecf c13d d77f cdbd
00000090: 6efd 593d b6e8 7f3d eb98 c53d c397 163e
000000a0: bcb9 cdbd d37e 2a3e ba96 343d d4a4 7f3b
000000b0: 6925 7bbd 3e9e c03c c9c1 f5bc 01b3 5a3d
000000c0: 9fe7 1bbd cb15 2dbd 7c39 1cbd 281a c0bd
000000d0: 6f3d 86bc 9c19 013d 02b1 7d3c a94a 933b
000000e0: bc8e b0bd 5382 79bd d54f 063d 8377 2b3e
000000f0: fe62 593e 7478 21bb d02f 253e 3e06 4cbd
00000100: a4a3 06bd f152 873d 74b4 3d3e b24d 003e
00000110: ba3e bc3d 60b4 eabd 9a1a 3bbc 8300 f43c
00000120: 75bf 023e 3e7b 0abd 9510 aa3d 3bf9 c33d
00000130: c621 41bc d056 023e e706 613d a318 55bd
00000140: 0be1 8abd c9b3 2f3d 771a 94bc 8a14 b6bd
00000150: 3cdb a03c a4f7 193d b8b9 a63d 946b e1bd
00000160: f31a 21be c708 32bd 7013 49bd 697c 8dbb
00000170: 61bf ac3c c123 983d 42ff c03b 182a 4a3d
00000180: 1a52 4c3d 2cd6 093e eaae 453a 1a0d 083d
00000190: 823f f83c 14bd 933d a7ab 85bd 4cda ebbc
000001a0: 2734 123d bda6 adbb 50d9 cd3b c55b 123e
000001b0: fd69 d0bd db13 d73c c160 acbd 8010 7abc
000001c0: f594 15bc 7b27 28be e374 063d af3c 8dbc
000001d0: 3c59 21be 7923 f3b8 fc34 e53d 6003 1e3e
000001e0: 5677 acbd a8a4 67bd 96fa c03d b1ab 463d
000001f0: c9a5 e5bd 44e6 ec3d 7448 82bd 0502 c6bd
00000200: 1354 39bd d477 0cbc e730 ba3d df24 9e3d
00000210: ce94 493c a774 883c 95c7 0a3e f6bd 8f3c
00000220: 4461 2c3e 97d7 81bd 5202 7cbd a9e4 25bc
00000230: 434d 343e 00ca aebc 02d5 a13c a31d 403c
00000240: f519 49bd e5d6 fbbd 461c c9ba d943 d1bd
00000250: 3122 17bd 2506 883d b932 143d f938 adbd
00000260: 73bf 683d 0a61 19bd f07f 53bd 948f cc3d
00000270: a85b 29ba 7ea9 03be 4b1e cc3d 9bfd c83c
00000280: 9ca6 a4bb 26a4 0bbe 5c77 d4bd ba24 2d3e
00000290: 5438 1d3e dedf b53d 3a9c 3f3c 407e d1bc
000002a0: 76d0 d8bc 3547 b43c 5144 17bd 7db5 9a3d
000002b0: 5cf7 62bd a370 f5bd 65c9 9dbd fce7 723d
000002c0: c8ba babb 5e7a dc3d 2f37 203e 6b2a 1d3d
000002d0: 5810 74bd 9884 12bc 98b4 65bc ee79 57be
000002e0: 95bb 9abc 921a 2d3d e90f 64bd fade a5ba
000002f0: 0e4b e1bd 95a1 11bd 67e9 d23d cd4f e5bd
00000300: 57b9 db3d baf0 83bd b952 a23d e990 91bc
00000310: 0227 80bc 6d99 80bd 35a2 823b 6f3d 4e3c
00000320: e1ce e93d 9760 eabd e3a7 87bc a186 df3c
00000330: 61c9 1dbe 653c babd 86cb a2bd 6773 c5bd
00000340: 9d4a fd3a 93e0 273d a541 52bc 033b ca3d
00000350: 7e20 f93b 6f0c 35bd f23d 23bd 6d75 1fbd
00000360: 266f 233c 8107 8c3d cc16 f83c fcb6 573d
00000370: d482 ee3d 3094 eb3c f4dd d63c 6541 33bd
00000380: 2529 3abd 2780 6cbd 8ff0 e5bc a1f3 17b9
00000390: a155 eabd 8c8d 74bc aa7c 083d 8854 c03b
000003a0: 34dc 6c3d 5720 00be 6b28 dfbc 06e1 4b3d
000003b0: 0e81 8f3d 25b0 8f3d ceb8 7d3d 3a81 92bd
000003c0: 2bc3 b6ba 48ce c73c b52f 103d 76df 893e
000003d0: f4b1 b8bd 7465 8b3d f662 a63d 1136 12bd
000003e0: e7f9 c6ba a20d b9bd fc2b 1b3d 2a1f 00be
000003f0: c90d 213e a929 eb3d 6a61 b8bd b206 72bd

a2c_network.actor_mlp.2.bias f4 [256]
-0.05888059 0.024047317 -0.022073455 -0.008148504 0.033218138 -0.028803684 -0.00785946 0.0017678573
0.0045931847 0.032121148 -0.011529964 -0.0023442209 -0.02593297 0.019181054 -0.041422635 -0.04094493
0.035379622 -0.016578289 -0.09453039 0.025339343 -0.02072388 -0.0135253845 -0.035965238 -0.018991308
-0.019260628 0.02201068 -0.022512268 0.020044876 0.009599532 0.07126725 -0.22276764 -0.020224169
0.034138516 -0.06738731 -0.0005265818 -0.036901727 0.013919976 0.024068443 -0.031751413 -0.017350204
-0.052707583 0.0070875953 0.0090797255 -0.025367321 -0.018217215 0.040233105 0.025542505 0.020177195
-0.009468179 0.034330264 -0.045802914 0.067288645 -0.01648999 -0.027286414 -0.005033559 0.022971036
0.02200235 0.0070924005 0.0054723006 -0.0006119554 0.008278603 -0.20238444 -0.02738886 -0.27500942
-0.0155417835 0.017033176 0.02782255 0.02407246 -0.01629167 0.022951966 -0.053475592 0.01020714
-0.047146004 -0.0179268 -0.014519098 -0.013402647 0.08432982 -0.0024631403 -0.0024276313 -0.024337916
-0.44014037 0.0205161 0.021057958 0.02158814 0.047284864 -0.011321731 -0.024872374 -0.1416423
0.004115535 -0.012127885 0.011559639 0.04870448 0.003442709 -0.014337161 -0.030589132 -0.08273949
-0.0107869925 -0.024876267 0.040208373 -0.006356787 -0.10522008 -0.077131234 -0.018967938 0.01569559
-0.030632643 -0.021427294 0.027673822 0.009757725 0.012667925 -0.46325538 -0.02077796 -0.00051368924
0.051351402 -0.14868774 -0.10832522 -0.015290933 0.00569232 -0.012486122 -0.031806752 -0.024473842
-0.06571527 -0.02714755 -0.022884397 0.023808366 -0.025830165 -0.007158551 0.03318877 -0.0015893718
0.02117985 -0.12831627 -0.045128196 -0.15793818 0.033781063 -0.22063048 -0.006746843 -0.024029616
0.020328164 -0.17620102 -0.08711027 0.012682884 0.009767568 -0.01451283 -0.34125072 -0.050603822
0.061413925 0.023424026 0.031350326 -0.05472137 -0.0016378257 -0.009331186 -0.0309301 -0.011768205
0.0055963923 -0.012910951 0.018080978 -0.009989738 -0.04372336 -0.35280436 -0.2993014 0.037370138
-0.014121907 0.05351197 -0.006547972 -0.27261707 -0.021782074 0.013870455 0.026452823 0.032790944
0.010839734 0.079097204 -0.05937862 0.023643397 0.008462022 -0.0055902884 0.023143467 0.03339656
0.056795955 0.02872419 -0.0095729055 -0.035257295 0.048978258 0.046077188 -0.03520719 -0.048166372
0.03681638 -0.0012480327 0.051331602 -0.43530136 -0.006853076 0.025084386 0.0076341294 -0.003399033
0.015599357 -0.1093686 0.017201448 0.037979566 0.02729273 -0.38546935 -0.024660049 -0.016827943
-0.17075436 -0.03873151 -0.19924317 0.05658607 -0.024305591 0.022663418 -0.010185419 0.038086675
0.0045548924 0.017795168 0.028944768 -0.3293994 -0.038344927 -0.0493582 0.00094547664 -0.018276976
-0.06859845 -0.04259386 0.026360702 0.02961595 0.02504074 -0.021725511 -0.0065706526 -0.19087195
0.030559883 -0.0038827462 -0.024855725 -0.0074102217 -0.04167298 -0.043184113 0.008031836 -0.030007603
0.024365334 0.0019989714 -0.0071251206 -0.011341836 0.017062953 -0.021049995 0.027589291 0.007982224
-0.03761092 0.0053826896 0.027843768 0.023242611 -0.024903795 0.0112973405 0.031655412 0.074518435
0.0024138074 0.029741263 -0.04539212 0.15988944 -0.35314614 -0.0003945982 -0.09247614 -0.0101326695
00000000: c62c 71bd e1fe c43c 64d3 b4bc 4e81 05bc
00000010: be0f 083d b4f5 ebbc f7c4 00bc 73b7 e73a
00000020: 6d82 963b 7791 033d 2de8 3cbc 80a1 19bb
00000030: 6171 d4bc 9621 9d3c c8aa 29bd dfb5 27bd
00000040: 39ea 103d 31cf 87bc 2699 c1bd 7494 cf3c
00000050: 20c5 a9bc 9399 5dbc 4950 13bd a993 9bbc
00000060: 77c8 9dbc be4f b43c a66b b8bc 2735 a43c
00000070: 5b47 1d3c 90f4 913d 331d 64be 28ad a5bc
00000080: d4d4 0b3d 5c02 8abd 4e0a 0aba 4426 17bd
00000090: 9c10 643c 2f2b c53c c50d 02bd 0422 8ebc
000000a0: e8e3 57bd 0f3f e83b 21c3 143c 21cf cfbc
000000b0: 453c 95bc 78cb 243d 843e d13c a54a a53c
000000c0: 6c20 1bbc e49d 0c3d d69b 3bbd a1ce 893d
000000d0: 0416 87bc c287 dfbc 8ef0 a4bb c12d bc3c
000000e0: 463e b43c 5e67 e83b fc50 b33b a26b 20ba
000000f0: faa2 073c de3d 4fbe 9a5e e0bc 09ce 8cbe
00000100: f7a2 7ebc 2989 8b3c 1eec e33c 9c33 c53c
00000110: 1c76 85bc c305 bc3c 3909 5bbd d93b 273c
00000120: 2b1c 41bd 39db 92bc 83e1 6dbc c796 5bbc
00000130: 1db5 ac3d a36c 21bb e518 1fbb 4f60 c7bc
00000140: 145a e1be 6111 a83c bd81 ac3c 9cd9 b03c
00000150: c6ad 413d c87e 39bc 26c1 cbbc ae0a 11be
00000160: 9cdb 863b 09b4 46bc a464 3d3c 597e 473d
00000170: 139f 613b 69e6 6abc 0f96 fabc 5273 a9bd
00000180: edbb 30bc 50c9 cbbc 89b1 243d 984c d0bb
00000190: a07d d7bd fbf6 9dbd a662 9bbc 0a94 803c
000001a0: 4ff1 fabc 4b88 afbc 36b4 e23c ddde 1f3c
000001b0: 218d 4f3c cf2f edbe 8a36 aabc 1aa9 06ba
000001c0: d955 523d 9941 18be 9dd9 ddbd d286 7abc
000001d0: a486 ba3b 9792 4cbc cc47 02bd 5e7d c8bc
000001e0: ba95 86bd 8a64 debc 0f78 bbbc c309 c33c
000001f0: c899 d3bc 4792 eabb f3f0 073d 7852 d0ba
00000200: 5d81 ad3c 5765 03be 58d8 38bd 8cba 21be
00000210: 035e 0a3d f5ec 61be 9f14 ddbb c2d9 c4bc
00000220: 4087 a63c 0a6e 34be df66 b2bd dfcb 4f3c
00000230: 2608 203c 39c7 6dbc 6ab8 aebe f445 4fbd
00000240: 2b8d 7b3d bee3 bf3c 3369 003d 8423 60bd
00000250: 50ac d6ba d5e1 18bc 1f61 fdbc 6ecf 40bc
00000260: f161 b73b 7488 53bc 8f1e 943c 00ac 23bc
00000270: 4417 33bd c6a2 b4be 083e 99be 6e11 193d
00000280: 925f 67bc 5e2f 5b3d 5f90 d6bb 7794 8bbe
00000290: 5270 b2bc e840 633c 97b3 d83c cc4f 063d
000002a0: 2499 313c b7fd a13d ff36 73bd ccaf c13c
000002b0: 4ba4 0a3c bd2e b7bb 5e97 bd3c d5ca 083d
000002c0: e0a2 683d fe4e eb3c add7 1cbc f469 10bd
000002d0: 6d9d 483d 6fbb 3c3d 6a35 10bd 1a4a 45bd
000002e0: c6cc 163d 0795 a3ba 1641 523d d2df debe
000002f0: c58f e0bb c57d cd3c b827 fa3b 50c2 5ebb
00000300: 7294 7f3c a5fc dfbd 0dea 8c3c 7690 1b3d
00000310: 0195 df3c 3d5c c5be df03 cabc c1da 89bc
00000320: 3bda 2ebe efa4 1ebd 6706 4cbe ccc6 673d
00000330: 851c c7bc a2a8 b93c bee0 26bc c600 1c3d
00000340: 3541 953b 2cc7 913c 941d ed3c 0aa7 a8be
00000350: 920f 1dbd d32b 4abd ddd9 773a 99b9 95bc
00000360: 587d 8cbd e676 2ebd 66f2 d73c 269d f23c
00000370: 3d22 cd3c b3f9 b1bc a14e d7bb f073 43be
00000380: b858 fa3c ac75 7ebb 3c9e cbbc 72d1 f2bb
00000390: 49b1 2abd d3e1 30bd f697 033c 81d2 f5bc
000003a0: cf99 c73c 2d01 033b d879 e9bb 1cd3 39bc
000003b0: 9bc7 8b3c 0a71 acbc f002 e23c e0c7 023c
000003c0: e80d 1abd 4661 b03b 9d18 e43c 4a67 be3c
000003d0: 0b03 ccbc 7b18 393c 1ba9 013d 1f9d 983d
000003e0: f830 1e3b f3a3 f33c 16ed 39bd 0fba 233e
000003f0: 92cf b4be 13e2 ceb9 2164 bdbd 7f03 26bc

a2c_network.value.weight f4 [1, 256]
-0.05381471 -0.020324603 -0.014795393 0.019148959 0.001030429 0.0053648558 -0.024683297 -0.0015351018
0.020346865 -0.022057416 -0.02388599 0.0035450289 -0.012815687 -0.005400301 -0.014408135 0.066132
-0.012712732 -0.0027119427 -0.09285658 -0.0008283334 0.00034183633 0.008221915 0.08113662 0.014258616
-0.0012500348 0.030194497 0.023850739 -0.01173832 -0.025705723 -0.0055770245 0.08789767 0.011625583
-0.0038163986 -0.12914068 -0.017878452 0.02705518 0.0014116784 -0.03827486 -0.009521952 -0.0778785
0.02177283 0.00067733525 0.02031737 0.0014839672 -0.014358013 0.0021856439 0.013958649 -0.009618508
-0.054436408 0.0073382123 -0.051662117 -0.013622026 0.028025372 -0.014357929 0.15308379 -0.009569916
0.007263088 0.011535534 -0.0034298107 -0.023172202 0.0046740724 -0.10902103 -0.00074092665 -0.06803995
-0.024368841 0.048213705 -0.0075899865 -0.021412846 -0.01698479 -5.4461084e-06 -0.0320621 0.008439257
-0.0046090228 0.018259678 0.0076985573 -0.008226404 0.032548267 0.011942766 0.00634095 -0.0008644321
-0.072273284 -0.08291123 -0.0010404234 -0.010725839 -0.005460128 0.0016046469 -0.0056640813 -0.10494797
0.011556275 -0.018412767 0.023288079 -0.0034094588 -0.09672808 -0.03455567 -0.008205958 -0.050756242
-0.016925542 -0.04240376 -0.02451877 -0.03860877 0.07894126 -0.12781589 -0.008182203 -0.00034313276
0.00837558 -0.08335866 0.0085054515 -0.003097266 0.053313997 0.12102887 -0.025545882 -0.00013840215
-0.02985318 0.041579366 0.009560849 -0.028424857 -0.03449713 -0.022774762 -0.009066255 -0.01759238
-0.025911553 -0.0051903483 -0.010362235 -0.018552216 -0.0053800363 0.05917272 0.007970352 -0.00021965426
0.013701037 -0.0063236062 0.052728355 0.04497264 -0.03138339 -0.07538014 0.00826501 -0.01048682
0.062581815 0.03155005 -0.04532099 0.011439669 0.0031387357 0.0069690063 -0.089698 -0.044740252
-0.015193654 -0.015041681 -0.021482313 -0.049162388 -0.01839367 0.051974338 0.055984803 0.0015921108
-0.010648372 0.029123649 0.017668199 0.0025582702 -0.011396476 -0.14192165 -0.1816363 -0.0002967919
-0.009260432 0.011032674 -0.027327431 0.007840816 0.004689939 0.090913184 -0.0065291724 -0.0015076873
-0.013067595 0.022051694 -0.003257598 -0.014704153 -0.17267865 -0.11400436 -0.0026155896 0.0038958983
-0.034393974 0.012157011 -0.015665533 0.005691709 -0.0025211358 -0.009543012 -0.010904089 0.0059652394
-0.011134106 0.048155937 0.11081605 0.04312771 -0.0061479053 0.012028208 -0.014399881 0.023919823
0.041339803 -0.0025262118 0.017087009 -0.012888761 -0.018833017 -0.112462 -0.01216433 0.0024884318
-0.046170864 -0.033780843 -0.08415823 -0.0012057595 -0.0038917342 -0.017505439 -0.008203633 0.019010762
0.0050001307 0.0051837005 0.0016606962 -0.17237818 -0.00281473 0.0005081911 0.014412325 -0.00896681
0.05401904 -0.011716266 -0.01134862 -0.007239674 -0.01000065 0.018617455 -0.0069799917 0.10908006
0.018793097 -0.006936741 0.017481726 -0.015164489 -0.0032449926 -0.0059645604 -0.015920268 0.0063607255
-0.010341306 0.19151141 0.015854198 -0.008906037 0.015818782 -0.023024768 -0.0001250126 0.07007991
0.062016908 0.022395574 0.00091337995 -0.012957734 -0.16143034 -0.01179979 0.00047906375 0.0051377295
-0.019025905 0.007950775 -0.027283594 -0.01056967 -0.034450922 -0.018226776 -0.05328877 -0.028708192
00000000: d06c 5cbd c87f a6bc 6068 72bc 47de 9c3c
00000010: 760f 873a accb af3b a034 cabc 7835 c9ba
00000020: 78ae a63c c1b1 b4bc 8dac c3bc b753 683b
00000030: e3f8 51bc 02f5 b0bb 1910 6cbc 3770 873d
00000040: 1049 50bc d9ba 31bb 972b bebd 8324 59ba
00000050: 7f38 b339 36b5 063c f52a a63d f89c 693c
00000060: 35d8 a3ba 735a f73c a062 c33c 1552 40bc
00000070: cf94 d2bc 79bf b6bb b203 b43d 3b79 3e3c
00000080: 8b1c 7abb 743d 04be d575 92bc d3a2 dd3c
00000090: 1108 b93a 19c6 1cbd f601 1cbc c37e 9fbd
000000a0: ef5c b23c 338f 313a 9d70 a63c ad81 c23a
000000b0: df3d 6bbc 053d 0f3b d1b2 643c f296 1dbc
000000c0: b6f8 5ebd 6375 f03b a89b 53bd eb2e 5fbc
000000d0: 7795 e53c 853d 6bbc ffc1 1c3e 23cb 1cbc
000000e0: 33ff ed3b 89ff 3c3c adc6 60bb a1d3 bdbc
000000f0: f628 993b 6b46 dfbd bf3a 42ba 8858 8bbd
00000100: 2aa1 c7bc bc7b 453d 6cb5 f8bb fe69 afbc
00000110: b023 8bbc b7bd b6b6 8c53 03bd cf44 0a3c
00000120: 4907 97bb 5295 953c 2e44 fc3b 0ac8 06bc
00000130: 5551 053d 97ab 433c bec7 cf3b 0e9b 62ba
00000140: 0404 94bd 5dcd a9bd d15e 88ba 6ebb 2fbc
00000150: e0ea b2bb 0453 d23a c299 b9bb f6ee d6bd
00000160: 8856 3d3c 5fd6 96bc a4c6 be3c 3a71 5fbb
00000170: 5f19 c6bd 3f8a 0dbd 4872 06bc c7e5 4fbd
00000180: 6fa7 8abc 91af 2dbd 96db c8bc 3b24 1ebd
00000190: f5ab a13d 2be2 02be a60e 06bc 80e6 b3b9
000001a0: bb39 093c f2b7 aabd 735a 0b3c 80fb 4abb
000001b0: c75f 5a3d fcdd f73d 9945 d1bc 0b20 11b9
000001c0: a88e f4bc 204f 2a3d 1ba5 1c3c 3fdb e8bc
000001d0: dd4c 0dbd 2392 babc a18a 14bc e51d 90bc
000001e0: 7744 d4bc cc13 aabb 5dc6 29bc d1fa 97bc
000001f0: 044b b0bb 185f 723d 1496 023c fe52 66b9
00000200: 507a 603c 4136 cfbb b0f9 573d 3b35 383d
00000210: df8b 00bd e760 9abd f769 073c e9d0 2bbc
00000220: e52a 803d a03a 013d 81a2 39bd 736d 3b3c
00000230: 3fb3 4d3b 435c e43b 96b3 b7bd 8e41 37bd
00000240: ceee 78bc 6271 76bc adfb afbc 805e 49bd
00000250: 52ae 96bc 0be3 543d 5250 653d 60ae d03a
00000260: 8276 2ebc b894 ee3c e6bc 903c a7a8 273b
00000270: 49b8 3abc e953 11be defe 39be bc9a 9bb9
00000280: 11b9 17bc 64c2 343c c7dd dfbc c476 003c
00000290: 0fae 993b b130 ba3d abf2 d5bb 979d c5ba
000002a0: 7719 56bc c1a5 b43c 6d7d 55bb b0e9 70bc
000002b0: acd2 30be 1e7b e9bd 506a 2bbb 5452 7f3b
000002c0: b2e0 0cbd 332e 473c 0155 80bc 8481 ba3b
000002d0: a439 25bb 4b5a 1cbc 10a7 32bc 0e78 c33b
000002e0: d36b 36bc 293f 453d 86f3 e23d afa6 303d
000002f0: 5e74 c9bb f611 453c 7aed 6bbc 81f3 c33c
00000300: ed53 293d cd8e 25bb 0efa 8b3c 622b 53bc
00000310: b347 9abc 7a52 e6bd e64c 47bc f514 233b
00000320: a91d 3dbd c85d 0abd 265b acbd 930a 9eba
00000330: 770c 7fbb 9167 8fbc 8868 06bc 75bc 9b3c
00000340: 23d8 a33b 08dc a93b b8ab d93a e883 30be
00000350: 5577 38bb 2138 053a ac21 6c3c 87e9 12bc
00000360: 1243 5d3d 95f5 3fbc 90ef 39bc ca3a edbb
00000370: c4d9 23bc a283 983c 6ab8 e4bb 5e65 df3d
00000380: fbf3 993c 9a4d e3bb d635 8f3c 7a74 78bc
00000390: f1a9 54bb 5c72 c3bb 396b 82bc a26d d03b
000003a0: 956e 29bc 911b 443e aae0 813c a0ea 11bc
000003b0: 6496 813c 709e bcbc d015 03b9 0e86 8f3d
000003c0: 7105 7e3d ec76 b73c e46f 6f3a ad4c 54bc
000003d0: ff4d 25be e853 41bc d92a fb39 665a a83b
000003e0: 37dc 9bbc f843 023c d881 dfbc 692c 2dbc
000003f0: 691c 0dbd 5250 95bc 5345 5abd 712d ebbc

a2c_network.mu.weight f4 [6, 256]
-0.03197866 -0.00014828988 0.0007711084 -0.0016055852 -0.0026235145 -0.0012672571 0.0021561636 0.0035703406
-0.0864957 -0.00056742463 0.0018880963 0.0020468056 -0.00089682353 -0.000657389 -0.00070104393 -0.08968023
0.012688962 -8.386327e-05 0.047510985 0.0003431071 -0.0001574205 -0.0005392668 -0.012563998 0.0013875997
-0.0025321709 0.0066967243 0.0027865858 0.00280973 0.0017887908 0.001841154 0.09175681 0.0144575015
-0.0008411738 -0.04612966 0.0041234926 0.0022449356 9.0977344e-05 0.0005472423 -0.0010498096 0.012602939
0.0040717185 -0.002977601 -0.0007759467 2.5234935e-05 -0.00033033252 -0.0016204261 0.0037138 -0.00011579061
0.000904862 -0.0017090612 0.041968733 0.0018707631 0.0008278182 0.0024827935 -0.034230046 -0.0009199902
-0.04179343 -0.0021340838 0.0005319295 0.0028243097 -0.0013052245 0.03110053 0.0019051912 0.09576837
-0.0015086078 -0.00016821036 0.0007837602 -0.0016820147 -0.0004855806 -0.00038791946 0.104088366 -0.0025948363
-0.0034173273 -0.0037221496 -0.0015966428 0.00066156546 -0.24722768 0.007849845 0.0023684565 0.0053154137
0.106017254 -0.0225236 0.00068562775 -0.0007866745 0.000734177 -2.296429e-05 -0.0005940128 0.038054414
-0.0040706308 -0.001047645 -0.013059954 -0.00015345529 0.023482211 0.0019278392 -0.0005337664 0.2179117
0.0024522978 0.004730534 0.0017852733 -0.017809171 -0.25619978 0.050012913 -0.0028741688 0.002479918
-0.008460354 0.005585489 -0.0052331304 0.0005379711 -0.005961671 0.04980264 0.010637657 -0.0030877
-0.0023124202 -0.20094888 -0.11399945 -0.0019757696 -0.0020200296 0.0036995967 -0.010603593 -5.805162e-05
0.000113448 0.003385226 0.0065130387 0.0018738895 0.0012795943 0.006802443 -0.0039839605 0.000749168
0.0020004173 0.059266143 -0.0006868642 -0.102035575 0.003229235 0.17191628 0.0027822547 0.00041981658
-0.05835491 0.14821848 -0.027469346 0.0020765006 0.0012912436 0.0012009351 0.021700295 0.17601767
0.000490353 -0.00040966438 -0.005895453 0.0008431756 -0.0037341595 -0.0058373855 0.001006079 -0.0009881802
0.0012639046 0.05303887 -0.0014305313 -0.0015416959 0.0007042503 -0.06444508 0.24668534 -0.00054646016
-0.0022141512 -0.00068793964 -0.007854922 0.03596548 0.0024117748 0.0029635727 0.004387351 0.0011377126
-0.0017254548 -0.0060908357 0.0048436993 -0.0027246291 -0.0069863787 0.012261335 0.0020065787 0.0010898708
-0.01644638 -0.0037928715 -0.0028203817 2.48442e-06 0.0019383153 -0.0022293052 -0.0015119979 0.00084782613
0.007154234 -0.004242323 0.003423636 0.10099076 0.001194222 0.0011578869 -0.0077994866 -0.0073915077
-0.0089661395 -0.06319696 0.0016792004 0.0072324094 -6.3274565e-05 -0.020993123 -0.052420985 -0.0025808532
0.19192028 -0.029902315 -0.13162585 0.0013962644 0.00052536064 -0.0002915804 -0.0008404149 0.009366043
-0.0011899931 0.0022309844 0.00018828931 -0.094623454 0.0005215047 -0.0031861386 0.0016279992 -0.0013117809
-0.026937803 -0.0022626743 -0.00059016474 -0.00034390716 0.0043388256 -0.00069783296 -0.00041873753 -0.20276822
-0.002789902 0.00090420124 -0.0035421064 -0.0022324778 -0.00370709 -0.0015524663 -0.0010506137 -0.0019069674
0.0023550205 -0.021128401 0.00445105 0.001614557 -0.001188601 0.001008224 -0.00021874494 -0.09331194
-0.018005056 -0.0031362902 0.00039637127 0.0003934624 -0.05989675 -0.0021776494 0.002137916 0.0023629551
0.00038435715 0.0016912223 0.0062562022 -0.0034847923 -0.17724888 0.004563274 -0.03547872 -0.0024100612
00000000: 0efc 02bd 437e 1bb9 3524 4a3a 8072 d2ba
00000010: 45ef 2bbb 181a a6ba 6c4e 0d3b 60fc 693b
00000020: a824 b1bd 39bf 14ba 007a f73a b323 063b
00000030: cf18 6bba a154 2cba 43c6 37ba 45aa b7bd
00000040: 5de5 4f3c c0df afb8 e19a 423d 0ee3 b339
00000050: 3e11 25b9 955d 0dba 3ad9 4dbc 1fe0 b53a
00000060: c7f2 25bb 3270 db3b 279f 363b 7223 383b
00000070: dc75 ea3a e052 f13a ffea bb3d 28df 6c3c
00000080: 3882 5cba 74f2 3cbd 5d1e 873b c51f 133b
00000090: 17cb be38 cf74 0f3a c499 89ba 8f7c 4e3c
000000a0: 0d6c 853b db23 43bb e768 4bba 9caf d337
000000b0: 7b30 adb9 7a64 d4ba 3a63 733b 9cd4 f2b8
000000c0: 4334 6d3a 9402 e0ba 68e7 2b3d 6534 f53a
000000d0: f001 593a 5db6 223b ce34 0cbd 7f2b 71ba
000000e0: 962f 2bbd fcdb 0bbb 2f71 0b3a 0e18 393b
000000f0: 1114 abba 8ac6 fe3c 9cb7 f93a 3522 c43d
00000100: 7abc c5ba a061 30b9 4275 4d3a 0c77 dcba
00000110: 8695 feb9 ab61 cbb9 482c d53d 210e 2abb
00000120: 3df5 5fbb 4fef 73bb 7146 d1ba e86c 2d3a
00000130: 4129 7dbe a39c 003c 1b38 1b3b ec2c ae3b
00000140: 931f d93d 6a83 b8bc b3bb 333a d538 4eba
00000150: c975 403a 70a3 c0b7 86b7 1bba f2de 1b3d
00000160: ed62 85bb 2251 89ba 6bf9 55bc d7e8 20b9
00000170: c45d c03c 8daf fc3a 75ec 0bba 3f24 5f3e
00000180: bbb6 203b 9802 9b3b d5ff e93a 8ae4 91bc
00000190: 9e2c 83be 57da 4c3d 8d5c 3cbb 1f86 223b
000001a0: 4c9d 0abc 7a06 b73b ae7a abbb a106 0d3a
000001b0: 1f5a c3bb dafd 4b3d 9149 2e3c 035b 4abb
000001c0: f98b 17bb 8bc5 4dbe 8b78 e9bd ea7b 01bb
000001d0: 7962 04bb ef74 723b b1ba 2dbc 747c 73b8
000001e0: eeea ed38 abda 5d3b 546b d53b 4c9d f53a
000001f0: 0fb8 a73a 07e7 de3b e28b 82bb d063 443a
00000200: 6f19 033b 0ec1 723d ad0e 34ba 07f8 d0bd
00000210: 93a1 533b d20a 303e 7d56 363b d41a dc39
00000220: 8f05 6fbd 96c6 173e 6507 e1bc e615 083b
00000230: f23e a93a b268 9d3a d1c4 b13c fa3d 343e
00000240: 088b 003a 39c8 d6b9 a52e c1bb 8f08 5d3a
00000250: cdb8 74bb 8a47 bfbb 69de 833a d385 81ba
00000260: 9aa9 a53a 493f 593d aa80 bbba bb12 caba
00000270: 709d 383a c8fb 83bd 159b 7c3e 5240 0fba
00000280: 4b1b 11bb d956 34ba eeb1 00bc 8a50 133d
00000290: de0e 1e3b 8038 423b c5c3 8f3b 4d1f 953a
000002a0: a828 e2ba a295 c7bb e5b7 9e3b b18f 32bb
000002b0: feed e4bb c4e3 483c ce80 033b ffd9 8e3a
000002c0: 8fba 86bc d391 78bb 27d6 38bb 03ba 2636
000002d0: 120f fe3a 8919 12bb 3b2e c6ba a640 5e3a
000002e0: 116e ea3b 2f03 8bbb 155f 603b 3ed4 ce3d
000002f0: 7187 9c3a 3dc4 973a d692 ffbb 7634 f2bb
00000300: b7e6 12bc 686d 81bd 9e18 dc3a d9fd ec3b
00000310: 46b2 84b8 c5f9 abbc 63b7 56bd 8823 29bb
00000320: c086 443e b3f5 f4bc edc8 06be dc02 b73a
00000330: 5bb8 093a 42df 98b9 4a4f 5cba 0874 193c
00000340: 8bf9 9bba b535 123b 876f 4539 f1c9 c1bd
00000350: 97b5 083a 89ce 50bb 9762 d53a 10f0 abba
00000360: abac dcbc 6049 14bb 49b5 1aba 704e b4b9
00000370: b52c 8e3b c7ee 36ba 008a dbb9 79a2 4fbe
00000380: cad6 36bb eb07 6d3a af22 68bb c34e 12bb
00000390: a6f2 72bb 207c cbba bfb4 89ba 35f3 f9ba
000003a0: b056 1a3b 7815 adbc 1dda 913b 8b9f d33a
000003b0: d5ca 9bba 6226 843a e65e 65b9 551a bfbd
000003c0: 577f 93bc 388a 4dbb 0dd0 cf39 a149 ce39
000003d0: 4b56 75bd e5b6 0ebb 471c 0c3b cfdb 1a3b
000003e0: 8b83 c939 01ac dd3a d400 cd3b 1d61 64bb
000003f0: bb80 35be 8487 953b 2252 11bd 1ef2 1dbb

a2c_network.mu.bias f4 [6]
-0.33605027 0.28836587 -0.32858786 -0.10553539 -0.0047407653 -0.41834664
00000000: c80e acbe b1a4 933e ab3c a8be f022 d8bd
00000010: 6c58 9bbb 8831 d6be

exp_avg f4 [6]
-0.0005257871 1.7927845e-05 -0.0006939462 -0.00085082615 -0.00047963308 -2.8639226e-05
00000000: fad4 09ba c163 9637 f1e9 35ba fa09 5fba
00000010: 4377 fbb9 453e f0b7

exp_avg_sq f4 [6]
1.7706012e-05 1.8387947e-05 2.0598582e-05 1.9027548e-05 2.166226e-05 2.239322e-05
00000000: 5f87 9437 d13f 9a37 1ecb ac37 599d 9f37
00000010: 59b7 b537 13d9 bb37

exp_avg f4 [256, 40]
5.5168577e-05 -5.51686e-05 -1.02296795e-07 -5.5168577e-05 -1.02296795e-07 0.0 0.0004574308 -0.00054527837
-0.0002447176 0.0004658441 -0.00054791995 0.00033770825 -0.0003093118 0.0003857628 -0.00027806833 -4.1234838e-07
-0.0005938087 -3.672732e-05 -5.183025e-07 -0.00036788805 -0.00011339716 -5.868767e-07 2.7479564e-07 -4.909157e-06
6.086265e-06 9.059574e-07 -3.080437e-06 5.082241e-06 1.6885542e-06 -3.674862e-06 5.432721e-06 -8.0249016e-08
0.0 -6e-45 5.236812e-07 -1.9728958e-08 -6e-45 5.236812e-07 2.0522462e-08 -6e-45
-1.1843652e-05 1.1843659e-05 2.1974158e-08 1.1843652e-05 2.1974158e-08 0.0 -1.7524364e-05 0.00015512371
-2.7778638e-05 -6.386577e-05 -8.4662475e-05 -7.225612e-05 5.9453872e-05 8.896681e-05 0.00023488003 5.490197e-08
0.00017889432 0.00015146594 1.2898452e-07 0.0003010416 -0.00024716026 1.3662616e-07 4.600684e-06 5.5789847e-06
4.1457398e-07 -4.1367883e-07 1.3811382e-06 -1.6109647e-06 -7.3574506e-07 1.0782833e-06 -2.3770212e-06 -3.703529e-08
0.0 -6e-45 6.1937534e-08 2.2486942e-07 -6e-45 6.1937534e-08 -2.2528171e-07 -6e-45
6.199597e-05 -6.199597e-05 -1.1507803e-07 -6.199597e-05 -1.1507803e-07 0.0 0.000824618 -0.0008680474
0.00022926963 0.0007697712 -0.00067278114 0.00072098733 -0.0004436552 0.00023593198 -0.0004748153 -6.0162677e-07
-0.0005528206 0.000117015836 -6.2510657e-07 7.6413555e-05 -0.000206523 -7.326874e-07 9.189556e-06 1.1453883e-06
8.979503e-06 4.130516e-06 -3.5038208e-06 7.3354263e-06 5.6395984e-06 -3.5865799e-06 7.24441e-06 -2.0290894e-07
0.0 -6e-45 7.6185097e-07 2.106269e-07 -6e-45 7.6185097e-07 -2.1116648e-07 -6e-45
7.180987e-05 -7.180987e-05 -1.3322006e-07 -7.180987e-05 -1.3322006e-07 0.0 0.0006954751 -0.00082019134
-0.00013760624 0.00074191816 -0.00074060244 0.00055766705 -0.00058976887 0.00043397173 -0.00032900373 -4.594806e-07
-0.0008632602 -8.2185565e-05 -5.7858665e-07 -0.00046592136 -0.00012287825 -6.801228e-07 8.68708e-07 -6.220146e-06
8.563542e-07 2.6234986e-06 -4.027092e-06 2.1874116e-06 3.4397074e-06 -4.564282e-06 2.148969e-06 -1.3843693e-07
0.0 6e-45 5.66757e-07 3.47953e-08 6e-45 5.66757e-07 -3.434696e-08 6e-45
3.413647e-05 -3.413647e-05 -6.33406e-08 -3.413647e-05 -6.33406e-08 0.0 0.00048657352 -0.00059264444
0.00013719816 0.0006694792 -0.0004313278 0.00043700158 -0.00053320144 -0.00016297003 -0.0004128987 -3.8725602e-07
-0.0002632704 0.00024217267 -3.7255677e-07 -0.000118285025 -0.00042467448 -4.4037765e-07 9.994971e-06 7.5203257e-06
9.167008e-06 2.254473e-06 -1.4698686e-06 6.7097753e-06 1.4928058e-06 -1.7003578e-06 6.054808e-06 1.5997223e-07
0.0 -6e-45 1.4507714e-07 -6.2772166e-08 -6e-45 1.4507714e-07 6.334371e-08 -6e-45
2.6885338e-05 -2.688535e-05 -4.9888587e-08 -2.6885338e-05 -4.9888587e-08 0.0 0.00027837243 -0.0002668664
-0.00017659707 0.00021118957 -0.00033047705 0.00012520984 -0.00012722771 0.00043388098 -0.00023029209 -1.9367167e-07
-0.0004015602 8.007135e-05 -2.880976e-07 2.8787132e-05 -0.00014422977 -3.2323018e-07 3.3312656e-07 -2.4037552e-06
5.230802e-06 1.7007106e-06 -1.8856597e-06 4.1757967e-06 1.4098858e-06 -1.8546328e-06 4.1971307e-06 -5.82126e-08
0.0 6e-45 1.2073714e-07 1.165929e-07 6e-45 1.2073714e-07 -1.1660672e-07 6e-45
5.819807e-05 -5.819809e-05 -1.0788673e-07 -5.819807e-05 -1.0788673e-07 0.0 0.0006876344 -0.00088058255
0.00025884912 0.00074088684 -0.00044810172 0.0006283383 -0.0006048959 0.00033394393 -0.00050505577 -3.8280893e-07
00000000: cf64 6738 d564 67b8 42ae dbb3 cf64 67b8
00000010: 42ae dbb3 0000 0000 53d3 ef39 03f1 0eba
00000020: 714d 80b9 893c f439 49a2 0fba 6f0e b139
00000030: 212b a2b9 3540 ca39 b3c9 91b9 bb60 ddb4
00000040: d4a9 1bba a90b 1ab8 7a21 0bb5 19e1 c0b9
00000050: a3cf edb8 dc89 1db5 a087 9334 56b9 a4b6
00000060: 9e38 cc36 eb30 7335 81b9 4eb6 1e88 aa36
00000070: 48a2 e235 a69d 76b6 b84a b636 5d55 acb3
00000080: 0000 0000 0400 0080 1993 0c35 7078 a9b2
00000090: 0400 0080 1993 0c35 5f49 b032 0400 0080
000000a0: 19b4 46b7 21b4 4637 afc1 bc32 19b4 4637
000000b0: afc1 bc32 0000 0000 4901 93b7 b4a8 2239
000000c0: 2c06 e9b7 adef 85b8 d28c b1b8 3688 97b8
000000d0: 1c5e 7938 b193 ba38 214a 7639 5bcd 6b33
000000e0: 9495 3b39 d4d2 1e39 ff7e 0a34 1fd5 9d39
000000f0: 4a95 81b9 83b3 1234 935f 9a36 1d33 bb36
00000100: 9d92 de34 9617 deb4 8c5f b935 5338 d8b5
00000110: 0480 45b5 88b9 9035 ea84 1fb6 bb10 1fb3
00000120: 0000 0000 0400 0080 8502 8533 a373 7134
00000130: 0400 0080 8502 8533 f7e4 71b4 0400 0080
00000140: d503 8238 d503 82b8 d120 f7b3 d503 82b8
00000150: d120 f7b3 0000 0000 2d2b 583a ad8d 63ba
00000160: 1968 7039 79ca 493a 945d 30ba a400 3d3a
00000170: 659a e8b9 8264 7739 a1f0 f8b9 7a7f 21b5
00000180: 2aeb 10ba 6666 f538 ffcc 27b5 3740 a038
00000190: 188e 58b9 e5ad 44b5 d82c 1a37 3ebb 9935
000001a0: aca6 1637 dd98 8a36 2f23 6bb6 d522 f636
000001b0: c83b bd36 f9b0 70b6 0215 f336 2fdf 59b4
000001c0: 0000 0000 0400 0080 0082 4c35 ae28 6234
000001d0: 0400 0080 0082 4c35 00bd 62b4 0400 0080
000001e0: a198 9638 a198 96b8 400b 0fb4 a198 96b8
000001f0: 400b 0fb4 0000 0000 8b50 363a 1c02 57ba
00000200: 654a 10b9 497d 423a fd24 42ba 6730 123a
00000210: b89a 1aba b386 e339 227e acb9 88ae f6b4
00000220: 694c 62ba 0a5b acb8 2c50 1bb5 e846 f4b9
00000230: e1d8 00b9 af91 36b5 2931 6935 a6b6 d0b6
00000240: 36e0 6535 5d0f 3036 7520 87b6 72cb 1236
00000250: b9d5 6636 e226 99b6 0237 1036 41a5 14b4
00000260: 0000 0000 0400 0000 3f23 1835 d671 1533
00000270: 0400 0000 3f23 1835 e284 13b3 0400 0000
00000280: c12d 0f38 c12d 0fb8 dd05 88b3 c12d 0fb8
00000290: dd05 88b3 0000 0000 cb1a ff39 b25b 1bba
000002a0: dadc 0f39 fd7f 2f3a d623 e2b9 5c1d e539
000002b0: 8bc6 0bba efe2 2ab9 537a d8b9 10e8 cfb4
000002c0: 8e07 8ab9 bbef 7d39 d003 c8b4 ca0f f8b8
000002d0: d8a6 deb9 0b6d ecb4 13b0 2737 1b57 fc36
000002e0: 00cc 1937 8d4b 1736 4d48 c5b5 8824 e136
000002f0: 6b5c c835 d937 e4b5 682a cb36 d5c4 2b34
00000300: 0000 0000 0400 0080 80c6 1b34 5dcd 86b3
00000310: 0400 0080 80c6 1b34 9307 8833 0400 0080
00000320: d387 e137 d987 e1b7 1545 56b3 d387 e1b7
00000330: 1545 56b3 0000 0000 84f2 9139 34ea 8bb9
00000340: ea2c 39b9 c572 5d39 e143 adb9 c34a 0339
00000350: 6e68 05b9 857a e339 907a 71b9 10f4 4fb4
00000360: 7f88 d2b9 fbeb a738 d5ab 9ab4 e57b f137
00000370: 623c 17b9 6b88 adb4 91d8 b234 3350 21b6
00000380: 3f84 af36 f943 e435 c616 fdb5 d21d 8c36
00000390: 4f3b bd35 b3ec f8b5 14d5 8c36 6e05 7ab3
000003a0: 0000 0000 0400 0000 f9a3 0134 a061 fa33
000003b0: 0400 0000 f9a3 0134 3969 fab3 0400 0000
000003c0: b419 7438 b919 74b8 5baf e7b3 b419 74b8
000003d0: 5baf e7b3 0000 0000 5d42 343a e5d6 66ba
000003e0: 24b6 8739 1338 423a 32ef eab9 12b7 243a
000003f0: e091 1eba 3215 af39 b865 04ba dc84 cdb4
