logs/rl_games/yam_cube_sort_8192/2026-02-01_05-04-52/nn/last_yam_cube_sort_8192_ep_1000_rew_1172.5238.pth (torch, 953260 bytes, 30 tensors)

value_mean_std.running_mean f8 [1]
0.26464544336486745
00000000: d366 1271 f3ef d03f

value_mean_std.running_var f8 [1]
0.03552470196741508
00000000: 4fe6 4c32 4b30 a23f

value_mean_std.count f8 []
524288001.0
00000000: 0000 0001 0040 bf41

running_mean_std.running_mean f8 [40]
0.9981709175179636 0.0018141517569955756 1.4926910343449002e-05 0.0018290786673390218 1.4926910343449002e-05 0.0 0.23014851691009133 -0.03596233157254324
0.17806174010379144 0.22623031665315033 -0.03692019530514918 0.1805972035139498 0.038304606525091586 0.3010478728403407 0.0016649222752110348 0.7627024094797407
0.30281175225943485 0.0024622715176642407 0.7627029585279217 0.3015260517047247 0.0016468908982414526 0.7627017770521104 0.00018942601039940584 0.000145707733998377
-0.00015049340034810086 0.00024069438404577008 0.000147530760680063 -0.00015835658901726626 0.00019680105294110563 0.00014019326473986617 -0.00014482935309835453 0.45999925408125214
0.0 0.7599999875640862 0.22000068342208595 0.13856455258320988 0.7599999875640862 0.22000068342208595 -0.13856455258320988 0.7599999875640862
00000000: deda d122 04f1 ef3f 387b d79d 1ab9 5d3f
00000010: 7619 a9ef d24d ef3e 5ecd b643 b6f7 5d3f
00000020: 7619 a9ef d24d ef3e 0000 0000 0000 0000
00000030: fd05 adb0 8175 cd3f ffe4 fb9b a769 a2bf
00000040: ca12 3523 baca c63f e9ca b171 1df5 cc3f
00000050: 798b cb2e 34e7 a2bf 50b5 6b25 cf1d c73f
00000060: fe71 9f50 a99c a33f db4b 184c 5e44 d33f
00000070: 0505 3cae 3047 5b3f e777 29e2 0e68 e83f
00000080: 571e 338b 4461 d33f 523b 8df4 c12b 643f
00000090: 6613 ee08 1068 e83f dcae bdec 334c d33f
000000a0: 45e0 12a3 8ffb 5a3f d746 a18e 0d68 e83f
000000b0: 6721 130a 15d4 283f e182 93e7 2319 233f
000000c0: a12d 2c77 b8b9 23bf 7056 ff03 5d8c 2f3f
000000d0: 5d0d a595 4f56 233f 573a ebbd 90c1 24bf
000000e0: e875 222c 8ccb 293f 114a 6ff9 1a60 223f
000000f0: e7c1 8cab aafb 22bf e5a7 1db6 a070 dd3f
00000100: 0000 0000 0000 0000 808a 717e eb51 e83f
00000110: 06a0 327e fb28 cc3f bc68 ddb6 7bbc c13f
00000120: 808a 717e eb51 e83f 06a0 327e fb28 cc3f
00000130: bc68 ddb6 7bbc c1bf 808a 717e eb51 e83f

running_mean_std.running_var f8 [40]
0.0018257958830083423 0.0018109192246650648 1.4930958280066694e-05 0.0018257922000440487 1.4930958280066694e-05 3.814697251073047e-09 0.029262013900889252 0.0018516993174072626
0.0020721112251073036 0.0312629090370963 0.001966102563449595 0.0032452354544654912 0.011240443911584875 0.0020485753654565213 0.0025841178677518243 1.7540438493207425e-07
0.0022556304593248063 0.0026804660600357496 1.5406568230811767e-07 0.0021334275130367457 0.0026664681059504324 1.5110693338186215e-07 0.0001694180335828467 0.00027138897302316775
3.501984924931745e-05 0.00021124794496536127 0.00028404112860484575 4.144778143428205e-05 0.00015978282009177226 0.00026674060053848505 3.23706488513699e-05 4.62201969794464e-09
3.814697251073047e-09 6.018066319590425e-09 3.999919820563703e-09 3.888487752882286e-09 6.018066319590425e-09 3.999919820563703e-09 3.888487662114236e-09 6.018066319590425e-09
00000000: d30b d466 f1e9 5d3f 9dde 1eb6 8bab 5d3f
00000010: 1bc9 c447 ff4f ef3e 5879 7672 ede9 5d3f
00000020: 1bc9 c447 ff4f ef3e 543a e5d1 4d62 303e
00000030: c7ae e082 dcf6 9d3f 3396 a800 9756 5e3f
00000040: f39e 413e 88f9 603f 13c8 c827 b101 a03f
00000050: 8c37 bd46 371b 603f 9ec8 a184 c095 6a3f
00000060: 4d36 f1d7 3a05 873f bc3c 5686 2cc8 603f
00000070: 1d61 64b7 492b 653f 4743 4f49 d98a 873e
00000080: 7ac9 bf61 667a 623f 87c8 1b42 58f5 653f
00000090: 4e7a b712 a8ad 843e 813c b32c 1f7a 613f
000000a0: 5cc3 f229 fdd7 653f 5192 6fa4 fe47 843e
000000b0: 9e31 c2d3 b934 263f 9939 7dc3 26c9 313f
000000c0: 04e6 9edb 485c 023f 1799 aa07 4eb0 2b3f
000000d0: dbea aa5b 6b9d 323f 1962 0fed 06bb 053f
000000e0: 6730 38f9 6bf1 243f 425b e427 2a7b 313f
000000f0: a562 7c06 b7f8 003f 0da1 07e3 f6d9 333e
00000100: 543a e5d1 4d62 303e 8118 c013 efd8 393e
00000110: ff4b 9d56 f52d 313e 692c ebff 6fb3 303e
00000120: 8118 c013 efd8 393e ff4b 9d56 f52d 313e
00000130: 6acc 60f9 6fb3 303e 8118 c013 efd8 393e

running_mean_std.count f8 []
262144001.0
00000000: 0000 0002 0040 af41

a2c_network.sigma f4 [6]
-1.7161049 -1.888036 -1.8102199 -2.2402956 -1.9283448 0.44916794
00000000: 53a9 dbbf 2aab f1bf 49b5 e7bf 0161 0fc0
00000010: 01d4 f6bf 57f9 e53e

a2c_network.actor_mlp.0.weight f4 [256, 40]
0.115314156 -0.062036086 -0.3075626 0.05843138 -0.28270677 -0.069123045 0.1839158 0.014051598
0.18725395 -0.16044997 -0.19670975 -0.31607622 0.06534629 0.06251306 -0.004674407 0.64392906
-0.05074774 0.0031773108 0.6776581 0.0021523621 -0.019263614 -0.85683507 0.03695042 -0.06326363
0.50800157 -0.03908966 0.0451752 0.05743814 0.1013471 -0.34389788 0.033077873 0.28507453
0.15214519 -0.13547035 -0.14094251 0.17555071 -0.11134397 0.07993032 -0.23044738 0.12639791
-0.14364442 -0.016753683 0.07841335 0.0075295814 0.09048439 -0.037520524 0.41472557 -0.5823962
-0.2144677 -0.10030626 -0.2136762 0.17973547 0.033488523 0.061545685 -0.027568575 0.21163447
0.0047000353 0.07341603 0.14793165 -0.057561424 -0.000429312 0.16212812 0.09927216 -0.3350261
0.29285157 0.022989111 -0.21451145 -0.4042827 -0.025678081 -0.2442894 0.3077672 -0.2690074
0.048724327 -0.13163918 0.04908631 1.6579928 0.040555377 0.013803087 -1.7688519 -0.07882688
-0.0058912057 -0.011838072 -0.3169285 -0.0924202 -0.41450024 -0.092243925 -0.103756554 -0.1333358
-0.01691413 -0.022625636 0.095920645 -0.009428468 -0.06016993 0.03574019 0.07671101 -0.028724322
0.08183054 -0.031005891 -0.28765982 0.015647061 -0.047507405 -0.34451696 -0.06959224 -0.09059643
0.39928097 -0.25808445 0.027594065 0.1777383 -0.07039435 -0.07599017 -0.13383739 0.08088181
-0.01732688 -0.101759836 0.47646874 0.12238825 0.101091005 0.38801664 -0.1926406 -0.068896785
-0.060330857 0.2803745 0.0668847 0.055680756 0.11292148 -0.023720339 -0.083527856 -0.11350832
0.107397944 0.07627845 0.023905512 -0.14159366 0.18760768 0.016107462 -0.0070560146 0.021255972
0.067739986 -0.10213938 0.021513939 -0.036258794 0.04316821 -0.2551124 0.09134518 -0.11559815
0.17761287 0.25659227 -0.13276394 0.34361494 0.08261076 -0.20788981 0.04147714 0.26399997
0.10106748 0.124956846 -0.59047204 -0.11790051 -0.0086187245 -0.58426017 0.117344715 0.033382833
-0.21641257 0.053829584 -0.40440074 0.14134958 -0.5454213 -0.09532777 -0.17688195 -0.022803903
-0.15354566 0.08568371 -0.03517696 0.22725472 -0.010489639 0.026436739 -0.0014825366 -0.09743862
0.007284531 -0.009010966 -0.25189435 -0.0031944178 -0.00937974 -0.030160852 -0.27460232 -0.03191709
-0.032270964 -0.13337041 0.10729488 -0.09108033 0.051598024 -0.13188484 0.1010789 0.2867713
0.07591139 0.13349465 0.046292357 0.15498397 -0.0011074456 -0.15678571 -0.24980983 -0.14745055
-0.034010116 -0.01898504 0.22778946 0.0149358185 0.23079808 -0.11128607 -0.19157265 0.10194283
-0.0012225014 0.16231564 -0.004798242 -0.08382162 -0.036585968 0.0049744714 0.019962745 -0.2764811
-0.010242231 0.020068284 -0.061778825 0.040395953 0.046856903 -0.2953141 0.08451597 -0.049376477
0.08544226 -0.079767324 -0.09855145 -0.23003416 -0.051910084 -0.1616436 0.09610557 -0.28228632
0.098157085 0.13223374 0.78389645 0.09314659 -0.1159839 0.66991574 -0.050266985 -0.14344317
-0.11121651 0.06433958 -0.33813134 -0.0042767916 -0.38893434 -0.050194655 -0.23655215 0.25855482
0.11256151 0.067798674 -0.08933054 -0.10484588 -0.30027074 -0.10758503 0.021196766 0.6112449
00000000: d429 ec3d 8d19 7ebd d878 9dbe be55 6f3d
00000010: f1be 90be 6290 8dbd 6c54 3c3e ac38 663c
00000020: 80bf 3f3e ff4c 24be 486e 49be bed4 a1be
00000030: 47d4 853d d906 803d c52b 99bb 89d8 243f
00000040: dddc 4fbd 6e3a 503b 007b 2d3f a50e 0d3b
00000050: bace 9dbc 8b59 5bbf 5359 173d 5d90 81bd
00000060: 640c 023f 7b1c 20bd a109 393d 4144 6b3d
00000070: 128f cf3d 6213 b0be aa7c 073d 4af5 913e
00000080: f3cb 1b3e bdb8 0abe 3c53 10be 91c3 333e
00000090: 4f08 e4bd 82b2 a33d 66fa 6bbe 746e 013e
000000a0: 8617 13be 053f 89bc 2e97 a03d b5ba f63b
000000b0: e14f b93d 1faf 19bd e956 d43e eb17 15bf
000000c0: 6c9d 5bbe 5e6d cdbd efcd 5abe 930c 383e
000000d0: 432b 093d 5417 7c3d 7ed7 e1bc b5b6 583e
000000e0: c102 9a3b 255b 963d 657b 173e 87c5 6bbd
000000f0: 4815 e1b9 ea04 263e 344f cb3d 8a88 abbe
00000100: a4f0 953e a953 bc3c e4a8 5bbe 24fe cebe
00000110: d75a d2bc 0027 7abe aa93 9d3e 57bb 89be
00000120: 2993 473d 6ccc 06be ba0e 493d 1c39 d43f
00000130: 651d 263d 5826 623c bd69 e2bf fd6f a1bd
00000140: 040b c1bb 79f4 41bc 7444 a2be cd46 bdbd
00000150: 6039 d4be 62ea bcbd 517e d4bd 2e89 08be
00000160: 808f 8abc 6659 b9bc 0b72 c43d dc79 1abc
00000170: bf74 76bd 4e64 123d a91a 9d3d 454f ebbc
00000180: c596 a73d 1100 febc 2648 93be 442e 803c
00000190: 2097 42bd 8764 b0be 6086 8ebd 9f8a b9bd
000001a0: 8e6e cc3e a523 84be f30c e23c 0701 363e
000001b0: ea2a 90bd bca0 9bbd ab0c 09be 5da5 a53d
000001c0: 1af1 8dbc 7667 d0bd b6f3 f33e b1a6 fa3d
000001d0: cd08 cf3d 1eaa c63e 9443 45be c219 8dbd
000001e0: 7d1d 77bd 3f8d 8f3e d8fa 883d 8111 643d
000001f0: 6043 e73d 2851 c2bc a710 abbd 0d77 e8bd
00000200: 74f3 db3d e037 9c3d 7ed5 c33c eefd 10be
00000210: 3a1c 403e ccf3 833c 2436 e7bb 0121 ae3c
00000220: 43bb 8a3d 742e d1bd 003e b03c 1a84 14bd
00000230: 26d1 303d 189e 82be 2f13 bb3d b9be ecbd
00000240: 26e0 353e 1060 833e 45f3 07be 4cee af3e
00000250: d52f a93d 11e1 54be efe3 293d 012b 873e
00000260: 78fc ce3d 60e9 ff3d 2d29 17bf d375 f1bd
00000270: 8d35 0dbc 1392 15bf 6d52 f03d 70bc 083d
00000280: 429b 5dbe 697c 5c3d 9d0d cfbe f2bd 103e
00000290: bba0 0bbf 353b c3bd 8b20 35be 40cf babc
000002a0: 133b 1dbe f17a af3d b715 10bd 76b5 683e
000002b0: bcdc 2bbc dc91 d83c ac51 c2ba e68d c7bd
000002c0: 13b3 ee3b bba2 13bc 4cf8 80be 7059 51bb
000002d0: 7bad 19bc e413 f7bc ad98 8cbe 7fbb 02bd
000002e0: 8f2e 04bd 4192 08be 6bbd db3d 5388 babd
000002f0: 7358 533d d20c 07be 7402 cf3d b0d3 923e
00000300: 6e77 9b3d d2b2 083e 0e9d 3d3d 1eb4 1e3e
00000310: b527 91ba 6f8c 20be 26ce 7fbe 47fd 16be
00000320: 314e 0bbd 8486 9bbc a441 693e 5db5 743c
00000330: 5556 6c3e f3e9 e3bd 9f2b 44be 67c7 d03d
00000340: 573c a0ba 1236 263e 923a 9dbb abaa abbd
00000350: 2bdb 15bd e400 a33b e988 a33c ee8e 8dbe
00000360: 08cf 27bc 3e66 a43c cb0b 7dbd 3a76 253d
00000370: 06ed 3f3d 6933 97be b516 ad3d fd3e 4abd
00000380: 5afc ae3d 0d5d a3bd 58d5 c9bd 138e 6bbe
00000390: ab9f 54bd e685 25be ffd2 c43d d587 90be
000003a0: 9506 c93d 4868 073e 70ad 483f a4c3 be3d
000003b0: f888 edbd 997f 2b3f c1e4 4dbd c4e2 12be
000003c0: 7bc5 e3bd 78c4 833d 8d1f adbe 5424 8cbb
000003d0: 6722 c7be e998 4dbd ba3a 72be 4c61 843e
000003e0: a686 e63d 08da 8a3d eef2 b6bd 70b9 d6bd
000003f0: 16bd 99be 8a55 dcbd d7a4 ad3c 8c7a 1c3f

a2c_network.actor_mlp.0.bias f4 [256]
-0.017074274 0.03244137 -0.003057616 -0.05206369 0.015274885 0.09212 0.058898397 0.027770633
-0.06511515 -0.04625288 0.040607557 0.07182208 0.10381256 -0.096862696 0.08026644 0.2551956
0.013129874 -0.053507537 0.05449719 0.18851505 0.12162986 -0.5554113 -0.042670574 -0.074585326
-0.249625 -0.040160116 -0.030031264 -0.3424054 -0.88440543 0.31790388 -0.075613216 -0.08934711
-0.59747773 -0.0920802 -0.63808036 -0.1475357 0.10794529 -0.26080874 -0.28930256 -0.16007578
-0.025791815 -0.02878419 -0.046178337 0.34532443 0.051704567 0.1943959 -0.10573516 -0.2398147
0.17000696 -0.115570635 -0.034858633 0.041117564 -0.19676901 0.065880746 0.14241649 -0.006400725
0.061944842 0.003192461 -0.051424257 0.085967176 -0.39198536 -0.061367422 0.087394245 0.0485607
0.07491397 0.06422504 -0.07629262 -0.111453205 -0.40806568 0.13162148 -0.25702405 -0.031801824
-0.018845452 0.32637197 -0.13658284 -0.061836846 -0.053318802 -0.03896075 0.1548852 -0.023036903
0.053984236 0.026506823 0.081288725 0.22317411 -0.2868787 -0.048681065 0.5275881 -0.28301638
0.16398779 -0.033443086 0.17991768 -0.22606885 0.11101088 -0.18956189 0.10570102 0.00021910759
0.053686727 -0.034186218 -0.023994505 -0.4274073 -0.051277805 0.07828269 -0.08479952 -0.086879514
-0.5784164 -0.06398124 -0.06349792 0.014113454 -0.15663208 -0.11709608 0.0703922 -0.036086515
-0.11791091 0.11443103 -0.07483025 -0.024913859 -0.09092572 -0.09863714 0.006616351 -0.21417806
0.082929045 0.0011596984 0.3181552 -0.088040486 0.20737803 0.10883998 0.16051532 -0.05596652
-0.0021301068 -0.1182863 -0.31491673 -0.041972976 0.054386955 0.001988373 -0.10885839 -0.025434759
-0.12178956 0.082732454 0.15569918 -0.47716045 -0.346769 0.20208322 -0.42138046 0.1828199
0.13591148 0.10552565 -0.11687385 -0.22330198 -0.024915807 0.074488945 -0.06254439 0.027099768
0.10999986 0.045751903 -0.27226204 -0.26390526 0.10694777 0.13492627 -0.15742727 0.05988578
-0.010221722 0.16175428 0.23917326 -0.065702386 -0.29013485 0.04027421 0.07626501 -0.057119846
0.08211938 0.011806609 0.21988708 0.20785311 -0.08397813 -0.05490631 0.05930233 -0.07784383
-0.16647376 -0.24797368 -0.28891987 0.09480456 0.058579016 0.06176712 0.14058042 -0.120929964
-0.003346439 -0.009548908 0.005442868 -0.077869765 0.22449589 0.08244121 -0.03785903 -0.055290256
-0.07289305 -0.17631097 -0.098744504 0.08207569 -0.23504183 0.17898473 -0.011234069 0.09944509
-0.0011239599 -0.059546404 -0.26725784 0.05484592 0.060448147 0.02169133 0.051348627 -0.053138707
0.22447623 0.058908474 -0.07094149 -0.28454828 -0.06618635 -0.11855894 0.03352114 -0.023700556
0.18211031 -0.03937534 0.1985629 0.1519128 0.105987 0.1668914 0.07613792 -0.09314337
-0.012846187 -0.076802135 -0.020151844 0.0013921646 -0.22537087 -0.045625266 0.22033566 -0.15059991
-0.03570868 0.38467395 -0.08317463 -0.076123044 -0.024030857 0.20737392 0.10286269 -0.15478055
0.19306439 -0.14322487 -0.5800601 -0.40022954 0.014689679 -0.02040923 -0.0753684 0.05023644
0.36748415 0.10862608 -0.09167865 0.067236744 -0.10050051 -0.12531093 0.004159204 -0.10235148
00000000: 59df 8bbc 3ee1 043d 4962 48bb bc40 55bd
00000010: 8343 7a3c 69a9 bc3d 723f 713d 3d7f e33c
00000020: 175b 85bd a973 3dbd 1c54 263d 7417 933d
00000030: ae9b d43d f35f c6bd bb62 a43d ffa8 823e
00000040: af1e 573c b82a 5bbd 7238 5f3d 170a 413e
00000050: 1319 f93d 6f2f 0ebf 57c7 2ebd 31c0 98bd
00000060: b29d 7fbe ef7e 24bd 2004 f6bc c34f afbe
00000070: 6568 62bf 4cc4 a23e 1adb 9abd 9efb b6bd
00000080: 4df4 18bf 8b94 bcbd 3c59 23bf 9913 17be
00000090: 6c12 dd3d b988 85be 771f 94be e8ea 23be
000000a0: 5b49 d3bc d2cc ebbc 7f25 3dbd 5dce b03e
000000b0: 2bc8 533d b80f 473e ad8b d8bd fc91 75be
000000c0: 4e16 2e3e 4cb0 ecbd edc7 0ebd e46a 283d
000000d0: d17d 49be 7cec 863d a1d5 113e 2cbd d1bb
000000e0: e0b9 7d3d 9c38 513b 3ea2 52bd 8f0f b03d
000000f0: 4eb2 c8be 685c 7bbd c1fb b23d 96e7 463d
00000100: 7f6c 993d 6b88 833d 4e3f 9cbd 9441 e4bd
00000110: fced d0be c8c7 063e a898 83be a142 02bd
00000120: c761 9abc 3a1a a73e 5fdc 0bbe a248 7dbd
00000130: d164 5abd 4f95 1fbd 3a9a 1e3e e3b7 bcbc
00000140: 931e 5d3d d624 d93c b47a a63d c187 643e
00000150: c4e1 92be cc65 47bd 0410 073f 86e7 90be
00000160: 6aec 273e 9efb 08bd 573c 383e 987e 67be
00000170: ac59 e33d 831c 42be c779 d83d 3fc0 6539
00000180: 9de6 5b3d d906 0cbd 2090 c4bc 21d5 dabe
00000190: ad08 52bd ad52 a03d 5fab adbd e3ed b1bd
000001a0: 1913 14bf 9908 83bd 330b 82bd 1e3c 673c
000001b0: 2964 20be 12d0 efbd c929 903d 74cf 13bd
000001c0: 467b f1bd d15a ea3d 9a40 99bd 2618 ccbc
000001d0: 4437 babd 4502 cabd facd d83b 7e51 5bbe
000001e0: b4d6 a93d 0501 983a 3de5 a23e 924e b4bd
000001f0: e85a 543e 7fe7 de3d 215e 243e 263d 65bd
00000200: 4399 0bbb 1640 f2bd c43c a1be dbeb 2bbd
00000210: dbc4 5e3d 5d4f 023b 26f1 debd 8e5c d0bc
00000220: ce6c f9bd a26f a93d 9b6f 1f3e 604e f4be
00000230: b58b b1be e7ee 4e3e 2ebf d7be 2435 3b3e
00000240: 612c 0b3e d51d d83d 8f5b efbd 46a9 64be
00000250: 3c1c ccbc a98d 983d 4617 80bd 5500 de3c
00000260: 9b47 e13d 5966 3b3d ee65 8bbe 971e 87be
00000270: 6f07 db3d 1d2a 0a3e 9d34 21be cb4a 753d
00000280: 0279 27bc eaa2 253e d6e9 743e f98e 86bd
00000290: 8e8c 94be 92f6 243d d430 9c3d 80f6 69bd
000002a0: 352e a83d 8270 413c 142a 613e 72d7 543e
000002b0: bafc abbd 70e5 60bd 00e7 723d 966c 9fbd
000002c0: 1978 2abe d0ec 7dbe 4eed 93be e528 c23d
000002d0: 8df0 6f3d 85ff 7c3d 50f4 0f3e 21aa f7bd
000002e0: ee4f 5bbb 0673 1cbc 165a b23b 2f7a 9fbd
000002f0: 40e2 653e f0d6 a83d 1212 1bbd 0978 62bd
00000300: f448 95bd dd8a 34be 8f3a cabd 4d17 a83d
00000310: ceae 70be c647 373e 1a0f 38bc dea9 cb3d
00000320: d651 93ba eee6 73bd 05d6 88be 1ea6 603d
00000330: 7a98 773d 04b2 b13c f052 523d f9a7 59bd
00000340: 19dd 653e 034a 713d c649 91bd 50b0 91be
00000350: b68c 87bd 08cf f2bd 774d 093d ab27 c2bc
00000360: 207b 3a3e 0948 21bd 1354 4b3e 078f 1b3e
00000370: b60f d93d 94e5 2a3e 33ee 9b3d f3c1 bebd
00000380: d078 52bc 704a 9dbd 7b15 a5bc 4b79 b63a
00000390: 9fc7 66be 8fe1 3abd ac9f 613e dd36 1abe
000003a0: 4443 12bd fcf3 c43e 7657 aabd 66e6 9bbd
000003b0: 5cdc c4bc d459 543e ada9 d23d cb7e 1ebe
000003c0: acb2 453e 8aa9 12be d27e 14bf e3ea ccbe
000003d0: fbac 703c 4231 a7bc bf5a 9abd bac4 4d3d
000003e0: e226 bc3e 5a77 de3d 04c2 bbbd 6bb3 893d
000003f0: 36d3 cdbd 8251 00be ef49 883b a79d d1bd

a2c_network.actor_mlp.2.weight f4 [256, 256]
0.05514837 -0.46016592 0.18381716 0.09790457 0.08662438 0.11631018 -0.26411286 -0.08827489
-0.114781156 -0.02747826 -0.025329104 0.018459331 -0.020967113 0.046449844 -0.23999636 0.025010072
0.2655419 -0.62624586 -0.15687391 -0.2813038 -0.17667307 -0.28075075 -0.03584962 0.22219785
-0.051818572 -0.124541365 -0.18543749 -0.29297358 0.05702523 -0.25508583 -0.45379585 -0.09030247
0.05319309 -0.09330046 0.07454764 0.13114583 -0.31398204 0.1031381 0.08031244 -0.21523567
-0.10009846 -0.057556458 -0.003736804 -0.24353856 -0.25093147 -0.19351049 0.2954542 -0.13604625
-0.22096327 -0.14911206 -0.06315117 0.03518557 -0.1111543 -0.17884816 -0.049792945 -0.23772945
-0.40414244 0.05341796 -0.17703667 -0.34499943 -0.11442509 -0.17888522 -0.04072153 -0.06885551
-0.25725618 0.12622537 0.110457 0.1007752 -0.21784298 -0.19639419 0.23163955 -0.0950036
-0.21944879 -0.09462773 -0.088413045 0.11652861 -0.23789914 -0.08885101 -0.03301816 -0.26441523
-0.0013591825 -0.13898422 0.09553294 -0.15523735 0.4117784 -0.11391901 -0.11570657 -0.08201717
-0.27542242 0.022913598 -0.21678272 -0.54367465 -0.14090334 0.09385764 0.078222655 -0.03910814
-0.04015883 0.070826225 0.004327371 0.11568832 -0.012842872 -0.18034084 0.22669101 -0.10134881
-0.29373682 0.039113004 0.0348162 0.035629194 0.07837063 -0.12763873 0.20787601 -0.25910258
0.029464616 -0.16362518 -0.054198105 -0.31299 0.08154945 0.23777592 -0.14039275 0.050349366
-0.13095663 0.14082052 -0.290397 -0.3176949 -0.086479686 -0.30467883 -0.13066982 -0.21662217
-0.027229138 -0.1989709 0.0088417055 0.1640187 -0.074511126 0.15173599 -0.051126108 0.05107309
-0.1279498 0.036014844 0.02473251 -0.032514274 0.26517496 -0.1715876 -0.051775042 -0.026725672
-0.32999614 0.20928694 -0.007860745 -0.23069742 -0.29464212 0.10771357 -0.17363484 -0.092784084
0.025823727 -0.20931076 0.13965872 0.1866212 -0.1105904 0.00043250842 0.09939782 0.21856584
-0.39105874 -0.25333676 -0.2026932 -0.04340404 -0.11951876 0.05209533 -0.095931694 -0.16721441
-0.3224654 -0.22322395 -0.26360133 -0.2710719 -0.2841729 0.040493052 -0.04367066 0.2675101
0.21586174 0.12335394 -0.24907237 -0.12479668 -0.13609797 0.091567196 -0.23556592 -0.006970472
0.11012462 0.1197753 -0.24909274 0.14128566 -0.12744021 -0.18344142 -0.16210662 -0.27338594
-0.19184284 -0.047977738 0.02592069 0.062087964 -0.11681478 -0.2943275 0.11233293 -0.104524516
-0.15004604 -0.00038612474 0.15987094 -0.27993643 -0.05496266 -0.13314374 0.16992287 -0.17832531
0.045225788 -0.21789241 0.0139665995 -0.15699856 0.09942309 -0.24116816 0.08047887 -0.013563307
-0.13472255 0.008022109 -0.056277756 -0.14419153 -0.05737364 0.015195276 -0.49465886 0.10451115
-0.5590514 0.091870375 0.016883356 -0.04435199 -0.13204655 0.15630065 -0.35973927 0.08549052
0.16654335 -0.03746832 -0.22355485 0.12674747 0.0926028 -0.05433078 -0.18840387 0.05574983
-0.2708599 0.04716215 -0.062874235 -0.179735 0.10208838 -0.06495399 0.09291842 -0.017431423
-0.10632598 -0.28509113 0.12990065 0.15820694 -0.05223062 0.15759215 0.0067854347 -0.0706214
00000000: 42e3 613d de9a ebbe 913a 3c3e 3182 c83d
00000010: 1f68 b13d 0834 ee3d cd39 87be 77c9 b4bd
00000020: 6212 ebbd 171a e1bc fb7e cfbc 0638 973c
00000030: 39c3 abbc 3142 3e3d 9bc1 75be ece1 cc3c
00000040: 1cf5 873e a651 20bf 8ea3 20be 0d07 90be
00000050: c9e9 34be 90be 8fbe 0dd7 12bd d587 633e
00000060: b63f 54bd 8b0f ffbd 53e3 3dbe a200 96be
00000070: 4a93 693d 9c9a 82be ee57 e8be 80f0 b8bd
00000080: ffe0 593d 5014 bfbd 6fac 983d 184b 063e
00000090: 41c2 a0be 113a d33d d97a a43d bd66 5cbe
000000a0: 6c00 cdbd 52c0 6bbd 2be5 74bb 2c62 79be
000000b0: 177a 80be 9d27 46be c645 973e b54f 0bbe
000000c0: 3244 62be d5b0 18be 6755 81bd bf1e 103d
000000d0: dea4 e3bd f923 37be b0f3 4bbd 596f 73be
000000e0: c2eb cebe cacc 5a3d 1a49 35be c4a3 b0be
000000f0: b457 eabd b02d 37be 9ecb 26bd 1e04 8dbd
00000100: 15b7 83be 3941 013e 4837 e23d 3a63 ce3d
00000110: 3b12 5fbe 8f1b 49be eb32 6d3e 3f91 c2bd
00000120: 2fb7 60be 2fcc c1bd e611 b5bd 8da6 ee3d
00000130: d59b 73be 85f7 b5bd 0d3e 07bd 6f61 87be
00000140: 9926 b2ba e151 0ebe c6a6 c33d 8af6 1ebe
00000150: 9ed4 d23e 5f4e e9bd 91f7 ecbd 9ef8 a7bd
00000160: 2b04 8dbe 4cb5 bb3c 4afc 5dbe 432e 0bbf
00000170: f748 10be 6f38 c03d 3333 a03d db2f 20bd
00000180: 967d 24bd 570d 913d 9ecc 8d3b ffed ec3d
00000190: e96a 52bc 45ab 38be b021 683e f78f cfbd
000001a0: ac64 96be f534 203d 6f9b 0e3d ebef 113d
000001b0: c880 a03d bab3 02be 73dd 543e 18a9 84be
000001c0: c75f f13c 5c8d 27be d5fe 5dbd 3a40 a0be
000001d0: 6603 a73d 887b 733e 1ec3 0fbe 233b 4e3d
000001e0: 7f19 06be 4133 103e eaae 94be e8a8 a2be
000001f0: 431c b1bd ddfe 9bbe 4fce 05be 34d2 5dbe
00000200: a40f dfbc 07bf 4bbe cddc 103c 85f4 273e
00000210: 4a99 98bd ae60 1b3e 9c69 51bd 0432 513d
00000220: 4605 03be 4d84 133d d59b ca3c b02d 05bd
00000230: 03c5 873e a9b4 2fbe 1112 54bd ccef dabc
00000240: 41f5 a8be 514f 563e 5bca 00bc f23b 6cbe
00000250: 55db 96be ef98 dc3d 55cd 31be 9505 bebd
00000260: 488c d33c 8f55 56be b202 0f3e a119 3f3e
00000270: 387d e2bd 4cc2 e239 1691 cb3d b9cf 5f3e
00000280: da38 c8be 5bb5 81be ce8e 4fbe 6fc8 31bd
00000290: 40c6 f4bd ea61 553d d677 c4bd 413a 2bbe
000002a0: 2f1a a5be d294 64be c1f6 86be f0c9 8abe
000002b0: 1c7f 91be 0bdc 253d 02e0 32bd 15f7 883e
000002c0: dc0a 5d3e fea0 fc3d d40c 7fbe 6795 ffbd
000002d0: 445d 0bbe 9587 bb3d 3138 71be 8f68 e4bb
000002e0: 0489 e13d c14c f53d 2b12 7fbe 30ad 103e
000002f0: b07f 02be 11d8 3bbe 47ff 25be 3ef9 8bbe
00000300: 7372 44be 4e84 44bd a057 d43c f34f 7e3d
00000310: 963c efbd 18b2 96be cf0e e63d f310 d6bd
00000320: aba5 19be c970 cab9 35b5 233e d453 8fbe
00000330: 8720 61bd d556 08be 4300 2e3e e99a 36be
00000340: ad3e 393d 301f 5fbe 2ad4 643c 3bc4 20be
00000350: 559e cb3d c9f4 76be 1bd2 a43d a238 5ebc
00000360: b5f4 09be 2a6f 033c 8183 66bd f2a6 13be
00000370: 9f00 6bbd 9bf5 783c ed43 fdbe f109 d63d
00000380: fe1d 0fbf 8926 bc3d f74e 8a3c 6faa 35bd
00000390: 3637 07be 470d 203e bf2f b8be a715 af3d
000003a0: 578a 2a3e 6278 19bd 90eb 64be 17ca 013e
000003b0: 89a6 bd3d f489 5ebd f2ec 40be ef59 643d
000003c0: 26ae 8abe 192d 413d 35c4 80bd 740c 38be
000003d0: b613 d13d 9906 85bd 034c be3d 58cc 8ebc
000003e0: 6fc1 d9bd 77f7 91be ad04 053e 0001 223e
000003f0: c6ef 55bd d65f 213e 5a58 de3b f4a1 90bd

a2c_network.actor_mlp.2.bias f4 [256]
0.02235349 0.04763335 -0.023613192 -0.031913992 -0.033636607 -0.015205314 -0.017876666 5.9874885e-05
-0.0027807013 0.03129972 -0.20978983 -0.016423322 -0.024040448 0.060203943 -0.03746417 0.0065764906
0.004740708 -0.011703846 -0.07541876 -0.13760912 -0.008613747 -0.03712117 -0.022966038 -0.31394434
-0.034616347 0.03706002 -0.014982094 -0.019839173 0.015446335 0.06252773 -0.19719934 -0.20988213
0.044801436 0.010035079 -0.023311578 -0.23875853 -0.0029277345 0.027435213 -0.00879617 -0.026967611
0.020317035 0.017426405 0.029629204 0.0028700684 0.0061920104 0.029862309 0.019768193 -0.061042633
0.015113217 0.071360685 -0.19221364 0.053530492 -0.013912143 -0.032006048 -0.00092269015 0.014200159
0.016321447 0.00084334693 -0.006050181 -0.046121065 0.006020418 -0.07418711 0.030955827 0.018804006
-0.017324097 0.040712755 0.045242935 0.016190955 0.005658248 0.03403901 -0.10923661 0.022637798
-0.025831591 0.04304234 -0.0060430337 -0.025742091 -0.111513644 0.01683141 -0.0012511367 0.008889283
-0.08546227 0.03931827 -0.0047951196 0.064109705 0.0151931215 -0.011508288 -0.03704673 -0.04270391
-0.07461965 -0.01646416 -0.006452056 0.027920626 0.014591349 0.0076749185 -0.04284864 -0.33522177
-0.029425155 -0.011078122 0.026145812 -0.015266023 -0.47207564 -0.027542917 0.005864335 0.02115054
-0.003930572 0.015614737 0.03904188 0.034620203 8.31708e-05 -0.4138964 -0.00051456795 -0.025405351
0.042453557 -0.10164027 -0.023265071 -0.07589009 -0.005303502 -0.014190458 -0.02831533 -0.0096581355
-0.044886403 -0.023764182 -0.032855608 0.0024840147 -0.005443014 -0.015608867 -0.4530335 -0.022405166
-0.004524511 -0.13148966 -0.008163917 -0.19071642 0.030503152 -0.0025021397 0.005141286 -0.044790417
-0.114429176 -0.3090659 -0.13593213 0.04847802 -0.010801147 0.0009065028 -0.30116296 -0.094111264
0.047208734 -0.011640203 -0.035445005 -0.051924303 -0.012989042 -0.003879404 -0.055518 -0.008973379
0.017036779 -0.0013118973 0.0057868934 0.010949361 -0.0120634725 -0.25890315 -0.5510609 0.025383936
-0.0060857283 0.049100224 -0.03172964 -0.124680296 -0.035023496 -0.0048706695 0.038766842 0.0076754433
-0.007373987 0.030279733 -0.028239181 0.024751905 0.016536344 -0.008074835 0.0027454507 -0.0022918957
0.079155505 0.009176763 -0.016709866 -0.03392521 0.017600397 0.071562916 -0.02894977 -0.052884713
0.085312255 0.013877615 -0.008182616 0.001235375 -0.022752056 0.018669076 0.047253735 0.0403534
0.02718631 -0.30399743 -0.00040807086 -0.08788895 -0.07193483 -0.17746212 -0.19367695 0.011420813
0.094132714 -0.028605185 0.0014256056 0.019371878 0.020225184 0.05970005 -0.008478417 0.084008396
-0.0054650814 0.025759049 0.0069821053 -0.24195015 -0.014667129 -0.063487075 0.017430162 -0.021014607
-0.046891756 -0.017402168 0.03637416 0.036365494 0.031012392 -0.13276504 0.027422842 -0.25068584
0.038565096 -0.009163289 -0.033719406 0.009949249 -0.022981647 -0.026703507 0.014459914 -0.022949282
0.033334933 -0.006611993 -0.0006901124 -0.01493008 0.017065626 -0.023980424 0.023660166 -0.12231986
-0.043301277 0.008157126 0.008336324 0.07010878 -0.07328623 0.020537056 0.0033882358 0.05161608
0.03657003 0.028050598 0.0352851 0.0053276764 -0.22147399 0.029941067 0.010827374 -0.015974956
00000000: ab1e b73c 301b 433d 7470 c1bc 3fb8 02bd
00000010: 8ac6 09bd b61f 79bc 1672 92bc 2b22 7b38
00000020: 6d3c 36bb 2334 003d 25d3 56be 348a 86bc
00000030: 79f0 c4bc 6998 763d 0874 19bd 9a7f d73b
00000040: f157 9b3b 7dc1 3fbc 2775 9abd 68e9 0cbe
00000050: ac20 0dbc 5e0c 18bd 4623 bcbc 50bd a0be
00000060: dfc9 0dbd 3fcc 173d 7577 75bc c385 a2bc
00000070: a012 7d3c 8a0e 803d a0ee 49be 57eb 56be
00000080: b681 373d 2c6a 243c ecf7 bebc 1e7d 74be
00000090: 3cdf 3fbb d0bf e03c d01d 10bc 2eeb dcbc
000000a0: e96f a63c d2c1 8e3c f2b8 f23c c217 3c3b
000000b0: 59e6 ca3b cda1 f43c e8f0 a13c d707 7abd
000000c0: 6d9d 773c 8d25 923d a7d3 44be ca42 5b3d
000000d0: c2ef 63bc c618 03bd b0e0 71ba c9a7 683c
000000e0: 8eb4 853c 0e14 5d3a 9940 c6bb 71e9 3cbd
000000f0: ed46 c53b 69ef 97bd 1397 fd3c dc0a 9a3c
00000100: 44eb 8dbc 6bc2 263d a850 393d e5a2 843c
00000110: d368 b93b 7d6c 0b3d 72b7 dfbd e772 b93c
00000120: c69c d3bc 2a4d 303d a404 c6bb 14e1 d2bc
00000130: 4461 e4bd 06e2 893c 2efd a3ba 5ba4 113c
00000140: d806 afbd 320c 213d 6120 9dbb f34b 833d
00000150: 92ec 783c 428d 3cbc 50be 17bd 4cea 2ebd
00000160: 30d2 98bd d9df 86bc c56b d3bb ccb9 e43c
00000170: 8e10 6f3c e27d fb3b 0e82 2fbd 30a2 abbe
00000180: 060d f1bc 0381 35bc be2f d63c 571e 7abc
00000190: e6b3 f1be afa1 e1bc 9c29 c03b e643 ad3c
000001a0: 07cc 80bb f4d4 7f3c 61ea 1f3d eacd 0d3d
000001b0: fc6b ae38 3bea d3be 12e4 06ba e21e d0bc
000001c0: c8e3 2d3d c628 d0bd 6496 bebc 436c 9bbd
000001d0: 00c9 adbb 187f 68bc 8df5 e7bc 283d 1ebc
000001e0: ceda 37bd 1aad c2bc 9a93 06bd daca 223b
000001f0: 505b b2bb 55bc 7fbc 02f4 e7be 0a8b b7bc
00000200: 5942 94bb 3aa5 06be f3c1 05bc 2a4b 43be
00000210: bfe1 f93c f0fa 23bb 3c78 a83b 2876 37bd
00000220: d859 eabd e33d 9ebe cb31 0bbe e390 463d
00000230: 4bf7 30bc 60a2 6d3a 0832 9abe 68bd c0bd
00000240: f25d 413d 8db6 3ebc c82e 11bd 94ae 54bd
00000250: fecf 54bc 993d 7ebb d866 63bd 1405 13bc
00000260: b790 8b3c f8f3 abba fb9f bd3b f364 333c
00000270: dfa5 45bc f48e 84be 5412 0dbf f9f1 cf3c
00000280: ca6a c7bb 511d 493d f0f6 01bd 6258 ffbd
00000290: cc74 0fbd 239a 9fbb fbc9 1e3d 4982 fb3b
000002a0: 7da1 f1bb 340d f83c db55 e7bc 82c4 ca3c
000002b0: 3a77 873c 504c 04bc 05ed 333b a133 16bb
000002c0: 481c a23d 225a 163c 21e3 88bc 29f5 0abd
000002d0: b52e 903c 948f 923d 1128 edbc a49d 58bd
000002e0: 31b8 ae3d f05e 633c 6110 06bc 4eec a13a
000002f0: 8562 babc e4ef 983c 228d 413d 9b49 253d
00000300: d3b5 de3c 8da5 9bbe 58f2 d5b9 1fff b3bd
00000310: 9152 93bd a1b8 35be 4053 46be 5d1e 3b3c
00000320: a7c8 c03d 6c55 eabc 63db ba3a c6b1 9e3c
00000330: 49af a53c 0a88 743d 0fe9 0abc 980c ac3d
00000340: 6d14 b3bb a404 d33c 25ca e43b c8c1 77be
00000350: 664e 70bc 8305 82bd b3c9 8e3c d326 acbc
00000360: 9211 40bd fe8e 8ebc 12fd 143d fcf3 143d
00000370: b30d fe3c 8ff3 07be dea5 e03c e559 80be
00000380: 6ff6 1d3d 9f21 16bc 5c1d 0abd 2d02 233c
00000390: 0244 bcbc 50c1 dabc 46e9 6c3c 2200 bcbc
000003a0: 368a 083d 6ba9 d8bb a9e8 34ba 4b9d 74bc
000003b0: 36cd 8b3c 9872 c4bc f7d2 c13c d682 fabd
000003c0: ae5c 31bd 77a5 053c 1495 083c 3195 8f3d
000003d0: 1717 96bd 543d a83c 2a0d 5e3b 626b 533d
000003e0: 75ca 153d 5eca e53c 1c87 103d ca93 ae3b
000003f0: 14ca 62be f846 f53c 4c65 313c e9dd 82bc

a2c_network.value.weight f4 [1, 256]
0.02144691 0.028205508 0.033499453 0.079878695 -0.11135509 0.008139089 0.03806621 -0.006839961
-0.042242352 -0.016432999 -0.02421032 0.00958586 0.0075529744 0.026163045 0.008118154 0.022740437
0.16781104 0.004231731 -0.04606841 0.017628314 -0.00034886532 0.108517855 0.078633316 -0.0083903875
-0.018752705 -0.0011746803 0.03523302 0.0077132224 -0.010826764 -0.0012026738 0.018968018 -0.08677076
0.0012527072 -0.06280384 -0.04004548 -0.008954809 0.0054894816 -0.005270974 0.03158822 0.00041502647
-0.0022283036 -0.0023707864 0.008179387 -0.01832536 -0.018732645 0.013786824 -0.0017141291 0.02817592
-0.014114433 0.0005873362 0.09251496 -0.02805001 -0.0033845317 0.0015459654 -0.017375002 -0.012143084
-0.012105327 -0.017679933 0.0708563 -0.05877934 -0.016864581 -0.07767266 -0.18191071 -0.011219609
-0.000106950094 0.008902485 -0.012409758 0.043764282 0.004968324 -0.0035920888 0.07123016 -0.023726404
-0.023644384 0.033788726 0.061248016 6.943844e-05 0.091972575 0.014023402 -0.033208124 -0.040723126
-0.054164667 0.0010985114 0.0018049178 -0.023783948 0.028245334 -0.03165101 0.015768103 -0.00953967
-0.044539813 -0.013438592 -0.006289543 -0.00055133173 -0.004996552 0.017795084 0.0027244603 -0.17016387
-0.0023629535 0.010647312 0.028750572 -0.0143012125 -0.04276135 0.017555542 0.01455754 -0.010611417
0.015841205 -0.028995266 -0.012100905 0.00383919 -0.018401362 -0.009528148 0.026321126 0.007066223
0.12876602 0.008675164 -0.0129726585 0.12001717 -0.0040742657 -0.023077698 0.0139775835 0.008747618
0.021061676 0.007878486 -0.006574174 -0.025800522 0.0005715605 0.029635306 -0.24433365 -0.002944615
0.008512864 0.013025035 0.007615587 0.034391582 -0.034017213 -0.019463122 0.036186107 0.7796536
-0.10255959 0.11279914 -0.041399844 -0.024903873 -0.0012959401 -0.022978438 -0.14380221 0.059559155
-0.061811395 0.014032624 0.24038239 0.0031124607 -0.012412062 0.008302821 0.05991188 -0.0034970318
-1.7324139e-05 -0.077598795 -0.0008050874 -0.005655515 -0.031708613 -0.12539807 -0.05054726 0.011772124
-0.017980361 0.082078 0.09292152 0.03870187 -0.018731078 0.004643745 0.014257414 0.040702567
-0.011293928 -0.13416317 0.05583325 -0.0062870937 0.0104192505 0.011360257 0.013451099 0.010553896
0.004518853 0.02148765 0.033528548 -0.037836067 -0.003993088 -0.013222772 -0.009620506 0.04015388
-0.053068943 -0.08131592 0.020474339 -0.020154279 -0.014020458 -0.012817812 -0.014221664 0.037249234
0.035998236 -0.026161876 -0.0037206782 -0.016040193 -0.14230743 -0.13639723 0.015182487 -0.1538088
-0.17620723 -0.0017859528 -0.09689083 -0.019761145 -0.010473007 -0.020247951 0.04137337 -0.163829
-0.03802661 0.017078985 -0.0010252452 -0.06858023 -0.0159096 -0.02241037 -0.01451045 0.0018708247
-0.00070239505 0.070295684 -0.1781754 0.008161785 0.09604659 0.087965965 0.011364043 -0.0015471723
0.0009324215 -0.014911704 -0.009195923 0.008566585 0.028741507 0.0056089014 0.010301956 0.16558363
-0.018995466 0.013217794 0.007049751 -0.008763346 -0.012344962 -0.02257163 0.0034288575 -0.0309339
0.06840569 0.003503608 -0.0043719807 0.016050613 -0.14683482 0.0013674628 0.07343361 0.000979482
-0.2990771 0.0015246789 0.043621168 0.09378067 -0.07389202 0.00086341344 -0.009164775 0.008845805
00000000: 6eb1 af3c 3d0f e73c b936 093d 7197 a33d
00000010: 230e e4bd d059 053c 50eb 1b3d c021 e0bb
00000020: 5106 2dbd 7f9e 86bc b954 c6bc 030e 1d3c
00000030: f17e f73b e253 d63c 0102 053c 274a ba3c
00000040: a8d6 2b3e 55aa 8a3b 3bb2 3cbd 4169 903c
00000050: e9e7 b6b9 9c3e de3d 810a a13d d677 09bc
00000060: 469f 99bc bbf7 99ba 8050 103d 33bf fc3b
00000070: bd62 31bc 09a3 9dba d162 9b3c deb4 b1bd
00000080: e131 a43a 4d9f 80bd bb06 24bd 31b7 12bc
00000090: 1ce1 b33b 22b8 acbb a662 013d e997 d939
000000a0: bb08 12bb 325f 1bbb d602 063c 111f 96bc
000000b0: 3475 99bc 22e2 613c a1ac e0ba 30d1 e63c
000000c0: 3940 67bc 77f7 193a 7c78 bd3d 22c9 e5bc
000000d0: 05cf 5dbb fea1 ca3a 0556 8ebc c9f3 46bc
000000e0: 6c55 46bc 82d5 90bc 1c1d 913d 9bc2 70bd
000000f0: 9727 8abc d812 9fbd cd46 3abe 73d2 37bc
00000100: 654a e0b8 badb 113c 4c52 4bbc 2d42 333d
00000110: 53cd a23b 4069 6bbb 1ee1 913d e05d c2bc
00000120: deb1 c1bc 0c66 0a3d 33df 7a3d 7b9f 9138
00000130: 1e5c bc3d 69c2 653c 3e05 08bd 4bcd 26bd
00000140: c5db 5dbd edfb 8f3a fe92 ec3a 8ed6 c2bc
00000150: c262 e73c 7da4 01bd 1c2c 813c 474c 1cbc
00000160: 616f 36bd 8a2d 5cbc 8318 cebb 3f87 10ba
00000170: 1eba a3bb ffc6 913c dc8c 323b 703f 2ebe
00000180: c8db 1abb 1072 2e3c 5286 eb3c a24f 6abc
00000190: 8626 2fbd a4d0 8f3c c082 6e3c 82db 2dbc
000001a0: 6ac5 813c 7b87 edbc e042 46bc eb9a 7b3b
000001b0: 74be 96bc f31b 1cbc 679f d73c c68b e73b
000001c0: 3ddb 033e 4622 0e3c 468b 54bc 90cb f53d
000001d0: 6b81 85bb 710d bdbc 3c02 653c 2b52 0f3c
000001e0: 8989 ac3c c414 013c 2b6c d7bb 9e5b d3bc
000001f0: c7d4 153a bec5 f23c 9a32 7abe 71fa 40bb
00000200: 8a79 0b3c f566 553c 2d8c f93b 30de 0c3d
00000210: a255 0bbd 2071 9fbc e237 143d 6197 473f
00000220: c30a d2bd 3c03 e73d e292 29bd 3503 ccbc
00000230: 89dc a9ba 473d bcbc e340 13be 4df4 733d
00000240: f22d 7dbd 17e9 653c cd26 763e 6dfa 4b3b
00000250: f65b 4bbc 8e08 083c 2966 753d 752e 65bb
00000260: 4e53 91b7 1eec 9ebd 800c 53ba e651 b9bb
00000270: e4e0 01bd 5a68 00be a50a 4fbd dedf 403c
00000280: 8d4b 93bc 8318 a83d a34d be3d da85 1e3d
00000290: eb71 99bc 8e2a 983b ee97 693c bcb7 263d
000002a0: 2b0a 39bc 1262 09be 68b1 643d f703 cebb
000002b0: 81b5 2a3c 5f20 3a3c 0062 5c3c 40ea 2c3c
000002c0: e312 943b de06 b03c 3b55 093d fef9 1abd
000002d0: 73d8 82bb 53a4 58bc 549f 1dbc 6578 243d
000002e0: d25e 59bd f688 a6bd cdb9 a73c 961a a5bc
000002f0: 10b6 65bc cd01 52bc fb01 69bc a792 183d
00000300: e372 133d 6e51 d6bc 9fd6 73bb b966 83bc
00000310: 0ab9 11be b7ab 0bbe f7bf 783c 0e80 1dbe
00000320: ab6f 34be a216 eaba b36e c6bd 20e2 a1bc
00000330: fa96 2bbc 08df a5bc 1f77 293d cac2 27be
00000340: cac1 1bbd 3ae9 8b3c 8561 86ba cb73 8cbd
00000350: d954 82bc f495 b7bc 3dbd 6dbc 7636 f53a
00000360: ef20 38ba 2ff7 8f3d 9d73 36be 02b9 053c
00000370: 13b4 c43d 8027 b43d 4030 3a3c 7dca caba
00000380: bf6d 743a 3850 74bc 7faa 16bc dd5a 0c3c
00000390: 4f73 eb3c e0ca b73b 89c9 283c c18e 293e
000003a0: 619c 9bbc 728f 583c 9901 e73b 2394 0fbc
000003b0: 8642 4abc 24e8 b8bc afb6 603b 1769 fdbc
000003c0: 4818 8c3d ca9c 653b d542 8fbb 937c 833c
000003d0: de5b 16be 703c b33a 5c64 963d f661 803a
000003e0: a220 99be bcd7 c73a 1cac 323d 1410 c03d
000003f0: b354 97bd b256 623a da27 16bc ffed 103c

a2c_network.mu.weight f4 [6, 256]
0.167536 0.0017530548 -0.0074734874 0.007511091 0.0081640445 -0.011501428 -0.010630706 0.002917552
0.004947824 0.0013252677 -0.03597088 -0.0021101893 0.0023392406 0.002853207 0.0029040165 -0.0019871432
-0.053117387 0.006196159 0.15692489 -0.093353525 -0.00081833074 0.0017508421 0.017853018 -0.3065346
0.0035318662 0.0057427543 -0.006886665 -0.0058251177 0.0044020563 0.0008565164 0.06980257 0.12265677
0.0015216189 -0.029379396 0.004139735 -0.019168826 0.00024527265 -0.0012508731 0.0053928904 0.004117029
-0.002485749 0.00938863 0.0064615346 -0.0007229114 0.010692185 -0.0020193148 -0.002420647 0.013059888
0.0038776645 0.0004832286 0.106242605 -0.00020990317 0.010104621 -0.0013332277 -0.0048510507 -0.00015793528
0.005159578 0.0068999403 0.008305991 -0.0007551567 -0.0021475316 0.14082164 -0.019666981 0.025762107
-0.005636691 -0.00018908491 0.005810439 0.0026812067 0.0071977894 0.0081275785 0.036906272 -0.0041224873
0.0041645244 -0.0059345863 0.0020558757 0.008670692 0.111903794 0.0033586223 -0.0059107877 0.017276563
0.10286931 -0.003991177 -0.005722218 0.016380167 0.007239702 0.0016265948 0.006497948 0.1263884
-0.04927518 0.004657462 -0.011075603 0.0080325175 0.0030335493 -0.0048092534 -0.0034185955 -0.06377098
0.0066560116 0.0027831094 0.0059266873 0.0026178048 -0.19995868 -0.0035716733 -0.008439894 0.0065203663
0.0008829502 0.0077608093 0.0036977853 -0.0026088012 0.00852186 -0.1324696 -0.007847083 -0.007119568
0.06184193 0.018111521 -0.0091789095 -0.10189633 0.0019039175 0.011592005 -0.00056899054 0.00020150938
0.0012796698 0.009798794 0.0036130843 -0.004415283 -0.003108415 -0.041690417 0.043407734 -0.01144262
0.00089998904 -0.020472642 0.0014777061 -0.060896114 -0.0019253269 0.0131887 0.0032638002 -0.057513487
0.023962077 -0.13873401 -0.040144295 -0.008211654 0.00015343029 0.00026878965 -0.0076383413 0.0045803413
0.00386213 0.006059001 -0.008880845 0.0061525544 0.005375343 -0.0013868499 0.009187288 0.003877528
0.0059640054 -0.008039059 0.0028314008 0.008232693 0.017587792 -0.03652006 0.11148354 0.0020232522
0.0015843972 0.004914978 -0.0072860485 0.05270638 -0.0033681255 -0.008109524 0.0053683817 0.00088953204
0.0075647677 0.0009037728 -0.0036762112 0.004625952 0.0014766626 -0.005669257 -0.006069921 -0.009704519
0.006497533 0.005928545 -0.0062263194 -0.001627467 0.006625401 0.0017872378 -0.004319915 -0.0047047855
0.002496644 0.17528139 -0.070933126 0.008196425 -0.0037115004 0.003608471 0.012391315 -0.003973502
-0.0041450677 0.042035893 0.003185356 -0.036295515 -0.08018967 -0.0034317554 -0.06688498 0.0077738212
0.07393375 0.013805338 0.002969993 0.0059000626 0.00015532608 -0.0021517344 0.01276123 0.03520363
0.004826139 -0.007717165 -0.0037403256 -0.043527074 0.005519762 -0.0112635465 -0.009580973 -0.0058885193
0.010152791 0.0028443325 0.012768764 -8.197844e-05 -0.0054629385 -0.039566252 0.008498256 0.1795101
0.0011762985 -0.009035168 0.00907208 -0.012902978 0.0066142427 -0.00011003303 0.00047925056 0.020825444
-0.005630897 -0.056201186 0.0014729322 0.005321212 -0.00783399 0.0063043805 -0.005874396 0.09849209
0.011652514 0.0026475964 -0.0045642788 -0.00419652 -0.022041952 -0.0020288152 0.011899266 -0.0013529613
-0.0668814 0.0009853996 0.009604589 -0.01040753 -0.0025789468 -0.0017320296 -0.11149839 -0.0007496349
00000000: 8f8e 2b3e c2c6 e53a 28e4 f4bb 991f f63b
00000010: 7cc2 053c 7c70 3cbc 6a2c 2ebc 6634 3f3b
00000020: 5b21 a23b 9bb4 ad3a 3456 13bd 1a4b 0abb
00000030: f24d 193b dffc 3a3b 5051 3e3b bb3a 02bb
00000040: 9e91 59bd 2609 cb3b ebb0 203e 2230 bfbd
00000050: 3f85 56ba 837c e53a 7e40 923c 1af2 9cbe
00000060: e276 673b b72d bc3b 88a9 e1bb a1e0 bebb
00000070: 203f 903b d887 603a a6f4 8e3d 7933 fb3d
00000080: 0f71 c73a 0fad f0bc 9da6 873b f107 9dbc
00000090: f097 8039 56f4 a3ba d8b6 b03b 24e8 863b
000000a0: f3e7 22bb c5d2 193c 48bb d33b c381 3dba
000000b0: 462e 2f3c 7b56 04bb b8a3 1ebb 24f9 553c
000000c0: 6a20 7e3b d859 fd39 b995 d93d 7419 5cb9
000000d0: da8d 253c b3bf aeba 90f5 9ebb 6e9b 25b9
000000e0: ad11 a93b e518 e23b da15 083c b5f5 45ba
000000f0: 9abd 0cbb 8c33 103e a61c a1bc 0e0b d33c
00000100: feb3 b8bb 1845 46b9 7f65 be3b 2fb7 2f3b
00000110: 6fdb eb3b 8929 053c 082b 173d ee15 87bb
00000120: 9076 883b eb76 c2bb dfbb 063b 850f 0e3c
00000130: d12d e53d 551c 5c3b 48af c1bb 9487 8d3c
00000140: 25ad d23d 6bc8 82bb 7281 bbbb b32f 863c
00000150: 063b ed3b 7733 d53a bdec d43b f66b 013e
00000160: c5d4 49bd 9f9d 983b 7276 35bc d29a 033c
00000170: 83ce 463b f196 9dbb 840a 60bb 5c9a 82bd
00000180: ac1a da3b d464 363b a834 c23b 7a8f 2b3b
00000190: f8c1 4cbe bc12 6abb 7b47 0abc cca8 d53b
000001a0: c975 673a 634e fe3b 8b56 723b 6cf8 2abb
000001b0: 469f 0b3c 1ca6 07be 0d91 00bc 444b e9bb
000001c0: f74d 7d3d 9d5e 943c 2363 16bc 06af d0bd
000001d0: df8c f93a 65ec 3d3c 4f28 15ba 434c 5339
000001e0: 98ba a73a 1f8b 203c 7fc9 6c3b 14ae 90bb
000001f0: 8db6 4bbb 92c3 2abd 4fcc 313d d479 3bbc
00000200: 3eed 6b3a 3eb6 a7bc 97af c13a 346e 79bd
00000210: 405b fcba 6b15 583c 7be5 553b 4393 6bbd
00000220: 1e4c c43c 4a10 0ebe 586e 24bd 2c8a 06bc
00000230: 21e2 2039 56ec 8c39 0d4b fabb b016 963b
00000240: ca1b 7d3b 968a c63b f780 11bc 5e9b c93b
00000250: a523 b03b f6c6 b5ba 4786 163c 201e 7e3b
00000260: b46d c33b 42b6 03bc 068f 393b 6be2 063c
00000270: 4614 903c 0f96 15bd 7b51 e43d 8a98 043b
00000280: 8cab cf3a d30d a13b cebf eebb a5e2 573d
00000290: c5bb 5cbb cfdd 04bc 40e9 af3b 7c2f 693a
000002a0: dfe1 f73b 2aeb 6c3a 97ec 70bb 4c95 973b
000002b0: 938c c13a 2dc5 b9bb 30e6 c6bb b4ff 1ebc
000002c0: 42e9 d43b 3d44 c23b 2706 ccbb bb50 d5ba
000002d0: e419 d93b c041 ea3a 138e 8dbb 9a2a 9abb
000002e0: bc9e 233b f77c 333e 6345 91bd 4c4a 063c
000002f0: a53c 73bb 197c 6c3b f104 4b3c 2734 82bb
00000300: 59d3 87bb d42d 2c3d 68c1 503b 9baa 14bd
00000310: 7b3a a4bd 4de7 60bb fefa 88bd 8abb fe3b
00000320: 946a 973d c92f 623c 37a4 423b 5055 c13b
00000330: 07df 2239 1d04 0dbb 7a14 513c ae31 103d
00000340: 9724 9e3b 46e0 fcbb 4020 75bb 7249 32bd
00000350: 1fdf b43b bd8a 38bc 83f9 1cbc 7bf4 c0bb
00000360: e457 263c fb67 3a3b 1434 513c d7eb abb8
00000370: 7302 b3bb 3910 22bd 453c 0b3c 7fd1 373e
00000380: 072e 9a3a 3e08 14bc 10a3 143c 0367 53bc
00000390: 4abc d83b 88c1 e6b8 ec43 fb39 1f9a aa3c
000003a0: 6383 b8bb 3733 66bd 670f c13a 905d ae3b
000003b0: 235a 00bc fa94 ce3b 017e c0bb 39b6 c93d
000003c0: 30ea 3e3c 4c83 2d3b f28f 95bb f682 89bb
000003d0: 5391 b4bc dff5 04bb 24f5 423c d955 b1ba
000003e0: 1ef9 88bd 8628 813a 915c 1d3c 5884 2abc
000003f0: 8c03 29bb 4505 e3ba 4559 e4bd 2683 44ba

a2c_network.mu.bias f4 [6]
-0.13842314 0.011147467 -0.2186169 -0.031038621 -0.054816622 -0.55105084
00000000: ccbe 0dbe dea3 363c 1cdd 5fbe b544 febc
00000010: 6587 60bd ab11 0dbf

exp_avg f4 [6]
-0.00042960598 0.00045807962 -0.00016306103 0.00073231314 -0.00059069035 -0.0007813948
00000000: bd3c e1b9 682a f039 5dfb 2ab9 b4f8 3f3a
00000010: 8fd8 1aba 84d6 4cba

exp_avg_sq f4 [6]
1.5700905e-05 1.6419397e-05 1.6931393e-05 1.8072618e-05 1.87841e-05 2.0286243e-05
00000000: 70b5 8337 63bc 8937 e407 8e37 a79a 9737
00000010: 8c92 9d37 602c aa37

exp_avg f4 [256, 40]
-4.6232377e-05 4.606954e-05 2.2786319e-06 4.6232377e-05 2.2786319e-06 0.0 -0.0003251096 0.0003978294
-0.0010413777 -0.0003353996 0.00048262315 -0.00094116223 5.4043835e-06 -0.0002770451 -0.001405949 5.5925244e-07
-0.00093902345 0.0006589505 9.83665e-07 0.0014388693 0.00022326174 4.0347587e-07 5.921833e-06 1.2611904e-06
-4.416617e-06 1.660153e-05 2.344743e-05 -2.4363973e-05 2.510818e-05 -2.799742e-05 -4.0877603e-06 -3.8518948e-07
0.0 -6e-45 7.163399e-07 -5.4920367e-08 -6e-45 7.163399e-07 5.3071037e-08 -6e-45
8.4345054e-05 -8.419297e-05 -2.068883e-06 -8.4345054e-05 -2.068883e-06 0.0 5.9619e-05 0.00012317815
0.0006596095 -2.565581e-05 2.3309125e-05 0.0006776496 -0.0006737969 -0.00024823815 -0.0004450063 -5.08788e-07
-0.00018326032 0.0002916327 -1.606435e-06 0.00046041486 0.00072827603 -3.667543e-07 -1.2258372e-06 -5.8841556e-06
5.060781e-06 -3.5069912e-05 -4.0801922e-05 -3.0143452e-05 -9.634091e-07 -3.615469e-06 3.8058095e-06 -7.1697244e-09
0.0 -6e-45 -1.428386e-07 -1.425081e-09 -6e-45 -1.428386e-07 -8.5169277e-10 -6e-45
1.31340585e-05 -1.3095148e-05 -7.1448306e-07 -1.31340585e-05 -7.1448306e-07 0.0 0.0003258347 -0.0002035408
-0.00016342619 0.00034694726 5.6765522e-05 -0.00019767952 0.00024630237 -1.1286953e-05 0.00025754285 -2.1795077e-07
-0.0001765839 0.00010842459 -2.8585708e-07 0.00022835686 -1.7596632e-05 -1.6581191e-07 -1.316547e-06 -2.5157024e-07
3.7811121e-06 -4.675621e-06 -7.367267e-06 -8.159715e-07 -1.5885578e-06 4.7308353e-07 3.604598e-06 2.0097115e-08
0.0 6e-45 -9.4969565e-08 1.6819723e-08 6e-45 -9.4969565e-08 -1.712136e-08 6e-45
-3.6708032e-05 3.6575715e-05 1.9604925e-06 3.6708032e-05 1.9604925e-06 0.0 -0.0002913013 0.00026474413
-0.0006319278 -0.0003200323 0.00014544847 -0.0006835397 0.00030328712 0.00021715344 -0.00025270646 4.742141e-07
-7.350072e-05 0.00017746844 5.7551205e-07 0.0002860476 -0.0005658957 3.3882972e-07 1.3432131e-06 3.0401482e-06
-3.951318e-06 5.9831355e-06 3.693418e-06 3.1341863e-06 7.6973794e-07 7.798697e-06 -3.1882191e-06 4.5538947e-08
0.0 -6e-45 -1.5938357e-07 2.4570577e-08 -6e-45 -1.5938357e-07 -2.2333351e-08 -6e-45
5.346573e-05 -5.3340234e-05 -1.969589e-06 -5.346573e-05 -1.969589e-06 0.0 0.00045272292 -0.00010636199
-1.8821918e-05 0.00045969128 -4.8101847e-05 0.0003345431 0.00012427135 -0.00027899622 8.139384e-06 -1.581488e-07
5.9467977e-05 -0.00011823826 -1.2245612e-06 2.6441101e-05 0.00025960265 -2.0595492e-08 -4.0575524e-06 -2.4045519e-06
-1.16189e-05 -2.3823182e-05 -4.679832e-05 -2.8356559e-05 -6.6316716e-06 7.005114e-07 -1.2545861e-05 1.5591532e-07
0.0 -6e-45 -3.797441e-07 1.2067155e-08 -6e-45 -3.797441e-07 -1.2546674e-08 -6e-45
-7.5687276e-06 7.5933804e-06 -4.4720719e-07 7.5687276e-06 -4.4720719e-07 0.0 8.7152446e-05 -0.00018142915
8.587045e-05 4.0111834e-05 -8.5206695e-05 3.9662733e-05 5.2012685e-05 -0.00027697874 -0.00025461696 -6.164667e-07
0.00035609817 9.400512e-06 -5.6312746e-07 -0.00024069558 -0.00020170408 -5.7014216e-07 -2.1499013e-06 -1.9778815e-06
2.5978341e-05 1.3549155e-05 -6.8414545e-07 4.734416e-05 -9.040695e-06 1.1151187e-05 2.680504e-05 2.358193e-07
0.0 -6e-45 -4.7453054e-07 4.73924e-08 -6e-45 -4.7453054e-07 -4.4811525e-08 -6e-45
8.163314e-06 -8.068208e-06 -1.6923759e-06 -8.163314e-06 -1.6923759e-06 0.0 0.00022356355 -0.00067252957
0.00040973703 0.00041568239 -0.00027380427 0.00030848433 -8.592742e-05 0.00030609267 0.0013561776 -7.01391e-07
00000000: a3e9 41b8 cb3a 4138 99ea 1836 a3e9 4138
00000010: 99ea 1836 0000 0000 7973 aab9 c293 d039
00000020: d67e 88ba 93d8 afb9 9508 fd39 54b8 76ba
00000030: 4d57 b536 5d40 91b9 d247 b8ba 891f 1635
00000040: cc28 76ba 6bbd 2c3a 7906 8435 7198 bc3a
00000050: 5e1b 6a39 4d9d d834 28b4 c636 2c46 a935
00000060: 7332 94b6 8443 8b37 f9b0 c437 3c61 ccb7
00000070: 689f d237 00dc eab7 9829 89b6 0acc ceb4
00000080: 0000 0000 0400 0080 814a 4035 95e1 6bb3
00000090: 0400 0080 814a 4035 39f0 6333 0400 0080
000000a0: 68e2 b038 c290 b0b8 24d7 0ab6 68e2 b0b8
000000b0: 24d7 0ab6 0000 0000 6a0f 7a38 6229 0139
000000c0: a5e9 2c3a 6f37 d7b7 f787 c337 4ba4 313a
000000d0: bfa1 30ba f625 82b9 bc4f e9b9 a593 08b5
000000e0: 9129 40b9 47e6 9839 b09c d7b5 d663 f139
000000f0: c7e9 3e3a 54e6 c4b4 7287 a4b5 8370 c5b6
00000100: c7cf a936 0818 13b8 bb22 2bb8 92dc fcb7
00000110: 7c4e 81b5 49a1 72b6 4f67 7f36 9059 f6b1
00000120: 0000 0000 0400 0080 2d5f 19b4 95dc c3b0
00000130: 0400 0080 2d5f 19b4 8d1c 6ab0 0400 0080
00000140: 5a5a 5c37 3bb3 5bb7 e7ca 3fb5 5a5a 5cb7
00000150: e7ca 3fb5 0000 0000 cbd4 aa39 916d 55b9
00000160: 625d 2bb9 79e6 b539 8417 6e38 3148 4fb9
00000170: 2522 8139 185d 3db7 d106 8739 da05 6ab4
00000180: 6129 39b9 0262 e338 e677 99b4 1473 6f39
00000190: 7b9c 93b7 080a 32b4 36b4 b0b5 8d0f 87b4
000001a0: 03bf 7d36 47e3 9cb6 5734 f7b6 2209 5bb5
000001b0: 6e36 d5b5 1bfc fd34 86e6 7136 06a2 ac32
000001c0: 0000 0000 0400 0000 12f2 cbb3 f67a 9032
000001d0: 0400 0000 12f2 cbb3 4512 93b2 0400 0000
000001e0: f3f6 19b8 e068 1938 0191 0336 f3f6 1938
000001f0: 0191 0336 0000 0000 ccb9 98b9 5bcd 8a39
00000200: f5a7 25ba 02ca a7b9 8783 1839 932f 33ba
00000210: 8202 9f39 afb3 6339 b07d 84b9 7d97 fe34
00000220: 6624 9ab8 d216 3a39 e37c 1a35 a9f8 9539
00000230: 9e58 14ba 67e8 b534 7348 b435 5905 4c36
00000240: 9095 84b6 bec2 c836 70dc 7736 e954 5236
00000250: fd9f 4e35 26d7 0237 30f5 55b6 9a96 4333
00000260: 0000 0000 0400 0080 0623 2bb4 450f d332
00000270: 0400 0080 0623 2bb4 8fd7 bfb2 0400 0080
00000280: 6440 6038 a4b9 5fb8 482d 04b6 6440 60b8
00000290: 482d 04b6 0000 0000 715b ed39 a90e dfb8
000002a0: c3e3 9db7 b802 f139 f7c0 49b8 9d65 af39
000002b0: d64e 0239 3d46 92b9 638e 0837 9ccf 29b4
000002c0: 416d 7938 aff6 f7b8 9a5b a4b5 d5cd dd37
000002d0: 471b 8839 f7e9 b0b2 1c26 88b6 e35d 21b6
000002e0: ccee 42b7 e5d7 c7b7 5049 44b8 3fdf edb7
000002f0: a085 deb6 c70a 3c35 107c 52b7 ad69 2734
00000300: 0000 0000 0400 0080 a2df cbb4 e94f 4f32
00000310: 0400 0080 a2df cbb4 db8c 57b2 0400 0080
00000320: e0f6 fdb6 a4ca fe36 b017 f0b4 e0f6 fd36
00000330: b017 f0b4 0000 0000 9dc5 b638 043e 3eb9
00000340: 5915 b438 c13d 2838 ffb0 b2b8 895b 2638
00000350: 3228 5a38 7537 91b9 1c7e 85b9 457b 25b5
00000360: b0b2 ba39 e4b6 1d37 d329 17b5 3a63 7cb9
00000370: 8780 53b9 df0b 19b5 0647 10b6 bfbb 04b6
00000380: 10ec d937 2d51 6337 1ea6 37b5 6893 4638
00000390: 7dad 17b7 fc15 3b37 63db e037 8435 7d34
000003a0: 0000 0000 0400 0080 fbc2 feb4 7f8c 4b33
000003b0: 0400 0080 fbc2 feb4 cb76 40b3 0400 0080
000003c0: 2bf5 0837 b15c 07b7 9825 e3b5 2bf5 08b7
000003d0: 9825 e3b5 0000 0000 626c 6a39 b24c 30ba
000003e0: f9d1 d639 f2ef d939 638d 8fb9 11bc a139
000003f0: ef33 b4b8 107b a039 c5c1 b13a 3947 3cb5
