logs/rl_games/yam_cube_sort_8192/2026-02-01_05-04-52/nn/last_yam_cube_sort_8192_ep_1300_rew_1036.8514.pth (torch, 953260 bytes, 30 tensors)

value_mean_std.running_mean f8 [1]
000000 dd 27 62 29 6d 3b d1 3f
       0.26925210038518604

value_mean_std.running_var f8 [1]
000000 19 d0 36 35 47 16 9d 3f
       0.028405296919757548

value_mean_std.count f8 []
000000 00 00 80 00 00 50 c4 41
       681574401.0

running_mean_std.running_mean f8 [40]
000000 3d 64 f2 e9 6b f4 ef 3f d8 85 de fe ff f7 56 3f
       0.9985866135858782 0.0014019012410034695
000010 ad 32 18 e0 7a 14 e8 3e 3c b6 9e f4 28 28 57 3f
       1.1482238735837974e-05 0.0014133834797393071
000020 ad 32 18 e0 7a 14 e8 3e 00 00 00 00 00 00 00 00
       1.1482238735837974e-05 0.0
000030 0a fc 21 27 af 72 cf 3f 45 17 dc 2a e8 32 a3 bf
       0.2456873837545291 -0.037497763854885714
000040 1c 14 fa 5c 44 90 c8 3f 78 70 8c e5 74 0a cf 3f
       0.19190268077741812 0.24250661095073034
000050 cf ea 9e 33 95 7f a3 bf 80 8f 16 4c 7c 06 c9 3f
       -0.038082754660953115 0.19551042285194953
000060 31 56 3f c8 75 81 9f 3f ca 8b dc b3 27 40 d3 3f
       0.030767288539058583 0.3007907158336677
000070 8b ba 77 df 01 10 55 3f 31 07 fe cf 0d 68 e8 3f
       0.0012855547228089205 0.7627018987989002
000080 2e 78 30 36 74 57 d3 3f cf 40 b5 06 4d 09 60 3f
       0.30221276561667565 0.001957560006907589
000090 19 2c 1b c9 0e 68 e8 3f ff a9 97 a4 53 47 d3 3f
       0.762702362809594 0.30122843812446826
0000a0 e6 7d a2 0f e2 79 54 3f 00 26 83 c5 0c 68 e8 3f
       0.0012497623088519815 0.7627014024412233
0000b0 9b 97 01 96 a9 a6 27 3f 66 83 cc 56 d5 e3 20 3f
       0.00018044300213942714 0.0001288602756171167
0000c0 f5 50 4e b7 35 fd 22 bf 5f be 17 b2 b8 37 2d 3f
       -0.00014487534249652654 0.00022291307054399503
0000d0 a7 6b a7 f9 84 b8 20 3f c0 26 ce 52 8c cd 23 bf
       0.00012756942017130604 -0.00015108430798376447
0000e0 90 b0 73 46 0d 5c 28 3f 2d ff 85 7e 30 5f 20 3f
       0.00018584882784667247 0.00012490717859847106
0000f0 9b 34 8e bd 74 6a 22 bf 55 f7 8c b6 a0 70 dd 3f
       -0.00014050173811278464 0.45999925448619666
000100 00 00 00 00 00 00 00 00 41 7e cd 7e eb 51 e8 3f
       0.0 0.7599999882331262
000110 b3 18 9d 7e fb 28 cc 3f eb 77 20 b7 7b bc c1 3f
       0.22000068361575628 0.13856455270519005
000120 41 7e cd 7e eb 51 e8 3f b3 18 9d 7e fb 28 cc 3f
       0.7599999882331262 0.22000068361575628
000130 eb 77 20 b7 7b bc c1 bf 41 7e cd 7e eb 51 e8 3f
       -0.13856455270519005 0.7599999882331262

running_mean_std.running_var f8 [40]
000000 cc 85 2a 07 fc 1f 57 3f fb 45 30 5d f2 ef 56 3f
       0.0014114342890610863 0.0013999811969863652
000010 b9 73 bb 44 2c 16 e8 3e 69 e4 db fb f8 1f 57 3f
       1.1485392085780704e-05 0.0014114314539581901
000020 b9 73 bb 44 2c 16 e8 3e e1 7f 5d 7e c6 34 29 3e
       1.1485392085780704e-05 2.9343825034086094e-09
000030 a4 f2 0a df 5e 6f 98 3f 47 83 a1 f7 dd 74 58 3f
       0.023862345088434225 0.0014927070283407716
000040 f4 fd c5 ac 59 35 65 3f 12 58 f4 9b 81 15 9a 3f
       0.002588915964395028 0.025472664970116972
000050 d1 d1 7a e2 04 dd 59 3f b1 68 29 54 cd 39 6d 3f
       0.0015785739614503256 0.0035676012351305232
000060 72 99 32 e7 35 65 82 3f 0d d3 26 e5 b1 66 5f 3f
       0.00898210632142302 0.0019165742165629413
000070 95 47 87 40 6d 08 63 3f 66 c1 da 6f 0b 3a 82 3e
       0.0023233541325930565 1.3579977313971693e-07
000080 de 9e 32 2a 58 16 61 3f d8 3c 61 15 92 d2 63 3f
       0.002085849949782544 0.0024197438424732147
000090 1a e7 8c 0e ab 02 80 3e 76 3a d0 9f e7 52 60 3f
       1.1928694412262134e-07 0.0019926570807975953
0000a0 8d 27 0a b9 f6 b1 63 3f 2e 8d ff 2a a1 38 7f 3e
       0.0024041956715494307 1.1630806784307346e-07
0000b0 5d ed 9b dd 9f 3d 21 3f 18 8d 7a aa 0d 91 2b 3f
       0.0001315362595092168 0.0002103165800138938
0000c0 58 4f d1 37 31 0a fd 3e 59 2a 2a 87 92 c0 25 3f
       2.769452429547624e-05 0.00016595638915746744
0000d0 7d 1a e3 ec 78 27 2d 3f 31 3d f9 bb e7 5f 01 3f
       0.00022242880954178096 3.3139476269478787e-05
0000e0 45 dc 80 e8 f5 37 20 3f 08 42 85 f3 70 1d 2b 3f
       0.00012373806771545835 0.0002068710689493577
0000f0 b7 d4 51 b7 09 c2 fa 3e 27 6a 92 b0 79 8a 2e 3e
       2.5518379932216932e-05 3.5554309536218482e-09
000100 e1 7f 5d 7e c6 34 29 3e 7a c5 e6 fb f2 e1 33 3e
       2.9343825034086094e-09 4.6292817898675836e-09
000110 22 42 23 a4 63 6e 2a 3e c3 fa 1f c8 df b1 29 3e
       3.076997574359196e-09 2.9912708430010487e-09
000120 7a c5 e6 fb f2 e1 33 3e 22 42 23 a4 63 6e 2a 3e
       4.6292817898675836e-09 3.076997574359196e-09
000130 c2 3a 0b bb df b1 29 3e 7a c5 e6 fb f2 e1 33 3e
       2.9912707522329976e-09 4.6292817898675836e-09

running_mean_std.count f8 []
000000 00 00 00 01 00 50 b4 41
       340787201.0

a2c_network.sigma f4 [6]
000000 1d 2a ed bf 55 f7 f2 bf f1 1a ff bf cf c1 19 c0
       -1.8528477 -1.898173 -1.9930097 -2.4024541
000010 e1 ca ff bf fa 1e e6 3e
       -1.9983789 0.44945508

a2c_network.actor_mlp.0.weight f4 [256, 40]
000000 6f de fc 3d be e9 8f bd 89 4a 9c be 20 e8 4d 3d
       0.12347113 -0.07027005 -0.30525616 0.0502702
000010 a2 90 8f be 62 90 8d bd 55 a0 60 3e 48 58 00 3c
       -0.28040034 -0.069123045 0.21936162 0.007833548
000020 cf 77 52 3e 54 39 2f be 5a 12 3e be f0 f5 a0 be
       0.20553516 -0.17111713 -0.18561688 -0.31437635
000030 a5 3e d8 3d f2 0d 63 3d a2 40 01 3c 4b b5 07 3f
       0.105588235 0.05543322 0.007888945 0.53011006
000040 38 24 49 bd a4 c6 bf 3c d7 5b 17 3f 22 a2 80 bb
       -0.049106807 0.023410149 0.5912451 -0.0039255777
000050 51 74 49 3b a6 92 58 bf f6 f5 e0 3d bc 79 86 bd
       0.0030739496 -0.8459877 0.10984413 -0.06566188
000060 2c 85 c0 3e d8 c1 0e be f1 90 10 3e ed 0b 32 3d
       0.37601602 -0.13941133 0.14117791 0.043468405
000070 ea 0c 28 3e de c2 b0 be 82 48 c1 3d 78 9c ce 3e
       0.16411176 -0.34523672 0.09437658 0.4035375
000080 f3 cb 1b 3e bd b8 0a be 69 89 9c be b7 b3 e0 3e
       0.15214519 -0.13547035 -0.30573586 0.43887112
000090 4f 08 e4 bd 9d cc ad bd 03 03 fe be 74 6e 01 3e
       -0.11134397 -0.084862925 -0.49611673 0.12639791
0000a0 83 32 23 be f2 72 7a ba 57 48 91 3d a5 95 be 3c
       -0.15937237 -0.00095538714 0.07093876 0.023264715
0000b0 0a 01 aa 3d 1f af 19 bd 7a 83 c7 3e 91 a0 0c bf
       0.083009794 -0.037520524 0.38967496 -0.54932505
0000c0 10 7c 40 be 25 a4 f0 bd 1d 43 54 be c7 0e 5d 3e
       -0.18797326 -0.11750058 -0.20728727 0.21587668
0000d0 db ed 03 bd 13 ee d1 3d d5 d5 82 bc c6 34 92 3e
       -0.03220926 0.10250487 -0.015971104 0.28555888
0000e0 e0 41 ad bc cf 61 cb 3d 30 86 b3 3d a3 5a b6 bd
       -0.021149576 0.09930765 0.087658286 -0.08904006
0000f0 b7 f1 66 bc d2 81 bf 3d 61 03 11 bd 0b 08 ac be
       -0.014095715 0.09350933 -0.035403613 -0.33599886
000100 d6 98 b5 3e 6b 55 b3 bc 02 7c 47 be e0 75 cf be
       0.35468167 -0.021891316 -0.19480899 -0.4051962
000110 93 20 51 3d c3 dd a7 be 0b b5 88 3e 47 51 97 be
       0.051056456 -0.32786378 0.26700625 -0.29554197
000120 29 93 47 3d 6c cc 06 be ce c3 23 3e ae de dd 3f
       0.048724327 -0.13163918 0.15992662 1.7333581
000130 65 1d 26 3d 0b 45 ff 3d 9d 1a ec bf fd 6f a1 bd
       0.040555377 0.12464341 -1.8445622 -0.07882688
000140 59 c6 00 3c 75 dc d0 bc 16 47 b0 be 11 73 d9 bd
       0.00785979 -0.025495747 -0.34429234 -0.1061765
000150 02 3c e2 be 62 ea bc bd 24 1a fb bd af 74 93 bd
       -0.44186407 -0.092243925 -0.12260845 -0.0719999
000160 c9 43 0a 3c cd dc 97 bc 72 46 4f 3d e5 6a 93 3c
       0.008439013 -0.018537903 0.05060429 0.017995307
000170 ba ce f2 bd 00 50 b5 3c 19 7c 3f 3d bc ff d4 bd
       -0.11855836 0.022132874 0.046749208 -0.1040034
000180 79 88 69 3c 73 7a 2b bd 60 f6 a1 be d8 57 6c ba
       0.014253729 -0.041864824 -0.31633282 -0.0009015775
000190 c5 53 94 3b d5 ce d0 be a5 3a 1d 3b 20 84 11 be
       0.0045265877 -0.407828 0.0023991254 -0.14210558
0001a0 38 0a a2 3e 34 3d 80 be 44 f1 ae 3d 3e 3a 32 3e
       0.3164842 -0.25046694 0.085421115 0.1740503
0001b0 c9 98 5a bd 85 c4 2b be 68 b3 6e be da 8d d5 bc
       -0.053368364 -0.16774185 -0.23310626 -0.026068617
0001c0 1a f1 8d bc 76 67 d0 bd bc 5d 34 3f 83 16 87 3d
       -0.01732688 -0.101759836 0.7045553 0.06596091
0001d0 cd 08 cf 3d e6 b8 1d 3f 76 90 0b be c2 19 8d bd
       0.101091005 0.6161026 -0.13629326 -0.068896785
0001e0 df 35 1a bd 1d ec 83 3e 9a 40 8c 3d 96 2c 07 3d
       -0.03764903 0.25766078 0.06848259 0.033001505
0001f0 0e 89 ea 3d 28 51 c2 bc 45 2d 8a bd 98 b2 08 be
       0.11451922 -0.023720339 -0.06746916 -0.13349378
000200 cc e5 cc 3d 93 d1 9e 3d b4 0e 1a 3d 90 83 1c be
       0.10004768 0.07754817 0.03761168 -0.15284562
000210 ae 39 5b 3e 45 17 fb 3c d8 34 99 bb 19 83 46 bb
       0.21408722 0.030650744 -0.004675489 -0.0030290543
000220 1c 91 77 3d bf 88 ca bd 30 e4 49 3d 23 d2 b0 bc
       0.06044112 -0.098893635 0.049289882 -0.021584576
000230 6f f5 c7 3c 85 dc 1b be d7 9c ec 3d 67 6f a2 bb
       0.024409024 -0.1522084 0.11553352 -0.004957128
000240 03 10 43 3e 1c 4e 68 3e 6e 7e 40 be 9e 12 ac 3e
       0.19049077 0.22686046 -0.18798229 0.33607954
000250 be 42 1c 3e 1f 31 19 be 8f ea 5e 3d 32 c5 c2 3e
       0.15259835 -0.14960144 0.05442291 0.38041073
000260 78 fc ce 3d 60 e9 ff 3d 1c 34 36 bf f8 63 0a be
       0.10106748 0.124956846 -0.7117326 -0.13514698
000270 8d 35 0d bc 02 9d 34 bf d5 f0 0a 3e 70 bc 08 3d
       -0.0086187245 -0.70552075 0.13568433 0.033382833
000280 02 51 61 be bd 74 6b 3d 33 05 d1 be 9c 73 14 3e
       -0.22003558 0.057484377 -0.4082428 0.14497226
000290 56 9c 0c bf 35 3b c3 bd b9 99 44 be 2e c6 05 bd
       -0.5492605 -0.09532777 -0.19199266 -0.032659702
0002a0 a5 90 2f be b3 9b c0 3d ac 45 81 bd cb 09 5e 3e
       -0.17145021 0.09404697 -0.06312117 0.21683423
0002b0 9b 98 15 bd bf 56 16 3c 23 e8 b8 3c d9 d2 ce ba
       -0.03652249 0.009175955 0.022571629 -0.001577939
0002c0 32 04 f9 3b 43 b3 30 bc ae 24 7a be dc 2a 50 3b
       0.007599377 -0.010784927 -0.24428055 0.0031763827
0002d0 cd fd 0b 3c 21 9b 0c be 9d 91 c2 be d0 38 a6 bd
       0.008544398 -0.13731052 -0.3800172 -0.08116305
0002e0 fb 9a d8 3c 20 0c 17 be 79 10 b3 3d a3 99 0c be
       0.026441088 -0.14750719 0.08743376 -0.13730483
0002f0 ff b3 7f 3d a3 ce 19 be 98 99 e4 bc 30 d7 16 3e
       0.062427517 -0.15020232 -0.02790527 0.14730525
000300 6e 77 9b 3d d2 b2 08 3e cd 7d 9e 3e d2 e1 1f 3d
       0.07591139 0.13349465 0.30955353 0.03903372
000310 b5 27 91 ba c8 0f da 3d 36 45 08 be 47 fd 16 be
       -0.0011074456 0.10647541 -0.13307652 -0.14745055
000320 50 d5 0e 3a 8c 0f 5b bd 29 88 65 3e d3 b3 a0 bc
       0.0005448656 -0.053481624 0.22415222 -0.019616997
000330 da 9c 68 3e f3 e9 e3 bd 8f 33 65 be c0 b2 d2 3d
       0.22716084 -0.11128607 -0.2238295 0.10288
000340 3a d2 28 bb 4c 89 3d 3e 59 a5 4e bc d4 ed c7 bd
       -0.002576007 0.18509406 -0.012612664 -0.09762159
000350 1a 94 46 bd d6 ae ca bc 12 d1 85 3c 56 22 9b be
       -0.048481084 -0.024741571 0.016335044 -0.30299634
000360 9c b1 20 bd cb e7 3d 3d 49 27 02 be dd 69 04 3d
       -0.03923188 0.046363633 -0.12710299 0.03232752
000370 eb 15 00 3d 04 dc 8c be 6a 8e ef 3c db 68 06 bc
       0.031270903 -0.2751161 0.029242713 -0.00820371
000380 bb d8 a8 bc 03 18 4c 3c 3f b4 05 be 75 79 d0 bd
       -0.020611158 0.012456897 -0.1305704 -0.10179416
000390 41 ee 14 be 60 fd 8a be ae 19 8b 3c c7 6c b5 be
       -0.14544012 -0.27146435 0.016980018 -0.35434553
0003a0 95 06 c9 3d 48 68 07 3e 28 67 87 3f a1 cb b1 3d
       0.098157085 0.13223374 1.0578356 0.08681417
0003b0 f8 88 ed bd 5c a0 71 3f b0 6b 2c bd c4 e2 12 be
       -0.1159839 0.94385314 -0.042094886 -0.14344317
0003c0 2e d8 34 bd 09 ba 36 bb ea bb b4 be 1f 1c 92 bd
       -0.044151478 -0.0027881882 -0.35299617 -0.0713427
0003d0 c4 be ce be e9 98 4d bd ee 18 36 be 46 c5 41 3e
       -0.40379918 -0.050194655 -0.17782947 0.1892291
0003e0 88 d5 84 3d c4 21 0a 3e 10 81 b3 bd 9b 64 0d be
       0.0648604 0.13489443 -0.08764851 -0.13807909
0003f0 6b 04 c6 be a5 a3 fa bd 70 b9 c3 3c 6b 5d 18 3f
       -0.38675246 -0.12238244 0.023892134 0.59517545

a2c_network.actor_mlp.0.bias f4 [256]
000000 b7 1d 9f bc d7 2d 24 3d a6 ec ca 3c fc 06 5c bd
       -0.019423349 0.04008278 0.024771046 -0.0537176
000010 80 af 9d 3c ce 41 c4 3d 4d 51 97 3d 6d 41 0e 3d
       0.019248724 0.09582864 0.07388554 0.034730364
000020 eb 85 89 bd 82 d3 1d bd 5a 2c 78 3d 79 ba b9 3d
       -0.06714996 -0.038531788 0.060589172 0.0906877
000030 13 3b ca 3d 0b 34 7d bd d7 61 a3 3d f8 47 6d 3e
       0.09874549 -0.06181721 0.07977646 0.23171985
000040 f9 e7 2a 3c 10 73 48 bd 85 68 47 3d b0 fb 49 3e
       0.010431283 -0.048937857 0.048683662 0.19724917
000050 f0 ce e8 3d 47 23 0f bf 65 4a c2 bc db fb 8f bd
       0.11367595 -0.55913204 -0.023717115 -0.070304595
000060 5a ba 65 be d7 a7 84 bc 85 87 e4 bc f5 49 b3 be
       -0.22434369 -0.016193314 -0.027896652 -0.35017362
000070 6b e6 5b bf 82 9f 9f 3e a5 1a 9e bd c1 66 bf bd
       -0.85898465 0.31176382 -0.07719926 -0.093457706
000080 3c 1d 15 bf de a3 90 bd db 5b 15 bf 49 6e fc bd
       -0.58247733 -0.07062505 -0.58343285 -0.12325723
000090 1a 81 ef 3d 7e e1 62 be fa ee 8e be 64 e6 13 be
       0.11694546 -0.22156331 -0.279167 -0.14443356
0000a0 66 24 f2 bc d9 bc 9c bb e5 4c 35 bd f1 fc b1 3e
       -0.029558372 -0.0047832546 -0.044262785 0.3476329
0000b0 24 9a 9c 3d 09 d5 41 3e c8 8f ee bd 6b bf 5e be
       0.076465875 0.18928923 -0.11648518 -0.21752708
0000c0 b0 89 35 3e c9 52 c5 bd 88 b4 09 bd 7a cd 52 3d
       0.17728305 -0.09634931 -0.033619434 0.05146549
0000d0 b5 4a 40 be 49 38 9a 3d f5 36 ff 3d 05 76 a6 3c
       -0.18778498 0.07530267 0.12461654 0.020319948
0000e0 99 3f 6b 3d 3e 9a 4e bc 41 92 50 bd 43 25 b3 3d
       0.0574337 -0.012610016 -0.05092073 0.087473415
0000f0 f9 a6 ca be ba 41 7d bd 07 d4 d2 3d a6 16 2c 3d
       -0.39580515 -0.06183026 0.10294347 0.042013787
000100 8f 4e 99 3d 5a ba 97 3d 5f 96 95 bd 3d 10 eb bd
       0.07485687 0.074085906 -0.07304072 -0.114777066
000110 f1 64 d0 be 6f 78 13 3e cf 97 83 be 43 10 11 bd
       -0.40702012 0.1440141 -0.25701758 -0.0354159
000120 85 8e be bc 5a 24 a3 3e 6f 55 19 be d5 86 8c bd
       -0.023261318 0.31863672 -0.14973997 -0.06861655
000130 63 c6 4c bd a7 fc 2d bd d2 de 23 3e 5f 72 1c bd
       -0.049993884 -0.042477276 0.16002968 -0.03819501
000140 1c 3e 8f 3d 45 21 10 3d 6a 38 ac 3d ab 41 64 3e
       0.06994268 0.03518798 0.08409198 0.22290675
000150 95 b4 8b be 66 73 48 bd 44 1b 04 3f f2 33 8c be
       -0.2728621 -0.048938178 0.51604104 -0.2738338
000160 9e 88 20 3e c8 72 2f bd 07 44 3b 3e 55 0e 65 be
       0.15677115 -0.042834073 0.18287669 -0.22368748
000170 1a 22 b6 3d 5d 21 4b be a6 ec f2 3d 63 23 eb 3b
       0.08893223 -0.19836946 0.11861543 0.0071758493
000180 d0 34 27 3d 43 af 70 bd 37 a5 65 bd bd 48 d8 be
       0.04082185 -0.058760893 -0.056065764 -0.42242995
000190 6d 56 42 bd ba e4 ca 3d 02 46 b2 bd 67 79 b5 bd
       -0.047445703 0.099069074 -0.08704759 -0.08861046
0001a0 f9 64 14 bf d2 53 4b bd 5e dd 97 bd d3 9a 8a 3b
       -0.5796657 -0.049640484 -0.07415269 0.0042298823
0001b0 13 11 2e be 44 13 04 be ba 3b a8 3d d0 5e 03 bd
       -0.16998701 -0.12897974 0.08214517 -0.032072842
0001c0 12 d9 08 be 8e dc f4 3d 93 bf 86 bd cb 02 85 bc
       -0.13364056 0.1195613 -0.06579509 -0.016236683
0001d0 81 85 d3 bd e3 06 f4 bd b0 b8 e2 3c a9 c4 7f be
       -0.10328198 -0.11915376 0.027675956 -0.24977364
0001e0 f7 31 94 3d b0 59 ea bc 80 35 a6 3e 29 d7 c0 bd
       0.072360925 -0.02860722 0.32462692 -0.094160385
0001f0 ab 59 53 3e 4b 04 c2 3d 70 57 1b 3e 1a de 90 bd
       0.20639674 0.09473475 0.15170074 -0.070736125
000200 07 da 21 bb 64 7b be bd 99 47 ac be ca 91 9d bd
       -0.0024696605 -0.09300879 -0.33648375 -0.07693823
000210 b9 7c 83 3d 8c 02 96 ba 04 1f ce bd 21 07 cf bc
       0.06420273 -0.0011444851 -0.100645095 -0.025271954
000220 37 fd ee bd 03 a2 93 3d 98 a5 0a 3e 55 e0 f4 be
       -0.11669391 0.07208636 0.13539732 -0.47827402
000230 cc 56 ad be d3 d7 4a 3e 2b 4b d5 be 62 35 3e 3e
       -0.33855283 0.19808893 -0.4165891 0.18575051
000240 a8 24 09 3e 9e 2a d6 3d 67 71 f7 bd bc ca 60 be
       0.1339289 0.10457347 -0.12082177 -0.21952337
000250 5a 9a cb bc ce 35 31 3d 39 dd 14 bd 8d a4 82 3d
       -0.024853874 0.043264203 -0.036343787 0.06379042
000260 17 bd c6 3d 91 56 60 3d e9 f9 80 be 5a b4 86 be
       0.09704035 0.054770056 -0.25190666 -0.26309472
000270 d2 99 0b 3e 6c 31 ed 3d 7c 66 17 be 94 a5 1b 3d
       0.13632897 0.11581692 -0.14785188 0.037999704
000280 d7 a3 39 bc 9a dc 1d 3e 44 0e 7b 3e b1 c8 97 bd
       -0.011330566 0.15416184 0.2451716 -0.07411326
000290 97 df 92 be c0 ec 27 3d 7d 5c dc 3d 17 00 8b bd
       -0.2868621 0.040997267 0.10759828 -0.067871265
0002a0 bd 63 c1 3d 08 2f ea 3c 00 8b 5b 3e 52 0e 51 3e
       0.09442852 0.02858688 0.21439743 0.20415619
0002b0 b4 93 a2 bd c4 ea 68 bd ee 56 52 3d 3a 74 a6 bd
       -0.079383284 -0.056864515 0.051352434 -0.08127637
0002c0 1d fe 35 be f5 bc 86 be aa 44 8f be c3 fb b4 3d
       -0.17772718 -0.26316038 -0.27982074 0.08837082
0002d0 04 0b 75 3d 83 67 31 3d 71 79 07 3e f9 04 08 be
       0.05982496 0.043311607 0.1322992 -0.13283147
0002e0 e8 62 73 3c a0 19 79 bc 75 f4 55 3d 6b 69 a5 bd
       0.014855124 -0.015203863 0.052235086 -0.080767475
0002f0 27 b3 78 3e a4 96 b9 3d 0e 88 2a bd 41 49 1b bd
       0.24287091 0.090619355 -0.041633658 -0.037911657
000300 bb a5 86 bd 4e ba 1e be 81 72 d2 bd 2c 1b 83 3d
       -0.06574579 -0.15500757 -0.10275746 0.06401667
000310 15 80 6e be 69 96 4f 3e 60 92 b1 bb f8 9e cd 3d
       -0.23291047 0.2027222 -0.0054190606 0.100400865
000320 3d 21 71 3d 38 7c a5 bd eb be 81 be 92 20 4d 3d
       0.05886959 -0.080803335 -0.2534097 0.05007989
000330 27 98 97 3d 99 2d 3b 3d 3e 95 23 3d 0a 22 02 bd
       0.07402068 0.045697782 0.03993725 -0.031770743
000340 6b 53 69 3e f8 b1 9b 3d ef 70 92 bd c2 92 90 be
       0.22785728 0.07602304 -0.071504466 -0.28236967
000350 c0 99 67 bd 88 44 f1 bd 34 df 97 3c bb fa cf bc
       -0.05654311 -0.117806494 0.018539049 -0.025388112
000360 f7 80 4a 3e fb f1 27 bd 1f 0c 3d 3e 39 d5 1e 3e
       0.19775759 -0.041002255 0.18461655 0.15511025
000370 b9 09 a6 3d 8c a2 33 3e 70 66 94 3d 89 df b6 bd
       0.08107323 0.17542475 0.07246101 -0.08929355
000380 bc 44 b0 bb 95 c6 db bd 1c 9b c4 bc 25 8a ef 3b
       -0.0053792875 -0.10731236 -0.023999743 0.0073101693
000390 e8 19 47 be 85 65 8e bd 8b 89 67 3e f1 de 1f be
       -0.19443476 -0.06952957 0.22611062 -0.15612389
0003a0 d0 f8 05 bd 55 b2 c4 3e 16 3a 61 bd 8e 51 9d bd
       -0.03270799 0.38417307 -0.054987036 -0.07681571
0003b0 f8 be 2b bc be d9 51 3e a4 8b df 3d f0 ca 20 be
       -0.010482542 0.20493218 0.10915306 -0.15702415
0003c0 06 71 4e 3e 5d c5 15 be af b6 0e bf 48 41 b5 be
       0.20160303 -0.1462607 -0.55747503 -0.35401368
0003d0 65 17 e2 bb e3 a0 11 bb 03 88 ae bd de 8c 3b 3d
       -0.0068997615 -0.002222114 -0.08522036 0.04578864
0003e0 cf 0b b4 3e 8b f7 cf 3d e7 1a c3 bd 8e 81 06 3d
       0.3516526 0.10154637 -0.095266156 0.032838397
0003f0 0e f7 df bd af 80 00 be cc 61 10 3d 23 6f d2 bd
       -0.10935794 -0.12549089 0.035249516 -0.10275104

a2c_network.actor_mlp.2.weight f4 [256, 256]
000000 7b 50 12 3e 96 48 00 bf 40 f3 33 3e 20 92 e2 3d
       0.14288513 -0.5011076 0.17573261 0.110630274
000010 d4 a1 ed 3d 35 52 86 3d cf 45 58 be b1 19 7b bd
       0.11603132 0.065586485 -0.2112038 -0.061303798
000020 8f 89 e6 bd 7a 02 f1 3c 1a 1c 42 bd 60 90 6a bd
       -0.11256706 0.029420126 -0.04739008 -0.057266593
000030 64 44 72 bd 65 46 0f 3b 2b f2 5c be 50 a2 25 3c
       -0.059147254 0.0021862027 -0.21576755 0.010109499
000040 c0 59 58 3e 4d 12 2e bf 3e 0a 15 be 96 3c 8b be
       0.21127987 -0.67996675 -0.14554688 -0.2719466
000050 7a a6 30 be 0b 13 ae be 62 04 33 bc 8f d3 8e 3e
       -0.17251006 -0.33998904 -0.010926338 0.2789578
000060 a7 7a 00 be 6e 8e df bd 7e f8 58 be de 51 56 be
       -0.12546788 -0.10915838 -0.21188542 -0.20929667
000070 35 0b 0f 3e 27 4d 5b be d5 cb 08 bf 40 18 f2 bd
       0.13969119 -0.2141615 -0.53436023 -0.118210316
000080 10 57 85 3d a3 ac df bd cc 36 ea 3d 1a f5 fd 3d
       0.065107465 -0.109216 0.11436233 0.12400265
000090 4e a1 6a be 72 60 f2 3d 94 55 6b b8 90 90 97 be
       -0.22913095 0.11834802 -5.6108067e-05 -0.2960248
0000a0 dd 9c 0d bb 33 07 ab bd 83 4b 41 3d 84 00 64 be
       -0.002160839 -0.083509825 0.047191154 -0.22265822
0000b0 40 f9 7a be 24 56 4e be b4 2d ba 3e 4e 5c 2f bc
       -0.24509144 -0.20150048 0.36362994 -0.0107031595
0000c0 04 a3 ac be f5 8b 1c be f6 b6 a2 bd d0 fd aa 3d
       -0.3371812 -0.15287764 -0.07945053 0.08349192
0000d0 4f c4 1d be 52 04 2a be 07 f4 83 bd 0b 48 9f be
       -0.15406917 -0.1660321 -0.06443029 -0.31109652
0000e0 56 43 f5 be 82 5c de 3b 7a ab 42 be 71 0e a4 be
       -0.47902936 0.00678593 -0.19010726 -0.32042268
0000f0 13 3e 14 3d 72 29 78 bd a6 35 eb b9 64 f0 4b 3c
       0.03619201 -0.0605864 -0.00044862664 0.01244745
000100 f0 df 9b be 07 8c 5d 3e a3 ca 58 3c 7c 27 00 3e
       -0.30444288 0.21635447 0.013231906 0.12515062
000110 26 22 d4 bd bb 3c 39 be f2 ec a4 3e 20 36 55 bd
       -0.10358076 -0.18089573 0.32212025 -0.05205357
000120 3a ea 22 be 15 f4 f5 bd 69 f5 47 bd 86 fe dd 3d
       -0.15909663 -0.120094456 -0.048818026 0.10839562
000130 b6 c2 67 be 55 d8 0f be 86 5a cf bd 08 55 6e be
       -0.2263287 -0.14047368 -0.10124688 -0.23274624
000140 ed c3 8a 3d fd 66 f8 bc 13 1b 3b 3d ae 85 99 bd
       0.06775651 -0.030322546 0.045680117 -0.074962005
000150 a4 a7 ed 3e 3b f6 39 be e7 28 d6 bd 15 d0 e8 bd
       0.46416962 -0.18160336 -0.1045702 -0.113678135
000160 79 18 3b be fa 71 c6 3d 10 ad 97 be 46 99 01 bf
       -0.18271054 0.09689708 -0.29624224 -0.506245
000170 fe fb 05 be 90 ca 35 3e 63 e3 0e 3d 89 6e c5 bd
       -0.13084409 0.17753053 0.03488482 -0.096402235
000180 2e 1d 8e 3d fc 3b de 3d 58 60 ac bd 7e b5 20 3e
       0.06939159 0.10851285 -0.084168136 0.15694234
000190 4b 45 d5 bd bb 9d 60 be 5e de 88 3e f5 f1 9c bd
       -0.10413607 -0.2193517 0.26732153 -0.07663337
0001a0 83 47 44 be a6 b1 5c 3c de e2 25 3d c2 64 51 3c
       -0.19167905 0.013470089 0.04049956 0.01278037
0001b0 5c 28 13 3d bf 83 f8 bd 16 43 3b 3e 13 d5 80 be
       0.03592716 -0.121345036 0.1828731 -0.25162563
0001c0 a2 00 c2 3c b5 95 66 be 5d 15 4f bd 89 91 ab be
       0.023681942 -0.22518046 -0.050557483 -0.33509472
0001d0 e6 d3 ba 3d 94 1e 9d 3e 44 d8 2a be fa a8 13 3e
       0.09122448 0.30687392 -0.16684061 0.14419928
0001e0 54 00 16 be 1d 16 34 3e c4 9d b2 be a0 66 7c be
       -0.14648563 0.1758656 -0.3488599 -0.24648523
0001f0 81 97 29 be 67 9c 58 be 4c db 3c be b0 df 77 be
       -0.165617 -0.21153413 -0.1844303 -0.24206424
000200 41 4a 5f bd 2c dd 2f be be f7 b9 3d fd cf 30 3e
       -0.054514173 -0.17174214 0.09080456 0.17266841
000210 9a 39 77 bd d4 7f 0a 3e 60 56 ad bd ae df 49 3d
       -0.060357668 0.13525325 -0.0846374 0.049285583
000220 89 69 e4 bd 4e 12 f3 3c f0 23 2f bd 4a 79 17 be
       -0.11152942 0.029671814 -0.042758882 -0.14792362
000230 72 e7 93 3e 64 d8 a4 bd bb 3c 82 bd a7 b9 b5 bd
       0.28887516 -0.08049086 -0.0635924 -0.08873301
000240 82 e8 ab be 80 8e 68 3e 04 d3 98 bc 75 3e 9e be
       -0.33575827 0.2271061 -0.018655308 -0.30907026
000250 82 f6 65 be f4 9d fd 3d a8 7e 53 be dc 54 0a be
       -0.22457317 0.12383643 -0.20653784 -0.13508934
000260 bd 1e 75 bb fe 45 3f be 21 9d ec 3d ca 61 3a 3e
       -0.0037402355 -0.18679044 0.115534075 0.18201366
000270 44 11 a1 3c 64 ff 3c b9 7c 2e 4f 3e 1d 9b 85 3e
       0.019661553 -0.00018024218 0.20232576 0.26094905
000280 ea b5 a6 be 5e b8 85 be 81 7a 20 be 78 3a 66 bd
       -0.32560664 -0.26117224 -0.15671732 -0.056208104
000290 33 7e 1c be 00 24 1f 3d d0 c1 0a be 8d 03 40 be
       -0.15282516 0.03885269 -0.13550496 -0.18751355
0002a0 e3 aa a5 be a8 d1 91 be 11 e6 b4 be 13 5a 75 be
       -0.3235694 -0.28480268 -0.35331777 -0.23960142
0002b0 52 5e 88 be 8f 42 c2 3d 64 37 b9 3c 1c f9 9b 3e
       -0.2663446 0.09485351 0.02260942 0.30463493
0002c0 2e b4 73 3e 64 e6 ba 3d c8 ea 6b be ff 73 d8 bd
       0.23799202 0.09125975 -0.2303878 -0.105689995
0002d0 ac e1 a2 bb 13 3a 0e 3e 04 21 66 be 89 e7 0f bc
       -0.00497075 0.13889341 -0.22473532 -0.00878323
0002e0 f7 c2 ca 3d a6 11 f4 3d 77 f0 96 be d6 26 3e 3e
       0.09900468 0.11917429 -0.29480335 0.18569502
0002f0 4a 47 39 be 13 78 7b be 83 89 4e be f1 44 9c be
       -0.18093601 -0.24557523 -0.20169644 -0.30521348
000300 09 e1 4e be 4e 5b 96 bc a2 8e 07 bc a7 42 ed 3d
       -0.20203032 -0.018354084 -0.008273752 0.115849786
000310 b2 08 ec bc e9 cb 93 be d9 ce 45 3e 56 85 00 be
       -0.02881274 -0.2886651 0.19317187 -0.12550864
000320 a5 7a d0 bd fa cd 9a 3d b5 e2 0d 3e b7 78 89 be
       -0.101796426 0.07558818 0.13856013 -0.2684991
000330 c8 92 01 be a1 33 d2 bd c3 ce f7 3d 9e d5 6d be
       -0.12653649 -0.10263754 0.120999835 -0.2322602
000340 2c 41 0d bd f7 44 38 be 73 f9 81 bd 18 70 f5 bd
       -0.03448598 -0.17995058 -0.06346407 -0.11984271
000350 eb fa 0f 3e 28 07 9c be f7 9a 2e 3d 48 e7 97 bd
       0.14060561 -0.3047421 0.042628255 -0.0741716
000360 49 6c e6 bd 05 3d 2d 3d db 9d 64 bd 9b b3 ed bd
       -0.112511225 0.04229452 -0.055814605 -0.11606523
000370 9f c9 b9 bd 69 58 8e 3c f4 40 bc be 1d e5 61 3e
       -0.09071659 0.017376142 -0.36768305 0.22060056
000380 ff 5d 0d bf 1e 54 95 3d 29 08 61 bc 73 53 c2 bd
       -0.5522155 0.07291435 -0.013734856 -0.09488573
000390 51 c2 0a be 35 f3 0f 3e a1 69 a6 be 2f 78 fc 3d
       -0.13550688 0.1405762 -0.32502463 0.12327611
0003a0 08 b5 39 3e 4c 64 7d 3c 1d 73 95 be a4 09 1a 3e
       0.18135464 0.015465807 -0.29189387 0.1504274
0003b0 d9 f1 13 3e 0c 74 3b bd 0f ff 03 be 5e d3 dd bb
       0.14447726 -0.045764968 -0.12890266 -0.0067695817
0003c0 83 df 94 be 00 46 67 3e 8e 4f 6b bd e8 20 d5 bd
       -0.29076776 0.22585297 -0.057448916 -0.10406667
0003d0 5d c5 2a 3e 27 e9 bd bd 36 00 dc bb 33 7d 36 3d
       0.1667685 -0.09272986 -0.0067138923 0.044552993
0003e0 96 78 fb bd e6 66 91 be f8 f7 03 3e 2d c7 4e 3e
       -0.12278859 -0.28398818 0.12887561 0.20193167
0003f0 73 af c6 3d 7e f5 7a 3e 7c 0e 96 3d eb f9 22 bd
       0.09701433 0.2450771 0.073269814 -0.03978912

a2c_network.actor_mlp.2.bias f4 [256]
000000 98 75 69 bc df 7b 4e 3d 0d 35 b4 bc 3c e4 da bc
       -0.014249228 0.0504111 -0.021997953 -0.026720159
000010 43 88 f2 bc 68 b0 3b bc 2b 9d 99 bc 76 6e 6f 3b
       -0.02960599 -0.011455633 -0.018751701 0.0036534346
000020 ce 42 99 bb 4b 70 06 3d 21 62 71 be f0 d5 50 bc
       -0.004677153 0.032821935 -0.2357259 -0.012746319
000030 18 61 96 bc 49 d3 67 3d f9 45 ef bc 93 51 1d 3c
       -0.018356845 0.05659798 -0.02920817 0.009601968
000040 4f 54 50 3b 8d 81 0e bc 3c a1 9c bd c0 e1 f3 bd
       0.0031788533 -0.0086978795 -0.076479405 -0.11908293
000050 ef ac 15 bc aa b6 0a bd 4c a5 af bc e1 30 a0 be
       -0.009135469 -0.03386561 -0.021441124 -0.31287292
000060 e1 1c 0b bd c3 ee 35 3d 20 4b 3b bc f4 c0 7b bc
       -0.033963088 0.044417154 -0.011431485 -0.015365828
000070 dc 57 9b 3c d0 7b 8b 3d 16 b4 62 be 6e 79 84 be
       0.018962793 0.06810725 -0.2213901 -0.25873893
000080 5d 10 3e 3d ff 99 cb bb ed 66 8f bc 62 54 45 be
       0.046402324 -0.006213426 -0.017505134 -0.1927047
000090 ca 57 22 bb 0e 55 e4 3c b2 84 5f bb b4 2b ff bc
       -0.0024771565 0.027872588 -0.0034106192 -0.031148769
0000a0 88 c7 c1 3c b8 31 87 3c 98 d3 dd 3c 4e 6b cf 39
       0.023654714 0.0165032 0.027078435 0.00039562065
0000b0 56 8b 66 3c 93 11 ed 3c 14 9b 9c 3c 2e b1 3c bd
       0.014071306 0.028939044 0.019116916 -0.04606741
0000c0 21 ae 3b 3c 94 1d 92 3d 97 7f 6d be 11 31 72 3d
       0.01145509 0.07134548 -0.23193203 0.059128825
0000d0 0d dc 52 bb 2e bb 00 bd 19 da 99 ba 2f e9 9e 3c
       -0.0032174618 -0.03142851 -0.0011737972 0.0193983
0000e0 73 ef b9 3c 87 7f 02 bb 28 b6 23 bc 46 30 3d bd
       0.022697186 -0.0019912438 -0.00999216 -0.046188615
0000f0 9b d3 1f 3b 9f dd d9 bd 13 ab ad 3c 7e 97 d9 3b
       0.0024387601 -0.10637974 0.021199739 0.0066403737
000100 61 16 11 bc 6b 61 39 3d f1 0a 42 3d 67 08 8c 3c
       -0.008855433 0.04525892 0.047373716 0.01709385
000110 46 98 2e 3c 65 ba 15 3d e3 64 00 be 1a 6b dd 3c
       0.010656422 0.036554713 -0.12538485 0.027028609
000120 56 8c ec bc d6 ee 28 3d 95 a7 0d bb 15 4e c8 bc
       -0.028875511 0.041243397 -0.002161478 -0.024451295
000130 5d 9c 05 be 1e be be 3c 4a f3 02 bb 35 ee 2e 3c
       -0.13047929 0.023284014 -0.0019981437 0.01067691
000140 9a a5 8f bd 9e 28 37 3d 68 4b 82 bb 85 91 7a 3d
       -0.07014008 0.04471647 -0.0039762743 0.061173934
000150 9b e3 84 3c 1d 79 94 bc 7b 17 0b bd 39 12 40 bd
       0.016221812 -0.018124158 -0.03395794 -0.04689238
000160 30 48 97 bd 8c c3 6e bc ca 23 2e bb 5e 6f 0c 3d
       -0.073868155 -0.014572989 -0.0026571625 0.034285896
000170 17 3a 23 3c 9c 6a 80 3b 2e 14 23 bd 24 d3 cc be
       0.00996258 0.003918959 -0.039814167 -0.40004838
000180 91 b7 0e bd 45 72 4c bc f9 84 cc 3c 29 6f 1d bc
       -0.03484303 -0.012478416 0.02496575 -0.009609022
000190 58 3f e5 be 4c 07 c2 bc 30 60 5e 3b 7b 2e 72 3c
       -0.4477489 -0.02368512 0.0033931844 0.01478159
0001a0 9d 40 8e bb 5f e5 5b 3c 87 7d 12 3d ca ba 19 3d
       -0.0043411986 0.013421386 0.035764243 0.03753165
0001b0 e4 3e 8c 3b 40 a4 e3 be 95 e2 91 3b 24 be b8 bc
       0.004279958 -0.4446125 0.0044520595 -0.022551604
0001c0 0a 11 11 3d 80 9e d4 bd 6c 6f 26 bb e3 06 d9 bd
       0.03541664 -0.10381794 -0.0025396002 -0.10597017
0001d0 6b 87 89 bb 29 39 5c bc da 72 aa bc 11 37 4d bc
       -0.0041970513 -0.013441362 -0.020806719 -0.012525336
0001e0 5f 43 29 bd 84 ed b9 bc f2 7d f3 bc 8c 72 b2 3b
       -0.041324016 -0.022696264 -0.029723141 0.005445784
0001f0 79 23 43 bc f5 af 2e bd 94 bc e1 be 43 a2 a6 bc
       -0.011910313 -0.042648274 -0.44089186 -0.020341044
000200 77 16 c4 3a ee 51 1d be be 89 fb bb a4 13 84 be
       0.0014960308 -0.15363285 -0.0076763323 -0.25796235
000210 83 f2 0b 3d ab a9 a2 3c 87 16 02 3c 8c f2 38 bd
       0.034166824 0.019856295 0.007939941 -0.045153186
000220 f6 3e f2 bd ca f3 b6 be af cb 0b be 4f 00 37 3d
       -0.11828415 -0.3573287 -0.13651918 0.04467803
000230 72 b1 be bb 59 74 3a ba 57 09 b2 be dd 14 e6 bd
       -0.005819493 -0.0007112674 -0.3477275 -0.11234448
000240 86 24 67 3d 68 71 09 bc ea 6f 2e bd b8 3b 4c bd
       0.056431316 -0.008388855 -0.0425872 -0.04986164
000250 b8 48 34 bc 2d 42 68 bb ad e9 a1 bd 4f 8f 5d bc
       -0.011003666 -0.0035439834 -0.07905898 -0.013522937
000260 4c 67 81 3c 5b 8c 0c 3c fa 58 d1 3b b8 3c 97 3b
       0.015796326 0.008578385 0.0063887807 0.0046153925
000270 c3 2d 19 bc ce b0 62 be ce 23 0d bf 9e 55 a7 3c
       -0.009349289 -0.22137758 -0.5513276 0.020426568
000280 52 8e b6 bb 98 54 60 3d e2 fd cf bc 24 ed 1c be
       -0.005571165 0.054768175 -0.025389615 -0.15324837
000290 ce f8 0e bd 0c fd 77 ba f4 e1 19 3d 05 ea 52 3b
       -0.034905247 -0.0009460009 0.037569 0.0032182944
0002a0 db fa fe bb a1 ad 89 3c 65 c3 d4 bc a5 ec ab 3c
       -0.007781369 0.016806426 -0.025972078 0.020986864
0002b0 d8 96 87 3c 27 6f f6 ba c1 bf fb 37 a7 dc 43 3a
       0.01655142 -0.0018801437 3.0010824e-05 0.00074715394
0002c0 e2 09 a3 3d 8c b5 f3 3b 06 2b 8a bc 68 e8 eb bc
       0.07960869 0.0074374136 -0.016866218 -0.028797343
0002d0 8a f1 91 3c 84 11 91 3d f4 eb f7 bc 2c 24 55 bd
       0.01781537 0.07083419 -0.030263878 -0.05203645
0002e0 a4 0f a7 3d 16 bb 11 3d a9 fc ae bc 10 84 20 bc
       0.0815728 0.03557881 -0.021360712 -0.009797111
0002f0 66 79 b9 bc e4 fa 8d 3c 76 de 41 3d 39 0d 31 3d
       -0.022640895 0.017331548 0.047331296 0.0432255
000300 07 b5 f2 3c 74 c7 a7 be 5e fe 04 3b ad ae a0 bd
       0.029627336 -0.32769358 0.0020293216 -0.07845817
000310 b2 eb ef bd 3e cf 29 be 8b e3 4e be 5d a7 07 bc
       -0.11714877 -0.16582963 -0.20203988 -0.008279649
000320 0a 84 d4 3d 30 1b 01 bd 71 e7 99 ba 5f 67 91 3c
       0.10376747 -0.03152007 -0.0011741949 0.017749486
000330 fe 91 fd 3c b1 2d 54 3d 74 ee 09 bc d3 65 92 3d
       0.030953404 0.051801387 -0.008418668 0.07148328
000340 e9 b1 43 bb cb 59 db 3c 48 84 27 3c c8 3c 84 be
       -0.0029860681 0.026776215 0.010224409 -0.25827622
000350 c0 d1 6a bc a7 de aa bd 4e 75 84 3c 94 66 c1 bc
       -0.014332235 -0.08343249 0.016169216 -0.023608483
000360 5b de 24 bd 56 60 1b bc 7a 64 cf 3c 55 c5 0b 3d
       -0.040251117 -0.0094834175 0.025316466 0.034123737
000370 12 d8 12 3d 95 5b 08 be af ba 09 3d 1e 78 92 be
       0.035850592 -0.13316186 0.0336253 -0.28607267
000380 72 c2 22 3d 41 03 86 bc 14 86 05 bd 8f 46 46 3c
       0.03973622 -0.016358973 -0.03259857 0.012101783
000390 85 95 c6 bc 29 bc df bc 65 20 1f 3c bc f5 8a bc
       -0.024241218 -0.027311401 0.009712313 -0.016962878
0003a0 6d 03 fe 3c f6 97 50 bc 52 39 ab bb 6c 55 4e bc
       0.031007493 -0.012731543 -0.005225339 -0.012593608
0003b0 bb 78 94 3c 78 37 af bc 26 d2 eb 3c 11 9b d9 bd
       0.018123975 -0.021388754 0.02878673 -0.1062528
0003c0 60 4c 22 bd 75 2c 89 3b ad 8e 09 3c 33 c0 99 3d
       -0.039623618 0.004186208 0.008395833 0.07507362
0003d0 eb 58 28 be 8e 2b d1 3c 0b 7d ef 3b df 50 47 3d
       -0.1644017 0.025533464 0.0073086075 0.04866111
0003e0 5f 1e ba 3c 27 31 da 3c 5f aa 01 3d 2a 8e 08 3c
       0.02271956 0.026634766 0.03165662 0.008334676
0003f0 c2 1f 39 be 02 3a 06 3d 9d d4 35 bb 2a 18 54 bc
       -0.18078521 0.032770164 -0.0027745136 -0.012945214

a2c_network.value.weight f4 [1, 256]
000000 fc 11 dd 3c 58 a7 49 bb ea bf 74 3b bb 6f 1d 3d
       0.026986115 -0.003076991 0.0037345835 0.038436633
000010 b8 49 42 bd 70 5e 6a 3c c8 87 26 3c 52 cf a1 3d
       -0.047433585 0.014304742 0.010164209 0.07900871
000020 8b 33 c6 bb 39 cd aa 3c 5f ce 41 bc 5a 72 fc bb
       -0.006048625 0.02084981 -0.011828988 -0.0077040615
000030 af db 30 bc 10 c2 d4 bc 9c ae 8b bb e0 f3 9e bd
       -0.010794564 -0.025971442 -0.0042627584 -0.07761359
000040 56 29 ee 3d 80 0d 06 bb 2f 4f 65 bd 12 56 c4 3c
       0.11628978 -0.0020454824 -0.05598372 0.023966823
000050 31 b5 ea ba da ba b9 3c bd 65 c7 3d c3 32 04 3c
       -0.0017906782 0.022672106 0.09736202 0.008068743
000060 f5 3b 5f 3b 03 93 c2 bc b4 dc fa 3c fd a3 06 bc
       0.0034062837 -0.023751741 0.030622818 -0.008217809
000070 11 ac 13 bd 6f 55 78 bb e2 8f a1 3c 91 43 af bd
       -0.036052767 -0.003789272 0.019721929 -0.08557809
000080 f8 0c c8 3c 8e 47 45 bd 7d 2b 2a bc ee a1 80 bb
       0.024420246 -0.048163943 -0.010386345 -0.0039255535
000090 70 b6 d5 bb 6c 40 e8 b9 a2 55 c1 3c 4e e3 07 bc
       -0.0065219924 -0.00044298486 0.023600403 -0.00829394
0000a0 43 ae fa bb 61 8a 29 3b 5c 05 88 bc a8 7b 2d bc
       -0.007650168 0.0025869834 -0.016604118 -0.010588564
0000b0 99 72 4a bc 9b 63 80 bb 74 08 18 3a bb 8a f2 3c
       -0.012356424 -0.003918124 0.00057995995 0.029607167
0000c0 98 69 85 bb 77 27 7c ba 26 07 87 3d b2 90 12 3c
       -0.0040714256 -0.0009618918 0.0659316 0.008945631
0000d0 d6 2a ec ba 6a 58 15 3c 5e ba d3 bb c5 68 46 3c
       -0.0018018137 0.009115318 -0.0064614257 0.01210994
0000e0 8d 62 9e bb 1b 3f a7 bc 89 f3 c1 3b be 2f 07 bc
       -0.0048335255 -0.020415833 0.005918924 -0.008251129
0000f0 c9 9b 0a bc 66 f2 ce bd bf 18 d4 bd c4 1a 31 3d
       -0.008459994 -0.101048276 -0.103562824 0.043238416
000100 d8 6e 8b bc a7 43 6e 3c 6f 69 e8 bb 50 ac 17 3c
       -0.017020628 0.014542497 -0.007092647 0.009257391
000110 2b 6a 2d 3d 67 9c ad 3c fa 4f 4d 3c ba 5b 0e 3b
       0.042337578 0.021192743 0.012531275 0.0021722154
000120 d3 06 43 bb bc a1 91 bb 43 e3 36 bd b7 1b 87 bc
       -0.0029758706 -0.004444329 -0.044650327 -0.016492708
000130 69 e5 b0 3d ee 29 bc 3b 68 f5 dd bc 31 e7 ac 3c
       0.086375065 0.005742303 -0.027094558 0.021106334
000140 71 3c 30 bd f9 47 c6 3b 99 46 a3 bc d9 7b de bc
       -0.04302639 0.0060510603 -0.019931125 -0.027158665
000150 d3 a9 2c 3c d4 c4 be 3b 34 ea db 3a 6c fc 08 bb
       0.010538536 0.0058218036 0.0016778172 -0.0020902408
000160 6f bd a0 bd 73 cb e3 bb 81 8b 57 bc de 6d e6 3b
       -0.078486316 -0.0069517433 -0.013155819 0.00703214
000170 0e 15 53 3b c6 86 4e bc 16 bd 02 3d d7 6a 16 be
       0.0032208594 -0.012605375 0.031918608 -0.14689194
000180 f4 cc 91 b8 2e 49 73 ba a3 6e b5 b9 0d 4b f7 bb
       -6.952314e-05 -0.0009280619 -0.0003460544 -0.0075467885
000190 8c 57 84 bc 72 be f3 bb 1b 4d d0 bb c6 ea 32 bc
       -0.016155027 -0.0074384743 -0.006356848 -0.010920232
0001a0 fd 76 0a bc c5 60 82 3c 00 2c 5f 3b 80 42 95 bc
       -0.008451221 0.015915284 0.0034053326 -0.018220186
0001b0 75 3f d6 bb 5f 94 c3 bc 30 1c 57 3c 21 35 4d bc
       -0.0065383264 -0.02387446 0.013129279 -0.012524874
0001c0 80 bb 31 3e 01 48 fe 3c 67 8f b7 3c af fb 07 3e
       0.17356682 0.031040194 0.022407247 0.13279603
0001d0 c9 ec 79 3b 10 9e c2 bb f2 e4 3f bc 0a 48 ee bc
       0.003813552 -0.0059392527 -0.0117123 -0.029087085
0001e0 87 e8 a0 bd 6d 82 cb 3b 5f ac 7c bc c0 06 f1 3c
       -0.07856851 0.0062106163 -0.015421956 0.029422164
0001f0 03 bf 4f 3c e9 35 e4 bc 5b bb 58 be 18 eb 93 3a
       0.012679818 -0.027857738 -0.2116522 0.0011285273
000200 d3 58 27 3c 96 b8 bb 3c c2 51 bd bb 0b e9 51 3d
       0.010214048 0.022915166 -0.0057775686 0.051247638
000210 a5 17 21 bc f5 cd 7e bc e4 85 0b 3c ab 3c 40 3f
       -0.009832297 -0.015552034 0.008515809 0.7509257
000220 bf 2c cf bd 88 6e fe 3d 43 26 4d bd 65 20 66 3c
       -0.101159565 0.12423426 -0.050085317 0.014045809
000230 2c 1f 5d bc 69 a3 87 bc ca 79 08 be 30 9a a7 3d
       -0.0134962015 -0.016557412 -0.13327709 0.08183706
000240 d9 36 92 3c e7 10 cf bc 45 33 89 3e eb 3c 3c bc
       0.017848419 -0.025276614 0.26796928 -0.011489133
000250 ae dd a5 bc c0 c8 17 bd 93 6e 8a 3c 0e ea 5e bc
       -0.020247307 -0.037056684 0.016898429 -0.013605608
000260 0d cf d6 bb e5 7c 5d bd 30 4b af bb 85 9d a7 ba
       -0.006555444 -0.054074187 -0.005349539 -0.0012788033
000270 8d c7 30 3c 87 36 91 bd 52 26 a3 bb 64 a3 90 bc
       0.010789764 -0.070904784 -0.0049789334 -0.017656036
000280 36 70 2f 3c 8e 0c a6 3c 34 4c f3 3d 3d 59 48 3d
       0.0107079055 0.020269658 0.11879769 0.04891323
000290 46 e2 2b 3c d2 eb 1b bc 01 1c 1e 3b fa e9 ff 3c
       0.0104909595 -0.009516673 0.0024125578 0.031239498
0002a0 33 63 1e bc 4b bc 40 be 1f 68 a8 bb 85 c1 66 bd
       -0.009667206 -0.18821828 -0.0051393653 -0.0563369
0002b0 11 1b 59 3c ff bc 67 3c 75 f9 09 3d d1 6e f9 3c
       0.013251082 0.014144181 0.033685166 0.03044835
0002c0 c3 34 5f bc 04 6d 3d bc 64 ad 03 3c 7b 85 e8 bb
       -0.013623419 -0.011561636 0.008036945 -0.0070959902
0002d0 8c 37 55 3b ba cb 12 bc c6 d0 9d 3b 56 81 13 3d
       0.003253433 -0.008959705 0.0048161475 0.036012016
0002e0 cb 3f 12 bc 5d a1 25 bd 81 59 e0 3c 03 64 c4 bc
       -0.008926342 -0.04043709 0.027386429 -0.02397347
0002f0 8d 9a 7a bb f2 e0 cb 3c 2b 7e 90 bc 2b 65 35 3c
       -0.0038239092 0.024887536 -0.017638287 0.011071484
000300 7f 2c 1b 3c c9 3f bf bc f0 ec 3b 3c 50 cf 12 bb
       0.009471058 -0.023345845 0.0114700645 -0.00224014
000310 9a 77 0b be 8e d5 0e be 30 b2 30 3d ad 89 05 be
       -0.13619843 -0.13948652 0.043138683 -0.130408
000320 76 b9 15 be 71 ca 30 bc 57 40 e8 ba f7 1e cc 3c
       -0.14621529 -0.010790453 -0.001771937 0.024917109
000330 3d df 8a 3c 92 7c 85 3c dc 0b 82 3c b9 9d ed bd
       0.016952151 0.016294751 0.015874796 -0.11602349
000340 81 ce b2 3b 5f df ab 3b 0c c3 c9 3a c2 95 e2 bc
       0.005456746 0.005245134 0.0015393212 -0.0276593
000350 7e 87 21 bc 2c ff b7 bd 66 0d 5d 3b e3 0d eb bb
       -0.009858964 -0.08984217 0.003372991 -0.0071732863
000360 d0 e8 2b 3d 47 46 2e bc 2e af 5a be a0 e6 af bb
       0.041970074 -0.010636873 -0.21355888 -0.005368069
000370 41 06 e8 3d 3d fd 4e bc 72 f8 77 3a 37 5b 8c 3b
       0.11329318 -0.012633619 0.00094593235 0.0042833346
000380 49 2a 9f 3a 69 23 0e bb 3a d8 b5 bb e0 d8 9d bb
       0.0012143339 -0.0021688587 -0.005549458 -0.0048171133
000390 95 65 47 bc f2 88 84 bc fe d7 92 3c 4b 17 21 3e
       -0.012170215 -0.016178582 0.017925259 0.15731542
0003a0 bd 32 3f bc 37 fd 34 3c 3e eb 94 3c 33 ed ad bb
       -0.011669812 0.011046699 0.018178578 -0.0053078174
0003b0 5c 1e 43 bc 76 91 e6 ba 47 55 cd 3b fb 28 13 bd
       -0.011909094 -0.0017590958 0.0062662694 -0.035927754
0003c0 8d 4f ee 3d 2d ff df 3b 40 20 1e 3c e7 ee 3d bb
       0.11636267 0.0068358392 0.009651244 -0.0028981508
0003d0 7c 64 1e be 45 fd f9 ba 19 8d 1c 3d 4b 72 fa bb
       -0.15468019 -0.0019072673 0.0382205 -0.0076430193
0003e0 dd 52 7d be 41 2b f7 3b 70 c1 06 3d b1 95 f9 3d
       -0.24738641 0.007542998 0.03289932 0.121867545
0003f0 36 05 b8 bd 58 d9 71 3c 77 61 96 3b 53 03 4c bc
       -0.08985369 0.014761291 0.0045892554 -0.012451964

a2c_network.mu.weight f4 [6, 256]
000000 dd a0 2a 3e 55 10 19 3b 30 0c ef bb 32 f1 41 bb
       0.16662927 0.0023355682 -0.007295154 -0.0029593226
000010 93 71 dc bc a1 1a 86 bb e6 d5 c8 ba b0 53 cc 3a
       -0.026909625 -0.00409253 -0.0015322536 0.0015588906
000020 1d 73 11 bc f8 fc 2f 3a ce c4 51 bc ec cd 40 bb
       -0.008877543 0.00067134155 -0.01280327 -0.0029419614
000030 f6 75 9d b9 33 a9 10 3c c0 e0 06 ba 18 4d 19 3c
       -0.0003003326 0.008829403 -0.00051451847 0.0093567595
000040 91 35 fe bc ba 6b bc 3b 2f c9 f3 3d 5d 84 b2 bd
       -0.031031402 0.0057501467 0.11903607 -0.087166525
000050 e8 99 40 b9 47 cf 3f bc bf d4 ec bb 0e 85 97 be
       -0.00018367881 -0.011707134 -0.0072275097 -0.295937
000060 35 24 c1 3b d8 f4 91 3a 57 a8 be ba 06 a8 c9 bb
       0.005894209 0.0011135591 -0.0014546019 -0.006154063
000070 f5 40 aa 3b 8a 82 96 bb cb 17 96 3d da 2c cc 3d
       0.0051957318 -0.004593198 0.07328757 0.09969492
000080 71 95 e6 bb 8e 64 ae bd c3 22 73 3b 45 13 d2 bc
       -0.007036858 -0.08515273 0.0037099577 -0.025643954
000090 32 43 89 3a 72 1d e0 3a 00 75 d7 bb f4 86 6a bb
       0.0010472296 0.0017098619 -0.006575227 -0.0035786005
0000a0 e1 69 04 bb 01 31 a5 3b 1d 6b 85 bb 93 3c c9 bb
       -0.002020471 0.005041242 -0.004071607 -0.006141254
0000b0 cf e2 9b ba ea a1 f0 ba 12 b2 3d ba e6 54 64 bc
       -0.0011893156 -0.0018358801 -0.00072363124 -0.013936257
0000c0 a2 e1 04 3c 93 f0 95 bb cc 3b a1 3d 26 46 c7 bb
       0.008110436 -0.004575798 0.078727335 -0.0060813604
0000d0 6f 9b f5 3b ae f4 6f bb ca e7 d5 bb 88 af 9f 3b
       0.007495336 -0.0036614346 -0.0065278756 0.00487322
0000e0 bb bc e5 3b 5e b9 9e bb 2c 32 0b 3c aa b7 54 bc
       0.007011024 -0.004843875 0.008495849 -0.012983242
0000f0 56 aa bd bb 13 48 0a 3e b2 5f 71 bd 13 70 40 3d
       -0.005788128 0.13504057 -0.058929153 0.046981882
000100 be 63 02 3b 56 e8 7d bb a8 4d 94 3b c8 7a 51 3b
       0.0019895877 -0.003874322 0.004525859 0.0031964052
000110 26 2a 32 bc a7 cf 5c ba f7 36 bc 3b e9 9f ee ba
       -0.010874307 -0.00084232766 0.005743857 -0.0018205616
000120 c9 ff 88 bb 60 cc 97 3b b2 b0 01 3c 76 d7 e7 ba
       -0.0041808826 0.0046325177 0.007915663 -0.0017688114
000130 d9 cc ef 3d 77 a5 98 bb 65 30 76 3a ad 44 42 bb
       0.117089935 -0.004658397 0.00093913666 -0.0029642985
000140 eb be e1 3d 17 2c 68 bb 17 97 1f 3c 54 f8 c5 3a
       0.11022743 -0.003542667 0.0097406125 0.0015103915
000150 67 90 32 3b 96 40 b3 ba e8 49 8f 3a f1 21 fa 3d
       0.0027246715 -0.0013675864 0.001093206 0.12213505
000160 fb 9d bc bc 07 92 ba 3a db 61 10 bd 59 75 3b 3b
       -0.02302455 0.0014234193 -0.035249572 0.002860388
000170 ae 46 6a b9 0f d5 48 bb 0f a7 7c bb 61 8d ae bd
       -0.00022342309 -0.003064457 -0.0038551723 -0.0852306
000180 7a fe 6a 3b 01 90 ae bb 30 a1 f2 3a 3b 51 80 bb
       0.0035857246 -0.005327225 0.0018511172 -0.0039159334
000190 64 58 46 be ba a7 16 ba 48 87 c0 3b 96 fc 28 3c
       -0.19369656 -0.0005747039 0.005875502 0.010314127
0001a0 43 8c e5 3b e6 db 1c bc da f9 94 3b d7 bc a1 3b
       0.007005246 -0.009573912 0.004546386 0.0049358415
0001b0 3b f6 96 ba a4 68 11 be 7b e4 b6 bb ae 6c 85 bb
       -0.0011517474 -0.14200073 -0.005581436 -0.0040717935
0001c0 5b 1e f9 3c 43 84 bd 3c 1f a9 b9 bc 19 c0 c7 bd
       0.030409982 0.023134356 -0.022663651 -0.097534366
0001d0 cb 5e 3c 3b a4 56 cf 3b bd f1 ab 3b 2f 70 c8 3b
       0.0028743024 0.006327467 0.0052473233 0.006116889
0001e0 83 c1 6e 3c 36 a4 cd bb ec ad 2b bc a9 b7 24 bb
       0.014572504 -0.006275679 -0.010478478 -0.0025133884
0001f0 79 33 33 bb 0a 49 1a bd 08 45 47 3d 38 41 96 b9
       -0.0027343913 -0.03766731 0.048649818 -0.0002865882
000200 19 24 a0 3b 79 88 18 bd a8 51 09 bb 98 3b 4a bd
       0.0048871157 -0.037239525 -0.0020953212 -0.04937324
000210 0e 97 ec 3a f7 47 21 bd 69 05 d1 bb 3e da 80 bd
       0.0018050389 -0.03937527 -0.006378819 -0.062916264
000220 24 b0 27 3d 90 2e 0a be b3 f0 81 bd cc ec 91 ba
       0.040939465 -0.13494325 -0.06344738 -0.0011133193
000230 7f 33 38 bb 29 30 68 bb ec 9a 8a bb 0e 25 ac 3b
       -0.0028106866 -0.0035429096 -0.004229894 0.0052534407
000240 56 da 97 bc ac 75 f1 3b ff 90 5d 3c c0 f4 b5 3a
       -0.018536728 0.007368764 0.013523339 0.0013882145
000250 db 1f ce 3b c2 d4 22 3c 4f 65 4f 3b ff d1 e7 3a
       0.0062904186 0.009938421 0.0031646078 0.0017686485
000260 d5 cd 05 3b e9 95 ca 3b 24 92 25 bc 3a 1d 82 3b
       0.0020416875 0.0061824215 -0.010105643 0.0039707692
000270 38 d4 c2 bc 97 be 11 bc 5a 57 fc 3d da d9 ca 3b
       -0.023782834 -0.008895538 0.123213485 0.0061905207
000280 c7 74 01 bc 1e 0e 80 39 5d 8b 96 bc 97 32 5d 3d
       -0.007901377 0.0002442458 -0.018377 0.054003324
000290 8a 03 7c bb 00 ea 9e 3b 50 31 2f ba 66 67 6c ba
       -0.0038454258 0.0048496723 -0.00066830683 -0.0009018093
0002a0 db 99 fc ba c1 ee 1d bd 0e 61 52 bb 81 42 13 3c
       -0.0019271927 -0.03855777 -0.0032101306 0.008988024
0002b0 53 3a f8 bb 4a 40 44 bb d9 41 85 3b 48 5d 85 3b
       -0.007575312 -0.0029945546 0.0040666875 0.004069958
0002c0 b9 62 fb 3b a2 1f 58 b9 42 2d 96 bb 17 69 2a 3b
       0.0076716808 -0.0002061115 -0.004583032 0.002600258
0002d0 eb e8 31 ba f0 d9 90 3a bb 67 0e 3b 4d 74 1c bc
       -0.00067867216 0.0011051279 0.0021729309 -0.009549213
0002e0 37 e2 91 bb 52 92 17 3e 69 03 35 bd c2 44 70 bb
       -0.0044520157 0.1480191 -0.044192705 -0.0036662077
0002f0 45 81 1b bb d5 6e 2a bb 4d 84 a1 3b 05 7b 24 3a
       -0.0023728174 -0.0026006002 0.0049291016 0.0006274435
000300 e5 e1 dd 3a eb 90 33 3d 0e ca 7b 39 f6 3d 09 bd
       0.0016928284 0.043839376 0.00024012497 -0.033506356
000310 4d aa 85 bd f9 28 7c ba 36 56 84 bd 20 cb 21 bd
       -0.06526623 -0.00096191425 -0.06461756 -0.039500356
000320 23 a1 d6 3d f6 db e8 3a 54 6b 05 bb 3e f4 72 bc
       0.10479953 0.0017765749 -0.0020358162 -0.01482874
000330 40 18 19 bc 0b 56 1a bc ab 6e 71 bb 58 d0 13 3d
       -0.009344161 -0.009419928 -0.0036839645 0.036087364
000340 cc af ee bb f0 a1 15 3b 23 e4 80 bb 0c cc 45 bd
       -0.00728414 0.0022832118 -0.003933446 -0.048290297
000350 94 81 80 bb ee 7e e8 b9 7d da d7 3c 17 e9 32 ba
       -0.003921697 -0.00044345058 0.0263493 -0.0006824894
000360 c8 89 13 bc 87 69 e9 3a 35 33 85 3c ee fe b4 bb
       -0.009005018 0.0017807939 0.016259769 -0.005523554
000370 f8 b0 b1 bb 11 47 64 bd c5 0f d5 3a 17 6a 39 3e
       -0.0054227076 -0.055731837 0.001625531 0.18106876
000380 b2 61 c0 bb 0c 77 5f 39 92 79 02 39 51 13 a2 b9
       -0.005871021 0.00021311286 0.00012443055 -0.0003091344
000390 7b 27 3c 3a 22 ed 9c 3b 25 0c bf 3a fd 11 2d 3c
       0.0007177514 0.0047890106 0.0014575763 0.010563371
0003a0 60 24 0c 3c b5 0b 64 bd 8c 72 66 bb 31 c7 98 3a
       0.008553594 -0.055675227 -0.003516349 0.0011656043
0003b0 f5 8d 01 ba 78 6a d9 3b 2a b1 94 bb 21 fe ec 3d
       -0.0004942113 0.0066350065 -0.004537721 0.11571909
0003c0 49 7d 10 bc 24 fe 5e 3b 07 5c 5a bb 05 dd 83 3b
       -0.008818933 0.0034025991 -0.0033319013 0.0040241503
0003d0 af e0 c3 bc 38 9f bf 3b 38 4e d9 bb a4 51 2d 3a
       -0.023910848 0.005847838 -0.006631639 0.00066115917
0003e0 3a 2a 2c bd ca 27 5e 3b 9b 68 8c bb a4 9a 1e 3c
       -0.042032458 0.0033898228 -0.004284931 0.009680424
0003f0 3c ae 2d 3b 13 99 86 3a d1 85 d9 bd 38 dd 89 39
       0.0026501557 0.0010269008 -0.106212266 0.00026295497

a2c_network.mu.bias f4 [6]
000000 c8 28 11 be 39 05 c8 3c d4 57 62 be 01 c5 fa bc
       -0.14175713 0.024416553 -0.22103816 -0.030611517
000010 9f 72 6c bd f6 07 0e bf
       -0.0577265 -0.554809

exp_avg f4 [6]
000000 5f f1 06 3b 5b 94 59 b9 0e 60 f4 b9 09 5c 96 3a
       0.0020590646 -0.0002075 -0.00046610873 0.001147152
000010 37 2e 12 3a 89 5d de b9
       0.00055763446 -0.0004241283

exp_avg_sq f4 [6]
000000 b6 af 78 37 5d 03 83 37 48 03 89 37 66 fc 95 37
       1.4822863e-05 1.5617983e-05 1.63332e-05 1.7879716e-05
000010 fa 8f 89 37 69 21 97 37
       1.6398717e-05 1.801616e-05
