logs/rl_games/yam_cube_sort_8192/2026-02-01_05-04-52/nn/last_yam_cube_sort_8192_ep_500_rew_1300.7472.pth (torch, 953214 bytes, 30 tensors)

value_mean_std.running_mean f8 [1]
0	0x3fc5d2df446b354a	0.17049780693779787

value_mean_std.running_var f8 [1]
0	0x3fa82505ffa9eb7c	0.04715746637244586

value_mean_std.count f8 []
0	0x41af400002000000	262144001.0

running_mean_std.running_mean f8 [40]
0	0x3fefe25c1cafd37b	0.9963818130769221
1	0x3f6d654391bdca55	0.0035883254731115346
2	0x3eff4dd2eda836f5	2.9853820573014706e-05
3	0x3f6da3df37991aa9	0.003618179293684538
4	0x3eff4dd2eda836f5	2.9853820573014706e-05
5	0x0000000000000000	0.0
6	0x3fc09e721375932f	0.1298353762641908
7	0xbf96fdaebdb2db52	-0.022452097252166077
8	0x3fc3f26c1611191f	0.15583563878517112
9	0x3fbf6f034b6a65f8	0.1227876719589388
10	0xbf991550ddfe3116	-0.024495376157163205
11	0x3fc3917a9c2f02bb	0.15287716509012292
12	0x3fb1773bc15e4e6b	0.06822560759456457
13	0x3fd3513bc7392fa9	0.3018330998936514
14	0x3f69147081695a01	0.0030615041135135805
15	0x3fe86812f513725a	0.7627043520584025
16	0x3fd374f90342f280	0.30401444738871675
17	0x3f734e9acaf3f466	0.004713635119739745
18	0x3fe86814640d4d4a	0.7627050356044631
19	0x3fd35d89d2629e6e	0.3025841288131009
20	0x3f69e0869c6d6fd2	0.0031588200685472656
21	0x3fe86810a9b124c1	0.7627032579704506
22	0x3f2d8c34b77e0dc7	0.00022543090357994412
23	0x3f2c49f879e98a3a	0.00021582754284839458
24	0xbf27150b64c78bd6	-0.0001761032493866321
25	0x3f33f830d066e343	0.0003047103095031209
26	0x3f2cfa677c5b77eb	0.00022108567480122408
27	0xbf2903e2d41edcec	-0.00019085067657240802
28	0x3f2ef2db3e4a2157	0.00023611952123681987
29	0x3f2ab3b00f3443a7	0.00020371936953058925
30	0xbf25aa26542f3682	-0.0001652881420270321
31	0x3fdd70a0b43b4fc9	0.45999925232649425
32	0x0000000000000000	0.0
33	0x3fe851eb7ce3150e	0.759999984664917
34	0x3fcc28fb7c65400c	0.22000068258284988
35	0x3fc1bc7bb5bad177	0.13856455205462812
36	0x3fe851eb7ce3150e	0.759999984664917
37	0x3fcc28fb7c65400c	0.22000068258284988
38	0xbfc1bc7bb5bad177	-0.13856455205462812
39	0x3fe851eb7ce3150e	0.759999984664917

running_mean_std.running_var f8 [40]
0	0x3f6d88ad9fcf479c	0.0036052123163949467
1	0x3f6d4a810ee51b2c	0.003575565401806277
2	0x3eff4fe0a63dd445	2.986147082091976e-05
3	0x3f6d88a9aed45a7b	0.0036052049750979176
4	0x3eff4fe0a63dd445	2.986147082091976e-05
5	0x3e40624dd0d8caf4	7.629394473042306e-09
6	0x3fa2ae964817b433	0.03648824338947811
7	0x3f6995edd080d3e6	0.0031232495130333214
8	0x3f63fec0d97a68b0	0.0024408117859141196
9	0x3fa420ae85aea2f7	0.039311841791748785
10	0x3f6c0ac9dc8cb09e	0.0034231131179663496
11	0x3f719c2982acb3d2	0.004299318456827588
12	0x3f931d2b5573117d	0.018665959444449143
13	0x3f65345f2f740875	0.0025884493912836045
14	0x3f6dd8e35f71b18e	0.0036434594035680895
15	0x3e97498736c8b907	3.470066108093957e-07
16	0x3f66deae613aeced	0.0027917295318197117
17	0x3f6e872d829bea2c	0.0037265671606949904
18	0x3e931e500fe31993	2.848864965151323e-07
19	0x3f659efc8fdd8dab	0.002639287266832565
20	0x3f6e771afa346e55	0.0037189032460796336
21	0x3e93e73b1b8a5ad9	2.965814718617998e-07
22	0x3f34aa75dc0fd55c	0.00031533601219220996
23	0x3f40f92f10bf79ee	0.0005179862796429993
24	0x3f10ff1848a89a37	6.483636585894672e-05
25	0x3f395cd254571e7d	0.0003870023250240674
26	0x3f41a1f0b57620d1	0.000538103612528063
27	0x3f13557cb3fab993	7.375310542088167e-05
28	0x3f339471f5d96024	0.0002987650130754657
29	0x3f40d65442cf3389	0.0005138312750375555
30	0x3f0f2ddc45e532e9	5.94694945329261e-05
31	0x3e43d9e3dd354b81	9.243904231187132e-09
32	0x3e40624dd0d8caf4	7.629394473042306e-09
33	0x3e49d8ef117d905b	1.2036132576456303e-08
34	0x3e412da249c8145d	7.99924953447275e-09
35	0x3e40b322e64f9e02	7.776427677103203e-09
36	0x3e49d8ef117d905b	1.2036132576456303e-08
37	0x3e412da249c8145d	7.99924953447275e-09
38	0x3e40b322e30a6e02	7.776427586335152e-09
39	0x3e49d8ef117d905b	1.2036132576456303e-08

running_mean_std.count f8 []
0	0x419f400004000000	131072001.0

a2c_network.sigma f4 [6]
0	0xbfd60029	-1.6718799
1	0xbfe0de6b	-1.7567877
2	0xbfdcf133	-1.7261108
3	0xc01746ae	-2.363689
4	0xc00c4c78	-2.1921673
5	0x3edba309	0.42897823

a2c_network.actor_mlp.0.weight f4 [256, 40]
0	0x3db57421	0.088600405
1	0xbd1080b7	-0.035279002
2	0xbe8f4658	-0.27983356
3	0x3dae5ecc	0.08514175
4	0xbe828c71	-0.25497773
5	0xbd8d9062	-0.069123045
6	0x3e19669a	0.14980546
7	0xbc2b1b49	-0.010443517
8	0x3e403ae5	0.18772466
9	0xbe1bce84	-0.15215498
10	0xbe4b416f	-0.1984918
11	0xbe9f8334	-0.31154788
12	0x3d37411c	0.044739828
13	0x3d12e5c6	0.03586366
14	0xbcc931fb	-0.024559965
15	0x3f1663a2	0.5874578
16	0xbd86de3e	-0.06585358
17	0xbc708a97	-0.01468148
18	0x3f1de5b1	0.61678606
19	0xbbb0dedf	-0.005397662
20	0xbce7f62f	-0.028315632
21	0xbf647f6f	-0.8925695
22	0x3cb8cebf	0.022559522
23	0xbdd699f8	-0.10478586
24	0x3eb4478e	0.35210842
25	0x3d2dd1fb	0.04243658
26	0xbdc07f8a	-0.09399326
27	0x3cac21cf	0.021012215
28	0x3dad9d5c	0.084772795
29	0xbe94f380	-0.29092026
30	0xbd2a6614	-0.041601256
31	0x3e387433	0.18013076
32	0x3e1bcbf3	0.15214519
33	0xbe0ab8bd	-0.13547035
34	0xbd9c15f6	-0.07621376
35	0xbcd947d5	-0.02652351
36	0xbde4084f	-0.11134397
37	0x3e142155	0.1446584
38	0xbcf8ac56	-0.030355614
39	0x3e016e74	0.12639791
40	0xbe0f83e4	-0.14015156
41	0xbca5a9d0	-0.020222574
42	0x3dab40ac	0.083619446
43	0x3b846daa	0.0040413933
44	0x3dc3f95f	0.09569048
45	0xbd19af1f	-0.037520524
46	0x3ed76b93	0.4207426
47	0xbf19b3c3	-0.6003992
48	0xbe8a4270	-0.27003813
49	0xbdbbafab	-0.091643654
50	0xbe2c96cb	-0.16854398
51	0x3df1119c	0.11770937
52	0xbc9bdd5b	-0.019026449
53	0xb99c4fc9	-0.00029814083
54	0xbd49a330	-0.049227893
55	0x3e43fe06	0.19139871
56	0x3db4ad7e	0.088221535
57	0x3d56b2fd	0.05241679
58	0x3e6b6101	0.22986223
59	0xbd5453f3	-0.051837873
60	0x3d5e27ff	0.054237362
61	0x3e650c1c	0.223679
62	0x3e213378	0.1574229
63	0xbe9ce4c6	-0.3064329
64	0x3e2729dd	0.16324563
65	0xbd202368	-0.039096266
66	0xbe820aee	-0.25398964
67	0xbe69cb90	-0.22831559
68	0xbd2e18ec	-0.042504236
69	0xbe8f8931	-0.28034356
70	0x3e8eadd2	0.2786699
71	0xbe2fffb2	-0.17187384
72	0x3d479329	0.048724327
73	0xbe06cc6c	-0.13163918
74	0xbdda074e	-0.106459245
75	0x3f9a9fc5	1.2080008
76	0x3d261d65	0.040555377
77	0xbe1124e7	-0.14174233
78	0xbfa8ec65	-1.3197142
79	0xbda16ffd	-0.07882688
80	0xba2ecf79	-0.0006668489
81	0xbc8bc21d	-0.017060334
82	0xbea7f297	-0.3280227
83	0xbdc7fbb5	-0.09764806
84	0xbed9e783	-0.42559442
85	0xbdbcea62	-0.092243925
86	0xbde3d540	-0.111246586
87	0xbe172bc5	-0.1476279
88	0x3dd7144a	0.10501917
89	0xbd5df5cb	-0.054189485
90	0x3dfe488f	0.12416183
91	0x3ccc03e9	0.024904208
92	0xbdce7ce1	-0.100824125
93	0x3d83f12d	0.06442485
94	0x3c00aed2	0.00785418
95	0xbc2f2bfc	-0.010691639
96	0xbccab19c	-0.024742894
97	0x3bd76f4b	0.0065745465
98	0xbea45ca3	-0.32101926
99	0x3d90525d	0.070469595
100	0x3ca4070d	0.020022893
101	0xbeb71958	-0.35761523
102	0xbd85445d	-0.0650718
103	0x3bfd764a	0.0077350484
104	0x3ea209c3	0.31648073
105	0xbe0cb9a1	-0.13742687
106	0x3de274a8	0.11057407
107	0x3e911e7f	0.2834358
108	0xbc9adda3	-0.018904513
109	0x3b89b838	0.004202869
110	0xbc398627	-0.011323488
111	0xbd7b9c22	-0.061428197
112	0xbc8df11a	-0.01732688
113	0xbdd06776	-0.101759836
114	0x3eca649d	0.39529887
115	0x3d8f7b72	0.07005967
116	0x3dcf08cd	0.101091005
117	0x3e9d1afd	0.30684653
118	0xbe093789	-0.13400091
119	0xbd8d19c2	-0.068896785
120	0x3cedf0a2	0.029045407
121	0x3e43700e	0.19085714
122	0x3db8df3f	0.09026956
123	0xbd09fed2	-0.03369028
124	0x3e0b9369	0.13630451
125	0xbcc25128	-0.023720339
126	0xbdea3020	-0.1143496
127	0xbda32046	-0.0796514
128	0x3e0356b8	0.1282605
129	0x3d1cd777	0.03829142
130	0xbb8bb7e3	-0.0042638644
131	0xbe15a0aa	-0.1461207
132	0x3dfe39af	0.12413346
133	0xbd31f7a2	-0.04344905
134	0x3d5cd777	0.05391642
135	0xbcffdfee	-0.031234708
136	0x3df39598	0.11893767
137	0xbe1de9d8	-0.15421236
138	0x3bc2e5d4	0.005947808
139	0x3d18a72e	0.03726881
140	0x3d6cde84	0.057829395
141	0xbe4d636c	-0.20057458
142	0x3e498129	0.19678177
143	0xbda74cb8	-0.0816893
144	0x3e555b9d	0.20835729
145	0x3edf7c65	0.43649593
146	0xbe0cee3b	-0.13762753
147	0x3e044c6b	0.12919776
148	0x3c7c1600	0.015386105
149	0xbdee5637	-0.11637538
150	0x3dbcffb7	0.09228461
151	0x3d4a7f3e	0.049437754
152	0x3dcefc78	0.10106748
153	0x3dffe960	0.124956846
154	0xbe930546	-0.2871496
155	0xbe366274	-0.17810994
156	0xbc0d358d	-0.0086187245
157	0xbe8fd70d	-0.28093758
158	0x3e36c898	0.17849958
159	0x3d08bc70	0.033382833
160	0xbe059354	-0.13044482
161	0xbd03e135	-0.032197196
162	0xbed88537	-0.42289135
163	0x3d62dbad	0.05538528
164	0xbf105c5c	-0.5639093
165	0xbdc33b35	-0.09532777
166	0xbe23f1e1	-0.16010238
167	0xbd629f3b	-0.055327635
168	0xbe02ea19	-0.12784614
169	0x3da884da	0.082284644
170	0x3d1c3070	0.03813213
171	0x3e6a1ab8	0.22861755
172	0xbcc741ce	-0.02432337
173	0x3c1911f0	0.009342656
174	0x3cbee654	0.023303188
175	0xbd3e2a2a	-0.04642693
176	0xbd0778cd	-0.03307419
177	0x3c3741ac	0.011185091
178	0xbe675387	-0.22590457
179	0xbccf2f64	-0.025291152
180	0x3c9ae1a2	0.018906418
181	0xbd45dfbf	-0.048309084
182	0xbe2c2987	-0.16812716
183	0xbe0509ed	-0.12992068
184	0x3cf76775	0.0302007
185	0xbe4d601f	-0.20056199
186	0x3d7bfedf	0.06152236
187	0x3d9a5067	0.07534867
188	0xbd0f5fd7	-0.03500351
189	0xbe4d7fa4	-0.20068222
190	0x3e473643	0.19454293
191	0x3eb0106c	0.3438753
192	0x3d9b776e	0.07591139
193	0x3e08b2d2	0.13349465
194	0x3d9d7937	0.076891355
195	0x3ef499ac	0.47773492
196	0xba9127b5	-0.0011074456
197	0xbe01371a	-0.12618676
198	0xbf12ccb9	-0.5734363
199	0xbe16fd47	-0.14745055
200	0x3c600f55	0.01367553
201	0xbd88bc9c	-0.066765994
202	0x3e5b4653	0.21413545
203	0xbd062510	-0.03275019
204	0x3e5e5b04	0.21714407
205	0xbde3e9f3	-0.11128607
206	0xbe15878c	-0.14602488
207	0x3dd8222c	0.10553393
208	0x3bbbd78c	0.0057324823
209	0x3e28f3c4	0.16499239
210	0x3b8ce848	0.004300151
211	0xbda03555	-0.07822672
212	0xbd5fcd29	-0.054639015
213	0x3d257840	0.040397882
214	0x3bae59c7	0.005320761
215	0xbdd44d5a	-0.10366316
216	0xbd65b654	-0.056082085
217	0x3ba319c2	0.004977436
218	0xbd61e732	-0.055152126
219	0x3d7aa6dd	0.06119429
220	0x3d94aaf1	0.07259167
221	0xbe9ef48b	-0.31045946
222	0x3c928b59	0.017888712
223	0xbc23c515	-0.0099957185
224	0x3b6dc200	0.0036278963
225	0xbd8c6c9c	-0.06856653
226	0xbe270f67	-0.1631447
227	0xbde1265b	-0.10993644
228	0x3c850490	0.016237527
229	0xbe5c7cbf	-0.21531962
230	0x3e22891a	0.15872613
231	0xbe316ca1	-0.17326595
232	0x3dc90695	0.098157085
233	0x3e076848	0.13223374
234	0x3f015333	0.50517577
235	0xbb9471ad	-0.004530153
236	0xbded88f8	-0.1159839
237	0x3ec84aae	0.39119476
238	0x3d51dc88	0.051235706
239	0xbe12e2c4	-0.14344317
240	0xbdd5f110	-0.1044637
241	0x3d6c84cd	0.057743836
242	0xbec4af05	-0.3841478
243	0xbc34c7e1	-0.011033983
244	0xbedeb1df	-0.4349508
245	0xbd4d98e9	-0.050194655
246	0xbe501c13	-0.2032321
247	0x3e3c2c83	0.18376355
248	0x3e37b2e8	0.17939341
249	0x3dc2848d	0.09497938
250	0xbe1dcf2a	-0.15411058
251	0xbd0f4d20	-0.03498566
252	0xbe996419	-0.2995918
253	0xbd3f2848	-0.046669275
254	0x3d79b436	0.06096288
255	0x3f2a61fa	0.6655575

a2c_network.actor_mlp.0.bias f4 [256]
0	0xbd39e756	-0.045386635
1	0x3cde770a	0.027156372
2	0x3c067dec	0.008208733
3	0xbd9baaee	-0.076009616
4	0x3d0ce79e	0.034400575
5	0x3dd95aec	0.10613045
6	0x3dd8f8f2	0.105943576
7	0x3d8950d1	0.06704868
8	0xbd76fb6e	-0.060298376
9	0xbd8e4afa	-0.069478944
10	0x3c81f76c	0.01586505
11	0x3dd3236e	0.10309492
12	0x3d833805	0.06407169
13	0xbe14361b	-0.14473765
14	0x3dd89440	0.105751514
15	0x3e91385b	0.28363308
16	0xbc13aa51	-0.009012775
17	0xbd53fcd3	-0.051754784
18	0x3d2e70ab	0.042587917
19	0x3e257949	0.16159548
20	0x3e13ecaf	0.14445756
21	0xbf0f7687	-0.56040233
22	0xbc2b1e49	-0.010444232
23	0xbd567fc8	-0.052367955
24	0xbe705bf5	-0.23472579
25	0xbc6dcd6a	-0.014514307
26	0xbc225265	-0.00990734
27	0xbeb63f3c	-0.3559512
28	0xbf6fe09c	-0.937021
29	0x3e96848b	0.29397997
30	0xbd85d21a	-0.06534214
31	0xbdbd708b	-0.092499815
32	0xbf16ac0b	-0.58856267
33	0xbdc82b5e	-0.09773897
34	0xbf32f961	-0.6991177
35	0xbe1fc161	-0.15601112
36	0x3decdc73	0.11565485
37	0xbec07110	-0.3758626
38	0xbea082c6	-0.31349772
39	0xbe28d131	-0.1648605
40	0xbd4f5721	-0.050620202
41	0xbd8228d2	-0.06355442
42	0xbd30211c	-0.043000326
43	0x3ea4886d	0.32135335
44	0x3d8b9333	0.068151854
45	0x3e5080cb	0.2036163
46	0xbe26c68f	-0.16286682
47	0xbe82ae26	-0.2552349
48	0x3e6a36c3	0.22872452
49	0xbe08ac79	-0.13347043
50	0xbd1ec755	-0.038764317
51	0x3d7718bc	0.060326323
52	0xbe5cc0d8	-0.21557939
53	0x3dc3beef	0.09557902
54	0x3e365392	0.17805317
55	0xbca13240	-0.019677281
56	0x3d962a13	0.07332244
57	0xbcaba3d0	-0.020952135
58	0xbce55dfa	-0.027998913
59	0x3d682473	0.056675386
60	0xbecc1d98	-0.39866328
61	0xbd113ff4	-0.03546138
62	0x3db35a8e	0.08757506
63	0x3d86242d	0.06549869
64	0x3ded4dc7	0.115871005
65	0x3d18d9bc	0.037317023
66	0xbd80e4c0	-0.062936306
67	0xbe074ffa	-0.13214102
68	0xbedd7340	-0.4325199
69	0x3e135f02	0.14391711
70	0xbe8a9a67	-0.27070925
71	0xbd0dbd6c	-0.034604475
72	0xbd3bb7ce	-0.045829587
73	0x3eac3be4	0.33639443
74	0xbe2b765d	-0.16744371
75	0xbd7753c9	-0.060382638
76	0xbd3cc2a4	-0.04608406
77	0xbccdf2ef	-0.025140254
78	0x3e10c9e9	0.14139523
79	0x3bbf7232	0.0058424706
80	0x3d832ff0	0.06405628
81	0x3c90e68b	0.017688056
82	0x3da4b973	0.08043184
83	0x3e7e4e94	0.24834663
84	0xbea34d79	-0.31895044
85	0xbd13599c	-0.03597413
86	0x3f064f40	0.52464676
87	0xbea463e4	-0.3210746
88	0x3e0de6ed	0.13857622
89	0xbd397514	-0.04527767
90	0x3e65fc69	0.22459568
91	0xbe509246	-0.20368299
92	0x3e01364e	0.12618372
93	0xbe5ad8fe	-0.21371838
94	0x3dee63e2	0.11640145
95	0x3d908c8c	0.07058057
96	0x3d911dbe	0.07085751
97	0xbd6768da	-0.05649648
98	0xbc1e2aea	-0.009653786
99	0xbed95218	-0.42445445
100	0xbbb0a2ce	-0.0053905016
101	0x3d9fa943	0.07795956
102	0xbdf74644	-0.12073949
103	0xbdafa21f	-0.08575844
104	0xbf2066d6	-0.62656915
105	0xbd3ac909	-0.04560188
106	0xbe225543	-0.15852837
107	0x3afa09af	0.0019076372
108	0xbe319ac3	-0.17344193
109	0xbe169f82	-0.14709285
110	0x3d2e82d3	0.042605232
111	0xbd3f82af	-0.04675549
112	0xbde8be63	-0.113644384
113	0x3e1567c5	0.14590366
114	0xbdd5971f	-0.10429215
115	0x393ed3e6	0.0001819875
116	0xbdc7c6b0	-0.097546935
117	0xbe0a4145	-0.13501461
118	0xbb5d7a73	-0.003379491
119	0xbe74150a	-0.23836151
120	0x3dc34c2b	0.09536012
121	0xbce767fa	-0.028247822
122	0x3e9b2160	0.302989
123	0xbdacbbbb	-0.08434244
124	0x3e5fd00c	0.21856707
125	0x3dfd349b	0.12363549
126	0x3e2358ec	0.1595189
127	0xbd8aefe6	-0.06784038
128	0x3d601be1	0.054714087
129	0xbe422128	-0.1895796
130	0xbe9d5f15	-0.30736604
131	0xbd82aac9	-0.06380231
132	0x3d580f12	0.052748747
133	0x3c8169b2	0.01579747
134	0xbe02a5ae	-0.12758514
135	0xbdc30dfd	-0.095241524
136	0xbe08c2de	-0.13355586
137	0x3de41ca3	0.111382745
138	0x3e0fce62	0.14043573
139	0xbef960b1	-0.48706582
140	0xbeb79318	-0.3585441
141	0x3e463890	0.19357514
142	0xbee351af	-0.44398257
143	0x3e591a63	0.21201472
144	0x3e09649f	0.1341729
145	0x3e08a094	0.13342506
146	0xbde3059c	-0.11085054
147	0xbe5bc04e	-0.21460077
148	0xbd31e912	-0.043435164
149	0x3d01f794	0.03173025
150	0xbcb84a49	-0.02249636
151	0x3c7600ea	0.015014866
152	0x3e156b4e	0.14591715
153	0x3d7bde17	0.0614911
154	0xbea1a5cd	-0.31571808
155	0xbe86146d	-0.2618746
156	0x3dc9edaf	0.09859788
157	0x3ded2cc3	0.11580803
158	0xbe542a85	-0.20719345
159	0x3d01ba3e	0.031671755
160	0xbcdb982e	-0.026805963
161	0x3e281966	0.16415939
162	0x3e8d13c3	0.2755414
163	0xbd471063	-0.048599612
164	0xbea350f2	-0.31897694
165	0x3d107c39	0.035274718
166	0x3dde175e	0.10844301
167	0xbd3de567	-0.046361353
168	0x3db41f5d	0.087950446
169	0x3d069987	0.03286126
170	0x3e5c9f6d	0.21545191
171	0x3e2d9e5c	0.1695494
172	0xbdbd2085	-0.09234718
173	0xbd94e897	-0.072709255
174	0x3ce46b3f	0.02788317
175	0xbdd754b5	-0.105142035
176	0xbe3e4367	-0.185804
177	0xbe740af8	-0.23832309
178	0xbea3461a	-0.3188942
179	0x3d866659	0.0656249
180	0x3cec5884	0.028850801
181	0x3bd4cc87	0.006494108
182	0x3df34991	0.11879266
183	0xbe0349a2	-0.12821057
184	0x3c157d2a	0.00912408
185	0x3a2c8463	0.00065810065
186	0x3d9375d8	0.07200211
187	0xbd8ed573	-0.06974306
188	0x3e39f045	0.18158062
189	0x3d9299e1	0.07158256
190	0xbd089599	-0.033345792
191	0xbd892374	-0.06696215
192	0xbdab21dd	-0.08356068
193	0xbe361cec	-0.1778447
194	0xbe08c513	-0.13356428
195	0x3dae8edd	0.08523343
196	0xbe6f4a11	-0.23368098
197	0x3e5c6c45	0.21525677
198	0xbcce0623	-0.02514941
199	0x3de03a45	0.10948614
200	0xbb08b577	-0.0020860115
201	0xbdf0be3d	-0.11755035
202	0xbe9d753a	-0.307535
203	0x3d9b80e3	0.075929426
204	0x3dab1d80	0.08355236
205	0x3c6909f7	0.014223567
206	0x3d4f2518	0.050572485
207	0x3b96561c	0.0045879018
208	0x3e8326cd	0.2561554
209	0x3d63911f	0.05555832
210	0xbd0777ca	-0.033073224
211	0xbe9a53d4	-0.3014208
212	0xbdcbfec8	-0.09960705
213	0xbe0603ab	-0.13087337
214	0x3d54b2b0	0.051928222
215	0xbbab9212	-0.005235919
216	0x3e3796bb	0.17928593
217	0xbd08f402	-0.03343583
218	0x3e68664f	0.22695278
219	0x3e1bc15a	0.15210477
220	0x3dffab5b	0.12483855
221	0x3e2bdb56	0.16782889
222	0x3d8aecd3	0.06783452
223	0xbe021af0	-0.12705588
224	0xbc461128	-0.012089051
225	0xbd8a6b99	-0.06758804
226	0x3c020d5d	0.007937756
227	0x3c87cde1	0.016577663
228	0xbe6e009d	-0.23242421
229	0xbd37f94a	-0.044915475
230	0x3e70bdf0	0.23509955
231	0xbe2505aa	-0.16115442
232	0xbd4caae9	-0.04996768
233	0x3ebb98dc	0.3664006
234	0xbdc6a86c	-0.09700093
235	0xbdb6481c	-0.089004725
236	0xbca1c313	-0.019746339
237	0x3e67d82a	0.22641054
238	0x3e03e015	0.1287845
239	0xbe2db203	-0.16962437
240	0x3e3cdbc2	0.18443206
241	0xbe2ae120	-0.16687441
242	0xbf19ba27	-0.6004967
243	0xbef24278	-0.47316337
244	0xbc87d2f8	-0.01658009
245	0x3c75983d	0.01498991
246	0xbd80a53e	-0.062815174
247	0x3cc041ca	0.02346887
248	0x3ebd85c0	0.37016106
249	0x3e0f36d7	0.13985763
250	0xbdbf6597	-0.093455486
251	0x3ccd9d91	0.025099548
252	0xbdfc8e69	-0.1233185
253	0xbe26895e	-0.16263339
254	0xbcc1d8ea	-0.023663003
255	0xbdfa69b7	-0.12227195

a2c_network.actor_mlp.2.weight f4 [256, 256]
0	0x3c9681c7	0.01837243
1	0xbef2a0ec	-0.473884
2	0x3d4c8e69	0.0499405
3	0x3dfac528	0.12244636
4	0xbcee7de6	-0.029112767
5	0x3c42427e	0.011856673
6	0xbe1b2672	-0.15151384
7	0xbe14ffc9	-0.145507
8	0xbe55a5e4	-0.20864064
9	0x3c7bd2ba	0.015370065
10	0xbca55a32	-0.02018461
11	0xbd43457e	-0.047673695
12	0xbdb1c6e0	-0.086805105
13	0x3d1a644c	0.037693307
14	0xbe8ec183	-0.27882013
15	0xbd5c2148	-0.053742677
16	0x3e394e8a	0.18096367
17	0xbf2bb97f	-0.6707992
18	0xbe7d96d8	-0.24764574
19	0xbe892b5b	-0.2679089
20	0xbe34f276	-0.17670617
21	0xbea0bade	-0.31392568
22	0x3c81b54c	0.01583352
23	0x3e377c7d	0.17918582
24	0xbd5700dd	-0.052491058
25	0xbe187a2e	-0.14890358
26	0xbe2ce7fd	-0.16885372
27	0xbe2a4ec5	-0.1663161
28	0x3d02fe8a	0.03198103
29	0xbe8097f8	-0.25115943
30	0xbec0193f	-0.3751926
31	0xbddf1928	-0.1089347
32	0xbd9e98ee	-0.07744013
33	0xbca4653f	-0.02006781
34	0xbacac264	-0.001546931
35	0x3e17e3f3	0.1483305
36	0xbe8d783f	-0.27630803
37	0x3dc4301c	0.09579489
38	0x3d9c44e0	0.07630324
39	0xbe1d319c	-0.15350956
40	0xbd92b217	-0.07162874
41	0xbc6fa57f	-0.01462686
42	0xbd947797	-0.072493725
43	0xbe9a9f80	-0.30199814
44	0xbe478b3e	-0.1948671
45	0xbe0deb3f	-0.1385927
46	0x3e87efdf	0.26550195
47	0xbde61d51	-0.112360604
48	0xbe4b6048	-0.19860947
49	0xbdd4987f	-0.10380649
50	0xbcd63015	-0.026145974
51	0x3d6611e0	0.05616939
52	0xbe2ece6c	-0.17070931
53	0xbcf31fa5	-0.029678175
54	0xbde8b49d	-0.11362574
55	0xbe327de6	-0.17430839
56	0xbec78055	-0.38965097
57	0x3cb0eb6d	0.021596635
58	0xbe3a653a	-0.18202677
59	0xbe96748c	-0.29385793
60	0xbae57cd6	-0.0017508517
61	0xbe31d5c0	-0.17366695
62	0x3ca64d47	0.02030052
63	0xbdfcf3ee	-0.123512134
64	0xbe467683	-0.19381146
65	0x3da67c87	0.081292205
66	0x3cf0eec7	0.029410733
67	0x3d61fd7b	0.05517338
68	0xbe87133e	-0.26381868
69	0xbe40e9db	-0.18839209
70	0x3e2a356e	0.16621944
71	0xbd00da7b	-0.03145836
72	0xbde7e30e	-0.11322604
73	0xbd457bfd	-0.048213948
74	0xbc860561	-0.016359987
75	0x3cc2f0f3	0.023796534
76	0xbe2361a0	-0.1595521
77	0xbd535a79	-0.051599953
78	0xbce77ed9	-0.028258728
79	0xbe5e76b8	-0.21724975
80	0xbd76fc42	-0.060299166
81	0xbe1da592	-0.15395191
82	0x3e07d611	0.13265254
83	0xbe6cfaf3	-0.23142605
84	0x3ea74540	0.3267002
85	0xbe26ff93	-0.16308431
86	0xbe01ddce	-0.12682268
87	0xbdd3c3d0	-0.10340083
88	0xbe4bdcf3	-0.19908504
89	0xbd070d5f	-0.032971736
90	0xbe561e8d	-0.20910092
91	0xbed959bb	-0.4245127
92	0xbe1b069e	-0.15139243
93	0x3e072972	0.13199404
94	0x3d734bf6	0.059398614
95	0xbd9d8ba2	-0.076926485
96	0xbdbdbb56	-0.09264247
97	0x3c9d3633	0.019190883
98	0xbca4f546	-0.020136487
99	0x3e0d8d3b	0.13823406
100	0xbd456241	-0.048189405
101	0xbe689cfe	-0.22716138
102	0x3e221b38	0.15830696
103	0xbd33f2c5	-0.043932695
104	0xbe9b3132	-0.3031097
105	0xbd475c80	-0.0486722
106	0x3ca1c30d	0.019746328
107	0xbd9478f7	-0.07249635
108	0x3d851f06	0.06500058
109	0xbdb032a3	-0.08603408
110	0x3e1ca42c	0.15297002
111	0xbe784733	-0.2424591
112	0xbb1299b5	-0.0022369449
113	0xbe4af170	-0.19818664
114	0x3cd1e85f	0.025623498
115	0xbe43d306	-0.19123468
116	0x3d1cdb48	0.03829506
117	0x3e0c4bd6	0.13700804
118	0xbd52bd4b	-0.051450055
119	0xbd1217fe	-0.035667412
120	0xbe268133	-0.16260223
121	0x3da3293c	0.07966849
122	0xbe51df50	-0.20495343
123	0xbe318469	-0.17335667
124	0xbe0f4282	-0.13990214
125	0xbe473c38	-0.19456565
126	0xbdd214d0	-0.10257876
127	0xbe688558	-0.22707117
128	0xbdc5e07d	-0.09661958
129	0xbe2d52d9	-0.16926135
130	0x3cc18c66	0.023626518
131	0x3dd03947	0.10167175
132	0xbc6b0e01	-0.0143466005
133	0x3d8596af	0.06522881
134	0xbd1e8bd2	-0.03870756
135	0xbcc2c26c	-0.023774348
136	0x3c65e8cd	0.014032555
137	0xbcc9a4f5	-0.02461479
138	0xbd0d4cac	-0.034496948
139	0x3c0618c7	0.008184618
140	0x3e52716d	0.20551081
141	0xbe892670	-0.26787138
142	0xbde6231b	-0.112371646
143	0xbdbca6dd	-0.09211514
144	0xbe9c378a	-0.30511123
145	0x3d76e5d8	0.06027779
146	0xbd8233c0	-0.06357527
147	0xbe73d2c8	-0.23810875
148	0xbe32e78e	-0.17471144
149	0x3dbf1f4f	0.093321435
150	0xbe16df33	-0.14733581
151	0xbd09628d	-0.03354125
152	0xbc79aabf	-0.015238463
153	0xbe4e6cda	-0.20158711
154	0x3d29f9c4	0.04149796
155	0x3e2a7885	0.16647537
156	0xbe472e62	-0.19451287
157	0xbc1d8d05	-0.009616141
158	0x3d88ab29	0.06673271
159	0x3dd663d3	0.10468259
160	0xbea1946e	-0.31558555
161	0xbe4433ca	-0.19160381
162	0xbe2fd463	-0.17170863
163	0xbce50b1f	-0.027959405
164	0xbd55890f	-0.052132662
165	0xbcec023e	-0.028809663
166	0xbb971987	-0.0046111974
167	0xbe72022f	-0.23633645
168	0xbe69d922	-0.22836736
169	0xbe4ee58b	-0.20204751
170	0xbe72bee5	-0.23705633
171	0xbe8c7c84	-0.27438748
172	0xbe080f94	-0.13287193
173	0xbd690ba0	-0.056895852
174	0xbd882534	-0.06647721
175	0x3e4330c8	0.19061577
176	0x3e52cf14	0.20586807
177	0x3d5e0928	0.05420795
178	0xbe18c71c	-0.14919704
179	0xbde532f1	-0.11191357
180	0xbcf346ee	-0.029696908
181	0x3cdd18b9	0.026989328
182	0xbe41c3b1	-0.18922307
183	0xbc29a293	-0.010353702
184	0x3d65ea39	0.056131575
185	0xbb71e10a	-0.0036907815
186	0xbe8250ba	-0.25452214
187	0x3deb1a27	0.114795975
188	0xbe555422	-0.20832875
189	0xbe3345b2	-0.17507055
190	0xbde503af	-0.11182343
191	0xbe4d3537	-0.20039831
192	0xbe18e890	-0.14932466
193	0xbcb0ff18	-0.021606013
194	0xbcd560f2	-0.026047204
195	0xbd04fdd9	-0.03246865
196	0x3cc21366	0.02369089
197	0xbe95aa49	-0.2923148
198	0x3dd28faa	0.10281308
199	0xbe4ef7f9	-0.20211782
200	0xbe0523a6	-0.1300188
201	0xbd480850	-0.048836052
202	0x3d74999d	0.05971681
203	0xbe3c94a2	-0.18416074
204	0xbd3a5984	-0.045495525
205	0xbdc533a1	-0.09628988
206	0x3df85b5a	0.12126799
207	0xbddee2d7	-0.1088311
208	0x3c65c537	0.01402407
209	0xbe29dfc8	-0.16589272
210	0xbd78ae37	-0.06071302
211	0xbdb5be97	-0.08874243
212	0x3df3e224	0.11908367
213	0xbea35079	-0.31897333
214	0x3c10bee6	0.008834576
215	0x3cbc582e	0.022991266
216	0xbe30698e	-0.17227766
217	0x3bade751	0.005307116
218	0xbdb74660	-0.0894897
219	0xbe309677	-0.17244898
220	0xbc9d8d8a	-0.01923253
221	0xbc8e304a	-0.01735701
222	0xbeba4829	-0.3638318
223	0x3d8d83ce	0.069099054
224	0xbedff4df	-0.4374151
225	0x3c43cffc	0.011951443
226	0xbd9b126f	-0.07571875
227	0xbdcfd7e4	-0.101486
228	0xbd998c1c	-0.07497427
229	0x3c0a2443	0.008431497
230	0xbe919cfc	-0.28440082
231	0x3db93cd9	0.09044809
232	0x3e0b7f08	0.13622677
233	0xbd8bfdb8	-0.068355024
234	0xbdfb9686	-0.122845694
235	0xbcdb2aed	-0.026753867
236	0xbd7aa2ce	-0.06119042
237	0xbdba05d1	-0.09083141
238	0xbdaea2d4	-0.08527151
239	0x3d0c1fb1	0.03420991
240	0xbe6430f4	-0.22284299
241	0x3d4d932d	0.050189186
242	0xbdeda178	-0.11603063
243	0xbdfcbe2a	-0.123409584
244	0x3cd9f0b7	0.02660404
245	0xbce7f832	-0.028316591
246	0xbd2c7bea	-0.04211036
247	0xbd836469	-0.06415636
248	0xbd835ba2	-0.06413962
249	0xbe585692	-0.21126774
250	0x3d993e17	0.07482546
251	0x3e02f7e6	0.12789878
252	0x3d447d0e	0.047970824
253	0x3df717aa	0.120650604
254	0xbdabbe22	-0.08385874
255	0x3d114a01	0.035470966

a2c_network.actor_mlp.2.bias f4 [256]
0	0xbbdba4ae	-0.006702981
1	0x3d5b25c3	0.05350281
2	0xbca31c30	-0.019910902
3	0xbca99ff6	-0.020706158
4	0xbcc3a2cf	-0.023881344
5	0xbbe3bed1	-0.0069502373
6	0xbc5b7dce	-0.013396693
7	0x3a5ae024	0.00083494396
8	0xbbe22304	-0.006901147
9	0x3d1eb71e	0.038748853
10	0xbe5c344b	-0.21504323
11	0xbbfaf402	-0.0076584825
12	0xbcbd4de3	-0.023108428
13	0x3d8163b3	0.06317844
14	0xbd23bf3e	-0.039977305
15	0x3b7e01a9	0.0038758314
16	0x3c2addfa	0.0104289
17	0xbc1f9da5	-0.009742175
18	0xbd91249c	-0.07087061
19	0xbdaadc63	-0.08342817
20	0xbbd9380a	-0.006628995
21	0xbce46c43	-0.027883654
22	0xbc972722	-0.018451277
23	0xbe86af06	-0.26305407
24	0xbd18bf44	-0.03729178
25	0x3d13255f	0.03592431
26	0xbc9eca75	-0.019383648
27	0xbc7a845e	-0.015290348
28	0x3c6decaa	0.014521757
29	0x3d854a1f	0.06508278
30	0xbe0e1b56	-0.13877615
31	0xbe64d8b2	-0.22348288
32	0x3d233f0b	0.039855044
33	0x3ce83fb9	0.028350698
34	0xbcda7ec0	-0.026671767
35	0xbe459370	-0.19294524
36	0x3b01c9b0	0.0019804053
37	0x3ce6175e	0.028087314
38	0xbc36f483	-0.011166695
39	0xbcd16306	-0.025559913
40	0x3cb3ac3b	0.021932712
41	0x3ca48df8	0.020087227
42	0x3ce6343e	0.028101083
43	0x3c1b6502	0.009484531
44	0x3c262851	0.010141448
45	0x3d01f4ca	0.03172759
46	0x3cbd31fb	0.023095122
47	0xbd44646e	-0.04794734
48	0x3c6a3686	0.014295226
49	0x3d902650	0.070385575
50	0xbe2b5b0e	-0.16733953
51	0x3d54662a	0.051855244
52	0xbc3f6a2c	-0.011683028
53	0xbce9fa2d	-0.028561676
54	0x3a9de9cd	0.0012047827
55	0x3cb30ecb	0.02185764
56	0x3c826c91	0.01592091
57	0x38d7b1f1	0.00010285143
58	0xba784df6	-0.00094720663
59	0xbd57b5bf	-0.05266356
60	0x3be77fbf	0.007064789
61	0xbda5a5e3	-0.08088281
62	0x3cd56b3d	0.026052112
63	0x3d0334c4	0.032032743
64	0xbcdd8c8a	-0.027044553
65	0x3d13c5d4	0.036077335
66	0x3d4f06f8	0.050543755
67	0x3ca5dba9	0.020246344
68	0x3bc8a489	0.0061231297
69	0x3d0cf599	0.034413908
70	0xbe0df487	-0.13862811
71	0x3cb3efae	0.021964874
72	0xbced8647	-0.028994692
73	0x3d19186d	0.03737681
74	0x393d71a7	0.00018066783
75	0xbce8edea	-0.028433759
76	0xbd64bce2	-0.055844195
77	0x3c9fd106	0.01950885
78	0x3b04d73b	0.002026989
79	0x3ba57758	0.0050496273
80	0xbda4f276	-0.08054058
81	0x3d3ba3f6	0.045810662
82	0xbc0b44cc	-0.008500289
83	0x3d7770d9	0.060410354
84	0x3c84b1a2	0.016197983
85	0xbcab31e1	-0.020897808
86	0xbd1082a9	-0.035280857
87	0xbd6e6865	-0.058205027
88	0xbdc4da5c	-0.09611961
89	0xbc5cdd82	-0.013480546
90	0xbc96f438	-0.018427
91	0x3cc33387	0.023828281
92	0x3c16aa2b	0.009195845
93	0x3c26074b	0.010133575
94	0xbd2f06f6	-0.042731248
95	0xbe554c0f	-0.20829795
96	0xbcea1b6a	-0.028577525
97	0xbc992502	-0.018694405
98	0x3cf2e19d	0.029648596
99	0xbbf9d714	-0.0076245163
100	0xbecb0ef6	-0.39659852
101	0xbd001682	-0.031271465
102	0x3bd6c579	0.0065543023
103	0x3cc5259a	0.024065781
104	0xbb21410a	-0.0024605417
105	0x3c1ac01d	0.009445217
106	0x3d11d4e7	0.03560343
107	0x3d122b40	0.035685778
108	0xbb618de9	-0.003441686
109	0xbe895e29	-0.2682965
110	0xbb0235ab	-0.0019868414
111	0xbc6774ae	-0.01412694
112	0x3db0c507	0.0863133
113	0xbda90606	-0.08253102
114	0xbdf80bfe	-0.12111662
115	0x3c91bf3a	0.01779138
116	0xbb775164	-0.0037737722
117	0xbc561849	-0.0130673135
118	0xbcd45ed2	-0.02592412
119	0xbc427e65	-0.011870955
120	0xbd3586b3	-0.044317912
121	0xbccc9ba4	-0.024976559
122	0xbd0cfe6c	-0.034422323
123	0x3b13b29e	0.0022536884
124	0xbb47c9b9	-0.0030485226
125	0xbc84fab8	-0.016232833
126	0xbed5b2ba	-0.4173792
127	0xbc823a4e	-0.015896942
128	0xbba868cc	-0.005139446
129	0xbe120970	-0.14261413
130	0xbc834761	-0.016025247
131	0xbe1992ce	-0.14997408
132	0x3d086d3d	0.033307303
133	0x3ac1a48d	0.0014773771
134	0x3bc651d5	0.0060522356
135	0xbcf955de	-0.030436452
136	0xbddac40b	-0.106819235
137	0xbe8c8694	-0.27446425
138	0xbdbd5722	-0.09245135
139	0x3d4a14d1	0.04933626
140	0xbc01c4ba	-0.007920438
141	0xbad74560	-0.0016423874
142	0xbe82114e	-0.25403827
143	0xbd8063fd	-0.06269071
144	0x3d187a42	0.03722597
145	0xbc3f2bb3	-0.011668134
146	0xbc6bfee9	-0.014404037
147	0xbd346b46	-0.044047616
148	0xbc2731ff	-0.010204791
149	0x39414992	0.00018433321
150	0xbcef4fa5	-0.029212782
151	0xbc3fc248	-0.011704035
152	0x3c9c495f	0.019077955
153	0xbce65cbd	-0.028120393
154	0x3a6afc21	0.0008963962
155	0x3bf3aa18	0.0074360482
156	0xbceb2418	-0.028703734
157	0xbe851a89	-0.25996807
158	0xbef7eefe	-0.48424524
159	0x3cdc2765	0.026874254
160	0xbbd4c5ce	-0.0064933067
161	0x3d68a95a	0.05680213
162	0xbcdbe9dd	-0.026844913
163	0xbdddad76	-0.10824101
164	0xbd156da1	-0.036481503
165	0x3ae1ef76	0.0017237503
166	0x3d15163a	0.03639815
167	0x3c2dd309	0.010609397
168	0xbbb1ef1c	-0.0054301154
169	0x3d2ae42d	0.04172151
170	0xbcc19d8a	-0.02363469
171	0x3cef89d3	0.029240524
172	0x3c3dfa2e	0.011595292
173	0xbc0276f5	-0.007962932
174	0x3c3e519f	0.01161614
175	0x3bb84320	0.0056232363
176	0x3da8bc89	0.08239085
177	0x3c68e7e8	0.014215447
178	0xbbd1f794	-0.0064076874
179	0xbcce58f6	-0.025188904
180	0x3c94d0ea	0.018166024
181	0x3d9f36a7	0.07774096
182	0xbd0c1fb1	-0.03420991
183	0xbd3a430d	-0.0454741
184	0x3db9aadf	0.09065794
185	0x3d2c9514	0.04213436
186	0xbc0ae4ed	-0.008477432
187	0xbbd9e62c	-0.006649753
188	0xbc87063c	-0.016482465
189	0x3c5fcbd7	0.013659439
190	0x3d35f22f	0.044420417
191	0x3d4045db	0.04694162
192	0x3d0b7842	0.034050234
193	0xbe6c33cc	-0.23066634
194	0x3b87a1b4	0.0041391496
195	0xbd95e1d7	-0.07318466
196	0x3cc7b72c	0.024379335
197	0xbe42b17f	-0.19013022
198	0xbd6d84ae	-0.05798786
199	0x3bd9c8e5	0.006646263
200	0x3de18ad5	0.11012808
201	0xbd1d607c	-0.038422093
202	0x3b4e7c85	0.0031507325
203	0x3ccc1f88	0.024917379
204	0x3c64bf4b	0.013961623
205	0x3d6acd2c	0.057324573
206	0xbbe27137	-0.006910469
207	0x3db4a668	0.08820802
208	0x399f8aa7	0.00030430147
209	0x3ceeaa79	0.029134022
210	0x3b58f0a5	0.003310242
211	0xbe5eb233	-0.21747665
212	0xbc77d48f	-0.0151263615
213	0xbd941cb0	-0.07232034
214	0x3d415281	0.047197822
215	0xbc676e57	-0.014125428
216	0xbd49a3b4	-0.049228385
217	0xbc42d958	-0.011892639
218	0x3cb116ae	0.02161726
219	0x3d0f42c1	0.03497577
220	0x3d1e5b25	0.03866114
221	0xbe0f49c4	-0.13992983
222	0x3cd9453e	0.026522275
223	0xbe6e6227	-0.2327963
224	0x3d175c56	0.036953293
225	0xbbcfc33d	-0.006340413
226	0xbd115fbd	-0.035491694
227	0x3c5eda16	0.0136018
228	0xbc8cf30c	-0.017205738
229	0xbcdb09ec	-0.02673813
230	0x3c5b9965	0.013403271
231	0xbc726ca6	-0.014796412
232	0x3d0ff3fe	0.0351448
233	0x3d825025	0.063629426
234	0xba918622	-0.0011102597
235	0xbca5af3b	-0.020225158
236	0x3c92a23d	0.017899627
237	0xbcb2ddd4	-0.021834292
238	0x3ce8d4e9	0.028421836
239	0xbe396ef3	-0.1810873
240	0xbd08fd32	-0.03344459
241	0x3c441dfe	0.011970041
242	0x3c438ca4	0.011935387
243	0x3d8682d9	0.06567926
244	0x3ca5cf1d	0.02024036
245	0x3cc35772	0.023845408
246	0x3c250bb1	0.010073588
247	0x3d5320d8	0.051544994
248	0x3d02baad	0.03191631
249	0x3cff02ef	0.031129329
250	0x3d23596a	0.039880194
251	0x3c2fe69f	0.010736137
252	0xbe5e298c	-0.21695536
253	0x3d091d0c	0.033474967
254	0xbbd69e9c	-0.0065496694
255	0xbc7a3153	-0.015270549

a2c_network.value.weight f4 [1, 256]
0	0x3b816502	0.0039488086
1	0x3c032702	0.008004906
2	0x3a18a955	0.0005823572
3	0x3b951273	0.0045493185
4	0xbd735fea	-0.059417643
5	0xbc26b728	-0.010175504
6	0xbb58ce81	-0.003308207
7	0x3cd6e94b	0.02623429
8	0x3a099650	0.00052485336
9	0x3c6457b0	0.013936922
10	0xbd11a255	-0.035555203
11	0xb896f15e	-7.1975155e-05
12	0xbb478fe0	-0.0030450746
13	0x3b17c80a	0.0023160004
14	0x3b8ac0a2	0.0042343894
15	0xbbff4640	-0.007790357
16	0x3e073df6	0.1320723
17	0x3c6b57ae	0.014364166
18	0xbc8c41e1	-0.017121257
19	0xbc1941f9	-0.009354108
20	0x3b5ff2c4	0.00341718
21	0xbc1d0b40	-0.009585202
22	0xbba3fb82	-0.0050043473
23	0xbd22854d	-0.039677907
24	0x3b6c6210	0.0036069192
25	0xbce15827	-0.027507855
26	0x3c413a2e	0.011793656
27	0x3c52881d	0.012849835
28	0x3c28ff71	0.010314808
29	0x3abaf037	0.0014262263
30	0x3cd98aa9	0.026555376
31	0xbd672102	-0.056427963
32	0x3c6b61a4	0.014366541
33	0xbce04bc7	-0.027379883
34	0x39e9fada	0.00044628122
35	0xbd20e71e	-0.03928291
36	0xbba7197d	-0.005099474
37	0x3bfd0f9f	0.0077228094
38	0xbc86e326	-0.016465735
39	0x3bb118d4	0.005404571
40	0xbb430144	-0.0029755393
41	0x3b08729e	0.002082027
42	0x3c0ff5e8	0.008786656
43	0x3ba7859b	0.0051123626
44	0xbcf76b88	-0.030202642
45	0x3b030e57	0.001999756
46	0xbc74900b	-0.014926921
47	0xbcd9716c	-0.026543342
48	0x398bc65e	0.0002665994
49	0x3b6d6218	0.0036221799
50	0x3d87262b	0.06599077
51	0x3bca8b0a	0.0061811255
52	0x3c8b8423	0.017030781
53	0x3bd07930	0.006362103
54	0x3b1358e7	0.002248341
55	0x3c00bad6	0.007857045
56	0x3ac91acb	0.0015343068
57	0x3bbc2b77	0.005742486
58	0x3b2f23cc	0.0026724217
59	0x3b572db0	0.0032833628
60	0xbb8c577c	-0.00428289
61	0xbd643015	-0.055709917
62	0xbe08fdea	-0.1337811
63	0x3b3195d7	0.0027097368
64	0x3cf381b7	0.029724939
65	0xbc73786c	-0.014860254
66	0xbafbe294	-0.0019217306
67	0xbb8a5995	-0.004222105
68	0x3b34f17d	0.0027609759
69	0xbc56396d	-0.013075215
70	0x3bf00d36	0.0073257936
71	0x3d23e4d9	0.040013168
72	0xba1ad637	-0.0005906554
73	0xbc44166f	-0.011968239
74	0xbbf79618	-0.0075557344
75	0x3bb3de6b	0.005489161
76	0x3d9910a1	0.07473875
77	0x3acf7532	0.0015827774
78	0xbc4aeafc	-0.012385126
79	0x3bae72ef	0.0053237597
80	0xbd33e63d	-0.043920744
81	0xbbe65904	-0.0070296545
82	0x3c57e288	0.013176568
83	0xbc118930	-0.008882806
84	0x3c7f0b5f	0.015566676
85	0xbca3daec	-0.020001851
86	0x3c96cc2d	0.018407905
87	0x3ccc613f	0.024948714
88	0xbd1aa5bb	-0.03775571
89	0x3bcbc061	0.0062180017
90	0xbd984aa7	-0.07436114
91	0x3c633c80	0.013869405
92	0xbc2af7bc	-0.010435041
93	0x3b1ab402	0.0023605828
94	0xbc2ed02f	-0.010669752
95	0xbe420026	-0.18945369
96	0x3ba16672	0.0049255425
97	0xbcbdeaa9	-0.023183184
98	0x3cc3d8e3	0.02390713
99	0x3c5c4c97	0.013445995
100	0x3cfcc098	0.030853555
101	0x3b94f086	0.004545274
102	0xbc0faa1d	-0.0087685855
103	0xba62c0bb	-0.0008649935
104	0xbca739f7	-0.020413382
105	0xbb13eb8b	-0.0022570814
106	0x3bf0de62	0.007350729
107	0x397ded6d	0.00024216408
108	0x3b5407bd	0.0032353245
109	0xbcc9ada7	-0.024618937
110	0x3c8f1329	0.017465191
111	0xbb0cb522	-0.0021470268
112	0x3e2556e0	0.16146421
113	0x3d02317c	0.031785473
114	0x3cb35c81	0.021894695
115	0x3dbacb90	0.09120858
116	0xbb68bcdb	-0.0035512957
117	0xbcc529b8	-0.024067745
118	0x3c6283d4	0.013825376
119	0xbb847248	-0.0040419437
120	0xbadd3977	-0.0016878088
121	0xbc6ef666	-0.014585113
122	0xbca1addb	-0.019736221
123	0xbca87fc1	-0.02056873
124	0x3ba984bb	0.0051732934
125	0x3de9827d	0.11401842
126	0xbe893bb2	-0.26803356
127	0xbbc74ea6	-0.0060823737
128	0x3c4eb129	0.01261548
129	0x3d5c4a34	0.053781703
130	0x3cd171f4	0.025567032
131	0x3d35185a	0.044212677
132	0x3ca28eac	0.019843422
133	0xbcae7244	-0.02129472
134	0xbce3cbb3	-0.027807092
135	0x3e7df873	0.24801807
136	0xbdb2c69a	-0.087292865
137	0x3daf760c	0.085674375
138	0xbd58ade2	-0.052900203
139	0xbba4b579	-0.005026516
140	0x3bece6a1	0.0072296415
141	0xbbaba38f	-0.0052380036
142	0xbe2dfa17	-0.16989933
143	0x3d126071	0.035736505
144	0xbcbfca98	-0.023412034
145	0xbb61bf6e	-0.0034446376
146	0x3e7429f2	0.23844126
147	0x3b7b3bb5	0.0038335149
148	0xbb74d1af	-0.0037356426
149	0x3b5d1862	0.0033736457
150	0x3dfb0687	0.12257104
151	0xbd13d4da	-0.036091663
152	0xbca326cb	-0.019915959
153	0xbd0fec1f	-0.035137292
154	0x3c04ecd7	0.008113108
155	0xbbdf12b7	-0.006807651
156	0x3bec4204	0.007210018
157	0xbe0f1246	-0.13971815
158	0xbdb9a3be	-0.090644345
159	0xbcba098b	-0.022709629
160	0xbc16d826	-0.009206807
161	0x3c8e7fdc	0.017394952
162	0x3bd8942b	0.00660946
163	0x3c3a4ab5	0.011370351
164	0x3b92c4cb	0.004479026
165	0x3b898b6d	0.004197529
166	0xbb64b4e6	-0.0034897863
167	0x3ca37bb2	0.019956443
168	0x3c4594a4	0.0120593645
169	0xbe1bbc72	-0.15208605
170	0x3c7c0822	0.015382798
171	0xbc006152	-0.007835703
172	0xbc83c910	-0.016087085
173	0x3bd33cae	0.0064464426
174	0x3b094b0d	0.0020949275
175	0x3bc6a053	0.0060615926
176	0xbc3c130a	-0.011479149
177	0x3b3e6a26	0.0029054969
178	0x3c5d8e12	0.013522642
179	0x3bbef903	0.0058280244
180	0x3c4dfeb0	0.012572929
181	0x3b5c92aa	0.0033656755
182	0xbc0ddc38	-0.008658461
183	0x3c299321	0.01035002
184	0x3aa5c94f	0.0012648496
185	0xbdccbf33	-0.09997406
186	0x3dbd595d	0.0924556
187	0xbc657f7b	-0.0140074445
188	0xbc267ae1	-0.010161133
189	0x3990c97d	0.0002761594
190	0x3b991e90	0.004672833
191	0x3b628da6	0.0034569292
192	0x3cc42512	0.023943458
193	0xbd2fe0bc	-0.042938933
194	0x3b980a60	0.0046399087
195	0xbc4eeaf8	-0.012629263
196	0xbded5094	-0.11587635
197	0xbe28ca4e	-0.16483423
198	0xbb89bdac	-0.004203519
199	0xbd799f4f	-0.060942944
200	0xbe0527a3	-0.13003401
201	0xba28d5d2	-0.0006440553
202	0xbad2c030	-0.0016079005
203	0xbd00a563	-0.031407725
204	0x3c80b756	0.015712421
205	0x38ec1db9	0.00011258893
206	0xbd0994c1	-0.03358913
207	0xbe19449e	-0.14967582
208	0xba1bb0a4	-0.0005939102
209	0x3c0cf876	0.00860416
210	0xbc2283bc	-0.009919103
211	0xbdd85d1c	-0.10564634
212	0x3ca0112f	0.019539444
213	0x3d211ff0	0.0393371
214	0x3cc4c420	0.024019301
215	0x3b80eb25	0.0039342814
216	0x3c240c61	0.010012717
217	0x3c5383b1	0.012909816
218	0xbe45bc7d	-0.19310184
219	0x3c47d6d7	0.012197218
220	0x3c9353ff	0.017984388
221	0x3d6d4fc9	0.057937417
222	0x3c327cdc	0.010894027
223	0xbc88a002	-0.01667786
224	0x3bf83824	0.007575052
225	0xbc21c615	-0.009873887
226	0xbbb9e49d	-0.005673005
227	0x3c70f967	0.0147079
228	0x39ba3e52	0.00035523117
229	0x3c22284b	0.009897302
230	0x3bb22a94	0.0054372046
231	0x3dd854eb	0.10563072
232	0x3b8ad471	0.004236751
233	0x3b9a4fa6	0.004709202
234	0xba70d5b8	-0.000918712
235	0xbb83c0b7	-0.004020776
236	0xbc3c3ab2	-0.011488603
237	0x3c2ecc36	0.010668805
238	0xbbe38a52	-0.0069439793
239	0x3ba51c12	0.0050387466
240	0xbca56b35	-0.020192722
241	0xb9a612c6	-0.00031675975
242	0x3c2dd9c3	0.0106110005
243	0x3c74f885	0.01495183
244	0xbe3fa90d	-0.18716832
245	0xba81687d	-0.0009873059
246	0xbc790059	-0.015197837
247	0x3b5075e8	0.003180856
248	0xbe8916f9	-0.2677534
249	0x3ba56317	0.005047213
250	0x3c525e78	0.012839906
251	0x3d5db09f	0.054123517
252	0xbdb18d6f	-0.086695544
253	0x3c1d3b27	0.009596623
254	0x3cf2a7ac	0.029620968
255	0x3c6a3f65	0.014297341

a2c_network.mu.weight f4 [6, 256]
0	0x3e2e1a57	0.17002235
1	0x3b7248cc	0.003696966
2	0xba0cfecc	-0.0005378544
3	0xbb04c2c7	-0.0020257698
4	0xbcabc713	-0.02096895
5	0xbb1560e0	-0.0022793338
6	0x3983f4cb	0.00025168652
7	0x3beca9d8	0.0072223954
8	0xba13f2a4	-0.0005643761
9	0xba0c0911	-0.0005341927
10	0xbce230a6	-0.027611088
11	0x3a0bf7da	0.0005339362
12	0x3af516b4	0.0018698783
13	0xbba57a3d	-0.0050499723
14	0x3a8008b1	0.0009768215
15	0x3af6d46f	0.0018831621
16	0xbcb7c442	-0.02243245
17	0x3b391492	0.002824102
18	0x3e245e7b	0.16051666
19	0xbdc68ea8	-0.09695178
20	0x3b6aa65b	0.0035804722
21	0xbc2aaed5	-0.01041766
22	0xbb2c4e44	-0.0026291767
23	0xbe9ebbcd	-0.31002656
24	0xbb437311	-0.0029823224
25	0xbbb06a82	-0.0053837905
26	0xb8759f11	-5.8560694e-05
27	0xb99be71b	-0.0002973609
28	0x396d765f	0.00022646178
29	0x3bc1c81d	0.005913748
30	0x3db6ad41	0.08919764
31	0x3e15ea41	0.14640142
32	0xb8fc3941	-0.00012026961
33	0xbd12ed81	-0.035871033
34	0x3b8eee77	0.0043619233
35	0xbd4eb373	-0.050464105
36	0xba446e4f	-0.0007493244
37	0x3b1e1acd	0.0024124861
38	0x3c5ffaf8	0.013670675
39	0x3aa6a19a	0.0012712956
40	0x3b236b99	0.002493596
41	0xbb1ebbcb	-0.002422082
42	0xbb1b968c	-0.0023740856
43	0x3b26b4bc	0.0025437316
44	0xb7fddae3	-3.0261877e-05
45	0xbae1adb9	-0.0017217911
46	0xbb4aeac7	-0.0030962692
47	0xbd959b24	-0.07304981
48	0x3a8962b1	0.0010481683
49	0xba521765	-0.00080143503
50	0x3dd1ba9d	0.10240672
51	0x3a0778cf	0.0005167843
52	0x3b524ade	0.0032088081
53	0x3b34f96d	0.002761449
54	0x3bd01e47	0.0063512656
55	0xb964f75e	-0.00021835926
56	0x3b384969	0.0028119928
57	0x3ae5b6f3	0.0017525837
58	0x3bd44bca	0.0064787613
59	0xbc83ad93	-0.016073978
60	0xb92f37c4	-0.00016710075
61	0x3e11d5e6	0.14241752
62	0x3b112b94	0.0022151219
63	0x3d87b657	0.066265754
64	0xba0dab90	-0.0005404288
65	0x3ab67924	0.0013921601
66	0xbbb5da09	-0.0055496735
67	0xb86f2495	-5.701611e-05
68	0xbae4d3fc	-0.0017458196
69	0x3b5bde31	0.0033549184
70	0xbba9e286	-0.0051844744
71	0xbb3ad74b	-0.0028509672
72	0x3a759b54	0.0009369154
73	0xbb8c82de	-0.0042880615
74	0xbb4a7ee4	-0.0030898387
75	0x3a48401d	0.0007638948
76	0x3ddd112e	0.107942924
77	0x3af8f0f5	0.0018992709
78	0x3b4c0e65	0.003113651
79	0xbafd83bf	-0.0019341632
80	0x3db582a0	0.08862805
81	0x3a1b1f21	0.00059174193
82	0x3ab83d9d	0.0014056448
83	0x3bf375f0	0.0074298307
84	0x3adb04c1	0.0016709791
85	0x3b7de196	0.0038739196
86	0x3b93b972	0.004508191
87	0x3e04a1b1	0.12952305
88	0xbdb2cfaf	-0.08731019
89	0xbb630722	-0.0034641703
90	0x3d4149bb	0.047189455
91	0x3c15a947	0.009134597
92	0x3ba1c502	0.0049368152
93	0xba205419	-0.0006116047
94	0x3a4dfef3	0.000785812
95	0xbdbc611e	-0.09198211
96	0xba6e37bf	-0.00090872863
97	0xbb1eb259	-0.002421519
98	0x3b84b013	0.00404931
99	0x3b475e91	0.0030421356
100	0xbe55eaa6	-0.20890293
101	0xbb16cd5c	-0.0023010587
102	0xbb860cb7	-0.004090871
103	0x3aeaa1b9	0.001790098
104	0xb9871218	-0.00025762687
105	0x3b252a63	0.0025202266
106	0x3afa6192	0.0019102565
107	0xbb22d4dc	-0.0024846112
108	0x3b1f9423	0.002434977
109	0xbe1438dc	-0.14474815
110	0x3b840021	0.0040283357
111	0x3b8e7873	0.0043478548
112	0x3d87ed51	0.066370614
113	0x3d6a3e07	0.05718806
114	0xbaa0ca9a	-0.0012267411
115	0xbdda9f48	-0.10674912
116	0xba30a5ba	-0.00067385624
117	0x3b1c28a6	0.002382794
118	0x3bde10dc	0.006776912
119	0xbba556e0	-0.0050457567
120	0xbb084fed	-0.0020799593
121	0x3a8b3714	0.0010621273
122	0x3a9b5dc5	0.0011853507
123	0x3b4b4859	0.0031018464
124	0x3b26bc22	0.0025441726
125	0xbb9ebcfc	-0.004844306
126	0x3c599632	0.013280438
127	0xbb88cbc5	-0.004174682
128	0x3abd08dc	0.0014422196
129	0xbc0fe9a0	-0.008783728
130	0x3a6eae91	0.0009104992
131	0xbd3d0f96	-0.046157442
132	0x3b4f0152	0.003158648
133	0xbd4bf97c	-0.049798474
134	0xbaf0240b	-0.0018321289
135	0x3cf5451c	0.02994018
136	0xbdf3678e	-0.11884986
137	0xbe12dc26	-0.14341792
138	0xbdaf2250	-0.085514665
139	0x3bb89cbd	0.005633919
140	0x3b127980	0.0022350252
141	0x3abda720	0.0014469363
142	0xbc9c6b67	-0.019094182
143	0x3b381936	0.0028091199
144	0xbcd926f9	-0.026507841
145	0xbba2e3d1	-0.0049710055
146	0xbc247764	-0.010038231
147	0x39663336	0.00021953587
148	0xb9d29417	-0.00040164657
149	0xbb101a6a	-0.00219884
150	0x3d0f8bcd	0.035045434
151	0xb99436f8	-0.00028269715
152	0xba96e9ac	-0.0011513731
153	0x3b2229d7	0.0024744177
154	0xba712817	-0.0009199394
155	0x3b269f35	0.0025424485
156	0x3c29cdd8	0.010364018
157	0xbdac656c	-0.08417782
158	0x3e052e22	0.1300588
159	0x3991a804	0.00027781737
160	0xbb8e6079	-0.0043449965
161	0x3bcb71b0	0.006208621
162	0xbc38529a	-0.0112501625
163	0x3d404c26	0.04694762
164	0xbaf95702	-0.0019023123
165	0x3a9222f6	0.0011149335
166	0xba81bf2b	-0.0009898891
167	0x3b6ae3cc	0.0035841344
168	0xbbb7d0df	-0.005609616
169	0x3c1e236f	0.009652003
170	0x3b7041b1	0.003666025
171	0xbb95f863	-0.004576729
172	0xb9356941	-0.00017300715
173	0xba41daef	-0.00073949894
174	0xbb6f3a39	-0.003650321
175	0x3b46cffe	0.0030336375
176	0x3bc1bcae	0.005912385
177	0xba135ed6	-0.00056217366
178	0xbb65ba64	-0.0035053724
179	0x3ab91521	0.0014120677
180	0x3b975757	0.004618566
181	0x3b8912d4	0.0041831527
182	0x39e054b7	0.00042787727
183	0x3a4ea2af	0.0007882518
184	0xba1265a2	-0.00055846025
185	0x3e2a8baf	0.16654848
186	0xbd52e702	-0.051489837
187	0xbd78a35c	-0.060702667
188	0xbbd11dac	-0.006381711
189	0x3b07cf4d	0.0020722926
190	0x3b108a7c	0.00220552
191	0xbafc4e72	-0.0019249453
192	0x3ba81d8d	0.005130476
193	0x3d3183eb	0.043338697
194	0xbbb5b12b	-0.0055448017
195	0xbd317ebe	-0.04333376
196	0xbd461662	-0.04836119
197	0xbbee1a05	-0.0072662854
198	0xbdcec14b	-0.100954615
199	0xbbffe2c0	-0.007809013
200	0x3da226d2	0.07917561
201	0x39c185bb	0.00036911466
202	0xbbd62378	-0.00653499
203	0xbc3eef3a	-0.011653716
204	0x3b2f7a31	0.0026775713
205	0xbad945f6	-0.0016576636
206	0xbb4e0ac3	-0.003143952
207	0x3d8f50d4	0.069978386
208	0xbad2fe82	-0.0016097578
209	0x3b95e5e4	0.0045745242
210	0xba358f5d	-0.0006925965
211	0xbc9e690a	-0.019337196
212	0x3a72cd3a	0.00092621485
213	0xbd3ebb14	-0.04656513
214	0x3d02574e	0.03182154
215	0x3ba93814	0.0051641557
216	0x3b8e7fb6	0.0043487204
217	0xbb5f396c	-0.0034061326
218	0x3bda4876	0.00666147
219	0xbadf6cfc	-0.001704603
220	0x3bb10b68	0.005402971
221	0x3b95af43	0.004568012
222	0xba82aff9	-0.0009970657
223	0x3e2d1c59	0.16905345
224	0xbaa4d39e	-0.0012575274
225	0xbb61180b	-0.0034346606
226	0x3b727650	0.003699679
227	0x3ae4757f	0.0017430036
228	0xb939aa9f	-0.00017706536
229	0x3b201565	0.0024426815
230	0x3b1274e8	0.0022347514
231	0xbb9fb0e1	-0.0048733805
232	0xbb9e4b4f	-0.004830755
233	0xbd8f39e3	-0.06993463
234	0x3b7ff6df	0.0039057059
235	0xba4faf83	-0.00079225766
236	0x3b624255	0.00345244
237	0xbb984957	-0.0046474147
238	0xbaa8a395	-0.0012866134
239	0x3dffac55	0.124840416
240	0xbbe1637d	-0.006878315
241	0x3b282bf2	0.002566096
242	0x3abeeb9c	0.0014566067
243	0x3a2e4a44	0.00066486397
244	0xbd1a9b07	-0.0377455
245	0xba5d1883	-0.00084341335
246	0xbb6069d7	-0.0034242773
247	0x3b59be50	0.0033225007
248	0xbd5a1692	-0.05324418
249	0x3b5fa7de	0.0034127156
250	0x3bd27152	0.0064222002
251	0xbc6b8cbd	-0.014376816
252	0xbbb69c53	-0.0055728345
253	0xba48d588	-0.0007661213
254	0xbd9ef8b6	-0.077622816
255	0xbb92a84b	-0.0044756285

a2c_network.mu.bias f4 [6]
0	0xbe0d4c96	-0.13798746
1	0x3c3de309	0.011589774
2	0xbe6039dc	-0.21897072
3	0xbcea8ab3	-0.02863059
4	0xbd593f2e	-0.05303877
5	0xbee9b7e3	-0.45648107

exp_avg f4 [6]
0	0x383aabda	4.4505905e-05
1	0xba9cfc43	-0.0011977035
2	0xba60d801	-0.0008577109
3	0xb9f48634	-0.00046639296
4	0x3a557795	0.0008143124
5	0xb99a6a54	-0.0002945239

exp_avg_sq f4 [6]
0	0x37b41138	2.146569e-05
1	0x37a2cc92	1.9407165e-05
2	0x37ad3358	2.0647116e-05
3	0x37c99028	2.4028195e-05
4	0x37ad4414	2.0654908e-05
5	0x37aa3bd6	2.0293443e-05
