logs/rl_games/yam_cube_sort_8192/2026-02-01_05-04-52/nn/last_yam_cube_sort_8192_ep_400_rew_1006.0292.pth (torch, 953214 bytes, 30 tensors)

value_mean_std.running_mean f8 [1]
00000000: f443 416b 2e0c bf3f
0.12127962225464711

value_mean_std.running_var f8 [1]
00000000: 9740 1aff 14fa a63f
0.044876724377105486

value_mean_std.count f8 []
00000000: 0000 0002 0000 a941
209715201.0

running_mean_std.running_mean f8 [40]
00000000: e4d5 0500 87db ef3f f20f 1126 5c15 723f
00000010: 98db e8d3 a390 033f 9ce1 b86d 7d3c 723f
00000020: 98db e8d3 a390 033f 0000 0000 0000 0000
00000030: 67c9 de28 9559 b43f f191 5cf9 6f43 8ebf
00000040: 8cbb d807 6cfd c23f 0a09 516a c723 b23f
00000050: 48fe 0cf1 fab5 91bf fc5c 3383 ba3f c23f
00000060: 7a0d 410a 6cff b33f 8213 3003 8653 d33f
00000070: 6df3 58b2 8e23 6c3f a7a0 903b 1468 e83f
00000080: ab26 411b ce68 d33f 1c8d 07ab 0e63 743f
00000090: 8144 8120 1468 e83f fec4 42ae b05e d33f
000000a0: d522 df48 e60b 703f 9563 069a 1168 e83f
000000b0: 0dc3 c43d 3dbd 2e3f f71a d27c 5702 303f
000000c0: 2d43 5107 1ca6 28bf fe11 fbd8 4fbd 333f
000000d0: 3a31 fe61 4cbb 303f 5e1b 8f3b 954a 2abf
000000e0: aa68 9ec4 f199 2f3f 79fc 3250 56c5 2e3f
000000f0: 9817 aea3 ece6 26bf b423 4ab3 a070 dd3f
00000100: 0000 0000 0000 0000 60da 1b7c eb51 e83f
00000110: 1090 7e7b fb28 cc3f d085 29b5 7bbc c13f
00000120: 60da 1b7c eb51 e83f 1090 7e7b fb28 cc3f
00000130: d085 29b5 7bbc c1bf 60da 1b7c eb51 e83f
0.9955477714963163 0.004414901691294647 3.731727564509137e-05 0.004452218966939727 3.731727564509137e-05 0.0 0.07949192283448313 -0.01477706413022248
0.1483588255227598 0.07085844369524721 -0.0172957620263772 0.14256984144478924 0.07811618090004471 0.30197286902721754 0.0034349238437968916 0.7627049601915318
0.30327179586002256 0.004977280900195138 0.7627049097883544 0.3026544286504559 0.003917598294670828 0.7627037056255285 0.00023452160429251364 0.00024428020407933577
-0.00018805591722295106 0.0003012008610137339 0.00025530447782597424 -0.0002005870026364443 0.00024109913129849908 0.0002347629416359109 -0.00017472876228568908 0.4599992514491149
0.0 0.7599999832153337 0.22000068216323188 0.1385645517903371 0.7599999832153337 0.22000068216323188 -0.1385645517903371 0.7599999832153337

running_mean_std.running_var f8 [40]
00000000: e041 e48a dd27 723f 6daf 9353 1201 723f
00000010: f079 6cd5 e291 033f b92a 0215 db27 723f
00000020: f079 6cd5 e291 033f 0138 6744 e17a 443e
00000030: d5c4 6162 f161 a03f 33ed 5970 0f11 6d3f
00000040: 26d0 099a 0192 643f f04e 86a3 08c5 a13f
00000050: 4406 7f7c 313a 703f d8b5 b03c d6db 723f
00000060: 0292 9233 86b0 953f 6cf4 5026 235d 663f
00000070: df91 6c6b a4c2 703f 8a13 1b42 9ee3 9c3e
00000080: d61b b365 9d48 673f f67a ee15 5f01 713f
00000090: c57b de6e a9b8 963e 6a70 337a 56be 663f
000000a0: 34f8 f7d1 e904 713f c9a7 6a4a fdaa 983e
000000b0: 496f acc0 2ef0 383f c1fe c3d8 bfc7 443f
000000c0: a051 071a e488 143f de7c 42e4 dd3c 3c3f
000000d0: 9871 acbb 8714 453f 11fc d94e 41ea 153f
000000e0: 2aca ced3 8507 373f 1d06 a2ab 2f89 443f
000000f0: 4e3f 51a2 a094 123f 7dc5 7e12 58d0 483e
00000100: 0138 6744 e17a 443e a0af 396a 9527 503e
00000110: 3d63 9618 f678 453e 851a 1459 d8df 443e
00000120: a0af 396a 9527 503e 3d63 9618 f678 453e
00000130: 84ea ce55 d8df 443e a0af 396a 9527 503e
0.004432549858635032 0.0043955531957456774 3.7326559939144274e-05 0.0044325406926286 3.7326559939144274e-05 9.536743073112983e-09 0.03199724508238836 0.003548174051329811
0.0025110274585191826 0.034706373178009176 0.003961747461234181 0.0046041840205765724 0.02118119897626692 0.002729958202080376 0.004091875328218169 4.304816362095271e-07
0.0028422426381413497 0.004151698521041016 3.3857428049539713e-07 0.002776307011670244 0.004155076370350886 3.675807626427587e-07 0.0003805269376912957 0.0006341635467208216
7.833378049976756e-05 0.00043087403560977493 0.000643316532066107 8.359931572420066e-05 0.0003514005400645804 0.0006267054334473974 7.087927277038311e-05 1.1554846482275697e-08
9.536743073112983e-09 1.5045165681367494e-08 9.998914379456873e-09 9.720397627880619e-09 1.5045165681367494e-08 9.998914379456873e-09 9.720397537112566e-09 1.5045165681367494e-08

running_mean_std.count f8 []
00000000: 0000 0004 0000 9941
104857601.0

a2c_network.sigma f4 [6]
00000000: cb70 bdbf d1e9 c7bf 744f c7bf 6a02 0ac0
00000010: 8364 01c0 b889 0c3f
-1.4800047 -1.561823 -1.5571122 -2.1563973 -2.0217597 0.5489764

a2c_network.actor_mlp.0.weight f4 [256, 40]
00000000: 8c74 a83d f1f6 ecbc 030d 91be 5f5f bb3d
00000010: 1c53 84be 6290 8dbd e386 0e3e 6a23 19bc
00000020: 50f6 3a3e f129 1dbe 88ba 45be a65f 9cbe
00000030: 1448 533d 70db eb3c 4934 07bd b381 063f
00000040: eb01 2ebd 0c55 47bc c251 243f 9345 0bbc
00000050: a4df f3bc cd0b 5abf de94 023d 9e67 01be
00000060: da94 ad3e c634 aa3c 0960 49bd 7f84 893c
00000070: 40d8 f83d 52d6 58be 5aaf 07bd d841 3a3e
00000080: f3cb 1b3e bdb8 0abe 9556 c63c 9a24 303e
00000090: 4f08 e4bd 34f7 7a3e 8b32 6cbe 746e 013e
000000a0: 68eb 12be 7044 8abc 77b4 a43d 4e4f f13b
000000b0: 2a6d bd3d 1faf 19bd 64d8 d93e 58ab 1abf
000000c0: 6218 85be 35df adbd 8ea1 29be 353d f23d
000000d0: 8686 fcbc 5291 6abc 24fd 15bd e4ae 7f3e
000000e0: a974 ea3d a008 533d 47cf 503e 7ac3 70bc
000000f0: 7816 0c3d eda6 763e c079 313e 887a 9dbe
00000100: 581a 1d3e 83c6 b1bb fd96 84be b09f 38be
00000110: 7881 3cbd 66e6 84be 10b4 a93e 991b ddbd
00000120: 2993 473d 6ccc 06be 8c51 c8bd 37b4 a43f
00000130: 651d 263d fb49 08be da3c b3bf fd6f a1bd
00000140: bf03 703c 1ccc 04bd ef4c a3be 8f5b e7bd
00000150: db41 d5be 62ea bcbd 3efd e3bd a84e 0fbe
00000160: 7de0 eb3d eb9b 76bd 0f07 db3d d69d 203d
00000170: a993 d9bd e64c b43d 243c 803c db20 a33c
00000180: 42d9 96bc 3fe5 d4bb b3bb a3be 2239 a33d
00000190: 94a1 c03c b1b1 9dbe c753 4dbd f141 a53d
000001a0: 0b94 8a3e 5be3 03be 3255 ef3d 0071 683e
000001b0: a6da 623c 6221 63bc c8fe 133d c1bd ba3c
000001c0: 1af1 8dbc 7667 d0bd 30af 893e 7a72 133e
000001d0: cd08 cf3d 59cb 383e df3c 56be c219 8dbd
000001e0: fb06 873d c4a0 1d3e f1e8 cd3d bb8a 90bd
000001f0: 5018 163e 2851 c2bc a7f9 0bbe 5521 9bbd
00000200: 39db 143e 3773 963c 061f edbb a972 08be
00000210: d08b cf3d 8ae3 bdbd 10f6 213d fd4b 67bd
00000220: 801a c13d ae5e d4bd dac5 24bb 6cca 933b
00000230: 2256 1e3d a94f 30be ce6a 793e af61 66bb
00000240: 3b2c 803e 783b df3e 2b1c fbbd 3fb1 c23d
00000250: 12f4 923c db40 21be 3367 a53d a613 803d
00000260: 78fc ce3d 60e9 ff3d 9a7f 82be 5b80 70bd
00000270: 8d35 0dbc c1a2 7ebe 4433 723d 70bc 083d
00000280: b78e d8bd ac17 69bd d890 d7be 5f53 fb3c
00000290: 34e2 0fbf 353b c3bd b2c6 16be 5bbe 4fbd
000002a0: 3a68 fdbd bf74 ab3d 4885 fe3c 43a0 643e
000002b0: 9b2a 16bd 5f73 a93c 7088 e23c 7226 08bd
000002c0: ade0 14bd 290c 993b 9f5a 5cbe 9881 fd39
000002d0: 8205 c83c 24d1 0ebd 3b95 31be d31c 1abe
000002e0: 0541 3a3d fcdd 42be 8ffd 603d dfaf c43d
000002f0: d8f1 2dbd ba77 58be e9a7 253e a7fd d93e
00000300: 6e77 9b3d d2b2 083e 2274 3cbd 49e2 df3e
00000310: b527 91ba b310 7fbe 6544 08bf 47fd 16be
00000320: 0a51 ac3b 7fd8 6ebd 6319 5a3e ef52 c7bc
00000330: 142e 5d3e f3e9 e3bd 32d2 09be df84 ed3d
00000340: 7cdb d43b c4f7 233e 7de2 1fbc e9a8 acbd
00000350: 4b4e 75bd 2069 103d 1c4c 3439 27a6 bdbd
00000360: 3622 81bd 9943 973c 8223 34bd f390 4f3d
00000370: bfc1 813d 1262 99be b004 293d ac0b 9cbd
00000380: 21cf 19bc 1fce 97bd 5a41 5ebe fa4f 13bd
00000390: 9c0b 27bd a5c1 50be 5109 173e 9481 43be
000003a0: 9506 c93d 4868 073e a96e c53e 4c8e d7bd
000003b0: f888 edbd f012 8b3e 1d50 1d3e c4e2 12be
000003c0: d2b5 cdbd b102 5c3d ba15 babe 0ea5 76bc
000003d0: 9418 d4be e998 4dbd b01e 69be 2349 3d3e
000003e0: cc3b 223e e8c5 913d 1e0b 08be 13ad 59bd
000003f0: 98e6 97be 854a b7bc 425b bb3d 97de 253f
0.082253546 -0.028926345 -0.2833024 0.0914905 -0.25844657 -0.069123045 0.13918643 -0.009346822
0.18258023 -0.1534803 -0.19309437 -0.30541724 0.05158241 0.02879116 -0.033008847 0.52541655
-0.042482298 -0.012166273 0.6418725 -0.0085004745 -0.029769726 -0.85174257 0.031880252 -0.12637183
0.33902627 0.020777117 -0.049163852 0.016786812 0.121506214 -0.21175507 -0.033126213 0.1818918
0.15214519 -0.13547035 0.024211207 0.17201462 -0.11134397 0.24508363 -0.23066156 0.12639791
-0.14347613 -0.016878337 0.080422334 0.00736419 0.09249337 -0.037520524 0.42547905 -0.604177
-0.25995165 -0.08489839 -0.16565534 0.118280806 -0.030825865 -0.014316874 -0.036618367 0.24969059
0.114480324 0.051521897 0.2039157 -0.014695043 0.034201115 0.24087115 0.173316 -0.30757546
0.1534208 -0.005425276 -0.25896445 -0.18029666 -0.04602191 -0.2595703 0.3314519 -0.107962795
0.048724327 -0.13163918 -0.09781179 1.2867497 0.040555377 -0.13309471 -1.4002945 -0.07882688
0.014649331 -0.032421216 -0.31894633 -0.1129676 -0.41651806 -0.092243925 -0.111322865 -0.13994849
0.11517427 -0.06020729 0.10694706 0.039213024 -0.10623867 0.0880373 0.015653677 0.019913128
-0.018414143 -0.006497055 -0.3197914 0.079698816 0.023514546 -0.3079963 -0.050128724 0.08069218
0.27066073 -0.12879698 0.116861716 0.22699356 0.013846075 -0.01386294 0.03613165 0.02279556
-0.01732688 -0.101759836 0.2689147 0.14399138 0.101091005 0.18046321 -0.20921658 -0.068896785
0.06593128 0.15393358 0.10054196 -0.07057711 0.14657712 -0.023720339 -0.13669454 -0.07574717
0.14536752 0.018365486 -0.0072363643 -0.1332499 0.10134089 -0.09271915 0.039541304 -0.056468952
0.094288826 -0.10369621 -0.0025142343 0.0045102146 0.03865636 -0.17217888 0.24357149 -0.0035153439
0.25033745 0.4360006 -0.12261232 0.09506463 0.017938647 -0.15747397 0.08076324 0.06253748
0.10106748 0.124956846 -0.25487977 -0.05871616 -0.0086187245 -0.24866773 0.059130922 0.033382833
-0.10574096 -0.05690734 -0.42102695 0.030679403 -0.56204534 -0.09532777 -0.14724234 -0.050718646
-0.12373395 0.08371877 0.031069413 0.2232676 -0.036661725 0.020684896 0.02765295 -0.03323979
-0.03634708 0.004670639 -0.21518944 0.00048352475 0.024416689 -0.03486742 -0.17342083 -0.15050058
0.045472164 -0.19029993 0.054929312 0.09603857 -0.04246697 -0.21139422 0.16177334 0.42576334
0.07591139 0.13349465 -0.04600919 0.4372733 -0.0011074456 -0.24908714 -0.5322936 -0.14745055
0.005258684 -0.058311936 0.21298747 -0.024331538 0.21599609 -0.11128607 -0.1345909 0.11597609
0.006495891 0.16012484 -0.009758589 -0.084306546 -0.05988912 0.035256505 0.0001719449 -0.09260207
-0.06305353 0.01846485 -0.043979175 0.050675344 0.06335782 -0.29957634 0.041264236 -0.07619414
-0.009387762 -0.07412361 -0.21704617 -0.035964943 -0.040782556 -0.2038637 0.14749648 -0.19092399
0.098157085 0.13223374 0.3856099 -0.10525188 -0.1159839 0.27162886 0.15362592 -0.14344317
-0.10044445 0.053713504 -0.363447 -0.015054001 -0.41425002 -0.050194655 -0.22765613 0.1848493
0.15843123 0.07117826 -0.13285491 -0.053143572 -0.29668117 -0.0223744 0.091482654 0.6479277

a2c_network.actor_mlp.0.bias f4 [256]
00000000: a962 2bbd 56c4 f93c 55b3 a4ba 291f b1bd
00000010: e326 053d 9edc db3d c9ea ac3d 8d75 483d
00000020: bea5 84bd 6b63 8bbd d1de 0cbc 36f3 b73d
00000030: 82ed b93d 4c83 0ebe c9f1 e03d a2ef 933e
00000040: b527 2ebc 3fd4 6dbd 5af0 1c3d 172c 373e
00000050: cc69 163e 5612 10bf 6d34 623c 8196 44bd
00000060: 10ee 6bbe 93c8 1abc 3ba5 ebbb 40dc b4be
00000070: 03bb 6bbf 9829 963e 904e 85bd 70a4 cfbd
00000080: 4d03 1abf 2f1a d4bd 7ffa 2dbf bb9e 20be
00000090: 30ae f03d b186 c4be 49ff 9dbe 36b4 2cbe
000000a0: ae3a 32bd e845 83bd 6f0d 1cbd c744 a13e
000000b0: dd22 823d d550 5e3e 5e9d 1dbe cb53 8dbe
000000c0: ec2a 593e 6f2b 0ebe 1681 36bd e7bb 6c3d
000000d0: ce93 59be 8896 c93d ec42 3e3e 2a6b 89bc
000000e0: 3c8d 9c3d ceee 85bc 821a bebc 6d72 7b3d
000000f0: ca93 d5be b189 20bd 427e b93d 3718 7e3d
00000100: a424 f23d cb95 0c3d 49c4 91bd ce6d 00be
00000110: 376a e0be 1189 2d3e 4ef9 8abe 01bb ccbc
00000120: 31c7 32bd 8143 af3e 96a5 3cbe b04d 69bd
00000130: 670f 2cbd 031f efbc b020 123e 9e27 0f3c
00000140: b49b 873d be5e c33c 868e 923d 4643 773e
00000150: 27b3 a1be 007c 0cbd b70d 083f 9d57 a2be
00000160: 4b1f 0e3e edc2 21bd 6e6c 6e3e 80ef 53be
00000170: 67b6 f33d 8e79 57be 52ad bf3d c728 7c3d
00000180: df4d aa3d 592e 59bd c998 16bc eefd d4be
00000190: 6289 75bc 5b4d 983d bd07 05be 4adb adbd
000001a0: 6f89 23bf 1d77 2bbd f78c 2abe fbc0 1dbc
000001b0: 1f25 27be fa34 12be bdfc 143d 60cd 4dbd
000001c0: ea7a ecbd 6aac 183e 96de d4bd d3be 1f3c
000001d0: 1873 adbd 68a5 0ebe 1f15 3839 dd36 78be
000001e0: 5b34 bc3d 6dbd d9bc 45a7 9d3e b0ae b1bd
000001f0: 84b5 5c3e 79eb 063e b29c 233e c921 81bd
00000200: 6019 523d aa27 51be 4684 9dbe da31 63bd
00000210: 16c4 9a3d 1e78 893c 9ee4 06be 6c73 afbd
00000220: 405a 0cbe 4619 ee3d 6163 203e 2cdf f7be
00000230: 4b29 b4be a247 413e 40f2 dfbe 7a40 503e
00000240: 7a61 0a3e ad68 fd3d 58af d4bd 6a1f 54be
00000250: 1df3 37bd 0932 3c3d 974f f9bc ad19 fc3c
00000260: f9da 103e c8f3 823d 021d adbe 0a8d 83be
00000270: 068a e63d fce6 f73d 4f79 51be 5b60 323d
00000280: 12f9 efbc 088f 203e 07a2 8e3e 4d04 49bd
00000290: b740 a8be ebf6 103d 93d9 be3d 3b22 31bd
000002a0: e4f7 b03d 151a 053d ea7b 593e 6f0a 383e
000002b0: ac3b c8bd 3528 85bd 2b76 213d 0d4a c9bd
000002c0: e6dd 3dbe e02e 82be c622 a8be 772d a03d
000002d0: 9996 093d 7f44 2c3c f1b0 023e 5ba6 f8bd
000002e0: 9881 5fba d1d9 89bb 1773 843d c06a 8bbd
000002f0: badb 393e 9895 9d3d 71b1 26bd 5f07 8dbd
00000300: b681 a0bd 0e69 38be 56c6 febd a614 ba3d
00000310: fbfb 68be 17be 713e 332d 87bc 747e d43d
00000320: 5cdd 9b3c a30e d9bd 4a17 a0be 7f04 a03d
00000330: ebca ae3d a59f d13c cdab 5a3d 8a47 21bc
00000340: e8c0 803e c4c1 803d a26c 2ebd a43f 9dbe
00000350: 5a0e bcbd ef8b 07be c422 643d 4772 ac3b
00000360: 5995 303e 30bb efbc 8cd9 703e 46e8 2a3e
00000370: 04ed 063e 0e82 253e 4e04 8f3d 9260 09be
00000380: 73c9 16bc 3e22 8abd 8623 c63b 48cd 913c
00000390: 1a36 83be 4722 1abd c344 743e f80f 2bbe
000003a0: 064f 20bd 67b0 bb3e f000 b3bd 3b9f bebd
000003b0: 9792 bcbc 0544 723e cca3 063e ccbc 30be
000003c0: b899 443e addb 3fbe ab5e 1fbf 7ef9 fbbe
000003d0: 8137 c3bb deb3 b93b 5541 85bd ae2f e83c
000003e0: 4616 c43e f141 093e dbc3 bfbd 25f9 983c
000003f0: 742f febd 8c12 22be a164 92bc 4c9b 05be
-0.041842137 0.030489128 -0.0012565652 -0.086485215 0.03250779 0.10735439 0.08443219 0.04894023
-0.06476925 -0.06806072 -0.008598045 0.08981936 0.09078504 -0.13917273 0.10983617 0.28893763
-0.010629584 -0.05806374 0.038315155 0.17887913 0.14688796 -0.5627798 0.013806445 -0.047995094
-0.23040032 -0.009447235 -0.007191328 -0.35324287 -0.9208223 0.2932861 -0.06509125 -0.10138786
-0.60161287 -0.103565566 -0.6796035 -0.15685551 0.11751974 -0.3838401 -0.3085883 -0.1686562
-0.043512993 -0.06409818 -0.03809875 0.31497785 0.06354306 0.21710522 -0.15392062 -0.2760299
0.2120778 -0.13883756 -0.0445567 0.057796385 -0.2124779 0.09843165 0.18580216 -0.016774733
0.07644126 -0.016349223 -0.023206 0.06138842 -0.41714317 -0.039193813 0.09057285 0.06203481
0.11823395 0.03432254 -0.071175165 -0.12541887 -0.43831035 0.16946818 -0.2714333 -0.024991514
-0.043646995 0.3423119 -0.18422541 -0.056958854 -0.042006876 -0.029189592 0.14270282 0.008737473
0.06621495 0.023848888 0.071560904 0.24146757 -0.31581995 -0.034297943 0.5314593 -0.3170747
0.13879125 -0.039492536 0.2328355 -0.20696831 0.11900025 -0.21042463 0.0935923 0.061562326
0.08315634 -0.053022716 -0.0091917 -0.41599983 -0.014986368 0.074366294 -0.12991233 -0.08489092
-0.6388158 -0.041861642 -0.16655336 -0.00962853 -0.16322754 -0.14278021 0.036373843 -0.05024469
-0.115468815 0.14909521 -0.103940174 0.009750086 -0.08469218 -0.13930285 0.00017555476 -0.24239679
0.091896735 -0.026579583 0.3079168 -0.08675897 0.21553618 0.13175763 0.15977743 -0.06305272
0.05129373 -0.20425287 -0.3076498 -0.055467464 0.07556932 0.01678091 -0.13173148 -0.08566937
-0.13706303 0.11625914 0.1566291 -0.48412454 -0.35187754 0.18874982 -0.4373951 0.20337096
0.13513747 0.12373481 -0.10385007 -0.20715109 -0.044909585 0.045946155 -0.03043346 0.030773962
0.14146031 0.06394154 -0.33811194 -0.25693542 0.11256795 0.12104604 -0.20456432 0.043548923
-0.02929357 0.15679562 0.27857992 -0.049076367 -0.32861874 0.03539173 0.09318843 -0.043245535
0.086410314 0.032495577 0.21238676 0.1797273 -0.097770065 -0.065018095 0.039419334 -0.09828577
-0.18541679 -0.25426388 -0.3283903 0.07821172 0.033590887 0.010514378 0.1276281 -0.12141105
-0.0008526086 -0.004206874 0.06467264 -0.0680747 0.18150225 0.07694548 -0.040696565 -0.068861715
-0.078372404 -0.18008825 -0.12440173 0.090859696 -0.22752373 0.2360767 -0.016501045 0.103756815
0.01902645 -0.10598495 -0.31267768 0.078133576 0.08534797 0.02558882 0.0533865 -0.009843716
0.25147176 0.06286958 -0.04258407 -0.30712616 -0.09182425 -0.13236974 0.055697218 0.0052626464
0.17244472 -0.029264063 0.23520488 0.16690168 0.13176352 0.16162893 0.06983243 -0.13415745
-0.009203303 -0.067448124 0.006046715 0.017798081 -0.25627214 -0.037630346 0.23854356 -0.1670531
-0.039137863 0.36658022 -0.08740413 -0.093077146 -0.023019118 0.2365876 0.13148421 -0.1725952
0.19199264 -0.18736143 -0.62253827 -0.49213785 -0.0059575443 0.005667194 -0.06506602 0.028343048
0.38298243 0.13404061 -0.09363528 0.018673489 -0.12411395 -0.15827388 -0.01787025 -0.13047522

a2c_network.actor_mlp.2.weight f4 [256, 256]
00000000: 1914 b2bb 1d8e f6be c670 2ebb 45f1 e83d
00000010: c85e 03bd 5f71 403c e4eb 40be c655 2bbe
00000020: c739 4fbe 7bcb 283d 89c4 a6bd 27d3 97bd
00000030: 872a f8bd 7d27 8c3d 480f a1be bc8e 77bd
00000040: 6ad4 283e 7141 2bbf 041b 72be ff69 47be
00000050: 17fd 2abe fe30 a6be 551f 2b3d 6ee3 043e
00000060: 727d 6cbd 764f 4ebe e7bd 36be 369b 9cbd
00000070: 5f6d 2ebc 389c 71be 8371 b9be 7e40 cbbd
00000080: b167 a2bd f2ef 95bb bca3 75bc 5754 173e
00000090: d467 85be b7ff 023d c0d0 a73d 8e83 20be
000000a0: 36b3 bebd 9c5f 2a3d a83c f1bd 763a 98be
000000b0: 016e 45be 152a 01be 11c9 693e b2c2 05be
000000c0: 674d 4dbe abd6 f7bd 0b23 24bd afe3 553c
000000d0: 0d62 33be dc7a 89bc 5f54 ecbd 8acf 0bbe
000000e0: a97a b1be 07fe 963c bb28 2fbe de5a 55be
000000f0: d5a0 853c b5cd 2ebe ea66 ddb9 68a1 25be
00000100: ccea 2cbe 03c0 ae3c 442e 4f3c c8e3 4a3c
00000110: 83da 8ebe 4ac9 2fbe 52d0 f43d 3b0e 22bc
00000120: 61c2 c7bd 97cd 88bc 65bf 1b3d 3c57 4d3d
00000130: e312 29be 3f1c 29bd 24c4 59bd 22e7 63be
00000140: b779 09be dfd3 31be 354a bd3d 9f0c 49be
00000150: f40a 9e3e e24d 1fbe a66d dabd d1d5 bdbd
00000160: 9c29 27be 3e68 3cbd aa65 3cbe 846d cabe
00000170: df80 45be d798 cb3d b00a 82bc 156c 8abd
00000180: c5db 04be 61b8 043d f985 373c f840 bb3d
00000190: e96c efbc cdf9 56be 29e2 0d3e b1b4 e0bb
000001a0: 7045 94be 9022 b1bd 017b 943d 7650 02be
000001b0: 09aa 233c bbc8 8dbd 8730 1d3e 0cd5 43be
000001c0: 1017 383c 19c5 6abe a151 29bb 1cd5 41be
000001d0: b23c 74bc 564f 073e fe22 d4bc cbe2 0bbd
000001e0: e9b5 b8bd 4dd4 823c 6731 31be 5161 12be
000001f0: fc88 febd 33c3 30be e517 9ebd 6d5a 85be
00000200: c405 03be 5db5 dabd b56d 4d3d bf5f 313d
00000210: b585 83bb 5eac 54bc d7dd 0ebd 6b95 98bd
00000220: 4ef8 4b3d e890 b1bc 0200 07bd 7177 9a3b
00000230: 171d 623e 8efd 9cbe be68 0cbe e8b7 dbbd
00000240: 8087 99be 21f0 cabc 3eea a1bd 6e3c 65be
00000250: 1d4e ddbd d28f aa3d a1d6 e9bd 0be5 3bbd
00000260: 85ee 22bd a02c 1fbe c6bd 29bc c7b5 2f3e
00000270: c097 57be 4610 803c 2c5f 563d 3437 7a3d
00000280: 638d 8ebe 23d1 57be b5ab 29be 80f4 f4bc
00000290: 544d 38bd 67e8 89bc 1823 533c 8ca7 90be
000002a0: 33a8 55be 9bd2 32be 5006 75be e7eb 63be
000002b0: 021a b6bd a629 d4bd 6c8d b2bd cfde da3d
000002c0: ff08 223e ac32 173d 26dd 11be d371 08be
000002d0: 53ff 24bd 6263 89bc 4530 e0bd 0b83 e2bb
000002e0: d0b9 cd3c 1a5f eebc dbe3 86be 0dfe 873d
000002f0: d97f 44be bf3c 11be ee37 aabd 7129 04be
00000300: cc27 febd 3c0f c5bc 82ed 13bd 4339 c0bd
00000310: c437 a03c a254 93be e623 913d 20b3 13be
00000320: b81e e1bd d64b b2bd d884 9c3c ff8c 24be
00000330: c1df aabd eb05 c5bd ea92 8b3d f075 debd
00000340: 5e20 073d 28aa 20be 4a35 6cbd da3f a2bd
00000350: ab70 7a3d c1d5 acbe 682d 233d d318 523d
00000360: 3cba 40be 0136 233d d894 f4bd a60d 36be
00000370: 4d44 d5bc 3d01 5cbd ecc5 a8be 45fc 083d
00000380: 6ca9 cdbe cb46 b13c 1d46 d1bd 4131 d1bd
00000390: c23e aabd 6ab3 a83c 070c 7ebe 845f 0f3e
000003a0: 5a70 b73d 6eaf f5bd deba 0dbe 95e1 46bb
000003b0: 3cd6 ebbd d0ed dfbd 0a88 96bd 81f1 c53c
000003c0: ffba 26be 0f43 463d 6c48 02be 0781 e9bd
000003d0: 80ac 0fbd 6aff 0fbd 0601 46bd 62bf c4bd
000003e0: c587 55bd 949a 4cbe 2ff7 973d 18c1 cc3d
000003f0: 4870 913d 7fc5 dd3d 518c 65bd 76de 823b
-0.0054345247 -0.481553 -0.0026617511 0.113741435 -0.032072812 0.01174578 -0.18839985 -0.16731939
-0.20236884 0.04120968 -0.08142955 -0.07413321 -0.121174864 0.06843469 -0.3145697 -0.060438856
0.1648728 -0.6689673 -0.23643118 -0.19474028 -0.16698109 -0.32459253 0.041777927 0.12977383
-0.05773682 -0.201475 -0.1784588 -0.07646792 -0.010646193 -0.23594749 -0.36219415 -0.0992441
-0.07929934 -0.004575723 -0.014992651 0.14778267 -0.26055777 0.03198215 0.08194113 -0.15675184
-0.093115255 0.041595086 -0.117791474 -0.29732102 -0.19280244 -0.1261371 0.22830607 -0.13062552
-0.20049058 -0.121014915 -0.040072482 0.013054772 -0.17517872 -0.016782217 -0.1153953 -0.13653389
-0.34663895 0.018431677 -0.17105381 -0.20835444 0.016312042 -0.17070659 -0.00042229082 -0.16174853
-0.16886443 0.021331793 0.012645308 0.012383409 -0.27901086 -0.1716663 0.119537964 -0.009891088
-0.09753872 -0.016699595 0.038024325 0.05013202 -0.16511111 -0.041286703 -0.05316557 -0.22256139
-0.13425337 -0.17365979 0.092426695 -0.19633721 0.30867732 -0.15557054 -0.10665445 -0.09269298
-0.16324466 -0.04599785 -0.18398157 -0.3953668 -0.19287442 0.09941261 -0.015874237 -0.06758896
-0.1297446 0.0324024 0.011201375 0.09143251 -0.029226737 -0.20993729 0.13855805 -0.0068574776
-0.28959227 -0.086491704 0.07250024 -0.12726006 0.00998927 -0.06923052 0.15350543 -0.1912424
0.011235967 -0.2292675 -0.0025836008 -0.18928951 -0.014907049 0.13213858 -0.025895592 -0.034151834
-0.090190716 0.015970374 -0.17304002 -0.14294936 -0.124284714 -0.17261963 -0.07719401 -0.26045552
-0.12795168 -0.106791236 0.050153453 0.0433042 -0.004013742 -0.012980549 -0.03487953 -0.07450374
0.04979735 -0.021675542 -0.03295899 0.0047139456 0.2208141 -0.30662197 -0.13711831 -0.10728437
-0.2998619 -0.024772706 -0.07906006 -0.22386333 -0.108059146 0.08328213 -0.1141789 -0.04587273
-0.03977825 -0.15544367 -0.010360187 0.17159186 -0.21053982 0.01563276 0.052336857 0.061087802
-0.27842245 -0.21075873 -0.16569407 -0.029901743 -0.04499562 -0.01683445 0.012886785 -0.28252828
-0.20864944 -0.17463152 -0.2392819 -0.22257958 -0.08891679 -0.10359506 -0.0871838 0.106870286
0.15823744 0.03691356 -0.14244518 -0.1332467 -0.04028256 -0.016771022 -0.10946707 -0.006912594
0.025113016 -0.029098082 -0.26345715 0.06640253 -0.19189395 -0.14183329 -0.08311449 -0.12906434
-0.124099344 -0.024055116 -0.036115177 -0.09385922 0.019557841 -0.28775507 0.07086925 -0.144238
-0.10992187 -0.08705871 0.019106314 -0.1606941 -0.08343459 -0.096202694 0.06815131 -0.108623385
0.032989852 -0.1568991 -0.057668008 -0.07922335 0.061142605 -0.3375683 0.039838225 0.051293205
-0.18821043 0.039846424 -0.11942452 -0.17778644 -0.026033545 -0.05371212 -0.32963502 0.033443708
-0.4016832 0.021640202 -0.10218451 -0.102144726 -0.08312751 0.020593364 -0.24809276 0.1400128
0.08956976 -0.11996351 -0.13840815 -0.003034686 -0.11515471 -0.10934031 -0.07350166 0.02416301
-0.16282271 0.048403796 -0.12722939 -0.11401563 -0.03507662 -0.03515569 -0.04834082 -0.09606816
-0.052131433 -0.19980842 0.074201934 0.09997767 0.07101494 0.10828685 -0.05604202 0.0039938046

a2c_network.actor_mlp.2.bias f4 [256]
00000000: 6dc6 90bb ba7c 593d a7fb b7bc ee47 cebc
00000010: 721f a2bc fc1a 96bb 2983 06bc baf2 083b
00000020: af63 b2bb ada8 183d b664 42be bb9f 53bc
00000030: 44bc 9ebc 10d7 8e3d 2013 32bd 4dc8 3e3c
00000040: 13bd b33c 324f 0bbc e6a4 6abd 278f adbd
00000050: c449 fdbb c202 04bd 2ef2 acbc bc3c 65be
00000060: 329b 1dbd 9d3a 183d 2f19 8abc 5adb 71bc
00000070: 2d77 613c c29b 8b3d 58c1 d6bd 360b 5ebe
00000080: 8237 063d 3a20 c53c 05e0 c7bc 4424 2ebe
00000090: 6518 e13b 7309 c83c a4b3 9fbc c12b 01bd
000000a0: 764c af3c c352 933c bd48 ce3c b362 1f3c
000000b0: 7092 31bb 7e82 013d 6bcc bf3c 9d0c 36bd
000000c0: 0123 8b3c 9646 8d3d 3d2a 34be cf12 5e3d
000000d0: 3453 80bc 0779 ebbc 0d87 893a 66f5 953c
000000e0: bba8 a63c 42ec edb9 45d0 6b3a c251 37bd
000000f0: 3235 9f3a 8dee f3bd c468 e83c 9f30 233d
00000100: 8f83 b7bc 14a1 0b3d f963 473d 5219 d23c
00000110: 95a5 4a3b ae63 053d fa3d f1bd b4b5 eb3c
00000120: 9319 01bd d119 123d 5b19 8d39 5b60 f4bc
00000130: c766 fcbc 89fe be3c 7468 a8bb 5b9c 5cba
00000140: bf9b b0bd 77be 393d daea cbbb bb72 7d3d
00000150: a2dd 883c ae37 95bc fb5e 03bd 35ba 81bd
00000160: 318e c5bd d49a 36bc ec6f f1bc af50 a93c
00000170: 5c61 643c 7723 0c3c 437f 1bbd b91e 54be
00000180: 9acc f3bc a2a7 94bc e544 ec3c 2d6b aabb
00000190: 4f39 cbbe f8fd 09bd 3891 fb3b 66f9 e63c
000001a0: 8f10 a2ba a1ed 293c 60c1 043d 59dd 083d
000001b0: a828 a1bb 9483 7dbe 1c0c 39bb 868d 78bc
000001c0: 71ba e43d 5851 b7bd ceec cebd ca90 603d
000001d0: b561 233b 76a7 3cbc 9d4d 02bd c8e6 f9bb
000001e0: c066 52bd 214c d9bc 6170 0fbd deb5 4b3b
000001f0: 344f b8bb 2d96 f4bb 7334 d8be cfae 89bc
00000200: 1cc5 4bbc 93a3 0dbe 5641 a3bc 1c90 13be
00000210: 8cd3 043d 5100 53bc 49b7 593b 54ed f4bc
00000220: 40a4 d9bd 554f 72be 318d aabd db06 583d
00000230: c5bf e0bb 69ee 5abb f63b 7abe 197a 3cbd
00000240: 78fe 453d 0d03 6fbc 06b5 09bc 9381 33bd
00000250: 6bdd fbbb 80cd 303b 423d 81bc e9fa 28bc
00000260: 872b 8f3c ff2f 0ebd a9fb 2ebc edc6 203b
00000270: 591f 02bd 4197 8dbe 26b0 f6be 1799 da3c
00000280: 16c3 f9bb 7132 513d 6b6b 7ebc cd41 dabd
00000290: bdd9 1dbd 41f1 903b e15c 223d d2ea e13b
000002a0: a454 1bbc e1ba 503d af96 babc c5ad f93c
000002b0: afab 4b3c 8ba3 04bc 8689 f93b 8f17 1e3c
000002c0: e6d6 a33d 5892 893c 7b79 cabb 18e4 d2bc
000002d0: 6bb1 993c 16db 8c3d c750 06bd 4fc5 27bd
000002e0: 8502 a83d 14db 2c3d 433d f03a 4d9f 3fbc
000002f0: 9896 5dbc a498 633c b5a1 353d 0fac 2c3d
00000300: 61cb eb3c 2bfb 4abe 33b8 e3b9 1a6d 86bd
00000310: 61fa 123d 9876 32be d15a 18bd 58bd 163c
00000320: b2b7 c23d a578 15bd 129b 093b b6c3 d13c
00000330: 280b 9e3c 2abd 783d f737 423b 09e7 a43d
00000340: 924c 0fbb bbf7 e83c 6db2 de3b da85 88be
00000350: b014 69bc 3814 99bd 0c85 5b3d 33a0 22bc
00000360: 9e8d 55bd 5c1d 90bc ac43 153c ca8b 0a3d
00000370: e811 2e3d 39cd 0abe 3e4e e53c 81b5 68be
00000380: 528d 103d 1c50 18bc 4a3d 06bd 8842 893c
00000390: b375 9fbc 5e3d c2bc 57f5 753c d78d 24bc
000003a0: adc4 193d db02 c33d 6cb7 1dba 90de 9ebc
000003b0: 3e4c 573c df99 b4bc 9b5a f33c f5c8 37be
000003c0: dd33 fbbc 9cef 4f3c a374 4c3c 039d 8b3d
000003d0: 5081 843c 6e94 c03c 0c19 233c f461 3e3d
000003e0: efd0 c73c c4c6 ee3c d24c 133d fa5b 823c
000003f0: 810c 62be 15d7 043d d28f bfbb 6268 60bc
-0.0044181854 0.053097464 -0.022458864 -0.025180783 -0.019790385 -0.0045808535 -0.008209982 0.002089663
-0.005444012 0.037270237 -0.1898373 -0.012916501 -0.019376881 0.06974614 -0.04347527 0.011644435
0.021940744 -0.008502768 -0.057286166 -0.0847457 -0.007729741 -0.032229193 -0.021111574 -0.2238645
-0.038478084 0.037165273 -0.016857712 -0.01476177 0.013761324 0.06816818 -0.10486096 -0.21683964
0.03276778 0.024063218 -0.024398813 -0.17006022 0.006869363 0.024418568 -0.019494839 -0.031535868
0.021398764 0.0179838 0.025181169 0.009728122 -0.002709534 0.031618588 0.023412904 -0.044445623
0.016984465 0.06898229 -0.17594238 0.054217156 -0.015664674 -0.028744234 0.0010492519 0.018305492
0.020344129 -0.00045380188 0.0008995573 -0.044755705 0.0012146591 -0.11910734 0.028370269 0.03984129
-0.0224016 0.034089163 0.048679326 0.02564684 0.0030921448 0.032565765 -0.11779399 0.028773166
-0.03151853 0.03566915 0.00026912507 -0.029831102 -0.030810727 0.023314731 -0.005139405 -0.0008415633
-0.08623456 0.045347657 -0.006223065 0.061876994 0.016707245 -0.018215027 -0.032073002 -0.06334344
-0.096462615 -0.011145312 -0.029472314 0.020668356 0.013939228 0.008553377 -0.037963163 -0.20714845
-0.029760648 -0.01814634 0.028841445 -0.0052007646 -0.3969216 -0.03368947 0.0076772235 0.028195094
-0.0012364554 0.010371597 0.03241098 0.03341422 -0.0049181767 -0.24757224 -0.0028235978 -0.015170461
0.111683734 -0.08951062 -0.10103761 0.05482558 0.0024930064 -0.011514535 -0.0318123 -0.007626388
-0.05136752 -0.026525559 -0.035019282 0.0031083743 -0.005624676 -0.0074641914 -0.42227516 -0.016806988
-0.012437131 -0.1383193 -0.019928616 -0.14410442 0.03242831 -0.012878493 0.0033220819 -0.029898323
-0.10627031 -0.23663075 -0.083277114 0.052740913 -0.006858798 -0.0033406264 -0.24436936 -0.04601488
0.048338383 -0.01458813 -0.008404976 -0.043824743 -0.007686307 0.0026977956 -0.01577628 -0.010313728
0.01747681 -0.03471374 -0.010680118 0.0024532632 -0.031768177 -0.2765446 -0.48181266 0.026684327
-0.007622133 0.051073495 -0.01552854 -0.10657082 -0.03853773 0.004423291 0.039639357 0.006894448
-0.009480629 0.05095947 -0.02277693 0.030478368 0.012431069 -0.008095632 0.007615271 0.0096491715
0.07999973 0.016793415 -0.0061790324 -0.02574353 0.018761357 0.06877725 -0.03279188 -0.040959653
0.082036056 0.042201117 0.0018328804 -0.011695695 -0.013524674 0.013891373 0.04434367 0.042156275
0.028783502 -0.19822375 -0.00043434053 -0.06563778 0.03588331 -0.17428052 -0.037195984 0.0092004165
0.09507693 -0.03649201 0.002099697 0.025606018 0.01929243 0.060727276 0.0029635408 0.08051879
-0.0021865708 0.02843844 0.0067961724 -0.2666462 -0.014226124 -0.074745595 0.05359368 -0.00992589
-0.05213701 -0.017592125 0.0091103725 0.03382472 0.042497545 -0.13554849 0.02799141 -0.22725488
0.035291024 -0.009296443 -0.032773294 0.016755357 -0.019465303 -0.023710903 0.015012107 -0.010043583
0.03754108 0.09522029 -0.00060164067 -0.019393235 0.013140736 -0.022046028 0.02970629 -0.17947753
-0.030664379 0.012691405 0.01247898 0.06817057 0.016174942 0.023508277 0.009954702 0.046480134
0.02439162 0.029147513 0.035961933 0.015912998 -0.22075082 0.03243168 -0.005846002 -0.013696762

a2c_network.value.weight f4 [1, 256]
00000000: 3c08 9f3b 6790 c9bb ace5 84bb 950a a0bc
00000010: f8ee dcbd 0945 823c bc40 9a3b 3a2b 0d3c
00000020: 1be6 93ba 1b74 95bc 9ed8 38bd 5565 8dbb
00000030: 2e24 373c b7a7 453c 3c74 c0bb 55e7 e63b
00000040: 7319 023e 0075 ea3b 6755 15bd f51f 8bbc
00000050: 38e0 333c 3585 e1bc 27cf 01bc c2bc cebc
00000060: 9874 aa3b 1dcd 193a 2d68 98bb 8dc0 3ebb
00000070: 191e 00bc 9c2c 59bb f1f1 bd3c 89e6 3dbd
00000080: 2583 7dbc f5d5 adbc 3795 973c 4857 54bd
00000090: ed1f 853c f486 7dbb 6d36 14bc 033e 1d3c
000000a0: 9413 0c3c ee43 843b dfc1 09bc 17f3 f93b
000000b0: b0e7 69bd 950d c33a 8f45 5ebb f472 033d
000000c0: 1ffb c43c 3484 b33b 9735 893d 8eba f03a
000000d0: 8dbd 853b 7f2f a8bb cc91 923b fe27 52bb
000000e0: f57e 463c f66c 3dbc fb0d 49bc 0803 d23c
000000f0: b542 f7bb 6b30 94bd dd3d a5bd f20b 85bc
00000100: 92b8 ca3c 05a6 bfbb ac7a 21bc 7c76 1e3c
00000110: 157b 0a3a f43a 2a3b 2a14 89bc d6c9 343d
00000120: 3e19 053c b34b b2bb 6182 a13a 7c9e f03a
00000130: 0c81 a13d 92ac b8bb a28b 9dbb b3c5 a4bc
00000140: 4d3f 5dbc e2fe 4abb f4b7 353c 7382 9a3c
00000150: 6b68 29bb ce3d c33c 6fa4 cf3b f8ac b83c
00000160: 267a d0bc 6816 563c 8fb2 91bd d6c8 f13a
00000170: b174 4c3c 54d6 393b c22d 543c 2f49 4abe
00000180: ab5f b9bb 6781 bfbb 14d7 4fbc fc65 ea3b
00000190: 304e b63c f0f4 87bb 07a8 5f3b 330f 953c
000001a0: 5e05 373b 8e0d 2ebc 8696 07bc fb79 3f3b
000001b0: 5382 e1bb 7996 12bd 5476 f6bb 6f21 5d3b
000001c0: 87a9 043e 6f6e c93c c79e c43c 52a0 9c3d
000001d0: e509 e63c 9a3b 703c c475 933c 3619 c83b
000001e0: 0b6b b2bc a94d bfbb a918 52bb f63c 0b3c
000001f0: b35a edba d7dd 113e a87a 6bbe e183 c63b
00000200: 1ed7 903c 1d3c 1e3d d75b d4bb bee4 173d
00000210: 2f1a 0539 7c6e 853c a81e 80bb eb1d 673e
00000220: 6a95 aabd ebe1 ae3d e645 0dbd ea15 b3ba
00000230: 89a4 0a3c 5946 cfbb 21da 32be 586e 143d
00000240: a4e1 4c3b 1352 3e3c 41e8 633e 5ef9 373c
00000250: 51ed b03a 2df6 633b 150d 033e eda8 5b3b
00000260: ecef e5bb e8bd fbbb d477 78bc eabb 8c3c
00000270: 3e70 e9bb 4f93 03be 924d 98bd 3bb1 523b
00000280: 8a9a 88bc d2a7 d2bc 0e3a 393c 5112 6f3a
00000290: 932c 433b 42b1 0f3b 6680 1b3b 7748 4a3a
000002a0: f6d7 c9bb c3c8 d7bd 7052 3dbc 5fa1 a23b
000002b0: 59a7 5cbb b3d7 563c 3626 bdbc 994d ad3c
000002c0: 666c d73b 43d5 8bbb e9b4 333b fdf1 093c
000002d0: c7a4 bb3b 46a0 99bc ab33 093d ebcd a0bb
000002e0: 5928 3fbb a3f5 6fbd 5082 7c3d db9e 8cbc
000002f0: 2ed1 3dbb e5a5 e4ba 9a6f 8abb 71a9 a53b
00000300: a8c6 bebc bee0 fabc d65f 4dbc 6818 a3bc
00000310: b97b dbbd 497d 21be d070 a13c 6a6d 5fbc
00000320: 08c1 16be d827 183c fbb1 223c 6c7b b63a
00000330: b24e b93c 55a4 dbbc c341 503c 453e 15be
00000340: ec21 ccbb d3e5 0fbc d34c 003c f466 8fbd
00000350: ad19 a3ba c913 d83c 6040 ff3c cfd5 263b
00000360: 39e8 6abc e04e 09bc 18c9 23be a81d 0cbc
00000370: f80b 8d3c 6d93 943d 9e1a 95bb f0e6 77bc
00000380: ac5c 50bb f00a 48bb 36f4 87bb c0e2 bd3b
00000390: c3fa 34bc 687d be3b 935e 213c 4b6b b83d
000003a0: bc0e ab3c 8110 223c f4b9 24ba f6a0 c4bb
000003b0: 271a 24bc e9d0 443c 41dd 70bb 77d3 ef3c
000003c0: d355 d53c a3a7 b137 f4b5 f339 1e1e f0bb
000003d0: 5cae 2bbe d17a 9a3b f8e6 19bc 73c8 91ba
000003e0: 9147 8fbe 32d3 84bc 34bc 9ebb 0a84 6e3d
000003f0: 73cf afbd b487 283b 2702 723c aee7 553a
0.0048532765 -0.0061512473 -0.0040556993 -0.019536296 -0.10787767 0.01590206 0.004707424 0.008616263
-0.0011283787 -0.01824384 -0.045128457 -0.0043150582 0.0111780595 0.012063912 -0.005873231 0.00704662
0.1270502 0.007155061 -0.0364584 -0.016983012 0.010978751 -0.027529338 -0.007922924 -0.025236491
0.0052018873 0.0005867051 -0.0046510906 -0.0029106468 -0.007819676 -0.0033138162 0.023186656 -0.046362434
-0.015473162 -0.021220187 0.018503768 -0.05184105 0.016250575 -0.0038685175 -0.009046179 0.009597304
0.00854959 0.004036418 -0.008408039 0.0076278555 -0.05710572 0.0014881367 -0.0033915972 0.03209205
0.024045525 0.0054784063 0.066996746 0.0018366145 0.004081434 -0.005132615 0.0044729467 -0.0032067294
0.01211523 -0.011561623 -0.0122714 0.025636211 -0.007545794 -0.072357975 -0.0806844 -0.016241048
0.024746213 -0.0058486485 -0.009855907 0.009671804 0.0005282623 0.002597508 -0.016733248 0.0441378
0.008123694 -0.005441153 0.0012322181 0.0018357779 0.07885942 -0.0056358064 -0.0048079053 -0.020113802
-0.013503862 -0.0030974676 0.011091221 0.018861031 -0.0025849591 0.023833182 0.0063367407 0.022543415
-0.02544887 0.0130668655 -0.071141355 0.0018446695 0.012478993 0.002835651 0.012950363 -0.1975448
-0.0056571565 -0.0058442834 -0.012685556 0.0071532708 0.02225408 -0.004149072 0.0034127252 0.018195724
0.0027926783 -0.010623349 -0.008275634 0.0029216993 -0.006881991 -0.035788033 -0.00752143 0.0033741852
0.12955295 0.024588792 0.024001492 0.07647766 0.02808089 0.014662648 0.018000491 0.006106521
-0.021779558 -0.0058381152 -0.0032058156 0.008498421 -0.0018108696 0.14244781 -0.22996008 0.0060582017
0.0176807 0.038631547 -0.0064806747 0.03708338 0.00012693623 0.016288035 -0.0039099045 0.22570007
-0.0832928 0.08539184 -0.03449049 -0.0013663147 0.00846208 -0.0063255248 -0.17466022 0.036238045
0.0031262422 0.011616248 0.22256567 0.011228887 0.001349846 0.0034784183 0.12797959 0.0033517436
-0.0070171263 -0.0076825507 -0.015165288 0.017179448 -0.007123976 -0.12849163 -0.0743667 0.0032149095
-0.016675252 -0.025714789 0.011305345 0.0009119856 0.0029781207 0.0021925722 0.0023727654 0.00077164866
-0.0061597778 -0.10536339 -0.011555299 0.0049630846 -0.0033669083 0.01311295 -0.02308951 0.021155166
0.0065742014 -0.004267366 0.0027421063 0.008419511 0.00572643 -0.018753182 0.03349654 -0.00490736
-0.0029168336 -0.058583867 0.061647713 -0.017165592 -0.0028963792 -0.001744446 -0.0042247297 0.0050555994
-0.023288086 -0.030624744 -0.012535056 -0.019909099 -0.107169576 -0.15770449 0.019707114 -0.013636926
-0.14722073 0.009286843 0.009930129 0.0013922281 0.022620533 -0.026811758 0.012710991 -0.14574535
-0.0062296297 -0.008782822 0.007830816 -0.070020586 -0.0012443565 0.026376622 0.031158626 0.002545703
-0.014337593 -0.008380622 -0.1599468 -0.0085519925 0.017217621 0.07254682 -0.004550292 -0.015130743
-0.0031793518 -0.0030524097 -0.0041489853 0.005794853 -0.011046114 0.0058132894 0.009849208 0.090048395
0.02088105 0.00989163 -0.00062838127 -0.0060006334 -0.010016001 0.012012699 -0.0036752971 0.029275639
0.0260419 2.1178106e-05 0.00046484137 -0.007327809 -0.16765732 0.004714348 -0.009393446 -0.0011122361
-0.27984288 -0.016213987 -0.004844213 0.05823139 -0.0858449 0.002571565 0.014771021 0.0008159828

a2c_network.mu.weight f4 [6, 256]
00000000: d950 2f3e 01ab c0bb 56ac ef3b f044 b63b
00000010: 13f8 22bd 14e1 bbb9 adf2 8839 c0f2 053c
00000020: d3bc 9c3a c795 45bb 3856 c0bc b6b2 af3b
00000030: 250e 1eba 49e1 0bba 327d 8c3b afc8 91bb
00000040: 3112 84bc d776 4c3b 89a6 213e 8f44 c2bd
00000050: f592 213b aac0 6cbb 9e88 ba3b ab8d a2be
00000060: 0885 17bb 83c7 b2bb dbc7 6139 a201 5c3b
00000070: f610 aab9 7de5 e639 a0d0 bc3d 6d6c 233e
00000080: e98b 273c 7753 08bd 81f3 ec3a 879a e5bc
00000090: 4566 303a 336e a2ba 3491 35bc 83a7 c13b
000000a0: 9ea4 0fbb b3c8 99ba b4dc cc3b 322e ccba
000000b0: a8cb fb3a c34c 2d3b 250c 61b9 d141 9bbd
000000c0: ebcb 16bb 4c78 a4ba 8cad d43d 4488 c03a
000000d0: 8401 183b cf4c bdba 19e6 a1ba 85b5 22bb
000000e0: de45 63ba 96d5 213b 5bf3 b2ba 60c8 d8bc
000000f0: df18 703b c5dc 0a3e f37c a9bb c007 af3d
00000100: c134 b436 0d38 833b 8013 053b a689 d8ba
00000110: 019d bb39 8395 373b 6f5f a4bc e126 00bc
00000120: 86c8 fcb8 f7db e93b fc8e 64bb 6796 5abb
00000130: c4a7 e73d 559f 6cbb b9fe b53a 053e 18bb
00000140: d4c3 8a3d 2a99 40bb 76b6 773b 0efc 1c3c
00000150: 9c7a 24bb 0283 e2ba b0c3 8fbb d791 0a3e
00000160: d828 a0bd c768 17bb 3b56 083d b64f 133c
00000170: ffa1 03b9 3dd0 463a bd46 10ba c02d c3bd
00000180: d597 e8ba 393e 523b 5688 643b c1aa 7d3b
00000190: 0072 54be 7232 1e3a 0162 ae3a 8c30 15ba
000001a0: 8b6d edba d25f 07bb 01a7 3139 1151 c5ba
000001b0: eda4 a7b9 2c9f 15be 31d2 3f3b d834 38bb
000001c0: 2edd b93d 6812 6f3d 5d2b d13a 06e8 ddbd
000001d0: d611 6dbb d263 20bb 44ee 3dba 459d d23b
000001e0: 2099 93bb 24aa 1b3b ba26 3e3b 9432 71bb
000001f0: 0f79 4c3b 76ef 5a3c 7363 d83c 6a9b 64bb
00000200: 4387 cd3b 1e72 1fbc 0eff 47bc 53b3 2dbd
00000210: 04d5 03b9 c949 7cbd c303 1fb9 f391 f33c
00000220: 21dc d6bd c893 18be 571f b9bd b29e 32ba
00000230: aaeb 743a 277d 933b 5f2f 26bc c540 c138
00000240: a126 13bd 2241 baba 0ab8 283c e070 953b
00000250: 7c19 c0b9 8222 0e3b 5bf4 cf3c a98e 31bb
00000260: 003c 173a d704 33ba 52a0 6fba 1005 923a
00000270: 6215 783c 775e 85bd 0b97 203e ca38 8c3a
00000280: 91fb 003b 3f6f 033b dcd5 c23c c759 493d
00000290: 4355 c838 34ff 6abb ddbd bb3a deef a8bb
000002a0: 1e5e 473a 70fc 59bb 4626 8939 3f17 edbb
000002b0: d544 14ba d789 e438 78e7 b43a 62bf 59bb
000002c0: eba6 dd3b 7a85 5bbb 69df c5ba 4da9 1ebb
000002d0: fc95 1aba 9b3b 593c 609c 8ebb 20c3 23bb
000002e0: 565d 803a a571 0f3e 73eb f8bc 6cfa 7ebd
000002f0: b356 e2ba 5896 463a d04b 3537 4dc2 95ba
00000300: 9bc9 aa3b 29ef 4d3d 7c43 163b c64c 2bbd
00000310: e6d5 b3bc 5edf 79bc 2737 c9bd 6b4b 00bc
00000320: d6d3 7a3d 7dd7 a53a 24d6 0cba 73bc ca39
00000330: 304d ccbb d1bd 1fbc d3b1 c7bb fa5b 803d
00000340: eecc 5dbb 7e63 043b f312 5eba 65e5 e73b
00000350: 80bb 2e3b 4a32 60bd 6a6a 713d ea1a 3b3b
00000360: 3e70 543a ab86 193b b7fd 913b 1109 ef3a
00000370: 430b 6cbb 87e8 7d3c fc14 09ba 2426 283e
00000380: 0b0c 22bb 0181 bf3b 6a7e e139 ed6e 6b3b
00000390: 77fb d23b 620a a73b 5523 b9ba 8c56 3abc
000003a0: fc12 c5bb df2a 85bd c888 523b 8e72 0fbb
000003b0: b9e5 063a aa0d abbb d896 1739 9b5d d83d
000003c0: 065e d3bb 0e75 8fbb 4770 0c3a 1a89 bb3a
000003d0: 5efa 12bd 4a21 30bb 50f9 a7bb 67d6 f93a
000003e0: 38b5 17bd 423b 933a d867 0a3c 653a 773b
000003f0: fec4 a1bb fe71 ddb9 8fd8 8dbd 7e7c bdbb
0.17120685 -0.0058797603 0.007314245 0.005562417 -0.039787363 -0.00035835116 0.0002612075 0.008175552
0.001195813 -0.0030149089 -0.023478612 0.00536188 -0.00060293294 -0.00053359993 0.0042873854 -0.004448972
-0.016121956 0.0031198764 0.15786184 -0.09485733 0.0024654244 -0.003612558 0.0056925556 -0.3174871
-0.0023120064 -0.0054559126 0.00021532124 0.003357031 -0.00032437564 0.0004404 0.092194796 0.1595933
0.010226228 -0.033282723 0.0018077941 -0.028027786 0.00067291065 -0.0012392461 -0.011081982 0.0059098615
-0.0021918188 -0.0011732787 0.006251896 -0.0015577732 0.0019210475 0.0026443459 -0.00021462196 -0.07580913
-0.0023009728 -0.0012548058 0.10384664 0.0014689048 0.0023194263 -0.0014442446 -0.00123519 -0.0024827432
-0.0008669774 0.0024693958 -0.0013652848 -0.026462734 0.0036635918 0.1356078 -0.005172366 0.085464
5.3705594e-06 0.0040044845 0.0020305812 -0.0016520515 0.00035784396 0.00280127 -0.020065038 -0.007821769
-0.00012053647 0.0071368176 -0.0034875264 -0.0033353807 0.11311296 -0.0036105711 0.0013885117 -0.0023230326
0.067756325 -0.0029388168 0.0037797964 0.009581579 -0.0025097495 -0.0017281475 -0.0043873414 0.13532196
-0.0782029 -0.0023103224 0.03328536 0.008991173 -0.00012553482 0.00075841305 -0.0005503705 -0.095302105
-0.0017745445 0.0032080545 0.0034871302 0.0038706514 -0.20746613 0.00060347386 0.0013304354 -0.0005691133
-0.0018114311 -0.0020656479 0.00016942249 -0.0015054067 -0.000319756 -0.146115 0.002926957 -0.002810767
0.0907539 0.058367163 0.0015958358 -0.108352706 -0.003617396 -0.002447356 -0.0007245282 0.0064274394
-0.004504338 0.0023752535 0.0029014782 -0.0036803829 0.0031200086 0.013362756 0.026414609 -0.0034882673
0.006272228 -0.0097317975 -0.012206806 -0.042407345 -0.00012572488 -0.061593805 -0.00015164823 0.02973268
-0.10491205 -0.14900124 -0.09039181 -0.00068138086 0.0009342978 0.0045010033 -0.01014313 9.2150214e-05
-0.03592551 -0.0014210085 0.010297785 0.004560575 -0.0003664008 0.0021688049 0.025385072 -0.0027093089
0.00057691336 -0.00068290293 -0.0009141016 0.0011140425 0.015141817 -0.06512158 0.15682618 0.0010698077
0.0019681195 0.0020055322 0.023783617 0.049157884 9.5526244e-05 -0.003585768 0.0014323551 -0.0051555475
0.0007605272 -0.0033262037 0.00026159192 -0.007235437 -0.0005656009 0.00010897562 0.0013801893 -0.0033225645
0.006764283 -0.0033496306 -0.0015096489 -0.0024209798 -0.0005896983 0.01325884 -0.0043521374 -0.002498813
0.0009793441 0.14008196 -0.030385708 -0.06225054 -0.001726827 0.00075755036 1.0806092e-05 -0.0011425704
0.0052120215 0.05027691 0.0022928407 -0.041821264 -0.02195258 -0.015251009 -0.098249726 -0.007830481
0.06123718 0.0012652721 -0.00053724856 0.00038668848 -0.0062347874 -0.009749846 -0.0060941963 0.06267543
-0.0033844071 0.0020200904 -0.00084714516 0.0070769065 0.0026662052 -0.05473546 0.058939375 0.0028549978
0.00081038836 0.0023426216 0.004455294 0.0018236955 -0.0036017455 0.015497333 -0.0005229262 0.164208
-0.0024726416 0.005844236 0.0004300953 0.0035924271 0.0064386684 0.0050976733 -0.001412491 -0.011373173
-0.006014226 -0.06502318 0.0032124985 -0.0021888348 0.00051459257 -0.0052201347 0.00014456676 0.10564729
-0.0064504175 -0.0043779677 0.0005357307 0.0014307827 -0.0358833 -0.002687531 -0.005126156 0.0019061089
-0.037038058 0.001123287 0.00844761 0.0037724015 -0.0049368134 -0.00042237336 -0.06926071 -0.005782663

a2c_network.mu.bias f4 [6]
00000000: c8c9 0ebe 4931 2b3c 7f71 61be 5ddd d3bc
00000010: cdbd 55bd 498f e2be
-0.13944161 0.010448762 -0.22015952 -0.02586239 -0.05218296 -0.44249943

exp_avg f4 [6]
00000000: bed2 97b9 58f4 6739 812a 953a f69a bfb9
00000010: 0cc4 053a 251f d3b9
-0.0002895798 0.00022120902 0.0011380465 -0.00036545814 0.00051027606 -0.0004026826

exp_avg_sq f4 [6]
00000000: bdd4 f337 2e4e e637 4a87 d937 fb12 fb37
00000010: 14c5 de37 ba7f c437
2.9066921e-05 2.7454542e-05 2.5931415e-05 2.993037e-05 2.6556234e-05 2.3424498e-05

exp_avg f4 [256, 40]
00000000: 223c f2b7 0583 f037 9ba7 8136 223c f237
00000010: 9ba7 8136 0000 0000 171f 5cba f2f4 6939
00000020: 7a56 4fba 89fe 3eba d936 0f3a 7613 2bba
00000030: dc31 463a b4ed dcb9 0726 2c39 ccaf a736
00000040: 0c7c c1b9 e99e 9939 fb01 dcb7 05b0 3db9
00000050: 2ebe 16b8 b2ed d9b7 41ad 61b8 0b88 0437
00000060: cba8 8f37 e323 7038 640b b238 e6b8 23b9
00000070: f0fc c737 aae1 04b8 4f6f 2db7 0c52 3134
00000080: 0000 0000 0400 0080 da11 1eb5 6d3b ac32
00000090: 0400 0080 da11 1eb5 37a6 a9b2 0400 0080
000000a0: b301 a0b8 c5b7 9f38 a21d 5536 b301 a038
000000b0: a21d 5536 0000 0000 b4cd 2aba 8a10 fe39
000000c0: a5d3 be38 22bf 1aba 848e 293a c230 39b9
000000d0: 1245 17b9 95de 2db8 35e4 27b9 3e22 2f37
000000e0: ebf4 9fb9 bd0e 1739 5e56 e638 dcda 50ba
000000f0: 6695 4eba 93d6 b937 010a 0936 89d0 40b8
00000100: f9e6 29b8 dfab a8b6 fb19 7038 9c68 6137
00000110: 51d7 8db8 7abd 9f38 d673 9438 8be2 a033
00000120: 0000 0000 0400 0080 dd30 7ab4 8223 b433
00000130: 0400 0080 dd30 7ab4 1a0b b4b3 0400 0080
00000140: 8e48 74b8 be3e 7438 6fd5 2434 8e48 7438
00000150: 6fd5 2434 0000 0000 321f 4bb9 2897 3e39
00000160: f7d8 9f39 e1e5 4fb9 0e57 1936 0a34 1739
00000170: 7b6d 8eb7 b0f6 a438 2bb0 02b9 57b3 a7b7
00000180: a307 a9b8 855f 8f39 b641 0838 3b7d 15b9
00000190: 193b 95b7 4329 b6b6 c457 a337 0ffc b3b6
000001a0: d6b1 09b7 064f 5a38 cb00 1138 d37e 45b7
000001b0: 57bd 2438 f3c1 1637 b116 26b5 7dda 1633
000001c0: 0000 0000 0400 0000 da8f b5b3 1740 c6b2
000001d0: 0400 0000 da8f b5b3 c563 c032 0400 0000
000001e0: 3184 1eb8 5c6f 1e38 9b92 7135 3184 1e38
000001f0: 9b92 7135 0000 0000 11d8 09b9 5038 e238
00000200: 450b 19b9 40ef 0bb9 dc75 6d39 b744 1bb9
00000210: 56c1 9537 9153 3ab9 f411 5138 e913 beb7
00000220: e2dd 2db9 ad3a 6939 be91 76b7 9f32 6db8
00000230: 48e5 92b5 d3fc 1f37 1f7e e9b5 babe 68b6
00000240: decd e4b6 8ecd f837 e2a0 5d38 ffc1 82b8
00000250: f983 dbb7 f92a c337 1c81 d237 0173 ba33
00000260: 0000 0000 0400 0080 ebbc 21b4 d309 eeb2
00000270: 0400 0080 ebbc 21b4 4f49 ef32 0400 0080
00000280: 1700 08b8 ee08 0838 d9c1 25b5 1700 0838
00000290: d9c1 25b5 0000 0000 e37c 9739 cbea 4ab8
000002a0: 9ea0 c939 0719 8c39 8ed5 f437 114b 7c39
000002b0: c89b 3aba 83b5 ff37 5315 5fb9 b605 5337
000002c0: a5d1 d839 396f c938 e8bc a537 2c2a 79b9
000002d0: 5ba7 f238 ab1b a537 aaa2 8d37 f4bc 4136
000002e0: 9d32 adb4 f15c 88b8 f2ad 6ab8 09ba 8038
000002f0: d868 f137 4099 6538 4d65 5d38 6306 56b3
00000300: 0000 0000 0400 0080 492f 5934 ed4a 0433
00000310: 0400 0080 492f 5934 c9f3 04b3 0400 0080
00000320: a7d0 b1b8 41da b138 6563 2cb5 a7d0 b138
00000330: 6563 2cb5 0000 0000 6ed7 7239 ca9e 24b9
00000340: 8293 6937 f513 6539 df2a 9bb9 bae0 a6b7
00000350: 17be d6b9 2780 7139 4f5a 8d39 f8ff adb8
00000360: 7b97 3739 c017 b3b9 c095 8f38 5894 e9b9
00000370: 6310 9038 65ce 9d37 20ae 9eb7 cdaf bab7
00000380: cba9 2ab7 fabe a6b7 f5e5 4437 c030 0db5
00000390: e512 0838 bfa7 7138 81d0 4538 cb55 ad33
000003a0: 0000 0000 0400 0080 f4de 93b2 17c2 74b3
000003b0: 0400 0080 f4de 93b2 0e95 8133 0400 0080
000003c0: 8b0a be38 5ce4 bdb8 def1 7ab5 8b0a beb8
000003d0: def1 7ab5 0000 0000 afb2 d838 64d2 09b7
000003e0: f77b 9339 d511 49b7 588f d7b9 53a0 9239
000003f0: 3e9e 2ab9 3ac4 18b9 e185 12b9 121b 1c38
-2.887665e-05 2.867124e-05 3.8640114e-06 2.887665e-05 3.8640114e-06 0.0 -0.0008396967 0.00022311861
-0.00079093094 -0.00072858535 0.000546319 -0.0006526032 0.000756053 -0.00042138773 0.00016417365 4.9974533e-06
-0.0003690425 0.0002930083 -2.6226966e-05 -0.00018090017 -3.5939906e-05 -2.5979101e-05 -5.3805536e-05 7.899488e-06
1.7125529e-05 5.725388e-05 8.489823e-05 -0.00015613771 2.3840432e-05 -3.168142e-05 -1.033752e-05 1.6514258e-07
0.0 -6e-45 -5.8885564e-07 2.0050459e-08 -6e-45 -5.8885564e-07 -1.9749775e-08 -6e-45
-7.629711e-05 7.6159406e-05 3.1756722e-06 7.629711e-05 3.1756722e-06 0.0 -0.00065156375 0.00048458978
9.099328e-05 -0.0005903115 0.0006468075 -0.00017661139 -0.00014426213 -4.145371e-05 -0.00016011375 1.04387855e-05
-0.0003050932 0.00014405973 0.00010983342 -0.0007967183 -0.00078805385 2.2153637e-05 2.0420414e-06 -4.597058e-05
-4.050785e-05 -5.0267986e-06 5.7244655e-05 1.3435401e-05 -6.76351e-05 7.6170036e-05 7.078766e-05 7.4917885e-08
0.0 -6e-45 -2.3300841e-07 8.388362e-08 -6e-45 -2.3300841e-07 -8.3839225e-08 -6e-45
-5.8241705e-05 5.8232567e-05 1.5351337e-07 5.8241705e-05 1.5351337e-07 0.0 -0.0001937121 0.00018176122
0.00030488495 -0.00019826695 2.284945e-06 0.00014419868 -1.69787e-05 7.8660785e-05 -0.00012463394 -1.9991463e-05
-8.0599704e-05 0.00027346253 3.2486125e-05 -0.000142564 -1.7789704e-05 -5.428826e-06 1.9471983e-05 -5.363959e-06
-8.207242e-06 5.2048847e-05 3.4571432e-05 -1.1771644e-05 3.9276983e-05 8.985854e-06 -6.187284e-07 3.512331e-08
0.0 6e-45 -8.454636e-08 -2.3079378e-08 6e-45 -8.454636e-08 2.2397112e-08 6e-45
-3.779325e-05 3.7773847e-05 8.9992835e-07 3.779325e-05 8.9992835e-07 0.0 -0.00013145829 0.00010787009
-0.00014595415 -0.000133452 0.00022645987 -0.0001480755 1.7852213e-05 -0.00017769473 4.9846203e-05 -2.2659036e-05
-0.00016581223 0.0002224247 -1.4696676e-05 -5.6552348e-05 -1.0944577e-06 9.536004e-06 -1.7396559e-06 -3.4681711e-06
-6.8188956e-06 2.9659623e-05 5.284034e-05 -6.235018e-05 -2.6168289e-05 2.3265822e-05 2.5094072e-05 8.682219e-08
0.0 -6e-45 -1.5063021e-07 -2.7711314e-08 -6e-45 -1.5063021e-07 2.7856599e-08 -6e-45
-3.242501e-05 3.2433243e-05 -6.1749375e-07 3.242501e-05 -6.1749375e-07 0.0 0.00028894012 -4.837922e-05
0.00038457377 0.00026721528 2.918651e-05 0.00024060557 -0.000711855 3.0482892e-05 -0.00021274881 1.257791e-05
0.00041354928 9.605144e-05 1.97575e-05 -0.000237622 0.000115706316 1.9682417e-05 1.6884256e-05 2.8869226e-06
-3.2260587e-07 -6.502297e-05 -5.5951947e-05 6.1381674e-05 2.877826e-05 5.474058e-05 5.278485e-05 -4.9831566e-08
0.0 -6e-45 2.0226902e-07 3.080179e-08 -6e-45 2.0226902e-07 -3.0955366e-08 -6e-45
-8.478882e-05 8.480671e-05 -6.421963e-07 8.478882e-05 -6.421963e-07 0.0 0.00023159172 -0.00015699412
1.3922227e-05 0.00021846576 -0.00029595845 -1.9893389e-05 -0.0004095889 0.00023031291 0.000269609 -8.296961e-05
0.00017508671 -0.00034159236 6.8466645e-05 -0.00044551748 6.869507e-05 1.8811968e-05 -1.8916151e-05 -2.2254791e-05
-1.0172323e-05 -1.9877672e-05 1.1736051e-05 -5.2597534e-07 3.2442524e-05 5.7615103e-05 4.7162644e-05 8.071546e-08
0.0 -6e-45 -1.721444e-08 -5.69872e-08 -6e-45 -1.721444e-08 6.0341435e-08 -6e-45
9.06187e-05 -9.0547575e-05 -9.348422e-07 -9.06187e-05 -9.348422e-07 0.0 0.00010332965 -8.214822e-06
0.00028130386 -1.1984685e-05 -0.00041114795 0.0002796674 -0.00016271413 -0.0001456895 -0.00013973519 3.721851e-05
