logs/rl_games/yam_cube_sort_8192/2026-02-01_05-04-52/nn/last_yam_cube_sort_8192_ep_1400_rew_1205.9509.pth (torch, 953260 bytes, 30 tensors)

value_mean_std.running_mean f8 [1]
00000000: 8332 d983 9e90 d13f
0.27445185542891454

value_mean_std.running_var f8 [1]
00000000: 4eaf f3e5 2ec0 9b3f
0.02710030821337677

value_mean_std.count f8 []
00000000: 0000 8000 00e0 c541
734003201.0

running_mean_std.running_mean f8 [40]
00000000: 8672 78b2 37f5 ef3f c7f2 35d0 df63 553f
00000010: 59e2 bcf4 285c e63e 7d6c 1f22 9890 553f
00000020: 59e2 bcf4 285c e63e 0000 0000 0000 0000
00000030: 3e0f 1dca d21e d03f 95d5 4dbf e092 a3bf
00000040: 0db6 230f cfaa c83f be70 b829 7fdc cf3f
00000050: 41c3 a67b a6db a3bf 8af3 a95e 102b c93f
00000060: 6ef0 42e5 b0b3 9d3f 74d6 4cdb 2c3f d33f
00000070: 754e 4f44 2a1a 543f 5c77 f28e 0d68 e83f
00000080: d20b c364 5a55 d33f fae7 07fa 104a 5d3f
00000090: 3bd9 4592 0e68 e83f e426 4898 ae45 d33f
000000a0: 1e90 5778 0ee5 523f c87b 0598 0c68 e83f
000000b0: e85c d089 114d 273f 80a5 12e6 1c82 203f
000000c0: a63e 8a1a e7d3 22bf e708 4c09 c1f2 2c3f
000000d0: 2cab b39f 3fc6 1f3f 5c5b a8ba 309e 23bf
000000e0: cf6c 6b3b 1302 283f 2e95 bb19 a1fa 1f3f
000000f0: 3f94 d517 f74a 22bf e777 a7b6 a070 dd3f
00000100: 0000 0000 0000 0000 fe62 e37e eb51 e83f
00000110: 6772 b67e fb28 cc3f 5c6f 30b7 7bbc c13f
00000120: fe62 e37e eb51 e83f 6772 b67e fb28 cc3f
00000130: 5c6f 30b7 7bbc c1bf fe62 e37e eb51 e83f
0.9986837850334076 0.001305550162981438 1.0662078828370022e-05 0.0013162122418098048 1.0662078828370022e-05 0.0 0.2518813108219894 -0.03822996459249876
0.1927126716540645 0.24891652619488086 -0.03878517398277959 0.19662670728930848 0.02900577925969155 0.30073090950040826 0.0012269413721143461 0.762701777642842
0.30208453979520045 0.0017876783168717645 0.7627022606746218 0.30112805243753216 0.0011532441434321038 0.762701317707859 0.00017777289477358756 0.00012594797866442506
-0.0001436442955946488 0.00022085768127772591 0.00012120974854538659 -0.0001496729358485227 0.000183167312306809 0.0001219902828171928 -0.00013956323884226245 0.4599992545826112
0.0 0.7599999883924224 0.2200006836618684 0.13856455273423307 0.7599999883924224 0.2200006836618684 -0.13856455273423307 0.7599999883924224

running_mean_std.running_var f8 [40]
00000000: 4d3c 1e69 8489 553f 2d56 72ef e65c 553f
00000010: b47e 2598 bc5d e63e 8ec9 6195 8189 553f
00000020: b47e 2598 bc5d e63e 91bf 22e3 dc67 273e
00000030: f012 5573 2950 973f bb56 5e7b 6e06 573f
00000040: 3158 cd93 c22b 643f 9d1d c5da d7e2 983f
00000050: 1754 a20e f252 583f 3259 9783 80a2 6b3f
00000060: a70e 9694 db5d 813f dbd2 69a5 2cfd 5e3f
00000070: bc81 533c 9f90 623f e6f2 da0f 2fef 803e
00000080: 1949 265c a4d8 603f 8d73 a190 cf73 633f
00000090: 204f 1967 7afd 7d3e 7925 4a02 7513 603f
000000a0: 41f1 ab3a 093a 633f c983 10d4 ed05 7d3e
000000b0: a879 40df 6827 203f 7dee 0c29 39d8 293f
000000c0: 3190 c333 a642 fb3e 0e79 8a4e db9c 243f
000000d0: dd2a 87c1 5578 2b3f 57a4 ce31 10b3 003f
000000e0: 2251 d9d6 517a 1e3f 134a bb20 1b5b 293f
000000f0: c09d 93b4 ef28 f93e 0975 99b7 085c 2c3e
00000100: 91bf 22e3 dc67 273e 08b5 daa0 6176 323e
00000110: 8e81 d71b 2b8b 283e 05aa a2ae 1cdc 273e
00000120: 08b5 daa0 6176 323e 8e81 d71b 2b8b 283e
00000130: 04ea 8da1 1cdc 273e 08b5 daa0 6176 323e
0.001314524943584211 0.0013038878658212614 1.0665015683641303e-05 0.0013145223106475232 1.0665015683641303e-05 2.7247837537362455e-09 0.022766730942083535 0.0014053419995198452
0.002462272676363696 0.024302838065776922 0.0014846195067879148 0.003373385433160036 0.008479800674428729 0.0018914161679763261 0.00226622677529084 1.2617045535246733e-07
0.00205642797045259 0.0023745588305658706 1.1172201099781978e-07 0.0019624028521476014 0.002347009683374563 1.0811969720958789e-07 0.00012324481178978036 0.00019717881925794884
2.599749426303327e-05 0.00015726258358923117 0.00020957991433897305 3.185170337555918e-05 0.00011626362330591615 0.00019345003271682755 2.3994357694427084e-05 3.301481252267494e-09
2.7247837537362455e-09 4.29861880610789e-09 2.8572541821551875e-09 2.7776477689825856e-09 4.29861880610789e-09 2.8572541821551875e-09 2.7776476782145346e-09 4.29861880610789e-09

running_mean_std.count f8 []
00000000: 0000 0001 00e0 b541
367001601.0

a2c_network.sigma f4 [6]
00000000: 88b9 fabf 944a 02c0 1402 04c0 4f91 1cc0
00000010: 6eb2 00c0 cc33 003f
-1.958787 -2.035802 -2.0626268 -2.446369 -2.0108905 0.50079036

a2c_network.actor_mlp.0.weight f4 [256, 40]
00000000: 254f fc3d 0156 8fbd 806a 9cbe cf0b 4f3d
00000010: 99b0 8fbe 6290 8dbd 85f9 633e 6eb1 f23a
00000020: dea9 603e 98ff 37be c4b9 32be 0795 a1be
00000030: c7f0 cc3d 92b1 263d aadb 5c3c 8df1 093f
00000040: b267 31bd 55df 373c 9fae 193f 7982 abbb
00000050: 6c96 773c 925a 59bf 8b36 d63d 766f babd
00000060: f32a ca3e dd21 2ebe d316 023e 6a05 883c
00000070: 26d8 a43d 13bb 94be 3792 963d 1847 133f
00000080: f3cb 1b3e bdb8 0abe 8ead e4be 38f5 fd3e
00000090: 4f08 e4bd bc2e 67be 1c91 0dbf 746e 013e
000000a0: 832e 1fbe d55d 9fbb f13d 973d 6174 9e3c
000000b0: a4f6 af3d 1faf 19bd 62d6 cd3e 60e8 0cbf
000000c0: 6554 3dbe 8fd4 d5bd 86f1 4abe 93fb 573e
000000d0: eff1 2ebd 4136 d83d 5355 05bc deaa 9d3e
000000e0: 4fd5 85bc 8ba4 cd3d 671a 7f3d aa46 86bd
000000f0: 1875 353a 125d 483d ebf1 d8bc 5b9f a8be
00000100: d461 c43e 771b a5bc b85e 54be 3455 ecbe
00000110: a984 873d 1725 b3be a33a 9c3e ab35 bcbe
00000120: 2993 473d 6ccc 06be 3e3b 4c3e 779a db3f
00000130: 651d 263d f719 283e 8f0e eabf fd6f a1bd
00000140: eada acba e1b3 85bc 5c0b aebe 02a8 c6bd
00000150: 4800 e0be 62ea bcbd fc3c e6bd 3bfc d8bd
00000160: 2088 b1ba a9ab aabc c35b 173d 0c1b 7c3c
00000170: 3110 c1bd 7fbb fb3c b5a1 963c e02e dbbd
00000180: 6d47 593d 92d1 4ebd d7e2 a2be 4582 bb3c
00000190: 6aa5 1bbb d550 ecbe ba24 013c d14e 50be
000001a0: c39f 923e 9597 79be 2ce2 b33d 40a9 2a3e
000001b0: 40b6 c9bd 062d 02be bfae 67be f51a 193d
000001c0: 1af1 8dbc 7667 d0bd 476b 1c3f 3465 eebb
000001d0: cd08 cf3d 71c6 053f f2e8 82bd c219 8dbd
000001e0: f7eb a1bc 5f81 753e 5afd 7e3d 01bc 773c
000001f0: 15c7 dd3d 2851 c2bc 87dd 51bd a783 10be
00000200: b393 d53d 38f6 ab3d 794d 373d ccdb 15be
00000210: 6a0d 753e e9a8 c13c 2fb1 e63c 57b0 16bd
00000220: ec6d 963d 65b1 cabd b8d1 cf3d 340e 2abd
00000230: 90ba 343d 6c9e e5bd 5012 d63d 51e5 5ebd
00000240: 4f17 5c3e 2d18 633e e803 40be 7efc ad3e
00000250: a893 2b3e 683f 4cbe 1ff1 ca3d a484 e43e
00000260: 78fc ce3d 60e9 ff3d c3bb 4fbf e57c de3c
00000270: 8d35 0dbc a924 4ebf 6e7e ccbc 70bc 083d
00000280: 9fac 5fbe aa06 653d 53d8 d0be 5bce 123e
00000290: f085 0cbf 353b c3bd 7053 4fbe 1b4f e5bc
000002a0: 9e21 39be 2fe9 ce3d 1931 99bd 5b1e 5b3e
000002b0: 51af ddbc 5a9e 623c c982 013d a14f ba3c
000002c0: fb17 393c e8e4 9abb 9202 a7be 7bad 8abb
000002d0: 8d5f d93b c7bd 24be 4fe5 d2be 8741 8bbd
000002e0: 5b00 57bc a53c e7bd ea26 513d fb6f 28be
000002f0: 9803 c63d 9420 24be cb48 9f3c dd90 6dbd
00000300: 6e77 9b3d d2b2 083e 938f e13e e3a6 5e3c
00000310: b527 91ba 642b 733e d30b debd 47fd 16be
00000320: f34c 013c a36c 79bd 70c2 6a3e 09e7 dcbc
00000330: 21d7 6d3e f3e9 e3bd 4ba8 78be 3717 cd3d
00000340: f13f 6b3c 0ad6 373e 0c7a 4d3b 9190 bbbd
00000350: e44b 66bd ab67 debc edc0 1f3d 734f 8dbe
00000360: 0568 03bd 2de3 f93c 1586 65be 0217 c13c
00000370: 3fc1 aa3c 9816 97be 3c0a 2f3d 8311 883c
00000380: 9af5 36bc f671 ed3c 0948 69bd 0378 6fbd
00000390: add9 e9bd af70 a0be 99ea 9d3c 5bbe 0cbf
000003a0: 9506 c93d 4868 073e 5947 9c3f 05c0 a33d
000003b0: f888 edbd 58b0 8d3f 0602 12bd c4e2 12be
000003c0: c70d 79bd acb1 623c b120 aabe b404 60bd
000003d0: 8b23 c4be e998 4dbd 86ba 4ebe c299 4e3e
000003e0: f188 973d 9074 dd3d 9451 acbd 2360 11be
000003f0: 5a30 dbbe a04d f6bd 8b82 093c acb8 1c3f
0.12319783 -0.06998826 -0.30550003 0.05054837 -0.2806442 -0.069123045 0.22263153 0.0018516013
0.21939799 -0.17968595 -0.17453676 -0.3155901 0.10006862 0.040696688 0.013480106 0.538842
-0.043311782 0.01122268 0.60032076 -0.0052340594 0.015111547 -0.84903824 0.10459622 -0.09103291
0.39485893 -0.17005105 0.12704019 0.016604144 0.080490395 -0.29048976 0.07352107 0.57530355
0.15214519 -0.13547035 -0.44663662 0.4960115 -0.11134397 -0.22576421 -0.55299544 0.12639791
-0.15545087 -0.0048634806 0.07384861 0.019342603 0.08591965 -0.037520524 0.40202624 -0.55042076
-0.18489225 -0.10440933 -0.19818696 0.21092062 -0.042711195 0.10557223 -0.008138019 0.30794424
-0.016337065 0.1004115 0.06228104 -0.06556447 0.00069220504 0.048916884 -0.026482543 -0.3293408
0.38355887 -0.020154698 -0.20739257 -0.46158755 0.066171 -0.34989235 0.30513486 -0.36759695
0.048724327 -0.13163918 0.19944474 1.7156514 0.040555377 0.16416155 -1.8285693 -0.07882688
-0.00131878 -0.016321125 -0.33993042 -0.09700014 -0.43750215 -0.092243925 -0.112421006 -0.10594984
-0.0013544597 -0.020833807 0.036952745 0.015387308 -0.094269164 0.030729054 0.018387655 -0.107023
0.053046633 -0.05049283 -0.3181369 0.022889266 -0.0023749718 -0.4615542 0.007882291 -0.20342566
0.28637514 -0.2437423 0.08783373 0.16666126 -0.098492146 -0.12712488 -0.22625254 0.037379224
-0.01732688 -0.101759836 0.6110119 -0.007275248 0.101091005 0.5225592 -0.06392087 -0.068896785
-0.019765837 0.23975132 0.062253334 0.015120507 0.108289875 -0.023720339 -0.051236656 -0.14112721
0.10428562 0.08396572 0.044751618 -0.14634627 0.23930898 0.023640113 0.02816066 -0.036789265
0.07345185 -0.098971166 0.101474226 -0.04151745 0.044123232 -0.11211857 0.104527116 -0.054417912
0.21493267 0.22177191 -0.1875149 0.339817 0.16755545 -0.19946063 0.099092714 0.44632447
0.10106748 0.124956846 -0.81145877 0.027159164 -0.0086187245 -0.8052469 -0.02496263 0.033382833
-0.21843193 0.05591456 -0.40790042 0.14336531 -0.5489187 -0.09532777 -0.20246673 -0.027991822
-0.1807923 0.1010307 -0.07480068 0.21398298 -0.027061136 0.013831699 0.031618867 0.022743048
0.011297221 -0.004726995 -0.32619148 -0.0042321063 0.006633705 -0.1608802 -0.41190574 -0.06799608
-0.013122643 -0.11290864 0.051062502 -0.16448967 0.09668654 -0.16028053 0.01944389 -0.05799948
0.07591139 0.13349465 0.4405485 0.013589594 -0.0011074456 0.23747021 -0.10842099 -0.14745055
0.007891881 -0.06089462 0.22925735 -0.026965635 0.23226596 -0.11128607 -0.24282949 0.100141935
0.014358507 0.17952743 0.0031353263 -0.09158433 -0.05622472 -0.027149042 0.039002348 -0.27599677
-0.032081623 0.030503834 -0.2241443 0.023570541 0.0208441 -0.29509425 0.04273437 0.016609913
-0.011166954 0.028985005 -0.056953464 -0.05846406 -0.114184715 -0.3133597 0.019276904 -0.5497796
0.098157085 0.13223374 1.2209274 0.07995609 -0.1159839 1.1069441 -0.03564646 -0.14344317
-0.060804155 0.013836306 -0.33228067 -0.054691985 -0.38308367 -0.050194655 -0.2018834 0.20175841
0.073991664 0.10813248 -0.08413997 -0.1419683 -0.42810327 -0.120265245 0.00839294 0.61219287

a2c_network.actor_mlp.0.bias f4 [256]
00000000: 611c 9dbc 1512 183d b98b a63c 5f32 42bd
00000010: e8c3 9a3c 4eaf b93d 959a 583d 74d8 fc3c
00000020: 4ee3 8abd 23cb 2ebd 178f 8c3d 844f ac3d
00000030: 5a91 bf3d 9ca2 90bd 152b 9d3d baaa 753e
00000040: a2a2 a73b c8bb 56bd 28c9 273d 0f2b 493e
00000050: 64c3 d43d 8fdb 0ebf ae8d ddbb 2c78 92bd
00000060: 796d 5bbe b800 2cbb 5ccc d6bc 0cf6 b2be
00000070: 999b 58bf 483d a13e 8389 8cbd 07a3 bebd
00000080: 16c6 14bf bd39 98bd 2377 14bf e3cf febd
00000090: f08d df3d e9fb 48be 1316 90be 7400 14be
000000a0: 3b3d 02bd 4252 113b 46d8 2bbd b700 b23e
000000b0: d7d9 a03d a9c7 443e 3a00 d6bd a9cf 60be
000000c0: 81cd 303e f529 cabd 7805 2ebd 6cf5 6c3d
000000d0: c1fb 33be 81ee 923d 2208 f93d 6246 4a3c
000000e0: cf17 6f3d 27b7 47bc 9b3a 3ebd 354f a83d
000000f0: 6fc3 cabe 739d 76bd bdc2 c83d cfb5 153d
00000100: e6a6 b73d 528b 993d 3ac4 96bd 7a3d debd
00000110: 9781 cebe 4559 063e 34e7 83be e9a2 f3bc
00000120: d7bc e9bc 25fc 9d3e 8124 1ebe 4d66 75bd
00000130: d5d4 51bd c6a2 3ebd a1a3 353e 2142 14bd
00000140: 83cb 803d e397 193d 0320 cc3d ac08 5a3e
00000150: 0259 86be 39b3 56bd 545f 033f 82dd 8abe
00000160: 7f14 193e 0ff6 3cbd e06d 443e 6e7c 5fbe
00000170: 371a b33d dfeb 48be f027 fc3d 84b7 8b3c
00000180: 6b20 1a3d 1327 64bd 47a9 80bd f1f4 d8be
00000190: 24eb 45bd f042 c23d 4163 cbbd 043a aebd
000001a0: 00f9 12bf a614 2ebd 0efe a2bd 56b9 923b
000001b0: 8325 26be 6dc2 0dbe be31 933d 8c80 0abd
000001c0: 2642 f5bd 4eab 043e 7272 80bd ed09 86bc
000001d0: 2d3e debd 7620 d9bd d5fc 693c a457 7bbe
000001e0: 2202 6a3d d9d1 09bd bd60 a23e 53d0 d7bd
000001f0: 055f 4c3e d27a c33d 50c1 1d3e a106 adbd
00000200: dd55 1cbb e72c c3bd 5007 a4be ac47 9bbd
00000210: 5138 7a3d b035 203b a100 d5bd 341c f2bc
00000220: b329 f9bd 8351 523d 374d 153e ccbc f1be
00000230: a665 a8be 4e84 3e3e b372 d4be 71ce 413e
00000240: 79a6 f63d e94e e13d ad30 f6bd 53dd 5ebe
00000250: d1fe e5bc 2a18 423d 371f e0bc 7095 503d
00000260: e335 c53d 9e9a 533d f4fb 78be 3f77 85be
00000270: 3c23 013e e748 fe3d 8804 20be 44bb 2a3d
00000280: 6c6a 55bc 4370 183e 18e0 7c3e 45b4 98bd
00000290: ae1d 90be 5c37 2e3d fa33 d03d 11a4 8bbd
000002a0: 6583 be3d d162 033d ddd0 573e dddc 493e
000002b0: bbe2 9bbd 3139 66bd f907 b83c 8655 9ebd
000002c0: 03f2 2cbe f62b 84be 2b3c 90be b7ff bd3d
000002d0: 7730 753d 1e9a 153d 62aa f43d f8bc 08be
000002e0: c8bb 153d 7cc5 6abc 02b8 823d e9d5 b0bd
000002f0: 499b 733e 9795 bb3d 362c 2dbd 647c 22bd
00000300: ba5e 93bd caf9 2fbe 0230 bbbd 8d03 793d
00000310: 0e01 67be 7516 533e 20e7 1ebc 6c92 c23d
00000320: d1d7 133d a99e 9cbd b5db 86be d838 6a3d
00000330: ed8a a83d 4ba5 353d 90c2 183d 5f94 1bbd
00000340: f910 693e aa97 8c3d 565c 83bd 8a10 8fbe
00000350: b82d 6cbd 4806 fbbd 559c a33c 7e2d afbc
00000360: 4e2d 463e 0745 2abd f052 3d3e db92 153e
00000370: b80a ae3d c2ca 363e 388f 833d 769f c9bd
00000380: aa4a 97bb e5f0 d1bd c373 1ebc 94b1 7a3c
00000390: 120f 51be 01d1 8bbd 32ef 683e 224b 16be
000003a0: c4fa 08bd 55e3 be3e 35fa 62bd 1065 aabd
000003b0: 7779 d5bb 6562 4b3e 43c8 cc3d 8496 24be
000003c0: af9d 4d3e bd4f 11be 0154 0dbf 6698 b6be
000003d0: 43ca 01bc 65ef 6f3b 78de a5bd 3e88 193d
000003e0: 1e06 b73e 3bb9 d23d 82a9 c2bd eb0c df3c
000003f0: e172 dabd 5be3 f7bd 329b 0e3d 9ea8 bfbd
-0.019178571 0.03712662 0.020330297 -0.04741132 0.018892244 0.0906664 0.052881796 0.030864932
-0.06781636 -0.042674195 0.0686323 0.08413604 0.093538955 -0.07062265 0.07674233 0.23990908
0.005115823 -0.052425176 0.040963322 0.19645332 0.1038883 -0.5580377 -0.0067612743 -0.07151827
-0.21428479 -0.0026245546 -0.026220493 -0.34953344 -0.84612423 0.31492066 -0.06862166 -0.09308439
-0.58114755 -0.07432888 -0.5799429 -0.12441995 0.10915744 -0.19627346 -0.2814184 -0.14453298
-0.031796675 0.0022174274 -0.0419543 0.3476617 0.0785405 0.1921679 -0.10449262 -0.21954216
0.17265894 -0.09871284 -0.042485684 0.05785124 -0.17576505 0.07174397 0.12159754 0.012345882
0.058372315 -0.012189663 -0.04644261 0.082182325 -0.3960223 -0.06020875 0.098027684 0.03655034
0.0896738 0.07497276 -0.07361646 -0.108515695 -0.40333244 0.13119991 -0.2576233 -0.029740768
-0.028532429 0.30856434 -0.15443613 -0.059912015 -0.051228363 -0.04654195 0.177382 -0.036195878
0.06288817 0.037498366 0.09967043 0.2129237 -0.26239783 -0.052417014 0.51317334 -0.27122122
0.14949225 -0.046133097 0.19182539 -0.2182481 0.087452345 -0.19621228 0.12312305 0.01705528
0.037628572 -0.055701327 -0.06282287 -0.42374375 -0.04831995 0.094854236 -0.099310406 -0.08507159
-0.57411194 -0.04250016 -0.07958613 0.00447766 -0.16225247 -0.13843699 0.07187222 -0.033813998
-0.119755074 0.12955973 -0.06271829 -0.016362155 -0.10851703 -0.106018946 0.014281471 -0.24545151
0.05713094 -0.033647392 0.3171443 -0.105377816 0.19958122 0.095449105 0.15405774 -0.0844853
-0.002385489 -0.09530049 -0.3203683 -0.0758203 0.061088864 0.0024446063 -0.104005106 -0.029554464
-0.121661566 0.051347267 0.14580236 -0.47214353 -0.32890052 0.18605158 -0.4149376 0.18926407
0.12043471 0.11001379 -0.12021003 -0.21764116 -0.028075607 0.047386326 -0.027358634 0.050923765
0.09629419 0.051661126 -0.24314862 -0.2606754 0.12611097 0.12416249 -0.15626729 0.041682497
-0.013025861 0.14886574 0.2469486 -0.07456259 -0.28147644 0.042533264 0.10166164 -0.068184026
0.09302405 0.03207666 0.21075769 0.19713159 -0.07611605 -0.056206886 0.02246474 -0.07731156
-0.16889195 -0.2581479 -0.28170905 0.09277289 0.059860673 0.03652393 0.119465604 -0.13353336
0.036556035 -0.0143293105 0.06382753 -0.0863455 0.23789705 0.091593914 -0.04227849 -0.03966941
-0.07195802 -0.1718513 -0.09140016 0.060794402 -0.22558996 0.20614035 -0.009698659 0.09500584
0.03609449 -0.076474495 -0.26339498 0.057183117 0.08229623 0.04434709 0.037294924 -0.037983295
0.22760381 0.06864865 -0.06414096 -0.27942306 -0.05766079 -0.122570574 0.019972006 -0.021383997
0.1935322 -0.041569736 0.1848867 0.14606802 0.08498138 0.17850783 0.06423801 -0.09844868
-0.004617055 -0.10251025 -0.009671154 0.015301127 -0.20415905 -0.06826974 0.22747496 -0.14677098
-0.033442274 0.37282816 -0.055414397 -0.083200574 -0.006514724 0.19861753 0.099991344 -0.16073042
0.20079683 -0.14190574 -0.55206305 -0.35663146 -0.007921758 0.0036611196 -0.08099073 0.037483446
0.35746855 0.10289236 -0.09504987 0.02722784 -0.10666443 -0.121039115 0.034815975 -0.09358333

a2c_network.actor_mlp.2.weight f4 [256, 256]
00000000: a2d1 043e b403 f0be f34f fe3d 18cf 083e
00000010: 0602 f83d 549f 18bd 454c 84be 1482 b3bd
00000020: 0b22 58bd 0c4c 3a3d 04ba a0bd 4a7f c9bd
00000030: eccd e2bd 2453 02bd cdc8 8fbe c7bb a63c
00000040: d99c 863e 19ed 2abf 12cf c1bd dd62 69be
00000050: 897e 72be 7019 9dbe a89e 60bd a7ff a43e
00000060: 79b5 2fbe d6b3 05be a76e 89be 860f 27be
00000070: 0445 083e dce8 44be cec2 0abf db2a c7bd
00000080: cd5a 2f3d b761 92bd 38fc 173e b10e d23d
00000090: dc04 90be f1f8 c63d e7f9 0abd 9ff4 b2be
000000a0: d9c6 ef3c dde6 9abc 8912 f93d 018b 6bbe
000000b0: 05ac 92be 726c 45be cf3d c33e 9d5c 1cbd
000000c0: ce4e cfbe dcdb 3dbe caaf 00be a5b4 f43d
000000d0: bbcd 39be 8f22 4abe 013e 97bd 4fb0 b3be
000000e0: e9c7 e0be e1dd e4bb 98c2 85be 604b 96be
000000f0: 3c36 613d 7009 52bd 1d98 c5ba c0e8 15bd
00000100: 6aaf 78be fd99 843e 69bf 6ebc 56d8 1d3e
00000110: a4d1 2abe 3975 8abe 7128 bb3e 67a0 eb3c
00000120: a61e 4ebe e557 04be 24c7 c5bd 5a7c 183e
00000130: 7a41 92be 0188 1abe b917 8cbc 3026 72be
00000140: 08ea a63d e79f 10bd 2270 883d 42bc 75bd
00000150: aff7 0b3f fa7a 62be f604 bbbd c013 0bbe
00000160: e009 30be fba0 0b3d 207c 7ebe 70c3 0cbf
00000170: 465a 3cbe 7222 5b3e 2c0d 703d 99f8 943b
00000180: c1fd 873d 59ec f63d e0f2 e9bd c16b 323e
00000190: 9920 06be 12f2 40be 82c4 6a3e f2e2 f3bc
000001a0: 5002 6bbe 5a91 713d 868d 55bc a3da 99bc
000001b0: 4296 d53c d96d 24be 4347 043e 3c14 39be
000001c0: 5268 a13d efe0 45be 76c0 b0bd 56c0 cebe
000001d0: 1746 233d 246a 9f3e 320a 67be 8320 de3d
000001e0: b7ee 2ebe dffb 443e 33be bbbe 583f a9be
000001f0: cacf 58be 5b9e 2ebe 21da efbd 18fb 8fbe
00000200: 8444 d2bd fc4a 01be e2ff 073e 356a 1a3e
00000210: 1a10 f5bd ed63 323e 9b26 e3bd 85c9 5b3d
00000220: 054e 1fbe 16e7 abbc 2269 e33b 0ac5 38be
00000230: 6a36 b03e 2cf2 dbbd 02a6 d4bd 6706 0ebe
00000240: 8870 bfbe 0da3 843e 540d 033d 6c7a 95be
00000250: 19be 81be d9bc 483e bf14 38be 6080 3fbe
00000260: 5421 59bc 9a4c f2bd 8ce2 b13d e535 493e
00000270: d56f 2fbb 7b3b 7f3d d2de 383e 4f99 7f3e
00000280: e790 76be a61c 8ebe 2d1c dabd c084 f2bd
00000290: b1e5 37be f52b 8a3d b39f 3abe 1ac9 13be
000002a0: 2844 86be 7713 95be ae0c c6be b2f4 1abe
000002b0: fcaf 62be 298f 0b3e 8e97 f6bc 4443 a33e
000002c0: 99ff 703e b4ee c63d a71d 95be 4e23 59bd
000002d0: f7e3 033d 74c2 db3d cf2b 28be 9e64 3b3d
000002e0: 012e 133e 14be 303e ab72 a3be 4a5c 143e
000002f0: ab7f 44be 0ff2 35be 7aac 3ebe f5f6 b6be
00000300: ee47 6bbe 355f 8abd 2f2b 963c 8bf3 d83d
00000310: e018 2d3d e032 7ebe 1384 443e 6d5d b1bd
00000320: c730 01be 42a7 0d3e fdce dc3d 8806 6dbe
00000330: 27e8 17be e66a 36bd 6cac a83d a829 84be
00000340: 6b75 3bbd 33ce 14be f26e 9bbd 985f 40be
00000350: bd7e 1c3e a98f 9ebe 0beb 653d eb0d d2bd
00000360: 8b34 acbd 1025 c33d 938f 59bc c971 a6bd
00000370: 28b4 72bd fae6 b43b d7a3 bebe 8ef7 463e
00000380: 880b 10bf 8927 ea3d 992f bb3b 0163 0dbe
00000390: d8c7 2ebe 2f8b e93d f9d2 a0be 524f 393e
000003a0: 9a16 253e c895 cf3c 0110 b0be 4709 033e
000003b0: 137a 043e 08d2 2ebd 9336 47be 4a56 30bd
000003c0: ed40 5dbe 15ba 743e 06c0 adbd 7930 d9bd
000003d0: c45e 043e 9843 5ebd f52a 59bc 69c0 4b3b
000003e0: 0d1a b2bd 05ca a6be 0e69 383e 0616 673e
000003f0: 383e 183e 25f3 993e b3b0 023e b41d 073d
0.12970594 -0.46877825 0.12417593 0.1336025 0.12109761 -0.037261322 -0.2583944 -0.08765045
-0.05276684 0.04548268 -0.0784798 -0.098387316 -0.11074433 -0.03181757 -0.28082886 0.020353211
0.2629154 -0.6676803 -0.09463324 -0.2279162 -0.23681082 -0.3068347 -0.054838806 0.32226297
-0.1715907 -0.13056883 -0.26842234 -0.16314515 0.13307577 -0.19229454 -0.542035 -0.09724971
0.042811204 -0.07147544 0.14842308 0.102567084 -0.28128707 0.097154506 -0.03392973 -0.34952256
0.029269623 -0.018908912 0.121617384 -0.23002245 -0.28646865 -0.1927965 0.38133094 -0.03817426
-0.4048981 -0.18540901 -0.12567058 0.11948518 -0.18144886 -0.19739746 -0.07384873 -0.3509545
-0.4390252 -0.006984458 -0.26125026 -0.29354382 0.054983363 -0.05127853 -0.001507524 -0.03659892
-0.24285665 0.25898734 -0.014572003 0.15414557 -0.16681534 -0.2704256 0.36554292 0.02876301
-0.20128879 -0.12924154 -0.09657124 0.14891186 -0.2856558 -0.15090944 -0.017101156 -0.2364738
0.08150107 -0.035308745 0.06662013 -0.05999399 0.5467481 -0.22117224 -0.091318056 -0.13581753
-0.17191267 0.03408907 -0.24852037 -0.54985714 -0.18393812 0.21399859 0.05860631 0.0045462367
0.066401966 0.120567985 -0.11423278 0.17423917 -0.13098373 -0.18842342 0.22926524 -0.029771302
-0.22950101 0.05897651 -0.01303423 -0.018781012 0.026072625 -0.16057529 0.12917809 -0.18074125
0.07881226 -0.19324087 -0.08630459 -0.40381116 0.039861765 0.31135666 -0.22562483 0.10846045
-0.1708325 0.19236706 -0.36668548 -0.3305614 -0.21173015 -0.17052595 -0.11711527 -0.28121257
-0.102669746 -0.1262626 0.13281205 0.15079577 -0.11965962 0.17420931 -0.11091348 0.05365898
-0.15557106 -0.020984214 0.006940023 -0.18043914 0.34416515 -0.1073955 -0.10383226 -0.1386963
-0.37390542 0.25905648 0.031995133 -0.29194963 -0.25340346 0.1960329 -0.17976664 -0.18701315
-0.013252575 -0.11831017 0.086857885 0.19649465 -0.0026769538 0.062312584 0.18053749 0.24960826
-0.24078713 -0.27756232 -0.10649905 -0.11841726 -0.17958714 0.067466654 -0.18224983 -0.14432183
-0.26223874 -0.29116413 -0.3868155 -0.15132406 -0.22137445 0.1362883 -0.030101564 0.31887257
0.23535003 0.09713498 -0.29124185 -0.053012185 0.032199826 0.10730448 -0.16422962 0.045750253
0.14373018 0.17260009 -0.31923422 0.1448833 -0.19189326 -0.1776812 -0.18620482 -0.35735288
-0.22976658 -0.067564406 0.018331138 0.10593327 0.04226005 -0.24824095 0.19191007 -0.08660398
-0.12616263 0.13833335 0.107816674 -0.23147023 -0.14834653 -0.04453554 0.08236012 -0.2581303
-0.045766275 -0.14531784 -0.075895205 -0.18786466 0.15282722 -0.3096898 0.056132358 -0.10256561
-0.08408459 0.095285535 -0.01327886 -0.081271715 -0.05925384 0.0055206986 -0.37234375 0.19430372
-0.56267595 0.11433322 0.005712461 -0.13807298 -0.17068422 0.114035 -0.3141096 0.18096665
0.16121903 0.025339976 -0.3438721 0.12796508 0.12937193 -0.04268077 -0.19454412 -0.04305104
-0.21606798 0.2389911 -0.08483891 -0.106049486 0.12926775 -0.05426368 -0.013254871 0.0031090027
-0.08696375 -0.32576004 0.18008825 0.22566995 0.14867485 0.30068317 0.12762718 0.03298731

a2c_network.actor_mlp.2.bias f4 [256]
00000000: 0807 60bc 546b 553d d06b bcbc e072 e8bc
00000010: 5440 05bd b8b1 3cbc ce28 a6bc da41 9bb7
00000020: 7695 c0bb b297 083d add7 73be bd2f 20bc
00000030: d502 95bc aafc 653d 58e7 dcbc b180 563c
00000040: 3680 babb caf1 b0bb 050e 78bd 12a9 0cbe
00000050: fe94 00bc d552 08bd cfcf c8bc 1ee3 b7be
00000060: e553 0bbd f234 293d 2c6a 1cbc be70 69bc
00000070: 7abd 853c 3698 8b3d 7178 63be 275c 8dbe
00000080: ac6c 3c3d bb9d e8bb d352 9cbc 4c3f 49be
00000090: b6ab 41bb 7d73 dd3c 6574 ddbb 8c97 0ebd
000000a0: 246c ba3c 7e2a 833c c1c0 0e3d 5c07 f6b9
000000b0: e1c5 723c 4394 ef3c 83d5 b13c 381f 3bbd
000000c0: e4e5 203c e1b9 923d 1e89 70be 3064 6b3d
000000d0: f32c 01bc 42d3 04bd db64 2aba b6ca ba3c
000000e0: 49dc a03c e5c6 bf3a 1327 72bc ac6e 3bbd
000000f0: 26a5 9b3b 033c f2bd 354c d03c 981c 3a3c
00000100: 230b 1bbc 200b 423d 176d 433d 655d 8a3c
00000110: 8479 1b3c 0478 1e3d 5978 0cbe 4c51 ab3c
00000120: 8ab4 d3bc 888d 2d3d e92f bdbb 3d15 b8bc
00000130: 43bb 20be ab4c c23c 5494 7bbb 9706 3b3c
00000140: 46c8 94bd 2fd4 3b3d 9e02 bbbb e047 7c3d
00000150: 6f8b 753c a9d2 9abc 2a83 17bd 1698 52bd
00000160: 7d79 a4bd 3099 4bbc 22a9 6dbc 7661 113d
00000170: b313 db3b 404e dd3b 7ab7 1abd 4033 dfbe
00000180: ba2b 10bd 594c 4cbc 7a8f d63c 9975 f6bb
00000190: bb7b d8be 0f3d c8bc 0d53 b73b 14da 993c
000001a0: 7d89 d6bb 25ce 3e3c 7adb 183d 8767 193d
000001b0: 2d51 c73b 2de0 eebe 3839 863b e27a a2bc
000001c0: c389 dc3c 66f8 c9bd fe4b 51bc 15fe f6bd
000001d0: 367f edba c023 00bc 3cc7 b5bc 7b9b 8ebc
000001e0: cf3d 2abd 3a1a a6bc 05e8 f5bc 9167 113c
000001f0: aa66 91bc 728c 3abd 0acf dbbe e5a5 a6bc
00000200: a676 5d3b 029f 12be 4dbd 1bbc 0337 84be
00000210: 3db9 003d d38a a23c 795e 703c 3838 3fbd
00000220: ff6c debd dfbb bcbe 240b fdbd 9b4e 373d
00000230: 7048 d3bb 7f6d acba 4596 bebe 1360 e5bd
00000240: 9416 423d 3519 e1bb 45e8 17bd 1d98 4bbd
00000250: 9d61 27bc d3d4 a1bb 3d44 c9bd 58d6 63bc
00000260: cf63 693c 7195 3f3a 31ce d73b 1f72 b43b
00000270: e836 56bc a818 61be 579c 14bf 46a7 c03c
00000280: a906 cebb 6efb 5c3d 2bd7 dabc 09fb 1dbe
00000290: c946 2cbd 7e33 0abb 39fb 243d 1f34 a03b
000002a0: 0e3c d6bb dba3 323c 1854 b9bc d39a bd3c
000002b0: 5982 713c c2ad edba f45e 223b 8a60 7739
000002c0: 25a7 9f3d d281 0c3c 9ac2 80bc 4fa8 06bd
000002d0: c7a4 803c e6c9 973d 2927 03bd 024d 5dbd
000002e0: 3cc7 a63d cef9 3d3d c2d0 89bc 5f87 a6bc
000002f0: 742a c2bc fe5e 933c b8c3 513d 6c46 3a3d
00000300: 8ed2 f13c 1b22 b5be 7db5 683b 923b a7bd
00000310: b76b e1bd fc98 1abe 7b25 3ebe 11b1 a1bb
00000320: 2cd2 db3d 42c6 f1bc d3ec 1f3b 383d 8e3c
00000330: 3bb6 d63c 267d 5c3d a63c 44bc 1eb6 8e3d
00000340: 36c2 7fba d6eb cc3c a31e 133c ddb1 83be
00000350: 579f 5abc 3077 9cbd fa1c de3c f324 e6bc
00000360: 669b 26bd 30e4 14bc 613d 0b3d e25a 1a3d
00000370: 13b3 013d b78c 05be 3b76 0a3d 544f 88be
00000380: c9f0 2e3d a733 87bc 9577 04bd f580 583c
00000390: 27b3 c9bc 2a39 dfbc ca46 103c ea99 8dbc
000003a0: c742 043d e97d 87bc fde4 d1bb 5934 0abc
000003b0: 87fd aa3c 2e8f a8bc 052a e43c 1717 cfbd
000003c0: 698c 3bbd ccdf cb3b faa7 373c ee7d 9e3d
000003d0: ca37 3abe 82bf c03c 7778 2e3c 9d38 493d
000003e0: e7c5 b03c fa83 e23c 2339 073d 45cf babb
000003f0: 9752 44be 1bc0 083d a5db 11bc ac74 70bc
-0.013673551 0.05210431 -0.023000628 -0.02837509 -0.03253205 -0.011516981 -0.020283129 -1.8508104e-05
-0.005877192 0.033347793 -0.23812743 -0.009777007 -0.018189827 0.056149162 -0.026965782 0.013092206
-0.0056915535 -0.0053999173 -0.060560245 -0.1373637 -0.0078480225 -0.03328212 -0.024513153 -0.35915464
-0.034015555 0.04131026 -0.009546798 -0.014248071 0.016325701 0.06816141 -0.22213914 -0.2760937
0.046002075 -0.007098881 -0.019082462 -0.19653052 -0.002955181 0.027032608 -0.00675826 -0.034812495
0.022756644 0.016011473 0.034851793 -0.0004692626 0.014817686 0.029245501 0.021708256 -0.04568407
0.009820435 0.0716436 -0.23489806 0.057468593 -0.007884252 -0.032428034 -0.0006500014 0.022801738
0.01963629 0.0014631419 -0.014779824 -0.04575984 0.004749912 -0.118278526 0.025426963 0.011359356
-0.009463104 0.04737389 0.047711458 0.016890237 0.009489421 0.038688675 -0.13717784 0.020912789
-0.025842924 0.042371303 -0.0057735336 -0.022471065 -0.15696435 0.023718199 -0.003838797 0.011415145
-0.072647616 0.04585665 -0.005707099 0.061591983 0.014986857 -0.018899279 -0.036990322 -0.05141457
-0.080309846 -0.012426659 -0.014505656 0.035493337 0.006685698 0.006753713 -0.037772633 -0.43593788
-0.03519795 -0.012469375 0.026191462 -0.007521343 -0.422819 -0.024443178 0.005594617 0.018780746
-0.0065471516 0.011645828 0.037318684 0.037452247 0.006082675 -0.46655408 0.0040961765 -0.019833986
0.026921159 -0.09861831 -0.012774466 -0.12060181 -0.0018119577 -0.007821023 -0.022189729 -0.017408123
-0.04156285 -0.020276178 -0.030017862 0.00887479 -0.01774915 -0.045544095 -0.42931396 -0.020342777
0.0033792644 -0.14318469 -0.009505582 -0.2582322 0.031426657 0.019841587 0.014670962 -0.046684474
-0.10860633 -0.36862084 -0.123556405 0.0447527 -0.006447844 -0.0013155191 -0.37224022 -0.11199965
0.047384813 -0.00686946 -0.037086744 -0.049705613 -0.010216144 -0.0049387007 -0.098274685 -0.013906084
0.014244988 0.000730834 0.006585859 0.0055067684 -0.013074614 -0.21982062 -0.58051056 0.023517262
-0.006287415 0.05395072 -0.026713928 -0.15427794 -0.042059693 -0.002108782 0.040278647 0.004889026
-0.006537921 0.010903324 -0.022623107 0.023145115 0.01474055 -0.0018133449 0.0024775835 0.00023591719
0.07795552 0.008575873 -0.015717793 -0.032875355 0.015703572 0.07411556 -0.032019768 -0.05402852
0.0814347 0.04638081 -0.016823176 -0.020328222 -0.023701884 0.017989632 0.051212043 0.045477316
0.029519346 -0.35377583 0.0035508566 -0.08165659 -0.11006873 -0.15097421 -0.18568985 -0.004934438
0.107334465 -0.029513482 0.0024402633 0.017363176 0.026209941 0.05383029 -0.01197735 0.0696833
-0.0009756418 0.0250148 0.008979472 -0.25721636 -0.013343654 -0.07639921 0.027113426 -0.02809379
-0.040675543 -0.009087607 0.033994082 0.03768433 0.03166492 -0.1304196 0.03380416 -0.26623023
0.0427101 -0.016504122 -0.032340605 0.0132143395 -0.02462156 -0.027248938 0.00880594 -0.017285306
0.032290246 -0.01653953 -0.0064054714 -0.008435332 0.020872844 -0.020576086 0.027852068 -0.10111826
-0.045788202 0.006221747 0.011209482 0.07738863 -0.18185344 0.023528818 0.010648838 0.049126256
0.021578742 0.027650822 0.033013474 -0.005700978 -0.1917213 0.03338633 -0.008902465 -0.014676254

a2c_network.value.weight f4 [1, 256]
00000000: 645c 883c 8275 2b3c c534 033d aae8 2a3d
00000010: c5a0 1dbd 4b63 1abc 16cf 973c 1063 103d
00000020: 2eaf 0dbc 4938 62bc 7862 47bc 2e0f 0bbc
00000030: b1f1 153c 2fb7 073c 1d58 82bc 42db ebbb
00000040: 2028 9a3d e3e0 9dba 9537 b2bd c8b3 a23c
00000050: afef 963c b495 403d ce46 6a3d e363 373c
00000060: 1eec 1f3d 9b2d 2a3d fea7 503c 2972 d4bb
00000070: 5874 4f38 6508 08bc bcb7 103d 438b a4bd
00000080: 548b 063d 4292 62bd ee57 183c 0f40 aabc
00000090: 9632 a23c 7b7d cebc 6ec7 113d 9c2e 093d
000000a0: 8e0a 17bc fbb4 deb9 92e2 053b e697 683b
000000b0: bce1 a9bc 6706 b23a 02ef bcbc af3d d8bc
000000c0: c3cb 50ba 94ce ad3c bdbc 173d 0911 c43c
000000d0: b866 9bbc abd0 8e3c 5a88 59bc 2dba fdbc
000000e0: 42b3 bd3a 38c3 1a3b 725d c23b f67d 023d
000000f0: f9b5 6e3a bf3a d5bd fb25 e4bd 7f3e a2ba
00000100: ff11 1f3d 1d7c b13a e3ee d43a f4f1 8fbc
00000110: e055 67bc 6623 973a a88d 9b3c 06e2 c2bc
00000120: 3334 d4bb d6a7 32bb 4250 a3bc aa4c 90bc
00000130: af25 aa3d 5209 a53c 86fb 12bc 88dd 6cbc
00000140: 16eb 06bd 04d8 0dbd 8f08 403b 94cc 22bd
00000150: 66aa 363b 29ad 2c3c 7a98 113d 7c4f 7bbb
00000160: 9bf0 97bd 9b6a b2bb d9ef ccbc 8b27 20ba
00000170: 80e3 04bc 2d8c 95bc a089 8c3c e3ee 0ebe
00000180: 7a27 a73c b4a5 1cbd 559f 923c ef77 3abc
00000190: 112e 03bc 76b2 22bc 1cf7 123b 1a61 613b
000001a0: d24e 77bb 805e 923c f3cc 2cbc ca66 a13c
000001b0: 97df 51bc 8dfc bbbc 9ca2 063d d214 c4bc
000001c0: c1ce 3a3e 5ee0 0c3d e914 673d e5f7 043e
000001d0: 1838 a4bb dacc 6cbd 3545 48bd ffa4 e6bc
000001e0: 4e09 f7bc 7028 acbc 060f 883b 2511 6bbb
000001f0: 403b de3c 0a2f 51bd 637f 5dbe 99fe 6bba
00000200: bb1a e3bc 8051 af3a aed8 7cb9 8529 503d
00000210: dd95 b6bc 1887 2cbd b468 b2bc 41ad 4f3f
00000220: 1638 92bd 0396 fa3d 9017 25bd 4f01 84ba
00000230: 83dc 6f3b bdf7 92bc 802b 04be 011c 9b3d
00000240: 196e f0bc b980 dcbc 0545 8b3e 248e c13b
00000250: c5a7 7b3b 0d84 07bd 328c a13d e7f6 e9bc
00000260: 4191 ffbc 88f5 80bd 9632 1abc 907b 483c
00000270: 2479 82bb f1de 5dbd 6e1e 3dbc 7e32 9fbc
00000280: 67d2 df3a 2191 d4ba 2799 013e ad07 393d
00000290: 65ae 32bb 3de2 00bd d11a 2dbc 5c21 393c
000002a0: fc66 ddbb e797 4dbe bdfb 00ba b226 01bd
000002b0: d6f1 543b b012 32bc b3cd 803b 62c8 0d3c
000002c0: 1679 c73b 21a5 323b 8c09 273c 8f34 89bc
000002d0: 182c 033d 0858 17bd e957 fbbc 184b f13c
000002e0: c008 61b8 31e3 56bd 97e1 ec3c f013 46bd
000002f0: 6add cb3b c104 5f3c 8c3e 02bc ca5b e7bc
00000300: 76a6 9b3c e75e ccbc 05de 8e3b 0bed 0d3a
00000310: 90d7 06be face 09be 2cbc 793d 972f 1cbe
00000320: 24a6 11be 95fb 7dbc 8115 49bc c2df 293d
00000330: 2a4a 1f3d 983d beba 2603 383d c4e1 cebd
00000340: 858e 41ba 5185 8a3b f526 8a3c 6996 17bd
00000350: b646 86bc 445b eabd 6db2 873c 6492 b73c
00000360: 2867 11bc 5085 82bc fb8a 55be 11c1 f63c
00000370: 004d a93d 47d7 16bd 3825 923c 2ae1 823b
00000380: a49d 47bc ff6c 4e3c 03ba b03c 76be 943c
00000390: 6d58 8f3b 8a8e 503c f392 ae3c 63f3 313e
000003a0: 78d1 d33c a63a 833b b496 2b3d 5af1 0a3b
000003b0: 82b9 50bd c94d 08bd 49cc 6ebc c38e dabc
000003c0: bd1b f83d 0843 bbbb 6e33 e4bb 1f25 273c
000003d0: c590 1cbe c26b f73c 5720 0d3d cd45 9fbc
000003e0: 6aae 6ebe 5c3c f03c 78aa 733b 1fd5 fb3d
000003f0: e2da aabd 000f bf3c 239c b8bc 876d d33c
0.016645618 0.010465028 0.032032747 0.041725792 -0.0384834 -0.009423087 0.018531363 0.035250723
-0.008647723 -0.013807365 -0.012169473 -0.008487506 0.009151862 0.0082834205 -0.015911156 -0.0071977684
0.075271845 -0.0012045171 -0.08702008 0.019861117 0.018424837 0.047017768 0.05719643 0.011193248
0.03904354 0.0415474 0.012735365 -0.0064833355 4.9461e-05 -0.008302783 0.035331473 -0.080343746
0.032847717 -0.055315264 0.009298308 -0.020782499 0.019799512 -0.025206318 0.03559058 0.033491716
-0.009218825 -0.0004247798 0.0020429236 0.003549093 -0.020737521 0.001358223 -0.023063187 -0.0263966
-0.0007964933 0.021216668 0.03704523 0.023933904 -0.018969879 0.017433485 -0.013277138 -0.030972565
0.0014472979 0.0023614895 0.0059315497 0.031858407 0.00091060955 -0.104115956 -0.11140057 -0.0012378244
0.03883552 0.0013541017 0.001624551 -0.017571427 -0.014119595 0.0011530935 0.018988445 -0.023789417
-0.006475949 -0.0027260683 -0.01993573 -0.017614681 0.08307969 0.020146046 -0.008971101 -0.014457114
-0.03293904 -0.034629837 0.0029301976 -0.039745882 0.0027872561 0.0105393315 0.035545804 -0.0038346937
-0.07418939 -0.0054448373 -0.025016712 -0.0006109408 -0.008110881 -0.018255318 0.017155468 -0.13958316
0.020404566 -0.038243964 0.017898241 -0.011381133 -0.008006589 -0.009930244 0.002242512 0.0034390152
-0.003773619 0.017867327 -0.010546911 0.019702334 -0.012809656 -0.022947574 0.03286992 -0.02393571
0.18242933 0.03439366 0.056416426 0.1298519 -0.0050115697 -0.05781255 -0.048894126 -0.028154848
-0.030155804 -0.021015376 0.0041521816 -0.0035868373 0.027127862 -0.05107025 -0.21630625 -0.00090024766
-0.027722707 0.0013375729 -0.00024113312 0.050820846 -0.022288257 -0.042121023 -0.021778442 0.8112374
-0.07139604 0.12235644 -0.040305674 -0.0010071191 0.003659994 -0.017940396 -0.12907219 0.07573701
-0.029349374 -0.026916848 0.27201095 0.005906837 0.003839956 -0.033084918 0.07888068 -0.028560115
-0.031197192 -0.06296831 -0.009411475 0.012236491 -0.0039817262 -0.05416769 -0.0115428995 -0.019433256
0.0017076255 -0.0016217568 0.12656079 0.045173336 -0.0027264592 -0.031465758 -0.010565476 0.011299457
-0.0067566615 -0.20077477 -0.00049203244 -0.031531043 0.0032492778 -0.010868713 0.0039307713 0.008653732
0.0060874326 0.002725907 0.010195147 -0.016748695 0.032024473 -0.036949188 -0.030681567 0.029454753
-5.365233e-05 -0.05246276 0.028916163 -0.048358858 0.006221463 0.013611973 -0.007949483 -0.02824201
0.019000273 -0.024947597 0.004359963 0.00054140453 -0.13168168 -0.13457862 0.06097047 -0.15252529
-0.14223534 -0.015501876 -0.012273193 0.041473158 0.038889088 -0.0014514206 0.044924878 -0.10101655
-0.0007383603 0.0042273183 0.01686428 -0.037008677 -0.01639114 -0.11443189 0.016564572 0.022408672
-0.008874692 -0.015932709 -0.20853798 0.030121358 0.0826664 -0.0368264 0.017840013 0.003994127
-0.012183581 0.012599229 0.021573072 0.018157225 0.004374555 0.012729296 0.021310305 0.17378001
0.025856718 0.004004794 0.04189177 0.0021200986 -0.050958164 -0.033277307 -0.014575073 -0.026679402
0.12114666 -0.005714778 -0.0069641387 0.010201721 -0.152896 0.03020275 0.03445467 -0.019442463
-0.23308721 0.029325657 0.0037180465 0.12296509 -0.0834253 0.023322582 -0.02253539 0.025809063

a2c_network.mu.weight f4 [6, 256]
00000000: 3d83 1f3e c8d5 613a 6b78 d6ba 7158 04bc
00000010: de2d 08bc 8305 e03b 2155 c73b d66d 64bb
00000020: 78e3 12bc 8e50 50bb ba14 60bc 9e03 0bbc
00000030: 7c48 9438 3d98 423c 49e5 7d3a 06c0 493c
00000040: 127c 2abc 07fb 99bb 2132 d93d 4b1a bcbd
00000050: cf76 7eba 8256 c1bb 20a7 063c 0cb7 98be
00000060: f287 63ba 927d 843c 3357 f83a 4ffc a8ba
00000070: a19c 473b 0d5b 83bb 4d6c 8f3d a3a9 ce3d
00000080: 48fe c7b9 11ab cdbd 8b21 2a3b cdaa 4bbc
00000090: fd22 533a cc0f 9839 12f3 a7bb d367 7fbb
000000a0: ceb4 99bb a9d4 8c3a 5b43 9fba 4a8b a3bb
000000b0: 175c 0d39 74ce 30bb e4dc 35bb d756 753c
000000c0: 6a4c 133b 90dc d9ba 8923 a63d dc93 923c
000000d0: 3b3c 773b dd73 323a 3d81 21bb 9478 a8bb
000000e0: 5fc2 47b9 2d7c 2dbb a021 8f3c aed9 93bb
000000f0: 5510 e1bb d757 093e b1dd 39bd 0688 3a3d
00000100: c7f0 57b8 d48b 21bc a55e a43a c7e3 feba
00000110: 483b 9cbc 7736 e1bb 143e 04bc 3196 2ebb
00000120: 2af8 2e3b 625e b43b 75d4 ae3b 8009 94bb
00000130: 9e42 fb3d 843f 34bb 3b4c 70ba eb1a 0e3b
00000140: 19a1 f03d ffc2 6db9 e5d8 753b 47a6 ccbb
00000150: c516 093b cdca 6abb 5359 a13b 1d55 f73d
00000160: cfa3 5bbc e222 a439 29ce 67bd dcac 5abb
00000170: 0dd9 353b ecbf 0bbc 0fb2 89bb 7bde b1bd
00000180: 2457 aabb 5db0 123b d3b9 eebb 13bd a5ba
00000190: c929 47be dbcd de3a 8e7a 8b3b f708 1cbb
000001a0: 1769 5f3b ce4d 2abc 9eba 2f3b c10e 1a3b
000001b0: 590f c53b 630f 15be df32 c9ba 1d2c 9cbb
000001c0: e15c dd3c e87a 083d 01d2 83bd 4595 c0bd
000001d0: 4c8a 433b 2294 c0ba c2fc 973b a2a8 ca3c
000001e0: 52ea a93c 0f73 11bb 1325 1dba 7a36 76bb
000001f0: b3ce 8cba ea3b 98bc 5917 373d a00f aa3b
00000200: c904 aaba 093f 09bd 1582 b1bb bdda 6dbd
00000210: 7898 373b cb83 38bd ab8d c7bb 6f0b bcbd
00000220: 84eb 553d bc49 08be 5c26 8cbd 8878 743a
00000230: 36c8 a1ba 751d 10bb 9c1a 2e3b 0b1e ae3a
00000240: 195c f5bb 1709 e93b 8618 bd3c a9f8 353a
00000250: f069 cb3b e6be b53a 14a3 0fbc d2e6 dd3a
00000260: f506 41ba 51b5 fa3c 250f f5ba 2252 42bb
00000270: 0d78 773c b91c 18bc 3024 fc3d 5ac0 3fbc
00000280: cb9d d63a 190b 20bc 45ed f0bc b41f 2e3d
00000290: 6a0b cdb9 79fe 4e3b 1ee2 f7bb f2af 51bc
000002a0: 30c8 b3bb de28 1fbd 442b 05bb a23e 21bb
000002b0: 531f e8ba dde0 1fbb 7143 683a 6a62 3fba
000002c0: 00df f6b9 c2fe 423a 5c18 4c3b e07d 4f3b
000002d0: 36e3 0ebb 8597 4bbb de36 ba3a 17fe ddbb
000002e0: 5c1b 81bb bd2c 003e 0838 1abd 8ed6 3ebc
000002f0: 1db6 2b3b 5b91 77ba 4ddc 2a38 db2e f4b9
00000300: 1abc 13bb 1af8 1a3d 82d2 18bb fd58 07bd
00000310: e64c 6abd aee9 083b 5ffe 81bd 55ac e1bc
00000320: 55ea b23d 7166 65ba ed03 d2ba 9245 79bb
00000330: 908f b8ba abdb aaba 13b2 863c dbf8 fb3c
00000340: 4991 18bc ea12 393b e63e 0c3b c3a5 62bd
00000350: f17b f2bb fa8c 93ba 93e5 fa3c 10a4 85b9
00000360: 643b b93b df02 023c fd9c f33c 86ff 0dba
00000370: 704c 88bc f44b 22bd ac7b 05bc f482 393e
00000380: d03f 4bbb 9926 21bc 5534 403a b31e fe3a
00000390: a51f 2ebb e17d 47bb e077 0dbb c577 93b9
000003a0: afd8 713c ae09 33bd 4f14 40bb 0008 81bb
000003b0: 4e67 81bb bc30 82bb 6b17 24bb 5f79 ea3d
000003c0: d426 8fbc 6e00 e4ba 3330 b1bb a619 ac3a
000003d0: 5fd5 0dbd d68c e63a 2908 993a 82ed 2d3b
000003e0: d137 10bd edf7 0abc a582 4bbc 65cf 2dbb
000003f0: 6bde ad3b bb91 7bba a9ab c7bd e35b 9c3b
0.15577407 0.0008614925 -0.0016362792 -0.008077727 -0.008311717 0.0068365945 0.006083146 -0.0034855506
-0.008965366 -0.0031786296 -0.013676817 -0.008484749 7.070691e-05 0.011877117 0.000968535 0.012313848
-0.010405557 -0.0046991142 0.106052645 -0.091847025 -0.0009707035 -0.005900205 0.008218557 -0.29827154
-0.000867962 0.016173158 0.0018946886 -0.0012892577 0.0030458348 -0.004008657 0.070030786 0.100909494
-0.00038145692 -0.10042394 0.0025959935 -0.012430859 0.0008054225 0.0002900347 -0.005125412 -0.0038971796
-0.004690743 0.001074453 -0.0012150811 -0.00499097 0.00013481114 -0.0026978524 -0.002775007 0.0149743175
0.0022475966 -0.0016621519 0.081122465 0.01789277 0.003772511 0.0006807426 -0.0024643682 -0.005141327
-0.00019050528 -0.002647172 0.017472088 -0.0045120334 -0.006868402 0.13412414 -0.045377437 0.04553988
-5.1484236e-05 -0.009859998 0.0012540413 -0.0019446545 -0.019071236 -0.006872948 -0.008071441 -0.0026639814
0.002669821 0.0055044154 0.0053353854 -0.004517734 0.122685656 -0.0027503679 -0.00091666327 0.0021683525
0.11749477 -0.00022674723 0.0037513312 -0.0062454077 0.0020918113 -0.0035826445 0.0049239784 0.12076781
-0.013405754 0.00031306507 -0.056593094 -0.0033367192 0.002774778 -0.008529644 -0.0042021344 -0.08685013
-0.0051983763 0.0022382953 -0.0072853356 -0.001264485 -0.19449534 0.0016998606 0.004256553 -0.0023809054
0.0034089738 -0.010394527 0.0026814113 0.002350733 0.0060137925 -0.14556651 -0.0015350244 -0.004766001
0.027021827 0.033320338 -0.064365394 -0.09403471 0.002983707 -0.0014692585 0.0046382854 0.024738614
0.020741615 -0.0022193824 -0.0005994599 -0.0037569092 -0.0010742754 -0.018583257 0.0447 0.005189851
-0.0012971397 -0.03350738 -0.0054171183 -0.058069933 0.0028014462 -0.045047563 -0.006089886 -0.09181868
0.05222656 -0.13309377 -0.06843254 0.0009325822 -0.0012342993 -0.0021990214 0.0026566153 0.00132841
-0.0074877855 0.0071116793 0.023082983 0.00069416553 0.006207697 0.0013866096 -0.008766908 0.0016929752
-0.00073634024 0.030604037 -0.001869653 -0.0029651006 0.015104306 -0.009284192 0.1231159 -0.011703575
0.001637393 -0.009768271 -0.029410014 0.042510703 -0.0003910915 0.0031584783 -0.007564797 -0.012798296
-0.0054865107 -0.038857333 -0.0020319978 -0.0024603982 -0.0017709531 -0.0024395504 0.0008860147 -0.00073007366
-0.00047086924 0.00074384746 0.003114245 0.003166072 -0.0021802909 -0.0031065654 0.0014207026 -0.0067746746
-0.003940029 0.12517066 -0.03765109 -0.0116478335 0.0026201077 -0.0009443962 4.073633e-05 -0.00046574217
-0.0022542537 0.037834264 -0.0023318832 -0.03304385 -0.057202242 0.0020891237 -0.063473456 -0.027547995
0.087361015 -0.00087509217 -0.0016022898 -0.0038035852 -0.0014080871 -0.0013035437 0.016442334 0.030758312
-0.009311982 0.0028240033 0.0021399795 -0.055333864 -0.007400029 -0.0011257224 0.030627048 -0.00025489973
0.005652832 0.007935255 0.029737944 -0.0005416799 -0.01663801 -0.039623216 -0.008147161 0.18116361
-0.0031013377 -0.009835863 0.0007332017 0.0019387811 -0.0026569155 -0.003044002 -0.0021586344 -0.0002812726
0.014761134 -0.043710403 -0.002930898 -0.0039377213 -0.0039490825 -0.0039730947 -0.0025038372 0.11448931
-0.01747457 -0.0017395148 -0.005407357 0.0013130202 -0.034627315 0.001758958 0.0011675406 0.002653927
-0.03520948 -0.008481962 -0.012421285 -0.0026521322 0.0053060553 -0.00095966057 -0.097495385 0.004771696

a2c_network.mu.bias f4 [6]
00000000: 57a1 11be 0470 c53c d13d 5bbe 1fe2 03bd
00000010: 2455 7ebd 3482 0cbf
-0.14221703 0.024101265 -0.214103 -0.032198068 -0.062092915 -0.54886174

exp_avg f4 [6]
00000000: 91a0 423a 02cc 9bba 1830 85ba bffc c237
00000010: b7d2 a2b9 122b 71b8
0.0007424439 -0.0011886361 -0.0010161428 2.3244296e-05 -0.00031056043 -5.749899e-05

exp_avg_sq f4 [6]
00000000: f9c8 7937 1c98 7837 8faa 7237 d3d0 8b37
00000010: 5c49 9037 172a 9037
1.4888349e-05 1.4817368e-05 1.4464035e-05 1.6667333e-05 1.7200298e-05 1.7185737e-05

exp_avg f4 [256, 40]
00000000: 5ad2 af38 8e06 b0b8 829d 9c34 5ad2 afb8
00000010: 829d 9c34 0000 0000 6c7a 01b9 93e5 fab9
00000020: c2b9 4039 2f76 2439 1abc 8ab8 273f 8db9
00000030: b03c 3f37 9e9c 2f39 f730 8839 a044 4e37
00000040: ed63 aeba dbc6 513a 7302 60b7 6a51 c53a
00000050: 080b 1aba 82aa 0836 dade 6937 f866 bdb7
00000060: a825 34b7 2ba1 7639 5684 be38 4576 0538
00000070: 0db4 8538 a846 60b8 72de 8138 45aa a7b4
00000080: 0000 0000 0400 0080 cc53 4d35 fc46 35b3
00000090: 0400 0080 cc53 4d35 22c4 2d33 0400 0080
000000a0: 0307 a5b8 c537 a538 090e 10b6 0307 a538
000000b0: 090e 10b6 0000 0000 3941 373a 9c4d 09ba
000000c0: d4de 1e3a b6e2 2f3a 77f2 0fb7 9f91 493a
000000d0: 564d 7a3a 54cd 383a 7318 2938 b9b0 d535
000000e0: 14d9 7ab9 bbf2 373a a8ad 21b7 c4fc 18b9
000000f0: 424d 9e39 0027 05b8 7c59 0bb8 4d1f 95b7
00000100: c2c0 b238 20bb 85b9 9592 f238 c5da f338
00000110: 834f e938 f474 e836 8e52 6d39 fb83 9e33
00000120: 0000 0000 0400 0080 db76 81b4 06e9 6db4
00000130: 0400 0080 db76 81b4 4c01 7134 0400 0080
00000140: 16a0 6db7 6d7e 6d37 04d0 c933 16a0 6d37
00000150: 04d0 c933 0000 0000 49e8 c637 c8d4 4339
00000160: 970b 3337 2cc7 6fb8 0bf2 7138 00ef 93b8
00000170: 2edf 6eb9 b84b fb38 038e 4a38 d4ca 9634
00000180: 019e 1db9 21bc 97b8 c968 45b7 777e f838
00000190: 5b41 ceb8 e2e7 6c37 6bfc 2237 cb59 0637
000001a0: b7e7 30b7 e7a5 6c38 bb69 c738 81fa 5f38
000001b0: 7805 d1b8 6e45 b1b7 27de b8b8 6a52 19b3
000001c0: 0000 0000 0400 0000 cdcd 7134 9368 8834
000001d0: 0400 0000 cdcd 7134 59b4 87b4 0400 0000
000001e0: ef89 b138 e084 b1b8 02ad 55b4 ef89 b1b8
000001f0: 02ad 55b4 0000 0000 3029 0839 b1e5 8eb9
00000200: 1ff0 00b9 b39b 6039 ae37 48b9 0dc4 8db9
00000210: 5273 2db9 e9bd 99b7 ba1d bbb8 505c 9937
00000220: a1a5 8939 cbfe 51b9 037a d237 dda9 043a
00000230: b2fd 24b9 09a6 3036 6c65 bf37 c60a 16b8
00000240: 2604 1d38 6da9 fe38 274e f3b8 ab33 d9b8
00000250: d638 62b8 437f 1db7 fff7 3237 b83a b733
00000260: 0000 0000 0400 0080 ac9a 4eb4 8a1a 90b4
00000270: 0400 0080 ac9a 4eb4 2825 8f34 0400 0080
00000280: 4e40 38b9 a05d 3839 c7da 8ab5 4e40 3839
00000290: c7da 8ab5 0000 0000 ec3c 123a 43b3 b739
000002a0: 9e5f b4b9 8b1c a239 af0d b538 8d68 b639
000002b0: d0f8 62b9 0f38 6ab9 f050 2438 9909 42b7
000002c0: 2ce5 8e3a 62a8 5fba 1a04 6eb8 a8cb fbb9
000002d0: 2eb9 193a c0f9 e7b6 e73b b635 d2bb 69b7
000002e0: 95db 8637 756a d4b9 1531 aa38 78d4 9e38
000002f0: 656b aab8 1b0a b037 a880 06b8 7019 8234
00000300: 0000 0000 0400 0080 3029 13b5 78fc 8433
00000310: 0400 0080 3029 13b5 174e 78b3 0400 0080
00000320: df3a 4db8 cb27 4d38 73ee 6c34 df3a 4d38
00000330: 73ee 6c34 0000 0000 42a0 2b39 b685 aab9
00000340: e003 31ba 510e 1239 cdfb 1eb9 3ee8 cbb9
00000350: e61f 44b8 a903 06ba cde1 85b8 63a9 0bb7
00000360: 2142 9e3a c12c 2cba 4cf2 00b8 b392 10b9
00000370: 3fb8 8339 a8e5 51b7 38fe ec37 e40f 3637
00000380: 4087 1c37 32f0 56b9 4783 ee37 00f9 1339
00000390: c813 2c36 e85e 2938 787f 0e38 31b1 4f34
000003a0: 0000 0000 0400 0080 cfaa fcb4 2ac9 47b2
000003b0: 0400 0080 cfaa fcb4 fb22 6232 0400 0080
000003c0: c616 1838 7e35 18b8 6f55 ee34 c416 18b8
000003d0: 6f55 ee34 0000 0000 2e89 1fb9 fa3a 8b38
000003e0: e424 90b9 022f 39b9 5851 cdb8 098e 25b9
000003f0: ab99 8337 ec06 18b9 d95b 6738 7bf2 22b7
8.383831e-05 -8.393555e-05 2.9171866e-07 -8.383831e-05 2.9171866e-07 0.0 -0.00012348004 -0.00047854762
0.00018379747 0.00015684286 -6.6153894e-05 -0.00026940668 1.1398617e-05 0.00016747645 0.00025976423 1.2294535e-05
-0.0013304927 0.0008002349 -1.3352011e-05 0.001505417 -0.00058762776 2.0364828e-06 1.3939769e-05 -2.2578504e-05
-1.0737604e-05 0.00023520428 9.0845555e-05 3.1819818e-05 6.375471e-05 -5.3471565e-05 6.192633e-05 -3.123006e-07
0.0 -6e-45 7.649039e-07 -4.2206906e-08 -6e-45 7.649039e-07 4.0458083e-08 -6e-45
-7.869119e-05 7.878201e-05 -2.1465842e-06 7.869119e-05 -2.1465842e-06 0.0 0.0006990615 -0.00052377
0.00060604257 0.0006709503 -8.579917e-06 0.0007689241 0.0009548267 0.0007049639 4.031551e-05 1.592117e-06
-0.00023922726 0.00070170657 -9.63678e-06 -0.00014590012 0.0003019367 -3.1745993e-05 -3.322352e-05 -1.777676e-05
8.523605e-05 -0.00025507156 0.00011566762 0.00011627892 0.00011125116 6.927754e-06 0.00022632835 7.3814554e-08
0.0 -6e-45 -2.41146e-07 -2.2157118e-07 -6e-45 -2.41146e-07 2.2445346e-07 -6e-45
-1.4163574e-05 1.4155737e-05 9.39763e-08 1.4163574e-05 9.39763e-08 0.0 2.3711606e-05 0.00018675916
1.067193e-05 -5.7167534e-05 5.7684298e-05 -7.0540234e-05 -0.0002278059 0.000119827164 4.829281e-05 2.8087254e-07
-0.00015031548 -7.235283e-05 -1.1766512e-05 0.000118491174 -9.835019e-05 1.4120686e-05 9.714723e-06 8.007929e-06
-1.0544368e-05 5.6421293e-05 9.508753e-05 5.3400643e-05 -9.966915e-05 -2.1132375e-05 -8.815183e-05 -3.5698044e-08
0.0 6e-45 2.2519744e-07 2.5408062e-07 6e-45 2.2519744e-07 -2.527693e-07 6e-45
8.46571e-05 -8.4647676e-05 -1.9900111e-07 -8.46571e-05 -1.9900111e-07 0.0 0.00012985314 -0.00027255484
-0.00012296483 0.00021420307 -0.00019094229 -0.00027039685 -0.00016541526 -1.8327455e-05 -8.922392e-05 1.8282008e-05
0.0002625408 -0.00020026711 2.5090767e-05 0.0005060712 -0.00015734768 2.632269e-06 2.2816203e-05 -3.577282e-05
3.743558e-05 0.00012143222 -0.000116017 -0.0001035699 -5.393553e-05 -9.38756e-06 1.0667368e-05 8.5322824e-08
0.0 -6e-45 -1.9241514e-07 -2.68414e-07 -6e-45 -1.9241514e-07 2.666286e-07 -6e-45
-0.00017571563 0.00017582485 -1.0345474e-06 0.00017571563 -1.0345474e-06 0.0 0.0005578536 0.0003503804
-0.00034403516 0.00030920314 8.633301e-05 0.00034791642 -0.0002164573 -0.00022336862 3.9176026e-05 -1.1565536e-05
0.0010902039 -0.0008531866 -5.674744e-05 -0.00048026186 0.0005864081 -6.913411e-06 1.357749e-06 -1.3931613e-05
1.6076296e-05 -0.00040515108 8.115374e-05 7.5736025e-05 -8.1262355e-05 2.098554e-05 -3.206791e-05 2.4232895e-07
0.0 -6e-45 -5.4821703e-07 6.192653e-08 -6e-45 -5.4821703e-07 -5.7813022e-08 -6e-45
-4.8930637e-05 4.891287e-05 2.206596e-07 4.8930637e-05 2.206596e-07 0.0 0.00016367531 -0.0003252455
-0.00067525916 0.00013928978 -0.00015161857 -0.0003889221 -4.675975e-05 -0.000511224 -6.383993e-05 -8.324484e-06
0.0012074151 -0.0006567948 -3.0743235e-05 -0.0001378756 0.0002512354 -1.2510842e-05 2.8251772e-05 1.0851745e-05
9.329815e-06 -0.0002049811 2.8432942e-05 0.00014111772 2.5641511e-06 4.038113e-05 3.3974153e-05 1.9342839e-07
0.0 -6e-45 -4.7062937e-07 -1.1629064e-08 -6e-45 -4.7062937e-07 1.3162885e-08 -6e-45
3.6260833e-05 -3.6289443e-05 4.4393116e-07 -3.6260826e-05 4.4393116e-07 0.0 -0.00015214525 6.639022e-05
-0.00027493306 -0.00017660487 -9.790313e-05 -0.00015788538 1.5687974e-05 -0.00014498428 5.516023e-05 -9.712409e-06
