logs/rl_games/yam_cube_sort_8192/2026-02-01_05-04-52/nn/last_yam_cube_sort_8192_ep_450_rew_1226.5093.pth (torch, 953214 bytes, 30 tensors)

value_mean_std.running_mean f8 [1]
0.14424116198898412
00000000: a267 bd90 7e76 c23f

value_mean_std.running_var f8 [1]
0.04493192345137119
00000000: 5e3f 8a2b 5101 a73f

value_mean_std.count f8 []
235929601.0
00000000: 0000 0002 0020 ac41

running_mean_std.running_mean f8 [40]
0.9959818352933932 0.0039849853177813645 3.31709117196748e-05 0.004018156229501022 3.31709117196748e-05 0.0 0.10802344671173428 -0.018911629391802805
0.1530708013765145 0.1002481532495762 -0.021200674107452154 0.14891761591063432 0.07370889323083363 0.301984608171448 0.00329216003842537 0.7627046501884084
0.30389575698980575 0.005112253338331885 0.7627051681196526 0.3027100183071767 0.0036040060201507473 0.7627034222996206 0.00022947382293678377 0.0002291070581927274
-0.00018325497233161886 0.0003015546457758488 0.00024079946613182794 -0.00019783288634315498 0.00023676343234595883 0.00021990972856455595 -0.00017125477278382898 0.45999925193654767
0.0 0.759999984020658 0.22000068239635304 0.1385645519371655 0.759999984020658 0.22000068239635304 -0.1385645519371655 0.759999984020658
00000000: 89d8 3f4c 15df ef3f 0dad d659 8f52 703f
00000010: 2f22 1ed9 1f64 013f 3de9 8899 5775 703f
00000020: 2f22 1ed9 1f64 013f 0000 0000 0000 0000
00000030: 32fe d3b2 6ca7 bb3f 02e9 01f7 915d 93bf
00000040: ef3b f1f2 d297 c33f bcfa b0eb dca9 b93f
00000050: 3655 c727 a1b5 95bf 1b36 1181 bb0f c33f
00000060: 20cd d905 96de b23f ba78 ff3f b753 d33f
00000070: 11f1 57f6 28f8 6a3f 691f 2295 1368 e83f
00000080: 3085 6a30 0773 d33f 0d1f 5a0e 96f0 743f
00000090: 060d 32ab 1468 e83f b441 33d7 995f d33f
000000a0: dc5f b7ff 2586 6d3f 6b5f ea01 1168 e83f
000000b0: 3eac 2d21 dd13 2e3f f716 faa4 8e07 2e3f
000000c0: 044f da39 0405 28bf 46bf 7057 3fc3 333f
000000d0: 12ca f2a9 e38f 2f3f 3315 c88d 2bee 29bf
000000e0: 0907 cb65 7608 2f3f 654f 3c2f f2d2 2c3f
000000f0: 7ad5 f94b 5b72 26bf bc1f d0b3 a070 dd3f
00000100: 0000 0000 0000 0000 3589 8a7c eb51 e83f
00000110: f3b8 fe7b fb28 cc3f 123e 7ab5 7bbc c13f
00000120: 3589 8a7c eb51 e83f f3b8 fe7b fb28 cc3f
00000130: 123e 7ab5 7bbc c1bf 3589 8a7c eb51 e83f

running_mean_std.running_var f8 [40]
0.004002148630086954 0.003969234045757853 3.317930196418003e-05 0.004002140479774553 3.317930196418003e-05 8.477104962860868e-09 0.035468800218770975 0.0033298419074427356
0.002557379377741583 0.03830041515532448 0.003680332857216442 0.004549501642841124 0.020026160280583002 0.0027002841272365 0.0038798024313592815 3.84400234162473e-07
0.002867476552689949 0.003947012704383528 3.138604325894701e-07 0.0027299520606520614 0.003941638738756784 3.282249397764045e-07 0.00034643424892808665 0.0005707325202984018
7.118337307502416e-05 0.00041231612933563874 0.0005871958864188449 7.890002344451035e-05 0.00032306758443202037 0.0005642961681385553 6.476702611716527e-05 1.0270989677393797e-08
8.477104962860868e-09 1.3373480625019427e-08 8.887989466562014e-09 8.64041432282592e-09 1.3373480625019427e-08 8.887989466562014e-09 8.640414232057869e-09 1.3373480625019427e-08
00000000: f2e4 ad97 8e64 703f 5acd aa26 0b42 703f
00000010: ad25 7d22 4065 013f 0e15 9867 8c64 703f
00000020: ad25 7d22 4065 013f 0cef 0376 5634 423e
00000030: f19a ef71 f728 a23f 8873 fc42 2f47 6b3f
00000040: f8c3 4e99 36f3 643f d4da 07ad 1c9c a33f
00000050: b90e 53a8 3726 6e3f bf3c 4e8c 7fa2 723f
00000060: dcd3 e0dd bc81 943f 8841 8600 e81e 663f
00000070: 9c19 d811 89c8 6f3f a774 d51b f2cb 993e
00000080: 2dd8 81c0 887d 673f 4530 b727 be2a 703f
00000090: e566 d0c7 1410 953e e2a7 3eda 1f5d 663f
000000a0: 2a16 9c97 1b25 703f 4220 1e8d dc06 963e
000000b0: 8ace f4c4 33b4 363f da80 35c1 a6b3 423f
000000c0: d8e9 9909 09a9 123f 3f2d 864a 8405 3b3f
000000d0: 2f2b 7390 c13d 433f 180e d614 e4ae 143f
000000e0: 88f8 a3b5 2c2c 353f 2c5b 30cb a87d 423f
000000f0: 49ca 3f09 71fa 103f 4a4c 454a 890e 463e
00000100: 0cef 0376 5634 423e 2b39 e012 26b8 4c3e
00000110: 75bf 6550 3916 433e f9fd cb35 1e8e 423e
00000120: 2b39 e012 26b8 4c3e 75bf 6550 3916 433e
00000130: f9cd 8632 1e8e 423e 2b39 e012 26b8 4c3e

running_mean_std.count f8 []
117964801.0
00000000: 0000 0004 0020 9c41

a2c_network.sigma f4 [6]
-1.5473502 -1.6179216 -1.6257575 -2.2654488 -2.054524 0.48134172
00000000: 920f c6bf 0e18 cfbf d218 d0bf 1dfd 10c0
00000010: 527d 03c0 6c72 f63e

a2c_network.actor_mlp.0.weight f4 [256, 40]
0.09106649 -0.037755247 -0.2805096 0.08267779 -0.25565377 -0.069123045 0.14225467 -0.00878177
0.18216856 -0.15475073 -0.19509856 -0.3082421 0.04602969 0.036433358 -0.028018199 0.55870146
-0.055532392 -0.010717195 0.6230394 -0.007790927 -0.024658898 -0.8942662 0.024883633 -0.08027989
0.34775323 0.025788542 -0.06572823 0.019562565 0.10266824 -0.24806345 -0.03677041 0.19262438
0.15214519 -0.13547035 -0.018524505 0.024438031 -0.11134397 0.20234764 -0.08231429 0.12639791
-0.13381703 -0.026562937 0.078339085 -0.0022942503 0.09041012 -0.037520524 0.42208454 -0.6006074
-0.26815727 -0.087390274 -0.17781328 0.115915276 -0.023699574 -0.021730468 -0.04641664 0.1897125
0.09981456 0.04745705 0.227899 -0.03973497 0.060299892 0.23260581 0.15445584 -0.32213697
0.14802332 -0.025541712 -0.24012731 -0.20177646 -0.048737846 -0.26186407 0.27217853 -0.14553888
0.048724327 -0.13163918 -0.10156143 1.2584192 0.040555377 -0.13684464 -1.3714855 -0.07882688
0.0064983256 -0.024237907 -0.33742067 -0.10481579 -0.4349924 -0.092243925 -0.10769961 -0.15352088
0.10747169 -0.05003757 0.10366871 0.026027735 -0.091291025 0.06744441 0.01707256 -0.041485026
-0.030433735 -0.022719292 -0.34046054 0.06479245 0.014064532 -0.34122282 -0.027717782 0.04989277
0.29361477 -0.1326739 0.11010357 0.2769922 -0.03619595 0.009305848 -0.007991712 0.027045596
-0.01732688 -0.101759836 0.25356895 0.06512878 0.101091005 0.16511673 -0.13010858 -0.068896785
0.03965721 0.18020861 0.09847104 -0.044302773 0.14450592 -0.023720339 -0.13468523 -0.07280132
0.12118007 0.020344185 0.0068795737 -0.14997983 0.10529181 -0.036442004 0.089244455 -0.06439322
0.08963039 -0.15338533 0.002162075 0.03934229 0.08213685 -0.19610412 0.20925172 -0.015458808
0.22840583 0.43965125 -0.13865548 0.10799809 0.015712082 -0.123786345 0.0975138 0.09836072
0.10106748 0.124956846 -0.3031464 -0.16932528 -0.0086187245 -0.29693437 0.16949078 0.033382833
-0.123004355 -0.039636493 -0.42748368 0.047942888 -0.5685013 -0.09532777 -0.15272708 -0.059508566
-0.12779583 0.085796185 0.029835308 0.22375193 -0.0179821 0.0026290542 0.027742773 -0.037443947
-0.02934972 -0.0020027508 -0.23832111 -0.010193496 0.014248587 -0.015883848 -0.1506213 -0.15495196
0.039040077 -0.19231994 0.040316075 0.08777743 -0.050528746 -0.19412422 0.19233741 0.36112607
0.07591139 0.13349465 0.038971964 0.46968168 -0.0011074456 -0.16410586 -0.5651806 -0.14745055
0.019642925 -0.07273644 0.21382698 -0.03871616 0.2168356 -0.11128607 -0.13456742 0.09997994
0.004746924 0.16853343 -0.0030333598 -0.08360596 -0.064033195 0.03682487 -0.0124688195 -0.107443206
-0.0635768 0.007377124 -0.038732767 0.045662753 0.07993546 -0.2664322 0.042046245 -0.021465322
0.016233835 -0.08587511 -0.1893311 -0.08090259 -0.04380739 -0.19581138 0.16931133 -0.1966035
0.098157085 0.13223374 0.447602 -0.026384383 -0.1159839 0.33362097 0.073347196 -0.14344317
-0.10123218 0.054522287 -0.386633 -0.014266131 -0.437436 -0.050194655 -0.209405 0.17053312
0.17024684 0.08915907 -0.15831284 -0.040176786 -0.30186382 -0.024352169 0.056631528 0.6682132
00000000: 1181 ba3d 3fa5 1abd f49e 8fbe f952 a93d
00000010: 0de5 82be 6290 8dbd 35ab 113e 6ae1 0fbc
00000020: 658a 3a3e fa76 1ebe ebc7 47be e9d1 9dbe
00000030: a189 3c3d 253b 153d 6c86 e5bc 0f07 0f3f
00000040: ef75 63bd 2d97 2fbc 837f 1f3f 084b ffbb
00000050: 7501 cabc a1ee 64bf c3d8 cb3c c869 a4bd
00000060: b60c b23e 7e42 d33c 869c 86bd ac41 a03c
00000070: ba43 d23d 5804 7ebe 929c 16bd 533f 453e
00000080: f3cb 1b3e bdb8 0abe b4c0 97bc 4432 c83c
00000090: 4f08 e4bd 3834 4f3e 6594 a8bd 746e 013e
000000a0: 5507 09be 849a d9bc 3e70 a03d 225b 16bb
000000b0: f128 b93d 1faf 19bd 771b d83e 68c1 19bf
000000c0: e94b 89be acf9 b2bd af14 36be fd64 ed3d
000000d0: 9c25 c2bc 1804 b2bc 601f 3ebd fe43 423e
000000e0: 936b cc3d 5362 423d 5b5e 693e 23c1 22bd
000000f0: 05fd 763d 3830 6e3e ac29 1e3e 23ef a4be
00000100: 6d93 173e da3c d1bc efe3 75be 7d9e 4ebe
00000110: 56a1 47bd 0c13 86be fc5a 8b3e 2508 15be
00000120: 2993 473d 6ccc 06be 70ff cfbd e113 a13f
00000130: 651d 263d 0021 0cbe d68c afbf fd6f a1bd
00000140: e8ef d43b 938e c6bc 67c2 acbe a9a9 d6bd
00000150: 53b7 debe 62ea bcbd 9d91 dcbd 9434 1dbe
00000160: 1e1a dc3d 32f4 4cbd 4350 d43d 1e38 d53c
00000170: caf6 babd 4b20 8a3d c1db 8b3c 34ec 29bd
00000180: 2b50 f9bc cf1d babc d850 aebe e7b1 843d
00000190: ec6e 663c c2b4 aebe 6710 e3bc 5c5c 4c3d
000001a0: ad54 963e abdb 07be fb7d e13d ecd1 8d3e
000001b0: 3442 14bd 8e77 183c abef 02bc ba8e dd3c
000001c0: 1af1 8dbc 7667 d0bd cad3 813e 3d62 853d
000001d0: cd08 cf3d 5c14 293e 2f3b 05be c219 8dbd
000001e0: 996f 223d 9b88 383e 2fab c93d d376 35bd
000001f0: 5cf9 133e 2851 c2bc edea 09be dc18 95bd
00000200: 422d f83d d9a8 a63c 0c6e e13b 5094 19be
00000210: 3ca3 d73d 3644 15bd ccc5 b63d 98e0 83bd
00000220: 2390 b73d 0b11 1dbe 99b1 0d3b 6225 213d
00000230: 5d37 a83d 85cf 48be 1546 563e f146 7dbc
00000240: 38e3 693e f819 e13e b4fb 0dbe 1a2e dd3d
00000250: a0b6 803c b283 fdbd 51b5 c73d 5871 c93d
00000260: 78fc ce3d 60e9 ff3d 0136 9bbe 9b63 2dbe
00000270: 8d35 0dbc c807 98be fe8e 2d3e 70bc 083d
00000280: b5e9 fbbd e059 22bd 24df dabe c35f 443d
00000290: 4d89 11bf 353b c3bd 7d64 1cbe 41bf 73bd
000002a0: e9dc 02be e9b5 af3d 2d69 f43c 3a1f 653e
000002b0: 324f 93bc 364c 2c3b d044 e33c d35e 19bd
000002c0: d36e f0bc 9540 03bb 730a 74be 9f02 27bc
000002d0: e872 693c d81e 82bc 783c 1abe baab 1ebe
000002e0: 7de8 1f3d 85ef 44be 7822 253d a7c4 b33d
000002f0: 3bf7 4ebd 80c8 46be 19f4 443e 84e5 b83e
00000300: 6e77 9b3d d2b2 083e 11a1 1f3d 1e7a f03e
00000310: b527 91ba 5e0b 28be adaf 10bf 47fd 16be
00000320: 33ea a03c d8f6 94bd 76f5 5a3e d694 1ebd
00000330: 270a 5e3e f3e9 e3bd 0bcc 09be 48c2 cc3d
00000340: 168c 9b3b 0794 2c3e 55cb 46bb 9a39 abbd
00000350: d623 83bd add5 163d 054a 4cbc 2f0b dcbd
00000360: 8e34 82bd cdbb f13b 40a6 1ebd de08 3b3d
00000370: 34b5 a33d cd69 88be af38 2c3d 0bd8 afbc
00000380: d2fc 843c 4adf afbd 03e0 41be 42b0 a5bd
00000390: 616f 33bd c782 48be f35f 2d3e 6e52 49be
000003a0: 9506 c93d 4868 073e 172c e53e 1024 d8bc
000003b0: f888 edbd 5ed0 aa3e 0e37 963d c4e2 12be
000003c0: d152 cfbd c352 5f3d c3f4 c5be 7ebc 69bc
000003d0: 9df7 dfbe e998 4dbd 446e 56be 3ca0 2e3e
000003e0: 3055 2e3e 0899 b63d c31c 22be 6a90 24bd
000003f0: e58d 9abe 337e c7bc 76f6 673d 0510 2b3f

a2c_network.actor_mlp.0.bias f4 [256]
-0.04470091 0.03264381 0.01792098 -0.08438112 0.039170694 0.10646656 0.10847386 0.06381535
-0.061397187 -0.069576256 0.005390272 0.09425722 0.07135705 -0.1459587 0.11195307 0.29236653
-0.010103253 -0.045631334 0.043262973 0.17496337 0.14753753 -0.55984753 0.0017437587 -0.053174138
-0.22312146 -0.013650684 -0.009243125 -0.35659242 -0.9392907 0.2993425 -0.06558094 -0.09249796
-0.6041553 -0.09770293 -0.6904146 -0.15447728 0.115993865 -0.36124194 -0.3145732 -0.1670781
-0.04386081 -0.072139256 -0.038746964 0.32037058 0.070654765 0.21278857 -0.1608093 -0.27217177
0.21868661 -0.13497075 -0.05033105 0.05747942 -0.2158675 0.10098664 0.18808821 -0.014367322
0.07893004 -0.021224344 -0.023653775 0.05927594 -0.40886563 -0.037491288 0.09036688 0.061666243
0.11847804 0.03453315 -0.06680796 -0.12797634 -0.43658802 0.1723583 -0.26643306 -0.02491445
-0.044166368 0.3355537 -0.18117152 -0.060566243 -0.04552016 -0.029443327 0.14019574 0.006448635
0.063103385 0.021286909 0.071564175 0.2464941 -0.31283277 -0.038069762 0.52451146 -0.32175
0.13735895 -0.04424497 0.22700353 -0.20301628 0.11938244 -0.21106105 0.118525386 0.06243532
0.0818579 -0.044461504 -0.015634261 -0.4194793 -0.013290831 0.07744991 -0.12602447 -0.082745895
-0.63470817 -0.04291763 -0.16449203 -0.002772 -0.17678086 -0.14691533 0.033321414 -0.04579527
-0.11544827 0.14592639 -0.10412723 0.00838255 -0.09151647 -0.14043052 0.0048210183 -0.23966599
0.08820339 -0.031704754 0.30543196 -0.08369968 0.21529792 0.12942696 0.15769407 -0.06648716
0.064615525 -0.20179127 -0.31308788 -0.060665347 0.07491296 0.012578407 -0.132365 -0.09182664
-0.13366151 0.11876553 0.14017671 -0.4838233 -0.36395 0.19524612 -0.44098032 0.20664911
0.14169377 0.13270903 -0.10490903 -0.21039991 -0.04610889 0.03874312 -0.029549258 0.031749662
0.14310384 0.06274483 -0.33597064 -0.25918275 0.10566683 0.11652504 -0.20613025 0.038351025
-0.026204148 0.16424769 0.2758214 -0.05264296 -0.3268856 0.031144442 0.09773027 -0.045286734
0.08071013 0.027073724 0.21462205 0.16923393 -0.09603412 -0.07403503 0.03311095 -0.09861516
-0.19044864 -0.25000048 -0.32420868 0.06517792 0.030454822 0.0024191274 0.12259033 -0.12840097
0.0021163619 -0.0012425126 0.06597385 -0.06919262 0.17259382 0.0732705 -0.036382623 -0.06776461
-0.08175207 -0.17424895 -0.13133445 0.08799739 -0.2280345 0.22517039 -0.025436096 0.10627279
0.00953353 -0.11331632 -0.30995616 0.08043098 0.085404694 0.019493897 0.0523142 -0.005815538
0.24856548 0.05753921 -0.035930187 -0.30636477 -0.09594752 -0.12897761 0.053059228 0.0050104964
0.18129666 -0.029606564 0.23254728 0.16066416 0.13175778 0.16633424 0.07013699 -0.13279174
-0.0077429735 -0.06618087 0.0059732674 0.013494901 -0.2537459 -0.042321548 0.23798458 -0.16087703
-0.04272121 0.36602485 -0.09026308 -0.09320175 -0.020453807 0.23206832 0.13115348 -0.17175807
0.18868701 -0.18475167 -0.6230473 -0.48280266 -0.011641856 0.0049779434 -0.060110185 0.023690669
0.3708821 0.13332729 -0.09638463 0.016696552 -0.12281795 -0.15602116 -0.025167627 -0.12661761
00000000: 4d18 37bd 84b5 053d 05cf 923c 02d0 acbd
00000010: 7371 203d 240b da3d 8b27 de3d 9fb1 823d
00000020: 9e7b 7bbd ff7d 8ebd e1a0 b03b ee09 c13d
00000030: a523 923d 3376 15be a747 e53d 11b1 953e
00000040: 1d88 25bc ece7 3abd 8434 313d 9929 333e
00000050: 1414 173e 2b52 0fbf d58e e43a 20cd 59bd
00000060: f479 64be 1ea7 5fbc 7a70 17bc 4893 b6be
00000070: 5b75 70bf 6c43 993e 4d4f 86bd 926f bdbd
00000080: eca9 1abf 7918 c8bd 03bf 30bf 4b2f 1ebe
00000090: 318e ed3d b4f4 b8be bd0f a1be 8516 2bbe
000000a0: 65a7 33bd bfbd 93bd 23b5 1ebd 9d07 a43e
000000b0: 72b3 903d 3fe5 593e 31ab 24be 195a 8bbe
000000c0: 62ef 5f3e c635 0abe ee27 4ebd 8a6f 6b3d
000000d0: 5f0c 5dbe 15d2 ce3d 329a 403e eb64 6bbc
000000e0: 13a6 a13d adde adbc 90c5 c1bc 54cb 723d
000000f0: d656 d1be 7790 19bd 4512 b93d be95 7c3d
00000100: 9da4 f23d a272 0d3d 9dd2 88bd 3b0c 03be
00000110: 7788 dfbe b27e 303e ea69 88be 6319 ccbc
00000120: cbe7 34bd b2cd ab3e 0785 39be 4f14 78bd
00000130: 5973 3abd 2233 f1bc 798f 0f3e 124f d33b
00000140: 593c 813d e261 ae3c 3d90 923d f368 7c3e
00000150: 9e2b a0be 0aef 1bbd 6246 063f 6abc a4be
00000160: d3a7 0c3e 373a 35bd 9d73 683e 80e3 4fbe
00000170: c87e f43d 6320 58be 70bd f23d 2ebc 7f3d
00000180: 1da5 a73d 441d 36bd 6c13 80bc fec5 d6be
00000190: c9c1 59bc 0f9e 9e3d 8f0c 01be ae76 a9bd
000001a0: 3c7c 22bf 66ca 2fbd 9970 28be 71aa 35bb
000001b0: 0b06 35be f970 16be 097c 083d d293 3bbd
000001c0: 2570 ecbd ba6d 153e a840 d5bd f756 093c
000001d0: fd6c bbbd 05cd 0fbe a2f9 9d3b 006b 75be
000001e0: fba3 b43d d8dc 01bd 9461 9c3e bd6a abbd
000001f0: 0f77 5c3e 8088 043e 8e7a 213e 6c2a 88bd
00000200: 2555 843d 5fa2 4ebe 0e4d a0be 3a7c 78bd
00000210: f76b 993d aa15 4e3c b18a 07be 9b0f bcbd
00000220: 90de 08be 583b f33d 7c8a 0f3e b0b7 f7be
00000230: a857 babe 99ee 473e 2cc8 e1be d39b 533e
00000240: 2c18 113e e0e4 073e 8cda d6bd 1373 57be
00000250: addc 3cbd 1bb1 1e3d 4911 f2bc ef0b 023d
00000260: d089 123e 5d80 803d 5804 acbe 9ab3 84be
00000270: da67 d83d aea4 ee3d cf13 53be f715 1d3d
00000280: 15aa d6bc 8c30 283e 7638 8d3e 25a0 57bd
00000290: 8d5d a7be a122 ff3c cf26 c83d 957e 39bd
000002a0: 5a4b a53d b7c9 dd3c e2c5 5b3e a94b 2d3e
000002b0: 89ad c4bd ae9f 97bd 599f 073d bff6 c9bd
000002c0: f804 43be 1000 80be aefe a5be 007c 853d
000002d0: 647c f93c 398a 1e3b a410 fb3d 8b7b 03be
000002e0: a9b2 0a3b cedb a2ba 4c1d 873d dcb4 8dbd
000002f0: 6fbc 303e d80e 963d f205 15bd 2cc8 8abd
00000300: a16d a7bd 516e 32be 8a7c 06be fa37 b43d
00000310: e081 69be 1193 663e 5c5f d0bc 8ca5 d93d
00000320: 8632 1c3c 6312 e8bd 93b2 9ebe ffb8 a43d
00000330: a8e8 ae3d aab1 9f3c 6a47 563d 4590 bebb
00000340: f387 7e3e 3cae 6b3d 882b 13bd d8db 9cbe
00000350: 2280 c4bd b512 04be a254 593d 172f a43b
00000360: d5a5 393e 7789 f2bc e020 6e3e 2585 243e
00000370: 83eb 063e 8653 2a3e fba3 8f3d 8ffa 07be
00000380: c5b8 fdbb d689 87bd 66bb c33b b819 5d3c
00000390: fcea 81be 5c59 2dbd 3bb2 733e f3bc 24be
000003a0: 6ffc 2ebd 9c67 bb3e dadb b8bd 8fe0 bebd
000003b0: be8e a7bc 51a3 6d3e 194d 063e 59e1 2fbe
000003c0: 2b37 413e 8b2f 3dbe 0780 1fbf e931 f7be
000003d0: 7cbd 3ebc 041e a33b 1936 76bd ef12 c23c
000003e0: 42e4 bd3e f386 083e 4e65 c5bd 35c7 883c
000003f0: fa87 fbbd 03c4 1fbe 572c cebc 0ca8 01be

a2c_network.actor_mlp.2.weight f4 [256, 256]
0.0009758984 -0.47314537 0.038640283 0.10858673 -0.015748527 0.02323797 -0.14501299 -0.14120089
-0.17886579 0.028308779 -0.04497882 -0.039197102 -0.08603098 0.0525249 -0.29051572 -0.059195984
0.19622606 -0.65635765 -0.19401337 -0.2634542 -0.17587388 -0.31214607 0.021403054 0.17546323
-0.050733197 -0.16900969 -0.17089395 -0.13062315 -0.0027840238 -0.27283356 -0.34994373 -0.10477632
-0.0820604 -0.0161328 -0.020901235 0.14336917 -0.2639115 0.04211062 0.07790426 -0.15382843
-0.08493726 0.0009412435 -0.09771393 -0.27950525 -0.21499471 -0.14891458 0.2541706 -0.1195701
-0.18884489 -0.12043308 -0.040173277 0.033755273 -0.16418226 -0.036354564 -0.11262473 -0.13939545
-0.3592616 0.023075776 -0.16531129 -0.23877048 0.0075547984 -0.17312804 0.026544163 -0.13137513
-0.21095137 0.009736582 0.032329105 0.048619263 -0.2364419 -0.19911769 0.17251243 -0.028151358
-0.112420395 -0.06284116 0.023591446 0.02631455 -0.15985179 -0.042882375 -0.056194313 -0.21841729
-0.09296977 -0.18006921 0.08635048 -0.2074634 0.298066 -0.14739594 -0.11539705 -0.1000701
-0.18642096 -0.019445578 -0.20605348 -0.40052983 -0.16150749 0.100758985 0.02872722 -0.07318078
-0.10353941 0.041456677 0.02633857 0.111229844 -0.013767318 -0.20117514 0.15807222 -0.07142432
-0.27646866 -0.06473103 0.06083863 -0.104284324 0.05198281 -0.042986184 0.15702432 -0.19554308
0.0106043145 -0.22401625 0.015592194 -0.18550833 0.033216223 0.13038504 -0.05251136 -0.01695222
-0.10757029 0.05458741 -0.21397261 -0.14683741 -0.1271658 -0.19167905 -0.102033965 -0.24233475
-0.09644707 -0.14219575 0.046406884 0.104159735 -0.047873925 0.046930306 -0.009724295 -0.040059857
0.044087537 -0.017812567 -0.037795775 0.01431093 0.17245646 -0.2874121 -0.12218899 -0.12437715
-0.3192909 0.0037323963 -0.048615962 -0.2188186 -0.14871055 0.08782042 -0.15341082 -0.053983793
-0.02220435 -0.18744871 -0.0012842723 0.16426153 -0.20564438 0.0089451065 0.05061848 0.08786409
-0.28705025 -0.18345729 -0.15828872 -0.013635709 -0.035812102 -0.018409507 -0.01501641 -0.23577698
-0.23026665 -0.18090782 -0.2259672 -0.25524426 -0.13252419 -0.06509414 -0.061250877 0.1383429
0.20229049 0.06744562 -0.12313934 -0.1314745 -0.05238966 0.0026780595 -0.15750828 -0.0072108386
0.030228566 0.0006744746 -0.26726896 0.088218994 -0.21104524 -0.19171129 -0.07044353 -0.12616213
-0.13784802 -0.0066481736 -0.027000906 -0.052088853 0.019891568 -0.31975365 0.0975609 -0.13227408
-0.14672814 -0.050479352 0.048081312 -0.19590063 -0.068927564 -0.13638736 0.1053852 -0.10477933
0.021924496 -0.19530785 -0.053834505 -0.07258763 0.08641411 -0.3216965 0.040953156 0.03363021
-0.15671016 0.029881852 -0.09709502 -0.1894816 -0.019132858 -0.055120774 -0.35141006 0.056816418
-0.43165419 0.027588004 -0.06869282 -0.105476245 -0.0833109 0.04619515 -0.29335415 0.15442945
0.11687177 -0.1021541 -0.14613853 0.021524139 -0.07561541 -0.09499561 -0.07823849 0.043975946
-0.21546401 0.044613462 -0.1199134 -0.11550091 0.024201794 -0.04036017 -0.024847727 -0.07925241
-0.06638102 -0.21385247 0.0873616 0.11049489 0.046985786 0.10300396 -0.07469097 0.019257806
00000000: 6fd3 7f3a 1c40 f2be 4645 1e3d b862 de3d
00000010: 0e03 81bc 8e5d be3c 497e 14be f796 10be
00000020: 9828 37be d0e7 e73c b63b 38bd 248d 20bd
00000030: 0331 b0bd 5924 573d 7abe 94be 7d77 72bd
00000040: 7cef 483e 0e07 28bf 71ab 46be 78e3 86be
00000050: 4818 34be 9cd1 9fbe 7555 af3c a2ac 333e
00000060: 9dcd 4fbd e010 2dbe d3fe 2ebe 13c2 05be
00000070: 2b74 36bb d7b0 8bbe d32b b3be f894 d6bd
00000080: 480f a8bd ef28 84bc 1139 abbc 5ecf 123e
00000090: 681f 87be 2f7c 2c3d 458c 9f3d 3385 1dbe
000000a0: 96f3 adbd c8bd 763a 3e1e c8bd 501b 8fbe
000000b0: 9327 5cbe 107d 18be a622 823e 2be1 f4bd
000000c0: 8e60 41be 9ea5 f6bd bc8c 24bd f842 0a3d
000000d0: 651f 28be 86e8 14bd cba7 e6bd aebd 0ebe
000000e0: 23f1 b7be 6909 bd3c 5d47 29be 4080 74be
000000f0: 3e8e f73b 7a48 31be 2573 d93c 3487 06be
00000100: a303 58be 2f86 1f3c 866b 043d fe24 473d
00000110: d31d 72be 82e5 4bbe 19a7 303e ad9d e6bc
00000120: aa3c e6bd deb2 80bd d942 c13c 9c91 d73c
00000130: 30b0 23be 6ea5 2fbd 022c 66bd c8a8 5fbe
00000140: ef66 bebd 1064 38be 85d8 b03d 4971 54be
00000150: 1b9c 983e f6ee 16be 4a55 ecbd 8df1 ccbd
00000160: 23e5 3ebe 554c 9fbc afff 52be 3f12 cdbe
00000170: 3862 25be ba5a ce3d 5955 eb3c cedf 95bd
00000180: 780c d4bd 7ace 293d fcc3 d73c 79cc e33d
00000190: 5190 61bc db00 4ebe afdd 213e ea46 92bd
000001a0: 4d8d 8dbe b491 84bd ed31 793d 0593 d5bd
000001b0: edeb 543d 4812 30bd fcca 203e 723c 48be
000001c0: b8bd 2d3c 8464 65be 6776 7f3c e5f5 3dbe
000001d0: bc0d 083d a883 053e 2716 57bd 62df 8abc
000001e0: d04d dcbd 0c97 5f3d a31b 5bbe 8c5c 16be
000001f0: c037 02be 8347 44be 2ff7 d0bd 9a26 78be
00000200: 0b86 c5bd c39b 11be 2515 3e3d b351 d53d
00000210: 7317 44bd fe39 403d a652 1fbc ce15 24bd
00000220: 2295 343d a9eb 91bc becf 1abd 6478 6a3c
00000230: 6d98 303e ae27 93be 393e fabd 72b9 febd
00000240: 197a a3be 389b 743b 8821 47bd fc11 60be
00000250: 9447 18be 31db b33d ba17 1dbe 1c1e 5dbd
00000260: e6e5 b5bc 8ef2 3fbe 0755 a8ba 2d34 283e
00000270: 7194 52be 7f8e 123c 5355 4f3d 17f2 b33d
00000280: 40f8 92be 3adc 3bbe 7016 22be 4f68 5fbc
00000290: b6af 12bd 89cf 96bc 6307 76bc 856f 71be
000002a0: 05cb 6bbe e63f 39be f263 67be 60af 82be
000002b0: 6cb4 07be 1450 85bd 33e2 7abd c3a9 0d3e
000002c0: 3d25 4f3e ee20 8a3d 7a30 fcbd 40a1 06be
000002d0: 8a96 56bd 6282 2f3b da49 21be e648 ecbb
000002e0: e6a1 f73c 39cf 303a 7ad7 88be 29ac b43d
000002f0: 3e1c 58be f74f 44be b344 90bd a530 01be
00000300: 0828 0dbe ecd8 d9bb 0131 ddbc 1f5b 55bd
00000310: a4f3 a23c c0b6 a3be 02ce c73d db72 07be
00000320: e73f 16be 70c3 4ebd e9f0 443d 2d9a 48be
00000330: e529 8dbd 21a9 0bbe 32d4 d73d 8c96 d6bd
00000340: 009b b33c c8fe 47be 9281 5cbd d3a8 94bd
00000350: e2f9 b03d 67b5 a4be 7fbe 273d d5bf 093d
00000360: a178 20be c9ca f43c c1d9 c6bd 7707 42be
00000370: 83bc 9cbc 52c6 61bd 05ec b3be 55b8 683d
00000380: c701 ddbe 3d00 e23c d2ae 8cbd ee03 d8bd
00000390: e89e aabd 2037 3d3d 8432 96be c122 1e3e
000003a0: 775a ef3d 2b36 d1bd 57a5 15be 6453 b03c
000003b0: 41dc 9abd 0f8d c2bd 803b a0bd 1f20 343d
000003c0: 99a2 5cbe 9bbc 363d 2895 f5bd be8b ecbd
000003d0: d742 c63c b550 25bd 768d cbbc 164f a2bd
000003e0: c6f2 87bd 24fc 5abe a3ea b23d 254b e23d
000003f0: 2b74 403d bdf3 d23d 94f7 98bd 8cc2 9d3c

a2c_network.actor_mlp.2.bias f4 [256]
-0.008379695 0.05126308 -0.019480692 -0.022646919 -0.023527296 -0.0063764155 -0.011899627 0.0012380753
-0.0064134053 0.03816623 -0.20660688 -0.010514965 -0.020771215 0.0645501 -0.042770308 0.0061926474
0.017216397 -0.008851753 -0.064675055 -0.08392961 -0.00842374 -0.031114781 -0.01974499 -0.22429402
-0.036569867 0.038706534 -0.019165548 -0.015117353 0.015325764 0.06656957 -0.13347328 -0.22032611
0.03857601 0.023761429 -0.024431068 -0.18142769 0.004115872 0.026613481 -0.01874387 -0.028176254
0.021736192 0.019350369 0.028686633 0.008355018 0.0039757416 0.032164585 0.023832314 -0.049067404
0.014861675 0.06866941 -0.1744773 0.052864343 -0.012486799 -0.029048936 -0.0004985178 0.018706597
0.019204354 -0.00013346788 -0.0012520924 -0.04591565 0.004247063 -0.1052631 0.029954502 0.03325344
-0.022196738 0.03411849 0.050223053 0.022622678 0.0036057036 0.033154774 -0.1333341 0.027485954
-0.029181167 0.037810374 -0.00056911935 -0.029338492 -0.03759963 0.020263782 -0.00092202926 0.0010232948
-0.08180793 0.044365928 -0.004947716 0.062534176 0.016855422 -0.01956445 -0.03307811 -0.067777395
-0.096109256 -0.012966808 -0.024049183 0.023121579 0.00980706 0.00826902 -0.039933227 -0.2121733
-0.028787013 -0.017937213 0.029305004 -0.006804246 -0.3912005 -0.031163005 0.008919248 0.026314937
-0.0017834821 0.010009919 0.03623181 0.034324586 -0.0047558625 -0.26674893 -0.005425108 -0.015291041
0.101231255 -0.08320994 -0.12802525 0.029762007 -0.0007159622 -0.011923664 -0.02871336 -0.009312073
-0.045245286 -0.0262025 -0.033481274 0.0022651784 -0.002823 -0.008919415 -0.41433337 -0.017766092
-0.008802597 -0.13854226 -0.018383102 -0.15402398 0.032261357 0.00014148877 0.0021096077 -0.02577719
-0.10718639 -0.23858146 -0.09342346 0.05138531 -0.008175587 -0.0040439414 -0.24316566 -0.07579122
0.04736219 -0.012642766 -0.0079776235 -0.044852994 -0.007959321 -3.9987415e-05 -0.022332352 -0.008144667
0.019074332 -0.03988345 -0.004324751 0.005307021 -0.031515803 -0.27045324 -0.48188746 0.028593784
-0.006908695 0.05524292 -0.019849353 -0.11278316 -0.037020124 0.0026222982 0.037496872 0.006341087
-0.007982571 0.046253264 -0.025620935 0.027560616 0.012244085 -0.0066088294 0.011020839 0.0064543923
0.08327554 0.014403872 -0.0066417013 -0.027595963 0.017864471 0.07500241 -0.0345347 -0.0464959
0.087116495 0.04081357 0.00015722158 -0.0084350705 -0.014195867 0.014557496 0.04417324 0.045970805
0.033591956 -0.20733275 0.001515914 -0.06797091 0.023283824 -0.17458063 -0.051431026 0.0069527966
0.10951161 -0.038544912 0.0013723468 0.027613917 0.017476164 0.06189422 -0.0006454425 0.08218664
-0.0024045263 0.028745746 0.00265214 -0.24731202 -0.017397024 -0.07370381 0.050535508 -0.012426715
-0.05133077 -0.0142178405 0.022632193 0.031864755 0.039113406 -0.13714631 0.025927348 -0.24181484
0.034997404 -0.0050607785 -0.034020323 0.016166285 -0.017757334 -0.026192863 0.014866664 -0.009063842
0.036685623 0.0894789 -0.0002674536 -0.018006695 0.016619552 -0.023080634 0.028392207 -0.1853559
-0.033714205 0.011786424 0.012632299 0.06707504 0.010903145 0.023424944 0.0082122125 0.050906703
0.030552056 0.029991057 0.037017345 0.008382698 -0.23859859 0.032832857 0.004878001 -0.014137822
00000000: fd4a 09bc 3cf9 513d f995 9fbc 0886 b9bc
00000010: 51bc c0bc 40f1 d0bb a7f6 42bc ea46 a23a
00000020: 8b27 d2bb 3154 1c3d c190 53be f646 2cbc
00000030: 6528 aabc d832 843d eb2f 2fbd b1eb ca3b
00000040: 6709 8d3c f106 11bc 5b74 84bd 4ae3 abbd
00000050: ba03 0abc 6de4 febc 3fc0 a1bc 55ad 65be
00000060: 49ca 15bd be8a 1e3d 1101 9dbc c6ae 77bc
00000070: ea18 7b3c a055 883d 38ad 08be 2b9d 61be
00000080: e101 1e3d 54a7 c23c aa23 c8bc 2ec8 39be
00000090: 70de 863b 8404 da3c bf8c 99bc e3d1 e6bc
000000a0: 1910 b23c aa84 9e3c 3b00 eb3c 7ce3 083c
000000b0: f046 823b 03bf 033d fc3b c33c e7fa 48bd
000000c0: 627e 733c 8ca2 8c3d 2daa 32be 4888 583d
000000d0: 6e95 4cbc 09f8 edbc f7ae 02ba 943e 993c
000000e0: 7352 9d3c 83f3 0bb9 401d a4ba 0c12 3cbd
000000f0: f22a 8b3b 2e94 d7bd 2563 f53c c234 083d
00000100: efd5 b5bc d4bf 0b3d b0b6 4d3d 3253 b93c
00000110: ab4d 6c3b 4dcd 073d bc88 08be 392a e13c
00000120: 580d efbc 0ddf 1a3d f430 15ba 4757 f0bc
00000130: 1202 1abd 3b00 a63c 56b4 71ba 1320 863a
00000140: ea8a a7bd 0cb9 353d 7320 a2bb eb11 803d
00000150: 6214 8a3c a045 a0bc ea7c 07bd e0ce 8abd
00000160: eed4 c4bd bc72 54bc cb02 c5bc 7769 bd3c
00000170: caad 203c c97a 073c 0691 23bd f543 59be
00000180: bed2 ebbc 10f1 92bc 0c11 f03c 27f6 debb
00000190: 6f4b c8be 8f49 ffbc 0a22 123c 6c92 d73c
000001a0: bbc3 e9ba a500 243c ce67 143d f097 0c3d
000001b0: 11d7 9bbb 5193 88be 1bc5 b1bb 4687 7abc
000001c0: 5552 cf3d f969 aabd 0d19 03be 74cf f33c
000001d0: 69af 3bba 795b 43bc 4838 ebbc aa91 18bc
000001e0: 1f53 39bd a0a6 d6bc a923 09bd 6373 143b
000001f0: 1502 39bb bd22 12bc 8123 d4be 328a 91bc
00000200: c538 10bc 06de 0dbe 2998 96bc 76b8 1dbe
00000210: 7c24 043d 9a5c 1439 5841 0a3b b02a d3bc
00000220: 8a84 dbbd b34e 74be cd54 bfbd 6779 523d
00000230: e6f2 05bc 0a83 84bb 6b00 79be 6d38 9bbd
00000240: dbfe 413d 9b23 4fbc 94b4 02bc c6b7 37bd
00000250: d067 02bc 29b8 27b8 56f2 b6bc 3671 05bc
00000260: c641 9c3c d45c 23bd a4b6 8dbb 85e6 ad3b
00000270: b716 01bd d978 8abe f4b9 f6be 833d ea3c
00000280: 5662 e2bb 6646 623d 1c9b a2bc dbfa e6bd
00000290: 6aa2 17bd ddda 2b3b 5296 193d e5c8 cf3b
000002a0: 54c9 02bc 1074 3d3d ffe2 d1bc cdc6 e13c
000002b0: 6a9b 483c e18e d8bb c090 343c 5e7f d33b
000002c0: 5e8c aa3d 38fe 6b3c a1a2 d9bb ee10 e2bc
000002d0: 8358 923c dd9a 993d 4274 0dbd 7c72 3ebd
000002e0: 226a b23d 212c 273d d9db 2439 4033 0abc
000002f0: c895 68bc 9082 6e3c 00ef 343d e24b 3c3d
00000300: b897 093d 094f 54be a2b1 c63a 5534 8bbd
00000310: b8bd be3c 44c5 32be 57a9 52bd 49d4 e33b
00000320: 9f47 e03d 45e1 1dbd 51e0 b33a 9536 e23c
00000330: 2c2a 8f3c cb84 7d3d ea32 29ba 7851 a83d
00000340: 4295 1dbb 337c eb3c 87cf 2d3b 5d3f 7dbe
00000350: 3484 8ebc 06f2 96bd 52fe 4e3d 6c99 4bbc
00000360: 3740 52bd f2f1 68bc 2667 b93c 9e84 023d
00000370: 6135 203d 1570 0cbe 9765 d43c 4f9e 77be
00000380: 7059 0f3d e3d4 a5bb e558 0bbd 286f 843c
00000390: d477 91bc 6a92 d6bc 4f93 733c 8280 14bc
000003a0: aa43 163d b740 b73d 0439 8cb9 c782 93bc
000003b0: ba25 883c 9913 bdbc c696 e83c f0cd 3dbe
000003c0: e817 0abd d81b 413c b4f7 4e3c a35e 893d
000003d0: 1ba3 323c abe5 bf3c 848c 063c 8c83 503d
000003e0: 4e48 fa3c ceaf f53c 809f 173d 9557 093c
000003f0: 3053 74be bf7b 063d a3d7 9f3b 53a2 67bc

a2c_network.value.weight f4 [1, 256]
0.004384749 -0.0016129724 0.0041932277 0.0063624303 -0.10644663 -0.001964653 -0.006097373 0.027006816
-0.004141485 -0.009453467 -0.039321154 0.0023267928 0.01420133 -0.0035093252 0.0076866793 0.010064744
0.15737951 -0.0014148694 -0.021225892 -0.012041654 0.0016089506 -0.052470475 0.0161857 -0.036960278
-0.016780682 0.013054987 0.006460741 0.012181653 -0.0129222935 -0.008250587 0.01881586 -0.035315916
-0.008907777 -0.031596422 -0.00891752 -0.048542853 0.015933407 0.0018510153 -0.005792541 -0.0007530511
0.009590013 -0.0041036704 -0.0028479258 -0.008386848 -0.06812861 0.0029301583 -0.0069215307 0.017210986
0.0061437753 0.0014698448 0.066081494 -0.00089475996 0.0079585975 0.0017320736 -0.019226782 -0.0030153894
0.016903434 -0.007740727 0.013244028 0.011152477 -0.0020431401 -0.065392375 -0.12363732 0.005658144
0.03964 0.0058285072 -0.017859347 0.011191308 -0.02884042 0.015014233 0.0057440614 0.05349851
-0.0064552487 -0.009666146 0.026493339 -0.007356097 0.07346572 0.0047513884 0.007807849 -0.023113256
-0.032880053 -0.0012832603 -0.0051853578 0.0044361306 -0.005918438 -0.009645929 0.014941811 0.023555368
-0.039405704 0.002903942 -0.07949795 -0.004971081 -0.004570368 0.005193214 -0.0038292257 -0.18936458
0.0067103365 0.007555766 0.0012324034 0.0041866023 0.027593317 -0.013171047 0.01130603 -0.012933545
0.008186343 0.0028681906 -0.012682279 -0.0060905823 -0.005045277 -0.03271224 0.0013487377 0.004150762
0.14782411 0.030252116 0.01642888 0.09353819 0.0047178953 0.009073762 0.02136507 0.009943452
-0.025745012 0.0043186587 0.010924837 0.0008004445 0.0016300468 0.14292948 -0.25048253 0.0065974
-0.014916555 0.04032624 -0.00026041537 0.042188022 -0.026242439 -0.016054267 0.012152247 0.27650928
-0.09571848 0.089620695 -0.073012434 -0.0034384748 -0.006461165 -0.01386741 -0.1684262 0.03873021
-0.002236724 0.0036289224 0.26055968 0.009646645 0.0017190144 0.008308969 0.13222349 0.0032549144
-0.0095793065 -0.0046341782 -0.038839117 -0.00083603547 0.0011080888 -0.12648614 -0.08002828 0.012600322
-0.01100691 -0.009118285 -0.00091805606 0.006426288 -0.0032890378 -0.00017595096 0.0019093427 0.022942066
-0.0059086434 -0.14016804 0.01031474 -0.0055741696 0.0101358555 -0.0061226813 -0.0020144635 -0.009672946
0.0026025528 -0.0012952787 -0.0027832075 -0.010455149 0.0011032065 -0.035307698 0.003505541 0.03286255
0.00020817525 -0.08067899 0.076418266 -0.016833201 0.011608006 -0.009376384 -0.010752911 -0.007476725
-0.014612524 -0.042632848 -0.003162701 -0.015836313 -0.10988289 -0.16879396 0.010856289 -0.04339045
-0.15501277 0.0047493223 -0.013055128 -0.014904478 0.031472113 -0.032242663 0.011406199 -0.12732391
-0.001453186 -0.012725383 -0.0042166887 -0.105297886 -0.0008028441 0.03125876 0.022849904 0.005157171
-0.028481176 -0.004885746 -0.19661304 -0.0055159987 0.035169788 0.06423105 0.012083073 -0.01755608
-0.010330099 -0.0035414284 0.008195808 -0.0054494166 0.0049735266 -0.0056754523 -2.993104e-08 0.12488944
-0.00396135 0.009794101 -0.0035257572 -0.008225273 -0.012628881 -0.010775108 0.025698345 0.013048819
0.023816517 0.002650084 -0.009122902 -0.0035867942 -0.16888355 0.0023832363 0.019061638 -0.008494989
-0.27498177 0.011977889 0.013706409 0.061787833 -0.08853125 -0.0034505224 0.020968072 -0.005301308
00000000: f1ad 8f3b 5f6a d3ba 5867 893b ef7b d03b
00000010: b100 dabd 68c1 00bb 79cc c7bb 663d dd3c
00000020: 4bb5 87bb b7e2 1abc 380f 21bd 1b7d 183b
00000030: b2ac 683c b5fc 65bb 8ae0 fb3b 99e6 243c
00000040: 1828 213e 2473 b9ba ece1 adbc 5c4a 45bc
00000050: 6ce3 d23a 48eb 56bd e097 843c a963 17bd
00000060: a477 89bc 96e4 553c a0b4 d33b 8e95 473c
00000070: 07b8 53bc 782d 07bc b823 9a3c 6ca7 10bd
00000080: edf1 11bc 406b 01bd ca1a 12bc dfd4 46bd
00000090: c786 823c c49d f23a 5bcf bdbb 6768 45ba
000000a0: 6e1f 1d3c 1578 86bb 44a4 3abb fd68 09bc
000000b0: 0387 8bbd e607 403b 02ce e2bb 0efe 8c3c
000000c0: b951 c93b cfa7 c03a bc55 873d 538e 6aba
000000d0: c764 023c bf06 e33a 7c81 9dbc d79d 45bb
000000e0: 1279 8a3c eda5 fdbb 7bfd 583c e1b8 363c
000000f0: 34e6 05bb 70ec 85bd 9035 fdbd f467 b93b
00000100: 8d5d 223d 10fd be3b c44d 92bc bf5b 373c
00000110: bf42 ecbc 42fe 753c ae38 bc3b 4121 5b3d
00000120: 8d86 d3bb c15e 1ebc 8f08 d93c 6a0b f1bb
00000130: 3275 963d 89b1 9b3b fcd8 ff3b 0358 bdbc
00000140: 3cad 06bd 1233 a8ba efe9 a9bb f65c 913b
00000150: 75ef c1bb f509 1ebc 7fce 743c 30f7 c03c
00000160: e067 21bd 1050 3e3b d2cf a2bd 73e4 a2bb
00000170: 07c3 95bb d62b aa3b bff3 7abb cae8 41be
00000180: 62e2 db3b 5c96 f73b 9988 a13a c42f 893b
00000190: 610b e23c 60cb 57bc ed3c 393c 38e7 53bc
000001a0: 0320 063c 41f8 3b3b 55c9 4fbc 8293 c7bb
000001b0: da52 a5bb 45fd 05bd 21c8 b03a 1e03 883b
000001c0: 345f 173e 49d3 f73c dc95 863c f390 bf3d
000001d0: 9398 9a3b 1eaa 143c cd05 af3c dce9 223c
000001e0: 34e7 d2bc 8983 8d3b 16fe 323c ecd4 513a
000001f0: 4ba7 d53a 1b5c 123e 3f3f 80be 012f d83b
00000200: 9164 74bc 212d 253d 5c88 88b9 59cd 2c3d
00000210: 62fa d6bc 3d84 83bc 381a 473c a092 8d3e
00000220: 0d08 c4bd 0e8b b73d 8b87 95bd 0958 61bb
00000230: 2eb8 d3bb 2234 63bc eb77 2cbe 92a3 1e3d
00000240: 0096 12bb 37d3 6d3b 1468 853e f60c 1e3c
00000250: 8d50 e13a 5822 083c 9865 073e 6750 553b
00000260: 86f2 1cbc 4eda 97bb c415 1fbd 6429 5bba
00000270: 4a3d 913a 9585 01be dee5 a3bd 9571 4e3c
00000280: 5456 34bc dc64 15bc b3a9 70ba 9c93 d23b
00000290: e68c 57bb 7a7f 38b9 e942 fa3a 00f1 bb3c
000002a0: 4b9d c1bb 3688 0fbe 28ff 283c 86a7 b6bb
000002b0: dc10 263c c6a0 c8bb 1705 04bb 477b 1ebc
000002c0: 978f 2a3b 57c6 a9ba 7966 36bb 134c 2bbc
000002d0: 7899 903a ce9e 10bd 38bd 653b e29a 063d
000002e0: 9e49 5a39 073b a5bd 2e81 9c3d c8e5 89bc
000002f0: 822f 3e3c 689f 19bc fa2c 30bc 51ff f4bb
00000300: 5e69 6fbc c89f 2ebd 5145 4fbb 28bb 81bc
00000310: 480a e1bd 53d8 2cbe 94de 313c 2fba 31bd
00000320: abbb 1ebe 34a0 9b3b 2de5 55bc e931 74bc
00000330: e7e8 003d e210 04bd 11e1 3a3c 3361 02be
00000340: d578 beba 207e 50bc 262c 8abb 6ba6 d7bd
00000350: f575 52ba 2f09 003d b92f bb3c 7cfd a83b
00000360: 5b51 e9bc 9c18 a0bb ee54 49be 8dbf b4bb
00000370: 320e 103d 928b 833d 15f8 453c c5d1 8fbc
00000380: 933f 29bc 4f17 68bb b647 063c 0591 b2bb
00000390: f7f8 a23b 25f9 b9bb 878d 00b3 09c6 ff3d
000003a0: 36ce 81bb 7077 203c 6410 67bb 4cc3 06bc
000003b0: 5ee9 4ebc 148a 30bc 5685 d23c b7ca 553c
000003c0: db1a c33c 08ad 2d3b 3978 15bc 6c10 6bbb
000003d0: cfef 2cbe 1230 1c3b 2727 9c3c 912e 0bbc
000003e0: 69ca 8cbe e83e 443c d990 603c 3d15 7d3d
000003f0: df4f b5bd 2922 62bb 3cc5 ab3c 98b6 adbb

a2c_network.mu.weight f4 [6, 256]
0.17328134 0.0022595765 0.0022176497 0.0024679438 -0.027855968 0.0017977162 0.0016057309 0.0024271328
0.0018864261 0.0041015395 -0.024390345 -0.0036215335 -0.000121525765 -0.0023830133 0.0014907072 0.0019157813
-0.03038884 -0.0027487732 0.16243713 -0.09516406 -0.0008947395 0.0066063753 -0.0038230058 -0.3166949
0.0064486274 -0.004319912 0.0008814388 0.0008098047 0.003728083 0.0005193249 0.092621945 0.15530477
-0.0020433215 -0.03603989 -0.00015109326 -0.050985873 0.005620683 -0.0013914024 0.00461229 0.0007261154
-0.0012539375 -0.00081898447 0.003553981 0.00039388155 0.0062864344 0.0034750705 -0.0023682534 -0.061159175
0.0036800439 0.0001686372 0.09991376 0.0013194012 -0.008943377 0.0011564462 0.003283587 0.00031354482
0.005966104 0.0008269357 -0.0007666891 -0.034047563 0.0032698896 0.14138922 0.0004766848 0.07317789
0.0026107593 -0.0030082434 0.0053550387 0.0023424735 -0.0004587901 -0.0015252744 -0.0082490165 -0.015254881
-0.0027160228 -0.0005282775 -0.0025383015 -0.0024196038 0.10750604 -0.00042429392 -0.0023405757 0.00014761061
0.09242122 -0.00045650973 -0.0031046038 -0.0011372311 0.0011396336 -1.6462556e-05 0.004507499 0.13204129
-0.08270984 0.0013614806 0.03663558 0.002667062 0.005068904 -0.0013979016 0.0042085247 -0.095999755
0.0020767285 0.0006893685 0.0022859876 -0.0001525675 -0.20774925 -0.0046676192 0.0026375218 0.0018745523
-0.0058248225 -0.002839177 0.0036246022 0.0011283017 -0.0039641745 -0.15002348 0.00030880846 -0.0060995063
0.07104674 0.058012683 0.00024366198 -0.10420498 0.0021752275 0.0018030502 -0.0049040667 0.00024681856
-0.008946881 0.004546478 -0.003786557 0.00051395263 0.002830991 -0.00513536 0.01811907 0.0017261668
-0.0027685356 -0.016112546 -0.008888063 -0.044809863 0.0017791121 -0.064257175 0.0047092983 0.03844258
-0.11914455 -0.15046225 -0.08600069 0.00733071 0.0024129148 0.0051172078 -0.022098832 0.004420213
-0.052128218 -0.0058202213 -0.00067214406 -0.00015274608 -0.0013967662 -0.0011814369 0.037402857 0.001924706
0.0028878653 -0.012611033 -0.005463704 0.0047472944 0.0152132185 -0.07642379 0.13690478 -0.0008387702
0.006332746 0.004188176 0.008445031 0.045221392 0.002922084 0.00031987223 0.005758866 0.00076020346
0.0028739227 0.0047092317 -0.00016946088 0.00075886486 -0.001024294 0.0016554067 0.004511562 -0.00019605544
0.0037730022 -0.00070562493 0.0047037075 0.00057047245 0.002999384 0.002931095 0.0031171576 0.0016234535
0.0041884566 0.14538044 -0.039005533 -0.06610141 -0.0016015726 0.0032661632 0.0050030258 -0.0022856004
0.0021919135 0.04205513 -0.0013478224 -0.042010482 -0.024196256 -0.009085945 -0.105061464 -0.012901886
0.06386017 0.001469914 0.009737429 0.0041009835 -0.015558009 -0.018188639 -0.006609753 0.06516368
0.0007223047 0.0026207275 0.0025649015 0.005242478 -0.0047576143 -0.054823108 0.039564088 -0.0015688767
-0.0022062021 -0.0006560803 0.0057067513 0.0006147047 0.00063743413 0.002226865 -0.0032975231 0.16414854
0.0005159297 0.004022064 0.0067166933 0.00046953792 -0.0050204536 -0.0024549635 0.0045041856 -0.0015124773
-0.0076531963 -0.06496555 0.001239185 0.0015935781 0.0018391912 -0.0017510073 -0.0037651865 0.12685485
-0.002374245 0.0021054787 -0.0008037915 0.0015557328 -0.034358468 0.003351605 0.0009832523 -0.004147215
-0.046857476 0.00304609 0.007675194 -0.0037192164 -0.007199641 0.00044613646 -0.07403465 -0.0060510016
00000000: aa70 313e 6715 143b fd55 113b 3abd 213b
00000010: 3332 e4bc 59a1 eb3a 6377 d23a 8810 1f3b
00000020: f541 f73a 3566 863b 43ce c7bc 4057 6dbb
00000030: a6db feb8 542c 1cbb d563 c33a f41a fb3a
00000040: 04f2 f8bc c324 34bb eb55 263e 60e5 c2bd
00000050: f48c 6aba 4b7a d83b 658b 7abb d525 a2be
00000060: 024f d33b 0c8e 8dbb 5b10 673a 1349 543a
00000070: db52 743b 4e23 083a 93b0 bd3d 3708 1f3e
00000080: 3fe9 05bb 909e 13bd ca6e 1eb9 90d6 50bd
00000090: b52d b83b b85f b6ba b122 973b c858 3e3a
000000a0: 295b a4ba 1eb1 56ba e8e9 683b e381 ce39
000000b0: 6ffe cd3b 02be 633b b334 1bbb 0b82 7abd
000000c0: e42c 713b 34d4 3039 969f cc3d c2ef ac3a
000000d0: 3e87 12bc e593 973a 7331 573b 4663 a439
000000e0: 4f7f c33b b7c6 583a a2fb 48ba 7575 0bbd
000000f0: a54b 563b 56c8 103e 8deb f939 4ade 953d
00000100: 4619 2b3b f325 45bb 5279 af3b 2f84 193b
00000110: c489 f0b9 b7eb c7ba e226 07bc 9cef 79bc
00000120: 4dff 31bb 1a7c 0aba a259 26bb 3792 1ebb
00000130: 202c dc3d c473 deb9 5864 19bb ecc7 1a39
00000140: 5647 bd3d b357 efb9 9c76 4bbb 250f 95ba
00000150: c25f 953a 1219 8ab7 a4b3 933b d535 073e
00000160: c763 a9bd b573 b23a 310f 163d e0c9 2e3b
00000170: 0c19 a63b cb39 b7ba aae7 893b 859b c4bd
00000180: b919 083b bdb6 343a 82d0 153b 87fa 1fb9
00000190: 38bc 54be d4f2 98bb 46da 2c3b 8ab3 f53a
000001a0: 27de bebb 7c11 3abb bc8a 6d3b 86e3 933a
000001b0: e8e5 81bb c19f 19be 92e7 a139 5ede c7bb
000001c0: f480 913d b59e 6d3d 847f 7f39 6c69 d5bd
000001d0: 438e 0e3b 5354 ec3a 4bb2 a0bb 6d67 8139
000001e0: f095 12bc 9ffa 943b e227 78bb c7ba 063a
000001f0: 2688 393b 8646 a8bb 726e 943c 8c40 e23a
00000200: 5270 35bb 75fe 83bc 3d9f 11bc 8c8a 37bd
00000210: 1931 e93a 4499 83bd 7550 9a3b f775 1d3d
00000220: 0f02 f4bd c712 1abe 2121 b0bd 7436 f03b
00000230: fe21 1e3b 40ae a73b 9c08 b5bc 6fd7 903b
00000240: 6684 55bd 8eb7 bebb d332 30ba 772a 20b9
00000250: b213 b7ba 72da 9aba bd33 193d 6b46 fc3a
00000260: 5742 3d3b 829e 4ebc df08 b3bb 318f 9b3b
00000270: dd40 793c 1384 9cbd c430 0c3e eae0 5bba
00000280: ec82 cf3b f73c 893b 075d 0a3c 113a 393d
00000290: 6f80 3f3b 86b4 a739 dfb4 bc3b 6448 473a
000002a0: 6c58 3c3b e64f 9a3b 4fb1 31b9 8fee 463a
000002b0: 9a41 86ba 3bfa d83a bad5 933b 3b94 4db9
000002c0: 7944 773b b0f9 38ba 8f21 9a3b c28b 153a
000002d0: 5091 443b 9d17 403b 3a49 4c3b 0fca d43a
000002e0: 523f 893b 9cde 143e 44c4 1fbd 2d60 87bd
000002f0: dceb d1ba 200d 563b 6cf0 a33b 03ca 15bb
00000300: 35a6 0f3b 0042 2c3d 6aa9 b0ba 2f13 2cbd
00000310: 3a37 c6bc 37dd 14bc 772a d7bd 6f62 53bc
00000320: 1fc9 823d 21aa c03a bd89 1f3c 8b61 863b
00000330: 05e7 7ebc 5700 95bc a096 d8bb 8974 853d
00000340: 0c59 3d3a 83c0 2b3b e817 283b 18c9 ab3b
00000350: c3e5 9bbb 328e 60bd f40d 223d c4a2 cdba
00000360: ee95 10bb cefc 2bba b3ff ba3b 2224 213a
00000370: 7b19 273a 98f0 113b 421b 58bb 8e16 283e
00000380: 753f 073a 85cb 833b b517 dc3b 502c f639
00000390: 9e82 a4bb 74e3 20bb d997 933b 513e c6ba
000003a0: aac7 fabb a90c 85bd 266c a23a 9cdf d03a
000003b0: 0411 f13a 0e82 e5ba 59c1 76bb 3de6 013e
000003c0: 3999 1bbb 12fc 093b 89b5 52ba bbe9 cb3a
000003d0: 77bb 0cbd 9aa6 5b3b 79e0 803a 5ce5 87bb
000003e0: a0ed 3fbd e9a0 473b 3280 fb3b 19be 73bb
000003f0: f7ea ebbb 6ce7 e939 7b9f 97bd 7b47 c6bb

a2c_network.mu.bias f4 [6]
-0.13920851 0.010086334 -0.21936668 -0.029124832 -0.05203369 -0.45210108
00000000: ad8c 0ebe 2741 253c a9a1 60be 3397 eebc
00000010: 4721 55bd cb79 e7be

exp_avg f4 [6]
-0.0006442682 0.0010141111 0.00029966803 0.0004199253 0.0007212447 0.0006461903
00000000: 1be4 28ba eceb 843a c31c 9d39 6b29 dc39
00000010: ea11 3d3a 1965 293a

exp_avg_sq f4 [6]
2.2584376e-05 2.4774663e-05 2.2140966e-05 2.702145e-05 2.6112955e-05 2.305658e-05
00000000: 9473 bd37 2fd3 cf37 5dbb b937 1fac e237
00000010: 250d db37 a169 c137

exp_avg f4 [256, 40]
-5.6021767e-05 5.5965003e-05 1.8314805e-06 5.6021767e-05 1.8314805e-06 0.0 0.00010184715 0.0002456184
-0.00027514092 0.00015474277 6.900942e-05 0.00016719484 -0.0007846504 0.00044684758 -0.00072303077 -6.437781e-06
-0.00060558534 -0.00014588553 3.5052562e-05 -0.0005743679 -0.00019316774 -5.5362457e-06 3.570342e-05 -9.2317365e-05
3.8242597e-05 0.00016351066 -0.00028841157 -5.6592133e-05 -8.969646e-07 -0.000109567685 7.81687e-06 -3.5109187e-07
0.0 -6e-45 6.157848e-07 -6.091265e-08 -6e-45 6.157848e-07 6.141895e-08 -6e-45
6.0534865e-05 -6.0296254e-05 -5.003326e-06 -6.0534865e-05 -5.003326e-06 0.0 0.0010382178 -0.00033049114
0.0007268078 0.0011283993 -0.0008009306 0.000856977 -0.001575873 -0.00044684357 -0.00031227205 1.1834819e-05
-0.00050880073 2.5215812e-05 9.339964e-05 0.0008310569 8.297461e-05 1.4010768e-05 -7.432928e-05 -5.0068782e-05
-5.1092073e-05 0.00011927733 -0.00031340393 -0.00012119899 7.851772e-05 -4.3146224e-06 -2.9847977e-05 2.4209989e-08
0.0 -6e-45 7.43319e-08 2.5964203e-08 -6e-45 7.43319e-08 -2.9080596e-08 -6e-45
3.907251e-06 -3.902416e-06 -9.8572016e-08 -3.907251e-06 -9.8572016e-08 0.0 0.0004126022 0.0004436541
2.336691e-05 0.00037300613 -0.0006448319 0.00023231845 -0.0011506346 -0.00027925317 -0.00051099574 -9.088351e-06
0.00039096616 0.00029884317 3.9024206e-05 0.00033007143 0.00049570925 9.265663e-06 -3.961062e-06 -1.742993e-05
-2.2530749e-05 -9.6518714e-05 -0.00015276758 3.3004922e-05 -1.09476e-05 -1.1445422e-05 -5.9830513e-06 8.8290044e-08
0.0 6e-45 -1.3241707e-07 3.716837e-08 6e-45 -1.3241707e-07 -3.7943234e-08 6e-45
1.540557e-05 -1.5414023e-05 1.3057766e-07 -1.540557e-05 1.3057766e-07 0.0 -0.0003065699 -0.00025586836
-0.00034062823 -0.00021272036 5.554644e-05 -0.00018015054 0.00029593756 0.0005496764 0.00010414944 1.9221122e-06
-0.0005480139 8.6645785e-05 2.464914e-05 -3.8320428e-05 -9.4043375e-05 5.526772e-06 1.1511464e-05 -1.5773818e-05
-1.2375618e-05 -4.801691e-07 -0.00016923781 4.5844357e-05 5.3169017e-05 -3.7378257e-05 -3.6083755e-05 -2.0222119e-08
0.0 -6e-45 1.1713957e-07 3.3413855e-08 -6e-45 1.1713957e-07 -3.3636297e-08 -6e-45
8.07821e-05 -8.065199e-05 -2.500632e-06 -8.07821e-05 -2.500632e-06 0.0 0.00035066626 -7.363854e-05
6.3183645e-05 0.00029891718 -0.00030003037 0.00025517333 0.00014850027 -0.00018223001 8.236964e-05 -6.9490234e-06
1.6928454e-05 0.00044549129 -1.0295323e-05 0.00037259678 0.00031282497 2.797364e-06 -5.274683e-05 3.65381e-05
-6.280189e-05 2.130579e-05 -0.00020616555 -0.000108734675 7.349151e-05 -5.387591e-06 -1.1532802e-05 9.222903e-08
0.0 -6e-45 -9.154845e-08 1.127573e-08 -6e-45 -9.154845e-08 -1.1790574e-08 -6e-45
1.6178526e-05 -1.608719e-05 -1.6848608e-06 -1.6178526e-05 -1.6848608e-06 0.0 0.00020836193 -0.00038022856
0.00043150657 0.00026869227 8.463971e-05 0.00010865772 -0.00024073977 -0.00021558355 0.0005296096 -4.7736233e-08
-0.00027531598 -0.00047883447 -7.3499854e-05 -0.00020163646 -0.00023754944 -5.937949e-06 -2.4688465e-05 -1.0272023e-06
-4.1425457e-05 0.00021725048 0.00030083742 -9.476052e-06 -0.0001374388 0.000111936555 2.3224488e-06 8.7168964e-08
0.0 -6e-45 -1.2041833e-07 -2.3499254e-08 -6e-45 -1.2041833e-07 2.2982041e-08 -6e-45
4.7204765e-05 -4.7245052e-05 1.3434237e-06 -4.7204765e-05 1.3434237e-06 0.0 5.254332e-05 -0.00023774356
4.964409e-06 0.00016129868 1.7700944e-05 9.4625815e-05 -8.7729764e-05 3.9426166e-05 -4.119497e-05 -9.630568e-06
00000000: eaf8 6ab8 f7bb 6a38 31d1 f535 eaf8 6a38
00000010: 31d1 f535 0000 0000 c696 d538 58c6 8039
00000020: ca40 90b9 7242 2239 26b9 9038 0651 2f39
00000030: ffb0 4dba de46 ea39 c689 3dba 1e04 d8b6
00000040: 25c0 1eba d9f8 18b9 6705 1338 2d91 16ba
00000050: 128d 4ab9 fdc3 b9b6 41c0 1538 829a c1b8
00000060: ad66 2038 0f74 2b39 f235 97b9 575d 6db8
00000070: f0c6 70b5 b4c7 e5b8 3325 0337 b37d bcb4
00000080: 0000 0000 0400 0080 694c 2535 15cf 82b3
00000090: 0400 0080 694c 2535 6de5 8333 0400 0080
000000a0: d1e6 7d38 9ce6 7cb8 3ee2 a7b6 d1e6 7db8
000000b0: 3ee2 a7b6 0000 0000 cf14 883a c545 adb9
000000c0: 3f87 3e3a cce6 933a 8bf5 51ba c1a6 603a
000000d0: 868d ceba 5446 eab9 72b8 a3b9 298e 4637
000000e0: 0a61 05ba 8b86 d337 8ddf c338 49db 593a
000000f0: a802 ae38 ca0f 6b37 3ae1 9bb8 f200 52b8
00000100: b24b 56b8 8724 fa38 5d50 a4b9 362c feb8
00000110: e1a9 a438 53c6 90b6 0b62 fab7 54f6 cf32
00000120: 0000 0000 0400 0080 65a0 9f33 e307 df32
00000130: 0400 0080 65a0 9f33 e8cc f9b2 0400 0080
00000140: 081b 8336 80f1 82b6 8aae d3b3 081b 83b6
00000150: 8aae d3b3 0000 0000 8852 d839 3f9a e839
00000160: 0f04 c437 0990 c339 f009 29ba 829a 7339
00000170: e4d0 96ba ba68 92b9 58f4 05ba 2c7a 18b7
00000180: 97fa cc39 0dae 9c39 ecad 2338 700d ad39
00000190: 7cf2 013a b873 1b37 43e9 84b6 7d36 92b7
000001a0: 6a00 bdb7 176a cab8 3c30 20b9 c46e 0a38
000001b0: 95ab 37b7 b705 40b7 05c2 c8b6 f799 bd33
000001c0: 0000 0000 0400 0000 872e 0eb4 0ea3 1f33
000001d0: 0400 0000 872e 0eb4 07f7 22b3 0400 0000
000001e0: 363b 8137 5d4d 81b7 ea34 0c34 363b 81b7
000001f0: ea34 0c34 0000 0000 1ebb a0b9 1226 86b9
00000200: 5996 b2b9 b00d 5fb9 89fa 6838 cbe6 3cb9
00000210: 1128 9b39 2918 103a ce6a da38 a3fd 0036
00000220: 97a8 0fba 9ab5 b538 a0c5 ce37 3fba 20b8
00000230: 2739 c5b8 9c72 b936 5d21 4137 0452 84b7
00000240: e0a0 4fb7 f8e4 00b5 6e75 31b9 0149 4038
00000250: cc01 5f38 99c6 1cb8 a358 17b8 e9b4 adb2
00000260: 0000 0000 0400 0080 298e fb33 ec82 0f33
00000270: 0400 0080 298e fb33 8077 10b3 0400 0080
00000280: 8f69 a938 b523 a9b8 88d0 27b6 8f69 a9b8
00000290: 88d0 27b6 0000 0000 a1d9 b739 646e 9ab8
000002a0: 7681 8438 fcb7 9c39 654d 9db9 c9c8 8539
000002b0: bdb6 1b39 ff14 3fb9 ddbd ac38 a82b e9b6
000002c0: 9401 8e37 d490 e939 13ba 2cb7 1859 c339
000002d0: a802 a439 59ba 3b36 7a3c 5db8 7c40 1938
000002e0: 82b4 83b8 d6b9 b237 252e 58b9 7c08 e4b8
000002f0: 741f 9a38 0ec7 b4b6 027d 41b7 720f c633
00000300: 0000 0000 0400 0080 4b99 c4b3 2fb7 4132
00000310: 0400 0080 4b99 c4b3 7e8f 4ab2 0400 0080
00000320: 1fb7 8737 faf2 86b7 6023 e2b5 1fb7 87b7
00000330: 6023 e2b5 0000 0000 bb7b 5a39 6a59 c7b9
00000340: d53b e239 44df 8c39 9980 b138 2bdf e338
00000350: 176f 7cb9 450e 62b9 80d5 0a3a 8b06 4db3
00000360: 4958 90b9 130c fbb9 ef23 9ab8 606e 53b9
00000370: b116 79b9 983e c7b6 131a cfb7 67de 89b5
00000380: 3fc0 2db8 bbcd 6339 b7b9 9d39 55fb 1eb7
00000390: 721d 10b9 7bbf ea38 5edb 1b36 a531 bb33
000003a0: 0000 0000 0400 0080 574c 01b4 68db c9b2
000003b0: 0400 0080 574c 01b4 0b6a c532 0400 0080
000003c0: bbfd 4538 fd28 46b8 b04f b435 bbfd 45b8
000003d0: b04f b435 0000 0000 f661 5c38 cd4a 79b9
000003e0: f393 a636 4922 2939 7d7c 9437 d971 c638
000003f0: 8ffb b7b8 865d 2538 c3c8 2cb8 f992 21b7
