logs/rl_games/yam_cube_sort_8192/2026-02-01_05-04-52/nn/last_yam_cube_sort_8192_ep_750_rew_1279.2079.pth (torch, 953214 bytes, 30 tensors)

value_mean_std.running_mean f8 [1]
0	0x3fce6cea8cdc8c2c	0.23769885900500876

value_mean_std.running_var f8 [1]
0	0x3fa589c2178d5af3	0.0420666364431578

value_mean_std.count f8 []
0	0x41b7700001000000	393216001.0

running_mean_std.running_mean f8 [40]
0	0x3fefec1ead6769ff	0.9975732218547931
1	0x3f63b792c44a727b	0.0024068705118465684
2	0x3ef4de8c9f541790	1.99025470992913e-05
3	0x3f63e14fdd891a90	0.0024267730589458483
4	0x3ef4de8c9f541790	1.99025470992913e-05
5	0x0000000000000000	0.0
6	0x3fc97e34ebeabbfe	0.19916402358418844
7	0xbfa05c019d7cb6d6	-0.03195195243311637
8	0x3fc596562bf11f8d	0.16865040917968735
9	0x3fc8d3a7b144900e	0.19395919948249268
10	0xbfa104485dc53b61	-0.03323579926165255
11	0x3fc5b14afd19365e	0.16947305067371848
12	0x3fa8c8cbdd26ac60	0.048406954523067425
13	0x3fd348fc6ac7efeb	0.3013297121794937
14	0x3f6184be69eb3e3b	0.0021384924906227266
15	0x3fe868104f57603e	0.7627030896792417
16	0x3fd36d1eccfcd50a	0.3035351754982264
17	0x3f696cc8c3df402a	0.0031036301797726833
18	0x3fe86811bca5e1c7	0.7627037701159275
19	0x3fd35368803e83b6	0.3019658329376925
20	0x3f619b7fa99619fe	0.0021493428618584156
21	0x3fe8680e9bf71ed1	0.7627022787282504
22	0x3f2a3872c885add9	0.00020004655039983116
23	0x3f26274cb9375034	0.00016901790205159503
24	0xbf24cc6322e09084	-0.00015867910536926735
25	0x3f316380c867b8f6	0.0002653302584850881
26	0x3f2636aa2bf7c5d6	0.00016947581569541512
27	0xbf262f2a2991908c	-0.00016925229718645453
28	0x3f2b98cbb3ef6093	0.00021054731948200577
29	0x3f253189ef8b7968	0.00016169365678471025
30	0xbf23cebc50f77d4b	-0.0001511196974055363
31	0x3fdd70a0b57cdfdc	0.45999925349633286
32	0x0000000000000000	0.0
33	0x3fe851eb7decb8b0	0.7599999865976965
34	0x3fcc28fb7d98d558	0.22000068314234045
35	0x3fc1bc7bb67c8b9c	0.1385645524070157
36	0x3fe851eb7decb8b0	0.7599999865976965
37	0x3fcc28fb7d98d558	0.22000068314234045
38	0xbfc1bc7bb67c8b9c	-0.1385645524070157
39	0x3fe851eb7decb8b0	0.7599999865976965

running_mean_std.running_var f8 [40]
0	0x3f63d522d338ab2e	0.0024209671189700166
1	0x3f63ab966bc1aca5	0.002401155272357141
2	0x3ef4dff8b69e1638	1.9907845320263194e-05
3	0x3f63d52031137404	0.002420962213916857
4	0x3ef4dff8b69e1638	1.9907845320263194e-05
5	0x3e35d867c20faa85	5.0862629949632264e-09
6	0x3fa1abe0806403c9	0.034514442131701246
7	0x3f63050e2a5d5c25	0.0023217465085667737
8	0x3f61e21bc625aa8f	0.002183012243383082
9	0x3fa2e1eafe17aa14	0.03687986709322302
10	0x3f6467ef93fc4d20	0.0024909667262221907
11	0x3f6daa6087c58ff9	0.0036212811811981963
12	0x3f8c5bedb8efcb01	0.013847214895553519
13	0x3f6244bac4e89616	0.0022300384364537613
14	0x3f680c6e7d04bfcc	0.0029356153464945352
15	0x3e8f3385b476a256	2.3246749434920424e-07
16	0x3f644c700c9a9a79	0.002477854581985736
17	0x3f690a2fcaa2a415	0.003056615202770017
18	0x3e89d79cf4f68292	1.9253968240337198e-07
19	0x3f62f55d7e789f54	0.0023142648749575976
20	0x3f68c123be83e64f	0.0030217836502941862
21	0x3e8ae128d0d8094d	2.0026809759161242e-07
22	0x3f2c3e972535a4bb	0.00021548838649757492
23	0x3f36e9008a67315f	0.00034958136748454953
24	0x3f075a90fb0cd778	4.454379030109553e-05
25	0x3f31aa89283bafcd	0.0002695641380643349
26	0x3f38197f390be690	0.00036773067499460636
27	0x3f0ba70bc1ad9886	5.27430022064105e-05
28	0x3f2ae32c2cb2a0b3	0.00020513452759485725
29	0x3f36c7a4b5d4e5ef	0.00034759303328576926
30	0x3f059b088ede445c	4.120941035446669e-05
31	0x3e3a77e72b282dfb	6.1626478802944086e-09
32	0x3e35d867c20faa85	5.0862629949632264e-09
33	0x3e413b4a0caa2aef	8.024088412181763e-09
34	0x3e36e7ba6b2fad74	5.333029728746836e-09
35	0x3e364461ef0fcdab	5.184467730980524e-09
36	0x3e413b4a0caa2aef	8.024088412181763e-09
37	0x3e36e7ba6b2fad74	5.333029728746836e-09
38	0x3e364461e8856dac	5.184467640212474e-09
39	0x3e413b4a0caa2aef	8.024088412181763e-09

running_mean_std.count f8 []
0	0x41a7700002000000	196608001.0

a2c_network.sigma f4 [6]
0	0xc0066337	-2.0998056
1	0xc00d1a82	-2.204743
2	0xc00bb903	-2.1831672
3	0xc0283ae9	-2.6285956
4	0xc0253c35	-2.5817997
5	0x3eaed87c	0.3414954

a2c_network.actor_mlp.0.weight f4 [256, 40]
0	0x3db2c5a4	0.08729103
1	0xbd0b46f1	-0.034003202
2	0xbe8f284f	-0.2796044
3	0x3db10ee1	0.08645416
4	0xbe826e68	-0.25474858
5	0xbd8d9062	-0.069123045
6	0x3e21d406	0.15803537
7	0xbbbc4370	-0.005745344
8	0x3e3ec72a	0.18630663
9	0xbe219dc3	-0.15782838
10	0xbe579bd7	-0.21055542
11	0xbe9eb72c	-0.30999124
12	0x3d2767d6	0.04087051
13	0x3d4c5a5d	0.049890865
14	0xbc9b6cd1	-0.018972786
15	0x3f2c2184	0.6723864
16	0xbd730ca0	-0.059338212
17	0x3bf47bfe	0.00746107
18	0x3f21d149	0.6320997
19	0xbae6eb61	-0.0017617756
20	0xbcc9aec1	-0.024619462
21	0xbf5553b6	-0.8333086
22	0xbc665e50	-0.014060572
23	0xbdb55ce4	-0.08855608
24	0x3efd28a9	0.49445084
25	0xbd1ff3c3	-0.03905083
26	0xbd200067	-0.039062884
27	0x3cb49137	0.0220419
28	0x3de43f75	0.11144916
29	0xbea1c190	-0.3159299
30	0xbd3a3684	-0.045462146
31	0x3e33660e	0.175194
32	0x3e1bcbf3	0.15214519
33	0xbe0ab8bd	-0.13547035
34	0xbd92de3d	-0.07171295
35	0x3d976742	0.07392742
36	0xbde4084f	-0.11134397
37	0x3e18bd29	0.14915909
38	0xbe0508a7	-0.12991582
39	0x3e016e74	0.12639791
40	0xbe06e50e	-0.13173315
41	0xbceb7c7e	-0.028745886
42	0x3db626a6	0.0889409
43	0xbb8f8718	-0.004380118
44	0x3dcedf59	0.10101194
45	0xbd19af1f	-0.037520524
46	0x3ed5bf35	0.41747442
47	0xbf16d3b2	-0.5891677
48	0xbe7830d1	-0.24237372
49	0xbdca82ad	-0.09888206
50	0xbe347ee8	-0.17626536
51	0x3e14bb9f	0.14524697
52	0x3c4f0936	0.012636473
53	0x3cf8b491	0.030359538
54	0xbd6cbba0	-0.05779612
55	0x3e55f5a0	0.2089448
56	0x3d373d9e	0.044736497
57	0x3db21665	0.08695678
58	0x3e8890df	0.26673028
59	0xbd4d8da2	-0.0501839
60	0x3d1ae0f2	0.03781218
61	0x3e848247	0.25880644
62	0x3da68c77	0.0813226
63	0xbed4aa85	-0.41536346
64	0x3e8478bf	0.25873372
65	0xbd5865e6	-0.052831553
66	0xbe697c12	-0.22801235
67	0xbe6a710c	-0.22894686
68	0xbd8e5daa	-0.06951459
69	0xbe911a17	-0.28340217
70	0x3e85505f	0.2603788
71	0xbd8d1c94	-0.068902165
72	0x3d479329	0.048724327
73	0xbe06cc6c	-0.13163918
74	0xbe1ce94a	-0.15323368
75	0x3fae4dd5	1.3617502
76	0x3d261d65	0.040555377
77	0xbe410a9e	-0.18851706
78	0xbfbc910b	-1.4731764
79	0xbda16ffd	-0.07882688
80	0x3d10ede4	0.03538312
81	0xbd59c21a	-0.053163625
82	0xbea8e6c5	-0.32988563
83	0xbe08e7b5	-0.13369639
84	0xbedadbb1	-0.42745736
85	0xbdbcea62	-0.092243925
86	0xbddf466e	-0.10902105
87	0xbe1feb03	-0.15616994
88	0x3d167fe5	0.036743063
89	0xbd3165c3	-0.04330994
90	0x3e134dea	0.1438519
91	0xbc873e9f	-0.016509352
92	0xbd2a7569	-0.041615877
93	0x3dba6e51	0.091030724
94	0x3bd32f62	0.0064448575
95	0xbd56ad34	-0.052411273
96	0x3cd827e3	0.026386207
97	0xbd2d399d	-0.042291272
98	0xbe9fe1ab	-0.31226858
99	0x3d13a7e9	0.036048803
100	0xbbe1f78b	-0.0068959645
101	0xbec5849b	-0.38577732
102	0xbe0c1c8e	-0.13682768
103	0xbd994759	-0.074843116
104	0x3ea3cfd6	0.31994504
105	0xbe65a055	-0.22424443
106	0x3d52137f	0.051288124
107	0x3e95a261	0.29225448
108	0xbd34653b	-0.044041853
109	0xbda5b832	-0.08091773
110	0xbc19720f	-0.009365573
111	0xbcc3d2fc	-0.023904316
112	0xbc8df11a	-0.01732688
113	0xbdd06776	-0.101759836
114	0x3f0b4432	0.5440093
115	0x3debb601	0.11509324
116	0x3dcf08cd	0.101091005
117	0x3ee93eef	0.45555827
118	0xbe3be4ba	-0.18348971
119	0xbd8d19c2	-0.068896785
120	0xbd968ec7	-0.07351451
121	0x3e964d5e	0.293559
122	0x3db6d409	0.08927161
123	0x3d8d08fb	0.068864785
124	0x3e0a8e28	0.13530791
125	0xbcc25128	-0.023720339
126	0xbdebd6dc	-0.115155905
127	0xbdc365f2	-0.09540929
128	0x3ddaf4e7	0.10691243
129	0x3d24c901	0.040230755
130	0x3d1ee1e0	0.03878963
131	0xbe1dcb48	-0.15409577
132	0x3e22dc67	0.1590439
133	0xbcb05adf	-0.021527706
134	0x3d50e1ac	0.050996467
135	0xbba688c6	-0.0050822226
136	0x3e01f7f2	0.1269224
137	0xbdff9ea9	-0.12481434
138	0xbcbde7cd	-0.02318182
139	0xba755b32	-0.00093595975
140	0x3d09d438	0.033649653
141	0xbe5975fb	-0.21236412
142	0x3e5f6d88	0.21819127
143	0x3c35ac19	0.011088395
144	0x3e6a3666	0.22872314
145	0x3ed04f94	0.40685713
146	0xbe14d142	-0.1453295
147	0x3e4b815b	0.19873564
148	0x3cf11198	0.029427335
149	0xbe1809b5	-0.14847453
150	0x3de39d59	0.11113996
151	0x3d850883	0.06495764
152	0x3dcefc78	0.10106748
153	0x3dffe960	0.124956846
154	0xbea6c004	-0.3256837
155	0xbdb6ed95	-0.08932034
156	0xbc0d358d	-0.0086187245
157	0xbea391cf	-0.3194718
158	0x3db754b5	0.089517035
159	0x3d08bc70	0.033382833
160	0xbe2edd6c	-0.17076653
161	0x3c050655	0.008119185
162	0xbed4ed4e	-0.415873
163	0x3dc4012d	0.09570537
164	0xbf0e9073	-0.5568916
165	0xbdc33b35	-0.09532777
166	0xbe27e404	-0.16395575
167	0xbd17330a	-0.03691391
168	0xbe119837	-0.14218222
169	0x3dae2ffa	0.085052446
170	0x3d1e0d24	0.03858675
171	0x3e662f98	0.22479093
172	0xba244034	-0.00062656705
173	0x3cd11c3d	0.02552616
174	0xbca2704d	-0.01982894
175	0xbe0e8cb6	-0.13920864
176	0x3bab857d	0.005234419
177	0xbaf30115	-0.0018539751
178	0xbe373152	-0.17889908
179	0xbc46a91f	-0.012125283
180	0x3c41eabd	0.011835751
181	0xbcd11a37	-0.025525196
182	0xbe7f6c13	-0.24943571
183	0xbd34de0b	-0.04415707
184	0xbc3cd409	-0.0115251625
185	0xbe6c8f75	-0.231016
186	0x3da05527	0.078287415
187	0x3d2827b7	0.0410535
188	0xbb8e8f19	-0.0043505547
189	0xbe3d7efc	-0.18505472
190	0x3e310671	0.17287613
191	0x3ecb10d6	0.39661282
192	0x3d9b776e	0.07591139
193	0x3e08b2d2	0.13349465
194	0x3d5880e0	0.05285728
195	0x3e8e22d8	0.2776096
196	0xba9127b5	-0.0011074456
197	0xbe19d39e	-0.15022132
198	0xbebf839c	-0.37405097
199	0xbe16fd47	-0.14745055
200	0xb99ff1c0	-0.0003050696
201	0xbd581b07	-0.05276015
202	0x3e5ffd52	0.21873978
203	0xbc99c018	-0.018768355
204	0x3e631203	0.2217484
205	0xbde3e9f3	-0.11128607
206	0xbe21eed9	-0.1581377
207	0x3dd07ff2	0.10180654
208	0xbb43232f	-0.002977561
209	0x3e2f7902	0.17136005
210	0xba18d650	-0.0005830275
211	0xbdb47e63	-0.08813169
212	0xbcd1e232	-0.025620554
213	0x3d032953	0.03202183
214	0x3d0155b1	0.031575862
215	0xbe3449b0	-0.17606235
216	0xbd1a433c	-0.037661776
217	0x3d4051b8	0.046952933
218	0xbd857c8e	-0.065178975
219	0x3d65c90f	0.056099948
220	0x3d9fe8aa	0.07808049
221	0xbe9471c3	-0.28993043
222	0x3cfe4969	0.031040864
223	0xbd88e755	-0.06684748
224	0x3d8d99b4	0.06914082
225	0xbd8f891a	-0.07008572
226	0xbe1a70d0	-0.15082097
227	0xbdb8c277	-0.09021466
228	0xbbc9b0da	-0.0061551156
229	0xbe2ce00e	-0.16882345
230	0x3e04c2ce	0.12964937
231	0xbe9ee687	-0.31035253
232	0x3dc90695	0.098157085
233	0x3e076848	0.13223374
234	0x3f4152d9	0.7551704
235	0x3db6c0d6	0.08923499
236	0xbded88f8	-0.1159839
237	0x3f242502	0.6411897
238	0xbd36e3b2	-0.04465074
239	0xbe12e2c4	-0.14344317
240	0xbdd48f03	-0.1037884
241	0x3d69751f	0.05699646
242	0xbebc2fad	-0.36755124
243	0xbc3fc638	-0.011704974
244	0xbed63287	-0.41835424
245	0xbd4d98e9	-0.050194655
246	0xbe702f87	-0.2345563
247	0x3e671046	0.22564802
248	0x3e138031	0.1440437
249	0x3d8e9fcc	0.069640726
250	0xbdff904f	-0.124786966
251	0xbd9967b5	-0.07490484
252	0xbe98bab9	-0.29829958
253	0xbdd0e1b9	-0.10199303
254	0x3d953af3	0.07286634
255	0x3f1ce2d1	0.61283594

a2c_network.actor_mlp.0.bias f4 [256]
0	0xbd3aa86b	-0.045570772
1	0x3cb1e3d6	0.021715086
2	0x3c263648	0.010144778
3	0xbd99835b	-0.07495757
4	0x3cdde910	0.027088672
5	0x3dcfb4de	0.101419196
6	0x3db5f8a4	0.08885315
7	0x3d8af178	0.06784338
8	0xbd8e7d72	-0.069575205
9	0xbd639a94	-0.05556734
10	0x3d60cc3c	0.054882273
11	0x3dbe4af4	0.0929164
12	0x3da2f357	0.0795657
13	0xbdcf0074	-0.10107508
14	0x3dc18c45	0.094505824
15	0x3e892c8b	0.26791796
16	0x3c70be5d	0.014693824
17	0xbd570577	-0.052495446
18	0x3d1d171f	0.038352128
19	0x3e2ae4ca	0.16688839
20	0x3e0d9191	0.1382506
21	0xbf0fd7d8	-0.56188726
22	0xbc491668	-0.0122734085
23	0xbd7491d8	-0.0597094
24	0xbe602cc4	-0.21892077
25	0xbc0969ce	-0.008387042
26	0xbc9080fd	-0.017639631
27	0xbebdc076	-0.370609
28	0xbf6aa23f	-0.9165382
29	0x3e99bd16	0.30027074
30	0xbd97aaae	-0.074056014
31	0xbdb89f01	-0.090147026
32	0xbf182f6c	-0.5944736
33	0xbdde239e	-0.10846637
34	0xbf2d5df2	-0.67721474
35	0xbe1923f5	-0.14955123
36	0x3de0a8c2	0.10969688
37	0xbea9748c	-0.3309673
38	0xbe9696ce	-0.2941193
39	0xbe29154a	-0.16512027
40	0xbd24ce2b	-0.04023568
41	0xbcf26bf3	-0.02959249
42	0xbd55ed7a	-0.05222843
43	0x3e9bf329	0.30458954
44	0x3d95c851	0.07313598
45	0x3e52fdbf	0.20604609
46	0xbe2038f4	-0.15646726
47	0xbe7aab6d	-0.24479456
48	0x3e52f189	0.20599951
49	0xbdfc45ed	-0.12318025
50	0xbd5d81ce	-0.05407887
51	0x3d77f5aa	0.060537018
52	0xbe534444	-0.2063151
53	0x3db7b444	0.0896993
54	0x3e1be800	0.1522522
55	0xbc5ead15	-0.013591071
56	0x3d7d1160	0.06178415
57	0xbcc2e36a	-0.02379008
58	0xbd1f59a0	-0.038903832
59	0x3d70f1d5	0.05882438
60	0xbecc0323	-0.39846143
61	0xbd7005c9	-0.058599267
62	0x3dae3b87	0.08507448
63	0x3d263573	0.040578317
64	0x3dd0ff22	0.10204913
65	0x3d51a61a	0.051183797
66	0xbd884bad	-0.06655059
67	0xbdfb511c	-0.1227133
68	0xbeda6d0e	-0.42661327
69	0x3e10a764	0.14126354
70	0xbe8aca30	-0.27107382
71	0xbd004f30	-0.03132552
72	0xbd56e321	-0.0524627
73	0x3eac94f5	0.33707395
74	0xbe262358	-0.1622442
75	0xbd6e275c	-0.058143005
76	0xbd62d028	-0.055374295
77	0xbd0146a1	-0.031561498
78	0x3e24eba5	0.16105516
79	0xbc9e634b	-0.019334456
80	0x3d880203	0.06641009
81	0x3c4e17f8	0.012578957
82	0x3db9461b	0.09046575
83	0x3e63d29c	0.2224831
84	0xbe9ce404	-0.30642712
85	0xbd1f1552	-0.038838692
86	0x3f027cf7	0.5097193
87	0xbe9395ac	-0.28825128
88	0x3e166cac	0.14689893
89	0xbd50e09d	-0.050995458
90	0x3e5552da	0.20832387
91	0xbe59fd0e	-0.21287939
92	0x3dfb3530	0.12266004
93	0xbe56d941	-0.20981313
94	0x3e01d290	0.1267798
95	0x3d705d0f	0.058682498
96	0x3d99dc5c	0.07512733
97	0xbd493165	-0.049119372
98	0xbcb7fd8e	-0.022459771
99	0xbedd9936	-0.43280953
100	0xbca9b4ba	-0.02071606
101	0x3d9a6a41	0.075397976
102	0xbde653cc	-0.11246452
103	0xbdbb300e	-0.09140025
104	0xbf1c8c8d	-0.61151963
105	0xbd480f0c	-0.048842475
106	0xbe0b0d5b	-0.13579313
107	0x3c4933d4	0.012280423
108	0xbe2d766b	-0.16939704
109	0xbe12707f	-0.14300726
110	0x3d65d701	0.056113247
111	0xbd52f0df	-0.051499244
112	0xbdf2955f	-0.118448965
113	0x3e138db0	0.14409518
114	0xbd9f5053	-0.077789925
115	0xbc87041f	-0.016481457
116	0xbdd00d55	-0.10158793
117	0xbe0364e2	-0.12831452
118	0x3adc58e3	0.0016811158
119	0xbe79e3f3	-0.24403362
120	0x3dacd014	0.08438125
121	0xbccdd1cc	-0.025124453
122	0x3ea23190	0.31678438
123	0xbdd323ae	-0.1030954
124	0x3e5cf21d	0.21576734
125	0x3dd8ed29	0.1059211
126	0x3e2b52d5	0.16730817
127	0xbd767899	-0.060173605
128	0x3cc4dcd0	0.024031073
129	0xbe1e5425	-0.15461786
130	0xbe9fd336	-0.3121583
131	0xbd86b49b	-0.065774165
132	0x3d778c05	0.060436267
133	0x3ce135b4	0.027491428
134	0xbde907d4	-0.11378446
135	0xbd8fddef	-0.07024752
136	0xbe035118	-0.12823904
137	0x3daf25cd	0.08552132
138	0x3e259407	0.16169749
139	0xbef6a86a	-0.48175365
140	0xbeb7956a	-0.3585618
141	0x3e45a460	0.19300985
142	0xbedc2033	-0.42993316
143	0x3e5670c3	0.20941453
144	0x3e0d0ab8	0.1377362
145	0x3e05d370	0.13068938
146	0xbdff53c9	-0.124671526
147	0xbe64c173	-0.2233942
148	0xbd2d5819	-0.042320345
149	0x3d1ebe91	0.038755957
150	0xbc897ac0	-0.016782165
151	0x3cc2c8ea	0.023777444
152	0x3df29b25	0.11845998
153	0x3d3504bc	0.04419397
154	0xbe87fff2	-0.26562458
155	0xbe880ebc	-0.2657374
156	0x3dbcca65	0.09218291
157	0x3def82bc	0.116948575
158	0xbe3dc5cb	-0.18532483
159	0x3d035835	0.032066543
160	0xbd04414c	-0.032288834
161	0x3e286fd1	0.16448905
162	0x3e82af00	0.2552414
163	0xbd61a4ea	-0.055088915
164	0xbe998e30	-0.29991293
165	0x3cfc2b18	0.030782267
166	0x3dd04493	0.101693295
167	0xbd765e77	-0.060148682
168	0x3da88e05	0.08230213
169	0x3cf08cbd	0.029363984
170	0x3e5fc0aa	0.2185084
171	0x3e3828f8	0.17984378
172	0xbdc88424	-0.09790829
173	0xbd9c7af3	-0.07640638
174	0x3c130a7f	0.00897467
175	0xbdc7fea8	-0.09765369
176	0xbe2a8093	-0.1665061
177	0xbe7421e8	-0.23841059
178	0xbe9d4c6a	-0.30722362
179	0x3dc10fde	0.094268546
180	0x3cac9fad	0.021072233
181	0x3cc04b74	0.023473479
182	0x3de27b52	0.11058678
183	0xbdf7c6b1	-0.12098444
184	0x3cfb70d2	0.030693445
185	0xbc6aba7f	-0.014326691
186	0x3d909d5a	0.070612624
187	0xbd8f7407	-0.07004552
188	0x3e5889be	0.21146294
189	0x3d94f625	0.07273511
190	0xbd16e4e5	-0.036839385
191	0xbd8b3a4f	-0.06798231
192	0xbd8bf613	-0.06834044
193	0xbe3bc57d	-0.18337055
194	0xbddbded6	-0.10735862
195	0x3da9ce18	0.082912624
196	0xbe765f01	-0.24059679
197	0x3e545161	0.20734169
198	0xbcae9260	-0.021310031
199	0x3dc649e4	0.09682062
200	0x3bd060bc	0.006359188
201	0xbdc60236	-0.096683905
202	0xbe90f4d6	-0.28311795
203	0x3d66654f	0.05624896
204	0x3db2568d	0.087079145
205	0x3ccc5ac1	0.024945619
206	0x3d579771	0.05263466
207	0xbce6cc90	-0.028173715
208	0x3e814b46	0.25252742
209	0x3d6fe20b	0.05856518
210	0xbd0f7ec0	-0.035032988
211	0xbe99aec8	-0.3001616
212	0xbdaeb887	-0.085312895
213	0xbe08680f	-0.13320945
214	0x3d484734	0.04889603
215	0xbb9a798f	-0.004714198
216	0x3e30ea98	0.1727699
217	0xbd16ef64	-0.036849394
218	0x3e4c2b89	0.19938482
219	0x3e09cbe6	0.13456687
220	0x3dec4d3b	0.11538168
221	0x3e29ceb0	0.16582751
222	0x3d579be0	0.05263889
223	0xbdf4bff4	-0.11950675
224	0xbca19cf8	-0.019728169
225	0xbd969808	-0.073532164
226	0xbacf4c92	-0.0015815666
227	0x3c244d47	0.01002819
228	0xbe6daf96	-0.23211512
229	0xbd6fbba7	-0.05852857
230	0x3e6c45e5	0.23073538
231	0xbe29ad43	-0.1657
232	0xbd23ca1e	-0.039987676
233	0x3ebbe25c	0.36696136
234	0xbdbe1deb	-0.0928305
235	0xbdb084f9	-0.086191125
236	0xbcb6e4c8	-0.022325888
237	0x3e65835a	0.22413388
238	0x3de5175c	0.11186096
239	0xbe26f3e6	-0.16303977
240	0x3e3ef372	0.18647555
241	0xbe213f1d	-0.15746732
242	0xbf167887	-0.5877766
243	0xbedc0373	-0.42971382
244	0xbc741c6b	-0.0148993535
245	0x3c0fda4e	0.008780075
246	0xbd911f86	-0.07086091
247	0x3cb3b21c	0.021935515
248	0x3eb3c4b4	0.3511101
249	0x3df86d93	0.121302746
250	0xbdb77d71	-0.08959473
251	0x3cb2fa09	0.021847742
252	0xbdf00b02	-0.117208496
253	0xbe1d6b1a	-0.15372887
254	0xbc1c1349	-0.009526082
255	0xbdd4012b	-0.10351785

a2c_network.actor_mlp.2.weight f4 [256, 256]
0	0xbc5471f7	-0.012966624
1	0xbef17f7b	-0.47167572
2	0x3d8140f4	0.06311217
3	0x3dfcf8c3	0.12352135
4	0xbca9c842	-0.020725373
5	0x3dddbd87	0.10827165
6	0xbe7174a9	-0.23579659
7	0xbe063240	-0.13105106
8	0xbde20434	-0.11035958
9	0x3c8b5944	0.017010339
10	0x3d109802	0.035301216
11	0x3d888fd1	0.06668056
12	0xbdc44cee	-0.09584986
13	0x3d3aeda3	0.045636784
14	0xbeaa435f	-0.33254525
15	0xbcfa6880	-0.030567408
16	0x3dfde8f0	0.12397945
17	0xbf2dde74	-0.6791756
18	0xbe220b2e	-0.15824577
19	0xbea3b44b	-0.3197349
20	0xbe7c1f47	-0.24621306
21	0xbe924f22	-0.28576
22	0x3de34c6d	0.110985614
23	0x3e7a7d1c	0.24461788
24	0xbcd60fa8	-0.026130512
25	0xbdb98d4b	-0.090601526
26	0xbe65f955	-0.22458394
27	0xbe28280d	-0.16421528
28	0x3d9c90e1	0.07644821
29	0xbeb126cf	-0.3459992
30	0xbeb980df	-0.36231133
31	0xbe0ffa98	-0.14060438
32	0xbd107b26	-0.035273694
33	0xbd0914f5	-0.03346725
34	0x3cd8c4ea	0.026461083
35	0x3e2ace52	0.16680267
36	0xbeb5cb6b	-0.35506758
37	0x3df02dc8	0.11727482
38	0x3da16957	0.0788142
39	0xbe165ef0	-0.14684653
40	0xbdec5788	-0.11540133
41	0xbdec994e	-0.11552678
42	0xbe00671e	-0.12539336
43	0xbe7e7003	-0.24847417
44	0xbe4af317	-0.19819294
45	0xbd9f2058	-0.07769841
46	0x3e866913	0.2625204
47	0xbde9747e	-0.11399172
48	0xbe55763c	-0.20845884
49	0xbdd2fe3a	-0.10302396
50	0x3cd93278	0.026513323
51	0x3c9e8ac1	0.019353272
52	0xbe242440	-0.16029453
53	0xbcb1fa38	-0.021725759
54	0xbd5b746f	-0.053577837
55	0xbe621cfd	-0.2208137
56	0xbec982d2	-0.3935762
57	0x3dc121e8	0.09430295
58	0xbe65c651	-0.22438933
59	0xbebd111f	-0.36927125
60	0x3b860e61	0.0040910696
61	0xbdb56186	-0.08856492
62	0x3da4a62d	0.08039508
63	0xbde627cc	-0.112380594
64	0xbe1019e9	-0.14072384
65	0x3d37608d	0.044769812
66	0x3cd6b6de	0.026210245
67	0x3d940d67	0.07229119
68	0xbe6ff181	-0.2343197
69	0xbe407da6	-0.18797931
70	0x3e612c18	0.21989477
71	0xbdbe0a77	-0.0927934
72	0xbdec60f6	-0.11541931
73	0xbd96ad07	-0.07357221
74	0x3d035cb0	0.032070816
75	0x3da34e08	0.07973868
76	0xbe821980	-0.2541008
77	0xbdcb56a5	-0.099286355
78	0xbcafc590	-0.02145651
79	0xbe85c8be	-0.26129717
80	0xbdd7cf30	-0.10537565
81	0xbdc8ec93	-0.09810748
82	0x3e08a4bc	0.13344091
83	0xbe74f866	-0.23922881
84	0x3eb9b382	0.36269766
85	0xbe4109b6	-0.1885136
86	0xbdf1b1f0	-0.11801517
87	0xbdcb3b88	-0.09923464
88	0xbe223b28	-0.15842879
89	0x3c8f655b	0.017504385
90	0xbe29f883	-0.16598706
91	0xbecfe5ef	-0.40605113
92	0xbe8cf736	-0.27532357
93	0x3dc251a0	0.09488225
94	0x3de2f72c	0.110823005
95	0xbccd1247	-0.02503313
96	0xbe1b89b4	-0.15189248
97	0xbd710fad	-0.05885284
98	0x3b18215d	0.0023213245
99	0x3e459eee	0.19298908
100	0xbb9783f5	-0.004623885
101	0xbe6418d1	-0.22275092
102	0x3e32c108	0.17456448
103	0xbd71008b	-0.05883841
104	0xbe80c248	-0.25148225
105	0x3c836ee8	0.016044095
106	0x3d9afccc	0.075677484
107	0xbc18675b	-0.009301986
108	0x3da3dfd7	0.080016784
109	0xbde4126c	-0.11136326
110	0x3dda7317	0.10666483
111	0xbe905e66	-0.2819702
112	0x3d92e94f	0.07173406
113	0xbe365663	-0.17806391
114	0x3cd3767d	0.025813336
115	0xbe549fcd	-0.20764084
116	0xbb8808df	-0.004151448
117	0x3e35fe6e	0.17772838
118	0xbcf01d33	-0.029310798
119	0xbd1ada9f	-0.03780615
120	0xbdbc646e	-0.09198843
121	0x3d0e1476	0.03468748
122	0xbe92d884	-0.28680813
123	0xbdf39e08	-0.118953764
124	0xbe0b5c92	-0.13609532
125	0xbe0549cd	-0.13016434
126	0xbe3d79b5	-0.18503459
127	0xbec36e43	-0.3817006
128	0xbd88f4a7	-0.06687289
129	0xbe1bd71a	-0.15218773
130	0x3da22966	0.079180524
131	0x3e037623	0.12838034
132	0xbd776659	-0.06040034
133	0x3d85e309	0.06537444
134	0x3d18d5a7	0.03731313
135	0xbd8a982f	-0.06767308
136	0x3baaad2b	0.0052086315
137	0xbd69867a	-0.057013012
138	0xbd15b38d	-0.036548186
139	0x3c2d7a99	0.010588312
140	0x3e88273f	0.26592442
141	0xbe6dd510	-0.23225808
142	0xbddefab2	-0.1088766
143	0xbd418ec0	-0.047255278
144	0xbedbc9a8	-0.4292729
145	0x3de62868	0.11238176
146	0xbd616e31	-0.055036727
147	0xbe290436	-0.16505513
148	0xbe050f06	-0.12994012
149	0x3dd3ee75	0.103482164
150	0xbe0c754c	-0.1371662
151	0xbde4a90b	-0.11165055
152	0x3cb53fc8	0.02212514
153	0xbe01aee4	-0.12664372
154	0x3dc58b17	0.0964567
155	0x3e3b4496	0.18287882
156	0xbe19d2ae	-0.15021774
157	0x3be859c6	0.00709078
158	0x3d9168f4	0.07100096
159	0x3e053dc1	0.13011838
160	0xbeb0691c	-0.34455192
161	0xbe3c2e39	-0.18377008
162	0xbdaff7a4	-0.085921556
163	0xbd419ca8	-0.04726854
164	0xbba419eb	-0.0050079725
165	0xbd1d034f	-0.038333233
166	0xbd8ccb03	-0.06874659
167	0xbe335c85	-0.17515762
168	0xbe1ee115	-0.1551555
169	0xbe1dda14	-0.15415221
170	0xbe6524ee	-0.22377369
171	0xbe72c33d	-0.2370729
172	0xbe09e89d	-0.13467641
173	0x3c3553c8	0.011067338
174	0xbe07a1f2	-0.13245371
175	0x3e62bada	0.2214159
176	0x3e5ab899	0.21359481
177	0x3db17a5c	0.08665916
178	0xbdefd696	-0.11710851
179	0xbe48d6ff	-0.19613265
180	0x3c0c4d09	0.0085632885
181	0xbcccb088	-0.02498652
182	0xbe5ae793	-0.21377401
183	0x3a1b01f6	0.0005913073
184	0x3ccfb6b6	0.025355678
185	0x3da55a6d	0.08073888
186	0xbe5a70d3	-0.21332102
187	0x3dd9d806	0.10636906
188	0xbe40d110	-0.18829751
189	0xbe2a6170	-0.16638732
190	0xbde2b4bf	-0.11069631
191	0xbe8a4ec5	-0.2701322
192	0xbe77faa5	-0.24216707
193	0xbda2df36	-0.0795273
194	0xbd99a851	-0.07502807
195	0xbd3fb1a8	-0.046800286
196	0xbd3af024	-0.045639172
197	0xbe83d2fd	-0.2574691
198	0x3dc065fe	0.093944535
199	0xbe0f18dd	-0.13974328
200	0xbe507391	-0.20356585
201	0xbdc89651	-0.097942956
202	0x3dc0847d	0.0940027
203	0xbdf02073	-0.11724939
204	0xbd80d229	-0.06290085
205	0xbe039b85	-0.12852295
206	0x3da82aff	0.08211326
207	0xbe0681c1	-0.13135435
208	0xbcd8f7c9	-0.02648534
209	0xbe2b5ce9	-0.16734661
210	0x3d153382	0.036426075
211	0xbdc8cbfb	-0.09804531
212	0x3db11404	0.08646396
213	0xbebcfc95	-0.36911455
214	0x3dcfcdb2	0.10146655
215	0x3de6ce14	0.11269775
216	0xbe222f37	-0.15838324
217	0xbc9728ca	-0.018452067
218	0xbc3316de	-0.010930745
219	0xbde90571	-0.11377991
220	0x3cc9b84b	0.02462401
221	0xbc9d9307	-0.019235147
222	0xbea931e9	-0.3304589
223	0x3df4dd08	0.11956221
224	0xbef41803	-0.4767457
225	0x3cc1552d	0.023600185
226	0x3d09d4f5	0.033650357
227	0xbda7a3aa	-0.08185513
228	0xbd99ff62	-0.075194135
229	0x3d3f92b2	0.04677076
230	0xbe9b11b7	-0.30286953
231	0x3e05e92b	0.13077228
232	0x3de70a73	0.1128129
233	0xbe12255a	-0.14272061
234	0xbe1825da	-0.14858189
235	0x3cf91723	0.03040654
236	0x3ce83891	0.028347285
237	0xbe1d6015	-0.15368684
238	0xbd506356	-0.050875984
239	0x3d2ddd3c	0.042447314
240	0xbe828b2c	-0.25496805
241	0x3db9e55d	0.09076951
242	0xbe22742c	-0.15864629
243	0xbd9ac1ad	-0.07556472
244	0x3d0a301d	0.03373729
245	0x3d61f163	0.055161845
246	0xbb590349	-0.003311353
247	0xbbe58dd0	-0.0070054308
248	0xbae74711	-0.0017645081
249	0xbe46d4df	-0.19417141
250	0x3d938557	0.07203167
251	0x3def42e6	0.11682682
252	0x3e10561f	0.14095353
253	0x3e0814ae	0.13289139
254	0xbc1cdfa1	-0.009574802
255	0x3cb60dc1	0.022223355

a2c_network.actor_mlp.2.bias f4 [256]
0	0xbba28180	-0.0049592853
1	0x3d55b029	0.052169953
2	0xbc9b16c6	-0.018931758
3	0xbcc9dc35	-0.024641136
4	0xbcec3c21	-0.028837265
5	0xbbce4f9e	-0.006296112
6	0xbc6af604	-0.014340881
7	0x3ba5cc96	0.005059789
8	0xbbc94bd6	-0.0061430736
9	0x3d1e3c8a	0.038631953
10	0xbe45f034	-0.19329911
11	0xbc5da8ad	-0.013528985
12	0xbcde7613	-0.027155912
13	0x3d67f468	0.05662957
14	0xbd211dd8	-0.0393351
15	0x3bc8b8de	0.0061255535
16	0x3b27874e	0.0025562826
17	0xbbf8ea6f	-0.007596306
18	0xbdb47fd2	-0.08813442
19	0xbdf65759	-0.12028379
20	0xbbc09feb	-0.0058784387
21	0xbd198363	-0.037478816
22	0xbcc5b195	-0.02413253
23	0xbea31407	-0.31851217
24	0xbd05015b	-0.032471996
25	0x3d0303c8	0.031986028
26	0xbca221b1	-0.019791456
27	0xbc92c777	-0.017917378
28	0x3c918b5f	0.017766653
29	0x3d81641f	0.06317925
30	0xbe352321	-0.17689182
31	0xbe6ff196	-0.23432001
32	0x3d243293	0.040087294
33	0x3cc710f0	0.024300069
34	0xbccd2823	-0.025043553
35	0xbe446b08	-0.19181454
36	0x3ad6c565	0.0016385732
37	0x3cea8e3c	0.028632276
38	0xbbcded8d	-0.006284422
39	0xbcd1f720	-0.025630534
40	0x3caa0e01	0.02075863
41	0x3c99e576	0.018786173
42	0x3cebbb14	0.02877573
43	0x3bf5ac53	0.0074973493
44	0x3bcd44e7	0.0062643173
45	0x3d07cdeb	0.033155363
46	0x3cc0e76d	0.023547852
47	0xbd54b990	-0.05193478
48	0x3c7b826f	0.015350922
49	0x3d93ab5e	0.0721042
50	0xbe320b10	-0.17387033
51	0x3d5858a5	0.052818913
52	0xbc684d67	-0.01417861
53	0xbce16128	-0.027512148
54	0x3b2223dd	0.0024740614
55	0x3cb2e013	0.021835363
56	0x3c8b4122	0.016998831
57	0xbaa4c8e5	-0.0012572078
58	0xba9daeb8	-0.001203022
59	0xbd64c8e0	-0.05585563
60	0x3bdb6bc3	0.006696196
61	0xbda92b6c	-0.08260235
62	0x3cc986e0	0.024600446
63	0x3cdc7c73	0.02691481
64	0xbcab42ca	-0.020905871
65	0x3d1b9b80	0.037990093
66	0x3d533bce	0.051570706
67	0x3ca6c6f5	0.020358542
68	0x3b95a77d	0.0045670853
69	0x3cfa4619	0.030551003
70	0xbdfd50ee	-0.12368952
71	0x3ca95586	0.020670664
72	0xbce73454	-0.028223194
73	0x3d17763b	0.036977988
74	0xbb1f36ab	-0.002429406
75	0xbcddf4ec	-0.027094327
76	0xbc861f7f	-0.01637244
77	0x3c99a854	0.018757023
78	0x3a451720	0.00075183995
79	0x3b298c9d	0.0025871166
80	0xbdb3fb86	-0.08788209
81	0x3d367f3b	0.04455493
82	0xbbc77bcc	-0.006087756
83	0x3d792eee	0.06083577
84	0x3c92d1c0	0.017922282
85	0xbcace5a9	-0.021105604
86	0xbd135a3b	-0.035974722
87	0xbd1f2dfd	-0.038862217
88	0xbda4bea1	-0.08044172
89	0xbc8a01f8	-0.016846642
90	0xbc17fc01	-0.009276391
91	0x3cd0e2f3	0.025498843
92	0x3c10a073	0.008827317
93	0x3bd24fba	0.0064181956
94	0xbd1fccc2	-0.03901363
95	0xbe93b312	-0.28847557
96	0xbcdf2fa9	-0.027244406
97	0xbca61e95	-0.020278255
98	0x3cdc8dbf	0.026923059
99	0xbc0e96d5	-0.008702953
100	0xbee363a5	-0.4441196
101	0xbcea223f	-0.028580783
102	0x3bd5c761	0.006524012
103	0x3cb8a0b2	0.022537563
104	0xbb1acbbe	-0.0023619975
105	0x3c4df4a5	0.012570535
106	0x3d11cbe5	0.03559484
107	0x3d1f7c57	0.03893694
108	0xbba954aa	-0.0051675634
109	0xbeba4ace	-0.36385196
110	0xba858210	-0.0010185856
111	0xbc840fb9	-0.016120778
112	0x3dafc4d6	0.08582465
113	0xbdc5ef67	-0.09664803
114	0xbd8b6e49	-0.068081446
115	0xbd39314c	-0.04521303
116	0xbb4cc8f1	-0.00312477
117	0xbc7bb80d	-0.015363705
118	0xbcdd0f82	-0.026984934
119	0xbc25c6f0	-0.010118231
120	0xbd2983b4	-0.041385368
121	0xbccb3a07	-0.024807943
122	0xbd15bca7	-0.036556866
123	0x3baf8dfd	0.0053575025
124	0xbba87a9f	-0.0051415707
125	0xbcb590d6	-0.02216379
126	0xbef1ee79	-0.47252253
127	0xbc8aaab6	-0.016927104
128	0xbb6791a7	-0.0035334618
129	0xbe18c5a4	-0.14919144
130	0xbc4b4a87	-0.012407905
131	0xbe364ba3	-0.1780229
132	0x3d0d738b	0.03453402
133	0xbb5070c1	-0.0031805488
134	0x3b9be4ea	0.0047575133
135	0xbd26a60c	-0.0406857
136	0xbdcedad7	-0.10100334
137	0xbe8f2d28	-0.2796414
138	0xbdc4ced2	-0.0960976
139	0x3d5696d4	0.052389935
140	0xbbde8a14	-0.0067913625
141	0xbb57acb8	-0.0032909345
142	0xbe8c8d6b	-0.27451643
143	0xbde55e44	-0.1119962
144	0x3d1a9698	0.037741274
145	0xbc6280ed	-0.013824684
146	0xbcd4574e	-0.025920536
147	0xbd3e6e50	-0.04649192
148	0xbc1cc970	-0.009569511
149	0xbb3e53b3	-0.0029041588
150	0xbd206a76	-0.03916403
151	0xbc177344	-0.00924379
152	0x3c8969b5	0.016774038
153	0xbbe7c7f6	-0.0070733977
154	0x38ed0d7c	0.00011303552
155	0x3c19e5e6	0.009393191
156	0xbcae0f5b	-0.021247556
157	0xbe83172d	-0.2560362
158	0xbef725dc	-0.48271072
159	0x3cdc770b	0.026912233
160	0xbbfbf8e9	-0.0076895845
161	0x3d6fd28a	0.058550395
162	0xbce98103	-0.0285039
163	0xbdf0f33f	-0.117651455
164	0xbd0a5c15	-0.033779223
165	0xba3c3662	-0.00071797345
166	0x3d1b64b6	0.037937842
167	0x3c0c98f6	0.008581391
168	0xbbff06e4	-0.007782804
169	0x3d1eca6f	0.038767274
170	0xbcb0f88b	-0.02160289
171	0x3cecf016	0.028923076
172	0x3c289ccf	0.010291292
173	0xbb844713	-0.004036793
174	0x3c15cca2	0.009143027
175	0x3b283159	0.002566418
176	0x3da60975	0.081072725
177	0x3c3e27b4	0.011606146
178	0xbc36d08a	-0.011158118
179	0xbcea8db8	-0.02863203
180	0x3ca3e220	0.020005286
181	0x3d9a7c6b	0.07543262
182	0xbce6d95d	-0.028179819
183	0xbd41164a	-0.047140397
184	0x3db0c36c	0.08631024
185	0x3cdc79c1	0.026913526
186	0xbbf7def9	-0.007564422
187	0xbc3b2a11	-0.011423604
188	0xbc96ada2	-0.018393341
189	0x3c82bd42	0.015959386
190	0x3d3d5bbe	0.04623007
191	0x3d472939	0.048623297
192	0x3d092624	0.03348364
193	0xbe92d5c3	-0.28678712
194	0xba883a6f	-0.0010393391
195	0xbd7f2df1	-0.062299673
196	0xbd1ce8f2	-0.03830809
197	0xbe370314	-0.17872268
198	0xbde9efc1	-0.114226826
199	0x3c01e3d8	0.007927857
200	0x3dc926ac	0.09821829
201	0xbd1831a3	-0.037156712
202	0x3b20a8d6	0.0024514697
203	0x3caa085a	0.020755935
204	0x3c85a95e	0.016316112
205	0x3d5de7cd	0.05417614
206	0xbbf67f29	-0.007522483
207	0x3db2aadf	0.08723997
208	0xbab5be70	-0.0013865959
209	0x3d042d9d	0.032270063
210	0x3b6138c3	0.0034366108
211	0xbe681f09	-0.22668089
212	0xbc913495	-0.017725268
213	0xbdae84d9	-0.085214324
214	0x3d1521eb	0.0364093
215	0xbc9675a2	-0.018366639
216	0xbd40050a	-0.046879806
217	0xbc4062ab	-0.011742274
218	0x3d2ccdd8	0.042188495
219	0x3d0b2ce1	0.033978347
220	0x3d180428	0.03711334
221	0xbe14916f	-0.14508604
222	0x3cd254e1	0.025675239
223	0xbe5cb185	-0.21552093
224	0x3d1543e5	0.036441702
225	0xbbd91415	-0.0066247084
226	0xbd02f869	-0.031975184
227	0x3c86af73	0.016441083
228	0xbc9c06dc	-0.01904624
229	0xbcdb151d	-0.026743466
230	0x3c7f323e	0.0155759435
231	0xbc4183a1	-0.011811168
232	0x3d138f66	0.036025427
233	0x3d260df3	0.040540647
234	0xbb7b3d66	-0.0038336157
235	0xbc9a83ea	-0.01886173
236	0x3c6c717d	0.014431355
237	0xbcbfea4a	-0.023427147
238	0x3cec7b6a	0.028867442
239	0xbe26dda9	-0.16295494
240	0xbd24668c	-0.04013686
241	0x3c0be507	0.008538491
242	0x3c136fe4	0.008998845
243	0x3d91e3dc	0.07123539
244	0xbd5d1d83	-0.053983223
245	0x3cd01ab2	0.025403354
246	0x3be38acd	0.0069440366
247	0x3d5abcff	0.053402897
248	0x3d255dc4	0.040372625
249	0x3cf6adc5	0.030112157
250	0x3d156872	0.03647656
251	0x3c81ddc6	0.01585282
252	0xbe7be70b	-0.24599855
253	0x3d02f38d	0.03197055
254	0x3c083ce4	0.008315299
255	0xbc4d67e0	-0.012536973

a2c_network.value.weight f4 [1, 256]
0	0x3c6e4e17	0.014544985
1	0x3bdcbedd	0.00673662
2	0x3be5a646	0.0070083467
3	0xbc357dbd	-0.011077342
4	0xbd8e633a	-0.0695252
5	0xba22d31c	-0.00062112673
6	0xb94c53f0	-0.00019486225
7	0xbb6c3e30	-0.0036047809
8	0x3bc82987	0.006108466
9	0xbbd8c966	-0.0066158054
10	0xbcb42bfd	-0.021993631
11	0xbb58af35	-0.0033063416
12	0xbab62e98	-0.0013899384
13	0x3a9311df	0.0011220536
14	0xbb37f036	-0.002806676
15	0x3c403ef8	0.011733763
16	0x3dd304e7	0.103036694
17	0xbba8a64c	-0.0051467773
18	0xbc434bb7	-0.011919907
19	0xbb5e7f85	-0.003395052
20	0xbc0107ef	-0.007875427
21	0x3d8bf1a8	0.06833202
22	0x3d215cf9	0.039395306
23	0xbcf743b3	-0.030183649
24	0xbb95c117	-0.0045701372
25	0x3d0c40bc	0.034241423
26	0x3c3f7a79	0.011686915
27	0x3b8b754b	0.004255926
28	0x3c4c0468	0.012452222
29	0x3be78449	0.00706533
30	0x3c81e00a	0.0158539
31	0xbd24ed8c	-0.040265605
32	0x3c963f76	0.018340807
33	0xbb8aaa46	-0.004231724
34	0xbc14c761	-0.009080739
35	0xbd0a3d2c	-0.033749744
36	0xbc6e4b0d	-0.014544261
37	0x3c08ff58	0.00836166
38	0xbbc3cded	-0.005975476
39	0xbc1f97fd	-0.009740827
40	0xbcd1c5b5	-0.02560697
41	0x3ba8e4b9	0.005154219
42	0x3c82c9e0	0.015965402
43	0xbbb23ff4	-0.0054397527
44	0x3c023643	0.007947507
45	0x3a69c652	0.00089177967
46	0xbc7fa248	-0.015602656
47	0x3d5dd386	0.054156803
48	0x3ae96e70	0.0017809402
49	0x3c8f2d67	0.017477704
50	0x3d91f1c4	0.07126191
51	0x3caa2348	0.020768777
52	0xbc75fc50	-0.015013769
53	0x3a00313d	0.00048901496
54	0x3b51e895	0.0032029499
55	0xbc3c83bc	-0.011506017
56	0xbb60c0f9	-0.0034294708
57	0xbb55def9	-0.0032634123
58	0x3c2e33dc	0.010632481
59	0xbcdba3e6	-0.026811551
60	0xb9297a4d	-0.00016162657
61	0xbd5f09a0	-0.05445254
62	0xbe357288	-0.17719471
63	0x3c07656b	0.008263926
64	0xb8ce408a	-9.834867e-05
65	0x3bfac35b	0.0076526827
66	0xbbc25126	-0.005930084
67	0x3bc52499	0.0060163257
68	0x3b9551bd	0.004556863
69	0x3cb23713	0.021754777
70	0x3d9a68c8	0.07539517
71	0xbc4f5bc0	-0.012656152
72	0xbc448079	-0.011993521
73	0x3ca40538	0.02002202
74	0xbc923f2d	-0.01785239
75	0xbc3846a2	-0.011247309
76	0x3da42aa1	0.08015943
77	0x3c496f10	0.012294546
78	0x3b58d2eb	0.0033084701
79	0x3c7c0f5f	0.015384524
80	0xbd0b5553	-0.03401692
81	0x3ad47103	0.0016207997
82	0xbadefa4b	-0.0017011849
83	0x3b251143	0.002518729
84	0x3be2cd7d	0.006921469
85	0x3a130002	0.0005607606
86	0x3a4f799e	0.0007914546
87	0x3c8d26f1	0.017230483
88	0xbd56819d	-0.052369703
89	0xbc2d589c	-0.010580208
90	0xbd0b7042	-0.034042604
91	0x3be6d52a	0.007044454
92	0x3b074a82	0.0020643775
93	0x3b00c7c6	0.0019650324
94	0xbb276ba8	-0.0025546346
95	0xbe3f237a	-0.18665877
96	0xbc03ea18	-0.008051418
97	0x3c65d262	0.01402721
98	0x3b1e44b2	0.0024149832
99	0xbc0ebee2	-0.008712502
100	0x3d1739e9	0.03692046
101	0x3c23ef9c	0.010005858
102	0x3b118057	0.002220174
103	0xbb07eebf	-0.002074167
104	0xbbe2b6af	-0.0069187502
105	0xbbaef53c	-0.005339293
106	0x3ab0ecf3	0.0013498351
107	0x3c056cb6	0.0081435945
108	0x3a2c4206	0.00065711176
109	0xbcb2c215	-0.021821061
110	0x3be25361	0.006906912
111	0xbbc0cbc8	-0.0058836676
112	0x3e074c9c	0.13212818
113	0x3ca1eee0	0.019767225
114	0x3c5aae42	0.01334721
115	0x3dd49e45	0.1038175
116	0xbb8d572d	-0.0043133707
117	0xbb173848	-0.0023074318
118	0x3ce9cde9	0.028540568
119	0xba17ad29	-0.0005785996
120	0xbb8fedcf	-0.0043923627
121	0xbca87f00	-0.02056837
122	0xbbda50cf	-0.006662465
123	0xbca1bb3e	-0.019742604
124	0x3c090c57	0.008364758
125	0x3d9390ce	0.07205354
126	0xbe67948d	-0.22615261
127	0x3bdd9c4f	0.006763018
128	0xb8f6e7b2	-0.00011773351
129	0x3c17b63a	0.009259755
130	0x3a4a4ba5	0.00077169604
131	0x3d3aad18	0.04557523
132	0xbc6f49a1	-0.014604957
133	0x3d9abdfa	0.075557664
134	0x3b480d92	0.0030525667
135	0x3eb8fa32	0.36128384
136	0xbdcb40b8	-0.099244535
137	0x3dc2e3d6	0.095161125
138	0xbcb25ae9	-0.021771865
139	0x3c82d105	0.015968809
140	0x3c16fdbf	0.009215771
141	0xbc06fdfb	-0.008239265
142	0xbe28086d	-0.16409464
143	0x3d2d3483	0.042286407
144	0xbd962a87	-0.0733233
145	0xbb74510d	-0.0037279755
146	0x3e70f954	0.23532611
147	0x3b46ae57	0.0030316317
148	0xbc777203	-0.015102866
149	0x3cbad0e8	0.022804692
150	0x3e0e634f	0.1390507
151	0x3b9750a1	0.004617766
152	0x3b910e55	0.0044267573
153	0xbdcba0c7	-0.09942775
154	0xbb3920ee	-0.0028248387
155	0x3ba63818	0.005072605
156	0xbc3a60d7	-0.0113756275
157	0xbe034524	-0.12819344
158	0xbdc27101	-0.0949421
159	0xbc7ed708	-0.015554197
160	0xba7180b4	-0.00092125987
161	0x3bef9429	0.0073113632
162	0x3d064835	0.032783706
163	0x3c89e2b2	0.01683173
164	0xbbb87d64	-0.005630182
165	0xbca741b8	-0.02041708
166	0xbb80a1c5	-0.0039255344
167	0x3ae11450	0.0017172191
168	0x3bace92c	0.0052768197
169	0xbe02a6e9	-0.12758984
170	0xbaf5565b	-0.0018717753
171	0xba6935c2	-0.0008896255
172	0xba9e4b23	-0.0012076836
173	0xbaa5c48c	-0.0012647077
174	0x3cc21007	0.023689283
175	0xbb9c559a	-0.0047709467
176	0xbc5f1948	-0.013616867
177	0xbc7e4b01	-0.015520812
178	0x3b9c39a6	0.0047676144
179	0xb9b7f1de	-0.00035084685
180	0xbb6f7126	-0.0036535948
181	0x3ca75416	0.020425837
182	0x3b0daea7	0.0021618993
183	0xbc9f33e2	-0.01943392
184	0xba4ac248	-0.00077346386
185	0xbda14801	-0.07875062
186	0xbc282e2d	-0.010264915
187	0xbd574f78	-0.05256602
188	0x3c91422c	0.017731749
189	0x3c925ec3	0.017867452
190	0xbc0bd32f	-0.008534237
191	0x3bee0217	0.0072634327
192	0x3bc5f18c	0.0060407575
193	0xbd3a3c1d	-0.045467485
194	0xbbec5c66	-0.007213163
195	0xbb9a57c0	-0.0047101676
196	0xbdee3fc9	-0.1163326
197	0xbe2299cd	-0.15878983
198	0x3bec23df	0.0072064246
199	0x3b3e77b7	0.0029063055
200	0xbde92620	-0.11384225
201	0x3c8b51c9	0.017006772
202	0xbc1006ed	-0.008790714
203	0x3cc51e9b	0.024062445
204	0x3cad9312	0.021188293
205	0x3cdb19c2	0.02674568
206	0x3c28ed21	0.010310442
207	0xbddc4998	-0.107562244
208	0xbc10b8c6	-0.008833116
209	0xbc151298	-0.009098671
210	0xbc2ddf10	-0.010612264
211	0xbd938391	-0.07202829
212	0xbbf61e0f	-0.0075109075
213	0x3ce0f870	0.027462214
214	0x3dbdddcc	0.0927082
215	0xbbe166de	-0.006878718
216	0x3b2e3f80	0.0026588142
217	0xbb9cefc1	-0.004789323
218	0xbe391478	-0.18074214
219	0x3ba60f41	0.0050677364
220	0x3d7c00e1	0.061524276
221	0x3d4e3673	0.050344896
222	0x3bfcd901	0.0077162986
223	0xbbf8a773	-0.007588321
224	0x3b991542	0.0046717236
225	0x39b40577	0.00034336347
226	0x3c842d54	0.016134895
227	0x3bcf1b68	0.0063204058
228	0xbbfe4f14	-0.0077608917
229	0xbb214aed	-0.002461131
230	0x3b2033df	0.002444498
231	0x3dd4a2d0	0.103826165
232	0x3c37ead6	0.011225423
233	0x3bf92246	0.0076029627
234	0x3b51ed52	0.0032032323
235	0x3c1dca8d	0.009630811
236	0x3c179261	0.009251208
237	0xbc8073dc	-0.015680246
238	0xba0fa0ab	-0.00054789585
239	0x3c7b1243	0.015324178
240	0x3cb61edc	0.022231512
241	0x3b8c6a3b	0.0042851246
242	0xbc559027	-0.013034857
243	0x3c392b23	0.0113017885
244	0xbe3c17a5	-0.18368395
245	0x3b942277	0.00452071
246	0x3d63a064	0.055572882
247	0x3c5d05b9	0.013490134
248	0xbe95c5ef	-0.29252574
249	0xbbc13d14	-0.0058971737
250	0xbc0859a7	-0.008322156
251	0x3cb0777f	0.021541355
252	0xbdb1beb9	-0.086789556
253	0x3c51e2a6	0.012810385
254	0x3da56b92	0.08077158
255	0x3c0469d9	0.008081877

a2c_network.mu.weight f4 [6, 256]
0	0x3e2716cd	0.16317292
1	0x3a993049	0.0011687364
2	0xba3ca691	-0.0007196451
3	0x3a257433	0.00063115655
4	0x3b249ee5	0.0025119123
5	0xbb532693	-0.0032219037
6	0x3b15c7f0	0.0022854768
7	0x39679582	0.00022085573
8	0x3ab6cd68	0.0013946714
9	0x3a048a97	0.0005056052
10	0xbd03826d	-0.032106806
11	0x3ab904f5	0.0014115857
12	0x3a546837	0.00081026874
13	0x3b63bb16	0.0034748963
14	0xba875499	-0.0010324895
15	0xbb7fd1ea	-0.003903503
16	0xbcc5a289	-0.024125354
17	0x39eae7aa	0.0004480456
18	0x3df225f4	0.11823645
19	0xbdc47193	-0.09591975
20	0xbb2cf6f1	-0.0026392306
21	0x3d13f866	0.036125563
22	0x3b3d3120	0.0028868392
23	0xbe9ecc6c	-0.31015337
24	0xbb44adaa	-0.0030010738
25	0xbba27bed	-0.0049586208
26	0xba4a5621	-0.00077185227
27	0x3acac089	0.0015468757
28	0xb9d41165	-0.0004044875
29	0xb9d5a9f3	-0.00040753148
30	0x3da83df0	0.08214939
31	0x3e108fea	0.14117399
32	0x3b32acd8	0.0027263667
33	0xbd00f5f7	-0.03148457
34	0x3b1d77fa	0.002402781
35	0xbd16b801	-0.036796574
36	0xbb5988bd	-0.0033193075
37	0xbb05a9bf	-0.0020395366
38	0x3b453cb2	0.0030095992
39	0x3b244a3e	0.0025068666
40	0x3a1625fa	0.0005727705
41	0xb9ec6749	-0.0004509038
42	0xbab46c01	-0.0013765098
43	0x38a5232e	7.874366e-05
44	0x3b0e160b	0.002168062
45	0x3829b1e7	4.0458424e-05
46	0xb9500a7f	-0.00019840336
47	0xbc3160e6	-0.010826325
48	0xb8a9457f	-8.0714926e-05
49	0x39ad96e5	0.00033109557
50	0x3dd2a068	0.10284501
51	0xbb8991a7	-0.0041982713
52	0x3ad7f240	0.0016475394
53	0x3a34d69f	0.0006898436
54	0x39f52e14	0.00046764372
55	0xbb3b6496	-0.002859389
56	0xb85a9d73	-5.2121886e-05
57	0xba90bca2	-0.0011042545
58	0xbbb53fd1	-0.005531289
59	0x3cd83bc4	0.026395686
60	0xbaa1f880	-0.0012357384
61	0x3e107eec	0.14110917
62	0x3c19255d	0.009347287
63	0x3d747082	0.05967761
64	0xbab1c5b8	-0.0013562953
65	0xb9814602	-0.00024656957
66	0xbc0bb9e0	-0.008528203
67	0xbb821e33	-0.003970885
68	0x3b28d898	0.0025763866
69	0xb9ee47dc	-0.00045448437
70	0x3c2bcee5	0.010486339
71	0xbbbc8131	-0.0057527055
72	0x3a9ff68b	0.0012204213
73	0x3b89f66e	0.004210285
74	0xbb666f20	-0.003516145
75	0xba38092c	-0.00070204097
76	0x3ddd1ea5	0.107968606
77	0xbb9b5154	-0.0047399197
78	0xba14f01c	-0.0005681531
79	0x3b1a7a1d	0.002357132
80	0x3db5a31f	0.088690035
81	0x3b50cd50	0.0031860657
82	0x3b2d09aa	0.0026403465
83	0x3b9d37e5	0.004797923
84	0x3a284a49	0.0006419761
85	0x3b0e7f2b	0.0021743278
86	0xba4f1310	-0.0007899264
87	0x3e0915a7	0.13387166
88	0xbdb4ac90	-0.08821976
89	0x3b1eac9a	0.0024211765
90	0x3cb01af9	0.021497237
91	0xbaeb1846	-0.0017936311
92	0x3b0d871c	0.0021595424
93	0x3a94ae31	0.0011343417
94	0xbba87e77	-0.005142029
95	0xbdbcd198	-0.09219664
96	0x39ec2de6	0.00045047625
97	0x3b8c92cd	0.004289961
98	0x3af5a670	0.0018741619
99	0x39c628be	0.00037795858
100	0xbe587629	-0.21138825
101	0x3b375d07	0.0027979033
102	0x35bb2d29	1.3945729e-06
103	0x3ab7b71d	0.0014016364
104	0xbab844f3	-0.0014058634
105	0x3b2f5682	0.0026754444
106	0x39f8aff3	0.00047433338
107	0x385674ca	5.1130344e-05
108	0x3b01277b	0.001970737
109	0xbe07ce70	-0.13262343
110	0x3a9fdff4	0.001219748
111	0xb8e9519d	-0.000111255074
112	0x3d8fe9e0	0.0702703
113	0x3cde2ccd	0.027120972
114	0xbc57c2c4	-0.013168994
115	0xbdcf497a	-0.101214364
116	0xb99c6ea7	-0.0002983708
117	0x39ce0c62	0.00039300608
118	0xba15ad3a	-0.00057097117
119	0x3a469d48	0.00075765373
120	0xb9d3a6e0	-0.00040369388
121	0x3a6a3aa1	0.0008935128
122	0xbabc5b52	-0.0014370477
123	0xbb6767c4	-0.0035309652
124	0xba0d2445	-0.0005384128
125	0xbc440ce5	-0.011965965
126	0x3ca097ca	0.019603629
127	0xbb0c0a68	-0.0021368507
128	0x3a2115e8	0.0006144927
129	0xbcc4d4aa	-0.024027187
130	0xbaaa9c50	-0.0013016555
131	0xbd47776f	-0.048697885
132	0xbb1a8e53	-0.0023583367
133	0xbcd7e7d1	-0.026355656
134	0x3b1f5298	0.0024310704
135	0x3cd8f519	0.02648406
136	0xbca6aa77	-0.020344956
137	0xbe14a959	-0.14517726
138	0xbd1fecf7	-0.039044347
139	0xba208559	-0.0006123386
140	0xbabf8b8e	-0.0014613734
141	0xbaa86083	-0.0012846146
142	0xbc6f9d15	-0.014624854
143	0xb903360d	-0.00012513269
144	0xbb74ccb5	-0.003735346
145	0xb9ad1409	-0.0003301206
146	0xbbbd4fb7	-0.005777325
147	0x3a9d89e8	0.0012019249
148	0xbadc04e8	-0.001678613
149	0xba94243f	-0.0011302306
150	0x3c317c10	0.010832801
151	0xb905d22f	-0.00012762168
152	0x3a8d38c3	0.0010774363
153	0xbc0193c6	-0.007908767
154	0x3b250660	0.0025180802
155	0x39f2f889	0.0004634301
156	0x3c0a5c0c	0.008444797
157	0xbcbf4074	-0.023346163
158	0x3dfbcf44	0.12295392
159	0xbb812e87	-0.003942314
160	0x388c39d6	6.686493e-05
161	0xbb08b36f	-0.0020858904
162	0x3ba10009	0.0049133343
163	0x3d5bf6c4	0.05370213
164	0xbb128c24	-0.0022361362
165	0xbb5f141f	-0.0034039093
166	0x3ae9cff8	0.0017838469
167	0x3aa912de	0.00128993
168	0xb90ac724	-0.00013234891
169	0x3c82e281	0.015977146
170	0xbb08d60e	-0.002087954
171	0xbac74bc7	-0.0015205079
172	0xbb12ace3	-0.002238088
173	0xba32c29c	-0.000681916
174	0x3b52a73e	0.003214314
175	0x3ab31e93	0.0013665728
176	0x3a0a037b	0.0005264801
177	0x3ab02604	0.0013439064
178	0x3b401932	0.0029311893
179	0x3b5d72dc	0.0033790385
180	0x38c33239	9.307679e-05
181	0x3aebc175	0.0017986732
182	0x3aaa8828	0.0013010548
183	0xbb37f917	-0.0028072053
184	0x3aaa9997	0.0013015744
185	0x3e576301	0.2103386
186	0xbd1f9d5b	-0.038968425
187	0x3baa0c1d	0.0051894323
188	0xbaee6933	-0.0018189311
189	0x3a90c5af	0.0011045242
190	0xba766fd0	-0.00094008166
191	0xb951b970	-0.00020000874
192	0xba5a5337	-0.000832844
193	0x3d3d1120	0.04615891
194	0x3b022f4c	0.0019864617
195	0xbd30e1dc	-0.043184146
196	0xbda7ece7	-0.081994824
197	0xbbeb74eb	-0.0071855686
198	0xbdc941ca	-0.098270014
199	0xbbaed312	-0.00533522
200	0x3d9f3952	0.07774605
201	0x3ae08b94	0.0017131441
202	0xbb79c0bb	-0.003810926
203	0x3b49c39a	0.0030786754
204	0xbb5a79a2	-0.003333666
205	0x3a1dae65	0.00060150615
206	0xbb89bf0b	-0.0042036823
207	0x3d3d6087	0.046234634
208	0xb90924db	-0.00013079068
209	0xba69cc1e	-0.00089186605
210	0xbab2a540	-0.0013629571
211	0xbc964419	-0.018343018
212	0x3b79cb9a	0.003811574
213	0xbd37b104	-0.04484655
214	0x3c187774	0.009305824
215	0xb93e1861	-0.00018128894
216	0x39e57b6e	0.00043770246
217	0x3b3f2c06	0.0029170527
218	0xbad0d70b	-0.0015933228
219	0xbb7ab0de	-0.0038252394
220	0xbc6dbd20	-0.014510423
221	0x3ca4f72e	0.020137396
222	0xb8ca7ff3	-9.655943e-05
223	0x3e26caef	0.1628835
224	0xba268acb	-0.0006353079
225	0xba9cf671	-0.0011975301
226	0xbb2e214f	-0.0026570146
227	0x3b2f22d6	0.0026723645
228	0x3b8d7773	0.004317218
229	0x3ad10e6b	0.0015949731
230	0x3aedd2f9	0.001814454
231	0x3b87d89a	0.004145694
232	0x3a863b21	0.001024101
233	0xbd7ba34e	-0.061435036
234	0x3893c454	7.046075e-05
235	0xba835de2	-0.0010022486
236	0x3aa4fd35	0.0012587669
237	0x3b232b4b	0.002489763
238	0xbb93586b	-0.004496624
239	0x3dd75e6f	0.10516059
240	0xbbd047ce	-0.006356216
241	0x3aef1179	0.001823946
242	0x3b3047a6	0.0026898175
243	0xba77dffc	-0.00094556785
244	0xbcc73cd1	-0.024320992
245	0xba483926	-0.00076379103
246	0x3bd0bcfd	0.0063701854
247	0x3b60259d	0.0034202107
248	0xbd446fbc	-0.04795812
249	0x39f5bd09	0.00046870884
250	0x3b8c34a5	0.0042787367
251	0x3b905672	0.0044048363
252	0xbbeac6cc	-0.0071648117
253	0xb9990771	-0.00029187978
254	0xbdce5aa0	-0.10075879
255	0xbae13009	-0.0017180453

a2c_network.mu.bias f4 [6]
0	0xbe0b13a2	-0.13581708
1	0x3c4b564f	0.012410714
2	0xbe60b484	-0.21943861
3	0xbce4e7ca	-0.027942557
4	0xbd68f2a6	-0.056872033
5	0xbefe09fa	-0.49616987

exp_avg f4 [6]
0	0xb9641d83	-0.00021754768
1	0xba6aaf41	-0.00089525065
2	0xb9a2eaeb	-0.00031074075
3	0x38d57c5e	0.00010179797
4	0xb928223c	-0.00016034482
5	0xbab15547	-0.0013529443

exp_avg_sq f4 [6]
0	0x370be639	8.3386485e-06
1	0x37059e72	7.964309e-06
2	0x371143dc	8.658473e-06
3	0x371d49ee	9.375142e-06
4	0x371ccd7c	9.346168e-06
5	0x370cde96	8.396475e-06
