logs/rl_games/yam_cube_sort_8192/2026-02-01_05-04-52/nn/last_yam_cube_sort_8192_ep_200_rew_381.6181.pth (torch, 953168 bytes, 30 tensors)

value_mean_std.running_mean f8 [1]
00000000: a348 72fb b7f5 633f
0.0024365037348355752

value_mean_std.running_var f8 [1]
00000000: 6e37 6eae 49e3 a93f
0.05056219343451472

value_mean_std.count f8 []
00000000: 0000 0004 0000 9941
104857601.0

running_mean_std.running_mean f8 [40]
00000000: 760d 98eb d5c4 ef3f 38d6 fd85 c246 7d3f
00000010: ab79 c7d0 a390 133f 19f4 4015 0595 7d3f
00000020: ab79 c7d0 a390 133f 0000 0000 0000 0000
00000030: 62b1 64e5 553d 96bf b2f3 e65e 46b2 7c3f
00000040: 05e3 14a0 ba66 c13f aa68 b906 9986 a3bf
00000050: 42fe 0f4f 4531 753f af6b 1951 0f72 be3f
00000060: 65b9 1ba9 5c07 bb3f 8329 233e 1e42 d33f
00000070: 1008 c0d0 e6e5 6d3f 742b 7352 1868 e83f
00000080: 075d 6949 bd46 d33f 583f 6d24 1af2 743f
00000090: b773 d46a 1668 e83f c32d a20b 3145 d33f
000000a0: 349b 76e5 5a80 743f 9d7e 2b4c 1468 e83f
000000b0: 76ed f916 fa88 1f3f 35b3 a6f1 0f77 313f
000000c0: 9fd8 dc07 db95 29bf d74a 5e18 56c3 203f
000000d0: 0123 7fba b232 313f e434 3dcc bae1 29bf
000000e0: b045 8a1d e6fb 213f 0397 b226 680d 323f
000000f0: 9252 02eb bdbe 27bf 7647 94ae a070 dd3f
00000100: 0000 0000 0000 0000 a0b4 3778 eb51 e83f
00000110: 2420 fd76 fb28 cc3f 9f0b 53b2 7bbc c13f
00000120: a0b4 3778 eb51 e83f 2420 fd76 fb28 cc3f
00000130: 9f0b 53b2 7bbc c1bf a0b4 3778 eb51 e83f
0.9927777863926355 0.007147559983300016 7.463455057841208e-05 0.007222194533878423 7.463455057841208e-05 0.0 -0.021718351484353866 0.007005953679649334
0.13594754044040527 -0.03813627440531893 0.005173941362044911 0.1189279149051987 0.10558108452435062 0.30091053073979185 0.003649664698969886 0.7627069101666692
0.3011925904188079 0.0051136990721970185 0.7627060019036581 0.3010981191261772 0.005005221427757434 0.7627049911206601 0.00012029673029616779 0.0002664960790308869
-0.00019520090784802977 0.00012789178816471097 0.00026242125977353486 -0.0001974621319455256 0.0001372068789078757 0.0002754573130892975 -0.00018116062483799052 0.4599992470622206
0.0 0.759999975967407 0.22000068006514184 0.13856455046888258 0.759999975967407 0.22000068006514184 -0.13856455046888258 0.759999975967407

running_mean_std.running_var f8 [40]
00000000: 496d dbf2 975e 7d3f b714 a0bf 6f11 7d3f
00000010: 94b6 09f9 b291 133f bc78 4504 935e 7d3f
00000020: 94b6 09f9 b291 133f b15b 2041 e17a 543e
00000030: 4e47 2c4d 2546 8e3f d4ea f439 6391 743f
00000040: 95ce e2b1 53c9 673f 4860 4c7e 4f0a 903f
00000050: 2525 2b8c 30a7 763f 2bae 671e 1289 7a3f
00000060: 2770 696e 073c 9e3f 08cf ef4e 29ab 693f
00000070: 4337 3b56 2420 763f 1c40 28f7 168f aa3e
00000080: 4a6e 4264 139b 693f 6211 c822 0233 763f
00000090: 3b8d 04d6 632b a43e db3a 4e83 11b7 693f
000000a0: db72 b94b f73d 763f f402 e628 ee9a a53e
000000b0: dd7c b829 2cc5 3b3f 8892 8b54 1320 4e3f
000000c0: c94d f3fa 3e90 1b3f a57e feeb 3814 3b3f
000000d0: f641 0ba0 770d 4d3f e62f 5455 277d 193f
000000e0: 60c7 553b d26a 393f 447b b52f 5965 4c3f
000000f0: 7f5c ba0f 8988 173f f8c1 aa8b 4ed0 583e
00000100: b15b 2041 e17a 543e cfba b166 9527 603e
00000110: 16ed 268f cc78 553e d19f 6ac9 b1df 543e
00000120: cfba b166 9527 603e 16ed 268f cc78 553e
00000130: d207 c8c7 b1df 543e cfba b166 9527 603e
0.007170289563613715 0.007096706884117391 7.465033400829774e-05 0.007170271190572727 7.465033400829774e-05 1.907348596432707e-08 0.014782229821807793 0.0050214649229995585
0.0029036173501369535 0.015664331515921753 0.005530538214494817 0.006478377129024031 0.029525867570882405 0.0031333739093443204 0.0054017466934064865 7.915182165824821e-07
0.0031257036917631585 0.005419739096854977 6.010977067521495e-07 0.003139051632792584 0.005430189131939679 6.438850322227597e-07 0.00042373970220128764 0.0009193510423669152
0.00010514625931828179 0.00041319265073445417 0.0008866151912006448 9.723236629016716e-05 0.00038783676730879367 0.0008665738563812049 8.977257305741065e-05 2.310955758239154e-08
1.907348596432707e-08 3.009033097070643e-08 1.9997238484673338e-08 1.9440247268437466e-08 3.009033097070643e-08 1.9997238484673338e-08 1.944024717766942e-08 3.009033097070643e-08

running_mean_std.count f8 []
00000000: 0000 0008 0000 8941
52428801.0

a2c_network.sigma f4 [6]
00000000: 0da8 a5bf f18a 9abf 26d9 b6bf a533 c6bf
00000010: 4a2d d6bf 5ecf 443d
-1.294191 -1.2073652 -1.4285018 -1.5484511 -1.6732571 0.048049323

a2c_network.actor_mlp.0.weight f4 [256, 40]
00000000: b4c9 a93d 0a94 f1bc a719 aabe a10b ba3d
00000010: c05f 9dbe 6290 8dbd 89ba f53d be8e 2c3c
00000020: a458 383e c174 18be 770c 2cbe c241 74be
00000030: 6977 473d a9f9 4d3d 314c 5ebd b0e0 f13e
00000040: 33cc dbbc bf9d 633c aa7a 483f 062b 0abd
00000050: 6cd6 15bd 5904 39bf 8264 a23d 6642 c2bd
00000060: d0e3 4a3e 7440 143e 63a6 4abd e1a4 43bd
00000070: 3472 073e fc8f f7bd ba93 5ebc 6b99 bc3d
00000080: f3cb 1b3e bdb8 0abe fe1b e63b 0692 913d
00000090: 4f08 e4bd fb5c 693e d3db 03be 746e 013e
000000a0: 0662 ccbd a942 78bd 6fa3 d03d 6cbf 14bd
000000b0: 225c e93d 1faf 19bd 8a68 e13e ffc3 1bbf
000000c0: e7d9 8bbe 7416 75bd 7518 36be 4dc2 e63d
000000d0: 04bc cebb 2baf 32bc aea6 d5bc 6728 9e3e
000000e0: ed50 f23d 90d4 c53d 2339 533e cc35 0c3d
000000f0: c6ea 5e3d 5e82 623e d2e8 693e 9a0b 80be
00000100: e8e7 243d b47a 8e3c a514 7ebe 016e 36be
00000110: b893 c73d c467 3bbe a7c5 9d3e 2892 8fbd
00000120: 2993 473d 6ccc 06be 646e acbe c775 823f
00000130: 651d 263d ff7e bebe 5012 91bf fd6f a1bd
00000140: 6f29 653d de3f 97bd 438d 83be e7f7 1dbe
00000150: 2f82 b5be 62ea bcbd 25b0 b8bd 136f 31be
00000160: 1820 ed3d 6d9e 0bbd ff67 163e f802 363d
00000170: 0cea efbd 4f9b 3e3d 55fc 693d e4f4 9e3d
00000180: 003e b8bd 1510 82bd 9615 0fbe 421f 96bc
00000190: 2960 5e3d 3bf8 62be 673f 2fbd ec52 c63c
000001a0: 3c57 473e 5afd f4bd 533c b93d 49f5 a73e
000001b0: c149 9dbc 1c55 263d ccdb e53d 606f 353e
000001c0: 1af1 8dbc 7667 d0bd ffa4 e13d a45b f73d
000001d0: cd08 cf3d f1fa b13c 09fa 3dbe c219 8dbd
000001e0: 58df c03d 74b7 003e d093 b33d f163 cabd
000001f0: c4ed 083e 2851 c2bc a87c eebd 3f1c f4bd
00000200: b479 f73d 479c 833c 9b97 e53b 48c1 bbbd
00000210: d7d7 943d d517 c3bd ae35 68bd 2aa9 a4bd
00000220: 0c89 b1bb ff1e 113c 1230 9f3d c2cf 64bd
00000230: e384 a33d 9ec5 0dbe 20f4 653e 871e 723d
00000240: c13c 423e 69d2 f73e 25e9 34be 953c 7b3d
00000250: cfd2 9abc 733d 0cbe ab4c ca3d e0f5 f6bc
00000260: 78fc ce3d 60e9 ff3d 88a2 b0be ea33 92be
00000270: 8d35 0dbc 4874 adbe 8c8c 923e 70bc 083d
00000280: 2ba6 c0bd 2381 8cbd 2358 cabe a1b0 9b3c
00000290: d545 09bf 353b c3bd 6539 07be 0678 05bd
000002a0: f77b b1bd 0dd7 c23d 0d5e a93d be91 433e
000002b0: 81b8 9fbd aa44 87bd 3cba d43c d17b c0bd
000002c0: 5ffd 5cbb e589 203d 7bea 8fbe 638d 4dbc
000002d0: 2863 713d 689b 66bc 2892 68be 7b0b c5bd
000002e0: 28fa 0fbd df1c 23be 8012 e73d 2a97 343e
000002f0: 42eb d6bd 48e1 04be ad41 893d ea25 e43e
00000300: 6e77 9b3d d2b2 083e 04ab b7bd 02c0 b73e
00000310: b527 91ba 73e4 95be 0734 e9be 47fd 16be
00000320: f0d7 6d3d 7dac e3bd 2548 833e a5fa 9dbd
00000330: 7dd2 843e f3e9 e3bd c5b5 03be 3492 b63d
00000340: d464 3ebc f3e4 033e c86c 43bd b768 efbd
00000350: 242c 3bbd 8895 c5ba 2833 9f3b b61c 0dbe
00000360: 2f69 7a3b 4676 f23a 8100 c4bd 2f2c ccbb
00000370: 0249 8cba 4865 a3be 0746 b63d b880 8cbd
00000380: 2270 bbbb d960 dbbd 1080 47be 6093 a6bd
00000390: 58cc 233d a39f 93be ef2d e83d 68e1 f0bd
000003a0: 9506 c93d 4868 073e dc76 fa3d 74eb e6be
000003b0: f888 edbd 9b43 083c f154 fe3e c4e2 12be
000003c0: 5e24 00bd 1a12 7ebc 0566 a9be 2e78 acbd
000003d0: df68 c3be e998 4dbd 08ae 5dbe 944a 243e
000003e0: 83fc 0d3e e5bd 4c3d 849d f7bc 9ca7 54bd
000003f0: c374 9fbe ab54 d2bd cb8b aa3d 7996 123f
0.08290425 -0.029489536 -0.33222696 0.09084249 -0.30737114 -0.069123045 0.119984694 0.010532079
0.18002564 -0.14888288 -0.1680163 -0.2385321 0.048697863 0.050286923 -0.05427188 0.47241735
-0.026830768 0.01389259 0.7831217 -0.033732437 -0.03658144 -0.7227226 0.079293266 -0.09485321
0.19813466 0.14477712 -0.049475085 -0.047764663 0.13227159 -0.1208801 -0.013585025 0.0920895
0.15214519 -0.13547035 0.00702238 0.0710793 -0.11134397 0.22789375 -0.12876825 0.12639791
-0.09979634 -0.060610447 0.101874225 -0.036315367 0.11394526 -0.037520524 0.4402507 -0.6084594
-0.27314684 -0.059835866 -0.17782767 0.11267529 -0.0063090343 -0.010906021 -0.026080456 0.308902
0.118318416 0.09659684 0.20627265 0.034230992 0.054423116 0.22120044 0.2284272 -0.2500885
0.040260226 0.017392494 -0.24812563 -0.178154 0.09744972 -0.18301302 0.3081486 -0.07010299
0.048724327 -0.13163918 -0.3367797 1.0192193 0.040555377 -0.37206265 -1.1333714 -0.07882688
0.055947717 -0.073852286 -0.25693712 -0.15426598 -0.35450885 -0.092243925 -0.09017972 -0.17327528
0.11578387 -0.034086633 0.14688109 0.044436425 -0.11714563 0.046534833 0.05712541 0.07761553
-0.089962006 -0.06350724 -0.13973078 -0.018325452 0.054290924 -0.22165005 -0.042785075 0.024209462
0.19466871 -0.119623855 0.09044709 0.32804325 -0.019200208 0.04060851 0.112235636 0.17718267
-0.01732688 -0.101759836 0.11017799 0.12078026 0.101091005 0.021726103 -0.18552412 -0.068896785
0.094175994 0.12569982 0.08768427 -0.098823436 0.1337195 -0.023720339 -0.1164487 -0.1191945
0.1208376 0.01606573 0.007006598 -0.09167725 0.07267731 -0.0952603 -0.056691818 -0.08040078
-0.0054179486 0.008857488 0.077728406 -0.055862196 0.079843305 -0.13844916 0.22456408 0.059111144
0.18968488 0.48402718 -0.17667063 0.061337072 -0.01889935 -0.13695316 0.098779045 -0.03014654
0.10106748 0.124956846 -0.34499002 -0.28555232 -0.0086187245 -0.33877778 0.28622854 0.033382833
-0.09406694 -0.068605684 -0.39520368 0.019005122 -0.5362218 -0.09532777 -0.13205488 -0.032585166
-0.086662225 0.09513674 0.08269892 0.19098565 -0.07798863 -0.066048935 0.02596771 -0.09398616
-0.0033720357 0.039194006 -0.28108582 -0.012545916 0.058932453 -0.014075138 -0.22712004 -0.0962133
-0.035150677 -0.15928982 0.112828255 0.1763579 -0.104940906 -0.12976563 0.0670198 0.44560176
0.07591139 0.13349465 -0.089681655 0.35888678 -0.0011074456 -0.29275855 -0.45547506 -0.14745055
0.058067262 -0.11116884 0.2564098 -0.07713822 0.2594184 -0.11128607 -0.12862308 0.08914605
-0.011620719 0.12880306 -0.047711164 -0.11689895 -0.045696393 -0.0015074471 0.004858393 -0.13780484
0.0038209667 0.0018498383 -0.095704086 -0.006230853 -0.001070291 -0.3191321 0.089000754 -0.06860489
-0.0057201544 -0.107118316 -0.19482446 -0.08133578 0.0399898 -0.2883273 0.11336886 -0.11761743
0.098157085 0.13223374 0.12229702 -0.4510151 -0.1159839 0.0083169 0.4967418 -0.14344317
-0.031284682 -0.015507245 -0.33085647 -0.0842136 -0.38165948 -0.050194655 -0.21648419 0.16044074
0.13865857 0.049985785 -0.030226476 -0.051917657 -0.3114377 -0.102700554 0.08327445 0.57260853

a2c_network.actor_mlp.0.bias f4 [256]
00000000: 9885 1c3c 1804 ea3b ee4d 89bd b115 8ebd
00000010: 772f 9f3b 98a4 573d 890b 3c3d c1bf c23c
00000020: 8019 94bd c36b 3abd c3c4 a1bd 90ff c13d
00000030: 8f05 053e 8246 50be fc30 cb3d 1a3f 873e
00000040: 921b 9abd 3c88 c0bd 8842 d43c 0ffc 4e3e
00000050: 14c6 0b3e 4153 12bf ac2e 56bc db18 52bd
00000060: 5945 63be af56 983c f118 0ebd 62f1 81be
00000070: 821c 65bf 28c5 6a3e c11c acbd 81bc e8bd
00000080: db1f 23bf 43b3 19bd 7ce3 26bf 3ebd 29be
00000090: 001a d13d 449f c4be e4cb 9bbe 66de 29be
000000a0: 24cc 53bd ad55 b5bd cfc8 e3bc 2c9f 9b3e
000000b0: 7f97 6f3d de52 3f3e d9b4 aabd 8418 80be
000000c0: 6355 0d3e a7d3 12be 043c a0bc d91f 1c3d
000000d0: 90d8 4cbe 5531 663d 8d79 383e ff6f be3c
000000e0: 178f 923d 67fc 24bc 0661 9ebc 49c9 413d
000000f0: ae89 d0be 53d4 4439 f8b8 a73d df6a be3d
00000100: 8438 c13d 587a 763d f35c acbd 0d38 b3bd
00000110: 07d8 ddbe 44c9 133e 7b96 7bbe e7d8 36bd
00000120: ff73 653c 2e5b 713e 737c 5cbe b35a 83bd
00000130: 0c53 adbc d63b d53b 4209 513d 23c4 ea3a
00000140: 0afe 8b3d 5690 853d d943 773c 4ff4 613e
00000150: 468c 91be 16b7 c3bd 2ea1 fe3e 4a36 a3be
00000160: 0de8 163e 4739 1fbd 2abb 493e b3b2 72be
00000170: feee e43d adcd 29be 3290 d2bb 05fc a93c
00000180: 2762 a03d 20ba 87bd 37db 24bd 0a04 cebe
00000190: 3c49 2ebd d0b6 483d 9506 11be 5846 82bd
000001a0: 3461 25bf 2c33 2bbd 3fae cebd fd28 01bc
000001b0: 3986 1dbe 30d4 f3bd 196b aa3a 26d8 57bd
000001c0: 2612 dabd 8ec0 033e 1adf 05be dfc4 2a3d
000001d0: f86e c1bd 1874 eabd b2d7 663c 4279 62be
000001e0: 906d 933d f060 dd3c 582a 993e 2bbc a3bd
000001f0: 9602 3c3e e519 3b3e 69be b23d 7c4d 46bd
00000200: 122a b1bc 7fa3 78be b15f 8cbe 9441 89bd
00000210: 0af1 753d 6c6e 53bd 3e5b 13be f7dd 37bd
00000220: 659e cfbd 16a5 d63d edc7 ef3d 6452 ddbe
00000230: c793 92be 4aaf 3a3e b7ab c5be 7fc1 203e
00000240: fcce db3d 5399 b43d a2fd cabd 36ed 4abe
00000250: 3f07 a9bc 4be7 743d 02cc b2bc a09f d63c
00000260: f231 103e 0e6c 6b3d 11e5 c9be 692f 7cbe
00000270: dc5b 193e da5b 0f3e 7a70 25be c739 6d3d
00000280: ee2f f7bc 4772 043e f63c 7e3e cc23 8dbd
00000290: 65cf b4be 36df 143d 5cb0 833c b257 4ebd
000002a0: a85d d23d 32b6 bd3c ae17 493e 655d 2c3e
000002b0: 9ea7 753c 92d2 47bc 3fea 8a3d 62f6 a1bd
000002c0: 1e42 42be f438 6dbe a49e b0be 7a93 943d
000002d0: fc5b c93d 9be9 613d 6182 f83d 34d5 eabd
000002e0: 43f0 aabb 29f8 e23a b8b6 c03d 2081 96bd
000002f0: 5ec2 fd3d 6a61 a73d ead8 f2bc 330a 77bd
00000300: 0360 88bd 6dd4 e8bd be84 0bbe 389f a93d
00000310: c904 4fbe c3c7 813e b98f d4bc ebca ab3d
00000320: 4884 0a3d 2298 c7bd c31c 92be 41b9 fe3d
00000330: 728c 063d ccd8 7c3d 353c 3a3d 4624 0bbc
00000340: 1287 263e 4440 943d 3233 49bd cb99 8ebe
00000350: d17b 5cbd 60d7 05be 8641 fe3c e175 abbc
00000360: e183 0b3e 390a 2cbd 5664 773e 765c 213e
00000370: 365d 073e 88a4 263e 66ab 083e 5ca9 e5bd
00000380: 6a62 18bc 1c0b eebd 0085 56bb e330 dcba
00000390: 5632 83be 6a94 8bbd edf9 683e 001b 38be
000003a0: e38c 1abd 0c26 b33e a9fb 0dbe bdac a3bd
000003b0: c52c d73c 564d 4c3e 9828 093e d4cb 57be
000003c0: 15fd 263e 23f9 dabd b917 2fbf 392e 05bf
000003d0: 2eba 50bc 0629 da3b 88cb 88bd 6314 3e3d
000003e0: 16e8 cb3e c273 ea3d b2c1 31be ede8 443d
000003f0: bc2d b2bd f545 67bd 419c a73c fb47 d5bd
0.009553336 0.0071416013 -0.06704317 -0.06937731 0.004857953 0.052647203 0.04590944 0.023773076
-0.07231426 -0.045512926 -0.078988574 0.09472573 0.12990402 -0.20339397 0.099214524 0.2641533
-0.0752479 -0.09400985 0.02591063 0.2021334 0.1364978 -0.57158285 -0.013072651 -0.051293235
-0.22194423 0.018596021 -0.034691755 -0.25379473 -0.89496624 0.22926772 -0.08403922 -0.11364079
-0.6372048 -0.037524473 -0.65190864 -0.16576096 0.10210037 -0.3840276 -0.30428994 -0.16588745
-0.051708356 -0.08854232 -0.027805714 0.30394876 0.058494087 0.18683955 -0.08335275 -0.25018704
0.13802104 -0.14338551 -0.019559868 0.03811631 -0.20004487 0.05619939 0.18015118 0.023246763
0.071561985 -0.010069943 -0.019333374 0.0473111 -0.4073004 0.00018771114 0.08189577 0.09297728
0.094346076 0.06017527 -0.08416166 -0.08750925 -0.43328878 0.14432245 -0.24569122 -0.044640448
0.014004706 0.23569939 -0.21531849 -0.06413784 -0.021157764 0.006507377 0.05103422 0.0017911237
0.068355635 0.065216705 0.01509186 0.22065853 -0.28427333 -0.09556405 0.49732345 -0.31877357
0.14736958 -0.038872983 0.19700304 -0.23700981 0.11178397 -0.16582365 -0.006425881 0.020750055
0.07831221 -0.066272974 -0.040248122 -0.40237457 -0.04255031 0.04900247 -0.14162667 -0.06361073
-0.64601445 -0.04179685 -0.100918286 -0.0078833075 -0.15383233 -0.11905706 0.0013001888 -0.05269637
-0.10647993 0.12866423 -0.13073388 0.041691657 -0.09444994 -0.114479244 0.014089512 -0.22116569
0.07198632 0.027023762 0.29915118 -0.079948746 0.18360361 0.18271597 0.08727724 -0.04841374
-0.021626506 -0.24281119 -0.27416757 -0.06701961 0.060044326 -0.05161898 -0.14390275 -0.044889417
-0.10137633 0.104807064 0.11708055 -0.43226922 -0.2862837 0.1823093 -0.3860757 0.15698813
0.107328385 0.08818307 -0.09911658 -0.19817051 -0.020633338 0.05979089 -0.021825794 0.026199162
0.14081553 0.057476096 -0.39432576 -0.2462746 0.14976448 0.13999882 -0.16156188 0.05791643
-0.030174222 0.12934218 0.24827942 -0.06891593 -0.3531448 0.036345683 0.016075306 -0.0503766
0.1027177 0.023158167 0.1963794 0.16832502 0.014993576 -0.0121962 0.0678296 -0.07908322
-0.18970534 -0.23166257 -0.34496033 0.072546914 0.09831998 0.055154424 0.12134243 -0.114664465
-0.0052166297 0.0017316389 0.09409851 -0.073488474 0.12390588 0.08172877 -0.029644448 -0.06031246
-0.06658938 -0.11368642 -0.13624856 0.08282322 -0.20216669 0.2534772 -0.025947439 0.08388313
0.03381756 -0.09745814 -0.28537568 0.12437678 0.032848783 0.06173019 0.045467574 -0.008492535
0.16262463 0.0723882 -0.04912109 -0.2785171 -0.053829018 -0.1307044 0.031037103 -0.020930232
0.13624527 -0.042001937 0.24159369 0.15757927 0.13219151 0.16273701 0.13346633 -0.11213943
-0.0093008075 -0.11623213 -0.0032733083 -0.0016799237 -0.2562434 -0.06815417 0.22751589 -0.1797905
-0.037732016 0.34989965 -0.13865532 -0.079919316 0.026266465 0.19951376 0.13394392 -0.21073848
0.1630748 -0.1069205 -0.6839557 -0.52023655 -0.012739701 0.0066577224 -0.066794455 0.04640616
0.39825505 0.1144786 -0.17359045 0.048073698 -0.087001294 -0.0564632 0.02046025 -0.1041412

a2c_network.actor_mlp.2.weight f4 [256, 256]
00000000: 6a2d 933c 36b1 f0be bf07 02bd 78ee 833d
00000010: c960 9b3a 51dc f53c 0a44 29be 1bc5 11be
00000020: c10a 58be f4a4 823c 7b46 c3bd 3a07 99bd
00000030: a20d c9bd d62e 2c3d 5ca5 92be 3136 27bd
00000040: b5f3 b23d 6c39 2dbf 2e78 7ebe 887c 0dbe
00000050: f7ad eebd 7e3b bcbe 58dd af3c c3f3 c33d
00000060: 1819 babd 10cf 44be 1a6f b6bd bb95 cabd
00000070: 9e49 0cbe c58f 45be 813b bcbe 429c dcbd
00000080: 5ab3 dbbd cdba eebc f671 a7bd 730a 073e
00000090: dcb5 edbd faa0 8ebd 7884 9c3d 9bbf 27be
000000a0: 0210 5ebd f9e2 163d 8a0a bbbd 53c3 80be
000000b0: 82c9 2dbe fde6 babd 5821 613e 9b1a d1bd
000000c0: 1f75 2cbe 9a2b 2ebe 000c f83c a75a cebc
000000d0: d274 27be ca1a 50bd dc7d 90bd 94ff 18be
000000e0: efb2 98be 9089 e93c 61b4 0bbe 9f3e 36be
000000f0: f71e e73c 3cb2 1ebe f099 cbbc a69a 0bbe
00000100: f53b 26be 85f1 b53c 3520 54bc a6e1 3bbc
00000110: 1316 91be c3bb d0bd 9a50 ed3d 7e42 403d
00000120: 56cd d1bd 5652 203b e0c8 533d 5306 6c3d
00000130: d055 9abd 71a0 c9bd 2454 a9bd a125 3fbe
00000140: f716 1abe c699 29be 0edc ae3d 2f4b 2ebe
00000150: 6aeb 913e 4599 ddbd 3915 00bd 1e18 e2bd
00000160: bb22 3ebe f561 e83c 4dce 34be e4cf bfbe
00000170: 236a 10be f355 9b3d 4d5e 75bd 30be d7bd
00000180: b6e4 b2bd 8bba 6e3d ee31 1d3d 23b1 433d
00000190: b899 95bc 8a4c 1ebe 421f 013e 78be 9cbc
000001a0: c264 90be 53e7 91bd 1aec 3f3d 1e4b 49be
000001b0: 8973 be3b 6661 3abd fb20 463e 7590 44be
000001c0: 515f cabc bd8b 6abe 8019 febc 4746 32be
000001d0: da44 043d 59b1 123e be83 13bd cf14 55bc
000001e0: a601 5ebd 1d47 403d 5616 f0bd 47a5 18be
000001f0: 1c63 89bd 76a4 13be 9143 13be 1642 57be
00000200: 7d55 04be f6c0 f1bd d4fe 473b bcef 043d
00000210: 6ed5 ca3c 6817 5dbd 5303 7cbd 1a96 cdbd
00000220: 315d 2a3d 74c8 72bb 0b7d 83bd a695 9dbc
00000230: 0fc7 3c3e e27e 8fbe dd26 22be 7c22 07be
00000240: 2ecd 6cbe f741 67bd 5287 abbd ebcc 74be
00000250: cbfe 0ebe 6228 f23d 8484 1bbe 9f1c e3bc
00000260: 89b6 58bd 5807 0abe 49f1 7fbd 8e8e 093e
00000270: 7c16 38be 7b60 4d3c ab78 5f3d a48a 8e3d
00000280: 82ce 8bbe 6c3f 6fbe a0f3 11be 2fcb 8b3c
00000290: 0231 afbd 7142 6d3c 04e7 243d 2bd2 8cbe
000002a0: 1a54 5cbe 34a2 12be 6906 24be 2540 55be
000002b0: 8216 91bd 169b c6bd e84e cabc d82b 533d
000002c0: 0ef6 b83d b3fc dd3c c2e8 1fbe 902a 26be
000002d0: cc5c 37bd d309 30bc af7a 8bbd 46e0 b8bb
000002e0: 774f 153d 2175 78bd 3cc6 81be 283d b23d
000002f0: e09c 3ebe a6d3 13be 2c1c 96bd c9b5 b1bd
00000300: 8d3a a9bd 449b 90bc 794b bebd 3091 d6bd
00000310: 67a8 81bc 39e2 78be f7e7 b03d 635b 1ebe
00000320: 378a 57bd cecc d9bd abe0 ddbb 8598 14be
00000330: 852b 91bd eab5 cebd 4675 fc3d c99d 96bd
00000340: e60a 6c3d e006 0abe dd19 b9bd 9e84 dcbd
00000350: fcd3 c63c 3e39 b4be df09 ce3c d00b 693d
00000360: 27ba 0fbe 168a 9e3d 214c c0bd 0891 29be
00000370: 924f 78bd 27e5 5cbd b7d5 8fbe 7ff0 523d
00000380: 4c80 b1be 042c bebc 7e20 05be 1c90 eebd
00000390: cef2 afbd dad3 f0bb d59b 34be 522a af3d
000003a0: d3dc 6f3d 4f5d 63bd 1c8d 0abe ca17 14bd
000003b0: 15d4 19be b37b 7ebd 1e18 ccbd 7a13 463d
000003c0: 47d0 15be 9907 d63c e5ee 11be 577b 12be
000003d0: 1699 d9bc cd7a 23bd 66d2 86bd db2c 1fbd
000003e0: 9b14 72bd 5e8e 49be 5b4e 643d 095d ed3d
000003f0: 072c 9b3d 6b60 a73d 6f88 d6bd 7396 a7bc
0.017965991 -0.470102 -0.03174567 0.06441969 0.0011854406 0.030012282 -0.16529861 -0.14235346
-0.21097852 0.015947796 -0.095349275 -0.074720815 -0.098170534 0.042036854 -0.28641784 -0.040823165
0.0873789 -0.67665744 -0.24850532 -0.13817036 -0.11654275 -0.3676414 0.02146785 0.09567978
-0.090868175 -0.19219613 -0.0890791 -0.0989184 -0.13699958 -0.19293125 -0.36764148 -0.10771991
-0.10727568 -0.029141808 -0.08176033 0.1318758 -0.116069525 -0.069642976 0.07642454 -0.16381685
-0.054214485 0.03683755 -0.091328695 -0.2514902 -0.169714 -0.09126089 0.21985376 -0.10210153
-0.16841553 -0.1700882 0.03027916 -0.02518971 -0.16353157 -0.050806798 -0.07055256 -0.14941245
-0.29824015 0.028507978 -0.13643028 -0.17797326 0.028213007 -0.15497679 -0.024853677 -0.13633212
-0.1623381 0.022209892 -0.012947132 -0.011467373 -0.28337154 -0.10192063 0.11587639 0.046938412
-0.10244243 0.0024463139 0.05170524 0.05762322 -0.07535899 -0.09845055 -0.08268002 -0.18666698
-0.15047823 -0.16562566 0.08538066 -0.17020868 0.2849992 -0.108202495 -0.03127024 -0.11039756
-0.18567936 0.028367022 -0.17656823 -0.37463295 -0.14102988 0.07584753 -0.059904385 -0.10534322
-0.087350294 0.05828337 0.038377695 0.047776353 -0.018261775 -0.15458885 0.1260958 -0.019133791
-0.28201872 -0.071242 0.046856023 -0.19657561 0.0058121127 -0.045503043 0.19348519 -0.19195731
-0.024703654 -0.22904868 -0.031018019 -0.17409621 0.032292224 0.14325465 -0.03601431 -0.013005449
-0.05420079 0.04694282 -0.1172301 -0.14906798 -0.06708357 -0.14418206 -0.14381243 -0.21021304
-0.12923236 -0.118043825 0.003051688 0.03245519 0.024759974 -0.0539774 -0.061526608 -0.10038395
0.04159278 -0.003704575 -0.064203344 -0.019236397 0.1843531 -0.2802649 -0.15835138 -0.13196748
-0.23125145 -0.056459393 -0.0837542 -0.23906295 -0.13964383 0.11824109 -0.1518727 -0.027723609
-0.052908454 -0.13479364 -0.062485967 0.13433287 -0.17977327 0.01253521 0.054558437 0.06960037
-0.2730599 -0.23364037 -0.14253092 0.017064659 -0.085542694 0.014481173 0.040259376 -0.27504095
-0.21516457 -0.14319688 -0.1601807 -0.2082525 -0.07084371 -0.09697549 -0.024695829 0.051555485
0.09031306 0.027098035 -0.15616134 -0.16227174 -0.044766232 -0.01074453 -0.068105094 -0.00564197
0.036452737 -0.060658578 -0.25346553 0.08703071 -0.1861453 -0.14436206 -0.07329592 -0.08677251
-0.08263121 -0.017652161 -0.09291739 -0.10476911 -0.01582737 -0.24305047 0.08637994 -0.15464549
-0.052622046 -0.106347665 -0.0067711673 -0.14511307 -0.07088379 -0.10093291 0.12327056 -0.07354314
0.05762758 -0.13479185 -0.09038136 -0.10767482 0.024271004 -0.35199922 0.025151191 0.05689603
-0.14035855 0.077411816 -0.093895204 -0.16559231 -0.06062276 -0.053929474 -0.2809274 0.051498886
-0.34668195 -0.023214348 -0.13000676 -0.116485804 -0.08591233 -0.0073494734 -0.1763757 0.08552994
0.058560204 -0.055508908 -0.13530391 -0.0361555 -0.15022309 -0.062129688 -0.099655375 0.048358418
-0.14630233 0.02612667 -0.14251287 -0.14304863 -0.026562255 -0.039912034 -0.06583099 -0.038861137
-0.059101682 -0.19683215 0.055738788 0.11590011 0.07576757 0.08172687 -0.104752414 -0.020457482

a2c_network.actor_mlp.2.bias f4 [256]
00000000: 64f4 2f3d d061 393d 0588 bdbc 3b70 ebbc
00000010: fcca 7b3c f966 10bc 8ed2 4dbc c1f5 fb3b
00000020: d9fb 0bbc 33b4 e93c bdca 25be 4560 81bc
00000030: b45f 73bc 2b64 653d 1a76 24bd f074 853b
00000040: 27e5 a83c b79e 20bc b23c 44bd 68f3 5abd
00000050: 2843 07bc f71c c6bc 2f04 dbbc 601d 31be
00000060: 333b febc 8aab 3d3d 4aef 99bc a145 99bc
00000070: e3ff 863c 5038 923d e675 8ebd b5d7 44be
00000080: a685 ed3c 5c75 a3bc 71d6 81bc 66e6 2bbe
00000090: e4a8 ef3b e5bd df3c 5d13 43bc 54a6 e7bc
000000a0: 8e88 d73c 1d20 8b3c f66d bb3c f4a0 043a
000000b0: 6fe4 bebb 228f f43c 498e 043d cbf2 02bd
000000c0: 0079 5c3c cb77 733d b481 dfbd fcc8 3e3d
000000d0: 3401 87bc 04be 0abd c4a0 833a 77b4 b43c
000000e0: ec0a d03c d608 ccba df03 20bc 0c67 93bc
000000f0: dac1 28bb 811c 74bd 17ac 173d 0d62 263d
00000100: cbb0 81bc dd9d fa3c b40e 1d3d d9d2 ac3c
00000110: 96ed a13b 3ce7 f93c a2af f6bd c4aa fd3c
00000120: 46c1 e0bc 8fee ce3c 6c0d 04bb 5c51 eebc
00000130: 5a59 b63c a267 953c 02c6 0cbc 5e1e e53a
00000140: 11bb e2bd 8577 473d 78d2 69bb 50d9 623d
00000150: 242f b33c c2b7 09bc 03b3 15bd 6d0b 5bbd
00000160: 30b6 22be 22b8 63bc 5081 2138 1c1d e53c
00000170: c4a8 9b3c f21d 3f3c 3267 d8bc 705c fcbd
00000180: 2f3f 00bd e4be 9abc 92e2 c23c aa21 efbb
00000190: 76be 75be 2340 1bbd b14c 5d3b 461c 013d
000001a0: 961c fd3b bb56 0a3c 724a ff3c 4b37 033d
000001b0: 9578 9fbb a2d8 62be a78b 3bbc 3b3d 8ebc
000001c0: 0f11 be3d 4b22 8fbd ee2b a2bd b257 0c3d
000001d0: 52cb 643b eb38 cbbb 1275 15bd 1dc5 4cbc
000001e0: f25d 16bd ed45 dbbc d898 cabc 238f 393c
000001f0: 22aa 51bc db56 91bb 93f0 c4be dfd4 5cbc
00000200: 5602 0fbb b1be e1bd 93a1 39bc 0134 bfbd
00000210: 735b 2a3d 4b87 06bd 9932 26b9 897e 1ebd
00000220: 3cc4 90bd 5322 59be de9c a1bd 1437 393d
00000230: 9789 17bc 498a 92bb e25e 32be 28ac 30bd
00000240: 6131 af3d 9291 68bc ac85 78bb 5ab4 2dbd
00000250: 1112 f5bb f6d6 8e3b b5e7 60bc 0a7f e6bb
00000260: 6825 813c 5430 1fbd 3a6f 123c 2238 963b
00000270: a01b e1bc a235 84be 389e d8be 4702 e33c
00000280: 0481 4ebc be5e 333d 3740 8dbc 58cf 6ebd
00000290: 1708 21bd 83d5 0d3b 140a 123d d05b 8d3b
000002a0: 752a 65bc ffa7 8c3d bb1d e6bc f662 f63c
000002b0: 7569 203c a6c1 29bb f8cb 1f3c ae27 923c
000002c0: 87ce a63d 615b 5f3c b449 103b 51e2 7fbc
000002d0: 5150 ae3c e21b 833d 81ee e6bc 9feb 4ebd
000002e0: aea9 9f3d 7301 e6bb ce12 f93b 7028 76bc
000002f0: 0c5e 9bbc 333d 583c edf9 123d e342 1b3d
00000300: ed7d a83c 186c 18be 34da a3bb 5c5d 07bd
00000310: 7b47 273d 66d9 35be e1a7 b4bd 7433 cf3c
00000320: 474a 933d 5b33 d7bc 842a 033c 9b50 c03c
00000330: ed40 843c e386 943d dfdd ce3a f418 e43c
00000340: 6331 0fbc bb7c c13c 20e5 623c 748c 7ebe
00000350: 728a 88bc a40f 8abd 42c6 093c a288 1fbc
00000360: 4dab 36bd a635 a6bc 6761 c63c aebe e93c
00000370: e18d fc3c 2a51 0abe 0a3b c63c 4974 0ebe
00000380: 979e e13c 61a2 2abc 9fc2 bdbc 4e40 103c
00000390: b227 aebc e9a2 b3bc f1ae 6b3c b108 92bb
000003a0: f647 1b3d bb37 dd3d eb01 98b9 7ee7 94bc
000003b0: c903 5f3c e5b7 30bc 2d52 bb3c 8137 21be
000003c0: 9d66 0ebd 195e f03b c01c 803c 7d91 563d
000003d0: ddab 093d e3a1 cf3c 6edc 1d3c 8cb5 443d
000003e0: 54be 123c cebd c33c 6f17 a43c 4c87 dc3c
000003f0: 1118 0cbe 9b06 a83c cf81 42bd 2044 6cbc
0.04295768 0.045259297 -0.023136148 -0.02874004 0.015368219 -0.008813613 -0.012562407 0.0076892083
-0.008543932 0.028528308 -0.1619062 -0.015792975 -0.01485436 0.05600373 -0.040151693 0.004072778
0.02061708 -0.009803466 -0.047909446 -0.053454787 -0.008255757 -0.024183733 -0.026735393 -0.17296362
-0.031034088 0.04630617 -0.01879086 -0.01870996 0.016479438 0.07139647 -0.06956081 -0.1922291
0.028994393 -0.019953422 -0.015849324 -0.16787109 0.0073138345 0.027312228 -0.011906472 -0.028277554
0.026310232 0.016983086 0.022879582 0.0005059384 -0.0058255713 0.029853407 0.032362256 -0.031969827
0.013456583 0.059440415 -0.10913411 0.046578392 -0.016480066 -0.03387262 0.0010042419 0.022058709
0.025395833 -0.0015566598 -0.009766548 -0.017993473 -0.002575031 -0.059597496 0.037029352 0.040620852
-0.015831372 0.030592853 0.0383441 0.021096634 0.0049416525 0.030505769 -0.12045218 0.030965216
-0.02743591 0.025260238 -0.0020149602 -0.02909153 0.022259403 0.018237893 -0.008592131 0.0017480364
-0.11070836 0.048697967 -0.0035678428 0.055383027 0.021873064 -0.008405628 -0.036547672 -0.053477693
-0.15889812 -0.013898881 3.8505823e-05 0.027967982 0.019001372 0.011664854 -0.026416395 -0.123223186
-0.031310257 -0.018889852 0.023789678 -0.0072977142 -0.23998436 -0.037902962 0.0033767635 0.031521104
0.007724355 0.00844353 0.031163428 0.032035153 -0.0048666694 -0.22152951 -0.01144687 -0.017363181
0.092805974 -0.06988963 -0.07918535 0.03426332 0.0034911227 -0.0062018535 -0.0364886 -0.012498167
-0.036710687 -0.026766742 -0.024731085 0.01132563 -0.0127969105 -0.004435403 -0.38464794 -0.013478487
-0.002182146 -0.110226996 -0.011330026 -0.09336091 0.04159112 -0.03284387 -0.00015849843 -0.038694892
-0.07068679 -0.212045 -0.07891248 0.045218542 -0.009249113 -0.0044720513 -0.17419007 -0.04313293
0.0855434 -0.014194863 -0.0037921472 -0.042408325 -0.0074789603 0.0043591214 -0.013727118 -0.007034187
0.015764907 -0.03886445 0.008937651 0.0045843283 -0.027478993 -0.2582217 -0.4230821 0.027711047
-0.012604002 0.043791525 -0.017242534 -0.058303207 -0.039314356 0.0021642155 0.035654142 0.0043139234
-0.013987173 0.0686798 -0.028090348 0.030076485 0.009790768 -0.0025902777 0.00975322 0.017841186
0.08144861 0.013632626 0.0022016587 -0.015617923 0.021278532 0.064018026 -0.0281899 -0.050517675
0.07796036 -0.0070192157 0.0076011186 -0.0150242895 -0.018965743 0.013198185 0.03588288 0.037905585
0.020567859 -0.14884984 -0.005000377 -0.03304802 0.040839653 -0.17758712 -0.08821083 0.02529309
0.07191902 -0.026269605 0.008005742 0.023475936 0.01614424 0.0725229 0.0015782675 0.02784393
-0.008739802 0.023619046 0.013848573 -0.24858266 -0.016667578 -0.067412645 0.008409085 -0.009737166
-0.04459696 -0.020289253 0.024216367 0.028533306 0.030829372 -0.13507524 0.024198074 -0.13911547
0.027541442 -0.010414691 -0.023164092 0.008804394 -0.021259163 -0.021928268 0.014384971 -0.0044566025
0.037910424 0.10801645 -0.00028993128 -0.01817679 0.013611742 -0.010786031 0.022866333 -0.1574383
-0.03476583 0.007335436 0.015638709 0.052384842 0.033611167 0.025345748 0.009635074 0.0480247
0.008956511 0.023894217 0.020030705 0.026919983 -0.13681056 0.020510962 -0.047487076 -0.014420539

a2c_network.value.weight f4 [1, 256]
00000000: af58 c839 2b84 52bc 15f5 cf3c fd94 ae3c
00000010: 33a5 8ebd 65ae 9fb9 349a 813b 79ac 7b3c
00000020: 3ccd d53b 75fa b73b d5cf 1ebd fb1b a13c
00000030: e138 03bc d8c3 853a 04ac 903a 727d ac39
00000040: 5613 2b3d a0e6 113c dda9 67bd 9a97 17bc
00000050: a5f4 a8ba a492 1ebd 4b46 34bc 745c aa3c
00000060: 622b 313c ccaf 0cbc 0fbf 383b 10b5 0e3d
00000070: 0005 403b 89c2 95bc b6c3 f03c 413f babd
00000080: a489 533c 516f 273c 764e 52bb db05 b6bc
00000090: 0fcd 383c eb22 4dbb 37c5 beba a914 073c
000000a0: fa08 90bc 571c 99b9 fb15 fc3b 57ba b73c
000000b0: c51c 443c 7004 3c3c 5bd9 48bc 9950 a2bd
000000c0: 716e 9a3c eceb 873b e937 e13c a32a 873b
000000d0: f34a 603b b697 783c 64aa 20ba 36a0 ccbb
000000e0: e512 d93c bb79 2e3b 2f3b 913b 4518 8b3c
000000f0: 3632 fd3b ab8d 8cbd a61e 3abd f3b1 e6bd
00000100: 72ac 1e3a 5ad4 7b3c a02b 94bb 1a48 313c
00000110: 4d99 803c 8d47 353c 3ba5 32bd d3a7 cc3b
00000120: 45d2 d8bb 7965 7f3c 4000 ecbc 1307 d4bb
00000130: c78d 6a3d f5da afbc 6518 00bc 473f c53c
00000140: d498 9bbd 8aaf beba eb0a eeba 1426 0abd
00000150: 3914 8fbb a483 eb3c d961 353c 2c53 443d
00000160: 1fa6 60bd 5a24 32ba 1d3b a5bc e680 213b
00000170: 378d bdbc 2de1 923c 1332 8eb8 5cbf 2fbe
00000180: f347 58bc 8816 c63b 86aa 343c 8cf7 d83c
00000190: f2f0 a43c 7997 053c e3d2 943c 991e 543c
000001a0: 8fb9 16bd 6681 a6bc 5a03 01bc d8ed 5b3c
000001b0: eba8 81bc c08c c1bb 21dd 52bb 2351 d4bb
000001c0: 3790 133e 3423 723b bd04 88bc 6fa5 ed3c
000001d0: 611a 963b c6d4 773a b396 2b3d b00c 1fbb
000001e0: e08f a8bc ecf3 673c 4f01 043c f88a 7bb9
000001f0: 0adb 1e3b e632 b83d 7fe3 58be 0a84 bfbb
00000200: 1451 1b3c b97a 3d3d 82d8 05bc af43 803c
00000210: e5b9 6fbc 69bc c5bc db3d dabb 9862 853d
00000220: 4be1 e6bd 9227 cc3d e5b2 98bd f580 2f3c
00000230: e45f c93c 90bf 513c 50cd 51be c75c 023d
00000240: b012 17bd 5809 06bc daa4 fa3d e755 5b3c
00000250: 4688 d63b 04bf 5bbc 66d0 c23d 8435 5fbc
00000260: 4363 473c c855 7dbd 1a75 bcbc c67d 353c
00000270: ac72 16bd 907c 4bbe 5a84 06be 38d7 57bb
00000280: 9063 20bb 7927 b5bb 5c46 47bd 8683 653d
00000290: 7a41 0f3c b527 b2bb 0f94 213c 0773 efbc
000002a0: dce0 f8b9 bbc8 52bd 6c31 80bc dc7a 5f3c
000002b0: c216 55ba b42c ae3b 9621 2b3c d5c1 05bb
000002c0: 9729 943c e0df 52bc 91bb fa3b f40d 193b
000002d0: e0a3 813b 5213 133d e2ac b638 0498 3b3c
000002e0: cd88 483c 7a44 a6bb c817 013d 41af 563b
000002f0: 1486 493c 13ee 0abc 08c2 223b cc2c a83b
00000300: 4a08 1d3c 1f42 4bbc cd28 323c 597e bdbc
00000310: 981b 6cbd 9ea4 09be f997 393d e84d fabc
00000320: 5328 dbbd 82df 8b3c 6b62 cd3c 8772 9d3c
00000330: 6965 513d 8a36 363d 3127 c2bc f893 27bb
00000340: 788c 223b d6eb 4a3b 4be8 b93b cbc4 81bc
00000350: b4de b9bb 22cf 50ba 1bb1 82bd b958 473b
00000360: f2b5 773c 291d c33c c69b cebc 8b01 1a3c
00000370: 377f edba f1af 4b3d d04a 60bc 6d7d 37ba
00000380: 322f c0bc bd00 b53c a096 ca3b 684c 933c
00000390: cfd4 aa3b 9018 d1ba 105f 4a3c 291f 973c
000003a0: 5126 b2bb f683 e83d 1ad4 ea3b 925a 02bb
000003b0: f1c8 3fbb b58d a9bc cb3a 783b 34f9 9bbd
000003c0: e766 86bd cee0 4abc cdea b5b8 7046 243c
000003d0: 37df a1bd f9ec b6ba 30d5 e2bc 697f d23b
000003e0: 4850 6ebd 0d28 243c cd95 9b3b 47c1 26bb
000003f0: af71 37bd 6d20 913a 8a0c 1a3d af42 ac3c
0.00038213047 -0.012848894 0.025385419 0.021311278 -0.06965103 -0.00030456777 0.00395515 0.015360945
0.00652471 0.0056145736 -0.038772423 0.019666662 -0.008009166 0.0010205461 0.0011037593 0.0003289986
0.041766487 0.008905083 -0.05655848 -0.009252453 -0.0012890293 -0.038714066 -0.011003087 0.020796038
0.010813566 -0.008586835 0.0028190052 0.034840643 0.0029299855 -0.018281238 0.029390197 -0.09094096
0.012911234 0.010219411 -0.0032090223 -0.022219589 0.0112793585 -0.003130133 -0.0014554624 0.008244672
-0.017582405 -0.0002920355 0.00769305 0.022427721 0.01196975 0.011475667 -0.012258853 -0.07925529
0.01885149 0.004147997 0.02749248 0.0041249557 0.003422436 0.015172889 -0.0006128906 -0.0062446846
0.026498267 0.002662285 0.004432104 0.016979346 0.007726933 -0.068629585 -0.045439385 -0.1126441
0.0006052918 0.015370453 -0.004521802 0.010820413 0.0156981 0.011064422 -0.043614607 0.006245592
-0.006616863 0.015588158 -0.028808713 -0.00647057 0.057264116 -0.021466712 -0.007818316 0.024078025
-0.07597509 -0.0014548164 -0.0018161213 -0.03372772 -0.0043664244 0.028749295 0.011070692 0.04793088
-0.054845925 -0.0006795578 -0.020169789 0.002464348 -0.023138626 0.017929638 -6.780415e-05 -0.17162842
-0.013200748 0.0060451664 0.011026984 0.026485227 0.020134423 0.00815379 0.018166965 0.012946748
-0.036798056 -0.020325374 -0.007874334 0.013423406 -0.015827617 -0.0059066713 -0.003217526 -0.006479399
0.14410482 0.0036947252 -0.016603822 0.029009549 0.0045807813 0.0009454008 0.041891765 -0.0024269037
-0.020576417 0.014157277 0.008056953 -0.00023988995 0.0024239444 0.08994083 -0.21180533 -0.0058445977
0.00947978 0.046259616 -0.008169295 0.015657274 -0.014631723 -0.024137693 -0.006660206 0.06512946
-0.1127344 0.09968485 -0.074559964 0.010711898 0.024581857 0.01280202 -0.20488477 0.03182676
-0.036883056 -0.008180939 0.12238474 0.01338718 0.006547007 -0.013412241 0.09512405 -0.013623599
0.012169662 -0.061849385 -0.023005057 0.01107735 -0.036730453 -0.19871736 -0.13136426 -0.0032934677
-0.0024473406 -0.005528387 -0.048651084 0.056033634 0.008743638 -0.0054368624 0.00986196 -0.029229654
-0.0004746978 -0.051460963 -0.015648566 0.013640132 -0.00081286964 0.0053153876 0.010445019 -0.0020409722
0.018086238 -0.012870759 0.007651754 0.0023354264 0.003956303 0.035907097 8.710638e-05 0.011449818
0.012239647 -0.005074081 0.03151682 0.0032758268 0.012300033 -0.008479613 0.002483489 0.0051322933
0.009584496 -0.012405901 0.0108739855 -0.023131536 -0.057643503 -0.13441703 0.045310948 -0.030554727
-0.107010506 0.01707435 0.025071343 0.01921965 0.051122103 0.044485606 -0.023700329 -0.0025570374
0.0024802964 0.0030963323 0.0056734434 -0.015840909 -0.0056723002 -0.00079654355 -0.063814364 0.0030417873
0.015119063 0.023817616 -0.025220763 0.009399782 -0.0018119578 0.049728338 -0.013689712 -0.0006999586
-0.023460004 0.022095079 0.0061825067 0.01798077 0.005213357 -0.0015952755 0.012351766 0.018447476
-0.0054366966 0.113532946 0.0071663978 -0.001989041 -0.0029264058 -0.020697454 0.003787684 -0.07615891
-0.06562596 -0.012382699 -8.6744876e-05 0.010026559 -0.07903903 -0.0013956121 -0.027689546 0.00642388
-0.05818203 0.0100193145 0.0047480823 -0.0025444792 -0.04478615 0.0011072286 0.037609614 0.021027891

a2c_network.mu.weight f4 [6, 256]
00000000: 5c85 3e3e c172 473a b8ce 70ba a9b3 45ba
00000010: e400 93bb 4203 873a 874d 0d3b b075 bd3b
00000020: 8680 173b 85ea 7c3b 1136 3eba 2502 103b
00000030: 7aa8 b13a cdd6 4639 6759 92ba 3c6f 1cbb
00000040: 2765 21ba c823 783a c598 1c3e daea b9bd
00000050: cab9 f6b9 3f99 77bb 7c1e 3ebb 9c21 aabe
00000060: 8a23 c23a 96a6 91b9 90a6 5538 e380 b23b
00000070: 5f80 d039 2050 0b3b d1c9 023e aeac cd3d
00000080: f140 163a 2040 55bd 2d5f 7cba bbe0 23bd
00000090: fed7 433b cad9 39ba 47d1 b33a 41ac df3a
000000a0: a7ef a337 925f 8b3b 356f 933b 1872 d03a
000000b0: d762 cb3a 6864 dab9 fe40 863b cac2 dbbd
000000c0: f367 583b 8068 733b 6f18 133e f51c 55bb
000000d0: d793 573a ccbf 8d3a b623 1fbb 13d2 2ebb
000000e0: 96d7 193b 9dfc 0a3b 74b1 3ebb 48bb bc3b
000000f0: 338c d4ba e294 0f3e f3e8 48bb b60d d53d
00000100: fcf7 bd3a 20f0 823a d7c6 25ba 8b0b 01bb
00000110: 4de3 9839 f247 fdba 9a7d e23c e899 abba
00000120: f222 613b 70dc ca3b 84d3 893a 6da2 013b
00000130: e6e4 263e 7fd1 9ebb ff57 a13a 6e0e 1c3a
00000140: 8046 5f3d 6d78 1fbb ddc3 143b 48d1 423b
00000150: 839c 7539 fc36 99ba af98 033a 72e4 303e
00000160: 4ce5 27bd 0672 983b 5abb 613d 5e21 c639
00000170: f2f8 99ba c3e4 13bb d319 75b9 d835 4abd
00000180: de49 ec3a df8c d53b c8af 8d3b 2280 163b
00000190: 8b5f 4abe 136f 723b 7d26 a7ba 332f 8b3b
000001a0: 73fa 11bb 6dba bdba c571 4d3a faa8 a5b9
000001b0: 3842 233b d0f4 f7bd 6d2d 5a39 694e ccba
000001c0: 2894 89bb cfb2 3d3d 5eed 52bd 0065 45bd
000001d0: 765c ff3a e606 22bb c3d2 1e3c 6c49 0ebb
000001e0: 3e15 57ba aad2 cb3a d7c8 ad3a 3114 7638
000001f0: 956a 813b bd51 333c 8b0f 903c 89ea e23a
00000200: 8d14 fe3a c698 843c 4c8a fdb9 4d67 0dbd
00000210: 2c3f 7cb8 2760 87bd 275f fab9 5924 7ebb
00000220: 2ade 53bd c517 19be 344f 53bd 8766 5bbb
00000230: b959 a83b fb23 5d3b 7b5c 8dbc 19cb 113d
00000240: 444c 9dbb 2437 9039 2579 57bb 7095 2f3b
00000250: fd83 e5ba 8852 7a3a e820 bd3c 3d62 0e3a
00000260: 41fb f13a aba3 ab3c 93cf a03b a355 973b
00000270: 59e9 2ebc 5750 a9bd 6e65 313e 8056 77bb
00000280: f99f 20bb 7624 8e38 f6b2 253c 7199 4f3d
00000290: f325 873b 14cf ebba ac44 f8ba a045 c73a
000002a0: 4cc6 853b 2051 903b cb12 89bb 8c41 ccba
000002b0: b0dd 91bb d7b6 5b3b 772d 42bb 6ead d13a
000002c0: abfd 06ba be75 8439 ad52 623a 5966 eb3b
000002d0: 5166 473b e554 3c3b 2893 b83a 6c0d 07bb
000002e0: 657f ba3b 62a9 993d 82ce 073c 8429 8cbd
000002f0: aea5 0e3b ce36 9cba 4269 8aba 1210 ecb9
00000300: 412a aabb cd3f a23d d657 9a3b 810f 0abd
00000310: b964 09bd b88a 60bc b773 86bd 8ca5 7f3a
00000320: 4730 783c e1ac 673b a97c 80bb 3ea6 2a3b
00000330: 0c4c 973b c398 683c 8b03 133b 32c9 1b3c
00000340: 71fb 21ba e621 143b 2152 acba 42cd 55bc
00000350: 75a4 2b3b 0a4a 46bd 36a6 193b 6a62 4f3b
00000360: 91f4 1ebb 96f9 b23a 63c8 9f3b 69d7 293b
00000370: f64e 8c3a 7c4b 6e3d 9c04 b8bb 3e59 0b3e
00000380: b8d2 e3ba 41f3 c23b b860 b4ba 2c57 973b
00000390: ce29 083b e057 d23a 65f6 b63b 8d57 41bb
000003a0: 2ca4 5f3b 1474 f2bb 6a26 70bb 6684 673a
000003b0: 94b1 153a 0ffe 943b f5b9 cd3a ce11 b13c
000003c0: be87 cc3b cc0c 84b9 8cef 2ebb d79b ecba
000003d0: 9064 3c3c 2ffe e339 7927 f73a c8f7 433b
000003e0: d9b3 043b ae66 6b3b b8d0 8abb e7ac 9cbb
000003f0: 359a 2bbd fa12 9b39 1718 cdbc 64cf 3dbb
0.1860556 0.0007608347 -0.0009186077 -0.0007541725 -0.00448619 0.0010300654 0.0021561102 0.0057818517
0.0023117377 0.0038591933 -0.00072559813 0.0021973934 0.0013554238 0.00018962771 -0.001116556 -0.0023870012
-0.00061567355 0.0009465781 0.15292652 -0.090779975 -0.000470592 -0.003778055 -0.002900987 -0.33228767
0.0014811617 -0.0002778067 5.093828e-05 0.0054474934 0.00039768495 0.0021257475 0.127723 0.10042702
0.0005731723 -0.052063107 -0.00096272194 -0.04000924 0.002988338 -0.0007089643 0.0013718986 0.0017064885
1.9542711e-05 0.004253336 0.004499341 0.0015903143 0.0015517127 -0.0004165501 0.004097103 -0.107305124
0.0033020943 0.0037141144 0.1436479 -0.003251848 0.0008223629 0.0010814606 -0.002428276 -0.0026675507
0.0023474446 0.0021207698 -0.002909747 0.0057596304 -0.0016216099 0.14021638 -0.0030656427 0.10403006
0.0014493461 0.0009989776 -0.000632388 -0.0019690718 0.00029161051 -0.001932381 0.027647782 -0.0013092132
0.0034353104 0.006190829 0.0010515307 0.0019780651 0.16298255 -0.004846751 0.001230955 0.0005953078
0.054510593 -0.0024333254 0.0022699751 0.0029726792 0.00023423326 -0.001168936 0.0005020005 0.17274645
-0.04099016 0.0046522645 0.055110313 0.00037790363 -0.0011747165 -0.0022566773 -0.00023374641 -0.049367756
0.0018027385 0.0065170373 0.0043239333 0.0022964557 -0.19763009 0.0036992475 -0.0012752559 0.00424757
-0.0022274524 -0.0014475115 0.00078370824 -0.0003159715 0.0024911296 -0.12107241 0.00020807023 -0.0015587333
-0.00419857 0.046313103 -0.051495902 -0.048192024 0.0019482512 -0.002472335 0.009693804 -0.0021711243
-0.00082047645 0.0015550454 0.0013258707 5.8669775e-05 0.003949473 0.010944781 0.017585536 0.0017312329
0.0019384787 0.01618613 -0.0004835896 -0.034522343 -6.0140315e-05 -0.066101365 -0.0004775461 -0.003877899
-0.051725544 -0.14950474 -0.051589206 -0.003347786 0.005137649 0.003374337 -0.017256012 0.03559408
-0.0048003513 0.00027506903 -0.0032878604 0.0026791953 -0.0017510649 0.0009549041 0.02308698 0.0005431509
0.001846172 0.020952066 0.0049075573 0.004618363 -0.010675752 -0.08267277 0.17323849 -0.0037740767
-0.0024509414 6.777879e-05 0.010113468 0.050683443 0.004124397 -0.0017990791 -0.0018941364 0.0015203245
0.0040824767 0.004404202 -0.0041831485 -0.0015583499 -0.004451476 0.003352573 -0.002962915 0.0015997121
-0.0005149494 0.00025264727 0.00086335355 0.0071838317 0.0030425976 0.0028737125 0.0014081942 -0.0020607365
0.005691456 0.0750301 0.008288981 -0.06843856 0.0021766233 -0.0011918189 -0.0010559934 -0.000450254
-0.0051930253 0.07922325 0.004710178 -0.033706192 -0.033543322 -0.013704948 -0.065650396 0.00097521464
0.015148229 0.0035350847 -0.0039211106 0.002603903 0.00461722 0.0141965775 0.0022432532 0.009508418
-0.000617913 0.0022603213 -0.0013147035 -0.013049426 0.0026190553 -0.048410453 0.0023445017 0.0031644353
-0.002425466 0.0013654705 0.004876183 0.0025915748 0.0010704685 0.058177456 -0.005615784 0.13608262
-0.0017381525 0.0059494083 -0.0013761735 0.004618546 0.002077687 0.0016047917 0.0055835717 -0.0029501647
0.0034124954 -0.0073990915 -0.003664399 0.00088316796 0.000571036 0.0045468877 0.0015695678 0.021614935
0.0062417677 -0.00025186536 -0.0026693074 -0.0018051815 0.011498585 0.00043486196 0.0018856368 0.0029902328
0.00202488 0.0035919356 -0.004236307 -0.0047813538 -0.04189511 0.00029578042 -0.025035901 -0.0028962726

a2c_network.mu.bias f4 [6]
00000000: 09eb 1cbe d321 263c e13a 64be 89a0 debc
00000010: 3dee 59bd b39e d2be
-0.15324034 0.0101399 -0.22288086 -0.027176159 -0.053205717 -0.41136703

exp_avg f4 [6]
00000000: 99fd 8339 6d8c 1939 930a 983a 479a afba
00000010: 85a2 82b9 5d68 503a
0.00025175212 0.0001464353 0.0011599831 -0.0013397419 -0.0002491662 0.00079501217

exp_avg_sq f4 [6]
00000000: d30d 2c38 1036 2638 c1b7 3138 5c22 1938
00000010: 0f31 2238 4b64 2f38
4.102087e-05 3.9627834e-05 4.2371223e-05 3.6510042e-05 3.86695e-05 4.1816656e-05

exp_avg f4 [256, 40]
00000000: d900 3ab8 115a 3a38 5e02 b7b4 d900 3a38
00000010: 5e02 b7b4 0000 0000 db8e 413a 54a7 39b9
00000020: 8745 f5b9 1fc5 623a 2b14 bdb6 5212 31b9
00000030: cb55 623a f6c1 6f39 c623 a339 94ed 24b7
00000040: 32b0 753a 5b49 8cb8 5cb0 38b7 5502 b338
00000050: efc1 6639 cb90 86b7 475a 02b8 43c9 9438
00000060: a783 5436 a182 d738 d02b dcb8 2180 a8b7
00000070: 7f6e f638 3560 2538 7231 9736 2f50 5333
00000080: 0000 0000 0400 0080 21e7 20b4 70b9 06b4
00000090: 0400 0080 21e7 20b4 643c 0634 0400 0080
000000a0: d697 a0b9 138a a039 34a9 1436 d697 a039
000000b0: 34a9 1436 0000 0000 5c99 f6b8 f969 da39
000000c0: 9975 f339 c5f1 c3b9 70c8 7d3a f578 0f38
000000d0: c887 e338 4e5b ad39 851c 3e39 017a 1fb7
000000e0: f6bc 2aba 6a02 ceb7 98cc 8938 c8e5 793a
000000f0: dabe d1b9 ca2c 0bb8 fea8 dcb8 f387 4938
00000100: 8b83 bc37 f40b 7337 0eae a4b8 0726 7ab8
00000110: 6e33 8cb8 b5e3 11b8 ebcb f335 570c f232
00000120: 0000 0000 0400 0080 c958 dcb3 decb 1f34
00000130: 0400 0080 c958 dcb3 98a1 1eb4 0400 0080
00000140: 12f3 af37 69e1 afb7 fa0c 86b3 12f3 afb7
00000150: fa0c 86b3 0000 0000 d5b6 5db9 68f8 fab7
00000160: bb06 0039 509d 2c38 a021 67b8 8b1b fe37
00000170: aaec 6a39 3580 e838 88f8 3a38 4993 8836
00000180: e44a ab38 afe2 8338 51eb ed35 f061 26b9
00000190: 1c3b b2b9 c200 96b6 1f5f f035 c523 adb6
000001a0: b4fa 0038 5bcb 1f37 74fd ae36 2bff 2037
000001b0: afd1 0c38 db27 03b7 f3cf 9bb4 ffe8 5f33
000001c0: 0000 0000 0400 0000 4757 adb3 c537 fdb0
000001d0: 0400 0000 4757 adb3 7da9 d330 0400 0000
000001e0: 48c9 1939 abae 19b9 08af 43b5 48c9 19b9
000001f0: 08af 43b5 0000 0000 48bf 0338 3906 1337
00000200: 4e21 3b39 66f7 5fb7 564b 6cb4 1d09 3539
00000210: 4d44 3db9 c7eb 9038 0079 8e37 ea8b 00b7
00000220: 6533 9939 d36e c637 1cf4 e235 ff27 5039
00000230: a771 11b9 7ee5 41b8 ddfd ecb6 28b0 2738
00000240: 0fc5 db35 d3b7 99b8 7a88 28b9 dd79 beb6
00000250: b5e6 c1b8 3759 03b9 2614 27b7 a2de c433
00000260: 0000 0000 0400 0080 535a 14b4 6c03 51b2
00000270: 0400 0080 535a 14b4 5cfe 4a32 0400 0080
00000280: 32b7 19b8 2481 1938 8788 86b3 32b7 1938
00000290: 8788 86b3 0000 0000 3395 5bb9 648d 9739
000002a0: 4e81 e139 6a4c 90b9 8a00 1d38 394c e638
000002b0: 6523 83b9 66c6 81b9 5c05 a0b9 69cd 2c37
000002c0: f396 f5b9 cf65 0439 e6e4 a7b6 e48a 8938
000002d0: 53c8 06b9 d0d5 8437 cea6 2037 7805 1bb8
000002e0: 8e86 8637 5b0d 6f34 f4d5 a3b7 5543 2936
000002f0: 86c1 3cb7 68ac 8938 9897 9db7 cac8 8432
00000300: 0000 0000 0400 0080 c9b1 bdb3 eb26 c033
00000310: 0400 0080 c9b1 bdb3 cd4b c0b3 0400 0080
00000320: 83fb 5038 4d6b 50b8 2d8b 2cb6 83fb 50b8
00000330: 2d8b 2cb6 0000 0000 192b c2b9 2f62 233a
00000340: d0c0 0d3a 2fdc bfb9 ab89 91b8 4837 fc39
00000350: 9338 94b9 ac52 bab8 3a73 b0b7 8b5c b7b5
00000360: 96c8 3938 a46f 2738 faed 0a38 121e 3539
00000370: b766 2bb9 d0b7 4436 aff1 ccb7 6c0b cf37
00000380: 3427 6f37 88bc 8eb8 da4f c0b5 261e 3238
00000390: 1cc0 9737 a9f9 1338 0fe7 4b37 9245 6233
000003a0: 0000 0000 0400 0080 106a 3eb4 1785 0334
000003b0: 0400 0080 106a 3eb4 ca37 03b4 0400 0080
000003c0: 381b 8b37 7678 8cb7 01b5 2336 381b 8bb7
000003d0: 01b5 2336 0000 0000 4004 5e39 ea59 ed38
000003e0: 74ad 0aba 655e d139 1c25 e639 d167 88b9
000003f0: 038e 253a b919 a739 c4b0 7fba afde d835
-4.4346645e-05 4.4429737e-05 -3.408813e-07 4.4346645e-05 -3.408813e-07 0.0 0.0007383653 -0.0001770531
-0.00046781843 0.0008650589 -5.634987e-06 -0.0001688686 0.0008634 0.00022865072 0.00031116436 -9.830477e-06
0.00093722634 -6.689384e-05 -1.10083165e-05 8.5358195e-05 0.00022006755 -1.604147e-05 -3.1078493e-05 7.094678e-05
3.1667093e-06 0.000102763304 -0.00010498578 -2.0086825e-05 0.000117507756 3.9428665e-05 4.505907e-06 4.9200192e-08
0.0 -6e-45 -1.4985245e-07 -1.2547184e-07 -6e-45 -1.4985245e-07 1.2501692e-07 -6e-45
-0.00030630705 0.0003062045 2.2152208e-06 0.00030630705 2.2152208e-06 0.0 -0.000117587595 0.00041659156
0.0004643619 -0.0003737343 0.00096810516 3.4206507e-05 0.00010849495 0.0003306516 0.00018130436 -9.505545e-06
-0.0006513143 -2.4558238e-05 6.5707776e-05 0.0009532836 -0.00040005782 -3.3181896e-05 -0.00010521895 4.8048747e-05
2.24726e-05 1.4486712e-05 -7.8525496e-05 -5.964006e-05 -6.6853e-05 -3.4782763e-05 1.8164259e-06 2.817812e-08
0.0 -6e-45 -1.0260698e-07 1.4882195e-07 -6e-45 -1.0260698e-07 -1.4773684e-07 -6e-45
2.0974814e-05 -2.096659e-05 -6.242222e-08 -2.0974814e-05 -6.242222e-08 0.0 -0.00021144313 -2.9917996e-05
0.00012209539 4.1154504e-05 -5.5106007e-05 3.0291985e-05 0.00022404143 0.000110865025 4.457732e-05 4.070262e-06
8.167865e-05 6.28879e-05 1.7726362e-06 -0.00015867478 -0.00033994846 -4.4704366e-06 1.7909077e-06 -5.159966e-06
3.0751064e-05 9.524486e-06 5.21511e-06 9.596154e-06 3.3573884e-05 -7.817488e-06 -2.9022303e-07 5.2133142e-08
0.0 6e-45 -8.071816e-08 -1.8424023e-09 6e-45 -8.071816e-08 1.5400442e-09 6e-45
0.000146662 -0.00014656286 -7.2897865e-07 -0.000146662 -7.2897865e-07 0.0 3.141098e-05 8.763332e-06
0.00017846117 -1.3349438e-05 -2.200662e-07 0.000172649 -0.00018049889 6.910372e-05 1.6984064e-05 -7.661971e-06
0.00029220726 2.3655046e-05 1.6909357e-06 0.00019851325 -0.00013870616 -4.6228517e-05 -7.0629017e-06 3.997996e-05
1.6374123e-06 -7.3298484e-05 -0.0001607257 -5.676628e-06 -9.24593e-05 -0.00012526369 -9.958667e-06 9.167458e-08
0.0 -6e-45 -1.3816434e-07 -1.2166179e-08 -6e-45 -1.3816434e-07 1.1815782e-08 -6e-45
-3.6648657e-05 3.6598314e-05 -6.2646954e-08 3.6648657e-05 -6.2646954e-08 0.0 -0.00020941049 0.0002890631
0.00043011684 -0.00027522753 3.743222e-05 0.00010981452 -0.00025012638 -0.00024752616 -0.0003052157 1.0299825e-05
-0.00046842507 0.00012626428 -5.003635e-06 6.5585395e-05 -0.00012853862 1.583519e-05 9.57558e-06 -3.6959973e-05
1.6036702e-05 2.2263468e-07 -1.9530744e-05 2.5222155e-06 -1.1250731e-05 6.564782e-05 -1.878645e-05 1.545813e-08
0.0 -6e-45 -8.833337e-08 8.947776e-08 -6e-45 -8.833337e-08 -8.954485e-08 -6e-45
4.9825303e-05 -4.9690996e-05 -2.5711008e-06 -4.9825303e-05 -2.5711008e-06 0.0 -0.00037034674 0.0006232587
0.00054074544 -0.00036594408 -6.9397815e-05 0.00048106373 -0.0002827091 -8.88457e-05 -2.1034492e-05 -1.3661496e-06
4.4294247e-05 3.9919876e-05 3.3123397e-05 0.00017272707 -0.00016346095 2.931327e-06 -2.4431238e-05 2.4681642e-05
1.4254638e-05 -6.806204e-05 -1.4328355e-06 4.2466585e-05 1.809006e-05 3.5280045e-05 1.215354e-05 5.2683e-08
0.0 -6e-45 -1.7733714e-07 1.2248744e-07 -6e-45 -1.7733714e-07 -1.2220622e-07 -6e-45
1.6582766e-05 -1.6745395e-05 2.439425e-06 -1.6582766e-05 2.439425e-06 0.0 0.00021173153 0.000113177884
-0.0005290129 0.00039933916 0.00043896667 -0.0002601729 0.0006315412 0.00031871887 -0.0009753818 1.6158064e-06
