logs/rl_games/yam_cube_sort_8192/2026-02-01_05-04-52/nn/last_yam_cube_sort_8192_ep_250_rew_455.63754.pth (torch, 953214 bytes, 30 tensors)

value_mean_std.running_mean f8 [1]
0.03781120291515309
00000000: 35d1 e26f fd5b a33f

value_mean_std.running_var f8 [1]
0.04599641495974137
00000000: be7d f893 d78c a73f

value_mean_std.count f8 []
131072001.0
00000000: 0000 0004 0040 9f41

running_mean_std.running_mean f8 [40]
0.9940422821953989 0.005897994905120918 5.9707640690496285e-05 0.005957702545811408 5.9707640690496285e-05 0.0 -0.011053999815500651 0.002588502613271091
0.13651218664588835 -0.025206688528369364 0.0008912255190768574 0.1232987391615736 0.09131897170034232 0.3010324765852502 0.0033579314668306854 0.7627057434169859
0.3012841696513448 0.004680688898467529 0.7627052218763513 0.301363662487322 0.004511359137326467 0.76270439182208 0.00013819367589530427 0.0002464489067686128
-0.000190708077608587 0.0001479976549881133 0.000247927282515294 -0.00019319498492334435 0.000157973660227655 0.0002551982399654514 -0.00018110266685798817 0.45999924881697807
0.0 0.7599999788665781 0.22000068090437755 0.13856455099746434 0.7599999788665781 0.22000068090437755 -0.13856455099746434 0.7599999788665781
00000000: a8da 9bc2 31cf ef3f a6e7 abf3 7e28 783f
00000010: fd71 a6e9 d24d 0f3f 8334 7f99 1a67 783f
00000020: fd71 a6e9 d24d 0f3f 0000 0000 0000 0000
00000030: 229d 94bd 7aa3 86bf 7b3e 3ac2 7b34 653f
00000040: 1324 9338 3b79 c13f 1bae 7a3b c8cf 99bf
00000050: e50c 993a 2434 4d3f 2e45 5694 8190 bf3f
00000060: e912 f51c ae60 b73f 19ec 7db8 1d44 d33f
00000070: adc4 a1ba 1782 6b3f 7650 0ee0 1568 e83f
00000080: 671f dd65 3d48 d33f 95df dddb 0e2c 733f
00000090: b650 0ec8 1468 e83f 3d7e a5d0 8a49 d33f
000000a0: f605 49bf 807a 723f 6186 6c0a 1368 e83f
000000b0: a561 10a3 021d 223f da0f a5fe b926 303f
000000c0: 6fd2 aee9 19ff 28bf 9405 162d fa65 233f
000000d0: b9ed f791 873f 303f e9d3 b348 8c52 29bf
000000e0: daf3 9a68 b7b4 243f 37e0 3a18 84b9 303f
000000f0: 092e 1010 ccbc 27bf 8a9f 76b0 a070 dd3f
00000100: 0000 0000 0000 0000 242a c679 eb51 e83f
00000110: 1180 ca78 fb28 cc3f e4a2 75b3 7bbc c13f
00000120: 242a c679 eb51 e83f 1180 ca78 fb28 cc3f
00000130: e4a2 75b3 7bbc c1bf 242a c679 eb51 e83f

running_mean_std.running_var f8 [40]
0.005922417935950251 0.005863401658207333 5.97211586850251e-05 0.005922403212012094 5.97211586850251e-05 1.525878882966929e-08 0.013663043611495491 0.0041851114981569645
0.0026100889081765045 0.014808284480087445 0.004743031191424483 0.005488271398083573 0.025952258234938432 0.0029064642959320676 0.00485155311068965 6.380949883186429e-07
0.002875054967566094 0.0048377680375396295 4.989601362626774e-07 0.0029251167768766808 0.004891775638511562 5.572004285836734e-07 0.00036544795653150925 0.0007773381653614756
8.985486065995641e-05 0.0003601100364250472 0.000757559632414201 8.495276463145495e-05 0.0003431892033797262 0.0007442383541891506 8.0315941600966e-05 1.8487673173410605e-08
1.525878882966929e-08 2.407226490201427e-08 1.5997908866527575e-08 1.5552307434880785e-08 2.407226490201427e-08 1.5997908866527575e-08 1.5552307344112738e-08 2.407226490201427e-08
00000000: e405 92f5 1a42 783f 1852 d8e5 3804 783f
00000010: b401 3063 a34f 0f3f 7fc3 bf01 1742 783f
00000020: b401 3063 a34f 0f3f 00ec bfce 4d62 503e
00000030: f732 cdab 5efb 8b3f af33 3c50 6824 713f
00000040: 2437 02d0 c061 653f 0f2b 6a4c ce53 8e3f
00000050: f101 9ebd 6d6d 733f 5555 a9a2 de7a 763f
00000060: e770 8191 3a93 9a3f 9ffa 2223 4ccf 673f
00000070: 149e 1fdf 38df 733f 62cd f3b7 3169 a53e
00000080: b5b0 ea61 6d8d 673f 5f20 1c78 c4d0 733f
00000090: b6d9 77f1 08be a03e 03ea 981c 6af6 673f
000000a0: be3c 3006 6609 743f 9948 51b3 50b2 a23e
000000b0: d4a9 8d05 33f3 373f 74b6 c3ff c878 493f
000000c0: e266 6ec0 0e8e 173f 7e03 54d4 a499 373f
000000d0: 345c 49ec ded2 483f 1894 1862 1545 163f
000000e0: 32a8 a467 c27d 363f b848 22b2 1f63 483f
000000f0: 5881 be5e e90d 153f a212 0f58 dad9 533e
00000100: 00ec bfce 4d62 503e e27f f80c efd8 593e
00000110: 3cd7 a3c1 782d 513e 5ab9 df57 fcb2 503e
00000120: e27f f80c efd8 593e 3cd7 a3c1 782d 513e
00000130: 5b21 3d56 fcb2 503e e27f f80c efd8 593e

running_mean_std.count f8 []
65536001.0
00000000: 0000 0008 0040 8f41

a2c_network.sigma f4 [6]
-1.365643 -1.3246615 -1.5190523 -1.6431658 -1.7748623 0.10602357
00000000: 64cd aebf 828e a9bf 4e70 c2bf 4253 d2bf
00000010: b02e e3bf e322 d93d

a2c_network.actor_mlp.0.weight f4 [256, 40]
0.09546332 -0.042068854 -0.32245573 0.07828342 -0.2975999 -0.069123045 0.12147276 0.007147529
0.17464992 -0.15056862 -0.16670376 -0.24598113 0.06321121 0.062596835 -0.042547293 0.4735734
-0.015155915 -0.0039368533 0.75147414 -0.041882526 -0.022530343 -0.7126455 0.06760645 -0.090624355
0.25159 0.052003473 -0.06519272 -0.033703573 0.091626815 -0.08973642 -0.09445295 0.022719024
0.15214519 -0.13547035 0.1856402 0.13428637 -0.11134397 0.40651238 -0.1922148 0.12639791
-0.12550578 -0.03487165 0.09616391 -0.010605963 0.10823495 -0.037520524 0.4419908 -0.6164457
-0.28038377 -0.06353047 -0.1790462 0.11428271 -0.004357129 -0.011134622 -0.022215871 0.3143928
0.115575485 0.06328901 0.23253377 0.01496962 0.05081119 0.26330563 0.2136946 -0.2704044
0.07615309 -0.015400183 -0.21594562 -0.19045466 0.08590826 -0.24801323 0.30331206 -0.12229942
0.048724327 -0.13163918 -0.12485157 1.0954604 0.040555377 -0.16013452 -1.208052 -0.07882688
0.06322832 -0.081080936 -0.27939987 -0.16154657 -0.3769716 -0.092243925 -0.07653091 -0.1569131
0.10051153 -0.020662595 0.12642643 0.037957177 -0.11930055 0.07926832 0.05196949 0.11089233
-0.08179958 -0.043621305 -0.15979701 -0.013656369 0.06540931 -0.20207657 -0.035169777 0.057274412
0.20560457 -0.14490168 0.06830783 0.3314414 -0.01227679 0.0015820665 0.14577758 0.080462545
-0.01732688 -0.101759836 0.26685867 0.09590582 0.101091005 0.17840648 -0.16032693 -0.068896785
0.08722402 0.13264805 0.08841573 -0.09187146 0.13445131 -0.023720339 -0.113215454 -0.09573224
0.1312995 0.018370675 -0.007014654 -0.1048453 0.08622052 -0.08851496 -0.04351836 -0.054759536
0.027615987 0.04183732 0.067369245 -0.027659215 0.08223943 -0.17531146 0.22889552 0.06929866
0.24934638 0.44988927 -0.17661402 0.07832795 -0.0057994463 -0.08795739 0.08946515 -0.11947781
0.10106748 0.124956846 -0.20609237 -0.20669341 -0.0086187245 -0.19988008 0.20555557 0.033382833
-0.1012588 -0.06140527 -0.403992 0.026196945 -0.5450097 -0.09532777 -0.13108414 -0.04380764
-0.08972769 0.08117284 0.056256812 0.19980685 -0.08485094 -0.05433076 0.030145176 -0.089005165
-0.017206952 0.0072359364 -0.26550046 -0.0043041967 0.04753793 -0.017594518 -0.2130027 -0.1314815
-0.055935137 -0.1565831 0.09949424 0.16088907 -0.05648818 -0.19682902 0.15120313 0.46066087
0.07591139 0.13349465 -0.056299455 0.3358312 -0.0011074456 -0.25937694 -0.43234247 -0.14745055
0.037696723 -0.09077686 0.256259 -0.056767438 0.2592676 -0.11128607 -0.13297951 0.11120935
0.01401769 0.11729529 -0.042444453 -0.10133187 -0.038199462 -0.00020305126 -0.019495029 -0.15572016
-0.02466545 -0.031970806 -0.07678709 -0.0040571718 -0.016017858 -0.31274107 0.08234242 -0.08446195
-0.049147144 -0.08386103 -0.15942542 -0.04885542 0.017231844 -0.29472905 0.14151014 -0.07521386
0.098157085 0.13223374 0.13821386 -0.3732051 -0.1159839 0.02423371 0.4181929 -0.14344317
-0.041145466 -0.005603318 -0.34744084 -0.074352756 -0.39824384 -0.050194655 -0.23876573 0.16721651
0.12783943 0.05029864 -0.0684225 -0.05023244 -0.32831302 -0.09161527 0.07261717 0.6068182
00000000: 4682 c33d 6450 2cbd eb18 a5be 0f53 a03d
00000010: 045f 98be 6290 8dbd b6c6 f83d d235 ea3b
00000020: 6ed7 323e a92e 1abe 64b4 2abe 7ae2 7bbe
00000030: e174 813d c532 803d 1246 2ebd 3678 f23e
00000040: 8450 78bc b800 81bb 9c60 403f 038d 2bbd
00000050: 8e91 b8bc ef6f 36bf 4075 8a3d 4399 b9bd
00000060: 68d0 803e 9801 553d c383 85bd c20c 0abd
00000070: d7a6 bb3d bac7 b7bd 8c70 c1bd 3f1d ba3c
00000080: f3cb 1b3e bdb8 0abe 7718 3e3e 5e82 093e
00000090: 4f08 e4bd 6422 d03e f5d3 44be 746e 013e
000000a0: 9684 00be 93d5 0ebd 96f1 c43d a2c4 2dbc
000000b0: 49aa dd3d 1faf 19bd 9e4c e23e 63cf 1dbf
000000c0: 768e 8fbe 431c 82bd e357 37be 0e0d ea3d
000000d0: 3fc6 8ebb fd6d 36bc 0ffe b5bc 18f8 a03e
000000e0: d7b2 ec3d ab9d 813d 551d 6e3e 2343 753c
000000f0: 651f 503d ffcf 863e c2d2 5a3e 7272 8abe
00000100: 27f6 9b3d 0d51 7cbc d920 5dbe 8c06 43be
00000110: abf0 af3d 2ef7 7dbe b84b 9b3e 1e78 fabd
00000120: 2993 473d 6ccc 06be 2eb2 ffbd 0c38 8c3f
00000130: 651d 263d 4efa 23be 73a1 9abf fd6f a1bd
00000140: d97d 813d c30d a6bd 800d 8fbe 776c 25be
00000150: 6c02 c1be 62ea bcbd 3dbc 9cbd d4ad 20be
00000160: fdd8 cd3d 9a44 a9bc ee75 013e fc78 1b3d
00000170: d953 f4bd 6e57 a23d f6dd 543d 851b e33d
00000180: 8a86 a7bd 41ac 32bd d4a1 23be f7be 5fbc
00000190: 51f5 853d 29ed 4ebe 2f0e 10bd 9398 6a3d
000001a0: 018a 523e 1b61 14be fae4 8b3d b0b2 a93e
000001b0: 9724 49bc 585d cf3a b846 153e 8cc9 a43d
000001c0: 1af1 8dbc 7667 d0bd b3a1 883e 456a c43d
000001d0: cd08 cf3d 30b0 363e be2c 24be c219 8dbd
000001e0: 82a2 b23d e4d4 073e 4e13 b53d 1b27 bcbd
000001f0: 9bad 093e 2851 c2bc 81dd e7bd 440f c4bd
00000200: 6073 063e 197e 963c 2fdb e5bb 22b9 d6bd
00000210: 6294 b03d 5547 b5bd 4f40 32bd 894b 60bd
00000220: ec3a e23c 9c5d 2b3d e3f8 893d 9495 e2bc
00000230: 256d a83d d984 33be 9663 6a3e 75ec 8d3d
00000240: a854 7f3e e357 e63e 4eda 34be 676a a03d
00000250: 4809 bebb 0123 b4bd 8139 b73d c8b0 f4bd
00000260: 78fc ce3d 60e9 ff3d e109 53be 70a7 53be
00000270: 8d35 0dbc 5dad 4cbe 297d 523e 70bc 083d
00000280: c660 cfbd 1884 7bbd 0ad8 cebe fa9a d63c
00000290: c185 0bbf 353b c3bd ec3a 06be a46f 33bd
000002a0: 27c3 b7bd f23d a63d 8b6d 663d 2b9a 4c3e
000002b0: 54c6 adbd ee89 5ebd 04f3 f63c 5748 b6bd
000002c0: 98f5 8cbc 6f1b ed3b adef 87be 380a 8dbb
000002d0: 22b7 423d 6122 90bc 611d 5abe 16a3 06be
000002e0: 3e1c 65bd 5257 20be a3c3 cb3d 1bc0 243e
000002f0: 2660 67bd 8c8d 49be fed4 1a3e bedb eb3e
00000300: 6e77 9b3d d2b2 083e 429a 66bd 11f2 ab3e
00000310: b527 91ba 0ecd 84be fe5b ddbe 47fd 16be
00000320: e167 1a3d 38e9 b9bd 6134 833e f984 68bd
00000330: b9be 843e f3e9 e3bd c82b 08be bac1 e33d
00000340: 74aa 653c 8338 f03d 3cda 2dbd 1587 cfbd
00000350: 0a77 1cbd 28ea 54b9 0ab4 9fbc 1b75 1fbe
00000360: 330f cabc d2f3 02bd 8d42 9dbd 06f2 84bb
00000370: e237 83bc 991f a0be 25a3 a83d 63fa acbd
00000380: 844e 49bd 55bf abbd 6b40 23be 9f1c 48bd
00000390: cc29 8d3c bae6 96be 09e8 103e b909 9abd
000003a0: 9506 c93d 4868 073e ef87 0d3e bd14 bfbe
000003b0: f888 edbd c685 c63c 611d d63e c4e2 12be
000003c0: 2688 28bd 0a9c b7bb c4e3 b1be 4246 98bd
000003d0: 9ee6 cbbe e998 4dbd 017f 74be ce3a 2b3e
000003e0: 57e8 023e f205 4e3d 1821 8cbd 88c0 4dbd
000003f0: a518 a8be c9a0 bbbd 50b8 943d 7058 1b3f

a2c_network.actor_mlp.0.bias f4 [256]
-0.0010322374 0.013773238 -0.04294263 -0.07318711 0.014510197 0.051165197 0.06742719 0.03247873
-0.07207168 -0.058458496 -0.07325974 0.06956137 0.11819547 -0.19301711 0.10843562 0.2745913
-0.061266445 -0.079539835 0.028955854 0.19572333 0.15361334 -0.5753208 -0.007465928 -0.055738974
-0.20213889 0.008204697 -0.018416677 -0.25496855 -0.878991 0.2545499 -0.09608707 -0.11290638
-0.6031001 -0.05453992 -0.6196648 -0.1517144 0.09976993 -0.37981242 -0.3043421 -0.15458591
-0.056935735 -0.06473733 -0.027249226 0.30125728 0.07663668 0.19732815 -0.09589498 -0.25964296
0.16259965 -0.13029537 -0.02693828 0.04212547 -0.19745386 0.09722592 0.17987867 0.019315401
0.0813007 -0.014118601 -0.0067558484 0.05353457 -0.40034044 -0.0007629739 0.082486756 0.10223469
0.10707982 0.064377375 -0.07651962 -0.11207883 -0.43002185 0.15067722 -0.25771362 -0.040285964
0.008433591 0.23394969 -0.19109872 -0.062403012 -0.015538878 0.010747671 0.059503306 0.024930842
0.071027674 0.06370446 0.012079552 0.22845542 -0.29336846 -0.078385435 0.49631152 -0.32112563
0.14747879 -0.04617443 0.20864828 -0.19807468 0.12166674 -0.18039611 0.02435133 0.034372106
0.08774886 -0.06414554 -0.02931729 -0.40871108 -0.03271962 0.062614694 -0.14454941 -0.0641167
-0.63709295 -0.043440606 -0.09749561 -0.0049855704 -0.1675581 -0.13511312 0.020083386 -0.04567824
-0.10453376 0.13677466 -0.1257331 0.044179235 -0.093314275 -0.12336544 0.0044016754 -0.2198774
0.075355284 0.01872503 0.30974466 -0.06524449 0.18718714 0.19065669 0.103416234 -0.03983974
-0.015765827 -0.22120135 -0.28195888 -0.07051214 0.07211924 -0.03319453 -0.13441606 -0.046560865
-0.10758171 0.11378993 0.13479887 -0.44590205 -0.30541354 0.17770053 -0.3980955 0.18016736
0.117878005 0.09637063 -0.09743379 -0.19519004 -0.018424988 0.062047035 -0.009981036 0.025427569
0.1317749 0.06044215 -0.3478247 -0.2505757 0.13692616 0.13498227 -0.17664711 0.041516826
-0.024848336 0.14247459 0.26722056 -0.047081668 -0.33573085 0.04083482 0.058221348 -0.04530976
0.09453253 0.027411005 0.2050512 0.1667461 0.0025067262 -0.02818855 0.0698587 -0.091806106
-0.21230704 -0.24095936 -0.33496353 0.081749864 0.07178259 0.057152234 0.13087235 -0.1208747
0.018068144 -0.0023902508 0.09944432 -0.06926716 0.12599012 0.07100998 -0.010520474 -0.05324524
-0.05542623 -0.13605584 -0.12954593 0.08516528 -0.1956006 0.24706052 -0.04133385 0.09004931
0.019100757 -0.107852675 -0.2916132 0.12575199 0.04880114 0.0478016 0.0425612 -0.0024069827
0.16879018 0.06581203 -0.055682044 -0.2848453 -0.062086273 -0.12286774 0.024585234 -0.031109363
0.14970389 -0.031899888 0.24471319 0.15735872 0.122101106 0.17193241 0.122987516 -0.1291177
-0.003525119 -0.094981395 -0.003857232 -0.002035318 -0.24807821 -0.05266805 0.23587692 -0.18047309
-0.036624406 0.35559475 -0.12731774 -0.092480235 0.0025806553 0.2120786 0.13677432 -0.20995231
0.18210407 -0.11736607 -0.6783452 -0.49607065 -0.03707658 0.016271362 -0.056779914 0.027448282
0.3927439 0.14173712 -0.14908107 0.026624102 -0.11658804 -0.094513424 0.022897474 -0.12638785
00000000: 244c 87ba 26a9 613c 9ce4 2fbd 20e3 95bd
00000010: 2dbc 6d3c 9992 513d 4417 8a3d 6b08 053d
00000020: 519a 93bd 2d72 6fbd 3409 96bd 3176 8e3d
00000030: 7710 f23d 47a6 45be 7f13 de3d 3b97 8c3e
00000040: 86f2 7abd c8e5 a2bd d434 ed3c b26b 483e
00000050: d14c 1d3e 3948 13bf bea4 f4bb 8d4e 64bd
00000060: 7ffd 4ebe fe6c 063c 92de 96bc 3d8b 82be
00000070: 8e05 61bf 5d54 823e 4cc9 c4bd 763b e7bd
00000080: c564 1abf 4065 5fbd 5aa2 1ebf 055b 1bbe
00000090: 2d54 cc3d c676 c2be bad2 9bbe c54b 1ebe
000000a0: 7235 69bd 0195 84bd c539 dfbc 653e 9a3e
000000b0: b1f3 9c3d 6410 4a3e 9664 c4bd ecef 84be
000000c0: 8680 263e 266c 05be abad dcbc c28b 2c3d
000000d0: 5831 4abe 621e c73d 1d32 383e 553b 9e3c
000000e0: fb80 a63d b451 67bc 2a60 ddbb 1147 5b3d
000000f0: 6cf9 ccbe 5002 48ba d1ee a83d 6c60 d13d
00000100: aa4c db3d 49d8 833d 52b6 9cbd 9689 e5bd
00000110: d32b dcbe 214b 1a3e 0af3 83be e502 25bd
00000120: 0b2d 0a3c 8290 6f3e 62af 43be 4d9a 7fbd
00000130: c796 7ebc 0017 303c bdb9 733d c43b cc3c
00000140: f576 913d 7c77 823d 50e9 453c 38f0 693e
00000150: 6434 96be 8b88 a0bd 8b1c fe3e 946a a4be
00000160: ae04 173e 6621 3dbd e5a7 553e 17d4 4abe
00000170: 692c f93d c2b9 38be 717c c73c c4c9 0c3d
00000180: adb5 b33d bd5e 83bd d02a f0bc 9442 d1be
00000190: 0205 06bd 223c 803d c304 14be 9e4f 83bd
000001a0: 8618 23bf c7ee 31bd c7ab c7bd ff5d a3bb
000001b0: 5a94 2bbe 185b 0abe ea85 a43c 1b19 3bbd
000001c0: cc15 d6bd a80e 0c3e 2ec0 00be 49f5 343d
000001d0: 8e1b bfbd 05a7 fcbd ee3b 903b 8b27 61be
000001e0: df53 9a3d 3c65 993c da96 9e3e e79e 85bd
000001f0: fcad 3f3e 823b 433e e4cb d33d ff2e 23bd
00000200: 5627 81bc 9b82 62be ea5c 90be ab68 90bd
00000210: 41b3 933d fdf6 07bd 5da4 09be 9bb6 3ebd
00000220: cd53 dcbd b20a e93d b708 0a3e 464d e4be
00000230: 2a5f 9cbe 21f7 353e 2cd3 cbbe cb7d 383e
00000240: 066a f13d f75d c53d 5e8b c7bd e6df 47be
00000250: 00f0 96bc 0825 7e3d 8087 23bc 7a4d d03c
00000260: 00f0 063e 3092 773d 1416 b2be 754b 80be
00000270: 5f36 0c3e cb38 0a3e fbe2 34be 8c0d 2a3d
00000280: bd8e cbbc dce4 113e 22d1 883e b5d8 40bd
00000290: eae4 abbe 6a42 273d 8279 6e3d ba96 39bd
000002a0: 459a c13d 0b8d e03c f1f8 513e 7dbf 2a3e
000002b0: e347 243b adeb e6bc 1412 8f3d d704 bcbd
000002c0: 0467 59be 0dbe 76be 5780 abbe 796c a73d
000002d0: c002 933d 7618 6a3d 6703 063e 288d f7bd
000002e0: a503 943c c1a5 1cbb 77a9 cb3d f1db 8dbd
000002f0: 8e03 013e ae6d 913d 115e 2cbc ae17 5abd
00000300: 9d06 63bd 3952 0bbe b0a7 04be 226b ae3d
00000310: 864b 48be 6ffd 7c3e af4d 29bd c66b b83d
00000320: 3179 9c3c dde1 dcbd 534e 95be 21c5 003e
00000330: b4e3 473d 9ccb 433d a754 2e3d 78be 1dbb
00000340: 55d7 2c3e 75c8 863d db12 64bd 3ed7 91be
00000350: 2d4e 7ebd 15a2 fbbd f966 c93c 10d9 febc
00000360: fa4b 193e 75a9 02bd 1896 7a3e a522 213e
00000370: 2510 fa3d 0d0f 303e e1e0 fb3d 6e37 04be
00000380: af05 67bb 9b85 c2bd 9dc9 7cbb f862 05bb
00000390: 3708 7ebe 74ba 57bd b889 713e f0cd 38be
000003a0: 7903 16bd 8410 b63e 955f 02be 4766 bdbd
000003b0: 3620 293b 222b 593e 910e 0c3e bdfd 56be
000003c0: 7d79 3a3e 9f5d f0bd 08a8 2dbf f9fc fdbe
000003d0: 9ddd 17bd 854b 853c 0e92 68bd 38db e03c
000003e0: ba15 c93e 8923 113e b5a8 18be ca1a da3c
000003f0: b6c5 eebd 4190 c1bd 7c93 bb3c d16b 01be

a2c_network.actor_mlp.2.weight f4 [256, 256]
0.011025972 -0.50641996 -0.014363682 0.08064656 -0.005352485 0.071833685 -0.15564233 -0.16752589
-0.20538394 0.019599078 -0.08727058 -0.06034347 -0.124166764 0.03263166 -0.26541197 -0.022516657
0.09495655 -0.7043326 -0.26612052 -0.16271171 -0.120862976 -0.37654507 0.025035791 0.09090431
-0.068212196 -0.1899334 -0.094826184 -0.10397521 -0.097106524 -0.21402374 -0.3684896 -0.12494618
-0.104274616 -0.025754943 -0.06487107 0.1463656 -0.13749366 -0.023583895 0.050693255 -0.16696247
-0.08463182 0.010419214 -0.12578802 -0.25709677 -0.1533778 -0.0816905 0.20494987 -0.11252812
-0.12896104 -0.18127832 0.032728333 -0.027819348 -0.17741017 -0.019748762 -0.062704235 -0.13939759
-0.33510917 0.042381432 -0.15464184 -0.22418831 0.026865648 -0.14342211 -0.0020327324 -0.12281372
-0.16451742 0.016501913 0.0018017401 -0.025834177 -0.2727893 -0.09078313 0.08550559 0.0063345074
-0.11810176 0.009604875 0.043455176 0.049322218 -0.09883566 -0.07766375 -0.07292135 -0.17906746
-0.14255872 -0.14805919 0.12020605 -0.16537328 0.29137346 -0.12889667 -0.040349923 -0.124492064
-0.15564524 0.018234195 -0.15474632 -0.36681408 -0.1798305 0.0606761 -0.040578347 -0.07788432
-0.08481282 0.0219397 0.029440274 0.07892338 0.006380765 -0.1713919 0.121216126 -0.026135912
-0.28155014 -0.07362604 0.045834333 -0.16486476 0.0034226058 -0.03237061 0.1794129 -0.2178764
-0.010634399 -0.19554642 -0.01020349 -0.13837248 0.008290216 0.14180388 -0.020494482 -0.017561179
-0.060137674 0.029788734 -0.13079399 -0.12323632 -0.039095886 -0.13628247 -0.11023962 -0.22047792
-0.10823309 -0.11301105 0.012867138 0.012142446 0.011267062 -0.052528184 -0.02377952 -0.09486987
0.039144695 -0.00623605 -0.07142915 -0.042009108 0.1911477 -0.27161822 -0.17247595 -0.07310458
-0.26669198 -0.02077702 -0.079732575 -0.24202946 -0.11709036 0.095202245 -0.13931437 -0.046123944
-0.032241505 -0.13736564 -0.041081343 0.11150793 -0.16641591 0.007177968 0.030296806 0.052438114
-0.30079052 -0.222474 -0.13632831 0.0069348854 -0.08196382 0.011148238 0.03574391 -0.2889474
-0.19491331 -0.14095585 -0.17712978 -0.22403426 -0.07769556 -0.07520661 -0.039839063 0.044086844
0.07212542 0.005592754 -0.14011505 -0.17603421 -0.046824727 -0.023425365 -0.089407496 -0.02231421
0.022784853 -0.060407836 -0.22814557 0.076359876 -0.19782357 -0.1433354 -0.099291205 -0.1000624
-0.11296367 -0.03186545 -0.10358401 -0.06824302 -0.02691604 -0.24220592 0.072593525 -0.17547399
-0.06236274 -0.14589362 -0.01607174 -0.12934707 -0.056699943 -0.09187912 0.09626618 -0.05340812
0.06571825 -0.15561819 -0.07896554 -0.1037765 0.02852732 -0.3793433 0.059526727 0.072791144
-0.16337293 0.050390452 -0.08710214 -0.16106914 -0.040139332 -0.033160206 -0.286773 0.054418027
-0.38222128 -0.027053101 -0.12900628 -0.10183623 -0.071694076 -0.0074230568 -0.17017905 0.092753366
0.047505807 -0.07075652 -0.114350095 -0.016136201 -0.13263884 -0.066990875 -0.07394961 0.032877028
-0.17479917 0.03892126 -0.14877367 -0.12856705 -0.021755096 -0.029794957 -0.07354742 -0.02052652
-0.041232105 -0.15734036 0.0309045 0.10056567 0.079388134 0.05107449 -0.10207563 -0.03575114
00000000: 47a6 343c bda4 01bf a655 6bbc 062a a53d
00000010: e663 afbb 8a1d 933d b460 1fbe e88b 2bbe
00000020: 2b50 52be 3f8e a03c ebba b2bd b72a 77bd
00000030: 254b febd c7a8 053d 14e4 87be da74 b8bc
00000040: 9478 c23d 244f 34bf f340 88be e69d 26be
00000050: 0287 f7bd 84ca c0be dc17 cd3c 0a2c ba3d
00000060: d6b2 8bbd e77d 42be 3b34 c2bd f4f0 d4bd
00000070: c9df c6bd 0a29 5bbe abaa bcbe c8e3 ffbd
00000080: ee8d d5bd 08fc d2bc 20db 84bd dde0 153e
00000090: 23cb 0cbe 0333 c1bc bba3 4f3d 36f8 2abe
000000a0: 7353 adbd 5ab5 2a3c 93ce 00be 30a2 83be
000000b0: 120f 1dbe 594d a7bd 61de 513e 2575 e6bd
000000c0: 5d0e 04be 06a1 39be 250e 063d 67e5 e3bc
000000d0: 03ab 35be 28c8 a1bc 146b 80bd 3ebe 0ebe
000000e0: 6e93 abbe 2798 2d3d 6e5a 1ebe 9f91 65be
000000f0: 5915 dc3c 3fdd 12be 9737 05bb c285 fbbd
00000100: 4177 28be 052f 873c 5e28 ec3a 32a2 d3bc
00000110: 0aab 8bbe 81ec b9bd 8e1d af3d b391 cf3b
00000120: 56df f1bd c45d 1d3c 0efe 313d 1806 4a3d
00000130: 5a6a cabd 2c0e 9fbd ca57 95bd 765d 37be
00000140: eafa 11be d49c 17be 972e f63d 9d57 29be
00000150: e72e 953e 7dfd 03be f645 25bd b2f5 febd
00000160: 7761 1fbe e15f 953c d275 1ebe 0ecf bbbe
00000170: 7d25 38be 8187 783d 7b35 26bd d081 9fbd
00000180: 58b2 adbd e3ba b33c bb2c f13c 95a2 a13d
00000190: bc15 d13b 5c81 2fbe 2940 f83d fb1a d6bc
000001a0: 5727 90be 40c9 96bd c8bc 3b3d 4fd2 28be
000001b0: cc4d 603b 0b97 04bd 04b8 373e fe1a 5fbe
000001c0: e73b 2ebc 523d 48be 8a2c 27bc 84b1 0dbe
000001d0: b0d3 073c 0935 113e 0be4 a7bc 76dc 8fbc
000001e0: ec52 76bd 8107 f43c dcee 05be 5363 fcbd
000001f0: 0223 20bd a28d 0bbe 4fc5 e1bd f7c4 61be
00000200: 4fa9 ddbd 5672 e7bd b0d0 523c 1cf1 463c
00000210: 7c99 383c cb27 57bd 45cd c2bc 224b c2bd
00000220: 3056 203d c757 ccbb 7249 92bd be11 2cbd
00000230: 39bc 433e 8b11 8bbe 899d 30be dbb7 95bd
00000240: da8b 88be 9234 aabc d54a a3bd 92d6 77be
00000250: 12cd efbd 65f9 c23d 6da8 0ebe 76ec 3cbd
00000260: ab0f 04bd 94a9 0cbe e944 28bd 455e e43d
00000270: ef68 2abe 2935 eb3b 0231 f83c 59c9 563d
00000280: 3701 9abe 39d0 63be a699 0bbe 093e e33b
00000290: a6dc a7bd 19a7 363c 3568 123d eaf0 93be
000002a0: 5b97 47be bb56 10be 8261 35be 3d69 65be
000002b0: da1e 9fbd ec05 9abd 492e 23bd 6894 343d
000002c0: 7eb6 933d 6c43 b73b 527a 0fbe 5042 34be
000002d0: 49cb 3fbd 8de6 bfbc 471b b7bd 4acc b6bc
000002e0: 4da7 ba3c 356e 77bd fe9e 69be 9162 9c3d
000002f0: 4392 4abe 84c6 12be 3059 cbbd 84ed ccbd
00000300: 7f59 e7bd 5985 02bd da23 d4bd ffc2 8bbd
00000310: 077f dcbc d404 78be eaab 943d 74af 33be
00000320: 1370 7fbd 2365 15be e2a8 83bc 8f73 04be
00000330: 333e 68bd 1f2b bcbd 3427 c53d 79c2 5abd
00000340: 4a97 863d 605a 1fbe afb8 a1bd c688 d4bd
00000350: 20b2 e93c 4939 c2be 4cd2 733d 8613 953d
00000360: 3c4b 27be 3866 4e3d 9b62 b2bd 4fef 24be
00000370: 2469 24bd ffd2 07bd e9d3 92be 70e5 5e3d
00000380: 82b2 c3be 779e ddbc 391a 04be 838f d0bd
00000390: 58d4 92bd 1d3d f3bb 6b43 2ebe 7af5 bd3d
000003a0: 7395 423d cbe8 90bd 6230 eabd 1130 84bc
000003b0: 7ad2 07be 8332 89bd e572 97bd 10aa 063d
000003c0: 8efe 32be e66b 1f3d 2058 18be 15a7 03be
000003d0: be37 b2bc 8e14 f4bc 08a0 96bd 3c27 a8bc
000003e0: ffe2 28bd d51d 21be 6f2b fd3c 60f5 cd3d
000003f0: 3f96 a23d 7c33 513d 070d d1bd ca6f 12bd

a2c_network.actor_mlp.2.bias f4 [256]
0.047665484 0.04742988 -0.019681053 -0.0256644 0.006884883 -0.006642919 -0.008978444 0.0102443155
-0.005011496 0.0286047 -0.19046265 -0.009584355 -0.013468811 0.06186053 -0.038952813 0.007527841
0.030797366 -0.009401338 -0.055310894 -0.04777636 -0.005711061 -0.023157494 -0.021911658 -0.18704346
-0.031114511 0.048952486 -0.019552404 -0.012469591 0.017199315 0.06808079 -0.09700474 -0.17871049
0.030124981 -0.01848615 -0.017271498 -0.18137519 0.00789678 0.025374416 -0.015632825 -0.028035967
0.025228495 0.019178089 0.023482256 0.0058875876 0.00046172112 0.03260838 0.025697133 -0.030743176
0.015611957 0.06308127 -0.12215975 0.048093904 -0.01843076 -0.027028034 0.004208335 0.021832826
0.024707794 -0.0014946957 -0.004240179 -0.013714048 0.0036197926 -0.06221043 0.039652787 0.04597336
-0.014762008 0.034992896 0.037768114 0.025872605 0.0069335494 0.034431145 -0.10896009 0.027681017
-0.027640447 0.028527552 -0.0032610174 -0.030679902 -0.0026039304 0.02067903 -0.009866437 0.0074817655
-0.09396927 0.049522884 -0.005696431 0.05782628 0.0250794 -0.009465118 -0.033969127 -0.03791171
-0.15429854 -0.016358426 -0.012962313 0.026352005 0.016297422 0.013371899 -0.029767696 -0.1408427
-0.030184561 -0.020329807 0.026527235 -0.0069898344 -0.25840572 -0.037384726 0.006189396 0.029741693
0.006935402 0.01063305 0.029503392 0.032778375 -0.005096052 -0.2184325 -0.00745099 -0.014282209
0.08300154 -0.061555486 -0.08450437 0.0377345 0.0031764177 -0.007126759 -0.036007408 -0.010168615
-0.03917362 -0.025907453 -0.025144435 0.009720907 -0.009423306 -0.006743819 -0.41182804 -0.009241333
-0.004554591 -0.13022003 -0.0066063027 -0.093448535 0.039340504 -0.03926789 0.00054844376 -0.03202579
-0.06856812 -0.23340444 -0.078783706 0.049282372 -0.008390692 -0.0030071954 -0.17216012 -0.072591044
0.083110705 -0.011501727 -0.0031380518 -0.044276554 -0.009936574 0.004183434 -0.016497722 -0.006101137
0.019790692 -0.0510717 0.007333596 0.0052708834 -0.026188362 -0.26335502 -0.4347113 0.030187272
-0.013104066 0.051618475 -0.021480495 -0.06785813 -0.035955504 0.0036336514 0.03991725 0.0038119028
-0.009638227 0.065614715 -0.03076682 0.031443395 0.009464925 -0.0037822088 0.004015492 0.012995476
0.08285416 0.01150158 0.00036548046 -0.01711303 0.021828655 0.06623502 -0.020689342 -0.05050163
0.082974814 0.0019188775 0.01416135 -0.01502125 -0.014450299 0.014869709 0.037724134 0.04183759
0.020296155 -0.16417983 0.0004886628 -0.019817743 0.032479648 -0.18973802 -0.060515653 0.022178771
0.065348625 -0.025253233 0.010596674 0.023735978 0.014427295 0.07692684 0.0014382649 0.03502231
-0.0013316727 0.020804351 0.012878229 -0.2434691 -0.015068235 -0.07462335 0.014059682 -0.008223245
-0.04900432 -0.01919274 0.021290323 0.033124026 0.032922164 -0.1323154 0.023910074 -0.14196779
0.031184513 -0.007814532 -0.027351499 0.01268294 -0.016482199 -0.019887352 0.018553361 0.00094767753
0.037643284 0.10050851 0.0009551749 -0.020814516 0.015429634 -0.012706447 0.024413224 -0.2085446
-0.039619323 0.01203373 0.01778656 0.058243033 0.00469732 0.025084471 0.008386229 0.050295606
0.0048814807 0.027362248 0.025201505 0.021612104 -0.13092381 0.023662556 -0.049789462 -0.011008911
00000000: e23c 433d d545 423d 293a a1bc 263e d2bc
00000010: 969a e13b d8ac d9bb 531a 13bc c6d7 273c
00000020: 7a37 a4bb 6754 ea3c a408 43be b307 1dbc
00000030: 4aac 5cbc 7861 7d3d fc8c 1fbd 1bac f63b
00000040: c24a fc3c 1208 1abc ad8d 62bd 25b1 43bd
00000050: da23 bbbb c9b4 bdbc 1480 b3bc 5288 3fbe
00000060: dce3 febc 6782 483d 5d2c a0bc 414d 4cbc
00000070: 94e5 8c3c f16d 8b3d 6caa c6bd e2ff 36be
00000080: aac8 f63c 4470 97bc f57c 8dbc 6bba 39be
00000090: 7f61 013c 02de cf3c 6910 80bc afab e5bc
000000a0: fdab ce3c 5e1b 9d3c dc5d c03c aaec c03b
000000b0: 2913 f239 5d90 053d cb82 d23c 1dd9 fbbc
000000c0: 4bc9 7f3c c130 813d e42e fabd 1dfe 443d
000000d0: 1bfc 96bc e569 ddbc 13e6 893b c1da b23c
000000e0: 0068 ca3c aae9 c3ba 33f1 8abb e3b0 60bc
000000f0: 0b3a 6d3b 5dd0 7ebd f66a 223d 904e 3c3d
00000100: 59dc 71bc b654 0f3d bdb2 1a3d c9f2 d33c
00000110: d432 e33b ac07 0d3d 7826 dfbd 4dc3 e23c
00000120: 386e e2bc 9db2 e93c cbb6 55bb 6b54 fbbc
00000130: b4a6 2abb 1267 a93c d6a6 21bc 9929 f53b
00000140: f672 c0bd 82d8 4a3d 20a9 babb 40db 6c3d
00000150: 5073 cd3c 9513 1bbc 3623 0bbd 4f49 1bbd
00000160: 7000 1ebe 1b02 86bc e25f 54bc 29e0 d73c
00000170: 2c82 853c cf15 5b3c 62db f3bc 1239 10be
00000180: 9d45 f7bc b28a a6bc a54f d93c fb0a e5bb
00000190: c14d 84be ba20 19bd 6bd0 ca3b daa4 f33c
000001a0: 5e42 e33b 3f36 2e3c 19b1 f13c 9e42 063d
000001b0: c8fc a6bb c5ac 5fbe 6f27 f4bb edff 69bc
000001c0: b6fc a93d 9b21 7cbd a110 adbd 7e8f 1a3d
000001d0: 722b 503b 9687 e9bb 817c 13bd 439a 26bc
000001e0: 8574 20bd de3b d4bc b4fb cdbc 7044 1f3c
000001f0: 3664 1abc 41fb dcbb 20db d2be f668 17bc
00000200: ae3e 95bb 6658 05be af79 d8bb f261 bfbd
00000210: 8223 213d 5ed7 20bd 70c5 0f3a 7a2d 03bd
00000220: 716d 8cbd 9301 6fbe 5a59 a1bd 50dc 493d
00000230: 1d79 09bc 5e14 45bb be4a 30be 9daa 94bd
00000240: f235 aa3d bd71 3cbc c6a7 4dbb 555b 35bd
00000250: 03cd 22bc 3015 893b 3b26 87bc 0cec c7bb
00000260: 1720 a23c 8f30 51bd a94e f03b 60b7 ac3b
00000270: fa88 d6bc 78d6 86be 7b92 debe 4c4b f73c
00000280: 70b2 56bc e56d 533d ddf7 afbc 34f9 8abd
00000290: 1446 13bd 8e22 6e3b 4580 233d 1ed1 793b
000002a0: a7e9 1dbc 0261 863d b30a fcbc caca 003d
000002b0: c612 1b3c efde 77bb 6394 833b faea 543c
000002c0: 71af a93d 1f71 3c3c f59d bf39 a030 8cbc
000002d0: 02d2 b23c 3aa6 873d b27c a9bc ccda 4ebd
000002e0: b3ee a93d d882 fb3a 0205 683c b01b 76bc
000002f0: f2c0 6cbc 14a0 733c 9f84 1a3d e55d 2b3d
00000300: 1f44 a63c c21e 28be 9b19 003a d258 a2bc
00000310: 6109 053d af4a 42be 43df 77bd 41b0 b53c
00000320: 80d5 853d dedf cebc ac9d 2d3c f471 c23c
00000330: 7660 6c3c d28b 9d3d 2984 bc3a 8e73 0f3d
00000340: 858b aeba e36d aa3c 35ff 523c f74f 79be
00000350: c2e0 76bc 20d4 98bd 955a 663c caba 06bc
00000360: c1b8 48bd 183a 9dbc 0b69 ae3c 0fad 073d
00000370: 64d9 063d b07d 07be 0fdf c33c 0160 11be
00000380: aa76 ff3c 8608 00bc 4010 e0bc 1bcc 4f3c
00000390: ad05 87bc cdea a2bc 38fd 973c 906d 783a
000003a0: d82f 1a3d 68d7 cd3d b464 7a3a 3483 aabc
000003b0: 93cc 7c3c b42e 50bc 3efe c73c b78c 55be
000003c0: df47 22bd 1f29 453c 1fb5 913c 3f90 6e3d
000003d0: faeb 993b f37d cd3c 6566 093c c402 4e3d
000003e0: d4f4 9f3b cb26 e03c 6373 ce3c de0b b13c
000003f0: e410 06be fad7 c13c 09f0 4bbd b85e 34bc

a2c_network.value.weight f4 [1, 256]
-0.0013064157 0.011095229 0.014378778 0.019975387 -0.08819286 0.012566902 0.015236168 0.027699651
-0.0088837575 0.00042562725 -0.033216357 0.010271511 0.00036682773 -0.013587412 -0.0036598425 -0.01573125
0.08354623 0.010265577 -0.057818837 -0.0086296 0.0051201154 -0.029323697 0.021889564 0.021610333
-0.003171046 -0.0057150843 0.016054777 0.004675749 0.004811512 -0.029060751 0.037433572 -0.054153286
-0.0026955872 -0.02432397 -0.006759709 -0.049941868 0.00325739 -0.0019106189 -0.042583443 -0.0031328693
-0.005344437 -0.0068751583 -0.0107909795 -0.0024772726 0.029443253 0.003160308 -0.008264782 -0.050188318
0.00070233014 0.00022538277 0.04431935 0.004789601 0.013727282 0.0052348175 0.006209904 0.009140212
0.01620057 -0.0083154235 -0.011925257 0.0077159526 0.016491907 -0.0658022 -0.020628614 -0.08507272
-0.0029587816 0.00337774 0.023883814 0.0135526825 0.01068608 0.018217808 -0.026967766 0.027878396
0.001109754 -0.016594993 0.005407266 0.004869949 0.082434 0.0034732316 -0.008239902 0.01751913
-0.043418236 0.0037532968 -0.006116544 -0.03144298 0.008590628 -0.008650084 0.001893835 0.050576825
-0.017115392 0.0074556037 -0.04492415 0.009302746 -0.018734122 0.013376321 -0.013930969 -0.17104018
0.008220699 -0.010838196 0.0056255576 0.00044039468 0.028302548 0.0045043477 0.005937279 -0.0023284238
-0.023298616 -0.005161511 -0.0041332715 0.010296598 -0.0038492023 0.012759624 -0.00929599 -0.0048252395
0.1925645 0.0051663136 0.005836728 0.039979454 0.013680445 0.011503553 0.029229883 -0.0196689
-0.02053552 0.008629533 -0.010505704 0.0051843054 0.016181152 0.12283257 -0.1998331 -0.020823395
-0.0076413658 0.06302899 0.02066767 0.04324622 0.015934208 -0.010524122 -0.00920149 0.108168095
-0.1241383 0.107932076 -0.0919548 -0.0019389747 -0.0026521212 0.008285173 -0.18979461 0.04573741
-0.010073589 0.0129261 0.137399 0.008182011 0.018243713 -0.012747104 0.11454695 0.0084114345
0.004141053 -0.03699166 -0.01456886 0.0042964667 -0.036684867 -0.18845859 -0.10569308 0.0064855865
-0.0069259964 -9.861237e-05 -0.03201038 0.037849847 0.0074786637 0.015391448 0.010079196 -0.0064193425
-0.0024238059 -0.063336246 0.0018948065 -0.0027139948 0.0099800965 0.0022926242 0.0038857905 0.004954243
0.005205186 -0.0184586 -0.012008059 -0.023913601 -0.021123165 0.031207882 0.0051761298 -0.0044429204
0.022242807 -0.0219399 0.04581752 -0.02443076 0.031090278 0.005286949 0.00409561 0.009455735
0.008259174 -0.030663673 0.0070586484 -0.01135151 -0.046795104 -0.13260137 0.03561643 -0.0082942275
-0.098446526 -0.015713774 0.02896672 0.021063155 0.029424515 0.03454159 -0.026865965 -0.026244078
0.019481054 0.016664173 -0.018449321 -0.01203605 -0.025047738 5.2366903e-07 -0.051304474 -0.015037481
-0.014911187 0.0008005445 -0.0261901 0.0065876977 0.028620828 0.054462466 0.004831768 0.0039433185
-0.013029259 -0.012327385 -0.006997183 -0.0056902664 -0.0028005238 -0.0059427116 -0.0017885033 0.034426704
0.003902248 0.08120312 -0.0021050973 -0.0058542276 0.0046968386 -0.00028447108 0.005878327 -0.080287114
-0.03043829 -0.012147244 -0.00053021125 -0.0003903659 -0.10805237 0.010393987 -0.0063619097 0.012060133
-0.1416207 -0.0026799084 0.0028521519 0.0032262949 -0.06917593 0.0022236921 0.04283717 0.029092921
00000000: 093c abba c3c8 353c f794 6b3c 6ca3 a33c
00000010: 759e b4bd 68e5 4d3c 1fa1 793c 61ea e23c
00000020: 2e8d 11bc b926 df39 e00d 08bd d749 283c
00000030: c952 c039 bd9d 5ebc f8d9 6fbb d3de 80bc
00000040: 491a ab3d f330 283c 72d3 6cbd 2a63 0dbc
00000050: a4c6 a73b 4038 f0bc be51 b33c 2708 b13c
00000060: 53d1 4fbb 9a45 bbbb 4f85 833c 0737 993b
00000070: e3a9 9d3b d010 eebc f253 193d d6cf 5dbd
00000080: 73a8 30bb 1043 c7bc 8d80 ddbb d88f 4cbd
00000090: f079 553b bb6d faba fa6b 2ebd d350 4dbb
000000a0: 6320 afbb 0249 e1bb a6cc 30bc bd59 22bb
000000b0: fa32 f13c 2c1d 4f3b 0269 07bc 4492 4dbd
000000c0: 941c 383a ba54 6c39 3588 353d 16f2 9c3b
000000d0: 65e8 603c d588 ab3b 737c cb3b d4c0 153c
000000e0: 0fb7 843c 6a3d 08bc 2762 43bc 1ad6 fc3b
000000f0: 091a 873c 4ec3 86bd 57fd a8bc 9b3a aebd
00000100: 1ee8 41bb 135d 5d3b fda7 c33c 120c 5e3c
00000110: ab14 2f3c 833d 953c 81eb dcbc 3c61 e43c
00000120: 2a75 913a 39f2 87bc 6f2f b13b 1894 9f3b
00000130: 28d3 a83d 289f 633b a700 07bc 4784 8f3c
00000140: 52d7 31bd dff9 753b 4a6d c8bb 5bca 00bd
00000150: b5bf 0c3c 15b9 0dbc 8f3a f83a a529 4f3d
00000160: 9435 8cbc 234e f43b 6302 38bd 8b6a 183c
00000170: 4d78 99bc 5b28 5b3c b83e 64bc 2825 2fbe
00000180: 1cb0 063c b092 31bc 9956 b83b c6e4 e639
00000190: bfda e73c 3599 933b 828d c23b 7898 18bb
000001a0: bddc bebc e421 a9bb 6570 87bb 10b3 283c
000001b0: e642 7cbb be0d 513c 354e 18bc 0b1d 9ebb
000001c0: a12f 453e 2e4a a93b 0642 bf3b 7fc1 233d
000001d0: f223 603c 6679 3c3c 8273 ef3c ac20 a1bc
000001e0: 1b3a a8bc e362 0d3c 1e20 2cbc 1be1 a93b
000001f0: 568e 843c a48f fb3d 0ca1 4cbe d395 aabc
00000200: 6c64 fabb 5815 813d 3f4f a93c f322 313d
00000210: 7588 823c 5e6d 2cbc d9c1 16bc 3c87 dd3d
00000220: 393c febd 7e0b dd3d cc52 bcbd 3225 feba
00000230: 36cf 2dbb 89be 073c 8559 42be 2757 3b3d
00000240: b20b 25bc fec7 533c 53b2 0c3e d70d 063c
00000250: d773 953c 3bd9 50bc 9797 ea3d 1dd0 093c
00000260: acb1 873b 9184 17bd 3ab2 6ebc 60c9 8c3b
00000270: df42 16bd 4afb 40be 9d75 d8bd 0b85 d43b
00000280: 78f3 e2bb 1dce ceb8 511d 03bd 7108 1b3d
00000290: 940f f53b 692c 7c3c 3623 253c 5959 d2bb
000002a0: b7d8 1ebb 6fb6 81bd 285b f83a 47dd 31bb
000002b0: 8f83 233c da3f 163b bfa8 7e3b 3457 a23b
000002c0: 4490 aa3b 7d36 97bc 73bd 44bc 75e6 c3bc
000002d0: 7d0a adbc aca7 ff3c 869c a93b eb95 91bb
000002e0: 8c36 b63c 4ebb b3bc 27ab 3b3d 0423 c8bc
000002f0: 0ab1 fe3c 253e ad3b 7834 863b 3aec 1a3c
00000300: 7d51 073c 6232 fbbc 3c4c e73b affb 39bc
00000310: 39ac 3fbd a7c8 07be 89e2 113d 83e4 07bc
00000320: 559e c9bd 2cba 80bc 9d4b ed3c a38c ac3c
00000330: ae0b f13c 7b7b 0d3d 0316 dcbc d2fd d6bc
00000340: bb96 9f3c 4e83 883c 0823 97bc da32 45bc
00000350: ea30 cdbc 4392 0c35 a424 52bd c45f 76bc
00000360: 0d4e 74bc a2db 513a 9f8c d6bc 9ddd d73b
00000370: 3a76 ea3c 0914 5f3d cf53 9e3b f436 813b
00000380: ac78 55bc cdf8 49bc a048 e5bb 6a75 babb
00000390: fe88 37bb 14bb c2bb 366c eaba 0403 0d3d
000003a0: dcbc 7f3b d24d a63d acf5 09bb d2d4 bfbb
000003b0: f0e7 993b 1025 95b9 fb9e c03b 926d a4bd
000003c0: b959 f9bc 3c05 47bc e0fd 0aba 06aa ccb9
000003d0: 904a ddbd 8b4b 2a3c 9177 d0bb dd97 453c
000003e0: 0405 11be 67a1 2fbb 2beb 3a3b 3f70 533b
000003f0: 1cac 8dbd 5dbb 113b 0776 2f3d 4754 ee3c

a2c_network.mu.weight f4 [6, 256]
0.19656189 -0.0025561412 -0.0018220614 0.00032906423 -0.0057722614 0.0004033558 0.0014094736 -0.0036522252
0.0033880367 -0.0042321943 -0.009277808 0.0014793662 0.0020762286 -0.0021405327 0.0022028598 -0.0012293323
-0.012305765 0.00080499763 0.14863823 -0.08992889 0.0019762702 -0.007579189 -0.00100728 -0.31690148
-0.0030392124 0.0029753263 -0.002424944 -0.0038642376 0.0012106665 -0.0035104123 0.11845029 0.09013098
-0.0015509663 -0.058392987 3.4243883e-05 -0.0095920665 -0.0021998738 0.0019442671 0.00046921926 0.00024260125
0.0010903729 0.0046022525 0.00063845847 -0.0015449042 0.0010731829 0.00030347434 0.0006934122 -0.107696146
0.0021211233 -0.0022094918 0.12209939 0.0014610816 -0.0027764775 0.00052647304 -0.0006197365 0.0026530072
0.00073095394 -0.00068056973 0.00072541885 0.0023641202 -0.00017340621 0.14357142 -0.002821954 0.10378549
0.002365063 -0.0074149924 -0.002392702 0.00091321557 -0.00068192586 9.9544195e-05 0.016683262 0.011232134
-0.0007447935 0.0044912505 0.003958306 0.0019257304 0.15168732 -0.0012718585 0.00502974 0.0017448282
0.06475115 -0.00014745058 -0.0015971189 -0.008532969 0.0014409466 0.0009723172 0.00042126875 0.15934576
-0.04926594 0.0006011476 0.027890453 0.0011915211 -0.0059632566 0.003042813 0.0036811 -0.04844614
0.0019117084 0.0004664703 -0.00090033555 0.00011420561 -0.20046261 -0.0012717122 0.0019800223 -0.00086492527
0.0010478655 -0.0027486368 0.0037030934 -0.0020430733 0.0022750827 -0.13048634 0.0009845907 0.0019032306
-0.008096452 0.041080803 -0.014460618 -0.04347889 9.243599e-05 0.0011338436 -0.011110672 0.00089537323
0.005024084 0.002772701 0.0026470094 0.0028836771 0.0031183404 0.0043995897 0.015850412 0.0018322229
0.005283699 0.046232626 -0.0032310009 -0.03322005 -0.0018212205 -0.06072637 0.0012222587 -0.00988972
-0.06271465 -0.14856242 -0.06302568 0.00064870453 -0.0030997577 -0.00016356648 -0.004357677 0.026048014
0.0012784159 0.0040502236 -0.009418614 0.00024149533 0.0010560704 0.00086862716 0.024977647 0.0021407693
0.0028586858 0.048336767 -0.0022274589 0.0011139356 0.0004186167 -0.08010107 0.15434873 0.001262052
-0.0024765662 -0.0020177683 0.005757626 0.05536364 0.0026879706 0.0010213738 -0.0021058298 0.0021007115
-0.002077018 -0.0067088287 0.0030720746 -0.0015064852 0.0015871992 0.00049849675 -0.0016713737 -0.0008420271
0.003024119 -0.0009590188 0.006521346 0.0024750135 0.0011645373 -0.0045281663 0.0041242 0.004213859
0.002608369 0.06769542 -0.00886516 -0.08929612 0.00060938636 0.0038952203 -0.003686638 0.00082320865
-0.0006135259 0.05573888 0.0018965511 -0.036966555 -0.02720787 -0.017072251 -0.07575995 0.0073137423
0.010564157 0.0019602855 0.004512298 0.00033987276 0.009079658 -0.0053801434 -0.003808034 0.0043671397
0.0036672386 -0.0008663072 0.00070898095 -0.032661058 -0.003107721 -0.056862503 0.01955727 -0.00060651434
0.007933636 -0.0021733686 -0.005381826 0.0025124317 -0.004674434 0.04453444 0.0068154484 0.15927246
0.0018800083 0.0026402452 0.0012133928 -0.0025447519 -0.0020386074 0.0028725846 0.0011098322 2.2239146e-05
0.0026649046 -0.010935158 0.0027987235 0.00047456403 0.0019629456 0.0022174276 0.0018309525 0.023797227
-0.017917056 0.005499912 0.00051179045 -0.0050018565 0.019360688 0.00079134054 -0.0015248273 0.0047532115
0.010879786 -0.0033869022 -0.002248354 -0.035980225 -0.015186007 -0.0012457627 -0.029588902 -0.0018664845
00000000: 8547 493e ef84 27bb 3cd2 eeba 4186 ac39
00000010: 3d25 bdbb 8079 d339 16be b83a 2c5a 6fbb
00000020: d309 5e3b 38ae 8abb f201 18bc 4be7 c13a
00000030: 5611 083b 2e48 0cbb db5d 103b 8c21 a1ba
00000040: 1f9e 49bc 7a06 533a 9f34 183e a32c b8bd
00000050: 5084 013b d85a f8bb b506 84ba e940 a2be
00000060: 862d 47bb b1fd 423b cfeb 1ebb 263f 7dbb
00000070: 3aaf 9e3a f20e 66bb 1196 f23d 9796 b83d
00000080: cb49 cbba 7c2d 6fbd 17a1 0f38 0b28 1dbc
00000090: c22b 10bb c7d6 fe3a 8b01 f639 c762 7e39
000000a0: d8ea 8e3a 7ece 963b 395e 273a 627e caba
000000b0: 0baa 8c3a a31b 9f39 1bc6 353a cc8f dcbd
000000c0: 8b02 0b3b 1fcd 10bb 3f0f fa3d c381 bf3a
000000d0: 90f5 35bb 0203 0a3a d075 22ba 13de 2d3b
000000e0: 7d9d 3f3a 4368 32ba 092a 3e3a 5bef 1a3b
000000f0: 60d4 35b9 6304 133e 88f0 38bb 7d8d d43d
00000100: 2cff 1a3b 77f9 f2bb e1ce 1cbb dc64 6f3a
00000110: 45c3 32ba 62c2 d038 56ab 883c fc06 383c
00000120: 3f3e 43ba 572b 933b adb4 813b ca68 fc3a
00000130: ec53 1b3e 7db4 a6ba 84d0 a43b b8b2 e43a
00000140: 409c 843d f79c 1ab9 6b56 d1ba decd 0bbc
00000150: 25de bc3a 1ae3 7e3a bcdd dc39 892b 233e
00000160: 15cb 49bd 5596 1d3a 857a e43c d02c 9c3a
00000170: 6c67 c3bb ee69 473b 9c3e 713b 766f 46bd
00000180: 4a92 fa3a 9590 f439 7f04 6cba ac81 ef38
00000190: 1246 4dbe 95af a6ba 43c3 013b 27bc 62ba
000001a0: 8858 893a 7922 34bb 99af 723b 15e5 05bb
000001b0: 8e19 153b 369e 05be 620d 813a d275 f93a
000001c0: fba6 04bc 5844 283d 3aec 6cbc ec16 32bd
000001d0: 32da c138 7a9d 943a 8909 36bc 7bb7 6a3a
000001e0: 12a1 a43b 34b6 353b 7379 2d3b 13fc 3c3b
000001f0: 125d 4c3b 6f2a 903b b9d8 813c 3327 f03a
00000200: e122 ad3b 6c5e 3d3d 33bf 53bb bf11 08bd
00000210: 05b6 eeba 37bc 78bd 3234 a03a 7e08 22bc
00000220: 8a70 80bd bf20 18be 9c13 81bd d30d 2a3a
00000230: 4e25 4bbb 0b83 2bb9 d8ca 8ebb a562 d53c
00000240: 8590 a73a bdb7 843b 8850 1abc e939 7d39
00000250: d86b 8a3a 95b4 633a ec9d cc3c 264c 0c3b
00000260: ca58 3b3b c6fc 453d 8ffa 11bb 7a01 923a
00000270: c879 db39 080c a4bd 980d 1e3e 706b a53a
00000280: e34d 22bb 893c 04bb 78aa bc3b fcc4 623d
00000290: aa28 303b 9edf 853a f601 0abb 17ac 093b
000002a0: 941e 08bb bcd5 dbbb dc54 493b 4175 c5ba
000002b0: 9109 d03a 8dad 023a ff11 dbba 7bbb 5cba
000002c0: 4c30 463b aa66 7bba 04b1 d53b d633 223b
000002d0: 63a3 983a 0361 94bb 4c24 873b 6914 8a3b
000002e0: 2cf1 2a3b e5a3 8a3d 2d3f 11bc e2e0 b6bd
000002f0: 3abf 1f3a f446 7f3b 869b 71bb 99cc 573a
00000300: 07d5 20ba 744e 643d b295 f83a 3e6a 17bd
00000310: 0ae3 debc 1bdb 8bbc 0828 9bbd 1ea8 ef3b
00000320: 4915 2d3c 2278 003b e6db 933b f330 b239
00000330: d9c2 143c ea4b b0bb 3590 79bb 391a 8f3b
00000340: 0e56 703b e418 63ba e8da 393a 9ac7 05bd
00000350: e8aa 4bbb a8e8 68bd 9136 a03c 7dfe 1eba
00000360: 15fc 013c 136f 0ebb 075a b0bb 9ca7 243b
00000370: ff2b 99bb bf69 363d 2054 df3b 5218 233e
00000380: 9c6a f63a f707 2d3b b50a 9f3a dac5 26bb
00000390: 289a 05bb f941 3c3b ca77 913a 348e ba37
000003a0: aea5 2e3b 6029 33bc ca6a 373b e8ce f839
000003b0: c3a4 003b 4352 113b 92fc ef3a 67f2 c23c
000003c0: cac6 92bc 9b38 b43b ad29 063a 9de6 a3bb
000003d0: 4e9a 9e3c f771 4f3a b7dc c7ba d4c0 9b3b
000003e0: 2141 323c caf6 5dbb 1f59 13bb 0060 13bd
000003f0: bbce 78bc dc48 a3ba 6d64 f2bc d4a4 f4ba

a2c_network.mu.bias f4 [6]
-0.14800225 0.012338609 -0.22503293 -0.026281452 -0.055931743 -0.42673168
00000000: e78d 17be e127 4a3c 086f 66be 334c d7bc
00000010: af18 65bd 937c dabe

exp_avg f4 [6]
-0.00019930938 0.00026150641 0.0014211657 0.0017187118 -0.00034488077 -0.00044246032
00000000: b4fd 50b9 cc1a 8939 6846 ba3a 6646 e13a
00000010: 1dd1 b4b9 05fa e7b9

exp_avg_sq f4 [6]
3.6240268e-05 3.756582e-05 3.8528546e-05 3.8977738e-05 3.9091752e-05 3.4824174e-05
00000000: b100 1838 fe8f 1d38 b699 2138 077c 2338
00000010: 73f6 2338 2c10 1238

exp_avg f4 [256, 40]
0.00018088377 -0.00018079471 -1.9727804e-06 -0.00018088377 -1.9727804e-06 0.0 -4.658427e-05 -0.00031611652
0.0003520475 0.00027655528 0.00018625346 0.00023639237 -0.0004011628 -0.00020987197 8.776119e-05 2.6468826e-06
0.00049581943 -0.00046780164 9.580668e-06 0.0002593566 -0.0002455488 -5.4599113e-06 3.7845497e-05 2.8595074e-05
-8.9647665e-06 -4.1433606e-05 5.547237e-05 9.204782e-05 -7.297015e-05 9.562921e-05 9.0122e-05 -6.39381e-08
0.0 -6e-45 2.9528118e-07 4.483272e-08 -6e-45 2.9528118e-07 -4.442585e-08 -6e-45
-0.00013041128 0.00013051573 3.041728e-08 0.00013041128 3.041728e-08 0.0 -0.0007776881 7.107982e-06
0.0008708065 -0.00010161771 0.001371732 0.00022087048 -0.00085237296 0.0003986276 0.00032290744 -6.220725e-05
-0.0006497044 0.00056925544 -1.6702157e-05 -0.0004474655 -0.00014638613 1.6554348e-05 -5.3432446e-05 2.2152975e-05
1.4474609e-05 -0.00014001454 7.105776e-05 4.9964256e-05 -4.3515197e-06 -0.000120177865 -7.647152e-05 2.823623e-07
0.0 -6e-45 -8.76592e-07 1.3089151e-07 -6e-45 -8.76592e-07 -1.3190784e-07 -6e-45
4.8298443e-05 -4.8157337e-05 -2.78389e-06 -4.8298443e-05 -2.78389e-06 0.0 -1.8661563e-05 0.00016953827
0.00051458174 -6.311902e-05 -6.841801e-05 0.00041568896 -1.372043e-05 -0.00026891666 -9.611611e-05 -8.662809e-06
0.000100782294 5.2094405e-05 8.380073e-06 2.9236127e-05 -0.00014867328 -1.1264073e-05 2.4814593e-05 -4.158831e-05
5.93664e-06 -4.5275123e-05 9.142384e-05 8.114107e-05 -4.3483305e-05 5.442372e-05 -1.07415835e-05 -9.8520685e-09
0.0 6e-45 -2.7807799e-08 8.174244e-08 6e-45 -2.7807799e-08 -8.1937436e-08 6e-45
0.00022273339 -0.00022264861 -6.0334276e-07 -0.00022273339 -6.0334276e-07 0.0 0.00055672234 -0.00029046254
0.00026564344 0.00042976852 -0.0003279526 0.0002756821 -0.00021446805 -0.00016379848 -0.0003807971 1.258219e-05
0.00022528638 -0.00025801215 -1.1454944e-05 9.906672e-05 -8.948904e-06 -5.630926e-06 -9.597664e-06 8.1020415e-05
8.646269e-06 -8.292308e-05 -1.167622e-05 1.7166343e-05 -3.3119097e-05 7.887131e-05 1.8273791e-05 3.1363698e-09
0.0 -6e-45 4.8121027e-08 -8.8644384e-08 -6e-45 4.8121027e-08 8.909096e-08 -6e-45
-0.0001767358 0.00017678906 -1.4648689e-06 0.0001767358 -1.4648689e-06 0.0 0.00035170742 -5.1251896e-05
-0.00025097627 0.00035981069 0.00015324006 -0.00019595337 0.00027826967 2.8736758e-05 0.00014021737 -3.966507e-06
-0.0003088346 0.00050227804 -1.382832e-06 -0.0001673877 0.00018808429 2.55717e-06 -3.805432e-05 -3.0288807e-05
3.2409083e-05 2.5984813e-05 5.5984525e-05 -1.4159438e-05 -4.9892184e-05 5.6233777e-05 -1.6066024e-05 1.15007346e-07
0.0 -6e-45 -3.3567133e-07 1.2013879e-09 -6e-45 -3.3567133e-07 -1.2621633e-09 -6e-45
3.1474256e-06 -3.2031442e-06 1.4466727e-06 -3.1474256e-06 1.4466727e-06 0.0 -0.00010190074 -0.00010614789
7.131578e-05 -5.6685425e-05 0.00023505682 -0.00010090822 -0.0003078578 9.15677e-06 5.4873777e-05 -6.5496797e-06
-0.00010420802 0.00013088965 -1.2419185e-05 -1.4999862e-05 5.2385934e-05 3.9725414e-06 -4.9377217e-05 1.4501257e-05
-1.342688e-06 -2.3358785e-05 4.0261516e-06 -3.087051e-05 -1.6349259e-05 3.3305707e-05 1.2037452e-05 3.145204e-08
0.0 -6e-45 -8.705261e-08 -7.1239484e-08 -6e-45 -8.705261e-08 7.0605445e-08 -6e-45
-0.00010380793 0.000103733735 2.0814814e-06 0.00010380793 2.0814814e-06 0.0 0.00054657913 -0.00013404358
-0.0009837757 0.0002656092 6.8607595e-05 -0.0005767297 0.00029352025 -0.0002658035 -0.00023739689 -2.8268626e-06
00000000: 9eab 3d39 b693 3db9 1c64 04b6 9eab 3db9
00000010: 1c64 04b6 0000 0000 7b63 43b8 71bc a5b9
00000020: 0493 b839 9ffe 9039 084d 4339 18e0 7739
00000030: 2953 d2b9 1411 5cb9 6e0c b838 19a1 3136
00000040: e1f9 013a 4643 f5b9 a8bc 2037 41fa 8739
00000050: 01bd 80b9 4834 b7b6 4bbc 1e38 74df ef37
00000060: 6167 16b7 ffc8 2db8 01ab 6838 cc09 c138
00000070: 8d07 99b8 8b8c c838 e1ff bc38 584e 89b3
00000080: 0000 0000 0400 0080 2387 9e34 198e 4033
00000090: 0400 0080 2387 9e34 bdce 3eb3 0400 0080
000000a0: 03bf 08b9 0ddb 0839 27a4 0233 03bf 0839
000000b0: 27a4 0233 0000 0000 c4dd 4bba 1a81 ee36
000000c0: d646 643a 981b d5b8 b0cb b33a 7899 6739
000000d0: c871 5fba e4fe d039 e74b a939 4375 82b8
000000e0: ed50 2aba 163a 153a 9c1b 8cb7 ce99 eab9
000000f0: 3a7f 19b9 31de 8a37 a71c 60b8 27d5 b937
00000100: f9d7 7237 ded0 12b9 d804 9538 b690 5138
00000110: 4503 92b6 0008 fcb8 565f a0b8 9497 9734
00000120: 0000 0000 0400 0080 f24e 6bb5 2f8b 0c34
00000130: 0400 0080 f24e 6bb5 8da2 0db4 0400 0080
00000140: 0f94 4a38 8cfc 49b8 ded2 3ab6 0f94 4ab8
00000150: ded2 3ab6 0000 0000 678b 9cb7 15c6 3139
00000160: ffe4 063a c45e 84b8 a47b 8fb8 d4f0 d939
00000170: cc30 66b7 62fd 8cb9 f291 c9b8 7b56 11b7
00000180: 155b d338 f17f 5a38 2498 0c37 1b40 f537
00000190: 2ee5 1bb9 d3fa 3cb7 ef28 d037 1c6f 2eb8
000001a0: 5933 c736 cbe5 3db8 cdba bf38 482a aa38
000001b0: d861 36b8 0645 6438 c036 34b7 db41 29b2
000001c0: 0000 0000 0400 0000 ffdd eeb2 628a af33
000001d0: 0400 0000 ffdd eeb2 95f5 afb3 0400 0000
000001e0: 8a8d 6939 c876 69b9 66f5 21b5 8a8d 69b9
000001f0: 66f5 21b5 0000 0000 01f1 113a 3949 98b9
00000200: 0f46 8b39 8e52 e139 0ef1 abb9 6d89 9039
00000210: d4e2 60b9 52c1 2bb9 b9a5 c7b9 1818 5337
00000220: da3a 6c39 ce45 87b9 9c2e 40b7 0ac2 cf38
00000230: 4023 16b7 49f1 bcb6 a705 21b7 81e9 a938
00000240: 710f 1137 fde6 adb8 fce4 43b7 7100 9037
00000250: 5ce9 0ab8 b667 a538 ab4a 9937 9a87 5731
00000260: 0000 0000 0400 0080 a1ad 4e33 c45c beb3
00000270: 0400 0080 a1ad 4e33 4652 bf33 0400 0080
00000280: 2852 39b9 7460 3939 839c c4b5 2852 3939
00000290: 839c c4b5 0000 0000 5f65 b839 4ef7 56b8
000002a0: 7795 83b9 f9a4 bc39 11af 2039 d578 4db9
000002b0: b9e4 9139 b80f f137 5007 1339 0918 85b6
000002c0: 14eb a1b9 4fab 033a bf99 b9b5 cb84 2fb9
000002d0: 7e38 4539 d99b 2b36 849c 1fb8 b814 feb7
000002e0: fdee 0738 f6f9 d937 edd0 6a38 538e 6db7
000002f0: 5343 51b8 8fdc 6b38 86c5 86b7 f5f9 f633
00000300: 0000 0000 0400 0080 5136 b4b4 141e a530
00000310: 0400 0080 5136 b4b4 6c78 adb0 0400 0080
00000320: 5c38 5336 99f5 56b6 4c2b c235 5c38 53b6
00000330: 4c2b c235 0000 0000 8bb3 d5b8 b79b deb8
00000340: 5e8f 9538 83c1 6db8 9679 7639 b09e d3b8
00000350: f967 a1b9 07a0 1937 4528 6638 52c5 dbb6
00000360: 418a dab8 6c3f 0939 fe5b 50b7 eba7 7bb7
00000370: f8b8 5b38 df4b 8536 621a 4fb8 6d4a 7337
00000380: 6936 b4b5 9cf2 c3b7 6118 8736 f57a 01b8
00000390: c425 89b7 bbb1 0b38 76f4 4937 e215 0733
000003a0: 0000 0000 0400 0080 aef1 bab3 52fc 98b3
000003b0: 0400 0080 aef1 bab3 c19f 9733 0400 0080
000003c0: 75b3 d9b8 a08b d938 94af 0b36 75b3 d938
000003d0: 94af 0b36 0000 0000 4e48 0f3a 0d8e 0cb9
000003e0: 09f2 80ba 7741 8b39 6ce1 8f38 ad2f 17ba
000003f0: 9fe3 9939 8b5b 8bb9 beed 78b9 21b5 3db6
