logs/rl_games/yam_cube_sort_8192/2026-02-01_05-04-52/nn/yam_cube_sort_8192.pth (torch, 951890 bytes, 30 tensors)

value_mean_std.running_mean f8 [1]
0	0x3fcccbb84a2edbc3	0.22496703741282262

value_mean_std.running_var f8 [1]
0	0x3fa6adc6d9d23dd8	0.04429456147147065

value_mean_std.count f8 []
0	0x41b5380001000000	355991553.0

running_mean_std.running_mean f8 [40]
0	0x3fefea0ad6e99034	0.9973196218020406
1	0x3f65c70bae049d45	0.0026583889122268355
2	0x3ef70d3222c69469	2.198366762375497e-05
3	0x3f65f526124a2a50	0.0026803725798505776
4	0x3ef70d3222c69469	2.198366762375497e-05
5	0x0000000000000000	0.0
6	0x3fc7c126879fd827	0.1855819856861569
7	0xbf9ee4a86713126f	-0.030169135371368613
8	0x3fc518bbdbec535c	0.16481731642184172
9	0x3fc7053b44239e69	0.17984715296846623
10	0xbfa02f36548caa8f	-0.03161020071123232
11	0x3fc51b42f8f1d043	0.16489445834634084
12	0x3fab050cd3fc81fd	0.052772904278985046
13	0x3fd34a1e27b52643	0.30139879110047135
14	0x3f632f80453b6da0	0.0023419862062447755
15	0x3fe86810f33b2fc9	0.7627033949479421
16	0x3fd371c142f7eab8	0.30381804981122285
17	0x3f6bd7638dba0680	0.003398603859580629
18	0x3fe8681280614401	0.7627041346951274
19	0x3fd356a1c7ff5ff2	0.30216259509097576
20	0x3f63322673719c9f	0.0023432494158899943
21	0x3fe8680f1591e721	0.7627025052345041
22	0x3f2ad8a2268a36e8	0.00020482043625629572
23	0x3f2778fd1ee48688	0.00017908182003005904
24	0xbf2574650ab97592	-0.0001636861173776425
25	0x3f32196e3b65611e	0.00027617398463554595
26	0x3f27856a2ba3b530	0.00017945214296536663
27	0xbf26fbfb28a3591d	-0.00017535630133264863
28	0x3f2c60e31de312df	0.0002165105096933106
29	0x3f266e03de67de87	0.0001711253855345327
30	0xbf245dd5c8bc3edb	-0.0001553843943544662
31	0x3fdd70a0b539a02b	0.45999925325168317
32	0x0000000000000000	0.0
33	0x3fe851eb7db52afb	0.7599999861934913
34	0x3fcc28fb7d58821c	0.2200006830253337
35	0x3fc1bc7bb65407f1	0.13856455233332057
36	0x3fe851eb7db52afb	0.7599999861934913
37	0x3fcc28fb7d58821c	0.2200006830253337
38	0xbfc1bc7bb65407f1	-0.13856455233332057
39	0x3fe851eb7db52afb	0.7599999861934913

running_mean_std.running_var f8 [40]
0	0x3f65e6465d1d894e	0.0026732801715506965
1	0x3f65b867b8ac9b16	0.002651407795741699
2	0x3ef70ec1277b16d6	2.198947410538592e-05
3	0x3f65e64374de2787	0.0026732747564368084
4	0x3ef70ec1277b16d6	2.198947410538592e-05
5	0x3e38212d9c74031e	5.6181108161908545e-09
6	0x3fa2726ab0a61ee9	0.036029180587375205
7	0x3f649a308b1e580e	0.00251492959155098
8	0x3f6210247fcfdd43	0.002204963004711098
9	0x3fa3b51cc3a74069	0.038491152652228085
10	0x3f662da3e6ba195d	0.0027073098370379704
11	0x3f6e91fe10630a01	0.0037317239940375395
12	0x3f8ea5f57949488d	0.014964978946555152
13	0x3f62f114c4b36cd5	0.002312222064217199
14	0x3f694b480b1362e0	0.0030876547904025026
15	0x3e91399b748f1357	2.566729234122612e-07
16	0x3f650d3ee15b2bfd	0.0025697925692376154
17	0x3f6a5b6cbba3483d	0.003217422837317434
18	0x3e8c85e3f3ca60a9	2.125129813415227e-07
19	0x3f63a164ba8c9cb6	0.00239629434181018
20	0x3f6a036fb301f5a0	0.0031754666925382785
21	0x3e8dafdd06b8261a	2.2118513541583846e-07
22	0x3f2f1e3c7a0f86cb	0.00023741234056644795
23	0x3f39452b5fe25c35	0.00038559254597586866
24	0x3f09b29f850930e9	4.901456180003863e-05
25	0x3f3375261ac9fce9	0.0002968996075551471
26	0x3f3a94373c971240	0.0004055628638435539
27	0x3f0e67d067b59722	5.799393417297976e-05
28	0x3f2daa2e3091a197	0.00022632421340352808
29	0x3f39257da2be40ac	0.000383704350263701
30	0x3f07cbdf3ac6bcb9	4.538798325214852e-05
31	0x3e3d3c69d4b9d541	6.807034335169913e-09
32	0x3e38212d9c74031e	5.6181108161908545e-09
33	0x3e43088edea0fd71	8.86313152395255e-09
34	0x3e394ccde2efee3d	5.890619144372347e-09
35	0x3e389862152eaf28	5.726527102267178e-09
36	0x3e43088edea0fd71	8.86313152395255e-09
37	0x3e394ccde2efee3d	5.890619144372347e-09
38	0x3e3898620ea44f28	5.726527011499128e-09
39	0x3e43088edea0fd71	8.86313152395255e-09

running_mean_std.count f8 []
0	0x41a5380002000000	177995777.0

a2c_network.sigma f4 [6]
0	0xbfff5fb4	-1.9951081
1	0xc0057dd2	-2.0858045
2	0xc004445c	-2.0666723
3	0xc025ef8d	-2.592746
4	0xc0234b96	-2.5514884
5	0x3ea960fb	0.33081803

a2c_network.actor_mlp.0.weight f4 [256, 40]
0	0x3dac79f5	0.08421699
1	0xbcfd44eb	-0.030916652
2	0xbe8f960e	-0.2804417
3	0x3db75bb4	0.08953038
4	0xbe82dc27	-0.25558588
5	0xbd8d9062	-0.069123045
6	0x3e208586	0.15675935
7	0xbbb2f16f	-0.00546091
8	0x3e39c1e9	0.18140377
9	0xbe1eec2a	-0.15519777
10	0xbe55eaf8	-0.20890415
11	0xbea0134b	-0.3126472
12	0x3d2a6384	0.04159881
13	0x3d45d80d	0.048301745
14	0xbc711589	-0.014714607
15	0x3f25624f	0.6460313
16	0xbd789491	-0.06068856
17	0x3b41aac2	0.0029551242
18	0x3f25cf20	0.6476917
19	0x3b411ce1	0.0029466676
20	0xbc871861	-0.016491117
21	0xbf5a3e53	-0.8525135
22	0xba97f660	-0.0011593811
23	0xbdb3b282	-0.08774282
24	0x3ee8d2bf	0.45473287
25	0xbd34bc15	-0.04412468
26	0xbd80f670	-0.06297004
27	0x3cab8042	0.020935182
28	0x3dd9cb07	0.106344275
29	0xbeac443d	-0.33645812
30	0xbd9163d2	-0.07099117
31	0x3e66e3c1	0.22547819
32	0x3e1bcbf3	0.15214519
33	0xbe0ab8bd	-0.13547035
34	0xbdb8dbd4	-0.09026304
35	0xbd061fbe	-0.032745115
36	0xbde4084f	-0.11134397
37	0x3e05be5a	0.13060895
38	0xbcc83d89	-0.024443405
39	0x3e016e74	0.12639791
40	0xbe0a261e	-0.13491103
41	0xbcd141c6	-0.025544059
42	0x3db6ea10	0.08931363
43	0xba9d2bd9	-0.0011991217
44	0x3dcfa2c3	0.10138466
45	0xbd19af1f	-0.037520524
46	0x3ed47772	0.4149738
47	0xbf16a252	-0.5884143
48	0xbe834cc5	-0.25644508
49	0xbdccaf8c	-0.099944204
50	0xbe2ca79a	-0.1686081
51	0x3e0cea0a	0.13761154
52	0x3c978c15	0.018499414
53	0x3c0b1727	0.008489407
54	0xbd737f74	-0.05944772
55	0x3e39c782	0.18142512
56	0x3d318490	0.043339312
57	0x3da45125	0.080232896
58	0x3e901ec8	0.28148484
59	0xbd53c21b	-0.051698785
60	0x3d1935b1	0.03740472
61	0x3e81ab93	0.25326213
62	0x3dccf8bf	0.10008382
63	0xbec9de49	-0.39427403
64	0x3e7c38a0	0.24630976
65	0xbd38e923	-0.04514421
66	0xbe8048db	-0.25055584
67	0xbe668d18	-0.2251476
68	0xbd6e6f3a	-0.058211543
69	0xbe929d2f	-0.28635547
70	0x3e891f74	0.2678181
71	0xbd86d86f	-0.0658425
72	0x3d479329	0.048724327
73	0xbe06cc6c	-0.13163918
74	0xbe336291	-0.17518069
75	0x3fa67459	1.3004256
76	0x3d261d65	0.040555377
77	0xbe5783e5	-0.21046408
78	0xbfb4c7ad	-1.4123436
79	0xbda16ffd	-0.07882688
80	0x3d14182c	0.036155865
81	0xbd5cd68e	-0.053915553
82	0xbeaaba9d	-0.333455
83	0xbe09b23a	-0.13446894
84	0xbedcaf89	-0.43102673
85	0xbdbcea62	-0.092243925
86	0xbdd0bcff	-0.10192298
87	0xbe345bca	-0.1761314
88	0x3d8397dc	0.06425449
89	0xbd13fd6a	-0.036130346
90	0x3dfe4551	0.12415565
91	0xba2cd0a3	-0.00065923686
92	0xbd949613	-0.07255187
93	0x3d6de47a	0.05807922
94	0xbc5ccd4c	-0.013476681
95	0xbda12bb5	-0.078696646
96	0x3bb783fc	0.0056004506
97	0xbd05696c	-0.03257124
98	0xbea4a2bf	-0.32155415
99	0x3d53a6b3	0.05167265
100	0x3c6d0ae8	0.014467932
101	0xbebe895b	-0.3721417
102	0xbdf6ed5d	-0.12056992
103	0xbdcaaaf3	-0.09895887
104	0x3e97cb05	0.2964708
105	0xbe59b3b4	-0.21259958
106	0x3da06146	0.078310534
107	0x3e86f0ba	0.26355535
108	0xbd308823	-0.04309858
109	0xbddb1c32	-0.10698737
110	0xbc4c0c12	-0.01245405
111	0xbd61de73	-0.055143785
112	0xbc8df11a	-0.01732688
113	0xbdd06776	-0.101759836
114	0x3f040773	0.51573867
115	0x3dc0b8b8	0.09410232
116	0x3dcf08cd	0.101091005
117	0x3edac536	0.42728585
118	0xbe25eaab	-0.162028
119	0xbd8d19c2	-0.068896785
120	0xbd983395	-0.074317135
121	0x3e96b639	0.294359
122	0x3dbe3158	0.09286755
123	0x3d8eaf35	0.06967012
124	0x3e0e3ca0	0.13890314
125	0xbcc25128	-0.023720339
126	0xbde9b71b	-0.11411878
127	0xbdc97b02	-0.09837915
128	0x3ddee2ef	0.10883128
129	0x3d29c12e	0.041443996
130	0x3cc8fc34	0.024534322
131	0xbe1cc922	-0.15311101
132	0x3e1461f6	0.14490494
133	0xbd307aa6	-0.043085717
134	0x3d933a35	0.071888365
135	0xbbba2fb9	-0.0056819585
136	0x3e0f06c7	0.13967429
137	0xbdeb8a40	-0.115009785
138	0xbd2d6a82	-0.042337902
139	0x3cff8d71	0.031195374
140	0x3d7a6ceb	0.06113903
141	0xbe48abf0	-0.19596839
142	0x3e356a9f	0.17716454
143	0x3ad8a071	0.0016527307
144	0x3e85d7f3	0.2614132
145	0x3ecac785	0.39605346
146	0xbe1debe0	-0.1542201
147	0x3e363b9a	0.17796174
148	0x3d0d8f3d	0.03456043
149	0xbe264b21	-0.16239597
150	0x3e046d5e	0.12932345
151	0x3c54146b	0.012944321
152	0x3dcefc78	0.10106748
153	0x3dffe960	0.124956846
154	0xbe802757	-0.25030014
155	0xbe21a503	-0.15785603
156	0xbc0d358d	-0.0086187245
157	0xbe79f238	-0.24408805
158	0x3e2259a3	0.15854506
159	0x3d08bc70	0.033382833
160	0xbe259d7f	-0.16173361
161	0xba6f1df0	-0.00091215875
162	0xbed748bb	-0.42047676
163	0x3db1818e	0.08667289
164	0xbf0fbe35	-0.5614961
165	0xbdc33b35	-0.09532777
166	0xbe21c4ee	-0.15797779
167	0xbd3af27d	-0.04564141
168	0xbe0db34c	-0.13837928
169	0x3dbc2e94	0.091885716
170	0x3d107c3b	0.035274725
171	0x3e68d9ca	0.2273933
172	0xbbdc1cbe	-0.0067172935
173	0x3cd6fa9c	0.026242547
174	0xbd06978f	-0.03285938
175	0xbe01cca6	-0.12675723
176	0xbc911bf7	-0.01771353
177	0x3b19f86a	0.0023494014
178	0xbe2b2827	-0.16714536
179	0x3bbee3c6	0.0058254926
180	0x3c3c4116	0.011490127
181	0xbd0a513c	-0.033768877
182	0xbe5daa54	-0.21647006
183	0xbd8ca69a	-0.06867714
184	0xbc11bda7	-0.008895314
185	0xbe3ad59e	-0.18245551
186	0x3db13268	0.08652192
187	0x3c85ea57	0.016347094
188	0xbcb4e7d8	-0.022083208
189	0xbe4d0079	-0.20019712
190	0x3e3b5f17	0.18297993
191	0x3eb72626	0.35771292
192	0x3d9b776e	0.07591139
193	0x3e08b2d2	0.13349465
194	0x3d4589f8	0.04822728
195	0x3eaab639	0.3334215
196	0xba9127b5	-0.0011074456
197	0xbe1e914c	-0.15485114
198	0xbedbd736	-0.4293763
199	0xbe16fd47	-0.14745055
200	0x394fb1b7	0.00019807262
201	0xbd5a0e7d	-0.053236473
202	0x3e5f60fa	0.21814337
203	0xbc9de122	-0.01927239
204	0x3e6275ab	0.221152
205	0xbde3e9f3	-0.11128607
206	0xbe1dbd1b	-0.1540417
207	0x3dcc345b	0.099709235
208	0xbb1f2a62	-0.0024286737
209	0x3e2bbc35	0.16771014
210	0xbbf35b9f	-0.0074266936
211	0xbdb12443	-0.086494945
212	0xbcd77ff8	-0.026306137
213	0x3d413889	0.047173057
214	0x3c7e73e9	0.015530565
215	0xbe347ec0	-0.17626476
216	0xbd235d7f	-0.039884087
217	0x3c9adbc0	0.018903613
218	0xbdbbc94e	-0.09169255
219	0x3d8a6403	0.06757357
220	0x3dacb0fc	0.084321946
221	0xbeaa0075	-0.33203474
222	0x3d62224f	0.0552085
223	0xbca31b66	-0.019910526
224	0x3d1e8c59	0.038708065
225	0xbd49c9b2	-0.049264617
226	0xbe22b380	-0.15888786
227	0xbd843ec5	-0.06457285
228	0xbd12312e	-0.035691433
229	0xbe0ec300	-0.13941574
230	0x3dfe72e9	0.12424261
231	0xbee285be	-0.44242662
232	0x3dc90695	0.098157085
233	0x3e076848	0.13223374
234	0x3f52046b	0.8203799
235	0x3e62af27	0.22137128
236	0xbded88f8	-0.1159839
237	0x3f34d694	0.7063992
238	0xbe329f5f	-0.17443608
239	0xbe12e2c4	-0.14344317
240	0xbdc2294d	-0.09480534
241	0x3d44b56e	0.048024587
242	0xbec003a3	-0.37502775
243	0xbca98147	-0.020691527
244	0xbeda067d	-0.42583075
245	0xbd4d98e9	-0.050194655
246	0xbe643aa6	-0.22287998
247	0x3e52cc5d	0.20585771
248	0x3e258a72	0.16166094
249	0x3da1f640	0.079082966
250	0xbe138e4e	-0.14409754
251	0xbd77cca3	-0.06049789
252	0xbea62f75	-0.32458082
253	0xbde468b2	-0.111527815
254	0x3db02246	0.08600287
255	0x3f21f4da	0.6326424

a2c_network.actor_mlp.0.bias f4 [256]
0	0xbd373207	-0.044725444
1	0x3caeb189	0.02132489
2	0x3c629e94	0.013831753
3	0xbda115d1	-0.07865489
4	0x3d024027	0.03179946
5	0x3dd0f3fa	0.10202785
6	0x3dc5b753	0.09654107
7	0x3d8e448e	0.069466695
8	0xbd865e81	-0.06560994
9	0xbd713abd	-0.058893908
10	0x3d282c48	0.041057855
11	0x3dbe372f	0.09287869
12	0x3da1074e	0.078627214
13	0xbde7c684	-0.11317161
14	0x3dc158ea	0.09440787
15	0x3e900a54	0.2813288
16	0x3b8033ad	0.0039124102
17	0xbd60ccc6	-0.054882787
18	0x3d2ea82d	0.042640854
19	0x3e29f2c5	0.16596515
20	0x3e10b22e	0.1413047
21	0xbf1004e4	-0.5625746
22	0xbbab0228	-0.005218763
23	0xbd62b432	-0.05534763
24	0xbe685756	-0.22689566
25	0xbc159733	-0.009130287
26	0xbc5a47f4	-0.013322819
27	0xbebde4a3	-0.37088498
28	0xbf6f4c8e	-0.9347619
29	0x3e99345b	0.29922757
30	0xbda1e1f7	-0.079044275
31	0xbdb5d410	-0.08878338
32	0xbf16996e	-0.58827865
33	0xbde24c25	-0.1104968
34	0xbf2da2eb	-0.6782672
35	0xbe14de82	-0.14538005
36	0x3ddccdaa	0.10781415
37	0xbeaf8834	-0.34283602
38	0xbe9c36d9	-0.30510595
39	0xbe2e6969	-0.17032398
40	0xbd33a707	-0.04386046
41	0xbd25d25b	-0.040483814
42	0xbd47ef21	-0.048812035
43	0x3e9cfbad	0.30660763
44	0x3d8661b2	0.06561603
45	0x3e520b59	0.20512141
46	0xbe217e06	-0.1577073
47	0xbe7b717b	-0.24555008
48	0x3e5d095e	0.21585605
49	0xbe067cc6	-0.13133535
50	0xbd77e274	-0.060518697
51	0x3d7e6b7b	0.06211422
52	0xbe56652e	-0.20937034
53	0x3db8aff5	0.09017936
54	0x3e21a684	0.15786177
55	0xbcacc553	-0.021090185
56	0x3d89a7b5	0.06721441
57	0xbc3c69e3	-0.011499855
58	0xbcf887f2	-0.030338261
59	0x3d72f185	0.059312362
60	0xbec9ff43	-0.39452562
61	0xbd502826	-0.05081954
62	0x3da7e778	0.08198446
63	0x3d3c210a	0.045929946
64	0x3dda327b	0.1065416
65	0x3d3e9389	0.04652742
66	0xbd84b1b4	-0.06479207
67	0xbdfa92d7	-0.12235039
68	0xbeda5545	-0.4264318
69	0x3e10afdc	0.14129585
70	0xbe8b6485	-0.27225128
71	0xbced1302	-0.028939728
72	0xbd6606c2	-0.05615879
73	0x3eabfbc4	0.3359052
74	0xbe25380f	-0.16134666
75	0xbd5eb012	-0.054367132
76	0xbd584e56	-0.052809082
77	0xbd127ddf	-0.03576457
78	0x3e211235	0.15729602
79	0xbc0d2151	-0.0086139
80	0x3d8219ec	0.063526005
81	0x3c086de5	0.008326982
82	0x3db4cb04	0.08827785
83	0x3e666562	0.22499612
84	0xbe9f93c0	-0.31167412
85	0xbd283158	-0.041062683
86	0x3f03c3e7	0.514708
87	0xbe9b0263	-0.30275258
88	0x3e119ec9	0.14220728
89	0xbd481929	-0.04885212
90	0x3e590f34	0.21197206
91	0xbe56643e	-0.20936677
92	0x3dfd4490	0.12366593
93	0xbe5886f7	-0.21145235
94	0x3e09db39	0.13462533
95	0x3d84376c	0.064558834
96	0x3d991f4d	0.07476673
97	0xbd3ef1eb	-0.04661743
98	0xbc829748	-0.015941277
99	0xbede66cd	-0.43437806
100	0xbc05e157	-0.008171401
101	0x3da0ec96	0.07857625
102	0xbdec5edf	-0.11541533
103	0xbdbe5593	-0.09293666
104	0xbf1cf639	-0.61313206
105	0xbd462af1	-0.048380796
106	0xbe0af8d5	-0.13571484
107	0x3c140dca	0.009036491
108	0xbe32b2b5	-0.17450984
109	0xbe186047	-0.14880477
110	0x3d534c82	0.051586635
111	0xbd4c2448	-0.049839288
112	0xbdf121c0	-0.117740154
113	0x3e1381b5	0.14404948
114	0xbdaf8433	-0.08570137
115	0xbc8e0b17	-0.017339272
116	0xbdd4cf4b	-0.103911005
117	0xbe072f5f	-0.13201664
118	0xbb670fb7	-0.003525717
119	0xbe74b6c3	-0.23897843
120	0x3db9180a	0.09037788
121	0xbcca667c	-0.024707071
122	0x3e9fc7e3	0.3120719
123	0xbdcfac59	-0.101402946
124	0x3e5e0a2f	0.21683572
125	0x3de968da	0.11396952
126	0x3e2bf775	0.16793616
127	0xbd7f8800	-0.06238556
128	0x3d1e4739	0.038642142
129	0xbe2e1418	-0.16999853
130	0xbea280cc	-0.3173889
131	0xbd7ef287	-0.06224301
132	0x3d73d201	0.059526447
133	0x3d02835d	0.03186356
134	0xbdf34ff0	-0.11880481
135	0xbda1d071	-0.07901085
136	0xbe06e7de	-0.13174388
137	0x3db275b5	0.08713857
138	0x3e1ca9dc	0.15299171
139	0xbef4972a	-0.4777158
140	0xbeba7b6e	-0.36422294
141	0x3e46fec4	0.19433123
142	0xbeded5cf	-0.43522498
143	0x3e57008c	0.20996302
144	0x3e0c45e3	0.13698535
145	0x3e07eaba	0.13273135
146	0xbdf26cbb	-0.11837145
147	0xbe60c0ef	-0.21948598
148	0xbd3abcc1	-0.045590166
149	0x3d33f5e0	0.043935657
150	0xbca9ce52	-0.020728264
151	0x3c96b022	0.018394534
152	0x3dfb92bc	0.12283847
153	0x3d41ff7b	0.047362786
154	0xbe921835	-0.28534093
155	0xbe89485c	-0.26813018
156	0x3db1fb7b	0.08690544
157	0x3df67493	0.120339535
158	0xbe4404a0	-0.1914239
159	0x3d112f6e	0.035445623
160	0xbd002007	-0.031280544
161	0x3e26b7b3	0.16281013
162	0x3e858855	0.26080576
163	0xbd459f79	-0.048247788
164	0xbe9ba4e8	-0.3039925
165	0x3d1ec5d7	0.038762894
166	0x3dd1090b	0.10206803
167	0xbd603464	-0.054737464
168	0x3da7e6e2	0.08198334
169	0x3d08b61b	0.033376794
170	0x3e5d3f8c	0.21606272
171	0x3e34a47b	0.1764087
172	0xbde8b695	-0.1136295
173	0xbd960b35	-0.07326356
174	0x3c404c3e	0.011736928
175	0xbdcb454e	-0.09925328
176	0xbe2dbb35	-0.16965945
177	0xbe6d9c53	-0.23204164
178	0xbe9e2390	-0.30886507
179	0x3dab42c8	0.08362347
180	0x3ca6a564	0.020342536
181	0x3caea335	0.021318058
182	0x3ded327f	0.11581897
183	0xbdf9b463	-0.12192609
184	0x3ce94673	0.028475976
185	0xbbf48c85	-0.0074630403
186	0x3d856868	0.065140545
187	0xbd903cc1	-0.07042838
188	0x3e4dcaac	0.20096844
189	0x3d8f9bf8	0.070121706
190	0xbd1dd89f	-0.038536664
191	0xbd91ccb5	-0.07119123
192	0xbd9f1e3e	-0.0776944
193	0xbe3c277c	-0.18374437
194	0xbdf374cf	-0.11887514
195	0x3da90c85	0.08254341
196	0xbe73313e	-0.23749253
197	0x3e561c5a	0.20909253
198	0xbcc13a9c	-0.023587517
199	0x3dd09e8d	0.10186491
200	0x3bbbf645	0.0057361447
201	0xbdcc07d3	-0.0996243
202	0xbe94a729	-0.29033783
203	0x3d64ebab	0.055888813
204	0x3daf72d6	0.08566825
205	0x3cb80a5c	0.022465877
206	0x3d4146f3	0.047186803
207	0xbcdf493d	-0.027256602
208	0x3e81be15	0.25340334
209	0x3d63bac0	0.05559802
210	0xbcee8e0a	-0.029120464
211	0xbe9a07ae	-0.30083984
212	0xbdb671cf	-0.08908426
213	0xbe0a2cba	-0.13493624
214	0x3d4fbe87	0.05071881
215	0xbab00183	-0.0013428185
216	0x3e350ed6	0.1768144
217	0xbd07c3ea	-0.033145823
218	0x3e554443	0.20826821
219	0x3e0f0c19	0.13969459
220	0x3df66285	0.1203051
221	0x3e2b34a9	0.16719307
222	0x3d6133d9	0.054981086
223	0xbdfb75f5	-0.12278358
224	0xbc82ef47	-0.015983237
225	0xbd92a2d6	-0.07159965
226	0x3c18b7da	0.009321177
227	0x3c3f2c08	0.011668213
228	0xbe727928	-0.2367903
229	0xbd444d01	-0.047925
230	0x3e69b3d6	0.22822508
231	0xbe25c4d0	-0.1618836
232	0xbd23db79	-0.040004227
233	0x3ebb1d4f	0.36545798
234	0xbdd65294	-0.10464969
235	0xbdb04288	-0.0860644
236	0xbca507fd	-0.02014541
237	0x3e665f80	0.22497368
238	0x3de83c73	0.11339655
239	0xbe2a56fc	-0.16634744
240	0x3e3fd990	0.18735337
241	0xbe21bdb5	-0.15795024
242	0xbf1479eb	-0.5799853
243	0xbedf2918	-0.4358604
244	0xbc8659d0	-0.016400248
245	0x3c68234b	0.014168571
246	0xbd851227	-0.06497603
247	0x3c9b918c	0.0189903
248	0x3eb5e714	0.3552786
249	0x3e02da87	0.12778674
250	0xbdb81009	-0.089874335
251	0x3cc93ce6	0.024565171
252	0xbdf89871	-0.12138451
253	0xbe1e7f07	-0.15478145
254	0xbc32264d	-0.010873389
255	0xbdece676	-0.115673944

a2c_network.actor_mlp.2.weight f4 [256, 256]
0	0x3c975092	0.018471036
1	0xbefca07d	-0.49341193
2	0x3d2fad2a	0.04288975
3	0x3e04a991	0.1295531
4	0xbd19938c	-0.037494227
5	0x3d859960	0.065233946
6	0xbe4a6516	-0.19765124
7	0xbe1759ec	-0.14780396
8	0xbe157492	-0.1459525
9	0x3d02f611	0.03197295
10	0x3cadff07	0.02123977
11	0x3d0c3d4a	0.034238137
12	0xbdb8483b	-0.08998152
13	0x3d2354ee	0.039875917
14	0xbeae579a	-0.3405121
15	0xbd321cc0	-0.04348445
16	0x3de800a9	0.11328251
17	0xbf361527	-0.71126026
18	0xbe54e02b	-0.20788638
19	0xbe991721	-0.29900458
20	0xbe7b3ea4	-0.24535614
21	0xbea70297	-0.32619163
22	0x3daaec12	0.08345808
23	0x3e6967e5	0.22793539
24	0xbcf53250	-0.029931217
25	0xbdec1958	-0.115282714
26	0xbe56b631	-0.20967938
27	0xbe21ad8c	-0.15788859
28	0x3de00aae	0.10939537
29	0xbeab07b3	-0.33404312
30	0xbebabb14	-0.36470854
31	0xbe16a8a1	-0.14712764
32	0xbc7e2b03	-0.0155131845
33	0xbd048093	-0.03234918
34	0x3d293dcc	0.0413187
35	0x3e2e78fe	0.17038342
36	0xbeb1868b	-0.3467296
37	0x3df8394b	0.12120303
38	0x3dac4757	0.084120445
39	0xbe19b974	-0.15012151
40	0xbdc4f39b	-0.096167766
41	0xbd978c86	-0.073998496
42	0xbe055d4a	-0.13023868
43	0xbe91d896	-0.28485554
44	0xbe476eab	-0.1947581
45	0xbdc2c748	-0.09510666
46	0x3e893204	0.2679597
47	0xbde78b5a	-0.11305876
48	0xbe5e299f	-0.21695565
49	0xbdeb8b81	-0.11501218
50	0x3c771e19	0.015082859
51	0x3d07026d	0.032961298
52	0xbe2f73ce	-0.1713402
53	0xbcb0b5c9	-0.021571057
54	0xbd9cb09c	-0.07650873
55	0xbe446b0d	-0.19181462
56	0xbed56097	-0.41675255
57	0x3d8ae317	0.06781595
58	0xbe6c4e8f	-0.23076843
59	0xbeb3c169	-0.35108498
60	0x3c3820b3	0.011238265
61	0xbdf0f8d5	-0.11766211
62	0x3d8aec57	0.067833595
63	0xbde7e82c	-0.1132358
64	0xbe2ccf1e	-0.16875884
65	0x3d5e2800	0.054237366
66	0x3c981355	0.018563906
67	0x3d80d9c0	0.062915325
68	0xbe7501c6	-0.23926458
69	0xbe38a653	-0.18032198
70	0x3e5853ea	0.2112576
71	0xbdb2cdb0	-0.08730638
72	0xbdc33965	-0.095324315
73	0xbd9581eb	-0.073001705
74	0x3d31065f	0.043218967
75	0x3d71df2c	0.059050724
76	0xbe5fa33e	-0.21839616
77	0xbddf0c5c	-0.10891029
78	0xbcec231c	-0.028825335
79	0xbe81a675	-0.2532231
80	0xbdbd9731	-0.09257353
81	0xbdf0a427	-0.117500596
82	0x3e18928f	0.14899658
83	0xbe79ca28	-0.24393523
84	0x3eba80c0	0.36426353
85	0xbe36d83c	-0.17855924
86	0xbe105e7c	-0.14098543
87	0xbdcdbbd4	-0.10045591
88	0xbe22afa5	-0.15887316
89	0x3cada622	0.021197382
90	0xbe37a094	-0.1793235
91	0xbed5c463	-0.41751394
92	0xbe81ddfd	-0.25364676
93	0x3de1426d	0.10998998
94	0x3dd44467	0.10364609
95	0xbd3ffc67	-0.04687157
96	0xbe1b9e32	-0.15197065
97	0xbd8a41d0	-0.06750834
98	0xbbd5d2ea	-0.006525387
99	0x3e3e2c18	0.18571508
100	0xbcad24c9	-0.021135705
101	0xbe669aa6	-0.22519931
102	0x3e3629dc	0.17789406
103	0xbd4f3ad4	-0.050593212
104	0xbe639f8b	-0.2222883
105	0xbc140a92	-0.009035723
106	0x3d95e42e	0.073189124
107	0xbd257c12	-0.040401526
108	0x3d99cb8c	0.075095266
109	0xbdcfef30	-0.10153043
110	0x3df88515	0.121347584
111	0xbe8a3d1b	-0.26999745
112	0x3d2a6a48	0.041605264
113	0xbe3483ef	-0.17628454
114	0x3d33630a	0.043795623
115	0xbe4fab9c	-0.20280308
116	0x3c770670	0.015077218
117	0x3e2df795	0.16988976
118	0xbc7f67b4	-0.01558869
119	0xbcf31ba2	-0.029676262
120	0xbddecdae	-0.10879074
121	0x3d23a316	0.039950453
122	0xbe8176cc	-0.25285947
123	0xbdef0463	-0.116707586
124	0xbe1a1a1c	-0.15049022
125	0xbe14b954	-0.14523822
126	0xbe409218	-0.1880573
127	0xbebca77d	-0.36846533
128	0xbdcb21e4	-0.099185735
129	0xbe3307c0	-0.17483425
130	0x3d96d623	0.07365062
131	0x3df828b8	0.121171415
132	0xbd6be126	-0.057587765
133	0x3d7021ca	0.058625974
134	0x3cb33ca1	0.021879496
135	0xbd910d8b	-0.07082661
136	0x3cc09fd1	0.023513706
137	0xbd38210d	-0.044953395
138	0xbd5f9041	-0.05458093
139	0x3bf613c3	0.00750968
140	0x3e8f11fa	0.27943403
141	0xbe7a15e9	-0.2442242
142	0xbdf7236d	-0.12067304
143	0xbda4af63	-0.08041265
144	0xbedb1c88	-0.42795205
145	0x3dac3899	0.08409233
146	0xbd9b721f	-0.07590126
147	0xbe4f1aa6	-0.2022501
148	0xbe0c088d	-0.13675137
149	0x3dc6c124	0.097048074
150	0xbe14d5c4	-0.1453467
151	0xbda6b361	-0.081396826
152	0x3bdc4442	0.006722004
153	0xbe1a22c8	-0.1505233
154	0x3dd42435	0.103584684
155	0x3e418f6f	0.18902372
156	0xbe19bef1	-0.15014245
157	0x3bdc57b8	0.006724324
158	0x3d91abb7	0.0711283
159	0x3dea5b9a	0.11443253
160	0xbeb06718	-0.34453654
161	0xbe48c662	-0.19606927
162	0xbdd78cf7	-0.10524934
163	0xbd2313e9	-0.03981391
164	0xbd24784b	-0.040153783
165	0xbced2f39	-0.028953182
166	0xbd20a044	-0.03921534
167	0xbe540862	-0.20706323
168	0xbe322101	-0.17395402
169	0xbe242246	-0.160287
170	0xbe6fd324	-0.23420388
171	0xbe81dcf0	-0.25363874
172	0xbe055d17	-0.13023792
173	0xbc444cfb	-0.011981244
174	0xbdcf3b71	-0.101187594
175	0x3e52cb74	0.20585424
176	0x3e5d8d3e	0.21635911
177	0x3d92c4cd	0.07166443
178	0xbda6a5ba	-0.081370786
179	0xbe54cda1	-0.20781566
180	0x3c9643e7	0.018342925
181	0xbc3dc739	-0.011583143
182	0xbe5c0ba7	-0.2148882
183	0xbc9667b2	-0.018359993
184	0x3d0970da	0.03355489
185	0x3d43f26d	0.047838617
186	0xbe628569	-0.22121204
187	0x3ddc6190	0.10760796
188	0xbe58b1eb	-0.2116162
189	0xbe2a5595	-0.1663421
190	0xbdfe4107	-0.12414747
191	0xbe67fdbd	-0.22655387
192	0xbe6e4a9a	-0.23270646
193	0xbd8f7453	-0.07004609
194	0xbda7a788	-0.08186251
195	0xbd7a103e	-0.061050646
196	0xbbb2f3fb	-0.0054612136
197	0xbe8820b8	-0.26587462
198	0x3dda0616	0.10645692
199	0xbe40d4b4	-0.1883114
200	0xbe505478	-0.20344722
201	0xbdc73eb1	-0.09728754
202	0x3dbd06a1	0.0922978
203	0xbdfd3d15	-0.12365166
204	0xbd5a7a1f	-0.05333912
205	0xbe02a2d7	-0.12757431
206	0x3dc9f39f	0.0986092
207	0xbdf25f63	-0.118346
208	0xbbc3014b	-0.005951082
209	0xbe213320	-0.15742159
210	0xbc0365a9	-0.008019843
211	0xbdd660d4	-0.10467687
212	0x3de4d761	0.11173893
213	0xbebfdc91	-0.37472966
214	0x3d93a03a	0.07208295
215	0x3dd4f3bd	0.10398052
216	0xbe3226e9	-0.17397656
217	0xbba5865f	-0.0050514187
218	0xbd36e9f8	-0.044656724
219	0xbe120fb1	-0.14263798
220	0x3c8a50d4	0.016884245
221	0xbcb80f50	-0.02246824
222	0xbea29026	-0.31750602
223	0x3e071809	0.13192762
224	0xbef5d224	-0.48011887
225	0x3c9da77a	0.019244898
226	0xbc319d70	-0.010840759
227	0xbdca4f1d	-0.09878371
228	0xbdb1c068	-0.08679277
229	0x3c904d38	0.017614946
230	0xbe92ede3	-0.28697118
231	0x3de9bbce	0.11412774
232	0x3def5e13	0.11687865
233	0xbe0b385f	-0.13595723
234	0xbe0c33ba	-0.13691607
235	0xbb73bb71	-0.0037190581
236	0x3b941c71	0.004519992
237	0xbe161f06	-0.14660272
238	0xbd5b9e2a	-0.053617634
239	0x3d1fc1a7	0.03900304
240	0xbe836747	-0.25664732
241	0x3dcd5dfd	0.100276925
242	0xbe122197	-0.14270626
243	0xbd8ac622	-0.06776072
244	0x3d1b2718	0.03787908
245	0x3ca9b3ec	0.020715676
246	0xbd23d532	-0.03999824
247	0xbc9da32d	-0.019242847
248	0xbbf6b88f	-0.0075293253
249	0xbe453fe7	-0.19262658
250	0x3d93621f	0.071964495
251	0x3df84648	0.1212278
252	0x3e06609a	0.13122788
253	0x3e0459a0	0.12924814
254	0xbd039083	-0.03212024
255	0x3d1eb5c1	0.038747553

a2c_network.actor_mlp.2.bias f4 [256]
0	0xbccc5296	-0.024941724
1	0x3d5e20b1	0.054230396
2	0xbc9da4fa	-0.019243706
3	0xbcc9cdbb	-0.024634233
4	0xbce04234	-0.027375318
5	0xbbd42c0b	-0.006474977
6	0xbc6cef4e	-0.014461352
7	0x3b973867	0.004614878
8	0xbbe79531	-0.0070673455
9	0x3d22dbc8	0.03976038
10	0xbe46c55d	-0.19411226
11	0xbc51ce6b	-0.012805562
12	0xbcdb9cd4	-0.02680818
13	0x3d6e00f6	0.058106385
14	0xbd254d38	-0.040356845
15	0x3b9fab9c	0.0048727524
16	0x3b748a8d	0.0037314028
17	0xbc080115	-0.008301039
18	0xbda7ae0b	-0.08187493
19	0xbde60798	-0.11231917
20	0xbbed2655	-0.0072372355
21	0xbd135895	-0.03597315
22	0xbcc0501c	-0.0234757
23	0xbea828a5	-0.3284351
24	0xbd0578c7	-0.032585885
25	0x3d043d09	0.03228477
26	0xbcaab22f	-0.020836918
27	0xbc91db75	-0.01780484
28	0x3c8a1d44	0.016859658
29	0x3d801bf2	0.0625533
30	0xbe2c881f	-0.16848801
31	0xbe68c461	-0.22731163
32	0x3d205dd3	0.039151978
33	0x3cdc2bc0	0.02687633
34	0xbcd8f4af	-0.026483862
35	0xbe4a74c0	-0.19771099
36	0x3b1df677	0.0024103203
37	0x3ce86847	0.028370036
38	0xbbeef690	-0.007292576
39	0xbcd395b9	-0.02582823
40	0x3caa890d	0.020817304
41	0x3cafc837	0.021457775
42	0x3cebdace	0.028790858
43	0x3be8864f	0.007096089
44	0x3bd07bdb	0.006362421
45	0x3d036a56	0.03208383
46	0x3cc2ba27	0.023770405
47	0xbd4a7983	-0.04943229
48	0x3c698d29	0.014254847
49	0x3d938026	0.07202177
50	0xbe37cf66	-0.1795021
51	0x3d5c8b46	0.05384376
52	0xbc623f9b	-0.01380911
53	0xbcedb931	-0.02901897
54	0x3b16c7d6	0.0023007295
55	0x3cb6612c	0.022263132
56	0x3c90ed8d	0.017691398
57	0xbb57e4c6	-0.0032942756
58	0xba733fbc	-0.00092792115
59	0xbd5c7bfb	-0.053829174
60	0x3ba4d238	0.005029943
61	0xbda8df62	-0.08245732
62	0x3cdc02d8	0.026856825
63	0x3d029357	0.031878795
64	0xbcbcb2b7	-0.023034437
65	0x3d155041	0.03645349
66	0x3d526027	0.05136123
67	0x3caa6943	0.020802146
68	0x3bc5479d	0.0060205
69	0x3cf192b7	0.029488904
70	0xbe072869	-0.13199009
71	0x3ca2bb5a	0.019864727
72	0xbcfd121a	-0.03089242
73	0x3d12fe24	0.0358869
74	0xba8c9ec6	-0.001072847
75	0xbce42df8	-0.02785395
76	0xbbb00ef1	-0.005372875
77	0x3c9c5579	0.019083725
78	0x3a0f80ef	0.00054742297
79	0x3adc3acd	0.0016802192
80	0xbda8ec0a	-0.08248146
81	0x3d2e3b11	0.0425368
82	0xbc0d4b7b	-0.008623953
83	0x3d785480	0.06062746
84	0x3c9371a4	0.017998524
85	0xbcb62204	-0.022233017
86	0xbd139b62	-0.036036856
87	0xbd341928	-0.043969303
88	0xbdb584bb	-0.08863207
89	0xbc87042a	-0.016481478
90	0xbc337a6a	-0.010954479
91	0x3cc592bf	0.024117826
92	0x3c184c23	0.009295496
93	0x3bc321e4	0.005954968
94	0xbd24c8a6	-0.040230416
95	0xbe8c2246	-0.273699
96	0xbcddce40	-0.027075887
97	0xbcaa54fe	-0.02079248
98	0x3ce997df	0.0285148
99	0xbc2a1be3	-0.010382625
100	0xbee8b218	-0.45448375
101	0xbcf76d68	-0.030203536
102	0x3bc82021	0.0061073457
103	0x3cbd6b08	0.023122326
104	0xbb19319b	-0.0023375514
105	0x3c371722	0.011174949
106	0x3d1671ef	0.03672975
107	0x3d1df7f9	0.038566563
108	0xbbc90d1c	-0.006135596
109	0xbea5984e	-0.32342762
110	0xbae04b7d	-0.0017112341
111	0xbc915d4c	-0.017744683
112	0x3dc01e23	0.09380748
113	0xbdbf92be	-0.09354161
114	0xbd95c397	-0.073126964
115	0xbd02520b	-0.031816524
116	0xbb4a839a	-0.0030901195
117	0xbc7d48b2	-0.015459226
118	0xbcd39c0a	-0.025831241
119	0xbc064b0e	-0.008196605
120	0xbd251655	-0.0403045
121	0xbccf4c44	-0.025304921
122	0xbd17aa7c	-0.03702782
123	0x3b5a3cc0	0.003330037
124	0xbba4f27a	-0.0050337883
125	0xbc9b2553	-0.018938696
126	0xbeed4c03	-0.46347055
127	0xbc7c3b27	-0.015394962
128	0xbb9a767b	-0.004713831
129	0xbe16b79c	-0.14718479
130	0xbc645573	-0.013936388
131	0xbe2c5cb3	-0.16832237
132	0x3d082c46	0.033245347
133	0xbb60a9cc	-0.0034280894
134	0x3b9d0a1b	0.0047924644
135	0xbd1adcd8	-0.03780827
136	0xbdcaa30b	-0.09894379
137	0xbe92c8b0	-0.28668737
138	0xbdc3e3ee	-0.095649585
139	0x3d4bc165	0.049744982
140	0xbbddd5fc	-0.0067698937
141	0xbb9f9e76	-0.004871185
142	0xbe86c1ef	-0.26319835
143	0xbde7c1cf	-0.11316263
144	0x3d1d05b7	0.03833553
145	0xbc4a6a0b	-0.012354384
146	0xbcbedc77	-0.023298485
147	0xbd408e80	-0.0470109
148	0xbc20fc9b	-0.009825851
149	0xbb295c7e	-0.0025842483
150	0xbd3ee7ee	-0.046607904
151	0xbc30df97	-0.0107954955
152	0x3c83378a	0.016017694
153	0xbc58ed3e	-0.013240157
154	0x3a049b91	0.00050585816
155	0x3c0aa897	0.0084630465
156	0xbccaa249	-0.024735587
157	0xbe857d63	-0.26072225
158	0xbeee3e11	-0.46531728
159	0x3ce048ff	0.027378557
160	0xbbe31ea9	-0.006931145
161	0x3d6e5788	0.058188945
162	0xbcef2549	-0.029192584
163	0xbde9584f	-0.11393797
164	0xbd08eb4b	-0.033427518
165	0xb9923c35	-0.00027892148
166	0x3d185782	0.03719283
167	0x3c15bc76	0.009139171
168	0xbbde4d97	-0.006784152
169	0x3d147d7f	0.036252495
170	0xbcaf732c	-0.021417223
171	0x3ce908c1	0.028446557
172	0x3c1e1a6a	0.009649852
173	0xbbc25b9c	-0.005931331
174	0x3c009348	0.007847615
175	0x3b0ce20a	0.0021497034
176	0x3da593a4	0.08084801
177	0x3c5d3d1c	0.013503339
178	0xbc33ddbd	-0.0109781595
179	0xbcf4b06e	-0.029869284
180	0x3ca787bf	0.020450471
181	0x3d9aa006	0.07550053
182	0xbcf6dc2b	-0.030134281
183	0xbd3e4600	-0.046453476
184	0x3db0952d	0.08622203
185	0x3cf88519	0.030336903
186	0xbc02b7d3	-0.007978397
187	0xbc190ee3	-0.009341928
188	0xbc980a7e	-0.01855969
189	0x3c7be273	0.015373814
190	0x3d3adef9	0.0456228
191	0x3d41967a	0.047262646
192	0x3d088a74	0.033335164
193	0xbe8c8d1e	-0.27451414
194	0x38e256b0	0.000107926666
195	0xbd7bbeb8	-0.06146118
196	0xbd1358a4	-0.035973206
197	0xbe43261d	-0.19057508
198	0xbdc07f22	-0.09399249
199	0x3b96ad14	0.0045982692
200	0x3dd43517	0.103616886
201	0xbd1d8959	-0.038461063
202	0x3b1dbdd2	0.002406944
203	0x3ca52b9b	0.020162394
204	0x3c769cc5	0.015052025
205	0x3d6452b4	0.055742934
206	0xbc00b415	-0.007855435
207	0x3db183d7	0.086677246
208	0xba1d042c	-0.00059896964
209	0x3d041982	0.03225089
210	0x3b9aca41	0.0047238176
211	0xbe63328c	-0.22187251
212	0xbc92f821	-0.017940583
213	0xbda33bc1	-0.079703815
214	0x3d24df0f	0.040251788
215	0xbc90dbfe	-0.017683025
216	0xbd434a51	-0.047678296
217	0xbc535612	-0.012898939
218	0x3d13b278	0.036058873
219	0x3d086337	0.033297744
220	0x3d198edb	0.037489753
221	0xbe15e38e	-0.14637586
222	0x3cd6c368	0.026216224
223	0xbe583599	-0.21114196
224	0x3d1458ec	0.036217615
225	0xbbd63670	-0.006537251
226	0xbd018481	-0.031620506
227	0x3c66b491	0.014081136
228	0xbca118f6	-0.019665223
229	0xbcdd87e2	-0.027042333
230	0x3c898534	0.016787149
231	0xbc50d7dc	-0.012746777
232	0x3d14345b	0.036182743
233	0x3d2d38dc	0.042290553
234	0xbb90a4fd	-0.0044141994
235	0xbc9f9133	-0.019478416
236	0x3c60b5bd	0.013715205
237	0xbcb75fb6	-0.022384506
238	0x3ceca17b	0.028885594
239	0xbe3a2312	-0.18177441
240	0xbd1c041d	-0.03808986
241	0x3c0799ad	0.008276385
242	0x3c125980	0.008932471
243	0x3d8d83cf	0.06909906
244	0xbd416853	-0.047218632
245	0x3cddf357	0.027093573
246	0x3bcd7831	0.0062704314
247	0x3d50d24f	0.050981816
248	0x3d2a80ef	0.041626867
249	0x3d00092d	0.03125875
250	0x3d1789d2	0.03699667
251	0x3c466d7b	0.012111063
252	0xbe72ecd4	-0.23723155
253	0x3d01d2c9	0.03169516
254	0x3bcc5f20	0.0062369257
255	0xbc5d56d8	-0.013509475

a2c_network.value.weight f4 [1, 256]
0	0x3c4f5001	0.012653352
1	0xbd20c4d9	-0.03925023
2	0xba689afe	-0.00088731933
3	0x3c2bb534	0.010480214
4	0xbd6afb90	-0.057368815
5	0xbbfce330	-0.0077175125
6	0x3c0a1cb4	0.008429695
7	0x3c85673a	0.016284574
8	0x3c1a483e	0.009416638
9	0x3c83affa	0.016075123
10	0xbcbfbc5f	-0.023405252
11	0x3bfd6f10	0.007734187
12	0x3cd4d8c2	0.025982264
13	0x3ca400cf	0.020019917
14	0x3cbe70dc	0.023247175
15	0xbb6e3522	-0.0036347588
16	0x3dfc1aca	0.12309797
17	0x3d1c61a2	0.038179047
18	0xbc2d24e0	-0.010567874
19	0xbc0010b0	-0.007816479
20	0xba0043ed	-0.0004892934
21	0x3d45e910	0.04831797
22	0x3d7495c6	0.059713148
23	0xbd0d438d	-0.03448825
24	0xbca13378	-0.019677863
25	0x3ce03e88	0.027373567
26	0x3c6d0344	0.014466111
27	0x3c6a92a3	0.0143171875
28	0xbbe7e68c	-0.007077044
29	0x3c9ccc4c	0.019140385
30	0x3c828c5c	0.01593607
31	0xbd24da6c	-0.040247366
32	0x3d054716	0.032538496
33	0xbc8fba21	-0.017544808
34	0xbb4d4811	-0.0031323473
35	0xbd202aa3	-0.03910316
36	0x3c691ec7	0.014228529
37	0x3ba1d968	0.004939247
38	0xbd04e5aa	-0.032445587
39	0xbbcae95b	-0.006192369
40	0xbb41e1e2	-0.00295841
41	0xbc503f01	-0.012710334
42	0x3ba1cef7	0.004938002
43	0xbc95254a	-0.018206257
44	0x3cb48c0b	0.022039434
45	0x3c00aaa3	0.007853183
46	0xbb385d5a	-0.0028131814
47	0x3c5edec7	0.013602919
48	0x3c6561a3	0.014000329
49	0xbc07d263	-0.008289906
50	0x3d8b3b1c	0.067983836
51	0x3bf4c28c	0.007469481
52	0x3c368cc1	0.011141957
53	0xbba06d3d	-0.0048958347
54	0xbd21b7ba	-0.039481856
55	0x38fb793a	0.00011991193
56	0x3caf4d3e	0.021399137
57	0xbbed5d42	-0.007243783
58	0x3d38069f	0.04492819
59	0xbc8abd8c	-0.016936086
60	0xbc4c4aa4	-0.012468968
61	0xbd6d6f14	-0.05796726
62	0xbe3a008d	-0.18164273
63	0x3851a8f4	4.9986833e-05
64	0x3d31c790	0.04340321
65	0x3c4f7a7f	0.012663483
66	0x3be2cb16	0.0069211824
67	0x3c9ad2f2	0.018899415
68	0xbcb31406	-0.021860134
69	0x3ce0f85f	0.027462183
70	0x3cfe6fe3	0.031059211
71	0x3d232ddb	0.039838653
72	0xbbfd6d05	-0.0077339434
73	0x3c86cc18	0.016454741
74	0x3b9ba157	0.004749458
75	0xbc2d890c	-0.010591757
76	0x3d9b479c	0.07582018
77	0x3ca7539d	0.020425612
78	0xbb027eba	-0.001991196
79	0x3ce9d06e	0.02854177
80	0xbd08b083	-0.03337146
81	0xbc8cee65	-0.01720352
82	0x3c11fac5	0.008909886
83	0x3c983ce8	0.01858373
84	0x3d03f5a2	0.032216676
85	0x3c8e7a80	0.017392397
86	0xb7405d73	-1.146585e-05
87	0x3c9f1b35	0.019422153
88	0xbd3b32eb	-0.045702856
89	0xbc01e630	-0.007928416
90	0xbdb4d0ed	-0.08828912
91	0xbb6a9414	-0.0035793828
92	0x3c785899	0.015157842
93	0xbc8d2add	-0.017232353
94	0xbcba188f	-0.022716789
95	0xbe3ebaac	-0.18625897
96	0x3b4784b2	0.0030444083
97	0xbb385d44	-0.0028131763
98	0x3d0491c0	0.03236556
99	0x3c94dfe1	0.01817316
100	0x3d0e7f59	0.034789417
101	0x3c792147	0.015205688
102	0x3bd86e7e	0.0066049686
103	0xbbddc88c	-0.006768292
104	0xbbef5aff	-0.0073045488
105	0xba55abae	-0.00081508874
106	0x3cbcf1b2	0.023064468
107	0xbc5c2a84	-0.013437871
108	0x3d059bd8	0.032619327
109	0xbcd51d52	-0.026014958
110	0xbaa54eb3	-0.0012611955
111	0xbc70b202	-0.014690878
112	0x3e3ab8aa	0.18234506
113	0x3c570fcf	0.013126328
114	0x3cadc713	0.02121309
115	0x3dcfdec8	0.10149914
116	0xbcd78f07	-0.026313318
117	0x3cf394ce	0.029734042
118	0xbb0b2598	-0.0021232124
119	0xba069df9	-0.0005135234
120	0x3b121865	0.0022292372
121	0xbc72c8af	-0.0148183545
122	0x3cd1d4f7	0.025614245
123	0xbc3ab0e9	-0.011394718
124	0x3c206a51	0.009790973
125	0x3dbdb213	0.092624806
126	0xbe712db0	-0.23552585
127	0xbbb94845	-0.005654367
128	0x3bd80e0f	0.006593473
129	0x3c80d0a9	0.015724497
130	0x3affffc3	0.0019531179
131	0x3d39e18e	0.04538112
132	0xbbb1cc2e	-0.0054259514
133	0x3cfaf21d	0.030633027
134	0x3bbd5d89	0.0057789725
135	0x3e8b9438	0.2726152
136	0xbdb80f4f	-0.08987295
137	0x3db9efcb	0.0907894
138	0xbcba692e	-0.022755232
139	0xba88fa3e	-0.0010450555
140	0xbbf12e70	-0.007360272
141	0xbbb9308b	-0.0056515387
142	0xbe2c4a21	-0.16825153
143	0x3d1b831e	0.03796684
144	0xbd8e3268	-0.06943208
145	0x3c4c1c9f	0.012457996
146	0x3e8c0dc1	0.27354243
147	0x3c79c806	0.015245443
148	0xbbc87e33	-0.0061185597
149	0x3d12305b	0.035690647
150	0x3e0a6773	0.13516025
151	0x3b8b9b7b	0.004260478
152	0x3c4c1001	0.0124549875
153	0xbdb1056f	-0.086436145
154	0x3b434551	0.0029795954
155	0xbbd20bf9	-0.0064101187
156	0xbc4472a2	-0.011990221
157	0xbe156ce3	-0.14592318
158	0xbdc989b9	-0.09840722
159	0x3cb245ef	0.021761863
160	0xbc0bf2e2	-0.0085417945
161	0xbb6c0213	-0.0036011979
162	0x3c5963aa	0.013268391
163	0x3c7db732	0.015485572
164	0x3b00058a	0.0019534552
165	0x3b69724d	0.0035621107
166	0x3a11d365	0.0005562811
167	0x3d5bae7b	0.053633194
168	0x3b89366d	0.0041873963
169	0xbe1ce2f4	-0.15320951
170	0xbb806c1f	-0.003919139
171	0xbc73a687	-0.014871246
172	0x3bf5ea68	0.00750475
173	0x3be15223	0.0068762465
174	0x3d0c6e22	0.03428472
175	0x3d006bbb	0.03135274
176	0xbbd12546	-0.006382617
177	0xba326c85	-0.0006806332
178	0x3c9866f7	0.018603785
179	0x3c3cc20a	0.011520872
180	0x3c78b35b	0.01517948
181	0x3c8ebe61	0.017424764
182	0xbbcf08a2	-0.006318168
183	0x3c17db72	0.009268628
184	0x3c6c8c10	0.01443769
185	0xbdb1de5f	-0.08684992
186	0x3d2cd192	0.04219205
187	0xbd87c728	-0.06629783
188	0x3bf89e46	0.007587227
189	0xbb601484	-0.0034191916
190	0xbcb4a3c8	-0.022050753
191	0x3c9c0145	0.019043574
192	0x3c9640a2	0.018341366
193	0xbd4bfb6e	-0.04980033
194	0xbcaf7d1b	-0.02142196
195	0xbc13739d	-0.008999732
196	0xbdd2b3d9	-0.102882095
197	0xbe27d2fa	-0.16389075
198	0x3be93ed5	0.007118086
199	0xbc2cee1e	-0.010554818
200	0xbdfb8ce8	-0.12282735
201	0x3d154bb8	0.036449164
202	0xbcd9b12a	-0.026573736
203	0x3d1aa0ef	0.037751134
204	0x3cc1e239	0.023667442
205	0x3d406282	0.046968944
206	0x3cdbab6d	0.02681514
207	0xbe1a9c1c	-0.15098614
208	0x3bddb6b5	0.006766165
209	0x3b806085	0.003917756
210	0x3be1443f	0.0068745906
211	0xbdba768b	-0.091046415
212	0xb9c615b4	-0.00037781673
213	0x3cfaa59a	0.030596543
214	0x3d86c51a	0.06580563
215	0x3c27c413	0.010239619
216	0x3a5af129	0.00083519757
217	0x3d1ab7b7	0.03777286
218	0xbe3f596a	-0.18686453
219	0x3c08aa14	0.008341331
220	0x3d89b1dc	0.06723377
221	0x3d6f389c	0.058403596
222	0x3c431521	0.011906893
223	0xbc7ef72b	-0.015561859
224	0x3ab02a18	0.0013440279
225	0x3b6827cc	0.0035424111
226	0xbc9ee093	-0.019394195
227	0xbc5fce66	-0.013660049
228	0x3c406e7c	0.0117450915
229	0x3bec9b6f	0.0072206776
230	0x3bc6dcec	0.0060688164
231	0x3dfbd8ec	0.12297234
232	0x3d0d1681	0.03444529
233	0x3b64d9f0	0.003491994
234	0x3cdcdc0d	0.026960397
235	0xbb53508f	-0.0032244062
236	0x39911b32	0.00027676817
237	0x3ca6cc8e	0.020361211
238	0xbc4ce22e	-0.012505097
239	0x3bcfdc5f	0.006343409
240	0x3c3b8659	0.011445605
241	0x3b4a7dbd	0.00308977
242	0x3bf77284	0.007551493
243	0x3c07d681	0.008290888
244	0xbe4242d5	-0.18970807
245	0xbb334e1a	-0.0027359785
246	0x3d7d0c55	0.06177934
247	0x3c9a7685	0.018855343
248	0xbe93b346	-0.28847712
249	0x3bb90ca5	0.0056472593
250	0x3d06e283	0.032930862
251	0x3c7f28e1	0.015573711
252	0xbdb94e3a	-0.09048124
253	0x3c23ce16	0.009997865
254	0x3da0d472	0.07853021
255	0xbbd78c6e	-0.00657802

a2c_network.mu.weight f4 [6, 256]
0	0x3e27c724	0.1638456
1	0x3a7319bf	0.0009273551
2	0xbb854e13	-0.004068145
3	0xbbcd384b	-0.006262814
4	0xbc161273	-0.009159672
5	0xbb7bd0eb	-0.0038424085
6	0x3b36142d	0.0027783022
7	0xbc001cb9	-0.007819348
8	0xbb75012e	-0.0037384736
9	0x3c630c15	0.013857861
10	0xbd08805b	-0.033325534
11	0xbbde6cd6	-0.0067878766
12	0x3a34b328	0.00068931514
13	0xbb136f8a	-0.0022496902
14	0xbbbf0fa0	-0.00583072
15	0xbac2f3d3	-0.0014873691
16	0xbcbedd8a	-0.023298997
17	0xbb9a6d36	-0.004712726
18	0x3dfaecbb	0.12252184
19	0xbdc7b254	-0.0975081
20	0x3c89ffc8	0.016845599
21	0x3d6e1945	0.058129568
22	0x3d09c311	0.033633295
23	0xbe9f658b	-0.3113216
24	0x3c7840f5	0.015152206
25	0x3c60f9af	0.013731404
26	0xbba90d7a	-0.0051590772
27	0xbb8cd136	-0.004297401
28	0xbb7ea71c	-0.003885693
29	0xbb3c63b2	-0.0028745946
30	0x3dad4c35	0.08461801
31	0x3e0de1a1	0.13855602
32	0xbaa9ace4	-0.0012945202
33	0xbd0ff75d	-0.035148013
34	0xbb1d0dd8	-0.002396455
35	0xbd20e918	-0.039284796
36	0x3c42bf42	0.01188642
37	0x3ceac1c0	0.02865684
38	0xbc2950e1	-0.010334224
39	0xbb06d8f7	-0.0020576098
40	0x3c097a93	0.00839104
41	0xbb0ee089	-0.0021801314
42	0xbb8509e4	-0.004060017
43	0x3ac86f3a	0.0015291937
44	0xba5a650c	-0.0008331097
45	0xbb324aea	-0.0027205297
46	0xbbc287f7	-0.0059366184
47	0xbd0a179f	-0.033713933
48	0xbafc23f9	-0.0019236795
49	0xbb293d3b	-0.002582385
50	0x3dce09e8	0.10060483
51	0x3bcc8c1c	0.0062422883
52	0x3ab22000	0.0013589859
53	0xbbd0fa62	-0.006377504
54	0xbb37b38a	-0.0028030598
55	0xbb5abb49	-0.003337579
56	0xb8771f50	-5.891855e-05
57	0xbba756ab	-0.005106767
58	0x3c399dbf	0.0113291135
59	0x3b446c1f	0.0029971672
60	0xbb5b00f3	-0.0033417314
61	0x3e0fcf2b	0.14043872
62	0x3c994444	0.01870931
63	0x3da26483	0.07929327
64	0xbb9ef03d	-0.004850416
65	0x3a9074b7	0.0011021112
66	0x3cdfcae4	0.027318425
67	0x3d016be4	0.031597033
68	0xbb3450fa	-0.0027514086
69	0x3cc19b28	0.023633555
70	0xbaf49b2f	-0.0018661971
71	0xbc7c342c	-0.015393298
72	0xbb517f63	-0.0031966798
73	0xbbc96a7f	-0.0061467285
74	0x3c869bb2	0.016431663
75	0xbb14f871	-0.002273109
76	0x3ddcc71b	0.10780164
77	0x3c97c699	0.018527316
78	0xbb9aebc7	-0.004727814
79	0x3b9a1e44	0.004703315
80	0x3dbdb293	0.09262576
81	0xbaa8f119	-0.0012889236
82	0xbb32e45c	-0.0027296757
83	0x3a44a67e	0.0007501616
84	0xbac2a23f	-0.0014849378
85	0x3c4abb8a	0.012373814
86	0x3a8ceab1	0.0010751096
87	0x3e06b152	0.1315358
88	0xbdb7f09b	-0.08981439
89	0xba8db239	-0.0010810561
90	0x3cd73b54	0.026273407
91	0xbafc0c63	-0.0019229766
92	0x3bb6bc17	0.0055766213
93	0xbb2f12fe	-0.00267142
94	0x3cc3b31b	0.023889115
95	0xbdbd8c81	-0.092553146
96	0x3b9f6b37	0.004865076
97	0x392fd7ed	0.00016769739
98	0x3c15fc96	0.009154459
99	0xbba115ea	-0.0049159424
100	0xbe5958ed	-0.21225329
101	0xba06c88e	-0.00051415793
102	0xbbd06b40	-0.0063604414
103	0xbadd3153	-0.0016875662
104	0x3c8a94fc	0.016916744
105	0xbbb42f80	-0.0054988265
106	0x3af37de3	0.0018576946
107	0xbb0bd71d	-0.0021337934
108	0xbb1a0ac7	-0.002350496
109	0xbe0f3a1b	-0.13987009
110	0xbbd3e35d	-0.006466313
111	0xbba83be1	-0.0051340912
112	0x3d7360a9	0.059418354
113	0x3d2212cf	0.03956872
114	0xbc3b5fcc	-0.011436414
115	0xbdd7f472	-0.10544671
116	0xbb5a25d1	-0.00332867
117	0x395aa294	0.00020850665
118	0xbba35980	-0.0049850345
119	0xb8155574	-3.5603953e-05
120	0x3c91e932	0.017811392
121	0xbbeae532	-0.0071684355
122	0x3c090577	0.008363119
123	0x3c8f4b48	0.017491952
124	0xbb1e192f	-0.0024123897
125	0xbc2ad459	-0.010426604
126	0x3c834289	0.016022937
127	0x3c59735a	0.013272131
128	0x3aec7e67	0.0018043042
129	0xbcbeda8a	-0.023297567
130	0xb8b4a270	-8.613325e-05
131	0xbd429b18	-0.04751119
132	0xbb276579	-0.002554266
133	0xbd2cf5bb	-0.042226534
134	0x3ad3f827	0.0016171978
135	0x3c67980b	0.014135371
136	0xbd32b6c0	-0.043631315
137	0xbe1614be	-0.1465635
138	0xbd483a81	-0.04888392
139	0xba16ce38	-0.0005752775
140	0xbb93ff55	-0.004516522
141	0xbb8767e2	-0.004132257
142	0xbc81a537	-0.01582585
143	0xba7fab47	-0.00097530003
144	0xbcad04e6	-0.0211205
145	0x3c200335	0.00976639
146	0x398b0443	0.0002651532
147	0xbb302f7b	-0.002688377
148	0x3d171a84	0.03689052
149	0x3c99ab97	0.018758578
150	0x3c63c6e1	0.013902397
151	0xbb3c641f	-0.00287462
152	0xbaf07e49	-0.0018348183
153	0x3bf07ef2	0.007339352
154	0x3c2a5f31	0.010398672
155	0x3b183b7c	0.0023228815
156	0x3bdb9f63	0.00670235
157	0xbd04b1af	-0.032396015
158	0x3df91bd3	0.1216351
159	0x3c2df1b5	0.0106167095
160	0xbbb92c34	-0.0056510214
161	0x3cd0e1d9	0.025498318
162	0x3bccee7d	0.006254016
163	0x3d5a917d	0.053361405
164	0x3c121732	0.008916663
165	0xba29c155	-0.0006475647
166	0xbb064994	-0.0020490633
167	0xbb1f9a5e	-0.0024353485
168	0x3b21ad59	0.0024669974
169	0xbc257e9b	-0.010100986
170	0x3c8fdc4e	0.017561104
171	0xb9148daf	-0.00014167161
172	0xbb659fa9	-0.0035037792
173	0xbb48b691	-0.0030626396
174	0x3cd16e8b	0.025565406
175	0xbb8f7945	-0.00437847
176	0xbb0a332c	-0.002108763
177	0x3c525863	0.012838456
178	0x3b1db4a4	0.002406397
179	0xbbc71371	-0.0060753156
180	0x3c15b451	0.009137229
181	0xbabb3eb3	-0.0014285654
182	0xbb757915	-0.0037456204
183	0x3c49e25a	0.012322033
184	0x3857085d	5.1267783e-05
185	0x3e61827a	0.22022429
186	0xbd5196f5	-0.051169354
187	0xbc3d5e8f	-0.011558189
188	0x3b8ed5ad	0.004358968
189	0x3c1adacb	0.009451578
190	0x3b11c1bf	0.0022240726
191	0xbba19075	-0.0049305507
192	0xba91ece7	-0.0011133224
193	0x3d1ef7d8	0.03881058
194	0x3c414e79	0.0117984945
195	0xbd467ad8	-0.048456997
196	0xbda41ada	-0.08012934
197	0xbbfd7a6f	-0.0077355425
198	0xbdc508cb	-0.09620818
199	0x395ed048	0.0002124916
200	0x3db086a5	0.086194314
201	0xbb68e259	-0.0035535304
202	0x3cac6372	0.021043513
203	0x3d06e564	0.032933608
204	0xbbb0ac05	-0.0053916
205	0x3a0d2414	0.0005384099
206	0x3d0e8a21	0.0347997
207	0x3d81cf04	0.06338313
208	0x3c3a1c84	0.011359338
209	0xbb06b6d0	-0.0020555742
210	0x3c56f757	0.013120494
211	0xbc969af1	-0.018384429
212	0xbc042394	-0.008065123
213	0xbd1aaf43	-0.0377648
214	0x3ceceecc	0.028922461
215	0x3c711b7d	0.014716026
216	0xba1a2cc2	-0.0005881303
217	0xbbb1d92c	-0.0054275002
218	0xbb910f29	-0.004426856
219	0x3c02f61a	0.0079932455
220	0x3cdb2900	0.026752949
221	0x3c3368f2	0.010950314
222	0x3b09c950	0.0021024533
223	0x3e277402	0.16352847
224	0x3b6d34e2	0.003619485
225	0x3cbbdc2b	0.022932133
226	0x3c6b0078	0.0143433735
227	0xbb7cb1e5	-0.0038558182
228	0xbbcf9b17	-0.006335627
229	0xbbd52698	-0.006504845
230	0xbb9e6085	-0.0048332834
231	0x3bd5c215	0.0065233805
232	0x3b974ecb	0.004617547
233	0xbd783c6c	-0.060604498
234	0x3d156c97	0.036480512
235	0x3aad5564	0.0013224301
236	0xbabaa217	-0.001423898
237	0xbb0a1173	-0.002106753
238	0x3c4af8b9	0.012388402
239	0x3de0e760	0.10981631
240	0xbc7626b4	-0.015023876
241	0x3c0c76f0	0.008573279
242	0xbb598b8d	-0.003319475
243	0xbb218072	-0.002464321
244	0xbcce1f8e	-0.02516153
245	0x3c848b47	0.016179694
246	0x3d39ef8c	0.045394465
247	0xb9cacae5	-0.0003867961
248	0xbd37128e	-0.04469543
249	0x3b9f87b2	0.004868471
250	0xbc0646c1	-0.00819558
251	0x3c71a4f1	0.014748798
252	0xbbe720b4	-0.007053459
253	0xbb128730	-0.002235841
254	0xbdc10560	-0.09424853
255	0xbad259d1	-0.0016048496

a2c_network.mu.bias f4 [6]
0	0xbe09a649	-0.13442339
1	0x3c5c2483	0.013436439
2	0xbe5fb9e7	-0.2184826
3	0xbcdf1af9	-0.027234541
4	0xbd693d76	-0.05694338
5	0xbef742cd	-0.48293152

exp_avg f4 [6]
0	0x39d42000	0.00040459633
1	0x39c2ce95	0.0003715648
2	0xba21e84e	-0.00061762787
3	0x3a30f83a	0.0006750856
4	0x398c6601	0.0002677888
5	0x39e2c37b	0.00043251723

exp_avg_sq f4 [6]
0	0x37192453	9.127968e-06
1	0x3719da89	9.170392e-06
2	0x371e0e9e	9.420937e-06
3	0x371a0f31	9.182652e-06
4	0x37214c7b	9.614155e-06
5	0x3701bb72	7.732642e-06
