logs/rl_games/yam_cube_sort_8192/2026-02-01_09-18-32/nn/last_yam_cube_sort_8192_ep_100_rew_1142.3914.pth (torch, 953214 bytes, 30 tensors)

value_mean_std.running_mean f8 [1]
0.40691329118927544
00000000: 6ccd 7d0b de0a da3f

value_mean_std.running_var f8 [1]
0.01157235317544077
00000000: 6a05 69f3 3eb3 873f

value_mean_std.count f8 []
52428801.0
00000000: 0000 0008 0000 8941

running_mean_std.running_mean f8 [40]
0.9997193145859022 0.00025108336444536726 2.956390268082035e-05 0.000280647267126187 2.956390268082035e-05 0.0 -0.0958854191399896 -0.00716537865473787
0.05306731088912385 -0.06932013844622159 -0.003399953501244104 0.05470674076975503 0.06511614187885344 0.26843035828796474 0.29102919653006315 0.012702394767859872
0.2688955953214659 0.289740826275401 0.012702841192662353 0.26901515552880145 0.29001789089373065 0.01270262942854344 0.00043276003883759446 0.0001524017396516754
-0.0002498251239458795 0.00045764797871684345 0.0001753459967123543 -0.0002527256126176504 0.00044009379324154685 0.00016493943739198026 -0.00024747188530934805 0.26542926684768614
-0.2031996433408397 0.009999990081787487 0.0654297986254053 -0.2031996433408397 0.009999990081787487 0.46542872948203157 -0.2031996433408397 0.009999990081787487
00000000: 7a6e 2a5c b3fd ef3f 62b1 bfd6 7a74 303f
00000010: cbf5 28ec ffff fe3e b440 82d5 7a64 323f
00000020: cbf5 28ec ffff fe3e 0000 0000 0000 0000
00000030: 1098 5e63 f28b b8bf fad5 c4af 7159 7dbf
00000040: 8eca 8279 a32b ab3f aca9 94ef f6be b1bf
00000050: ec7f 1023 38da 6bbf 6225 f49c 8502 ac3f
00000060: 0bb6 cf93 73ab b03f 7b6c 8686 f62d d13f
00000070: 1dc7 51ec 38a0 d23f 54e7 de90 b603 8a3f
00000080: e66c fcde 9535 d13f aece 4a1b 1d8b d23f
00000090: 61fe e87b f203 8a3f b9f8 c757 8b37 d13f
000000a0: 9a2e 2933 a78f d23f de1a c00f d603 8a3f
000000b0: 4f1d bd36 825c 3c3f d23c aef9 c0f9 233f
000000c0: 3767 b0bc 5e5f 30bf 9700 071a 0ffe 3d3f
000000d0: 58d5 89a4 a2fb 263f 4abd b53d 0890 30bf
000000e0: 2d2b fb72 8cd7 3c3f 1727 95fa 729e 253f
000000f0: aafd 71a7 e337 30bf bdc5 2009 cbfc d03f
00000100: 3b98 5a27 7202 cabf 648f e4f2 df7a 843f
00000110: deac 47dd 01c0 b03f 3b98 5a27 7202 cabf
00000120: 648f e4f2 df7a 843f 43a0 ef94 95c9 dd3f
00000130: 3b98 5a27 7202 cabf 648f e4f2 df7a 843f

running_mean_std.running_var f8 [40]
0.00028065331859074955 0.0002510661454323484 2.9602077846389432e-05 0.0002806152268067749 2.9602077846389432e-05 3.814697120105843e-08 0.07599345722679665 0.06219352166646782
0.02798892444017806 0.058126517953963446 0.041444724283150824 0.02461499770901513 0.015000946537447303 0.0032326656696234904 0.005295530982555805 1.6185112206030552e-07
0.003216416705895215 0.005117136291607772 3.7411846966578285e-07 0.0030523351982484205 0.004740306771276028 1.6737794304548375e-07 0.0020061528150043723 0.0020761218106289596
0.00010496407811854168 0.001965245987809012 0.002152378101056281 0.00011605190756218441 0.002031429684521422 0.0020549844776028814 0.00010555951928763019 4.083749095787047e-08
3.972501617494451e-08 3.81507858907572e-08 3.8310358395621077e-08 3.972501617494451e-08 3.81507858907572e-08 4.642195113448784e-08 3.972501617494451e-08 3.81507858907572e-08
00000000: 7c19 2ad3 9464 323f 8967 3ee2 3074 303f
00000010: 5164 c64c 3f0a ff3e a917 ce38 f163 323f
00000020: 5164 c64c 3f0a ff3e fea2 923a e17a 643e
00000030: d2c2 7fa5 4e74 b33f 6b3d 294b d4d7 af3f
00000040: b8ad 7bec 20a9 9c3f c706 494b c2c2 ad3f
00000050: e096 c62e 3e38 a53f 8af7 9a88 ac34 993f
00000060: 348e 4cf6 d0b8 8e3f 7ed3 8e2a 647b 6a3f
00000070: 3d17 2946 c4b0 753f 7509 8086 29b9 853e
00000080: dbf3 fc91 5059 6a3f ce98 58d0 b4f5 743f
00000090: 4412 256e 4e1b 993e df02 4bfb 3501 693f
000000a0: 8fe4 e368 926a 733f c7ff f6f4 0f77 863e
000000b0: ed2b 6617 356f 603f afe8 ee68 f101 613f
000000c0: ed7c 8f21 0584 1b3f 0f28 e167 6b19 603f
000000d0: f76a af31 dda1 613f 182c 2997 1c6c 1e3f
000000e0: 1580 e481 37a4 603f fbc0 0064 9dd5 603f
000000f0: 854b 84bb faab 1b3f 7708 1f7a a9ec 653e
00000100: 8fe5 15c0 c353 653e ff35 3e72 677b 643e
00000110: 9603 97e7 5591 643e 8fe5 15c0 c353 653e
00000120: ff35 3e72 677b 643e bc84 a933 2fec 683e
00000130: 8fe5 15c0 c353 653e ff35 3e72 677b 643e

running_mean_std.count f8 []
26214401.0
00000000: 0000 0010 0000 7941

a2c_network.sigma f4 [6]
-1.2475255 -1.1023488 -1.2578716 1.0750315 0.9470644 -0.19323364
00000000: eaae 9fbf c419 8dbf f001 a1bf a29a 893f
00000010: d072 723f 0adf 45be

a2c_network.actor_mlp.0.weight f4 [256, 40]
-0.07494425 0.28244364 0.09700049 0.4722765 0.12185634 -0.069123045 0.08627151 0.034968637
0.099676 -0.10185081 -0.13894624 -0.063577384 -0.06729418 0.03386097 0.0051767635 0.19271041
0.028791301 -0.034224257 -0.027881388 -0.072868444 0.06507132 -0.38091275 -0.015977263 0.03825748
0.035938412 0.01910106 0.027503233 -0.020701606 0.02281639 -0.11943696 0.2076589 0.02710346
0.18555912 -0.10318058 -0.03991098 -0.09028897 -0.0790544 0.025611605 0.090030655 0.15868717
0.21935385 -0.4008691 0.052271653 -0.3599669 0.06434299 -0.037520524 0.06918738 -0.12783393
-0.09722344 -0.017149873 0.0508634 -0.012930377 0.13761398 0.07912479 0.039367378 -0.061984394
0.14498538 -0.09298766 -0.19292292 -0.03646331 -0.05956756 0.0036357641 -0.19137883 0.005024752
0.20121914 -0.40676534 -0.23466638 0.17644058 -0.025212644 0.05449578 0.28060898 0.15452257
0.22470993 -0.07763923 0.14407928 0.12335628 0.094555534 -0.027770516 0.10785849 -0.024826623
0.12223394 -0.15709126 0.02145997 -0.20657958 -0.07611198 -0.092243925 0.019615108 -0.15095952
0.04470568 0.035221938 0.20510027 -0.04868985 -0.13766117 -0.008271654 -0.1264679 -0.7589372
-0.0011298094 -0.027807223 0.022781955 0.013795867 -0.05924413 -0.43056056 -0.081130356 -0.07564058
-0.08030858 -0.10945156 0.04082175 0.26736674 0.09437928 -0.045131702 -0.07992087 -0.007065795
-0.2522903 -0.1359295 0.12362752 -0.3510106 0.06692147 0.13037582 -0.18358341 -0.10306636
0.048248503 0.4477917 0.0367885 0.27036828 0.08282295 -0.023720339 -0.044752054 0.11076662
0.059102997 -0.019970825 -0.12976736 0.01801265 0.007807872 -0.03503978 0.014353097 0.16665375
-0.031358507 0.008613962 0.1523312 -0.036786217 0.060584195 0.06478474 0.034322407 0.08516073
0.089384675 0.0034562438 -0.0069803204 0.068948165 0.012017951 -0.006755526 0.03321797 -0.1019547
0.13434392 0.16449387 0.029288856 -0.0021246518 0.03091788 -0.073195525 0.07128889 0.07291959
-0.004287423 -0.35146096 0.09867239 -0.24055082 -0.042344097 -0.09532777 -0.09550811 -0.23094635
-0.03318712 0.07678601 0.12470901 0.14205119 -0.015640188 0.015650416 0.016508171 0.3993515
0.018034466 0.055774625 -0.20066257 -0.04800179 -0.05474397 -0.058387663 0.02645694 -0.044205084
-0.24100617 0.010691346 0.011076492 0.13025558 -0.020156458 0.010104699 -0.1275301 0.19760424
-0.19705613 0.14423892 0.23397394 -0.2329498 0.0096366815 -0.05350575 -0.408434 -0.13670622
-0.101461515 0.21190663 0.006073223 0.19898692 0.009081966 -0.11128607 -0.13446923 0.091230825
0.036531493 0.20067957 -0.0741115 -0.0028514513 -0.077689245 0.00088482746 -0.023287887 -0.27776384
0.049586527 -0.030050956 0.23859693 0.077301264 0.091843195 -0.11795487 0.14135413 0.037052903
0.03688044 0.12837534 0.05237638 0.25316092 -0.08327265 0.057164837 0.16758971 -0.2576091
0.060983162 0.100243084 -0.05027519 -0.07446995 -0.14797433 -0.05244698 0.050172474 -0.17543347
-0.2790215 0.41306648 0.007753905 0.42844528 -0.043048643 -0.050194655 -0.15210664 0.09758613
0.21706717 0.019739214 -0.049402047 -0.025211208 0.00037550254 0.00416972 0.07719935 -0.41082048
00000000: 5f7c 99bd 749c 903e 31a8 c63d 3ace f13e
00000010: d18f f93d 6290 8dbd 1eaf b03d 463b 0f3d
00000020: ee22 cc3d 2897 d0bd ec47 0ebe dc34 82bd
00000030: 88d1 89bd cdb1 0a3d d7a1 a93b e155 453e
00000040: bcdb eb3c bc2e 0cbd 8267 e4bc 0d3c 95bd
00000050: 1d44 853d ff06 c3be c0e2 82bc e0b3 1c3d
00000060: 2834 133d d479 9c3c 764e e13c 6a96 a9bc
00000070: 70e9 ba3c 5d9b f4bd 89a4 543e 1308 de3c
00000080: 3603 3e3e 5750 d3bd b279 23bd 6ce9 b8bd
00000090: 46e7 a1bd 6ecf d13c fe61 b83d e47e 223e
000000a0: 4c9e 603e b73e cdbe cd1a 563d 954d b8be
000000b0: 42c6 833d 1faf 19bd 1db2 8d3d e6e6 02be
000000c0: 151d c7bd e47d 8cbc 2456 503d efd9 53bc
000000d0: aeea 0c3e 2e0c a23d b03f 213d 59e3 7dbd
000000e0: 0c77 143e 5070 bebd 968d 45be 8d5a 15bd
000000f0: 1dfd 73bd 0046 6e3b d0f8 43be ada6 a43b
00000100: 640c 4e3e 8c43 d0be 624c 70be d7ac 343e
00000110: bf8a cebc f836 5f3d fbab 8f3e 2a3b 1e3e
00000120: 5c1a 663e 5101 9fbd 8589 133e 38a2 fc3d
00000130: 55a6 c13d fe7e e3bc e9e4 dc3d 3461 cbbc
00000140: ca55 fa3d 88dc 20be d2cc af3c 9989 53be
00000150: 99e0 9bbd 62ea bcbd ddaf a03c 2295 1abe
00000160: 4e1d 373d e144 103d ce05 523e 026f 47bd
00000170: 0df7 0cbe d585 07bc cd80 01be b549 42bf
00000180: 1d16 94ba f9cb e3bc 39a1 ba3c 0f08 623c
00000190: f9a9 72bd 6f72 dcbe ac27 a6bd 73e9 9abd
000001a0: d378 a4bd 2428 e0bd b534 273d 4be4 883e
000001b0: ed49 c13d 05dc 38bd 8ead a3bd 2f88 e7bb
000001c0: 322c 81be 1a31 0bbe 6d30 fd3d a9b7 b3be
000001d0: 200e 893d 3d81 053e 4afd 3bbe 7514 d3bd
000001e0: 39a0 453d f444 e53e 8aaf 163d b66d 8a3e
000001f0: 149f a93d 2851 c2bc ee4d 37bd 9cd9 e23d
00000200: fc15 723d db99 a3bc bce1 04be 448f 933c
00000210: 2dd9 ff3b df85 0fbd 4129 6b3c 48a7 2a3e
00000220: c771 00bd 9321 0d3c b6fc 1b3e 25ad 16bd
00000230: 2227 783d ddad 843d a795 0c3d c068 ae3d
00000240: 500f b73d 2682 623b 2cbb e4bb b234 8d3d
00000250: f1e6 443c 765d ddbb 910f 083d a0cd d0bd
00000260: 7491 093e 1571 283e 2fef ef3c be3d 0bbb
00000270: 7e47 fd3c 89e7 95bd e9ff 913d de56 953d
00000280: 837d 8cbb b1f2 b3be c014 ca3d f452 76be
00000290: 0171 2dbd 353b c3bd c299 c3bd 337d 6cbe
000002a0: 38ef 07bd fc41 9d3d 7067 ff3d de75 113e
000002b0: da1f 80bc 4d35 803c 253c 873c cd77 cc3e
000002c0: 04bd 933c ef73 643d 7d7a 4dbe 869d 44bd
000002d0: 373b 60bd e727 6fbd 3abc d83c 6410 35bd
000002e0: 52ca 76be c12a 2f3c 2d7a 353c b861 053e
000002f0: 281f a5bc 2e8e 253c 4097 02be c458 4a3e
00000300: 15c9 49be 5eb3 133e dd96 6f3e 648a 6ebe
00000310: 2ce3 1d3c d828 5bbd 431e d1be b7fc 0bbe
00000320: 0ecb cfbd 0dfe 583e e301 c73b 3ac3 4b3e
00000330: 87cc 143c f3e9 e3bd 4db2 09be 3ad7 ba3d
00000340: 0ca2 153d f27e 4d3e c5c7 97bd 6adf 3abb
00000350: 8a1b 9fbd c4f3 673a 3dc6 bebc 1037 8ebe
00000360: 3e1b 4b3d 6c2d f6bc c152 743e 2050 9e3d
00000370: 4918 bc3d 5392 f1bd 23bf 103e c9c4 173d
00000380: f20f 173d d374 033e 9d88 563d 4f9e 813e
00000390: da8a aabd ad25 6a3d a39c 2b3e 57e5 83be
000003a0: 7bc9 793d 3f4c cd3d 5ced 4dbd b383 98bd
000003b0: 9586 17be a5d2 56bd a781 4d3d d5a4 33be
000003c0: e8db 8ebe 737d d33e 7814 fe3b 2e5d db3e
000003d0: c653 30bd e998 4dbd d8c1 1bbe 3ddb c73d
000003e0: db46 5e3e 22b4 a13c cd59 4abd bc87 cebc
000003f0: 19df c439 26a2 883b b11a 9e3d 1057 d2be

a2c_network.actor_mlp.0.bias f4 [256]
0.055457238 0.2011499 -0.17530806 0.068763345 0.027602177 -0.07796437 -0.0024009054 0.16047685
0.12867942 0.054524686 0.06884471 -0.07760906 -0.012750399 0.22412555 0.13864452 -0.1150572
-0.006033409 0.15285166 0.0320212 -0.38683808 -0.23963442 0.03068868 0.12471174 -0.11460651
0.12632386 0.20453113 0.15563305 0.061744593 0.20908836 0.14055726 0.16263312 0.075661205
0.13164021 -0.12924604 0.021911966 0.12237807 0.08112414 -0.0034081396 0.1155881 -0.03158909
-0.15043463 0.2084309 -0.029949011 -0.07639712 0.049459446 0.03682537 0.03400977 -0.26729172
0.17619085 0.08503608 0.004170493 -0.136816 -0.26417264 -0.18246341 -0.15927085 0.060390815
0.103945725 -0.08373164 -0.013861152 0.13960789 0.1641678 0.09105211 -0.1612941 0.04735471
0.035872277 0.011458253 0.056867428 -0.03909665 -0.11624568 -0.19768444 -0.1680975 0.19974205
0.0994349 0.15313834 0.13137041 -0.08375302 0.051449403 -0.23122634 0.016270889 0.0084114475
-0.18697894 0.069302656 -0.15504794 0.07858218 -0.16209063 0.18107623 0.10520691 0.07864493
0.15537938 0.10650025 0.21821494 0.11704777 0.114670366 0.16637751 -0.13111402 -0.080946185
0.093501545 0.17071527 0.17209141 -0.008987619 -0.063256055 0.13118498 0.1797326 0.017768921
0.20404363 -0.33707142 -0.09529459 0.04742538 0.15167433 0.10369878 -0.011752182 0.14912513
-0.088561766 0.13939571 0.13221239 -0.061881233 0.18343921 0.072463624 -0.0889636 0.09975985
0.211914 0.0885697 0.04001294 0.065123096 -0.051477756 -0.28192976 0.1395255 0.12879086
-0.055271797 0.19706595 -0.19114526 0.08312524 0.16296723 0.017375717 0.1599765 0.11762544
-0.075315945 0.15409163 0.19886991 0.06651697 -0.004962528 0.108869664 0.095707014 0.098772794
-0.15423726 0.11398806 0.22363408 0.12027225 0.061675504 0.115258984 -0.14240904 0.16258636
0.12176888 -0.14918232 0.17946474 0.112796895 -0.3310781 0.0023975929 -0.15242022 0.120389074
-0.108683124 0.12300703 -0.07663758 0.10720596 0.18308507 0.16737539 0.047881003 -0.003715731
0.053919517 -0.15098883 0.111157775 0.009035496 -0.088944405 0.13670419 -0.3538905 0.023632225
0.016410548 0.15597174 0.12710322 0.15950423 -0.014000426 -0.08347703 0.08882245 -0.09150433
0.16286708 -0.09347776 0.110420346 0.18604149 0.07665943 0.00032702868 0.15397252 0.18536903
0.14385265 -0.17078575 0.17635661 -0.07647446 0.075903244 -0.40208527 0.14663705 0.09652489
-0.0068051387 0.029982552 0.025594598 0.095162354 -0.28156906 -0.07385549 0.14696378 -0.043281503
0.02944224 0.13661252 0.20506987 -0.14891924 0.14672405 0.024071509 -0.061371516 0.16874766
-0.0008348484 0.19466032 0.09532869 -0.2504932 -0.17672138 0.04305863 0.04839965 0.0036251547
0.18497801 0.1253466 0.064426064 0.11616502 0.16112134 -0.17666553 0.12165955 -0.0096596
0.10388456 0.07926168 0.07492647 -0.12514968 0.072383694 -0.017631238 -0.22862877 0.1289512
-0.13155757 -0.0002864825 0.010961308 0.14580497 0.107808195 -0.14430979 -0.0086514875 0.1176619
0.06047551 -0.022262534 0.2771143 -0.2902067 0.067358054 -0.061562303 -0.033913195 -0.0909673
00000000: 2127 633d 3dfa 4d3e f583 33be ccd3 8c3d
00000010: f61d e23c c9ab 9fbd 8258 1dbb 0b54 243e
00000020: 8ac4 033e 4755 5f3d 75fe 8c3d 80f1 9ebd
00000030: 0de7 50bc 2b81 653e d4f8 0d3e 1ca3 ebbd
00000040: e7b3 c5bb 2585 1c3e a928 033d a40f c6be
00000050: ba62 75be d466 fb3c de68 ff3d d1b6 eabd
00000060: 0b5b 013e 9c70 513e 455e 1f3e e6e7 7c3d
00000070: 421b 563e 3eee 0f3e 4c89 263e 43f4 9a3d
00000080: b1cc 063e 1359 04be b980 b33c 5ba1 fa3d
00000090: 6a24 a63d 185b 5fbb 74b9 ec3d 9063 01bd
000000a0: 890b 1abe e96e 553e a157 f5bc 1876 9cbd
000000b0: fd95 4a3d 33d6 163d d44d 0b3d 76da 88be
000000c0: 606b 343e 6527 ae3d a2a8 883b 7e19 0cbe
000000d0: a341 87be b0d7 3abe e617 23be 5c5c 773d
000000e0: 7fe1 d43d 7e7b abbd e319 63bc 5ff5 0e3e
000000f0: 9b1b 283e 8779 ba3d 482a 25be 03f7 413d
00000100: cfee 123d 65bb 3b3c d2ed 683d cf23 20bd
00000110: 3712 eebd ca6d 4abe c021 2cbe 2e89 4c3e
00000120: 86a4 cb3d 4cd0 1c3e f785 063e b486 abbd
00000130: 9cbc 523d 99c6 6cbe 874a 853c 2bd0 093c
00000140: 6877 3fbe 8dee 8d3d e3c4 1ebe b2ef a03d
00000150: 16fb 25be 0c6c 393e b876 d73d 9810 a13d
00000160: c61b 1f3e ce1c da3d bd73 5f3e beb6 ef3d
00000170: 4cd8 ea3d de5e 2a3e c142 06be 1dc7 a5bd
00000180: bd7d bf3d fccf 2e3e bb38 303e ce40 13bc
00000190: 648c 81bd 5b55 063e d30b 383e 2190 913c
000001a0: d0f0 503e a094 acbe cf29 c3bd 1e41 423d
000001b0: 8450 1b3e 0760 d43d 398c 40bc 42b4 183e
000001c0: df5f b5bd c0bd 0e3e af62 073e 2d77 7dbd
000001d0: 7dd7 3b3e cf67 943d 8c32 b6bd e44e cc3d
000001e0: fcff 583e 0864 b53d 9ce4 233d 425f 853d
000001f0: 57da 52bd 1959 90be c6df 0e3e c0e1 033e
00000200: ae64 62bd a8cb 493e 95bb 43be 913d aa3d
00000210: e2e0 263e 8557 8e3c e1d0 233e 9be5 f03d
00000220: 3f3f 9abd 32ca 1d3e 8ea4 4b3e 0d3a 883d
00000230: b49c a2bb 0ff7 de3d 0a02 c43d 6449 ca3d
00000240: 5ff0 1dbe 9272 e93d 5500 653e 4c51 f63d
00000250: 749f 7c3d e70c ec3d add3 11be 0a7d 263e
00000260: f661 f93d 40c3 18be 9bc5 373e 0f02 e73d
00000270: 1283 a9be ef20 1d3b 0c14 1cbe 8c8e f63d
00000280: 4295 debd 1ceb fb3d 2af4 9cbd cc8e db3d
00000290: a77a 3b3e 7464 2b3e df1e 443d 9f83 73bb
000002a0: b6da 5c3d d19c 1abe b0a6 e33d 9e09 143c
000002b0: 7c28 b6bd 2ffc 0b3e 2331 b5be 5e98 c13c
000002c0: 6a6f 863c 0eb7 1f3e 5927 023e 1455 233e
000002d0: 0b62 65bc 01f6 aabd 8be8 b53d 9f66 bbbd
000002e0: a1c6 263e 4571 bfbd 1024 e23d a981 3e3e
000002f0: 9fff 9c3d 0c75 ab39 f9aa 1d3e 61d1 3d3e
00000300: 1c4e 133e 76e2 2ebe d496 343e a49e 9cbd
00000310: 2973 9b3d 1fde cdbe 0628 163e d7ae c53d
00000320: a4fd debb f89d f53c c3ab d13c 7be4 c23d
00000330: d229 90be 8c41 97bd ac7d 163e f247 31bd
00000340: da30 f13c 27e4 0b3e d6fd 513e 497e 18be
00000350: d43e 163e 9d31 c53c b360 7bbd 30cc 2c3e
00000360: bad9 5aba 0955 473e b03b c33d a540 80be
00000370: 73f6 34be 3f5e 303d b63e 463d 0194 6d3b
00000380: e06a 3d3e dc5a 003e d0f1 833d ede7 ed3d
00000390: fefc 243e cfe7 34be a428 f93d 4d43 1ebc
000003a0: 6ec1 d43d f353 a23d 0d73 993d 3d27 00be
000003b0: e73d 943d 636f 90bc a91d 6abe c90b 043e
000003c0: 07b7 06be 0833 96b9 0f97 333c e64d 153e
000003d0: 8bca dc3d f2c5 13be f8be 0dbc b9f8 f03d
000003e0: 2bb5 773d eb5f b6bc ede1 8d3e f995 94be
000003f0: 05f3 893d c128 7cbd 90e8 0abd 104d babd

a2c_network.actor_mlp.2.weight f4 [256, 256]
0.04479385 -0.028088095 -0.13630563 0.032707687 -0.012506828 0.012000532 -0.12715143 -0.0545929
0.010973079 0.009177609 -0.074048795 -0.08217711 0.030093964 0.041928515 -0.01774711 -0.217759
0.012263848 -0.07385926 -0.044124097 -0.09730212 -0.0020181027 -0.01945082 -0.098842874 0.029002463
-0.020849353 -0.07576773 -0.08563747 0.0009815877 0.023411551 -0.10392998 -0.10707168 -0.0743379
0.013605914 -0.003257851 -0.019517109 -0.11091603 0.06872809 0.04346298 0.048008822 0.06504277
-0.04488524 -0.030353347 -0.03520421 -0.004491901 0.029920513 -0.011853934 0.011454908 -0.04925191
-0.13561839 -0.050892025 0.043068107 0.0014680926 -0.030945174 0.043253243 -0.015345124 -0.09877288
-0.0058116303 0.027505033 -0.03350987 -0.0394169 0.029821461 -0.073156 0.008806886 -0.037458897
-0.09539428 -0.042181473 -0.050673746 0.013144126 -0.09042996 -0.05596467 -0.026501715 -0.026158385
-0.0005576145 -0.012713343 -0.13485502 0.02062764 -0.017398052 -0.06343284 0.08242721 -0.05579763
-0.06111405 -0.005025067 -0.085125774 -0.05336203 0.035135217 -0.13061662 -0.024247022 -0.0734456
-0.043543696 -0.03224591 0.009721569 -0.13934648 -0.16679382 0.06400298 0.06594648 -0.06033946
-0.029784344 0.039239213 -0.00880598 0.007813684 0.032317612 0.084278435 -0.007169024 -0.07757698
-0.13365756 0.10982718 -0.005299153 0.13836099 0.015498643 -0.025780633 -0.0014310541 -0.07339766
-0.10261096 -0.11703639 -0.0055599017 -0.038428154 -0.07987009 0.0025864567 0.03408719 0.0063207936
-0.041601643 -0.038833786 -0.00043107563 -0.065404795 -0.05591176 -0.14152029 -0.16813672 -0.10386091
-0.06286978 -0.019039717 -0.02799369 0.05558291 -0.061284937 0.028783264 0.010471478 0.020253737
0.07004088 0.011483948 -0.15085013 0.08536986 0.026621722 -0.115138665 0.09264149 -0.160541
-0.0024027398 -0.020054808 0.094407566 -0.090120584 0.06622604 0.029456493 0.00864491 -0.027612181
0.05423525 -0.0024341505 -0.0072804387 -0.05576689 0.12758344 -0.0144457305 0.11994798 -0.029494232
0.021909645 -0.1155119 0.011806389 0.023037447 0.017702827 -0.10151434 -0.003122834 0.099198006
0.0022604836 0.06853059 0.036670547 -0.052720416 0.047126796 0.03509703 0.06376289 0.0017818594
-0.04869149 -0.10947901 -0.02989304 -0.07952599 -0.07907076 0.07134878 0.007743695 0.03349859
-0.0059153778 0.032001298 -0.07266196 -0.033680003 -0.030894486 -0.08367956 -0.00017695289 -0.02272443
-0.038289204 0.014747976 -0.09647719 -0.028599106 0.0053297016 -0.22214921 0.040398918 -0.029001536
0.034348637 -0.020994874 0.07235152 0.06262245 -0.0021687592 -0.0498222 0.04108376 -0.043712895
-0.045384903 -0.15111901 -0.06050015 -0.029625189 0.05286319 0.04830845 0.025706662 0.020106543
-0.048807733 -0.031153964 -0.02551118 -0.013720877 -0.08352138 -0.006970187 -0.027422376 -0.029730594
-0.004686385 -0.029896865 -0.011008403 -0.14789447 -0.052154135 0.050945375 -0.058549255 0.021650737
0.019082014 0.040804517 -0.0009677568 0.028442167 -0.1792841 -0.04050717 -0.061969005 -0.11475286
-0.04070847 0.103542976 -0.04586768 0.031143948 0.014565394 0.038819265 -0.04902464 -0.040786434
-0.024160959 -0.108949 -0.0016155147 -0.09596142 -0.089445606 0.028389549 0.011931372 0.00935564
00000000: c279 373d 0119 e6bc b493 0bbe 7ff8 053d
00000010: 70e9 4cbc e19d 443c fc33 02be ce9c 5fbd
00000020: 6ec8 333c af5d 163c e5a6 97bd 794c a8bd
00000030: 9e87 f63c 3cbd 2b3d 6362 91bc 37fc 5ebe
00000040: 4fee 483c 8643 97bd 78bb 34bd 5546 c7bd
00000050: 2542 04bb 5357 9fbc 226e cabd 9396 ed3c
00000060: 43cc aabc 1d2c 9bbd b362 afbd 9ea8 803a
00000070: 95c9 bf3c 3ed9 d4bd 6648 dbbd 783e 98bd
00000080: 57eb 5e3c ac81 55bb 58e2 9fbc f227 e3bd
00000090: 50c1 8c3d 3d06 323d e6a4 443d 2535 853d
000000a0: 96d9 37bd 95a7 f8bc 4a32 10bd cc30 93bb
000000b0: dd1b f53c 0137 42bc 5ead 3b3c 5fbc 49bd
000000c0: 8cdf 0abe 2874 50bd 2f68 303d 036d c03a
000000d0: bc80 fdbc 502a 313d 1d6a 7bbc 7049 cabd
000000e0: 7d6f bebb 3c52 e13c a541 09bd 9e73 21bd
000000f0: 234c f43c d0d2 95bd c24a 103c 806e 19bd
00000100: 145e c3bd 7bc6 2cbd 468f 4fbd 765a 573c
00000110: 5833 b9bd 363b 65bd 201a d9bc 1c4a d6bc
00000120: e02c 12ba a04b 50bc 6f17 0abe 4cfb a83c
00000130: 5c86 8ebc 14e9 81bd 99cf a83d 0e8c 64bd
00000140: ba52 7abd 51a9 a4bb 6c56 aebd 2592 5abd
00000150: f2e9 0f3d 5dc0 05be b1a1 c6bc a66a 96bd
00000160: e05a 32bd 4a14 04bd 3747 1f3c d8b0 0ebe
00000170: 00cc 2abe ff13 833d f30e 873d 8226 77bd
00000180: 4cfe f3bc 4cb9 203d f546 10bc f704 003c
00000190: 795f 043d 2c9a ac3d 22ea eabb aee0 9ebd
000001a0: 87dd 08be 13ed e03d 84a4 adbb 81ae 0d3e
000001b0: 05ee 7d3c e831 d3bc 3592 bbba 8351 96bd
000001c0: b225 d2bd c6b0 efbd d62f b6bb d766 1dbd
000001d0: ee92 a3bd 8b81 293b 029f 0b3d a91e cf3b
000001e0: 7c66 2abd 2d10 1fbd fe01 e2b9 f3f2 85bd
000001f0: bb03 65bd b2ea 10be 082c 2cbe 07b5 d4bd
00000200: dfc1 80bd 2ef9 9bbc 0653 e5bc e8aa 633d
00000210: ea05 7bbd e1ca eb3c 9090 2b3c 2aeb a53c
00000220: 9871 8f3d 2b27 3c3c 7578 1abe 65d6 ae3d
00000230: cc15 da3c d2cd ebbd d2ba bd3d dc64 24be
00000240: 4977 1dbb fb49 a4bc c158 c13d 2491 b8bd
00000250: 85a1 873d be4e f13c 61a3 0d3c f132 e2bc
00000260: c825 5e3d 4586 1fbb bf90 eebb d36b 64bd
00000270: 3ca5 023e c9ad 6cbc 49a7 f53d e39d f1bc
00000280: db7b b33c 8191 ecbd 966f 413c 07b9 bc3c
00000290: 8505 913c c0e6 cfbd 76a8 4cbb 5328 cb3d
000002a0: 9f24 143b c459 8c3d db33 163d 5df1 57bd
000002b0: 0708 413d e7c1 0f3d 1e96 823d 488d e93a
000002c0: ba70 47bd 8836 e0bd 40e2 f4bc 86de a2bd
000002d0: daef a1bd 4f1f 923d d2be fd3b d135 093d
000002e0: c9d5 c1bb cb13 033d cbcf 94bd 0bf4 09bd
000002f0: 6f16 fdbc 3060 abbd 6e8c 39b9 9528 babc
00000300: 24d5 1cbd 7fa1 713c d595 c5bd ac48 eabc
00000310: c7a4 ae3b 157b 63be 5679 253d a194 edbc
00000320: 28b1 0c3d 71fd abbc 092d 943d 3340 803d
00000330: be21 0ebb 5d12 4cbd 7247 283d 4b0c 33bd
00000340: 85e5 39bd f1be 1abe 01cf 77bd 86b0 f2bc
00000350: 1387 583d 15df 453d c796 d23c 7ab6 a43c
00000360: 9eea 47bd 9936 ffbc d2fc d0bc 87cd 60bc
00000370: 420d abbd 2b66 e4bb e4a4 e0bc 938d f3bc
00000380: 3f90 99bb 45ea f4bc 975c 34bc a671 17be
00000390: 939f 55bd 19ac 503d 58d1 6fbd e35c b13c
000003a0: e251 9c3c a322 273d 0fb1 7dba 8cff e83c
000003b0: 4096 37be d9ea 25bd 36d3 7dbd 8c03 ebbd
000003c0: edbd 26bd 570e d43d c0df 3bbd 9821 ff3c
000003d0: b1a3 6e3c f300 1f3d 10ce 48bd ad0f 27bd
000003e0: 34ed c5bc a720 dfbd aebf d3ba 6c87 c4bd
000003f0: 422f b7bd 3391 e83c cd7b 433c 6648 193c

a2c_network.actor_mlp.2.bias f4 [256]
0.119138524 -0.16784008 0.06808001 0.043351214 -0.06183753 0.0696614 0.08631155 -0.07928297
0.05267885 -0.15125665 -0.17370509 0.0821304 0.0571298 -0.05787815 0.06474394 -0.06314146
-0.012663221 0.05449373 -0.068284065 0.02810027 0.08661236 0.10241109 0.049611326 0.065853134
-0.08093809 0.031001762 -0.08251661 0.0058369213 -0.04673069 -0.038515706 0.073683366 -0.13600399
-0.09297412 0.07497829 0.07923 0.08073658 0.0077841626 -0.021068983 0.04145267 -0.08195559
-0.030937985 -0.037416894 -0.04426982 0.091652855 0.06590633 -0.07221103 -0.096741855 0.044883553
0.042197853 -0.020398414 0.07279025 -0.063217886 0.0564622 0.052111816 0.08082042 -0.061622582
-0.0777912 0.04527498 0.05819697 -0.04401605 0.06314835 -0.09414164 -0.06505248 -0.056218714
-0.077801615 -0.053789847 -0.079146236 -0.065845095 0.057906874 -0.104008906 -0.06247005 -0.04417377
0.0504489 -0.03061175 0.04995368 0.055659212 -0.10211444 0.04291735 0.059752733 0.060729854
-0.08093353 0.051743586 0.07992167 0.034994055 -0.048025187 0.041464716 0.045076083 0.09473613
-0.116063565 0.047541723 -0.18574296 -0.054329272 -0.06389964 -0.08300479 0.0729438 -0.07756019
0.04734877 0.06539238 -0.13359264 0.052501034 -0.05095817 -0.010564051 -0.16358417 -0.043706894
0.08178036 0.04822033 -0.07621012 -0.054382514 -0.28558022 -0.084337115 0.06683674 0.061809115
-0.07277874 0.057603598 -0.16060026 0.05851657 -0.07223438 -0.04952132 0.07513808 0.049990613
0.016170833 0.044823896 -0.02142934 -0.010493654 0.05122349 -0.23061562 -0.06735387 0.03960784
-0.21402995 0.0714554 -0.02410384 -0.035390597 -0.051943246 -0.052130923 0.060880374 0.07006122
-0.15431197 0.063708 -0.20255217 -0.050067667 0.039955247 0.059373908 -0.09657227 0.07072731
-0.05108656 -0.0430831 0.07968548 0.06320936 -0.056384463 -0.21921898 -0.04896408 0.06963847
0.04776682 -0.17975773 0.046352856 -0.062338267 0.07213517 -0.137015 -0.2151859 -0.074430496
0.06488612 -0.050463423 0.0249492 0.059852317 0.05998779 -0.068459906 -0.10192273 -0.05041004
-0.025995769 -0.05383104 -0.03901451 -0.02405883 -0.08556294 0.07624024 -0.0003420882 -0.10027233
0.06478389 -0.06715643 -0.07877331 0.071114555 0.09384934 -0.099106416 0.055286303 0.050603356
-0.034344338 -0.11353071 -0.10475891 -0.14779215 0.08590124 -0.16011421 -0.0693897 0.054087337
-0.06567218 0.078338444 -0.042230885 -0.0555906 -0.08592633 -0.10953663 -0.16131833 -0.055315603
-0.13575375 -0.0645835 -0.08152139 0.009839628 0.04569653 -0.17140491 0.09047052 -0.15584719
0.050612126 -0.07713659 -0.109024286 -0.07705527 0.102222644 0.062082723 -0.034448937 0.0658846
0.06592583 0.11008774 -0.05648433 -0.13711874 -0.05762872 0.05074337 -0.040856477 0.055390436
-0.1663393 0.048177794 0.06075053 0.05896921 0.04942823 -0.03541468 -0.06974786 0.06954475
-0.17218974 0.060848996 0.06946062 0.0328254 0.06436199 -0.08138445 -0.12295269 -0.20116301
0.0701322 0.05135853 -0.15720549 -0.12127041 -0.14717625 -0.09455373 -0.018776162 0.011663175
-0.080104545 -0.0698227 -0.23037812 -0.15210047 0.06831479 -0.102916025 0.09966164 0.07085844
00000000: e6fe f33d 45de 2bbe 886d 8b3d 0b91 313d
00000010: 5a49 7dbd a3aa 8e3d 1cc4 b03d 1c5f a2bd
00000020: c7c5 573d 06e3 1abe bfdf 31be fc33 a83d
00000030: f000 6a3d a411 6dbd 7998 843d 4f50 81bd
00000040: 6679 4fbc d134 5f3d 84d8 8bbd 8a32 e63c
00000050: d261 b13d e8bc d13d 3f35 4b3d 02de 863d
00000060: dfc2 a5bd 68f7 fd3c 78fe a8bd a543 bf3b
00000070: ae68 3fbd a5c2 1dbd 4ee7 963d a144 0bbe
00000080: 3769 bebd 388e 993d 5743 a23d 3859 a53d
00000090: 4a12 ff3b dc98 acbc 46ca 293d 55d8 a7bd
000000a0: a871 fdbc 7542 19bd 4554 35bd 7eb4 bb3d
000000b0: e6f9 863d 60e3 93bd 9820 c6bd d1d7 373d
000000c0: a8d7 2c3d 931a a7bc 0e13 953d 6178 81bd
000000d0: e844 673d 3373 553d 2d85 a53d f667 7cbd
000000e0: fe50 9fbd 4272 393d f25f 6e3d 2c4a 34bd
000000f0: ec53 813d 55cd c0bd 3c3a 85bd 9845 66bd
00000100: 7456 9fbd be52 5cbd 6c17 a2bd cbd9 86bd
00000110: c22f 6d3d 9f02 d5bd 98e0 7fbd 8eef 34bd
00000120: 81a3 4e3d 7ec5 fabc 3b9c 4c3d eafa 633d
00000130: 6021 d1bd 1aca 2f3d 48bf 743d debf 783d
00000140: 7bc0 a5bd 15f1 533d f9ad a33d ed55 0f3d
00000150: 0fb6 44bd e8d6 293d b3a1 383d 0405 c23d
00000160: bcb2 edbd 1cbb 423d 6733 3ebe 5f88 5ebd
00000170: d1dd 82bd 6afe a9bd 8f63 953d e0d7 9ebd
00000180: c9f0 413d 71ec 853d 82cc 08be 530b 573d
00000190: 84b9 50bd d714 2dbc 9c82 27be 0006 33bd
000001a0: 767c a73d ae82 453d 0d14 9cbd 33c0 5ebd
000001b0: 9237 92be f0b8 acbd b3e1 883d 8e2b 7d3d
000001c0: 050d 95bd c0f1 6b3d 6574 24be 12af 6f3d
000001d0: 9eef 93bd ded6 4abd fee1 993d f5c2 4c3d
000001e0: b278 843c 4399 373d 958c afbc 93ed 2bbc
000001f0: b9cf 513d 8026 6cbe d3f0 89bd d53b 223d
00000200: ab2a 5bbe 3557 923d 6b75 c5bc bbf5 10bd
00000210: 71c2 54bd 3c87 55bd b35d 793d 427c 8f3d
00000220: f503 1ebe 5779 823d d669 4fbe c113 4dbd
00000230: 1da8 233d 0e32 733d afc7 c5bd 7bd9 903d
00000240: 2440 51bd e877 30bd 2432 a33d e973 813d
00000250: 65f3 66bd f17a 60be 8f8e 48bd 9d9e 8e3d
00000260: 24a7 433d 6912 38be 7edc 3d3d 6956 7fbd
00000270: 9bbb 933d a94d 0cbe b159 5cbe 046f 98bd
00000280: 04e3 843d bcb2 4ebd 4462 cc3c b427 753d
00000290: c2b5 753d b534 8cbd ddbc d0bd c27a 4ebd
000002a0: 14f5 d4bc f07d 5cbd aecd 1fbd 0617 c5bc
000002b0: 9f3b afbd d823 9c3d 4d5a b3b9 945b cdbd
000002c0: 6bad 843d 4f89 89bd e753 a1bd 82a4 913d
000002d0: 1534 c03d 4ef8 cabd e473 623d 7745 4f3d
000002e0: a6ac 0cbd ca82 e8bd d78b d6bd d356 17be
000002f0: fdec af3d fbf4 23be 301c 8ebd af8a 5d3d
00000300: 237f 86bd e86f a03d 4bfa 2cbd f8b2 63bd
00000310: 25fa afbd be54 e0bd a230 25be 9d92 62bd
00000320: 0803 0bbe 5b44 84bd b0f4 a6bd 6436 213c
00000330: 492c 3b3d c584 2fbe 9c48 b93d 6896 1fbe
00000340: a94e 4f3d caf9 9dbd 2048 dfbd 27cf 9dbd
00000350: 1b5a d13d 744a 7e3d 541a 0dbd 81ee 863d
00000360: 1f04 873d ae75 e13d 1d5c 67bd db68 0cbe
00000370: 180c 6cbd 48d8 4f3d 1f59 27bd 15e1 623d
00000380: d954 2abe 1456 453d 8cd5 783d b389 713d
00000390: 4175 4a3d fc0e 11bd f7d7 8ebd 7a6d 8e3d
000003a0: 8252 30be cc3c 793d 5f41 8e3d ed73 063d
000003b0: 38d0 833d e4ac a6bd 9fce fbbd adfd 4dbe
000003c0: 79a1 8f3d 525d 523d 7afa 20be 9f5c f8bd
000003d0: 5fb5 16be 63a5 c1bd 77d0 99bc e716 3f3c
000003e0: da0d a4bd 34ff 8ebd 3ee8 6bbe 3ac0 1bbe
000003f0: a0e8 8b3d a3c5 d2bd 671b cc3d 3b1e 913d

a2c_network.value.weight f4 [1, 256]
0.0076059652 -0.067743815 0.01492165 0.008684429 0.0038551318 0.009352588 -0.006862245 0.003011959
-0.004406979 -0.24860634 -0.050017573 0.0040893457 0.0031447017 0.0021208248 -0.0038645419 0.0035511511
0.00548756 0.0029774713 0.010314928 -0.0063106106 -0.0024323468 0.02451429 0.012121323 0.0013442048
0.0065778117 0.000996925 0.012517212 0.010293662 -0.009575283 0.0013428066 0.033347882 -0.0015706978
-0.036363527 -0.0072384235 0.007780353 0.003732259 0.04201942 -0.07954546 0.00834909 0.034458194
-0.024563996 -0.0004916653 0.0050818054 0.0070453878 0.0034853874 0.00042496933 0.043920163 0.0070946575
-0.022369266 0.004323755 0.011861637 0.025544493 0.0062062233 0.06842514 0.0069243917 -0.009055735
0.0011980204 -0.003408483 0.0028577705 0.008360058 0.0056758495 -0.057565134 0.01749376 0.004094719
0.017742068 0.002448838 -0.012637022 -0.00340345 0.0012457441 0.017791757 -0.0055262884 -0.029317794
0.007108413 0.006758836 0.00044114943 0.00822481 -0.032081623 -0.0037900996 0.00162229 -0.0005943016
-0.003904438 -0.0016461161 0.007714582 0.001092244 -0.009512667 -0.00077219156 0.010162676 0.004629623
-0.0030873655 0.009111112 0.03592695 -0.0015436319 -0.0020304543 0.019628309 -0.004942788 -0.005888325
0.004541281 0.0033432583 -0.05582768 0.00372148 0.0022611846 0.0012027128 0.03565525 0.0024967755
0.0029177195 4.165779e-05 -0.0035564234 -0.0076602907 0.005523063 -0.05487547 0.006986291 -0.016062979
0.03952772 0.0048035434 0.00043271904 0.0028093264 0.0054507256 0.056383036 0.0062958444 0.00373762
-0.003127618 0.006156841 0.053063303 0.070298 -0.000102881306 0.020784782 0.007434524 0.012792724
-0.0021195353 -0.0067731794 -0.009135588 0.020494878 -0.017580923 -0.0056135557 -0.0024803595 0.0030709472
-0.08646211 0.0004730725 -0.024756098 -0.037305344 0.010336674 -0.0081608975 -0.018775564 0.013863841
-0.052620478 0.006054339 -9.87889e-05 0.016801257 0.008348437 0.042377543 0.0045367926 0.0022750811
-0.013203975 -0.09766788 0.00213991 0.050173312 0.003523782 -0.11096579 -0.019475248 0.0012976812
0.0037494292 0.005009216 0.0024442966 -0.017370632 0.001971813 0.0055533503 -0.03092484 -0.00027490457
-0.008630157 0.0052913604 -0.0060567767 -0.0027095708 -0.01235085 0.0009368469 -0.015993124 -0.0070458767
0.0113712475 -0.0074308994 0.01891743 0.007712068 -0.015807625 0.016562143 0.008699417 0.007590015
-0.008560734 0.06102048 -0.061906524 -0.18609712 0.020722201 -0.0007790947 0.058612645 -0.016795682
0.012019684 -0.00032468632 0.000524377 0.004598824 -0.0057336604 0.00925801 -0.014697695 -0.004956591
0.024268277 -0.009662691 -0.0064922143 0.0015558415 0.0012933222 -0.002154398 0.054382537 -0.029793391
0.0062618824 -0.011508994 -0.033493113 0.005429884 0.0014213568 0.010601047 -0.014556144 0.012137575
0.002883734 0.00023038205 0.00095680496 -0.03499397 0.00226149 -0.00431504 -0.0006855846 -0.0023533783
0.026887363 0.0067516724 0.004420256 0.008421128 0.006759504 0.015449233 -0.00018844804 -0.00533307
-0.0761988 0.07316055 0.004446849 -0.006728836 0.007897584 -0.0028448908 -0.006129596 -0.03698266
0.009339306 -0.005013421 0.016360374 -0.04746215 -0.023328835 0.09898224 -0.0019216181 -0.0044077206
0.0027529392 0.01470796 -0.061692663 -0.02772777 -0.008004426 -0.035077035 0.019764481 0.0024161884
00000000: 763b f93b 45bd 8abd f079 743c 2349 0e3c
00000010: 61a6 7c3b 993b 193c afdc e0bb 4964 453b
00000020: 6b68 90bb a992 7ebe 3adf 4cbd ebff 853b
00000030: 5717 4e3b 89fd 0a3b 4144 7dbb 6eba 683b
00000040: fdd0 b33b ae21 433b f2ff 283c 3dc9 cebb
00000050: 0268 1fbb 31d2 c83c 8398 463c 0730 b03a
00000060: af8a d73b 41ab 823a fe14 4d3c bfa6 283c
00000070: a6e1 1cbc 1d01 b03a ca97 083d dfdf cdba
00000080: ecf1 14bd 4c30 edbb 55f2 fe3b ea98 743b
00000090: 8e1c 2c3d bbe8 a2bd 9fca 083c 0924 0d3d
000000a0: 6f3a c9bc 1ae3 00ba 4685 a63b ffdc e63b
000000b0: 196b 643b 6bce de39 a1e5 333d 4d7a e83b
000000c0: c03f b7bc 49ae 8d3b 5057 423c af42 d13c
000000d0: 935d cb3b 7b22 8c3d 02e6 e23b 815e 14bc
000000e0: e506 9d3a db60 5fbb 6f49 3b3b a0f8 083c
000000f0: 7afc b93b 6bc9 6bbd 134f 8f3c fe2c 863b
00000100: d057 913c af7c 203b 830b 4fbc 6a0c 5fbb
00000110: 3c48 a33a 05c0 913c de15 b5bb df2b f0bc
00000120: b1ed e83b 3a79 dd3b 134a e739 5ac1 063c
00000130: 0568 03bd 5263 78bb 05a3 d43a e8ca 1bba
00000140: 9ae1 7fbb 7ec2 d7ba 9bca fc3b a129 8f3a
00000150: 04db 1bbc e66c 4aba 5a81 263c 18b4 973b
00000160: 6655 4abb c646 153c 2328 133d b153 caba
00000170: 5f11 05bb 8ccb a03c 1cf7 a1bb daf2 c0bb
00000180: 07cf 943b 911a 5b3b 91ab 64bd 13e4 733b
00000190: 6230 143b 58a4 9d3a 3d0b 123d f1a0 233b
000001a0: 3637 3f3b b6b9 2e38 e212 69bb 2d03 fbbb
000001b0: cffa b43b 1ac5 60bd 42ed e43b 8296 83bc
000001c0: d2e7 213d 0b67 9d3b 91de e239 ad1c 383b
000001d0: 009c b23b e6f1 663d 5f4d ce3b dcf2 743b
000001e0: b9f8 4cbb 53bf c93b e858 593d 66f8 8f3d
000001f0: fbc1 d7b8 d944 aa3c 4f9d f33b 9398 513c
00000200: e7e7 0abb 8cf1 ddbb 6fad 15bc e0e4 a73c
00000210: de05 90bc ebf1 b7bb 878d 22bb f241 493b
00000220: 0c13 b1bd b706 f839 4dcd cabc 7dcd 18bd
00000230: 275b 293c 49b5 05bc 36cf 99bc 2a25 633c
00000240: 9288 57bd 7a63 c63b e32c cfb8 caa2 893c
00000250: e2c7 083c 1394 2d3d 60a9 943b 8719 153b
00000260: 7c55 58bc 1906 c8bd bb3d 0c3b 8882 4d3d
00000270: 40ef 663b 0842 e3bd 8e8a 9fbc f516 aa3a
00000280: fcb8 753b 5924 a43b 7e30 203b db4c 8ebc
00000290: 8839 013b e1f8 b53b 1756 fdbc 1121 90b9
000002a0: 8165 0dbc 2663 ad3b ed77 c6bb 0e93 31bb
000002b0: 385b 4abc bb96 753a 0304 83bc 19e1 e6bb
000002c0: 784e 3a3c e77e f3bb baf8 9a3c 84b5 fc3b
000002d0: fe7e 81bc 55ad 873c 0088 0e3c a9b5 f83b
000002e0: 5242 0cbc 9cf0 793d b291 7dbd 3e90 3ebe
000002f0: 9bc1 a93c 293c 4cba d013 703d 1997 89bc
00000300: 35ee 443c a93a aab9 5876 093a bbb1 963b
00000310: 6ee1 bbbb e9ae 173c 9ace 70bc e66a a2bb
00000320: 44ce c63c 4350 1ebc a4bc d4bb 61ed cb3a
00000330: b184 a93a cd30 0dbb 39c0 5e3d 4511 f4bc
00000340: 7a30 cd3b 3890 3cbc 1330 09bd 2bed b13b
00000350: d24c ba3a 04b0 2d3c e57c 6ebc aedc 463c
00000360: 07fd 3c3b b692 7139 18d2 7a3a d655 0fbd
00000370: 8235 143b 2e65 8dbb ceb8 33ba 233b 1abb
00000380: e342 dc3c 223d dd3b cbd7 903b c5f8 093c
00000390: d47e dd3b c81e 7d3c 239a 45b9 09c1 aebb
000003a0: 1e0e 9cbd 33d5 953d e0b6 913b 917d dcbb
000003b0: de64 013c 5971 3abb c7da c8bb 217b 17bd
000003c0: e303 193c a047 a4bb 3106 863c ac67 42bd
000003d0: 1d1c bfbc 33b7 ca3d cede fbba a46e 90bb
000003e0: a86a 343b a8f9 703c 72b1 7cbd 5925 e3bc
000003f0: ff24 03bc f0ac 0fbd 1fe9 a13c ea58 1e3b

a2c_network.mu.weight f4 [6, 256]
0.004369147 -0.0088719 0.012600811 -0.001048299 -0.0055192555 0.005330438 0.0024974993 -0.0036712086
-0.00039404051 0.005307446 0.021438826 0.00039181605 -0.002929883 -0.00039621076 0.0002279047 0.0010489721
-0.0025470944 0.0012370582 0.008055241 -0.0017443249 0.007115156 0.009609119 -0.0037900964 0.001816706
0.0021867454 -0.0014146646 -0.0024153646 0.0016285747 -0.000447389 0.0006292474 -0.013140106 0.06405254
0.0021900022 -0.00044391732 -0.0043680076 -0.005591873 -0.005551774 0.0048244363 -0.005075713 0.015960837
-0.0030681158 0.0020037973 -0.008590075 0.005384839 -0.0011065108 0.0034385405 0.007324279 -0.008065211
0.0002906584 0.0015679561 0.004654879 0.0069340914 0.001034296 -0.004200171 0.003326698 0.0030860528
0.00010319145 -0.0014164296 0.0041895863 -0.0018815651 0.0009077888 0.011606849 -0.011417579 -0.0053083138
0.013673613 -0.0007024217 -0.018669926 0.000103619175 -0.00066114654 0.0041867113 0.0014528215 -0.011431363
-0.04850974 0.0038362797 0.0041539553 0.0017797385 0.012346517 0.00034630854 0.0046547987 -0.006057319
0.03004689 -0.0009883093 0.00040295083 0.0008758445 0.0013870513 0.001655076 0.0013609318 0.004833941
-0.08720032 0.0019617844 -0.02035859 -0.00035201985 0.000285857 0.010460624 0.0015611213 0.0033455642
0.0054758876 -0.000846056 0.01838335 -0.004530767 0.0024622367 -0.00056857767 0.008271928 -0.005158813
-0.00084693136 -0.002201063 0.0033594875 -0.0068769697 0.035463825 0.037883088 0.004025915 -0.0042193285
-0.023749387 -0.0034936594 -0.033424675 -0.0008856158 -0.00212 0.010702548 -0.0044970596 0.008954197
0.004311718 0.005645225 -0.052965857 -0.023806658 -0.00011175693 -0.010371782 -0.007343832 -0.006864685
-0.015268407 8.217385e-05 -0.023441095 0.017869048 -0.0015561347 0.006938239 -0.001965735 0.005912847
0.04400547 -0.0032251552 0.026274309 -0.0073084356 0.0026651432 0.0027988574 -0.0012111464 0.006535201
-0.022845184 -0.00012225761 0.0021524045 0.0010628627 -0.00032496266 -0.025393683 0.0033836726 0.001768069
0.004071419 -0.047103997 -0.0018882358 -0.06390119 -0.00042877515 -0.0100657195 -0.112700135 0.0064268876
0.0019143983 0.001353761 -0.0008797986 0.0006788653 -0.0013450298 0.0053323144 0.013824062 -0.0005558181
0.00842708 0.005490919 0.0027944339 0.0007175672 -0.0024887996 -0.0055991346 -0.0035381613 0.0049696127
-0.013348505 -0.0016091383 -0.006275623 0.00073039194 -0.0036470108 -0.005574203 -0.0024868217 -0.004056008
0.0017388829 0.00036833965 0.01850335 0.029361587 -0.042573996 0.046903532 -0.0012670765 -0.026229298
0.0014518488 0.0037813098 -0.0013798809 -0.0063625826 0.019086571 -0.009756166 -0.04512131 -0.08462676
-0.027264591 -0.0024960537 -0.0016732481 -0.0005248561 -0.0009150348 -0.048854522 -0.033221263 0.046811886
0.0023813276 -0.00212294 -0.0033390203 0.003579456 -0.0010622437 0.001954163 -0.003229272 -0.0034081694
0.004606163 -0.03720418 0.002145337 0.010204844 0.005865884 -0.0015979041 0.0005345162 -0.00067052955
0.00094054773 0.0020285677 0.0037726255 -0.0021405048 -0.0016834924 0.03244077 -0.0017842486 0.0024390547
0.03766661 0.009913301 0.005282456 -0.005355684 0.0010681048 -0.003026687 -0.016403249 0.024174783
0.0060730833 0.0011931948 0.0012901346 0.059515826 -0.0016734343 0.004201066 -0.0023990697 -0.0016751572
-0.004668102 0.00860949 0.08680339 -0.009798408 -0.0014381777 0.0027970679 0.004958908 0.0071515385
00000000: 102b 8f3b 725b 11bc a273 4e3c 1467 89ba
00000010: dfda b4bb f4aa ae3b 16ad 233b a998 70bb
00000020: 3997 ceb9 15ea ad3b 7aa0 af3c a96c cd39
00000030: 4803 40bb 82ba cfb9 b4f9 6e39 aa7d 893a
00000040: 27ed 26bb c924 a23a 21fa 033c d5a1 e4ba
00000050: 4126 e93b 916f 1d3c 4463 78bb 8a1e ee3a
00000060: 804f 0f3b 446c b9ba 184b 1ebb e675 d53a
00000070: 898f eab9 14f4 243a 9949 57bc fa2d 833d
00000080: 2486 0f3b 93bd e8b9 8121 8fbb 083c b7bb
00000090: a8eb b5bb 4e16 9e3b 2b52 a6bb 4dc0 823c
000000a0: 7112 49bb 2452 033b 63bd 0cbc 4e73 b03b
000000b0: 5708 91ba 2359 613b 8100 f03b f223 04bc
000000c0: 8363 9839 e083 cd3a f587 983b 6037 e33b
000000d0: 3791 873a 97a1 89bb bb04 5a3b 603f 4a3b
000000e0: 7d68 d838 7ea7 b9ba cc48 893b d99e f6ba
000000f0: adf8 6d3a a72a 3e3c cc10 3bbc 5df1 adbb
00000100: 4a07 603c b922 38ba acf1 98bc 1f4e d938
00000110: cb50 2dba ae30 893b 9a6c be3a 9d4a 3bbc
00000120: 26b2 46bd 186a 7b3b e71d 883b 1d46 e93a
00000130: 0c49 4a3c bf90 b539 4887 983b 7a7c c6bb
00000140: e524 f63c 288a 81ba 2543 d339 ee98 653a
00000150: b8cd b53a 23ef d83a 4b61 b23a 0966 9e3b
00000160: 1596 b2bd 4891 003b 0fc7 a6bc 4e8f b8b9
00000170: 14df 9539 0963 2b3c 8a9e cc3a 4141 5b3b
00000180: 136f b33b dbc9 5dba ae98 963c d476 94bb
00000190: 7a5d 213b 9a0c 15ba fb86 073c 430b a9bb
000001a0: 9a04 5eba b63f 10bb d92a 5c3b 3458 e1bb
000001b0: 8442 113d 4c2b 1b3d d3eb 833b 4b42 8abb
000001c0: 138e c2bc e1f5 64bb 50e8 08bd ac28 68ba
000001d0: b3ef 0abb bd59 2f3c 125c 93bb a0b4 123c
000001e0: 5049 8d3b 94fb b83b baf2 58bd 2e06 c3bc
000001f0: 0c5f eab8 68ee 29bc 87a4 f0bb 27f1 e0bb
00000200: 5728 7abc c054 ac38 8a07 c0bc 1c62 923c
00000210: 37f7 cbba 2b5a e33b 90d3 00bb 8ec0 c13b
00000220: 143f 343d 205d 53bb 383d d73c 9a7b efbb
00000230: afa9 2e3b 096d 373b 54bf 9eba 3d25 d63b
00000240: d325 bbbc 4732 00b9 5b0f 0d3b c14f 8b3a
00000250: c05f aab9 6a06 d0bc 9bc0 5d3b 8dbe e73a
00000260: 8a69 853b 1ff0 40bd ae7e f7ba a1de 82bd
00000270: 3acd e0b9 b0ea 24bc 54cf e6bd a498 d23b
00000280: 8cec fa3a ae70 b13a 49a2 66ba e1f5 313a
00000290: b64b b0ba b2ba ae3b 527e 623c 52b4 11ba
000002a0: bc11 0a3c 2bed b33b d222 373b 1f1b 3c3a
000002b0: 211b 23bb f278 b7bb 7fe0 67bb 22d8 a23b
000002c0: b0b3 5abc b9e9 d2ba bea3 cdbb c677 3f3a
000002d0: b002 6fbb cea7 b6bb f2f9 22bb 43e8 84bb
000002e0: 3aeb e33a b61d c139 5694 973c b687 f03c
000002f0: 1262 2ebd eb1d 403d 0814 a6ba d3de d6bc
00000300: f64b be3a dacf 773b 1fdd b4ba 367d d0bb
00000310: 715b 9c3c 53d8 1fbc 1fd1 38bd cb50 adbd
00000320: fe59 dfbc d594 23bb e450 dbba 7f96 09ba
00000330: f2de 6fba ae1b 48bd 0513 08bd d2bd 3f3d
00000340: 0c10 1c3b 0621 0bbb 77d3 5abb 4e95 6a3b
00000350: fc3a 8bba 6a11 003b 32a2 53bb 985b 5fbb
00000360: 4cef 963b 6963 18bd c898 0c3b 3832 273c
00000370: 9a36 c03b c470 d1ba c61e 0c3a 7ac6 2fba
00000380: 178f 763a b8f1 043b 273e 773b b647 0cbb
00000390: a2a8 dcba 9de0 043d 73dd e9ba 8cd8 1f3b
000003a0: 4e48 1a3d 666b 223c 7418 ad3b bc7e afbb
000003b0: a6ff 8b3a 625b 46bb 1b60 86bc 320a c63c
000003c0: b700 c73b f964 9c3a bc19 a93a dec6 733d
000003d0: 2357 dbba 19a9 893b b639 1dbb f390 dbba
000003e0: e1f6 98bb d10e 0d3c fac5 b13d 8089 20bc
000003f0: 3c81 bcba 034f 373b 567e a23b 7457 ea3b

a2c_network.mu.bias f4 [6]
-0.07003865 0.13619828 -0.060907323 0.05900291 -0.108834274 -0.32495388
00000000: 6c70 8fbd 9077 0b3e f579 79bd 09ad 713d
00000010: 81e4 debd 5b60 a6be

exp_avg f4 [6]
0.00071424735 -0.0013085719 0.0011704399 -0.0013404391 -0.00013738885 0.0005101393
00000000: 543c 3b3a 6384 abba 7269 993a acb1 afba
00000010: 0a10 10b9 deba 053a

exp_avg_sq f4 [6]
4.301567e-05 3.8192113e-05 4.834001e-05 5.436701e-05 4.769299e-05 4.554894e-05
00000000: b96b 3438 7830 2038 b1c0 4a38 2208 6438
00000010: f509 4838 cd0b 3f38

exp_avg f4 [256, 40]
-6.2247574e-07 -1.6539767e-08 4.6676328e-07 6.224604e-07 4.6676328e-07 0.0 0.00015887467 5.005762e-05
6.0794697e-05 0.00017948957 6.93494e-05 6.0014565e-05 0.00020662727 0.0001486248 -0.00012945264 6.0629454e-06
0.00012740634 9.202014e-05 5.8467617e-06 8.97471e-05 -4.588457e-05 -6.674995e-06 0.000142561 -3.579107e-05
7.154986e-05 0.00011048596 6.9611895e-05 -5.082184e-05 0.00019198003 -4.71223e-05 1.5165121e-05 -7.849093e-08
-1.0272664e-09 -6e-45 -6.7688055e-09 -1.0272664e-09 -6e-45 -1.5081031e-07 -1.0272664e-09 -6e-45
4.1608446e-06 -3.923055e-06 -1.1871449e-06 -4.160835e-06 -1.1871449e-06 0.0 0.0002713548 -6.4677115e-05
7.804231e-05 0.00030670912 -4.743622e-05 7.971539e-05 0.00018689575 0.00031388763 -0.00010672278 4.833442e-06
0.00026080917 6.991697e-05 2.9085159e-06 0.00043240507 -2.9087927e-05 -3.1216416e-05 0.00023062139 -5.021482e-05
-1.6193275e-05 -0.00035254555 0.00036344142 0.00018112853 0.000557908 -0.00013448167 1.9318923e-05 -1.2659501e-07
4.4330843e-08 -6e-45 -2.219153e-08 4.4330843e-08 -6e-45 -2.3496055e-07 4.4330843e-08 -6e-45
-6.8572226e-06 6.1308883e-06 2.2269676e-06 6.857222e-06 2.2269676e-06 0.0 -0.00038098433 -5.3296604e-05
-3.793156e-05 -0.00037271445 -8.097885e-05 -4.7052075e-05 -0.00035387493 -1.0357848e-05 0.00055083126 1.3542796e-05
5.6660723e-05 3.2989195e-05 6.59023e-06 -0.00029977507 0.0005372456 4.9816394e-05 0.0001388718 0.0002711426
0.000178229 -0.00010170137 5.017781e-05 1.7826875e-05 -0.00038151245 0.00028049477 -1.0804748e-05 2.546414e-07
3.7524e-08 -6e-45 1.4990546e-08 3.7524e-08 -6e-45 4.970217e-07 3.7524e-08 -6e-45
-9.1671865e-07 5.5518586e-07 4.052371e-07 9.1670347e-07 4.052371e-07 0.0 7.531545e-05 5.335832e-05
5.293486e-06 7.3840434e-05 5.7159537e-05 3.4699428e-06 0.00010022001 0.00013353974 -0.0001127088 1.1412293e-05
9.670139e-05 -8.694439e-05 1.6202377e-05 0.00013304189 -0.00015479764 -1.258366e-05 0.00011849593 -2.0458707e-05
-1.3204232e-05 5.315982e-05 1.978169e-05 1.6133617e-05 4.2318326e-05 -0.00012122049 5.1638803e-05 -2.40339e-08
3.417064e-09 6e-45 -2.2455386e-09 3.417064e-09 6e-45 -4.574324e-08 3.417064e-09 6e-45
-4.936106e-07 8.686762e-08 4.2276173e-07 4.9358033e-07 4.2276173e-07 0.0 8.635742e-05 2.9929317e-05
2.899965e-05 0.000101319616 2.588733e-05 2.8999626e-05 0.00015860956 3.982976e-05 -4.7618603e-05 9.171908e-06
-5.8077298e-05 -0.00010776457 9.739933e-06 0.00021464167 5.1904433e-05 2.0114963e-05 -6.3876854e-05 9.00748e-06
6.7240494e-06 -6.339785e-05 0.000100149 2.6356183e-05 0.00018827169 0.00014146835 -8.9539986e-05 2.178778e-08
-3.553666e-08 6e-45 9.278321e-09 -3.553666e-08 6e-45 3.366276e-08 -3.553666e-08 6e-45
9.566285e-07 -1.79709e-06 2.4924074e-07 -9.566285e-07 2.4924074e-07 0.0 0.0001757056 0.00014437085
9.9928795e-05 0.0001883776 0.0001715376 0.00012146833 0.000110753004 0.00013877238 -0.00031612534 7.958887e-06
-3.8835235e-05 -6.501282e-05 -5.047832e-06 0.00022294675 -0.00021515932 8.687849e-06 1.0524531e-05 -0.00017277195
-6.628746e-05 -5.8828195e-05 -5.9729282e-05 3.439658e-05 -4.6071364e-06 -9.5519004e-05 7.6576005e-05 -5.633757e-08
2.8915432e-08 -6e-45 9.3152295e-09 2.8915432e-08 -6e-45 -1.2279764e-07 2.8915432e-08 -6e-45
-1.0118572e-06 9.97154e-07 2.769463e-07 1.0118565e-06 2.769463e-07 0.0 -1.3313222e-05 -3.8712753e-07
2.2308766e-05 -1.173157e-06 3.1636519e-06 2.8324499e-05 1.7561493e-05 0.00012260377 1.980795e-06 -3.0743422e-06
00000000: 3518 27b5 5513 8eb2 7597 fa34 2717 2735
00000010: 7597 fa34 0000 0000 9897 2639 f6f4 5138
00000020: cffd 7e38 5d35 3c39 ad6f 9138 26b8 7b38
00000030: 16aa 5839 2ad8 1b39 aebd 07b9 4e70 cb36
00000040: 6198 0539 f0fa c038 4d2f c436 9c36 bc38
00000050: 2f74 40b8 c5f9 dfb6 6d7c 1539 5e1e 16b8
00000060: 0a0d 9638 b3b4 e738 9afc 9138 8929 55b8
00000070: 3f4e 4939 2fa5 45b8 b36d 7e37 d88e a8b3
00000080: b92f 8db0 0400 0080 0b93 e8b1 b92f 8db0
00000090: 0400 0080 6cee 21b4 b92f 8db0 0400 0080
000000a0: 629d 8b36 c9a2 83b6 fd55 9fb5 4d9d 8bb6
000000b0: fd55 9fb5 0000 0000 a044 8e39 43a3 87b8
000000c0: a5aa a338 cdcd a039 41f6 46b8 e02c a738
000000d0: 72f9 4339 4991 a439 5bd0 dfb8 f32e a236
000000e0: 37bd 8839 63a0 9238 ec2f 4336 6db4 e239
000000f0: d901 f4b7 5fee 02b8 f5d2 7139 c19d 52b8
00000100: cbd6 87b7 ddd5 b8b9 488c be39 52ed 3d39
00000110: 9240 123a a603 0db9 120f a237 2cee 07b4
00000120: 4766 3e33 0400 0080 b19f beb2 4766 3e33
00000130: 0400 0080 7749 7cb4 4766 3e33 0400 0080
00000140: 1817 e6b6 eeb7 cd36 0373 1536 1717 e636
00000150: 0373 1536 0000 0000 dabe c7b9 cb8a 5fb8
00000160: b418 1fb8 e368 c3b9 30d3 a9b8 c859 45b8
00000170: 4a88 b9b9 9ec6 2db7 a965 103a de35 6337
00000180: fda6 6d38 e15d 0a38 a521 dd36 212b 9db9
00000190: f1d5 0c3a f2f1 5038 1d9e 1139 2528 8e39
000001a0: fce2 3a39 8248 d5b8 0376 5238 ec8a 9537
000001b0: bc05 c8b9 5f0f 9339 0a46 35b7 a6b5 8834
000001c0: 132a 2133 0400 0080 8fc4 8032 132a 2133
000001d0: 0400 0080 126b 0535 132a 2133 0400 0080
000001e0: 6d14 76b5 1508 1535 5d8f d934 6213 7635
000001f0: 5d8f d934 0000 0000 adf2 9d38 0fcd 5f38
00000200: b39e b136 c8da 9a38 96be 6f38 2add 6836
00000210: 352d d238 cd06 0c39 145e ecb8 6d77 3f37
00000220: 2acc ca38 ea55 b6b8 57ea 8737 2981 0b39
00000230: 2d51 22b9 681e 53b7 0581 f838 bd9e abb7
00000240: bf87 5db7 ecf7 5e38 dbf0 a537 ae56 8737
00000250: f57e 3138 c137 feb8 be96 5838 1b73 ceb2
00000260: a0d1 6a31 0400 0000 ef4f 1ab1 a0d1 6a31
00000270: 0400 0000 3977 44b3 a0d1 6a31 0400 0000
00000280: aa80 04b5 fb8b ba33 eef7 e234 957e 0435
00000290: eef7 e234 0000 0000 c91a b538 b810 fb37
000002a0: 4644 f337 8e7b d438 9e28 d937 3944 f337
000002b0: 6e50 2639 e10e 2738 16ba 47b8 0be1 1937
000002c0: 0698 73b8 aaff e1b8 b268 2337 6f11 6139
000002d0: f6b3 5938 8ebc a837 a0f5 85b8 d51e 1737
000002e0: 259f e136 76f4 84b8 1607 d238 7917 dd37
000002f0: cc6a 4539 1f57 1439 6ac7 bbb8 d627 bb32
00000300: f9a0 18b3 0400 0000 7d66 1f32 f9a0 18b3
00000310: 0400 0000 9994 1033 f9a0 18b3 0400 0000
00000320: 8165 8035 8b33 f1b5 63cf 8534 8165 80b5
00000330: 63cf 8534 0000 0000 9d3d 3839 4162 1739
00000340: dd90 d138 3a87 4539 c6de 3339 d0bc fe38
00000350: 1144 e838 6d83 1139 a0bd a5b9 2987 0537
00000360: 04e3 22b8 7e57 88b8 8c60 a9b6 d0c6 6939
00000370: 649c 61b9 07c2 1137 8492 3037 1e2a 35b9
00000380: cf03 8bb8 4bbe 76b8 d485 7ab8 0c45 1038
00000390: 0097 9ab6 6051 c8b8 6e97 a038 d0f7 71b3
000003a0: b561 f832 0400 0080 d008 2032 b561 f832
000003b0: 0400 0080 5cda 03b4 b561 f832 0400 0080
000003c0: 26cf 87b5 f3d5 8535 36af 9434 20cf 8735
000003d0: 36af 9434 0000 0000 da5b 5fb7 67d6 cfb4
000003e0: b623 bb37 5e75 9db5 204f 5436 669a ed37
000003f0: 0551 9337 338f 0039 cded 0436 cc50 4eb6
