logs/rl_games/yam_cube_sort_8192/2026-02-01_19-21-52/nn/last_yam_cube_sort_8192_ep_900_rew_970.19763.pth (torch, 953214 bytes, 30 tensors)

value_mean_std.running_mean f8 [1]
00000000: 7d92 d6ce c7b8 c73f
0.18532655334015039

value_mean_std.running_var f8 [1]
00000000: 7326 5778 c041 9b3f
0.026618010849949813

value_mean_std.count f8 []
00000000: 0000 0001 0020 bc41
471859201.0

running_mean_std.running_mean f8 [40]
00000000: 5e3d b581 50fb ef3f 9a26 df10 f0bd 423f
00000010: 0000 0000 0000 0000 9a26 df10 f0bd 423f
00000020: 0000 0000 0000 0000 0000 0000 0000 0000
00000030: 2667 e805 d6b3 ca3f 8ceb 0082 5fb0 d03f
00000040: 238a 5904 d944 bc3f d846 78aa 9bb4 ca3f
00000050: 6735 61d6 219d d03f d93c 1195 981d bc3f
00000060: 463b bfd5 cc4f e53f 4bcc 3f0d d716 d03f
00000070: 13c6 7baf 6f23 d23f 420f 1069 290e 8a3f
00000080: 9b31 aeb1 679e d03f 1084 9e3b e032 d23f
00000090: 78ba 3b34 1208 8a3f be54 5672 f8a9 d03f
000000a0: adbb 7361 813c d23f 456d ffb2 0e08 8a3f
000000b0: 07b2 ce15 5aff 3b3f 2e5a e587 b396 ec3e
000000c0: f9b9 8176 b98a 4bbf 0c43 0e57 73dd 2f3f
000000d0: ed0c da73 aaf7 2e3f 3aaa 3939 969e 3ebf
000000e0: fbda bcdb 362e 2d3f fa50 18d8 0db7 2e3f
000000f0: 0531 067b f00b 3ebf a4c0 ca12 cbfc d03f
00000100: c382 2636 7202 cabf 5a2c 8bfe df7a 843f
00000110: 4313 cfe6 01c0 b03f c382 2636 7202 cabf
00000120: 5a2c 8bfe df7a 843f 72bc e1a5 95c9 dd3f
00000130: c382 2636 7202 cabf 5a2c 8bfe df7a 843f
0.999428037010073 0.0005719587513734637 0.0 0.0005719587513734637 0.0 0.0 0.20861316002338376 0.26076495834029667
0.11042553287692462 0.20863672088358132 0.25959058700103416 0.10982659949626185 0.6659912276025828 0.25139404577129615 0.28341285836276703 0.012722323912391812
0.2596682772789564 0.284355219098928 0.01271070691970276 0.26037417569871113 0.28494295613102844 0.012710680806711347 0.00042720746369687184 1.3632143460879072e-05
-0.0008405118542336713 0.00024311097106679452 0.00023626285285525215 -0.00046721618239212485 0.00022262973458860705 0.00023433727260225424 -0.0004584753142118511 0.26542927584797327
-0.20319965023101902 0.009999990420871342 0.06542980084402665 -0.20319965023101902 0.009999990420871342 0.46542874526398414 -0.20319965023101902 0.009999990420871342

running_mean_std.running_var f8 [40]
00000000: 2364 f515 69bb 423f 03ee bb1a 60bb 423f
00000010: d355 4f77 5634 323e 03ee bb1a 60bb 423f
00000020: d355 4f77 5634 323e d355 4f77 5634 323e
00000030: 3442 029f 03a2 a13f 04a9 f7d5 9ffc a43f
00000040: fa94 d12a 639b 783f 5a40 78a3 7f10 a03f
00000050: d2ee 8d26 fd21 a33f ef2e 5231 19d7 753f
00000060: 221d fad4 75bc b43f 1969 cd50 13d8 843f
00000070: 356c bd20 4add 943f 5781 674d 2a06 b03e
00000080: e546 ae80 c0c2 7c3f f0a4 762e 0997 8a3f
00000090: ddef 1a0c 3907 b13e 37ee 3217 7cf9 7c3f
000000a0: 36b2 4892 4107 8a3f 3599 ae01 91f5 b03e
000000b0: 20f8 8cef 3ac5 6e3f 94e3 3955 7807 733f
000000c0: 98dd a11a 5739 403f 1a2e 2897 4daf 683f
000000d0: 5c86 4c14 3d08 6d3f cce2 51f0 b57a 333f
000000e0: 8dc1 dd52 ca71 683f 095b 9f24 f1ab 6c3f
000000f0: 7d0d 6a26 9548 333f f73a e0bc ed7f 333e
00000100: ecf2 c69f 02f8 323e 3bb4 3dc5 cd34 323e
00000110: 8cc9 dcdb 5f48 323e ecf2 c69f 02f8 323e
00000120: 3bb4 3dc5 cd34 323e 3232 fa35 7332 363e
00000130: ecf2 c69f 02f8 323e 3bb4 3dc5 cd34 323e
0.0005716574777735499 0.0005716532955086232 4.238552499395744e-09 0.0005716532955086232 4.238552499395744e-09 4.238552499395744e-09 0.03443919483209293 0.04098987090022102
0.00600756394587631 0.03137587423782469 0.03736868949542117 0.005332086953000233 0.08100067567476235 0.010177756217377753 0.02037540268734635 9.551097740410246e-07
0.007021667445671763 0.012983390551044555 1.0149606598916084e-06 0.007073864678371281 0.012709152485592328 1.0108497068089593e-06 0.0037561560715451275 0.004645795870254061
0.0004951167404802391 0.003013278526173624 0.003543967528813847 0.0002972311197662447 0.0029839469561283084 0.003499957067997332 0.00029424325331480606 4.540132670870219e-09
4.416515594590001e-09 4.23897635383518e-09 4.256775763301223e-09 4.416515594590001e-09 4.23897635383518e-09 5.1681582066327505e-09 4.416515594590001e-09 4.23897635383518e-09

running_mean_std.count f8 []
00000000: 0000 0002 0020 ac41
235929601.0

a2c_network.sigma f4 [6]
00000000: 1947 c3bf a0c0 b8bf 068d b9bf 977f 1ec0
00000010: b56b 2fc0 807e 6240
-1.5256072 -1.4433784 -1.4496162 -2.4765375 -2.740949 3.538971

a2c_network.actor_mlp.0.weight f4 [256, 40]
00000000: 8ae0 7a3e a269 a8be eb47 883d 3e5d 14be
00000010: 862f bb3d 6290 8dbd b048 023f fc39 9c3f
00000020: 6eaa c03e 03a3 e3be 452e 8cbf 1d47 8ebe
00000030: 2a12 f73b 093d 8cbd b841 6ebd 3f5d 153d
00000040: 5c97 ca3c 887c 933c 0c01 8dbe acc4 84ba
00000050: 5b74 ffbc f24d 853d 1497 293c 4aa7 62bd
00000060: 5498 31bd a26b 3d3e f4c7 b6bd 1eed 823e
00000070: 62a6 a83b 4ad2 36be 3fb6 373d ce5a 3c3e
00000080: 92d1 94bc 5abd 11be 8e53 833c c088 96be
00000090: 6411 f2bd 3272 4f3e 9fd8 e8bd ccd3 f43d
000000a0: b4fa a83e ed68 05bf 73cf ab3d 605a f4be
000000b0: 4b88 c43d 1faf 19bd 7540 95bc 8ff9 03bf
000000c0: bcc0 b53e 05ee ecbe 62b6 e33e d97a 3f3e
000000d0: ae35 563d fa71 e93e 77d7 65be 26b4 37be
000000e0: 3945 5a3d 5cf4 2fbd 7b49 9fbd 0072 333d
000000f0: f8c8 973c 4d9a eebd d455 bfbe 0f49 04be
00000100: 4b55 0c3e 2cce aebe dc01 b9be a038 b1be
00000110: eb50 0a3e 3323 9cbe 5022 29bd e987 8cbd
00000120: 9104 673f 6ce7 1bbe ebf5 e63d 4912 4d3f
00000130: 7762 a33c 94ce 8ebe 9d1a 493f 0da6 cbbd
00000140: b3ee 893d 38fe c7bd 6883 33bc cd76 15be
00000150: 3f44 debd 62ea bcbd 5f26 be3c 505c 02bf
00000160: 5a92 f93e 7d05 09b9 9467 f53e c3e6 fbbe
00000170: 6b14 81bc fed4 86bc 1540 93bc 99fe 50bc
00000180: 6f4f f73b 0f47 65bb 8bb0 c0bb 28a3 c93b
00000190: 00af 18bc 391b 283e 048e 7a3c e9ad 80bc
000001a0: e1f8 223c e8bb 2b3c b9fc 7f3c 1056 fb3c
000001b0: cbb6 58bd 5c52 8fbd f346 37bb 1a12 0340
000001c0: 2422 85bf 2f0c d9bd 072d f63e 05c5 91bf
000001d0: 1464 c63d 3188 0d40 88ad 78bf 81be 95bd
000001e0: 0f93 813e c497 77be 9b9f a63c 6eed d4be
000001f0: 4bef 873d 2851 c2bc a3b8 8f3d d31b 833f
00000200: 515e 383e 0743 343c a53a 7cbf d72a 69be
00000210: 07fc 77bc e311 f5bc d065 afbc bac7 e7be
00000220: 0aed 43bc cb1b 0d3c dc56 b33e 06dc 00bc
00000230: d69c 353a 34c5 843e acb1 453d 64a3 b2bc
00000240: e8d5 0cbd a50a 383d e392 9f3c e806 89bd
00000250: bb3c 0a3c 6c84 4c3d 876b 06be 0b8c 243f
00000260: 439f e83e 2022 093e 6f4b 323f b7bf a23e
00000270: 5bf3 b339 96c7 263f 2e56 c83e ca71 2d3d
00000280: d150 d13c 7710 67be 1859 083e 147c d8bd
00000290: d9d8 00bc 353b c3bd 11a4 0fbf 6f18 1bbf
000002a0: 9185 18be faaf 003f 9fd3 1b3f d94b 923e
000002b0: 453f 8f3d db88 793c 9104 aebc 40a5 3ebd
000002c0: d504 51bc 2c0a 573c 44f7 51bf 7ccd b73b
000002d0: 2e8e 123d 7e00 d6be 27fb 8fbd 679f d43d
000002e0: eff0 cabc bde8 f4bd 8ea2 fb3d f740 fd3e
000002f0: 75fd 26bd 6fb5 85bd cd3f a7be 6806 f8bf
00000300: f1ef 753f cfc6 073e 325a 7ebf c7bf 6c3f
00000310: 608e 03bb a78e 0bc0 a3d3 3f3f 46e9 17be
00000320: 944a 4bbe 5722 833e 8e56 02bd 1095 783e
00000330: 4d07 ecbc f3e9 e3bd 7f76 0ebf 576a b53e
00000340: 8a8a 693e 9a74 1c3f c836 efbe 455a 92be
00000350: 83ea 0a3d 2505 ab3b 5054 613d 0f54 dfbe
00000360: 763e 673d 94ed 24bd 6a2d 5cbe d209 f23c
00000370: 7dd3 debc 3f2e f038 6628 5d3d 7910 29bd
00000380: 9a75 7cbc 7c39 57bd 8b66 eb3c 07fc af3b
00000390: 914a d63c e005 d3bd 8b4d c53c c7b4 8cbf
000003a0: da1c 633f 12d1 073e c3eb 09bd 8a6f 403f
000003b0: 27b7 ecbd 64c6 66bf 5e58 603f 037a 12be
000003c0: 3762 af3d 2341 4cbe 0094 62bc 03e4 3abe
000003d0: b15d 84bd e998 4dbd 5dc8 b1be c296 c33e
000003e0: b01c 193f 47cc be3e 2283 bbbe 4f5c 18bf
000003f0: c858 f8bc 5109 d7bb 8615 ff3c 4468 02bd
0.24499717 -0.3289309 0.06654342 -0.14488694 0.09139924 -0.069123045 0.5089216 1.2205195
0.37630028 -0.44460306 -1.095162 -0.2778863 0.007540007 -0.06847579 -0.058168143 0.03646588
0.024730377 0.018003717 -0.2753986 -0.0010129414 -0.031183412 0.065090075 0.010350961 -0.05533532
-0.043358162 0.1849809 -0.08924857 0.2557153 0.0051467875 -0.17853656 0.044851538 0.18394014
-0.018166337 -0.14232388 0.016031053 -0.29401207 -0.11819723 0.20258406 -0.11369442 0.119544595
0.3300377 -0.5211323 0.08389177 -0.477252 0.09596308 -0.037520524 -0.018219212 -0.5155267
0.35498607 -0.46275344 0.44475085 0.18699206 0.052297287 0.4559477 -0.22445475 -0.17939815
0.053288672 -0.04295765 -0.07777687 0.04380989 0.018528447 -0.11650524 -0.3737017 -0.12918495
0.13704412 -0.34141672 -0.3613423 -0.34613514 0.1350743 -0.30495605 -0.04129249 -0.0686186
0.9024134 -0.15224999 0.11277374 0.80106026 0.019944413 -0.27891982 0.78556234 -0.09943781
0.067349814 -0.09765285 -0.010956623 -0.145961 -0.10852861 -0.092243925 0.023211656 -0.5092211
0.4874447 -0.00013067383 0.47930586 -0.49199495 -0.015756806 -0.016458984 -0.017974893 -0.012756013
0.007547311 -0.0034984981 -0.0058804206 0.006153483 -0.009319067 0.16416635 0.015292648 -0.015707927
0.009947033 0.010481812 0.015624219 0.030680686 -0.0529087 -0.06998131 -0.0027965873 2.0479798
-1.0401044 -0.10598027 0.48081228 -1.138825 0.09687057 2.2114375 -0.9713979 -0.07311726
0.2530751 -0.24178988 0.020339778 -0.41587394 0.066374384 -0.023720339 0.070176385 1.0242866
0.18004729 0.011002309 -0.98526984 -0.22770248 -0.015135772 -0.029915756 -0.021410853 -0.45269567
-0.01195837 0.008612583 0.35027206 -0.007864958 0.00069279724 0.25931704 0.048265144 -0.021806426
-0.034383684 0.044932026 0.01947922 -0.066907704 0.008437331 0.049930975 -0.13126956 0.6427619
0.45434007 0.13391924 0.6964635 0.31786892 0.00034322854 0.65148294 0.3912825 0.042344846
0.025551232 -0.22564875 0.13315237 -0.10570541 -0.0078642005 -0.09532777 -0.5610972 -0.6058416
-0.14894702 0.5026852 0.60869783 0.28573492 0.069944896 0.015230383 -0.021242412 -0.046544313
-0.0127575 0.013124984 -0.8201792 0.0056092124 0.035780124 -0.4179725 -0.070303254 0.10381966
-0.02477309 -0.11958454 0.12286864 0.49463627 -0.04076906 -0.06528746 -0.32665864 -1.9376955
0.96069247 0.13259433 -0.9935638 0.9248013 -0.0020073876 -2.1805818 0.74932307 -0.1483508
-0.19852668 0.25612137 -0.031820826 0.24275613 -0.028812075 -0.11128607 -0.5564956 0.35432693
0.22806755 0.6111542 -0.46721482 -0.28584495 0.033915054 0.005219119 0.055012047 -0.4361882
0.05645605 -0.040265635 -0.21501699 0.029545698 -0.027200455 0.00011452706 0.053993605 -0.041275475
-0.015408898 -0.052545056 0.02873542 0.00537062 0.026158603 -0.10303855 0.024084827 -1.0992669
0.887159 0.13263348 -0.033672106 0.75170195 -0.11558371 -0.9014647 0.8763484 -0.14304356
0.08563655 -0.19946723 -0.013829231 -0.18251042 -0.06463183 -0.050194655 -0.34723178 0.38200957
0.598094 0.37265226 -0.36623484 -0.5951585 -0.030315772 -0.00656239 0.031138193 -0.031837717

a2c_network.actor_mlp.0.bias f4 [256]
00000000: e475 8bbc fc93 453e a60c d3bb 2e29 c4bc
00000010: bd5f f3bd 7780 983d 55e2 0a3b eb02 d5bd
00000020: a2cb debe 7365 8d3e c7be c83e 267e a3be
00000030: 0cc1 fd39 e769 c83d 1409 49bd aa60 903e
00000040: a6e4 933e 32f0 333b ee75 35bf 4077 ee3b
00000050: 494f c7bb 023f f3be 8822 94bd 153f 3f3c
00000060: e501 183c 30c1 5fbe dde8 04be e2e3 fabe
00000070: 2428 123f d5e3 eabd 8f6c 49bd 9b43 10bf
00000080: ef4f edbc 7340 14be 47ab 19bf ef75 70bd
00000090: 2775 d5be ecf3 88bf 4146 7bbf 8608 50bd
000000a0: c9c4 683e cc10 58bd b338 fbbc 71cd a33b
000000b0: 01f9 903d 716c d7bb 498a 84bb 4125 25bb
000000c0: 6b1f 1cbd 5f44 71bd 304c 87bf 5a1f 1d3c
000000d0: b36a c0bd 66f2 813b ad86 0abc b127 8ebd
000000e0: 5b7e 0cbf cb87 7b3e 4b1a 37bd 3598 cb3c
000000f0: ce52 64bd 4bd9 9abc afb5 47bc 12ff 8fbf
00000100: a7ad 88bf 155b 763e 58de 2cbd ef9f 0dbc
00000110: 027e 89bc 1d6b 91ba 89dc 20bf 6b6f a3bc
00000120: 7c63 aebe fc37 103e cb10 1ebe 5771 f9b9
00000130: 03e4 5fbf 17b2 1e3d 62d8 fdbe 44fe 16bf
00000140: 947b 1b3c 0feb bdbc 1a5f 01be 150b a1bd
00000150: 3c4d ddbe 3214 82bd 8c0e 44bd 689b 2fbd
00000160: b4cd 7ebd 6d05 63be 22b2 1abc cddf 0ebe
00000170: 4908 4ebf 073c 37ba cc3d ffbd 85ed 22bf
00000180: 70f6 18bc 6cef 99bb 32fe 19bd a039 1ebe
00000190: 1867 05bf a97c 753c 66ac 9fbc 9a05 813e
000001a0: ac5f c0bb 01d2 263d 03a6 8bbc c015 ebbd
000001b0: 410c e23c 37b1 e8be cc7d 783e 3960 68be
000001c0: 1027 87bc 0fc3 a33b c8f8 9ebd bbce 943b
000001d0: 7878 44bd 0ac6 c8bb ca51 e23d 6f53 84be
000001e0: ee4b debe c884 cdbc d42c b4be b906 55bd
000001f0: ca0a 073e eb5f 80be cf3d 56bd 7861 133c
00000200: 28e5 3abe 1c24 04bc 73f4 f1be 4900 83bc
00000210: ead3 973b 92ae 5a3c 7a30 73bc 86a2 fabc
00000220: e896 a73b 7efe 26bc 2372 9f3e 23e0 f5bd
00000230: d314 81bd 97f3 dcba f67c bdbe e7d7 77bd
00000240: fdbf 123d 0059 323c bc25 7abc 748e 73bd
00000250: b08a d6bc 161d 90bc 4e20 8aba 9c95 6e3c
00000260: 1454 3abd 45d1 c8bd f380 823e e707 4cbe
00000270: 0e31 38bc 6c4e 113d 6b42 73bc f1be c3bc
00000280: 2071 39bd ecfc ccbe 2392 413c 2f89 51be
00000290: f1cb b9bc 6653 c43d 18f1 e73c bdc5 1bbf
000002a0: 6a02 68bc d7bb ad3b 08b3 cabe a0b3 88be
000002b0: 39e0 b0b8 fccb 863c 4ef6 abbc ea1b c23c
000002c0: 7fbe 35bd 9b21 a4be eb36 85bd dfc2 63bf
000002d0: 3555 0d3c fd9c d0bb 0fbe e2be 5e03 333c
000002e0: fa0b 77be 961a d6bd 993c c13c 690a a7bc
000002f0: a296 54be 251a 7b3e 9963 63bf 4724 903d
00000300: 0da4 6dbc 3e72 e0bd 1f48 00bf ff8a 9e3b
00000310: 6d7a da3d 6ea9 6b3c c5af bc3c fa31 a1bc
00000320: f18d a43c f867 1cbd 39f5 44bd e61e fd3c
00000330: 4008 78bc 5965 843a bc40 51be b14e eabb
00000340: 6135 42be c1e4 b53e dda0 20bf af13 b2bc
00000350: c8bd 303d 5cc4 f5be f680 b3bc 62e7 5dbb
00000360: 7d9b abbd 9dd5 c9bc f669 29bf 3ce9 3f3e
00000370: fc34 5a3c f3be 113c 5e74 abbe 1ee2 b63c
00000380: aeca 2cbc 1ecf 2cbf 7351 10bf cfd4 d5bd
00000390: e027 c63b a937 9fbe 4e5c 49bf 58b8 933c
000003a0: 285f a6bb dba1 a1be afa6 b13c fa72 c8bc
000003b0: dbc7 a2bc f18e 39be 38b3 d4bc cb76 08be
000003c0: 03ff ed3d 498d c03d dfbe 2bbd b00b 543c
000003d0: 435d 14bd bfa7 37bf 9c8e a5be 346d 9ebc
000003e0: e28b 57bf 2265 06be d5cd 7d3e 2134 f2bc
000003f0: ac12 5dbd 3ed2 d7bc 47ff 2e3e 0696 d33e
-0.017023988 0.19294733 -0.006440717 -0.023945417 -0.11883495 0.07446378 0.0021192033 -0.10400947
-0.43514735 0.27616462 0.39208052 -0.3193218 0.00048399752 0.09785824 -0.049080923 0.2819875
0.28885382 0.00274564 -0.7088307 0.0072773993 -0.0060824496 -0.4750901 -0.07233149 0.011672755
0.009277795 -0.21851039 -0.12979455 -0.49001986 0.570925 -0.11469237 -0.049175795 -0.5635316
-0.02896878 -0.1447771 -0.60026973 -0.05870622 -0.41690943 -1.0699439 -0.98154074 -0.05078938
0.22731318 -0.052750394 -0.030666685 0.0049988558 0.07078744 -0.0065742065 -0.004044805 -0.0025199207
-0.0381159 -0.058903094 -1.0570126 0.009589994 -0.09395351 0.0039656637 -0.008454961 -0.06941164
-0.54880303 0.2456352 -0.04470281 0.024852851 -0.05574303 -0.018902441 -0.012189313 -1.1249716
-1.0677994 0.24058183 -0.04220423 -0.008644088 -0.016783718 -0.0011094544 -0.6283651 -0.01995059
-0.34060276 0.14083856 -0.15436094 -0.00047577426 -0.87457293 0.03874406 -0.4957915 -0.5898173
0.009489913 -0.023183374 -0.12633935 -0.07863442 -0.43222988 -0.06351508 -0.047865435 -0.042872816
-0.062207893 -0.22170039 -0.009441884 -0.1395256 -0.8048139 -0.0006989841 -0.12462959 -0.63643676
-0.009336099 -0.0046977308 -0.037595935 -0.1545167 -0.52110434 0.014983335 -0.019491386 0.25199586
-0.00587078 0.04072762 -0.017046934 -0.11478758 0.027593734 -0.45447704 0.24266738 -0.22692956
-0.016498119 0.004997618 -0.07762295 0.0045412458 -0.04796645 -0.0061271237 0.11050756 -0.25844905
-0.43417305 -0.02508773 -0.3519045 -0.052008364 0.1318771 -0.2507318 -0.05230504 0.008995406
-0.18251479 -0.00806525 -0.47256812 -0.015991347 0.0046334164 0.013347285 -0.014843101 -0.030595075
0.005114425 -0.010192512 0.31141767 -0.12005641 -0.063028 -0.0016857263 -0.370094 -0.060508635
0.035827626 0.010885477 -0.015267786 -0.059462026 -0.026189178 -0.017591994 -0.0010538192 0.014562037
-0.04549034 -0.0980554 0.25489005 -0.1992489 -0.011242164 0.03547518 -0.014847378 -0.023894759
-0.0452739 -0.40036714 0.011814627 -0.20462488 -0.022680255 0.095862195 0.028313205 -0.608486
-0.014160732 0.0053019333 -0.39589715 -0.26699543 -8.434099e-05 0.01645469 -0.02099147 0.023694951
-0.044371124 -0.3205689 -0.065046154 -0.88969225 0.008626272 -0.0063663707 -0.44285628 0.010926096
-0.24125662 -0.104542896 0.023588466 -0.020390706 -0.20760587 0.24521692 -0.8882385 0.07038169
-0.014504445 -0.1095929 -0.5011005 0.004838347 0.10667882 0.014383657 0.023033032 -0.019677151
0.020087214 -0.03818509 -0.048085425 0.030898523 -0.015138686 0.0010101005 -0.2043485 -0.007150494
-0.18965675 0.35526088 -0.6274546 -0.021737901 0.04314974 -0.48001373 -0.02191208 -0.0033859839
-0.083792664 -0.024637992 -0.6617731 0.18741316 0.0133182965 0.0088956235 -0.3348722 0.022324618
-0.0105463695 -0.67503536 -0.5637428 -0.10440981 0.006047234 -0.31097153 -0.7865647 0.018032238
-0.0050772615 -0.31568798 0.021685926 -0.024468888 -0.01987069 -0.18120934 -0.025964364 -0.13326566
0.11620905 0.09401948 -0.041930076 0.01294224 -0.036221754 -0.71740335 -0.32335365 -0.019339181
-0.8419782 -0.13124517 0.2478555 -0.029565873 -0.053972885 -0.026345368 0.17089568 0.41325396

a2c_network.actor_mlp.2.weight f4 [256, 256]
00000000: 42b8 80bd 75d5 a5be af0d 63be a34c 663d
00000010: 82e6 70be 7c47 953e eb56 843d 8877 833e
00000020: 2695 943d 3019 37bd b941 e1bc 25c5 8bbe
00000030: a476 903d 0e13 88be 5d7e 14be ef19 57be
00000040: 06f5 4fbe 0c06 bebe 49ba 5cbe 8229 0e3e
00000050: 027b 94be 3a4a d6bd 7ef2 873e a2d8 e8bd
00000060: f3e2 dc3d 2a21 0cbd 9c66 f8be 307e 3dbe
00000070: 27f6 0cbe c49a 06bd 1e9d 8abe e9b0 89be
00000080: 5116 313e e980 3b3e 0881 c33e 8bc6 d8be
00000090: 4cad 5d3e 953a 363d 83d9 8e3e 6d0c 1f3e
000000a0: a029 4cbf a2cd ee3e 0fb7 63be bf01 f9bc
000000b0: 9fc9 493e be3f 833e 3d1c e6bd 539f 03be
000000c0: 8817 2b3e 34c4 f53d a62c 9cbd 03e7 c2bd
000000d0: ef0c 80be 618a 68be d8fe f93d 3d5e d1be
000000e0: 182c 3bbe 68a5 57be 82c4 373e 1034 103e
000000f0: 96ab 3dbc 33bb cfbd 5cc3 873e fa9d 61bd
00000100: ebc6 923d fec8 25be 2f18 633e 1b00 9cbe
00000110: edf1 32bb 3d65 c1bd 3bac 97bc 535d c5be
00000120: 6859 433d 18cc 58be 9851 21be c095 85be
00000130: cd94 a5be 0c79 af3d f508 3bbc 793c d63e
00000140: e2de c7bd 649a b63d 159c 11bd 8b3b 423e
00000150: 0f05 c63e aac2 92be ac5d 20be 1d04 ac3d
00000160: 014d e7be 63ae 953d ebc8 dbbc 3df0 59be
00000170: 896f 8bbd 8c69 0e3e 0452 763e 7351 f8bc
00000180: 5bac 883d 77aa 713e a98c 3c3d cb0d 5dbd
00000190: 90ec b83c 9761 b8bd bf32 313e 5236 89bd
000001a0: 3007 4d3d 897e 58be e563 6f3e 4a70 49be
000001b0: f77e 123e bf3b 82be a0df a03e a7f8 85be
000001c0: ee90 c63a bb87 243d fccf 09bf b3a9 5f3e
000001d0: ed65 f33c dc4a 56bd 1247 c03b 104c 1dbe
000001e0: 1cec 34be 68f0 4c3d b35e 95be 0a9c 243c
000001f0: 1749 56bd d2a2 5bbc 72ae 43be be9f 60be
00000200: 6ad1 203e 587d e4bc bf8f 7bbe 341c 5f3e
00000210: de88 babd 5829 643d 4f85 f23e 030e 6dbe
00000220: 8896 d63d c38d 9c3e 0094 623e 8622 2d3e
00000230: 1428 c03e d96c 893e e248 bbbe 8ba6 07be
00000240: 026e c2bd 5630 8ebe 78ab 71bc 2417 c6be
00000250: ac38 fd3d bd05 88ba 7c2c 97bd 295d f1bc
00000260: e5e8 80bd dd86 21bd b205 47be 036e 8c3e
00000270: a73d b0be b7bd 423e 0394 603e f676 dc3d
00000280: 868e d9bd 323b 8b3d 953c dabd 141d 05be
00000290: 2440 f3bd acfd cc3d 9ee1 3abd 713e 8bbd
000002a0: 7bd6 9e3e af5a ae3e 9185 c8bd 44a8 acbe
000002b0: 42b8 3e3e 2c0f 01be f354 7fbe bd45 bbbd
000002c0: 8ba0 333e 02ce a0bd 6c7e 893e 0c21 89be
000002d0: 51af 0d3e 1d83 b6bd 955d 01bf 3bcf d5bd
000002e0: ceda 813b ad3f 99bc 2446 cd3e 1edb 923d
000002f0: e9df 8abe 3869 b9bd 2be1 8d3e 0e7f 973e
00000300: a6ac e7bd 959d e7bd 7258 893d b34b 7e3d
00000310: fa08 79be 83d1 f63d 8415 e73d c279 a33e
00000320: 00b5 3ebd e07a 0ebe 0ea0 cdbe 6923 84bc
00000330: 532f e0be 1716 95bd 6889 6a3c e27a 1a3e
00000340: ca52 0fbe 1297 033e dbb3 3abe 9be0 9a3e
00000350: 406e d43c 7ccc 99be e216 8a3e a26a 06be
00000360: 9598 3dbe 21f4 c53d 9a72 09be 1d04 66bd
00000370: e60e 533e 3f71 8f3e 074e 65be 3f60 54bc
00000380: 74e3 98bd 3379 64be 35a8 8cbe dadc 02be
00000390: 66cd 073e b3a5 59be aff1 acbd 850b ce3d
000003a0: 2b2f 5f3e a082 723c fa21 d13d eacb 7e3e
000003b0: f0fc b5bc cd25 9abd 73fa 9abe 06f7 853e
000003c0: 628c 8bbe 5080 323e d115 87bd 3975 fa3d
000003d0: c63a 133e 43d8 4cbc 3abc 413d e4b5 833e
000003e0: 511e d3bb 7ba9 ea3e d049 0b3c d7d3 1cbe
000003f0: 1dd2 953b 5645 4e3d e3fe 4bbe 76d3 11be
-0.062851444 -0.32389417 -0.22173189 0.05622543 -0.23525432 0.291561 0.06461891 0.25677133
0.0725501 -0.044701755 -0.02749716 -0.27298847 0.07053879 -0.26577038 -0.14501329 -0.21005987
-0.20308313 -0.37113988 -0.21555437 0.13883021 -0.29000098 -0.10463376 0.26552194 -0.113694444
0.10785475 -0.034211315 -0.48515785 -0.18505168 -0.13765775 -0.03286244 -0.27072996 -0.26892784
0.1729367 0.18310894 0.3818438 -0.42338976 0.21648139 0.044489462 0.27900323 0.15532084
-0.79751015 0.4664126 -0.222378 -0.03039634 0.19705819 0.2563457 -0.11235855 -0.12853746
0.16708195 0.120003134 -0.076257035 -0.09516718 -0.25009868 -0.22709037 0.12206811 -0.4089221
-0.18278539 -0.21059191 0.17946056 0.1408236 -0.011576554 -0.10143127 0.26516235 -0.0550823
0.07166847 -0.16189954 0.22177194 -0.3046883 -0.0027304844 -0.09443138 -0.018514743 -0.38547763
0.047692686 -0.21171606 -0.15753782 -0.26090813 -0.32340088 0.0856801 -0.01141571 0.41843012
-0.097593084 0.089161664 -0.035549242 0.18968026 0.38675734 -0.28664142 -0.15660733 0.08399222
-0.45175937 0.07308652 -0.026829204 -0.2128305 -0.06808383 0.1390745 0.24054724 -0.030312276
0.06673499 0.23600183 0.04603258 -0.053968232 0.02257374 -0.09002989 0.17304514 -0.06699814
0.050055683 -0.2114202 0.2337795 -0.19671741 0.14306246 -0.25436208 0.31420612 -0.2616627
0.0015149394 0.040168505 -0.53832984 0.21842079 0.029711688 -0.052317485 0.0058678472 -0.15361047
-0.17668194 0.050033957 -0.29173812 0.010046968 -0.052315798 -0.013405519 -0.19109514 -0.21935937
0.15704885 -0.0278918 -0.24566554 0.21788102 -0.091081366 0.05570349 0.4736733 -0.23149876
0.1047793 0.30576906 0.2212677 0.16907701 0.37530577 0.26840857 -0.36579043 -0.13247125
-0.094936386 -0.27771252 -0.014750354 -0.3868953 0.12364325 -0.0010377687 -0.073815316 -0.029463368
-0.06294421 -0.039435256 -0.19435766 0.27427682 -0.34422037 0.19017683 0.21931462 0.107648775
-0.10622887 0.067984 -0.10656086 -0.12999374 -0.11877468 0.100093216 -0.04562532 -0.06799019
0.3102301 0.3405356 -0.09791101 -0.33722126 0.18624976 -0.12603444 -0.2493475 -0.09144161
0.17541711 -0.07851793 0.26854265 -0.26783025 0.13836409 -0.089117266 -0.5053342 -0.10439917
0.003962851 -0.01870712 0.40092576 0.071706995 -0.27123955 -0.09053272 0.27710852 0.29589123
-0.11312227 -0.11309353 0.06706323 0.06208391 -0.2431983 0.1205168 0.11283401 0.3192883
-0.046559334 -0.1391406 -0.40161175 -0.016130166 -0.43786106 -0.07279604 0.014314987 0.15085939
-0.13996425 0.12850598 -0.18232672 0.30249485 0.025931478 -0.30038822 0.26970583 -0.13126615
-0.18515237 0.096657045 -0.13422623 -0.056156266 0.20611152 0.28016087 -0.22393046 -0.0129624
-0.07465258 -0.22311859 -0.27472082 -0.1277956 0.13261947 -0.21254615 -0.08444535 0.10060791
0.21795337 0.014801651 0.10211559 0.24882475 -0.022215337 -0.07526741 -0.30269203 0.26165026
-0.2725554 0.1743176 -0.06595958 0.1222939 0.14377889 -0.012502733 0.047298647 0.2572471
-0.006442823 0.45832428 0.008501485 -0.15315185 0.0045721666 0.050359093 -0.1992145 -0.14240822

a2c_network.actor_mlp.2.bias f4 [256]
00000000: 47e5 79be d2cd bdbd f08f 1a3b 416b 303d
00000010: 25b3 00bd 4777 28bc 5a2f 81bc eefc b73c
00000020: 9608 3fba b53e 993d 797f 903d caec 63bd
00000030: 27c6 5bbc 4f41 013d 4c5c d5bc ffbc 8e3a
00000040: 1d55 0a3d 8fb6 37ba 9671 e33b 3462 bfbc
00000050: 46f8 0abc 7f90 f1bc b25b 79bc b4e0 0c3c
00000060: 3310 8ebd c7b6 66bd 38d1 baba 7625 d3bb
00000070: a742 5f3b a111 993c 821b 09bd 7b38 7dbe
00000080: 6763 213d 8632 04bd 2f9c 08bd f346 b0bc
00000090: 89da a63c f753 0a3d f699 9bbc d234 ecbb
000000a0: eeca 9fbd 8b93 b93c c9b5 133d b66e a63a
000000b0: 22ba 37bc 710d 4a3c 7608 1abf b230 2ebd
000000c0: 898e e03a cda7 74bd bf45 4fbd 3594 dc3c
000000d0: 3d34 b9bc d26c 45bd 12cf 043c 6e45 1d3d
000000e0: 4c38 81bc 9862 4cbd fe74 08bc 4ad4 d6bc
000000f0: b87c 5dbb ea7b 0a3d dd56 0a3d bc04 39bc
00000100: 93d7 10bd 44ef 9e3a 4480 96bd f477 4abb
00000110: e122 5dbc 1f6d 68be fb94 eebe c9e8 ca3b
00000120: e99e 0fbd 238a 253d 10a1 a2bd 395a ba3b
00000130: 4fec d63c 8253 06bd 437e e6bc b45d 0cbe
00000140: dcc6 673c 34fa a5bc 9742 0cbf f596 09bd
00000150: 0197 c73c 7185 a33b 7028 6eba 0fe2 40bd
00000160: dabe 0bbe 92fc ce3c aa6d 98be 9926 003d
00000170: 084b 0bbc a86b e23b e0c4 68bc 844f 823d
00000180: 30d4 2939 aff8 44bd 993d 863d 3fc5 0b3c
00000190: c8e1 5b3d 9612 d9bc ad3f 1dbd a25f b73c
000001a0: 821a 0cbf 045b a8bc 930a 59bc 4e1b 86be
000001b0: 452c 513d 6557 7c3c 6330 51bd e8ed b4bd
000001c0: 0862 153d 78fc 11bd f74a d0be bbd6 05bd
000001d0: 2f54 d83b b702 babc 664a 38be 59a9 86bb
000001e0: a750 c4bc f8c9 9a3c 999a acbb ba3e 28bc
000001f0: d260 743b ccb0 57be 78cc 323c 827d 32bd
00000200: 9dda 8a3d 8b56 a8be 60f7 c83c 936e 98bc
00000210: e0c1 173d eee2 093d 741e 82bd 6481 16bd
00000220: 7cf1 06bc 7e5a 32bd f76c 1cbe fffb 363d
00000230: 4c0b 113d 311e 73bb cc18 09be 8df8 5abd
00000240: 627c fc3b eca5 08bd 13ea 1cbd a748 0fbd
00000250: 34e1 02be fc44 14be 5347 d13d 563d 9dbc
00000260: 14b1 ae3c 0ca0 0fbf d664 153d 2614 66bb
00000270: c4ad 4fbc ff1c cdbe 76e6 c2be 10da b0be
00000280: 31bd 05bd 3933 3abf 659a dfbc b263 0abd
00000290: ddc4 52be dd45 ca3c e6d7 baba de4b 053d
000002a0: f1f0 82bc 6cac 68bc 5a7f 3a3d 05e4 aebc
000002b0: 9cc7 da3c e3f9 38bc 6898 233b 90ff 3e3d
000002c0: 2ec9 ed3b e66d 85bf b35c e53c 7c47 fcbc
000002d0: 9d63 a9bd c646 fc3c 3340 70bd 96dd 3cbc
000002e0: d2d0 dc3c 9bf6 8c3b b693 8bbe 87be e7bb
000002f0: 14bc 8e3c bb8d 01bf 0842 c63c c9fa f4bc
00000300: 2ed4 fd3c 3ac6 50bd 2428 a13a bfdf 453c
00000310: bfa5 b9be c989 35be f313 383b ec1c 6cbb
00000320: e12b 98bc 61dd 423b 6e0c 7c3c 3234 24bc
00000330: 2a6f 6f3c 5c78 d9be d0d1 a6be 8991 6ebe
00000340: 5016 d9bc 900b 70bc e0fa 95bc a991 19bd
00000350: 49ce 4abd 2fd8 6cbd bb91 6a3c 0482 a2bc
00000360: 68cc 82bb 0449 bcbd f5cc 143d d5bd 333d
00000370: 9645 e33c 6ade 91bd c9bf c23c 18e5 59bd
00000380: f48b 70be d7f1 39bc c3bd 093d 98e7 703b
00000390: 93cb a5bd 13e3 ebba 72e5 423d f147 b3bc
000003a0: 05e6 9f3d e0df 663e 5ab3 1cbc 7805 033b
000003b0: cd3d 80bc cae0 babb aa48 cf3c 76c2 8d3d
000003c0: 9500 9abb a3d5 d4bc 5327 abba 9d15 d63c
000003d0: 994e 4fbc 2e6a d53c ec45 573b 0db5 20bd
000003e0: d96b 673d 3440 d43c ee8d 373d e3c0 223c
000003f0: a7b7 7c3e 5fd2 e13c a3ea 14be 8d0b f3bc
-0.24403869 -0.09267773 0.0023584329 0.043071035 -0.031420846 -0.010282344 -0.01576965 0.022459473
-0.0007287351 0.074826635 0.070555635 -0.05564574 -0.013413942 0.031556424 -0.026044987 0.0010890065
0.033772577 -0.00070080993 0.0069410307 -0.023362257 -0.008482045 -0.029487846 -0.015219616 0.008598495
-0.069366835 -0.056326654 -0.0014253026 -0.0064436747 0.0034066828 0.018685164 -0.0334735 -0.24728577
0.039401438 -0.032274745 -0.033352073 -0.021518206 0.020367878 0.03377148 -0.018994313 -0.007208445
-0.07802378 0.022653362 0.036062036 0.0012697789 -0.011213811 0.012332306 -0.6016916 -0.04252691
0.0017132323 -0.05973034 -0.050603624 0.02692614 -0.022607917 -0.048199482 0.00810601 0.03839629
-0.015773915 -0.049898714 -0.008328674 -0.026224274 -0.0033796262 0.03380958 0.033774246 -0.011292633
-0.035361838 0.001212575 -0.073486835 -0.0030894252 -0.013497085 -0.22697876 -0.46598038 0.006192301
-0.035063658 0.04041494 -0.079408765 0.005687025 0.026235728 -0.032794483 -0.028136378 -0.1370762
0.014146533 -0.020260908 -0.5478911 -0.03359123 0.024363996 0.0049902727 -0.0009085005 -0.047090586
-0.13647023 0.02526692 -0.29771167 0.03128681 -0.008501776 0.0069098063 -0.014207095 0.06362823
0.00016196142 -0.048088726 0.065547176 0.008530914 0.05368212 -0.02649812 -0.038390804 0.022384468
-0.5472795 -0.020551212 -0.01324715 -0.26192707 0.05106761 0.015401696 -0.051071536 -0.088344395
0.036470443 -0.035641164 -0.40682194 -0.032675486 0.0066018323 -0.022706373 -0.17997131 -0.0041095433
-0.02396424 0.018895134 -0.005267453 -0.010268861 0.0037289155 -0.21063536 0.010913007 -0.043576725
0.067799784 -0.32878527 0.02453202 -0.018607413 0.037050128 0.033663683 -0.06353465 -0.03674449
-0.008236285 -0.04354333 -0.15275942 0.044673916 0.035411164 -0.0037096853 -0.13388366 -0.053459693
0.0077052573 -0.03336136 -0.038309168 -0.034981396 -0.1278122 -0.1447944 0.10218682 -0.019194286
0.021324672 -0.5610359 0.036473118 -0.0035107224 -0.012675706 -0.40061185 -0.38066453 -0.34541368
-0.03265113 -0.7273441 -0.0272953 -0.033786483 -0.2058291 0.024691517 -0.0014255017 0.032543056
-0.01598403 -0.014201265 0.04553161 -0.021348963 0.02670651 -0.011290046 0.0024962667 0.046630442
0.0072566485 -1.0424163 0.027998304 -0.030795805 -0.08270953 0.030795466 -0.058654975 -0.01152744
0.026955042 0.0043018586 -0.27261132 -0.007072273 0.017423667 -0.5060689 0.024201408 -0.02990474
0.030984964 -0.050970294 0.0012295288 0.012077271 -0.36259267 -0.17728342 0.0028088063 -0.003602798
-0.01857561 0.0029734003 0.015383823 -0.01002221 0.014613906 -0.4247464 -0.3258195 -0.23297705
-0.026499897 -0.014651194 -0.018308103 -0.037492428 -0.049513135 -0.057823356 0.014316971 -0.019837387
-0.0039916523 -0.09193614 0.036328275 0.04388221 0.027743142 -0.071225 0.02377309 -0.053196996
-0.23490888 -0.011349163 0.033628237 0.0036759134 -0.08095469 -0.001799675 0.047582097 -0.02188489
0.078075446 0.22546339 -0.009564245 0.0019992273 -0.015654469 -0.0057030665 0.025303204 0.06921856
-0.0046997764 -0.025980776 -0.0013057984 0.026133353 -0.0126530165 0.026051607 0.0032848073 -0.039235163
0.056499336 0.02590952 0.04481309 0.009933683 0.24679433 0.027566133 -0.14542632 -0.029668594

a2c_network.value.weight f4 [1, 256]
00000000: 630d 353d 616f 933b 3005 58bb 77a1 f8bb
00000010: 4bb3 d6bc 9e07 68b9 7e76 feba 0f52 65bc
00000020: 297a 44bc 8b64 acbb 3945 713c 8138 bdbc
00000030: f3bc 1d3d 05f6 853d 7862 a3bc 53c9 c13b
00000040: 3587 3abb ff20 5dbe ffa4 91bc a51f 243c
00000050: 9537 2cbd e280 613c 29d7 1bb9 23fe a7bc
00000060: ace1 3d3c 232a 5ebc 63a5 083d a557 c03b
00000070: f9bb 163c 5881 c63b 204d 563f c7e0 0dbc
00000080: ebf1 4ebc 036d 2cbc 51e9 463c 8a33 cbb9
00000090: 3db6 d93c cd23 323c a605 d8bc 7eae 25bb
000000a0: 5002 17bc fb7e 2c3c d472 c5bb 97ac 0d3c
000000b0: a15e d7bc cb10 08bc 2fc9 dbbd 06bf 6dbc
000000c0: c19b ff3a 0d63 663d 407d 81bc aaad d93c
000000d0: 2484 3abd 490e 0f3d c124 99bc 35e3 0d3e
000000e0: dd32 013d 4072 6cbc 50d4 283d 90ee ea3c
000000f0: 61d6 afbc 3421 f93c ed98 4ebb f2da fb3b
00000100: 4bbd 71bd a123 eebb b3f7 a1bc 444a 28bb
00000110: cfd7 2e3c c18f 96bb 380a 26be fd96 063c
00000120: fc14 c23c 1139 903c 49bb e43d d01e db3c
00000130: 190b a63a d863 353b 2902 b7bc b536 50bd
00000140: 3364 6b3b 17ea ae3b f3da 203c 3495 b73c
00000150: ea3d 493c de0a 1ebd 745a 813c 3825 013b
00000160: 2ffa fabc 85dc 36bc 2d10 5dbd 8dd4 af3c
00000170: 8052 b5bc 9d45 413c a239 a6bc ed0e 07bc
00000180: ce0e babc 79db ebbb f309 09bd 7b27 cd3a
00000190: b02b f23a a8a7 8a3b b301 6e3b 5a44 6cbc
000001a0: 9954 993c e986 97bc 3157 8c3c 5158 843b
000001b0: 0b90 edbd f502 f63b 6a85 2dbd e528 e33b
000001c0: 85eb 503e dc8b 9f3c f18c f5bd d540 7c3c
000001d0: c5af cf3c 7918 14bd cb28 453c d65e efbb
000001e0: 08ed 8e3e 63a1 6d3a 8e6c 553c 710a d3ba
000001f0: cc25 29bc 225f d2bd b488 bbba 7fe0 a0bc
00000200: 8f41 a03c f59e 1f3b e23e d53c c6aa 90bc
00000210: 021e 55bd cff8 91bb e99e cf3b c0d5 3abd
00000220: f43f 3dbc 83e9 61bc 1c68 b53b 7f6f 873c
00000230: b7d5 a63c 7c70 6b3b 29ae 94be 7350 8bbc
00000240: 19e4 ee3b f3d9 2f3e 8593 0bbc 7d9e 3b3d
00000250: 0d7c 61bc aab1 81bc 9730 fab8 12a9 ed3b
00000260: 14c8 91bb 3d08 e8bd c79c 923c 04bc 0cbd
00000270: 9412 0e3c 6cc8 1cbe ad19 35be 9048 f8bc
00000280: 701a 67ba 9335 6dbe 4551 de3c 206d 69bb
00000290: 9758 623d bdf4 913c 188a b6bc bc42 ce39
000002a0: 8390 e9bd a386 eb3c d99b 833b d502 1e3e
000002b0: b626 38bd a66b 013c d042 18bc f1e8 1b3d
000002c0: 4e56 303d de36 9fbc 03dc f1bb 4cb8 633c
000002d0: c72b c03c b168 883e 2ff4 b63a 5a23 8e3c
000002e0: 3a7b b9bc 3d40 95bb 1528 1fbc 6b42 bbbb
000002f0: 72f7 4a3c e5b2 033c d8c3 263b 6039 44bc
00000300: e44a e2bc f9a9 68bc a529 513c 161e 983c
00000310: d9ba 0abc 2b1e 983c 8663 0b3d 7db8 3ebd
00000320: 2076 0abd 920e bc3c 5e75 a63d d0b7 85ba
00000330: 8b3c 033c 7ec6 5b3c f93c e63b f48a 6f3b
00000340: e3c7 623b 039c 433c 1559 5fbe d96d 31bc
00000350: c1d5 ecbb 6b02 9fbb 3986 683c c036 993c
00000360: d9ad 3c3c 55b4 7e3e 4fef 7f3c 6e46 8bbb
00000370: dc3d e33c 74b5 ca3d cd99 123b 8229 063c
00000380: b5ec 05bd 3b43 1f3c fefc 10bd 24d1 733c
00000390: 18d5 ddbd 7bcd 1839 28ab fd3b 539e 7e3c
000003a0: 81ad 6f3e 0794 343e 5434 b2ba d45b 9e3b
000003b0: 66ab fbbc ccef 8d3c 050b cbbb 1b8a 81bc
000003c0: f3b1 ff3c d700 01ba 97fc a03c 65af 1f3c
000003d0: 060d a1bd 4e4f 923c f84d c03c a4c7 ff3b
000003e0: fb68 33be 075b 73bd d849 ad3b 13ca 783d
000003f0: eca1 103f 9c0b 7b3c 6d7a 95bc c3aa 413e
0.04420222 0.0044993614 -0.0032962076 -0.0075876075 -0.02620854 -0.00022128082 -0.0019413976 -0.013996615
-0.011992016 -0.005261009 0.014725977 -0.023098232 0.038510274 0.06541065 -0.019944414 0.0059138923
-0.0028461937 -0.21594618 -0.017778872 0.01001731 -0.042045195 0.013763638 -0.00014862105 -0.020506924
0.011589449 -0.013559851 0.03336085 0.005869823 0.00920009 0.0060578994 0.83711433 -0.008659548
-0.01263092 -0.010524037 0.012140588 -0.00038757577 0.026576156 0.010872793 -0.02636988 -0.0025281007
-0.00921686 0.010528321 -0.0060256515 0.008647106 -0.02629024 -0.008304785 -0.10731732 -0.014510876
0.0019501374 0.056246806 -0.015806794 0.026572067 -0.045536175 0.034925733 -0.018694283 0.13856204
0.031542648 -0.014431536 0.041218102 0.028678209 -0.021464529 0.03041134 -0.0031524256 0.0076860124
-0.059018414 -0.007267431 -0.019771433 -0.0025679031 0.01067157 -0.0045947735 -0.16214836 0.008214709
0.023691647 0.017605336 0.11168534 0.026748091 0.0012668102 0.002767792 -0.022339897 -0.050833423
0.0035917878 0.0053379643 0.009817827 0.022410013 0.012282828 -0.038584583 0.015790202 0.0019706022
-0.030636875 -0.011160974 -0.053970505 0.021463657 -0.022134066 0.011796382 -0.020291153 -0.008243305
-0.022712138 -0.007197794 -0.033456754 0.0015652025 0.0018476155 0.004231412 0.003631693 -0.014420593
0.018717097 -0.018496947 0.01713142 0.0040388484 -0.1159974 0.0075076767 -0.04236356 0.0069323652
0.20402344 0.01947587 -0.11989773 0.015396317 0.025352368 -0.03615615 0.012033652 -0.0073050065
0.27915215 0.0009064881 0.01302637 -0.0016101134 -0.010323953 -0.102720514 -0.0014307708 -0.019638298
0.01956251 0.002435622 0.026030961 -0.017659556 -0.05203057 -0.004454709 0.0063360822 -0.045614004
-0.011550892 -0.013788584 0.0055360924 0.016532658 0.020365579 0.00359252 -0.29039124 -0.017006135
0.007290375 0.17172985 -0.008519058 0.045805443 -0.013762486 -0.015831787 -0.000119299795 0.007252821
-0.0044489 -0.11329696 0.017897023 -0.034358993 0.008671422 -0.1531083 -0.17685576 -0.030308038
-0.000881589 -0.23164968 0.027138362 -0.0035618022 0.055260267 0.017816896 -0.022282645 0.00039341103
-0.114045165 0.028750723 0.004016381 0.15430768 -0.044958793 0.007899201 -0.009293273 0.038063947
0.043051057 -0.019435342 -0.007380964 0.01389892 0.023458375 0.26642373 0.001395827 0.017350841
-0.022641767 -0.004554777 -0.009714146 -0.0057147047 0.012388097 0.008038257 0.0025446322 -0.01197657
-0.027623601 -0.014200681 0.0127662765 0.018569034 -0.0084673995 0.018569073 0.03403046 -0.04656266
-0.03380406 0.022956166 0.08127855 -0.0010201875 0.00801004 0.013414023 0.0070263115 0.0036551328
0.0034604005 0.011939052 -0.21811326 -0.010829412 -0.00722763 -0.004852583 0.014192157 0.018702865
0.011516058 0.24873479 0.01562102 -0.004250339 0.027739458 0.09897891 0.0022369504 0.008188607
-0.032696445 0.009720619 -0.035397522 0.014881406 -0.1083166 0.00014572397 0.0077413507 0.015540677
0.2340603 0.17634593 -0.0013595917 0.004832724 -0.030721378 0.017326258 -0.006196382 -0.015812924
0.031212782 -0.00049210846 0.019651694 0.009746407 -0.07863812 0.017860081 0.023474678 0.0078057814
-0.17520516 -0.059412982 0.005288344 0.060739588 0.56497073 0.015322592 -0.018246854 0.18912797

a2c_network.mu.weight f4 [6, 256]
00000000: 6ab0 003e 6f1f bbbd 2757 79bb 9abc 0e3b
00000010: 037d b139 7b36 d8ba a5a5 b23c 5506 533b
00000020: 45e6 263c 19ce 033a d387 253d 66ae 013b
00000030: f71f 643b 895b 273c 950c 7739 8149 6b3b
00000040: 95fb f53a 4361 08bd 06e6 17bb 0574 113b
00000050: 9b51 343b cdab 043c d2ea 4c3b 576a e13b
00000060: 7bd7 103b 7aa7 1b3b c9a0 1e3a a5cd f3bb
00000070: 8411 5abc 4a54 2bba 35d0 d63d 17d3 033d
00000080: 52d9 faba d3bc a33b 5a08 d53a 8ddf 5fba
00000090: 85cb 69bc 0640 bcbb db6e 95bc c503 46ba
000000a0: 3964 05bb d6b8 98bb 6978 78bb b077 653b
000000b0: 49f2 f4ba ae1b 223c b850 afbd ee21 ab3b
000000c0: 5fdf 8eba 75aa b53d a5c4 a0bb e533 5bbb
000000d0: 927b 3aba 2068 0d3b e38a 8d3a 7adc eb3c
000000e0: f2fa a23a 9a80 caba c1cb 88bb 4097 4f3a
000000f0: a40a 19bb 58ef bcbc e36f 813a 3c35 92bb
00000100: 5917 a13b c9dd 5fbb 4238 413a ae81 113b
00000110: 289d 33bc 433c aabb 1dae 563b 2e1a 6dbb
00000120: 1bdc acbb 749d 21bb ef8a 0bbe c80c 3dbc
00000130: 59c5 2d3b c278 07bc afc3 963b 6128 543c
00000140: a022 863b 7787 0e3a 2c13 183c 78f6 83bb
00000150: 76d0 073c 74a8 2c3c 8f80 13bc 2117 32bc
00000160: e65b a03d a115 65bb c65e 743e 666a bbbb
00000170: 5d12 253c d9b0 c53a 26c4 db3a 10e6 67bb
00000180: e799 383c 75b3 78ba 198a f4bc 4916 54bc
00000190: 9504 a83b dc77 3ebb cfa2 9cba e8ea 1c38
000001a0: c90a d83c 7d47 7c3a b2f6 083b b8ea 103c
000001b0: b947 683b be39 ccba 78b2 d1ba b67c ec39
000001c0: 1c85 943c 2383 b3ba 0cf5 babd 629d cb3a
000001d0: b4dc 01bb 3b99 993c ad6e 11bc 9ef8 0c3c
000001e0: b016 e4b9 3e37 a23b 86cc 52bb c1a8 f3bb
000001f0: 3e5c 3dbc 5831 c53b ef7b d0b9 9699 573b
00000200: 25bc de3a a5b3 b73d 1f24 bfbc 69ba 143c
00000210: a00f 08bc 4f5e d1bb f371 6d39 fc68 853b
00000220: 2fba bbba 12de c43b fe51 d6bb a098 f7ba
00000230: 1d49 02bb e220 123c 1dff 043e 841c 54bb
00000240: 964a 47bb e281 1b3d 9de4 62bb 000d 793c
00000250: fa08 0bbe bd81 813d 73d4 81bc 2e17 123b
00000260: 1024 0ebc e9e2 af3e f5ab bf3b 980d ec3a
00000270: b141 ddbb 7b45 11bb 6c6f c4bd b1be ffbc
00000280: 58cc 81ba b3ca 8a3e 0e4b b4bb 1923 70bb
00000290: 81f7 a4bc ad71 bd39 7b40 1c3c 47b3 b5ba
000002a0: bcc8 6bbd 0f71 bd3a a65f bfba ad57 da3b
000002b0: d2d3 e43b 62f8 b9b9 1e2e 803b aaeb 413d
000002c0: 9596 c3bc d4c8 223e 7ac2 983b 43a6 40bb
000002d0: 241e a83b 37d0 d8bc d0ce c93a 6c79 31bc
000002e0: 9478 bfbb 7a3b 4abb 815b 733d ff7b 073c
000002f0: e66c 65bb 10c2 dd3a d5d8 beba 564f 81bc
00000300: cc95 973c 5f0b 84bb d60e 443c b499 b43c
00000310: 3041 24bd d516 04bd 1907 84bc ecc7 95bc
00000320: 8a6f 5dbb 354f 52bb 8cf3 603e 5d49 e9ba
00000330: d13a 43bb fa8b c9bd 8198 0e3b c376 233d
00000340: 6d3d f23a 32de 9c3b 5fbe b7bd 0c43 f6bd
00000350: ca1f d6ba 8bac e0ba 2c97 6cbc 0646 a1bb
00000360: 5ca4 e6bc d0eb f23c 32c2 42bc 73f5 fa39
00000370: ed94 7e3b a258 463d f260 55bb 3f03 5e3c
00000380: 73d7 2abd 2dd5 c83a 24be df3a fddf c63b
00000390: bc66 0fbd 0a8d 3b3b 17e1 eeba ef3a 50ba
000003a0: a32f 303c 9528 1ebd b29a 5e3a 454a a83a
000003b0: bcf6 533c 811b 2e3b 43e2 b63b 6701 643b
000003c0: 9b68 e3bb 692a ca3b 0f98 c3bc 3f77 0d3c
000003d0: f7e6 96bd 6b2f 3639 ce04 febc 85ab b73a
000003e0: 4cfc 3a3d 59b7 4a3c 2e67 afba d95a 3dbe
000003f0: 8260 9dbd 8b19 0e3b 886f 8a3d 4633 08bc
0.12567297 -0.09136855 -0.0038046332 0.0021779896 0.00033853212 -0.0016495729 0.021807501 0.003219982
0.0101867365 0.00050279644 0.040412735 0.0019787787 0.0034809092 0.010214695 0.00023560443 0.0035901966
0.0018766994 -0.03329588 -0.0023177876 0.0022194397 0.002751446 0.008097601 0.0031267894 0.006879132
0.0022101093 0.0023750947 0.00060511805 -0.007440286 -0.01330984 -0.00065356924 0.10488931 0.032183733
-0.0019138253 0.004996875 0.0016253099 -0.00085400866 -0.014269714 -0.005744937 -0.018241337 -0.0007553662
-0.0020353927 -0.004660706 -0.0037913567 0.0035013966 -0.0018687929 0.009894295 -0.08560318 0.0052225506
-0.001090031 0.08870403 -0.0049062544 -0.003344768 -0.00071137503 0.0021576956 0.0010798838 0.028791655
0.0012434407 -0.0015449703 -0.00417468 0.00079189613 -0.002335229 -0.023063347 0.0009875264 -0.0044619124
0.0049161133 -0.0034159294 0.0007370749 0.002220254 -0.010962762 -0.005195172 0.0032757588 -0.0036178934
-0.005275262 -0.00246605 -0.13627218 -0.011538692 0.0026515333 -0.008268537 0.004600964 0.01294908
0.004093483 0.0005437056 0.009281915 -0.004027184 0.008289447 0.010538209 -0.009002819 -0.010869772
0.07830028 -0.0034955519 0.23864278 -0.005719471 0.010075179 0.0015082612 0.0016766831 -0.003538493
0.011267162 -0.00094871904 -0.029851006 -0.012944766 0.0051274993 -0.002906314 -0.0011950376 3.7412072e-05
0.02637233 0.00096236897 0.0020898995 0.008845024 0.003544314 -0.0015581173 -0.0015998622 0.00045106345
0.018129878 -0.0013695698 -0.0912877 0.0015534575 -0.0019815387 0.018749824 -0.008876485 0.008604197
-0.00043504452 0.004950433 -0.0032165362 -0.0074358885 -0.011557637 0.006017845 -0.0003976519 0.003289794
0.0016993327 0.08969811 -0.023332654 0.009077647 -0.008304507 -0.0063894163 0.0002264453 0.004071353
-0.0014322455 0.006007918 -0.006540536 -0.001889009 -0.0019880005 0.008918973 0.12987943 -0.003236563
-0.0030409447 0.037965663 -0.0034621127 0.015200853 -0.13577643 0.06323574 -0.015848374 0.0022291648
-0.00867559 0.34352806 0.0058493563 0.0018009422 -0.006752216 -0.0022166658 -0.095915645 -0.031218858
-0.0009902818 0.27107772 -0.0055021113 -0.0036642014 -0.02013755 0.00036133584 0.009536858 -0.0013862633
-0.057564482 0.001445325 -0.0014600649 0.006663284 0.0069832588 -0.0003547101 0.0039117476 0.047343887
-0.023875514 0.15896922 0.0046618553 -0.0029395975 0.005130546 -0.026466472 0.0015396718 -0.010832172
-0.0058432315 -0.0030858205 0.059413437 0.008269309 -0.0035007535 0.0016918797 -0.0014560471 -0.0157849
0.018504046 -0.004029676 0.011966428 0.022045948 -0.04010123 -0.032248337 -0.016116666 -0.018283807
-0.0033788406 -0.0032090668 0.21967906 -0.0017798353 -0.0029789696 -0.098411515 0.002175838 0.039908182
0.0018481441 0.00478723 -0.08971857 -0.12024507 -0.0016336378 -0.0017141266 -0.014440339 -0.0049216775
-0.028154545 0.02965346 -0.01188712 0.0004786659 0.003884609 0.04842437 -0.0032559005 0.013550579
-0.041709375 0.001532232 0.0017070216 0.006069182 -0.035010085 0.0028618001 -0.0018225041 -0.0007943352
0.010753545 -0.03861292 0.00084916793 0.0012839517 0.012937244 0.0026566687 0.0055811717 0.0034790875
-0.00693996 0.0061696065 -0.023876218 0.0086343875 -0.07368272 0.00017374537 -0.03100815 0.0014012909
0.045650765 0.012372815 -0.001338219 -0.18491687 -0.07684423 0.0021682705 0.06759554 -0.008313006

a2c_network.mu.bias f4 [6]
00000000: 40a0 9e3c e311 99bd 289e 42bd 1f70 863d
00000010: 523a 103e b0c4 d73e
0.019363523 -0.07474115 -0.04751411 0.06564354 0.14084747 0.42142248

exp_avg f4 [6]
00000000: 4280 3339 5776 e539 a568 0b39 2508 3a3a
00000010: 7fd3 ac38 880d a2ba
0.0001711855 0.00043766454 0.00013295056 0.00070965505 8.240993e-05 -0.0012363652

exp_avg_sq f4 [6]
00000000: 0187 4837 f67d 4237 5a43 4a37 3c42 5737
00000010: 5a1d 4837 41ff 6b37
1.1952362e-05 1.1592629e-05 1.205582e-05 1.283042e-05 1.1927763e-05 1.4066522e-05

exp_avg f4 [256, 40]
00000000: 35c5 b0b6 35c5 b036 0000 0000 35c5 b036
00000010: 0000 0000 0000 0000 9e09 983a a781 83bb
00000020: 2cfc 3abb be11 bb3a 120f 84bb 8bed 40bb
00000030: 9412 4e3b 97f8 f23a e886 a4bb 3ef3 9939
00000040: fba0 b03b 2a56 ff3b ded6 dbb6 7368 2cbb
00000050: e901 223b 6545 c438 b93c beba 70f6 3ebb
00000060: 9b8e b33b b5f8 b5b9 6f52 acba 8490 12ba
00000070: 5149 423a 565f 2eb8 1199 b8ba 0b38 93b6
00000080: eacf 2c36 0400 0000 4e06 9b35 eacf 2c36
00000090: 0400 0000 622d 27b7 eacf 2c36 0400 0000
000000a0: 6e4b 27b7 6e4b 2737 0000 0000 6e4b 2737
000000b0: 0000 0000 0000 0000 7758 1eba cb70 ce39
000000c0: 5f9b edb9 4489 f8b9 a763 c339 d134 07ba
000000d0: 612f 053a 0fa0 8fb9 ffa3 1a3a 84cf 5d36
000000e0: b712 b6b9 fa0d cbb9 4731 3eb9 49ad 813a
000000f0: b5c9 59ba 2bd1 0738 d26f 0939 8aed beb6
00000100: 7c68 c7b9 7205 e339 6931 1439 3650 dbb9
00000110: 4174 dc39 ec97 6cb9 bfc3 0238 70e2 8435
00000120: 06da 50b4 0400 0000 cb6e fe33 06da 50b4
00000130: 0400 0000 c3ef f835 06da 50b4 0400 0000
00000140: 9ff1 d9b5 9ff1 d935 0000 0000 9ff1 d935
00000150: 0000 0000 0000 0000 fa9a 2e39 e03f 0fb8
00000160: 7e7c d9b8 3141 2f39 663a 78b8 9dfc 02b9
00000170: 559e 453a 0a9c 3e39 89cb 8eb9 a39e 1538
00000180: 128c e839 1ee4 153a 2b51 9838 3ed0 acb9
00000190: 7267 80b9 5179 3838 70ed d838 5cbb fd39
000001a0: e07d 51b8 55bc f5b8 2823 e638 0b90 5f38
000001b0: 0a99 7c39 3176 6839 3830 39b9 eb86 5eb5
000001c0: bbed 4d34 0400 0080 8906 f231 bbed 4d34
000001d0: 0400 0080 d190 dfb5 bbed 4d34 0400 0080
000001e0: 1531 f835 1f31 f8b5 0000 0000 1f31 f8b5
000001f0: 0000 0000 0000 0000 71cc da39 2e11 0fba
00000200: cdc9 313a abcc df39 acef 0eba 2091 2a3a
00000210: 5e1a 25b9 ccb6 27b8 1ff0 c6b9 6ec8 1738
00000220: 99d9 e639 6258 e938 8aff 1ab8 c080 87b7
00000230: 9a95 70b9 a5cd 90b7 3327 41ba f52f 12ba
00000240: 27cd a539 32af 8339 7a00 51b8 d092 7438
00000250: d471 113a dc1f ab38 25d9 fdb8 eec6 d9b5
00000260: f160 9eb4 0400 0000 bd82 cfb3 f160 9eb4
00000270: 0400 0000 f7a6 53b6 f160 9eb4 0400 0000
00000280: 7c97 efb7 7c97 ef37 0000 0000 7c97 ef37
00000290: 0000 0000 0000 0000 36d0 4bba 41e6 3fb9
000002a0: b2cb 9d39 992b 57ba 4160 49b9 41de a339
000002b0: a4ef 16ba 54f8 37ba 461b 81b9 b7cc aab8
000002c0: aaf8 52ba c607 3bba 03c9 9438 4184 173a
000002d0: 1ef6 5aba 2475 3ab8 f044 493a ebe4 4b3a
000002e0: 30b4 94ba 186f ee39 f10e c238 4dc7 5539
000002f0: f92c e038 a8b5 6136 41ea ff37 151a 03b5
00000300: 7c96 8fb4 0400 0080 490b a5b4 7c96 8fb4
00000310: 0400 0080 f8a9 33b5 7c96 8fb4 0400 0080
00000320: 5eb7 8db8 5eb7 8d38 0000 0000 5eb7 8d38
00000330: 0000 0000 0000 0000 6583 0fba 2ee8 a339
00000340: 64a2 c7b9 23ba 14ba 3907 a239 d0b1 d8b9
00000350: 4931 cf38 e702 10ba 09e8 f4b9 8cba 2cb8
00000360: 6e34 5f39 2d62 bf38 69e6 9e38 0b0e 5cb9
00000370: 72fd 68b9 4dcb 3338 0642 3ab9 4bac 9ab9
00000380: a4f1 1f38 fae4 8cb9 0f74 dcb7 eeef 0139
00000390: 0592 1339 bd40 a137 70aa a9b8 d6c7 4034
000003a0: 1fd7 d633 0400 0080 4baf 612f 1fd7 d633
000003b0: 0400 0080 ef87 c734 1fd7 d633 0400 0080
000003c0: 292e b937 292e b9b7 0000 0000 292e b9b7
000003d0: 0000 0000 0000 0000 48e4 9eb8 71e5 ac39
000003e0: d368 89b9 fdce e2b8 f78e af39 7b0c a2b9
000003f0: cd25 103a 3999 13ba f394 b3b9 d7c6 6838
-5.2681667e-06 5.2681667e-06 0.0 5.2681667e-06 0.0 0.0 0.0011599546 -0.0040132585
-0.0028531654 0.0014272255 -0.004030117 -0.0029438462 0.003144418 0.001853722 -0.005020965 0.00029363664
0.005390284 0.007792254 -6.5517224e-06 -0.0026307374 0.0024720377 9.358934e-05 -0.0014513946 -0.0029138587
0.0054796464 -0.0003470831 -0.0013147126 -0.00055909925 0.00074114377 -4.157362e-05 -0.0014083703 -4.3874657e-06
2.575102e-06 6e-45 1.1550235e-06 2.575102e-06 6e-45 -9.964542e-06 2.575102e-06 6e-45
-9.971538e-06 9.971538e-06 0.0 9.971538e-06 0.0 0.0 -0.0006040404 0.0003937542
-0.00045319923 -0.00047404517 0.00037267545 -0.00051577116 0.00050806074 -0.00027394338 0.0005899071 3.3052356e-06
-0.0003472769 -0.0003872959 -0.00018138169 0.0009893562 -0.000830795 3.238131e-05 0.00013106994 -5.6900944e-06
-0.00038034085 0.0004330087 0.00014132787 -0.00041830697 0.00042048286 -0.00022563309 3.1176718e-05 9.900668e-07
-1.9450826e-07 6e-45 1.184795e-07 -1.9450826e-07 6e-45 1.854722e-06 -1.9450826e-07 6e-45
-1.6238081e-06 1.6238081e-06 0.0 1.6238081e-06 0.0 0.0 0.00016651666 -3.4153345e-05
-0.00010370555 0.00016713586 -5.9182195e-05 -0.00012491872 0.0007538547 0.00018177941 -0.00027235996 3.567211e-05
0.0004435485 0.0005717891 7.2630435e-05 -0.0003296155 -0.00024491135 4.3982003e-05 0.00010343909 0.00048395514
-4.9946713e-05 -0.0001171759 0.00010973803 5.3301494e-05 0.00024089604 0.00022169274 -0.00017660938 -8.2897776e-07
1.9178599e-07 -6e-45 7.04387e-09 1.9178599e-07 -6e-45 -1.6656942e-06 1.9178599e-07 -6e-45
1.8491725e-06 -1.8491736e-06 0.0 -1.8491736e-06 0.0 0.0 0.0004173252 -0.0005457577
0.0006782085 0.00042686364 -0.0005452584 0.00065066107 -0.00015745449 -3.9986146e-05 -0.00037944407 3.618787e-05
0.0004403114 0.000111267684 -3.695445e-05 -1.6153208e-05 -0.00022943915 -1.7261898e-05 -0.0007368207 -0.0005576604
0.00031624103 0.00025116798 -4.9829927e-05 5.8310863e-05 0.0005548273 8.15985e-05 -0.000121044264 -1.6225656e-06
-2.9500328e-07 6e-45 -9.66297e-08 -2.9500328e-07 6e-45 -3.1538636e-06 -2.9500328e-07 6e-45
-2.856156e-05 2.856156e-05 0.0 2.856156e-05 0.0 0.0 -0.00077748613 -0.00018300956
0.00030097138 -0.00082080957 -0.00019204711 0.00031255375 -0.0005757755 -0.00070179 -0.00024625118 -8.144363e-05
-0.0008047918 -0.0007134642 7.094631e-05 0.00057799 -0.00083527144 -4.445495e-05 0.0007677814 0.0007777947
-0.0011345204 0.0004547767 9.253424e-05 0.00020387508 0.00010689529 3.363335e-06 3.0507452e-05 -4.883926e-07
-2.6745317e-07 -6e-45 -3.0741856e-07 -2.6745317e-07 -6e-45 -6.6930033e-07 -2.6745317e-07 -6e-45
-6.757559e-05 6.757559e-05 0.0 6.757559e-05 0.0 0.0 -0.00054745964 0.0003126277
-0.00038077228 -0.00056734885 0.0003090443 -0.0004133121 9.879709e-05 -0.00054935965 -0.00046712186 -4.118173e-05
0.00021286469 9.1258764e-05 7.576944e-05 -0.00020986066 -0.0002221966 4.2866264e-05 -0.00017762938 -0.00029501537
3.81336e-05 -0.00026873482 -2.6280088e-05 0.0001239178 0.00014073409 1.9222842e-05 -8.0902944e-05 1.7954093e-07
1.0004282e-07 -6e-45 2.0525907e-10 1.0004282e-07 -6e-45 3.7165543e-07 1.0004282e-07 -6e-45
2.2075214e-05 -2.2075214e-05 0.0 -2.2075214e-05 0.0 0.0 -7.576548e-05 0.00032977344
-0.00026208776 -0.00010815074 0.00033485118 -0.00030908347 0.0005498797 -0.0005630437 -0.00034252516 5.5498294e-05
