logs/rl_games/yam_cube_sort_8192/2026-02-01_19-21-52/nn/last_yam_cube_sort_8192_ep_1050_rew_1056.6808.pth (torch, 953260 bytes, 30 tensors)

value_mean_std.running_mean f8 [1]
0.20657523221350538
00000000: 64a3 42a5 0e71 ca3f

value_mean_std.running_var f8 [1]
0.0283496752045632
00000000: 5b5c 6c7f b207 9d3f

value_mean_std.count f8 []
550502401.0
00000000: 0000 8000 0068 c041

running_mean_std.running_mean f8 [40]
0.999458516440767 0.0005414799261856786 0.0 0.0005414799261856786 0.0 0.0 0.2100480322119767 0.26684164569699365
0.11208240652715021 0.21003017697103327 0.26555194546542293 0.11127301080615912 0.6611667186840977 0.24865962639760494 0.2852090060070382 0.012720241120903702
0.25923551771450404 0.28502500378885026 0.01270974962124237 0.25998258245231776 0.2856609984131914 0.012709738820783157 0.00031924599113412547 -2.2510653848763374e-05
-0.0008296206718710376 0.00021480476486759835 0.0002150506438147312 -0.0004327743219755038 0.00020004132655119624 0.00020507218738483577 -0.0004232421417468863 0.26542927600869254
-0.20319965035405743 0.009999990426926408 0.06542980088364482 -0.20319965035405743 0.009999990426926408 0.4654287455458053 -0.20319965035405743 0.009999990426926408
00000000: f64b 3a6d 90fb ef3f 6833 8649 43be 413f
00000010: 0000 0000 0000 0000 6833 8649 43be 413f
00000020: 0000 0000 0000 0000 0000 0000 0000 0000
00000030: a244 789a dae2 ca3f 9aae 5efb ee13 d13f
00000040: e2b7 7dbe 6eb1 bc3f 46c0 a1d2 44e2 ca3f
00000050: 5471 4a96 cdfe d03f 3604 5756 637c bc3f
00000060: 6875 3e1b 4728 e53f 234d 9b21 14d4 cf3f
00000070: 1bcb 5446 dd40 d23f 6362 e4dc 110d 8a3f
00000080: 38e8 a291 5097 d03f 512f 7483 d93d d23f
00000090: b86b b5b7 9107 8a3f 9663 4afc 8da3 d03f
000000a0: f359 7b11 4548 d23f ad93 9b44 9007 8a3f
000000b0: c172 5f17 0fec 343f 2e28 7d5a a89a f7be
000000c0: 20ca aed3 5c2f 4bbf efe3 58e1 a627 2c3f
000000d0: e1b9 def6 e62f 2c3f 5e06 378f bf5c 3cbf
000000e0: 5955 28e9 4538 2a3f c44c 20ad 14e1 2a3f
000000f0: 492c 3728 d3bc 3bbf 41ee f612 cbfc d03f
00000100: e126 6a36 7202 cabf 266f c0fe df7a 843f
00000110: c9a2 fae6 01c0 b03f e126 6a36 7202 cabf
00000120: 266f c0fe df7a 843f d933 2fa6 95c9 dd3f
00000130: e126 6a36 7202 cabf 266f c0fe df7a 843f

running_mean_std.running_var f8 [40]
0.0005412104507186024 0.0005412068725523173 3.633045001681903e-09 0.0005412068725523173 3.633045001681903e-09 3.633045001681903e-09 0.032114371208247464 0.03742922136228405
0.005501789204131453 0.029358556644345515 0.03422759527091101 0.0048895281604305575 0.07837132051514137 0.010278334396619862 0.0196355233322386 8.340619135756335e-07
0.006592005747467662 0.012036037416992874 8.791676762212004e-07 0.006663785059601181 0.01174551354918135 9.000496647807868e-07 0.0033719352312580214 0.00419277613213217
0.00045031752600977295 0.0026854604000930466 0.0031648993924906854 0.00026550722542693006 0.002657818220428406 0.003130925605797977 0.00026328506773220286 3.891965534759207e-09
3.786006633030877e-09 3.633408305487353e-09 3.6486760523610157e-09 3.786006633030877e-09 3.633408305487353e-09 4.431483302968421e-09 3.786006633030877e-09 3.633408305487353e-09
00000000: 87ca d197 00bc 413f bea7 b3e8 f8bb 413f
00000010: 6d97 b483 2635 2f3e bea7 b3e8 f8bb 413f
00000020: 6d97 b483 2635 2f3e 6d97 b483 2635 2f3e
00000030: a25d 247c 4b71 a03f c8dd 5443 ec29 a33f
00000040: 6e3d 384b 0b89 763f 84b6 9462 2b10 9e3f
00000050: df5a 9e84 4786 a13f 9bb4 abb8 0a07 743f
00000060: c68e 8e92 2410 b43f 4807 bab0 ce0c 853f
00000070: 9c0d 35aa 551b 943f 55dc 658b 89fc ab3e
00000080: 884f 9b11 3800 7b3f 3aa5 a298 59a6 883f
00000090: dad4 602a fe7f ad3e f580 602e 7c4b 7b3f
000000a0: 1f34 8c24 080e 883f 7f7e dd24 5e33 ae3e
000000b0: 2506 5cf1 759f 6b3f 5a0e dfc5 712c 713f
000000c0: 4600 0a0c 1383 3d3f 89b2 fa92 d1ff 653f
000000d0: 521c 596c 46ed 693f 588e 9dd9 7866 313f
000000e0: c507 bc4a d9c5 653f 07d9 a8e2 06a6 693f
000000f0: 6f2f 64c1 3041 313f b766 83e8 42b7 303e
00000100: 2ce3 fc20 c242 303e 563b 4d09 f335 2f3e
00000110: 958d 8303 8657 2f3e 2ce3 fc20 c242 303e
00000120: 563b 4d09 f335 2f3e 8ac6 d4a8 7708 333e
00000130: 2ce3 fc20 c242 303e 563b 4d09 f335 2f3e

running_mean_std.count f8 []
275251201.0
00000000: 0000 0001 0068 b041

a2c_network.sigma f4 [6]
-1.5143789 -1.4330148 -1.4277093 -2.5870094 -2.8592029 4.3121123
00000000: 2bd7 c1bf 076d b7bf 2ebf b6bf 9091 25c0
00000010: 2efd 36c0 d3fc 8940

a2c_network.actor_mlp.0.weight f4 [256, 40]
0.24621226 -0.3301436 0.06654342 -0.1461007 0.09139924 -0.069123045 0.5093788 1.2221777
0.38019922 -0.44533175 -1.0945461 -0.27673167 0.0064397496 -0.06996676 -0.059207153 0.034951124
0.024433782 0.018660665 -0.2611767 -0.0040912055 -0.02820103 0.08342262 0.005103854 -0.06628391
-0.045450427 0.15930389 -0.070027575 0.2613653 0.0009291216 -0.17293684 0.04075185 0.22568531
0.049362432 -0.14232388 0.031486843 -0.22648382 -0.11819723 0.24425259 -0.046165556 0.119544595
0.3403449 -0.53144497 0.08389177 -0.4875661 0.09596308 -0.037520524 -0.015911998 -0.5100447
0.3648646 -0.457679 0.45285484 0.1935396 0.036417365 0.45977867 -0.20885262 -0.20558766
0.03302022 -0.05630402 -0.07015359 0.03235362 0.011156948 -0.116982594 -0.370839 -0.12275404
0.15506352 -0.33256748 -0.39422038 -0.34541523 0.097113155 -0.31896496 -0.069335334 -0.06353319
0.91252697 -0.15224999 0.09981153 0.8111738 0.019944413 -0.27282554 0.7956759 -0.09943781
0.06591152 -0.0962129 -0.010956623 -0.14452179 -0.10852861 -0.092243925 0.025489109 -0.50686014
0.4877846 0.00104679 0.48613775 -0.48877925 -0.00833361 -0.012232664 -0.024730094 0.0131449895
0.014321528 -0.016295804 -0.028537476 -0.006141541 -0.0077934386 0.1577804 0.00576125 -0.036704116
0.0063189394 -0.0034817557 0.041766744 0.031130461 -0.061948143 -0.093039386 0.032003537 2.118566
-1.0144794 -0.10598027 0.433998 -1.1132003 0.09687057 2.2870407 -0.9457693 -0.07311726
0.2510878 -0.23980014 0.020339778 -0.41388443 0.066374384 -0.023720339 0.07094891 1.02775
0.18192993 0.011981012 -0.9850405 -0.22933228 -0.017707262 -0.0401012 -0.039055604 -0.44228902
-0.00087696675 0.010029348 0.37377137 -0.0106460815 -0.004779235 0.24287385 0.032949846 -0.035782013
-0.02911071 0.02615875 0.030725494 -0.0650342 0.012284179 0.07389565 -0.118399814 0.6869207
0.3768137 0.13391924 0.74340343 0.24034208 0.00034322854 0.6931887 0.31375614 0.042344846
0.029122088 -0.22922423 0.13315237 -0.10928049 -0.0078642005 -0.09532777 -0.5594728 -0.6063111
-0.1501377 0.50501686 0.6126426 0.28687003 0.074366935 0.008774394 -0.015929595 -0.062246863
-0.0083531365 -0.0029420636 -0.84685737 0.0025570504 0.03471793 -0.45301303 -0.087026305 0.09530953
-0.022048084 -0.10761219 0.11023501 0.47604856 -0.053647354 -0.056586713 -0.34664124 -1.913901
0.9792236 0.13259433 -0.96176195 0.9433323 -0.0020073876 -2.1585352 0.7678541 -0.1483508
-0.19047196 0.2480706 -0.031820826 0.23470451 -0.028812075 -0.11128607 -0.55384016 0.36322427
0.22220162 0.61502594 -0.45749387 -0.29164636 0.054460358 0.0027240545 0.055606373 -0.42418957
0.06098651 -0.046376087 -0.23632877 0.031019766 0.0057210336 0.014060828 0.05462379 -0.05935359
0.0019403218 -0.03761782 0.019257845 -0.006786376 0.062120583 -0.062435515 -0.0028101953 -1.1619327
0.92500454 0.13263348 -0.06806536 0.7895475 -0.11558371 -0.9629557 0.9141939 -0.14304356
0.0931469 -0.20697403 -0.013829231 -0.19001722 -0.06463183 -0.050194655 -0.34213057 0.39009526
0.60274196 0.3820985 -0.36147514 -0.58946747 -0.031619664 0.0022207727 0.031028317 0.0141739985
00000000: 111f 7c3e 9508 a9be eb47 883d 6c9b 15be
00000010: 862f bb3d 6290 8dbd a666 023f 5270 9c3f
00000020: 79a9 c23e 8602 e4be 161a 8cbf c6af 8dbe
00000030: 8904 d33b bc4a 8fbd 3383 72bd e928 0f3d
00000040: 5b29 c83c 40de 983c f4b8 85be 850f 86bb
00000050: d905 e7bc 7bd9 aa3d 3b3e a73b dcbf 87bd
00000060: 3a2a 3abd 8f20 233e 9e6a 8fbd acd1 853e
00000070: 4c90 733a 5b16 31be 69eb 263d 0d1a 673e
00000080: 4330 4a3d 5abd 11be 59f8 003d 60eb 67be
00000090: 6411 f2bd 5a1d 7a3e 1818 3dbd ccd3 f43d
000000a0: b041 ae3e c70c 08bf 73cf ab3d 44a2 f9be
000000b0: 4b88 c43d 1faf 19bd e159 82bc 4a92 02bf
000000c0: 88cf ba3e e754 eabe 97dc e73e 3f2f 463e
000000d0: 602a 153d 1c68 eb3e 76dd 55be 9285 52be
000000e0: 3640 073d 0b9f 66bd afac 8fbd 3b85 043d
000000f0: a2cb 363c 9294 efbd 9cde bdbe 7866 fbbd
00000100: f9c8 1e3e 4946 aabe 41d7 c9be 44da b0be
00000110: 43e3 c63d 604f a3be afff 8dbd b01d 82bd
00000120: 5e9b 693f 6ce7 1bbe fd69 cc3d 16a9 4f3f
00000130: 7762 a33c caaf 8bbe 6ab1 4b3f 0da6 cbbd
00000140: 9efc 863d 450b c5bd 6883 33bc 85fd 13be
00000150: 3f44 debd 62ea bcbd 89ce d03c 96c1 01bf
00000160: e7be f93e 7234 893a 0ce7 f83e 4641 fabe
00000170: b289 08bc 836b 48bc c496 cabc 155e 573c
00000180: d8a4 6a3c c77e 85bc 6dc7 e9bc fb3e c9bb
00000190: 1a60 ffbb 2f91 213e dec8 bc3b 0e57 16bd
000001a0: 1b0f cf3b 2b2e 64bb 9b13 2b3d 4f05 ff3c
000001b0: 56bd 7dbd 6f8b bebd 2416 033d 9696 0740
000001c0: 76da 81bf 2f0c d9bd fc34 de3e 597d 8ebf
000001d0: 1464 c63d e05e 1240 f01d 72bf 81be 95bd
000001e0: 958e 803e 2b8e 75be 9b9f a63c a9e8 d3be
000001f0: 4bef 873d 2851 c2bc aa4d 913d 508d 833f
00000200: d74b 3a3e 024c 443c 9d2b 7cbf 15d6 6abe
00000210: d20e 91bc 2841 24bd c5f8 1fbd b573 e2be
00000220: 3ee4 65ba 2252 243c f65e bf3e e76c 2ebc
00000230: 219b 9cbb ecb3 783e 6bf6 063d 2990 12bd
00000240: 9579 eebc e04a d63c 08b4 fb3c a730 85bd
00000250: 9543 493c 9a56 973d 9a7b f2bd 09da 2f3f
00000260: baed c03e 2022 093e b04f 3e3f 3c1c 763e
00000270: 5bf3 b339 d174 313f a5a4 a03e ca71 2d3d
00000280: 7291 ee3c c2b9 6abe 1859 083e 73ce dfbd
00000290: d9d8 00bc 353b c3bd 9c39 0fbf 3437 1bbf
000002a0: b2bd 19be c948 013f 25d6 1c3f a1e0 923e
000002b0: b14d 983d 7ac2 0f3c c87e 82bc 91f6 7ebd
000002c0: 98db 08bc a3cf 40bb a5cb 58bf 3094 273b
000002d0: 6334 0e3d 53f1 e7be d93a b2bd a531 c33d
000002e0: 2f9e b4bc c863 dcbd e5c2 e13d a3bc f33e
000002f0: 54bd 5bbd 78c7 67bd f67a b1be b5fa f4bf
00000300: 66ae 7a3f cfc6 073e 0836 76bf 3a7e 713f
00000310: 608e 03bb 7125 0ac0 1692 443f 46e9 17be
00000320: 150b 43be 3806 7e3e 8e56 02bd 6156 703e
00000330: 4d07 ecbc f3e9 e3bd 78c8 0dbf 88f8 b93e
00000340: d288 633e 5772 1d3f a33c eabe ac52 95be
00000350: d311 5f3d 0d86 323b 82c3 633d 602f d9be
00000360: fecc 793d daf4 3dbd 2b00 72be 2a1d fe3c
00000370: 8277 bb3b 635f 663c 32bd 5f3d c01c 73bd
00000380: 6552 fe3a 2515 1abd a1c2 9d3c 3f60 debb
00000390: 2772 7e3d 62bc 7fbd 412b 38bb 36ba 94bf
000003a0: 19cd 6c3f 12d1 073e da65 8bbd c91f 4a3f
000003b0: 27b7 ecbd 4484 76bf 9d08 6a3f 037a 12be
000003c0: cdc3 be3d 00f1 53be 0094 62bc e093 42be
000003d0: b15d 84bd e998 4dbd bd2b afbe 91ba c73e
000003e0: 4c4d 1a3f 6aa2 c33e 4513 b9be 57e7 16bf
000003f0: 9f83 01bd 628a 113b 192f fe3c 0f3a 683c

a2c_network.actor_mlp.0.bias f4 [256]
-0.01584063 0.20367178 -0.0077144615 -0.025942821 -0.1166467 0.074361145 0.009460593 -0.10401864
-0.4475849 0.2676755 0.38986877 -0.31550276 -0.007590993 0.07569003 -0.047831174 0.31848598
0.2882331 0.0021297042 -0.6979167 0.015114973 -0.009868616 -0.46307442 -0.039560135 0.012949472
0.004381921 -0.22133671 -0.12096837 -0.48254472 0.5756371 -0.108532816 -0.0409984 -0.5728561
-0.027689796 -0.14321154 -0.59251565 -0.056827232 -0.42454246 -1.0625197 -0.9932162 -0.041763443
0.23369958 -0.065037355 -0.035840034 0.0062991967 0.06776966 -0.000776449 -0.011206553 -0.007845926
-0.03029149 -0.057824004 -1.0562443 0.01355905 -0.089869805 -0.005446046 -0.006508088 -0.075589694
-0.545413 0.24546488 -0.040869158 0.027722998 -0.059734173 -0.017300494 -0.0029551096 -1.1123794
-1.0531557 0.24929528 -0.04278017 -0.0034506721 -0.028445184 0.00031438156 -0.6458913 -0.020487227
-0.3458792 0.14956304 -0.15619503 0.015685597 -0.88349146 0.04222352 -0.47490185 -0.5905904
0.006816253 -0.024432562 -0.12091758 -0.075024374 -0.42272386 -0.06250868 -0.044745572 -0.038026497
-0.07359282 -0.21982889 -0.014777952 -0.1503922 -0.82803357 -0.015767654 -0.13397898 -0.6166457
0.0010243544 0.00858199 -0.037612475 -0.15345672 -0.5253779 0.0020821975 -0.012366165 0.25627458
0.0020974234 0.04438944 -0.01151112 -0.11703716 0.0281905 -0.43816924 0.2437507 -0.24731615
-0.021794945 0.010843783 -0.079644226 0.0011381478 -0.050390247 -0.001125458 0.108372115 -0.26057985
-0.43221587 -0.021669276 -0.35451815 -0.06050312 0.16356157 -0.23627247 -0.05203085 0.0011909141
-0.17422418 -0.0060441056 -0.49088085 -0.017861314 0.0012187773 0.013044368 -0.025221387 -0.034384497
-0.0023131676 -0.0152305765 0.30808797 -0.12283181 -0.06164334 -0.0027634902 -0.37340605 -0.068853185
0.032613695 0.010723471 -0.010600132 -0.06272634 -0.02787109 -0.03650352 -0.00489248 0.0123247225
-0.039475895 -0.09623792 0.25327083 -0.19968916 -0.005319351 0.0391036 -0.015883738 -0.023310063
-0.051868 -0.41173086 0.019455126 -0.21301395 -0.026263382 0.09239223 0.02602216 -0.6218436
-0.0064666257 0.003446686 -0.38600418 -0.2739108 0.0003734401 0.021120574 -0.019263053 0.030187726
-0.044594962 -0.3316334 -0.0703878 -0.89650166 0.0020194184 -0.012983288 -0.4168173 0.011330048
-0.24343584 -0.095231295 0.03227982 -0.018787907 -0.22225569 0.250185 -0.899844 0.06227273
-0.027689785 -0.1170215 -0.50307685 0.006106969 0.109688774 0.008042746 0.026165938 -0.020022318
0.022106176 -0.029422406 -0.041272357 0.02075429 -0.004109399 -0.00062571885 -0.21539481 0.0016448072
-0.20007521 0.35291442 -0.6304005 -0.020044925 0.04553766 -0.4889542 -0.013566316 -0.0023241418
-0.08056327 -0.029080376 -0.6404953 0.1791748 0.007238625 0.015497634 -0.33606833 0.019232217
-0.01645459 -0.6878873 -0.5800778 -0.11593924 0.0043377806 -0.30740958 -0.7782763 0.012073168
-0.009666234 -0.31973067 0.019334463 -0.025641786 -0.01542938 -0.19607984 -0.029035617 -0.13435677
0.12062341 0.10544541 -0.036216304 0.0051872307 -0.03823073 -0.7138135 -0.3320045 -0.012986994
-0.837536 -0.14307955 0.26153362 -0.025591658 -0.045193553 -0.021224635 0.17015573 0.41668007
00000000: 35c4 81bc 568f 503e 98c9 fcbb 0a86 d4bc
00000010: 77e4 eebd a84a 983d 9a00 1b3c ba07 d5bd
00000020: d929 e5be c30c 893e e19c c73e 9489 a1be
00000030: ddbd f8bb 6003 9b3d 9fea 43bd 9810 a33e
00000040: 4a93 933e 8292 0b3b abaa 32bf cba4 773c
00000050: faaf 21bc 1718 edbe cf09 22bd 062a 543c
00000060: 3896 8f3b 17a6 62be 44be f7bd 1a10 f7be
00000070: f45c 133f 7446 debd f0ed 27bd b3a6 12bf
00000080: b6d5 e2bc 0ca6 12be 1baf 17bf acc3 68bd
00000090: a15d d9be a500 88bf 6b43 7ebf 2510 2bbd
000000a0: f14e 6f3e 4e32 85bd 00cd 12bd 7e69 ce3b
000000b0: d2ca 8a3d 9c8a 4bba b19b 37bc 338c 00bc
000000c0: dc25 f8bc ddd8 6cbd 0333 87bf c726 5e3c
000000d0: a90d b8bd bf74 b2bb cd41 d5bb c5ce 9abd
000000e0: 30a0 0bbf 255b 7b3e 6b66 27bd 571b e33c
000000f0: d2ab 74bd c4b9 8dbc 83aa 41bb 7362 8ebf
00000100: cecd 86bf 4347 7f3e 423a 2fbd ac24 62bb
00000110: e005 e9bc 94d3 a439 2259 25bf d4d4 a7bc
00000120: 1417 b1be 0e27 193e 97f1 1fbe 157f 803c
00000130: 7f2c 62bf 92f2 2c3d 5626 f3be ef30 17bf
00000140: e05a df3b cc26 c8bc a3a3 f7bd 61a6 99bd
00000150: 436f d8be 8d04 80bd 2247 37bd acc1 1bbd
00000160: d5b7 96bd d31a 61be 391f 72bc 6a00 1abe
00000170: 02fa 53bf 2b2b 81bc c931 09be 7edc 1dbf
00000180: a143 863a 7a9b 0c3c 8a0f 1abd c223 1dbe
00000190: 2b7f 06bf 7a75 083b 759b 4abc 6c36 833e
000001a0: ed74 093b b4d1 353d 2399 3cbc 2eb1 efbd
000001b0: c3ef e63c b857 e0be c999 793e 7240 7dbe
000001c0: 508b b2bc 1faa 313c 831c a3bd e72d 953a
000001d0: 0166 4ebd 1b84 93ba 33f2 dd3d b96a 85be
000001e0: 664b ddbe c483 b1bc 6783 b5be 1fd2 77bd
000001f0: af7c 273e 69f1 71be 4d1e 55bd 7218 9c3a
00000200: d367 32be a20d c6bb bc54 fbbe e451 92bc
00000210: 61bf 9f3a 0bb8 553c 159d cebc c2d6 0cbd
00000220: 8398 17bb ab89 79bc b5bd 9d3e 3e8f fbbd
00000230: ba7d 7cbd ac1b 35bb 142f bfbe e602 8dbd
00000240: f095 053d 7fb1 2f3c 2dac 2dbc ab76 80bd
00000250: ea51 e4bc b784 15bd 1951 a0bb a2ed 493c
00000260: 7ab1 21bd 6318 c5bd b7ac 813e 517b 4cbe
00000270: f34d aebb 192b 203d 9d1e 82bc bff4 bebc
00000280: 8a73 54bd 63ce d2be 5b60 9f3c 5420 5abe
00000290: 4e26 d7bc 2338 bd3d 6d2c d53c 2431 1fbf
000002a0: fde5 d3bb cce1 613b 57a2 c5be 093e 8cbe
000002b0: 48ca c339 0e05 ad3c 8dcd 9dbc 404c f73c
000002c0: 35a9 36bd dacb a9be 7b27 90bd 2281 65bf
000002d0: 3858 043b dbb7 54bc 1469 d5be aaa1 393c
000002e0: 3f47 79be a008 c3bd d837 043d 19e9 99bc
000002f0: ff96 63be 4018 803e 2d5c 66bf b111 7f3d
00000300: b0d5 e2bc f8a8 efbd a5c9 00bf f81c c83b
00000310: 82a4 e03d b9c5 033c f359 d63c d805 a4bc
00000320: 0318 b53c 4207 f1bc 340d 29bd e704 aa3c
00000330: 23a8 86bb 4807 24ba 7590 5cbe 9296 d73a
00000340: 84e0 4cbe 33b1 b43e ed61 21bf 4135 a4bc
00000350: b385 3a3d 3458 fabe 4145 5ebc a150 18bb
00000360: 5bfe a4bd f839 eebc 80f7 23bf 9979 373e
00000370: fd31 ed3b cae9 7d3c 2611 acbe e28c 9d3c
00000380: c7cb 86bc 6219 30bf fb7f 14bf 8d71 edbd
00000390: f123 8e3b ca64 9dbe 1e3d 47bf 89ce 453c
000003a0: 205f 1ebc bdb3 a3be 4f63 9e3c b90e d2bc
000003b0: 83cb 7cbc 27c9 48be 1adc edbc d294 09be
000003c0: 6809 f73d c3f3 d73d 8c57 14bd a5f9 a93b
000003d0: d397 1cbd 7bbc 36bf 7efc a9be 67c7 54bc
000003e0: c268 56bf 7283 12be bce7 853e 99a5 d1bc
000003f0: e01c 39bd 49df adbc 4e3d 2e3e 1757 d53e

a2c_network.actor_mlp.2.weight f4 [256, 256]
-0.018295193 -0.3154212 -0.21842591 0.09699183 -0.23003691 0.32776076 0.05529667 0.23195831
0.06861723 -0.06268673 -0.0246636 -0.28615206 0.03615559 -0.262671 -0.17036445 -0.2035176
-0.20807466 -0.38587293 -0.24060422 0.16332705 -0.30173093 -0.112801 0.26135445 -0.119046524
0.065587796 -0.034017004 -0.45953828 -0.18603973 -0.15438125 -0.059994653 -0.26277512 -0.26431856
0.16401051 0.17295852 0.3444636 -0.43770754 0.20426211 0.054017343 0.28286675 0.21003596
-0.8093022 0.46824363 -0.21092315 -0.055875406 0.18846309 0.29330716 -0.08904869 -0.10281067
0.205721 0.16402644 -0.07661954 -0.055141002 -0.26422808 -0.22136985 0.13330062 -0.41577542
-0.18194096 -0.2092184 0.19954069 0.12392825 -0.02265164 -0.05917994 0.27049002 -0.07395818
0.06682564 -0.16554785 0.25406697 -0.30150247 0.051447194 -0.10518384 -0.023875209 -0.42837003
0.052053712 -0.19369224 -0.1472119 -0.27009487 -0.33173937 0.07787368 -0.028530417 0.3967005
-0.090762034 0.10982454 -0.028620368 0.17107558 0.3739837 -0.29753712 -0.16617069 0.05586013
-0.42016026 0.07424787 -0.03052405 -0.20076847 -0.046773944 0.12720083 0.2809841 -0.038037404
0.07913678 0.23354454 0.01696026 -0.04664272 0.019298734 -0.121720396 0.19439904 -0.07540011
0.027248818 -0.23975426 0.27462298 -0.22828706 0.12979707 -0.25623226 0.31659243 -0.27648875
-0.013721553 0.00942376 -0.5315348 0.24866225 0.015720926 0.004843852 -0.04505757 -0.15251277
-0.18484955 0.09332202 -0.29175252 0.013406531 -0.037851814 -0.0026601935 -0.19874515 -0.1989786
0.15025043 -0.029082526 -0.26949614 0.23959902 -0.09711354 0.07238079 0.48545346 -0.2623949
0.12466343 0.28635514 0.2373874 0.1706251 0.37477437 0.26168138 -0.36186352 -0.13794951
-0.09207214 -0.30885443 -0.036598127 -0.40444827 0.14589301 -0.033394452 -0.07700266 -0.044190686
-0.024839733 -0.05115133 -0.21390282 0.2555995 -0.38199797 0.1614723 0.24033932 0.059268076
-0.121111326 0.07032101 -0.11442912 -0.11130399 -0.11646855 0.12251983 -0.102068305 -0.065735154
0.32855505 0.3789882 -0.10280888 -0.32020608 0.1756163 -0.16542658 -0.28397408 -0.107928514
0.19552389 -0.08305479 0.28925768 -0.2666758 0.11386306 -0.12732358 -0.47743496 -0.13138242
0.00546275 -0.043655783 0.3908114 0.08103105 -0.25822902 -0.09111987 0.27595 0.29194376
-0.1553407 -0.12127109 0.05392222 0.059871 -0.25285602 0.112336144 0.12260201 0.29211262
-0.05707032 -0.18440816 -0.42019483 -0.016264955 -0.4591978 -0.103935815 0.0031894671 0.14936244
-0.10909734 0.12278877 -0.18524054 0.32804555 -0.0043844413 -0.30777633 0.30879402 -0.13561726
-0.2155839 0.098699115 -0.16646384 -0.04031523 0.21330748 0.3024079 -0.21785656 0.016347775
-0.09389881 -0.21284194 -0.2709066 -0.1364423 0.12936084 -0.20617911 -0.09820714 0.079191536
0.24612312 -0.010788893 0.09949111 0.28539854 -0.030751526 -0.06641815 -0.33441722 0.2930996
-0.27400875 0.20274496 -0.03713935 0.07744008 0.16611098 -0.019971523 0.084597945 0.27379188
0.00012583335 0.470316 0.002005462 -0.14269951 -0.019976614 0.049986977 -0.19124949 -0.14389457
00000000: cddf 95bc e37e a1be 0bab 5fbe a7a3 c63d
00000010: cc8e 6bbe 42d0 a73e c37e 623d 7b86 6d3e
00000020: 3187 8c3d e661 80bd 510b cabc 8682 92be
00000030: e217 143d d07c 86be 0574 2ebe eb66 50be
00000040: 8611 55be 2391 c5be f460 76be 353f 273e
00000050: 7a7c 9abe 3604 e7bd 40d0 853e aace f3bd
00000060: e552 863d 6a55 0bbd 9a48 ebbe 3381 3ebe
00000070: 1e16 1ebe f4bc 75bd 768a 86be c354 87be
00000080: 5ff2 273e 0a1c 313e 885d b03e 341b e0be
00000090: 162a 513e 4a41 5d3d e9d3 903e ab13 573e
000000a0: 6e2e 4fbf a1bd ef3e 3dfc 57be 9cdd 64bd
000000b0: 78fc 403e 5b2c 963e 295f b6bd 678e d2bd
000000c0: 87a8 523e 8cf6 273e b5ea 9cbd 88db 61bd
000000d0: e748 87be c7ae 62be f57f 083e 84e0 d4be
000000e0: bb4e 3abe 593d 56be 6554 4c3e 18ce fd3d
000000f0: ef8f b9bc aa66 72bd ab7d 8a3e 6377 97bd
00000100: e2db 883d 6085 29be 1115 823e 885e 9abe
00000110: 4bba 523d a06a d7bd f195 c3bc 5153 dbbe
00000120: 4636 553d 4257 46be b7be 16be e049 8abe
00000130: bed9 a9be 3c7c 9f3d 9fb8 e9bc 541c cb3e
00000140: 72e1 b9bd b0eb e03d 4375 eabc 702e 2f3e
00000150: cb7a bf3e c956 98be a628 2abe 97cd 643d
00000160: 3f1f d7be 440f 983d 930d fabc 4096 4dbe
00000170: 0996 3fbd ef40 023e 26dd 8f3e 1ccd 1bbd
00000180: 7712 a23d 4d26 6f3e 3ef0 8a3c 700c 3fbd
00000190: 6118 9e3c 8b48 f9bd 8b10 473e 5f6b 9abd
000001a0: ea38 df3c 2482 75be 629b 8c3e 15c4 69be
000001b0: 86e9 043e e030 83be 6718 a23e ef8f 8dbe
000001c0: 5dd0 60bc 1d66 1a3c aa12 08bf 51a1 7e3e
000001d0: 2cc9 803c 2db9 9e3b 498e 38bd 4f2c 1cbe
000001e0: 3349 3dbe 9d1f bf3d 9660 95be 11a7 5b3c
000001f0: 810a 1bbd a456 2ebb d983 4bbe 0cc1 4bbe
00000200: 40db 193e 7a3e eebc 66fb 89be 7259 753e
00000210: 77e3 c6bd 613c 943d 5b8d f83e a058 86be
00000220: 8a4f ff3d 249d 923e af15 733e 59b8 2e3e
00000230: 6de2 bf3e 1afb 853e 2d46 b9be a342 0dbe
00000240: 5190 bcbd 2b22 9ebe ebe7 15bd d813 cfbe
00000250: fa64 153e 9fc8 08bd 92b3 9dbd 4b01 35bd
00000260: b27c cbbc 0f84 51bd 5709 5bbe f0dd 823e
00000270: 3d95 c3be ff58 253e 831b 763e 15c3 723d
00000280: 3709 f8bd 7604 903d d159 eabd 59f3 e3bd
00000290: 1087 eebd adeb fa3d 3009 d1bd 27a0 86bd
000002a0: 5e38 a83e be0a c23e 768d d2bd 0df2 a3be
000002b0: c2d4 333e 9665 29be 0d65 91be a009 ddbd
000002c0: 6a37 483e a118 aabd 9519 943e bb89 88be
000002d0: 0931 e93d 1d61 02be 5b72 f4be 1d89 06be
000002e0: de00 b33b 68d0 32bd 6f18 c83e 9bf3 a53d
000002f0: 9836 84be 0e9d babd 5249 8d3e a779 953e
00000300: a211 1fbe fa5c f8bd 8cdd 5c3d 4b3b 753d
00000310: 5876 81be 7e10 e63d c316 fb3d c98f 953e
00000320: 91c2 69bd 7ed5 3cbe c723 d7be 153e 85bc
00000330: f91b ebbe 4ddc d4bd 6106 513b 78f2 183e
00000340: 6d6e dfbd ae78 fb3d b2af 3dbe 96f5 a73e
00000350: 5cab 8fbb dc94 9dbe 401a 9e3e 40df 0abe
00000360: 07c2 5cbe c322 ca3d 7f75 2abe 9521 25bd
00000370: 476d 5a3e 35d5 9a3e ca15 5fbe c5eb 853c
00000380: 054e c0bd 3df3 59be 45b4 8abe 88b7 0bbe
00000390: 2b77 043e 9e20 53be d320 c9bd 2c2f a23d
000003a0: b307 7c3e e6c3 30bc ffc1 cb3d c21f 923e
000003b0: a0ea fbbc 3d06 88bd bc38 abbe 2711 963e
000003c0: e04a 8cbe 609c 4f3e 6e1f 18bd e898 9e3d
000003d0: ff18 2a3e 529b a3bc b041 ad3d 732e 8c3e
000003e0: 22f2 0339 42cd f03e 126e 033b d21f 12be
000003f0: ffa5 a3bc 25bf 4c3d e8d6 43be 1959 13be

a2c_network.actor_mlp.2.bias f4 [256]
-0.2427019 -0.09056195 0.0034206545 0.044255286 -0.031425424 -0.0105027035 -0.013144942 0.022268346
-0.0020161788 0.07580171 0.070278116 -0.056042746 -0.013043032 0.034707673 -0.027057895 0.0022761554
0.03394975 -0.013735404 0.005341979 -0.023524076 -0.008079881 -0.02821725 -0.012870458 0.007824247
-0.07080157 -0.056531526 -0.0026588107 -0.0066366782 -0.000116150986 0.018829823 -0.024313271 -0.24486583
0.037389543 -0.030234588 -0.034527197 -0.020212999 0.016959477 0.033598192 -0.019132148 -0.0076733753
-0.08115303 0.022036435 0.035063136 0.0011313529 -0.015136862 0.01365767 -0.5987672 -0.040974494
0.0009785743 -0.054982264 -0.050481454 0.02821238 -0.02223039 -0.05014904 0.007960102 0.041472886
-0.014624851 -0.04902346 -0.008825332 -0.027383529 -0.0068290103 0.03235007 0.03209634 -0.010115071
-0.034329187 0.0010222354 -0.07455344 -0.004057942 -0.015461923 -0.23055589 -0.4694808 0.0060964203
-0.036540233 0.038434807 -0.08865238 0.005630026 0.024922375 -0.033449683 -0.02755904 -0.13374731
0.014734666 -0.019245699 -0.54944974 -0.03481698 0.024180215 0.0047655175 -0.0021842243 -0.0473164
-0.13124199 0.022441896 -0.31944323 0.030942898 -0.007796236 0.0046897777 -0.015198994 0.062723644
0.0023051454 -0.05063591 0.057404995 0.007273648 0.052957628 -0.02556255 -0.038896915 0.020479029
-0.5474146 -0.021804059 -0.012247724 -0.2715735 0.05393666 0.01693733 -0.05208897 -0.08706337
0.03568923 -0.034671485 -0.39863393 -0.034706645 0.0029931958 -0.02230192 -0.17481348 -0.0032660265
-0.032898396 0.019390106 -0.0063001644 -0.012141205 0.0017180191 -0.21832635 0.012148264 -0.045530364
0.07021658 -0.33164188 0.020424576 -0.018205687 0.03750912 0.030021261 -0.06314422 -0.037774727
-0.0064739757 -0.042887487 -0.15033549 0.044700537 0.036585413 -0.0022049802 -0.13686639 -0.0543088
0.007907033 -0.03748082 -0.038042303 -0.03273824 -0.1389436 -0.15278934 0.10001924 -0.022250533
0.021508517 -0.5550395 0.03715784 -0.010401817 -0.013904421 -0.40890434 -0.38479853 -0.33243677
-0.034197476 -0.7279047 -0.030251151 -0.034835998 -0.20233105 0.027546445 -0.00039001048 0.031227358
-0.02826378 -0.011963799 0.044403877 -0.023993064 0.029429136 -0.011139264 0.0028661673 0.05176173
0.003360442 -1.0438575 0.026315387 -0.03139235 -0.08156646 0.0070293657 -0.059449334 -0.012433918
0.027050557 0.0048185545 -0.26977465 -0.00641128 0.014516917 -0.53307486 0.024003567 -0.033107348
0.033197735 -0.054906122 0.0017999811 0.004254289 -0.37646025 -0.1793518 0.0014270887 -0.0089781955
-0.020799128 0.0034768041 0.018988475 -0.011445179 0.013800512 -0.42088488 -0.3425433 -0.24423958
-0.026831962 -0.011680092 -0.026972624 -0.045419347 -0.050761882 -0.05643863 0.0111008175 -0.020113917
-0.0046586413 -0.106047876 0.03879371 0.041484118 0.028133709 -0.085166074 0.020999195 -0.051984556
-0.24055938 -0.010230981 0.033561073 0.005213919 -0.087587126 -0.0010105473 0.050723072 -0.024449565
0.08126436 0.20955016 -0.009435511 0.0018636783 -0.015954105 -0.002931659 0.025991581 0.07122919
-0.004093075 -0.025308253 -0.0077234996 0.02541579 -0.020265818 0.022847388 0.00051885325 -0.039031073
0.06749887 0.026841797 0.04627356 0.008709334 0.24086381 0.030064754 -0.15445867 -0.036630724
00000000: d986 78be 8b78 b9bd 0f2d 603b 0845 353d
00000010: f2b7 00bd 8813 2cbc e25d 57bc 1b6c b63c
00000020: de21 04bb ed3d 9b3d f9ed 8f3d 148d 65bd
00000030: 71b2 55bc a229 0e3d 85a8 ddbc 8d2b 153b
00000040: e50e 0b3d 760a 61bc c50b af3b 90b5 c0bc
00000050: 7a61 04bc dd27 e7bc 9dde 52bc 4531 003c
00000060: 6a00 91bd 9a8d 67bd 713f 2ebb 7e78 d9bb
00000070: 1696 f3b8 0041 9a3c a02c c7bc 1cbe 7abe
00000080: c725 193d 87ae f7bc 646c 0dbd bb95 a5bc
00000090: 9aee 8a3c 429e 093d 06bb 9cbc f070 fbbb
000000a0: 8f33 a6bd c185 b43c 5d9e 0f3d e749 943a
000000b0: 9a00 78bc 6bc4 5f3c cf48 19bf dfd4 27bd
000000c0: 8143 803a 1535 61bd a4c5 4ebd a61d e73c
000000d0: 821c b6bc 1469 4dbd 166b 023c 79df 293d
000000e0: 129d 6fbc d3cc 48bd 2098 10bc 6c53 e0bc
000000f0: e4c5 dfbb 8281 043d 7477 033d afb9 25bc
00000100: c39c 0cbd 87fc 853a 79af 98bd 7cf8 84bb
00000110: 0154 7dbc d816 6cbe ca5f f0be 7bc4 c73b
00000120: 36ab 15bd d16d 1d3d 618f b5bd 157c b83b
00000130: 022a cc3c 8902 09bd 7fc3 e1bc 0ef5 08be
00000140: ab69 713c 28a9 9dbc bda8 0cbf 409c 0ebd
00000150: 9615 c63c 0f28 9c3b 3425 0fbb d7ce 41bd
00000160: 4d64 06be 11d8 b73c 108e a3be f67b fd3c
00000170: 9177 ffbb b5ac 993b 3405 79bc 4175 803d
00000180: ec11 173b 9a67 4fbd 8021 6b3d c857 ee3b
00000190: 19ea 583d 8e68 d1bc 5f52 1fbd a3c3 a73c
000001a0: 5d23 0cbf 6d9e b2bc aeaa 48bc af0b 8bbe
000001b0: b0ec 5c3d 28c0 8a3c 3e5b 55bd 484e b2bd
000001c0: df2e 123d b003 0ebd bf19 ccbe 8e28 0ebd
000001d0: 7e29 443b 84b2 b6bc 4e02 33be d50a 56bb
000001e0: 78c0 06bd 00d8 9e3c 9c71 cebb e8eb 46bc
000001f0: 282f e13a f190 5fbe 8309 473c 0c7e 3abd
00000200: b6cd 8f3d f7cc a9be 7151 a73c 1824 95bc
00000210: 2aa3 193d 26ef f53c c251 81bd acb9 1abd
00000220: a523 d4bb caaa 2fbd 8cf1 19be e917 373d
00000230: 96da 153d 6e81 10bb b426 0cbe e772 5ebd
00000240: 808c 013c 7d85 19bd 3fd2 1bbd 8818 06bd
00000250: 3b47 0ebe cf74 1cbe e3d6 cc3d c046 b6bc
00000260: a132 b03c 1217 0ebf d232 183d 626c 2abc
00000270: 5ecf 63bc e95b d1be 5004 c5be 2735 aabe
00000280: a712 0cbd f657 3abf 43d1 f7bc 31b0 0ebd
00000290: df2f 4fbe 15a9 e13c 527a ccb9 84d0 ff3c
000002a0: 7189 e7bc cf03 44bc d7e0 353d 1a8d c4bc
000002b0: 5f15 f13c 7681 36bc 4fd6 3b3b 1c04 543d
000002c0: dc3a 5c3b 1f9d 85bf 5e93 d73c 4495 00bd
000002d0: 510c a7bd 9856 e63b 2581 73bd a2b7 4bbc
000002e0: 2199 dd3c f7e4 9d3b e71f 8abe b715 d2bb
000002f0: 5dd8 6d3c 9877 08bf 21a3 c43c 929b 07bd
00000300: 59fa 073d 3ee5 60bd 58ed eb3a 9067 8b3b
00000310: 66bf c0be 00a8 37be 270d bb3a 4819 13bc
00000320: ef62 aabc 18db 633b b88d 9b3c 8f84 3bbc
00000330: 8b1b 623c 397e d7be d661 afbe f119 7abe
00000340: b4ce dbbc db5d 3fbc b1f5 dcbc a309 3abd
00000350: b1eb 4fbd 312c 67bd 34e0 353c f1c5 a4bc
00000360: 84a7 98bb a12f d9bd 27e6 1e3d 40eb 293d
00000370: aa78 e63c 8d6b aebd 8106 ac3c c2ed 54bd
00000380: 3355 76be d89f 27bc 5677 093d 86d9 aa3b
00000390: e160 b3bd 5774 84ba ffc2 4f3d 744a c8bc
000003a0: ee6d a63d 5194 563e 6797 1abc ab46 f43a
000003b0: 2fb2 82bc 1421 40bb 4cec d43c 9ce0 913d
000003c0: 341f 86bb 4153 cfbc 6915 fdbb c634 d03c
000003d0: 8004 a6bc 722a bb3c a703 083a 0cdf 1fbd
000003e0: d93c 8a3d 54e3 db3c 5889 3d3d 98b1 0e3c
000003f0: 01a5 763e 5c4a f63c 6a2a 1ebe 190a 16bd

a2c_network.value.weight f4 [1, 256]
0.018563006 -0.00097167655 0.013212321 -0.0037177328 0.0014685994 -0.0009768589 -0.017828774 -0.003889029
0.0040814523 0.016246634 0.008665474 -0.04026043 -0.0024082237 0.055861186 -0.014625952 0.012896034
0.012378949 -0.25303757 -0.0078492565 -0.014988703 -0.047698803 0.0141262235 0.016098324 0.0031482682
-0.004603541 -0.005846098 0.06616383 0.0128211 0.008836967 0.004260097 0.8427389 -0.006846917
0.003207175 0.014005636 0.0054991804 -0.010630973 0.048222963 0.004174885 0.001749385 -0.011915222
0.012631256 0.0057992805 -0.019606523 0.016480787 -0.03593382 -0.026391562 -0.075011715 -0.01028852
-0.00058335974 0.06048992 -3.394182e-05 0.054138202 -0.01812395 0.05539675 -0.0052939886 0.14536949
0.003462455 0.010122223 0.03598577 -0.0023898755 -0.0075120395 0.034032267 -0.017348336 0.013141698
-0.06803781 -0.01045129 0.0048660995 -0.0040644826 0.0024289961 -0.0188314 -0.18603185 0.0051174453
0.0103334 -0.016830694 0.091790825 0.009544525 -0.005120155 0.0010108767 -0.018201418 -0.03826136
-0.0017606465 0.017399067 0.0026947155 -0.0045682746 -0.0029643802 -0.044014804 0.004170968 0.025400592
-0.022483375 -0.01903193 -0.045937758 -0.00019071765 0.003327434 -0.0010586872 -0.011278991 0.004397895
0.0050034174 -0.0066647227 -0.03927533 -0.024146888 0.027285594 0.0054278704 -0.012958759 0.008758835
0.00903338 -0.038044736 0.0035676851 0.0051223836 -0.13169187 0.0077049406 -0.009086003 -0.030072495
0.20538673 0.020512106 -0.10076375 -0.0054677976 0.043380752 -0.020612359 0.020995064 -0.003588855
0.28733692 0.0045521334 -0.0049118996 -0.011401572 -0.008062972 -0.094804294 -0.0017630862 -0.013029076
0.011905701 -0.018339097 0.064224966 -0.017009731 -0.028208595 0.0005237598 0.0015499316 -0.053666588
-0.0037691877 -0.007558284 0.008922386 0.0016787531 -0.0071188086 -0.014339749 -0.26253656 -0.00765989
0.0056903237 0.1556333 -0.016596504 0.004017733 0.024921978 -0.0029808395 0.02198783 0.015596741
-0.008189489 -0.15038373 0.03921893 -0.091574185 0.007539202 -0.17671065 -0.1528912 -0.053580187
-0.009980693 -0.21761477 0.10864783 -0.011471362 0.04837114 -0.005084318 -0.015886888 -0.025097743
-0.1366578 0.024578214 -0.007838158 0.1930263 -0.019205859 -0.0038581355 0.022237726 0.05699789
0.05492519 -0.011619563 -0.0036136152 0.006079358 -0.0009320755 0.27799213 0.007255227 -0.0063344934
-0.036004074 -0.0071677584 0.002184603 0.0049442537 -0.008333678 0.0031346504 0.015907912 -0.032049123
0.0137149915 -0.025278796 0.0011224542 0.0798034 0.0029494504 -0.013694093 0.04338943 -0.04125708
-0.06400374 -0.0043509225 0.09865936 0.022529889 -0.010307841 0.00527962 0.0066557555 -0.003421183
0.009019641 0.014445954 -0.24876957 -0.027773611 0.0013909701 -0.0032080002 0.041040972 -0.009374285
0.01288805 0.27121598 -0.010070744 -0.006230335 -0.0010981519 0.07513526 -0.0071345535 -0.007508242
-0.046910636 0.049389556 -0.010398322 0.014062367 -0.12258939 0.0029844528 0.0053443313 0.0071339016
0.28668687 0.16250882 -0.015741764 -0.004679077 -0.0021245491 0.019939689 0.039230827 0.0068616397
0.017387992 0.0036479817 0.018747449 4.685484e-05 -0.07452087 0.014061657 0.0559546 0.013160666
-0.19884358 -0.08312938 -0.007551467 0.068276525 0.5459554 -0.0005651467 -0.014947907 0.22266488
00000000: 7211 983c 1cb8 7eba 7e78 583c 35a5 73bb
00000010: 057e c03a f209 80ba a60d 92bc 14df 7ebb
00000020: b4bd 853b a917 853c a2f9 0d3c 1fe8 24bd
00000030: 4ad3 1dbb b3ce 643d b0a1 6fbc e349 533c
00000040: 13d1 4a3c 248e 81be 2b9a 00bc 2d93 75bc
00000050: d25f 43bd ad71 673c a2e0 833c 2d53 4e3b
00000060: 4dd9 96bb a090 bfbb e780 873d 970f 523c
00000070: edc8 103c 4998 8b3b bdbd 573f 1a5c e0bb
00000080: 782f 523b e577 653c 7832 b43b 882d 2ebc
00000090: 7185 453d 79cd 883b 9f4b e53a 1038 43bc
000000a0: 54f3 4e3c e407 be3b dc9d a0bc b702 873c
000000b0: 572f 13bd 1e33 d8bc be9f 99bd 2e91 28bc
000000c0: 9cec 18ba 47c4 773d c05c 0eb8 05c0 5d3d
000000d0: ae78 94bc b4e7 623d 3279 adbb bddb 143e
000000e0: 5bea 623b aed7 253c d165 133d 759f 1cbb
000000f0: 8e27 f6bb 6b65 0b3d 191e 8ebc 4750 573c
00000100: 6857 8bbd e33b 2bbc cd73 9f3b 5a2f 85bb
00000110: cb2f 1f3b 4f44 9abc 227f 3ebe 3eb0 a73b
00000120: 6c4d 293c 86e0 89bc d4fc bb3d a460 1c3c
00000130: f9c6 a7bb 657f 843a 241b 95bc f2b7 1cbd
00000140: 7ec5 e6ba 7d88 8e3c d399 303b 77b1 95bb
00000150: 0c46 42bb de48 34bd 9eac 883b e714 d03c
00000160: 0e2f b8bc dae8 9bbc 3b29 3cbd 61fb 47b9
00000170: 1411 5a3b a6c3 8aba 84cb 38bc 381c 903b
00000180: b5f3 a33b bf63 dabb 2bdf 20bd b2cf c5bc
00000190: 0a86 df3c 47dc b13b fa50 54bc 3781 0f3c
000001a0: be00 143c ccd4 1bbd d3cf 693b abd9 a73b
000001b0: 3cda 06be ba79 fc3b 75dd 14bc 985a f6bc
000001c0: e650 523e 0109 a83c 3a5d cebd 362b b3bb
000001d0: 04b0 313d 40db a8bc d7fd ab3c ff32 6bbb
000001e0: d31d 933e 102a 953b 00f4 a0bb a9cd 3abc
000001f0: 8e1a 04bc c128 c2bd 5b17 e7ba e877 55bc
00000200: 2110 433c e03b 96bc 6188 833d fe57 8bbc
00000210: b615 e7bc ed4c 093a 1327 cb3a 7fd1 5bbd
00000220: 7a04 77bb 7bab f7bb 332f 123c 9b09 dc3a
00000230: e544 e9bb 44f1 6abc 316b 86be d1ff fabb
00000240: e575 ba3b 565e 1f3e 64f5 87bc 30a7 833b
00000250: 2d29 cc3c 305a 43bb d21f b43c 7989 7f3c
00000260: 352d 06bc 31fe 19be 07a4 203d 3f8b bbbd
00000270: 690b f73b a3f3 34be 838f 1cbe e676 5bbd
00000280: 1086 23bc 68d6 5ebe c182 de3d 61f2 3bbc
00000290: d120 463d 5a9a a6bb 3825 82bc c899 cdbc
000002a0: 06f0 0bbe 4058 c93c 9e6b 00bc b0a8 453e
000002b0: 9b55 9dbc c6d8 7cbb e42b b63c 9f76 693d
000002c0: 3cf9 603d fb5f 3ebc 67d2 6cbb 5a35 c73b
000002d0: 8756 74ba fc54 8e3e 41bd ed3b 9591 cfbb
000002e0: 0279 13bd 84df eabb 8e2b 0f3b 6803 a23b
000002f0: fb89 08bc b56e 4d3b 4f51 823c f145 03bd
00000300: d8b4 603c 7a15 cfbc 501f 933a f76f a33d
00000310: 914b 413b 305d 60bc 1db9 313d 2ffd 28bd
00000320: 6514 83bd 2f92 8ebb eb0d ca3d 9a90 b83c
00000330: 38e2 28bc aa00 ad3b 8618 da3b ed35 60bb
00000340: 1ec7 133c b9ae 6c3c 73bd 7ebe 7c85 e3bc
00000350: 3651 b63a 503d 52bb 941a 283d 9a96 19bc
00000360: 6628 533c d2dc 8a3e c3ff 24bc d727 ccbb
00000370: ddef 8fba 84e0 993d f9c8 e9bb b307 f6bb
00000380: 5e25 40bd b44c 4a3d b95d 2abc d865 663c
00000390: 2510 fbbd cf96 433b 801f af3b 81c3 e93b
000003a0: 9fc8 923e b668 263e dff4 80bc f152 99bb
000003b0: 053c 0bbb 8f58 a33c 81b0 203d 9bd7 e03b
000003c0: 4371 8e3c fa12 6f3b 4094 993c 0086 4438
000003d0: 669e 98bd dd62 663c a730 653d d69f 573c
000003e0: a79d 4bbe bd3f aabd 4c72 f7bb 90d4 8b3d
000003f0: bcc3 0b3f 5a26 14ba 11e8 74bc 4302 643e

a2c_network.mu.weight f4 [6, 256]
0.104875416 -0.095745936 0.0013018831 0.005921962 -0.0038817357 -0.001506512 0.024441157 0.0070538
-0.001467447 0.0011128216 0.039939586 0.0064459387 0.005033854 0.005191869 0.0016270523 -0.0031412563
-0.0021132398 -0.030361777 -0.0011717468 0.019840708 -0.0011437741 -0.005115261 -0.0029881785 -0.0068364143
0.0010643506 -0.0041684397 -0.01131968 0.0003217111 -0.0027929822 5.7062975e-05 0.107177556 0.025127506
0.0018698586 0.002019243 -0.0039191763 -0.0064191194 -0.028694645 -0.0005347321 -0.002266315 -0.0027441138
-0.004062368 -0.0022494344 0.0040325243 0.0013377457 -0.0025579785 0.01820005 -0.10747551 0.0052561746
0.0045583695 0.10558063 -0.007769584 -0.01034924 0.015619004 -0.006577061 -0.00020121255 0.016733706
-6.208341e-05 -0.004136096 -0.0045334506 -0.0019919807 -0.0028236269 -0.009186314 0.00011577424 0.0016704361
-0.0052190213 -0.00300831 -0.0010251187 -0.004346716 -0.005762505 0.0019295935 -0.016370896 0.0013232449
-0.012883433 -0.0017951755 -0.15009443 -0.0008960586 0.003811326 -5.5061078e-06 0.0060111512 0.03424453
0.0059278575 0.004965881 0.0062014 0.00026095263 0.019032106 0.012987723 -0.001983232 -0.011256639
0.105981916 0.0051992782 0.281697 0.008050789 -0.002751221 -0.0002619268 0.0013286544 -0.00091597665
0.0057665096 -0.0012948612 -0.03463056 -0.009626813 -0.0023871523 -0.003327042 0.0016953845 -0.00057872856
0.014522467 -0.032982755 3.0775678e-05 0.024193102 0.024704598 -0.00051377784 0.00027331096 0.012370471
0.002793618 -0.0004724011 -0.07222232 -0.0015801244 -0.0027461858 0.034960214 -0.003135177 0.006730154
-0.017473403 -0.00040973653 0.00671155 -0.001671112 -0.00265882 0.023283621 -0.0004137889 -1.6781705e-05
-0.004336532 0.08915509 -0.037790023 0.004125475 0.0047449595 -0.01074134 -0.005471259 0.0067921095
0.0019537837 0.000767153 -0.029643172 0.000104430466 -0.0010361962 -0.010376498 0.15708601 -0.007108348
0.0031777644 0.07108365 -0.0010983389 -0.0014832434 -0.12677123 0.05461523 -0.00023401529 -0.0072591864
0.0021993823 0.3815173 0.008466183 0.0017883723 -0.0052829604 0.010665574 -0.14869675 -0.052313782
0.002812501 0.3135775 -0.0007818497 0.00078611315 -0.036429815 0.002150321 0.0030559609 -0.015043995
-0.052075543 -0.0010567615 -0.002654947 -0.009914067 0.014697022 0.001528945 -0.0019996895 0.049310528
-0.026234007 0.15462975 -0.0023035333 0.0043821684 0.0034966713 -0.032508757 -0.0040901517 -0.01558194
0.019193862 -0.002661117 0.06867939 0.0075159003 0.001126268 -9.104957e-05 0.0022225461 -0.003853371
-0.004204463 -0.018959392 0.008353481 0.03893237 -0.07401387 -0.042210918 -0.010543018 -0.031799003
0.005319782 -0.0027890408 0.2196246 -0.0014949479 -0.0041449224 -0.10053183 0.0032450564 0.0306646
0.0023363233 0.004551534 -0.09222396 -0.18171124 0.00027152762 -0.0049293414 -0.00090473477 -0.0028913072
-0.0349476 0.003959431 0.002894273 -0.0053793704 -0.00069015933 0.085057154 0.0050343946 0.005177485
-0.0572361 0.0020255882 -0.0040282216 -0.0007668839 -0.04842637 0.0037456623 0.0007514203 -0.0047550392
0.0029278053 -0.07094217 0.0059892093 -0.0022679996 0.008662085 -0.0011515109 0.003571795 0.017709538
0.00030740257 0.0023399729 -0.016535914 0.00078111165 -0.06731134 -0.034119904 -0.032601528 -0.0052227173
0.045432232 -0.004486081 -0.0007073187 -0.19874805 -0.090244494 0.0054162466 0.07413674 -0.015941137
00000000: ecc8 d63d 7216 c4bd f3a3 aa3a 050d c23b
00000010: b864 7ebb 2876 c5ba d238 c83c 9023 e73b
00000020: 5a57 c0ba 19dc 913a b197 233d 7438 d33b
00000030: 07f3 a43b 8e20 aa3b d142 d53a 89dd 4dbb
00000040: 487e 0abb 43b9 f8bc 4c95 99ba fb88 a23c
00000050: b1ea 95ba eb9d a7bb 51d5 43bb 0004 e0bb
00000060: ae81 8b3a 6897 88bb 2e76 39bc 55ab a839
00000070: 770a 37bb e756 6f38 e87f db3d 33d8 cd3c
00000080: 0b16 f53a 4755 043b 6f6c 80bb 7a57 d2bb
00000090: 0811 ebbc 442d 0cba 7586 14bb 97d6 33bb
000000a0: 9d1d 85bb 3f6b 13bb 4423 843b 4c57 af3a
000000b0: c2a3 27bb 4518 953c 1f1c dcbd fd3b ac3b
000000c0: 605e 953b a83a d83d ff97 febb dc8f 29bc
000000d0: dae6 7f3c 6384 d7bb 95fc 52b9 2015 893c
000000e0: c732 82b8 1788 87bb 578d 94bb e48b 02bb
000000f0: 990c 39bb 3282 16bc d2cb f238 89f2 da3a
00000100: 5304 abbb 1127 45bb 475d 86ba e66e 8ebb
00000110: 65d3 bcbb 6aea fc3a 421c 86bc bb70 ad3a
00000120: 0915 53bc 184c ebba 5bb2 19be 7ae5 6aba
00000130: 71c7 793b 1bc1 b8b6 31f9 c43b fe43 0c3d
00000140: 793e c23b d4b8 a23b 1d35 cb3b 78d0 8839
00000150: 38e9 9b3c 75ca 543c 1df9 01bb c46d 38bc
00000160: 0c0d d93d b55e aa3b 973a 903e 75e7 033c
00000170: d44d 34bb 3853 89b9 3e26 ae3a 271e 70ba
00000180: fdf4 bc3b 55b8 a9ba c6d8 0dbd c8b9 1dbc
00000190: c571 1cbb 810a 5abb aa37 de3a d1b5 17ba
000001a0: a4ef 6d3c ed18 07bd 2215 0138 9d30 c63c
000001b0: 4c61 ca3c 0caf 06ba 2d4b 8f39 84ad 4a3c
000001c0: 2215 373b 9aac f7b9 4ce9 93bd 2d1c cfba
000001d0: 5af9 33bb 7132 0f3d 8b77 4dbb a088 dc3b
000001e0: 6224 8fbc e8d1 d6b9 90ec db3b 3709 dbba
000001f0: 993f 2ebb 4bbd be3c cef1 d8b9 70c6 8cb7
00000200: 7819 8ebb f296 b63d b6c9 1abd fe2e 873b
00000210: 9b7b 9b3b 72fc 2fbc 3f48 b3bb 5890 de3b
00000220: 0d0b 003b c41a 493a 3dd6 f2bc ae01 db38
00000230: fad0 87ba 3002 2abc 28db 203e 25ed e8bb
00000240: 0a42 503b 4e94 913d 23f6 8fba 6469 c2ba
00000250: 51d0 01be 38b4 5f3d 0062 75b9 78de edbb
00000260: 8323 103b 3c56 c33e bfb5 0a3c d167 ea3a
00000270: af1c adbb a9be 2e3c f643 18be fa46 56bd
00000280: f051 383b 3b8d a03e 0cf5 4cba 2913 4e3a
00000290: 6e37 15bd 66ec 0c3b 8446 483b 177b 76bc
000002a0: 2a4d 55bd 0883 8aba 9ffe 2dbb 9c6e 22bc
000002b0: c7cb 703c e266 c83a 390d 03bb d6f9 493d
000002c0: b3e8 d6bc 4357 1e3e e0f6 16bb 4b98 8f3b
000002d0: 6928 653b e727 05bd ae06 86bb 654b 7fbc
000002e0: 723c 9d3c 2266 2ebb c8a7 8c3d f147 f63b
000002f0: 489f 933a def1 beb8 23a8 113b d688 7cbb
00000300: 98c5 89bb ba50 9bbc 0add 083c 8c77 1f3d
00000310: 9594 97bd 5be5 2cbd 9fbc 2cbc ac3f 02bd
00000320: 9151 ae3b 57c8 36bb 45e5 603e 21f2 c3ba
00000330: 21d2 87bb a2e3 cdbd 03ab 543b 5434 fb3c
00000340: 001d 193b 0925 953b eadf bcbd 8312 3abe
00000350: d25b 8e39 5086 a1bb b92b 6dba 167c 3dbb
00000360: 3725 0fbd 1dbe 813b d8ad 3d3b 6e45 b0bb
00000370: cfeb 34ba 7232 ae3d 90f7 a43b e4a7 a93b
00000380: 6770 6abd bbbf 043b 2cff 83bb b508 49ba
00000390: bb5a 46bd c979 753b f6fa 443a 29d0 9bbb
000003a0: 6ce0 3f3b 214a 91bd 2141 c43b b8a2 14bb
000003b0: 6beb 0d3c 4bee 96ba c714 6a3b 9813 913c
000003c0: e02a a139 3b5a 193b 5376 87bc 84c3 4c3a
000003d0: 87da 89bd 50c1 0bbd 2e89 05bd 5423 abbb
000003e0: 2617 3a3d faff 92bb 5b6b 39ba 9c84 4bbe
000003f0: 1bd2 b8bd c57a b13b 01d5 973d fd96 82bc

a2c_network.mu.bias f4 [6]
0.025664208 -0.071522996 -0.05240449 0.063463196 0.13782248 0.42252383
00000000: bf3d d23c a67a 92bd 17a6 56bd fef8 813d
00000010: 5621 0d3e 0b55 d83e

exp_avg f4 [6]
0.00013893191 -0.00034412832 -0.00032369353 0.0005147921 0.00045518056 -0.0009313806
00000000: 40ae 1139 1f6c b4b9 69b5 a9b9 1df3 063a
00000010: 4da5 ee39 e527 74ba

exp_avg_sq f4 [6]
8.7613425e-06 9.454655e-06 9.5365795e-06 9.033879e-06 9.549804e-06 9.89584e-06
00000000: aefd 1237 6f9f 1e37 4cff 1f37 3790 1737
00000010: 1938 2037 4f06 2637

exp_avg f4 [256, 40]
3.6102487e-05 -3.6130292e-05 0.0 -3.6130292e-05 0.0 0.0 0.0055127856 -0.0006917053
-0.0034405869 0.0055450774 -0.0006706781 -0.0042122793 0.0072309645 0.0049998914 -0.0016729048 -9.1676215e-05
-0.0066375993 -0.0029285992 -0.000105871506 -0.0015523941 -4.109199e-05 0.00040989887 0.0045382977 0.00047948517
0.0012517096 0.00022042127 -0.0002352858 -0.00072705 0.0011998379 0.0018832542 0.001738125 -1.0315034e-05
1.0647052e-06 6e-45 -1.5083323e-06 1.0647052e-06 6e-45 -1.9117368e-05 1.0647052e-06 6e-45
-1.643599e-05 1.6431817e-05 0.0 1.6431817e-05 0.0 0.0 -0.00044846543 0.0005898372
-0.0010648306 -0.0004333249 0.00057447003 -0.0011835071 -0.00024854066 -7.1479895e-05 0.0007488628 -0.0003582005
-0.00034477699 -0.00017680458 -2.4776647e-05 -6.5613705e-05 -0.0005708558 -9.413179e-05 0.00053339737 0.0007094234
0.00061622873 -0.0009730956 0.0005739591 3.5844492e-05 -0.0001636701 -0.00024172857 -0.00054019986 -4.77146e-07
-4.048332e-08 6e-45 4.894954e-08 -4.048332e-08 6e-45 -1.0107751e-06 -4.048332e-08 6e-45
-1.6601301e-05 1.658007e-05 0.0 1.658007e-05 0.0 0.0 -0.00010040343 3.2680695e-05
-0.00066018105 -0.0001037495 3.7993184e-05 -0.0006987913 7.015893e-05 -0.00019798843 6.097783e-05 -9.9142846e-05
-0.00020206317 -0.00023845416 5.7609964e-06 6.660333e-05 2.7364396e-05 -2.5546387e-05 -0.00022727925 4.3777658e-05
-0.0001756115 -8.3876075e-05 -2.1645634e-05 -6.789755e-05 0.000105285304 -2.898556e-05 -0.00024879695 -1.1314038e-06
5.817782e-08 -6e-45 -5.6597244e-08 5.817782e-08 -6e-45 -2.213558e-06 5.817782e-08 -6e-45
2.3988185e-05 -2.397678e-05 0.0 -2.397678e-05 0.0 0.0 0.00062580395 -0.0012602231
0.0021029958 0.0006052277 -0.0013001221 0.0022195193 -0.0011600268 0.0015323726 -0.00060246396 -1.9211011e-05
0.00069805095 0.00044532144 -6.894675e-05 -0.00011018583 -0.00010990168 -2.192798e-05 0.0008010559 0.0006641947
0.00047913278 -0.00053319056 0.00025983556 -0.00033857074 -0.0001844652 0.00025886056 -0.00031069078 3.8299657e-07
4.800704e-07 6e-45 -7.4456295e-08 4.800704e-07 6e-45 8.551074e-07 4.800704e-07 6e-45
-6.5212416e-06 6.5225445e-06 0.0 6.5225445e-06 0.0 0.0 0.00012288986 0.00045608167
-0.00061928027 0.00015157352 0.00047933037 -0.0006639466 -0.00016698719 -0.0001236022 -3.2929427e-06 -5.1116414e-05
0.00050095073 -4.291821e-05 -1.0879265e-05 0.000720182 0.00014860631 -2.1954917e-05 -0.00065479777 0.00024992897
-0.0003335098 0.00015714987 3.1831303e-05 -0.0001231944 -3.7139885e-06 -7.862912e-05 -0.000261687 8.0785645e-07
-3.7447728e-07 -6e-45 -3.1132963e-08 -3.7447728e-07 -6e-45 1.6519149e-06 -3.7447728e-07 -6e-45
-3.419712e-06 3.4094376e-06 0.0 3.4094376e-06 0.0 0.0 0.0004110259 -0.00028667372
0.0002880508 0.00040164142 -0.000307806 0.00025241528 0.00014495944 4.343567e-05 -0.00033297934 -7.280263e-05
-0.00018007786 -0.0005156318 2.3652388e-05 -0.00038098224 -5.2967196e-05 1.5785431e-06 8.8932546e-05 -0.00029736466
0.0004400889 -0.00033320684 0.0003485181 -6.426632e-05 -0.00022499614 0.00011176712 -0.00011111783 4.4968894e-07
5.6132947e-08 -6e-45 7.407718e-08 5.6132947e-08 -6e-45 8.2639497e-07 5.6132947e-08 -6e-45
-1.2916514e-05 1.290547e-05 0.0 1.290547e-05 0.0 0.0 9.554103e-06 -0.00012648005
-0.00045276398 -2.0641262e-05 -0.00012250179 -0.00050156633 0.00085348386 -0.00023139553 -0.00017472894 -8.441212e-06
00000000: c06c 1738 9b8a 17b8 0000 0000 9b8a 17b8
00000010: 0000 0000 0000 0000 99a4 b43b 8f53 35ba
00000020: 787b 61bb 7bb3 b53b 72d0 2fba 2907 8abb
00000030: baf1 ec3b 21d6 a33b 5f45 dbba 4b42 c0b8
00000040: 3880 d9bb beed 3fbb 5507 deb8 b479 cbba
00000050: 305a 2cb8 b2e7 d639 00b6 943b 6963 fb39
00000060: 6810 a43a e220 6739 0db7 76b9 8097 3eba
00000070: e143 9d3a 86d7 f63a ccd1 e33a bc0e 2db7
00000080: fee6 8e35 0400 0000 e771 cab5 fee6 8e35
00000090: 0400 0000 3c5e a0b7 fee6 8e35 0400 0000
000000a0: 05e0 89b7 0fd7 8937 0000 0000 0fd7 8937
000000b0: 0000 0000 0000 0000 0320 ebb9 4e9f 1a3a
000000c0: c991 8bba e22f e3b9 0898 163a e91f 9bba
000000d0: 904e 82b9 7ae7 95b8 554f 443a dbcc bbb9
000000e0: 2fc3 b4b9 9e64 39b9 72d7 cfb7 179a 89b8
000000f0: 7ca5 15ba 9f68 c5b8 b1d3 0b3a 99f8 393a
00000100: 698a 213a 5717 7fba be75 163a bb57 1638
00000110: dc9e 2bb9 8578 7db9 339c 0dba 3915 00b5
00000120: e2df 2db3 0400 0000 973c 5233 e2df 2db3
00000130: 0400 0000 f8a9 87b5 e2df 2db3 0400 0000
00000140: 0643 8bb7 6e15 8b37 0000 0000 6e15 8b37
00000150: 0000 0000 0000 0000 ae8f d2b8 a112 0938
00000160: 0010 2dba 1794 d9b8 df5a 1f38 172f 37ba
00000170: 4a22 9338 1d9b 4fb9 72c2 7f38 e9ea cfb8
00000180: ebe0 53b9 8d09 7ab9 954e c136 64ad 8b38
00000190: 988c e537 734c d6b7 cf51 6eb9 e79d 3738
000001a0: 5a24 38b9 a0e6 afb8 a593 b5b7 3864 8eb8
000001b0: 9ecc dc38 0426 f3b7 f670 82b9 bdda 97b5
000001c0: 31df 7933 0400 0080 5415 73b3 31df 7933
000001d0: 0400 0080 a38c 14b6 31df 7933 0400 0080
000001e0: 3c3a c937 be21 c9b7 0000 0000 be21 c9b7
000001f0: 0000 0000 0000 0000 fe0c 243a 122e a5ba
00000200: 6ad2 093b 25a8 1e3a dc68 aaba 5b75 113b
00000210: 0a0c 98ba e4d9 c83a acee 1dba 5527 a1b7
00000220: 68fd 363a 087a e939 8197 90b8 9113 e7b8
00000230: 047b e6b8 faf1 b7b7 f4fd 513a 5a1d 2e3a
00000240: 1d34 fb39 d0c5 0bba 8a3a 8839 3282 b1b9
00000250: 006d 41b9 adb7 8739 36e4 a2b9 a69e cd34
00000260: 30de 0035 0400 0000 c8e4 9fb3 30de 0035
00000270: 0400 0000 888a 6535 30de 0035 0400 0000
00000280: 0ad1 dab6 3bdc da36 0000 0000 3bdc da36
00000290: 0000 0000 0000 0000 ffdb 0039 3f1e ef39
000002a0: 3257 22ba b5ef 1e39 a24e fb39 b40c 2eba
000002b0: 4819 2fb9 379b 01b9 53fc 5cb6 d565 56b8
000002c0: 3c52 033a 1403 34b8 1686 36b7 99ca 3c3a
000002d0: 34d3 1b39 d32b b8b7 bca6 2bba e608 8339
000002e0: edda aeb9 99c8 2439 9a82 0538 bf2d 01b9
000002f0: d63d 79b6 b0e5 a4b8 0933 89b9 79db 5835
00000300: c40b c9b4 0400 0080 0eb7 05b3 c40b c9b4
00000310: 0400 0080 5db7 dd35 c40b c9b4 0400 0080
00000320: 347e 65b6 b1cd 6436 0000 0000 b1cd 6436
00000330: 0000 0000 0000 0000 f67e d739 b24c 96b9
00000340: 8605 9739 6693 d239 0661 a1b9 9b56 8439
00000350: 4100 1839 b22e 3638 bb93 aeb9 9dad 98b8
00000360: 48d3 3cb9 772b 07ba 1e69 c637 92be c7b9
00000370: 1829 5eb8 54de d335 4c81 ba38 9ce7 9bb9
00000380: bbbb e639 44b2 aeb9 4fb9 b639 b8c6 86b8
00000390: f1ec 6bb9 8464 ea38 ee07 e9b8 c76c f134
000003a0: d416 7133 0400 0080 5c14 9f33 d416 7133
000003b0: 0400 0080 6ed5 5d35 d416 7133 0400 0080
000003c0: 01b4 58b7 9284 5837 0000 0000 9284 5837
000003d0: 0000 0000 0000 0000 8f4a 2037 bb9f 04b9
000003e0: f460 edb9 c626 adb7 d373 00b9 8c7b 03ba
000003f0: 55bc 5f3a c4a2 72b9 7137 37b9 bb9e 0db7
