logs/rl_games/yam_cube_sort_8192/2026-02-01_19-21-52/nn/last_yam_cube_sort_8192_ep_150_rew_59.982895.pth (torch, 953214 bytes, 30 tensors)

value_mean_std.running_mean f8 [1]
000000 8f f4 d8 a9 05 91 88 3f
       0.011995357747873107

value_mean_std.running_var f8 [1]
000000 0c 67 03 62 80 27 56 3f
       0.0013521913279447876

value_mean_std.count f8 []
000000 00 00 00 04 00 c0 92 41
       78643201.0

running_mean_std.running_mean f8 [40]
000000 0e 92 41 a7 51 fe ef 3f c8 9f d1 72 b1 e4 2a 3f
       0.9997947947236427 0.00020517984504242318
000010 00 00 00 00 00 00 00 00 c8 9f d1 72 b1 e4 2a 3f
       0.0 0.00020517984504242318
000020 00 00 00 00 00 00 00 00 00 00 00 00 00 00 00 00
       0.0 0.0
000030 53 d8 95 f3 cc e0 c5 3f 8f 73 2d 20 19 50 c8 3f
       0.17092286962332767 0.18994440146607558
000040 4f 42 72 82 34 34 bb 3f 07 0e d4 0f ff 16 c6 3f
       0.10626533684467997 0.17257679245823018
000050 1f bc e0 12 87 49 c8 3f 81 09 56 bc 59 f6 ba 3f
       0.18974388524790783 0.10532151077317133
000060 0f 5d 5e eb d5 7b e3 3f fc 20 2a 9e 42 5d d1 3f
       0.6088666531603922 0.27131715245970134
000070 a9 d6 95 e1 d0 58 d2 3f bf c6 3b 25 e6 0b 8a 3f
       0.28667089490714176 0.012718008052135741
000080 e2 59 e4 24 cd 28 d1 3f 75 c6 9d e9 36 46 d2 3f
       0.268115316417065 0.2855355531129143
000090 53 b5 76 18 c7 09 8a 3f cb 68 c0 5b 0a 25 d1 3f
       0.012713962015221602 0.26788577041737643
0000a0 fd 09 71 89 10 4f d2 3f 37 65 62 c6 62 09 8a 3f
       0.2860757200434419 0.0127132145683385
0000b0 ef 3f e2 2b ba 66 40 3f 5f a3 ab 30 b9 7a 3c 3f
       0.0005005272903577644 0.0004345609783472006
0000c0 99 a6 2e 72 a9 59 49 bf 7f bc ac 49 26 d3 33 3f
       -0.0007736279843488402 0.00030250248680636216
0000d0 92 a8 2e d1 a4 b6 37 3f 5b 58 3a e9 40 d7 44 bf
       0.0003618385682623372 -0.0006360117863149038
0000e0 4e de c8 03 37 d7 31 3f 0b 4c e1 bc f5 fd 38 3f
       0.0002722272218167219 0.00038134812792128885
0000f0 29 a7 e7 52 10 9b 44 bf cc 83 c0 0c cb fc d0 3f
       -0.0006288366037640925 0.2654292702227934
000100 25 10 e7 2c 72 02 ca bf 40 0a 43 f7 df 7a 84 3f
       -0.2031996459246567 0.009999990208943932
000110 43 73 da e0 01 c0 b0 3f 25 10 e7 2c 72 02 ca bf
       0.06542979945738829 -0.2031996459246567
000120 40 0a 43 f7 df 7a 84 3f d1 6a 4a 9b 95 c9 dd 3f
       0.009999990208943932 0.4654287354002636
000130 25 10 e7 2c 72 02 ca bf 40 0a 43 f7 df 7a 84 3f
       -0.2031996459246567 0.009999990208943932

running_mean_std.running_var f8 [40]
000000 97 41 96 49 32 e5 2a 3f 1e 60 64 29 58 e4 2a 3f
       0.00020519484386883883 0.00020516945068815932
000010 89 7d 41 a9 81 4e 5b 3e 1e 60 64 29 58 e4 2a 3f
       2.5431314457414853e-08 0.00020516945068815932
000020 89 7d 41 a9 81 4e 5b 3e 89 7d 41 a9 81 4e 5b 3e
       2.5431314457414853e-08 2.5431314457414853e-08
000030 4a 87 3f db 79 e5 b1 3f 3f d4 97 c9 9c 6e b6 3f
       0.06990777590502009 0.08762531205850708
000040 41 c0 f7 60 ca e9 89 3f e0 6c 2e c3 bf 4a af 3f
       0.012652951320859642 0.061117165160988085
000050 6e 7d 82 d1 f1 fb b3 3f 76 74 a8 44 2f f9 86 3f
       0.07806311955436282 0.011217469485069947
000060 c7 b0 49 b6 48 9b b9 3f 08 2c ed d9 11 2c 72 3f
       0.10002569628130963 0.004436559421104221
000070 5a d2 da 17 4a 0e 86 3f ac 90 b9 4f d6 8a c2 3e
       0.010769442418088793 2.2104182997741174e-06
000080 13 0b 08 8d bd 63 71 3f a2 06 a3 7c 69 52 84 3f
       0.004245510514467882 0.009922813526262179
000090 9a 33 75 3c 8a 4b c0 3e 75 29 b8 f6 70 85 71 3f
       1.9425246794769082e-06 0.0042776501318349995
0000a0 09 b3 73 fb 09 64 83 3f ac 19 16 f9 39 86 b7 3e
       0.009468152986721561 1.402158862214013e-06
0000b0 ae a5 12 3c f9 f0 76 3f 0e 05 46 36 c3 d2 7a 3f
       0.0056009040573967005 0.006548655077837097
0000c0 a6 41 0e ef 93 7f 43 3f e1 b7 f8 b4 fc 51 73 3f
       0.000595042451196949 0.004716860901266857
0000d0 7d 00 3f 77 7d 7f 76 3f a8 33 2e 5f f2 79 3e 3f
       0.0054926777847300575 0.0004650322654747249
0000e0 92 22 e5 40 ef 37 73 3f 6b 82 87 bf 94 8b 75 3f
       0.00469201525113107 0.00526006798506327
0000f0 3a 84 ca 03 fb 79 3d 3f 44 ae e5 27 d2 3b 5d 3e
       0.00044977548876984667 2.7225981907696447e-08
000100 f9 67 57 f4 f4 6f 5c 3e e4 8d 26 9e 34 4f 5b 3e
       2.6484328749045174e-08 2.5433857583945373e-08
000110 0b dd fe 62 74 6c 5b 3e f9 67 57 f4 f4 6f 5c 3e
       2.554026518028831e-08 2.6484328749045174e-08
000120 e4 8d 26 9e 34 4f 5b 3e 1f 44 4c ea fa 9d 60 3e
       2.5433857583945373e-08 3.0951779172773635e-08
000130 f9 67 57 f4 f4 6f 5c 3e e4 8d 26 9e 34 4f 5b 3e
       2.6484328749045174e-08 2.5433857583945373e-08

running_mean_std.count f8 []
000000 00 00 00 08 00 c0 82 41
       39321601.0

a2c_network.sigma f4 [6]
000000 67 9b c3 bf a5 db bf bf 35 f7 c1 bf d7 22 ac be
       -1.52818 -1.4988905 -1.5153567 -0.3362033
000010 a5 ee dd be 7a 43 d3 3e
       -0.43346134 0.41262418

a2c_network.actor_mlp.0.weight f4 [256, 40]
000000 46 a5 61 3e 08 d4 9b be eb 47 88 3d 8e 63 f6 bd
       0.22035703 -0.30435205 0.06654342 -0.12030707
000010 86 2f bb 3d 62 90 8d bd 5b c1 ab 3e 19 d6 6f 3f
       0.09139924 -0.069123045 0.33545956 0.9368606
000020 98 bd 76 3e cb 8e 8a be 21 63 54 bf 30 b1 2e be
       0.24095762 -0.27062067 -0.8296376 -0.17059779
000030 4f 24 6e 3b 3e f1 be bb 95 67 5c bd 8a c3 06 3e
       0.003633756 -0.005827098 -0.05380972 0.1316053
000040 ab 6e b0 bb 7a 12 fc bb 2f d6 44 bd 7d 4e ba 3c
       -0.0053842864 -0.0076926323 -0.048055824 0.022742504
000050 55 66 ba bc 6c 79 f9 3c a4 bb 1b bd f8 af 93 bd
       -0.022753874 0.030453406 -0.038020745 -0.07211298
000060 23 c6 19 bc 25 2f 55 3e ed 1e bf bc 2a 5f 20 3e
       -0.009385618 0.20818765 -0.023330176 0.15661302
000070 58 d9 8b bc ec f6 fc bd fa 65 86 3d 84 cc da 3e
       -0.017071411 -0.12351784 0.06562419 0.42734158
000080 bf aa a8 be 5a bd 11 be c4 cf 83 bf 3b f3 1a bf
       -0.3294277 -0.14232388 -1.029778 -0.6052739
000090 64 11 f2 bd da 34 06 3f b5 93 d9 be cc d3 f4 3d
       -0.11819723 0.52424395 -0.42495504 0.119544595
0000a0 a2 bb 58 3e c2 31 ce be 73 cf ab 3d 98 ba b7 be
       0.21165326 -0.40272337 0.08389177 -0.35884547
0000b0 4b 88 c4 3d 1f af 19 bd f4 eb 41 3d 3f e5 da be
       0.09596308 -0.037520524 0.047344163 -0.42753026
0000c0 b0 c1 9e 3e a2 f2 0f bf dd 4f b9 3e c2 5a 3b 3e
       0.31007147 -0.56229603 0.36193743 0.1829634
0000d0 01 57 18 3e 0d a2 a8 3e 84 21 1a bc ff bb 38 bf
       0.1487694 0.32936135 -0.009407405 -0.7216186
0000e0 cd b4 b5 3d cd f9 8d 3e 20 bd b9 be cf 78 eb 3c
       0.08872376 0.27729645 -0.36277103 0.02874413
0000f0 92 2e c1 bc df 92 8a bd 88 e8 f8 3d 9e 6e 2b bf
       -0.023581777 -0.06766295 0.12153727 -0.66965663
000100 a5 a3 f3 3b 76 37 26 bd 57 30 df be 6a 6b cd be
       0.0074352794 -0.040580235 -0.43591568 -0.40121013
000110 03 b4 74 3e 39 91 e9 bd 3d 27 c0 bd 8d f9 63 bf
       0.23896794 -0.11404652 -0.09382484 -0.8905266
000120 bd 2e be bd 6c e7 1b be 65 c5 a2 3f 5f e0 46 be
       -0.09286258 -0.15224999 1.271649 -0.19421528
000130 77 62 a3 3c f0 7f 9a bf 1d bf 56 be 0d a6 cb bd
       0.019944413 -1.2070293 -0.20971341 -0.09943781
000140 3a ef c2 3d 07 7b 00 be 68 83 33 bc bf f2 31 be
       0.09518285 -0.12546931 -0.010956623 -0.17377757
000150 3f 44 de bd 62 ea bc bd 6d b3 6a 3d ed 5b 9f be
       -0.10852861 -0.092243925 0.05730002 -0.3112482
000160 d6 7e a5 3e 0d 04 3e bd 9f 67 9b 3e a4 7b ab be
       0.3232333 -0.046390582 0.30352494 -0.33492768
000170 8c db 37 bc 57 56 a8 bc d8 ad a9 bb 4f fa 71 bd
       -0.011221778 -0.020548983 -0.0051781945 -0.059076604
000180 81 b2 ca 3b 61 b6 98 3c cd 84 63 3d f2 fb 45 3c
       0.00618583 0.018641653 0.05554657 0.012083994
000190 64 36 fa 3b 64 52 9b bd 98 8f 8c 3c 9a 30 57 bb
       0.0076358784 -0.07584074 0.017158315 -0.0032835365
0001a0 ab 5e cc 3c 32 24 31 3c a5 d6 90 3b b8 01 18 3d
       0.024947485 0.010811852 0.004420119 0.037111014
0001b0 f6 41 06 3c 5e 7a 85 bb 86 f4 60 bd ba e9 41 bf
       0.008194437 -0.004073425 -0.054920696 -0.75747263
0001c0 74 95 0b bf 2f 0c d9 bd ab eb ea 3e 33 db 24 bf
       -0.5452492 -0.10598027 0.45882925 -0.6439697
0001d0 14 64 c6 3d ef ce 2e bf 80 fd f3 be 81 be 95 bd
       0.09687057 -0.68284506 -0.47654343 -0.07311726
0001e0 ef 14 99 3e 93 4f 93 be 9b 9f a6 3c 1f 71 ec be
       0.29898784 -0.28771648 0.020339778 -0.46180055
0001f0 4b ef 87 3d 28 51 c2 bc 06 c3 a4 bd 0e 4a 3e 3f
       0.066374384 -0.023720339 -0.0804501 0.7433175
000200 4a 05 c6 3d 69 cb 17 3d ba bf 3a bf c7 b4 31 be
       0.096689776 0.03705922 -0.729488 -0.17354117
000210 29 b3 32 bc 3b ae 8e 3c f1 ba d3 bb 65 fb 1b bf
       -0.010906973 0.017417064 -0.006461494 -0.6093047
000220 9c bc 1d bb a4 01 c6 3c 9f e5 16 3f 5c be 8f bb
       -0.0024068719 0.024170704 0.58944124 -0.0043867063
000230 b8 aa 9e 3c a8 e2 80 3e 06 f6 1b 3d bd 97 4a 3d
       0.019368514 0.25172925 0.038076423 0.049461115
000240 5e be 4c bd 2e 24 1c 3c 0e 21 86 bc 56 8c 93 3c
       -0.049986236 0.00953011 -0.016373184 0.018011253
000250 1f 89 e1 bd 2d 7c 4f 3d 16 87 44 bd 2d 18 f4 3e
       -0.11012482 0.050655533 -0.04798039 0.47674695
000260 8a 0e 8a 3d 20 22 09 3e 15 54 49 bf f3 6d 8d bd
       0.06741054 0.13391924 -0.78643924 -0.06905737
000270 5b f3 b3 39 aa 25 15 3f 0d b5 8e 3b ca 71 2d 3d
       0.00034322854 0.58260596 0.004355079 0.042344846
000280 c5 11 ab 3d 46 36 91 be 18 59 08 3e 44 9a 27 be
       0.08352999 -0.2836172 0.13315237 -0.16367441
000290 d9 d8 00 bc 35 3b c3 bd 9b cd 9d be f0 ee e4 be
       -0.0078642005 -0.09532777 -0.30820927 -0.44713545
0002a0 d7 20 2a be cb 20 ce 3e 48 6d c3 3e 40 34 33 3e
       -0.1661409 0.40259394 0.38169312 0.175004
0002b0 20 ec 67 3c 0b 32 f0 bc f1 ef 99 3d 49 80 4d 3e
       0.014155418 -0.029320737 0.07516468 0.20068468
0002c0 d7 20 06 bd 9a 8c 26 bd b7 fd 33 bf b5 0b c5 bc
       -0.032746162 -0.04066143 -0.70309013 -0.024053434
0002d0 b3 2d ed 3b 4a b8 64 bc c0 b7 c9 bd da 32 bf 3b
       0.007238114 -0.013959954 -0.09849501 0.0058349194
0002e0 bb a2 1d 3c 3d d6 4b 3d cb ee c5 bd 92 38 07 3f
       0.0096213175 0.04976486 -0.09664687 0.52820694
0002f0 65 37 65 3a bb 48 b7 bd eb 30 94 be 83 3c c5 bf
       0.0008743911 -0.08949419 -0.2894357 -1.5409092
000300 90 8d cc 3f cf c6 07 3e e6 23 23 3f 68 f5 c7 3f
       1.5980701 0.13259433 0.6372665 1.5621767
000310 60 8e 03 bb 14 3c f2 bf 24 7f b1 3f 46 e9 17 be
       -0.0020073876 -1.8924584 1.3866925 -0.1483508
000320 3e 79 b8 be d7 f1 d5 3e 8e 56 02 bd de 19 cf 3e
       -0.3603 0.41786072 -0.031820826 0.40449423
000330 4d 07 ec bc f3 e9 e3 bd 7f 19 f5 be 04 5d b5 3e
       -0.028812075 -0.11128607 -0.47871014 0.35422528
000340 33 66 41 3e 3d 49 d9 3e f1 ba 99 be 83 45 7f be
       0.18886642 0.4243869 -0.30025437 -0.2492886
000350 8b aa 1a bc 43 18 82 3c d3 18 3c bc bc 49 24 bf
       -0.009440075 0.01588071 -0.011480528 -0.6417501
000360 c6 ff 4e bc d3 1a 89 3c fc d1 21 bf f2 58 91 3c
       -0.012634223 0.016736424 -0.63211036 0.017742608
000370 fa 5f ed 3b 7e ef 8b 3e 00 68 bc 3c 50 b6 c6 3c
       0.0072441073 0.27331156 0.02299881 0.024256855
000380 c1 c8 f2 bb 98 f8 cd bb 3f 54 09 be 12 03 b6 bc
       -0.0074091856 -0.006285738 -0.13411044 -0.02221826
000390 65 d4 97 bc 44 57 db bb 16 b9 a7 3c 2c 28 37 3c
       -0.018533895 -0.0066937525 0.020473998 0.011179011
0003a0 ec bd 73 3e 12 d1 07 3e 53 5a 2e bf 62 13 d2 3d
       0.23802918 0.13263348 -0.68106574 0.10257603
0003b0 27 b7 ec bd 65 98 8e 3e 08 ac 68 3e 03 7a 12 be
       -0.11558371 0.27850643 0.22721875 -0.14304356
0003c0 71 25 9f 3d 9d 32 44 be 00 94 62 bc 7d d5 32 be
       0.07770813 -0.19159932 -0.013829231 -0.17464252
0003d0 b1 5d 84 bd e9 98 4d bd 24 26 82 be 84 90 a3 3e
       -0.06463183 -0.050194655 -0.25419724 0.31946194
0003e0 3d dc c1 3e 6a c0 87 3e e2 68 9d be 8d 02 c9 be
       0.3786334 0.26513988 -0.30744082 -0.3925976
0003f0 d8 aa aa bc 73 6c c5 bb 2c 79 3b 3b 6d 5f 0a bc
       -0.020833418 -0.006024891 0.002860616 -0.008445603

a2c_network.actor_mlp.0.bias f4 [256]
000000 30 31 2b bd 07 70 b8 3d 33 c5 b3 bb 92 19 aa 3c
       -0.041794956 0.090057425 -0.0054861545 0.020764146
000010 b6 a3 88 bd d9 c3 8f bc da 14 93 bb f6 b8 54 bd
       -0.066718504 -0.017549442 -0.0044885697 -0.051934205
000020 50 71 a4 be e2 95 4b 3e f5 cd 20 3e 1a 0f 08 bf
       -0.321177 0.19881395 0.15703566 -0.53148043
000030 bf 9b e8 bc 40 2e ad bd 9d a4 45 bd ae b3 60 3e
       -0.028394578 -0.08456087 -0.04825269 0.21943542
000040 b3 c2 97 3e 4a d7 90 3b 3e 2e 1c bf 76 53 72 3c
       0.2964073 0.0044201957 -0.6100806 0.014790406
000050 fc 79 99 bc b2 41 de be 6b 72 fa be 0a dd c4 bb
       -0.018734924 -0.43409497 -0.4891542 -0.006007795
000060 7f 19 c4 bc a7 20 6a be f1 60 4a bc 3a 4b b9 be
       -0.023937939 -0.22864018 -0.012352214 -0.36190206
000070 e7 1b 8c 3e 74 25 52 be 95 1f 07 bc 6f fc 02 bf
       0.27365038 -0.205221 -0.008247276 -0.51166433
000080 c3 fd 48 3b 90 f4 85 be 3f e3 36 be 3a f2 e8 3a
       0.0030668832 -0.2616315 -0.17860125 0.0017772384
000090 15 cb d3 be c9 3b 56 bf d7 ea 3c bf d6 87 5e be
       -0.41365877 -0.83684975 -0.7379584 -0.21731505
0000a0 e2 8b 82 3e 8c 79 25 bd 2a 27 0e 3c 36 9f a4 bc
       0.25497347 -0.04039912 0.00867633 -0.020095449
0000b0 d1 02 9e bb 6a bc 13 bd 09 41 ed 3b 42 98 87 3d
       -0.004822113 -0.036068358 0.007240419 0.06620838
0000c0 a1 36 18 bd ee 39 34 bd b5 d3 6f bf 34 5c 02 3c
       -0.037161473 -0.04400056 -0.93682414 0.007956553
0000d0 54 ca 44 be 61 00 f0 bb 43 be c2 ba 3d bd 29 3d
       -0.19217807 -0.007324264 -0.0014857728 0.041440237
0000e0 e0 2a f6 be d3 71 1a 3e 74 c4 f0 bd 49 59 b3 3c
       -0.48079586 0.15082483 -0.117562205 0.02189316
0000f0 4a 27 24 bd 1e 79 e1 bb 2d f5 76 bd e5 4f 68 bf
       -0.04007653 -0.0068808934 -0.06029241 -0.9074691
000100 6e 2b 5b bf b1 dd 5e 3e 1e 0b 4e bd 9f 2e 20 bc
       -0.85613143 0.21764256 -0.05030357 -0.00977674
000110 c3 3c 1d 3c c9 be cb bb 8b 19 eb be d2 c0 c0 bc
       0.009597006 -0.0062178117 -0.45917925 -0.023529444
000120 97 82 92 be d0 60 18 3e 66 73 0b be be bf de 3b
       -0.28615257 0.14880681 -0.1361824 0.00679776
000130 db 53 26 bf ba cd cb 3c cd fe 09 bf 7e b0 08 bf
       -0.64971703 0.024878372 -0.5390442 -0.53394306
000140 eb 7f 6a 3b 93 ef c2 3b 48 cd 0e be e5 0a 5d bd
       0.0035781811 0.0059489696 -0.13945496 -0.053965468
000150 81 92 1c bd 5d 78 fd bd 57 50 ed 3a 60 59 64 bc
       -0.038225655 -0.12376473 0.0018105608 -0.013937324
000160 8a 5d 49 bd 71 c8 65 be cb 34 02 bc 91 e4 b4 bd
       -0.04916147 -0.22439744 -0.007947157 -0.08832658
000170 fc 42 13 bf 34 d9 49 be 20 27 0f be 88 54 97 be
       -0.57524085 -0.19711763 -0.13979769 -0.2955668
000180 be 96 de 3c 38 15 c9 3b aa 08 e4 bc ec 56 88 bd
       0.027171489 0.0061365627 -0.027836163 -0.06657204
000190 1d bd a2 be 98 cc f7 3d 88 d1 94 bb 8d 70 5d 3e
       -0.31784907 0.1209957 -0.0045415796 0.21624966
0001a0 f3 e7 52 3c c9 a2 2a bc 11 17 47 bc a8 b9 b2 bd
       0.012872684 -0.010414788 -0.012151496 -0.08726817
0001b0 5a 38 f4 3c bf 5f f9 be e0 bb fa 3d ca 75 e8 ba
       0.029812027 -0.4870586 0.122428656 -0.0017735299
0001c0 17 90 8b bb b9 5d 64 bb 5e 2b 94 bd 66 c4 d9 bc
       -0.00425912 -0.0034845902 -0.07234834 -0.026582908
0001d0 f5 00 97 bd b0 7f 39 3c ce 26 a6 3d 7e bd ae be
       -0.073732294 0.011321947 0.0811287 -0.34128946
0001e0 ac 99 b8 be aa a5 0d bc 48 26 99 be 85 47 36 bc
       -0.36054742 -0.008645454 -0.2991202 -0.01112545
0001f0 98 09 a2 3d 35 4b 08 be 1a 54 ef bd 4c c6 c4 3a
       0.07911986 -0.13309939 -0.11685963 0.001501271
000200 1c d1 30 be ac 3c 84 bc b6 29 23 be 3e 24 cd 3b
       -0.17267269 -0.016142212 -0.1593388 0.006260424
000210 03 c5 3c 3d 68 9a 73 3b d6 c9 e0 3b 93 35 da bc
       0.046086323 0.003717089 0.006859998 -0.026636874
000220 80 69 4d 3c a0 03 5b bc ac 4d 28 3e 22 a3 11 be
       0.01253736 -0.0133675635 0.1643588 -0.14222386
000230 e9 6e ed bc c6 12 61 ba 7c a4 cb be c4 4c aa bc
       -0.02898355 -0.00085858663 -0.3977393 -0.020788558
000240 6e 68 b7 bd b8 fc a9 bb e0 24 2d bc 93 b6 14 be
       -0.08955465 -0.005187597 -0.010567874 -0.14522772
000250 be 53 3d bd 4f 27 d2 3d 8a 0b 81 3b 30 a3 58 bc
       -0.04622244 0.10261404 0.003938143 -0.013222501
000260 93 fb c2 bb b5 06 1e be 16 7b a4 3e a9 e3 2c be
       -0.0059504 -0.15432246 0.32125157 -0.1688372
000270 2d 3c ea bb 91 55 7b 3d 74 a0 4b bb 14 94 ab bc
       -0.007148287 0.0613609 -0.003107098 -0.020944633
000280 53 97 b1 3c 7d a5 84 be 6b d1 66 bb 5c f0 46 be
       0.021678602 -0.25907508 -0.0035220038 -0.19427627
000290 cf 5e d3 bc de a8 cc 3d 21 b4 5c 3d ca 73 13 bf
       -0.025802044 0.09993146 0.05388272 -0.57598555
0002a0 b6 b9 2c 3b 91 d6 a6 bc a6 15 27 be 3a 12 81 be
       0.002635581 -0.020365985 -0.16316852 -0.25209218
0002b0 64 1f f9 3a 40 23 94 bc 12 ac 9d bc 39 f7 af 3a
       0.0019006548 -0.018083215 -0.019247089 0.0013425119
0002c0 96 4f 49 be 2b 90 95 be 72 a9 5f bc 08 d0 0f bf
       -0.19659266 -0.29211554 -0.013651239 -0.56176805
0002d0 c7 7f 58 bc 66 37 06 bc c1 af 50 bf 2a a4 66 3b
       -0.013214058 -0.008191919 -0.8151818 0.0035193064
0002e0 82 d0 d3 bd 1d f6 03 be d4 cc a5 bc 9e ae 49 bc
       -0.10342504 -0.12886854 -0.020239271 -0.012309698
0002f0 c1 51 98 be c2 da 7b 3e 55 f1 2a bf 98 03 f6 3d
       -0.29749873 0.24595168 -0.66774493 0.12012404
000300 d2 59 b6 bc 2a da d4 bd ff 1c 02 bf 4e d5 17 bc
       -0.022259627 -0.10393174 -0.50825495 -0.009267164
000310 39 4a dc 3d d2 00 65 bc 22 c3 b4 3b 58 96 b3 bb
       0.10756344 -0.013977246 0.0055164257 -0.005480569
000320 65 1b c9 3d ef a0 1a bc 07 a1 9e bc 1a 6f a7 ba
       0.09819678 -0.009437784 -0.019363893 -0.00127742
000330 b4 c1 9d bc 1a bf 53 3d 19 7f 27 be b9 66 c9 bb
       -0.019257404 0.05169592 -0.16357078 -0.0061462787
000340 92 39 16 be 70 62 df 3e 87 77 16 bf 40 01 d6 bc
       -0.14670399 0.4362979 -0.58776134 -0.026123643
000350 c3 bb 2b 3d 0b 16 91 be 87 00 87 bc 81 73 19 3d
       0.04192711 -0.2833713 -0.016479744 0.03746367
000360 9b b6 5e bc 2d ef 11 3d 0d 26 08 bf 25 3c e8 3c
       -0.013593341 0.035628486 -0.5318306 0.028348992
000370 39 25 14 3c fc 76 7e 3b b1 50 5f be 0f d5 62 bb
       0.009042078 0.0038828244 -0.21808125 -0.0034611856
000380 ec 4e 4a bc a6 2b 04 bf 3c 50 f8 be 22 ef 38 be
       -0.012347918 -0.516291 -0.48498714 -0.18059972
000390 a4 32 f9 bb 24 ac e1 be a6 9f 5f bf b2 3a 88 3a
       -0.007604914 -0.44076645 -0.8735298 0.0010393469
0003a0 a7 23 d6 bb 48 16 94 be 98 5c 22 bd 5d 45 bf bc
       -0.006535012 -0.2892325 -0.039639086 -0.023348505
0003b0 d8 30 a3 bc ce d2 5e be 91 bb c7 bc 16 77 57 be
       -0.019920751 -0.21760103 -0.02438143 -0.21041521
0003c0 cd 98 13 3e fc 55 a3 bd 0f f8 22 bd 84 c5 d5 3c
       0.14413758 -0.079753846 -0.03978735 0.02609516
0003d0 b9 d8 04 bd 97 bc ae be 8c 44 4d be 6e dc d5 3a
       -0.032433245 -0.34128258 -0.2004568 0.0016316304
0003e0 6b e3 41 bf 69 4f 05 be c5 0f 8e 3e d7 6a 03 bc
       -0.7573764 -0.13018574 0.27746406 -0.008021078
0003f0 f6 ba da 3c 8c 33 0f 3b ac 09 37 3e 70 8a 4f 3e
       0.026700478 0.0021850793 0.17874783 0.20267653

a2c_network.actor_mlp.2.weight f4 [256, 256]
000000 59 b8 b7 3b 81 ec 2f be 7e da 2e bd fa 95 79 bc
       0.0056066928 -0.17180063 -0.04268884 -0.015233511
000010 5c 0b b3 be ed 18 76 3e 68 6d 9c 3c 8d 8f 70 3e
       -0.34969604 0.24032946 0.019095138 0.2349226
000020 98 52 9f 3d 98 00 44 be e5 34 db 3c 54 9b a8 bd
       0.077794254 -0.19140851 0.02675862 -0.082327515
000030 82 a9 c6 bd a5 97 64 bd 1b 26 b2 bd 9e fc 31 be
       -0.097003 -0.055808682 -0.08698674 -0.17381522
000040 98 bb 85 bc 22 4d aa be 92 cc 0f be ce b8 84 bb
       -0.016324803 -0.33261973 -0.14042881 -0.0040503507
000050 19 cc 9e bc 70 6a 3b be 36 6e b3 3d a3 b7 a4 3c
       -0.01938443 -0.18302321 0.087612554 0.020107096
000060 9b 22 48 bd 3d 7b 05 be e2 42 58 be 59 3c 6b bd
       -0.048861127 -0.13035293 -0.21119264 -0.0574306
000070 43 62 92 bd a0 2d 88 bc 3e 4f 22 bd 62 b9 57 be
       -0.07147648 -0.016623318 -0.039626352 -0.21066812
000080 bd b0 01 bd e8 8d 80 3e f1 c2 0a 3e 80 9e f7 bd
       -0.03166269 0.25108266 0.13550927 -0.12090778
000090 f7 20 1c 3e 2c ea 31 3d 18 2d 1d 3e c9 4c ac bd
       0.1524695 0.043436214 0.15349233 -0.08413083
0000a0 f8 11 2a bf 21 7e 37 3e 9c 09 c6 bd 01 c1 5d be
       -0.6643367 0.17919208 -0.096698016 -0.21655656
0000b0 a2 fb 30 3e 37 c9 82 3d 4e f8 13 be b7 d8 f7 bd
       0.1728349 0.06386035 -0.1445019 -0.12101882
0000c0 20 30 10 3e 2d 8f 7f 3d 08 4e d1 3d fa b3 34 be
       0.14080858 0.062392402 0.102199614 -0.1764678
0000d0 3b 7f 4f be 56 f8 54 3d 5e 57 56 bd b1 9d a6 be
       -0.20263378 0.051994644 -0.052329414 -0.32542184
0000e0 1c e8 bc bd 08 2b 3d be 89 a8 5d be 58 8a 16 be
       -0.09223959 -0.18473446 -0.21646322 -0.14701211
0000f0 03 f9 c8 bd f3 bf 5e bd 70 44 91 3e fa fd 99 bd
       -0.0981312 -0.054382276 0.28372526 -0.07519145
000100 a3 c8 86 bd 5a 08 5b be 15 1d e9 bd d9 04 2c be
       -0.06581237 -0.21389905 -0.113825 -0.16798724
000110 9f 38 ce bd 08 8d 09 be 6e 3d 0e bd a7 70 ec bd
       -0.10069393 -0.13432705 -0.034726553 -0.11544924
000120 5a 60 e2 3d 5f 38 4a be e2 86 d1 bd a6 22 96 bd
       0.11053534 -0.19748066 -0.10230805 -0.073308274
000130 73 35 9c be 35 5a 0a 3c a8 cc f1 bc b4 de 9c 3e
       -0.3050953 0.008444359 -0.029516533 0.3063866
000140 78 5a 9e bd 6b 15 79 3d a6 9c b4 3d 0d 8e bf 3d
       -0.07732099 0.06081144 0.08818941 0.09353266
000150 bd e4 3a 3e 37 6a 1e be 1f d6 b0 bd fa 0b d8 bd
       0.18251319 -0.15470205 -0.0863459 -0.10549159
000160 08 bc 0c be da 19 16 bd cb 95 45 be 77 00 19 be
       -0.13743603 -0.036645748 -0.19295423 -0.14941584
000170 1e 95 6c bc 99 d0 14 3e 55 64 bb 3e 6a 69 70 3d
       -0.014439849 0.14532699 0.36599985 0.05869428
000180 dd fd ba 3d 52 62 e7 bb 8e 05 e1 3b a3 40 69 3a
       0.09130452 -0.0070612812 0.0068671172 0.0008897876
000190 fb ae 83 bd c5 b2 f9 3d b7 c3 28 bc a9 18 b9 3d
       -0.06429859 0.12192301 -0.010300568 0.09037907
0001a0 de fc a8 be 3e 85 3c bd 26 47 8b 3c bd fe 2d be
       -0.33005422 -0.046025507 0.0170017 -0.16991706
0001b0 4f 84 ac 3d 28 51 f7 3d 54 e3 a1 3e 2c b5 31 be
       0.08423673 0.12076026 0.3161875 -0.17354268
0001c0 e6 47 4a 3d db 71 c8 bd a0 29 ed be 3a c9 57 3e
       0.049384974 -0.09787341 -0.4632082 0.21072856
0001d0 f9 b8 f4 bc e3 56 78 bd f3 df d9 bd d6 ff 93 bd
       -0.029873358 -0.060629737 -0.10638418 -0.07226531
0001e0 73 b1 1e bd 45 f5 fc bb ee a1 db bd 39 ba fb bc
       -0.038743448 -0.007719668 -0.10724245 -0.030728446
0001f0 b9 1c 82 bd b9 00 af bb f9 c3 c1 bd 58 6e 39 3e
       -0.06353135 -0.0053406623 -0.09461207 0.18108499
000200 27 f3 39 3d ff 59 8d 3d 31 e3 11 be 53 7d 7b 3d
       0.045397904 0.06901931 -0.14246823 0.061398815
000210 a6 65 bf ba a8 1f a2 3d ed b3 7b 3e 27 a2 81 be
       -0.0014602437 0.07916194 0.24580355 -0.25319025
000220 60 d4 e5 3d 41 f5 ec bc d8 66 be 3d 6c 4e 35 3e
       0.11222148 -0.02892554 0.0929696 0.17705697
000230 63 0a 3d 3d b0 60 3d bd 56 5f 9e be 79 a9 c7 3c
       0.046152484 -0.046234787 -0.3093211 0.024372803
000240 21 7b df 39 1d 43 e3 bd 64 53 13 3e fa bc ab be
       0.00042625613 -0.11096785 0.1438728 -0.33542615
000250 2c a2 96 bd 29 06 a8 3b de d5 80 3d 69 64 a6 bd
       -0.073551506 0.0051276875 0.06290792 -0.081246205
000260 13 48 01 3d 7c 60 8e bb b4 d4 52 be 87 23 02 bd
       0.031562876 -0.004344998 -0.20588952 -0.031772163
000270 af cd 9c be b2 5a 97 bc b6 9c aa bd ed 18 19 3d
       -0.30625674 -0.018475864 -0.083306715 0.037377287
000280 1c 24 6b be 7d 92 81 3d 02 0f 54 3c e8 bf 29 be
       -0.22962993 0.063267685 0.012943031 -0.16577113
000290 aa 3b 40 bd b2 e5 4b be 4f 11 dc 3d 87 30 65 bd
       -0.0469319 -0.1991184 0.10745489 -0.055954482
0002a0 bf 3a 61 bc a5 c3 94 bc 58 07 0f 3d df 0c a2 be
       -0.013746916 -0.018159697 0.034919113 -0.31650445
0002b0 5e 98 36 3e 7d dc ce bd 28 27 80 3c 5d 93 1a be
       0.17831561 -0.101006486 0.015643671 -0.15095277
0002c0 22 f6 a9 bd 2d c6 3a be 6f c6 0d 3e e4 77 05 be
       -0.08298899 -0.1823966 0.13845228 -0.13034016
0002d0 74 24 df bc d6 79 8c 3d 20 df 64 3b ff 46 6e 3c
       -0.027239062 0.06859176 0.0034923032 0.014543294
0002e0 b9 84 57 3e a9 da 2d be 78 ac 6a 3e 3c db e8 bb
       0.21046723 -0.16977943 0.22917354 -0.007106213
0002f0 f3 18 e4 bd e4 07 6c be 16 6e 99 3e 82 7a a4 3e
       -0.11137571 -0.23049885 0.299668 0.32124716
000300 a2 cd f1 bc 95 6f 9d bd f4 b4 03 3d f0 9a d0 bd
       -0.029516999 -0.07687298 0.032154992 -0.10185802
000310 6b 7c 8a be 43 0d e4 3d 2e 1d a2 bd 35 c4 28 3e
       -0.27048048 0.11135342 -0.07915722 0.16481097
000320 f1 a0 06 3e 99 6c fd bd a4 79 35 be 61 e8 15 bb
       0.13147332 -0.12374229 -0.17722183 -0.0022874104
000330 9a c3 a8 be df 6c 84 3d 75 69 49 3d eb b2 cb bb
       -0.32961732 0.06466078 0.049172837 -0.006216397
000340 28 d4 4c bc 6c bf c9 3d b0 c4 24 be c3 c2 83 3d
       -0.012501754 0.09850964 -0.16090655 0.06433632
000350 72 90 aa bd fe 56 5c bd c4 f4 ab bd eb fc 90 be
       -0.08328332 -0.0537939 -0.08396295 -0.2831796
000360 83 f6 98 be 85 bb 83 3d c2 81 5f 3d 7a fb c0 3c
       -0.29875574 0.06432251 0.054567106 0.023557413
000370 8a 6a 0a bd 6c 4e b4 3c 52 96 3c be 06 75 91 bd
       -0.03379301 0.02201005 -0.18416718 -0.071023986
000380 59 1e 53 bd ce 97 9b bd 61 bb d3 bd 2e ec 65 bc
       -0.051542614 -0.07597314 -0.10338474 -0.01403336
000390 8d 28 7a bb 6d ab 17 be 82 74 b9 3c 70 95 8c bd
       -0.0038171143 -0.14811487 0.022638563 -0.068644404
0003a0 5b eb 15 3e cb 5f 16 bd ed 67 8a 3b 0d ea 1e 3c
       0.14640562 -0.03671245 0.0042238147 0.009699357
0003b0 8f 5a 9f 3d 7e 3c 03 be 1e bc 7a bc c2 c7 32 bd
       0.077809446 -0.12816045 -0.01530364 -0.043647535
0003c0 c1 9e af be b2 33 05 3e f0 85 ad bc 7b 56 4a 3d
       -0.34300807 0.13008001 -0.02118203 0.04939888
0003d0 65 7f c6 bc 3c 05 77 3d 15 58 60 3d 05 68 c9 bc
       -0.024230668 0.060307726 0.0547715 -0.024585733
0003e0 59 d0 34 bb 40 f1 b5 3e c1 53 0a 3c a2 23 e7 bd
       -0.0027590005 0.35535622 0.00844282 -0.11286093
0003f0 07 37 84 3e 68 1b 92 bc 7b be a3 bd 18 a6 95 be
       0.25823233 -0.017835334 -0.07995316 -0.29228282

a2c_network.actor_mlp.2.bias f4 [256]
000000 65 26 3f be 5d b8 79 bc a7 27 ed b9 4c 23 0f 3d
       -0.1866699 -0.01524171 -0.00045233706 0.03494577
000010 61 ae f0 bc 51 72 14 ba 13 0a d3 bc c0 11 c7 3c
       -0.029380025 -0.00056627864 -0.02576164 0.024300456
000020 44 e7 24 bc 1a d9 83 3d 26 e3 97 3d eb 5a a6 bd
       -0.010064904 0.06437893 0.07416372 -0.0812281
000030 79 42 98 bc 83 77 ea 3c 61 1c cf bc 73 45 2e bc
       -0.018586384 0.02862144 -0.025282087 -0.010636675
000040 b2 85 c8 3c d6 53 0d bc 27 fb 0b 3c 96 4c 41 bc
       0.024477813 -0.008625945 0.008543766 -0.011798045
000050 2d 54 67 bc 03 d0 ad bc c2 ea bc bc ea b1 3a 3b
       -0.01411919 -0.021217352 -0.02306116 0.0028487393
000060 2e 22 20 bd 05 5b 90 bd 6c 5e 0c bc 3e fa 8a bc
       -0.039095096 -0.070486106 -0.008567434 -0.016965028
000070 25 5c 9a bb 68 ea 31 3c 27 ff d5 3d 40 48 4e be
       -0.0047106915 0.010859109 0.10449057 -0.20144749
000080 6b 12 1b 3d 9b c8 0a bd c6 df ae bc 1f 66 fd bc
       0.03785936 -0.03388272 -0.021346938 -0.030932484
000090 6a cd d4 3b 79 06 c3 3c 39 b0 9e bc 49 0c 47 3c
       0.006494214 0.023806797 -0.019371139 0.012148925
0000a0 47 06 89 bd 92 0c 42 3c f1 66 e5 3c f3 7d 62 bc
       -0.066906504 0.011843817 0.028003188 -0.013823974
0000b0 10 19 1c bc d1 91 8a 3c 1c 92 12 bf e1 02 30 bd
       -0.00952746 0.016915234 -0.57254195 -0.042971496
0000c0 a4 74 90 3b 47 33 e4 bc a1 2d 4b bd de ad dd 3c
       0.004408436 -0.027856482 -0.049604062 0.027060445
0000d0 8c 25 ee bc 9c 0b 69 bd ee 16 3d 3c 40 e8 04 3d
       -0.029070638 -0.056895837 0.011541111 0.032448053
0000e0 55 54 9c bc f3 45 22 bd 17 a9 7d bc 8d 71 7b bc
       -0.019083181 -0.03961749 -0.015482209 -0.015346897
0000f0 f3 b2 05 bc 34 d3 32 3d 7a 2d d2 3c 23 04 f8 3a
       -0.008160341 0.04365845 0.02565645 0.0018922131
000100 f3 92 be bc 58 00 0d 3b b4 48 8d bd f1 94 a6 3b
       -0.02326343 0.0021515097 -0.06898633 0.005083673
000110 27 a1 9f bc bb 60 74 be 63 6b 4d be c4 a3 0b bb
       -0.019486023 -0.23865025 -0.20060496 -0.0021307329
000120 1e 03 21 bd 14 2b 4a 3d 0f 14 db bd 17 c7 24 bc
       -0.039309613 0.04935749 -0.10697185 -0.010057232
000130 4d 49 55 3c 60 6f 31 bd af dd f1 bc 7e b2 60 bd
       0.013017965 -0.043319106 -0.029524652 -0.054857723
000140 86 a6 aa 3c f4 98 c9 bc 91 31 9b be 87 7c 3c bd
       0.020831358 -0.024609067 -0.30311254 -0.046017196
000150 0e be 8f 3c 5c b3 c3 bc ff cd 04 bc a5 a2 55 bd
       0.01754668 -0.023889236 -0.008105754 -0.052157063
000160 80 c5 03 be 9b 70 15 bb 67 83 1f be 79 3f af 3c
       -0.12868309 -0.0022802714 -0.1557747 0.02139257
000170 fc e5 70 bc d9 69 fa b9 e9 61 c4 bc 7f 1f f7 3c
       -0.01470327 -0.00047762578 -0.023972468 0.030166386
000180 a4 5b 45 bc 9b 35 75 bd 94 ba 48 3d 73 df 28 bc
       -0.012045775 -0.059865575 0.04900606 -0.010307181
000190 5f 6c 26 3d 57 65 b4 bc 9c 6a 8f bc 19 f2 99 3c
       0.040630694 -0.022020979 -0.01750689 0.018792199
0001a0 0f 18 42 be 94 5f 1e bc b3 79 cb bc 5e 7d ce 3c
       -0.1895449 -0.009666342 -0.024838304 0.025206264
0001b0 c2 31 0d 3d 5e 2f a5 3c 00 84 81 bd de 7f a3 bd
       0.03447128 0.020164188 -0.06324005 -0.07983373
0001c0 36 8b 24 3d 88 73 3d bd f8 b3 34 be a7 6d d2 bc
       0.040171824 -0.046252757 -0.17646778 -0.025687052
0001d0 8a 76 02 bb 0a b5 3e bd 3d 52 65 bd fe 25 03 bc
       -0.001990708 -0.04655937 -0.05598663 -0.0080046635
0001e0 cf 5c 05 3b 1e b9 db 39 ad 06 33 bc 72 b4 e1 bb
       0.0020349508 0.00041908858 -0.010926885 -0.006887966
0001f0 93 ea 96 3b 5e b4 81 be bc ff 40 3c fa c2 1b bd
       0.0046056 -0.25332922 0.011779722 -0.03802774
000200 42 90 84 3d 15 d4 36 be 64 59 f2 3c 5a 07 54 bc
       0.064728275 -0.1785434 0.02958364 -0.012941206
000210 f3 36 a7 3c e1 b2 c4 3c 77 fe 76 bd 4c 8c 48 bd
       0.020411944 0.024011077 -0.06030127 -0.048961923
000220 49 18 36 bc f4 35 27 bd da 96 8b bd 13 f1 b3 3c
       -0.0111141885 -0.040822938 -0.06815882 0.02196554
000230 d6 6d 60 3c 33 68 37 bc 63 d2 38 be 6e 80 2f bd
       0.013698062 -0.011194277 -0.18049006 -0.04284709
000240 5b 7f 5a bc 0a c2 07 bc 69 9d 55 bd b9 46 43 bd
       -0.013336028 -0.008286009 -0.05215207 -0.04767487
000250 27 c7 ed bc 17 9e b9 3c cb c5 bc 3d c3 b2 ca bc
       -0.029025627 0.02265839 0.092174135 -0.024743443
000260 fc b7 48 3c 32 9a f0 be 8d f8 0e 3c 8b 54 b4 bb
       0.012250897 -0.46992642 0.008726251 -0.0055032424
000270 b1 72 59 bc a8 1a 2c be e4 89 8d be 58 4f 89 be
       -0.0132719735 -0.16807044 -0.27644265 -0.26818347
000280 4b fd f1 bc ae 6a 27 bf 23 03 cd bc a6 c9 0c bd
       -0.029539725 -0.65397155 -0.02502591 -0.034371994
000290 fa f1 b9 3c 6c b5 a9 3c 2a 25 7e bc 61 28 b3 3c
       0.022698391 0.020716392 -0.01551179 0.02186984
0002a0 3f 2c 33 3c cd 80 0f 3b b0 a4 6a 3c 02 7e 58 bb
       0.010935842 0.002189684 0.014321491 -0.003303409
0002b0 c3 19 52 3c 04 5f e1 bc 01 11 12 bc 6e 99 8e 3d
       0.012823525 -0.027511127 -0.008915187 0.06962858
0002c0 7e da ba 3b c7 bd 35 bf c8 3c e9 3c 17 8c 2b bd
       0.005702316 -0.709927 0.028471366 -0.041881647
0002d0 8e a0 bb bd b6 1c 55 3d 22 01 50 bd 2f b0 8a bc
       -0.09161483 0.052029334 -0.05078233 -0.016929714
0002e0 a3 c2 71 3c e7 d6 40 3c 67 65 1b be b2 f8 35 3a
       0.014755878 0.011769987 -0.151754 0.00069416605
0002f0 19 15 80 3b 5f ef 85 be ac 9f 94 3c 1e 83 a3 bc
       0.003908765 -0.26159188 0.018142544 -0.019959982
000300 a3 4b 58 3c 1f bc 72 bd 30 58 92 ba b3 2f b1 3c
       0.013201627 -0.059261438 -0.0011165198 0.02162919
000310 e0 1b 8f be 20 8f 38 be 46 a8 08 bc 69 cf 54 bb
       -0.27950954 -0.18023348 -0.008340901 -0.003247226
000320 2f 39 e8 bc c7 8a 08 3c 8e e6 c4 3d 4e 69 b1 bc
       -0.02834758 0.008333868 0.09614287 -0.021656659
000330 9f 71 a2 ba b3 e7 07 bf 18 13 02 be 1f 99 05 be
       -0.0012393481 -0.5308792 -0.12702596 -0.13046692
000340 26 83 d6 bc b2 49 1e bc c3 a1 47 3c a2 3b 01 3d
       -0.026185583 -0.009661125 0.012184563 0.03155101
000350 8b 6b 50 bd ca 8a 17 bd 91 d4 27 3c 39 cf 74 bc
       -0.05088381 -0.036997594 0.010243551 -0.014941984
000360 23 79 55 bc c7 fa 70 bd 71 ab ed 3c 95 d0 b2 3c
       -0.0130293695 -0.05883291 0.029012414 0.021827975
000370 a0 f5 d9 3c 3e 6f 6f bd a7 32 94 3c 4e f2 46 bd
       0.026606381 -0.0584557 0.01809056 -0.048570924
000380 f9 38 8e be 2e 21 5e ba d8 7c 84 3c b0 ce 67 bc
       -0.27777842 -0.0008473572 0.016172811 -0.014148399
000390 c6 ff 88 bd 9c d2 ca 39 20 27 e3 3c c7 1f ca bc
       -0.0668941 0.0003868536 0.027728617 -0.024673356
0003a0 84 c5 ab 3d eb e3 7f 3e f4 b0 de bb ef b2 8f 3b
       0.083872825 0.24989288 -0.006795997 0.004385344
0003b0 c5 a0 a7 bc 9b 7f d0 3b 75 ca 26 3c 88 ee 65 3d
       -0.020462403 0.006362868 0.010180105 0.056135684
0003c0 3e d3 de bb a4 a1 1e bc ee fa 42 3d a6 29 d6 3b
       -0.0068000844 -0.009682093 0.047602586 0.0065357266
0003d0 72 1f 6a 3c 55 49 3d 3c 9b f8 5a bc 19 bc 18 bd
       0.014289724 0.011553128 -0.013364936 -0.03728876
0003e0 36 68 04 3d 5e 04 65 3d 6b 3b 47 3d 9e bc bb bb
       0.032325946 0.055912368 0.04864065 -0.005729272
0003f0 7c f5 3d 3e e8 62 96 3c 14 41 46 bd 9f 52 80 bc
       0.18550676 0.018357709 -0.048401907 -0.015664397

a2c_network.value.weight f4 [1, 256]
000000 1a 4b be bc ba 1a 22 bc eb cd a5 ba 73 27 47 3b
       -0.02322917 -0.009894067 -0.0012649869 0.0030388504
000010 a4 e0 36 b9 44 91 d4 3a 8f 90 d5 3b d0 4b dd ba
       -0.00017440558 0.0016217609 0.006517477 -0.0016883556
000020 11 6d 32 3a 67 61 26 bb 63 2c 7b 3e 57 57 cb 3b
       0.00068064133 -0.0025387646 0.24528651 0.00620548
000030 d8 f8 12 3a 88 24 70 bb 29 56 ab 3a b4 3b 9c ba
       0.00056065386 -0.0036642868 0.0013071942 -0.0011919648
000040 f0 19 f0 b9 64 5e b5 bb 3c 29 e2 ba 13 74 c9 ba
       -0.00045795692 -0.005534934 -0.001725472 -0.0015369676
000050 47 c0 81 b8 22 e7 14 ba 31 aa 6b 39 f8 b8 07 3a
       -6.187014e-05 -0.00056801934 0.00022474748 0.0005177404
000060 e1 9b 4d ba 78 d7 29 3b 04 0f 6d bb ee 40 8d 3a
       -0.0007843357 0.0025915783 -0.003617228 0.0010776797
000070 81 5c d9 ba fe 24 15 3a 41 90 12 3f 78 b9 8b be
       -0.0016583354 0.0005689411 0.57251364 -0.2728994
000080 0b e0 ad bb d3 97 0b bb f4 18 61 ba cd 41 fe 39
       -0.005306249 -0.002130021 -0.0008586787 0.0004849568
000090 b5 d1 25 b9 db 90 f4 3a 00 bb 68 3a 2c 61 2c bb
       -0.00015813748 0.0018658893 0.0008877963 -0.0026303036
0000a0 e2 00 1a 3b 0f ef fe 39 dc 80 87 ba 1a 48 3d b9
       0.0023499061 0.00048624768 -0.0010338086 -0.00018051305
0000b0 33 b2 27 bb f0 86 d8 3a ed b2 b9 be 1e f1 99 ba
       -0.0025588393 0.0016519707 -0.36269322 -0.0011744832
0000c0 6c 37 34 bb 71 a4 63 bb 6d c8 15 ba 8e 29 4e bb
       -0.0027498854 -0.0034735466 -0.00057137647 -0.0031457874
0000d0 fe ae 1b 3b 0d 40 70 bb 73 f6 4b 39 b0 81 d3 3a
       0.0023755427 -0.003665927 0.00019451398 0.0016136672
0000e0 4b 76 9f ba 7b 7d da b9 bf 26 d4 b9 44 f3 81 bb
       -0.0012165991 -0.0004167369 -0.0004046466 -0.003965767
0000f0 60 ec cd 39 5f 2c 83 3a c4 0f 27 3a 88 09 c2 ba
       0.0003927676 0.001000773 0.00063728937 -0.0014803866
000100 17 f2 bb 39 5e 96 9e 38 71 3b 28 3a 3e 22 88 39
       0.0003584779 7.562035e-05 0.0006417549 0.00025965454
000110 0b e3 ae ba 43 25 d5 bd 09 fe 3e be 79 98 4e 3b
       -0.001334281 -0.10407498 -0.18651594 0.0031523986
000120 a3 1d 5c 3a 74 20 35 ba 22 ad e7 3d 96 2a 15 3b
       0.000839675 -0.0006909438 0.11312319 0.002276098
000130 9e 23 d8 3b ba 95 74 3b 32 e3 6f 3b 40 aa 4b 3a
       0.006596043 0.003732069 0.0036603925 0.00077692047
000140 74 e2 cc ba da 7e 09 ba f9 d0 8f bc 26 3c 1c 3b
       -0.0015631453 -0.00052450376 -0.0175557 0.0023839562
000150 50 ee 63 bb ed 99 51 3b 1f 27 de 3a 53 8c db 3a
       -0.0034779496 0.0031982616 0.0016948915 0.0016750194
000160 32 38 a7 bc b4 17 b4 3a 39 7b 41 be fe d0 b8 3b
       -0.020412538 0.0013739974 -0.18894662 0.005640148
000170 df 7a 45 ba 75 f1 75 bb e7 3d c7 3a 5a 18 97 b9
       -0.0007533263 -0.0037527953 0.0015200943 -0.00028819108
000180 86 2e 5c 3b 82 3f 42 3b 2b 3a 8e 3a b1 65 76 3a
       0.0033597066 0.0029639904 0.0010851076 0.00093993085
000190 aa 96 93 ba 5a 95 fc b8 7a 80 a3 ba ae 82 1e bb
       -0.0011260111 -0.00012044115 -0.0012474202 -0.0024186778
0001a0 72 ae 7d bc de 50 ba b9 7b af ab 3a 9b 77 aa 3c
       -0.015483486 -0.00035536935 0.0013098562 0.020808985
0001b0 84 a1 19 bb 54 3a c6 3a 71 3f 92 3b fb bb 58 bb
       -0.0023442218 0.0015123584 0.004463129 -0.003307103
0001c0 fb fe 14 3a 8a a2 ac ba 9c a9 96 be ac 42 23 3b
       0.0005683747 -0.0013170999 -0.29426277 0.0024911566
0001d0 ed 30 e2 ba 8a 9a 3d 3b 19 ac 44 3c f9 90 ae 3a
       -0.0017257013 0.0028931224 0.012003922 0.0013318352
0001e0 24 c4 9d ba fd 84 dc ba ea 98 be 3b 06 f1 b9 3a
       -0.0012036604 -0.0016824302 0.0058165686 0.001418621
0001f0 42 1e 5d ba ee 27 2b bd 5f 96 a9 3a a8 a3 05 3b
       -0.000843499 -0.041786127 0.0012938491 0.0020391736
000200 43 0a 11 3b 66 80 f2 3d 32 57 85 bb 92 fb 08 bb
       0.002213136 0.11840896 -0.0040692324 -0.00209019
000210 ba cc 05 3b a3 e5 60 3b 39 c7 12 3b 34 b9 23 3b
       0.0020416216 0.0034316562 0.0022396578 0.0024982216
000220 2b 9d 91 3b ea f1 71 b9 97 f9 9d 3c 64 d7 4e 3a
       0.0044437847 -0.00023073671 0.019284053 0.0007890372
000230 18 95 08 3b f2 64 b9 ba fa 82 7e be ec 68 85 ba
       0.002084082 -0.0014144464 -0.24854651 -0.0010178364
000240 9a 08 4b 3a ed c3 6f bb cf 11 ca 3a 5b 81 15 38
       0.0007745117 -0.0036585287 0.0015416684 3.564484e-05
000250 35 19 54 3d 5e ee 8d bb aa 71 0a bb ee 3d 08 3b
       0.05178185 -0.004331394 -0.0021124878 0.0020788866
000260 c9 82 f3 3a 48 a5 f3 be ea 66 ce ba 48 fc ca ba
       0.0018578406 -0.47587037 -0.0015747224 -0.0015486563
000270 9d 91 92 ba 4a 27 a0 be 70 22 93 be 28 cf 53 be
       -0.0011182312 -0.31279975 -0.2873721 -0.20684493
000280 ec 53 32 3a bf 82 cc be b8 2c 21 bb e9 0c 82 b7
       0.00068026665 -0.399435 -0.0024593305 -1.550322e-05
000290 76 9f 74 3e e1 42 b2 3a 31 0b 01 3b 26 ea 31 3b
       0.23888955 0.0013600254 0.0019690508 0.002714762
0002a0 97 eb 44 ba f3 66 33 3b a0 b8 16 3a ea d8 67 bb
       -0.0007511912 0.0027374595 0.0005749557 -0.0035377094
0002b0 88 f6 51 3b 35 21 cd 3a ae fb 97 39 38 80 c9 38
       0.0032037813 0.0015650155 0.0002898848 9.6083095e-05
0002c0 05 29 2d ba 35 78 fd 3b bc 01 3c bb 22 d4 38 ba
       -0.00066055387 0.007735277 -0.0028687557 -0.0007050653
0002d0 b6 97 20 3b 57 cf 58 bb 12 b5 ae 3a 43 49 97 3b
       0.002450449 -0.0033082569 0.001332911 0.004616888
0002e0 a2 a1 01 3b 34 8f dc 3a 29 e8 f9 bc 70 a7 4f bb
       0.0019780179 0.0016827346 -0.03050621 -0.0031685494
0002f0 1e f7 52 bb 38 0f b6 bd dd 7a 31 3b 12 2e 65 ba
       -0.003219075 -0.088896215 0.002708129 -0.0008742522
000300 06 95 bb 3a 22 e0 0c ba ef 75 43 bb 4e b4 3e bb
       0.001431138 -0.00053739746 -0.0029824933 -0.002909917
000310 32 aa a0 be 84 c4 f2 bc d8 41 83 3b 04 16 d7 39
       -0.3137985 -0.029634722 0.004005652 0.00041024399
000320 96 b6 98 3a 52 54 b6 39 a5 c1 af 3e d1 4b 31 3b
       0.0011651095 0.0003477657 0.34327427 0.0027053247
000330 e0 be ce 39 6f c5 9e be f0 0e 0b 3e e4 10 d7 3d
       0.00039433595 -0.31010005 0.13579917 0.105012685
000340 d6 18 11 bb 2f d7 d1 39 7e ac c6 ba c9 24 77 3a
       -0.0022140048 0.0004002391 -0.0015157608 0.00094277837
000350 4a e9 77 b9 be 82 04 3a d3 0e 49 ba 1d 91 34 ba
       -0.00023642663 0.00050548825 -0.00076697505 -0.00068880786
000360 b5 aa 86 3b 60 e2 7a bb dc f2 bf 39 e2 2a 6a 3a
       0.0041097053 -0.0038281903 0.00036611303 0.00089327816
000370 a7 3a 04 bb f7 85 2f bb 68 dd 75 3a ab 53 65 bb
       -0.002017656 -0.002678273 0.00093790004 -0.0034992497
000380 18 a3 8b be 9d c3 79 3b 4e 21 7c 3a 4a bd 87 ba
       -0.27272868 0.003811098 0.0009618 -0.0010356095
000390 8a b8 b7 3a a3 3a 07 b8 8e 5e 1f 3b ed aa a0 3a
       0.0014016789 -3.2241118e-05 0.0024317834 0.0012257971
0003a0 b5 11 b2 3a ee 6d 9d 3e 44 05 6b 3a 6b 1c 50 38
       0.0013585599 0.30747932 0.0008965323 4.961753e-05
0003b0 b7 14 a2 ba 11 ee ac b9 92 3a 54 bb a6 ad 80 bb
       -0.0012365793 -0.0003298377 -0.0032383543 -0.0039269505
0003c0 da 11 3f bb 56 b3 7c 3a 35 bc c3 3b 68 6a 75 3a
       -0.0029154927 0.000963976 0.0059733638 0.0009361864
0003d0 fb 99 5c ba 1c c2 cf 3a 24 04 0d 3b 7b f2 36 3a
       -0.0008415279 0.0015850696 0.002151736 0.00069788814
0003e0 24 bc 10 bb 80 79 9a b9 09 d4 05 bb 29 4e 10 bc
       -0.0022084797 -0.00029463693 -0.0020420572 -0.008807697
0003f0 72 50 a5 3e ec 5a 85 bb 3d c5 48 bc aa f6 10 3b
       0.32287937 -0.0040696766 -0.0122540565 0.002211968

a2c_network.mu.weight f4 [6, 256]
000000 25 cf f8 3c 90 ba b0 bc 9d 72 17 ba 7b 2f 9d b7
       0.030372212 -0.021573335 -0.00057772716 -1.8737968e-05
000010 1f 52 90 3b 56 a7 c9 b8 3f 73 a5 3b b1 dd d6 39
       0.004404321 -9.6155956e-05 0.005049139 0.00040982434
000020 24 18 4a 3b e0 25 d4 ba 06 87 18 39 7b 2d ae 3b
       0.0030837143 -0.0016185604 0.0001454615 0.0053154803
000030 88 81 cc ba 3c 2d 88 ba 08 56 91 bb a8 30 18 3a
       -0.0015602568 -0.0010389457 -0.0044353046 0.000580559
000040 4e 44 a9 ba 82 cb 9c bb e3 65 82 b9 9f ef f3 3a
       -0.0012914033 -0.004785002 -0.00024871444 0.0018610841
000050 3d 2f eb ba df f3 1c ba 8e c2 32 bb e0 13 b3 39
       -0.0017943155 -0.00059872674 -0.0027276608 0.0003415635
000060 7d 34 85 bb f7 ac a8 3b 00 20 e0 ba bc ed d0 ba
       -0.004065095 0.005147572 -0.001709938 -0.0015939991
000070 74 61 19 39 b5 fb a2 39 ac 96 c5 bc 8a 0a 92 bc
       0.00014627521 0.00031086584 -0.024119698 -0.017827291
000080 3e cc 2b bb fa 23 59 bb c2 51 46 ba 45 6f 64 3b
       -0.0026214267 -0.0033133016 -0.00075652834 0.003485636
000090 89 f3 a4 39 b5 7c 04 3b 7a ca 90 ba 0b 5e 1c bb
       0.00031461965 0.0020215933 -0.0011046671 -0.0023859765
0000a0 f2 17 4d 39 05 cc 2a bb 34 e4 28 ba 02 fe ab 3b
       0.00019559244 -0.0026061547 -0.00064426963 0.005248786
0000b0 07 13 0b ba 5e 74 b7 3a bc f0 63 3c 7d 41 62 3a
       -0.00053052645 0.0013996472 0.013912376 0.00086309743
0000c0 8d d4 0d 3b 59 fc ad ba 1c ee 84 b9 df 95 02 3b
       0.0021641583 -0.0013274058 -0.00025354407 0.0019925756
0000d0 9b bf dc 3a 95 d8 76 bb 1c 5f 10 bb 18 9a c2 b8
       0.0016841771 -0.0037665714 -0.0022029346 -9.279343e-05
0000e0 06 fa 3e bb 58 97 73 3b 2c 93 28 bb d5 91 98 3a
       -0.0029140725 0.0037169065 -0.0025722487 0.0011640141
0000f0 e2 7b 2b 38 1a 12 8a ba e1 5b 6f 3b fa 1f 89 3a
       4.0884952e-05 -0.0010533959 0.003652327 0.00104618
000100 87 be 44 3b ae 4d 23 3a df 5c 96 ba 08 d5 5c b9
       0.003002079 0.0006229532 -0.001147177 -0.00021060195
000110 87 a8 a5 3a 78 54 10 bd 7e 15 60 3c 6d e0 fb b9
       0.0012638726 -0.035236806 0.013676999 -0.0004804166
000120 7a 1a 02 bb 7d 96 e0 3a d8 0a 52 bd bc 7a b9 ba
       -0.0019852207 0.0017134693 -0.051279873 -0.0014150958
000130 7a bb c9 3a 78 86 52 3a 31 8e 19 3b a8 25 36 ba
       0.0015390955 0.00080309017 0.00234307 -0.000694836
000140 9c bb 28 bb af 9e d9 b7 8b 44 03 bc 02 97 bc b8
       -0.002574659 -2.5942309e-05 -0.008011947 -8.992666e-05
000150 8a d9 e0 3a 10 0b 20 3b b7 77 f0 3a 85 17 5a bb
       0.0017154675 0.0024420656 0.0018346225 -0.003327818
000160 7d 32 f6 3b 0f ef a4 3a 8e 83 14 bc b3 c9 37 3b
       0.007513343 0.0012583452 -0.009064568 0.0028043806
000170 1b e1 17 3a 12 db 69 bb 14 48 0e 39 a9 b6 34 3b
       0.0005793736 -0.0035683555 0.00013569026 0.0027574694
000180 a2 06 b0 3a 79 db ef 3a 71 14 09 36 d7 4d 0c 3b
       0.0013429711 0.0018299661 2.042649e-06 0.00214087
000190 37 ef 41 ba 82 5f 54 b9 49 da 93 3a 75 11 36 3b
       -0.00073980115 -0.00020253475 0.0011280264 0.0027781401
0001a0 5c 5b 27 bc 90 36 1a bb 4b 36 27 3a 64 c7 b0 ba
       -0.010214653 -0.0023531057 0.0006378635 -0.0013487157
0001b0 75 d7 86 3a 66 55 25 ba fc d3 27 3b a3 b3 52 b9
       0.00102876 -0.0006306976 0.002560853 -0.0002009408
0001c0 7e 6f ed 3a 02 63 76 bb d0 47 48 3b c3 51 8d 37
       0.0018114892 -0.0037595634 0.0030560382 1.6846583e-05
0001d0 a0 8e 45 bb 46 98 e8 3a 57 ce d8 b9 8c 5a 21 bb
       -0.0030144826 0.0017745576 -0.00041352466 -0.002462062
0001e0 02 88 80 bb 79 8b 30 3a 5b 12 fd ba ad e7 d2 ba
       -0.0039224634 0.000673465 -0.0019307839 -0.0016090773
0001f0 6a 9d 46 bb 0e b3 1d 3d 28 7b 92 38 e7 8a ec 39
       -0.0030306228 0.038500838 6.984762e-05 0.00045116918
000200 23 b0 b6 3a 00 fd b3 3c 8f 89 a4 bb d8 1f 80 3a
       0.0013937991 0.021971226 -0.005021281 0.0009775115
000210 96 45 ac 3a 5c f3 74 3b c2 f9 9f 3a d1 04 e5 b9
       0.0013143297 0.0037376499 0.0012205171 -0.00043681872
000220 51 50 9d 39 2c 33 95 3a a1 c6 0e bc 35 e2 32 ba
       0.00030005214 0.0011383048 -0.008714349 -0.00068238686
000230 e6 bf 23 bb 6a 34 76 ba ec 5d 2c 3d 6b 61 cc ba
       -0.0024986207 -0.00093919656 0.04208176 -0.0015592998
000240 8c a0 af 3a a7 8c 3b 3a 93 52 55 3a 64 1a 66 ba
       0.0013399287 0.0007154443 0.00081376097 -0.0008777736
000250 f2 2b 64 bd 3b 0c f2 bb 12 bf 02 ba 21 1f 56 3a
       -0.055705972 -0.007386712 -0.0004987578 0.0008168091
000260 74 53 3e ba 19 d7 18 3d 1e f6 24 3b 9a c4 19 bb
       -0.000726036 0.037314508 0.0025171111 -0.002346313
000270 67 89 dc ba b9 4d b9 3b 85 bd 12 bd fc b0 20 3d
       -0.0016825617 0.005655017 -0.03582527 0.039231285
000280 a8 c2 47 3a 2f b7 f1 3b 4c c4 d1 b7 19 b3 13 bb
       0.00076202536 0.0073765735 -2.500615e-05 -0.002253717
000290 24 ac 0c 3c 90 8e 32 3a 1f f8 11 3b ff 9d ad 3b
       0.008585963 0.00068114046 0.0022273136 0.0052983756
0002a0 c3 1b aa ba db 1d 43 3b 24 52 3b 3b aa b1 9a bb
       -0.0012978244 0.0029772434 0.0028582895 -0.0047208862
0002b0 48 e9 30 b9 75 ae 18 3b de 00 09 39 8d f4 c8 ba
       -0.00016871572 0.0023297344 0.00013065661 -0.0015331671
0002c0 b8 4d d9 3a d9 bd 16 3d 01 f3 15 39 ef 72 2a bb
       0.0016578948 0.036802147 0.00014300273 -0.0026008447
0002d0 35 34 0e 3b 33 a2 e2 ba 03 f9 c3 39 3c 94 57 3a
       0.0021698598 -0.0017290771 0.00037378827 0.0008223688
0002e0 5a 4b 1e 3b df c6 23 3b 43 4b 93 3c 62 50 a8 bb
       0.00241538 0.0024990363 0.017980224 -0.0051365355
0002f0 68 71 02 bb 19 91 f0 3b 1a 80 cd 39 09 cc 50 ba
       -0.0019904021 0.0073415157 0.0003919609 -0.0007964974
000300 f4 53 04 3b f6 e4 f8 ba f4 27 92 ba ea 1a cb ba
       0.0020191642 -0.0018989134 -0.0011150823 -0.0015495692
000310 9f 71 95 bc a9 13 df 3c 01 05 2f 3b 17 f7 cb ba
       -0.018242655 0.027231054 0.0026705863 -0.0015561309
000320 25 2f 4b bb 2a 7c f9 ba ca 04 9d 3c 0b ae 3f 3b
       -0.0031003442 -0.0019034196 0.019167323 0.0029248025
000330 55 da f1 ba 42 2e 00 bc fb 03 67 3c 66 37 80 3b
       -0.0018451909 -0.007823529 0.01410007 0.003912854
000340 07 4d b7 38 ed fe 6b b9 91 4b 73 39 c4 4d 30 bc
       8.7404675e-05 -0.00022506314 0.00023202437 -0.010760728
000350 43 b9 58 3a 4f 44 fa ba 4d e3 43 ba 7f db 28 bb
       0.0008267352 -0.0019093844 -0.000747253 -0.0025765595
000360 dc 80 fc 39 23 a3 81 ba 1d e4 dd ba c8 b5 8c 3b
       0.00048161193 -0.0009890537 -0.0016928945 0.004294131
000370 91 39 6f b9 65 2a 1d 3b 3f 8b 56 3b e0 af 0c bb
       -0.00022814261 0.0023981568 0.0032736806 -0.0021467134
000380 ec cb c9 bc 00 85 96 3a 83 67 3f 3a f6 d4 ac 3a
       -0.02463337 0.0011483729 0.0007301496 0.0013186026
000390 7e 22 d6 ba 30 c6 f1 3a d7 2e 18 bb 71 a2 05 bb
       -0.0016337184 0.0018445905 -0.0023221278 -0.0020391012
0003a0 ac cf 16 bb 8b 77 8a 3c 04 9a 88 3a 8d 4c 09 ba
       -0.0023011966 0.016902706 0.0010421877 -0.0005237542
0003b0 32 61 19 3b 86 cf 76 bb 32 29 4f 3b 77 45 c5 ba
       0.002340388 -0.0037660315 0.0031610248 -0.0015050609
0003c0 fd db 53 bb 55 59 4e ba 52 7a 4a bc cd d0 4b ba
       -0.0032327168 -0.0007871588 -0.012358265 -0.0007774949
0003d0 08 06 11 3a a6 e9 72 3b 2d ef cd 3a 0a c4 8c 3a
       0.000553221 0.0037065535 0.0015711539 0.0010739577
0003e0 18 f1 be b9 0f c9 2d 3a 51 72 98 3a 07 02 06 bd
       -0.00036419253 0.00066293863 0.0011630749 -0.032716777
0003f0 d2 9f 9f bb 3b 70 fb 3a c5 2f 10 3c 52 3a 59 3b
       -0.004871347 0.0019183228 0.008800452 0.0033146334

a2c_network.mu.bias f4 [6]
000000 fa 9b 49 bb c8 86 35 be 4f 48 f1 3b ea c3 85 bd
       -0.0030763135 -0.17727196 0.007363356 -0.06531508
000010 5f 8e 02 3e 9e 0d 7c 3e
       0.12749623 0.2461457

exp_avg f4 [6]
000000 0a 8c 2d b9 a0 18 b2 3a 06 4c 25 ba 1d 6c 33 ba
       -0.00016550734 0.0013587661 -0.0006305579 -0.0006844418
000010 4e df 72 ba 1b 81 0f b7
       -0.00092648424 -8.553524e-06

exp_avg_sq f4 [6]
000000 3d 33 5e 38 39 1b 76 38 fe 6c 6f 38 d9 0b 5d 38
       5.2976644e-05 5.8676324e-05 5.7083547e-05 5.270154e-05
000010 5b 74 6d 38 3f b7 74 38
       5.6613568e-05 5.8344795e-05
