logs/rl_games/yam_cube_sort_8192/2026-02-01_19-21-52/nn/last_yam_cube_sort_8192_ep_750_rew_872.6568.pth (torch, 953168 bytes, 30 tensors)

value_mean_std.running_mean f8 [1]
000000 2d f0 44 b1 e2 4b c4 3f
       0.15856584220625916

value_mean_std.running_var f8 [1]
000000 ea 8a 4a d7 f2 fd 97 3f
       0.023429674520808165

value_mean_std.count f8 []
000000 00 00 00 01 00 70 b7 41
       393216001.0

running_mean_std.running_mean f8 [40]
000000 60 52 b5 81 22 fb ef 3f c3 90 82 3e ee 75 43 3f
       0.9994061025013927 0.0005938924123438872
000010 00 00 00 00 00 00 00 00 c3 90 82 3e ee 75 43 3f
       0.0 0.0005938924123438872
000020 00 00 00 00 00 00 00 00 00 00 00 00 00 00 00 00
       0.0 0.0
000030 6b 65 6b 08 74 5d ca 3f 40 82 33 24 01 ff cf 3f
       0.20597696696385567 0.24996961848866484
000040 03 41 94 a8 a6 b6 bb 3f a3 6c 7d 22 2f 62 ca 3f
       0.10825578323079203 0.20612134155348824
000050 11 38 3c af 8f de cf 3f 01 1a cb 61 e7 9b bb 3f
       0.24897953087241878 0.10784765374692286
000060 31 0a 67 bd 7f 41 e5 3f a9 d3 de e3 bf 34 d0 3f
       0.6642454814212383 0.253219578294472
000070 f1 50 d3 db a3 db d1 3f 52 8d 79 f0 8f 0f 8a 3f
       0.27903076617555117 0.012724995161255723
000080 25 87 f5 5e b9 a2 d0 3f ce 35 e0 27 8a 1c d2 3f
       0.25993189118718113 0.2829919232761683
000090 5f b5 f5 99 9a 08 8a 3f ba 1b 73 53 13 ab d0 3f
       0.012711723159294306 0.2604416193902882
0000a0 7f fc c8 84 b1 24 d2 3f a7 3b c5 f2 ac 08 8a 3f
       0.2834895893792648 0.01271185985447494
0000b0 bd f2 89 61 6c c9 40 3f cf 70 15 0c bd 88 16 3f
       0.0005122927860408893 8.596090176155316e-05
0000c0 e1 cb 43 36 83 90 4b bf 90 30 33 f9 9f c2 31 3f
       -0.0008412018474061 0.0002709999618673098
0000d0 ba e4 88 9e c7 96 31 3f bc 49 87 f1 57 cc 40 bf
       0.0002683865882634019 -0.0005126408969380806
0000e0 5d e3 b4 be b6 0f 30 3f 23 71 c7 55 ca cd 31 3f
       0.00024507724329541296 0.0002716654760470829
0000f0 44 46 a1 28 11 91 40 bf 20 e7 8c 12 cb fc d0 3f
       -0.0005055745871322477 0.2654292756229655
000100 19 d0 c7 35 72 02 ca bf ac 9b 40 fe df 7a 84 3f
       -0.20319965005876453 0.009999990412394265
000110 1d 17 92 e6 01 c0 b0 3f 19 d0 c7 35 72 02 ca bf
       0.06542980078856116 -0.20319965005876453
000120 ac 9b 40 fe df 7a 84 3f 95 48 75 a5 95 c9 dd 3f
       0.009999990412394265 0.4654287448694359
000130 19 d0 c7 35 72 02 ca bf ac 9b 40 fe df 7a 84 3f
       -0.20319965005876453 0.009999990412394265

running_mean_std.running_var f8 [40]
000000 05 82 37 6c 35 73 43 3f 16 5e 5c a0 2a 73 43 3f
       0.00059356792956683 0.0005935629021420221
000010 85 aa 0f c2 67 d8 35 3e 16 5e 5c a0 2a 73 43 3f
       5.0862629949632264e-09 0.0005935629021420221
000020 85 aa 0f c2 67 d8 35 3e 85 aa 0f c2 67 d8 35 3e
       5.0862629949632264e-09 5.0862629949632264e-09
000030 ba ca bb 30 ae 23 a3 3f ce b9 b7 9b 7a 2c a7 3f
       0.037381595086022526 0.04526122237063
000040 c4 bf 5a 43 8f 60 7b 3f c3 db 0e 2f 5f 58 a1 3f
       0.006683883306024489 0.033877348417653795
000050 cb 68 22 41 65 10 a5 3f 94 2f 4c 31 3a 3d 78 3f
       0.041140712929704636 0.0059177659175126025
000060 8b 5f 1b c1 dc 92 b5 3f d7 6c fa 9e e1 4f 84 3f
       0.0842721911861856 0.009917986549501752
000070 08 fd 75 34 80 8d 95 3f 80 45 64 3c 9e 82 b2 3e
       0.021047595216711762 1.1032955043492815e-06
000080 bf 70 10 33 88 d6 7e 3f 82 37 d3 63 ea ec 8c 3f
       0.007528812436273734 0.014123755618495219
000090 4d 4a 5e 38 1f 27 b1 3e b6 7c a8 09 53 fb 7e 3f
       1.0223877508804024e-06 0.007563900343057364
0000a0 00 eb 3c d3 51 4d 8c 3f f3 f5 20 9e 3d 64 b3 3e
       0.013819350489588711 1.1558273560608004e-06
0000b0 28 cc 19 9c 32 63 71 3f 3a 51 5e af fb 26 75 3f
       0.004244992918404335 0.005164130348834834
0000c0 81 2a 98 1b 04 0a 42 3f b1 fb 70 9c ff 00 6c 3f
       0.0005505104119845756 0.0034184448627736165
0000d0 7e ad 4b 40 0a 60 70 3f 0f 9f 95 19 19 0c 36 3f
       0.003997840922902339 0.0003364144591473253
0000e0 c1 e7 e7 2f e9 ed 6b 3f 51 49 19 95 83 3a 70 3f
       0.003409343188875064 0.003962053293053395
0000f0 41 84 52 39 60 ee 35 3f 3e dd e1 b2 a9 65 37 3e
       0.00033464287964518965 5.447566660020139e-09
000100 39 6f fc 1d 90 c2 36 3e 83 e6 60 ec f6 d8 35 3e
       5.299228139439173e-09 5.0867716202901055e-09
000110 d6 7b b8 a6 6e f0 35 3e 39 6f fc 1d 90 c2 36 3e
       5.108115357375092e-09 5.299228139439173e-09
000120 83 e6 60 ec f6 d8 35 3e 37 6a 74 fb 6c a0 3a 3e
       5.0867716202901055e-09 6.1995030699971936e-09
000130 39 6f fc 1d 90 c2 36 3e 83 e6 60 ec f6 d8 35 3e
       5.299228139439173e-09 5.0867716202901055e-09

running_mean_std.count f8 []
000000 00 00 00 02 00 70 a7 41
       196608001.0

a2c_network.sigma f4 [6]
000000 20 83 c4 bf 76 35 b6 bf 8c 85 b6 bf 81 f1 0b c0
       -1.5352516 -1.4235065 -1.4259505 -2.1866152
000010 b4 2c 1d c0 31 9d 34 40
       -2.4558535 2.8220942

a2c_network.actor_mlp.0.weight f4 [256, 40]
000000 6d 31 77 3e 8e 91 a6 be eb 47 88 3d 5c ad 10 be
       0.24139948 -0.32532924 0.06654342 -0.14128631
000010 86 2f bb 3d 62 90 8d bd 92 62 01 3f c2 d8 9c 3f
       0.09139924 -0.069123045 0.5054103 1.2253649
000020 c9 2a bd 3e 0e f3 e3 be f8 a9 8b bf d1 e6 8f be
       0.36946705 -0.44521374 -1.0911245 -0.28105786
000030 b9 75 fc 3b 0b 5b 8a bd 14 0c 5f bd 56 da 06 3d
       0.0077044633 -0.06755646 -0.054454878 0.032923065
000040 71 9c d5 3c 53 63 77 3c d1 1e 94 be fe 9b cd bb
       0.026075574 0.015099364 -0.2892976 -0.0062746992
000050 cc 43 f5 bc ba 09 91 3d 39 9e 44 3c 8c b9 81 bd
       -0.029939555 0.07081933 0.012000614 -0.063342184
000060 e9 b4 f7 bc 13 d5 38 3e d1 e1 df bd d4 9b 81 3e
       -0.030237632 0.18050031 -0.10931743 0.253142
000070 36 89 c8 3a c9 c3 4b be 5e 00 86 3d 64 25 09 3e
       0.0015299681 -0.19898905 0.06543039 0.1339317
000080 27 e2 24 bd 5a bd 11 be c8 8c b1 3d 07 d8 a1 be
       -0.04025474 -0.14232388 0.0866943 -0.31610128
000090 64 11 f2 bd d3 e7 15 3e cb 0a 0b be cc d3 f4 3d
       -0.11819723 0.14639215 -0.13578336 0.119544595
0000a0 3e 32 a4 3e 8d 04 03 bf 73 cf ab 3d 6d 91 ef be
       0.32069582 -0.5117882 0.08389177 -0.4679064
0000b0 4b 88 c4 3d 1f af 19 bd ea 63 6e bc 99 ab 07 bf
       0.09596308 -0.037520524 -0.014550189 -0.5299621
0000c0 64 93 b2 3e 5f 6b eb be d8 54 db 3e fa b1 38 3e
       0.34878075 -0.45980355 0.42838168 0.18036643
0000d0 1a 0f 95 3c 2d 48 ed 3e 4c d1 74 be a7 88 61 be
       0.018195678 0.46344128 -0.23907965 -0.22024785
0000e0 a9 68 4a 3d 37 b4 91 bd 2c eb 20 bd 3e 86 b3 3c
       0.049416218 -0.071144514 -0.039286777 0.021914598
0000f0 72 8f 4c bc 9f ac b8 bd fb 10 ba be 97 48 ea bd
       -0.012485372 -0.090173 -0.3634108 -0.11439627
000100 e8 f9 3c 3e 8e fd a0 be 35 41 ba be 62 73 bd be
       0.18454707 -0.31443447 -0.36377874 -0.37002093
000110 eb 5f 1c 3e d7 89 a5 be e4 d1 49 bd 60 43 09 be
       0.15270965 -0.32331726 -0.049272433 -0.13404608
000120 2b 5d 72 3f 6c e7 1b be 57 09 11 bc e3 6a 58 3f
       0.94673413 -0.15224999 -0.008852324 0.84538096
000130 77 62 a3 3c 9a b0 ac be 37 73 54 3f 0d a6 cb bd
       0.019944413 -0.33728486 0.82988304 -0.09943781
000140 17 df 96 3d 6c ed d4 bd 68 83 33 bc 80 ee 1b be
       0.0736677 -0.10396847 -0.010956623 -0.152277
000150 3f 44 de bd 62 ea bc bd 7c 60 37 3c 28 7b 00 bf
       -0.10852861 -0.092243925 0.011192437 -0.5018792
000160 f4 d2 fb 3e 8c 60 4a bc b2 e5 f4 3e f7 66 f2 be
       0.49184382 -0.01235212 0.47831494 -0.4734418
000170 3c 67 7d bc 6c d3 03 bd aa 94 1b bc 2b ed d2 bc
       -0.0154665075 -0.03218405 -0.0094958935 -0.025747856
000180 5e fb a0 3c 3f 68 c2 bb e0 86 b9 3c bf 43 3f 3c
       0.019651111 -0.0059328373 0.022647321 0.011673867
000190 a2 fc 15 38 e0 43 4a 3e ac 54 8e 3b 03 94 8f bc
       3.575965e-05 0.19752455 0.00434359 -0.017526632
0001a0 36 b6 2c bb 42 6f 09 3c a4 70 c3 bc c2 7d 92 3c
       -0.0026353723 0.008388342 -0.023857422 0.017882232
0001b0 28 06 28 bc ad 47 44 bd e7 e1 e0 bb 96 1b 03 40
       -0.010255374 -0.047919918 -0.006862867 2.0485587
0001c0 00 21 85 bf 2f 0c d9 bd 4e 3e d1 3e e1 c3 91 bf
       -1.0400696 -0.10598027 0.40867847 -1.1387902
0001d0 14 64 c6 3d 84 f6 0d 40 32 ab 78 bf 81 be 95 bd
       0.09687057 2.2181711 -0.97136223 -0.07311726
0001e0 1f 7e 7e 3e 25 f0 72 be 9b 9f a6 3c 8d 99 d2 be
       0.24852799 -0.2372442 0.020339778 -0.41132775
0001f0 4b ef 87 3d 28 51 c2 bc 46 88 8a 3d 0a 40 83 3f
       0.066374384 -0.023720339 0.06764273 1.0253918
000200 bc 6c 37 3e 96 bb 49 3c b6 7b 7b bf 3a 32 63 be
       0.17912573 0.01231279 -0.9823564 -0.22187129
000210 16 5f 64 bc 3e 15 ac bc c3 a6 11 bc 0e f3 f0 be
       -0.013938686 -0.021006223 -0.008889857 -0.47060436
000220 77 39 7a bb c5 b6 7b 3c b8 55 bf 3e 60 dc fc bb
       -0.0038181224 0.0153634 0.37370086 -0.0077167004
000230 0e 58 c7 ba 96 84 93 3e 0b 41 48 3d e3 41 0c bc
       -0.0015208737 0.28812093 0.048890155 -0.0085606305
000240 b8 d0 3b bd c7 38 31 3d c5 24 eb 3c 8f 09 89 bd
       -0.045853347 0.043267038 0.028704057 -0.06691276
000250 db 7e 94 3b 15 95 ae 3d 17 bb f6 bd ce 46 10 3f
       0.004531724 0.08524529 -0.12047403 0.5635804
000260 06 90 f1 3e 20 22 09 3e 71 7c 46 3f 7a b0 ab 3e
       0.47180194 0.13391924 0.7753363 0.33533078
000270 5b f3 b3 39 a8 9f 10 3f f1 46 d1 3e ca 71 2d 3d
       0.00034322854 0.56493616 0.40874436 0.042344846
000280 bc 04 e3 3c 29 47 69 be 18 59 08 3e 88 e9 dc bd
       0.027712218 -0.22781052 0.13315237 -0.1078673
000290 d9 d8 00 bc 35 3b c3 bd 3c 29 0e bf b8 bd 19 bf
       -0.0078642005 -0.09532777 -0.5553167 -0.6005511
0002a0 56 08 0f be c3 40 01 3f 8f 79 1c 3f e8 05 94 3e
       -0.13968024 0.50489444 0.61122984 0.28910756
0002b0 cc 4a 91 3d 2d 2d 97 3c ad 8c 0a bc 55 bc 8d bd
       0.070943445 0.018454159 -0.008456391 -0.06920687
0002c0 b3 81 3f bc 0c e5 d9 3b 30 5b 4c bf 0b a8 26 bb
       -0.011688638 0.006649619 -0.7982664 -0.0025429751
0002d0 b1 d2 09 3d 7d b9 d7 be 1b 66 87 bd b2 e1 b0 3d
       0.033648197 -0.42133704 -0.06611272 0.08636798
0002e0 be e1 40 bc 8f 57 fe bd c0 c5 eb 3d 32 d8 f4 3e
       -0.011772571 -0.12419044 0.11512327 0.47821194
0002f0 45 4f 19 bd b5 02 89 bd b3 f9 a4 be e4 da f0 bf
       -0.037429113 -0.066899695 -0.32221755 -1.88168
000300 f6 d3 7c 3f cf c6 07 3e f3 a6 81 bf cc a3 73 3f
       0.98760927 0.13259433 -1.0129074 0.9517181
000310 60 8e 03 bb 69 cc 07 c0 a8 b7 46 3f 46 e9 17 be
       -0.0020073876 -2.1218512 0.7762399 -0.1483508
000320 89 d1 5e be cc e5 8c 3e 8e 56 02 bd c6 0d 86 3e
       -0.21759619 0.2751907 -0.031820826 0.26182383
000330 4d 07 ec bc f3 e9 e3 bd 7a f4 12 bf 8c d5 b2 3e
       -0.028812075 -0.11128607 -0.5740429 0.34928548
000340 fc cc 6b 3e a7 49 17 3f dc f7 ef be 18 91 8c be
       0.23027414 0.5909676 -0.4686879 -0.27454448
000350 c0 9d f1 3c 7c f9 bb bb 14 58 7c 3d 2e db ee be
       0.029494166 -0.005736528 0.061607435 -0.46651596
000360 16 a1 0e 3d 97 1a 01 bd 7a e5 5e be 62 fb 01 3d
       0.034821592 -0.0315195 -0.21767226 0.031733878
000370 05 75 31 bc 75 a0 67 bb 6b 0c 0e 3d 5d 9f 4c bd
       -0.010831122 -0.0035343443 0.03467981 -0.04995667
000380 25 c5 10 3c 6a ba 9b bd 5c 38 bd 3c dc be 4f 3c
       0.008836065 -0.07603915 0.023098163 0.012679782
000390 10 9b 56 3d 40 66 8c bd 03 ce 03 3b 27 82 8b bf
       0.052393973 -0.0685544 0.0020111806 -1.0899094
0003a0 9e 8c 68 3f 12 d1 07 3e 4e d0 9f 3d 4e df 45 3f
       0.90839565 0.13263348 0.07803403 0.7729386
0003b0 27 b7 ec bd b9 8c 66 bf 22 c8 65 3f 03 7a 12 be
       -0.11558371 -0.90058476 0.89758503 -0.14304356
0003c0 57 a6 a8 3d d6 e0 48 be 00 94 62 bc b6 83 37 be
       0.08234852 -0.19617018 -0.013829231 -0.17921337
0003d0 b1 5d 84 bd e9 98 4d bd c4 b6 b6 be 35 de be 3e
       -0.06463183 -0.050194655 -0.35686314 0.37278906
0003e0 57 e7 18 3f e1 30 b8 3e 17 ee bc be ba ce 14 bf
       0.59727997 0.35974792 -0.36900398 -0.5812794
0003f0 45 a0 c0 bc e1 cc cb bb 40 99 d9 3c fe 15 23 bc
       -0.023513922 -0.006219492 0.026562333 -0.009953974

a2c_network.actor_mlp.0.bias f4 [256]
000000 c7 5e a7 bc 87 7e 3c 3e 57 4d 09 3b 17 64 e9 bc
       -0.020430936 0.18407641 0.002095064 -0.02849011
000010 e2 04 f2 bd d1 27 3f 3d a3 5b f5 b9 d0 d0 d9 bd
       -0.118173376 0.04666883 -0.00046798316 -0.10635531
000020 ad 77 d7 be 1d 1f 93 3e 30 7d c3 3e c7 40 ad be
       -0.42083493 0.28734675 0.38181448 -0.33838484
000030 54 18 90 bb e3 8a 05 3e 51 be 47 bd 0b 1f 8d 3e
       -0.0043974314 0.13041262 -0.048765484 0.27562746
000040 ed a7 98 3e 39 8e 10 3c 73 2d 35 bf 46 26 3b 3b
       0.29815617 0.008822971 -0.70772475 0.0028556748
000050 18 d2 1e bb 63 f9 ef be cc 1b a7 bd 00 09 6c 3c
       -0.0024234112 -0.46869954 -0.08159599 0.014406443
000060 a5 e2 55 3b 15 eb 5f be 0c 26 04 be e7 31 f8 be
       0.0032636311 -0.2186702 -0.12905139 -0.48475572
000070 2e 05 0d 3f c9 e4 f8 bd ab 38 32 bd 0f 9e 0d bf
       0.5508603 -0.12153012 -0.043511074 -0.55319303
000080 b8 c6 e0 bc f1 1f 0c be 58 0a 15 bf 02 8d 5a bd
       -0.027438506 -0.1368406 -0.5821891 -0.05335713
000090 1b 61 d0 be 65 4a 86 bf 27 cd 77 bf 98 f9 8e bd
       -0.40699086 -1.0491453 -0.9679741 -0.069812
0000a0 5c a2 73 3e 27 b8 8b bd 2c 2d 9f bc ca 9e 44 ba
       0.23792404 -0.06822234 -0.01943072 -0.0007500468
0000b0 bd 1c 87 3d ce 84 1d bc 51 5e 1d ba 82 3a 16 bc
       0.06597278 -0.009614183 -0.0006003129 -0.009169223
0000c0 0c 46 40 bd ca 20 82 bd cc 2a 88 bf b9 e6 df 3c
       -0.046941802 -0.0635391 -1.063806 0.027331697
0000d0 a6 4a d4 bd 0c e9 81 3b 11 a1 3e bc c0 cc 31 bd
       -0.103658006 0.003964549 -0.011635081 -0.043408155
0000e0 7e be 09 bf 33 84 73 3e ce 63 12 bd ac da a0 3c
       -0.53806293 0.23780899 -0.035739712 0.01963552
0000f0 a0 b2 44 bd f1 56 b9 bc 09 0e f7 bb f5 a2 91 bf
       -0.048021913 -0.022624465 -0.007539515 -1.1377856
000100 ee f9 89 bf 9e 6d 7f 3e 86 ea 26 bd 50 df e7 ba
       -1.0779397 0.2494416 -0.040751003 -0.0017690454
000110 63 cd 6e bc b6 4e 6b 3b 63 b4 1e bf 10 93 3f bc
       -0.014575335 0.003590507 -0.61994 -0.011692777
000120 46 12 ab be 64 18 fb 3d c8 c7 1e be 2d ee 1a bc
       -0.3341238 0.122605115 -0.15505898 -0.0094562
000130 9c 90 5b bf 34 b5 36 3d 3c cc 07 bf 7e b7 17 bf
       -0.8576753 0.044606403 -0.5304601 -0.5926436
000140 4b a5 af 3b 3f ab b9 bc 16 a2 02 be 65 89 97 bd
       0.0053602806 -0.022664664 -0.12757143 -0.07399253
000150 eb 4e d8 be 6e c4 74 bd 29 51 50 bd 00 1c 2e bd
       -0.4224771 -0.059757642 -0.05085865 -0.04250717
000160 70 a4 2c bd b1 87 64 be 03 22 31 bc f9 73 0d be
       -0.042149007 -0.22317387 -0.010811332 -0.13813771
000170 b1 86 4d bf b5 cb 98 3b 54 c4 fc bd c7 cf 2c bf
       -0.8028365 0.0046629556 -0.12342134 -0.67504543
000180 71 54 ef b9 b5 36 1d bc b7 ee f8 bc fe 31 18 be
       -0.00045648546 -0.009595563 -0.030387266 -0.1486282
000190 c5 ce 07 bf f8 9d 0d 3a d7 c6 ce bc 4a c7 7e 3e
       -0.5304988 0.00054022623 -0.025241299 0.2488071
0001a0 e0 30 02 bc ec 7d 13 3d 3d 9c cf bc d7 5a ef bd
       -0.007946223 0.03600876 -0.025343055 -0.11687248
0001b0 67 34 fa 3c e9 12 f5 be 19 b8 7e 3e 56 1d 61 be
       0.030542566 -0.4786599 0.24874915 -0.21983847
0001c0 1d c6 24 bc 62 64 26 3b cb cf ab bd 12 58 46 3b
       -0.0100569995 0.0025389423 -0.08389243 0.0030264896
0001d0 f4 4f 34 bd 30 cf 56 bb 3c d3 d8 3d 36 f8 82 be
       -0.04402156 -0.0032777302 0.10587165 -0.25579995
0001e0 c1 68 e3 be 83 83 c0 bc bd 4c b5 be 5d b7 38 bd
       -0.44415858 -0.02350021 -0.3541011 -0.045096744
0001f0 3c 21 f3 3d a9 5f 83 be ac be 6a bd 56 5b 59 3c
       0.11871573 -0.2565892 -0.057310745 0.013266405
000200 02 06 42 be e1 9a 64 3b ac 19 ec be c8 6d 28 bc
       -0.18947604 0.0034882354 -0.46113336 -0.01028008
000210 06 b8 25 3c 58 65 44 3c 9f ec ff bb 06 16 1f bd
       0.010114675 0.011987053 -0.00781019 -0.038839363
000220 86 03 bf 3b 7c 3b 88 bc db 77 99 3e f8 44 b9 bd
       0.0058292774 -0.016629927 0.29974255 -0.09046358
000230 e2 70 7e bd 24 25 90 bb 01 6c b7 be 0d 69 a5 bd
       -0.062119372 -0.0043989588 -0.35824588 -0.080766775
000240 6c a2 59 3d 17 77 55 3c c1 f5 62 bc 7a ed 62 bd
       0.053133413 0.0130288815 -0.013852538 -0.055402257
000250 ce 81 e1 bc 7f 73 35 bb 94 9e b6 ba 99 ea 12 3c
       -0.027527716 -0.002768725 -0.0013932758 0.008967065
000260 a6 03 31 bd 03 10 d6 bd 7d 0a 82 3e ad eb 4a be
       -0.04321637 -0.10452273 0.25398627 -0.19816466
000270 c8 d3 f2 bb 7b 0f 11 3d df af 5d 3a 90 c9 c8 bc
       -0.0074105 0.035415154 0.0008456688 -0.024510175
000280 96 89 47 bd bb cf c5 be 67 1f 1e 3c c9 f1 4e be
       -0.048715197 -0.38635048 0.009651042 -0.20209421
000290 ee 53 a6 bc e7 0d b7 3d 91 78 46 3d 37 3c 1e bf
       -0.020303693 0.089381985 0.048454825 -0.6181063
0002a0 7d 50 a7 bc 8e 39 8b 38 d3 59 c7 be a4 8e 7e be
       -0.020424122 6.638757e-05 -0.38935718 -0.248591
0002b0 3e 3d d3 bb 6f ae 75 3c c4 70 82 bc 1d 7a a9 3c
       -0.0064465096 0.0149952015 -0.015922911 0.020688111
0002c0 9d 76 35 bd 03 53 a0 be cd f9 83 bd f8 4a 64 bf
       -0.04430257 -0.31313333 -0.0644413 -0.89176893
0002d0 15 20 09 3c 91 51 cf bb e5 b2 f0 be fd 6c 7c 3c
       0.008369465 -0.006326862 -0.47011486 0.015406844
0002e0 a0 74 6d be 20 b2 c7 bd 0e 90 4d 3c 4a b2 9c bc
       -0.2318902 -0.097507715 0.012546552 -0.019127984
0002f0 c9 fe 4c be d1 9e 6e 3e cf 4d 64 bf f4 34 8b 3d
       -0.20019068 0.23302771 -0.89181226 0.067972094
000300 6b c7 14 bc e7 e8 fb bd 43 aa 01 bf 4b 33 ca 3b
       -0.009080748 -0.12300282 -0.50650424 0.0061706654
000310 40 e5 c7 3d dc 58 d2 3c c6 7e 83 3c c9 be 98 bc
       0.09760523 0.025677137 0.016051661 -0.018645661
000320 9a 4f 52 3c 6a 81 13 bd c8 14 37 bd bf 6d 12 3d
       0.012836361 -0.03601209 -0.044697553 0.035749193
000330 59 76 99 bc e7 21 3f 3a 32 1e 45 be 03 e4 c1 bc
       -0.01873319 0.00072911236 -0.192498 -0.023668295
000340 e5 59 32 be 34 b9 b7 3e da 8e 20 bf 19 4c b3 bc
       -0.17417105 0.35883486 -0.62717974 -0.021886872
000350 d3 6d 24 3d e2 49 eb be 0c 74 a3 bc 47 80 42 bc
       0.0401438 -0.45954806 -0.019952796 -0.011871404
000360 63 6f ae bd 79 08 83 bc a9 d0 27 bf 39 9c 6b 3e
       -0.08517339 -0.015995251 -0.65552765 0.23008813
000370 0d d4 de 3c 00 6b 74 3b c0 01 ab be 11 06 05 3d
       0.027200723 0.0037295222 -0.33399773 0.03247649
000380 ac 82 e3 bb a6 80 2c bf f1 36 05 bf 34 4a c8 bd
       -0.0069430675 -0.673838 -0.5203696 -0.09779778
000390 53 a6 74 bb 96 0d a0 be d2 f0 4a bf 9f 96 89 3c
       -0.0037330582 -0.31260365 -0.7927371 0.016795455
0003a0 8f ec d4 bc 87 f7 a2 be 80 0e b8 3c 4f 04 ac bc
       -0.025991706 -0.31829473 0.022467852 -0.020998148
0003b0 1f 2c f9 bb 74 c5 38 be cb e9 cd bc a8 9e f9 bd
       -0.0076041366 -0.18044072 -0.025135895 -0.121884644
0003c0 48 30 e5 3d 55 9f b7 3d 65 79 05 bd 22 56 a2 3b
       0.111908495 0.08965937 -0.032586474 0.0049541155
0003d0 9c a5 e8 bc 22 8e 3a bf dc 38 a1 be 48 19 c0 bc
       -0.028399281 -0.7287313 -0.31488693 -0.023449555
0003e0 dd f2 59 bf 15 77 07 be fb e2 83 3e 89 e4 fb bc
       -0.85136205 -0.1322902 0.2575911 -0.030748622
0003f0 e3 75 69 bd 5a 65 1b bd 61 24 24 3e d1 f4 cd 3e
       -0.05699719 -0.037938453 0.16029502 0.40225843

a2c_network.actor_mlp.2.weight f4 [256, 256]
000000 b5 ee d8 bd 92 2e 99 be 63 fd 82 be bd c3 63 3d
       -0.10592405 -0.29918343 -0.25583944 0.055606592
000010 97 ce 6b be 2e 9f 8a 3e d4 61 5d 3d 7b 62 81 3e
       -0.23028027 0.2707457 0.054048374 0.25270447
000020 e0 13 98 3d 73 c6 01 bd 92 c0 91 bb 3a 74 86 be
       0.07425666 -0.031683397 -0.004448005 -0.2626055
000030 98 73 d5 3d 4b b5 7b be e3 ab 34 be d9 5c 63 be
       0.104224384 -0.24580877 -0.17643695 -0.22203387
000040 c7 97 3e be 8c d3 b6 be a6 3a 77 be ac 40 e3 3d
       -0.18612586 -0.35708272 -0.24143466 0.110963196
000050 5d 78 91 be 54 47 e8 bd dd dc 84 3e 4a 32 cc bd
       -0.28412142 -0.1134173 0.25949755 -0.099705294
000060 88 65 18 3e ec ec 23 bd 9c 40 06 bf c5 8c 42 be
       0.14882481 -0.04002087 -0.52442336 -0.18999012
000070 61 31 0b be 42 df d9 b9 d7 08 8b be 1e 99 8b be
       -0.13593055 -0.00041555805 -0.27155182 -0.27265257
000080 0e c5 44 3e 1b 50 49 3e cd 93 ac 3e e6 dc cc be
       0.19215795 0.19659464 0.33706513 -0.40012282
000090 d3 05 47 3e 60 fb 97 3c 49 bf 95 3e 27 82 f5 3d
       0.19435816 0.018552482 0.29247501 0.11987715
0000a0 bc 47 47 bf c0 f3 e5 3e 6e 8a 77 be 35 25 d4 bc
       -0.7784383 0.4491253 -0.241739 -0.025896648
0000b0 e0 93 5f 3e 88 7c 65 3e 83 19 1b be 75 19 2a be
       0.21833754 0.22410786 -0.1514645 -0.16611274
0000c0 a6 89 29 3e c4 23 e5 3d f8 df 93 bd 97 59 bf bd
       0.16556415 0.111884624 -0.07220453 -0.0934326
0000d0 19 3b 6c be bc 9d 83 be 15 6f c6 3d a5 55 c9 be
       -0.23069419 -0.2570628 0.09689156 -0.39323154
0000e0 14 d2 36 be 87 ea 4e be 97 ce 44 3e 82 4a 07 3e
       -0.17853576 -0.20206653 0.19219433 0.13212016
0000f0 b9 48 b6 3c 87 3b 07 be 32 6a 8c 3e a8 c2 93 bd
       0.022251474 -0.13206302 0.2742477 -0.07214862
000100 c5 9a ad 3d 50 5e 1e be a9 bb 64 3e ba f4 8c be
       0.084767856 -0.15465665 0.22337212 -0.27530462
000110 d9 60 42 bc 16 cb e3 bd d7 6c d3 bb 5f af b2 be
       -0.011863911 -0.1112272 -0.0064521837 -0.34899423
000120 9d 01 5b 3d d0 36 5f be 2f 43 25 be 2e bf 89 be
       0.053468335 -0.21798253 -0.1613891 -0.2690367
000130 18 b7 aa be 24 9a d4 3d 72 df 23 bc f8 13 df 3e
       -0.33342814 0.103809625 -0.010002004 0.43569922
000140 2b 29 dd bd 7b 18 40 3d 3a 90 09 ba 89 8c 37 3e
       -0.10798868 0.046898346 -0.00052476267 0.17924704
000150 48 a4 c7 3e 17 2d 7f be d1 f8 12 be 5a 39 d4 3d
       0.38992524 -0.24919544 -0.14352728 0.103625014
000160 f5 fc d3 be 94 c9 2a 3d b7 50 a4 bd f6 ec 54 be
       -0.41403928 0.041696146 -0.08023208 -0.20793518
000170 f6 c2 48 bd c1 0f 09 3e 71 ab 62 3e e4 fe 33 bd
       -0.049014054 0.13384916 0.22135712 -0.043944255
000180 11 f9 88 3d b5 fe 75 3e f2 3e 88 3d e4 81 8b bd
       0.06688131 0.24022944 0.06652631 -0.06811884
000190 23 66 ed 3c 38 34 cc bd e3 17 17 3e 77 26 55 bd
       0.028979367 -0.099708974 0.14755206 -0.052038636
0001a0 22 73 47 3d f6 df 31 be 82 58 5f 3e 93 5b 57 be
       0.048693784 -0.1737059 0.21811107 -0.21031027
0001b0 e1 d6 05 3e f5 8c 64 be a8 4c a4 3e 59 2e 86 be
       0.13070251 -0.22319396 0.32089734 -0.26207235
0001c0 25 74 4b 3c 88 03 6a 3d ee f1 03 bf 96 a8 62 3e
       0.012417828 0.057132274 -0.5154103 0.22134623
0001d0 31 33 74 3d 96 f0 e1 bd ca 59 cd 3c e0 4f 34 be
       0.059619132 -0.11032216 0.025067229 -0.17608595
0001e0 0e 31 2e be e6 4f 4a 3b 64 c5 91 be f3 a0 b8 bc
       -0.170109 0.0030870377 -0.2847091 -0.022537684
0001f0 62 23 0e bd 9d 5e 1b bc 56 83 59 be 7b 96 73 be
       -0.034701712 -0.009483007 -0.21241507 -0.23787872
000200 a6 f7 12 3e 4e 3c dd bc 95 ea 73 be a5 34 60 3e
       0.14352283 -0.027006295 -0.23819955 0.21895082
000210 5e 5e 92 bd 02 d2 16 3d 81 4a 00 3f d7 9b 8a be
       -0.07146905 0.036821373 0.50113684 -0.2707202
000220 38 18 ab 3d 5a bf a6 3e 71 b5 80 3e a4 8b 31 3e
       0.08354229 0.32567865 0.2513843 0.17338425
000230 b4 29 cf 3e c2 ac 86 3e 30 53 b0 be 1d aa f9 bd
       0.40461504 0.2630368 -0.34438467 -0.1219065
000240 29 e6 aa bd 89 e1 89 be 4d 85 96 3c ec 98 bc be
       -0.08344681 -0.26929882 0.01837411 -0.3683542
000250 52 0a cd 3d 76 a3 eb 3b 39 89 a8 bd 3e f7 7a bd
       0.10011734 0.007191117 -0.08229298 -0.061270945
000260 62 f6 94 bd 16 1c b0 bc 7c af 51 be 96 ab 70 3e
       -0.07273556 -0.021497767 -0.20477098 0.23502955
000270 ca 50 a2 be 7c 0e 5a 3e 95 66 4a 3e 06 b7 31 3e
       -0.31702262 0.21294588 0.19765694 0.17354974
000280 d7 12 be bd 14 72 a7 3d ec a2 df bd c3 7f 21 be
       -0.09280937 0.081760556 -0.10919747 -0.15771393
000290 ef 18 e8 bd a3 0f bd 3d 52 ea 6d bc 29 69 57 bd
       -0.11332881 0.09231498 -0.014521198 -0.052590523
0002a0 50 dc 91 3e 68 cb 9a 3e c6 6b de bd 8e fb a8 be
       0.28488398 0.30233312 -0.108604 -0.3300442
0002b0 24 b8 48 3e f7 46 8e bd 14 95 6b be 27 b3 af bd
       0.19601494 -0.06947129 -0.23006088 -0.085790925
0002c0 ed 65 32 3e 61 62 b7 bd d4 45 84 3e 97 c2 89 be
       0.17421694 -0.08954311 0.25834525 -0.26906273
0002d0 d7 7a 1e 3e 88 68 b2 bd 78 6f f0 be 99 dd a5 bd
       0.15476547 -0.08711344 -0.46960044 -0.08098907
0002e0 ab 24 b1 3c 98 20 2f 3c c4 48 cf 3e ec b9 9e 3d
       0.02162393 0.010688923 0.40485203 0.077503055
0002f0 b2 c2 7d be ec c2 bb bd c4 b5 92 3e 31 45 a0 3e
       -0.24781302 -0.09168038 0.286543 0.3130279
000300 f6 7f a6 bd d2 47 18 be 1c 62 63 3d c1 ee f8 3c
       -0.08129875 -0.14871147 0.055513486 0.030387284
000310 5c 80 6c be a7 38 97 3d 01 41 c2 3d 48 f7 a1 3e
       -0.2309584 0.073838525 0.09485055 0.31633973
000320 e7 e6 98 bd a8 11 e0 bd 00 a1 c1 be 72 19 c1 bc
       -0.07465916 -0.10940868 -0.37818146 -0.023571704
000330 10 24 d2 be d8 a4 b3 bd 0a c5 ca 3c c0 c7 0d 3e
       -0.41043139 -0.08771676 0.024752159 0.1384573
000340 bc c7 fe bd 1d 95 02 3e bd 3b 2d be a9 96 92 3e
       -0.1244044 0.12752195 -0.1691732 0.2863057
000350 6b fc 2b 3d a2 95 9b be 78 9d 81 3e 46 5f d7 bd
       0.04198877 -0.30387598 0.25315452 -0.10516219
000360 32 ba 32 be b8 08 d3 3d f7 f7 08 be 5b 0c b8 bb
       -0.1745384 0.10304397 -0.13375841 -0.0056167073
000370 40 10 35 3e f5 c8 79 3e cf 80 69 be 20 c2 14 bd
       0.1768198 0.24393065 -0.22803043 -0.036317945
000380 3c d0 64 bd ef 2a 5d be 06 57 90 be 88 e0 dc bd
       -0.05586265 -0.21598409 -0.28191394 -0.107850134
000390 6f 38 07 3e 9e 30 85 be 7f bd a7 bd 65 42 e7 3d
       0.13205121 -0.26013654 -0.081904404 0.112919606
0003a0 eb 17 6b 3e c4 a3 91 3b f2 b7 db 3d 28 98 6d 3e
       0.22958343 0.004444571 0.10728444 0.23202574
0003b0 43 47 82 bc 9c 08 e2 bd 78 1a 9d be 9b 98 77 3e
       -0.01590312 -0.11036798 -0.30684257 0.24179308
0003c0 d1 ab 90 be 80 15 50 3e 3a 79 7b bd 34 b4 e7 3d
       -0.28256086 0.20320702 -0.061394908 0.11313668
0003d0 c2 0f db 3d 74 85 17 bd 76 7c a6 3d c0 a0 87 3e
       0.10696365 -0.036992505 0.08129208 0.2648983
0003e0 6c cd 6f bc 4a ac e4 3e d1 5d 22 3c 24 56 03 be
       -0.014636379 0.44662696 0.009910063 -0.12825829
0003f0 70 bd c7 3c 3c 99 92 3c 61 6e 27 be e3 85 13 be
       0.024382323 0.017895333 -0.163507 -0.14406542

a2c_network.actor_mlp.2.bias f4 [256]
000000 cf d8 79 be 5f 24 af bd 5e 39 05 3b 99 03 36 3d
       -0.24399112 -0.08551859 0.0020328383 0.044437025
000010 0e a5 ff bc 30 5c 46 bc 7a 8c 67 bc 19 24 b3 3c
       -0.031206634 -0.01210694 -0.014132613 0.021867799
000020 5a fc 92 b9 9e 8b 92 3d 04 a1 96 3d c9 d1 65 bd
       -0.00028035307 0.07155536 0.0735493 -0.05610827
000030 cf 0f 53 bc 83 62 10 3d e3 c1 c9 bc 0c 47 1e 3b
       -0.012882187 0.035250198 -0.024628585 0.0024151234
000040 fb e5 08 3d 1d 0c c3 3b b8 1f d7 3b ff 36 c8 bc
       0.03342245 0.0059523718 0.0065650605 -0.024440287
000050 fb 50 3d bc ac 12 02 bd 42 3a a0 bc 71 ec e7 3b
       -0.011554952 -0.03175609 -0.01955903 0.0070777466
000060 b1 98 8d bd 85 68 6b bd 53 2f d0 bb d4 0a 8a bb
       -0.06913889 -0.057472724 -0.0063532977 -0.0042127166
000070 46 5f ce 3b 39 27 95 3c 3b 59 37 bd d9 bd 83 be
       0.0062979786 0.01820718 -0.04476283 -0.2573078
000080 72 04 2b 3d cf d2 14 bd 00 e2 f1 bc 61 fd dd bc
       0.041752286 -0.036333855 -0.02952671 -0.02709836
000090 8c 90 9f 3c 81 0e 04 3d 40 d4 8d bc 80 4f 0e bc
       0.019478105 0.032240395 -0.017313123 -0.008685946
0000a0 66 3f 9c bd d9 6c bd 3c d9 50 04 3d a0 13 b8 b9
       -0.0762928 0.023123192 0.032303665 -0.00035109837
0000b0 1c 9e 24 bc 8d 40 6e 3c de 9a 1b bf 9b 7f 21 bd
       -0.010047462 0.014541757 -0.60783184 -0.039428335
0000c0 10 39 06 b9 7d 7b 6f bd af fd 4c bd 77 a5 d1 3c
       -0.00012800493 -0.058467377 -0.05004662 0.025591595
0000d0 03 72 a5 bc f8 52 3e bd cc 53 c3 3b e3 f9 05 3d
       -0.020195967 -0.046465844 0.005960917 0.032709014
0000e0 91 d7 7f bc 1d 34 54 bd 6c 59 24 bc 83 42 df bc
       -0.01561536 -0.05180751 -0.010031085 -0.027253395
0000f0 eb 0a 86 bb c9 57 e6 3c 40 04 09 3d 59 b5 0e bc
       -0.004090657 0.028118031 0.03345132 -0.008710229
000100 2e 1c 1c bd 28 1c 5a 3b 8c 4d 92 bd 50 83 49 bb
       -0.03811281 0.0033280943 -0.07143697 -0.0030748434
000110 33 a4 7b bc 79 c7 61 be 12 13 e0 be 23 a4 e7 3b
       -0.015358972 -0.22048749 -0.4376455 0.007069127
000120 5a 63 11 bd ea d2 25 3d b2 b9 96 bd be 40 ed 3b
       -0.03549514 0.040484346 -0.07359637 0.007240384
000130 32 8a f2 3c d7 76 00 bd 9a c5 f0 bc 12 74 09 be
       0.029606912 -0.031363335 -0.029391099 -0.13423184
000140 2a 77 66 3c 6a c2 a9 bc fd 90 09 bf ef 9c 00 bd
       0.014066497 -0.020722587 -0.5373686 -0.031399664
000150 d0 58 d2 3c ca 5c 41 3b d1 5f a6 b9 d1 e8 22 bd
       0.025677115 0.002950477 -0.00031733376 -0.039772812
000160 ab 3d 12 be 72 d8 c3 3c cf ee 91 be e3 d3 04 3d
       -0.14281337 0.02390692 -0.2850251 0.032428633
000170 cd b4 43 bc b3 da 1d 3c ad 9e 7a bc e3 1e 81 3d
       -0.011944962 0.0096346615 -0.01529662 0.06304719
000180 b9 1d f9 b9 f8 83 28 bd c6 59 8c 3d 6b 3c 88 3b
       -0.00047515126 -0.04114148 0.068530604 0.004157593
000190 12 4c 52 3d 77 ac c6 bc 20 26 13 bd 76 09 b2 3c
       0.051342078 -0.02425216 -0.03592503 0.021733027
0001a0 12 04 09 bf a0 52 bc bc e6 ef 26 bc d5 bc 73 be
       -0.53521836 -0.022988617 -0.010189032 -0.23802502
0001b0 98 e7 53 3d 04 a1 87 3c 78 60 42 bd fe 7d b0 bd
       0.051734537 0.01655627 -0.04745528 -0.08617781
0001c0 c3 3a 11 3d 0c 04 19 bd ce c3 d3 be 8c 6b 03 bd
       0.03545643 -0.037357375 -0.41360325 -0.032084987
0001d0 a8 86 27 3c e5 14 b7 bc ef a7 2f be 86 fb 4c bb
       0.010224976 -0.02234883 -0.17153905 -0.003127785
0001e0 08 5f 9f bc 53 f1 84 3c 3e 19 32 bb 2a 77 26 bc
       -0.019454494 0.016228354 -0.002717569 -0.010160247
0001f0 b4 9e 66 3b ec 6f 59 be e8 13 20 3c dd b1 37 bd
       0.003518981 -0.21234101 0.009770371 -0.044847358
000200 af 34 86 3d 6c ac a1 be 79 dd dd 3c bd 80 ac bc
       0.06553017 -0.3157686 0.027083145 -0.021057481
000210 5e f4 11 3d 7a 74 0a 3d 53 5a 7d bd ea f2 11 bd
       0.035633437 0.033802487 -0.061853718 -0.03563205
000220 8a 88 09 bc 84 20 36 bd a6 ec 1a be e7 97 2e 3d
       -0.00839437 -0.044464603 -0.15129337 0.042625334
000230 39 83 0f 3d ef 1e af bb c6 02 0b be a7 2a 53 bd
       0.035037253 -0.0053442637 -0.13575277 -0.05155435
000240 de d2 e2 3b 5d 36 df bc 0c 53 1f bd 27 13 0d bd
       0.00692211 -0.027247602 -0.03889756 -0.034442093
000250 c3 ff f6 bd 66 cc f4 bd b0 e1 d3 3d 47 24 af bc
       -0.120605014 -0.119530484 0.10345781 -0.021379603
000260 19 8e ac 3c bc 70 11 bf e0 3a 19 3d 44 a1 0a bb
       0.021063851 -0.56812644 0.037409663 -0.002115325
000270 27 5f 3a bc 49 68 c8 be 5d 6b c1 be 66 e7 b0 be
       -0.011375225 -0.39142063 -0.37777224 -0.34551543
000280 4d f0 07 bd e4 57 3a bf ca 3c ea bc 12 ca 09 bd
       -0.033188153 -0.7279036 -0.02859344 -0.033639975
000290 25 1c 4f be f2 2e b8 3c 66 a4 43 bb a7 b0 f9 3c
       -0.2022558 0.022483323 -0.0029852628 0.030479742
0002a0 33 36 d9 bb e0 9d 74 bc f5 23 2d 3d 51 f9 be bc
       -0.0066287755 -0.014930218 0.04227062 -0.023312243
0002b0 aa cd e8 3c 23 95 23 bc 3a 23 56 3a 34 ef 38 3d
       0.02841838 -0.009984287 0.00081687013 0.045149997
0002c0 08 68 1d 3c da f6 86 bf 83 47 d6 3c 9b 77 01 bd
       0.0096073225 -1.0544083 0.026157146 -0.031608205
0002d0 dd 2e a1 bd a3 1b 41 3d ea eb 7e bd fd 64 4b bc
       -0.078702666 0.047145497 -0.062236704 -0.012414214
0002e0 58 34 df 3c da 7d 5b 3b cc 1a 84 be 5a 75 0b bc
       0.02724664 0.0033491761 -0.25801694 -0.0085118655
0002f0 1a ff 9c 3c 2d 9c f7 be 30 f9 c3 3c fd 79 da bc
       0.01916461 -0.4836134 0.023922533 -0.026669497
000300 5d 56 fc 3c fa c6 54 bd bd cd ed b9 d0 b4 4e 3c
       0.0308029 -0.05194757 -0.0004535745 0.012616351
000310 51 7b b3 be 0b 2a 3d be 53 71 74 3b 44 98 8e ba
       -0.3505502 -0.1847307 0.0037298992 -0.0010879119
000320 94 15 a1 bc 7e 09 a5 3b 17 4b 19 3c 80 71 23 bc
       -0.01966361 0.005036532 0.009356282 -0.009975791
000330 de 6f 64 3c b3 dd d9 be 0d 77 a4 be 6b 1f 6e be
       0.013942687 -0.42551956 -0.3212208 -0.23254173
000340 37 b7 d1 bc 94 50 70 bc 0d 34 76 bc 39 8d 24 bd
       -0.025600059 -0.014667649 -0.015027058 -0.040173743
000350 09 26 3d bd 40 d6 6b bd f9 2d 6b 3c fe 39 bd bc
       -0.04617885 -0.05757737 0.014354222 -0.023098942
000360 2e c0 aa bb 36 cc a1 bd f2 c2 1d 3d 25 eb 46 3d
       -0.005210898 -0.07900278 0.038515992 0.048564095
000370 95 52 f3 3c ac ae 5d bd 0b aa bb 3c 3d 15 50 bd
       0.029702464 -0.05412166 0.022908231 -0.050801504
000380 c9 f9 6d be 0d 2a 38 bc bc 90 09 3d 5f 63 72 3b
       -0.23239817 -0.011240494 0.033585295 0.00369855
000390 73 95 a3 bd b1 f9 f1 3a e1 51 46 3d 75 c4 df bc
       -0.079874896 0.0018461255 0.04841793 -0.027315358
0003a0 07 1e a2 3d 54 c9 69 3e c6 ff 1e bc 6c 43 fa ba
       0.079158835 0.22830707 -0.009704536 -0.001909358
0003b0 2f 72 80 bc 56 e0 81 bb 99 72 c0 3c e6 27 90 3d
       -0.015679447 -0.0039635105 0.023492144 0.0703886
0003c0 97 0a 5d bb 04 6a d7 bc f4 f1 f4 bb b0 e5 e2 3c
       -0.0033728236 -0.02629567 -0.007475132 0.027697414
0003d0 8a c0 ad bb eb a5 c1 3c 4a 7c e5 3b a5 88 1a bd
       -0.0053024935 0.023638686 0.007003342 -0.03772797
0003e0 6f 10 45 3d 22 26 04 3d 98 a0 34 3d 78 ad 6c 3c
       0.048111375 0.03226293 0.044098467 0.014445655
0003f0 be ce 80 3e 32 ae c6 3c 31 2e fb bd 7a 20 bf bc
       0.25157732 0.024252985 -0.1226467 -0.023330916

a2c_network.value.weight f4 [1, 256]
000000 85 ac 09 3d 95 aa 80 3c 45 e5 b3 bb d1 4a a2 ba
       0.033611793 0.01570634 -0.0054899775 -0.0012381916
000010 49 aa 0f bb 5b da 89 ba 21 f1 ba ba be c8 e0 bc
       -0.0021921566 -0.0010517346 -0.0014262536 -0.027439471
000020 fb 38 83 bc 10 4d 3f bc ec 84 2d 3d 16 30 d9 ba
       -0.016018381 -0.011676088 0.042363092 -0.0016570117
000030 f3 a6 93 bb 7d 91 8e 3c a1 dd 33 3c 5a ea b7 39
       -0.004505986 0.017403359 0.010978133 0.00035079086
000040 5e 15 78 bc b5 71 72 bd 24 93 16 bc 68 e5 b2 3c
       -0.015141813 -0.05919047 -0.0091903545 0.021837905
000050 fe 58 46 bb a0 b0 a9 3c a1 e5 47 3b 0b 93 2f bc
       -0.0030265446 0.020714104 0.003050186 -0.01071621
000060 4e a2 58 bc 72 5f 40 3a 34 c3 4d 3c e6 a0 55 bc
       -0.01322229 0.0007338441 0.012558747 -0.013038849
000070 fd eb f6 bb 2d 37 03 3c b0 a5 52 3f 1f b8 1b bd
       -0.007535456 0.00800876 0.8228407 -0.03801739
000080 42 96 45 bc 14 05 5f 3c 3e 0a 67 3c 77 35 a7 3b
       -0.01205975 0.013612051 0.014101563 0.005102809
000090 be 46 ba 3b a9 f7 a8 bc c8 cb df 3b e8 c6 de 3b
       0.0056847027 -0.020625906 0.0068297125 0.006798614
0000a0 e1 ee b1 38 d5 ee 82 bb 9f 52 2b 3c 12 a5 2c bc
       8.484512e-05 -0.003995756 0.01045671 -0.010537403
0000b0 7a fa cf bc 6f 8b 62 3c c4 e1 28 be 1c 6b d0 bc
       -0.025387991 0.013827189 -0.16492373 -0.025441699
0000c0 67 b3 32 3c e3 fa a3 3d 72 d5 e4 3c a6 48 a0 3c
       0.010907031 0.08006837 0.02793381 0.019565891
0000d0 c9 37 4c bd 09 ad 9f 3c fc 6f c5 ba e9 60 c6 3d
       -0.04985789 0.01949169 -0.0015063281 0.09686453
0000e0 b4 c7 d7 3b 68 c9 f6 3b ba 1d 12 3d 29 93 2e 3c
       0.0065850858 0.0075313337 0.03567288 0.010655203
0000f0 b8 47 17 bc 8f 3e 19 3d ba 44 80 bc 84 fa bf bb
       -0.009233408 0.037413176 -0.015657771 -0.005858721
000100 09 8d 9f bc c0 52 33 3b 54 a7 28 bc 35 01 94 3c
       -0.01947643 0.0027362555 -0.0102938 0.018066982
000110 2c e1 c4 3b 76 a2 97 bc c5 79 32 be b4 11 a9 bc
       0.006008288 -0.018510085 -0.17429264 -0.020638324
000120 14 d6 93 3c e3 9a 17 3d 46 7a 1a 3e 35 61 19 bc
       0.018046416 0.037012946 0.15085706 -0.009361555
000130 2a 6e 2e bb 0b 99 a3 3c 7b f2 18 3b 53 88 71 bd
       -0.0026615956 0.019970438 0.002333789 -0.0589679
000140 4d c2 61 bc 81 95 3e bc a9 55 8b 3c 50 92 28 3b
       -0.013779235 -0.011632324 0.01700862 0.0025721975
000150 dc 41 18 bc af 98 44 3c 86 e7 42 3c c4 22 0a 3c
       -0.009293046 0.011999293 0.01189602 0.00843114
000160 d3 9c 60 bd 12 c5 ae 3b f1 be 59 bd e7 85 a4 ba
       -0.05483706 0.005333551 -0.05316061 -0.0012552113
000170 de a4 97 3b 76 a3 b0 bc 40 44 f1 bb 46 52 38 3c
       0.004627808 -0.02156232 -0.0073628724 0.011250084
000180 3f 84 4b bb 80 ac 8a 3c 54 0a d2 bc 7e c9 ca bc
       -0.0031054167 0.016927958 -0.02563969 -0.024754282
000190 f3 a3 a8 bb 95 8b d5 3c 54 21 af bc ec e3 cd 3b
       -0.0051464974 0.026067534 -0.021378197 0.006283274
0001a0 fc d2 ae ba 30 5b 20 bd 2f d6 68 3c 76 52 98 3b
       -0.0013338025 -0.039149463 0.014211222 0.004648502
0001b0 b2 90 1b bd f6 2f 3a 3c 79 32 8d bc d2 14 e6 3b
       -0.03797979 0.011363974 -0.017235981 0.007021525
0001c0 12 29 25 3e 4e ce 96 3c da 66 e2 bd 0a 15 a4 3b
       0.16128948 0.01840892 -0.11054774 0.005007391
0001d0 89 a7 83 3c 93 6e c0 bc 7f d4 48 3c d8 59 3c bc
       0.016071098 -0.023490226 0.012257694 -0.01149603
0001e0 c6 84 64 3e 99 bb 4a bb d9 62 a2 bc 4e 71 66 3a
       0.22316274 -0.003093457 -0.019822525 0.00087906874
0001f0 72 a3 53 3c 92 2a 87 bd ce eb 89 bb 77 26 40 3c
       0.012917386 -0.065999165 -0.0042090183 0.011727921
000200 58 64 2b 3d a4 6d 41 3c 79 0a 33 3c 9e dc cd ba
       0.041843742 0.0118059255 0.01092779 -0.0015706008
000210 5b a0 2f bd 13 ef 61 bb 3d eb a4 3c 40 14 f4 bc
       -0.042877536 -0.0034474775 0.020131702 -0.029794812
000220 ef d2 9b 3a 95 af 08 bc 46 33 aa 3a 1d 79 61 bb
       0.0011888425 -0.008342643 0.0012985251 -0.0034404465
000230 3d 13 1d bc 43 8b 04 3c 3e f7 a6 be 7b 7a 91 3a
       -0.009587106 0.008089843 -0.32610506 0.0011099124
000240 b8 40 8f 3a a8 4c ee 3d 67 ce b4 bc 88 c0 e5 3c
       0.0010929322 0.11635715 -0.022071077 0.028045908
000250 27 f3 eb 3c 5c 5c 18 bd 7a 02 8e 39 48 fe b7 bb
       0.028802468 -0.037197456 0.00027086196 -0.0056150295
000260 4a 72 d9 b9 c1 3c 22 be 5b 7d 8b 3b 00 34 ba bc
       -0.00041474617 -0.15843488 0.004256887 -0.022729874
000270 48 20 42 3c 61 24 20 be ed 5a 08 be f4 5c 8f bc
       0.011848517 -0.15638877 -0.13315935 -0.017500378
000280 15 6e 9c bb 99 56 6b be f0 58 ba 3c b0 d1 67 bc
       -0.004773865 -0.22982253 0.022747487 -0.0141491145
000290 42 c5 44 3d d4 a0 58 3a 26 c1 10 bd fa 7d 38 3c
       0.048039682 0.00082637114 -0.03534045 0.011260504
0002a0 c2 0d fb bd 70 ae 04 3d 65 5c 4f ba 90 6f e9 3d
       -0.122584835 0.03239292 -0.0007910191 0.11398232
0002b0 28 2e f4 bb 83 71 88 3c 21 c8 8f bc 72 f8 40 3d
       -0.0074517913 0.01665569 -0.017551484 0.047111936
0002c0 35 30 0e 3d f0 f4 93 bc 8d de a5 3b 33 e8 ff 3b
       0.034713943 -0.018061131 0.0050619305 0.0078096627
0002d0 bb a5 25 3d 07 94 2f 3e d8 1b 24 3c 06 92 8a 3c
       0.040441256 0.17146312 0.010016404 0.016915333
0002e0 27 6e fc bc fe 86 29 3c 2a 94 31 bc 29 e6 a7 bb
       -0.030814243 0.010347126 -0.010838548 -0.005123873
0002f0 4b c3 4b 3c c1 05 9e 3b 02 02 bd bc ba ca 68 b8
       0.012436698 0.0048224633 -0.023072246 -5.5501914e-05
000300 b6 9e 79 3b 4a 93 17 3d 24 1e 98 3c 95 71 b2 3c
       0.0038088984 0.0370057 0.01856906 0.021782676
000310 28 16 ef bc 24 a1 ca 3c eb 88 5f 3c 27 18 34 bc
       -0.02918537 0.024735041 0.013643484 -0.0109920865
000320 4d 35 93 3b 5d 6e 13 3c 9a 4e ae 3d 9e ca 41 3b
       0.004492438 0.008998481 0.08511086 0.0029570232
000330 6f 72 66 3c 2e 94 30 bc 50 bc ef 3b 39 86 45 3b
       0.014065369 -0.010777516 0.00731615 0.0030139817
000340 6a 3e 3f bc 61 a7 4b bc cf 4b 1f be 21 b6 39 3c
       -0.0116725955 -0.012430043 -0.15556262 0.011334927
000350 1e 30 0f bc cd 59 3e 3c 37 0b 26 3c b4 fd 5b bb
       -0.008739499 0.01161809 0.01013451 -0.0033567967
000360 b7 4a 6e 3c 9f 90 5e 3e 19 6d 4d 3c a8 56 94 bc
       0.014544181 0.21734856 0.012538218 -0.018107727
000370 3d 22 87 bc 56 b0 b7 3d 88 10 85 bc 62 76 02 ba
       -0.016495818 0.0896918 -0.016243234 -0.0004976747
000380 68 33 8c bd c1 83 b6 bb 7d a7 c4 bc 56 4e 65 3c
       -0.068457425 -0.0055699055 -0.024005646 0.0139957275
000390 b1 e0 b0 bd e0 e6 ad ba de d4 88 3a 07 4a 69 bb
       -0.086366065 -0.0013267659 0.0010439416 -0.0035597102
0003a0 22 a7 13 3e 41 55 34 3e d4 2b 33 bc d9 fa 8f bb
       0.14419225 0.17610647 -0.010935742 -0.004393917
0003b0 92 36 1a bd b6 5e 31 bb 56 96 84 bc 15 8f 4e bc
       -0.0376497 -0.0027064509 -0.016184967 -0.012607356
0003c0 65 3c 6d 3c 81 90 6d 3b c6 64 bf 3c 62 ab b9 3b
       0.014479731 0.003624946 0.023363482 0.0056661824
0003d0 1d 5b 93 bd 1f 78 1a bc 22 35 ea bb d7 e3 ee 3b
       -0.07195113 -0.009428053 -0.007147447 0.007290344
0003e0 87 bf e0 bd 91 8b 48 bc fc 62 04 bc 24 a1 83 3d
       -0.10974031 -0.0122403065 -0.00808024 0.064272195
0003f0 9c 60 14 3f 91 1e 15 bc 09 ae d0 bc 0d c0 e3 3d
       0.57959914 -0.009101526 -0.025473611 0.11120615

a2c_network.mu.weight f4 [6, 256]
000000 6b bc df 3d 6c 6c 81 bd 5b 0c 96 3b f2 96 a3 bb
       0.1092461 -0.06319508 0.0045791096 -0.0049923593
000010 5e f5 a9 ba f3 07 ca 3b 3e 96 6b ba cf 53 15 bb
       -0.0012966802 0.0061654984 -0.00089869264 -0.002278555
000020 c3 d0 90 3a b5 7d ac b9 62 69 f6 3c 7f 6b 7f ba
       0.0011048544 -0.00032900056 0.030079547 -0.0009743496
000030 ff 7d 53 39 70 9a ad bc f8 3d dc ba 27 60 98 3b
       0.00020169465 -0.021191806 -0.0016803136 0.004650134
000040 fb b1 2e 3c a1 7c 94 3b 86 12 37 3b 3f 8b 2b bc
       0.010662551 0.0045314585 0.0027934625 -0.010470211
000050 ef f5 81 3a 46 0a 97 3a 02 e7 82 b9 01 dd 0d 3c
       0.0009915213 0.0011523447 -0.00024967646 0.0086586485
000060 0b 0e 63 bb f7 f2 c8 ba d2 3b 85 bb 2e ec 3f 3b
       -0.0034645821 -0.0015331198 -0.004065969 0.0029285061
000070 18 87 12 3c 1d b3 b6 3b e1 14 89 3d bf 89 ed 3c
       0.008943342 0.005575551 0.066934355 0.028996347
000080 a9 94 fe 3a 9d b4 84 3a 5c 5f a7 3a cb a9 4d 3b
       0.0019422966 0.0010124628 0.0012769508 0.0031381722
000090 fe 28 4c 3c 6e 84 17 3b f2 86 4d b9 4e 41 8a bb
       0.012460945 0.0023119706 -0.00019600595 -0.0042192107
0000a0 7a a7 ee 3a cd 03 55 bb aa 7f e6 3b 4a 5b 9e 3b
       0.0018207871 -0.0032503486 0.0070342617 0.00483266
0000b0 84 79 82 3b 68 23 b6 bb 2b cc 54 bd 82 be dc 39
       0.003981771 -0.00555842 -0.051952522 0.0004210361
0000c0 39 a8 e4 3a 5e 61 6c 3d d5 7d 61 3b 01 7f 50 3c
       0.0017445154 0.057710044 0.0034407277 0.012725593
0000d0 c7 28 60 ba 3f 40 63 bc 49 8a aa bb d5 22 41 3d
       -0.0008550998 -0.013870298 -0.005204473 0.04715236
0000e0 53 16 fd 3a f7 3b 6f ba 30 de f4 3b 62 ac a9 ba
       0.0019309021 -0.0009126062 0.007472776 -0.0012945051
0000f0 a6 17 46 ba c8 51 32 bb 67 31 5d bb 04 6c 2c bb
       -0.00075566245 -0.002720939 -0.003375137 -0.00263095
000100 63 7d 7f bb 32 bc 88 3a 8d f7 6a ba 7f 0e a7 bb
       -0.0038984648 0.0010432063 -0.00089632795 -0.0050981636
000110 bb 5c 0a 3c 17 a6 5f bd 2f e3 7d 3c c2 df 68 3b
       0.00844496 -0.054601755 0.015496059 0.003553376
000120 82 5e 32 3c b0 61 8a 3b 05 3d ee bd 08 a8 97 3b
       0.01088679 0.004223071 -0.11632732 0.004628185
000130 2b 85 04 bb 38 f7 fe 3b b6 1d b3 bb 14 d3 ac bc
       -0.0020220976 0.0077809356 -0.0054661883 -0.021096744
000140 03 31 3c 3a 4a a7 9c 3b d1 70 32 3c 56 a1 19 ba
       0.0007178934 0.0047806846 0.010891155 -0.0005860528
000150 cb 5e 24 3b 48 b6 5d bc b3 c3 a3 3a 01 fa 7a 3a
       0.0025080915 -0.013532229 0.0012494236 0.00095739966
000160 da 68 5d 3d 19 07 8c 3b 78 4a 2a 3e e4 a9 e2 ba
       0.054055072 0.004273307 0.1662997 -0.0017293063
000170 9e e9 ee 3a 75 45 9e 3b 12 9c a2 3a 2c 33 10 3b
       0.0018227582 0.0048300573 0.0012406132 0.0022003157
000180 0f 7a 4a bb 54 8f ee ba 7d b5 de 3b cd 90 84 ba
       -0.0030895506 -0.0018200674 0.0067965374 -0.0010113955
000190 6f 63 33 ba 0c c1 0a bb dd cc c6 bb ec f9 81 3a
       -0.0006843125 -0.0021172194 -0.006066902 0.0009916401
0001a0 af ae 58 3c 06 b1 75 3b 6d 17 74 3b e7 e8 00 3c
       0.013225242 0.0037489547 0.0037245408 0.007868028
0001b0 6b 6a 92 3b d2 98 80 3b 91 b6 87 ba f4 cc 13 bc
       0.0044682524 0.0039244676 -0.0010354092 -0.009021033
0001c0 f3 b4 96 bb 31 f1 20 3c 4e 46 b6 bd 59 3e f8 3b
       -0.0045992075 0.0098231295 -0.08900128 0.007575792
0001d0 02 9e a9 3b cf c2 d8 bc 7c 72 47 bc cc 6c f1 3a
       0.0051763067 -0.02646008 -0.012173291 0.0018419265
0001e0 63 7f f2 3c ea 8a f5 3b 1d 96 a2 ba 53 fc 40 3b
       0.029601758 0.0074933665 -0.0012404356 0.0029447272
0001f0 5b 98 9f 3c cb 06 89 3c 28 eb f1 3b 77 00 31 3b
       0.019481828 0.016726872 0.007382769 0.0027008334
000200 b8 83 a1 ba 09 3e a2 3d 7b 23 8f 3b e9 a4 c7 39
       -0.001232258 0.079219885 0.0043682433 0.00038079105
000210 54 df c6 ba 75 7b d5 ba d1 b0 18 3b f7 a4 d6 b9
       -0.0015172758 -0.0016287403 0.002329875 -0.0004094017
000220 c7 02 51 bb 60 c2 9c b9 da 91 b7 3c 0e 65 c0 3b
       -0.0031892525 -0.0002989946 0.022408415 0.0058714217
000230 88 61 48 3c 78 e8 5f bb ea 37 ee 3d 4b 11 33 ba
       0.0122302845 -0.0034165662 0.116317585 -0.0006830885
000240 4a f0 0c 3b c3 fc 3f 3d 45 1e 48 3c b3 79 2b 3c
       0.0021505528 0.04687191 0.012214248 0.010466027
000250 6f ce 1c be 33 18 85 3d f7 db 32 3b 35 04 49 3b
       -0.15313123 0.06498756 0.0027291754 0.0030672674
000260 41 58 b7 3b 25 4d a7 3e 4a 18 30 3c 8b 01 e8 3b
       0.0055952375 0.32676044 0.010747978 0.007080262
000270 29 8b ae bb 44 d1 db 3b ac da c3 bd 46 e6 0f bd
       -0.005326648 0.006708296 -0.09563193 -0.035131715
000280 ba 1e 46 bb 24 fb 75 3e 5a 6d 06 ba 6f 70 24 3b
       -0.0030230717 0.24021584 -0.0005127989 0.002509143
000290 de ea c6 ba c4 87 6c 39 19 db ff bb 9e 80 db 3b
       -0.0015176197 0.0002255729 -0.007808101 0.006698682
0002a0 c8 dd 8a bd 83 40 d3 bb f5 ad 9f 3b 89 d0 b6 3c
       -0.06780583 -0.0064468994 0.004873032 0.022316234
0002b0 04 b4 9d bb 06 70 4e 3a 0d 36 e4 3a 6d 6b 83 bb
       -0.0048127193 0.0007874969 0.0017411128 -0.004010609
0002c0 88 a5 02 bc ec 7c 0b 3e 71 0e 30 b9 db 81 5a 3a
       -0.007974036 0.13621873 -0.00016790048 0.000833539
0002d0 a6 77 88 bb ef 62 93 bc 3d 91 c0 3a 4a 95 26 3c
       -0.004164654 -0.017991511 0.0014691722 0.010167429
0002e0 ce d8 aa 3a 1e a2 44 3a 88 80 21 3d aa ac b9 bb
       0.0013034584 0.0007500964 0.039429218 -0.005666335
0002f0 0c 7e 08 3b 03 d4 36 3c 17 c3 a3 3b 4e 24 2c 3b
       0.0020827083 0.011158946 0.0049976218 0.0026266756
000300 6d eb 98 bb 06 e5 0e 3c 40 53 17 3c c3 fe bf 3b
       -0.004666737 0.008721596 0.009236157 0.0058592274
000310 bb f3 1b bd d5 e3 60 3c 43 d3 fe bc c0 db 38 3b
       -0.038074236 0.013726194 -0.031106597 0.0028207153
000320 68 ec f3 bb ca 09 0b 3c 5c b2 64 3e c0 f6 db 3b
       -0.0074439533 0.008486221 0.22333664 0.0067127645
000330 da 49 67 3b 7d 64 9e bd 1c 34 66 3c 0e 6f 10 3d
       0.0035291822 -0.0773401 0.01405051 0.03526216
000340 30 93 e1 3a 7f b6 4b 3b 8b 63 70 bd 41 a0 d7 bd
       0.0017210003 0.0031084118 -0.05868868 -0.10528613
000350 1f 9e 1c ba cf 89 50 bb f2 f0 2a 3b bd fb 0b 3b
       -0.00059744896 -0.0031820422 0.0026083556 0.0021359765
000360 40 a5 27 3c cd f5 e4 3c 22 3c c9 3b a2 d4 0a 3b
       0.01023227 0.027949238 0.0061412016 0.0021183868
000370 ed 45 73 bb 1f ee bc 3c ea 3e 2d bb e1 03 68 bb
       -0.0037120536 0.023062764 -0.0026435205 -0.0035402703
000380 3d 87 41 bd f5 c1 0b bb 63 eb 84 bb 99 59 19 3b
       -0.047248114 -0.0021325324 -0.0040563806 0.0023399352
000390 86 23 b9 3c 03 33 1b 3a 7d 43 2e 3b a4 10 16 bb
       0.022599947 0.0005920382 0.002659052 -0.0022898102
0003a0 40 10 f4 3c 68 50 41 bd c2 eb 3e bb 3e cf 6d 3b
       0.029792905 -0.047195822 -0.0029132222 0.0036286856
0003b0 bb ce 4f 3a 1d 84 4d 3a f1 48 09 3c dc 8e 27 ba
       0.00079272286 0.0007839816 0.008379207 -0.0006391832
0003c0 90 24 3a 3b c7 53 a2 3a c1 90 84 bc 53 13 c3 bb
       0.002840314 0.0012384587 -0.016182305 -0.0059532314
0003d0 7b 97 47 bd e5 97 25 3b 95 f3 1c bb 65 b4 0f ba
       -0.048728447 0.0025267538 -0.0023948897 -0.0005481898
0003e0 46 1d 01 3d f1 86 63 3d 9a 5b f6 ba 31 18 f8 bd
       0.031522058 0.055548612 -0.001879561 -0.12113989
0003f0 51 94 6e bd c2 b1 67 39 77 bd 37 3d 6a 3c 21 3c
       -0.058246914 0.00022096097 0.044858422 0.009841064

a2c_network.mu.bias f4 [6]
000000 15 4c 90 3c 39 b1 96 bd 69 6c 58 bd ca 54 8c 3d
       0.017614404 -0.07358021 -0.052837763 0.0685211
000010 92 ac 0f 3e 94 04 da 3e
       0.14030674 0.42581618

exp_avg f4 [6]
000000 50 80 67 36 11 24 1a 3a f1 c8 34 b9 df 8a 95 b9
       3.449637e-06 0.0005880008 -0.00017240994 -0.00028522962
000010 e8 d5 9d 3a 62 14 87 b9
       0.0012041898 -0.00025764393

exp_avg_sq f4 [6]
000000 98 29 aa 37 d3 24 99 37 0d 81 ab 37 eb 2e b6 37
       2.0284948e-05 1.8256169e-05 2.0444882e-05 2.1717939e-05
000010 b6 87 b9 37 b2 b4 bc 37
       2.2116914e-05 2.249549e-05
