logs/rl_games/yam_cube_sort_8192/2026-02-01_19-21-52/nn/last_yam_cube_sort_8192_ep_550_rew_620.8059.pth (torch, 953168 bytes, 30 tensors)

value_mean_std.running_mean f8 [1]
00000000: a386 a389 a56c ba3f
0.10322031603166208

value_mean_std.running_var f8 [1]
00000000: fcae b206 c4f4 8c3f
0.014138728575140196

value_mean_std.count f8 []
00000000: 0000 0001 0030 b141
288358401.0

running_mean_std.running_mean f8 [40]
00000000: 4b43 64b7 5dfa ef3f 36e9 f189 1389 463f
00000010: 0000 0000 0000 0000 36e9 f189 1389 463f
00000020: 0000 0000 0000 0000 0000 0000 0000 0000
00000030: c10f 92b1 c8b8 c83f 7d90 8a68 d693 cc3f
00000040: 833e 68f0 2690 ba3f 4222 ebc4 51cb c83f
00000050: 6efc 9d80 8f7a cc3f 5548 c8ba d286 ba3f
00000060: 1b35 84bf d768 e43f 77cd 8549 2232 d03f
00000070: eb5d 07ac b0d0 d03f 63b9 4416 6711 8a3f
00000080: 5891 283f 5fbb d03f dfc9 899e e1d7 d13f
00000090: 6b79 2cc5 cc09 8a3f 4460 63cd fcc1 d03f
000000a0: 2c16 e2f0 11e1 d13f 301f 67ac cc09 8a3f
000000b0: c250 7730 a25a 403f 083a a301 4865 04bf
000000c0: ceca bf3c c9d6 4cbf c2c0 480c c896 363f
000000d0: 7958 9c0b 6790 323f 142e 8633 e4e2 43bf
000000e0: c18d a07c 3d1a 343f 5686 6fef 959d 333f
000000f0: 9513 4abe 67ab 43bf 53f5 0512 cbfc d03f
00000100: 0933 f934 7202 cabf 84eb 9dfd df7a 843f
00000110: 2b08 0de6 01c0 b03f 0933 f934 7202 cabf
00000120: 84eb 9dfd df7a 843f d1a8 88a4 95c9 dd3f
00000130: 0933 f934 7202 cabf 84eb 9dfd df7a 843f
0.9993122655742835 0.0006877274899033451 0.0 0.0006877274899033451 0.0 0.0 0.1931391589206424 0.22326164345315994
0.10376208657566548 0.19370481600914685 0.2224902513516755 0.10361973819843347 0.6377981892161729 0.2530599325175084 0.2627374343842052 0.012728505484656599
0.26143628280467146 0.2788013504242865 0.012714004294647826 0.2618400579208393 0.2793621876120109 0.012714003573719518 0.0004990856113473929 -3.890157695850624e-05
-0.0008800966838847458 0.0003446806333924462 0.00028326526408884546 -0.0006068815483088485 0.0003067398180311675 0.00029930983094859 -0.0006002670821351081 0.2654292751320401
-0.20319964968293672 0.009999990393898768 0.06542980066754527 -0.20319964968293672 0.009999990393898768 0.4654287440086025 -0.20319964968293672 0.009999990393898768

running_mean_std.running_var f8 [40]
00000000: 994a 2a86 6685 463f 3f4c c7c8 5785 463f
00000010: ceb9 28d9 01ca 3d3e 3f4c c7c8 5785 463f
00000020: ceb9 28d9 01ca 3d3e ceb9 28d9 01ca 3d3e
00000030: 3806 886f bc32 a73f 8424 efca c2ca ab3f
00000040: 4837 d64a 91d2 803f 92f9 78d1 a5e5 a43f
00000050: f1d5 32f5 9e11 a93f d0bc 43a4 84b9 7d3f
00000060: 765f 1cbc 4c08 b73f ae27 29f7 6f32 853f
00000070: 249e 352c ccd0 973f 36fe cbea 523f b73e
00000080: ea18 cdb0 206d 813f 8afc cb0c fd14 913f
00000090: bff5 4f14 cde0 b53e 417a 4975 fe72 813f
000000a0: abbb 1514 ac7d 903f 5217 d80b 954e b73e
000000b0: cc48 9dd7 1c38 753f 036c 92b7 94a0 793f
000000c0: 41fc bdf6 7e3d 453f ab9e 3bb4 2fa1 713f
000000d0: 23c0 c561 6399 743f bba6 1752 3b96 3b3f
000000e0: acab 67b3 80a0 713f 9976 689f ab61 743f
000000f0: f284 73ed 4567 3b3f 50fb aa9c 89e6 3f3e
00000100: 07c7 24eb 2108 3f3e 2d45 dd12 c5ca 3d3e
00000110: e701 3b78 bdea 3d3e 07c7 24eb 2108 3f3e
00000120: 2d45 dd12 c5ca 3d3e 370b cff7 4625 423e
00000130: 07c7 24eb 2108 3f3e 2d45 dd12 c5ca 3d3e
0.0006872892957566378 0.0006872824320062267 6.935813162121734e-09 0.0006872824320062267 6.935813162121734e-09 6.935813162121734e-09 0.045308960547128796 0.054281317970500204
0.008214125725114166 0.04081457311666549 0.04896256201883976 0.0072570020022190845 0.08997039406346893 0.010350107889411788 0.023257436941461887 1.3856505731156961e-06
0.00850892581514669 0.01668162718396763 1.3040381230394741e-06 0.008520114855113838 0.016104401327023215 1.3892031768282672e-06 0.005180466332449462 0.006256657529912782
0.0006482000294311189 0.004304109901319168 0.005029094896926298 0.000420941813074376 0.00430345796346902 0.004975958253025014 0.00041814286437442873 7.427422630655562e-09
7.225146413709387e-09 6.9365067421103375e-09 6.965583557595714e-09 7.225146413709387e-09 6.9365067421103375e-09 8.449710037460447e-09 7.225146413709387e-09 6.9365067421103375e-09

running_mean_std.count f8 []
00000000: 0000 0002 0030 a141
144179201.0

a2c_network.sigma f4 [6]
00000000: 243a babf 68d5 bcbf 54a9 b6bf c0e0 bebf
00000010: d2e0 eebf 1558 f33f
-1.4548993 -1.4752626 -1.4270425 -1.4912338 -1.866236 1.9011256

a2c_network.actor_mlp.0.weight f4 [256, 40]
00000000: f0d4 7c3e 4063 a9be eb47 883d cd50 16be
00000010: 862f bb3d 6290 8dbd 074c 023f d128 9d3f
00000020: 8a7b b93e 99ed dfbe bb05 8bbf a441 90be
00000030: fa96 0c3c 9762 8cbd f317 45bd 6a7e 5d3d
00000040: 2dfa cf3c 5074 4d3c b37a 8fbe 4b04 5fbc
00000050: 7861 cebc 474f 1d3d f4a2 063c 963a 5fbd
00000060: 26de ffbc ba4d 1d3e 3e49 c1bd 9d8c 663e
00000070: 960b 28bc 5d93 32be ffd4 3f3d 4206 393e
00000080: b33f a0bc 5abd 11be 145a d33d c53f 97be
00000090: 6411 f2bd 3ca0 453e 08b4 ebbd ccd3 f43d
000000a0: df4a a23e 3910 02bf 73cf ab3d 21a9 edbe
000000b0: 4b88 c43d 1faf 19bd 6025 84bc d210 05bf
000000c0: be27 b53e 87d5 ebbe ed0e df3e 53e6 2e3e
000000d0: 1e57 ad3c 2968 f63e 0dc4 61be 97ac 24be
000000e0: 2325 663d bad5 81bd c4a2 dabd d6d8 d23c
000000f0: 3d17 94bc d5bb 0bbe 3dfc 99be dc2a 36be
00000100: 7aff 243e 13e3 bebe 6032 d5be 4735 d1be
00000110: 5d7d dc3d a8da 84be f171 11bd 565f 19be
00000120: 0d56 663f 6ce7 1bbe 236f 4abe c563 4c3f
00000130: 7762 a33c 6d12 aebe 196c 483f 0da6 cbbd
00000140: ca61 913d 0677 cfbd 6883 33bc 1733 19be
00000150: 3f44 debd 62ea bcbd 5fce 463c 0eb2 f9be
00000160: 7e9e ed3e 4f78 a3bc e7b1 f43e fa37 f3be
00000170: 26c8 d43b 0aa2 483b 8d82 d0bb 107c bdbd
00000180: 73cc 8bbb f5e7 b63b 6e10 dabc 41e8 883c
00000190: 5186 38bc 2299 c33d ff23 6abc 3689 363c
000001a0: 6897 18bc 811e d9bb 3a5d 31bc 495f b9bb
000001b0: bfd1 81bb bf4e d1ba 76a2 07bd f4e4 f13f
000001c0: 676a 81bf 2f0c d9bd 8823 613e 5a0d 8ebf
000001d0: 1464 c63d 7384 0440 243e 71bf 81be 95bd
000001e0: dd53 853e 2317 7fbe 9b9f a63c 2cad d8be
000001f0: 4bef 873d 2851 c2bc aadd 953d 584f 833f
00000200: 8249 373e 0fbe 9e3c 0e85 7abf 29a7 5dbe
00000210: 880f 9dbc 87ad 90bc 48c5 00b9 d4c8 e4be
00000220: 290c 5cbc 6c09 c73b f5eb cc3e 6f40 cdbb
00000230: 052a 27bc 937c 853e 33b3 553d 0899 babc
00000240: 5bf4 60bd c575 0e3d d3fc 34ba 52ba 92bd
00000250: b413 e2bc 7f10 4a3d 1c70 c6bd 929c 2c3f
00000260: 7a2a e83e 2022 093e 28a6 5c3f f14a a23e
00000270: 5bf3 b339 dc09 2c3f 65e1 c73e ca71 2d3d
00000280: 2d66 f13c 8213 6bbe 1859 083e 2c82 e0bd
00000290: d9d8 00bc 353b c3bd 84e4 0cbf 917e 15bf
000002a0: aa2b f0bd 3b38 013f c4d7 1e3f 8c9e 9b3e
000002b0: 17e5 913d 045c 8a3c c85c 5e3c 1a1a a2bd
000002c0: e4ed 85bc 74f0 f83c d7ac 4dbf c499 bc39
000002d0: 764a c23c 9fee c1be 3d30 2abd a038 363d
000002e0: 0379 28bb 3177 cabd 5ebd 893d 8c53 0c3f
000002f0: 2ea4 8dbd ac69 01bd 6914 9ebe fa64 f5bf
00000300: d4a3 7b3f cfc6 073e 5c60 63bf 9773 723f
00000310: 608e 03bb 47ac 0ac0 6d87 453f 46e9 17be
00000320: 7287 6ebe 09c1 943e 8e56 02bd 05e9 8d3e
00000330: 4d07 ecbc f3e9 e3bd 6f13 12bf c495 b13e
00000340: 2df5 783e 42cb 143f 934b f2be 55a8 7fbe
00000350: add1 bd3c 7e6a 86bb fa9f 9e3d a527 05bf
00000360: b267 973c 4c1a 323c 3e77 5dbe 1168 ad3c
00000370: 241b c838 6b4d 1abc 06b9 1a3d 664e 14bc
00000380: 9b28 943d e192 ccbd da85 403d ea9b 18bd
00000390: 1b6c dbbc fbe9 d8bd 96fd a43c 0147 25bf
000003a0: 124e 843f 12d1 073e 0542 063f 03ef 653f
000003b0: 27b7 ecbd 72ee f4be d9eb 823f 037a 12be
000003c0: 6dd1 aa3d 6cf6 49be 0094 62bc 4c99 38be
000003d0: b15d 84bd e998 4dbd 5e85 b7be 91cb b63e
000003e0: a659 173f d8c1 b13e c650 bfbe 6a0b 13bf
000003f0: 2d81 6e3b 6262 1e3b 8e34 523c d61b 1ebc
0.24690604 -0.33083534 0.06654342 -0.1467926 0.09139924 -0.069123045 0.5089726 1.2278081
0.36227065 -0.4373596 -1.0861124 -0.2817508 0.0085809175 -0.06854742 -0.048118543 0.054075636
0.025387848 0.012539938 -0.280233 -0.013611863 -0.025192961 0.038405683 0.008217562 -0.05449923
-0.031233858 0.15361682 -0.09437798 0.22514577 -0.010256669 -0.17439027 0.04683399 0.18068793
-0.019561624 -0.14232388 0.103199154 -0.2954084 -0.11819723 0.19299406 -0.115089476 0.119544595
0.31697747 -0.50806004 0.08389177 -0.46418098 0.09596308 -0.037520524 -0.016131103 -0.5197879
0.35381883 -0.46061346 0.43566075 0.17080049 0.021159705 0.48126343 -0.22047444 -0.16081463
0.05618776 -0.06339593 -0.10675576 0.025738161 -0.018077487 -0.13645871 -0.30075255 -0.17789787
0.16113082 -0.3728262 -0.41639996 -0.4086096 0.10766099 -0.2594807 -0.035509054 -0.14977774
0.89975053 -0.15224999 -0.19768958 0.79839736 0.019944413 -0.33998433 0.78289944 -0.09943781
0.0709873 -0.10130124 -0.010956623 -0.14960895 -0.10852861 -0.092243925 0.012134164 -0.48768657
0.46409982 -0.019954829 0.4779198 -0.47503644 0.006493586 0.003061416 -0.006363219 -0.09252179
-0.0042663156 0.0055818507 -0.026619162 0.01671231 -0.011262492 0.09550692 -0.014290809 0.011141112
-0.009313442 -0.006625951 -0.01082545 -0.005657111 -0.0039617713 -0.0015968903 -0.03311392 1.8897996
-1.0110596 -0.10598027 0.2198621 -1.1097825 0.09687057 2.070584 -0.94235444 -0.07311726
0.26040545 -0.2491117 0.020339778 -0.4231962 0.066374384 -0.023720339 0.0731767 1.0258589
0.17899135 0.019377736 -0.97859275 -0.21645798 -0.019172445 -0.01766087 -0.00012280524 -0.4468447
-0.013430634 0.006074121 0.4002377 -0.0062637846 -0.010202889 0.26071605 0.05217285 -0.02277805
-0.054920536 0.034780283 -0.0006904129 -0.07164444 -0.027597286 0.04933214 -0.09689352 0.6742641
0.45344907 0.13391924 0.86191034 0.316978 0.00034322854 0.67202544 0.3903915 0.042344846
0.029467667 -0.2295666 0.13315237 -0.10962328 -0.0078642005 -0.09532777 -0.5503619 -0.5839625
-0.11727078 0.50476426 0.6204798 0.303944 0.071237735 0.01688958 0.013571925 -0.07915135
-0.016348787 0.030388094 -0.8034186 0.0003597272 0.023717146 -0.37877366 -0.04154991 0.044487596
-0.0025706894 -0.09886015 0.06725572 0.5481498 -0.069160804 -0.031594917 -0.30874947 -1.9171441
0.98296857 0.13259433 -0.8881891 0.94707626 -0.0020073876 -2.166765 0.7715977 -0.1483508
-0.23293856 0.29053524 -0.031820826 0.27716842 -0.028812075 -0.11128607 -0.57060903 0.34684575
0.24312277 0.58122647 -0.47323284 -0.24966557 0.02317127 -0.0041020503 0.07745357 -0.5201362
0.018482063 0.0108705275 -0.21627519 0.021167787 9.5417985e-05 -0.009417872 0.03777411 -0.009051895
0.072343074 -0.099889524 0.04700265 -0.037258066 -0.026784947 -0.10591503 0.02014045 -0.6456147
1.0336325 0.13263348 0.5244449 0.8981783 -0.11558371 -0.4783817 1.0228225 -0.14304356
0.08340726 -0.19722909 -0.013829231 -0.18027228 -0.06463183 -0.050194655 -0.3584394 0.35702184
0.5912117 0.34718204 -0.37366313 -0.5743929 0.0036392913 0.0024167527 0.012829913 -0.009650191

a2c_network.actor_mlp.0.bias f4 [256]
00000000: a417 75bc dbb9 383e 4b0f 073b b8d1 85bc
00000010: 3ced edbd f21f 1a3d e54f 87bb a2ab d1bd
00000020: ee6a d3be f29e 9d3e 1b0d cc3e b872 c6be
00000030: 3c8f c5bb 1ef9 2a3e 2a0c 14bd c4d3 883e
00000040: a323 a03e 04aa 77bc 26dc 33bf 5505 393c
00000050: c510 57bb c6f7 f8be bcfc 93bd 397d 1b3b
00000060: 368a d33b f1a1 6cbe ff69 d2bd b182 f6be
00000070: 68fe 0b3f 5f5e 04be 387b f4bc 334d 0bbf
00000080: 7a40 1cbd 2f24 dabd 0a73 0ebf 0189 2abd
00000090: 2d50 c1be a5d7 83bf bc8b 77bf ffa4 1abd
000000a0: 06af 7c3e b447 5abd a8a4 0ab9 d590 7f3b
000000b0: 50c7 3a3d b9ce 1cbc ade6 33ba f778 423b
000000c0: 154f 08bd e9cd 86bd 3308 87bf aa58 05bc
000000d0: af54 d4bd b3f2 863b 4718 aabb e3fd d8bc
000000e0: aa60 07bf ff34 7e3e 7ef1 01bd 016a 4b3c
000000f0: 4efa 41bd 3554 d5bc 0cc0 01bc 1eea 93bf
00000100: 5510 8abf 1e2c 703e 3eec 3bbd 433f bdbb
00000110: e571 d6bc 2020 df3b df9f 1abf 22a6 90bc
00000120: 8541 a1be 7118 b23d d11d 14be 2782 1bbb
00000130: 24d4 59bf 717c aa3c 9347 0cbf e7b7 1abf
00000140: d851 5b3c 6942 8fbc ef71 04be 27fb 96bd
00000150: 89ba d7be 80f6 81bd 6ab3 45bd 907e 39bd
00000160: 22bd 8cbd 1e16 61be c774 f2bb 8392 00be
00000170: c1c4 49bf 2706 92bc adf3 00be 5f4b 24bf
00000180: 2fef b2b9 c179 13bc 9f2b 3bbd a7b8 1ebe
00000190: 788e 06bf c03a 483c 294a d0bc b1c1 703e
000001a0: f6dc 8cbc 4bd3 093d 468d a6bc 764d fcbd
000001b0: 6ae8 cf3c d070 06bf 65ef 873e 2b41 74be
000001c0: 6de9 bdbc f201 853a 3984 6cbd 00e1 aa3a
000001d0: 558e 51bd c00c 18bc 5de0 9c3d d1bf 6cbe
000001e0: 2eba eebe b205 f7bc 43ac b0be 8e47 21bd
000001f0: 0b20 143e 47d4 7ebe 72ba 82bd d9e1 55bb
00000200: de35 47be aa16 89bc f3f6 eabe 3d6f 11bd
00000210: 84c8 073a 3d74 5b3c d431 9bbc 7941 5fbd
00000220: dad6 ad3b 6578 dfbc dbf4 a53e e21c 58bd
00000230: 8385 5dbd a83a 173a c2e0 b8be 6817 38bd
00000240: 8a92 493c 4482 583c 0430 8cbc 71a3 71bd
00000250: 23d9 d3bc 9617 c2bc 028a f3ba 8838 273b
00000260: 2b00 51bd f8f3 e5bd 8f9b 8e3e ff72 3fbe
00000270: edb6 85bb 5a37 c73c 7a9d 96b9 3dfe 01bd
00000280: 2d1a d1bb 3a55 a9be 633c 273c 2784 42be
00000290: 1a3b b7bc 594a c93d c5b4 8b3c 56bf 21bf
000002a0: b600 0fbc 4ffa 4bbb 3f16 cebe b1b5 4ebe
000002b0: f695 1cbc e771 063c 9ca6 89bc 98d4 8d3c
000002c0: 6be1 36bd 22b6 9ebe 8d55 66bd 8738 66bf
000002d0: 86fe f93b 4161 d0ba 5ad2 04bf 65e5 9ebb
000002e0: caf1 51be e092 cfbd 3f67 663c f252 e6bc
000002f0: 12e4 49be 91c6 693e bf2a 64bf 19ef 923d
00000300: 4b3c 1bbc 2f70 37be 6143 05bf 0933 e23b
00000310: 557d a23d bdf7 743c 3634 723c 4e26 d8bc
00000320: eed3 f53b 3778 1fbd 5bc7 36bd 5cf4 063d
00000330: c7df 88bc 9148 e43b a486 37be 0a2e cabb
00000340: fe16 3ebe d8bf af3e aea8 21bf 9e1f cabc
00000350: 52e9 323d 1240 f5be 609f 29bd 98a3 f5bb
00000360: 0387 c9bd 30bb a3bc 9fed 1ebf 879c 493e
00000370: d352 8a3c 90f7 c73b bd21 a3be 7903 d53a
00000380: 7235 93bc ac2f 2ebf 1894 00bf 401c cbbd
00000390: 2898 833b 8227 a9be 9c70 44bf 7502 463c
000003a0: 4025 ebbc 5e13 9ebe 8b9f 8d3c 4c92 c5bc
000003b0: 6443 70bc d6e4 3fbe ff0a c4bc 333e f4bd
000003c0: 0ceb db3d 092a c13d b05a 13bd 0429 913b
000003d0: 76f3 f5bc 9307 3cbf bcf7 9fbe cde8 8ebc
000003e0: a498 5cbf ee66 fbbd 31aa 893e 86dd acbc
000003f0: 28d8 36bd d5a1 84bc e563 193e 3d6e c83e
-0.01495925 0.18039648 0.002060848 -0.016335353 -0.116175145 0.03762812 -0.004129397 -0.102378145
-0.41292518 0.30785328 0.3985375 -0.38759398 -0.0060290378 0.16696593 -0.036144413 0.26724064
0.3127719 -0.0151162185 -0.70257795 0.011292775 -0.0032816392 -0.48626536 -0.0722594 0.0023725762
0.006455685 -0.2310865 -0.102741234 -0.48146585 0.5468507 -0.12926625 -0.029843912 -0.5441467
-0.038147427 -0.10651433 -0.55644286 -0.041634563 -0.37756482 -1.0300184 -0.9669759 -0.03775501
0.24676141 -0.053291038 -0.00013222045 0.0038996239 0.045600235 -0.009570771 -0.00068626815 0.0029674151
-0.033278544 -0.06582243 -1.0549377 -0.008138815 -0.103677146 0.0041182875 -0.0051908824 -0.02648825
-0.5288187 0.24824904 -0.031724446 0.01241541 -0.04735785 -0.02604113 -0.007919323 -1.1555822
-1.0786234 0.2345433 -0.045879595 -0.0057753637 -0.026177356 0.0068092495 -0.60400194 -0.017657343
-0.314953 0.08696068 -0.14464499 -0.00237287 -0.85089326 0.020811291 -0.54796714 -0.6043686
0.013386212 -0.017487722 -0.12934087 -0.07372122 -0.42134503 -0.06345844 -0.048266806 -0.045286715
-0.06872012 -0.21981093 -0.007399175 -0.1255589 -0.7881585 -0.0178252 -0.12592955 -0.6417751
-0.0003412901 -0.009001196 -0.045695897 -0.15500127 -0.5256114 0.012221038 -0.025425987 0.23511387
-0.017195206 0.03364877 -0.020331036 -0.12319462 0.025379378 -0.5251589 0.2654983 -0.23852985
-0.023182595 0.0010147674 -0.057743285 0.0013037026 -0.05116113 -0.009280384 0.076599814 -0.23120047
-0.4662642 -0.030154083 -0.34506425 -0.03937488 0.14465348 -0.24885665 -0.06383218 -0.0032635836
-0.19454142 -0.01673444 -0.45891532 -0.035506476 0.00051797205 0.013394413 -0.018944658 -0.0545058
0.0053051533 -0.027279088 0.32413372 -0.05276192 -0.054082405 0.00057689333 -0.36108977 -0.044944197
0.012303004 0.0132146515 -0.01711274 -0.05899376 -0.025860375 -0.023692887 -0.0018580558 0.0025515873
-0.05102555 -0.11228174 0.27853057 -0.18696211 -0.0040806443 0.024318386 -0.0002872756 -0.0317366
-0.006381294 -0.33072835 0.010207268 -0.18995725 -0.022367049 0.09828634 0.017053971 -0.6318258
-0.008728197 -0.0031124537 -0.40251347 -0.20186497 -0.009557238 0.008205867 -0.016803078 0.017313287
-0.04464857 -0.3099833 -0.05623393 -0.89930004 0.0076292185 -0.0015898125 -0.5188347 -0.0048491233
-0.20502391 -0.10135436 0.014062702 -0.028115723 -0.19715908 0.22829653 -0.89127725 0.071745105
-0.009474824 -0.17913888 -0.5205594 0.0069030565 0.079340614 0.0149516435 0.014782956 -0.026385453
0.0075020706 -0.038933005 -0.044623714 0.032947883 -0.016708268 0.0069666584 -0.17922455 -0.006170039
-0.18563458 0.34326053 -0.6314801 -0.02467328 0.043679543 -0.47900444 -0.041411757 -0.0074963085
-0.098402046 -0.019986719 -0.6208133 0.19688617 0.016885197 0.00610251 -0.31861678 0.0016251645
-0.01796982 -0.6804149 -0.50225973 -0.09917498 0.004015941 -0.33037955 -0.7673433 0.012085547
-0.028704286 -0.3087415 0.01728799 -0.024117611 -0.014664505 -0.18739638 -0.023931025 -0.11925926
0.10738191 0.09431846 -0.03597516 0.0044299383 -0.030023318 -0.7344906 -0.31243694 -0.017444992
-0.8617041 -0.12275492 0.26887658 -0.021101724 -0.044639736 -0.016190449 0.14979513 0.39146605

a2c_network.actor_mlp.2.weight f4 [256, 256]
00000000: ff2c e1bd 9f8c 97be dc0c 0bbe ca4a 743d
00000010: 3a65 64be 63ae 7c3e d947 b23d 8566 883e
00000020: 6b00 a73d 6f67 6cbd 97ae 173d 2669 86be
00000030: 0d10 1e3d 8328 81be 90df 4cbe 3885 66be
00000040: 246e 41be b7d3 90be bbe3 86be e352 013e
00000050: a5f7 43be effc ebbd 8fa4 8c3e cb17 28bd
00000060: 443e 0e3d 292e b1bd 7210 e7be 2b29 4cbe
00000070: 66e3 13be 7734 8f3d ec0d 17be 2107 84be
00000080: 58d1 1d3e 4e68 5d3e df4b ad3e a065 c6be
00000090: d9ae 523e 6ddb c13c 4f9e 953e aa07 ac3d
000000a0: 2ca4 47bf 8abc d33e 933e 15be 1a9c 22bc
000000b0: 36b7 5d3e 22dd 873e dba2 b0bd 06b9 ebbd
000000c0: d715 253e e1e9 2a3e 88dc 7bbd a741 dbbc
000000d0: eb5d 48be 26f3 66be 3194 c03d 7a33 bebe
000000e0: e14e 2fbe 9dcf 4abe 6f3c 1c3e 45b1 b63d
000000f0: d9a0 aebc c6ff a3bd 45d0 853e 0a5d b7bd
00000100: d964 9d3d d416 f9bd 087f 503e 79b2 3dbe
00000110: 4e6a b8bc 8f75 82bd 77d2 80bc b146 a3be
00000120: 78cf 6d3d cd42 4cbe 82b9 f5bd 01ac 6ebe
00000130: 9e30 a2be c334 213e d9dc bfbc ed12 d83e
00000140: 3589 90bd 390d 9d3d c792 7a3d 6cc8 2f3e
00000150: 3501 cf3e 6c28 6abe 6d93 1fbe 595e 8c3d
00000160: 976e bbbe a1ec 703d 173b e6bd 9db2 3abe
00000170: 3a6f 7dbd f4d7 0c3e 31e5 5a3e 9a00 8cbc
00000180: c194 053e ecb7 313e b9a0 203d eb4a 3dbd
00000190: 5a9f a13c add4 09be a5b6 193e a49f 01bd
000001a0: 6bb5 e4bb 3ea0 0cbe da77 323e 1fbd 38be
000001b0: a165 123e 9f97 15be 5597 a63e 214d 7bbe
000001c0: 4704 afbc 4256 873d f6cb ffbe e0c3 523e
000001d0: cea6 353d bb39 8e3b d487 263d c979 09be
000001e0: 6fef 2fbe b14c 833d 8be5 85be a202 afbd
000001f0: a42d c1bc da4a a5bc 8311 5cbe 0764 2ebe
00000200: 668a 2a3e 1b58 86bc 4c14 60be 04dd 103e
00000210: 48e4 e3ba ef12 543c 23a1 f83e f8ff 8dbe
00000220: b071 f13c 63e5 603e 0c60 923e 91b0 2c3e
00000230: 3d4b b43e 9bab 5c3e f3f7 9dbe effc dabd
00000240: de45 71bc 7f52 38be 93db 843c f0f7 b7be
00000250: cecc 843d 2fa3 9a3c d41c d7bd ac91 47bd
00000260: 99c8 9dbc 134f 01bd 7641 24be 2bd7 523e
00000270: 5edb 97be 033d 433e 8a36 793e 99fa b23d
00000280: 72f5 f4bd 3334 913d eda4 66bd e178 fcbd
00000290: db30 f5bd 19d0 bc3d 4803 063d 72ce 6cb9
000002a0: c3e8 843e f510 563e 6353 c6bd 0afb b5be
000002b0: 1787 5f3d 548e 8ebd 0e64 26be 5a24 29bd
000002c0: 9dc1 073e 7706 dbbd 71a1 843e 5a35 75be
000002d0: 389c 083e f55f 1cbe 4547 d3be cf0a a5bd
000002e0: 20cf 6e3d 9d69 6ebb 729e c43e 163c 893d
000002f0: d280 64be 465f dfbd 2938 973e d85b a13e
00000300: 19ac f8bd 1f16 25be df4f 4b3d a776 123d
00000310: cd77 49be df88 9f3d 42bf 9f3d 42bf 9c3e
00000320: 4d98 2dbd a3d3 11be d73f b3be b901 1cbd
00000330: 794b bcbe 4c7e cfbb 4a77 45bc db97 593d
00000340: 8023 f7bd 05a1 163e 9a55 2abe e171 523e
00000350: a793 853d 3fb8 80be 1e57 4c3e fc98 17be
00000360: 5740 4dbe 66a5 ba3d 8e0a e1bd 882d 2cbb
00000370: 14c9 5b3e f37f 483e c307 62be c356 90bc
00000380: 9626 55bd d514 3ebe 78e6 8abe 196f 08be
00000390: 42ae 093d 6bcc 4ebe 8b4c 83bd 8ddf 423d
000003a0: f3b8 493e 289b 813c 65f9 d73d 8e9f 133e
000003b0: 4e1f a93c 4ec5 f7bd 0191 7cbe cbd7 273e
000003c0: 9afa 7ebe f167 8c3e ad8e 233d 8eee c73d
000003d0: 011f 093e c1f7 a8bc 22f6 a93d 18ad 7b3e
000003e0: 5b4f 93bc 0d8e c83e d857 043d 2f80 23be
000003f0: c8f8 463d cbdb a83c b831 fdbd 0db6 0cbe
-0.109949104 -0.29599473 -0.13579124 0.059641637 -0.2230424 0.24675898 0.0870511 0.26640716
0.081543766 -0.05771583 0.037031736 -0.26252097 0.038589526 -0.2522622 -0.20007157 -0.22511756
-0.18889672 -0.28286526 -0.2634562 0.12629275 -0.19137438 -0.11522853 0.27469298 -0.041038316
0.03472735 -0.086513825 -0.45129734 -0.1993758 -0.14442214 0.06992429 -0.14751405 -0.2578669
0.1541189 0.2162182 0.33846948 -0.3874941 0.20574512 0.0236642 0.29222342 0.08399899
-0.7798488 0.4135478 -0.14574651 -0.009924913 0.2165192 0.26535898 -0.08624812 -0.115099
0.16121612 0.1669078 -0.061489612 -0.026764704 -0.19567077 -0.22553691 0.09403265 -0.37148649
-0.17119934 -0.1980576 0.15257429 0.0892053 -0.021316933 -0.08007769 0.2613546 -0.08953293
0.07685251 -0.12162557 0.20360959 -0.18525113 -0.022511628 -0.06370079 -0.015725357 -0.3188987
0.058059186 -0.19947357 -0.119982734 -0.23307802 -0.31677717 0.15742783 -0.023420738 0.4220194
-0.0705742 0.07668538 0.061175134 0.17166299 0.40430608 -0.22866982 -0.15583582 0.06853933
-0.3660781 0.058819417 -0.11241739 -0.18232198 -0.061873652 0.13754255 0.21376492 -0.01709013
0.13045026 0.17355317 0.039215777 -0.046214025 0.019729305 -0.13460036 0.1501108 -0.031646386
-0.0069796345 -0.13733003 0.17428532 -0.18040894 0.14296581 -0.1460862 0.32537332 -0.24541141
-0.021364344 0.06608249 -0.49960297 0.20582533 0.04434853 0.004340378 0.04065688 -0.13425364
-0.1718118 0.06411112 -0.2615169 -0.08545424 -0.023581333 -0.020177294 -0.21491055 -0.17030345
0.16654357 -0.016399434 -0.21882743 0.14146811 -0.0017386759 0.012943967 0.48560438 -0.2773435
0.029473156 0.21962504 0.28588903 0.1686423 0.35213652 0.21549837 -0.30853233 -0.106927745
-0.01472613 -0.1800022 0.016217982 -0.3593135 0.06484376 0.01887664 -0.105035454 -0.048722908
-0.019260691 -0.03156955 -0.16040596 0.20589893 -0.2965955 0.19066243 0.24337211 0.08739204
-0.119608775 0.07090034 -0.05630963 -0.12327743 -0.11972209 0.09219379 0.032717973 -0.00022583621
0.25958833 0.20904906 -0.096838735 -0.3554309 0.05457219 -0.06960741 -0.16249105 -0.041294433
0.13257451 -0.106945924 0.2590442 -0.23946133 0.13340843 -0.1527098 -0.41265312 -0.08058702
0.058303 -0.0036378868 0.38402134 0.067009136 -0.22314766 -0.10906844 0.29535034 0.31515384
-0.121422 -0.1612172 0.049636718 0.035757687 -0.19674607 0.07789778 0.078001514 0.30614668
-0.042381573 -0.14240889 -0.35009643 -0.03808758 -0.3677633 -0.0063321944 -0.0120523665 0.053123336
-0.12067318 0.14709862 -0.16634217 0.20551254 0.06522303 -0.2514057 0.19955108 -0.14804453
-0.20044075 0.091135785 -0.10988341 -0.0026272256 0.21463424 0.19580059 -0.22073273 -0.017619496
-0.05203875 -0.18562634 -0.2712896 -0.1332363 0.03361345 -0.20195167 -0.06411084 0.047576476
0.19699459 0.015821055 0.10545615 0.14416334 0.02064481 -0.1209818 -0.2466469 0.16390912
-0.24900284 0.2742305 0.039930988 0.097622976 0.13390733 -0.02062595 0.08298899 0.24577749
-0.017982176 0.39170876 0.032310337 -0.15966867 0.0485771 0.020612618 -0.12362999 -0.13741322

a2c_network.actor_mlp.2.bias f4 [256]
00000000: adac 80be 6e40 d7bd db50 263b 1e12 2e3d
00000010: 3b61 d6bc 3e25 62bc ed90 74bc 0749 973c
00000020: c163 15bb 074f 973d 65f6 953d 61d6 65bd
00000030: cde3 97bc 3946 0b3d 3ef0 c7bc 6a3b a83b
00000040: 3561 153d d30e 3b3c 1ad9 b33b 8f03 adbc
00000050: 5eb8 08bc 3f1a e7bc 4fcd 92bc 8754 b53b
00000060: 5002 92bd c2b5 68bd 7b69 e0bb 35df 02bb
00000070: 1335 d93b d3ff 8e3c 01f5 40bd a77e 87be
00000080: 4c8c 323d e149 07bd 42a3 dabc a09e c9bc
00000090: 6a89 be3c 1bda 063d de4f 9dbc bc8d 12bc
000000a0: dd5d 97bd 5399 b73c e02c 0c3d 11a8 623b
000000b0: ed60 8ebc 4122 5d3c 1639 1ebf d4b4 25bd
000000c0: 79d1 b03a 06cd 40bd 1006 48bd f053 d33c
000000d0: c1bc bdbc a6d5 3bbd f0f2 793b 609b eb3c
000000e0: 53cd 82bc 2404 44bd ceaa 18bc 0c73 eebc
000000f0: 81ca 9dba c503 1d3d c589 113d a2de fcbb
00000100: f594 25bd 7ec6 343b 8b08 98bd 538d 6dba
00000110: 763f 8dbc ac0e 5dbe 30be d0be 5fb1 ba3b
00000120: aa2e 14bd 97d0 263d 3041 a1bd bebf 333b
00000130: 1d75 fc3c 939d 00bd 26d9 d6bc ee1a 06be
00000140: e55c 273c ce59 b1bc 61bf 04bf 9ec0 f2bc
00000150: 8260 ea3c 2604 a3ba 28db 303b 3dc1 19bd
00000160: 8199 1bbe 4c4a b33c 1c25 8bbe 1fb8 013d
00000170: de24 60bc f5c6 163c 330f 39bc 8711 753d
00000180: 3681 163b 1926 12bd baa6 9c3d 24e4 413b
00000190: f74d 5d3d 36e7 94bc 2ebf 18bd 9157 d73c
000001a0: ec68 eabe bb6b cebc 89ad 1ebc 7121 5fbe
000001b0: 1a25 493d e7c8 673c 059b 42bd f673 a8bd
000001c0: f297 363d dbd6 1ebd 8dba d2be 4b9c fbbc
000001d0: 5d3a 393c 95ad c4bc d1d4 12be a61d efbb
000001e0: f7ed a6bc 77d5 733c e04d 96bb a8f0 f9bb
000001f0: 81b1 c73a 00ab 71be 48ca b43b 0d42 37bd
00000200: 3748 873d 1236 96be 8f93 cd3c 5f79 b4bc
00000210: afd6 e83c 986c 203d 1a0c 6cbd 16a6 19bd
00000220: 0d99 eabb fe23 33bd aac5 1ebe 07a9 233d
00000230: ae3f 0f3d 96de 0dbc 7f1b 12be 6094 45bd
00000240: bba5 3f3b 96a4 c2bc 5a78 21bd e338 0fbd
00000250: a9ad d1bd b845 ebbd 1f12 d53d 2421 81bc
00000260: 4b02 a73c 27ea 0ebf dc3d 393d 951d e7ba
00000270: 1210 aabb 77a6 c8be 4d9e c8be f1eb a9be
00000280: 9415 0abd 0640 3cbf c67a d5bc 0fc8 f6bc
00000290: dd5d 22be 6f51 b73c e9a4 8bbb 6a34 f83c
000002a0: 1b16 833c 3eb7 59bc d1d6 373d 9be9 58bc
000002b0: 4db7 ba3c ba03 f5bb 8358 8aba 40bc 4a3d
000002c0: 8544 1a3c c5e5 8abf 3272 f73c ad1e 06bd
000002d0: 7099 9abd 5caa 993d e0f5 79bd d60b 3fbc
000002e0: 332b dd3c 6f68 823b ffe8 84be 01a4 39bc
000002f0: dc52 c13c 8875 f1be 71a0 b33c 9c53 c1bc
00000300: 053c 033d 1075 50bd 3cd4 b937 7dd6 2b3c
00000310: 348f b0be c62a 30be 18ac c03a 9ab6 dbba
00000320: 1417 9fbc fe4a 8c3b 00f2 3d3c 5687 ccbb
00000330: 6c08 563c dfd4 d9be 4e52 9dbe 0940 75be
00000340: c9a9 dcbc c4d2 82bc 8895 97bc 5889 0fbd
00000350: f587 2fbd 0755 56bd ebcd 853c b06f b2bc
00000360: a86b 4cbb a677 78bd 6b13 2a3d 92a8 3e3d
00000370: 14dd 043d 4433 45bd 3181 de3c ed6e 34bd
00000380: beeb 7cbe 0dac 10bc 2be7 f53c 1989 ab3b
00000390: 1630 aabd c799 fe3a 2528 413d 42a3 dcbc
000003a0: 477f b43d 8722 603e 0210 34bb 46b0 91bb
000003b0: 77e6 a0bc c60b 56ba 958e b83c 8294 9a3d
000003c0: 0b4d a1ba 7422 dabc 814e d0bb 051e ee3c
000003d0: 43e4 d93b 2044 da3c f594 4c3c 2328 1dbd
000003e0: 8ac6 473d fabb 103d e1c8 373d 8e8d 093d
000003f0: 203d 833e 288d c13c c064 04be 5b0c 68bc
-0.2513174 -0.10510336 0.0025377783 0.042497747 -0.02616941 -0.013802825 -0.014927131 0.01846744
-0.0022795054 0.0738812 0.07322387 -0.05611265 -0.018541241 0.034002516 -0.024406549 0.005134036
0.036469657 0.011417109 0.005488527 -0.021119861 -0.008344738 -0.028210757 -0.017920164 0.005533758
-0.07129347 -0.056813963 -0.0068485118 -0.0019969468 0.0066286414 0.01745597 -0.047108654 -0.26463816
0.04359083 -0.03302944 -0.026689176 -0.024611771 0.023258884 0.032922845 -0.019203123 -0.008944925
-0.0739095 0.022411978 0.034222484 0.0034585039 -0.017380202 0.013496936 -0.61805856 -0.040455654
0.0013490162 -0.047070526 -0.048833907 0.02579686 -0.023161294 -0.045858048 0.0038139187 0.028760612
-0.015967047 -0.04785551 -0.009318067 -0.029107593 -0.00120385 0.038333673 0.035531778 -0.0077169696
-0.04042526 0.002758413 -0.074235044 -0.00090618915 -0.017242175 -0.21587628 -0.40770102 0.005697414
-0.036177315 0.04072627 -0.07873762 0.002742752 0.030817563 -0.031400274 -0.026226591 -0.1309621
0.010215019 -0.021649268 -0.5185452 -0.029632863 0.028610472 -0.0012437149 0.0026986096 -0.037537802
-0.15195276 0.021886013 -0.2717675 0.031669732 -0.013680665 0.0092027085 -0.011295128 0.05983117
0.00229652 -0.035680864 0.07648988 0.0029585445 0.05402943 -0.018176656 -0.0372917 0.026286872
-0.45783174 -0.025197854 -0.009684929 -0.217901 0.04910765 0.01414702 -0.04751112 -0.08225243
0.0445785 -0.03877912 -0.41157952 -0.030714175 0.011305419 -0.024008552 -0.14338996 -0.0072972355
-0.020377142 0.014882437 -0.00458692 -0.0076275654 0.0015235395 -0.23600388 0.005517278 -0.044740725
0.06605571 -0.29338127 0.025094775 -0.02203053 0.028422682 0.039166063 -0.05762873 -0.037511908
-0.0071593584 -0.043735497 -0.1550509 0.03995612 0.03497284 -0.008659026 -0.14268301 -0.048237205
0.002924307 -0.023760121 -0.039421417 -0.03496636 -0.10238201 -0.11487907 0.10403847 -0.015762873
0.020386836 -0.5582604 0.04522501 -0.0017632717 -0.005189904 -0.39189503 -0.39183274 -0.33187822
-0.033711985 -0.7353519 -0.02605952 -0.030124692 -0.15856119 0.022377698 -0.004261602 0.03029843
0.016001752 -0.013288317 0.0448826 -0.01323929 0.022792483 -0.007477251 -0.0010554943 0.049495935
0.00941575 -1.085137 0.03020582 -0.0327441 -0.07548797 0.075031966 -0.0610255 -0.011660537
0.026998138 0.0039797346 -0.25959012 -0.0113306055 0.02359908 -0.47159982 0.02192709 -0.023599438
0.03203966 -0.05089289 2.2152548e-05 0.01048815 -0.34484255 -0.17203817 0.0014699725 -0.0016762794
-0.019420184 0.0042814007 0.011593342 -0.0062417192 0.013063531 -0.4254522 -0.30726856 -0.23950209
-0.026936429 -0.015969642 -0.01850392 -0.03504309 -0.042854268 -0.052327182 0.01633354 -0.021781772
-0.0031192098 -0.06066098 0.041522425 0.04654748 0.0324374 -0.048144594 0.027161213 -0.0440511
-0.24699304 -0.008830083 0.030017456 0.005234849 -0.08309953 0.0019424491 0.047157425 -0.026933316
0.08813339 0.21888171 -0.0027475362 -0.0044460623 -0.019641144 -0.00081652065 0.022528926 0.07547857
-0.0012306286 -0.026627757 -0.0063570146 0.029067049 0.0066495254 0.026643813 0.012486686 -0.038368355
0.048773326 0.03533552 0.044869307 0.033582263 0.25632572 0.023626879 -0.12929058 -0.014163102

a2c_network.value.weight f4 [1, 256]
00000000: 2d2b 973c d3a6 cc3b 50bd 51ba e112 ba3b
00000010: dca8 2bbb 975f 53b9 1ea7 4abb 3817 253c
00000020: 181d a439 c8f0 6ebb ac85 a93d 2b6b 083c
00000030: 0ce8 c73b 9f75 1fbb 3913 503a 16e1 ec38
00000040: cf77 e5bb 81c3 873c 026c a73b 4f50 00bb
00000050: 1e64 80bb 2eb1 95b9 73e4 0fb9 e17d e839
00000060: 0c8c 083b 7a05 beba 5763 79bb 14f9 9c3b
00000070: b3f9 b7bb e242 a1b8 59f4 473f 66a1 88bd
00000080: 6a3a 81bb 117f 98bb 6643 88bb 704d 643a
00000090: 0654 b5bb fdd2 963b 67f8 e2bb ea34 0d3a
000000a0: 0d73 91bb 5b70 29bb d4cf 25bb 0111 eabb
000000b0: 4236 e6b9 5708 d03a f597 7ebe a7cf 9f3b
000000c0: 4899 ce3b a6ac b63d c679 cc3a dcb7 04ba
000000d0: fbad 87bb 0c41 bc3b 0214 893b a539 883d
000000e0: ab0a 66bb 458c c33b 5a1a 373a 6c6a 013c
000000f0: d289 9cbb dbbc a1bc 9429 1fbb 9375 e23a
00000100: 91cb 163a 499a 8e3b e837 90b8 47eb 843b
00000110: 3483 f6ba 933c eabc 4c8a 02be 4586 b139
00000120: a818 ffb8 580e 7439 22c0 2e3e da82 75bb
00000130: 4575 74bb 7867 86b9 e498 0a3b d605 0abd
00000140: 094d 68bb 2768 95ba b313 a33c 6941 1d3b
00000150: 5668 09bb 625f 8b3b 3c65 e13a b862 bc3b
00000160: 46ba a4bc 852c 513b e6df 16bd ad57 d6bb
00000170: d33d c93b f4ef 853b b080 f5bb 7da0 ff3b
00000180: 9a1c 443b a4fa cdba 2b0a febc bc91 103c
00000190: 60ca f637 9775 403b b0d4 3a3a 1474 6abb
000001a0: cc78 f13a 38e1 7b3b 02d6 be3b 2c99 dc3a
000001b0: 3408 94bc 6995 143b d835 433b d2fb 6a39
000001c0: 2a1b c63b b913 1f3c 9901 9dbd d3f0 463b
000001d0: 5202 a8bb a6cf ca3b 5d51 983b 0bb5 023c
000001e0: ee71 3f3e d2eb b5bb 95dc 093b 767b d539
000001f0: c2d7 ceba 0160 4bbc 65e2 b3b9 18de 81ba
00000200: 7108 5fba 8094 8e3c 56b6 af3a b35a 81bb
00000210: 1807 4dbc 7fbe c9b8 371c ac37 4a5b 8bb9
00000220: 4cce edba 469a e5b9 2d4c bf3b 8ebf 573b
00000230: 375c 10ba 1079 92bb a3d0 b0be 9df6 68bb
00000240: b31b f1bb f497 113c 6297 70bb 308f 8c3b
00000250: 10fe 3b3e 8d58 a9bc bdc4 5fbc 75b8 01bc
00000260: 9a5b 453b 6953 27be f179 3bbb 33b9 00bc
00000270: bcf8 fabb e6d8 bdbe 1705 31be bcb9 84bd
00000280: ccba 953b d8ce 5fbe 6e7e 33bc 9b7e aa3b
00000290: 253a 1b3d 2ae4 9aba 944b 9639 3721 323c
000002a0: 29e6 4abd a211 94ba 48a5 1a3b 4005 c53c
000002b0: 91f5 313c c2fa 863b db62 b0bb a17a ee3c
000002c0: 2c07 353c d212 18bc f7b6 09bc 503c 8f39
000002d0: fc92 983a 1e85 733c 8545 fabb 5fd6 2d3b
000002e0: 3d33 a1bb 8972 163c e836 56bc 21d2 893b
000002f0: 6543 223b 7506 45bc 4450 2ab9 6486 1d3b
00000300: a631 c639 a452 1b3c af03 c2ba 5d67 283d
00000310: e7a7 44bd daf5 a63d 6e4b 513b c91e 9fbb
00000320: d18b 2b3b 8d56 ebba 147e 3b3e 35c8 a3bb
00000330: 7aef 9b3a 870f 0bbd 9d79 493b 19fd 6ebc
00000340: 6a2f 2ebb b936 973b f0c4 e1bd d164 ebb9
00000350: 8a9e 73bb 1578 19bc aa0e 69bb f26b 863b
00000360: c339 b53c 2393 803d 76c5 3b3c e43c b0bb
00000370: 8661 e03a 8981 913d a712 db3a e2b4 0cbc
00000380: e01e f5bd e841 9b3a 0441 90ba eefc 143c
00000390: a8bb 8abc 2782 14b9 fe88 8cbb 3480 6d3b
000003a0: 1034 d53d af73 8c3e ae05 92b9 9e6a b13b
000003b0: 98aa 7d3b 51f2 bbbb bd8a aa3a c55a 313b
000003c0: ffe6 2bbb e9e5 8d3b ea00 0a3d 6e29 253a
000003d0: d93b b7bc fd37 143a df7f 573c 906d 6c3b
000003e0: 48c0 92bc 5345 a73b d636 e03b 7a53 da3d
000003f0: 97e1 163f a902 1fbb f3c1 babc 3e02 2e3a
0.018453205 0.006245473 -0.0008000927 0.00567852 -0.0026193177 -0.00020158138 -0.0030922364 0.010076337
0.00031302194 -0.0036459435 0.08277449 0.008326332 0.00610066 -0.0024331582 0.0007937435 0.000112952825
-0.0070028077 0.016572716 0.005109311 -0.0019579118 -0.003918185 -0.00028551504 -0.00013722647 0.00044344275
0.0020835428 -0.0014497482 -0.0038053596 0.0047904346 -0.0056144833 -7.689536e-05 0.7810722 -0.06671409
-0.003943731 -0.0046538194 -0.004158425 0.0008709049 -0.005533698 0.0046027885 -0.0069265845 0.0005386608
-0.004438764 -0.0025854323 -0.0025300877 -0.0071431403 -0.00043909444 0.0015871626 -0.24862655 0.004877049
0.0063048936 0.08919649 0.0015600256 -0.00050627976 -0.004140613 0.005745059 0.0041832933 0.0665162
-0.0035101573 0.005967649 0.00069848227 0.007898908 -0.0047771716 -0.019743374 -0.0024286257 0.0017277471
0.00057523797 0.0043518883 -6.8768684e-05 0.0040563676 -0.0018807412 -0.028593337 -0.12748069 0.0003386011
-0.0001216394 0.00023274997 0.1706548 -0.0037462027 -0.0037301343 -0.00025635562 0.0021148259 -0.03369697
-0.0035446307 -0.0011398838 0.019906854 0.0023995286 -0.002096673 0.004253314 0.0017196308 0.005749073
-0.020108353 0.0031917405 -0.03683462 -0.0065412135 0.006141403 0.0040874425 -0.0074921474 0.007801114
0.0029924274 -0.0015714956 -0.031010708 0.008823808 2.9419723e-05 0.0029366964 0.000712703 -0.0035774754
0.0018422841 0.0038433801 0.0058238516 0.0016830317 -0.018070318 0.0022672063 0.0029786732 0.0002240979
0.0060457187 0.009709292 -0.0766632 0.0030355945 -0.0051272297 0.0061893044 0.004648371 0.007977734
0.18695804 -0.0055517936 0.0021036018 0.0004071851 -0.0015780854 -0.012413026 -0.00034310218 -0.0009908108
-0.0008508033 0.017404795 0.0013405781 -0.00394758 -0.012513898 -9.6199095e-05 2.0517136e-05 -0.00026580162
-0.0018143146 -0.00043793226 0.0058379383 0.0032920572 -0.0005506905 -0.004469998 -0.34534177 -0.0035547384
-0.0073580383 0.008886326 -0.0036711325 0.00428953 0.18358636 -0.020672107 -0.013657746 -0.007917513
0.0030114413 -0.16340412 -0.0028606618 -0.007856655 -0.007659046 -0.37079543 -0.17287098 -0.064807385
0.004569387 -0.21856248 -0.010955436 0.005203081 0.037897248 -0.0011817266 0.0002866654 0.010872177
-0.049535904 -0.0011296759 0.002359705 0.024050355 0.01086177 0.004119248 -0.0053828782 0.029111208
0.011049073 -0.009281831 -0.008405439 0.00027320022 0.0011640484 0.014863281 -0.007637682 0.002652548
-0.004919438 0.009182581 -0.013074614 0.0042059575 0.0024759409 -0.012025465 -0.00016242365 0.0024036402
0.00037802494 0.009480152 -0.0014802123 0.0411142 -0.048011687 0.08152361 0.0031935829 -0.004855965
0.0026175866 -0.0017954871 0.18309814 -0.004998232 0.0011896931 -0.033950355 0.0030742653 -0.01458671
-0.0026578554 0.0046146777 -0.11023891 -0.00044897807 -0.0037173354 -0.009367009 -0.003556172 0.0041022236
0.02212227 0.06278064 0.011460653 -0.0053783525 0.0017118908 0.07104785 0.0016713933 -0.008588048
-0.119687796 0.0011845203 -0.0011005704 0.009093506 -0.016935185 -0.00014162865 -0.0042887917 0.0036239745
0.10410321 0.2743201 -0.00027851522 0.005414321 0.0038706418 -0.0057356735 0.0013011318 0.002706216
-0.0026230214 0.004330386 0.033692278 0.0006300424 -0.022367405 0.0005654095 0.013153045 0.0036076047
-0.017913952 0.0051046996 0.0068424745 0.10660453 0.5893797 -0.002426306 -0.02279756 0.00066379074

a2c_network.mu.weight f4 [6, 256]
00000000: 7995 a63d 084f 2bbd 532d d939 f54f 363b
00000010: 253c 36bb 43ae 493b 26b3 233b 69aa 623b
00000020: ee1c 08bb a98f 75ba 0af0 4b3d dddb 693b
00000030: db54 89bb da79 90bb d00e 5a3b 71ac a03b
00000040: 82f3 4aba 4369 c8ba 0dbf 84ba 98ad 243b
00000050: 1607 5f3a ff5b 2cbb 5609 b0ba 9449 c33a
00000060: aff3 9ebb 8932 ebba 4a5a df3a 8eaa c7ba
00000070: 9489 df3a 59f7 2bba b52b 52ba a66f 403c
00000080: ca62 0dba f54a cab8 1af3 d0ba 16ef b93a
00000090: e43e c9bb 7ddf c838 a8cd f13a 0a80 fcb9
000000a0: 55af e039 fab6 a3bb 5e76 20ba 8f11 2bbb
000000b0: 2fe8 733a 3f58 1e37 7e6d 9fbd 622b 25b9
000000c0: 6722 dc3b 9df6 12bc 1bd3 263a f2f0 473a
000000d0: 9cd4 a6bb b070 0a3c 5387 ad3a e592 2d39
000000e0: 61c1 23bb 3294 393b 8c59 163b 480c 733b
000000f0: 3b57 43bb 1a3f a83b 3e18 f0bb 5e0e 7739
00000100: 12ae 05ba 320c 0c3b 79a7 9038 c289 073b
00000110: 1b59 063a 5f8e 2fbd f032 213d aaa6 c63a
00000120: 6dc1 5bba bfd5 4e3b e0b3 adbd b78c b73a
00000130: 5c36 ae3a 73a0 b5b9 806f 4a3b 2b1d 2ebd
00000140: e6d8 fcb9 ce28 d1ba 224b 39bb df7d 4bbb
00000150: e6f0 01ba 4f37 943b 9ada 3dbb 71b5 343b
00000160: 82ff 653c e7a4 c63b 4288 a23d 314e 5eba
00000170: 9ff3 043c 1621 ad3a 0281 a0bb 386a 6e3b
00000180: 8caf 0f3b 176c 0c3b 53a0 f03b b744 613b
00000190: 15b7 a73b 8e2e af3b 8291 bfb9 cf8f 0bba
000001a0: 2eaa b33c 5dcc 9d3a 0205 033b 912b 2c3c
000001b0: 9045 55ba 9d17 223a 2b37 4c3b e6d6 30bb
000001c0: 171b e4ba 1a78 273b d39a 4ebd a241 103b
000001d0: 8d0b 113b 99ca 0cbb 762b 2abd e95d c7ba
000001e0: 61ab 1b3c 1f68 74bb 4b49 e13b 2b92 e13a
000001f0: 754e beb9 7943 be3b cbf8 df3a e175 163b
00000200: 72d5 fbba dd14 6a3d 7ff7 adba d8af ba3a
00000210: 5703 abbb 278e d539 65fd 0ebb ffb9 9dba
00000220: 2600 323b 2038 9639 e0aa 2d3d d1a3 ca3a
00000230: 5cd7 813a 235c 14bb 1d41 bb3d 64ef 0f3a
00000240: cc1b 6abb 1140 30bb 1621 813b 29dd 50bb
00000250: fdfe e0bd 8d6b e23c e293 d2bb 67bb 863a
00000260: 2cfd 5c3b 0a35 773e a02f 62ba caba 52bb
00000270: 98e9 47bb 5b5c 853d 7b2d bfbd 00b9 2fba
00000280: 2230 4c3b 0961 373e ae30 f6bb 0392 fbb9
00000290: c71a 86bc 52b4 6138 7898 5cbb a304 db3a
000002a0: 2612 02bd 532d 8a3b 3550 243b 25f8 f73a
000002b0: b5c5 073c 0318 4c3b 4ee4 16bb e26e 8b3b
000002c0: ef62 2db9 3f9b c33d f3da 30bb 763e 3aba
000002d0: 2e22 74bb 2922 403c f599 00bc a664 fdb9
000002e0: b30c c8ba 5bb1 223b ae2f ae3c 3f4e ab3b
000002f0: 5ebb 183b 5b2d 05bc 615a 38ba c7fb 563b
00000300: e663 61ba 4a19 b33b 90b7 b0bb 5d9b 0ebc
00000310: 4dca 42bd 512d a43c 89bd a9bb 8102 9bbb
00000320: c86e 9fbb 19af c4ba 6e77 5a3e 0adf d73a
00000330: ea40 8a3b 9e16 87bd be3a 0a3b cd1d bf3c
00000340: d251 4bbb ad6b 853b bd1e c5ba f256 ebbd
00000350: 18ab 3b3a 1802 93bb 361c 45bb 0f65 393b
00000360: f689 213c a3f1 6c3c f1ba 323a ac52 25bb
00000370: 1bdb cf3a 2246 883c 9ff7 92ba 536c 51bb
00000380: 1cc6 05bd 586a 43bb a84e ebb9 8f11 f83a
00000390: 6a69 80ba 7a24 0ebb 793d 483b f610 743b
000003a0: dfd1 8bba 5c2c fdbc 1dcd 02b9 fa3e 883b
000003b0: 2e2b 033b 8f4a bcbb 505d 383b 7748 f1b9
000003c0: a89a d639 c5a5 553b 3125 dbbc 2ceb 513b
000003d0: 0fef e6bc 81fa 13bb 9175 4cbb 5d13 c73a
000003e0: 98a8 343c 3f94 a2ba 2c3b 323a 82b5 d1bd
000003f0: 463a e5bc 689c 0a3a a535 313d f6ea 98bb
0.081339784 -0.041823417 0.00041423235 0.0027818654 -0.0027806845 0.0030774034 0.0024978607 0.0034586436
-0.0020769197 -0.00093674153 0.049789466 0.0035684027 -0.0041910238 -0.004409057 0.003327299 0.004903369
-0.0007741974 -0.001529016 -0.0010127738 0.0025127884 0.0008507831 -0.002629995 -0.0013430517 0.0014899247
-0.0048508267 -0.0017944138 0.0017040458 -0.0015233324 0.0017054551 -0.000655999 -0.0008017377 0.011745369
-0.0005393444 -9.6460724e-05 -0.001594159 0.0014185633 -0.0061415303 9.578371e-05 0.0018448131 -0.00048160582
0.00042855242 -0.0049961777 -0.0006121154 -0.0026102995 0.00093043124 9.43808e-06 -0.07784556 -0.00015751788
0.0067179683 -0.00896993 0.00063638546 0.0007627151 -0.005091263 0.008449718 0.0013239182 0.00016553288
-0.002498709 0.002831709 0.0022941558 0.0037086178 -0.0029806632 0.0051344754 -0.0073271086 0.00023561108
-0.0005099486 0.0021369574 6.897649e-05 0.0020681475 0.0005124972 -0.042860385 0.03935522 0.0015155871
-0.00083830097 0.0031560508 -0.08481574 0.0014003728 0.0013291347 -0.00034642554 0.0030889213 -0.042508285
-0.00048226787 -0.0015957595 -0.0028273542 -0.0031050367 -0.0004956856 0.004523195 -0.0028969408 0.0027573968
0.014037969 0.0060621384 0.07936145 -0.00084802794 0.008114724 0.0013208713 -0.0048981914 0.003637923
0.0021924702 0.0021426731 0.007343331 0.0034373233 0.0051182606 0.005346126 -0.0003653877 -0.00053238583
0.021931734 0.0012039054 0.0019991999 0.010508434 -0.0008135671 0.0006183328 0.0031160812 -0.0026983558
-0.0017403093 0.0025553764 -0.05044062 0.0022011776 0.002213213 -0.0021483062 -0.041545354 -0.0015210483
0.009501309 -0.0037293506 0.0068751923 0.0017209699 -0.0003629808 0.005806383 0.0017087696 0.0022958445
-0.0019213392 0.057148803 -0.0013272612 0.0014243079 -0.005218904 0.00040732438 -0.0021818515 -0.001203358
0.0027160733 0.00028652046 0.042399287 0.0015460198 0.0009906101 -0.0022637926 0.09143279 0.0005490689
-0.0035722135 -0.0026893655 0.0039407117 -0.0031870103 -0.10986135 0.027639175 -0.0064263204 0.0010279239
0.0033720238 0.24141327 -0.00086283125 -0.0032154792 -0.0030504223 0.06511756 -0.093348466 -0.00067032874
0.003115662 0.1790811 -0.0075131273 -0.00047983238 -0.01637019 5.3812117e-05 -0.0033660214 0.0016709756
-0.03175559 0.004216829 0.0025072221 0.0018918557 0.008286883 0.0031142242 -0.0023024264 0.0042551616
-0.00016535421 0.09551095 -0.0026985973 -0.00071046443 -0.0037251818 0.011726894 -0.007849206 -0.0004833091
-0.0015262574 0.002482495 0.02126297 0.0052278335 0.002330504 -0.008128489 -0.00070325105 0.003280388
-0.0008597955 0.005465661 -0.005392976 -0.008704034 -0.04755621 0.02004114 -0.005180065 -0.004730523
-0.004865501 -0.0015005796 0.21334621 0.0016469669 0.004219164 -0.06596111 0.0021092142 0.02332964
-0.003102411 0.004071674 -0.0015039068 -0.11491193 0.0007158979 -0.0044863336 -0.003007663 0.0028288995
0.009859553 0.014461908 0.00068180176 -0.0025226278 0.0015858145 0.016635004 -0.0011212713 -0.0031955435
-0.032659635 -0.0029818024 -0.00044881296 0.0018926131 -0.0009797041 -0.0021689222 0.0030554219 0.0037241555
-0.0010667405 -0.030904941 -0.00012474177 0.004157898 0.002001475 -0.0057461928 0.002813179 -0.00046021093
0.0004093249 0.0032600027 -0.026751133 0.0032031043 -0.028190164 -0.0022579732 -0.0031198005 0.0015188266
0.011026524 -0.00124038 0.00067989784 -0.10239698 -0.027981889 0.00052875886 0.04326405 -0.0046666814

a2c_network.mu.bias f4 [6]
00000000: f685 ae3c 5ffc 82bd 48eb 31bd 7bcd 793d
00000010: a296 0a3e c44f 003f
0.021304112 -0.06395792 -0.043437272 0.060986977 0.13534024 0.5012171

exp_avg f4 [6]
00000000: f772 173b 8bfd 5939 7873 32ba 6267 e8ba
00000010: c7a7 323a 8ae6 96ba
0.0023109296 0.00020789185 -0.00068073673 -0.0017731006 0.0006815162 -0.0011512798

exp_avg_sq f4 [6]
00000000: 477b 2d38 1393 1a38 74b9 1138 3b79 3038
00000010: 42cb 3938 0d6f 3238
4.1361225e-05 3.6853435e-05 3.474341e-05 4.2074575e-05 4.4296736e-05 4.254193e-05

exp_avg f4 [256, 40]
00000000: a9e6 4739 a7e6 47b9 0000 0000 a7e6 47b9
00000010: 0000 0000 0000 0000 cb52 c43b cb1a aa3a
00000020: d9b4 283b 1a09 c93b bede d33a a490 563b
00000030: 3838 bc3a 22dc 8d3b 475c 693a c258 9838
00000040: fa37 1cbb ce2e f6bb a924 9438 adc4 e8ba
00000050: 2a01 183b d15e c737 bd56 833b 8476 c83a
00000060: 5954 f73a 951f 43b9 099f 2e3a e3ea ddb8
00000070: b032 e83a 420f 303b 9575 043b 0ef7 7837
00000080: 067f 9db5 0400 0000 bb09 1f35 067f 9db5
00000090: 0400 0000 dbe3 f437 067f 9db5 0400 0000
000000a0: 812a a537 7d2a a5b7 0000 0000 7d2a a5b7
000000b0: 0000 0000 0000 0000 a636 443a ff4c 7139
000000c0: 8b09 ad3a 9c1d 4a3a 7323 9e39 b38e b93a
000000d0: 7a65 26ba 92a2 95b8 fcd0 313a 8e67 2ab8
000000e0: e30c 9e39 f8ce d339 1772 b038 f9e1 46ba
000000f0: c4a0 4d39 a1a6 f8b8 4e36 1ab9 4336 9a39
00000100: dd71 68b9 d030 c839 ba2c d8b8 d3ac 8a3a
00000110: af86 1aba 9c0b 83b9 0336 b4b8 a622 48b4
00000120: c06f 1bb5 0400 0000 38e0 6ab3 c06f 1bb5
00000130: 0400 0000 7efe a5b4 c06f 1bb5 0400 0000
00000140: c24b 7936 c24b 79b6 0000 0000 c24b 79b6
00000150: 0000 0000 0000 0000 c7f1 ac36 bc56 c8b7
00000160: b8e7 8639 f392 4e37 62ae 05b8 4320 9439
00000170: bdfb 36b9 ab1c 94b8 4409 e9b6 9cf1 01b8
00000180: 9f5a 7637 f35d 0439 1cee 8436 e357 be38
00000190: d3f9 b5b6 60a3 c136 8135 4c38 e3ab 34b9
000001a0: afda f138 0de6 89b8 e39c 30b9 221d 60b7
000001b0: 81b1 95b8 170c 09b9 5460 9db8 6854 dfb3
000001c0: ef6c b8b3 0400 0080 ef24 36b1 ef6c b8b3
000001d0: 0400 0080 feda 5ab4 ef6c b8b3 0400 0080
000001e0: a5f7 7537 a5f7 75b7 0000 0000 a5f7 75b7
000001f0: 0000 0000 0000 0000 e628 343a d903 55b6
00000200: 96e5 04ba b527 3c3a 0944 e437 32e4 8bb9
00000210: c59d 333a a003 6839 79d5 9bb9 c57f 9a38
00000220: a53b 96b9 a578 94ba f5ca 9737 8354 bab7
00000230: 0784 033a 2b0b 8037 4b10 e139 671c c337
00000240: aba4 0f3a 545a 3fba 59a8 33ba 0f5b 40ba
00000250: 6231 f638 2b58 0c3a ee02 d038 1a34 6c36
00000260: 553e 4fb4 0400 0000 44f3 e133 553e 4fb4
00000270: 0400 0000 3318 e936 553e 4fb4 0400 0000
00000280: 7fee 25b8 7dee 2538 0000 0000 7dee 2538
00000290: 0000 0000 0000 0000 6b8c 69ba 24e4 84b9
000002a0: 2670 c0b9 4c3e 6eba f72d 95b9 f9a0 cab9
000002b0: 1bcc 8739 4fa5 f1b9 d85d 0eb9 b757 3db6
000002c0: 0695 6139 39fc de3a 86c5 9537 1e9e 6639
000002d0: def1 a8b9 8f99 0438 3ed9 49ba 9e21 e4b9
000002e0: e893 083a 346a 55b9 16ff 6cb9 1cdf f5b8
000002f0: b4a8 53ba a8c2 7cba cc39 8cb9 5c0c 3eb6
00000300: cc0d adb3 0400 0080 22ab 7bb4 cc0d adb3
00000310: 0400 0080 e1c3 b6b6 cc0d adb3 0400 0080
00000320: d0e1 f3b6 c4e1 f336 0000 0000 c4e1 f336
00000330: 0000 0000 0000 0000 2215 07ba d837 c6b8
00000340: 01fc 5538 e30c 09ba a596 eab8 db42 5238
00000350: 70ed 08ba fe3e 29ba 2e2c b9b8 9bdb 4938
00000360: 1581 0539 a351 20b9 d21a 5c38 d5a5 6036
00000370: 1baa 8438 5481 b3b7 0471 3cb9 f091 f0b9
00000380: 5d57 4438 d201 ceb8 0965 11b9 51d2 0139
00000390: a248 4db9 e393 e4b7 34b0 0eb9 8240 05b4
000003a0: 3a1b 6034 0400 0080 c529 83b3 3a1b 6034
000003b0: 0400 0080 9fec 4bb4 3a1b 6034 0400 0080
000003c0: d61d 0337 da1d 03b7 0000 0000 da1d 03b7
000003d0: 0000 0000 0000 0000 16ed c7b8 46e9 66b5
000003e0: 7a6e a439 29d9 d5b8 b8db 24b6 c32b db39
000003f0: 3858 21ba 6413 0cb9 bd22 5139 bc0b a637
0.00019064047 -0.00019064044 0.0 -0.00019064044 0.0 0.0 0.005991315 0.0012977956
0.002574256 0.006135118 0.0016164405 0.003274002 0.0014360016 0.0043292204 0.0008901995 7.264457e-05
-0.0023837076 -0.007512904 7.0640184e-05 -0.0017758809 0.0023194053 2.3766801e-05 0.0040081427 0.001529411
0.0018869742 -0.00018608414 0.00066612713 -0.00010581852 0.0017715301 0.0026864563 0.0020211686 1.4839474e-05
-1.173438e-06 6e-45 5.9246275e-07 -1.173438e-06 6e-45 2.919317e-05 -1.173438e-06 6e-45
1.9689325e-05 -1.9689318e-05 0.0 -1.9689318e-05 0.0 0.0 0.000748495 0.00023012234
0.0013201697 0.00077101006 0.0003016252 0.0014156908 -0.00063475186 -7.135155e-05 0.0006783155 -4.06276e-05
0.0003014571 0.0004039926 8.413585e-05 -0.0007586773 0.00019610213 -0.000118565986 -0.00014706815 0.00029413597
-0.00022167662 0.0003818334 -0.000103080136 0.001058007 -0.0005894703 -0.00024994917 -8.593129e-05 -1.8639057e-07
-5.790462e-07 6e-45 -5.4686296e-08 -5.790462e-07 6e-45 -3.0918812e-07 -5.790462e-07 6e-45
3.7147988e-06 -3.7147988e-06 0.0 -3.7147988e-06 0.0 0.0 5.154146e-06 -2.3882247e-05
0.00025731116 1.2312771e-05 -3.1872078e-05 0.00028252797 -0.00017450652 -7.06253e-05 -6.94502e-06 -3.0981013e-05
1.4683842e-05 0.000126235 3.961626e-06 9.076276e-05 -5.4233037e-06 5.7708676e-06 4.868722e-05 -0.0001723017
0.000115325085 -6.5755194e-05 -0.00016843113 -1.3358223e-05 -7.137936e-05 -0.00013069842 -7.504286e-05 -1.03996e-07
-8.5879826e-08 -6e-45 -2.650548e-09 -8.5879826e-08 -6e-45 -2.0382501e-07 -8.5879826e-08 -6e-45
1.4660797e-05 -1.4660797e-05 0.0 -1.4660797e-05 0.0 0.0 0.00068725494 -3.1741713e-06
-0.00050696114 0.00071775477 2.72114e-05 -0.00026682165 0.00068518176 0.00022126595 -0.00029722953 7.367091e-05
-0.00028654668 -0.0011327459 1.8095112e-05 -2.2212282e-05 0.0005016927 1.526399e-05 0.00042927483 2.3259037e-05
0.00054795545 -0.0007299532 -0.0006853394 -0.00073377875 0.00011739392 0.0005353714 9.9187586e-05 3.5197068e-06
-1.9301054e-07 6e-45 1.0521629e-07 -1.9301054e-07 6e-45 6.9467583e-06 -1.9301054e-07 6e-45
-3.9561182e-05 3.9561175e-05 0.0 3.9561175e-05 0.0 0.0 -0.00089091685 -0.0002534698
-0.0003670465 -0.00090882624 -0.0002845374 -0.00038648376 0.00025901277 -0.00046090267 -0.00013577135 -2.8214251e-06
0.00021513188 0.0017012424 1.7854163e-05 0.00021993413 -0.00032223662 3.1614265e-05 -0.0007699913 -0.00043512596
0.0005210028 -0.00020352827 -0.00022601741 -0.00011724068 -0.000807415 -0.0009642043 -0.00026745943 -2.83194e-06
-8.05845e-08 -6e-45 -2.3438454e-07 -8.05845e-08 -6e-45 -5.446826e-06 -8.05845e-08 -6e-45
-7.2682524e-06 7.268247e-06 0.0 7.268247e-06 0.0 0.0 -0.00051529903 -9.4517774e-05
5.1017854e-05 -0.00052280555 -0.00011186049 5.0130166e-05 -0.0005223369 -0.0006456225 -8.8297165e-05 4.8126658e-05
0.00012731955 -0.00015289201 5.2477066e-05 3.3475128e-06 6.325935e-05 -2.1398686e-05 -0.00017971179 -0.000458851
4.6811405e-05 -9.8231845e-05 -0.00013865916 0.00012380748 -0.00019577381 -2.7248583e-05 -0.00013607816 -1.2410058e-07
2.087153e-07 -6e-45 -6.107761e-08 2.087153e-07 -6e-45 -1.899193e-07 2.087153e-07 -6e-45
7.815155e-06 -7.815159e-06 0.0 -7.815159e-06 0.0 0.0 -9.53322e-05 -8.6021134e-07
0.0003136283 -0.00010197081 -2.4565798e-06 0.0004180354 -0.0006154808 -0.00013358664 0.00019944734 1.9794206e-05
