logs/rl_games/yam_cube_sort_8192/2026-02-01_19-21-52/nn/last_yam_cube_sort_8192_ep_450_rew_433.6401.pth (torch, 953168 bytes, 30 tensors)

value_mean_std.running_mean f8 [1]
000000 cb cb 3c 23 4e 90 b3 3f
       0.07642067299165871

value_mean_std.running_var f8 [1]
000000 37 80 a4 5e a3 fd 83 3f
       0.009761120153200504

value_mean_std.count f8 []
000000 00 00 00 02 00 20 ac 41
       235929601.0

running_mean_std.running_mean f8 [40]
000000 cd c3 19 2a d7 fa ef 3f c2 45 9a 64 45 a3 44 3f
       0.9993701765325739 0.0006298149903207139
000010 00 00 00 00 00 00 00 00 c2 45 9a 64 45 a3 44 3f
       0.0 0.0006298149903207139
000020 00 00 00 00 00 00 00 00 00 00 00 00 00 00 00 00
       0.0 0.0
000030 16 08 d5 45 1f 96 c7 3f dd ef d6 7e 59 c3 ca 3f
       0.1842688647248571 0.20908659642543528
000040 ba c5 08 40 52 22 ba 3f a8 7c 26 96 63 b1 c7 3f
       0.1020862013181362 0.18510098296699096
000050 12 a0 23 bc c2 ad ca 3f 2b 4f 74 79 33 16 ba 3f
       0.20842775522692186 0.10190126147454907
000060 1b fb 25 3d f2 dd e3 3f d6 e3 b8 32 fe 1b d0 3f
       0.6208430475524865 0.25170855477659637
000070 f1 2e b6 dc 05 3f d0 3f b7 39 da ac 9a 11 8a 3f
       0.25384661249039114 0.012728889846837938
000080 a4 81 85 95 48 cd d0 3f e2 52 f0 a5 39 a6 d1 3f
       0.2625295124217024 0.27577058033902635
000090 c6 f8 7d fe 42 0a 8a 3f fc 95 9f 9c e9 cd d0 3f
       0.01271488513134179 0.26256790442707234
0000a0 08 68 8f a4 ac b7 d1 3f 94 0b b0 20 2f 0a 8a 3f
       0.27683559484796705 0.01271473711495278
0000b0 ef 15 fa b3 95 e1 39 3f 82 df fc eb fc d7 2b bf
       0.00039491562709090174 -0.00021243059563302516
0000c0 aa 55 fd 66 bd 15 4f bf e0 c5 37 2e d9 b5 38 3f
       -0.0009486365142758375 0.0003770499444889202
0000d0 d0 52 ff 9e c1 88 30 3f 86 7c 10 9b 14 d0 45 bf
       0.00025229193761093244 -0.0006656742681378093
0000e0 af c2 b2 14 17 c3 35 3f 78 b3 6b 8d ba 02 33 3f
       0.00033206284997348406 0.00029007963659815434
0000f0 24 3d 72 7b c2 96 45 bf 35 81 95 11 cb fc d0 3f
       -0.0006588410968947672 0.26542927472293637
000100 7a 05 4d 34 72 02 ca bf b7 58 16 fd df 7a 84 3f
       -0.20319964936974683 0.009999990378485852
000110 65 26 9e e5 01 c0 b0 3f 7a 05 4d 34 72 02 ca bf
       0.06542980056669874 -0.20319964936974683
000120 b7 58 16 fd df 7a 84 3f fb 78 c3 a3 95 c9 dd 3f
       0.009999990378485852 0.4654287432912409
000130 7a 05 4d 34 72 02 ca bf b7 58 16 fd df 7a 84 3f
       -0.20319964936974683 0.009999990378485852

running_mean_std.running_var f8 [40]
000000 5b 90 81 13 3f a0 44 3f 16 7e 07 07 2d a0 44 3f
       0.0006294544209706309 0.0006294460163722173
000010 0c ef 03 76 56 34 42 3e 16 7e 07 07 2d a0 44 3f
       8.477104962860868e-09 0.0006294460163722173
000020 0c ef 03 76 56 34 42 3e 0c ef 03 76 56 34 42 3e
       8.477104962860868e-09 8.477104962860868e-09
000030 19 9e 4f 09 df c9 a9 3f 96 dd 10 fe 09 bb ae 3f
       0.05036828030261748 0.06002074457540656
000040 14 46 df 97 c8 c0 82 3f 83 88 50 99 9e 20 a7 3f
       0.00915676797368107 0.04517074224010378
000050 b8 54 c7 94 af 9a ab 3f 61 f1 f9 0c 32 94 80 3f
       0.05391453448434319 0.008095160504347278
000060 91 b0 18 16 7e cd b7 3f 68 b7 c7 ac c4 1a 85 3f
       0.09297931708778352 0.01030496265681409
000070 82 30 51 73 7f 1f 98 3f e0 0c b5 9a 62 0a ba 3e
       0.02355765477504735 1.5521387507079528e-06
000080 27 12 94 0a 86 dd 81 3f ed ed 87 26 f0 fe 91 3f
       0.008723303983523568 0.017574074126953155
000090 dd 52 dd 78 76 5a b8 3e 12 0c 11 98 91 ed 81 3f
       1.451573982310157e-06 0.008753907635883382
0000a0 81 a9 06 cf 51 74 91 3f ab ff fe f3 3c 31 b3 3e
       0.017045286427369803 1.1439523888018097e-06
0000b0 dd cf 94 2f 07 05 77 3f e1 65 36 e2 ca 89 7b 3f
       0.005620029516013117 0.0067232060568129534
0000c0 ef 4b bb 9c 2a 94 46 3f c1 78 ae 29 ac d9 73 3f
       0.000689049536470752 0.004846260558137584
0000d0 c1 f3 5d b2 4b 12 77 3f f2 ab 6b d2 09 fb 3e 3f
       0.00563268250504917 0.0004727267245658299
0000e0 78 b1 b2 f1 b8 b4 73 3f 57 94 21 81 5f a8 76 3f
       0.0048110222225371466 0.005531666816840439
0000f0 a8 53 e3 65 ed 53 3e 3f d0 f5 dc c4 4c 7e 43 3e
       0.00046276613092049524 9.077302600222376e-09
000100 26 ae d9 0a 63 f6 42 3e 96 3d f2 c3 cd 34 42 3e
       8.830078303276688e-09 8.47795267173302e-09
000110 54 f0 8d e8 54 48 42 3e 26 ae d9 0a 63 f6 42 3e
       8.513473719175223e-09 8.830078303276688e-09
000120 96 3d f2 c3 cd 34 42 3e 27 a7 f0 07 2a 2c 46 3e
       8.47795267173302e-09 1.0324882502855974e-08
000130 26 ae d9 0a 63 f6 42 3e 96 3d f2 c3 cd 34 42 3e
       8.830078303276688e-09 8.47795267173302e-09

running_mean_std.count f8 []
000000 00 00 00 04 00 20 9c 41
       117964801.0

a2c_network.sigma f4 [6]
000000 38 e6 b4 bf 4a 5e b5 bf bf 08 b0 bf 5f 24 84 bf
       -1.4132757 -1.41694 -1.3752669 -1.03236
000010 e1 b8 b2 bf a0 f1 c5 3f
       -1.396267 1.5464363

a2c_network.actor_mlp.0.weight f4 [256, 40]
000000 4f 10 7f 3e 6e 80 aa be eb 47 88 3d 1e 8b 18 be
       0.24908565 -0.3330111 0.06654342 -0.14896819
000010 86 2f bb 3d 62 90 8d bd cf 3a 02 3f 61 21 9d 3f
       0.09139924 -0.069123045 0.50870985 1.2275811
000020 20 98 b7 3e ff e5 db be ac 99 89 bf 4d 30 91 be
       0.3585825 -0.4294891 -1.0750022 -0.28357163
000030 c7 71 19 3c 66 dd 8f bd be 76 3b bd 9c 6b 63 3d
       0.009365506 -0.0702465 -0.04576754 0.055522546
000040 c1 81 ab 3c a2 be 8d 3c d6 34 3e be df aa 7a bc
       0.020935895 0.017302815 -0.18574843 -0.015299528
000050 9e 16 f5 bc 02 00 81 3c 57 90 c3 ba b1 8e 85 bd
       -0.029918011 0.015747074 -0.0014920336 -0.06521357
000060 76 db 0b bd fe 45 29 3e b3 77 db bd df 9a 5a 3e
       -0.03414484 0.16530606 -0.1071619 0.21348141
000070 66 86 e5 bc c2 2e 38 be 25 30 ec 3c f7 46 aa 3d
       -0.028018188 -0.17986587 0.02883155 0.08314317
000080 c2 cd bb 3c 5a bd 11 be 7e 82 ce 3d e2 7e 81 be
       0.022925261 -0.14232388 0.10083483 -0.25292116
000090 64 11 f2 bd 5c 3d bf 3d 8f b0 94 bd cc d3 f4 3d
       -0.11819723 0.09337875 -0.072602384 0.119544595
0000a0 97 4e a2 3e 7b 12 02 bf 73 cf ab 3d a7 ad ed be
       0.31700584 -0.5080945 0.08389177 -0.4642155
0000b0 4b 88 c4 3d 1f af 19 bd ed e2 a9 3c dd 14 03 bf
       0.09596308 -0.037520524 0.02073809 -0.5120371
0000c0 60 5c b3 3e e5 1a d9 be 27 0a dd 3e d3 42 29 3e
       0.35031414 -0.4240333 0.43171808 0.16529398
0000d0 26 14 6f 3d 70 d0 03 3f af e9 37 be 83 04 45 be
       0.058368824 0.51489925 -0.17960237 -0.19240002
0000e0 d5 19 80 3d c9 a2 64 bd f0 99 4f be 9a ae 30 bb
       0.06254927 -0.055819307 -0.20273566 -0.002695954
0000f0 72 7b b9 3c 28 18 e0 bd 10 00 93 be d4 fb 7c be
       0.022641871 -0.109421074 -0.28710985 -0.2470544
000100 70 0f 2a 3d b5 06 80 be 7d 08 af be 42 77 b3 be
       0.04151863 -0.25005117 -0.34186164 -0.35051924
000110 7c 68 20 3e e7 b7 71 be ca 56 9a bd 56 6f ce bd
       0.15664858 -0.2360531 -0.07536085 -0.100798294
000120 c7 bb 4b 3f 6c e7 1b be 20 15 12 3e 7f c9 31 3f
       0.795834 -0.15224999 0.14265871 0.69448084
000130 77 62 a3 3c ac ac a1 be d3 d1 2d 3f 0d a6 cb bd
       0.019944413 -0.3157705 0.6789829 -0.09943781
000140 7e 4e 9d 3d b8 63 db bd 68 83 33 bc 84 29 1f be
       0.07680987 -0.10712379 -0.010956623 -0.1554318
000150 3f 44 de bd 62 ea bc bd ce 32 9a 3a 7e 71 f6 be
       -0.10852861 -0.092243925 0.0011764409 -0.48133463
000160 ea 3f f6 3e af d4 d1 bc 65 7b f3 3e a2 ad ee be
       0.48095638 -0.02561411 0.4755508 -0.46616846
000170 b8 03 67 bb 1e c0 1d 3c 3c 39 16 bc f2 01 77 bc
       -0.003525002 0.009628324 -0.009168919 -0.015076147
000180 6d 14 37 bc cd 61 00 3c 6a 04 5c 3d c7 e2 29 bc
       -0.0111743035 0.0078358175 0.053715147 -0.010369009
000190 d2 ad a3 bb 87 9a 95 3d 86 bd 80 bc 0d e6 ba b9
       -0.004995086 0.073048644 -0.015715372 -0.00035648086
0001a0 da 6d b0 ba 3b 0a 69 bb 10 f7 3d 3d 6f 3d 86 bc
       -0.0013460473 -0.0035559076 0.046378195 -0.016386716
0001b0 48 89 b7 3c be 46 a0 bc eb 7c cf bc 31 17 b8 3f
       0.022404328 -0.019564983 -0.02532812 1.4382077
0001c0 69 6c 4f bf 2f 0c d9 bd b7 c3 0d 3c 28 b2 68 bf
       -0.81024796 -0.10598027 0.008652619 -0.90896845
0001d0 14 64 c6 3d 8e 95 cf 3f b4 d5 3d bf 81 be 95 bd
       0.09687057 1.6217515 -0.7415421 -0.07311726
0001e0 5e 8a 8c 3e 82 c2 86 be 9b 9f a6 3c 0e e4 df be
       0.27449316 -0.26320273 0.020339778 -0.4372868
0001f0 4b ef 87 3d 28 51 c2 bc d1 c9 8b 3d d3 a3 83 3f
       0.066374384 -0.023720339 0.06825603 1.028437
000200 77 60 3a 3e ae 75 ad 3c 24 7a 76 bf 41 27 57 be
       0.18200861 0.021174278 -0.9628012 -0.21011068
000210 55 23 ae bc 2d 73 97 bc 4a bf 29 3c d7 10 de be
       -0.021257082 -0.018487537 0.010360548 -0.43372223
000220 72 1e 34 bc 44 ee 44 ba 19 8f cb 3e c9 a6 3d bb
       -0.010993587 -0.0007512311 0.39757612 -0.0028938523
000230 16 3d 89 bc 8b 8b 60 3e 4b d9 aa 3d ea 1e 68 3c
       -0.01675276 0.21928231 0.083422266 0.014167527
000240 38 c3 87 bd 04 29 df 3c ae ec 10 bd 47 c7 26 bd
       -0.06629032 0.027241237 -0.035381965 -0.04071739
000250 14 ef 77 bc c0 18 0a 3d 2e ae cf bd ec de 1d 3f
       -0.015132684 0.03371501 -0.10140644 0.61668277
000260 54 b4 c9 3e 20 22 09 3e 80 a1 3e 3f d3 d4 83 3e
       0.39395392 0.13391924 0.7446518 0.2574831
000270 5b f3 b3 39 a9 31 1f 3f 47 6b a9 3e ca 71 2d 3d
       0.00034322854 0.6218515 0.3308966 0.042344846
000280 18 e1 f3 3c bf 61 6b be 18 59 08 3e ee 1e e1 bd
       0.029770419 -0.22986506 0.13315237 -0.109922275
000290 d9 d8 00 bc 35 3b c3 bd 8b e6 0a bf a7 c9 13 bf
       -0.0078642005 -0.09532777 -0.5425803 -0.5772957
0002a0 a8 ae eb bd e8 46 00 3f 95 23 1d 3f 76 a2 9b 3e
       -0.115079224 0.50108194 0.6138242 0.30397385
0002b0 57 b3 ae 3d 34 7c 85 3c 75 38 30 3c 71 72 bb bd
       0.085303 0.016294576 0.010755648 -0.09152687
0002c0 96 5a 3a ba 88 ea 06 3d 55 fa 64 bf 03 f7 1a bb
       -0.0007108835 0.03293851 -0.89444476 -0.0023645766
0002d0 e8 6a f0 3c 64 73 91 be 56 aa 27 bd 3e cf 23 3d
       0.029347852 -0.2840835 -0.04093393 0.039992563
0002e0 e8 5a af 3c f0 39 d8 bd 5c 16 c4 3d 78 ec 0a 3f
       0.021405652 -0.10557926 0.09574577 0.5426707
0002f0 30 a0 58 bd ec 43 8f bd c7 37 8c be 45 a4 f0 bf
       -0.05288714 -0.06995377 -0.27386305 -1.8800131
000300 3f ae 75 3f cf c6 07 3e f5 fc 5d bf d9 7d 6c 3f
       0.95969003 0.13259433 -0.86714107 0.9237953
000310 60 8e 03 bb c0 54 08 c0 af 91 3f 3f 46 e9 17 be
       -0.0020073876 -2.1301727 0.7483167 -0.1483508
000320 26 0c 6d be c7 03 94 3e 8e 56 02 bd c3 2b 8d 3e
       -0.23149166 0.28909132 -0.031820826 0.2757245
000330 4d 07 ec bc f3 e9 e3 bd 5b 46 17 bf 46 fd b0 3e
       -0.028812075 -0.11128607 -0.5909173 0.34568232
000340 9e 2c 69 3e 14 50 0d 3f da 00 f0 be e6 02 86 be
       0.22770926 0.55200315 -0.4687565 -0.26174086
000350 c8 bc 9f 3c e9 aa 8e bc 0f 2b 86 3d 10 77 ea be
       0.019499198 -0.01741548 0.065511815 -0.45793962
000360 da 2a 4b 3d 0f 2d 59 bc 34 d0 a0 be 6c 32 ca 3c
       0.049601413 -0.013255372 -0.31408846 0.024682246
000370 5d 44 42 bd 47 b8 71 3d ec c5 6b 3d 9f 36 08 3d
       -0.047428478 0.05901363 0.0575618 0.033255216
000380 78 e9 48 3d 20 9a 94 bd ba e9 62 bc 76 db a2 3d
       0.04905078 -0.072559595 -0.01384967 0.07952015
000390 14 2d 20 bd 70 f9 0d be a5 87 27 3d ae 93 45 bf
       -0.03910549 -0.13864684 0.040900845 -0.77178466
0003a0 c6 06 2f 3f 12 d1 07 3e aa 55 83 3e 99 59 0c 3f
       0.6836971 0.13263348 0.25651294 0.54824215
0003b0 27 b7 ec bd 8a 3b 16 bf 54 42 2c 3f 03 7a 12 be
       -0.11558371 -0.586846 0.6728871 -0.14304356
0003c0 06 f3 ce 3d aa 06 5c be 00 94 62 bc 8a a9 4a be
       0.10104947 -0.21486917 -0.013829231 -0.19791237
0003d0 b1 5d 84 bd e9 98 4d bd 23 d4 b6 be 17 0a ae 3e
       -0.06463183 -0.050194655 -0.35708722 0.33992073
0003e0 aa a4 14 3f 48 41 b0 3e a5 95 bc be 03 0d 13 bf
       0.5806376 0.34424806 -0.3683292 -0.5744173
0003f0 e6 0e 70 3b 13 15 a9 b8 73 4c de 3c ed 86 74 3c
       0.0036629974 -8.062473e-05 0.027136063 0.014924747

a2c_network.actor_mlp.0.bias f4 [256]
000000 13 fb 51 bc 54 3e 38 3e 2f f1 47 3b 3a cf 24 bb
       -0.012816208 0.17992526 0.0030508747 -0.002514793
000010 ee bc eb bd 96 61 53 3d 4b b7 4f 3c ef 6b e0 bd
       -0.11510645 0.051606737 0.012677978 -0.10958087
000020 b0 83 d2 be 70 ed 98 3e 4e 5d c1 3e 80 b7 c5 be
       -0.41116095 0.2986865 0.37766498 -0.38616562
000030 00 1b 4a bc 22 dc 41 3e 55 7a 0f bd eb 9c 42 3e
       -0.012335539 0.1893163 -0.035028774 0.19005172
000040 92 b1 a6 3e d4 4c 87 bc 14 fa 37 bf 9b ac b1 3c
       0.3255735 -0.016516127 -0.71865964 0.02168875
000050 6c b0 cf bb bf 04 f4 be a7 c7 5f bd 0e fc c6 bb
       -0.00633817 -0.4765987 -0.054633763 -0.0060725277
000060 8d 26 25 3b 16 8d 70 be 8c 27 c1 bd 53 bc e9 be
       0.002519998 -0.2349132 -0.09431371 -0.45651492
000070 57 54 02 3f 92 c9 0b be bf 81 bc bc cc 1c 09 bf
       0.5090994 -0.13651112 -0.023011087 -0.53559566
000080 f6 58 e3 bc 31 eb 0f be 27 ef 0a bf 2a 9d 17 bd
       -0.02775238 -0.14054562 -0.5427117 -0.037015118
000090 c6 8b b8 be 87 b5 7e bf db 94 75 bf 77 5d 11 bd
       -0.3604414 -0.9949574 -0.9593026 -0.035489526
0000a0 52 f4 6f 3e ab 5a 4b bd 7c 9f 1b bc 2f f0 94 3c
       0.23433045 -0.049647015 -0.009498473 0.018180935
0000b0 dd 29 42 3d ee 95 11 bc 78 30 ae 3b 0d 0a 49 3c
       0.047403205 -0.008885844 0.0053158365 0.012270463
0000c0 e0 7c 4f bc f1 25 8d bd 3d b2 84 bf 59 30 35 ba
       -0.01266405 -0.068920024 -1.0366894 -0.00069118064
0000d0 fc 67 eb bd ed c3 bd 3b 49 fd 10 3c d0 5f 04 bd
       -0.11494443 0.0057911784 0.00884945 -0.032317936
0000e0 69 b0 03 bf e3 8a 89 3e e6 25 32 bd 20 1d 48 3c
       -0.51441056 0.26863775 -0.043493174 0.012213975
0000f0 b8 6f 0c bd c5 9f 87 bc 4f df 6d bc 06 13 95 bf
       -0.03428623 -0.016555676 -0.014518573 -1.164643
000100 1b b7 84 bf 5a cd 62 3e 63 e1 36 bd 4b 47 80 bc
       -1.0368379 0.22148648 -0.04464854 -0.015658995
000110 f8 b7 69 bc 01 ff 20 3c b2 c6 12 bf c8 54 04 bd
       -0.014265053 0.009826423 -0.57334435 -0.032307416
000120 0d 34 9e be 16 6c 99 3d d3 ab 0c be 39 87 98 3b
       -0.30899087 0.07491319 -0.1373742 0.0046547917
000130 71 99 5d bf b7 6f 4c 3c 1d 0f 08 bf 75 fe 15 bf
       -0.8656226 0.012477807 -0.5314806 -0.58591396
000140 be 74 aa 3c f7 3d 53 3a 9f 43 c4 bd 2a f2 9f bd
       0.02080762 0.0008058245 -0.0958321 -0.07809861
000150 04 51 d4 be 5e 8c 7c bd fe 6d 39 bd e4 d9 35 bd
       -0.4146806 -0.061657302 -0.045270912 -0.04439725
000160 f3 b9 a7 bd bf 00 5b be 38 e8 45 ba b5 63 f3 bd
       -0.08189764 -0.21387003 -0.0007549557 -0.11884252
000170 24 99 40 bf 9e d1 a8 bc 8b 93 e8 bd 94 cd 24 bf
       -0.75233674 -0.020607766 -0.113562666 -0.6437619
000180 ec 82 63 3c 97 a5 ca bb ec d5 26 bd e8 89 15 be
       0.013886195 -0.0061842906 -0.040731356 -0.14603388
000190 d6 db 04 bf 82 2c 8c 3c 09 28 9c bc bb 7f 68 3e
       -0.51897943 0.017111067 -0.019062059 0.22704975
0001a0 51 d1 47 bc 77 40 b0 3c cf 49 64 39 77 1d 0d be
       -0.012195901 0.021515114 0.0002177127 -0.13780771
0001b0 e3 aa a0 3c 74 1e 09 bf 87 6a 85 3e 11 88 59 be
       0.019612735 -0.5356209 0.26057836 -0.21243311
0001c0 c7 47 ea bc db c7 81 bb 92 80 32 bd a8 c6 83 3c
       -0.02859868 -0.003960592 -0.043579645 0.016085938
0001d0 ef 23 5f bd 1f eb f7 ba 98 a2 a7 3d 03 e6 6d be
       -0.05447763 -0.0018914676 0.08185309 -0.23232274
0001e0 6b 62 eb be c9 60 af bc d7 b2 ac be 5e 6f 2d bd
       -0.45973524 -0.021408455 -0.33730194 -0.042342536
0001f0 44 03 51 3e e8 da 7f be b4 d9 92 bc 9c e4 04 bc
       0.20411402 -0.2498585 -0.017926075 -0.008111145
000200 d5 96 48 be 1c 81 e4 bc 51 ce c5 be 71 1f bd bc
       -0.19588788 -0.027893595 -0.3863397 -0.023086281
000210 08 37 e5 ba c9 a0 67 3c 52 c4 3d bc 0a c1 8e bd
       -0.0017487714 0.014137455 -0.011582451 -0.06970413
000220 80 ff 59 3c 50 e2 ba bc e4 45 a7 3e e2 2b e0 bc
       0.013305545 -0.022812992 0.3267051 -0.027364675
000230 f0 d2 55 bd 3b 8f 86 3c b8 e7 b7 be 78 c6 07 bd
       -0.05220312 0.01642572 -0.35918975 -0.03314826
000240 69 17 15 3c 8e 0a 79 3c 98 34 81 bc 16 c3 8e bd
       0.00909982 0.01520027 -0.015772149 -0.069708034
000250 34 49 95 bc 4e c2 e6 3b c9 da 33 3b a3 e1 d1 b9
       -0.018223383 0.007042206 0.0027443639 -0.000400317
000260 aa 74 1d bd 5c d6 f1 bd 69 64 92 3e f6 74 35 be
       -0.038441338 -0.11808464 0.28592232 -0.17720398
000270 f9 36 63 bc 43 58 d0 3b b5 ac 8c 3a 4a a0 21 bd
       -0.013868087 0.006358178 0.0010732623 -0.039459504
000280 48 22 ae bb 88 9f a5 be dd b7 0b 3c 4e ff 37 be
       -0.0053141452 -0.32348275 0.008527723 -0.17968485
000290 bf 3f ac bc 06 49 d9 3d 77 c7 79 3c 03 f8 23 bf
       -0.02102649 0.10609631 0.01524531 -0.6405031
0002a0 88 f4 d5 bb 15 ca cc 3b 1b d9 be be 01 4d 48 be
       -0.0065293945 0.006249676 -0.37275013 -0.19560625
0002b0 2d 78 ae bb f7 ad 01 bc 49 05 84 bc 8f 23 1d 3c
       -0.0053243847 -0.007915012 -0.016115801 0.009590997
0002c0 81 3c 72 bd 57 be a0 be c8 82 32 bd e3 a3 5d bf
       -0.059139732 -0.31395218 -0.043581754 -0.86578196
0002d0 5e 2c 20 3c cd 76 8c 3b f2 2a 11 bf db fc 02 bc
       0.009776203 0.004286623 -0.56706154 -0.007994856
0002e0 5a 89 4b be 0a 57 e2 bd 95 cb 97 3c 98 09 bb bc
       -0.19876614 -0.11051758 0.018529693 -0.022831723
0002f0 50 9c 46 be 9f d4 5b 3e 11 b6 63 bf b3 78 a9 3d
       -0.19395566 0.21467827 -0.88949686 0.08274975
000300 e1 19 6e bc 27 44 34 be 15 29 00 bf ed 84 1c 3c
       -0.014532537 -0.17604123 -0.50062686 0.009553176
000310 0e d9 92 3d 59 64 89 3c 20 68 9a 3c 50 10 c3 bc
       0.07170306 0.016771482 0.018848479 -0.02381149
000320 c3 3b 3b 3c 5a a3 1d bd 71 62 46 bd 41 c1 2c 3d
       0.0114278225 -0.038485862 -0.048433725 0.04217649
000330 74 5e 9a bc f7 fc 1a 3c d1 cb 36 be 4b 74 83 ba
       -0.018843867 0.009459726 -0.17851187 -0.0010029165
000340 ec 99 25 be b2 02 a2 3e d8 a8 21 bf 74 6e 42 bc
       -0.16171998 0.3164268 -0.6314826 -0.011867154
000350 1e 9d 57 3d a9 46 ea be 6d 8b ca bc 9f b7 00 bc
       0.052640073 -0.45757034 -0.024724687 -0.007856279
000360 65 12 d4 bd cc fe d1 bc 48 21 11 bf 91 3b 12 3e
       -0.10355071 -0.025634192 -0.5669141 0.14280535
000370 e4 98 4c 3c 14 bc 87 3c de 12 a0 be b1 41 9e bc
       0.012487624 0.016569175 -0.31264395 -0.019318433
000380 77 31 9e bc ff 3a 25 bf 3c f4 f9 be bd a1 9a bd
       -0.019310696 -0.64543146 -0.4881915 -0.075503804
000390 dc 8d 01 3c 8e b8 96 be ca 3a 40 bf 00 b5 f5 3b
       0.007907357 -0.2943768 -0.75089705 0.0074983835
0003a0 fd 8a c4 bc c0 84 9e be 12 86 ce 3c 00 33 58 bc
       -0.023992056 -0.30960655 0.025210414 -0.013195753
0003b0 65 ce 13 3a d1 14 50 be 08 81 de bc 94 d6 c8 bd
       0.000563836 -0.20320441 -0.027161136 -0.098065525
0003c0 90 38 f3 3d 49 e6 5a 3d 2b 4b 0a bd 9d 12 50 3b
       0.11876023 0.053442273 -0.033763092 0.0031749376
0003d0 7b 8d ed bc 20 44 34 bf bc 16 a7 be 08 7b 81 bc
       -0.028998127 -0.7041645 -0.32634532 -0.015805736
0003e0 06 6c 59 bf 4d ff e5 bd 72 cc 84 3e b8 d6 a0 bc
       -0.84930456 -0.112303354 0.2593723 -0.019633636
0003f0 66 39 42 bd ca ef 86 ba 5e 0e 2b 3e a9 9b c7 3e
       -0.04741802 -0.0010294851 0.167047 0.38985947

a2c_network.actor_mlp.2.weight f4 [256, 256]
000000 0a 07 ef bd fa 98 95 be da 89 67 bc 98 67 8e 3d
       -0.116712645 -0.29218274 -0.0141319875 0.06953353
000010 a4 5f d8 bd aa 7b 79 3e f7 ed 8d 3d 99 5f 9b 3e
       -0.10565117 0.2436358 0.06930154 0.30346373
000020 83 05 be 3d fa 6a 97 bd e0 e3 80 3d af 92 90 be
       0.09278395 -0.07393451 0.06293464 -0.2823691
000030 52 d6 dd 3d 80 cf 8b be 98 d0 2e be b7 8b 5f be
       0.10831894 -0.27306747 -0.1707176 -0.2183064
000040 ed d0 4c be 26 ce 69 be 4a 79 81 be 5b 1c e2 3d
       -0.20001574 -0.22832546 -0.2528785 0.110405646
000050 f6 d1 e3 bd 7a 60 ee bd d5 e0 84 3e e1 e3 34 bd
       -0.11124031 -0.11639495 0.25952783 -0.044162635
000060 8f 11 ae 3d a7 e6 d2 bd 13 8a d2 be 03 43 86 be
       0.08499443 -0.102979 -0.41120967 -0.26223
000070 b8 23 09 be 3e 19 f0 3d 77 fe 4c bd dd 08 7c be
       -0.13392532 0.117235646 -0.050047364 -0.24612756
000080 93 21 6f 3d d1 cc 83 3e 2b a5 af 3e 39 6d c8 be
       0.05838163 0.257422 0.343057 -0.3914583
000090 dd 03 26 3e f5 c7 23 3d 91 dc 93 3e 10 9a 16 3d
       0.16212411 0.039985616 0.28879216 0.03676802
0000a0 29 05 4a bf ff b2 dd 3e 8a b6 a4 bd a4 77 93 3b
       -0.78914124 0.43300626 -0.08042629 0.0045003463
0000b0 71 cb 5a 3e 1b 6b 52 3e 31 b7 23 bd 16 51 ba bd
       0.21366669 0.2054867 -0.039969627 -0.09097497
0000c0 c4 56 1a 3e f7 82 25 3e 7d 6d 30 bd dc 3f 93 bb
       0.15072161 0.1616324 -0.043073166 -0.0044936966
0000d0 eb 52 62 be 3a 8c 15 be 7c 28 a0 3d 69 47 a9 be
       -0.22101943 -0.14604273 0.07820222 -0.33062294
0000e0 0c fe 12 be fe ed 3c be a5 97 d6 3d b0 eb a8 3d
       -0.14354724 -0.18450162 0.10478143 0.08248079
0000f0 35 d9 9b bc 11 0c 92 bd c4 33 6c 3e ee 07 69 bc
       -0.01902447 -0.07131208 0.23066622 -0.014223082
000100 3b 54 45 3d 4b 91 ca bd 47 a9 5a 3e 6a ea d7 bd
       0.04817603 -0.09890994 0.21353637 -0.10542758
000110 0b 80 33 bc 6d d5 29 bd 07 9f ea 3c 9f 69 67 be
       -0.010955821 -0.041463304 0.028640283 -0.22598885
000120 85 90 8a 3d 71 46 85 be 72 55 86 bd 9a 85 e8 bd
       0.06765846 -0.26030305 -0.06559266 -0.113536075
000130 9b 08 96 be ea a6 07 3e 2a 54 23 bd 58 66 de 3e
       -0.2930344 0.13247266 -0.039875187 0.43437457
000140 99 3b ff bc 52 ab fc 3c 84 1a 87 3d 1b 55 f8 3d
       -0.031156348 0.03084341 0.06596854 0.121256076
000150 6d 37 c6 3e c6 40 56 be 6a 77 3c be f2 e0 7e 3d
       0.38714162 -0.20923147 -0.18404928 0.062226243
000160 e7 12 89 be 97 f9 84 3c 1e d2 1a be 5e 3e 42 be
       -0.26772234 0.016232295 -0.15119216 -0.18969104
000170 4f 34 71 bd c1 65 24 3e 72 11 31 3e 6f 9e 8d bb
       -0.058887776 0.16054441 0.17291811 -0.0043218653
000180 68 25 e1 3d 7d 58 0a 3e 41 5f f0 3c 87 e5 21 bd
       0.10993463 0.13510318 0.029342296 -0.039525535
000190 5c 22 c4 3b 88 cc d7 bd 3b 42 a6 3d 2c d0 77 bd
       0.0059855413 -0.10537058 0.08118101 -0.060501263
0001a0 ca 4e 99 bd e1 64 bb bd 2f 33 e4 3d 65 23 0a be
       -0.07485731 -0.091501005 0.11142575 -0.13490064
0001b0 76 e0 fc 3d 40 41 9e bd 01 6f a9 3e 9e 9e 64 be
       0.123475 -0.07727289 0.33092502 -0.22326133
0001c0 ff ef 5c bd 11 0e 91 3d 2b fe 01 bf 93 3e 54 3e
       -0.053939816 0.07082761 -0.50778455 0.20726995
0001d0 7b 0b cf 3d a0 c9 15 bd aa 50 7b 3d 34 10 c1 bd
       0.101096116 -0.036569238 0.061356224 -0.094269186
0001e0 c3 91 37 be 31 99 e7 bb b8 d1 7b be 60 19 fc bd
       -0.17926697 -0.0070678224 -0.2459172 -0.123095274
0001f0 02 18 49 bd e5 ae 40 bd 54 62 12 be bd 51 47 be
       -0.04909516 -0.047041792 -0.14295322 -0.19464774
000200 35 c6 39 3e 13 75 02 bc 36 51 2d be 1e 9c 14 3d
       0.18142016 -0.007962483 -0.16925511 0.036281697
000210 46 23 4b 3d db 32 03 3d 5c 91 99 3e 12 ee 9a be
       0.049594186 0.03203092 0.29993713 -0.30259758
000220 ac 43 9d 3c 21 40 cc 3d 1d c6 83 3e 47 ce 2a 3e
       0.019197308 0.09973169 0.25737086 0.16680251
000230 92 9e 9c 3e d1 69 20 3e 9a dc 9c be 69 cf a9 3b
       0.3058973 0.15665366 -0.30637056 0.005182196
000240 8b 6a 8e bc ba 03 43 bd d7 4b 94 3d 73 07 96 be
       -0.017384788 -0.047610976 0.07241028 -0.29302558
000250 7c 0a df ba b7 bf 13 3d 26 e3 7e bd 49 32 b5 bc
       -0.0017016674 0.036071505 -0.062228344 -0.022118704
000260 b1 1a c9 bd 0c 06 28 bd b3 d6 35 be f2 21 14 3e
       -0.09819544 -0.04102139 -0.17757683 0.14466074
000270 24 6e 8d be 95 4a 12 3e fc d6 26 3e 9c 33 ef 3d
       -0.27623093 0.14286263 0.16292948 0.116797656
000280 c5 70 e9 bd 5d f0 ba 3d 76 16 2d bd f9 f4 0f be
       -0.11398462 0.09127877 -0.04225775 -0.14058293
000290 0d db 9a bd 36 b6 ee bc 92 ec d8 3c a8 55 85 3b
       -0.07561312 -0.02913962 0.026479993 0.004069049
0002a0 e3 ad 94 3e fc fc bc 3d 38 9d 81 bd 65 a0 b4 be
       0.29038915 0.092279404 -0.06328815 -0.3527862
0002b0 df de 98 3c ac 61 4b bc de a9 f9 bd ec e3 62 bd
       0.01866096 -0.0124134235 -0.12190603 -0.055393144
0002c0 48 c2 83 3d 83 83 eb bd 6e 3c 6d 3e 2f d2 68 be
       0.064335406 -0.11499693 0.23167583 -0.22736429
0002d0 3d e4 15 3e 9a bc 3c bd d2 1a a4 be 0e 92 fc bc
       0.14637847 -0.046078302 -0.32051712 -0.030831363
0002e0 9c be 0b 3e 24 0e a5 3b d7 67 b5 3e b8 d8 13 3d
       0.1364693 0.005037086 0.35430786 0.03609535
0002f0 07 cb 31 be f0 5d 17 be ea 34 9b 3e 0e dd b0 3e
       -0.17362605 -0.14781928 0.30313808 0.3454365
000300 69 cd 93 bb ae d3 37 be 83 52 1f 3d 49 41 14 3b
       -0.004510571 -0.17951843 0.03889705 0.002262192
000310 24 ca 67 be d3 5c d6 3d f6 94 c6 3c 5c 7a 99 3e
       -0.22635704 0.104669236 0.024240952 0.29976165
000320 67 bd 4a 3d 1b 15 f3 bd f3 cf a1 be 42 ed a5 bd
       0.049497034 -0.1186926 -0.31603965 -0.08101894
000330 5a f2 84 be fa 19 d6 3d e6 f8 8b 3a e9 65 e8 3a
       -0.2596615 0.104541734 0.0010679036 0.0017730567
000340 39 bb 89 bd f9 ab 1d 3e 25 19 08 be e6 29 c7 3d
       -0.06725163 0.15397634 -0.13290842 0.09724788
000350 3e 8f 61 3d 28 04 2c be 3d c2 e4 3d 28 b2 91 be
       0.055068247 -0.1679846 0.111698605 -0.28456235
000360 69 49 3a be d2 d1 e6 3d ba 9a 84 bd 41 0f cc bb
       -0.18192066 0.11270489 -0.06474824 -0.0062274043
000370 a9 7d 32 3e f8 69 33 3e ae 98 56 be b8 ef 91 bc
       0.17430748 0.17520893 -0.2095668 -0.017814502
000380 49 e0 b2 bd 7c b0 1f be ea d6 87 be 94 21 d2 bd
       -0.08734185 -0.15594667 -0.26531154 -0.10260311
000390 64 d6 83 3d 57 db 23 be c9 db fb bd 12 03 a3 bb
       0.06437376 -0.1600164 -0.1229778 -0.0049747312
0003a0 74 bc 58 3e c6 f6 8a 3b db ef 93 3d a5 da 66 3d
       0.21165639 0.0042408435 0.07223483 0.05636086
0003b0 fc c9 68 bd aa 02 11 be 2e 7b 39 be a3 ce 0f 3e
       -0.056833252 -0.14161173 -0.18113396 0.1404367
0003c0 a3 a9 4d be d7 0a 9a 3e 7f 81 10 3d c5 0d ea 3d
       -0.20084243 0.30086395 0.035279747 0.114284076
0003d0 a9 0c 69 3d 9c 74 99 bc 95 6d 12 3e 6e 26 48 3e
       0.05689684 -0.018732361 0.14299615 0.1954591
0003e0 ae fb 54 bb 8e a6 c2 3e 16 b6 c2 3c 7f 75 f4 bd
       -0.0032498646 0.38017696 0.023768466 -0.11936473
0003f0 f6 f4 03 3e 38 7f 85 3d fa 37 7f bd 6e 29 0a be
       0.12886414 0.06518406 -0.062309243 -0.13492367

a2c_network.actor_mlp.2.bias f4 [256]
000000 78 d0 81 be b1 14 f2 bd 5e 9a 36 bb 71 60 2e 3d
       -0.25354362 -0.11820353 -0.0027863006 0.042572442
000010 fb 25 d0 bc df 67 6d bc 4a d6 3f bc 43 0d c2 3c
       -0.025408735 -0.014490097 -0.011708805 0.023687964
000020 97 20 e8 ba ec af 95 3d c6 1d a8 3d 5d aa 53 bd
       -0.0017709908 0.07308945 0.08208804 -0.051676143
000030 ff 98 94 bc ed 5b 05 3d 59 b2 bb bc c1 04 e8 3b
       -0.01813936 0.03255837 -0.022912191 0.007080645
000040 da 4b fb 3c b0 58 29 3b f0 ad 74 3b 5e 87 cd bc
       0.030675817 0.0025840215 0.003733512 -0.025088962
000050 c3 e9 05 bc 6e 67 ad bc 55 d8 49 bc 66 0f e6 3b
       -0.008173409 -0.021167483 -0.012319644 0.0070208786
000060 9d ea 8c bd 81 7b 75 bd d1 d7 d1 bb 25 10 b5 3a
       -0.068806864 -0.059932236 -0.006403901 0.0013814016
000070 f5 d4 cf 3b 52 0a 87 3c 71 ae eb bc 8e 7d 82 be
       0.006342525 0.016484413 -0.028769704 -0.25486416
000080 f9 3e 20 3d 32 aa dd bc 7a e6 d2 bc 9c 2e a4 bc
       0.039122555 -0.027058695 -0.025744665 -0.020041756
000090 9a 93 89 3c 1b f6 09 3d fd 46 b2 bc 4f a7 07 bc
       0.016794015 0.03368197 -0.021762365 -0.008279636
0000a0 9a 5e 9a bd d9 32 cc 3c 32 54 08 3d 0f f2 b4 3b
       -0.07537575 0.02492659 0.03328342 0.0055220197
0000b0 c5 26 a2 bc 85 e0 93 3c a4 08 23 bf f3 02 1f bd
       -0.019793877 0.018051395 -0.6368506 -0.038821172
0000c0 25 4c 07 bb 6b 18 37 bd 82 4a 4b bd 45 e8 de 3c
       -0.002064475 -0.04470102 -0.049631603 0.027210364
0000d0 cf 5b e8 bc 0b 26 46 bd ee a9 98 3b 97 5d e0 3c
       -0.02836409 -0.048376124 0.004658929 0.027388377
0000e0 dd aa b5 bc b6 4e 30 bd 15 3e 30 bc e6 b9 df bc
       -0.0221762 -0.043043815 -0.010756989 -0.027310323
0000f0 3b 27 6f 3a 4c eb 25 3d 2d 82 0b 3d 46 d6 d6 bb
       0.0009122972 0.0405076 0.034059692 -0.006556305
000100 06 99 1e bd e3 bc a7 3b 1f a2 9c bd f1 ab cf ba
       -0.038720153 0.0051189526 -0.0764811 -0.0015844089
000110 5d a0 a7 bc 1a 29 54 be e9 08 bb be 56 e8 16 3b
       -0.02046221 -0.20718804 -0.36530235 0.0023026667
000120 07 09 0b bd 07 ad 32 3d ea b7 d0 bd b0 d0 43 ba
       -0.033944156 0.043622043 -0.10191329 -0.00074697565
000130 30 49 db 3c 03 c7 04 bd 69 ec da bc a1 34 0e be
       0.026768297 -0.032416355 -0.026724057 -0.13887264
000140 c7 39 3a 3c 9c 1b b7 bc b3 f4 f3 be 59 b5 0f bd
       0.011366314 -0.022352032 -0.47647628 -0.035085056
000150 4f a7 dc 3c 45 83 b1 bb d7 c9 34 3b 57 8c 21 bd
       0.026935248 -0.00541726 0.0027586126 -0.03944048
000160 f3 de 1f be a3 b4 a6 3c 2d 20 88 be 7e c3 df 3c
       -0.15612392 0.020349806 -0.26587048 0.027314898
000170 00 3c 38 bc 53 f2 9b 3b 17 fc 50 bc c2 83 82 3d
       -0.011244774 0.004759112 -0.012755415 0.06372787
000180 76 64 0e b9 57 7f 20 bd 88 7f 88 3d 28 18 57 3b
       -0.000135796 -0.03918394 0.0666495 0.0032820795
000190 ef d6 5c 3d 8e 6f ca bc 6b 8a 12 bd 26 e7 d3 3c
       0.053915914 -0.024711397 -0.035776537 0.025867056
0001a0 ed d1 cf be 30 d9 cf bc d6 f9 e1 bb 58 c3 53 be
       -0.40589848 -0.025372118 -0.006896238 -0.20679986
0001b0 91 46 36 3d 29 f2 1b 3c 9f 38 2b bd 1f 56 a7 bd
       0.04450089 0.009518185 -0.041802045 -0.08170723
0001c0 ea 87 38 3d 07 ea 19 bd de 1b c8 be 31 8f eb bc
       0.045051493 -0.0375767 -0.3908376 -0.028754802
0001d0 5d f2 fc 3b 6e 55 e3 bc 8e 52 10 be 41 78 0f bc
       0.0077193216 -0.027750697 -0.14093992 -0.008756698
0001e0 5d 6b 60 bc b3 a8 7c 3c 30 ca ab bb 90 17 13 bc
       -0.013697472 0.01542108 -0.0052426085 -0.008977786
0001f0 0a 57 e2 3a b7 47 73 be d8 8c 44 3b b2 b2 2b bd
       0.0017268371 -0.23757826 0.0029991176 -0.041918464
000200 32 3c 89 3d fd 5b 8d be a4 e5 93 3c b7 b5 b1 bc
       0.067009345 -0.27609244 0.018053837 -0.021693094
000210 dd cd e7 3c 48 d9 13 3d 70 ac 65 bd 2d c8 16 bd
       0.028296405 0.036095887 -0.056072652 -0.036811996
000220 54 3b 17 bc 23 bc 38 bd e5 bc 26 be 2d 87 1c 3d
       -0.0092304535 -0.045101296 -0.16282995 0.03821485
000230 a5 40 ee 3c ef 3b 34 bc 69 f7 21 be c9 b6 5f bd
       0.02908356 -0.011000617 -0.15817036 -0.054617677
000240 80 41 1a bb fa a6 cb bc a6 6e 28 bd 1a cf e0 bc
       -0.0023537576 -0.024859894 -0.041121148 -0.027442504
000250 3c 39 af bd a7 cc c5 bd 84 59 cb 3d 30 14 3f bc
       -0.085558385 -0.09658175 0.09929183 -0.011662528
000260 00 13 b3 3c 37 f9 0c bf d0 7a 2b 3d 69 94 43 bc
       0.021859646 -0.5506777 0.04186517 -0.011937239
000270 59 51 ad bb 95 c2 c6 be 25 af cd be bd 49 b3 be
       -0.0052892384 -0.3882033 -0.40172687 -0.35017195
000280 04 57 02 bd 7b 49 40 bf 6e 94 fa bc 1b 2a f5 bc
       -0.031821266 -0.7511212 -0.030588355 -0.029927304
000290 ac 2a f1 bd 57 f4 b0 3c e1 d2 79 b9 2a 11 19 3d
       -0.11775717 0.021600885 -0.00023825049 0.037369885
0002a0 82 52 b5 3c 43 c4 1e bc 29 6a 1e 3d 86 7c ec bb
       0.02213407 -0.009690347 0.03867546 -0.007216993
0002b0 3c 70 c2 3c 43 14 f6 bb 57 e6 3e bb 0b e9 55 3d
       0.023735158 -0.0075097396 -0.0029128992 0.0522242
0002c0 39 a7 29 3c 35 dd 89 bf 6d b7 01 3d 1b 4c 00 bd
       0.01035481 -1.0770632 0.03166907 -0.03132258
0002d0 50 e1 9f bd 18 3f 90 3d fc ae 6e bd 75 97 1a bc
       -0.07806647 0.07043284 -0.058272347 -0.009435524
0002e0 e2 97 b7 3c 1f c6 b7 3b b3 c2 84 be b7 fb 36 bc
       0.02241129 0.0056083347 -0.25929794 -0.011168412
0002f0 28 a2 c6 3c 69 f5 eb be 52 82 a9 3c 07 fc b5 bc
       0.024247244 -0.4608567 0.020692024 -0.022214903
000300 a6 09 0b 3d 31 0f 49 bd 73 35 c2 bb 52 b2 05 3c
       0.03394475 -0.049086753 -0.005926782 0.008160191
000310 4d f2 ac be 88 b4 22 be a7 57 ec 3b 9b 58 7f bb
       -0.3377861 -0.1588918 0.0072125974 -0.0038962725
000320 15 3f ad bc ee b9 a7 3b 9c 28 b5 3b b7 05 b1 bb
       -0.021148244 0.0051186 0.0055285227 -0.0054022926
000330 57 7e 0a 3c b1 5f d9 be f8 94 92 be ad c1 6f be
       0.008452973 -0.4245582 -0.2862928 -0.23413725
000340 43 18 ac bc 6e 4a 7b bc 68 e1 9a bc ab 51 f8 bc
       -0.021007663 -0.01533757 -0.01890631 -0.03031238
000350 b5 87 28 bd c2 94 4b bd 84 d9 4b 3c df 83 89 bc
       -0.041145045 -0.049702413 0.0124419965 -0.016786514
000360 ac 87 f6 bb 77 e5 87 bd 8a 39 3c 3d 0a 0a 3a 3d
       -0.0075234976 -0.06635564 0.04595331 0.04541973
000370 f8 ae 15 3d 18 12 57 bd bd b1 db 3c 41 7e 3c bd
       0.036543816 -0.05250749 0.02681815 -0.046018843
000380 3d 95 70 be 7d ec b6 ba 6e 8d db 3c db a7 bf 3b
       -0.2349443 -0.0013955977 0.026800837 0.0058488674
000390 e6 e2 a5 bd 87 e3 e4 38 4e 20 33 3d 4e aa cb bc
       -0.08099918 0.000109142675 0.04373198 -0.024861481
0003a0 d9 00 a8 3d a7 a7 70 3e bf f3 e0 ba 09 f3 2d 3a
       0.08203287 0.23501454 -0.0017162486 0.00066356413
0003b0 84 e1 94 bc 12 6d 13 3a 14 73 b5 3c 48 c2 9d 3d
       -0.01817394 0.0005623858 0.0221496 0.07703072
0003c0 86 56 56 bb 7d 0b cd bc b2 68 dd bb ad fb ef 3c
       -0.003270538 -0.025029892 -0.0067568654 0.029294813
0003d0 6f 66 4f 3c b5 61 e9 3c 19 a5 d9 3b b6 06 10 bd
       0.012658699 0.028488973 0.0066419956 -0.03516265
0003e0 cf af 35 3d e1 d1 28 3d 93 6e 43 3d 17 81 44 3d
       0.044357117 0.04121578 0.047712874 0.047974672
0003f0 4e 11 80 3e 9d 88 c9 3c e9 90 f5 bd eb 25 6f bc
       0.25013202 0.024601275 -0.1199053 -0.014596443

a2c_network.value.weight f4 [1, 256]
000000 7d 56 ba bb 1a dd 6f 3c af 49 e3 ba a1 58 3a ba
       -0.0056865797 0.014640117 -0.0017340685 -0.00071085437
000010 c8 07 5b 3a be c8 53 3b 59 25 2d 38 fe 02 ed 38
       0.00083553465 0.0032315697 4.1281197e-05 0.00011301598
000020 8d b6 fe 3a c3 3b 57 bb 52 f5 bf 3d fa 8f 44 bb
       0.0019433066 -0.0032842017 0.09372963 -0.0029993043
000030 84 76 b0 3a 37 67 e2 ba 24 80 b4 39 58 0f 4b bb
       0.0013463055 -0.0017273192 0.00034427748 -0.0030984487
000040 13 de 48 3b 78 d6 cc b9 f7 92 be 3a 19 d6 a3 b9
       0.0030649945 -0.00039069704 0.0014539649 -0.00031249298
000050 28 01 60 bb 81 97 fb ba 02 28 c4 b8 06 c2 4e 3b
       -0.0034180377 -0.0019194932 -9.35346e-05 0.0031548752
000060 3b c8 86 3b 41 e6 5d bb 51 c8 7e 3b c6 28 a0 3b
       0.004113225 -0.0033859166 0.0038876722 0.004887673
000070 9b a4 2b bb bc fe 20 ba 99 d0 61 3f 5e df 93 bd
       -0.0026190642 -0.0006141474 0.8820892 -0.07220338
000080 d1 95 d0 3a 2c f6 40 bb 81 00 2f 3b 31 b2 ac ba
       0.0015913789 -0.0029443605 0.0026703181 -0.0013175664
000090 81 f5 08 3b a8 04 89 b9 47 8d 0a bc 0d c4 86 3a
       0.0020898285 -0.00026134145 -0.008456535 0.0010281816
0000a0 79 07 5e 3a 82 35 24 3a 85 39 56 3b e9 b7 74 ba
       0.00084697414 0.0006264077 0.0032688093 -0.0009335266
0000b0 5c 4a c6 3a 16 1f 54 bb 5a 76 a6 be 96 bb 0d ba
       0.0015128362 -0.0032367161 -0.3251217 -0.00054066756
0000c0 f5 ac a1 bb 5f b5 2c 3d 94 02 c4 bb 0b 8c 05 3b
       -0.004933948 0.042165156 -0.0059817526 0.0020377662
0000d0 26 b1 bd 3b e8 f4 e7 bb 50 27 08 3a 07 a2 0c 3c
       0.00578894 -0.0070787556 0.00051938463 0.008583552
0000e0 30 73 37 bb 2b 51 82 ba ff 4f 0c bb 17 0f d2 ba
       -0.002799224 -0.0009942403 -0.0021409986 -0.0016026226
0000f0 11 c5 0c bb c6 0f d4 bb 1e 12 19 ba 37 33 ab 3b
       -0.0021479765 -0.006471607 -0.00058391865 0.005224611
000100 9c 7f 85 bb 4f b3 33 39 76 b1 bc 3a e0 cd 50 bb
       -0.00407405 0.00017137568 0.0014396149 -0.0031860992
000110 7c 3f 39 bb 93 8a 27 bc 0a 82 ec bd 7c 25 da 3b
       -0.00282666 -0.01022591 -0.115482405 0.0066573005
000120 71 a5 85 ba 65 b2 1b ba 47 cf 3e 3e 62 53 91 3a
       -0.00101964 -0.00059393636 0.18633758 0.0011087472
000130 1c e4 94 b9 29 28 9a b9 1c 77 1b bb 46 c8 4f bc
       -0.00028398714 -0.0002940309 -0.0023722118 -0.012682026
000140 e8 72 69 3a 12 bc 22 ba 38 77 de 3b d2 93 4e 3b
       0.0008905367 -0.0006207834 0.0067891143 0.0031521213
000150 45 c9 4e bb 9b 1e 8d bb 18 0e 16 3b 8c 8b 97 3a
       -0.0031553071 -0.004306627 0.0022896584 0.0011561974
000160 2a b1 14 bc 0f f9 aa ba 25 74 1b bd d0 d5 81 ba
       -0.009075442 -0.0013044196 -0.03795256 -0.000990564
000170 07 9b ad b9 a5 c2 67 3a c7 6d f6 3a 86 8e ad bb
       -0.00033112636 0.0008840955 0.0018801027 -0.005296531
000180 88 d6 34 3a c1 c8 ab bb 00 cc f1 bb 14 c9 7c 3b
       0.0006898423 -0.0052424376 -0.007379055 0.0038572
000190 61 24 86 bb 4b 10 f0 b8 ae 9f 6a bb c7 10 50 bb
       -0.004093692 -0.000114471266 -0.0035800743 -0.0031748281
0001a0 b8 7f f6 bb bc 16 ac 3b 0d ec 9a 3b 83 00 cb 3a
       -0.0075225495 0.0052517336 0.0047278465 0.0015487823
0001b0 4b 52 05 bc 06 ab 4c 3a 5b ca 42 bb f0 83 6a bb
       -0.008137296 0.0007807467 -0.0029722664 -0.0035784207
0001c0 49 2c c7 ba 3c 57 47 bb c0 fd c0 bd c3 11 b1 3b
       -0.0015195693 -0.0030416986 -0.09423399 0.0054037287
0001d0 e0 04 9a bb 6f 6e 4d 3b f3 17 0e 3d c7 7e b3 3b
       -0.004700288 0.003134634 0.03469081 0.0054777595
0001e0 af 35 95 3d 59 f7 84 3a c6 ee 3b bb e0 f0 4a 3b
       0.0728563 0.0010144516 -0.0028676256 0.0030966327
0001f0 c9 de 8a 39 32 8c 96 3c c5 3d 98 3a 58 7a 28 bb
       0.000264874 0.018377397 0.0011615088 -0.0025707688
000200 1d 66 b4 39 f5 8d 25 3c a4 b8 14 bb 30 d3 f0 b9
       0.00034408356 0.010104646 -0.0022693062 -0.00045933714
000210 80 e9 2f 3c 1f 20 93 3a d1 bc a6 b9 2b c2 1e bb
       0.010736823 0.0011224783 -0.00031802666 -0.002422462
000220 18 7b 43 bb e2 f3 8e ba a3 88 5c bb 2c 82 85 ba
       -0.0029828008 -0.0010906423 -0.0033650778 -0.0010185889
000230 5d 3d 0a bb 49 1f 72 3b 41 78 a7 be 2b 67 35 bb
       -0.0021093704 0.0036944917 -0.32708934 -0.00276799
000240 da 46 69 3b 62 da c8 bb c7 b8 c2 3b 70 1b 75 3b
       0.003559521 -0.006129549 0.0059424373 0.0037400387
000250 c0 96 26 3e 22 56 1c bc 0f 25 f6 bb 44 7b 4d 3b
       0.16268444 -0.00954202 -0.007511742 0.003135399
000260 bb f8 92 ba 03 91 64 be 54 6d ad bb 5b ec 06 bc
       -0.0011213043 -0.22320943 -0.005292574 -0.0082350625
000270 de 2d 80 bb 0b 59 d9 be 15 cb 3b be a5 56 a0 bd
       -0.003911718 -0.42450747 -0.18339188 -0.07829026
000280 d6 3f 66 3a 64 f6 b2 be 52 a5 86 bb dc d9 70 bb
       0.0008783316 -0.34953606 -0.004109063 -0.0036750948
000290 5e 26 4b 3d bd 7a 55 3b f5 20 28 3b fe 2d 57 bb
       0.049597137 0.0032574378 0.002565441 -0.003283381
0002a0 e9 6f 80 bc b4 4a 17 3b 2d d6 33 bb c2 6d d8 3b
       -0.015678363 0.0023085298 -0.002744089 0.006604881
0002b0 58 d0 b2 3a 4e 91 61 ba 7d c2 0d bb 37 e6 de 3a
       0.0013642414 -0.0008604721 -0.0021630817 0.0017005865
0002c0 03 45 ff ba fa 27 89 bc 3c 02 4d bb 3e 3a ef 38
       -0.0019475523 -0.016742695 -0.003128185 0.000114072565
0002d0 e7 2b 38 bb 0f f4 bb 3a 4e 7b 27 3a 27 4c e1 3a
       -0.002810234 0.0014339703 0.0006388918 0.0017188833
0002e0 7d 1c 8e bb 47 48 2e ba b9 77 40 bc 89 03 98 39
       -0.004336892 -0.00066483434 -0.011747294 0.00028994333
0002f0 f4 ed c6 ba 93 23 3b bc c8 7e 29 3a b8 74 62 bb
       -0.0015177117 -0.011422056 0.000646573 -0.0034554433
000300 9d 97 ca ba 48 88 9e 3b 5a 47 69 bb 8c 32 d3 3c
       -0.0015456561 0.0048380233 -0.0035595507 0.025780939
000310 73 2c 29 bd 1c 33 37 3d 36 a2 1d 3c 84 eb 85 39
       -0.041302156 0.044726476 0.009621194 0.0002554321
000320 7b 2b 11 bb a2 74 3a ba e5 52 79 3e d0 ff 21 bb
       -0.002215116 -0.00071127166 0.24348028 -0.0024719127
000330 da 77 05 39 06 e8 e3 bc 14 42 c5 3c d9 24 cc bb
       0.00012728517 -0.027820598 0.02407936 -0.0062299785
000340 3e 25 b4 39 37 a7 ae 3a 28 a3 b6 bc 5f 31 09 3d
       0.00034360023 0.001332498 -0.022294596 0.03349435
000350 1e 40 d8 b9 36 e7 16 3a d6 da ab bb f4 44 f4 3a
       -0.00041246501 0.0005756499 -0.005244593 0.0018636272
000360 c1 38 f5 ba 8f 72 79 bb 51 25 88 3c b1 de 62 38
       -0.0018708931 -0.0038062667 0.016619356 5.4089996e-05
000370 74 85 3c b8 8e e8 3e 3d 70 68 2f ba d9 20 9b 3b
       -4.494698e-05 0.0466085 -0.00066912826 0.0047341404
000380 5d cc bd bd f1 36 87 3b 94 b7 ef b9 41 b0 ae ba
       -0.09267495 0.0041264226 -0.0004572241 -0.0013327674
000390 c5 8d f0 bb 8d 9b 38 3b 6b 81 f7 3a 35 4d e2 3a
       -0.007341119 0.0028168887 0.0018883174 0.0017265441
0003a0 34 ad ac 3c 27 67 ac 3e a4 a9 99 b9 77 93 a0 39
       0.021078683 0.3367245 -0.00029308826 0.00030627448
0003b0 96 df e0 3b 86 4e 2a 3b 61 54 ac b9 94 d9 26 3a
       0.006862591 0.0025986745 -0.00032869264 0.0006364819
0003c0 f4 7c 0a 3b 52 0a 8f 3a 38 5d 5b 3c 07 52 00 bb
       0.0021131607 0.001091311 0.013388924 -0.0019580142
0003d0 a0 2f fe bc 22 56 ae 3a 7f d8 b4 bb 08 93 28 3b
       -0.031028569 0.0013300816 -0.0055189724 0.0025722403
0003e0 32 68 0c bc 9b a0 aa 3b 13 cc 1b 3b b7 d6 b8 3d
       -0.008569764 0.005207134 0.002377276 0.090253286
0003f0 17 7a 11 3f b0 71 a1 3b 04 81 36 bc 3f 3f d8 ba
       0.5682692 0.0049268827 -0.011139158 -0.0016498341

a2c_network.mu.weight f4 [6, 256]
000000 28 33 8e 3d a9 58 be bc 20 a0 b3 ba 9f b1 aa 3a
       0.06943351 -0.023235636 -0.0013704337 0.0013022906
000010 cd c9 a4 3a bf d5 89 3a fe 41 c4 3a 35 a3 f6 3a
       0.0012572348 0.0010515972 0.001497328 0.001881695
000020 8c 9b c3 3a 8b 82 34 b9 77 c8 1c 3d d5 97 f8 39
       0.0014923676 -0.00017214769 0.038277116 0.0004741537
000030 d8 61 8d 3a 93 0a 0c bb 3e 10 80 b9 74 1c 12 b8
       0.0010786606 -0.0021368607 -0.00024426164 -3.483561e-05
000040 2b 71 20 bb e4 75 e4 39 75 2b 04 b8 94 29 2b bb
       -0.0024481516 0.00043575384 -3.1511725e-05 -0.0026117312
000050 ac 11 76 ba 12 2e 6d 3b d0 da 0b ba 96 69 47 3a
       -0.00093867886 0.003619079 -0.0005335035 0.0007606981
000060 4a a0 44 b9 8b 66 a0 ba 38 54 5f ba cc 5d cf 3a
       -0.00018751729 -0.0012237591 -0.00085193245 0.00158208
000070 de 18 76 ba ab 38 df 39 6f 7d fe 3b 38 14 da 3c
       -0.0009387861 0.00042576095 0.0077664177 0.02662097
000080 db 0d 84 ba a4 3a b2 39 99 f4 49 3a 74 20 2b 3a
       -0.001007493 0.00033994496 0.00077039894 0.0006527968
000090 c8 77 b6 ba 26 6e b0 3a df 28 50 bb be dd 5b 39
       -0.0013921196 0.0013460561 -0.0031762642 0.00020968073
0000a0 df 00 20 ba 90 53 5d 3a c3 f3 83 ba 6d b9 3a b9
       -0.00061036454 0.0008442933 -0.0010067153 -0.00017807419
0000b0 0d 83 07 bb 30 97 b7 b9 40 05 9a bd 0f ad cb b9
       -0.0020677478 -0.00035017123 -0.075205326 -0.00038848116
0000c0 2e 27 98 ba 8c 97 8d bb 55 6e 19 bb ab 11 58 39
       -0.0011608356 -0.0043210443 -0.002341171 0.00020605947
0000d0 2b a0 65 ba bc 51 4c 3b ae b9 06 3a 59 01 8d ba
       -0.00087595236 0.0031176647 0.0005139363 -0.0010757848
0000e0 b8 ba 08 bb 92 cd ab 3a 2e eb 6a 35 19 a7 44 ba
       -0.0020863246 0.0013107529 8.7514024e-07 -0.0007501706
0000f0 9d 7e 06 3a d1 0f a2 3c 00 13 af 3a d1 ee 9e 3a
       0.0005130561 0.019782932 0.0013357103 0.0012125616
000100 a1 79 06 bb 8c 20 1f 3a bf 7e 0e 3a a6 1d 00 ba
       -0.0020519274 0.00060702185 0.0005435757 -0.00048872305
000110 a6 6d 03 bb a4 49 43 bd e7 f2 6d 3d 08 f6 98 ba
       -0.002005437 -0.04767765 0.058092978 -0.0011670003
000120 54 b4 03 3b 6c 92 39 ba bf b2 bc bd 2f a0 03 bb
       0.0020096498 -0.00070790085 -0.092137806 -0.002008449
000130 b2 79 ba 39 6f 9d 96 ba 6e a6 ff 39 13 ca 45 bc
       0.00035567355 -0.0011491011 0.0004876139 -0.012072104
000140 bc f0 ab ba 56 6e d0 ba de e0 e2 3a e0 51 62 37
       -0.0013118009 -0.0015902023 0.0017309447 1.3489713e-05
000150 f5 af 59 ba 44 96 83 3b c3 cf ea 3a 18 52 02 bb
       -0.00083041127 0.004015716 0.0017914701 -0.0019885357
000160 b5 96 0f bc 69 72 70 3a fd fe 4c 3d 42 3d c4 ba
       -0.008763959 0.0009172322 0.050047863 -0.001497187
000170 24 ee 59 39 5a 00 22 3a fa 41 17 3a 9f 5b c8 b9
       0.00020783447 0.0006179862 0.0005770024 -0.00038215236
000180 a2 4e db 3a 9e ae 1a bb e7 f9 41 bc 10 85 0c 3b
       0.0016731808 -0.0023602615 -0.0118393665 0.0021441616
000190 ae ab 36 3a 7a ce a3 b9 08 1c 14 3a b4 45 13 3b
       0.0006968331 -0.0003124362 0.0005649929 0.0022471966
0001a0 72 22 ce 3b 24 54 ba ba bf 8d 28 3b a3 52 61 bb
       0.0062907273 -0.001421575 0.0025719253 -0.003438153
0001b0 21 c9 ab bb c4 f5 8b b9 9b 67 0c 3a f0 b3 eb 3a
       -0.0052424823 -0.00026695256 0.00053560146 0.0017982703
0001c0 2c 14 8c ba fb 19 82 ba 6b 2c 48 bd 2a 71 39 3b
       -0.0010687164 -0.0009925956 -0.048870485 0.002829621
0001d0 1a ea 17 39 f7 c4 b3 3b c1 43 3e bd 30 04 62 b9
       0.00014487692 0.0054861265 -0.046451334 -0.000215546
0001e0 9e 2a 2b bb 37 3d af b8 d8 51 35 bb 5c de 10 b9
       -0.002611793 -8.3560524e-05 -0.002766719 -0.00013815745
0001f0 42 27 ce 39 6a 07 83 3c 75 32 2c ba 8a 52 59 3a
       0.0003932063 0.015994746 -0.0006568798 0.00082901923
000200 6c db 87 39 50 e9 36 3d a4 ec d9 ba 07 bb 8e 3a
       0.0002591269 0.044656098 -0.001662631 0.0010889479
000210 f7 2e 24 3b 01 80 8c 3a e6 c1 c3 b9 c4 78 35 ba
       0.0025052407 0.00107193 -0.00037337764 -0.00069225975
000220 8c 44 0c bb 40 91 d1 ba 93 f7 8d bb 85 f8 13 bb
       -0.0021403162 -0.0015988722 -0.0043324917 -0.002257855
000230 85 07 20 bb af e0 54 3a a9 02 78 3d 1f ad 1c bb
       -0.0024418544 0.00081206387 0.060549412 -0.00239069
000240 39 67 25 bb db 68 40 ba ee 06 0e 3b 1f 23 99 3a
       -0.0025238527 -0.00073398434 0.002167161 0.001168344
000250 6b 65 cf bd 1a 1d 15 3d 93 9f 2b b9 dc 77 86 3a
       -0.10126766 0.036404707 -0.00016367277 0.001025911
000260 a1 7c 82 ba 2f 95 30 3e 63 ba a4 3a aa 86 55 bb
       -0.0009955355 0.17244409 0.0012567755 -0.0032581487
000270 33 3e a0 ba 56 14 99 3d 5d db af bd a3 7e 11 3d
       -0.0012225568 0.07474582 -0.08586762 0.03552116
000280 23 0a e1 3a a8 f0 d4 3d 30 69 0a bb 20 32 4c bb
       0.0017169159 0.10397464 -0.0021119826 -0.0031157807
000290 2f 60 63 bb 0e e1 2f 3b 8b 40 b1 39 41 50 13 ba
       -0.003469478 0.0026837024 0.0003380816 -0.0005619564
0002a0 38 6f 80 ba 2b 1f 41 3b 40 62 34 3a 38 77 71 bb
       -0.0009798771 0.002946804 0.00068810955 -0.0036844742
0002b0 59 70 a0 39 5f 14 ce 3a ae 6f 58 ba d4 ec 33 3b
       0.00030601284 0.0015722624 -0.00082563877 0.0027454393
0002c0 cf 18 70 3a 9a 5c 7d 3d 55 6c 45 ba 79 19 c1 3a
       0.000915897 0.06185589 -0.00075310963 0.0014732323
0002d0 80 a6 d2 ba 2b ac 86 3b 23 4e 25 ba 43 78 d2 3a
       -0.0016071349 0.0041098795 -0.0006305894 0.0016057569
0002e0 19 d3 77 bb 2b 08 36 3b 6f ea 0a 3d b4 d6 c0 ba
       -0.0037815033 0.0027775865 0.03391498 -0.0014712424
0002f0 37 4f 8a 3a 02 ab 85 bc 30 a3 04 bb ad 9f 45 ba
       0.0010552172 -0.016316894 -0.002023887 -0.0007538747
000300 5b d2 54 3b 16 6f 5b 3a 67 ec 9e ba b5 c2 06 3b
       0.0032474014 0.000837074 -0.0012124897 0.0020562832
000310 c4 35 81 bd 59 ec 87 3c 13 e2 84 3b 98 39 7c ba
       -0.06309083 0.016592192 0.0040552705 -0.0009621619
000320 6e c1 1b 3a 04 e7 9f 3a 3e 84 4d 3e 00 74 18 b9
       0.0005941604 0.0012199585 0.20069978 -0.00014539063
000330 63 2f f6 38 03 52 6f bd d2 6f 81 bc 71 d3 b8 3a
       0.000117390206 -0.05842782 -0.01580039 0.00141011
000340 ac 5a 12 3b 33 38 26 3a cb 30 37 3b 40 63 c0 bd
       0.0022331877 0.0006340772 0.0027952667 -0.093939304
000350 97 df 26 3a 8a 76 12 3a 43 c3 13 bb 42 53 fb 3a
       0.0006365715 0.00055871217 -0.0022546805 0.0019174593
000360 6e d1 f3 ba 1c 02 0c bc ed 31 5c 3b ae 71 ce b8
       -0.0018601844 -0.008545425 0.0033599094 -9.84402e-05
000370 cb 28 0e 3b 5b fe 00 bc b9 49 12 b9 07 07 c2 ba
       0.0021691795 -0.007873143 -0.00013951109 -0.001480312
000380 06 9d 4b bc 3b 47 e3 3a b0 ba 2e bb 02 ff bc 3a
       -0.012427574 0.0017339954 -0.0026661567 0.001441926
000390 76 3e e9 37 f5 c0 a9 ba c3 4d 1c b9 f4 86 cd 3a
       2.780485e-05 -0.0012951182 -0.00014906288 0.0015680478
0003a0 cd b5 56 bb 75 09 14 bc 56 cd b6 38 68 b7 46 3a
       -0.003276217 -0.009035458 8.716683e-05 0.000758043
0003b0 87 8b 30 3b 20 5b 67 3a 69 45 6a 3a a5 fb 6f 3b
       0.0026938634 0.00088255294 0.00089367345 0.0036618498
0003c0 bd cb 7e b9 d7 90 5e ba 15 3d a1 bc cc 17 82 3a
       -0.00024299226 -0.0008490211 -0.019682446 0.0009925305
0003d0 6b 0c 18 3b 36 26 ec 3a 9e 1b 37 bb 7d 15 8d 3a
       0.002320076 0.0018016759 -0.0027940045 0.001076385
0003e0 76 ce 26 bc 25 bb eb ba 07 ed a0 39 df f4 8a bd
       -0.01018106 -0.001798485 0.00030694177 -0.06784987
0003f0 ee 4a 9a 3b ed ed 3a 3b 0c b5 d9 3c 55 1a 44 bb
       0.0047086393 0.0028523162 0.026575588 -0.0029922922

a2c_network.mu.bias f4 [6]
000000 b4 b1 ad 3c 70 da 85 bd 33 f2 40 bd 3e b6 62 3d
       0.0212029 -0.06535804 -0.04710598 0.05534958
000010 a5 0f 0a 3e 61 51 fc 3e
       0.1348253 0.49280837

exp_avg f4 [6]
000000 ef 3a 64 3a 5a 49 45 ba 25 2e 8c 3a 56 0f 79 ba
       0.00087062916 -0.0007525884 0.0010694904 -0.00095008814
000010 7c 0a 96 38 ff 18 5f b9
       7.15451e-05 -0.00021276249

exp_avg_sq f4 [6]
000000 c6 ed 52 38 de 84 4b 38 4d b7 51 38 ad 28 6a 38
       5.0289345e-05 4.8522714e-05 5.0000195e-05 5.582783e-05
000010 72 fe 6e 38 50 bf 58 38
       5.6980592e-05 5.1676587e-05
