logs/rl_games/yam_cube_sort_8192/2026-02-01_19-21-52/nn/yam_cube_sort_8192.pth (torch, 951890 bytes, 30 tensors)

value_mean_std.running_mean f8 [1]
0	0x3fcb8efcad74c39e	0.21530111760651222

value_mean_std.running_var f8 [1]
0	0x3f9d8b38d43fac5a	0.028851402239450465

value_mean_std.count f8 []
0	0x41c1980000800000	590348289.0

running_mean_std.running_mean f8 [40]
0	0x3feffbc4d2fc25d8	0.999483501510606
1	0x3f40ecacc8ed8bb8	0.0005164951015611463
2	0x0000000000000000	0.0
3	0x3f40ecacc8ed8bb8	0.0005164951015611463
4	0x0000000000000000	0.0
5	0x0000000000000000	0.0
6	0x3fcaff619b97e847	0.2109186181767788
7	0x3fd13b3b7b09aac1	0.26924025550276204
8	0x3fbcd671c417473b	0.11264716184021221
9	0x3fcafea3c56bd7bf	0.2108959878893852
10	0x3fd1257c09c2152f	0.2679128737730307
11	0x3fbc9a4b37d7669a	0.11172933686557443
12	0x3fe50e637c7cbcc9	0.658006423129245
13	0x3fcfc666145607ba	0.24824214928599792
14	0x3fd2556619937926	0.28646233079588723
15	0x3f8a0cab08fdea76	0.01271947499457336
16	0x3fd095311b0028fa	0.2591059459379178
17	0x3fd242c97de24944	0.2853263596854456
18	0x3f8a075b5ac978d0	0.012709344585513455
19	0x3fd0a3942086d838	0.25998404671134123
20	0x3fd24f765dd5be2d	0.28609999812667547
21	0x3f8a076b08ac5ddb	0.012709461404980018
22	0x3f32f0f1f4628115	0.0002890196523228789
23	0xbed1099de946d858	-4.0620722256326565e-06
24	0xbf4abfed6093f467	-0.0008163365429535552
25	0x3f2abe709d46919f	0.00020403980910289624
26	0x3f2b7070855b7c19	0.00020934461161112373
27	0xbf3b5f7f2e8bd295	-0.00041767935776641205
28	0x3f296aab5fc161e1	0.00019391386001889248
29	0x3f29a4184d37fafd	0.0001956252732355431
30	0xbf3abb283dad84d3	-0.0004078839535193838
31	0x3fd0fccb1308d25e	0.26542927607377986
32	0xbfca027236858b73	-0.20319965040388474
33	0x3f847adffed600e0	0.009999990429378547
34	0x3fb0c001e70c46da	0.06542980089968911
35	0xbfca027236858b73	-0.20319965040388474
36	0x3f847adffed600e0	0.009999990429378547
37	0x3fddc995a64e9306	0.4654287456599352
38	0xbfca027236858b73	-0.20319965040388474
39	0x3f847adffed600e0	0.009999990429378547

running_mean_std.running_var f8 [40]
0	0x3f40eaa02c019a68	0.0005162508096077769
1	0x3f40ea9902ba1f95	0.0005162474748923058
2	0x3e2d19eb13b7976a	3.387830597425771e-09
3	0x3f40ea9902ba1f95	0.0005162474748923058
4	0x3e2d19eb13b7976a	3.387830597425771e-09
5	0x3e2d19eb13b7976a	3.387830597425771e-09
6	0x3f9ff1d7e12c5d3b	0.031195996397483255
7	0x3fa2686e1d41cbcf	0.035952988692677594
8	0x3f75b35700a2eaaf	0.005297984937153429
9	0x3f9d3e4a642cc57a	0.028557932247343022
10	0x3fa0db3ad3037812	0.03292259050225267
11	0x3f734be4592d8483	0.004711048112626351
12	0x3fb3dad13079e27a	0.07755763467310742
13	0x3f84dbe73d31644d	0.010185057215652682
14	0x3f93b1e67481787a	0.019233322964617085
15	0x3eaa65de33cfb0b1	7.867193755318344e-07
16	0x3f7a4549c45ca95e	0.006413734581466405
17	0x3f87c68e4d923745	0.011609184019359406
18	0x3eabbbfb7bb3ce00	8.265467309740196e-07
19	0x3f7a9787a2392958	0.006492166346627158
20	0x3f87363da910da55	0.011333924982051583
21	0x3eac60f82c44dbbf	8.457537537313763e-07
22	0x3f6a38427bd753c3	0.0032006548415019777
23	0x3f7057deea4674c6	0.003990050089126734
24	0x3f3c2393da6e61e3	0.00042936668108375773
25	0x3f64cdfeab95b906	0.0025396322277436737
26	0x3f6890fcb9afafa1	0.0029988227884043127
27	0x3f307d3c530c0925	0.0002516052509663628
28	0x3f6497e3dad9b990	0.0025138330736844197
29	0x3f684c0306fc74bb	0.0029659327627898613
30	0x3f305e7ef323b693	0.00024977301940407834
31	0x3e2f2d4cd8995f24	3.6294751135028945e-09
32	0x3e2e5404fe43533a	3.5306673020137672e-09
33	0x3e2d1aa9cb687d6d	3.3881693798376844e-09
34	0x3e2d39fb9aac6483	3.4024118708107e-09
35	0x3e2e5404fe43533a	3.5306673020137672e-09
36	0x3e2d1aa9cb687d6d	3.3881693798376844e-09
37	0x3e31c0722f891617	4.133149593903059e-09
38	0x3e2e5404fe43533a	3.5306673020137672e-09
39	0x3e2d1aa9cb687d6d	3.3881693798376844e-09

running_mean_std.count f8 []
0	0x41b1980001000000	295174145.0

a2c_network.sigma f4 [6]
0	0xbfc320df	-1.5244406
1	0xbfba50a0	-1.4555855
2	0xbfb94623	-1.4474529
3	0xc02748d1	-2.6138194
4	0xc038eaf0	-2.8893394
5	0x4095a671	4.6765676

a2c_network.actor_mlp.0.weight f4 [256, 40]
0	0x3e7b3087	0.2453023
1	0xbea89167	-0.32923433
2	0x3d8847eb	0.06654342
3	0xbe14ad06	-0.14519128
4	0x3dbb2f86	0.09139924
5	0xbd8d9062	-0.069123045
6	0x3f02b792	0.51061356
7	0x3f9c4fbb	1.2211832
8	0x3ec44bd4	0.38339102
9	0xbee364be	-0.44412798
10	0xbf8c5ec2	-1.0966418
11	0xbe8c175c	-0.27361572
12	0x3b8ac99b	0.004235459
13	0xbd8f3661	-0.06992794
14	0xbd821c3a	-0.0635304
15	0x3d3a1c67	0.045437243
16	0x3cbbaabc	0.022908561
17	0x3ca19102	0.019722465
18	0xbe8e80d7	-0.27832672
19	0xbbc21ad2	-0.0059236074
20	0xbcd91946	-0.02650131
21	0x3d9540e2	0.07287766
22	0x3bf3e969	0.007443596
23	0xbd880871	-0.06642235
24	0xbd47b012	-0.048751898
25	0x3e17c238	0.14820182
26	0xbd75fed8	-0.06005749
27	0x3e7e3d21	0.24828006
28	0xbc29956e	-0.010350568
29	0xbe267467	-0.16255341
30	0x3d2104b6	0.039311133
31	0x3e58b7f1	0.21163918
32	0x3ce559a8	0.027996853
33	0xbe11bd5a	-0.14232388
34	0x3d16b828	0.03679672
35	0xbe7dcc32	-0.24784926
36	0xbdf21164	-0.11819723
37	0x3e6af38e	0.22944471
38	0xbd8a4dbc	-0.06753108
39	0x3df4d3cc	0.119544595
40	0x3eae2233	0.34010467
41	0xbf07fd13	-0.53120536
42	0x3dabcf73	0.08389177
43	0xbef982d1	-0.48732617
44	0x3dc4884b	0.09596308
45	0xbd19af1f	-0.037520524
46	0xbc6cf98e	-0.014463795
47	0xbf047297	-0.5173735
48	0x3ebf831f	0.37404725
49	0xbeea38a9	-0.45746353
50	0x3ee3f90d	0.44525948
51	0x3e4f9c26	0.2027441
52	0x3d08d4db	0.03340612
53	0x3eec0543	0.46097764
54	0xbe67eef6	-0.2264975
55	0xbe507c7b	-0.20359986
56	0x3d4d258d	0.05008464
57	0xbd3a9679	-0.04555366
58	0xbd9cf0c1	-0.07663108
59	0x3d5f3168	0.054490477
60	0x3c6ad792	0.0143336225
61	0xbdab567f	-0.08366107
62	0xbebb44dc	-0.36575973
63	0xbe07f3a4	-0.13276535
64	0x3e237930	0.15964198
65	0xbe98bd4f	-0.2983193
66	0xbec2e024	-0.3806163
67	0xbeaebcbd	-0.3412837
68	0x3dde47f2	0.10853566
69	0xbeb2a9a4	-0.3489505
70	0xbd66d234	-0.05635281
71	0xbcb8b2f2	-0.022546265
72	0x3f6b4a69	0.91910416
73	0xbe1be76c	-0.15224999
74	0x3e02193b	0.12704937
75	0x3f515821	0.817751
76	0x3ca36277	0.019944413
77	0xbe6e87d4	-0.23294002
78	0x3f4d6075	0.80225307
79	0xbdcba60d	-0.09943781
80	0x3d8feedf	0.07027983
81	0xbdcdfd00	-0.100580215
82	0xbc338368	-0.010956623
83	0xbe187651	-0.14888884
84	0xbdde443f	-0.10852861
85	0xbdbcea62	-0.092243925
86	0x3d00155a	0.031270362
87	0xbf02c01f	-0.51074404
88	0x3ef625c1	0.4807568
89	0x3bdd1468	0.0067468174
90	0x3ef77152	0.48328644
91	0xbefddb91	-0.49581578
92	0xbbe732d5	-0.00705562
93	0xbc1d02a4	-0.009583149
94	0xbcd42af8	-0.025899395
95	0x3d00b4e5	0.031422514
96	0x3d125f08	0.03573516
97	0xbc1ce41a	-0.009575868
98	0xbbbeb1eb	-0.0058195493
99	0xbc17b596	-0.009259602
100	0x3bc11de4	0.005893456
101	0x3e2c6f54	0.16839343
102	0x3cf30a70	0.029668063
103	0xbcc8b32b	-0.024499496
104	0xbb2bde17	-0.0026224905
105	0xbbf6f8a3	-0.007536964
106	0x3d40a557	0.04703268
107	0x3d238ecb	0.0399311
108	0xbd4abc28	-0.049495846
109	0xbda24384	-0.07923034
110	0x3cb515a9	0.022105055
111	0x400ea417	2.2287652
112	0xbf7ba08b	-0.98291844
113	0xbdd90c2f	-0.10598027
114	0x3efc6ce5	0.4930183
115	0xbf8a7323	-1.0816387
116	0x3dc66414	0.09687057
117	0x40194e35	2.3953984
118	0xbf6a09b1	-0.9142104
119	0xbd95be81	-0.07311726
120	0x3e7f2387	0.24915896
121	0xbe7394e5	-0.23787268
122	0x3ca69f9b	0.020339778
123	0xbed2ec09	-0.41195706
124	0x3d87ef4b	0.066374384
125	0xbcc25128	-0.023720339
126	0x3d96e1c1	0.07367278
127	0x3f83e249	1.0303432
128	0x3e384580	0.17995262
129	0x3c51bfd9	0.012802088
130	0xbf7c1b16	-0.9847883
131	0xbe6b0ed8	-0.22954881
132	0xbcb1db70	-0.021711081
133	0xbd2cb84a	-0.04216794
134	0xbd2c0035	-0.041992385
135	0xbee16ec9	-0.44029835
136	0x3b6c9fd4	0.0036106007
137	0x3c09d739	0.0084131295
138	0x3ec88c8f	0.39169738
139	0xbbd02776	-0.0063523604
140	0x3b25fea1	0.0025328773
141	0x3e6f9076	0.23394951
142	0x3d0b9b79	0.034083817
143	0xbcfb3a52	-0.030667458
144	0xbd11f738	-0.035636157
145	0x3c33e202	0.010979177
146	0x3cbe3a27	0.023221089
147	0xbd83b8f1	-0.06431759
148	0x3b369cb8	0.0027864408
149	0x3d8308e3	0.063981794
150	0xbdd5a877	-0.10432523
151	0x3f0dd338	0.5540042
152	0x3ea03446	0.3128988
153	0x3e092220	0.13391924
154	0x3f342bcc	0.7037933
155	0x3e34a99a	0.17642823
156	0x39b3f35b	0.00034322854
157	0x3f0f66ea	0.5601641
158	0x3e7fd676	0.24984154
159	0x3d2d71ca	0.042344846
160	0x3d0840f8	0.033265084
161	0xbe6ef7fc	-0.23336786
162	0x3e085918	0.13315237
163	0xbde84b30	-0.11342466
164	0xbc00d8d9	-0.0078642005
165	0xbdc33b35	-0.09532777
166	0xbf0f3d72	-0.55953133
167	0xbf1bc23c	-0.60843253
168	0xbe1d78a3	-0.1537805
169	0x3f014139	0.50490147
170	0x3f1c53bf	0.61065286
171	0x3e8fd4e7	0.2809212
172	0x3d955213	0.07291045
173	0x3c056f78	0.008144252
174	0xbcb638e7	-0.02224393
175	0xbd3030b1	-0.043015186
176	0xbc48839e	-0.012238411
177	0xbb7102ca	-0.0036775344
178	0xbf503e9a	-0.8134552
179	0xbb5b58d7	-0.00334697
180	0x3ceef71e	0.029170569
181	0xbee2dd91	-0.44309667
182	0xbdb0f320	-0.086401224
183	0x3dc5a880	0.096512794
184	0xbc89eb0b	-0.01683571
185	0xbdcaac11	-0.098961
186	0x3dd5b3ac	0.1043466
187	0x3f02b241	0.51053244
188	0xbd41e34c	-0.047335908
189	0xbd685c58	-0.05672869
190	0xbeb4ac7e	-0.3528785
191	0xbff1f11c	-1.8901706
192	0x3f732875	0.9498361
193	0x3e07c6cf	0.13259433
194	0xbf7525fa	-0.9576107
195	0x3f69f849	0.9139448
196	0xbb038e60	-0.0020073876
197	0xc0089b0d	-2.1344635
198	0x3f3d0c25	0.73846656
199	0xbe17e946	-0.1483508
200	0xbe418d4a	-0.18901554
201	0x3e7c87ed	0.24661227
202	0xbd02568e	-0.031820826
203	0x3e6ed819	0.23324622
204	0xbcec074d	-0.028812075
205	0xbde3e9f3	-0.11128607
206	0xbf102603	-0.56308
207	0x3ebcc801	0.3687134
208	0x3e5e25fa	0.21694174
209	0x3f1b080f	0.6055917
210	0xbee7f66c	-0.45305192
211	0xbe982095	-0.29712358
212	0x3d39c627	0.04535499
213	0xbc929e98	-0.017897889
214	0x3d6b1701	0.057394985
215	0xbee24ab1	-0.4419761
216	0x3d53d0e9	0.051712904
217	0xbd602cad	-0.054730106
218	0xbe693a62	-0.22776178
219	0x3d8322cf	0.064031236
220	0x3c246888	0.010034688
221	0x3c8053ef	0.015665023
222	0x3d3c323d	0.04594635
223	0xbd7a918b	-0.061173957
224	0x3c498395	0.012299438
225	0xbd6acd03	-0.05732442
226	0x3c858e86	0.016303312
227	0x3c693049	0.0142327035
228	0x3d900bd9	0.0703351
229	0xbda46923	-0.08027866
230	0x3c5846e7	0.013200498
231	0xbfa1718e	-1.2612779
232	0x3f6cd96c	0.9251926
233	0x3e07d112	0.13263348
234	0xbdbe6cec	-0.09298119
235	0x3f4a2c1c	0.78973556
236	0xbdecb727	-0.11558371
237	0xbf880fe9	-1.0629855
238	0x3f6a14f0	0.914382
239	0xbe127a03	-0.14304356
240	0x3dc68a09	0.09694297
241	0xbe57d400	-0.21076965
242	0xbc629400	-0.013829231
243	0xbe4676e0	-0.19381285
244	0xbd845db1	-0.06463183
245	0xbd4d98e9	-0.050194655
246	0xbeacfc59	-0.33786276
247	0x3ec5b578	0.38615012
248	0x3f1b575a	0.6068016
249	0x3ec4ff35	0.38475958
250	0xbebb242f	-0.36551043
251	0xbf1621a4	-0.5864508
252	0xbd0e4f66	-0.03474369
253	0xb8593023	-5.1781662e-05
254	0x3c9de814	0.019275703
255	0x3c51008e	0.01275648

a2c_network.actor_mlp.0.bias f4 [256]
0	0xbc8968a1	-0.016773524
1	0x3e509a29	0.20371307
2	0xbb15b7e5	-0.0022845205
3	0xbce49cf9	-0.027906882
4	0xbde5aec7	-0.11214977
5	0x3dada158	0.084780395
6	0x3c56fbcd	0.013121557
7	0xbdd8ae24	-0.1058009
8	0xbedfad23	-0.4368678
9	0x3e89cc3a	0.26913625
10	0x3ecbdde2	0.3981772
11	0xbe9feab2	-0.31233746
12	0xbc0ab35f	-0.008465617
13	0x3d9aa0e8	0.07550222
14	0xbd288d3c	-0.041150317
15	0x3eaaa3c6	0.33328074
16	0x3e97089e	0.29498762
17	0x3bb7eb8d	0.0056127966
18	0xbf315142	-0.69264615
19	0x3ca2380d	0.019802118
20	0xbbd46bc0	-0.0064825714
21	0xbee9f2aa	-0.4569295
22	0xbcd1f2ea	-0.025628526
23	0x3c7e419d	0.015518573
24	0x3a2d0482	0.0006600098
25	0xbe69d3eb	-0.22834747
26	0xbde2fb64	-0.11083105
27	0xbef437be	-0.47698778
28	0x3f135122	0.57545674
29	0xbddd031d	-0.107916094
30	0xbcfd4ef3	-0.030921435
31	0xbf128829	-0.57239014
32	0xbd0ce2af	-0.03439587
33	0xbe111cfd	-0.14171214
34	0xbf1871d8	-0.5954871
35	0xbd5b23ec	-0.053501055
36	0xbed890d0	-0.42297983
37	0xbf87154b	-1.0553373
38	0xbf7e77bd	-0.99401456
39	0xbd41259a	-0.047155
40	0x3e6d7753	0.2319005
41	0xbd974e67	-0.07388001
42	0xbd16c4d4	-0.036808804
43	0x3c09299e	0.008371739
44	0x3d66c760	0.056342483
45	0x395861e7	0.00020635837
46	0xbc0e94e3	-0.00870249
47	0xbc02f6fe	-0.007993458
48	0xbcf7a02b	-0.030227741
49	0xbd7209c4	-0.059091344
50	0xbf879cf3	-1.0594772
51	0x3ccf7411	0.0253239
52	0xbdb9f3b8	-0.09079689
53	0xbbd49454	-0.0064874087
54	0xbbdc356f	-0.006720237
55	0xbd9f0686	-0.07764916
56	0xbf0a17fe	-0.5394286
57	0x3e7b3dc0	0.24535275
58	0xbd2c0998	-0.042001337
59	0x3cd05253	0.02542988
60	0xbd7e6de0	-0.062116504
61	0xbbb9334c	-0.005651867
62	0x3c3383b6	0.010956695
63	0xbf8d1926	-1.10233
64	0xbf8662fe	-1.049896
65	0x3e80f670	0.25188017
66	0xbd2ebbcd	-0.04265957
67	0x3bfe65bf	0.007763594
68	0xbd24d9b1	-0.04024667
69	0x3ad71143	0.0016408343
70	0xbf264731	-0.6495238
71	0xbc8edc45	-0.017439017
72	0xbeb1cafd	-0.3472518
73	0x3e12027f	0.14258765
74	0xbe1cc7cd	-0.15310593
75	0x3cc8cc83	0.024511581
76	0xbf6147c5	-0.88000137
77	0x3d213b2c	0.03936307
78	0xbef2a914	-0.4739462
79	0xbf166bcf	-0.5875825
80	0x3c3d9eef	0.011573537
81	0xbcceab48	-0.025228158
82	0xbdef2575	-0.11677066
83	0xbd95928a	-0.07303341
84	0xbed5a1c1	-0.4172497
85	0xbd7ce2d9	-0.061739776
86	0xbd368f70	-0.044570386
87	0xbd0f2584	-0.034947887
88	0xbdac703e	-0.08419846
89	0xbe623ed9	-0.22094287
90	0xbc581dfb	-0.013190742
91	0xbe1b3ff3	-0.15161113
92	0xbf574b5e	-0.84099376
93	0xbcad0b09	-0.021123426
94	0xbe119484	-0.1421681
95	0xbf1d6e65	-0.61496574
96	0x3c124a53	0.008928853
97	0x3c04ab10	0.008097425
98	0xbd30e3e7	-0.043186095
99	0xbe1d73f3	-0.15376262
100	0xbf064ec2	-0.52463925
101	0xbc8e65ee	-0.017382588
102	0xbc2a9a1f	-0.010412722
103	0x3e809ac3	0.25118074
104	0x3a7b323a	0.00095823745
105	0x3d497343	0.049182188
106	0xbc53a0ae	-0.012916727
107	0xbde53830	-0.111923575
108	0x3cd5e207	0.026108755
109	0xbee22418	-0.44168162
110	0x3e7a15a6	0.2442232
111	0xbe819703	-0.25310525
112	0xbcdbe385	-0.026841888
113	0x3c582a25	0.013193642
114	0xbd8b8ff8	-0.06814569
115	0x3b380f04	0.0028085122
116	0xbd6ca4d3	-0.057774376
117	0x3ac254f3	0.0014826342
118	0x3dd0beb2	0.10192622
119	0xbe809402	-0.2511292
120	0xbed98d94	-0.42490828
121	0xbcaee133	-0.021347618
122	0xbeb73453	-0.35782108
123	0xbd772770	-0.060340345
124	0x3e311ddd	0.17296548
125	0xbe6873bd	-0.227004
126	0xbd3da675	-0.046301324
127	0xbb81ec73	-0.0039649545
128	0xbe31db94	-0.17368919
129	0xbc0c8b2b	-0.008578102
130	0xbefec53f	-0.49759862
131	0xbce8edfa	-0.028433789
132	0x3b66f1a6	0.0035239249
133	0x3c71907b	0.0147439195
134	0xbcfcb707	-0.030848993
135	0xbd0f62e5	-0.035006423
136	0xbbd0dad5	-0.006373743
137	0xbc992fad	-0.018699491
138	0x3e9f6b9a	0.3113678
139	0xbe059d6f	-0.13048337
140	0xbd816a3e	-0.06319092
141	0xbb815fe3	-0.003948198
142	0xbebdf419	-0.37100294
143	0xbd7f33ba	-0.06230519
144	0x3d14339d	0.036182035
145	0x3c39cd22	0.011340411
146	0xbc16cb31	-0.009203718
147	0xbd833f9d	-0.06408618
148	0xbcef34b2	-0.029199932
149	0xbd2c2f80	-0.042037487
150	0xbbd2fef0	-0.0064390823
151	0x3c48a03d	0.012245235
152	0xbd125b45	-0.035731573
153	0xbdb985d4	-0.09058729
154	0x3e8157f7	0.25262424
155	0xbe4dd532	-0.20100859
156	0x3978567b	0.0002368334
157	0x3d08a562	0.033360846
158	0xbc9f542c	-0.019449316
159	0xbc9595ec	-0.018259965
160	0xbd58d470	-0.05293697
161	0xbed52229	-0.41627625
162	0x3cbd5390	0.023111135
163	0xbe5d2bc9	-0.21598734
164	0xbce39f43	-0.027785903
165	0x3db397bc	0.087691754
166	0x3c544aae	0.012957258
167	0xbf1fe940	-0.62465286
168	0xbb87da40	-0.0041458905
169	0xb99ef2cd	-0.0003031701
170	0xbec302b5	-0.38088003
171	0xbe92ff68	-0.28710485
172	0xbb9b5a99	-0.0047410247
173	0x3cd46756	0.02592818
174	0xbc60183d	-0.013677654
175	0x3d063b6e	0.03277152
176	0xbd40e0e0	-0.047089458
177	0xbeab69be	-0.33479112
178	0xbd956084	-0.072937995
179	0xbf64ef66	-0.89427793
180	0x3b7bceb7	0.0038422772
181	0xbc69c9a9	-0.014269271
182	0xbed373e8	-0.41299367
183	0x3c108feb	0.008823375
184	0xbe7b44c3	-0.2453795
185	0xbdbcfe81	-0.0922823
186	0x3d046b2d	0.032328773
187	0xbc947f4d	-0.018127108
188	0xbe614e3b	-0.22002499
189	0x3e785e3b	0.24254696
190	0xbf669279	-0.9006725
191	0x3d6b7596	0.057485186
192	0xbd05895d	-0.032601703
193	0xbdf25fc8	-0.11834675
194	0xbf004660	-0.50107384
195	0x3c0505ad	0.008119029
196	0x3dd1c80e	0.102432355
197	0x3b230608	0.002487542
198	0x3cd6ccdd	0.026220733
199	0xbcac8b81	-0.021062614
200	0x3cc9fca0	0.024656594
201	0xbcca5a6e	-0.024701323
202	0xbd1c6a8b	-0.038187545
203	0x3c4f4a2b	0.01265196
204	0x3ac8f3f9	0.0015331499
205	0x3b461bed	0.0030229047
206	0xbe5bcfec	-0.21466035
207	0xbb9ba6dc	-0.004750116
208	0xbe458a30	-0.19290996
209	0x3eb22843	0.34796342
210	0xbf207d84	-0.6269152
211	0xbcd5d0c7	-0.02610053
212	0x3d505f85	0.050872345
213	0xbef8d22c	-0.48597848
214	0xbc98c8b5	-0.018650392
215	0xbb9be61a	-0.004757655
216	0xbda41951	-0.08012641
217	0xbd05d955	-0.032677967
218	0xbf214f43	-0.6301157
219	0x3e32a0fc	0.17444223
220	0x3ae88d6f	0.0017742346
221	0x3c548e67	0.0129734045
222	0xbeac138b	-0.3360866
223	0x3c118bf8	0.008883469
224	0xbc9bef27	-0.019034935
225	0xbf3035d5	-0.6883214
226	0xbf1229dd	-0.5709513
227	0xbdf0428b	-0.11731442
228	0x3baa64fe	0.0052000275
229	0xbe96b4f4	-0.2943493
230	0xbf46ddc5	-0.77682143
231	0x3c06dd35	0.008231451
232	0xbc2bba77	-0.010481468
233	0xbea3b355	-0.31972757
234	0x3c843644	0.016139157
235	0xbce5636e	-0.028001513
236	0xbc36573f	-0.0111291995
237	0xbe5085d6	-0.20363554
238	0xbccc6dde	-0.024954733
239	0xbe0a1ef8	-0.13488376
240	0x3e0349c0	0.12821102
241	0x3deba876	0.11506741
242	0xbcf87b16	-0.03033213
243	0x3bda1ead	0.006656489
244	0xbd5015fa	-0.05080221
245	0xbf35b751	-0.70982844
246	0xbeaa0f4b	-0.33214793
247	0xbc37f70c	-0.011228334
248	0xbf556d97	-0.83370346
249	0xbe0f3197	-0.13983761
250	0x3e8aef7e	0.27135843
251	0xbcce9a33	-0.025220012
252	0xbd31b088	-0.043381244
253	0xbc8fa4fc	-0.017534725
254	0x3e2bfa49	0.16794695
255	0x3ed302ae	0.41212982

a2c_network.actor_mlp.2.weight f4 [256, 256]
0	0xbc71553b	-0.014729793
1	0xbea2297c	-0.31672275
2	0xbe69f317	-0.22846638
3	0x3db8d9fe	0.09025954
4	0xbe64615a	-0.22302762
5	0x3eafeac1	0.3435879
6	0x3d7ab60c	0.06120877
7	0x3e61e4e5	0.22059973
8	0x3da116da	0.07865687
9	0xbd3bf58d	-0.045888472
10	0xbcdeb548	-0.027186051
11	0xbe9671c7	-0.2938368
12	0x3d828fff	0.06375121
13	0xbe85f8d5	-0.26166406
14	0xbe151db6	-0.14562115
15	0xbe5b9b80	-0.21446037
16	0xbe5ca7cb	-0.21548383
17	0xbecdf3fd	-0.4022521
18	0xbe818ad9	-0.25301245
19	0x3e2ac9fb	0.16678612
20	0xbe9a3a62	-0.30122668
21	0xbdfe901c	-0.124298304
22	0x3e83c137	0.2573335
23	0xbe0cf641	-0.13765813
24	0x3da514fe	0.080606446
25	0xbd4d6eaf	-0.050154384
26	0xbeea9225	-0.45814624
27	0xbe585ed1	-0.2112992
28	0xbe20ca36	-0.15702137
29	0xbdb2140c	-0.0869523
30	0xbe86fbb0	-0.26363897
31	0xbe88518a	-0.2662471
32	0x3e163538	0.14668739
33	0x3e2b22c2	0.16712478
34	0x3eba8520	0.3642969
35	0xbedc0e9d	-0.429799
36	0x3e544c61	0.20732261
37	0x3d6d4d79	0.05793521
38	0x3e8e7ecf	0.27831122
39	0x3e6a23c9	0.22865213
40	0xbf516f88	-0.8181081
41	0x3ef6df43	0.4821721
42	0xbe6c6fcb	-0.2308952
43	0xbd2d983b	-0.042381506
44	0x3e2cfa6b	0.16892402
45	0x3e83dfca	0.25756675
46	0xbda4ee49	-0.08053262
47	0xbdc6e123	-0.0971091
48	0x3e5bcfd4	0.21465999
49	0x3e186d4e	0.14885446
50	0xbd97a5fb	-0.07404705
51	0xbd8fe0ab	-0.07025274
52	0xbe8f4faa	-0.27990466
53	0xbe3c573c	-0.18392652
54	0x3e0e0966	0.13870773
55	0xbed539ac	-0.41645563
56	0xbe3694ac	-0.17830151
57	0xbe4fbe61	-0.20287468
58	0x3e432a5d	0.19059129
59	0x3e28a4d5	0.16469128
60	0xbc85f06f	-0.01635
61	0xbd6fafb7	-0.058517184
62	0x3e8c8bf1	0.27450517
63	0xbdb66148	-0.08905274
64	0x3d5f467e	0.054510586
65	0xbe2eb96c	-0.1706292
66	0x3e85c4b6	0.2612664
67	0xbea40429	-0.32034424
68	0x3d294c1d	0.041332353
69	0xbdd6b774	-0.1048421
70	0xbd392d30	-0.04520911
71	0xbee02541	-0.43778422
72	0x3d56e948	0.052468568
73	0xbe503a8a	-0.20334831
74	0xbe1880fd	-0.14892955
75	0xbe8a689a	-0.2703293
76	0xbea9282d	-0.33038464
77	0x3dca0532	0.09864272
78	0xbd0367c0	-0.032081366
79	0x3ec1a360	0.37819958
80	0xbd9515a0	-0.07279515
81	0x3dd1c6f8	0.102430284
82	0xbd0a8b4b	-0.033824246
83	0x3e20a106	0.15686426
84	0x3ec03dc6	0.3754713
85	0xbea1a8e6	-0.31574172
86	0xbe3fdc32	-0.18736342
87	0x3d648119	0.05578718
88	0xbeccab00	-0.39974213
89	0x3d860979	0.065447755
90	0xbc1192dd	-0.008885113
91	0xbe6dc7c1	-0.23220731
92	0xbd60df78	-0.054900616
93	0x3dd9e8f4	0.106401354
94	0x3e8f3139	0.2796724
95	0xbd2d24f4	-0.04227157
96	0x3da73969	0.08165247
97	0x3e82a8d1	0.25519422
98	0x3bbf776e	0.0058430946
99	0xbd4beb78	-0.049785107
100	0x3c68bd1e	0.014205245
101	0xbe14d739	-0.14535226
102	0x3e36a434	0.17836076
103	0xbdac96e6	-0.08427219
104	0x3d3a221c	0.045442685
105	0xbe6883f1	-0.22706582
106	0x3e91f88f	0.28509948
107	0xbe5d7ebe	-0.2163038
108	0x3e0095b6	0.1255711
109	0xbe733269	-0.23749699
110	0x3e9f5ed1	0.31127027
111	0xbe93db46	-0.2887823
112	0xbcd885fd	-0.026431078
113	0x3c527b79	0.012846821
114	0xbf084475	-0.5322946
115	0x3e777b21	0.24168064
116	0x3ce1e626	0.027575564
117	0xbc1ece81	-0.009692789
118	0xbd5177ab	-0.051139515
119	0xbe2301b2	-0.15918615
120	0xbe44a679	-0.1920413
121	0x3d917d7c	0.07104012
122	0xbe985db9	-0.29759005
123	0x3d1de405	0.038547534
124	0xbd23a060	-0.039947867
125	0x3b7f4280	0.003894955
126	0xbe43391c	-0.19064754
127	0xbe47ec73	-0.19523792
128	0x3e205479	0.15657224
129	0xbd8386b9	-0.06422181
130	0xbe8ecdfe	-0.27891535
131	0x3e60c6be	0.21950814
132	0xbe01b01d	-0.12664838
133	0x3db07006	0.08615117
134	0x3eecfdae	0.46287292
135	0xbe7ca080	-0.24670601
136	0x3e242048	0.1602794
137	0x3e93d951	0.28876737
138	0x3e771ac7	0.24131308
139	0x3e1d30e6	0.15350685
140	0x3ebca0dc	0.36841476
141	0x3e899ea2	0.2687884
142	0xbebd79fe	-0.37007135
143	0xbdf902dd	-0.12158749
144	0xbdcfb594	-0.10142055
145	0xbea18af5	-0.31551328
146	0xbd4e1cf0	-0.050320566
147	0xbecdf6ae	-0.40227264
148	0x3e1bd18f	0.15216659
149	0xbd20642b	-0.039158028
150	0xbd42f262	-0.047594436
151	0xbd0f89cd	-0.035043526
152	0xbd4b6cfa	-0.049664475
153	0xbd5e3a9c	-0.054255113
154	0xbe40d8cc	-0.18832701
155	0x3e88ea79	0.26741388
156	0xbec5065e	-0.3848142
157	0x3e165327	0.14680158
158	0x3e7c6459	0.24647655
159	0x3d847fc5	0.064696826
160	0xbdf56b4b	-0.11983355
161	0x3d8b3e83	0.067990325
162	0xbdd5ebfc	-0.10445401
163	0xbdf304c2	-0.11866142
164	0xbdf95ae5	-0.1217554
165	0x3e08a20f	0.1334307
166	0xbdd1d3a1	-0.10245443
167	0xbd902f83	-0.07040312
168	0x3ea8e2c3	0.32985505
169	0x3ebfdb84	0.37472165
170	0xbde880e4	-0.11352709
171	0xbea44703	-0.32085428
172	0x3e4aee13	0.1981738
173	0xbe320af4	-0.17386991
174	0xbe94a09b	-0.29028782
175	0xbdcd8445	-0.10034994
176	0x3e4012f2	0.18757227
177	0xbd9dc184	-0.07702926
178	0x3e8bdf9a	0.27319032
179	0xbe89a1e7	-0.26881334
180	0x3e059d3b	0.1304826
181	0xbd92368e	-0.07139312
182	0xbeea3a60	-0.45747662
183	0xbe1038b4	-0.1408413
184	0xb9f65b7a	-0.00046988932
185	0xbd43a91a	-0.04776869
186	0x3ec1369f	0.37736985
187	0x3d3f41fe	0.046693794
188	0xbe81ddb2	-0.25364453
189	0xbdd82d53	-0.1055552
190	0x3e8e2e31	0.27769616
191	0x3e96cbf3	0.29452476
192	0xbde1d47e	-0.11026858
193	0xbdf79146	-0.120882556
194	0x3d637871	0.055534784
195	0x3d863949	0.06553895
196	0xbe83b209	-0.25721768
197	0x3de26704	0.11054805
198	0x3dfb7788	0.12278658
199	0x3e905520	0.28189945
200	0xbd4658c5	-0.0484245
201	0xbe43a1f3	-0.19104747
202	0xbedd607a	-0.43237668
203	0xbb93199a	-0.004489136
204	0xbedeb4c7	-0.43497297
205	0xbdd5c75b	-0.10438415
206	0x3c0f1613	0.00873329
207	0x3e2102e6	0.15723762
208	0xbde86957	-0.11348217
209	0x3df1ada7	0.118007
210	0xbe3b1138	-0.18268287
211	0x3ea52804	0.32257092
212	0x3cb707a7	0.022342516
213	0xbe99aeaf	-0.30016086
214	0x3e91aeb9	0.28453615
215	0xbe1a5532	-0.15071562
216	0xbe59e734	-0.21279603
217	0x3d185fa3	0.03720058
218	0xbe2d95b6	-0.16951641
219	0xbd554469	-0.052067194
220	0x3e43e992	0.19132069
221	0x3ea50d90	0.3223691
222	0xbe5b2ba7	-0.21403371
223	0x3b10636f	0.0022031923
224	0xbdf6caa2	-0.12050368
225	0xbe56c0f3	-0.20972042
226	0xbe8791e1	-0.26478484
227	0xbe1703e3	-0.14747576
228	0x3e20b4e1	0.15694
229	0xbe558b3c	-0.20853895
230	0xbdcb3ca5	-0.099236764
231	0x3d9c56bd	0.076337315
232	0x3e8830f2	0.26599842
233	0xbcba47f7	-0.022739394
234	0x3de5e34c	0.11224994
235	0x3e922064	0.28540337
236	0xbce91623	-0.028452938
237	0xbd8593c2	-0.06522323
238	0xbea48464	-0.32132256
239	0x3e8deaa8	0.2771809
240	0xbe8dc2ad	-0.27687588
241	0x3e39d5ba	0.18147936
242	0xbd8f51ac	-0.069979995
243	0x3d9af586	0.07566361
244	0x3e0e68a5	0.13907106
245	0xbcd3ec73	-0.025869584
246	0x3db9d514	0.090738446
247	0x3e87ef72	0.2654987
248	0xbc6bc94e	-0.0143912565
249	0x3efd9f1e	0.4953546
250	0xb9bb27a0	-0.00035696942
251	0xbe1783a8	-0.14796317
252	0xbc865e7e	-0.01640248
253	0x3d4c2311	0.04983813
254	0xbe393da2	-0.18089917
255	0xbe1f5eea	-0.1556355

a2c_network.actor_mlp.2.bias f4 [256]
0	0xbe7af6cf	-0.24508213
1	0xbdb64321	-0.088995226
2	0x3b8753d6	0.004129867
3	0x3d2cb776	0.04216715
4	0xbd050c87	-0.03248265
5	0xbc33ab42	-0.010966124
6	0xbc46e982	-0.012140634
7	0x3cb16057	0.021652384
8	0xbb1c81e0	-0.0023881122
9	0x3d98390e	0.07432757
10	0x3d91c358	0.07117337
11	0xbd682048	-0.05667141
12	0xbc87bf39	-0.016570674
13	0x3d189d2f	0.037259277
14	0xbcd11a6f	-0.0255253
15	0x3b3c7ca6	0.002876082
16	0x3d074722	0.033026822
17	0xbca6e2a0	-0.020371735
18	0x3ba755c7	0.005106661
19	0xbca78adb	-0.020451954
20	0xbc2920da	-0.010322774
21	0xbcf2114b	-0.029549262
22	0xbc4b2db7	-0.012401036
23	0x3c01d77e	0.0079249125
24	0xbd93356b	-0.07187923
25	0xbd6550c1	-0.055985216
26	0xbb77d561	-0.0037816393
27	0xbbe2df9e	-0.00692363
28	0x3987a267	0.00025870206
29	0x3c9ff9d4	0.019528307
30	0xbc9e86e8	-0.019351438
31	0xbe74cda7	-0.23906575
32	0x3d1f2a05	0.038858432
33	0xbcf7c0e2	-0.03024334
34	0xbd0a365e	-0.033743255
35	0xbca24e39	-0.01981269
36	0x3c82d79e	0.015971955
37	0x3d085bfc	0.033290848
38	0xbca43eb3	-0.020049429
39	0xbbd9710c	-0.0066357907
40	0xbda31b77	-0.07964223
41	0x3cbf799d	0.02337342
42	0x3d0e739d	0.034778226
43	0x3b602399	0.0034200905
44	0xbc776ef8	-0.015102141
45	0x3c899f1b	0.0167995
46	0xbf1a0633	-0.6016571
47	0xbd333d5d	-0.043759692
48	0x3a9f9dce	0.0012177767
49	0xbd625b53	-0.055262875
50	0xbd4dee80	-0.05027628
51	0x3cdefeae	0.02722105
52	0xbcafd2d1	-0.02146283
53	0xbd44c5fa	-0.048040368
54	0x3bd73055	0.006567041
55	0x3d39a558	0.0453237
56	0xbc84eed8	-0.01622717
57	0xbd465c28	-0.04842773
58	0xbc01b679	-0.00791704
59	0xbce6b261	-0.02816123
60	0xbbb535c0	-0.005530089
61	0x3cf1ccbd	0.029516572
62	0x3d05788d	0.03258567
63	0xbc23b7a0	-0.00999251
64	0xbd173065	-0.036911387
65	0xb9ade4ef	-0.000331677
66	0xbd96118e	-0.07327567
67	0xbb610cae	-0.0034339833
68	0xbc77c6af	-0.015123053
69	0xbe6b9d34	-0.23009187
70	0xbeef06fe	-0.46685022
71	0x3bc136ec	0.00589644
72	0xbd1b746e	-0.037952833
73	0x3d1fef34	0.03904648
74	0xbdbf9afe	-0.09355734
75	0x3b780cf8	0.0037849527
76	0x3ccfeb05	0.02538062
77	0xbd0794e5	-0.03310098
78	0xbce9e2f6	-0.028550606
79	0xbe03b63d	-0.12862487
80	0x3c644ddc	0.013934579
81	0xbc9efc6b	-0.019407472
82	0xbf0cadbc	-0.549526
83	0xbd10e31d	-0.035372842
84	0x3cc8cd82	0.024512056
85	0x3bf28b02	0.007401825
86	0xbb0bfb56	-0.0021359525
87	0xbd4541e4	-0.04815854
88	0xbe0af823	-0.13571219
89	0x3cb3af78	0.021934256
90	0xbea2b1b5	-0.31776205
91	0x3cfbfe38	0.03076087
92	0xbbf33359	-0.0074218926
93	0x3b8c8149	0.004287873
94	0xbc633790	-0.013868228
95	0x3d844b26	0.06459646
96	0x3a85fee8	0.0010223063
97	0xbd4e1187	-0.050309684
98	0x3d6b6f59	0.057479236
99	0x3bac16e5	0.0052517527
100	0x3d57a8f2	0.052651353
101	0xbcc681b5	-0.024231771
102	0xbd208ec2	-0.039198644
103	0x3cae7fef	0.021301238
104	0xbf0c9d27	-0.54927295
105	0xbcc911ac	-0.02454456
106	0xbc4f541f	-0.012654333
107	0xbe90cf5c	-0.28283203
108	0x3d4e5e9c	0.050383195
109	0x3c73a50d	0.014870894
110	0xbd4e691b	-0.050393205
111	0xbdb292f4	-0.08719435
112	0x3cef34e0	0.029200017
113	0xbd130172	-0.03589005
114	0xbeccef2b	-0.4002622
115	0xbd10c9ee	-0.035348825
116	0x3b54d5ba	0.0032476024
117	0xbca4da3a	-0.02012359
118	0xbe2e146a	-0.16999975
119	0xbbae4c7d	-0.0053191767
120	0xbd21b4ed	-0.039479185
121	0x3c9bea83	0.019032722
122	0xbba0df6a	-0.0049094455
123	0xbc20f3c7	-0.009823746
124	0x3abd7481	0.0014454277
125	0xbe6201cf	-0.22071002
126	0x3c44498b	0.011980425
127	0xbd39c559	-0.04535422
128	0x3d8de8ba	0.06929155
129	0xbea7fd4e	-0.32810444
130	0x3c9bec0c	0.019033454
131	0xbc99f10f	-0.018791704
132	0x3d200145	0.03906371
133	0x3ce24434	0.027620412
134	0xbd804d74	-0.06264773
135	0xbd177535	-0.03697701
136	0xbbd6deac	-0.0065573063
137	0xbd3053c2	-0.043048628
138	0xbe1afd2d	-0.15135641
139	0x3d3bdccc	0.045864865
140	0x3d149d9a	0.036283113
141	0xbac25923	-0.001482759
142	0xbe0fd6e0	-0.14046812
143	0xbd61d246	-0.055132173
144	0x3bb0fa0a	0.0054009007
145	0xbd1b129c	-0.037859544
146	0xbd157279	-0.036486123
147	0xbd0ae86d	-0.033913065
148	0xbe0ad81a	-0.13558999
149	0xbe209395	-0.15681298
150	0x3dd14171	0.1021756
151	0xbcb4bdd9	-0.022063183
152	0x3cb1207a	0.021621931
153	0xbf0d76c0	-0.55259323
154	0x3d165282	0.03669978
155	0xbc1ebeb6	-0.009689024
156	0xbc6125af	-0.013741895
157	0xbed16995	-0.40900865
158	0xbec5310f	-0.3851399
159	0xbea8232c	-0.32839334
160	0xbd0a6523	-0.033787858
161	0xbf3a66fa	-0.7281338
162	0xbcf959b3	-0.03043828
163	0xbd17c707	-0.03705504
164	0xbe3f7c00	-0.18699646
165	0x3cd52c44	0.026022084
166	0xbaaf0624	-0.001335327
167	0x3cf64aaa	0.0300649
168	0xbd179ca5	-0.037014622
169	0xbc5715b9	-0.013127738
170	0x3d33b75b	0.043876033
171	0xbc82fa09	-0.015988367
172	0x3cebfb16	0.02880625
173	0xbc3e2015	-0.011604329
174	0x3b17c7c3	0.0023159839
175	0x3d556e18	0.052106947
176	0x39121623	0.00013931892
177	0xbf853928	-1.0408068
178	0x3cd56b66	0.026052188
179	0xbcf25c9d	-0.029585177
180	0xbda524c6	-0.080636546
181	0xbb935cc7	-0.004497144
182	0xbd79f5a1	-0.061025266
183	0xbc561f7c	-0.01306903
184	0x3cda5f0a	0.026656646
185	0x3b9d4b43	0.0048002317
186	0xbe8d4211	-0.27589467
187	0xbbec7812	-0.007216462
188	0x3c5a0221	0.013306172
189	0xbf09bd97	-0.53804916
190	0x3cd62cda	0.026144434
191	0xbd065e45	-0.032804746
192	0x3d079678	0.033102483
193	0xbd6479c1	-0.055780176
194	0x3b66784f	0.0035166924
195	0x3b9a50f4	0.0047093574
196	0xbec3d5b4	-0.3824898
197	0xbe390120	-0.18066835
198	0x3b6a0cd5	0.0035713215
199	0xbc2f18bb	-0.010687049
200	0xbca55700	-0.020183086
201	0x3b3e9942	0.0029083048
202	0x3ca0cab3	0.019627905
203	0xbc2658b1	-0.010152982
204	0x3c6816d5	0.0141656
205	0xbed780d0	-0.42090464
206	0xbeae1d73	-0.34006843
207	0xbe802710	-0.25029802
208	0xbce0c710	-0.02743867
209	0xbc5acdfb	-0.013354774
210	0xbceb1f79	-0.02870153
211	0xbd449d13	-0.04800136
212	0xbd46c343	-0.04852606
213	0xbd655ad0	-0.05599481
214	0x3c208e7c	0.009799596
215	0xbcae1665	-0.021250913
216	0xbbde4887	-0.0067835483
217	0xbdd20f64	-0.10256842
218	0x3d1a9c5a	0.037746765
219	0x3d2d1775	0.0422587
220	0x3cd5743e	0.026056405
221	0xbdc661a2	-0.09686591
222	0x3cb0196a	0.021496493
223	0xbd4dfacf	-0.050288018
224	0xbe779337	-0.24177252
225	0xbc321467	-0.010869122
226	0x3d0c2cc9	0.034222398
227	0x3baf4ef0	0.0053499863
228	0xbdbb643a	-0.09149976
229	0x395675a4	0.00020452455
230	0x3d50d52f	0.050984558
231	0xbcbe54d9	-0.023233818
232	0x3daa1843	0.08305409
233	0x3e520b5b	0.20512144
234	0xbc21da00	-0.009878635
235	0x3b36134c	0.0027782498
236	0xbc82d4c5	-0.015970597
237	0xbb25eb56	-0.0025317273
238	0x3cd411a2	0.025887314
239	0x3d934d90	0.07192528
240	0xbb787035	-0.0037908677
241	0xbcd0725d	-0.025445158
242	0xbc4ee9e7	-0.012629009
243	0x3cce1545	0.025156626
244	0xbc9e1d6f	-0.019301144
245	0x3cb40f40	0.021979928
246	0xbb3d19a4	-0.0028854394
247	0xbd1b95a0	-0.03798449
248	0x3d876e1e	0.066128
249	0x3cedade9	0.02901359
250	0x3d3c15a6	0.045919083
251	0x3bddb788	0.0067662634
252	0x3e6df466	0.23237762
253	0x3cfbc761	0.03073472
254	0xbe241b08	-0.16025937
255	0xbd15049a	-0.03638134

a2c_network.value.weight f4 [1, 256]
0	0x3c4830ee	0.012218697
1	0xbc2fa9b0	-0.010721609
2	0x3c3935ce	0.011304332
3	0xbbd9d1ad	-0.0066473098
4	0xba1a2cb8	-0.00058812974
5	0xbbc7d81c	-0.0060987603
6	0xbb9882c5	-0.004654261
7	0xbc958a83	-0.018254524
8	0xb8936ba6	-7.029557e-05
9	0x3cbda2b2	0.023148868
10	0x3bd093cd	0.0063652755
11	0xbc811d6e	-0.015761103
12	0x3a45ac45	0.0007540624
13	0x3d80631d	0.06268904
14	0xbb8e4587	-0.0043417844
15	0x3caefc2a	0.021360476
16	0x3b96c204	0.004600765
17	0xbe84f710	-0.25969744
18	0x3bca755e	0.006178542
19	0xbc8a0c29	-0.016851502
20	0xbcbcb464	-0.023035236
21	0xbba7e7f2	-0.0051240856
22	0xbbb15f9d	-0.0054130093
23	0x3c1866cc	0.009301852
24	0x3acd0cc1	0.001564406
25	0xb964372f	-0.00021764332
26	0x3d9608f3	0.07325926
27	0x3b8fb813	0.004385957
28	0x3c0105db	0.007874931
29	0xb9bc0ef1	-0.00035869287
30	0x3f588a06	0.8458561
31	0xbbdadc79	-0.0066791144
32	0x3c1b67b7	0.009485177
33	0x3ce32e97	0.027732177
34	0xbc378362	-0.011200758
35	0xbc427d96	-0.011870762
36	0x3d46397a	0.048394658
37	0x3b904327	0.0044025364
38	0xbc058ab3	-0.008150744
39	0xbbb83168	-0.005621124
40	0x3c41c625	0.0118270265
41	0x3c0428e3	0.008066389
42	0xbd02dfe1	-0.03195179
43	0x3cafd537	0.021463973
44	0xbd1d6000	-0.03842163
45	0xbaabfd0a	-0.0013121676
46	0xbda0e276	-0.07855694
47	0xbc1def3a	-0.009639556
48	0x3a8f3238	0.0010925
49	0x3d8be599	0.06830902
50	0xbbec8325	-0.007217782
51	0x3d33db8b	0.043910544
52	0xbac73c6c	-0.0015200502
53	0x3cf6343a	0.0300542
54	0xbc0a0569	-0.008424141
55	0x3e0abc93	0.13548498
56	0x3c924281	0.017853977
57	0x3b359643	0.0027707971
58	0x3d054086	0.032532237
59	0xbc99d519	-0.01877837
60	0x3a8bfb56	0.0010679762
61	0x3ce316f2	0.027720902
62	0x38ab8621	8.178899e-05
63	0xbc214923	-0.009844097
64	0xbd564561	-0.05231226
65	0xbb987ed0	-0.004653789
66	0x3bd6d4a3	0.00655611
67	0x3c6e3d73	0.014541018
68	0xba62f9bb	-0.00086584286
69	0xbca06196	-0.019577783
70	0xbe4c8cf0	-0.19975638
71	0x3bd342e6	0.006447184
72	0xbb7f98ef	-0.0039001068
73	0xbc8ffa42	-0.017575387
74	0x3da0cca2	0.078515306
75	0xbc1fba9c	-0.009749081
76	0xbc0e2be7	-0.008677459
77	0x3aeaeb64	0.0017922935
78	0xbbbe89e8	-0.0058147795
79	0xbd0a2943	-0.033730756
80	0x3b7d81e3	0.0038682155
81	0x3d22e270	0.03976673
82	0xb958ccfb	-0.00020675726
83	0xbcd65b98	-0.026166722
84	0xbbd8ed38	-0.0066200756
85	0xbd812870	-0.06306541
86	0x3b625c33	0.0034539818
87	0x3c28c84d	0.010301662
88	0xbcb8c500	-0.022554874
89	0xbc310c8c	-0.010806214
90	0xbd5c6a7c	-0.05381249
91	0x3bf9f3cb	0.0076279393
92	0x3c49507d	0.012287256
93	0x3c1232bf	0.008923232
94	0x3ccd69ec	0.025074922
95	0x3b92d5dc	0.0044810604
96	0x3c8c5cf6	0.017134171
97	0xbb8c8fa7	-0.0042895856
98	0xbd4f62d8	-0.050631374
99	0xbc96df95	-0.01841716
100	0x3d2ed504	0.042683616
101	0x3c4404c0	0.011964023
102	0xbb6cd917	-0.0036140138
103	0x3c148ee6	0.009067273
104	0x3bf87860	0.007582709
105	0xbce26c07	-0.027639402
106	0xbc0fcba1	-0.008776576
107	0x3c2eff43	0.010680976
108	0xbe0626eb	-0.13100784
109	0xbbf5fd50	-0.007507004
110	0x3c523378	0.012829654
111	0xbc954b62	-0.018224422
112	0x3e5e1b8a	0.21690193
113	0x3cb2c586	0.021822702
114	0xbda01c7e	-0.078179345
115	0xbc92d8e1	-0.017925682
116	0x3d2da865	0.04239692
117	0xbd126bff	-0.035747524
118	0x3cd5e720	0.026111186
119	0xbc0cf055	-0.0086022215
120	0x3e9a4aef	0.30135295
121	0xbc187919	-0.009306216
122	0xbab224ab	-0.001359125
123	0x3a04d4da	0.0005067118
124	0x3ad2f7bd	0.001609556
125	0xbdc20e6c	-0.09475407
126	0xbb7bf5a5	-0.0038445976
127	0xbc9be75a	-0.019031215
128	0x3c92ec19	0.017934846
129	0xbca49f80	-0.020095587
130	0x3d4fb407	0.050708797
131	0xbada6d98	-0.0016664742
132	0xbcfc97f5	-0.030834178
133	0x3c8bb8de	0.017055925
134	0xba9bc204	-0.0011883383
135	0xbd59a8e6	-0.05313959
136	0xbc015349	-0.007893392
137	0xbc65cc6d	-0.01402579
138	0x3c9a20b9	0.018814432
139	0x3ae03640	0.0017106012
140	0xbc190aa6	-0.009340918
141	0xbcc3ef46	-0.023917805
142	0xbe87b6ba	-0.26506597
143	0xbc2aedc7	-0.010432667
144	0xbc798738	-0.015229993
145	0x3e2316d6	0.1592668
146	0xbce389d9	-0.027775692
147	0xbd578f8c	-0.05262713
148	0x3cc9d7d4	0.024639048
149	0xbba0927a	-0.004900274
150	0x3c351bdc	0.0110540055
151	0x3c5cfe4b	0.013488363
152	0x3bf35fca	0.0074271904
153	0xbe13270c	-0.14370364
154	0x3d355b19	0.04427633
155	0xbdfab6e5	-0.122419156
156	0x3c87fe2c	0.01660069
157	0xbe234b38	-0.15946662
158	0xbe389852	-0.18026856
159	0xbd61bc0d	-0.05511098
160	0x3bc185fc	0.0059058648
161	0xbe45704f	-0.19281124
162	0x3dfbf58c	0.12302694
163	0xbc65ba1d	-0.014021424
164	0x3d36a1c4	0.044587865
165	0xbbabea34	-0.005246425
166	0x3b2e13a8	0.002656201
167	0xbbacbd2f	-0.005271576
168	0xbe0f1984	-0.13974577
169	0x3c26dd59	0.010184609
170	0xbc915bdf	-0.017744003
171	0x3e4d1ef4	0.20031339
172	0xbb58982f	-0.0033049693
173	0xbb8de9be	-0.0043308428
174	0x3c566bdc	0.013087239
175	0x3d4c743e	0.049915545
176	0x3d5b12ad	0.053484607
177	0xbbcac745	-0.0061883056
178	0x3b83140e	0.0040001934
179	0x3b9f48df	0.004860982
180	0x3aaf07ab	0.0013353726
181	0x3e9f3b60	0.31099987
182	0x3c06431f	0.008194714
183	0x3aacbf6d	0.0013179608
184	0xbd063b61	-0.032771472
185	0x3bf3ee65	0.0074441903
186	0x3bd0d8ef	0.0063735167
187	0x39dcf874	0.00042146782
188	0xbaf905fb	-0.0018998975
189	0x3b96bf17	0.0046004164
190	0x3bc6b4d6	0.006064038
191	0xbd1cd340	-0.0382874
192	0x3c20dced	0.009818298
193	0xbd6e4230	-0.05816859
194	0x3c0ef762	0.008725973
195	0x3dac0b08	0.084005415
196	0xbb64048e	-0.0034792754
197	0xbcc93d3c	-0.024565332
198	0x3d27362e	0.040823154
199	0xbd54ea94	-0.051981524
200	0xbd8df874	-0.06932154
201	0xb9e249e8	-0.00043161144
202	0x3dd979b9	0.1061892
203	0x3c464d14	0.012103338
204	0xb9beb03b	-0.00036370926
205	0x3c2be401	0.010491372
206	0x3c0c83f4	0.008576382
207	0xbc0d88d9	-0.008638584
208	0xbb895947	-0.004191551
209	0x3c12f1df	0.008968799
210	0xbe921636	-0.2853257
211	0xbd14074f	-0.036139783
212	0x3bee7102	0.007276655
213	0x3c8dc7b2	0.017307136
214	0x3d5ea900	0.05436039
215	0xbc7eb3cd	-0.0155457975
216	0x3c93b914	0.018032588
217	0x3e8ec6d6	0.27886075
218	0xbb92d5bb	-0.004481045
219	0xbb8ba933	-0.0042621135
220	0xbc252810	-0.010080352
221	0x3d8c3f31	0.0684799
222	0x3b97c8a4	0.0046320725
223	0xbc91d307	-0.017800821
224	0xbd553afc	-0.052058205
225	0x3d6fb8e2	0.058525927
226	0xbafd1283	-0.0019307885
227	0xbb0f67d6	-0.002188196
228	0xbe05af8e	-0.1305525
229	0x3b4c1445	0.0031140011
230	0x3bd87c0b	0.006606584
231	0x3bb6ee17	0.0055825817
232	0x3ea7a04b	0.3273948
233	0x3e191f52	0.14953354
234	0x3ba6b1d7	0.005087118
235	0xbc2618c1	-0.010137738
236	0xbb79b723	-0.0038103543
237	0x3c4518c6	0.012029832
238	0x3d2b68bf	0.04184794
239	0xbb85fc7b	-0.004088936
240	0x3bce28c2	0.00629148
241	0xbbe36d4a	-0.0069405185
242	0x3cae37ac	0.02126678
243	0xbc04b166	-0.008098936
244	0xbd81d21c	-0.06338903
245	0x3b32609a	0.0027218224
246	0x3d3e1d05	0.046414394
247	0x3a7b04d6	0.0009575611
248	0xbe53274d	-0.20620461
249	0xbdbf39e6	-0.09337215
250	0xbb8dbf7c	-0.004325805
251	0x3da7b8ae	0.08189522
252	0x3f07916d	0.5295628
253	0xbbe63ae5	-0.0070260637
254	0xbcf4dbd7	-0.029889984
255	0x3e810a9c	0.25203407

a2c_network.mu.weight f4 [6, 256]
0	0x3dadceaf	0.084866874
1	0xbdc25a5f	-0.09489893
2	0x3c1cfa2e	0.009581132
3	0x3988fc8b	0.000261281
4	0xbb623e0b	-0.0034521844
5	0xbba26403	-0.00495577
6	0x3c94b5d2	0.018153105
7	0xbbafb3c9	-0.005362008
8	0xbb4b931d	-0.0031063028
9	0x3ba961ca	0.005169128
10	0x3d3b1933	0.04567833
11	0x3aa8419b	0.0012836935
12	0xbc43b28d	-0.011944425
13	0x3b4909fd	0.003067612
14	0x3a5bfca9	0.00083918363
15	0x3c13f200	0.009029865
16	0x3b4a3b46	0.0030858084
17	0xbcdd4617	-0.02701096
18	0x3be528ce	0.0069933897
19	0x3c8386e2	0.016055528
20	0xbb0f243c	-0.0021841666
21	0xbbb1e1b1	-0.005428516
22	0x3ab74f6b	0.001398546
23	0x3bdfc34f	0.0068287025
24	0x3b1b1152	0.0023661447
25	0x3bda4b9e	0.0066618463
26	0xbb930384	-0.004486503
27	0xbb98d586	-0.004664126
28	0xbc12ab4c	-0.008951973
29	0xbba051dc	-0.004892571
30	0x3de8c596	0.113658115
31	0x3cc88f26	0.024482321
32	0x3bbcf0de	0.0057660183
33	0x3bafc8d0	0.005364515
34	0xbb0aeb21	-0.0021197277
35	0xbbb98cd7	-0.0056625414
36	0xbcb63554	-0.022242226
37	0x3ac020b4	0.0014658184
38	0x3acd01a2	0.0015640745
39	0xbb11bcf8	-0.0022237878
40	0x3b482e8c	0.0030545322
41	0xbac59952	-0.00150756
42	0xbb676287	-0.003530653
43	0x3b032a2a	0.0020014145
44	0xbc4c7d5e	-0.012481062
45	0x3b2eac2f	0.0026652922
46	0xbe0624f4	-0.13100034
47	0xbb4f0d43	-0.0031593598
48	0x3b728b88	0.0037009437
49	0x3ddfd028	0.109283745
50	0x38eebc5a	0.000113838076
51	0xbb8b4c82	-0.004251064
52	0xba8ad961	-0.0010593348
53	0x3c21c090	0.009872571
54	0x3aff4871	0.0019476545
55	0x3cc98c84	0.024603136
56	0x3aebb6ea	0.001798359
57	0xbbfb3b67	-0.0076669934
58	0x3b056fb1	0.0020360763
59	0xbba5dea6	-0.005061942
60	0xb98b0c2b	-0.00026521212
61	0xbb274d08	-0.0025528092
62	0xba6407f1	-0.0008698693
63	0xbb53338e	-0.0032226774
64	0xbc7cabc6	-0.015421813
65	0x3b999c8e	0.004687852
66	0x3a100811	0.0005494366
67	0x3acbd54d	0.001555124
68	0xba5f1739	-0.00085102353
69	0x3cbf0ab4	0.023320533
70	0xbcbbe62d	-0.022936905
71	0x39ceab03	0.00039418795
72	0xbbab3526	-0.0052248416
73	0xbadaccc8	-0.001669311
74	0xbe1e5550	-0.15462232
75	0xb9161d82	-0.00014316107
76	0xb9567fd4	-0.0002045625
77	0xbb4b9dd1	-0.0031069408
78	0xba82e848	-0.0009987438
79	0x3d28b142	0.04118467
80	0x3a003fe1	0.0004892331
81	0x3bcc0028	0.0062256046
82	0xbbc0d100	-0.0058842897
83	0x3abaef54	0.0014261999
84	0x3b89ee9c	0.0042093527
85	0x3cf42c76	0.029806357
86	0x3b93dba9	0.0045122695
87	0xbc125ee6	-0.008933758
88	0x3ddc6887	0.107621245
89	0xbb70e1f6	-0.0036755777
90	0x3e9886bd	0.29790297
91	0x3b8e10bb	0.0043354905
92	0x3b57e2ab	0.00329415
93	0x3b682f60	0.0035428628
94	0x3b29877d	0.002586811
95	0xbb48ef74	-0.0030660303
96	0xbaa9bd17	-0.001295003
97	0x3a0991c8	0.00052478584
98	0xbd035331	-0.03206176
99	0xbadacf47	-0.0016693854
100	0x3b55c92c	0.0032621128
101	0x3c922883	0.017841583
102	0x3b5b70eb	0.0033484052
103	0x3a6aaecf	0.000895244
104	0x3c934774	0.017978407
105	0xbc8ec60c	-0.01742842
106	0x3b9ca648	0.0047805645
107	0x3c981d21	0.018568577
108	0x3c98cb77	0.018651707
109	0xbac7c04d	-0.0015239805
110	0x3be1935c	0.0068840217
111	0xb88029a3	-6.111271e-05
112	0xbc6a727b	-0.014309521
113	0x3987e04d	0.00025916324
114	0xbda279ed	-0.07933412
115	0xba20f3af	-0.00061398273
116	0xbc1d3e5d	-0.009597388
117	0x3d53515c	0.051591262
118	0x3b775c32	0.0037744162
119	0xbb0cd81f	-0.0021491123
120	0xbcd3dc75	-0.025861958
121	0xbbf856b4	-0.007578695
122	0x3b554443	0.0032541908
123	0xba066654	-0.00051269424
124	0xbbb96105	-0.0056573176
125	0x3cd49aad	0.025952661
126	0x3b02802e	0.0019912827
127	0xbb1c595b	-0.002385697
128	0x3adf21bc	0.0017023603
129	0x3dc19dcd	0.09453926
130	0xbd0d4d33	-0.03449745
131	0x3a929c62	0.0011185522
132	0x3bac2487	0.005253378
133	0xbbe926c6	-0.007115218
134	0xb8765f91	-5.8739974e-05
135	0x3c090d9a	0.008365059
136	0x3abece50	0.0014557336
137	0xbc2b34de	-0.010449616
138	0xbd01bcf4	-0.03167434
139	0x3b678e6a	0.0035332688
140	0x3b428426	0.0029680817
141	0x3b2e459a	0.0026591779
142	0x3e2c7ec5	0.16845234
143	0xbaaff6c4	-0.0013424982
144	0xbb902f49	-0.004400168
145	0x3d900be1	0.07033516
146	0x3baa4fc9	0.0051974994
147	0x3b642a89	0.0034815392
148	0xbe092e1f	-0.133965
149	0x3d3d8776	0.046271764
150	0xbbad643c	-0.00529149
151	0xbbd1445b	-0.0063863224
152	0xba82d28c	-0.0009980961
153	0x3ec6db9e	0.3883943
154	0xbb01de3a	-0.0019816295
155	0x3c8d4fa6	0.017249893
156	0x3b8c9d66	0.0042912243
157	0x3c1ad6fc	0.00945067
158	0xbe1978be	-0.14987466
159	0xbd6e3342	-0.058154352
160	0x3a80c1f4	0.0009823428
161	0x3ea6dfa2	0.32592493
162	0xbbf4dc3c	-0.007472543
163	0x3a7f025b	0.0009727829
164	0xbd2c448f	-0.04205757
165	0xb97ad174	-0.00023919885
166	0x3937fc9e	0.00017546347
167	0x3a1795fd	0.0005782543
168	0xbd4e8056	-0.05041536
169	0xbac7efb2	-0.001525393
170	0xbb1bf565	-0.002379739
171	0xbc819baf	-0.015821306
172	0x3cdf258b	0.027239582
173	0x3bf05017	0.007333766
174	0xbba20dd9	-0.0049454984
175	0x3d461c3b	0.048366766
176	0xbd0043eb	-0.03131477
177	0x3e1c3c37	0.15257345
178	0x3a1cfbea	0.0005988466
179	0x3b53fa16	0.0032345108
180	0x39a4a08b	0.0003140013
181	0xbd2f4ab0	-0.042795837
182	0xbb0155be	-0.0019734944
183	0xbb842189	-0.004032318
184	0x3b0cf314	0.002150719
185	0x3b9f6a5e	0.004864975
186	0x3d8b25ff	0.067943566
187	0x3883dfd1	6.288256e-05
188	0xb9dbb744	-0.0004190748
189	0xbc163b07	-0.009169347
190	0xbad27498	-0.0016056476
191	0xbcb58b20	-0.022161067
192	0x3c3f449e	0.011674074
193	0xbcc1ec02	-0.023672108
194	0xb9a51a45	-0.00031490825
195	0x3d3895e9	0.04506484
196	0xbdac4f1a	-0.08413525
197	0xbd3340ca	-0.04376296
198	0x3bda79d4	0.006667355
199	0xbd16a399	-0.036777113
200	0xbbc8d80e	-0.0061292714
201	0x3b153b07	0.0022770779
202	0x3e72a655	0.23696263
203	0xb92d61bf	-0.00016534979
204	0xbb5d1c7c	-0.0033738902
205	0xbdd554ac	-0.104165405
206	0xbba68c3c	-0.005082635
207	0x3ca625ed	0.020281756
208	0xbb1c4d5a	-0.0023849816
209	0xbbac183b	-0.005251912
210	0xbdc00d63	-0.09377553
211	0xbe46d675	-0.19417746
212	0x3b3dee02	0.0028980975
213	0x3bb336fc	0.005469201
214	0xbc28bbde	-0.010298697
215	0xbb9dd3df	-0.004816517
216	0xbd5811eb	-0.052751463
217	0xbb38b6c9	-0.002818512
218	0xbb3096eb	-0.0026945423
219	0x3bc0d8d4	0.005885223
220	0x3b23b82d	0.0024981603
221	0x3de65e1b	0.11248418
222	0x3b09a5c7	0.0021003352
223	0xbb66af01	-0.0035199525
224	0xbd5833d2	-0.052783795
225	0xbbf986c0	-0.0076149404
226	0x3bd28e9b	0.0064256913
227	0xbb9b2253	-0.0047343164
228	0xbd7005ab	-0.058599155
229	0xbb06b8a2	-0.0020556827
230	0x3b69df43	0.0035686053
231	0x3badd7f7	0.005305286
232	0xbb5a2f9f	-0.0033292545
233	0xbdc4f8cd	-0.096177675
234	0x3b8023db	0.0039105243
235	0x3b1a728d	0.0023566813
236	0xba85d4f4	-0.001021056
237	0xbba37c2f	-0.004989169
238	0xba60c4ef	-0.0008574267
239	0x3c14d757	0.009084544
240	0x3be3b4b9	0.006949034
241	0xbb07a13a	-0.0020695464
242	0xbbf3bdf6	-0.0074384166
243	0xb7cefe04	-2.4675399e-05
244	0xbd90565d	-0.070477225
245	0xbc630914	-0.013857145
246	0xbd2af630	-0.04173869
247	0x3a437492	0.000745603
248	0x3d417ce0	0.04723823
249	0xbc3c361c	-0.01148751
250	0xba906e96	-0.0011019285
251	0xbe617189	-0.22015966
252	0xbdb5a8f9	-0.088701196
253	0xba3de9ff	-0.0007244646
254	0x3daa48af	0.083146445
255	0xbb09f59f	-0.0021050943

a2c_network.mu.bias f4 [6]
0	0x3cec85e1	0.028872432
1	0xbd8b515a	-0.06802626
2	0xbd552936	-0.052041255
3	0x3d85da09	0.065357275
4	0x3e0c253f	0.13686083
5	0x3edab77c	0.42718112

exp_avg f4 [6]
0	0xb92e2aec	-0.00016609923
1	0xb9fd2063	-0.0004828005
2	0x39c1a93f	0.00036937927
3	0xba26834c	-0.0006351962
4	0x3a263c64	0.00063413964
5	0xba77b743	-0.00094496104

exp_avg_sq f4 [6]
0	0x37161840	8.946343e-06
1	0x3726c92a	9.941208e-06
2	0x37198b99	9.152013e-06
3	0x370f7954	8.551713e-06
4	0x3714ae6f	8.862101e-06
5	0x373e6bfb	1.1350024e-05
