logs/rl_games/yam_cube_sort_8192/2026-02-01_08-08-54/nn/last_yam_cube_sort_8192_ep_500_rew_1766.7997.pth (torch, 953214 bytes, 30 tensors)

value_mean_std.running_mean f8 [1]
00000000: cdba 1b44 b92e de3f
0.4716017880554489

value_mean_std.running_var f8 [1]
00000000: bdfa 78fd 36ff 643f
0.0025631021524355744

value_mean_std.count f8 []
00000000: 0000 0002 0040 af41
262144001.0

running_mean_std.running_mean f8 [40]
00000000: 1e62 803f 01e5 ef3f 95fe 8625 5cd1 6a3f
00000010: 1035 b4c1 20b0 f63e e066 0a67 bcfe 6a3f
00000020: 1035 b4c1 20b0 f63e 0000 0000 0000 0000
00000030: 45cc d258 24de d1bf f05d 2bc5 3199 cebf
00000040: aef9 f057 61f1 d43f e0f9 5ddd ce0f cfbf
00000050: b968 3488 7e11 ccbf 2516 d0f3 52dc ce3f
00000060: ef15 992a 05ec 9d3f cfde 0d5a a323 d33f
00000070: bbe1 e0e8 9b52 52bf d862 bb84 0c68 e83f
00000080: 1d69 491a 7b32 d33f 980c 0a2e 7ddd 4abf
00000090: e7e9 d1a3 0c68 e83f 35e3 fef4 b028 d33f
000000a0: 23df daba 10c6 49bf ca93 c3a0 0d68 e83f
000000b0: 401a c2fc 92f7 143f 79af defd 444c 023f
000000c0: 36ec aec0 6ab3 23bf ef4a a18f e63b 123f
000000d0: 3a87 49a8 8f99 f13e b887 10fb db61 23bf
000000e0: b093 d8f3 fd0f 113f d714 a249 bdb5 eb3e
000000f0: 02b5 eb16 8ae0 22bf c94f 3bb4 a070 dd3f
00000100: 0000 0000 0000 0000 0e15 e37c eb51 e83f
00000110: 0c40 657c fb28 cc3f 77d1 bab5 7bbc c13f
00000120: 0e15 e37c eb51 e83f 0c40 657c fb28 cc3f
00000130: 77d1 bab5 7bbc c1bf 0e15 e37c eb51 e83f
0.9967046966804138 0.0032736587274653874 2.1636962725547998e-05 0.003295295690190922 2.1636962725547998e-05 0.0 -0.2791834704796126 -0.2390501225224706
0.3272326811601499 -0.24266992386760844 -0.21928388262387502 0.24109875588344312 0.02922065804002288 0.2990501765666353 -0.0011183283381922388 0.7627012817784715
0.29995610777918263 -0.0008198605756465525 0.7627013396843808 0.2993585960899055 -0.0007865506829238571 0.7627018108292927 7.998308791643764e-05 3.4900527438124414e-05
-0.00015030553944747762 6.95571397113894e-05 1.6784523284469494e-05 -0.00014787493049178506 6.508815291590589e-05 1.3213119292263698e-05 -0.00014402089751489744 0.45999925232649425
0.0 0.759999984664917 0.22000068258284988 0.13856455205462812 0.759999984664917 0.22000068258284988 -0.13856455205462812 0.759999984664917

running_mean_std.running_var f8 [40]
00000000: fa4a d3e8 33e8 6a3f 5ef8 8b9b 1bbb 6a3f
00000010: f33f 7b56 3ab2 f63e cfea 79e6 2fe8 6a3f
00000020: f33f 7b56 3ab2 f63e f4ca d8d0 4d62 403e
00000030: d0f6 ff95 4174 883f 19e7 a075 a4c5 9a3f
00000040: e0ee 7adb 7225 7e3f 4e1b b60b 4e62 653f
00000050: b836 aa52 2d7d 813f 784a 512b eec5 a23f
00000060: 2c98 8c35 bc40 803f 5314 c83d 6c3f 623f
00000070: 065c 2a18 ab69 683f 1002 4c5f 8070 823e
00000080: 2f51 f543 66e1 623f 819d e88d bcc2 6a3f
00000090: a0d6 9327 2c1e 813e a68a 8f98 5306 653f
000000a0: dd82 624a 3965 6d3f b29d 1d75 4e34 813e
000000b0: b42f 002f 3c7c 2a3f f60a 448a c402 383f
000000c0: 0cc9 ce1a c329 fa3e 5c5b 9631 b79a 2e3f
000000d0: 3dda b063 2d91 3a3f 613a fe46 ee20 fb3e
000000e0: 499c aaca 9eb1 2e3f d930 b0ce 8b85 3d3f
000000f0: 4d69 16b0 97a8 f83e 814b 35dd e3d9 433e
00000100: f4ca d8d0 4d62 403e 5b90 7d11 efd8 493e
00000110: 5d14 c849 a22d 413e 029e 4fe6 22b3 403e
00000120: 5b90 7d11 efd8 493e 5d14 c849 a22d 413e
00000130: 026e 0ae3 22b3 403e 5b90 7d11 efd8 493e
0.003284551034633207 0.0032630480967546357 2.164478556104794e-05 0.003284543566960486 2.164478556104794e-05 7.629394473042306e-09 0.011940491094715538 0.026144570998645287
0.007359932576658429 0.0026103519755368626 0.008539537511093584 0.03666633871821018 0.007935972580138971 0.0022275079811629266 0.002980074089758758 1.3738467399133934e-07
0.002304744469862417 0.0032666857435008083 1.2753800485820473e-07 0.00256649329502186 0.0035883063274727415 1.2818218891461064e-07 0.00020206675208134033 0.00036637590734771243
2.495110827611343e-05 0.00023349272013880706 0.0004053817571646778 2.5871883223833168e-05 0.00023417533278300071 0.0004504648520089589 2.351623971250912e-05 9.243904231187132e-09
7.629394473042306e-09 1.2036132576456303e-08 7.99924953447275e-09 7.776427677103203e-09 1.2036132576456303e-08 7.99924953447275e-09 7.776427586335152e-09 1.2036132576456303e-08

running_mean_std.count f8 []
00000000: 0000 0004 0040 9f41
131072001.0

a2c_network.sigma f4 [6]
00000000: f67a d7bc 5ecc 3dc0 4670 41c0 92a7 a03f
00000010: fb93 8a3f 6678 cebc
-0.02630375 -2.9655986 -3.0224776 1.2551138 1.082641 -0.025203895

a2c_network.actor_mlp.0.weight f4 [256, 40]
00000000: e612 ac3d 243b 9abd 3a11 d3bb 0b01 e23d
00000010: 23da 963c 6290 8dbd 3bab 933d 3890 c23d
00000020: ae04 343e 84d2 42be b420 0fbe 5259 03be
00000030: d8ed 32be 6c92 2b3e 9428 973d d596 4c3e
00000040: be95 cfbc 8c3c 69bc f6b6 1b3e b01b acbd
00000050: b53a 0e3c 0fe2 c03e aaf2 c8bd e1dc 27be
00000060: fc2d 26bc 3c94 93bc 3413 583e 0f92 be3d
00000070: 0ec6 843d e9f7 d4ba da1b 863e 840a 283d
00000080: f3cb 1b3e 7025 afbd 6c00 2f3e 6760 43be
00000090: b378 7bbd 3296 c83e 6026 013e 8394 343e
000000a0: 879f c1bc 9399 26be 01dc 383d ca89 e3bd
000000b0: ae4d 6a3d 1faf 19bd b889 313e 35fa 8bbe
000000c0: 6663 4abd dcaf 823d 8f13 4f3d 3eb8 fb3d
000000d0: d360 a1bd de7f b23c 749d 9abd 452e 2a3e
000000e0: 40c1 973d 29c6 3e3d fe4a 3a3e 905e 31be
000000f0: 04c4 ef3c d706 113f 3b97 f1bd 8ef1 503d
00000100: 5202 fdbd b2a3 acbd 6ed7 933e 61a9 6abc
00000110: 6bce d7bd 2397 1bbd e473 853e 89e2 d1be
00000120: 2993 473d 846b b1bd 0f01 a13e 9d18 d3be
00000130: 233c af3d 74f0 8e3e 8db5 943e 3385 0abd
00000140: 3801 903c ecb0 a1bd 1d30 a4bd c5e0 03be
00000150: 1702 36be 62ea bcbd f87b a9bd e0d4 b5bc
00000160: 41e6 653d 5e4f 77bc 44a6 1f3d 3d53 8d3a
00000170: 29cc b43c d9ef 013d c85c e2bc 6d28 39bd
00000180: 17c8 a239 5cc1 0ebc 2942 813d a673 863c
00000190: b84f c63c fafe 3abd c1be 0a3e 4846 11be
000001a0: 7791 573d 5c28 febd 77d6 693e 9a87 4c3e
000001b0: 8741 9b3c 6029 8b3c abff 08bd 0f4d 86bd
000001c0: 1af1 8dbc bcf6 fdbd c678 1dbe fbcb 87be
000001d0: 8779 a13d 110c 78be 926a 4b3e 0ea9 babd
000001e0: 8c33 8c3e 9a6c aebd 2162 bf3d e845 84be
000001f0: dad4 0e3e 2851 c2bc 0a22 a7bd f8ee 153e
00000200: 7db7 1a3e c610 bd39 0c7f b4bd f7ec c43c
00000210: 2b38 223e aac0 1abd 4738 69bd 3f28 403d
00000220: 1800 b1bd d4dd c43c b832 443c b930 cdbc
00000230: b8ec 6f3d aec5 c13e 7ea0 a8bd c54f 4e3d
00000240: a7c7 20be 4a15 8cbd 8be9 8f3e 99f4 23bc
00000250: ed27 863d 737f d03d 8941 25be 963d f8bd
00000260: 78fc ce3d 2d35 343e 99eb 993e 254c 91bd
00000270: e1b3 2d3d d619 9d3e 222c 9e3d e2de ac3d
00000280: 298e 4ebd be65 15be e73e 713d e36c dcbc
00000290: f62d a8bd 353b c3bd b200 48be 4785 653d
000002a0: 83b7 5ebe 3061 06bc 34ad 85bc 8060 823e
000002b0: 26ee cebe 13b3 74bc 3585 8f3d 4f8e 093f
000002c0: 47a9 133d 8e06 8abd e101 4d3d eb1d 0bbd
000002d0: 0e2a 873c 4398 f5bd 1fbb f53d 37ba 9a3d
000002e0: 7c09 2bbe b99a 113e 7257 12be 2e7a d33e
000002f0: 9292 c83d 0633 4cbe 76f3 acbd deec b1bd
00000300: 6e77 9b3d bcf4 083e 83be 4f3e 84b1 7dbe
00000310: 296a 60ba 3ee2 53b9 4aa6 183e 59bb 16be
00000320: 9615 a23a 1212 afbc 34d0 14be d21c 10bd
00000330: 7cbb 11be f3e9 e3bd b0df f6bd 1142 f23d
00000340: 34ef d5bd f083 d93d 1f6d 6039 8330 85be
00000350: a6e2 943b 6436 0d3d 09a5 09be c196 5abe
00000360: 2f15 1c3e 9fee a5bd a527 503e be8e 2c3d
00000370: 1465 a33c f6d9 02bf eca1 87bb 5bbd 85be
00000380: a0cd cb3d 972d 853e 76a7 99be 99c0 5e3e
00000390: cee7 07bd 2454 d8bd 2337 41bd 1003 303d
000003a0: 9506 c93d ee09 b93d 1b75 073e a4a6 aa3e
000003b0: b1a7 21be 70f1 953c c82e 91be f1c5 3dbe
000003c0: 391c 37be 3aa0 793d 5df6 16be c65a 9d3d
000003d0: 01fc 4abe e998 4dbd fb2f 50be 2ddf 693d
000003e0: b416 423e 81a7 fbbc a29e 7abc 1c03 33be
000003f0: 7e96 64be 7678 e6bd 50fd ab3d 33b1 cb3e
0.08402042 -0.075308114 -0.0064412626 0.11035355 0.018414563 -0.069123045 0.07210394 0.09500164
0.1757991 -0.19025618 -0.13977319 -0.12827042 -0.17473543 0.16755074 0.073807865 0.19979413
-0.025339957 -0.014235627 0.15206513 -0.084037185 0.008680989 0.3767247 -0.098119095 -0.16392852
-0.0101427995 -0.01801502 0.21101075 0.09305202 0.064830884 -0.0016248199 0.26193124 0.041025653
0.15214519 -0.085520625 0.17090005 -0.19079743 -0.061394405 0.3917709 0.12612295 0.17634778
-0.023635639 -0.16269521 0.045131687 -0.111102656 0.057202987 -0.037520524 0.17337692 -0.2733933
-0.0494112 0.06381199 0.050555762 0.12291001 -0.07879796 0.021789487 -0.07549563 0.16619213
0.074099064 0.0465757 0.1819267 -0.17321229 0.029268272 0.5665106 -0.11796423 0.051011615
-0.12353958 -0.0842966 0.28875297 -0.01432261 -0.10537418 -0.037985932 0.2606498 -0.40993145
0.048724327 -0.08663085 0.3144612 -0.41229716 0.08556392 0.27917826 0.29044762 -0.033818435
0.017578706 -0.07895073 -0.080169894 -0.12878712 -0.17774235 -0.092243925 -0.08275598 -0.022196233
0.05612779 -0.015094606 0.038976923 0.0010782253 0.022070007 0.031722877 -0.027632132 -0.04520457
0.00031048126 -0.008713093 0.06311447 0.016412567 0.024207935 -0.04565332 0.1354933 -0.14186966
0.05262896 -0.12410042 0.22835718 0.19973603 0.018952144 0.016987503 -0.03344695 -0.065576665
-0.01732688 -0.124005765 -0.15378103 -0.26522812 0.078845076 -0.24223353 0.19864872 -0.09114276
0.27383077 -0.08516808 0.093448885 -0.25834584 0.13948384 -0.023720339 -0.08160789 0.1464194
0.15109058 0.00036061386 -0.08813295 0.024038775 0.15841739 -0.037781395 -0.056938436 0.04691338
-0.08642596 0.024031557 0.011974983 -0.025047647 0.058575362 0.3784613 -0.082337365 0.050369043
-0.15701161 -0.06839998 0.28107867 -0.010007047 0.06550584 0.10180559 -0.16138281 -0.121211216
0.10106748 0.1759841 0.3006256 -0.070946015 0.042407874 0.30683774 0.077232614 0.08440949
-0.050428543 -0.14589593 0.05889788 -0.02690739 -0.08211891 -0.09532777 -0.19531515 0.056035306
-0.21749692 -0.008201882 -0.016317941 0.2546425 -0.40416068 -0.014935273 0.07007829 0.5373277
0.036050107 -0.067395315 0.05005062 -0.03396408 0.016499545 -0.11991932 0.11998581 0.07555049
-0.16702837 0.14219178 -0.1429117 0.41304153 0.09793581 -0.19941339 -0.08444874 -0.08687757
0.07591139 0.13374609 0.20287518 -0.24774748 -0.0008560741 -0.0002020681 0.14907184 -0.14719905
0.0012366052 -0.021370921 -0.14532548 -0.035183735 -0.14231676 -0.11128607 -0.12054384 0.118290074
-0.10446015 0.10620868 0.00021402955 -0.26013574 0.00454362 0.0344757 -0.13441862 -0.2134657
0.15242456 -0.08102154 0.20327623 0.042128317 0.019945659 -0.5111383 -0.0041391756 -0.2612103
0.09951329 0.26011345 -0.30010575 0.21753158 -0.03318005 -0.105629236 -0.047171723 0.04297167
0.098157085 0.09035097 0.13228266 0.33330262 -0.15786625 0.018303603 -0.28356004 -0.1853254
-0.1788186 0.06094382 -0.14742418 0.07683329 -0.19822694 -0.050194655 -0.20330803 0.057097603
0.18953973 -0.03071952 -0.01529661 -0.17481655 -0.22323033 -0.11253445 0.08397925 0.3978363

a2c_network.actor_mlp.0.bias f4 [256]
00000000: 6bc9 303e 5b89 8d3e c0ea d8bc d817 a53d
00000010: c4bc 73bd 87ea a0bd 4607 263e ccbb 103e
00000020: 246a 563e 9b43 9b3d 3ef3 6f3e ec28 16be
00000030: b32b 673d 3f81 8c3e 6c50 2d3e fd10 0dbe
00000040: c275 07be 5b92 853e 0ca2 d8bd 6efb a9bd
00000050: eb52 3bbe 85aa 423e f9f2 263e a722 3abe
00000060: 730f 143e 9ff5 303e a063 403d 354f 62bd
00000070: 3423 783e 1724 273e cbc0 103e 1ff2 1e3e
00000080: 3e13 1f3e e533 5cbe b78f 84bd dd04 e73d
00000090: f137 a43d 0ceb 643c a173 af3c a8f6 923c
000000a0: 1763 57bd 15bd 0b3e a399 2a3b e6c5 223e
000000b0: 5382 823e 0703 813b d3f0 793c e02a 0cbe
000000c0: 39dd 053e d5a3 ba3d 867b a63c 717a 0b3d
000000d0: 7ca2 a5be cb90 01be d5c4 d7bc 70aa 4f3d
000000e0: 9808 5f3e c5b8 7fbd 6c0f 6dbd 5491 a13e
000000f0: b960 c83d 7d4a 983d e8c8 cebd 4077 65bd
00000100: bcd4 58bc 9a66 c1bd e07b 20bd ea25 5abe
00000110: 90f3 babd 4eda adbd 17da ff3c 6103 833e
00000120: 1e29 083e cc21 d73e ac84 ac3d bf1b 49be
00000130: 6d5f 263d c3ec 30be 32b7 bebd 16d5 853c
00000140: c1d4 ebbd cd52 a83d 7fa2 cdbc 4af3 223e
00000150: 90bf f13d 2737 2c3e eb81 0e3e 0e84 273e
00000160: 5091 313e f92e 6b3d 07d3 423e 32c4 883d
00000170: d47a 103e 8ef7 873d e155 89be fd2a 40be
00000180: 4120 5a3e 6255 4d3e d8a3 1c3e 4e9b bc3c
00000190: de7e 96be b113 e93d c4de 533e f7f0 4d3e
000001a0: 6ecd 083e 68a5 82be e6e3 afbe 5579 6e3e
000001b0: 6ac6 403e 85a6 a43d 3913 4dbd 094b 403e
000001c0: 723e 4abe b156 7e3e fdb8 7e3e cbcd 97bd
000001d0: 894f b93d 6831 36be c275 793e 4614 e5bc
000001e0: fca8 153e bd82 523e f686 d23d 7665 7c3d
000001f0: 4b8d 05be 00e8 6cbe 05d3 2e3e ea2f d23d
00000200: 3844 dabd f017 763e 85bd d0be b4fd e93d
00000210: 09bd 553e 9c70 b43b eb39 5c3e 9685 d93d
00000220: 808a 30bd cd31 0b3e 4fc9 fa3d daa5 0d3e
00000230: 7efc d73c 4573 e53d 2c16 4d3e f294 163e
00000240: 0d1c acbd 5609 fbbd 57d9 ba3d 0101 f63c
00000250: b925 0c3e e85e 9fbc 6c9e 59bc 6bb5 6d3e
00000260: e1bf 1e3e 9208 16be 66cf 353e 0312 e93d
00000270: 7ae4 f4bb edd6 ae3d d2b8 c8bd e814 3c3e
00000280: 4ef2 263d f6d6 e03d 6ce3 9bbd 2459 89bd
00000290: 4c74 413e 6c0a 3d3e 224a 053e 615c 2d3e
000002a0: 576a 483e a61b 0bbe 63a9 233e f1e9 2b3c
000002b0: 70f4 76be 9ba2 973e 3dba ba3d 74f8 48bc
000002c0: ad7c dcbc 6e09 203e 85fa bc3c cfd0 443e
000002d0: 9eaf aebd c6f8 0cbe e6dc 113e 991f 38be
000002e0: 6d11 be3d 7694 20be c6dd 773e f5fa 8f3e
000002f0: 5f9e 76bd ff5e 623d dd5c 953d 8c9e 963d
00000300: 5f7a 4a3e 0504 54be 6259 803e 9f5a b6bc
00000310: 47c4 893e f3cd 543e c3e8 2a3e 44a0 4d3e
00000320: 22c7 723e 52db 153e f0a1 163e eb85 263e
00000330: aa0b 653e 4aa8 03be c553 bd3d 8531 25be
00000340: 6977 b0bd 3df3 6a3e 5843 4a3e cdd8 5fbe
00000350: bd0f 733e 8d11 5a3e b5d2 80bc 720f 723e
00000360: c3ef babd 2eb7 843e c8e5 473e 3597 9cbd
00000370: 9567 21be a045 f73d 64d9 893d 1983 cc3c
00000380: 9a18 2e3e 0191 173e 0199 1fbe 32ab eb3d
00000390: 1ab1 ef3d f9d8 61be c362 613e fca5 8bbe
000003a0: ad47 d43d 26c1 003e dd3f 373e c57b 1bbe
000003b0: e068 ee3d a7e2 c7bd 526c 6ebe 6943 193d
000003c0: 4648 9bbc 7369 c83c a153 e33d f292 603e
000003d0: 0d03 da3d 8e1e 3fbe 6ec0 06be 2086 153d
000003e0: 4ecf b03c 189d 21be f30d 893e 4c59 f8bd
000003f0: 78e2 ad3d 9e89 42bd bab3 a23d 112c b5bc
0.17264335 0.27643856 -0.026479125 0.080611885 -0.059506193 -0.078572325 0.16213712 0.14134139
0.20938927 0.07581254 0.23432633 -0.14664048 0.05643816 0.27442357 0.1692521 -0.13776012
-0.13228515 0.26088223 -0.10577783 -0.082999095 -0.1829335 0.1901036 0.16303624 -0.18177281
0.14459018 0.17281197 0.04697001 -0.05525132 0.24232179 0.16322361 0.14136045 0.1552205
0.15534684 -0.21504171 -0.06472724 0.112802245 0.080184825 0.013972055 0.02141744 0.01793988
-0.052584734 0.13646348 0.0026031516 0.15895805 0.25490054 0.0039371285 0.015255171 -0.1368823
0.13072671 0.0911328 0.020322572 0.034052316 -0.32350528 -0.1265289 -0.026338974 0.05069965
0.21780622 -0.06243207 -0.057876036 0.3155619 0.097840734 0.074360825 -0.100969136 -0.05602193
-0.013234314 -0.09443398 -0.039180636 -0.21303526 -0.09128487 -0.08488904 0.031231923 0.25588515
0.13296935 0.42017972 0.08423743 -0.1963949 0.04061835 -0.17277817 -0.093122855 0.016336959
-0.11515189 0.08218918 -0.025101898 0.1591312 0.11804116 0.16817914 0.13916747 0.16358969
0.17340589 0.057417843 0.19025813 0.06678046 0.14109355 0.06639014 -0.26823333 -0.18766399
0.21301366 0.20052102 0.15296876 0.023023274 -0.29393667 0.11380709 0.20690447 0.20111452
0.13359615 -0.2551682 -0.3435356 0.23288472 0.18825689 0.080395736 -0.05006716 0.18778624
-0.19750383 0.24837758 0.24875255 -0.07412299 0.09048373 -0.17792284 0.24361327 -0.027963769
0.14615244 0.20557685 0.10279648 0.0616202 -0.1304218 -0.23135376 0.17072685 0.10263045
-0.10657543 0.24032569 -0.40769592 0.11425343 0.20872892 0.005506588 0.21506469 0.106211826
-0.043100834 0.13593216 0.12245428 0.13832799 0.026365515 0.112036265 0.20027989 0.14705256
-0.08403788 -0.1225764 0.091234855 0.030029776 0.13686265 -0.019454435 -0.0132824 0.23213737
0.15502883 -0.14651707 0.17754897 0.113803886 -0.0074735256 0.085370876 -0.09800877 0.1836735
0.040758424 0.109785005 -0.07611737 -0.06706455 0.1889202 0.18461007 0.1301656 0.16929771
0.19571815 -0.13584766 0.15982585 0.010492788 -0.24116683 0.29616246 0.091175534 -0.012266267
-0.026914919 0.15628597 0.023068676 0.19220279 -0.0852959 -0.13766775 0.14244422 -0.17980804
0.092806675 -0.15681633 0.24205694 0.28121153 -0.06020963 0.055266377 0.07293103 0.07354459
0.19773243 -0.20704658 0.25068194 -0.022260008 0.2690756 0.20781688 0.16690354 0.20080668
0.23708776 0.14634445 0.14710212 0.16262023 0.2236773 -0.12857166 0.092444934 -0.16132171
-0.08616526 0.2294435 0.19752252 -0.21860047 0.23736472 0.21295758 -0.015725473 0.23638704
-0.09127762 0.25921005 0.19521248 -0.07646028 -0.1576217 0.12073827 0.06730917 0.024964856
0.17001572 0.14801408 -0.1558571 0.11507262 0.11703701 -0.22055425 0.22010331 -0.27275074
0.103652336 0.1257368 0.17895456 -0.15183933 0.11641097 -0.097600274 -0.23283508 0.037417803
-0.018955361 0.024464345 0.11099935 0.21931055 0.10645113 -0.18664 -0.13159344 0.036504865
0.021583226 -0.15782583 0.26768455 -0.12126407 0.08490461 -0.047494523 0.07944436 -0.022115739

a2c_network.actor_mlp.2.weight f4 [256, 256]
00000000: ac7f a6bb d07f e9bc e4e2 2dbd b998 45bc
00000010: 02e2 0f3d fc39 e83c c6f1 6abd cc3a 35bd
00000020: 9f52 23bd 2fd7 51bd 1d2a 2c3d a3b5 11bd
00000030: 189c a0bb 4f56 fdbc 8462 8e3c e80e 4fbd
00000040: b531 4a3d f76d fdbc bf26 3a3c abc6 5ebd
00000050: b90f 80bd b663 92bd 6e4d 0f3d ef91 823d
00000060: 4da4 623c 0b49 493d 29c3 44bd c71e b2bc
00000070: 94c8 e43c d2af f039 18b6 56bd a500 24bd
00000080: e846 043c a45d 92bd 9d24 85bd acd2 07bd
00000090: 4d96 803d 75a5 453d 4efb 413d b0b4 8ebc
000000a0: 4824 f6bb e787 6139 cc6a 37bc fe49 b13b
000000b0: e47b 18bd 7deb 5c3d 5b52 333c da30 55bd
000000c0: 8b04 13bd 41b0 85bd 87fc 1ebc 63b6 cfbc
000000d0: 5438 a4bd c903 a33d 20d0 973c 4c6a 37bc
000000e0: 3690 94bc e520 a7bd c819 a4bd 7477 b1bc
000000f0: 0371 843c 2689 afbd ae26 8f3d 5f88 0dbd
00000100: a4d0 19bc fed7 00bd 9167 373d 1062 193d
00000110: 37c3 68bd ca1a d4bd 90ff 113d 46e7 43bc
00000120: 75c1 223d 8723 923c 170d 92bd 3ad4 b63c
00000130: b568 36bd 2270 8ebd bea9 1bbd 1079 cc3c
00000140: 0e69 48bd d2b6 963d d9f2 17bb a730 97bc
00000150: 1f47 a23d f36e 233d 6a2e 8abb 71c7 b3bd
00000160: 9cbf 8ebd aad2 19bc e428 a63c 8f24 bdba
00000170: 7e2e 06bd 67c0 253d 7602 353d cfee 913c
00000180: 6c33 6fbd fe01 c13d fb12 ce3c 15a4 85bc
00000190: b5c3 6cbd bf69 fa3c 881c 9fbc 35a7 8cbd
000001a0: 25ac 73bd ccaf a73b 33c2 0cbd 6e79 863d
000001b0: 815b 37bd 5c0b 0a3c 0257 6dbc ea07 5fbb
000001c0: a4ea 5abd 4b91 a8bd 8baf 43bd 5e8f 66bc
000001d0: a50e c0bd 4727 46b9 11e9 5f3c 0a11 cc3b
000001e0: 5257 173c 1fbc fbbb 7617 1e3d 358b 95bc
000001f0: a58f 14bc d7b2 2dbd 2487 7bbd 08aa 683c
00000200: ca1f 12b9 57ed 8a3c 5d97 da3c 23cd be3c
00000210: e5a4 95bc 3be0 b13c ec85 683c 50f1 c13c
00000220: 26c0 cd3c 7db3 ffbc 41e5 47bd 3600 793d
00000230: da8f b33c 7c1a bc3c 02af ce3b 5154 66bd
00000240: f212 1e3a 5e56 e63b 8e75 9d3c 5749 b6bd
00000250: 5e85 da3b d981 653d 7292 13bc 2147 54bc
00000260: ec24 d73b d5af 1cbc 9a18 77bc f005 003d
00000270: dbef dbbb 5662 64bc 0a84 d93d 3d8a 43bc
00000280: 5d74 5abd 9982 293c e2d6 143b 62c1 32bc
00000290: 4c5d 833d 181e 55bc 7077 6e3d 0538 783d
000002a0: 2090 453c 9417 90bc 2846 3e3d 70d5 413c
000002b0: ccb5 ca3c 67a1 0a3d d5b4 3c3d 5cfe 183d
000002c0: 0645 44bd 0c76 4abc 1395 9ebd cdd7 4fbd
000002d0: aa71 cc3d 7b64 413d a4ff 93bb 06d5 8bbd
000002e0: 18b3 d2bc f182 9dbd 70c7 bcbc 17ce 633b
000002f0: 1c08 8ebd bacd 4d3c 6857 193d c930 2fbd
00000300: 7589 063a 1dc2 35bd 7166 d2bb d3b0 6abd
00000310: dd2c b53c 7bf5 4bbc 477c 593d fe7d 13bd
00000320: 944e 043c b6cd 41bd e23a 9f3c 73a9 0ebd
00000330: 1f15 73bc 4f58 8cbd 31c7 363d c109 74bd
00000340: 3528 4fbd 5bb6 2cbd 7b73 4cbd e4b2 2d3c
00000350: 57ea 743c 6d49 a33d c953 72bd 4c3a ffbc
00000360: bee5 053d dc5a ac3c 9aa2 f53c 27d8 edb9
00000370: 9d76 6cbd 0538 363c fe80 e0bc 5854 29bd
00000380: f9ea 99bc bb29 9cbc 1f76 7bbd 682d 02bd
00000390: cd8c ad3c 4095 9e3c 17f6 13bc 6c6a 463d
000003a0: ce25 f33c ef5f 4c3d 9a16 78bb bf1c dfbc
000003b0: 645d a3bc dcd2 61bd 7ff2 2a3d 94a5 68bc
000003c0: b343 20bd 1029 a03d c9a7 0fbd 1954 883c
000003d0: e227 56bb 3e54 2f3c 99fb 3bbc 718d 343c
000003e0: 170f 0dbd d0ab b73c 9a4f 09bd 88d1 79bd
000003f0: efbc 55bb 954c 9a3d 34a5 f7bb e3cb 93bc
-0.0050811376 -0.028503329 -0.042452708 -0.012060338 0.035127647 0.028347962 -0.05735948 -0.044245526
-0.039873715 -0.051230606 0.04203235 -0.035573613 -0.0049014203 -0.030924944 0.01738096 -0.050551325
0.04936381 -0.030936224 0.011361777 -0.054388683 -0.06252999 -0.071479246 0.034985952 0.06375491
0.013833118 0.049141925 -0.04803768 -0.021743191 0.027927674 0.00045907364 -0.052419752 -0.040039677
0.008073546 -0.07146767 -0.06501124 -0.033159897 0.062786676 0.048253495 0.047358803 -0.017420143
-0.0075116493 0.000215083 -0.011194896 0.005410432 -0.037227526 0.053935517 0.010944928 -0.05204854
-0.035893004 -0.065277584 -0.009703762 -0.025355523 -0.08018556 0.07959706 0.018531859 -0.011194777
-0.018135171 -0.08160571 -0.0801273 -0.021663405 0.01616717 -0.08571081 0.069897994 -0.03455388
-0.009388123 -0.031455986 0.044776503 0.037447035 -0.056826796 -0.10356672 0.035644114 -0.011956995
0.039735276 0.017839206 -0.07131403 0.022317994 -0.04453345 -0.069549814 -0.038003676 0.02496007
-0.048928313 0.07359089 -0.002318552 -0.018455816 0.079237215 0.03990073 -0.004216959 -0.08778275
-0.0697014 -0.009388605 0.02028317 -0.0014430451 -0.032759182 0.040466692 0.0441918 0.017814068
-0.05839865 0.09424208 0.025155535 -0.016313592 -0.05780383 0.030568002 -0.019422784 -0.0686783
-0.05949034 0.005117392 -0.03436489 0.065661296 -0.044765 0.00842556 -0.014486076 -0.0034031817
-0.053446427 -0.082308374 -0.047774833 -0.014072267 -0.09377793 -0.00018897383 0.013666407 0.006227617
0.009237127 -0.007682338 0.038596593 -0.018254856 -0.009067451 -0.042406883 -0.061408177 0.014200695
-0.00013935487 0.016958876 0.026683504 0.023291176 -0.018267104 0.021713367 0.014192086 0.023674637
0.025116038 -0.031213516 -0.048802618 0.060791217 0.02191918 0.022961847 0.0063074837 -0.056232754
0.0006030045 0.0070293387 0.019221094 -0.08900707 0.0066687306 0.056032035 -0.009007083 -0.012956412
0.0065656807 -0.009563406 -0.015081549 0.031255662 -0.0067119426 -0.013939461 0.106208876 -0.011934814
-0.05333363 0.010346078 0.0022711088 -0.010910364 0.06414279 -0.013007663 0.058219373 0.0606003
0.012058288 -0.017589368 0.046453625 0.011830673 0.02474489 0.03384533 0.046070892 0.03735195
-0.04791739 -0.012357246 -0.077432774 -0.050742913 0.09982617 0.047214966 -0.0045165587 -0.0682774
-0.025720164 -0.07690991 -0.023044318 0.003476029 -0.069351405 0.012561256 0.037436873 -0.042771135
0.0005132177 -0.044374574 -0.0064209034 -0.05729754 0.022116119 -0.012448664 0.053097036 -0.036008827
0.008075375 -0.047315322 0.019437257 -0.034829568 -0.014836579 -0.06852781 0.044623557 -0.059579615
-0.050575454 -0.042166095 -0.04991482 0.010601733 0.014948449 0.07972989 -0.059161935 -0.031155728
0.032689802 0.021039419 0.029984761 -0.0004536521 -0.057730306 0.011121755 -0.027405258 -0.041340202
-0.018788802 -0.019062867 -0.061391946 -0.031781584 0.021185303 0.019358277 -0.00903084 0.048441336
0.029681113 0.049896177 -0.0037855268 -0.027235387 -0.019941993 -0.05513273 0.04173517 -0.014199633
-0.039127063 0.07820332 -0.03507212 0.016641663 -0.003267758 0.010701237 -0.01147356 0.01102005
-0.03443822 0.022420794 -0.03352318 -0.06099084 -0.0032613834 0.07534138 -0.0075575355 -0.018041557

a2c_network.actor_mlp.2.bias f4 [256]
00000000: 4cfd 8d3d 5d28 f7bd a83f 5c3b 9b13 203d
00000010: 7cd8 26bd e1c2 893d 4def 363d dec3 87bd
00000020: 25c0 253d f78a 44be da8b 2abe d8a7 673d
00000030: 4186 143d d499 2bbd 4b94 633d bc94 32bd
00000040: 4ea7 903b 614f 343d 86d4 3fbd a3f3 603d
00000050: aa9e 023d c33b 693d 96d9 443d c689 8b3d
00000060: 461c 01bd b102 083d 8037 36bd a8c7 c73c
00000070: 390a 25bd 3eb3 fbbc 6615 e2bc f844 30be
00000080: a50d 5cbe f551 673d 3262 523d c69a 313d
00000090: d194 623d 9661 39bd 6b37 2a3d 9a57 643d
000000a0: cfe0 87bd b769 a8bc 54e1 40bd f73f 4a3d
000000b0: 39e0 3c3d e4b6 bebd afb9 89be 770e 913c
000000c0: 7554 273d 9c89 a9bd f815 423d b615 3bbc
000000d0: f59a cb3c 4f15 743d a1b9 483d 4a39 27bd
000000e0: e867 32bd 90ab c23c 995e 813d 0217 1fbc
000000f0: 685e 5f3d 92ad b5bd a637 e3bc 67d2 5ebd
00000100: 814c 483b 55f2 fbbc cec8 8d3c 29ea 2ebd
00000110: 2c38 0f3d a6ac 61bd eea6 bebd ff13 17bd
00000120: 639a 1b3d a73b 40bc cbed 993b 80f7 5d3d
00000130: 274b 45be fcef 143d 23fc 363d cacf d8bd
00000140: ee64 10bd 898c 4e3d 82ea 0d3c cc15 6c3d
00000150: 58fd 9fbc b90f 613d b71b b93c d5f8 163d
00000160: e714 02be be04 163d 1f0c 8ebc 056b 0dbd
00000170: 3c56 4bbd fe23 bbbd 97b3 303d 232b 02be
00000180: 6cb7 1e3d 1f48 323d 2414 4ebe abf8 703d
00000190: b6d7 62bd 4407 45bd 8494 7a39 77f2 0ebe
000001a0: a373 563d 0bb8 c73c 075b 3ebd 1921 1dbd
000001b0: a8d9 4bbe 2bd4 11be f8c6 483d bbf2 8b3d
000001c0: e622 c03c ab57 373d 0b1c 3cbe 4dc9 583d
000001d0: 83c0 d2bd cc4b 5e3d e0b3 283d 56de 0abe
000001e0: dfdd 64bd bddc 173d dd96 1e3d fa58 823d
000001f0: 314e fa3c 4dd6 3bbe a19c f7bd 3761 1c3d
00000200: b747 38be 4448 3c3d 9865 8cbc b593 32bd
00000210: 67ef 9ebb 4c5d 0ebd b3db e4bc 84a4 d5bc
00000220: 9208 38bd 85a4 cd3c f965 87be cc07 f3bd
00000230: d255 373d 0d36 673d 3e36 a1bd b2db 223d
00000240: cbc4 d23c 1f84 47be 4d68 8d3d a456 c8bc
00000250: ea5d 84bd 0825 0abd 290b 0ebd 72fb ce3c
00000260: d68f 073d 7889 56bd 1b85 5a3d d682 5abd
00000270: 39af 623d 8325 42be 4e27 36be 649a 3fbd
00000280: 865c 583d 780a 8dbc b202 533d a4f6 cf3c
00000290: 8a91 4a3d e035 45bd 2f77 71bd 7775 0dbd
000002a0: bc76 d3bd 0aa9 71bd 36b8 5ebd 5ac1 16be
000002b0: c5dd 4cbe 9d85 253d 3d44 95bc 1740 61be
000002c0: e1e6 ea3d 35b8 41be 1c36 c2bd 8774 663d
000002d0: fe29 263d cc39 e1bd f1fc 1c3d 5255 d43c
000002e0: 56ef 643d 5fae 4dbd 89b5 8ebd 2fe8 1cbe
000002f0: 304b 503d 234f cdbc 9752 09bd 1575 b43d
00000300: 6f98 b0bc c73e b4bd 90df 71bd 0a67 48bd
00000310: 2d40 17bd 6fb6 9ebd bf81 b3bd 1920 c63d
00000320: e8f8 56bd 69f2 57bd 938b 34bd 4b3f 663d
00000330: 921e 323d 83b6 20be e4bd 703d 311d 8fbd
00000340: 5dc2 e0bd ac46 6fbd 1f22 cabd e20f 5bbe
00000350: e39e 0a3d ee6e cf3b dc0c 2fbd 8286 223d
00000360: ca0e 263d e820 1e3d a7d4 f4bc 6ec4 d7bd
00000370: e86d f9bd e42d a03d 3368 44bd e585 ce3c
00000380: 63c0 31bd 37d7 213d 9b06 453d 62d1 473d
00000390: 4a26 233d 54cd 04bd 1897 43bd 473f 233d
000003a0: 23c3 15be 71c3 86bd 2c33 953c 70d8 313c
000003b0: c003 b83c 0db6 38be 26cb 9dbd 7d8a 2bbe
000003c0: 0158 403d 0ee0 4e3d 2380 e1bd 83e0 f0bd
000003d0: a689 2bbe 89fd 07ba 6337 50bc bd6d dabb
000003e0: 49e8 6abd 5ee5 62bd 4c98 59be cb51 1bbe
000003f0: 39d9 1abd cfcc 80bd 0dfd 9b3d dee4 433d
0.06933078 -0.120682456 0.0033607278 0.039081197 -0.0407338 0.06726623 0.04466181 -0.066291556
0.040466446 -0.19193636 -0.16654912 0.056556553 0.036260847 -0.04189475 0.055561345 -0.043598875
0.0044144755 0.044021014 -0.046833538 0.05491985 0.031889595 0.05694176 0.04805907 0.068133876
-0.031521104 0.03320569 -0.044486523 0.024387196 -0.040292952 -0.030725118 -0.027598094 -0.1721381
-0.2148958 0.056474645 0.051363178 0.043360494 0.055317704 -0.04525908 0.041556757 0.055747606
-0.06634676 -0.020558221 -0.04708989 0.049377408 0.046112273 -0.09312227 -0.26899478 0.017707093
0.04085203 -0.082782 0.047384232 -0.0114187505 0.024854163 0.059590634 0.049005155 -0.04082612
-0.043556124 0.023763448 0.06316871 -0.009710075 0.054533392 -0.088709965 -0.027736496 -0.054399874
0.0030563178 -0.030755201 0.017307665 -0.04270378 0.03496568 -0.05509629 -0.09309183 -0.036884304
0.03798903 -0.011732972 0.0046975366 0.054191113 -0.1926695 0.03636168 0.04467405 -0.105865076
-0.035252504 0.050426994 0.008661868 0.057637975 -0.019529983 0.054946635 0.022596223 0.0368584
-0.12703286 0.036625616 -0.017339764 -0.03452589 -0.049642786 -0.09137724 0.04314002 -0.12711768
0.038749143 0.04352581 -0.2012487 0.0588309 -0.0553815 -0.048102632 0.00023897184 -0.1395968
0.052356374 0.02437975 -0.04647353 -0.038361643 -0.19907248 -0.14241092 0.049017876 0.068334065
0.02345414 0.04476134 -0.18370073 0.05292635 -0.10290625 0.054271504 0.041187167 -0.13561377
-0.055875655 0.037075747 0.038718093 0.06364627 0.030554863 -0.18343468 -0.120904215 0.03817865
-0.17996107 0.045967355 -0.017138287 -0.043597896 -0.0048503163 -0.034756944 -0.027936792 -0.026079424
-0.04493005 0.025102863 -0.26444986 -0.118667215 0.04475958 0.05644803 -0.07871674 0.0397603
0.025728604 -0.19483994 0.069046594 -0.024455376 -0.06463225 -0.033726722 -0.034678612 0.025266383
0.033096157 -0.052377194 0.053349596 -0.05334743 0.055342887 -0.18959622 -0.17788431 -0.046778098
0.052822612 -0.017216906 0.051516242 0.025386162 0.049455203 -0.048147082 -0.058951553 -0.03453585
-0.10325381 -0.0589991 -0.054374896 -0.14722195 -0.20006473 0.040410627 -0.018221015 -0.21997105
0.11469818 -0.18917926 -0.09482977 0.056263473 0.04056739 -0.10997352 0.03832716 0.02591959
0.05589231 -0.05021512 -0.06968219 -0.15322946 0.050852954 -0.02506215 -0.03352603 0.08811394
-0.021557061 -0.08801036 -0.059051096 -0.04892639 -0.036926437 -0.0774964 -0.087649815 0.09674091
-0.05248347 -0.052721415 -0.04407842 0.056212705 0.043486185 -0.15694623 0.058774844 -0.0698799
-0.10974572 -0.058417007 -0.09869789 -0.21392778 0.033842932 0.0063303625 -0.042736873 0.039679058
0.040541448 0.0386056 -0.029886557 -0.10535513 -0.12179166 0.07821253 -0.047950935 0.02521033
-0.043396365 0.039511885 0.048102003 0.048783667 0.039831437 -0.03242238 -0.047751516 0.039855268
-0.1462522 -0.06580246 0.018212877 0.010854825 0.022462726 -0.18038197 -0.07704763 -0.16752048
0.046958927 0.050506644 -0.11010768 -0.11761572 -0.16751727 -0.0005187621 -0.012708518 -0.006665914
-0.05735043 -0.055394523 -0.21249503 -0.1516792 -0.037804816 -0.06289064 0.07616625 0.047825687

a2c_network.value.weight f4 [1, 256]
00000000: bb90 e0bb 19c8 2c3d 263a 6bbc 7d19 fdbb
00000010: ab4c d53b 06c2 033c a8bf e83b c53d a3bc
00000020: 8a0c c33b ed8a 2bbd dd68 24bc 296c 9bbb
00000030: f651 1f39 0d87 88bc 1772 b8bb dfd4 1fbc
00000040: cd31 8bbb 4145 5bbc e436 0cbc d3b3 5cbb
00000050: b22d 28bb f746 f2b9 d30c bfba bb48 02bc
00000060: a79a ab3b 48e9 c2ba c6f3 c1ba 7ec4 6fbb
00000070: e6f7 aebc 9165 b6bb f04e a4bc 141b 3cbb
00000080: 6ed6 82bc 633e edbb c88a 71bb ab19 363b
00000090: 2bbc 0dbb c803 363b 990e 4fba 1663 c23c
000000a0: 8ba4 a038 a86b 23bc fca4 1b3c 8eed c8bb
000000b0: 06b0 303c d53d 183c f961 153c 9e2a 16bb
000000c0: da85 843b 0991 8bbc e2a0 9f3b 6434 99bb
000000d0: b964 f3ba 66cd 873c d5d3 b0bb 0c59 583b
000000e0: c3d3 9b3a d017 083b 0324 773a 4258 aaba
000000f0: 2522 423a 7bd5 f93c c4f7 0dbc 4b83 c63b
00000100: 16df d0bb 0103 3abc a05c d6ba 238b a53b
00000110: d606 56bb 8ea7 0b3c c82d 00bd 50b7 f4bb
00000120: 7b12 9fba acf7 f4ba 0d8b 0a3b 08ce 76bb
00000130: 47c7 f1bc 5a5d 8abd 509a a93b 45ec 503c
00000140: 8a5e 14bc ee17 23bc ad7e 8c3c b62f 153b
00000150: 1f36 40bb 5a99 71bc 83a9 5a3b c386 bdbb
00000160: 927c da3b b834 d8bb 2393 90bb f527 15bc
00000170: e256 c6bb d3c6 3fbb bc1d c03a f791 abbb
00000180: d358 4cbd 3bb1 dfba e541 10bd aeea 75bb
00000190: b489 1e3c 869d d1bb a575 583b a7b0 1cbc
000001a0: 7d24 f1ba a63c 9fbb 25c7 08bb 69c8 95bb
000001b0: b1bb 56ba 4698 2fbc de7b b4bc 9e4f 743b
000001c0: aa4f 0b3c 10cf 22bc 4111 73bb ec0c 63ba
000001d0: bc84 38bd 35ac f63b 5e86 00bc 3687 543c
000001e0: 89fc a2bb 1ff1 16bc 3eaf 1bbc c1c8 8cb9
000001f0: 7002 30bc d3ac a83c f3df 413c 69f4 743b
00000200: 36f5 22bb 94fe 023c 8156 893a 3852 32bb
00000210: 9752 16bc c445 173c 822a 6f3b 38e3 043c
00000220: a516 1f3a f1ff e7ba 937c 9fbd 4cba 37bc
00000230: 1466 e13b 591b 203a 9219 ddbc 9751 123b
00000240: a3d9 10bc 9a06 123c 4051 17ba 6ad7 a23c
00000250: f1ff 163c d4a4 04bc 54ca 8abb e682 c23b
00000260: 2163 bfbb 006d c73b 14a1 aa3b da15 573c
00000270: 2513 35bc 9ad4 f93b a296 53bd a657 3e3b
00000280: 0a3b e4b9 de07 0cbc 81b2 1939 5954 29bc
00000290: 24fb 6ebb 261c 4ebb e5e9 bfbb e3c0 913a
000002a0: 687e 9d3a 817f 843c 9d93 573b 25e4 3a3d
000002b0: 51ca 3fbd a4ba ecb4 b5bf bcba 0350 b6b8
000002c0: 0ba5 e1bb 9e91 ecba 470c da3c 582c a4bc
000002d0: f843 503c fc74 213d f885 5c3b 603b 3d3c
000002e0: 7f69 083b e855 283b fa6f cabc 4b29 353c
000002f0: 4f68 903b 4e87 1dba 84a6 183c 92f8 bcba
00000300: a5bd 85ba 95f3 d53c 995b 753c 76cb 62bb
00000310: 9618 b93b c9dc 43bd a1ff e03b 1a3d 9abb
00000320: 45ce 853c fa80 d3bb 2072 ddb9 8ae2 aebb
00000330: e0da 00bc 7e55 aabd d48c 40bb 374c fbbb
00000340: 9fb2 9b3b db30 2bbc bc23 8dbb fe98 0cbc
00000350: 8619 a3ba a06b 813c b012 423b 7d41 a739
00000360: f7b1 29ba 3bc2 17bc 7872 4fbc 73f7 903a
00000370: de28 3eba 6d4e a4bc 77ba 253b 3e64 6a3b
00000380: 612b 8f3b e044 923b c61f c63b 03b6 e0bb
00000390: d808 84bb 5d78 60ba 2f64 c43b 6736 3cbb
000003a0: 29ca d7bc 8da9 453d 8662 36bc 5914 c9ba
000003b0: 0dbf 0c3b b406 623a 5b73 6dbd 96bf 18bd
000003c0: db6c febb 57ff 73bb 9c1f 1fbd cba9 64bc
000003d0: dc17 cbbd 234c 10bb f2a4 b5bb f9ad c0bb
000003e0: 8cd9 a6bb a80a b2ba 2eb5 ddbc 834f e13b
000003f0: fee3 6f3d 0c0c ca3b 1137 3d3d 7b3b 0fbb
-0.0068531907 0.042183015 -0.014357125 -0.0077239857 0.0065093837 0.008041864 0.0071029253 -0.019926915
0.0059524225 -0.041880537 -0.010034767 -0.0047431183 0.00015193954 -0.01666596 -0.005628835 -0.009755342
-0.00424788 -0.013383211 -0.008558009 -0.003367652 -0.0025662002 -0.0004621071 -0.0014575965 -0.007951911
0.005236942 -0.0014870549 -0.0014797382 -0.0036585624 -0.021358442 -0.005566307 -0.020057172 -0.0028702663
-0.015971389 -0.007240103 -0.0036856402 0.0027786295 -0.002162705 0.002777325 -0.00078985986 0.023728888
7.660043e-05 -0.009974398 0.009499785 -0.0061318344 0.010784155 0.009292086 0.009117597 -0.0022913585
0.0040442767 -0.017036932 0.0048714736 -0.004675435 -0.0018569446 0.016577434 -0.005396346 0.003301206
0.0011888671 0.0020766146 0.00094276684 -0.0012996274 0.00074056006 0.030497303 -0.008665029 0.006058132
-0.00637425 -0.011353255 -0.0016354509 0.005051987 -0.0032657883 0.008523835 -0.03129366 -0.0074681416
-0.0012136245 -0.0018689535 0.002114001 -0.0037659425 -0.029513968 -0.06756087 0.005175866 0.012751644
-0.009055743 -0.009954436 0.017150247 0.0022764034 -0.0029329134 -0.0147460345 0.0033365197 -0.005783887
0.006667682 -0.0065980814 -0.0044120713 -0.009103765 -0.0060528377 -0.0029262796 0.0014657299 -0.005235906
-0.049889397 -0.0017066369 -0.035219092 -0.0037523913 0.009676386 -0.006396952 0.0033029106 -0.009563602
-0.0018397715 -0.004859525 -0.0020870653 -0.00457101 -0.00081914203 -0.010717457 -0.02203172 0.00372789
0.00850288 -0.009937063 -0.0037089142 -0.00086612883 -0.04504846 0.007527853 -0.007844536 0.01297169
-0.004973952 -0.009212761 -0.00950223 -0.00026852454 -0.010742769 0.020590222 0.011833179 0.0037377125
-0.0024865395 0.0079952665 0.0010478051 -0.002720965 -0.009174964 0.009232942 0.0036493842 0.008110814
0.0006068743 -0.0017700178 -0.077874325 -0.01121385 0.0068786237 0.0006107591 -0.026989732 0.0022326463
-0.008840951 0.008912707 -0.00057723 0.019878108 0.009216295 -0.008095939 -0.004235545 0.0059360145
-0.0058406745 0.006085992 0.0052071903 0.013127768 -0.011051928 0.007624221 -0.051657327 0.0029043942
-0.00043531536 -0.008546798 0.00014657715 -0.010335051 -0.003646561 -0.0031449883 -0.00585674 0.0011120107
0.0012015821 0.01617408 0.003289438 0.04562773 -0.046823803 -4.4094224e-07 -0.0014400395 -8.6933396e-05
-0.0068861297 -0.0018048768 0.026617182 -0.020040676 0.0127115175 0.039418206 0.0033649188 0.011549801
0.0020814834 0.002568597 -0.024711598 0.011057208 0.004406966 -0.00060092367 0.009317044 -0.0014417341
-0.0010203613 0.026117126 0.014975452 -0.0034606135 0.005648683 -0.04781798 0.006866411 -0.004706991
0.016333709 -0.006454584 -0.00042237435 -0.005337064 -0.007864684 -0.083170876 -0.0029380815 -0.0076689976
0.004751518 -0.01044866 -0.0043072384 -0.008581398 -0.001244352 0.01579839 0.002961319 0.00031901515
-0.0006473357 -0.009262617 -0.012661569 0.0011060074 -0.00072540145 -0.020056928 0.0025288144 0.0035765315
0.004369185 0.004463777 0.006046268 -0.006857635 -0.0040293746 -0.00085628574 0.005993388 -0.002871895
-0.026341515 0.0482574 -0.011131888 -0.0015341147 0.002147618 0.00086222147 -0.05797134 -0.037292086
-0.0077644414 -0.0037231052 -0.038848504 -0.013956497 -0.0991666 -0.0022018037 -0.0055433447 -0.005880114
-0.0050918516 -0.0013583498 -0.027063932 0.0068759336 0.05856704 0.006165987 0.046195094 -0.0021855521

a2c_network.mu.weight f4 [6, 256]
00000000: 4aa6 7b3b d591 a43d 5687 15bc a7b5 1e3a
00000010: 6dc9 74bc 7cd3 25ba 4ca5 6f3b 3d4d c7bb
00000020: 5e00 85bb 7f81 1c3e 61e2 a63d b141 16ba
00000030: 602f a1bb d7a1 21ba 7ced b1ba df73 b63a
00000040: 05e6 17bb 9101 e1b8 a8be 15bc 74ec ae38
00000050: f1db 89bb 1b0b 22bb 6ea8 863b 6889 133b
00000060: 9f0e beba a48b 54bb 4884 02bc b20e c43b
00000070: 214b ed3b e7c2 913b f38b 123d 2b11 973d
00000080: 1392 b93d 9803 5b39 351e e9ba 21ba 71bb
00000090: 480f 49bc 60cf 18bc cc57 43bb a381 0f3d
000000a0: d2e3 d0bb b90f f1ba 09b6 40bc 01bd b8b8
000000b0: ba0a 9a3b 553b 4dbd d082 383e 8dd0 89bb
000000c0: 26ba 0b3a fca0 183c 4e21 b13a a99a 8dba
000000d0: c86c 64ba 82fe 813c 6a99 1dba 3639 1b3c
000000e0: afd7 b1bb 0419 8fbb e219 8b3b 339d a8bb
000000f0: ae36 9c3b c991 623d 4565 20ba 1084 bdbb
00000100: 0c0b 8bbb a39a 8539 a97a bcbb 6c37 133b
00000110: 31b9 5e3b 212d 7a3b cede cf3b 1581 933b
00000120: faec 1d39 0abe 183b f778 86ba a6b3 83bb
00000130: c33b 803e 2dee babc 1336 ba3a cf66 f03c
00000140: d2e1 d53a 27e9 c0bb 689b c0bc 298a a2bb
00000150: a43f 7abb 2cb8 cf3a fc69 30ba 59fd 95bb
00000160: c797 533d ed20 f3ba a66d a63b 11ab 5fbb
00000170: 2aa1 903b 6ca7 82bb 7fee 013b e3bd 9d3c
00000180: 7e0d e5bc 189a 91bb a7d3 153e fd11 8039
00000190: 8708 093b b2fd 953a d1aa 07bc f893 8ebb
000001a0: f1dd a43b f347 59bb 64cf 6b3b bdb7 c139
000001b0: 87cf 253e 774c 6e3d c352 02bd bc1c d63a
000001c0: b312 d0ba 71a9 183b 4018 463c 887e 0f3b
000001d0: e204 3f3d 5ae1 eabb 7f39 b43b f93a 10bc
000001e0: e730 8f3b 339c 993a 9e8c 49bb 908d edbb
000001f0: 7885 9cbb 12a0 353e 0f67 4e3d 7b1e 54bb
00000200: c2b8 be3c 8e27 9cbb 44b8 943b d2ed 7a3b
00000210: a291 223a f77f 103b a61b 8ebc aaca 77bc
00000220: dae8 6039 ccfe 16b9 e0be 273e 1330 1e3e
00000230: fefd aeba 6209 c9bb 928a 00bd 28dc 29bb
00000240: 4562 9739 85c2 0a3e 18d5 afbb 676b 3a3d
00000250: db81 dfba 5488 243b 11b4 033a aef6 abbb
00000260: a766 a3bb 1ebd 34bc f190 8c3b 4f33 153d
00000270: 2641 9a3b d485 1cbc c0e8 7a3e b277 363b
00000280: b87c f639 0495 05bc d1cd 0aba 0d11 3bbb
00000290: d45b 9cbb 306a 793b 0abf 2f3c 45c1 0e3c
000002a0: 97f2 3fbc 7068 4d3d 9196 81bb 6ef3 f73d
000002b0: 82a6 7a3e b62f 933b 269f f5bb 6255 7fbc
000002c0: 5266 c1bd c97f 25bd 5cd1 8e3c 337b ca3b
000002d0: c029 00bc 1975 1dbc e96d 3dbb cc7c 44bd
000002e0: 41a4 cabb 69f5 d23a d86b 4ebd 01b4 ea3c
000002f0: 09bf 71bb 592f 3b39 4f3b 903b e3a8 603b
00000300: 7ab9 86ba 3b67 8a3d 7537 203d bc41 d7bb
00000310: 1673 153d a1bf 293d 7407 9a3c ecbc 42bc
00000320: 208d fc3c e0c8 b03a 8f28 96b9 f0aa 113c
00000330: 0855 1a3b d1cc 4ebc 2423 99bc ce19 86bb
00000340: bd31 973d ed00 43ba 2ed5 adbc d6c9 5d3e
00000350: e991 b539 6a75 eeba b1c8 31ba ffbc a1bb
00000360: 6480 08bb dbcb b7ba be94 723b f34c 2f3e
00000370: b727 ef3c cfd7 3e3b 3946 a4bb a8bb 1abb
00000380: 69b6 41bb 2086 17bb 13e1 6bbb 4639 5fbb
00000390: aef4 563a f635 c0b9 d7dd 0a3a e30b 793b
000003a0: 0193 163e e883 323d f52c 843b 3467 e9ba
000003b0: f7fa 18bb cda2 84bb f6ca b3bb 78e6 6a3d
000003c0: 32e5 a338 8ada 5b3a cccf 81bc f9e3 fe3d
000003d0: 7ff1 a5bb c93b f8ba b540 f9ba c881 2dbb
000003e0: 989e 38bc 9dd3 343a 7e3f e83d 9237 a03c
000003f0: 2f9b cd3d b58f 5bbb b569 8fbd 4425 463b
0.0038398677 0.08035628 -0.009126505 0.000605429 -0.014940602 -0.0006325764 0.003656703 -0.0060822056
-0.0040588817 0.15283774 0.08148647 -0.00057318347 -0.0049189776 -0.00061657786 -0.0013574804 0.001392003
-0.0023177874 -0.00010729128 -0.009139694 8.3410094e-05 -0.0042071273 -0.0024725858 0.004109434 0.002251232
-0.0014500207 -0.0032431865 -0.007966109 0.005983197 0.007241622 0.004448283 0.035777997 0.073763214
0.090610646 0.00020886806 -0.0017785492 -0.0036884623 -0.01227171 -0.009326786 -0.002980697 0.03503574
-0.0063748145 -0.0018391527 -0.011762151 -8.8090084e-05 0.0047009857 -0.05010541 0.18018651 -0.0042057694
0.00053301675 0.009315725 0.0013513954 -0.0010803539 -0.00087137194 0.01586843 -0.0006011935 0.009474089
-0.005427323 -0.0043669958 0.004245029 -0.0051456927 0.0047672605 0.055314813 -0.0006118606 -0.0057835653
-0.0042432602 0.0002548295 -0.005751927 0.0022463454 0.0033984894 0.0038173872 0.006343699 0.0045014718
0.00015060967 0.0023306631 -0.0010259439 -0.0040192185 0.25045595 -0.02281865 0.0014206789 0.029345898
0.001631791 -0.005887169 -0.023511603 -0.0049603176 -0.0038184905 0.0015847734 -0.000672966 -0.0045773205
0.051658418 -0.0018549241 0.005078989 -0.0034129063 0.0044137435 -0.0039872434 0.0019825993 0.019255584
-0.027960535 -0.0044434182 0.1463152 0.00024427465 0.0020909624 0.0011443405 -0.008280472 -0.0043511353
0.0050313403 -0.0033154457 0.0035981769 0.00036948724 0.16192447 0.05817839 -0.03181721 0.0016335468
-0.0015874713 0.0023294354 0.012090743 0.0021895487 0.046635516 -0.0071679773 0.005500018 -0.008803123
0.0043698433 0.0011719525 -0.003075398 -0.0072495416 -0.004776653 0.17736843 0.050391253 -0.00323668
0.023281459 -0.0047654575 0.0045385677 0.0038288725 0.00062015106 0.002204893 -0.017347168 -0.0151240025
0.00021449049 -0.00014400034 0.16381407 0.15448026 -0.0013350842 -0.0061351517 -0.03138215 -0.0025918577
0.0002887418 0.13550766 -0.005365979 0.045512583 -0.001705225 0.0025105672 0.00050240854 -0.0052479124
-0.0049866023 -0.011031417 0.0042897393 0.036425885 0.0047074733 -0.0095533915 0.2450285 0.002784234
0.000470137 -0.008153204 -0.0005294951 -0.0028544099 -0.004771689 0.0038057677 0.0107267 0.008713071
-0.011715553 0.050148427 -0.0039547165 0.121069774 0.2447758 0.0044917716 -0.0074957786 -0.015584322
-0.09443344 -0.04040507 0.017433815 0.0061792373 -0.007822454 -0.009610438 -0.0028904623 -0.047970578
-0.0061841314 0.0016094866 -0.050395817 0.028650286 -0.0036887547 0.00017851348 0.0044016014 0.0034280352
-0.0010278665 0.06757971 0.039115388 -0.0065691154 0.036486708 0.041442517 0.018802382 -0.011885863
0.030829012 0.00134876 -0.00028640448 0.008890852 0.0023549218 -0.012622074 -0.018693514 -0.0040924316
0.07382534 -0.00074387976 -0.021219816 0.21659026 0.00034631722 -0.0018192951 -0.00067819195 -0.00493586
-0.002082848 -0.0014022546 0.0037014927 0.17119198 0.029193742 0.0029120331 -0.005013254 -0.0023610387
-0.0029558188 -0.0023120716 -0.003599231 -0.0034061237 0.0008199912 -0.00036661298 0.0005297339 0.003800147
0.14704515 0.043582827 0.0040336796 -0.0017807246 -0.0023342946 -0.0040477277 -0.0054868413 0.0573487
7.8151366e-05 0.0008386752 -0.015846156 0.12445826 -0.005064189 -0.0018938716 -0.0019016477 -0.002647506
-0.01126828 0.0006897988 0.11340235 0.019557748 0.100393645 -0.0033502404 -0.07002584 0.0030234614

a2c_network.mu.bias f4 [6]
00000000: 78f7 6dbe 1bf1 91bd 96ae 9abd f675 413d
00000010: 5e78 a63c e384 88be
-0.23238933 -0.07126065 -0.07552831 0.047231637 0.020321067 -0.26663885

exp_avg f4 [6]
00000000: 0b7c 9639 0c33 ab3a 98e2 6739 8830 a839
00000010: ed1a 0839 c685 e7b8
0.0002870265 0.0013061478 0.0002211429 0.00032079616 0.00012980001 -0.000110398556

exp_avg_sq f4 [6]
00000000: 2295 b636 f9bb b836 4b5f d136 bbcf ac36
00000010: f82b aa36 9a6f 9a36
5.441384e-06 5.50551e-06 6.239779e-06 5.1501825e-06 5.0715134e-06 4.60255e-06

exp_avg f4 [256, 40]
00000000: 230b 00b7 817f ff36 385d 0935 230b 0037
00000010: 385d 0935 0000 0000 7134 9838 c69f 26b8
00000020: a6c3 0539 325b de37 95f7 55b8 9078 0cb7
00000030: cac3 3137 a9f3 5e37 e728 8fb8 619d 7f33
00000040: 86b5 0238 8b6d d6b6 4203 8633 8073 6bb7
00000050: 13c6 71b8 7ae3 b033 648d f1b4 58ae 76b4
00000060: 8622 cdb5 d90a c7b4 eed7 08b4 513d dab5
00000070: b041 5fb5 1cb8 d2b4 9802 b1b5 f408 1d32
00000080: 0000 0000 0400 0080 439e d932 c0e2 8e32
00000090: 0400 0080 439e d932 aca3 92b2 0400 0080
000000a0: 3a2d 84b5 0b8c 8335 52f0 8d33 3a2d 8435
000000b0: 52f0 8d33 0000 0000 91a5 63b7 d52b d438
000000c0: 8686 c9b8 f428 d5b7 430e 1d39 f530 65b8
000000d0: e7bc 8bb8 6c1c 02b9 4427 28b9 bb0f 1034
000000e0: 3382 3637 2243 c336 4016 1134 75e0 75b8
000000f0: 3156 c338 378b 1134 4b54 8835 6d59 8cb4
00000100: 32a9 e2b6 4441 7935 0126 afb4 9812 e5b6
00000110: 116a ee35 8956 bab4 bbf5 f2b6 0acf bcb3
00000120: 0000 0000 0400 0080 0687 4833 c2b8 12b4
00000130: 0400 0080 0687 4833 87e3 1234 0400 0080
00000140: af59 61b6 876f 6036 298d 7134 af59 6136
00000150: 298d 7134 0000 0000 d2ba 2138 c568 0838
00000160: b2e6 9d37 53f9 c6b5 f831 d1b8 81bc a937
00000170: 1f3b 5137 9f33 9f37 9566 c0b7 793e 54b3
00000180: c700 3cb8 0d09 7e38 04ad 4db3 1292 27b8
00000190: 9511 8cb6 9a92 29b3 2eaf 4d33 cd62 51b4
000001a0: 00fc 4c36 8784 4233 6f42 2eb4 98ec 4e36
000001b0: be0e e2b2 46ac 84b4 f0cf 5a36 6e7d d3b1
000001c0: 0000 0000 0400 0080 6427 e932 4fb0 1bb1
000001d0: 0400 0080 6427 e932 4a9a 1b31 0400 0080
000001e0: 49b3 d1b6 3df6 d036 36e7 e034 49b3 d136
000001f0: 36e7 e034 0000 0000 861e a7b6 431a 0737
00000200: 3571 e038 0afa cb36 a8a0 07b7 afa8 8937
00000210: 80e2 57b6 a862 88b7 a408 b7b8 402e dfb4
00000220: f9d6 8d37 cec1 8737 ef92 ddb4 7269 b6b7
00000230: c4bd 83b8 680c d5b4 7975 04b5 859d 45b3
00000240: 8083 b837 b41f ecb4 a7c6 c033 3a0d b837
00000250: 2364 6ab5 bde4 44b4 6e8a ba37 6a1d b82f
00000260: 0000 0000 0400 0000 7cc4 85b2 5ab8 0ab2
00000270: 0400 0000 7cc4 85b2 748d 0232 0400 0000
00000280: 3e95 03b6 974e 0336 c725 0d34 3e95 0336
00000290: c725 0d34 0000 0000 33ae 4238 25b1 8db7
000002a0: ecc5 35b9 d10f 66b7 174e 09b8 827b 94b6
000002b0: 4137 7137 3bc3 4538 41d0 92b8 9ddb ba32
000002c0: 35a7 64b8 9e45 5538 a572 bd32 16a2 04b8
000002d0: b863 1f38 9f94 ec32 4e55 d433 2973 35b4
000002e0: 447a 4db5 6ac1 8b34 9223 a5b3 6dee 69b5
000002f0: 327b 4c34 f5ca 5bb4 848a 4fb5 2a17 54b2
00000300: 0000 0000 0400 0080 7123 8a32 a89a ccb2
00000310: 0400 0080 7123 8a32 7430 cf32 0400 0080
00000320: db98 1fb7 d80c 1f37 80fc 2a35 db98 1f37
00000330: 80fc 2a35 0000 0000 9179 5639 6aab c1b8
00000340: 3b87 7539 370e a438 8cc4 95b9 2524 8138
00000350: 0636 cd38 5f32 cd38 bafc 2039 3b47 cd33
00000360: 8913 08b9 2228 6438 ea29 d233 69e3 9236
00000370: ca9a 2bb9 f947 0734 ccde 02b6 9cc0 9bb4
00000380: 5c47 31b6 c80f f0b5 481d b5b4 eeb8 25b6
00000390: 43ef 46b6 7bcc 84b4 9a28 fbb5 75a5 e333
000003a0: 0000 0000 0400 0000 2fdf bc31 3812 0e34
000003b0: 0400 0000 2fdf bc31 b2ea 0db4 0400 0000
000003c0: 50ae 5bb7 d330 5b37 4398 6b35 50ae 5b37
000003d0: 4398 6b35 0000 0000 3309 e239 952f 0938
000003e0: 9914 9439 b359 c737 37de e638 ef6a 55b9
000003f0: 5d09 0938 ca49 9938 e54c d438 29a7 fbb4
-7.6319875e-06 7.6144356e-06 5.117213e-07 7.6319875e-06 5.117213e-07 0.0 7.257693e-05 -3.9726285e-05
0.00012756753 2.6506928e-05 -5.1013736e-05 -8.372721e-06 1.0595608e-05 1.3288963e-05 -6.82639e-05 5.951495e-08
3.1163472e-05 -6.3904495e-06 6.240454e-08 -1.40339835e-05 -5.764335e-05 8.2370164e-08 -4.4992623e-07 -2.2973961e-07
-1.5283738e-06 -3.707453e-07 -1.2744542e-07 -1.6260111e-06 -8.316956e-07 -3.9249505e-07 -1.3188283e-06 9.1406385e-09
0.0 -6e-45 2.5334094e-08 1.663409e-08 -6e-45 2.5334094e-08 -1.7071066e-08 -6e-45
-9.847929e-07 9.801018e-07 6.609538e-08 9.847929e-07 6.609538e-08 0.0 -1.3568803e-05 0.00010117112
-9.609484e-05 -2.5410649e-05 0.00014978 -5.464345e-05 -6.663222e-05 -0.00012408354 -0.00016036356 1.3416768e-07
1.087836e-05 5.819268e-06 1.3512272e-07 -5.8621594e-05 9.314379e-05 1.3554823e-07 1.0157322e-06 -2.6142098e-07
-6.755022e-06 9.28547e-07 -3.2623942e-07 -6.8268964e-06 1.7763251e-06 -3.4708162e-07 -7.240769e-06 -8.7920924e-08
0.0 -6e-45 4.6688932e-08 -1.3664524e-07 -6e-45 4.6688932e-08 1.3680084e-07 -6e-45
-3.3579815e-06 3.3443519e-06 2.2496228e-07 3.3579815e-06 2.2496228e-07 0.0 3.855938e-05 3.25225e-05
1.8823284e-05 -1.4824712e-06 -9.975204e-05 2.0234149e-05 1.2471136e-05 1.8978315e-05 -2.2935952e-05 -4.9416915e-08
-4.4823417e-05 6.056675e-05 -4.788764e-08 -3.995194e-05 -4.174372e-06 -3.9481712e-08 4.7889607e-08 -1.9500585e-07
3.0545052e-06 4.5289678e-08 -1.6229181e-07 3.0834108e-06 -2.6316567e-08 -2.471226e-07 3.2605567e-06 -6.155168e-09
0.0 -6e-45 2.7142683e-08 -2.2655688e-09 -6e-45 2.7142683e-08 2.2643172e-09 -6e-45
-6.249557e-06 6.227549e-06 4.189148e-07 6.249557e-06 4.189148e-07 0.0 -4.9805412e-06 8.052742e-06
0.00010702239 6.07898e-06 -8.084033e-06 1.6410222e-05 -3.2169337e-06 -1.6258404e-05 -8.7277294e-05 -4.1570638e-07
1.6908614e-05 1.6183501e-05 -4.1271366e-07 -2.1745192e-05 -6.2819134e-05 -3.9683368e-07 -4.9344777e-07 -4.60109e-08
2.1995744e-05 -4.3981493e-07 8.9768314e-08 2.1940668e-05 -8.731751e-07 -1.8337137e-07 2.223739e-05 3.3490305e-10
0.0 6e-45 -1.5572589e-08 -8.074574e-09 6e-45 -1.5572589e-08 7.599159e-09 6e-45
-1.9607392e-06 1.9566266e-06 1.3145392e-07 1.9607392e-06 1.3145392e-07 0.0 4.641544e-05 -1.6891e-05
-0.00017335237 -1.3712751e-05 -3.2736072e-05 -4.425122e-06 1.4377584e-05 4.7150283e-05 -7.000613e-05 2.1753118e-08
-5.451516e-05 5.0847993e-05 2.205463e-08 -3.1622207e-05 3.8001424e-05 2.7541601e-08 9.887536e-08 -1.6898834e-07
-7.654637e-07 2.6031495e-07 -7.6898814e-08 -8.714622e-07 1.9043799e-07 -2.04698e-07 -7.7315076e-07 -1.2345291e-08
0.0 -6e-45 1.6081431e-08 -2.3819055e-08 -6e-45 1.6081431e-08 2.4120006e-08 -6e-45
-9.512728e-06 9.480129e-06 6.369737e-07 9.512728e-06 6.369737e-07 0.0 0.00020453917 -9.2348855e-05
0.00023415398 7.822777e-05 -0.00028565933 6.157932e-05 9.7852244e-05 9.784544e-05 0.00015352937 9.559013e-08
-0.00012977248 5.4396813e-05 9.786511e-08 4.377613e-06 -0.00016365494 1.2599038e-07 -1.9501194e-06 -2.9011142e-07
-2.6416592e-06 -1.7885986e-06 -3.3735182e-07 -2.469456e-06 -2.9643568e-06 -2.4735695e-07 -1.8712774e-06 1.0600608e-07
0.0 6e-45 5.496893e-09 1.3231409e-07 6e-45 5.496893e-09 -1.321703e-07 6e-45
-1.30940025e-05 1.3064785e-05 8.776589e-07 1.30940025e-05 8.776589e-07 0.0 0.00043112933 3.270766e-05
0.00028244106 2.3764418e-05 0.000110086454 -0.00020353099 3.2672066e-05 7.309353e-05 0.000101232705 -4.6874018e-07
