logs/rl_games/yam_cube_sort_8192/2026-02-01_08-29-07/nn/last_yam_cube_sort_8192_ep_350_rew_1265.8893.pth (torch, 953214 bytes, 30 tensors)

value_mean_std.running_mean f8 [1]
0	0x3fdd87008eb1d414	0.46136487898849166

value_mean_std.running_var f8 [1]
0	0x3f7313eef02ec2bd	0.004657681801220445

value_mean_std.count f8 []
0	0x41a5e00002000000	183500801.0

running_mean_std.running_mean f8 [40]
0	0x3fefb957ee7f05e7	0.9913749368790236
1	0x3f8194767a975228	0.0085839515840372
2	0x3f058c6f296883d9	4.110063780538688e-05
3	0x3f81aa02e9c0bab2	0.008625052221842597
4	0x3f058c6f296883d9	4.110063780538688e-05
5	0x0000000000000000	0.0
6	0x3fbc8e11212ac6b5	0.11154276904815215
7	0xbf94117733de8b29	-0.019597876110888954
8	0x3fcaaa22cf5eb1f5	0.20831713796123066
9	0x3fbf0187be087f4f	0.12111709966165772
10	0xbf8a55f4bca8e068	-0.012859260566173883
11	0x3fc9a0935f2bc7d5	0.2002128805830227
12	0x3fb1209f63adf75a	0.06690403159697436
13	0x3fc309bbc4b39d51	0.1487345419366002
14	0xbf34849cb0c32df4	-0.000313080076705246
15	0x3f8a04f80143d877	0.012704789675336265
16	0x3fc329754058f7a9	0.14970269815415563
17	0xbf494d6d495febf9	-0.0007721694589685183
18	0x3f8a049631f37562	0.012704060935386511
19	0x3fc30961cabf61a3	0.1487238159159122
20	0xbf37181213b84e97	-0.00035238686879888445
21	0x3f8a0476ff641ee0	0.012703828495900849
22	0xbed3c7f247147dd1	-4.716167596257674e-06
23	0x3f045b9af59b229f	3.882948540262953e-05
24	0xbf30852e5aa16df3	-0.00025207883539277094
25	0x3f013b0e3735912c	3.2864924743222036e-05
26	0x3f09bf609ca56ac2	4.91095884906554e-05
27	0xbf3018687ff7e141	-0.0002455954672480228
28	0xbee13ac34299185d	-8.215685812673087e-06
29	0x3f006982d1728ecf	3.1303696397059364e-05
30	0xbf30bc87c67f5ac0	-0.0002553779108870717
31	0x3fb3e81ae45c2414	0.0777603919524526
32	0x3fc1bc7bb4c1bd84	0.138564551601558
33	0x3f847adffc414d80	0.009999990354265575
34	0x3fd45629a8480418	0.31775895532342835
35	0xbe06c2071fd6ab59	-6.623426804216876e-10
36	0x3f847adffc414d80	0.009999990354265575
37	0x3fb3e81ae45c2414	0.0777603919524526
38	0xbfc1bc7bb4c1bd84	-0.138564551601558
39	0x3f847adffc414d80	0.009999990354265575

running_mean_std.running_var f8 [40]
0	0x3f8183281080485d	0.008550942424367653
1	0x3f816df8ff9430d3	0.0085105374332887
2	0x3f058dd6c57deeda	4.1111103825179025e-05
3	0x3f818326aa9a29b3	0.00855093200813859
4	0x3f058dd6c57deeda	4.1111103825179025e-05
5	0x3e4767dcdfed01e1	1.0899134925851648e-08
6	0x3fbd328e2ce77bd8	0.11405266376776468
7	0x3fb2ae31a1705c27	0.07297048751239342
8	0x3f923430130a842f	0.0177772056218865
9	0x3fb74fe99b0ebb4e	0.0910631183203183
10	0x3fa93deab6f1a794	0.04930051310732533
11	0x3f8ed3780fb2ffa7	0.015051782588102315
12	0x3f8efc8066f1cb85	0.015130046025864772
13	0x3f6ba5fa3052e4bd	0.003375042581492764
14	0x3f688fd6e161e7a5	0.002998275459558069
15	0x3e9e8bb851423a49	4.551676096109086e-07
16	0x3f6943a88094edd1	0.0030840197620400707
17	0x3f67e98b054d39fb	0.002918979191611768
18	0x3e95cfcb9bbbce8a	3.2501966605524427e-07
19	0x3f6bdc05df65628e	0.003400813550950516
20	0x3f68cc19c1497037	0.003027010252749231
21	0x3e9c9549de3bd1c4	4.2592225056529777e-07
22	0x3f46511aa71a820b	0.0006810550823566642
23	0x3f505fda80f43769	0.0009994157624677264
24	0x3f1d46f4e6ced108	0.00011168355713559255
25	0x3f439a3abd502533	0.0005982195676789481
26	0x3f501ffa877e61c6	0.0009841867995189365
27	0x3f1c33b6f05e0149	0.00010758213110584782
28	0x3f468f02eaf2cc61	0.0006884350058470428
29	0x3f5079458166b346	0.0010054758800876625
30	0x3f1e71a6c2866bd7	0.00011613445588524951
31	0x3e478db9d9cb2503	1.0968007663024013e-08
32	0x3e47db3576b00de6	1.1108948169350265e-08
33	0x3e476876441f5ac6	1.0900224837253582e-08
34	0x3e49c659459ce3cd	1.2002326399775136e-08
35	0x3e4767dce154fa09	1.0899134964879604e-08
36	0x3e476876441f5ac6	1.0900224837253582e-08
37	0x3e478db9d9cb2503	1.0968007663024013e-08
38	0x3e47db35510d1ded	1.110894712472826e-08
39	0x3e476876441f5ac6	1.0900224837253582e-08

running_mean_std.count f8 []
0	0x4195e00004000000	91750401.0

a2c_network.sigma f4 [6]
0	0xbfcdecb0	-1.6087856
1	0xbfc89ad6	-1.5672252
2	0xbfcaef5d	-1.5854298
3	0x40235780	2.5522156
4	0x40265f8a	2.5995812
5	0x3e76d27a	0.24103728

a2c_network.actor_mlp.0.weight f4 [256, 40]
0	0x3df8b996	0.12144773
1	0xbde8e0ba	-0.11370988
2	0x3d5742e1	0.052554015
3	0x3d8fd6cf	0.07023393
4	0x3d9e891f	0.077409975
5	0xbd8d9062	-0.069123045
6	0x3e2f09a5	0.17093523
7	0x3e71ab1a	0.23600426
8	0x3e15779a	0.14596406
9	0xbe5ac901	-0.2136574
10	0xbe950958	-0.2910869
11	0x3cf09758	0.029369041
12	0xbdb1ad60	-0.08675647
13	0x3d6b4015	0.05743416
14	0x3c6da9f1	0.014505849
15	0x3e9959ff	0.29951474
16	0x3d8037d1	0.06260646
17	0xbd989753	-0.07450738
18	0xbdc604fe	-0.09668921
19	0x3c47dd06	0.012198692
20	0x3dcfccca	0.10146482
21	0x3dd10ad5	0.10207144
22	0x3d8cebc8	0.06880909
23	0x3dce1f71	0.10064591
24	0xbd22f82b	-0.039787453
25	0x3e16590d	0.14682408
26	0xbda69632	-0.08134116
27	0xbe45a0df	-0.19299649
28	0xbe1b9401	-0.15193178
29	0xbe60a163	-0.21936564
30	0x3e86e4c0	0.26346397
31	0x3e539888	0.20663655
32	0x3ea1c5b7	0.31596157
33	0xbddf9555	-0.10917155
34	0xbe9da623	-0.30790815
35	0xbd1e9c70	-0.03872341
36	0xbdae2c40	-0.08504534
37	0x3e5f37d7	0.21798645
38	0xbdc24c72	-0.09487237
39	0x3e1c5c74	0.15269643
40	0x3cb6ca0f	0.022313146
41	0xbe50a647	-0.2037593
42	0x3d8db28f	0.06918823
43	0xbe23eb7c	-0.16007799
44	0x3da66b88	0.08125979
45	0xbd19af1f	-0.037520524
46	0x3d789e3a	0.06069777
47	0xbe83cf0a	-0.25743896
48	0xbd7e17b0	-0.06203431
49	0x3e00e01c	0.12585491
50	0x3dac0bc8	0.084006846
51	0x3d6f4a83	0.05842067
52	0x3d67f64e	0.05663138
53	0x3d7d3b37	0.06182405
54	0xbd7c9ae1	-0.06167114
55	0x3db6d118	0.089266
56	0xbc2b1734	-0.010442544
57	0x3d6dd73e	0.0580666
58	0xbe3a6e24	-0.18206078
59	0xbd4bb15e	-0.049729697
60	0xbc0892da	-0.008335793
61	0xbc151ea9	-0.009101548
62	0xbd56e39b	-0.052463155
63	0x3dfa2a0c	0.12215051
64	0x3e1f2c4e	0.15544245
65	0xbd856dd3	-0.06515088
66	0x3e03a4a5	0.12855776
67	0xbc4cecd1	-0.012507633
68	0x3d4be607	0.049779918
69	0xbb94da21	-0.0045426046
70	0x3e750540	0.23927784
71	0xbe2bf1bd	-0.16791435
72	0x3e34225f	0.17591237
73	0xbdc33784	-0.09532073
74	0xbe520342	-0.20509055
75	0xbd6255ab	-0.05525748
76	0x3d9d7027	0.07687407
77	0xbeac7ee0	-0.33690548
78	0xbe4ab00a	-0.19793716
79	0xbd2e1d1f	-0.04250824
80	0xbd0c1348	-0.034198076
81	0xbcdcbead	-0.02694639
82	0xbd3ce2db	-0.046114784
83	0xbd9d1d7f	-0.076716416
84	0xbe1322a6	-0.14368686
85	0xbdbcea62	-0.092243925
86	0xbdbddb89	-0.09270389
87	0xbe7e3536	-0.24824986
88	0x3c8d6010	0.01725772
89	0xbcf4104e	-0.02979293
90	0x3e48a573	0.19594364
91	0x3cf63935	0.030056575
92	0xbd820c75	-0.06350032
93	0x3c0f20cc	0.008735847
94	0xbd2c8027	-0.042114403
95	0xbf115902	-0.5677644
96	0xbd3a0f6c	-0.045424864
97	0x3d43aef8	0.047774285
98	0x3e676610	0.22597528
99	0x3cf8cc4b	0.030370852
100	0x3cf1cc52	0.029516373
101	0xbe8c3032	-0.2738052
102	0x3d0cec38	0.034404963
103	0x3bd77a51	0.0065758605
104	0xbdb68330	-0.08911741
105	0x3da9097f	0.08253764
106	0x3ca39c7e	0.019972082
107	0x3ecdd2c3	0.4019986
108	0xbddf7326	-0.10910635
109	0x3d13aef1	0.03605551
110	0xbe7a4b89	-0.24442877
111	0xbe6bda3d	-0.2303247
112	0xbd48c521	-0.04901612
113	0xbe00f67a	-0.12594023
114	0x3eb78f03	0.35851297
115	0xbde43c21	-0.11144281
116	0x3d9d831e	0.07691024
117	0xbddaa017	-0.10675066
118	0x3db0b61b	0.08628484
119	0xbdbe9f77	-0.09307759
120	0x3e557455	0.20845158
121	0xbcbabcef	-0.022795169
122	0x3d9ca08a	0.07647808
123	0xbe48731b	-0.19575159
124	0x3dfae804	0.12251285
125	0xbcc25128	-0.023720339
126	0xbcbb258a	-0.022845048
127	0x3e1cf88d	0.1532919
128	0x3db2eee1	0.08736969
129	0xbce19e75	-0.027541379
130	0xbdefef85	-0.117156066
131	0x3b8a19ec	0.004214516
132	0x3cbb4c38	0.022863492
133	0xbcb7b979	-0.022427307
134	0x3d0b9325	0.034075875
135	0x3cb8f2f6	0.02257679
136	0xbd3b5bba	-0.045741774
137	0xb94428d1	-0.00018707222
138	0xbe5b6301	-0.21424486
139	0xbd64fd0f	-0.055905398
140	0x3cc6f43d	0.024286384
141	0x3ec58ba3	0.38583097
142	0x3d8639fd	0.06554029
143	0xbc1d280b	-0.0095920665
144	0x3ca9441d	0.020662362
145	0x3e8197dd	0.25311175
146	0xbe6bf82e	-0.23043892
147	0xbe5fbd81	-0.21849634
148	0x3bbbbb46	0.005729112
149	0xbd24c457	-0.040226307
150	0x3cc8d9a0	0.024517834
151	0xbec78830	-0.3897109
152	0x3eaeb1f2	0.34120136
153	0x3e29d825	0.16586359
154	0xbf029923	-0.5101492
155	0xbc5200e8	-0.012817599
156	0x3d043fe6	0.0322875
157	0xbeb43dcc	-0.35203397
158	0xbe47d33b	-0.19514172
159	0x3d9824ed	0.07428918
160	0xbe211ede	-0.15734431
161	0xbd4029e4	-0.04691495
162	0x3e52081e	0.20510909
163	0x3d99c8fa	0.07509036
164	0x3d8342c3	0.06409218
165	0xbdc33b35	-0.09532777
166	0xbe32184e	-0.17392084
167	0xbe511a2f	-0.20420144
168	0xbe1ae946	-0.15128049
169	0x3e874ad3	0.26424274
170	0x3e053046	0.13006696
171	0x3e513561	0.20430519
172	0xbe164940	-0.1467638
173	0x3d0f1b05	0.034937877
174	0xbc905a8a	-0.017621297
175	0xbef30759	-0.47466543
176	0xbab6189b	-0.0013892831
177	0x3c0147c9	0.00789065
178	0xbecf519f	-0.4049196
179	0xbd2ef317	-0.042712297
180	0xbd2302c1	-0.03979755
181	0x3e945c0a	0.2897647
182	0xbe22b20b	-0.1588823
183	0x3c4a7743	0.012357536
184	0xbe25b891	-0.16183688
185	0xbda9e5c2	-0.08295776
186	0x3dffbbea	0.12487014
187	0x3d7aa841	0.061195616
188	0xbeaf140f	-0.3419499
189	0xbcb6e5f7	-0.022326453
190	0xbe3a9f86	-0.18224916
191	0xbee13443	-0.43985185
192	0x3e3a581f	0.18197678
193	0x3e0c0d92	0.13677052
194	0x3ea8d2bf	0.32973287
195	0xbc1e8636	-0.009675553
196	0x3b0e1a67	0.0021683217
197	0xbf2d9196	-0.6780027
198	0xbe7f19a6	-0.24912128
199	0xbe13a283	-0.14417462
200	0xbcfb91d7	-0.03070919
201	0x3c9bd974	0.019024588
202	0x3a8239d3	0.0009935446
203	0xbb242ab8	-0.0025049876
204	0x3b8324e7	0.004002202
205	0xbde3e9f3	-0.11128607
206	0xbe3acfba	-0.18243304
207	0x3e4436d4	0.1916154
208	0x3cb70413	0.02234081
209	0x3e41caee	0.18925068
210	0xbd9494d7	-0.072549514
211	0xbd3319e6	-0.04372587
212	0xbde97a2b	-0.11400255
213	0x3ddfc3e7	0.10926037
214	0xbd881935	-0.06645433
215	0xbe44b5b7	-0.19209944
216	0x3d4f3b00	0.050593376
217	0xbd1af997	-0.037835684
218	0x3e7a4eec	0.24444169
219	0xbd0536d3	-0.032522988
220	0x3cbda56a	0.023150165
221	0x3e57e61b	0.21083872
222	0x3e159c38	0.14610374
223	0xbe94048e	-0.28909725
224	0xbc84baf6	-0.016202431
225	0x3eb7fab0	0.35933447
226	0xbd75280c	-0.059852645
227	0x3d80af27	0.06283408
228	0xbdc0bf9b	-0.09411546
229	0x3d7534ea	0.059864916
230	0x3ec251d9	0.3795307
231	0xbe173571	-0.1476648
232	0x3eaa0d27	0.3321316
233	0x3dcaf450	0.0990988
234	0xbde296b0	-0.110638976
235	0xbd44383e	-0.0479052
236	0xbe18b29c	-0.14911884
237	0x3d37b090	0.044846117
238	0xbe17429c	-0.14771503
239	0xbe34d0dc	-0.17657799
240	0x3d89f7df	0.06736731
241	0xbe44a0b4	-0.19201928
242	0x3d624915	0.055245478
243	0xbe306ac7	-0.17228232
244	0x3b9195e6	0.004442918
245	0xbd4d98e9	-0.050194655
246	0xbdb5ff29	-0.088865586
247	0x3de4dd0b	0.11174973
248	0x3dfe4e22	0.124172464
249	0x3da219fd	0.07915113
250	0xbdbbf3cf	-0.09177362
251	0xbd035b86	-0.032069705
252	0xbe3fd877	-0.18734919
253	0xbdef4c2b	-0.1168445
254	0x3da7d738	0.081953466
255	0x3e4c6791	0.19961382

a2c_network.actor_mlp.0.bias f4 [256]
0	0xbc4480a0	-0.011993557
1	0x3db315c6	0.08744387
2	0xbdf110d9	-0.117707916
3	0x3d01957c	0.0316367
4	0x3d09e6ca	0.033667363
5	0xbdd5ed2c	-0.104456276
6	0x3e1dbb40	0.15403461
7	0x3e6ac6ef	0.2292745
8	0x3e3fa9ce	0.18717119
9	0x3e61b6cb	0.22042386
10	0x3deaca8e	0.114644155
11	0xbd1477f3	-0.036247205
12	0x3d7202d4	0.05908473
13	0x3e98c00b	0.29834017
14	0x3e8bf315	0.27333894
15	0xbe7b26b5	-0.24526484
16	0xbe1bc6a3	-0.15212493
17	0x3e377b84	0.17918211
18	0x3c42b61a	0.011884237
19	0x3e168cba	0.1470212
20	0xbe9feedf	-0.31236932
21	0x3e2865b2	0.16445044
22	0x3e3ab31d	0.18232389
23	0xbe758cba	-0.23979464
24	0x3db4bef8	0.08825487
25	0x3ec4c79b	0.38433537
26	0x3e202aed	0.15641375
27	0x3e979ada	0.2961033
28	0x3ea8ef89	0.3299525
29	0x3e5d079a	0.21584931
30	0x3e1ffd61	0.15624
31	0x3e848f06	0.25890368
32	0xbd1389d5	-0.03602012
33	0xbd29402f	-0.041320976
34	0xbebb158b	-0.36539873
35	0x3d3485df	0.044072982
36	0x3e018155	0.12646993
37	0x3d3a4bf0	0.045482576
38	0x3ea9b57e	0.3314628
39	0x3e84c175	0.25928846
40	0xbe8737fc	-0.264099
41	0x3e132876	0.14370903
42	0xbc5bf468	-0.01342497
43	0xbd34086a	-0.043953337
44	0x3e285039	0.16436853
45	0xbc6c8ec0	-0.014438331
46	0x3e5c3edc	0.21508354
47	0xbeb68f24	-0.35656083
48	0x3ea06472	0.31326634
49	0x3da5fac5	0.08104471
50	0x3db87f46	0.090086505
51	0xbe26419b	-0.16235964
52	0xbe9dffdd	-0.3085927
53	0xbe58338d	-0.21113415
54	0xbcf3d638	-0.029765233
55	0xbde83d5f	-0.113398306
56	0x3e9498b9	0.29022768
57	0xbd1447e4	-0.036201373
58	0xbd6c2881	-0.057655815
59	0x3e24a28a	0.16077629
60	0x3e52c918	0.20584524
61	0x3e8b687e	0.2722816
62	0xbe1b2fdf	-0.1515498
63	0x3e903750	0.281672
64	0xbcff7589	-0.031183975
65	0xbeb129fe	-0.3460235
66	0x3e82b7f6	0.25530976
67	0xbe44ae26	-0.19207057
68	0xbe56bef7	-0.20971285
69	0xbe1c5c78	-0.15269649
70	0xbe0d499f	-0.13797615
71	0x3e744b08	0.23856747
72	0x3e85be10	0.2612157
73	0x3e2e28f5	0.17007811
74	0x3b44a4b5	0.00300054
75	0xbeef3482	-0.46719748
76	0x3e45f524	0.19331795
77	0xbe945b3a	-0.2897585
78	0x3dd05dff	0.10174178
79	0x3ebb7bf8	0.36618018
80	0xbe8bf8b9	-0.27338198
81	0x3e50e99a	0.20401612
82	0xbe7b8228	-0.2456137
83	0x3e4bbf9d	0.19897313
84	0x3da693a8	0.08133632
85	0x3e24cd04	0.16093832
86	0x3db393c0	0.087684155
87	0x3e05b237	0.13056265
88	0x3e6f3c27	0.2336279
89	0x3db69578	0.08915228
90	0xbd3f91e2	-0.046769984
91	0x3e8e2515	0.27762666
92	0x3e6450b0	0.22296405
93	0xbc421fdc	-0.011848416
94	0xbcc017bd	-0.02344882
95	0xbe11cefc	-0.14239115
96	0x3d593e3f	0.053037878
97	0x3e7c754c	0.2465412
98	0x3cda7359	0.02666633
99	0x3df371fa	0.11886974
100	0xbec73501	-0.38907626
101	0x3e1922f1	0.14954735
102	0x3db84550	0.08997595
103	0x3de2e598	0.11078948
104	0x3e0b0ad2	0.13578346
105	0xbe52544d	-0.2053997
106	0xbebc86f8	-0.36821723
107	0x3e1ebf48	0.15502656
108	0x3e21132e	0.15729973
109	0x3e189eab	0.14904277
110	0xbdc715e6	-0.09720974
111	0x3e73fff0	0.23828101
112	0xbe90378b	-0.28167376
113	0x3e73d6f3	0.23812465
114	0x3e8aade0	0.2708578
115	0xbe6173dd	-0.22016855
116	0x3dd82614	0.10554138
117	0x3d8364d7	0.06415718
118	0xbd9b0698	-0.07569617
119	0xbca843a4	-0.020540066
120	0x3e641c30	0.22276378
121	0xbcd233ad	-0.025659407
122	0x3ce2d767	0.027690602
123	0xbd7b95e9	-0.061422262
124	0xbe35226c	-0.17688912
125	0xbd8f7b0d	-0.07005892
126	0x3df250ab	0.118317924
127	0xbc328994	-0.010897059
128	0x3e9ccb80	0.30624008
129	0x3e895435	0.26822057
130	0xbe817dd5	-0.25291315
131	0x3de51782	0.111861244
132	0x3e651231	0.2237022
133	0x3e1ad5b9	0.15120591
134	0x3e727995	0.23679192
135	0x3e5e21db	0.21692602
136	0xbe115827	-0.14193784
137	0x3e0777d5	0.13229306
138	0x3b1062a4	0.002203145
139	0x3e228353	0.15870409
140	0xbe169c8e	-0.14708158
141	0x3d9648dd	0.07338116
142	0x3ea252f4	0.31703913
143	0x3e054fb2	0.13018683
144	0xbdb3cd1f	-0.08779358
145	0x3ec128b7	0.37726375
146	0x3dc93ab9	0.098256536
147	0x3de07df6	0.10961525
148	0x3e234d41	0.15947439
149	0x3dd98d4b	0.106226526
150	0xbe3b812f	-0.18310998
151	0x3e51342b	0.20430057
152	0x3da11e3b	0.07867094
153	0xbea4b9fe	-0.3217315
154	0x3cff1c49	0.031141417
155	0x3e8cefed	0.275268
156	0xbe090112	-0.13379315
157	0xbe2fae6c	-0.1715638
158	0xbe798055	-0.24365361
159	0x3dc155b7	0.09440177
160	0xbe520a8b	-0.20511834
161	0x3da3cf2c	0.07998499
162	0xbdc93617	-0.0982477
163	0xbe068dfc	-0.131401
164	0x3e9361cf	0.2878556
165	0x3e044876	0.12918267
166	0xbd5331f3	-0.051561307
167	0xbdb471ea	-0.0881079
168	0x3e7fc347	0.24976836
169	0xbe95c9cb	-0.29255518
170	0x3e428860	0.18997335
171	0xbe26296b	-0.16226737
172	0xbe1aab1d	-0.15104337
173	0x3e4bb87b	0.19894592
174	0xbe9fc804	-0.31207287
175	0x3e4e4e03	0.20146947
176	0xbd49d651	-0.049276654
177	0x3e85ef64	0.26159203
178	0x3d86540d	0.06559
179	0x3d8f78f2	0.0700549
180	0xbec644c4	-0.3872434
181	0xbdff677a	-0.124709085
182	0x3d58be7a	0.052916028
183	0xbe53c891	-0.20681979
184	0x3e381d92	0.1798003
185	0x3d61f41b	0.055164438
186	0x3e1abf5f	0.15112065
187	0x3e791345	0.24323757
188	0xbc439a50	-0.011938646
189	0xbde9fd23	-0.11425235
190	0x3e0d92b4	0.13825494
191	0x3e45aea6	0.19304904
192	0x3cd99ee3	0.02656502
193	0xbdefeefd	-0.11715505
194	0x3ea84896	0.3286788
195	0xbbdc7cdc	-0.0067287516
196	0x3da95bff	0.082695
197	0xbe81c49b	-0.2534531
198	0x3e1281e2	0.14307359
199	0x3ea4ed87	0.3221247
200	0x3d546df3	0.05186267
201	0x3dbff60f	0.09373104
202	0x3e069804	0.13143927
203	0x3e50354c	0.20332831
204	0xbdb74f3f	-0.08950662
205	0xbc405f26	-0.011741435
206	0x3e2d77b2	0.16940191
207	0xbef90675	-0.4863774
208	0xbd97f991	-0.07420648
209	0x3e3be5b5	0.18349345
210	0x3ebb8935	0.36628118
211	0xbe5703ef	-0.20997594
212	0x3d7c4e37	0.06159803
213	0x3bd72cae	0.0065666055
214	0xbdcc6ddc	-0.099818915
215	0x3e3fc1c1	0.18726255
216	0x3e5aca83	0.21366315
217	0x3e228e11	0.15874507
218	0x3e63d757	0.22250114
219	0xbca41834	-0.020031072
220	0xbe29eba2	-0.16593793
221	0x3e246762	0.16055062
222	0x3e83e126	0.25757712
223	0x3e5b37ac	0.21407956
224	0x3da89be4	0.08232859
225	0x3e35403c	0.17700285
226	0xbcc43d3d	-0.023954982
227	0x3e051a7f	0.12998389
228	0x3da88658	0.08228749
229	0xbe00960d	-0.1255724
230	0x3e27b828	0.16378844
231	0xbecabc7e	-0.39596933
232	0xbd04e227	-0.03244224
233	0x3e62bacc	0.2214157
234	0x3dcd8fd3	0.10037198
235	0xbde5b4ef	-0.11216151
236	0x3d75de91	0.06002671
237	0xbde403f9	-0.1113357
238	0xbe6d9967	-0.2320305
239	0x3d46c327	0.048525956
240	0xbe0d2245	-0.13782604
241	0xbecf0c65	-0.40439144
242	0xbc3067a6	-0.010766899
243	0x3e4f8f47	0.202695
244	0x3db23b81	0.08702756
245	0xbe579179	-0.21051587
246	0xbdb5501e	-0.08853172
247	0x3dfaf24f	0.12253248
248	0x3dc252e8	0.09488469
249	0xbe42d871	-0.19027878
250	0x3e473058	0.19452035
251	0xbebc6896	-0.36798543
252	0x3da05dc7	0.078303866
253	0xbe992bc2	-0.29916197
254	0xbd856c28	-0.0651477
255	0xbe59f3fb	-0.21284477

a2c_network.actor_mlp.2.weight f4 [256, 256]
0	0x3ce442ff	0.027863977
1	0x3d534098	0.051575273
2	0xbe094ccd	-0.13408203
3	0xb89d680a	-7.505722e-05
4	0xbdabad28	-0.08382636
5	0x3d1e6ed8	0.038679928
6	0xbdb2b808	-0.087265074
7	0xbd7146ca	-0.0589054
8	0xbcdf3b07	-0.027249826
9	0xbdde2386	-0.10846619
10	0xbb91ed51	-0.004453339
11	0x3c0a9f7e	0.008460877
12	0x3d9f3639	0.07774014
13	0xbccf35f3	-0.02529428
14	0xbd256a52	-0.040384598
15	0x3d713eff	0.05889797
16	0x3cd951c2	0.026528243
17	0xbbff1e8e	-0.007785625
18	0x3d5560a7	0.052094128
19	0xbd46fc8d	-0.048580695
20	0xbd7d54d9	-0.061848495
21	0xbde6424d	-0.112431146
22	0xbca6c1ba	-0.020356048
23	0x3bd9a7fd	0.00664234
24	0x3dbfe887	0.09370523
25	0xbdb69372	-0.08914842
26	0xbdd55ee2	-0.10418488
27	0xbdb7e8a3	-0.08979919
28	0xbcfffd95	-0.031248847
29	0xbc4e9845	-0.012609546
30	0xbd7d843d	-0.06189369
31	0xbe25391b	-0.16135065
32	0xbaee0d88	-0.0018161992
33	0xbdc3ac37	-0.09554332
34	0x3d8a0edf	0.06741118
35	0xbceab406	-0.028650295
36	0x3dbb826a	0.09155734
37	0x3c836fd8	0.016044542
38	0xbcb8f422	-0.02257735
39	0xbca74534	-0.02041874
40	0xbd2f5e78	-0.0428147
41	0xbc2ff941	-0.010740579
42	0xbc4e99cd	-0.012609911
43	0xbd3a8127	-0.045533326
44	0xbd26f3cc	-0.040759847
45	0xbd793d77	-0.060849633
46	0xbe33651a	-0.17519036
47	0xbc922d90	-0.017843992
48	0xbd5da834	-0.05411549
49	0x3caa0047	0.020752085
50	0xbdad93af	-0.08475434
51	0xbe22d6ea	-0.15902296
52	0xbd42f071	-0.047592584
53	0x3d252f44	0.04032828
54	0xbdbeb811	-0.09312452
55	0xbd990f70	-0.074736476
56	0xbacb83e1	-0.0015526974
57	0xbc203125	-0.009777342
58	0x38ee7909	0.00011371269
59	0xbb540cba	-0.0032356218
60	0xbd70e492	-0.05881173
61	0xbd3b65aa	-0.04575125
62	0xbce9446c	-0.028475009
63	0xbc967e1c	-0.01837068
64	0x3c280341	0.010254682
65	0x3bda5443	0.006662877
66	0x3bae5a64	0.005320834
67	0x3cb3f024	0.021965094
68	0xbd5a09f9	-0.053232167
69	0x39e409e4	0.00043494918
70	0x3d621b81	0.05520201
71	0xbd40d218	-0.04707536
72	0x3d2b9ac4	0.041895643
73	0xbce37f97	-0.0277708
74	0x3a485227	0.0007641636
75	0x3ca920f4	0.020645596
76	0x3d4eb80b	0.050468486
77	0xbd8acd39	-0.06777424
78	0xbe006804	-0.12539679
79	0xbde44bfc	-0.11147305
80	0xbda86939	-0.08223195
81	0xbd877958	-0.06614941
82	0x3b5bc6a7	0.0033535154
83	0xbdad896a	-0.08473475
84	0xbbc18c31	-0.0059066047
85	0x3cfb168a	0.030650396
86	0x3c895659	0.016764807
87	0xbd8ebb30	-0.06969297
88	0xbd004534	-0.031315997
89	0x3d5591c3	0.052140962
90	0xbdc37dd9	-0.09545488
91	0xbd9d86c3	-0.076917194
92	0x3c42d2a8	0.011891045
93	0xbcd7693e	-0.0262953
94	0x3c463314	0.012097139
95	0xbd883842	-0.06651355
96	0x3c414099	0.011795186
97	0x39a1f0ba	0.00030887668
98	0xbcb7e097	-0.02244596
99	0xbd9d95d7	-0.07694595
100	0xbbd55b7e	-0.006511151
101	0x3d1615c8	0.036641866
102	0x3cd3cbff	0.025854109
103	0xbdc05267	-0.09390717
104	0xbcfa72b2	-0.03057227
105	0x3d8b49df	0.06801199
106	0x3cb5961d	0.022166306
107	0x3e285fa1	0.1644273
108	0x3c7e820e	0.015533937
109	0x3cc02c57	0.023458643
110	0x3d610129	0.054932747
111	0xbd2d87a5	-0.04236569
112	0xbd9581a8	-0.073001206
113	0xbe04981b	-0.12948649
114	0xbc7a646c	-0.0152827315
115	0x3ca6e250	0.020371586
116	0x3d5e50f4	0.05427642
117	0x3c80bc37	0.015714748
118	0x3d0b815c	0.034058914
119	0x3cae083c	0.02124416
120	0xbc57811d	-0.013153342
121	0x3c09a0c3	0.008400145
122	0x3d252ef1	0.04032797
123	0xbd3c3c9a	-0.04595623
124	0xbb1dce12	-0.0024079126
125	0xbdc99310	-0.09842503
126	0xbcbb3e70	-0.022856921
127	0x3d75db6c	0.06002371
128	0xbdb946fb	-0.090467416
129	0xbd46be53	-0.04852135
130	0xbcd9872d	-0.026553715
131	0x3ca22553	0.019793188
132	0xbd552945	-0.05204131
133	0xbd67ced3	-0.056593727
134	0x3decb34d	0.115576364
135	0xbdb95a99	-0.09050483
136	0x3dc74799	0.09730453
137	0xbc905a82	-0.017621282
138	0xbc8fcfcc	-0.01755514
139	0xbbedd1cd	-0.007257676
140	0x3d9c907a	0.07644744
141	0xbd4d12ac	-0.050066635
142	0x3cb9932c	0.022653185
143	0xbd44e5f5	-0.048070867
144	0x3d3c9d91	0.046048705
145	0xbe21aecf	-0.1578934
146	0x3d846d2e	0.06466137
147	0xbd10456d	-0.03522246
148	0xbcf2d499	-0.02964239
149	0x3d1c8ba1	0.038219098
150	0x3d634ddf	0.055494186
151	0xbd0fb6d3	-0.035086464
152	0x3d541a0c	0.051782653
153	0xbd2d25eb	-0.04227249
154	0xbcf29782	-0.02961326
155	0xbd05e6a3	-0.032690655
156	0x3daeb4f1	0.085306056
157	0x3c2db80e	0.010602964
158	0x3ddefac0	0.108876705
159	0x3c18eaea	0.009333352
160	0xbe0a264a	-0.13491169
161	0xbc7e00bc	-0.015503105
162	0xbdc34724	-0.09535053
163	0x3c008b1b	0.007845665
164	0xbc91aced	-0.017782653
165	0x3d65d964	0.056115523
166	0x3d4b88a1	0.049690846
167	0x3d7327d6	0.059364162
168	0xbdb7ee42	-0.08980991
169	0xbd2b7a53	-0.041864704
170	0x3e14f9b5	0.1454838
171	0xbd1b03ce	-0.037845425
172	0xbdae5bdf	-0.08513617
173	0x3d42732f	0.04747313
174	0x3c9452d4	0.018105902
175	0xbd946616	-0.07246034
176	0xbc49ed00	-0.012324572
177	0xbd64fd34	-0.055905536
178	0x3b9f8034	0.004867578
179	0xbd2752de	-0.040850513
180	0xbd71100b	-0.05885319
181	0x3d3db89b	0.04631863
182	0xbcdcbb3e	-0.026944753
183	0xbdd969af	-0.10615861
184	0x3daaaba0	0.08333516
185	0x3dc8c3a1	0.09802938
186	0xbcdbe965	-0.02684469
187	0x3d34b438	0.044117182
188	0xbd0d4657	-0.03449091
189	0xbc3b7eed	-0.011443836
190	0x3d89c276	0.067265436
191	0xbc9be442	-0.01902974
192	0x3d3d7442	0.04625345
193	0xbd86907a	-0.065705255
194	0xbdd51b28	-0.1040557
195	0xbe04c465	-0.12965544
196	0xbcf32eda	-0.029685427
197	0xbba63424	-0.0050721336
198	0xbc7274c5	-0.014798348
199	0xbdedcf7f	-0.11611842
200	0x3c95d160	0.018288314
201	0x3d466a98	0.0484415
202	0xbd900a9b	-0.07033273
203	0xbd2f83a2	-0.042850144
204	0x3cac5d20	0.0210405
205	0x3cd79e04	0.026320465
206	0x3dc50704	0.09620479
207	0x3c05cf11	0.008167044
208	0xbbe41273	-0.006960207
209	0xbe0ce5b7	-0.13759504
210	0x3b0d81b1	0.0021592195
211	0xbd2116e7	-0.039328482
212	0xbcc15528	-0.023600176
213	0x3db3d765	0.087813176
214	0xbd0aef66	-0.033919714
215	0xbd9a8c16	-0.075462505
216	0xbd94a683	-0.07258322
217	0xbcf9b230	-0.030480474
218	0xbc0fb0cc	-0.008770179
219	0xbdba2aa5	-0.09090165
220	0xbe30270f	-0.172024
221	0xbd9ee835	-0.07759134
222	0xbd291a84	-0.041285053
223	0xbcabd659	-0.020976232
224	0x3bb4f6ad	0.00552257
225	0x3bf3126a	0.0074179666
226	0xbda6b540	-0.081400394
227	0x3d6a3c8d	0.057186652
228	0x3d87c3bf	0.066291325
229	0x3d9f1ec0	0.07769537
230	0x3d0028a4	0.031288758
231	0xbd309cac	-0.043118164
232	0x3e0207f1	0.12698342
233	0xbd92abbc	-0.07161662
234	0x3d68e9b8	0.056863517
235	0x3dc11c02	0.0942917
236	0xbe0c487b	-0.13699524
237	0x3db75665	0.08952025
238	0xbc2d66a0	-0.01058355
239	0x3b8d39ee	0.0043098843
240	0xbe4ac9fb	-0.19803612
241	0x3ce7dab5	0.02830253
242	0xba56b405	-0.0008190277
243	0xbd8b9a6e	-0.068165645
244	0x3d642c82	0.05570651
245	0xbdbe4362	-0.09290196
246	0xbc6ded13	-0.014521855
247	0xbd0d62c7	-0.03451803
248	0xbd1936d1	-0.037405793
249	0x3c76356e	0.015027387
250	0xbcb61cd7	-0.022230549
251	0xbd999fb5	-0.07501165
252	0x3ca2a867	0.019855691
253	0x3dc7e90f	0.09761249
254	0xbd5f1ed2	-0.054472752
255	0xbcf0da4c	-0.029400967

a2c_network.actor_mlp.2.bias f4 [256]
0	0x3d3d73ac	0.04625289
1	0xbe477e86	-0.19481859
2	0x3d8837f6	0.06651299
3	0x3d3fbbca	0.04680995
4	0xbd4366b1	-0.047705356
5	0x3d485c52	0.04891617
6	0x3d7c58a8	0.061607987
7	0xbda1644f	-0.078804605
8	0x3d4f72a4	0.05064644
9	0xbd7ce001	-0.061737064
10	0xbe48068c	-0.19533747
11	0x3d41cfc5	0.047317285
12	0x3d4e989e	0.050438516
13	0xbd53708b	-0.051621
14	0x3d982e98	0.07430762
15	0xbcebc734	-0.02878151
16	0x3adb9db3	0.0016755372
17	0x3d3011ad	0.042985607
18	0xbe18b1a7	-0.14911519
19	0x3d68119c	0.05665742
20	0x3d048b97	0.032359686
21	0x3d3db739	0.046317313
22	0x3d902920	0.07039094
23	0x3d2eaa06	0.042642616
24	0xbe108dde	-0.14116618
25	0x3c853a5e	0.016263183
26	0xbe6b5f15	-0.2298549
27	0x3d09560b	0.033529323
28	0xbd8531dc	-0.065036505
29	0xbd8cfd46	-0.068842456
30	0x3daa1e7e	0.08306597
31	0xbe5ca37c	-0.2154674
32	0xbdb18a16	-0.08668916
33	0x3d17c641	0.037054304
34	0xbc9e87d6	-0.019351881
35	0x3d8774c3	0.066140674
36	0x3c824076	0.015899878
37	0xbd8d217e	-0.06891154
38	0x3d5bfd3e	0.053708307
39	0xbdef254d	-0.116770364
40	0xbd43a899	-0.04776821
41	0xbd005ffb	-0.031341534
42	0xbd0b44e7	-0.034001257
43	0x3d9e1f1e	0.07720779
44	0x3d2574ef	0.04039472
45	0xbddfac36	-0.109215185
46	0xbd61d80f	-0.05513769
47	0xbe3bf901	-0.18356706
48	0x3bce50b4	0.0062962417
49	0xbda195d4	-0.078899056
50	0x3ca256df	0.019816814
51	0xbe0e5f0d	-0.13903446
52	0x3d367093	0.044540953
53	0x3d9882eb	0.074468456
54	0x3d74f5da	0.059804775
55	0xbd3dd71a	-0.046347715
56	0xbd5fd280	-0.054644108
57	0x3cfd8866	0.030948829
58	0x3cd6489d	0.026157672
59	0xbd5df0f4	-0.05418487
60	0x3d636e1e	0.055524938
61	0xbd8436df	-0.06455778
62	0xbc121231	-0.00891547
63	0xbd86f9c2	-0.06590606
64	0xbde19fe1	-0.110168226
65	0xbd2a0fb5	-0.041518886
66	0xbe0e1847	-0.13876449
67	0xbd8a7735	-0.06761018
68	0x3d0fb75b	0.03508697
69	0xbe175f51	-0.14782454
70	0xbdffdd3d	-0.1249337
71	0xbcde0b80	-0.027105093
72	0x3d2288f3	0.039681386
73	0xbe11b4a1	-0.1422906
74	0xbd4d385f	-0.050102588
75	0x3cbb5a8b	0.022870323
76	0xbdb8ded3	-0.09026875
77	0xbe08be1f	-0.13353775
78	0x3ce6a152	0.028153095
79	0xbdeca6d7	-0.1155526
80	0xbd774208	-0.060365707
81	0x3dbd902c	0.09256014
82	0x3dbe7953	0.093004845
83	0xbe09f4e7	-0.13472329
84	0xbda30d36	-0.07961504
85	0xbd2d6f68	-0.042342573
86	0x3ca27579	0.019831406
87	0x3d5f44c9	0.054508958
88	0xbe5ae688	-0.21377003
89	0x3d4deb39	0.050273154
90	0xbe9b18f0	-0.30292463
91	0xbd07ac2e	-0.033123188
92	0xbd7f26b6	-0.062292777
93	0xbdbe250d	-0.092844106
94	0xbda20bca	-0.07912405
95	0xbdb9d297	-0.0907337
96	0x3d2f09b7	0.042733874
97	0x3cbc5f03	0.022994524
98	0xbe0ed305	-0.13947685
99	0x3cf6ff99	0.030151175
100	0xbd85904f	-0.06521665
101	0xbd64a47c	-0.055820927
102	0xbe0665f8	-0.13124835
103	0xbd54b44c	-0.051929757
104	0x3d46d641	0.048544172
105	0x3cf2f22e	0.029656496
106	0xbd42c833	-0.047554206
107	0xbd4499f2	-0.047998376
108	0xbe8a317f	-0.26990888
109	0xbe37bef0	-0.1794393
110	0x3d59a49b	0.053135496
111	0x3d8bd3d5	0.06827513
112	0x3c72ec6c	0.014826875
113	0x3d6774aa	0.056507744
114	0xbe43009c	-0.19043201
115	0x3d43df8e	0.04782062
116	0xbd98584d	-0.07438717
117	0x3d41d188	0.047318965
118	0x3d644693	0.055731367
119	0x3cd8d88d	0.026470447
120	0xbdcea9a2	-0.10090949
121	0x3d6e98d9	0.058251236
122	0xbdd0b173	-0.10190096
123	0x3d18fb9c	0.03734933
124	0x3cc69a63	0.02424354
125	0xbda9cf48	-0.08291489
126	0xbcd4fdbe	-0.0259999
127	0x3db1efbb	0.08688303
128	0xbd4239ed	-0.047418524
129	0x3cd4308b	0.025902053
130	0xbdcf1831	-0.10112036
131	0xbd1aefc8	-0.03782633
132	0xbd413e33	-0.04717846
133	0xbd5ab910	-0.053399146
134	0x3d83a51f	0.06427979
135	0x3d804d94	0.06264797
136	0xbe87f015	-0.26550356
137	0x3d2d5be3	0.042323958
138	0xbe5e49a3	-0.21707778
139	0xbd899a25	-0.06718854
140	0xbc9a2845	-0.01881803
141	0x3d579b79	0.052638505
142	0xbe0aaf44	-0.13543421
143	0x3d047544	0.032338396
144	0xbdb6608d	-0.08905134
145	0xbce264d0	-0.027635962
146	0x3d1adfdd	0.03781115
147	0x3d80a59c	0.062815875
148	0xbcd295dc	-0.025706224
149	0xbe92f46c	-0.28702104
150	0xbd8fc903	-0.07020762
151	0x3d155407	0.036457088
152	0x3d07c3e9	0.03314582
153	0xbe2f9c2f	-0.17149423
154	0x3d8bc160	0.06823993
155	0x3c366b33	0.011133957
156	0x3d22bd17	0.03973111
157	0xbe784777	-0.24246012
158	0xbe99f396	-0.30068654
159	0xbd99c3bd	-0.07508037
160	0x3d79730a	0.060900725
161	0xbd986f69	-0.07443125
162	0x3d176a07	0.03696635
163	0x3d442c15	0.047893602
164	0x3d384dd5	0.0449961
165	0xbdc9c18f	-0.098513715
166	0xbd9f6aaa	-0.077840164
167	0xbd8b34db	-0.06797191
168	0xbdb0d002	-0.08633424
169	0xbd9675bc	-0.07346675
170	0xbe27713e	-0.16351792
171	0xbdc6620e	-0.09686671
172	0xbd9e8b6d	-0.07741437
173	0x3d6d952b	0.058003586
174	0xbd35e191	-0.04440457
175	0xbe23f6a4	-0.16012055
176	0xbdcd79cb	-0.10032996
177	0xbe39c596	-0.1814178
178	0xbdd1c1af	-0.1024202
179	0x3d676c1a	0.056499578
180	0xbe14157d	-0.14461322
181	0xbd13365e	-0.03594052
182	0x3d46b838	0.04851553
183	0x3d8a0467	0.06739121
184	0x3c08dc18	0.008353256
185	0xbd4886b5	-0.04895659
186	0xbe02f014	-0.12786895
187	0xbe54e8ff	-0.20792006
188	0x3d4aaadf	0.04947936
189	0xbe77affd	-0.24188228
190	0xbd9565ce	-0.07294808
191	0x3d1f7646	0.038931154
192	0xbd4a2a75	-0.049356896
193	0x3d1340f2	0.03595061
194	0xbc7efca4	-0.015563164
195	0xbd7d2de6	-0.06181135
196	0xbe617f32	-0.22021177
197	0xbe882350	-0.2658944
198	0xbe6172de	-0.22016475
199	0xbd0e179b	-0.03469048
200	0xbd281add	-0.041041244
201	0xbd0516c9	-0.032492433
202	0xbe3c8666	-0.18410644
203	0x3d5afc49	0.053463254
204	0x3d1982ca	0.037478246
205	0xbc99cfdb	-0.018775871
206	0x3d367c60	0.044552207
207	0xbe5aadbb	-0.21355335
208	0x3c7511e7	0.0149578815
209	0xbdb1d50a	-0.08683212
210	0xbe294549	-0.16530336
211	0xbd669eea	-0.056303896
212	0x3d631306	0.055438064
213	0x3d2656c4	0.04061009
214	0xbce5b865	-0.028042028
215	0x3d918322	0.0710509
216	0x3d3bdca9	0.045864735
217	0xbda89105	-0.08230785
218	0xbda2e345	-0.079535045
219	0xbda054bf	-0.07828664
220	0xbe546b82	-0.20744136
221	0xbdb65306	-0.08902554
222	0xbe1a60f7	-0.15076052
223	0x3ccdca98	0.025121018
224	0xbea3dfc8	-0.3200667
225	0xbd414a4f	-0.047190007
226	0x3d314d5b	0.043286663
227	0x3da249eb	0.07924255
228	0x3d3916ec	0.045187876
229	0xbcbd1292	-0.023080144
230	0xbe7dfe62	-0.2480407
231	0x3d0c213f	0.034211393
232	0xbe8eb323	-0.27871045
233	0x3d9d34bf	0.07676076
234	0x3d205fab	0.039153736
235	0x3ce6f70e	0.028193977
236	0x3cf010f6	0.029304963
237	0xbdbc3bf6	-0.09191124
238	0xbdde0a9b	-0.108418666
239	0xbe7ef9a5	-0.2489992
240	0x3d22f802	0.0397873
241	0x3ccb403b	0.0248109
242	0xbe080f02	-0.13286975
243	0xbe2b3e63	-0.16723017
244	0xbdaa67d8	-0.08320588
245	0xbcc59d80	-0.024122953
246	0xbcc90631	-0.024539085
247	0xbc0b79f5	-0.008512964
248	0xbe83f7b5	-0.25774923
249	0xbd65d25d	-0.05610882
250	0xbe22c833	-0.15896682
251	0xbe23374e	-0.15939066
252	0x3d310047	0.043213155
253	0xbd83285b	-0.064041816
254	0x3d8a93f4	0.06766501
255	0x3d3a66fc	0.04550837

a2c_network.value.weight f4 [1, 256]
0	0xbc812ffe	-0.015769955
1	0xbc2b7059	-0.0104637975
2	0xbb8ed850	-0.0043592826
3	0xbc29d1f9	-0.010365003
4	0xbb26f919	-0.0025478064
5	0xbb81d244	-0.003961833
6	0xb9a7a129	-0.00031972796
7	0xbb58bf59	-0.0033073036
8	0xbb80f3fa	-0.0039353343
9	0x3c0f5ae7	0.0087497
10	0xbd297ef6	-0.041380845
11	0xba8a77d4	-0.0010564276
12	0xbb2a1744	-0.0025953809
13	0xbd912607	-0.07087331
14	0x3c07194d	0.008245778
15	0xbbb8b87a	-0.0056372257
16	0xbc8f4666	-0.017489623
17	0x3bdbb869	0.006705333
18	0x3c8cc48c	0.017183565
19	0xbb46b437	-0.0030319819
20	0xbb0f9a1b	-0.0021911922
21	0xbb68f77a	-0.0035547898
22	0xbcbf2eba	-0.02333771
23	0x39120884	0.00013926817
24	0x3b8f2f8d	0.004369682
25	0x3af7395e	0.0018861701
26	0x3a50a0c0	0.0007958524
27	0x3bdc737e	0.006727635
28	0xbbc90922	-0.006135122
29	0x3c4c137b	0.012455816
30	0x3b1e103c	0.0024118563
31	0x3c4c2e1d	0.012462166
32	0xbb060449	-0.0020449331
33	0xbc9536d2	-0.018214617
34	0x3cad7da0	0.021178067
35	0x3c106c49	0.00881488
36	0x3bfd98fb	0.007739184
37	0xbb0a0b4b	-0.002106386
38	0xbb9efd4e	-0.0048519736
39	0x3b4e9e31	0.0031527395
40	0xbc0a1973	-0.008428919
41	0xbc01efbe	-0.007930694
42	0xb981d6de	-0.00024764886
43	0x3c027898	0.007963322
44	0xbb94528a	-0.004526441
45	0x3ba06053	0.0048942952
46	0xba39869c	-0.00070772483
47	0x3bccccaf	0.006249986
48	0xbcf63ab1	-0.030057283
49	0xba981c41	-0.00116051
50	0x3ad47006	0.0016207702
51	0xbc167e98	-0.009185456
52	0x3b5714c1	0.0032818767
53	0xbb3554a4	-0.0027668858
54	0xba8327c4	-0.0010006358
55	0xbc9ee084	-0.019394167
56	0x3c6eb752	0.014570074
57	0x3bb59e77	0.005542572
58	0x3a2ef82c	0.0006674554
59	0xbc726393	-0.014794248
60	0xbc0ce3e9	-0.00859926
61	0xbd4cb91b	-0.049981218
62	0xbcba74ba	-0.022760738
63	0xbd34d45d	-0.044147838
64	0xbd014d49	-0.031567845
65	0xbb80f662	-0.003935621
66	0x3a9c35e2	0.0011917914
67	0xbb3f579e	-0.002919651
68	0xbb9a358b	-0.00470609
69	0xbc0e87e3	-0.00869939
70	0xbbf0ccbb	-0.0073486245
71	0x3a9974be	0.0011707766
72	0x3c75846a	0.014985183
73	0x3c36f135	0.011165907
74	0x3dad4332	0.08460082
75	0xbc4417bb	-0.011968548
76	0xbbad72cc	-0.005293226
77	0x3b9efccc	0.004851913
78	0xbbbcae10	-0.0057580546
79	0x3d9bfa49	0.076160975
80	0xbbca8781	-0.006180704
81	0x3b498021	0.0030746537
82	0xb951ac20	-0.00019995915
83	0x3e563353	0.20918016
84	0x3b58632e	0.00330181
85	0x3e07b5e7	0.13252984
86	0xbbec0882	-0.0072031626
87	0x3a81a7b9	0.0009891904
88	0x3c78bfe4	0.015182469
89	0x3b6e38ab	0.0036349695
90	0x3c036bd3	0.008021313
91	0x3ba96f39	0.0051707295
92	0x3bb30966	0.005463767
93	0x3bd899a3	0.006610112
94	0xbce84fc7	-0.028358353
95	0xbe3af3f5	-0.18257125
96	0x3bfec15d	0.0077745155
97	0x3c162af2	0.009165512
98	0x3a876d0a	0.0010332179
99	0x3c276952	0.010217981
100	0xbae8b3e3	-0.0017753806
101	0x3c3ef1c5	0.011654322
102	0x3e314978	0.17313182
103	0x3b41f9f6	0.0029598451
104	0x3cfa1b3f	0.03053057
105	0xbac058e0	-0.0014674924
106	0x3b062be1	0.0020472931
107	0xbac6d0ce	-0.001516843
108	0xbd34f339	-0.044177268
109	0xbdb9a96a	-0.09065516
110	0xbba40780	-0.005005777
111	0xbbbdb864	-0.0057898033
112	0xbcf83e4a	-0.03030314
113	0x360fcddf	2.1428493e-06
114	0xbc249bba	-0.010046894
115	0xbbdaa98c	-0.0066730436
116	0xbb679dfb	-0.0035341966
117	0x3acbd9ef	0.001555262
118	0xbc21fc7b	-0.009886856
119	0xbb925c2a	-0.004466553
120	0xbd16196c	-0.036645338
121	0x3b9a519e	0.0047094366
122	0x3dafefb8	0.085906446
123	0x3c117597	0.008878133
124	0x3be2564e	0.006907261
125	0xbab2dfcb	-0.0013647018
126	0xbd5ede7d	-0.0544114
127	0xbcced6fb	-0.025248995
128	0xbc28aaa8	-0.010294594
129	0x3c1f4839	0.009721809
130	0x3a0e7b83	0.0005435275
131	0x3c08b295	0.0083433585
132	0x3aa67184	0.0012698625
133	0x3aba94dd	0.0014235039
134	0xbc09d3af	-0.008412286
135	0x3b5e91ac	0.003396134
136	0x3cf68ba0	0.030095875
137	0x3c3227c5	0.01087374
138	0xbd1f3a83	-0.03887416
139	0xbc2a7bc6	-0.010405486
140	0x3dbf299c	0.09334108
141	0xba9b5584	-0.0011851047
142	0x3d107011	0.035263125
143	0xbb589874	-0.0033049854
144	0x3be5bf5c	0.007011337
145	0x3b839cfb	0.0040165163
146	0xb8b04e33	-8.4069e-05
147	0x3bc78b31	0.006089591
148	0xbd461d3d	-0.048367728
149	0xbc118299	-0.008881235
150	0x3c001445	0.007817333
151	0xbacea651	-0.0015766119
152	0x3c2aab72	0.010416852
153	0xbd3a183e	-0.045433275
154	0x3bb42e5b	0.00549869
155	0x3c0e0488	0.0086680725
156	0xbce0ca5f	-0.027440248
157	0xbca8db29	-0.020612316
158	0xbc3b97f7	-0.011449805
159	0xbc94360f	-0.018092183
160	0x3b8bf465	0.0042710775
161	0x38547cf0	5.0661096e-05
162	0xbab3b1ee	-0.0013709643
163	0xbb968f37	-0.0045947093
164	0xbbd0ada3	-0.0063683554
165	0x3c3df421	0.011593849
166	0xba771ffc	-0.0009427068
167	0xbbfa0af4	-0.0076307002
168	0x3b654f7f	0.003499001
169	0xbc4fdd84	-0.012687091
170	0x3e2cc045	0.1687022
171	0xbc8a9ed7	-0.016921444
172	0xbab45533	-0.0013758302
173	0x3ae2691e	0.0017273759
174	0x3beef7a6	0.0072927056
175	0xbadfbcac	-0.0017069778
176	0x3c8970d7	0.016777439
177	0x3bc1670c	0.0059021767
178	0x3be082a2	0.00685151
179	0x3b0a0c61	0.0021064507
180	0x3c9d736b	0.019220075
181	0x3c95da53	0.018292582
182	0xbb9a5f3f	-0.0047110613
183	0x3a961d18	0.0011452762
184	0xbb94806e	-0.0045319116
185	0xbc125561	-0.008931489
186	0xbba4386e	-0.0050116098
187	0xbbf17ff4	-0.0073699895
188	0x3ba03513	0.0048891394
189	0x3c68843a	0.0141916815
190	0x3d80ac6a	0.062828854
191	0x3c3abfa1	0.011398227
192	0x3bf2be06	0.0074079065
193	0x3a802296	0.0009775932
194	0xb8d36fe1	-0.00010082103
195	0x3c063da1	0.008193404
196	0x3c31f15d	0.010860768
197	0xbd91a848	-0.07112175
198	0x3d63d6c1	0.055624727
199	0xbd124148	-0.03570679
200	0xb93e6fc0	-0.00018161442
201	0x3bed4ec3	0.007242055
202	0xbd08787f	-0.03331804
203	0xbbad0fcd	-0.0052814246
204	0xb9c41110	-0.00037396746
205	0xbba481ce	-0.0050203567
206	0x3d84524b	0.06461009
207	0xbbfd736b	-0.007734706
208	0xbb5475cf	-0.0032418852
209	0xbb85133a	-0.00406113
210	0xbc2c05cc	-0.010499429
211	0xbd481d1e	-0.048855893
212	0x3babbe8b	0.0052412204
213	0xbb0611ea	-0.0020457455
214	0x3c004c40	0.007830679
215	0xbc223d5d	-0.009902325
216	0x3a8139d9	0.0009859159
217	0x3e4f15c8	0.20223153
218	0x3c1ac9c3	0.009447518
219	0xbde2cd00	-0.11074257
220	0x3d43a05e	0.04776036
221	0x3b91b920	0.0044471174
222	0x3c0c188d	0.008550775
223	0x3b2fa2fc	0.0026800027
224	0xbbe12ad2	-0.0068715597
225	0xbeaa9806	-0.3331911
226	0x3c14f211	0.009090916
227	0xbb901269	-0.004396726
228	0x3c04390e	0.0080702435
229	0x3a11e735	0.00055657636
230	0xbb2388c0	-0.0024953336
231	0xbb42c6f7	-0.0029720643
232	0xbd163f44	-0.03668143
233	0x3bd61150	0.0065328255
234	0xbc722631	-0.014779613
235	0x393b8014	0.00017881423
236	0xbc173905	-0.009229903
237	0x3bd585b7	0.006516184
238	0xbc26c6ee	-0.0101792645
239	0xbcacacf2	-0.02107856
240	0xbbce3f47	-0.0062941643
241	0xbc0e6ede	-0.008693425
242	0xbd230a83	-0.039804947
243	0xbc2fa2d6	-0.010719975
244	0xbd6cd04e	-0.057815842
245	0xb9ba9c94	-0.00035593344
246	0x3c155650	0.009114817
247	0x3b3833c1	0.002810702
248	0x3b8dc628	0.0043266006
249	0x3b9453bf	0.004526585
250	0xbbf370c3	-0.0074292137
251	0xbe8afd6f	-0.2714648
252	0x3b2bb953	0.002620299
253	0xbaa531fc	-0.0012603397
254	0x3b4f8837	0.0031666884
255	0x3b1718a3	0.0023055456

a2c_network.mu.weight f4 [6, 256]
0	0xba1835a8	-0.0005806335
1	0x3c1ca852	0.009561615
2	0x3c3b9128	0.011448182
3	0x3aec9ce6	0.001805213
4	0x3b3832f2	0.0028106538
5	0x3ac47cc0	0.0014990792
6	0x3b7864be	0.0037901844
7	0xba73f677	-0.00093064405
8	0x3b0e2eab	0.0021695297
9	0x3b3a5286	0.0028430535
10	0x3b2690d4	0.0025415914
11	0x3af60b02	0.0018771591
12	0x3a911fb6	0.0011072073
13	0xbc9749a2	-0.018467728
14	0x3a1ab387	0.00059013854
15	0x3b1c35de	0.0023835818
16	0x3b9fb33d	0.004873662
17	0x3b28722e	0.0025702822
18	0xbba81197	-0.00512905
19	0x3af6c05e	0.001882564
20	0xb83cf482	-4.505041e-05
21	0xbb0e7be2	-0.002174132
22	0x3cad8448	0.02118124
23	0xb9e1e759	-0.00043087712
24	0x3c9ed8fe	0.01939058
25	0x3abb85a8	0.00143068
26	0x3b71e5b9	0.0036910607
27	0x3cbf75dd	0.023371631
28	0x3b25191a	0.0025191964
29	0xbb52aaad	-0.0032145188
30	0x3a9ce7c0	0.0011970922
31	0xbce32efe	-0.027732369
32	0x3a9ccd7e	0.0011963097
33	0x3a583c1d	0.00082487037
34	0x3c028c4c	0.00796802
35	0x3932d694	0.0001705534
36	0x3aa16508	0.0012313435
37	0xb866670b	-5.493224e-05
38	0x38aed3bb	8.3364044e-05
39	0x3ab02722	0.0013439397
40	0x3b06a63b	0.0020545858
41	0x3c001f14	0.00781991
42	0x3a58964e	0.0008262143
43	0x3b16b9a1	0.0022998827
44	0xba190e53	-0.00058386213
45	0x3b516d0d	0.0031955868
46	0x3b20f652	0.002456088
47	0xbc50abe6	-0.012736296
48	0xbc5bdedd	-0.013419834
49	0xba3d75ea	-0.00072273484
50	0xba22a9d5	-0.00062051165
51	0x3c5fb44b	0.013653825
52	0xb80e463c	-3.392085e-05
53	0x3ad9df2c	0.0016622297
54	0x3a4968fd	0.0007683186
55	0x3b30c3a9	0.0026972091
56	0x3b8cbe1d	0.004295124
57	0xba196cdb	-0.00058527075
58	0x3a9abc89	0.0011805455
59	0x3c618385	0.013764267
60	0xba3190d7	-0.0006773597
61	0x3d7045e3	0.0586604
62	0x3b6fa630	0.0036567561
63	0xbc265c15	-0.01015379
64	0x3b5bbe75	0.003353027
65	0xbb4b8745	-0.0031055969
66	0x3c61c8d7	0.013780794
67	0x39b1d6c6	0.0003392009
68	0xba4508d5	-0.00075162697
69	0xbc323605	-0.010877137
70	0xbd586148	-0.05282715
71	0xbaa937d4	-0.0012910315
72	0xbbb7f514	-0.0056139324
73	0x3c4576c3	0.012052241
74	0x3c34239f	0.010994821
75	0x3aecbc37	0.0018061463
76	0xbb298c41	-0.0025870951
77	0x3c4fe78a	0.012689481
78	0x373a2bbc	1.1096647e-05
79	0xbb80da46	-0.00393227
80	0x3ac5650b	0.001506002
81	0x39fff519	0.00048820002
82	0x3a4c6900	0.00077976286
83	0x3c7d2f02	0.015453102
84	0xbbd9277a	-0.0066270204
85	0x3b8c3f89	0.004280035
86	0x3b3bb2fa	0.0028640614
87	0x3a940e73	0.001129581
88	0xbda1bb0a	-0.07897003
89	0x3a8b4dcf	0.0010628047
90	0xbca56acf	-0.020192532
91	0xbb7e8c49	-0.003884094
92	0x3a561807	0.00081670325
93	0x3ab9217f	0.0014124362
94	0xbc650d74	-0.013980258
95	0xbcc8fb2f	-0.024533836
96	0x3aaf15f4	0.0013357983
97	0xbb2ba195	-0.002618884
98	0x3dc314a5	0.09525422
99	0xbb58c78c	-0.0033077924
100	0x3a75016c	0.000934622
101	0x3b36b68a	0.0027879798
102	0xbc791611	-0.015203015
103	0x3ad8cd0a	0.0016540599
104	0xba94ac67	-0.0011342884
105	0x3920bd5c	0.00015329331
106	0xba167f84	-0.0005741047
107	0xb9aa1733	-0.00032442212
108	0x3d8a0664	0.067395
109	0x3cbe637d	0.0232408
110	0x3ac1707b	0.0014758253
111	0x3ae4b9ec	0.0017450429
112	0xbc6aa647	-0.01432187
113	0x39999d70	0.00029299734
114	0xbd734216	-0.059389196
115	0x3a496247	0.0007682186
116	0x3a655e33	0.00087496935
117	0xbaa7d8fb	-0.0012805754
118	0xbaa053a8	-0.0012231963
119	0x39aeff8e	0.0003337827
120	0x3b5b6a70	0.003348019
121	0xba9f4051	-0.0012149905
122	0x3c95c56f	0.01828262
123	0x39cd35c3	0.00039140703
124	0xbb5c25d3	-0.003359188
125	0x3ad145d1	0.0015966241
126	0x3b3f3d7e	0.002918094
127	0x3ba33834	0.004981065
128	0xb85e747f	-5.303742e-05
129	0xba2a231b	-0.00064902165
130	0xbc4ed47e	-0.012623904
131	0xbc54365b	-0.0129524125
132	0x3baf1ace	0.0053437715
133	0xba72d51b	-0.00092633226
134	0x3acafab1	0.0015486089
135	0xb97c5a59	-0.0002406625
136	0xbcea5539	-0.02860509
137	0xba3f39e1	-0.00072946964
138	0xbb271fbe	-0.0025501098
139	0x3a547113	0.00081040076
140	0x3bd0e8e2	0.006375418
141	0xbb81272e	-0.003941438
142	0xbc2b1dfd	-0.0104441615
143	0xba31130f	-0.0006754854
144	0x39ab7cab	0.00032708546
145	0x3a1e09a8	0.00060286606
146	0x3a2b943d	0.00065452215
147	0xbaa75bdd	-0.0012768466
148	0x3c808ee2	0.015693132
149	0x3ae225e0	0.0017253719
150	0xbb263423	-0.0025360666
151	0xbacc70cc	-0.0015597581
152	0xbac37261	-0.0014911407
153	0xbca9eb44	-0.020742066
154	0x3b5c1310	0.0033580698
155	0x3bb1ac80	0.005422175
156	0xbb40956c	-0.0029385937
157	0xbc954f9e	-0.018226441
158	0x3db21342	0.086950794
159	0x3c15030b	0.009094964
160	0x3a159f66	0.0005707651
161	0xba7fea4f	-0.0009762393
162	0x398dfaa4	0.00027080358
163	0xbb8f184a	-0.004366909
164	0x3b26367d	0.0025362067
165	0xbc6108e3	-0.013735029
166	0x3b595845	0.0033164185
167	0x38d45881	0.00010125433
168	0x3d4845f3	0.048894834
169	0xba6836f7	-0.0008858288
170	0xbbdd485b	-0.00675301
171	0x3c649bbc	0.013953146
172	0x3ba96fb6	0.0051707877
173	0xbaa31d7e	-0.0012444702
174	0xba2adeb1	-0.0006518169
175	0x3d854aa5	0.06508378
176	0xbc3b22cd	-0.011421871
177	0x3b8bdfbe	0.0042686155
178	0x3b1c8d24	0.0023887837
179	0x3a099021	0.0005247612
180	0xbbc4ebd9	-0.0060095605
181	0x3b0e34a7	0.0021698864
182	0xba4fee77	-0.00079319574
183	0x3b013699	0.001971638
184	0x3a5f5a7c	0.0008520258
185	0x3b46d2fc	0.0030338159
186	0x3b2fddc6	0.0026835068
187	0x3d07d861	0.03316534
188	0xbb1b4ee1	-0.0023698139
189	0xbcaacf55	-0.020850817
190	0x3b99e2fa	0.004696247
191	0x3aaa0a63	0.0012973066
192	0x3b4362d1	0.0029813538
193	0xbaf5074f	-0.0018694195
194	0x3b25a711	0.0025276581
195	0x3a9885ef	0.0011636595
196	0xbc4414e2	-0.0119678695
197	0xbd68176e	-0.05666297
198	0x3cea441c	0.02859693
199	0x3c978679	0.018496739
200	0xbb03b13e	-0.0020094658
201	0xba0be66c	-0.0005336765
202	0xbbd51359	-0.0065025506
203	0x3bb0050b	0.005371695
204	0x3b11be40	0.0022238642
205	0xbb83163e	-0.004000454
206	0xbb63bcc4	-0.0034749964
207	0x3c9096ce	0.017650034
208	0x3c0f3ad0	0.008742049
209	0x3b616553	0.003439267
210	0xbc463d3c	-0.01209956
211	0x3b835a8f	0.004008598
212	0x3ab791bd	0.0014005225
213	0xba20debc	-0.00061367056
214	0x3a910499	0.0011063992
215	0x39d24051	0.0004010224
216	0xbb6aca35	-0.0035826091
217	0xbbc96158	-0.0061456375
218	0x3bce12fb	0.0062888837
219	0xb946189b	-0.00018891918
220	0x3bd8c674	0.0066154543
221	0x3c2c578f	0.0105189225
222	0x3b8882c8	0.004165981
223	0xba0784df	-0.00051696406
224	0xbd8e8783	-0.069594406
225	0xbb881ce3	-0.004153834
226	0x3adad06d	0.0016694196
227	0x3b548e9c	0.0032433635
228	0xba803a31	-0.0009782967
229	0xbc84b7df	-0.016200958
230	0xbb4141f7	-0.002948878
231	0xba51a759	-0.0007997654
232	0x3d9d9a0d	0.076953985
233	0xbae6e8b7	-0.0017616962
234	0x3a7e9961	0.00097121863
235	0x3afb652d	0.0019179933
236	0x3af68818	0.001880887
237	0xba168406	-0.0005741719
238	0x3b0eb3a8	0.0021774564
239	0xbda48073	-0.08032312
240	0x3b23912d	0.0024958358
241	0x3a0d36bb	0.00053868786
242	0x3a112d2d	0.0005538043
243	0x3ca560f2	0.020187829
244	0x3c995fb5	0.018722394
245	0xba8288ce	-0.0009958984
246	0xbb162a08	-0.0022913236
247	0xba559d7a	-0.0008148771
248	0xbcce7a85	-0.025204906
249	0xb9136a56	-0.00014058626
250	0xbbf143b9	-0.0073628095
251	0xbd10488b	-0.035225432
252	0xbb2c2a26	-0.002627024
253	0x3b7973f8	0.0038063508
254	0xb9fdf43d	-0.00048437892
255	0xba66c2b1	-0.0008802815

a2c_network.mu.bias f4 [6]
0	0xbd8a4e74	-0.06753245
1	0x3daaf0c8	0.08346707
2	0xbd6341e9	-0.05548278
3	0x3be460f7	0.006969567
4	0xbdb464a0	-0.08808255
5	0xbeb7c2cb	-0.35890803

exp_avg f4 [6]
0	0x39b31447	0.00034156648
1	0xba8611d0	-0.0010228697
2	0x39838dda	0.00025091955
3	0x3abc84d9	0.0014382853
4	0xb9b06b86	-0.00033649447
5	0x37e34156	2.7090933e-05

exp_avg_sq f4 [6]
0	0x3806d8d7	3.2150037e-05
1	0x37ef890d	2.855484e-05
2	0x37e9ae3c	2.7856899e-05
3	0x381d0508	3.7436403e-05
4	0x38054a5e	3.177893e-05
5	0x37e35c92	2.7103615e-05
