logs/rl_games/yam_cube_sort_8192/2026-02-01_08-29-07/nn/last_yam_cube_sort_8192_ep_250_rew_1309.9512.pth (torch, 953214 bytes, 30 tensors)

value_mean_std.running_mean f8 [1]
0.45149899266410654
00000000: 82d5 ea07 5ce5 dc3f

value_mean_std.running_var f8 [1]
0.006132059676802059
00000000: 66c3 4d3c ee1d 793f

value_mean_std.count f8 []
131072001.0
00000000: 0000 0004 0040 9f41

running_mean_std.running_mean f8 [40]
0.9907480012398079 0.009239425518197224 1.2557983206817893e-05 0.009251983501404062 1.2557983206817893e-05 0.0 0.11680842141454177 -0.01940738513972443
0.20667333480144295 0.12535099753201867 -0.012818496798424643 0.1985016039831098 0.07173311871171423 0.14818452450274003 0.0001706654139422514 0.012704241118723255
0.14900655213620156 -0.000529068137780732 0.012704444445995992 0.14769862335557643 -6.071491063027946e-05 0.012703456488313673 -1.7581589105275273e-05 6.271759017433712e-05
-0.0002661550564613739 2.8355224875920906e-05 6.710044691157371e-05 -0.00026164555149108963 -2.3744274563466447e-05 6.235153258050085e-05 -0.00027306954604469245 0.07776039161344407
0.13856455099746434 0.00999999031066908 0.317758953938109 -6.623426775341019e-10 0.00999999031066908 0.07776039161344407 -0.13856455099746434 0.00999999031066908
00000000: fddf fc26 35b4 ef3f 3cd3 79b3 1eec 823f
00000010: 0180 d511 0456 ea3e a848 7e34 b4f2 823f
00000020: 0180 d511 0456 ea3e 0000 0000 0000 0000
00000030: a372 df1d 28e7 bd3f a96a e791 87df 93bf
00000040: e2b6 f696 4574 ca3f 3ae3 7561 800b c03f
00000050: 8fd1 4384 9540 8abf d8ce a724 8068 c93f
00000060: 7c2a e806 1a5d b23f 319c 41e3 b5f7 c23f
00000070: 5b6b 2dbe 945e 263f 7ed9 0061 ae04 8a3f
00000080: 3e48 288e a512 c33f 4117 b02c 2556 41bf
00000090: 5c74 46ab c904 8a3f 6afb 7cda c9e7 c23f
000000a0: 052e bd71 04d5 0fbf 62c7 4e11 4504 8a3f
000000b0: 5119 7f9a 856f f2be 17ae a6fe e770 103f
000000c0: 78e3 5e43 5771 31bf 3a34 5937 8cbb fd3e
000000d0: dbd6 6ee6 0897 113f b566 3816 af25 31bf
000000e0: d235 9c1f cee5 f8be 78e1 532c 5758 103f
000000f0: b851 11c5 58e5 31bf a965 e7e2 1ae8 b33f
00000100: e4a2 75b3 7bbc c13f ebd2 c1fa df7a 843f
00000110: e938 cba6 2956 d43f 7189 2c1e 07c2 06be
00000120: ebd2 c1fa df7a 843f a965 e7e2 1ae8 b33f
00000130: e4a2 75b3 7bbc c1bf ebd2 c1fa df7a 843f

running_mean_std.running_var f8 [40]
0.009166693386542416 0.00915435253248694 1.2573468281362558e-05 0.00916667867225468 1.2573468281362558e-05 1.525878882966929e-08 0.11216256806928987 0.07184983062034375
0.01773880204938233 0.09001938887315677 0.04883079852633308 0.015020581672109172 0.016043235617990658 0.0035469503006373927 0.003028754879459575 5.387550129585835e-07
0.00317373120627576 0.002958689966569476 3.7827003813815593e-07 0.003499658139342483 0.003099061265700413 4.0194893073030064e-07 0.0007375965927399569 0.0010569207611433326
0.0001212450852670148 0.0006574470604738014 0.0010669654648196578 0.000118820473436869 0.0007469236728086644 0.0010679171281242398 0.00012736773686963064 1.535402299248818e-08
1.5552308016135112e-08 1.5260314705618732e-08 1.6802177842150243e-08 1.525878886869725e-08 1.5260314705618732e-08 1.535402299248818e-08 1.5552306971513112e-08 1.5260314705618732e-08
00000000: 0216 76c2 fcc5 823f 2bd7 f165 84bf 823f
00000010: f965 7552 545e ea3e a0d7 e1c8 fac5 823f
00000020: f965 7552 545e ea3e 00ec bfce 4d62 503e
00000030: bc66 b1a1 afb6 bc3f d6cd bc20 c064 b23f
00000040: 5073 b0da 1e2a 923f 4a53 37bb 820b b73f
00000050: ae94 6ab5 5900 a93f 7c8b 6358 1cc3 8e3f
00000060: f385 3451 a36d 903f 7638 5671 7e0e 6d3f
00000070: 6dc5 f464 c2cf 683f 2056 73cd de13 a23e
00000080: 418b 97f7 cbff 693f 3c46 a794 d23c 683f
00000090: a87b b338 a162 993e dc55 2ea8 50ab 6c3f
000000a0: 6f7d 1ad9 3363 693f 422c aa17 6ef9 9a3e
000000b0: 57ab 299f 682b 483f 04f5 a006 0c51 513f
000000c0: 0a42 3fb4 9ec8 1f3f 1fad d1cf 108b 453f
000000d0: ff4b c071 2d7b 513f 3a91 a530 e825 1f3f
000000e0: 6d3a a85f a679 483f 96eb f748 2b7f 513f
000000f0: f122 6287 c0b1 203f 0512 e950 7b7c 503e
00000100: 5749 5862 fcb2 503e 2ab4 7c2e b962 503e
00000110: 55c6 7927 8c0a 523e 15e8 73cf 4d62 503e
00000120: 2ab4 7c2e b962 503e 0512 e950 7b7c 503e
00000130: 5cd1 864f fcb2 503e 2ab4 7c2e b962 503e

running_mean_std.count f8 []
65536001.0
00000000: 0000 0008 0040 8f41

a2c_network.sigma f4 [6]
-1.5629939 -1.5802015 -1.5733924 1.7308313 1.8535359 0.0019193107
00000000: 2f10 c8bf 0b44 cabf ec64 c9bf e18b dd3f
00000010: aa40 ed3f 6191 fb3a

a2c_network.actor_mlp.0.weight f4 [256, 40]
0.104009144 -0.09395045 0.051605996 0.0876719 0.07646174 -0.069123045 0.15721308 0.23059964
0.09009936 -0.18756026 -0.2639796 -0.028382815 -0.04688547 0.09198603 0.0031872666 0.3613151
0.07745288 -0.07237121 0.07790253 0.016603103 0.055819158 0.058729656 0.0060321395 0.09190606
-0.049962122 0.04995775 -0.039135113 -0.16522573 -0.09262562 -0.2830271 0.23577553 0.29399806
0.34381366 -0.10917155 -0.113997705 -0.07546756 -0.08504534 0.30534837 -0.13168348 0.15269643
0.0443964 -0.22478086 0.07650146 -0.1821619 0.08857304 -0.037520524 0.07820941 -0.23457122
-0.035531748 0.113484755 0.081323735 0.090306975 0.0445409 0.11332409 -0.11914806 0.06738954
0.008963767 0.006137368 -0.18535188 -0.08391485 0.015161379 -0.13858733 -0.08665083 0.041458137
0.21143407 -0.014018399 -0.025452826 -0.03716639 -0.005207531 0.080308296 0.14634287 -0.10877833
0.08469928 -0.09532073 -0.2177733 -0.040398482 0.07687407 -0.27776894 -0.1017132 -0.04250824
-0.007707385 -0.05444097 -0.030545646 -0.10320835 -0.12811767 -0.092243925 -0.10013557 -0.29672644
0.013095252 -0.03275876 0.14050373 0.019122757 -0.03400955 0.03646536 -0.023948142 -0.51655084
-0.06929846 0.02511526 0.13620009 0.048015293 -0.02161178 -0.20410606 0.07709209 0.08084813
-0.101350926 0.043034207 0.014376338 0.30122697 -0.117035866 -0.016964536 -0.24695815 -0.22984795
-0.11158686 -0.12594023 0.42180488 -0.11778309 0.07691024 -0.10627315 0.146354 -0.09307759
0.23378608 -0.047523946 0.07904607 -0.22108671 0.12508084 -0.023720339 -0.02478737 0.14675592
0.07941565 -0.04115659 -0.115540385 -0.013847577 0.05378511 -0.069587424 0.02517383 0.050822522
-0.027591474 0.0418379 -0.09527267 -0.02169521 0.057791743 0.3604987 -0.003979585 -0.024146149
0.02897127 0.24971686 -0.06438344 -0.08870096 0.07341491 -0.047007207 0.014840265 -0.28373086
0.29805085 0.16586359 -0.3640545 -0.045213915 0.0322875 -0.24605358 -0.16031887 0.07428918
-0.1861468 -0.01512439 0.12926993 0.103892736 -0.011747237 -0.09532777 -0.1584643 -0.19026332
-0.12829393 0.21516818 0.14150243 0.2064149 -0.14404832 0.059033766 -0.043478664 -0.39796242
0.017611085 0.01805183 -0.50931233 -0.029943503 -0.022871487 0.25816867 -0.10904737 0.04860561
-0.13074137 -0.078362584 0.098564684 -0.031925116 -0.2798776 0.0134663815 -0.1980989 -0.33269146
-0.030862814 0.13677052 0.38097376 0.02074948 0.0021683217 -0.5708439 -0.03187796 -0.14417462
0.034487598 -0.05384923 -0.01626004 -0.06770224 -0.013251377 -0.11128607 -0.1772628 0.20125659
0.024121366 0.16035941 -0.036385093 -0.0515397 -0.10614543 0.112998985 -0.029642813 -0.20045969
0.117213406 -0.0077355183 0.37036055 -0.0024456533 0.08517338 0.097447865 0.14422 -0.30532864
0.032833695 0.35333824 0.012865902 0.1596545 0.021380387 0.0009575095 0.283548 -0.18710689
0.28387612 0.0990988 -0.12169626 -0.061080292 -0.14911884 0.0054044854 -0.10440323 -0.17657799
0.1152101 -0.23895517 0.032555252 -0.2201258 -0.018247519 -0.050194655 -0.07013372 0.12653922
0.11931875 0.07729709 -0.052972805 -0.040011503 -0.1999794 -0.11287179 0.058489747 0.26515284
00000000: bf02 d53d 1869 c0bd cf60 533d 538d b33d
00000010: f997 9c3d 6290 8dbd 77fc 203e 5022 6c3e
00000020: 0386 b83d cc0f 40be 5628 87be 1483 e8bc
00000030: fb0a 40bd 2c63 bc3d 76e1 503b 4bfe b83e
00000040: 9e9f 9e3d 5b37 94bd 5d8b 9f3d 3b03 883c
00000050: a1a2 643d 828e 703d 41a9 c53b 3f39 bc3d
00000060: 15a5 4cbd 7fa0 4c3d 244c 20bd ef30 29be
00000070: 80b2 bdbd eee8 90be 246f 713e ea86 963e
00000080: 5808 b03e 5595 dfbd a177 e9bd bc8e 9abd
00000090: 402c aebd 9f56 9c3e 09d8 06be 745c 1c3e
000000a0: 00d9 353d f42c 66be ccac 9c3d a688 3abe
000000b0: c865 b53d 1faf 19bd 412c a03d 7033 70be
000000c0: bd89 11bd b26a e83d 0f8d a63d ddf2 b83d
000000d0: 8570 363d 7616 e83d e603 f4bd 8703 8a3d
000000e0: c4dc 123c f91b c93b e2cc 3dbe 8ddb abbd
000000f0: 6f67 783c d6e9 0dbe fe75 b1bd 02d0 293d
00000100: 2c82 583e 6dad 65bc 7282 d0bc c93b 18bd
00000110: f0a3 aabb ad78 a43d e8da 153e 2cc7 debd
00000120: d176 ad3d 8437 c3bd f7ff 5ebe e178 25bd
00000130: 2770 9d3d bb37 8ebe 034f d0bd 1f1d 2ebd
00000140: 3b8e fcbb 7ffd 5ebd dd3a fabc e65e d3bd
00000150: 4731 03be 62ea bcbd e113 cdbd 87ec 97be
00000160: 788d 563c 0d2e 06bd 36e0 0f3e 54a7 9c3c
00000170: 994d 0bbd b45c 153d e52e c4bc ad3c 04bf
00000180: 5aec 8dbd 85be cd3c 0978 0b3e afab 443d
00000190: 300b b1bc 2e01 51be 75e2 9d3d b493 a53d
000001a0: 1391 cfbd a344 303d bb8a 6b3c 6c3a 9a3e
000001b0: 80b0 efbd 36f9 8abc 99e2 7cbe 435d 6bbe
000001c0: a787 e4bd 7af6 00be cff6 d73e 4338 f1bd
000001d0: 1e83 9d3d bda5 d9bd d3dd 153e 779f bebd
000001e0: 9e65 6f3e 78a8 42bd e8e2 a13d 8e64 62be
000001f0: 3115 003e 2851 c2bc e20e cbbc 2f47 163e
00000200: aca4 a23d d093 28bd 70a0 ecbd f3e0 62bc
00000210: c74d 5c3d da83 8ebd 5939 ce3c 472b 503d
00000220: 8407 e2bc 385e 2b3d 511e c3bd 27ba b1bc
00000230: 09b7 6c3d 4993 b83e 2e67 82bb 25ce c5bc
00000240: 2855 ed3c c7b5 7f3e 77db 83bd d9a8 b5bd
00000250: 8e5a 963d a18a 40bd 9524 733c 2c45 91be
00000260: 1f9a 983e 25d8 293e 5a65 babe 3a32 39bd
00000270: e63f 043d 78f5 7bbe a12a 24be ed24 983d
00000280: 449d 3ebe 4acc 77bc 565f 043e b7c5 d43d
00000290: 7c77 40bc 353b c3bd 7744 22be 63d4 42be
000002a0: 7c5f 03be 0c55 5c3e 03e6 103e 6d5e 533e
000002b0: 6781 13be 64cd 713d af16 32bd bbc1 cbbe
000002c0: 1f45 903c 6ee1 933c 4b62 02bf 144c f5bc
000002d0: fc5c bbbc af2e 843e 3a54 dfbd ad16 473d
000002e0: 11e1 05be 907c a0bd 48dc c93d e9c3 02bd
000002f0: 1e4c 8fbe 19a2 5c3c 70da 4abe 8956 aabe
00000300: 03d4 fcbc 920d 0c3e fe0e c33e d0fa a93c
00000310: 671a 0e3b d322 12bf 7792 02bd 83a2 13be
00000320: de42 0d3d 0391 5cbd c733 85bc 79a7 8abd
00000330: 4e1c 59bc f3e9 e3bd 6184 35be 3516 4e3e
00000340: 2c9a c53c 4235 243e 8908 15bd 4b1b 53bd
00000350: c662 d9bd 036c e73d 7cd5 f2bc 4e45 4dbe
00000360: 950d f03d 3b7a fdbb e69f bd3e 4147 20bb
00000370: 626f ae3d bf92 c73d 68ae 133e 0954 9cbe
00000380: a07c 063d c0e8 b43e 81cb 523c 787c 233e
00000390: ec25 af3c 6001 7b3a 342d 913e f398 3fbe
000003a0: 3658 913e 50f4 ca3d e43b f9bd 542f 7abd
000003b0: 9cb2 18be 1c18 b13b 5cd1 d5bd dcd0 34be
000003c0: 46f3 eb3d aab0 74be a858 053d a868 61be
000003d0: d27b 95bc e998 4dbd 45a2 8fbd 7f93 013e
000003e0: 645d f43d f04d 9e3d 03fa 58bd 1ae3 23bd
000003f0: 66c7 4cbe 5329 e7bd f292 6f3d 1dc2 873e

a2c_network.actor_mlp.0.bias f4 [256]
0.026027761 0.07333692 -0.10829364 0.03995921 0.05053341 -0.0883838 0.1375107 0.2005475
0.1705885 0.18033192 0.11055645 -0.051579453 0.08182013 0.23710117 0.2327864 -0.20262587
-0.10249496 0.15524541 -0.0315669 0.13799591 -0.27446106 0.10338641 0.17711152 -0.19749242
0.11482958 0.32618964 0.13559729 0.22858843 0.2419574 0.19202565 0.15389667 0.21844003
-0.027784336 -0.032246042 -0.305263 0.0635809 0.16432704 0.09044756 0.28465044 0.22892976
-0.2500117 0.10949398 -0.008316858 -0.026748825 0.16239116 0.019213056 0.17076427 -0.28792387
0.2893027 0.075298496 0.07398607 -0.12189212 -0.25773787 -0.16962388 -0.017803028 -0.10645081
0.24994962 -0.014364867 -0.031190453 0.15432991 0.1794553 0.23260155 -0.12400743 0.24538533
-0.039570563 -0.30578932 0.23406686 -0.16482866 -0.19225116 -0.13586698 -0.10375013 0.19471903
0.21546564 0.14379172 -0.0022480919 -0.36868322 0.1695215 -0.2243716 0.08856896 0.28710917
-0.20837228 0.18579388 -0.22441433 0.19291236 0.09040828 0.15798025 0.08238133 0.082267016
0.21886912 0.10757868 -0.0525302 0.23373897 0.22972773 0.0011938986 -0.0044590426 -0.10171651
0.034552764 0.18048574 0.07434058 0.09917109 -0.26769662 0.14276542 0.06259059 0.07722155
0.10023324 -0.14835055 -0.31362164 0.16355416 0.15560378 0.14848545 -0.069737114 0.17836185
-0.19026057 0.20061642 0.19075392 -0.16042218 0.12044878 0.028723018 -0.115706235 -0.018656464
0.20842859 -0.044077627 0.042009514 -0.035653625 -0.097546294 -0.06772477 0.08741569 0.0050420314
0.23926908 0.21438824 -0.2453685 0.08279284 0.16971378 0.110715464 0.21854596 0.16108677
-0.12646498 0.10689919 0.024297586 0.12122142 -0.12267059 0.06641541 0.28080237 0.08691034
-0.07165256 0.30868644 0.080467336 0.09906644 0.12791172 0.07080378 -0.12102669 0.16951758
0.09951853 -0.2617418 0.014325815 0.2224046 -0.1218355 -0.13919877 -0.21949117 0.0730311
-0.18441553 0.09133069 -0.111287564 -0.07589192 0.23653355 0.11238358 -0.047448 -0.06119076
0.18824275 -0.25095648 0.18194304 -0.15543458 -0.13235568 0.1798746 -0.27938262 0.17777993
-0.02424796 0.17875211 0.08370578 0.053713504 -0.27925017 -0.118958935 0.07066926 -0.16941614
0.16530834 0.04499043 0.14532082 0.22268641 -0.005758011 -0.09129746 0.14216538 0.14524111
0.055779167 -0.15566945 0.24456893 -0.012850718 0.093786016 -0.20714135 0.15467268 0.27488977
0.06284287 0.11586346 0.11070725 0.16372222 -0.073433496 -0.011291095 0.17742856 -0.38372898
-0.044052687 0.12889786 0.32135093 -0.15475777 0.03618316 -0.016453238 -0.049492873 0.14261873
0.18759325 0.12453403 0.18141983 -0.043156803 -0.12391363 0.13959147 0.20803344 0.16274968
0.09360903 0.13299686 -0.013430133 0.13478331 0.06765022 -0.13404165 0.17620723 -0.33231464
-0.045685995 0.1597917 0.099266276 -0.103372484 0.04711104 -0.09511572 -0.17419398 0.024010796
-0.12465684 -0.31344363 0.041216314 0.17570484 0.09430163 -0.1832463 -0.08659665 0.098732226
0.031972222 -0.13174187 0.16993415 -0.3196632 0.07853421 -0.26893923 -0.055349965 -0.1870761
00000000: 2c38 d53c ab31 963d 0ec9 ddbd 45ac 233d
00000010: 1ffc 4e3d 9102 b5bd 9bcf 0c3e 535c 4d3e
00000020: c0ae 2e3e eea8 383e 6c6b e23d fa44 53bd
00000030: 5091 a73d a6ca 723e 8f5f 6e3e 287d 4fbe
00000040: e1e8 d1bd a7f8 1e3e 4b4c 01bd cd4e 0d3e
00000050: 2986 8cbe 41bc d33d b95c 353e 743b 4abe
00000060: c52b eb3d 5402 a73e 04da 0a3e 1613 6a3e
00000070: aec3 773e 5fa2 443e 1797 1d3e beae 5f3e
00000080: fa9b e3bc 6d14 04bd 6f4b 9cbe b436 823d
00000090: 5945 283e 923c b93d b4bd 913e 906c 6a3e
000000a0: 8901 80be 613e e03d 6e43 08bc 5a20 dbbc
000000b0: de49 263e b364 9d3c d4dc 2e3e c26a 93be
000000c0: 7c1f 943e 1936 9a3d 0286 973d 93a2 f9bd
000000d0: 38f6 83be e2b1 2dbe a8d7 91bc e202 dabd
000000e0: cbf2 7f3e 9e5a 6bbc 1f83 ffbc a908 1e3e
000000f0: 21c3 373e 1a2f 6e3e 9cf7 fdbd 4b46 7b3e
00000100: be14 22bd 6b90 9cbe 39af 6f3e d8c8 28be
00000110: 7ddd 44be b720 0bbe f37a d4bd 6d64 473e
00000120: 06a3 5c3e 233e 133e b954 13bb 0cc4 bcbe
00000130: 0b97 2d3e abc1 65be a563 b53d f9ff 923e
00000140: 8b5f 55be c040 3e3e dfcc 65be d18a 453e
00000150: fa27 b93d 93c5 213e 8bb7 a83d 9c7b a83d
00000160: 3a1f 603e 3652 dc3d e829 57bd 4559 6f3e
00000170: bf3d 6b3e 977c 9c3a 291d 92bb bf50 d0bd
00000180: 3387 0d3d 41d1 383e e03f 983d 361a cb3d
00000190: 880f 89be 1931 123e 7f2f 803d 5526 9e3d
000001a0: 1647 cd3d 35e9 17be 0493 a0be be7a 273e
000001b0: 9956 1f3e 920c 183e 55d2 8ebd 7da4 363e
000001c0: abd3 42be 646e 4d3e ff54 433e b645 24be
000001d0: daad f63d 894c eb3c 64f7 ecbd 71d5 98bc
000001e0: 4e6e 553e be8a 34bd 2b12 2c3d 8909 12bd
000001f0: 5ac6 c7bd 49b3 8abd ff06 b33d a037 a53b
00000200: f402 753e 9788 5b3e e141 7bbe 4b8f a93d
00000210: 73c9 2d3e cabe e23d 83ca 5f3e eef3 243e
00000220: 0980 01be f6ed da3d bb0b c73c f042 f83d
00000230: b83a fbbd cd04 883d 54c5 8f3e 0cfe b13d
00000240: 94be 92bd 260c 9e3e 0fcc a43d 58e3 ca3d
00000250: 4afb 023e 9201 913d d7dc f7bd 0496 2d3e
00000260: 5fd0 cb3d 0503 86be d3b6 6a3c 08be 633e
00000270: e484 f9bd 1f8a 0ebe 4bc2 60be 5491 953d
00000280: 6dd7 3cbe 960b bb3d bcea e3bd 396d 9bbd
00000290: da35 723e 5d29 e63d d658 42bd 2aa3 7abd
000002a0: b5c2 403e 5e7d 80be 474f 3a3e 3e2a 1fbe
000002b0: 3f88 07be 0c31 383e 3d0b 8fbe f10b 363e
000002c0: a8a3 c6bc cb0a 373e f06d ab3d b102 5c3d
000002d0: e1f9 8ebe bea0 f3bd 0cbb 903d 6d7b 2dbe
000002e0: 9746 293e e347 383d fbce 143e e807 643e
000002f0: b2ad bcbb 2afa babd cd93 113e 16ba 143e
00000300: b278 643d d067 1fbe 4770 7a3e d18b 52bc
00000310: e212 c03d dd1c 54be 8462 1e3e 5abe 8c3e
00000320: c3b3 803d d249 ed3d 7cba e23d cca6 273e
00000330: 4d64 96bd 49fe 38bc d5af 353e 2078 c4be
00000340: 9770 34bd cdfd 033e 1c88 a43e d278 1ebe
00000350: cb34 143d f1c8 86bc 0ab9 4abd a50a 123e
00000360: 7218 403e b30b ff3d 1fc6 393e 30c5 30bd
00000370: 6ec6 fdbd 11f1 0e3e b806 553e daa7 263e
00000380: 17b6 bf3d 5430 083e 100a 5cbc a304 0a3e
00000390: 338c 8a3d 3742 09be ab6f 343e 2525 aabe
000003a0: 3d21 3bbd 6fa0 233e 1e4c cb3d f4b4 d3bd
000003b0: 82f7 403d 08cc c2bd e85f 32be 4ab2 c43c
000003c0: 164c ffbd af7b a0be 70d2 283d f8eb 333e
000003d0: 3721 c13d eba4 3bbe 9659 b1bd 1f34 ca3d
000003e0: 4ef5 023d 57e7 06be 3803 2e3e e5aa a3be
000003f0: 8bd6 a03d 67b2 89be a5b6 62bd e190 3fbe

a2c_network.actor_mlp.2.weight f4 [256, 256]
0.035683565 0.0008802028 -0.115424454 -0.01591849 -0.10154496 0.10274188 -0.09154738 -0.13084193
-0.054228023 -0.12515937 -0.006320193 -0.03698865 0.07455015 -0.011225698 -0.09194629 0.019572087
-0.004179359 -0.047637355 -0.032488644 -0.03941097 0.0067459517 -0.08898721 -0.04184242 0.040940903
0.02245296 -0.111954734 -0.15579863 -0.063336484 0.0026552274 -0.052414153 -0.057283685 -0.16937564
0.0405543 -0.13956872 0.084293 -0.03223569 0.06272604 -0.0355223 -0.068787396 -0.04575461
0.034262545 0.024357669 -0.0021782443 -0.06696563 -0.10786686 -0.011518704 -0.18894576 0.025154151
-0.08980362 -0.0923511 -0.030454375 -0.09574217 -0.013713046 0.032136112 -0.03335064 -0.02195044
-0.029272359 -0.027597573 -0.036140945 -0.03861591 -0.04068442 -0.06301562 -0.012484968 -0.05219878
-0.05207552 0.040301275 -0.04050035 0.06258558 -0.045849163 -0.005122593 0.08710833 -0.02369539
0.03672257 -0.016219657 -0.04846307 -0.053725228 -0.05492991 -0.07745008 -0.10338774 -0.14367358
-0.046208166 -0.0047221472 0.011326852 -0.11588355 0.04498413 -0.016971398 -0.0103284875 -0.027855556
-0.0028024493 0.011838438 -0.05290632 -0.09432034 0.0070614736 0.0025020877 -0.0028318446 -0.07786175
-0.04182518 -0.0185722 -0.044382397 -0.090674065 0.04259891 0.02376452 0.0069670277 -0.09234606
-0.014263906 0.06890625 0.023609819 0.1035619 0.03478936 0.031761695 0.092452414 -0.06456033
-0.093592055 -0.18406922 -0.060107287 0.01972537 -0.01716627 0.024302468 0.04012528 0.05955195
-0.041360628 -0.023536218 0.0075817094 -0.03257499 -0.04826409 -0.07672244 -0.07021806 0.008713515
-0.105245635 -0.057855327 -0.0076271812 0.024179216 -0.07655933 -0.08864006 0.112603866 -0.07035862
0.044367794 -0.030347666 -0.03517925 0.00026828347 0.0699859 -0.007939081 -0.024880733 -0.086245306
0.0067575783 -0.17645036 -0.005987544 -0.09599374 0.0067972336 0.031841144 0.01460678 -0.056898993
0.06059938 -0.06451473 0.015653418 -0.10204123 0.034462426 0.06544591 0.049893353 -0.023289433
-0.036350876 -0.011565969 -0.0689993 -0.0015826409 -0.036584947 -0.035438847 0.048195176 0.022054717
-0.0505383 0.023086945 0.10640937 0.02451896 0.022969676 0.021005321 0.06484857 -0.039843503
-0.045896597 -0.043162238 -0.019289255 -0.08978643 -0.058343843 0.09390642 -0.008865992 -0.045221902
-0.02039455 -0.040745907 -0.026327793 0.017438129 -0.10733914 0.0058168243 0.014690943 0.0029735195
0.058910187 -0.0138102565 -0.08406032 -0.1206453 -0.041840274 0.04322515 0.019510543 -0.17138903
0.021479225 -0.033107016 -0.046245765 0.0058771526 0.04602367 -0.011528052 0.08247641 0.03243933
-0.029224174 -0.12592284 -0.104754 -0.009941128 -0.0039064838 0.06916141 -0.06592412 -0.03914013
-0.07892958 -0.05453903 -0.009716619 -0.07180378 -0.12480047 -0.06713428 -0.08304852 -0.08159147
0.018910823 -0.04037436 -0.11625635 0.03014604 0.07988791 0.07960324 -0.0022053532 -0.0858405
0.106482804 0.002124296 0.032155823 0.10081508 -0.123252556 0.0690045 -0.049384423 0.010006012
-0.14129308 0.054566525 0.004808811 -0.010120585 0.09668457 -0.08113293 -0.04949739 0.009230859
-0.045784567 -0.009348399 -0.05066775 -0.046480943 0.0076868758 0.06808159 -0.04876898 -0.043620914
00000000: ee28 123d 69bd 663a a863 ecbd 7e67 82bc
00000010: cef6 cfbd 566a d23d 317d bbbd 6dfb 05be
00000020: 341e 5ebd c729 00be 9f19 cfbb 6981 17bd
00000030: c0ad 983d fdeb 37bc 564e bcbd a455 a03c
00000040: 01f3 88bb 631f 43bd d012 05bd 666d 21bd
00000050: 250d dd3b ed3e b6bd f562 2bbd a6b1 273d
00000060: 45ef b73c 8648 e5bd ad89 1fbe 8fb6 81bd
00000070: 5303 2e3b 39b0 56bd 4ca2 6abd cf70 2dbe
00000080: 441c 263d 1aeb 0ebe cfa1 ac3d 9209 04bd
00000090: 8376 803d d57f 11bd 68e0 8cbd 3069 3bbd
000000a0: e256 0c3d bc89 c73c e0c0 0ebb 4725 89bd
000000b0: 4de9 dcbd f2b8 3cbc ff7a 41be 1410 ce3c
000000c0: f6ea b7bd 9322 bdbd 747b f9bc 7914 c4bd
000000d0: afac 60bc 28a1 033d ae9a 08bd 69d1 b3bc
000000e0: 96cc efbc 4e14 e2bc 8708 14bd b72b 1ebd
000000f0: b5a4 26bd 550e 81bd c08d 4cbc 63ce 55bd
00000100: 244d 55bd f312 253d b2e3 25bd de2c 803d
00000110: 55cc 3bbd 6ddb a7bb da65 b23d d61c c2bc
00000120: 686a 163d 16df 84bc 3681 46bd fc0e 5cbd
00000130: 2ffe 60bd 269e 9ebd f4bc d3bd 2b1f 13be
00000140: c644 3dbd 3ebc 9abb 4394 393c 5b54 edbd
00000150: 4741 383d 9a07 8bbc d138 29bc 5631 e4bc
00000160: 4ca9 37bb 02f6 413c 4cb4 58bd 062b c1bd
00000170: ef63 e73b 11fa 233b 7896 39bb fb75 9fbd
00000180: e150 2bbd ba24 98bc 51ca 35bd 53b3 b9bd
00000190: 327c 2e3d d0ad c23c aa4b e43b ee1f bdbd
000001a0: 28b3 69bc b81e 8d3d 6169 c13c 4318 d43d
000001b0: 4a7f 0e3d 8d18 023d b157 bd3d 3538 84bd
000001c0: 31ad bfbd a47c 3cbe 0f33 76bd 1997 a13c
000001d0: 47a0 8cbc f815 c73c 685a 243d bfec 733d
000001e0: c369 29bd 07cf c0bc fd6f f83b 5a6d 05bd
000001f0: 91b0 45bd a820 9dbd 7cce 8fbd 21c3 0e3c
00000200: 068b d7bd b5f9 6cbd 6fed f9bb 7e13 c63c
00000210: 23cb 9cbd eb88 b5bd db9c e63d 2e18 90bd
00000220: 01bb 353d ab9b f8bc 1e18 10bd 66a8 8c39
00000230: c454 8f3d eb12 02bc aed2 cbbc 61a1 b0bd
00000240: ad6e dd3b 67af 34be 2933 c4bb 5e98 c4bd
00000250: 54bb de3b dc6b 023d 4751 6f3c eb0e 69bd
00000260: 0e37 783d 4c20 84bd 993b 803c fefa d0bd
00000270: 7928 0d3d 8108 863d f95c 4c3d 7bc9 bebc
00000280: a8e4 14bd 317f 3dbc 814f 8dbd 9e70 cfba
00000290: 19da 15bd 5328 11bd 4e68 453d 18ac b43c
000002a0: 4001 4fbd d520 bd3c 28ed d93d fcdb c83c
000002b0: e72a bc3c 5a13 ac3c 54cf 843d f132 23bd
000002c0: 12fe 3bbd e3ca 30bd 8004 9ebc f3e1 b7bd
000002d0: f4f9 6ebd 0252 c03d aa42 11bc 9a3a 39bd
000002e0: 7912 a7bc 2ee5 26bd 62ad d7bc 68da 8e3c
000002f0: 9fd4 dbbd 0f9b be3b 48b2 703c 61df 423b
00000300: cf4b 713d 6a44 62bc d127 acbd e214 f7bd
00000310: b560 2bbd db0c 313d 93d4 9f3c 9b80 2fbe
00000320: 33f5 af3c 399b 07bd 336c 3dbd 2195 c03b
00000330: 5183 3c3d 28e0 3cbc 64e9 a83d 1adf 043d
00000340: 8967 efbc ebf1 00be 4489 d6bd 1de0 22bc
00000350: f601 80bb 7fa4 8d3d 3a03 87bd 6751 20bd
00000360: d5a5 a1bd 5164 5fbd 7432 1fbc dc0d 93bd
00000370: 6497 ffbd b37d 89bd 5815 aabd 6e19 a7bd
00000380: dfea 9a3c 965f 25bd cf17 eebd d4f4 f63c
00000390: 469c a33d 0607 a33d b087 10bb 25cd afbd
000003a0: a813 da3d c637 0b3b d3b5 033d 2378 ce3d
000003b0: d66b fcbd 3b52 8d3d 5247 4abd 42f0 233c
000003c0: 22af 10be 2681 5f3d 3b93 9d3b cfd0 25bc
000003d0: 8f02 c63d 0629 a6bd c6bd 4abd 073d 173c
000003e0: 9988 3bbd 072a 19bc fd88 4fbd cd62 3ebd
000003f0: 30e2 fb3b 5c6e 8b3d fbc1 47bd d8ab 32bd

a2c_network.actor_mlp.2.bias f4 [256]
0.018501908 -0.16779275 0.066546045 0.041833926 -0.04849916 0.038813174 0.060585335 -0.08391627
0.042780045 -0.07865152 -0.17951953 0.0468289 0.057379004 -0.0453124 0.066274166 -0.038211852
-0.0035016201 0.049541835 -0.13261987 0.06911628 0.04027561 0.042041976 0.06099207 0.044279404
-0.15933402 0.016112346 -0.22174764 0.025269076 -0.05647193 -0.05821629 0.07245357 -0.19543451
-0.0936003 0.048452903 -0.00016924454 0.05171307 0.032450713 -0.057314124 0.056202985 -0.107669175
-0.028343834 -0.03799529 -0.0389596 0.054736782 0.04120918 -0.11100337 -0.048092615 -0.12658982
0.031189121 -0.06422915 0.0298194 -0.09227235 0.053043827 0.06684155 0.04951596 -0.042997546
-0.060645144 0.026134484 0.016987104 -0.043416373 0.06474149 -0.055932 0.0064691 -0.056343716
-0.076483026 -0.045574527 -0.120540105 -0.06043384 0.024394723 -0.15854983 -0.091378145 -0.02522842
0.040122677 -0.15496905 -0.027169976 0.029330052 -0.07713699 -0.09984702 0.029394023 -0.05126208
-0.056059267 0.09823077 0.084969215 -0.08118377 -0.045973156 -0.016936168 0.026121097 0.059643324
-0.15968505 0.050144784 -0.25099534 -0.03429297 -0.058266748 -0.07705614 -0.013397587 -0.064794004
0.056922752 0.022310281 -0.13209465 0.033666987 -0.066588394 -0.060722657 -0.09598889 -0.048566002
0.061673712 0.039022576 -0.052822612 -0.05826768 -0.26768953 -0.17246097 0.056160875 0.08393686
0.01597557 0.06144181 -0.19571345 0.04847518 -0.07604471 0.05634801 0.053515088 0.02714771
-0.07698148 0.057422224 -0.0536929 0.03666468 0.025981525 -0.081578344 -0.043358523 0.07599825
-0.045361698 0.036089476 -0.048350677 -0.0062551885 -0.044806607 -0.058231995 0.061868083 0.053308185
-0.21844794 0.040866837 -0.20771512 -0.06366833 -0.015759213 0.057795353 -0.116465904 0.035263885
-0.08369884 -0.030494029 0.043711677 0.047074232 -0.052496087 -0.2294272 -0.08115748 0.038771775
0.035409585 -0.1299268 0.05315665 0.02943504 0.05201626 -0.21720204 -0.23771502 -0.099078394
0.06258715 -0.06988085 0.03452005 0.039831232 0.05045827 -0.0737322 -0.07171663 -0.05742194
-0.08282705 -0.05649034 -0.11428077 -0.06413932 -0.074746214 0.06047663 -0.053102456 -0.1322561
-0.07268768 -0.1272523 -0.08171473 0.050598968 -0.123013265 -0.03755343 0.05283676 0.054013126
0.014358711 -0.047157984 -0.10867468 -0.17899324 0.036399152 -0.22433043 -0.07036575 0.051500406
-0.047824986 0.042252805 -0.007704128 -0.06302434 -0.15519631 -0.2074349 -0.17965499 -0.021816038
-0.035368577 -0.037382677 -0.15972197 0.03536366 0.04252761 -0.050085958 0.04490051 -0.20578906
0.00090327335 -0.0892949 -0.15943162 -0.053607263 0.06689787 0.050517023 -0.034138802 0.06046162
0.03951809 -0.031491026 -0.07689933 -0.07611556 -0.17273667 -0.015088019 -0.108776964 0.018473377
-0.27772763 0.02386389 0.04086603 0.066599235 0.057438303 0.004604382 -0.16297929 0.050031006
-0.20383285 0.08142324 0.03191446 0.014511326 0.036158063 -0.089657255 -0.08646897 -0.24326065
0.050360743 0.030372834 -0.10139888 -0.14773849 -0.064541236 -0.03625838 -0.031281188 0.013110161
-0.18286015 -0.063027985 -0.15695843 -0.12657396 0.04582555 -0.06748613 0.055996235 0.04848082
00000000: 5091 973c ddd1 2bbe 4b49 883d 0d5a 2b3d
00000010: 0ea7 46bd 90fa 1e3d 5428 783d 4bdc abbd
00000020: 213a 2f3d 0c14 a1bd f8d3 37be a9cf 3f3d
00000030: 3f06 6b3d 7f99 39bd c0ba 873d 0884 1cbd
00000040: 707b 65bb 61ec 4a3d 81cd 07be d68c 8d3d
00000050: 0af8 243d 3534 2c3d d2d2 793d 525e 353d
00000060: 7528 23be 0afe 833c d011 63be 1801 cf3c
00000070: 1c4f 67bd 3474 6ebd 8a62 943d fc1f 48be
00000080: 84b1 bfbd 8d76 463d 3c77 31b9 16d1 533d
00000090: 0aeb 043d 37c2 6abd 1a35 663d a881 dcbd
000000a0: 5431 e8bc f3a0 1bbd 1a94 1fbd ad33 603d
000000b0: f5ca 283d bc55 e3bd c3fc 44bd c3a0 01be
000000c0: 5480 ff3c 938a 83bd d047 f43c 49f9 bcbd
000000d0: 7c44 593d 39e4 883d 3fd1 4a3d 321e 30bd
000000e0: 0b67 78bd fc17 d63c 8a28 8b3c 5ed5 31bd
000000f0: 3097 843d f418 65bd befa d33b abc8 66bd
00000100: 22a3 9cbd 5bac 3abd bbdd f6bd 7989 77bd
00000110: 71d7 c73c e35a 22be 7724 bbbd d5ab cebc
00000120: ad57 243d 35b0 1ebe 9293 debc 9445 f03c
00000130: 00fa 9dbd 987c ccbd bccb f03c 30f8 51bd
00000140: 679e 65bd 372d c93d 5704 ae3d ad43 a6bd
00000150: 594e 3cbd b8bd 8abc e9fb d53c 8f4c 743d
00000160: 7a84 23be 9e64 4d3d 7682 80be c976 0cbd
00000170: 1da9 6ebd 9ccf 9dbd 8e81 5bbc b8b2 84bd
00000180: d527 693d 0dc4 b63c d243 07be 65e6 093d
00000190: 7f5f 88bd 52b8 78bd d395 c4bd 25ed 46bd
000001a0: 939d 7c3d 23d6 1f3d 865c 58bd 17aa 6ebd
000001b0: 9a0e 89be 9c99 30be f208 663d 17e7 ab3d
000001c0: 33df 823c 68aa 7b3d 1b69 48be e98d 463d
000001d0: 54bd 9bbd 2ccd 663d a332 5b3d e064 de3c
000001e0: 77a8 9dbd 9133 6b3d 16ed 5bbd b42d 163d
000001f0: 35d7 d43c 8c12 a7bd b598 31bd f8a4 9b3d
00000200: 30cd 39bd 8fd2 133d 5c0b 46bd 53f8 ccbb
00000210: 2287 37bd ac84 6ebd 6369 7d3d af59 5a3d
00000220: d1b0 5fbe fc63 273d 46b3 54be 8b64 82bd
00000230: 7719 81bc d2ba 6c3d ad85 eebd dd70 103d
00000240: 4c6a abbd 9dce f9bc 040b 333d e9d0 403d
00000250: 2306 57bd f7ee 6abe e535 a6bd 27cf 1e3d
00000260: a409 113d 880b 05be caba 593d c121 f13c
00000270: 000f 553d 366a 5ebe 916b 73be 9de9 cabd
00000280: b12d 803d b11d 8fbd e564 0d3d 1326 233d
00000290: 55ad 4e3d e800 97bd 2be0 92bd 4533 6bbd
000002a0: 3aa1 a9bd 6a62 67bd 090c eabd 7a5b 83bd
000002b0: 8b14 99bd 58b6 773d f681 59bd 256e 07be
000002c0: 47dd 94bd 6d4e 02be 0d5a a7bd dd40 4f3d
000002d0: 61ee fbbd a0d1 19bd 5c6b 583d de3c 5d3d
000002e0: cd40 6b3c bb28 41bd d590 debd 014a 37be
000002f0: 4717 153d e0b6 65be eb1b 90bd 17f2 523d
00000300: 22e4 43bd 4711 2d3d e972 fcbb e812 81bd
00000310: c8eb 1ebe d069 54be 7af7 37be 8cb7 b2bc
00000320: a4de 10bd 941e 19bd 288e 23be 7cd9 103d
00000330: 6e31 2e3d ef26 4dbd 99e9 373d 5eba 52be
00000340: a6c9 6c3a 3fe0 b6bd 0b42 23be 4a93 5bbd
00000350: c001 893d f0ea 4e3d 21d5 0bbd 9ba6 773d
00000360: b9dd 213d bcfc 00bd 657d 9dbd 7ae2 9bbd
00000370: e2e1 30be bd33 77bc 75c6 debd 7b55 973c
00000380: 5132 8ebe 347e c33c 2363 273d 2e65 883d
00000390: 6d44 6b3d 5be0 963b 0be4 26be 50ed 4c3d
000003a0: 8fb9 50be 3ac1 a63d bdb8 023d eac0 6d3c
000003b0: 7a1a 143d 399e b7bd a516 b1bd 5219 79be
000003c0: 1147 4e3d 73d0 f83c 37aa cfbd c248 17be
000003d0: 322e 84bd ab83 14bd b420 00bd 00cc 563c
000003e0: b13f 3bbe d114 81bd b6b9 20be 9b9c 01be
000003f0: 92b3 3b3d 2b36 8abd 4f5c 653d d393 463d

a2c_network.value.weight f4 [1, 256]
0.0059609553 0.005086273 -0.012803811 -0.004398617 -0.013632005 -0.0010038433 -0.009378471 -0.020321557
0.01123411 -0.0046879197 -0.039710153 -0.0043887366 -0.02534211 -0.050144438 -0.007849082 0.0004533727
-0.0037649735 -0.0016629575 0.038981672 -0.002655124 -0.0013153221 0.00037431534 -0.00741459 0.001849541
0.024951411 -0.0060301106 0.01752997 0.001500274 -0.009954917 -0.006546564 -0.009265313 0.008705104
0.011244937 -0.005252889 0.036802042 -0.006807465 -0.016807498 -0.015129982 -0.014574597 -0.0038572343
-0.014656703 -0.0017353747 -0.00028846672 2.0010368e-05 -0.0020119532 -0.00090699806 -0.00044862708 -0.003955371
-0.06788025 -0.006492779 -0.006519484 -0.021224841 0.004247872 -0.0016789248 -0.004806444 -0.022090744
0.005489462 -0.00011226459 -0.00732397 0.019861778 -0.011148577 -0.049103227 -0.053063262 -0.042836096
-0.035471708 0.004098829 -0.00037503595 -0.0071019214 -0.008088636 -0.0083761215 -0.0718358 -0.00148918
-0.009619717 0.03516819 0.11146544 -0.011524131 -0.003462798 -0.0032135544 0.0006631202 0.0707986
0.0016304476 0.005123842 -0.005270325 0.1427002 -0.024296887 0.06980337 0.0018709358 -0.0031860229
-0.023720281 0.012479234 0.00808238 0.001698605 -0.008784416 0.0031865865 -0.04395969 -0.15436481
0.007878667 0.01601328 -0.023334181 0.0014822545 -0.0015810594 0.02114434 0.1010546 -0.009212398
-0.0062884204 -0.0040121805 -0.015067699 0.0019906452 -0.041398775 -0.078224115 0.0009560853 -0.0005687211
-0.03468927 0.001933348 -0.010535612 0.003004231 -0.0019217693 -0.015865577 -0.010606152 0.0031237125
-0.0035092484 -0.01609436 0.073600665 0.0018285189 0.005027945 0.012434011 -0.028578278 -0.03956382
-0.021045143 -0.001692952 0.011515346 -0.020929804 0.009172489 -0.012879158 -0.0075095007 0.02158214
0.016748851 0.0049240305 -0.059784062 -0.0021151558 0.103108905 -0.018645857 0.014526755 -0.008045043
-0.0038708628 0.0015916856 -0.010120121 -0.007110077 -0.011904727 -0.0019861863 -0.007867709 -0.006878162
0.0007836349 -0.07210861 -0.012437869 0.02519473 -0.033427954 -0.036248207 -0.01175698 0.01719293
-0.015308658 -0.0054553896 -0.015778853 -0.008927717 0.0013800024 0.00232074 0.012541656 -0.016104126
0.015301566 -0.01237747 0.06510074 0.009927122 -0.0073104477 -0.006400274 0.0051499153 -0.023765735
0.022076605 0.013058462 0.0038760563 -0.008913618 0.015194871 0.005552897 0.005164647 -0.008421862
-0.010189731 -0.0037093512 -0.015231777 0.003902958 0.003424423 -0.0052093077 0.055821612 -0.021827653
-0.0009661425 -0.00392653 -0.017891474 0.0062082494 -0.006217482 -0.09433834 0.05469845 -0.035113744
-0.010625948 -0.008950276 -0.017432706 0.011537334 -0.009026797 0.020545632 0.089890435 0.010592001
0.005243152 0.01283757 -0.008273173 -0.036732715 -0.0075299446 -0.0014602094 0.006003475 -0.0014035084
-0.0022629893 0.09727177 0.019365055 -0.068992876 0.066420674 0.04355163 0.00014949648 0.010235571
0.0040481915 -0.23322518 0.011762369 -0.0047088717 0.0068534454 0.009837813 0.0114403805 -0.008498322
-0.037616447 0.019477677 -0.008028072 0.02219957 0.006179968 -0.008134601 -0.014443767 -0.021324687
-0.010419421 -0.011120813 -0.0141333705 -0.011714342 -0.031595495 0.0011057865 0.011463068 -0.020918706
-0.0068566604 -0.0028050218 -0.014895892 -0.21244588 0.0006097484 0.0033838667 0.039541863 -0.0031989398
00000000: 1e54 c33b c0aa a63b 13c7 51bc 4622 90bb
00000010: c658 5fbc 6493 83ba 29a8 19bc 6579 a6bc
00000020: 460f 383c 1f9d 99bb 1da7 22bd 64cf 8fbb
00000030: 429a cfbc 4164 4dbd 7099 00bc a7b2 ed39
00000040: c6bd 76bb 98f7 d9ba 3fab 1f3d 9701 2ebb
00000050: e366 acba c13f c439 17f6 f2bb 4c6c f23a
00000060: e766 cc3c 3c98 c5bb 039b 8f3c d8a4 c43a
00000070: f319 23bc 8f84 d6bb 8acd 17bc da9f 0e3c
00000080: af3c 383c 6d20 acbb bdbd 163d 2811 dfbb
00000090: e1af 89bc bee3 77bc 4aca 6ebc a7c9 7cbb
000000a0: ab22 70bc 8375 e3ba 593d 97b9 f0db a737
000000b0: f9da 03bb 9cc3 6dba b535 ebb9 0f9c 81bb
000000c0: cd04 8bbd 61c1 d4bb 65a1 d5bb b8df adbc
000000d0: bc31 8b3b 5e0f dcba 607f 9dbb a6f7 b4bc
000000e0: f2e0 b33b 986f ebb8 eafd efbb 2bb5 a23c
000000f0: 85a8 36bc 7720 49bd dd58 59bd e774 2fbd
00000100: c84a 11bd 784f 863b 79a0 c4b9 3cb7 e8bb
00000110: 3386 04bc 003c 09bc a61e 93bd 9730 c3ba
00000120: 049c 1dbc 850c 103d fe47 e43d b5cf 3cbc
00000130: 1cf0 62bb 7f9a 52bb 3ed5 2d3a dbfe 903d
00000140: beb4 d53a e7e5 a73b b1b2 acbb 0020 123e
00000150: 440a c7bc 12f5 8e3d 303a f53a 98cc 50bb
00000160: 0951 c2bc b375 4c3c f56b 043c baa3 de3a
00000170: 83ec 0fbc 0dd6 503b 130f 34bd cf11 1ebe
00000180: 8615 013c 482e 833c 5327 bfbc 3548 c23a
00000190: 8d3b cfba e536 ad3c b7f5 ce3d 99ef 16bc
000001a0: 180f cebb 9c78 83bb 83de 76bc 7c75 023b
000001b0: c391 29bd f733 a0bd cca1 7a3a 3a16 15ba
000001c0: 5616 0ebd 6568 fd3a 8f9d 2cbc a2e2 443b
000001d0: e1e3 fbba 87f8 81bc 6dc5 2dbc 33b7 4c3b
000001e0: 6bfb 65bb 52d8 83bc f2bb 963d eaaa ef3a
000001f0: 76c1 a43b 06b8 4b3c fe1c eabc ac0d 22bd
00000200: dd66 acbc 0be6 ddba ddaa 3c3c fb74 abbc
00000210: 3548 163c 1b03 53bc 4212 f6bb 07cd b03c
00000220: e334 893c c359 a13b 22e0 74bd 6d9e 0abb
00000230: c32a d33d 32bf 98bc a001 6e3c 5bcf 03bc
00000240: 4dae 7dbb 1ba0 d03a ddce 25bc a6fb e8bb
00000250: 0b0c 43bc ad2a 02bb 90e7 00bc 3462 e1bb
00000260: d96c 4d3a aead 93bd 34c8 4bbc 2e65 ce3c
00000270: c0eb 08bd 0079 14bd 59a0 40bc 30d8 8c3c
00000280: 2ad1 7abc 20c3 b2bb a742 81bc 8f45 12bc
00000290: 32e1 b43a 8e17 183b 857b 4d3c cdec 83bc
000002a0: 6bb3 7a3c dfca 4abc 8953 853d 5ea5 223c
000002b0: 7b8c efbb 64b9 d1bb 9fc0 a83b 5cb0 c2bc
000002c0: ffd9 b43c 29f3 553c 6f05 7e3b 6c0a 12bc
000002d0: e9f3 783c 14f5 b53b 333c a93b d9fb 09bc
000002e0: d4f2 26bc 9618 73bb b48e 79bc c5c8 7f3b
000002f0: 496c 603b d7b2 aabb 34a5 643d e8cf b2bc
00000300: ba44 7dba 1faa 80bb 2491 92bc 926e cb3b
00000310: 05bc cbbb 7634 c1bd 7b0b 603d 6ed3 0fbd
00000320: 7518 2ebc 2ea4 12bc 09cf 8ebc 1607 3d3c
00000330: 21e5 13bc 504f a83c 7a18 b83d 128a 2d3c
00000340: bfce ab3b ac54 523c 348c 07bc 0b75 16bd
00000350: c1bd f6bb 7f64 bfba ccb8 c43b edf5 b7ba
00000360: a94e 14bb 6c36 c73d 77a3 9e3c 234c 8dbd
00000370: 9007 883d 3263 323d 28c2 1c39 19b3 273c
00000380: b1a6 843b 95d2 6ebe f4b6 403c e14c 9abb
00000390: de92 e03b c72e 213c 6f70 3b3c 8c3c 0bbc
000003a0: b413 1abd a68f 9f3c 2d88 03bc dfdb b53c
000003b0: 5481 ca3b fd46 05bc 8da5 6cbc 1cb1 aebc
000003c0: 38b6 2abc 1234 36bc a78f 67bc 83ed 3fbc
000003d0: 476a 01bd 0af0 903a 98cf 3b3c b55d abbc
000003e0: d6ad e0bb 75d4 37bb e60d 74bc 6a8b 59be
000003f0: 86d7 1f3a ddc3 5d3b a6f6 213d 4ea5 51bb

a2c_network.mu.weight f4 [6, 256]
0.013844722 -0.0031610304 -0.004341823 -0.00028036637 0.0018603948 0.0031106195 0.0031691336 0.0032919515
0.0010402708 -0.0003090084 0.02605873 0.00040075302 0.0011363787 -0.0039193807 0.00011026499 0.000557069
-0.0021443495 0.0017875817 -0.003979726 0.0011659667 0.0071024923 0.00092411187 0.0024539302 0.00039925653
-0.004229395 0.0004572741 -0.0033820593 -0.007082085 0.0015426652 -0.0034432535 0.0051264167 -0.05914589
-0.003631531 0.0025155975 0.0012747896 0.0039791255 -0.0026548756 0.001715195 -0.00059466495 -0.0031125438
0.002036191 -0.0073386612 -0.00013175356 -9.092842e-05 -0.0019311615 0.00096464425 -0.0019401436 -0.014755394
-0.004567439 0.0025009888 0.0023912948 -0.0019644334 -0.0016822227 0.005416028 0.0028215868 0.00040407467
-0.0014632673 0.005291253 0.0031682542 -0.0025517682 -0.0007037189 -0.00053274503 -0.0066684326 -0.018999811
-0.01618487 0.000703033 0.013556368 0.0059281746 0.0022969441 -0.0019737429 -0.030644145 -0.0037305923
0.0020144621 0.016511008 0.006563119 -0.0020307759 -0.0009951051 0.025915647 -0.0005712128 0.00018010245
0.002098901 -0.0025995164 -0.0018291349 0.01890772 -0.0024763648 -0.0018009589 -0.001082463 0.00260214
-0.037874687 -0.0017805421 -0.017355273 0.0012185855 0.0031423967 0.0011981663 0.005537333 -0.006053427
-0.0022613404 -0.0033135568 0.047479436 -0.0006665289 -0.0003637124 0.0014247 0.00027912273 0.00087611715
0.009605804 0.0017692102 -0.0021429614 0.0023561826 0.07125476 0.047230463 0.00037783047 -0.0040365807
-0.010195289 -0.0001805015 -0.085489854 -0.0019628105 -0.00083565194 -0.0002608349 0.003117786 -0.0013498053
0.006244529 -0.0011130264 -0.004424408 0.0001197273 0.0031074714 -0.003231858 -0.0014866435 -0.011149615
-0.0014107336 0.0031716358 -0.0053410996 6.9913614e-05 -0.0038907358 -8.315732e-05 0.003102416 0.0011308311
-0.010975072 0.0037900384 0.017200733 0.00082974747 -0.002759922 0.0031384293 0.015473257 -0.0006231836
-0.00280323 -0.002560439 0.00044973768 0.002252451 -0.004426649 -0.0015557124 0.0015635929 0.000969061
0.0029349579 -0.03219855 -0.000493406 -0.0034777627 0.0078473305 -0.03519487 0.09309953 0.016165381
0.0016358708 0.00024961724 0.002749566 -0.0033035034 -0.00010346924 0.0026720848 -0.00021792432 0.0018839554
0.028067326 -0.0018636659 -0.00802125 0.0026155482 -0.0043665655 5.6677076e-05 0.0017770153 0.047665823
-0.016742937 -0.0065240646 -0.00036065347 0.0029982785 0.002020218 -0.00229258 0.0021857452 -0.004722156
-0.0010749901 -0.0012163944 0.010803858 9.818611e-05 0.00093654817 -0.017563723 0.013446683 0.00088335417
-0.0044145286 0.0011048906 0.002540224 0.0033527827 -0.00031666615 -0.07869695 0.011927175 0.025859296
0.00058507296 -0.0028364763 0.011161009 0.0012284652 0.0057731653 -0.0024204764 -0.00086223613 0.010516141
0.023098128 -0.0012212066 -0.013817114 -2.7211889e-05 -0.0026180525 -0.00064098864 0.0013668853 0.0015921982
-0.00043910372 0.0059805023 0.0038938613 -0.01830957 -0.017981647 0.0058239843 -0.00059046014 0.0006053155
-0.039968297 -0.008395768 -0.0013516034 0.0042365184 -0.0037282447 0.0009466897 -0.02048718 0.0010872063
0.11033434 0.007034579 0.003718776 0.0036547019 0.0012982584 0.00014561985 -0.0056580533 -0.07500293
0.0025385616 0.0034982846 0.0003545111 -0.012195655 -0.0030488784 4.2201867e-05 -0.0002581782 0.0033720527
-0.045181595 -0.00144456 0.016276028 -0.01624523 0.00024208294 0.0015573753 0.00038177823 0.0033068333
00000000: f9d4 623c 4a29 4fbb da45 8ebb 23fe 92b9
00000010: 7ed8 f33a 89db 4b3b 3db1 4f3b c8bd 573b
00000020: b259 883a 6802 a2b9 1e79 d53c 291c d239
00000030: 8bf2 943a 266e 80bb 113e e738 4508 123a
00000040: 3788 0cbb 4a4d ea3a 5d68 82bb 5ad3 983a
00000050: 06bc e83b 1940 723a 1ed2 203b 4e53 d139
00000060: bd96 8abb 4abe ef39 8aa5 5dbb d610 e8bb
00000070: 4133 ca3a 35a8 61bb 80fb a73b f642 72bd
00000080: fbfe 6dbb b9dc 243b d716 a73a 5363 823b
00000090: 6cfd 2dbb 65d0 e03a 4ae3 1bba d2fb 4bbb
000000a0: 9e71 053b 2779 f0bb 5427 0ab9 d3b0 beb8
000000b0: 071f fdba 2ee0 7c3a 6b4c feba 9cc0 71bc
000000c0: 75aa 95bb a1e7 233b 45b7 1c3b b9bd 00bb
000000d0: 077e dcba f078 b13b 5fea 383b fcd9 d339
000000e0: 1acb bfba 3f62 ad3b 7ca2 4f3b 913b 27bb
000000f0: c779 38ba eaa7 0bba de82 dabb 7ea5 9bbc
00000100: 2296 84bc bf4b 383a 871b 5e3c 2241 c23b
00000110: 5488 163b e959 01bb 6e09 fbbc f47c 74bb
00000120: 1105 043b 1842 873c 6f0f d73b c416 05bb
00000130: 306e 82ba 0d4d d43c 71bd 15ba e2d9 3c39
00000140: b78d 093b a65c 2abb 95bf efba 5de4 9a3c
00000150: 824a 22bb 270e ecba 6ee1 8dba aa88 2a3b
00000160: 7d22 1bbd 1461 e9ba a52c 8ebc f2b8 9f3a
00000170: abf0 4d3b ca0b 9d3a 8472 b53b d35b c6bb
00000180: ff32 14bb 4228 59bb cc79 423d ffb9 2eba
00000190: a7b0 beb9 00bd ba3a 3857 9239 3aab 653a
000001a0: aa61 1d3c d8e4 e73a ed70 0cbb 2f6a 1a3b
000001b0: 04ee 913d bb74 413d 8c17 c639 4b45 84bb
000001c0: 240a 27bc 0145 3db9 4e15 afbd 7fa2 00bb
000001d0: a70f 5bba abc0 88b9 c553 4c3b f3eb b0ba
000001e0: e89e cc3b f8e2 91ba a0fa 90bb 1b16 fb38
000001f0: b8a6 4b3b 94cd 53bb 7adb c2ba e0ac 36bc
00000200: 5de8 b8ba 38db 4f3b 6404 afbb 969e 9238
00000210: b7fb 7ebb bf64 aeb8 e751 4b3b 6538 943a
00000220: cad0 33bc 4b62 783b 8de8 8c3c 6983 593a
00000230: cfdf 34bb 1bae 4d3b 8b83 7d3c 255d 23ba
00000240: 65b6 37bb 0acd 27bb c5ca eb39 db9d 133b
00000250: 6c0d 91bb 0ce9 cbba 79f1 cc3a 9508 7e3a
00000260: 6c58 403b a0e2 03bd eb57 01ba 2deb 63bb
00000270: 1792 003c 7f28 10bd f7aa be3d 436d 843c
00000280: b76a d63a 0fdf 8239 1032 343b 977f 58bb
00000290: a0fd d8b8 251e 2f3b 9d82 64b9 0eef f63a
000002a0: 73ed e53c 4046 f4ba 906b 03bc 9e69 2b3b
000002b0: 6815 8fbb 8cb8 6d38 bdea e83a 3d3d 433d
000002c0: 7c28 89bc d2c7 d5bb 1716 bdb9 c47e 443b
000002d0: a265 043b 1c3f 16bb b83e 0f3b 51bc 9abb
000002e0: afe6 8cba 6c6f 9fba aa02 313c 44e9 cd38
000002f0: af82 753a cce1 8fbc 7a4f 5c3c e590 673a
00000300: c0a7 90bb fad1 903a e379 263b 5cba 5b3b
00000310: 3606 a6b9 de2b a1bd 336a 433c e0d6 d33c
00000320: 955f 193a 2de4 39bb aadc 363c 7404 a13a
00000330: d22c bd3b dba0 1ebb b007 62ba e44b 2c3c
00000340: 4938 bd3c e510 a0ba 2d61 62bc 1645 e4b7
00000350: a293 2bbb 0508 28ba 0f29 b33a 4eb1 d03a
00000360: 8137 e6b9 17f8 c33b 2730 7f3b f4fd 95bc
00000370: 3f4e 93bc 1fd7 be3b 1cc9 1aba 09ae 1e3a
00000380: ccb5 23bd 678e 09bc 4928 b1ba 7ed2 8a3b
00000390: 9155 74bb 452b 783a bbd4 a7bc 9780 8e3a
000003a0: f8f6 e13d 5382 e63b b5b6 733b b983 6f3b
000003b0: 532a aa3a 88b1 1839 3167 b9bb 239b 99bd
000003c0: ff5d 263b 7a43 653b addd b939 49d0 47bc
000003d0: b1cf 47bb e901 3138 175c 87b9 a8fd 5c3b
000003e0: 5610 39bd 6457 bdba 4e55 853c b714 85bc
000003f0: a5d7 7d39 d820 cc3a 6829 c839 75b7 583b

a2c_network.mu.bias f4 [6]
-0.06555032 0.08996447 -0.062291782 0.045727994 -0.052563187 -0.2783562
00000000: 3f3f 86bd 4b3f b83d ab25 7fbd 474d 3b3d
00000010: 7f4c 57bd b484 8ebe

exp_avg f4 [6]
-0.0005560816 0.0005667381 -0.00030515555 0.00056385377 0.0018610584 -0.0014340432
00000000: 01c6 11ba 2691 143a 49fd 9fb9 96cf 133a
00000010: c2ee f33a 81f6 bbba

exp_avg_sq f4 [6]
2.8854893e-05 3.286529e-05 3.050441e-05 3.9386876e-05 3.57875e-05 3.4221033e-05
00000000: 690d f237 d6d8 0938 b9e3 ff37 5633 2538
00000010: 891a 1638 8e88 0f38

exp_avg f4 [256, 40]
9.901521e-06 -9.912377e-06 6.6651054e-08 -9.901521e-06 6.6651054e-08 0.0 -8.134263e-05 -2.2055481e-05
-7.7055134e-05 -7.26383e-05 -9.121963e-07 -0.00011028172 0.00017878482 6.644858e-05 -8.202573e-05 -0.00012566565
8.886177e-05 -0.00030828672 1.5055462e-05 2.0377414e-05 1.872734e-05 -1.3166488e-06 -6.157009e-05 0.00017927597
4.5775137e-06 -0.00016911062 -0.00012227244 -0.00012663599 -0.000103025806 -9.2585935e-05 -5.4877684e-05 1.4891789e-07
-1.572479e-08 -6e-45 1.581925e-07 -1.5362933e-10 -6e-45 1.4891789e-07 1.535771e-08 -6e-45
-1.0186191e-05 1.0181037e-05 2.075901e-07 1.0186191e-05 2.075901e-07 0.0 0.0001790414 4.470607e-05
-2.4498606e-05 0.00017395797 6.7129535e-05 2.2144197e-06 -2.1994922e-05 -0.00013177488 6.2414336e-05 -4.3387485e-05
-3.6990452e-05 0.00015642481 -2.8222757e-06 -0.00017295661 -8.5261614e-05 -1.1670794e-05 -6.590061e-05 -0.00011593151
-5.5129833e-05 -6.409261e-05 2.2893031e-05 4.3280063e-05 6.137455e-05 3.2702683e-05 -1.4859381e-05 -8.413621e-09
3.744249e-08 6e-45 7.067643e-08 -8.231462e-11 6e-45 -8.413621e-09 -3.7520145e-08 6e-45
1.3072129e-05 -1.30694925e-05 -1.9710617e-07 -1.3072129e-05 -1.9710617e-07 0.0 -0.00011021448 -7.721067e-05
-8.769758e-05 -0.00010854859 -0.00010909671 -0.000105342166 0.00012756776 0.00022569849 0.0001781106 2.4242476e-05
-0.00016893864 -0.00021992925 -3.386407e-07 0.0002882505 8.0615515e-05 4.9394043e-07 0.00012538403 0.00028371986
-7.895325e-06 4.053675e-05 -0.00016894606 -3.089273e-05 -0.00012305692 7.891134e-06 -2.4785265e-06 -1.1812066e-07
-4.7466497e-08 6e-45 -1.288326e-07 -3.4029765e-11 6e-45 -1.1812066e-07 4.741285e-08 6e-45
8.727643e-06 -8.7251465e-06 -1.4103313e-07 -8.727643e-06 -1.4103313e-07 0.0 -0.00014767604 -1.6799904e-05
-1.3301493e-05 -0.00015615292 -4.7757498e-05 -1.748276e-05 -4.45296e-05 0.00014890163 -0.00011425004 -3.934124e-05
5.822664e-05 -0.00025142197 2.0791877e-06 0.00030224046 0.00026108426 7.197785e-06 -0.00015655076 0.00011570879
-5.9103015e-05 -3.1457745e-05 -9.199984e-05 -4.6379624e-05 -2.9684656e-05 -0.00010310224 1.8555386e-06 2.413926e-08
-5.5404616e-08 -6e-45 -1.6125163e-08 -1.2992752e-11 -6e-45 2.413926e-08 5.547462e-08 -6e-45
2.6259697e-05 -2.625126e-05 -3.560058e-07 -2.6259697e-05 -3.560058e-07 0.0 1.2585617e-05 -0.000311483
-1.8622075e-05 -1.6519942e-05 -0.00031042314 -1.9832944e-05 9.984695e-05 8.1605016e-05 0.00012357936 1.0225496e-05
-0.00011990013 -0.00031218186 -5.66071e-07 0.00016182475 0.0002053327 -2.6188449e-05 0.00023930168 6.39014e-05
6.768225e-05 3.7113634e-05 -0.000117652446 -4.2576525e-05 -6.197716e-05 5.653894e-05 0.000118283526 -8.08129e-08
-3.679115e-08 6e-45 -1.3216075e-08 -2.2536596e-10 6e-45 -8.08129e-08 3.6243453e-08 6e-45
2.178455e-06 -2.1744902e-06 -3.1936992e-07 -2.178455e-06 -3.1936992e-07 0.0 -5.1236348e-05 1.876999e-05
-0.000113432405 -6.6059816e-05 -2.3005616e-05 -0.00010938668 0.00010740085 7.745732e-05 0.00011753947 -4.5419627e-05
2.0365e-05 2.689224e-05 -1.0261884e-05 0.0003886428 0.0003025048 -1.4798184e-05 7.852468e-06 0.000107262946
-1.92453e-05 -1.45129225e-05 8.447175e-05 3.249725e-05 -2.1127198e-05 1.8603776e-05 3.0907293e-06 3.9583696e-08
-3.1273636e-08 -6e-45 -3.2882283e-10 1.00523576e-10 -6e-45 3.9583696e-08 3.1733176e-08 -6e-45
1.2449737e-05 -1.24423095e-05 -4.0385024e-07 -1.2449737e-05 -4.0385024e-07 0.0 -6.325348e-05 -6.0336017e-05
-5.556953e-05 -6.966532e-05 -7.129214e-05 -8.048163e-05 -0.00010038775 -2.7114913e-05 0.00011583092 2.9940977e-06
00000000: b51e 2637 564d 26b7 ce21 8f33 b51e 26b7
00000010: ce21 8f33 0000 0000 7e96 aab8 c903 b9b7
00000020: a998 a1b8 6455 98b8 a7dd 74b5 0c47 e7b8
00000030: 2f78 3b39 4f5a 8b38 3a05 acb8 1ec5 03b9
00000040: 4d5b ba38 8ba1 a1b9 b896 7c37 2af0 aa37
00000050: a818 9d37 b5b7 b0b5 311f 81b8 07fc 3b39
00000060: 8b98 9936 4953 31b9 4236 00b9 97c9 04b9
00000070: 8f0f d8b8 b22a c2b8 772c 66b8 3de6 1f34
00000080: 2e13 87b2 0400 0080 a0db 2934 d0ea 28af
00000090: 0400 0080 3de6 1f34 f6eb 8332 0400 0080
000000a0: 5be5 2ab7 39cf 2a37 efe5 5e34 5be5 2a37
000000b0: efe5 5e34 0000 0000 0fbd 3b39 c782 3b38
000000c0: 5b82 cdb7 7d68 3639 e5c7 8c38 719b 1436
000000d0: bc81 b8b7 0d2d 0ab9 71e4 8238 f5fa 35b8
000000e0: 3226 1bb8 f705 2439 5466 3db6 b05b 35b9
000000f0: 7bce b2b8 aecd 43b7 1f34 8ab8 4120 f3b8
00000100: 353b 67b8 7569 86b8 690a c037 9d87 3538
00000110: 36b6 8038 3d2a 0938 8e4c 79b7 7f8b 10b2
00000120: 74d0 2033 0400 0000 c7c6 9733 0303 b5ae
00000130: 0400 0000 7f8b 10b2 d625 21b3 0400 0000
00000140: 5e50 5b37 0b45 5bb7 22a4 53b4 5e50 5bb7
00000150: 22a4 53b4 0000 0000 f322 e7b8 2aec a1b8
00000160: 48ea b7b8 95a4 e3b8 daca e4b8 25eb dcb8
00000170: b6c3 0539 7aa9 6c39 33c3 3a39 525c cb37
00000180: 1f25 31b9 cf9c 66b9 6cce b5b4 5420 9739
00000190: 2010 a938 5497 0435 8579 0339 3cc0 9439
000001a0: 2a76 04b7 0106 2a38 1d27 31b9 d192 01b8
000001b0: d708 01b9 2a64 0437 c354 26b6 85a9 fdb3
000001c0: f7dd 4bb3 0400 0000 3c55 0ab4 1caa 15ae
000001d0: 0400 0000 85a9 fdb3 fba2 4b33 0400 0000
000001e0: f16c 1237 3862 12b7 e46e 17b4 f16c 12b7
000001f0: e46e 17b4 0000 0000 7cd9 1ab9 85ed 8cb7
00000200: 7a29 5fb7 fbbc 23b9 394f 48b8 f1a7 92b7
00000210: 4bc5 3ab8 7a22 1c39 8699 efb8 5602 25b8
00000220: 6138 7438 49d1 83b9 2c88 0b36 0776 9e39
00000230: 23e2 8839 8184 f136 c627 24b9 afa8 f238
00000240: 61e5 77b8 7ff1 03b8 0af0 c0b8 be87 42b8
00000250: 5003 f9b7 9838 d8b8 d20b f935 cb5a cf32
00000260: 05f6 6db3 0400 0080 9c83 8ab2 2792 64ad
00000270: 0400 0080 cb5a cf32 fd42 6e33 0400 0080
00000280: 4548 dc37 2736 dcb7 1121 bfb4 4548 dcb7
00000290: 1121 bfb4 0000 0000 d026 5337 8a4e a3b9
000002a0: 9a36 9cb7 4e94 8ab7 4ac0 a2b9 ec5e a6b7
000002b0: ec64 d138 5c23 ab38 1595 0139 2c8e 2b37
000002c0: e472 fbb8 57ac a3b9 1af4 17b5 80af 2939
000002d0: 944e 5739 44af dbb7 0eed 7a39 ce02 8638
000002e0: a2f0 8d38 76aa 1b38 2dbc f6b8 3294 32b8
000002f0: bcf9 81b8 3924 6d38 fc0e f838 5d8b adb3
00000300: 4c04 1eb3 0400 0000 ea0c 63b2 e1ca 77af
00000310: 0400 0000 5d8b adb3 19aa 1b33 0400 0000
00000320: 9231 1236 75ed 11b6 de75 abb4 9231 12b6
00000330: de75 abb4 0000 0000 9ce6 56b8 3f74 9d37
00000340: 8fe2 edb8 9889 8ab8 2ffc c0b7 8766 e5b8
00000350: 643c e138 9570 a238 867f f638 f480 3eb8
00000360: 81d5 aa37 a596 e137 752a 2cb7 c1c2 cb39
00000370: 8299 9e39 b745 78b7 18be 0337 5bf2 e038
00000380: f870 a1b7 877c 73b7 6d26 b138 a84d 0838
00000390: 503a b1b7 4e0f 9c37 536a 4f36 bc02 2a33
000003a0: ba51 06b3 0400 0080 b3c5 b4af be0d dd2e
000003b0: 0400 0080 bc02 2a33 ff4a 0833 0400 0080
000003c0: 37df 5037 50bf 50b7 c1d0 d8b4 37df 50b7
000003d0: c1d0 d8b4 0000 0000 f4a6 84b8 4e11 7db8
000003e0: 5413 69b8 4919 92b8 ad82 95b8 3fc8 a8b8
000003f0: 4387 d2b8 d574 e3b7 40ea f238 35ee 4836
