logs/rl_games/yam_cube_sort_8192/2026-02-01_08-29-07/nn/last_yam_cube_sort_8192_ep_150_rew_1062.8314.pth (torch, 953214 bytes, 30 tensors)

value_mean_std.running_mean f8 [1]
00000000: 2825 45d0 e17b db3f
0.42943616236569193

value_mean_std.running_var f8 [1]
00000000: 8cfc 2770 8349 823f
0.00892927824042846

value_mean_std.count f8 []
00000000: 0000 0004 00c0 9241
78643201.0

running_mean_std.running_mean f8 [40]
00000000: 4d40 1f63 c1ae ef3f ebd5 04a2 aa44 843f
00000010: b262 c8b5 58f2 f53e 1eba 5fce a34f 843f
00000020: b262 c8b5 58f2 f53e 0000 0000 0000 0000
00000030: 53fa da5e c526 be3f 29bd aa9d d4ad 91bf
00000040: b034 047c 248e c93f 703f 0a4b fb17 c03f
00000050: 6683 5e1f fc30 86bf 9731 1dbd 938b c83f
00000060: 9220 569a 23b6 b53f 00d6 1f72 62c5 c23f
00000070: 4b3c 7bc0 2a1f 423f 0c8b 1c37 1a05 8a3f
00000080: 3647 8e04 89d2 c23f 7fd8 c565 4c38 f1be
00000090: b15c dfcc 7e04 8a3f 00e0 34f5 12ac c23f
000000a0: a4ee aea2 0082 403f 0748 ce37 8704 8a3f
000000b0: 318b 6703 52a5 01bf 1a79 a42c 8498 1a3f
000000c0: adbb 3511 1078 33bf a36c 04a6 a3e5 ca3e
000000d0: 625f f56a e8ce 143f 1819 8f3e 9dd8 32bf
000000e0: aab9 260e 3d15 0dbf a49d 1f7d e6b7 143f
000000f0: 5887 a6c4 b268 34bf 6fa9 81df 1ae8 b33f
00000100: 2cba 6eb0 7bbc c13f 400a 43f7 df7a 843f
00000110: 3cb4 52a3 2956 d43f 723a 4a1a 07c2 06be
00000120: 400a 43f7 df7a 843f 6fa9 81df 1ae8 b33f
00000130: 2cba 6eb0 7bbc c1bf 400a 43f7 df7a 843f
0.9900824485757852 0.009896596021103007 2.092997179845247e-05 0.009917525992901462 2.092997179845247e-05 0.0 0.11777909818463543 -0.017264673350550517
0.19965034537782378 0.12573186077178944 -0.010835618693649084 0.19175955518802532 0.08481047170619352 0.14664869854429696 0.0005530318021217477 0.012705044562215238
0.14705002520036609 -1.6422191366293346e-05 0.012703886630261204 0.14587628338790637 0.0005037787535608529 0.012703949347073985 -3.3656659457445544e-05 0.00010145479896947856
-0.0002970732905031536 3.206375638010305e-06 7.937711301530878e-05 -0.00028756941770459584 -5.5471349486568955e-05 7.90342740227741e-05 -0.0003114162870138013 0.07776039082242446
0.13856454958791298 0.009999990208943932 0.3177589507056984 -6.623426707964049e-10 0.009999990208943932 0.07776039082242446 -0.13856454958791298 0.009999990208943932

running_mean_std.running_var f8 [40]
00000000: 411d eb5c 411c 843f a758 dd72 7c11 843f
00000010: 60b0 5d36 3af9 f53e 7c6e 310b 3e1c 843f
00000020: 60b0 5d36 3af9 f53e 897d 41a9 814e 5b3e
00000030: 8e38 32a2 5260 bc3f 3dbf 0600 7c19 b23f
00000040: 5819 544c e32d 923f bccc 7380 a1d9 b63f
00000050: f04c be4f 2bad a83f bd55 333c 4fe5 8e3f
00000060: 5927 c799 9df1 923f 70ea 29b9 4ad4 6e3f
00000070: 7405 2d4a 6a9f 693f 380d a675 95a0 a93e
00000080: 8a1b 4299 e5ec 6b3f 9d66 b060 99fe 683f
00000090: b3e1 d378 5410 9e3e fea5 bba5 38e5 6e3f
000000a0: ff3d 4b73 e090 6a3f 25e5 454b 29fa a23e
000000b0: bd3b 5351 ca7d 4c3f c962 3b14 5528 543f
000000c0: 1b15 bb46 d9fc 223f edab a047 7dc6 483f
000000d0: 4f0d cfbd 449e 533f 002c 9f8f 6dcc 213f
000000e0: 2df2 25ae 81c0 4c3f 17a0 32c7 a078 543f
000000f0: 7029 1555 6980 243f 0aea e98c 9779 5b3e
00000100: dbf8 943a e0d4 5b3e e48d 269e 344f 5b3e
00000110: 1177 2baf 1511 5e3e 9579 f5a9 814e 5b3e
00000120: e48d 269e 344f 5b3e 0aea e98c 9779 5b3e
00000130: e380 c327 e0d4 5b3e e48d 269e 344f 5b3e
0.00981951775373935 0.009798977141752664 2.095560503027926e-05 0.009819493023477614 2.095560503027926e-05 2.5431314457414853e-08 0.11084476909511151 0.07070136070865103
0.017753173383448256 0.08925828348201298 0.04819617603711801 0.015085810684847151 0.018499815474377488 0.003763338035523582 0.003127772900740561 7.637524775259394e-07
0.0034088596676755166 0.0030510898263969703 4.4798536509530486e-07 0.0037714105982231674 0.0032429107471683145 5.655644117883933e-07 0.000869487560203434 0.001230319104186405
0.0001448645810936754 0.0007560836522818561 0.001197402124703501 0.0001357921353800362 0.0008774407581735915 0.001249463090781338 0.00015641485019053268 2.5588058611621245e-08
2.5920147505127513e-08 2.5433857583945373e-08 2.800183103001039e-08 2.5431314496442783e-08 2.5433857583945373e-08 2.5588058611621245e-08 2.5920146460505522e-08 2.5433857583945373e-08

running_mean_std.count f8 []
00000000: 0000 0008 00c0 8241
39321601.0

a2c_network.sigma f4 [6]
00000000: ff79 bebf 8c2e babf e0cd c0bf 77ce 633f
00000010: 7916 893f 328f 8dbe
-1.488098 -1.4545455 -1.5062828 0.88986915 1.0709983 -0.27648312

a2c_network.actor_mlp.0.weight f4 [256, 40]
00000000: 1d43 093d dde3 bfbc ef07 433d 68f7 213e
00000010: 7f6b 943d 6290 8dbd 459a d43d aac1 463e
00000020: 54b1 a53d f788 2bbe d46d 77be a734 3cbd
00000030: fff3 85bd cfa4 473d a20b b5bb 5f9a e13e
00000040: 99cf f33c afd1 d3bc 807f 983d 00f6 cabc
00000050: 473b 343d 1df3 0c3b e9a2 a33c cdb1 693d
00000060: 8b5d 2cbd 729c 1cbd dc4e 29bd c8c2 3bbe
00000070: 45fe 6b3b 9015 8dbe 4b9a 603e 18f0 c63e
00000080: 524d 443e 5595 dfbd e82f 5f3e 47d8 babd
00000090: 402c aebd cdbf cc3e a946 953c 745c 1c3e
000000a0: 7622 a33d 0328 85be de48 3a3d 6fa3 5ebe
000000b0: 7cba 6b3d 1faf 19bd 7e80 963d 8886 3abe
000000c0: c516 52bd dcd8 3d3d b8a7 d23d 8c55 8c3d
000000d0: 16ab 683d b6a4 283d c47f ffbd 819f 01bb
000000e0: c862 653d e408 9cbb ab91 4abe 43ee bbbd
000000f0: 40d5 683d 6c91 28be 1e10 44be 2ff6 353c
00000100: 1756 cc3d 64d5 89bd 4e72 3abd 0f1d 0bbe
00000110: 0ab2 1ebd 1845 023e 9df3 903d 57f6 17be
00000120: 6efe aa3d 8437 c3bd 8cb1 acbe 9227 39bd
00000130: 2770 9d3d 2e81 a2be 7a99 d3bd 1f1d 2ebd
00000140: 6d60 b5bd b0f8 d83c c1c6 67bd 101d b7bc
00000150: 7fdb 1dbe 62ea bcbd b0c9 51bd 82d1 6bbe
00000160: 8e39 873c e004 9ebc abd3 193e fef6 033c
00000170: 1063 84bd 1ceb 0d3d 2581 9bbd 5f19 debe
00000180: 98df 29bd b77d 1f3d a3f8 663e 34f9 793b
00000190: fd2e eb3b 2035 b3bd 57d5 363d af51 d03c
000001a0: 9051 283c ecc5 eb3c 2ed3 d83c 35ec c83e
000001b0: 280a 2abe 1da5 c8bc 6bd9 31be 6ea2 4abe
000001c0: f750 eebd 7af6 00be e74c a03e 8718 debd
000001d0: 1e83 9d3d 922f 98bd 466a 1d3e 779f bebd
000001e0: 2bee 7f3e 5175 82bd 63a5 9e3d 1ced 72be
000001f0: bdec fc3d 2851 c2bc 9e3b 29bd 88fd f03d
00000200: 3b7f 9f3d f17b 13bd 8b8f fcbd 5df9 adb9
00000210: a3cd 8d3d 6282 18bd 83f0 a73b a297 623d
00000220: 9db0 84bd d690 3f3d 68a5 00be e559 a2bd
00000230: fe58 773c cf64 ae3e 4902 743d 5c70 cbbd
00000240: 62e3 c9ba 5d7b 543e b64d 9bbd 361c e7bd
00000250: 2552 fa3d a396 6fbd 4b80 533d c158 f9bd
00000260: 2bd3 933e 25d8 293e e68b b0bd b401 1ebd
00000270: e63f 043d 2f2f acbd 19ee 18be ed24 983d
00000280: edce 37be 3799 b2bc f49f 043e e128 c73d
00000290: 576c 3cbc 353b c3bd 04bd 04be 5cf0 2ebe
000002a0: 7f20 f1bd e13a 2a3e 544c f23d c79a 3a3e
000002b0: 2104 09be ba56 d43d e943 6abd 281d c2be
000002c0: 5ed1 b63c e5c5 5a3a b06d acbe d793 56bd
000002d0: d8e2 ff3c a03a 9f3e 52bb ccbd a182 3c3d
000002e0: a9df d6bd e562 96bd 2d45 983d 86e4 8c3d
000002f0: ca6c 8bbe 8209 7b3d 5219 15be bd70 91be
00000300: a485 2c3d 920d 0c3e c3c5 973e 0ec2 2a3d
00000310: 671a 0e3b eaaf 05bf 8e24 d1bd 83a2 13be
00000320: 793e e63d feee 06be 3013 06bd d821 15be
00000330: bc80 f3bc f3e9 e3bd 93b8 2bbe 241a 103e
00000340: c0ff f13c ec6d 183e 26e9 93bd 79ed 97bd
00000350: cd3f 97bd c624 f13d cf8f a2bd a87d 35be
00000360: 0818 c63d 41fd 18bc 2488 b03e ba1e 2c3c
00000370: cf3d 9f3d 8a85 f93d a45e 863d 88bb babe
00000380: 2393 013b aebb a13e a58b 093d 7759 c93d
00000390: 4f70 173d a100 b13c faf6 b03e 5972 84be
000003a0: 8d7f 1d3e 50f4 ca3d 5b47 c0bd 48b7 47bd
000003b0: 9cb2 18be cd85 87bd 63fb f03c dcd0 34be
000003c0: 05ee 833d c68c 40be 2c17 173d 4066 2dbe
000003d0: f4fc 63bc e998 4dbd 1c5f dabd 6713 b03d
000003e0: 9ebe 093e 42dd 943d 5901 62bd aea1 31bd
000003f0: bdbd 20be f019 f6bd 2a22 9c3d d505 593e
0.03351127 -0.023424083 0.047614988 0.15817034 0.07247066 -0.069123045 0.10380987 0.19409814
0.08090463 -0.16751467 -0.2416299 -0.04594865 -0.06540679 0.048741158 -0.0055250684 0.44063088
0.029762076 -0.02585682 0.07446194 -0.024775505 0.044001844 0.0021507211 0.019975143 0.05705433
-0.042081397 -0.038235135 -0.04133497 -0.18336022 0.003600971 -0.27555513 0.21933858 0.38855052
0.1917012 -0.10917155 0.21795619 -0.09123283 -0.08504534 0.39990082 0.01822217 0.15269643
0.07965557 -0.2600709 0.045479648 -0.21742032 0.057550892 -0.037520524 0.07348727 -0.18215382
-0.051291246 0.04634939 0.10285896 0.06852254 0.056803785 0.041172706 -0.12475541 -0.001977891
0.05600241 -0.004761802 -0.1978213 -0.09176304 0.056843996 -0.16461724 -0.19146773 0.011106058
0.09977358 -0.06730154 -0.045519166 -0.13585304 -0.03874401 0.1272167 0.070777155 -0.14840065
0.0834931 -0.09532073 -0.33729208 -0.045203753 0.07687407 -0.3173918 -0.10332008 -0.04250824
-0.088562824 0.026485771 -0.05658603 -0.022352725 -0.15415762 -0.092243925 -0.051217735 -0.2302914
0.016506936 -0.019289434 0.15022151 0.008054493 -0.06464207 0.034648046 -0.07592992 -0.43378732
-0.041473 0.03893825 0.22555785 0.0038142921 0.0071772323 -0.08750367 0.04463705 0.025429575
0.010273352 0.0287809 0.026467886 0.39242712 -0.16605437 -0.024492795 -0.17368095 -0.19788525
-0.116365366 -0.12594023 0.31308672 -0.10844522 0.07691024 -0.07430948 0.15372571 -0.09307759
0.24993198 -0.063700326 0.07746389 -0.23723263 0.12349842 -0.023720339 -0.04131662 0.11767107
0.07787939 -0.03600687 -0.12332066 -0.00033182921 0.06923988 -0.037233718 0.005125107 0.05532039
-0.06478999 0.046768986 -0.12563097 -0.07927302 0.015096901 0.34061286 0.05957249 -0.0993354
-0.0015402848 0.20750184 -0.075831816 -0.11284678 0.12222699 -0.058493268 0.05163602 -0.121751316
0.28872046 0.16586359 -0.086204335 -0.038575843 0.0322875 -0.08407437 -0.14934577 0.07428918
-0.1795003 -0.021801574 0.12951642 0.09724594 -0.01150044 -0.09532777 -0.12962729 -0.17083877
-0.11773776 0.16624023 0.11830965 0.18223105 -0.13380481 0.10368104 -0.05719367 -0.3791287
0.02231663 0.00083455286 -0.33677435 -0.052387085 0.031236097 0.31099415 -0.09996666 0.046023015
-0.104918785 -0.073430814 0.07435069 0.06879525 -0.27231437 0.061288364 -0.1456044 -0.28406325
0.042119637 0.13677052 0.29643068 0.04168897 0.0021683217 -0.5222155 -0.102120504 -0.14417462
0.112423845 -0.13177106 -0.032733142 -0.14563692 -0.029724471 -0.11128607 -0.16769628 0.14072472
0.029540896 0.14885682 -0.07222204 -0.07418341 -0.07385216 0.11774592 -0.079375856 -0.17723715
0.09672552 -0.009337724 0.34478867 0.010505373 0.07775461 0.12183674 0.0656102 -0.364712
0.0019771538 0.315885 0.03358044 0.09831517 0.03697234 0.021606745 0.34563428 -0.2586849
0.15380688 0.0990988 -0.0938861 -0.048758775 -0.14911884 -0.06617317 0.029416746 -0.17657799
0.06441883 -0.18803701 0.036887333 -0.16933537 -0.013915289 -0.050194655 -0.10662672 0.08597451
0.13451621 0.07268764 -0.055177066 -0.04336708 -0.1569738 -0.12016666 0.07623704 0.21193631

a2c_network.actor_mlp.0.bias f4 [256]
00000000: 6575 fe3c df5b df3d 7700 97bd a66c 303d
00000010: 3172 383d bcd8 41bd d6b4 003e 90c8 483e
00000020: 73f5 133e a6df 1e3e 327c bd3d 5d95 debc
00000030: f349 ad3d fed5 603e 2b3a 393e b2c0 0ebe
00000040: f442 79bd acd8 e13d cbd8 0dbc 225b fd3d
00000050: 8858 50be 7f2a e73d 1cd3 0b3e a28e 1ebe
00000060: d69d e73d 29f0 7b3e ee8f ba3d c9b6 2f3e
00000070: 0ace 473e 221b 1d3e 9e15 093e df77 3a3e
00000080: db75 6c3c ae51 aabc d7da 70be dbe1 a03d
00000090: 86d3 0c3e 0cdf a23d 4582 613e 9ee0 413e
000000a0: 90f3 57be 0784 fe3d 5681 c5bb 12b9 2fbd
000000b0: eecf ad3d 2c98 d6b8 0dd8 0a3e ab80 75be
000000c0: b0cd 6d3e 5463 e23d 1f67 743d fcff aabd
000000d0: ba7e 59be fb44 e0bd dd17 37bd 811d b4bd
000000e0: 6bf5 4e3e 484b adbc 26f8 15bd c52b 103e
000000f0: 1349 ff3d a066 363e 37d3 01be 7123 503e
00000100: d364 27bc dae4 89be d1d5 473e 4309 0abe
00000110: 2ffa 2fbe cb39 0abe ffbd c9bd d812 313e
00000120: b5da 233e a437 093e b86b ad3c aeeb a3be
00000130: 990c f33d fe14 1abe 3ced a63d e47f 563e
00000140: d4a2 28be 3b36 e63d 0b1c 2fbe 9136 013e
00000150: 6fd3 8d3d 4be3 0b3e fa1b 843d 1e0a a23d
00000160: d851 3e3e c847 d03d 14bf 9ebd abb9 313e
00000170: 0ed5 4c3e c1d4 2e3c ffda 96bc 0285 adbd
00000180: 738f 5c3d a6aa 253e 8fca 8f3d 00d8 383d
00000190: 9eed 65be 1f25 073e 7307 9a3d 7631 a53d
000001a0: f0e2 f33d 51b4 10be 6c19 82be 0699 083e
000001b0: ef0f 0b3e c5de 063e e38e 84bd d71e 2d3e
000001c0: 43ef 27be e402 333e f56c 393e 3ac3 fbbd
000001d0: e04b 0e3e 0e5c 033d 5be0 e3bd 4576 313c
000001e0: 4d85 1d3e 3575 b7bc 624e 533d d9a4 eaba
000001f0: 5a38 a8bd c4e9 abbd e24f a03d 197e 023d
00000200: 9eef 633e 8d05 463e 4093 49be a434 a73d
00000210: a70e 0d3e 8ef9 d33d 93e5 373e 366c 123e
00000220: 4477 d7bd ef66 e43d e82d 2e3d 5194 f33d
00000230: 70c1 babd f9e3 963d fc62 3f3e 62b8 aa3d
00000240: 389e 88bd 6fea 6b3e 1ff3 b73d 2b06 b33d
00000250: 3747 c33d 81b2 bd3d 604e bebd 4cf5 263e
00000260: 3a9e ce3d c9d6 5bbe 843b 453d f927 383e
00000270: 8271 fdbd 5d2d eabd b0f6 2dbe 2e94 d03d
00000280: 0080 13be e988 e23d 1bab 56bd 31e6 6cbd
00000290: 1832 3a3e a70d fd3d 8718 34bd e929 2cbd
000002a0: 1adc 0e3e 970f 5cbe 6ca8 303e 8fd7 b6bd
000002b0: c7c8 d7bd d557 163e ba4f 4ebe 766e 083e
000002c0: 5d9d 61b9 568e 093e 75e0 c33d c883 7d3d
000002d0: 5d51 83be f85b 9bbd b5cd 993d 9380 23be
000002e0: 485f 1a3e e61d 803d 8b9e f93d bb9d 1e3e
000002f0: e6bd b03c 8df0 73bd c7ad fd3d 36af 173e
00000300: 7aa2 a23d 78f6 14be d93e 633e 084d 3f3c
00000310: b4d3 b03d 79cd 2fbe 88fc 1e3e 8b8e 763e
00000320: 7d99 d53d 3722 d83d 8678 aa3d d68f ea3d
00000330: e3e6 9ebd bc86 923b f822 0f3e 9056 9fbe
00000340: 4bc8 29bd 6414 f23d a582 793e 9c5a 0bbe
00000350: 5e76 493d a663 2a3c a650 12bd b6b6 ff3d
00000360: 4903 233e 7aee f63d 9eb0 213e 5f5e 23bd
00000370: cc4c f9bd 7370 d63d 705a 2a3e 53e1 dc3d
00000380: 9091 ed3d d3cc 043e 5f06 813b 2229 f93d
00000390: fd12 a43d 18b6 bbbd 37d8 2f3e ab70 8fbe
000003a0: 5c56 60bc 8115 1f3e 3ef2 e43d 90c7 86bd
000003b0: 641f 4b3d e24c 88bd fc21 34be 803d 503d
000003c0: eae9 fdbd 5aee 78be 77a9 423d 4d9b 1c3e
000003d0: 1af6 b03d fe7f 3abe c112 2cbd 1791 b73d
000003e0: c5ed 4e3d a779 04be 7fc3 2f3e 5226 90be
000003f0: 6bbb 393d fb2a 70be b382 0abd d6dc 17be
0.031061837 0.10906195 -0.073731355 0.043072365 0.045030776 -0.047325835 0.12568983 0.19607759
0.144491 0.15515003 0.09252204 -0.027170831 0.0846137 0.21956632 0.18088596 -0.13940695
-0.060854867 0.11027655 -0.0086576445 0.12370898 -0.20346272 0.11287402 0.1365475 -0.15484098
0.11309402 0.24603333 0.09109484 0.17159571 0.19512191 0.15342382 0.13387153 0.1820979
0.014432396 -0.020790901 -0.23520981 0.078555785 0.13752565 0.07952699 0.2202235 0.18933341
-0.21089005 0.12427526 -0.006027381 -0.042901106 0.08486925 -0.000102326594 0.1355898 -0.23974864
0.23222995 0.110541016 0.059668656 -0.083496064 -0.21239749 -0.10950657 -0.044700492 -0.0879469
0.20210807 -0.021154061 -0.036613606 0.14079197 0.1246511 0.17812586 -0.12678228 0.2032602
-0.010216909 -0.26932412 0.19515158 -0.13480096 -0.17185281 -0.13498609 -0.09850692 0.17292345
0.16001399 0.13400131 0.021169528 -0.32015747 0.11867637 -0.1504707 0.081507176 0.20947224
-0.16468364 0.112408124 -0.17100541 0.12618472 0.069250934 0.13660924 0.064506486 0.07912086
0.18585908 0.10169941 -0.07751289 0.17355983 0.20003149 0.010670842 -0.018414972 -0.08472635
0.05384774 0.16178378 0.07021057 0.04512787 -0.22453925 0.13197754 0.07520952 0.080660746
0.11908519 -0.14131285 -0.2541002 0.13339624 0.13580297 0.13170917 -0.06472566 0.16906296
-0.16399865 0.17481571 0.1810797 -0.12293096 0.13896132 0.032070212 -0.11126777 0.01083142
0.15382881 -0.022394756 0.051588424 -0.0017901912 -0.08213873 -0.08394197 0.078277364 0.031858537
0.22259375 0.19338055 -0.19685078 0.08164337 0.1377512 0.10350333 0.1795867 0.14299092
-0.10520795 0.111524455 0.04252425 0.118935235 -0.091189265 0.07367701 0.18690103 0.083359495
-0.06670803 0.23038648 0.089819185 0.08741411 0.095350675 0.092625625 -0.092922926 0.16304511
0.10088773 -0.21468653 0.04815246 0.17983998 -0.123751655 -0.114344336 -0.16988635 0.10184513
-0.14404297 0.1106127 -0.052409273 -0.057836715 0.18183172 0.123561196 -0.043968704 -0.042032156
0.1395115 -0.21490322 0.17251748 -0.08927833 -0.10536342 0.14681943 -0.20147601 0.13323388
-0.00021516295 0.13433203 0.09564296 0.061893255 -0.25648013 -0.07585901 0.07509939 -0.15967016
0.1507541 0.06255703 0.12188443 0.15489857 0.021574926 -0.05955558 0.12386661 0.14812931
0.07941146 -0.14547145 0.22191943 0.0116760805 0.08634129 -0.17168225 0.1552602 0.24077813
0.10429666 0.10553401 0.08323769 0.11453216 -0.07758882 0.004471628 0.13978183 -0.3112073
-0.04145078 0.118202955 0.24366243 -0.13608783 0.04918515 0.010399735 -0.035721444 0.12486021
0.15919222 0.120572045 0.1579003 -0.03988492 -0.12172851 0.10470667 0.16636062 0.10785165
0.116000295 0.12968759 0.003937527 0.121660486 0.08011434 -0.09165591 0.17172323 -0.28015646
-0.013692465 0.15535547 0.111790165 -0.06581032 0.049590483 -0.06655289 -0.17591089 0.0508399
-0.12398131 -0.24309674 0.047524896 0.15293618 0.0864069 -0.18212888 -0.042010073 0.089632206
0.050519723 -0.12937032 0.1716442 -0.28154236 0.04534475 -0.23453896 -0.03381605 -0.14830336

a2c_network.actor_mlp.2.weight f4 [256, 256]
00000000: 5abb 5e3d 6abf f63c 8f0e 0ebe e463 ad3c
00000010: 7bdd ffbd 107b 803d ac31 c2bd 5791 1abe
00000020: 322c fdbc 6bcd d7bd b936 0dbb f243 ab3c
00000030: 01e1 433d ba0d 7d3c 61cf 03be c47d 7b3d
00000040: 696c acbc 27da 98bd cb9c 7abd 33ab a0bd
00000050: f994 12bd 0f0e aebd 56a8 02bd e195 ec3c
00000060: 6793 5a3d 8289 b0bd be42 55be ea88 8fbd
00000070: 3fa8 733c d67f a5bc 6467 eabc 481c 2dbe
00000080: b5b2 a53d 968a 17be 6afa 043e 2d6f 3fbd
00000090: a129 623d bf13 a3bd 3344 c3bd 6adf 10bd
000000a0: 2a55 3c3d 903e ca3d 284b 553d 2e47 d0bd
000000b0: 74e2 dabd 1a46 b43b 6e1b 37be 7ab8 ff3a
000000c0: c554 59bd 0385 d0bd c3aa 5b3d fea2 edbd
000000d0: 8dd0 14bd 2e99 b23b d307 663b 5392 e639
000000e0: 2842 f5bc 8f34 9fbd 885b cbbd 11df 83bc
000000f0: af8c 1e3d 1d62 32bd cad3 e5bc 1c68 6abd
00000100: ab57 dcbc 3fd5 4f3d 9d15 23bd 6d91 193c
00000110: 7d30 a3bd 03b2 c8bc dff0 d13d 9d8f fa3c
00000120: ae47 f83d 9fae 9abc efbf 6bbd 7d05 973b
00000130: c512 eabd 45c0 87bd 0cbe d2bd c07a 30be
00000140: 5ca1 94bd cfcc 7b3c cf94 363b 55c7 06be
00000150: c541 ad3d 4204 ed3c b56f 683c 77e0 30bc
00000160: 7dd9 5a3d a792 893c 26a8 90bd ba61 eebd
00000170: 2f47 0b3d b931 603d 1e05 163d c800 acbd
00000180: 0a35 c3bc 4f47 723c b683 55bc 5b0e f3bd
00000190: 4662 643d 4b3b b63d 72e6 153d 0aa1 eabd
000001a0: a4cf 753b b87d 6a3c 730e 9a3c 3f4c b33d
000001b0: a2b2 8c3d 7521 453d f34f 9f3d 2e0b c6bd
000001c0: b453 80bd 6764 5ebe dd23 8abd c77a fa3b
000001d0: e49e 59bd 6ca5 3f3c 96aa e33c 3457 a23d
000001e0: 0685 e8ba 297b 85bc 8210 1f3d 8dde 2ebc
000001f0: 22f6 98bd b996 85bc 5231 40bc 4dbd 873c
00000200: 045e cbbd cc1d ddbc f171 6bbc 2af4 743d
00000210: 801c 83bd 5c8a c8bd 847d 9e3d e083 77bc
00000220: bd3e fb3c c3ad 05bc 0b6d c13c 605e 313c
00000230: c526 623d e237 363d b57d 19bd d8ec 73bd
00000240: 3451 573c 3019 bfbd ab4a 2abb 3fdf c5bd
00000250: c20e 883d b5b8 5d3d d691 373d fa54 42bd
00000260: 8fa4 273d 99f3 a2bd ec4d 603d b059 b0bd
00000270: 6f8d ec3a 0ea4 563d 8915 c13d 2f61 1b3c
00000280: 48da eebc 400d 85bd 94dc 93bd 8e50 c83a
00000290: a5e7 f0bc eb0a 0abb 8f76 213d de36 9b3d
000002a0: f9fd 55bc 9cd6 673d 48b2 823d 6ff1 813d
000002b0: 3ea5 d03c 22e5 af3d fe62 5f3d 685b bebd
000002c0: 4f23 1ebd 2fd4 b7bc e6e0 393d 81f5 ddbd
000002d0: ba85 93bd 6811 793d 81ea 9d3a 02ad 70bb
000002e0: 57b5 9cbb 540d 8bbd 87aa 5a3d e478 433d
000002f0: 36b9 64bd c802 003d 7d98 033d 9e44 c03c
00000300: b63b 283d 62fa 3bbd b9be 98bd 730b 1abe
00000310: f0d1 f4bc d030 8b3c 1dc9 293d 6a25 45be
00000320: a05f 723d b045 14bd 0c07 e2bc 119e bd3d
00000330: 1a87 cb3c 3b2c 8a3d c906 0d3d 1107 193d
00000340: 5fc9 d2bc edfa e5bd 9232 adbd 65bc 923c
00000350: f33e 933d cd47 9a3d 2d4b 45bd 6438 043d
00000360: e802 3ebd 4a4d 0abd 3dff 01bd f897 79bd
00000370: e7cb 7dbd 4145 41bd 8d78 c3bd fecb 06be
00000380: 1a3c 713d 0f8d 23bd ad86 13be a6bd dd3c
00000390: dd9c 173e 762b a63c 5eb1 6f3b 2e03 92bd
000003a0: 41ec dc3d ef3f 87bb 3833 ba3d 4e0d 843d
000003b0: 7dce bdbd de7b 8f3d 30b8 12bd 0bbf 203d
000003c0: 8473 24be 3697 ac3d 7299 c3bc e142 113d
000003d0: 63b6 9b3d ed3a bdbd 003d 01bd bef9 243d
000003e0: d0cd 03bd a0bf 17bc 594d 61bc b913 3ebd
000003f0: 2317 64bc 871e 053e b6bf 003c be33 fab9
0.05437789 0.03012057 -0.13872741 0.021165796 -0.12493416 0.06273472 -0.094821304 -0.15094505
-0.030904863 -0.10537227 -0.002154751 0.020906422 0.047822002 0.015445167 -0.12872078 0.061399236
-0.021047788 -0.07463484 -0.061184686 -0.07845154 -0.035786603 -0.08498775 -0.03189882 0.028880062
0.05336323 -0.086199775 -0.20826241 -0.07008536 0.014871656 -0.020202558 -0.028613754 -0.1690532
0.08090726 -0.1479896 0.1298615 -0.046736885 0.05521548 -0.07962751 -0.09534492 -0.035369314
0.045979656 0.09875214 0.052073628 -0.101698264 -0.10687724 0.005501521 -0.17881557 0.0019509934
-0.05305936 -0.1018162 0.053629648 -0.11603354 -0.036331702 0.0054503893 0.0035099878 0.0004397804
-0.029938772 -0.07773697 -0.099295676 -0.016097577 0.038708385 -0.0435506 -0.02805509 -0.057228193
-0.026897272 0.050740477 -0.039815534 0.009373051 -0.07968233 -0.024498945 0.10251021 0.030586058
0.12123047 -0.018882094 -0.05755609 0.0046088086 -0.11429361 -0.066284694 -0.10290155 -0.17234325
-0.07257339 0.015368654 0.0027859693 -0.13161977 0.0845981 0.028932694 0.014186789 -0.010795704
0.05343007 0.016793562 -0.07063322 -0.116397336 0.034003433 0.05473492 0.036625974 -0.083985865
-0.023829002 0.014787509 -0.013031891 -0.118679725 0.055757783 0.08898028 0.036596723 -0.11456497
0.0037507797 0.0143122 0.018805718 0.08754777 0.06870009 0.04812761 0.07778921 -0.09670101
-0.06265965 -0.21717988 -0.06745122 0.0076440307 -0.053130046 0.0116971545 0.027791303 0.07926789
-0.0017739839 -0.016294079 0.038834102 -0.010673177 -0.07468821 -0.016307222 -0.011730509 0.016569758
-0.099300414 -0.026991747 -0.0143704275 0.059803165 -0.0640192 -0.09792015 0.07738784 -0.015107125
0.030669564 -0.008159104 0.023611566 0.010825723 0.055212755 0.044486888 -0.0374734 -0.059552044
0.013141919 -0.09330976 -0.0025984447 -0.096617214 0.0664344 0.05413123 0.044816814 -0.04744432
0.04092842 -0.07956619 0.054761812 -0.086108565 0.0018047522 0.05240255 0.09427936 0.00948362
-0.029156819 -0.06496668 -0.07219806 0.0015282796 -0.029407332 -0.0021063637 0.039419707 0.075788245
-0.01306104 0.05660115 0.06381661 0.06344878 0.025469419 0.085886255 0.054537766 -0.09294778
-0.03860789 -0.022440044 0.045380495 -0.10837842 -0.07203241 0.060807616 0.0012048037 -0.0036724214
-0.0047823596 -0.067896515 0.053385284 0.047722712 -0.055840693 0.031252652 0.032127846 0.02347022
0.04107257 -0.04589308 -0.074582525 -0.1504343 -0.029885262 0.016991049 0.041451562 -0.19252554
0.059173226 -0.03619927 -0.02759125 0.092586644 0.024844695 0.067467175 0.0344303 0.037360255
-0.025730787 -0.11229501 -0.08456911 0.0179121 0.07189741 0.07533226 -0.048167396 0.03228034
-0.04638949 -0.033765115 -0.031737555 -0.060935944 -0.061962035 -0.047185186 -0.095444776 -0.13163754
0.058895208 -0.039929446 -0.14406843 0.02706797 0.14805932 0.020284396 0.0036574225 -0.07129513
0.10787249 -0.0041274945 0.090918005 0.0644785 -0.092679 0.07006048 -0.035820186 0.039244693
-0.1605969 0.08427279 -0.02387688 0.03546417 0.07603147 -0.09239755 -0.031552315 0.040277235
-0.0321787 -0.009261996 -0.013751351 -0.046405528 -0.013921532 0.12999927 0.007858207 -0.00047722267

a2c_network.actor_mlp.2.bias f4 [256]
00000000: 0b67 593d b563 17be 33c0 103d 7464 223d
00000010: 164e 38bd 5fbd 4c3d b776 693d 6680 96bd
00000020: 49a9 6d3d 21ed 82bd 8cc3 26be 5299 7a3d
00000030: 9317 2a3d caf4 9abd 7066 723d 95b8 17bd
00000040: bda7 a4bc 731b 7f3d ff2b cabd 2beb 263d
00000050: 210f 763d 4a39 673d 7fbb 2d3d aeb0 683d
00000060: 34a6 35be 0ddf 3eb9 1463 1bbe 212d f03c
00000070: c02d 41bd 6bf9 39bd f5db 923d dcea 25be
00000080: 0ff9 cebd f350 473d 1242 af3c f49d 5a3d
00000090: 4e54 f43c 018d 82bd a13f 653d bd9c debd
000000a0: 4190 82bc e6aa f2bc b969 13bd fbd5 613d
000000b0: 1e1e 563d f3b7 d3bd 2715 65bd 36f9 a4bd
000000c0: c17d 273d 2a85 6bbd 480c 4f3d a296 6fbd
000000d0: 510a 1d3d 39f6 683d 3ba5 843d 67e4 7cbd
000000e0: dcb8 47bd 1a84 063d dd21 2f3d ca3c 14bd
000000f0: aa08 333d 3cb6 66bd 98ec bbbc 2a74 86bd
00000100: 88fb 99bd 87c4 68bd 6d78 b9bd 4657 43bd
00000110: bca7 2b3d 48cd ddbd 9be0 afbd 25c8 37bd
00000120: b00b 733d b054 eebd 648b ac3c 141b 043d
00000130: c825 85bd 3b26 30bd 5bba 3a3d 5702 7b3c
00000140: 4740 19bd 4029 ba3d dc2e a43d 9fb4 c5bc
00000150: 2b7c 4abd 7278 113c c144 273d d1e1 8c3d
00000160: 4069 0dbe 2c58 333d d088 63be 2921 5cbd
00000170: 3532 54bd f769 afbd 3a7d 4b3c 22a9 acbd
00000180: 5b3d 5f3d 3921 473d 6c01 e9bd a8ee 093d
00000190: 1713 32bd 18e1 68bd 1597 9bbd 4f07 1abd
000001a0: a1b3 6d3d 1dd6 383d 653a 9abd c6ad 54bd
000001b0: a657 5bbe 5de6 0dbe 0fa5 723d 0033 843d
000001c0: 8c81 f43b e46b 803d 8154 23be f67b 5b3d
000001d0: 2342 5fbd c73d 663d 80a2 7c3d a076 df3c
000001e0: 6c50 a7bd a4d9 883d b628 91bc 3e88 193d
000001f0: b585 0e3d a46d 90bd 6a3b 75bd ad68 f63c
00000200: 9212 9cbd 8eb9 5f3d 34f8 03bd 3aac 74bc
00000210: e399 80bd 566f 95bd b285 813d e1d6 773d
00000220: 2964 04be d5de da3c 1122 4cbe be37 64bd
00000230: fb17 fd3b 0cac 2b3d 29c6 eebd 2203 413d
00000240: 2c2b d6bd 65da 10bd 4f8c 4e3d 23bf 833d
00000250: 4247 9fbd 71ca 54be b42f 8bbd 3200 7d3d
00000260: c7f3 253d c6c0 cabd 7089 633d d3e6 933c
00000270: 80a2 4e3d f0c6 43be 67fd 46be 5187 a6bd
00000280: d2b6 473d d4b7 56bd b3ba 213d 91a6 373d
00000290: d6c6 163d 7f9a 5dbd 5f87 9bbd 1c38 83bd
000002a0: 4e94 afbd 63bd 72bd 4392 9fbd 8dc1 49bd
000002b0: 0447 88bd 519a 8a3d e2cd 5dbd a891 f0bd
000002c0: af6b 0abd 9456 c0bd 0228 43bd d3c0 8c3d
000002d0: e8b8 3cbd 5cf6 42bd fd7b 523d e0f0 233d
000002e0: 1cac 923c 8239 3dbd eeb4 91bd b18d 11be
000002f0: d33f 413d d2dc 2dbe b048 41bd 2824 4b3d
00000300: ca80 79bd e952 393d 6a0e 04bd 6524 65bd
00000310: 78f6 0fbe 7201 30be cfa0 0bbe f3ce dbbc
00000320: cdf4 17bc 2088 4bbd 476a f5bd 064a 5a3d
00000330: 0a7f 463d 0c5e 69bd 579c 933d 1a38 1ebe
00000340: 20f1 863c 2bfe b1bd bf7e 11be 37ea 7bbd
00000350: 006c 8f3d bb2b 5e3d 1eb1 dbbc 6dbb 923d
00000360: 13af 333d 4c7a 9e3c db77 98bd 22bf b7bd
00000370: 0125 e1bd a7cd 863c 0390 dabd e7b2 2c3d
00000380: c9fa 82be 98cb 033d 23a2 423d 9bfe 5f3d
00000390: 8809 383d f356 993c f3b0 00be 6c5d 553d
000003a0: e3b1 2cbe e721 a63d e92c 4c3d 1d6d e73c
000003b0: 848b 5a3d 2688 b6bd 7f5c 85bd e57f 51be
000003c0: db49 5b3d 238d 193d 6d15 acbd 1d9f 0ebe
000003d0: 9b64 a3bd 5cf1 11bd 58dc e9bc 7e59 5e3c
000003e0: 1462 0fbe 7988 92bd 8845 28be 1264 c6bd
000003f0: 4bf7 7f3d 8793 92bd fc14 8b3d 318e 553d
0.053076785 -0.14784129 0.035339545 0.03964658 -0.044996344 0.049985286 0.05699798 -0.07348709
0.05802277 -0.06392885 -0.16285533 0.061181374 0.04152639 -0.07566221 0.059179723 -0.037041266
-0.020099515 0.062282037 -0.09871673 0.040751617 0.06007302 0.05645112 0.04241514 0.05680912
-0.17739183 -0.00018202905 -0.15174514 0.029318394 -0.04716277 -0.04540388 0.0717086 -0.16202873
-0.10106098 0.048661184 0.02139381 0.053373292 0.029825356 -0.063745506 0.055968884 -0.10869739
-0.015937926 -0.029622506 -0.035989497 0.05513571 0.052274816 -0.1033782 -0.055928376 -0.08055346
0.040891413 -0.057500042 0.05054882 -0.058493264 0.038339917 0.05687544 0.06476828 -0.06174126
-0.04876028 0.032840826 0.042756904 -0.036190785 0.043709435 -0.056326136 -0.022939965 -0.06565125
-0.07518679 -0.056828048 -0.090561725 -0.047690652 0.04190801 -0.1083017 -0.08587762 -0.044868607
0.059337318 -0.116372466 0.02106256 0.032252386 -0.06501347 -0.04300521 0.04558788 0.015320382
-0.037414815 0.09089899 0.0801675 -0.024133978 -0.049434822 0.008878814 0.040837053 0.068790086
-0.13809681 0.04378526 -0.22220159 -0.05374256 -0.051805694 -0.08565133 0.012419993 -0.08430697
0.054501873 0.048615668 -0.11377224 0.033674866 -0.043475237 -0.05685529 -0.07597176 -0.037604626
0.058032636 0.04512607 -0.07530669 -0.051923536 -0.21420154 -0.13857408 0.059239443 0.0645504
0.0074617323 0.062705785 -0.15950204 0.053585015 -0.054506432 0.05621126 0.06167841 0.027278244
-0.08169636 0.06682137 -0.017719608 0.037483446 0.03479548 -0.07052162 -0.059871115 0.03007921
-0.076207295 0.054620318 -0.032219127 -0.01493364 -0.062793516 -0.07296626 0.063243285 0.06050766
-0.12928833 0.026717583 -0.1993487 -0.055717222 0.007723806 0.041912124 -0.1165889 0.04712213
-0.10457453 -0.035364527 0.050426777 0.06432941 -0.07777263 -0.2078035 -0.06796208 0.061767764
0.040515687 -0.0990005 0.055550992 0.018054402 0.05044794 -0.19118857 -0.19432603 -0.08131278
0.048758335 -0.052421406 0.03948469 0.044836584 0.03681072 -0.054102417 -0.07594179 -0.064071864
-0.08573209 -0.059262644 -0.07791569 -0.04925685 -0.0665417 0.06767715 -0.054151423 -0.11746532
-0.0337941 -0.093915135 -0.047645576 0.06872716 -0.046074778 -0.047598228 0.051387776 0.04002464
0.017904334 -0.04619742 -0.07114588 -0.14214207 0.04718001 -0.16978768 -0.04718846 0.04959503
-0.06091384 0.045245085 -0.03224031 -0.05594291 -0.14058864 -0.17188051 -0.13635562 -0.02683208
-0.009274674 -0.049690366 -0.119831614 0.05329325 0.048460998 -0.056974456 0.07207554 -0.15451089
0.0164724 -0.08691057 -0.14208506 -0.06150266 0.07003021 0.054240923 -0.026817854 0.07164655
0.043868136 0.019345425 -0.074447356 -0.089720026 -0.10993386 0.016455485 -0.10671999 0.042162802
-0.2558196 0.032176584 0.047517907 0.05468617 0.044930965 0.018718218 -0.12567501 0.052091047
-0.16864733 0.08111935 0.049847517 0.028250271 0.05335571 -0.08912687 -0.06511783 -0.20458944
0.05353723 0.037488114 -0.08402524 -0.13927884 -0.07978173 -0.03563057 -0.02854745 0.013571141
-0.14002258 -0.07154936 -0.16432774 -0.09687056 0.062491696 -0.07157045 0.06791112 0.052137557

a2c_network.value.weight f4 [1, 256]
00000000: 0b6b c33b 9806 3ebc 9671 0c3a 97f1 fcbb
00000010: d052 eeb8 44ef 89ba fd67 28bc f4c6 0c3c
00000020: 9e3b 3c3c 16e0 213b d595 d2bc 50e6 5a3c
00000030: 443c e03b f13b 38bd da9b 8dbc 15f0 e13a
00000040: 30ec 11bd 089b 09bb d20b 0f3d b7a8 b8b9
00000050: b0f1 bc3b 4a53 023c 2246 a3bc b9b1 e13a
00000060: 29fa c83c 62ee 193c c082 0c3d 69d3 1cbd
00000070: 0b6c 8abb 4bc6 ec3b 8e52 2abc bc65 d2bb
00000080: 3b37 c13c f73a d2ba 7b16 023d 1857 543a
00000090: c4b5 40bb d9b6 5e3b cb68 24b9 c4f0 49bb
000000a0: 6880 183c 9114 14bd 6ba9 53b9 1bd4 a03b
000000b0: a533 763b 2b07 db3c 9d88 a03b 96de a23c
000000c0: f022 04bd 4cbe a03c f669 523c 576f c639
000000d0: 047b aaba 0566 033b e517 ad3b 7415 efbc
000000e0: 1845 bcbb df84 c639 dca7 92bb 2681 9b3c
000000f0: 6859 a2bb 4028 62bd 9b1c 28bd 6a53 e0bc
00000100: 73bd e7bc 1f98 cb3b 15b4 c43c 575b 53bb
00000110: 64d8 4d3c 85bd 8a3b 46de d8bd 9514 eabb
00000120: ebae 8a3c c044 433d e99f d23d 6505 97ba
00000130: 9b29 ca3a 889b 293b a237 2f3c ae15 2c3d
00000140: f387 e13a 03d6 cb3c c31c f93b 1a18 0c3e
00000150: 37f8 4abc be3a 113d 0711 e2b9 2012 b5ba
00000160: 38a9 a2bc b00c a63b 1af9 613c 8161 59ba
00000170: cfb1 333a 79d4 443b d880 e9bc cae8 cebd
00000180: 1bf7 b43b f094 d13c a40f 14bd 127a 06bc
00000190: bbc6 183c 91f8 41bb f112 993d 983c e33b
000001a0: e867 83bc b006 3a3b f814 853c 1836 463b
000001b0: f9cf 03bd e25c 8bbd b96d 16bb 96ce d1b9
000001c0: 67fb 6ebd ce94 94bb 465a a2bb 0d0b 113c
000001d0: 2bf4 acbc b1e4 383c 1281 b7ba d690 9f3b
000001e0: f006 c4bb 2a05 84bb c3e8 e83c 6481 d13b
000001f0: 6f9b 5939 539b a53b 973e 94bc ea6f a1bc
00000200: 06f1 92bc 6bb8 963a 933a 09b8 b950 54bd
00000210: d85d 4239 5875 21bd 88fc a13b 0c4f 103c
00000220: aafc 5ebb 228d 573b 9a29 e9bd 5fa1 3b3a
00000230: 85d8 d13d 1175 37bb 8c0e 88ba 0cda 593c
00000240: 628f ac3b f7c1 153b b3bf 4e3c a211 933b
00000250: fb40 923b e5b4 8b3c c28a dc3b e7c5 c83b
00000260: bb79 9cbb 70cd d2bd ae8b 26bc 605e 2c3d
00000270: da55 b1bb 7608 34bd 4a27 f7bc af17 103d
00000280: fff2 cbbb b640 69bb 1ab9 a73b d713 903a
00000290: 71eb 94bb dc41 b33c f591 c13b 6e8d 823c
000002a0: 0ad7 a9bc 113f 49bb 12f0 9b3d aaa3 f13c
000002b0: 4008 87bc 2a01 df3b 0705 8bbc 8407 b1bb
000002c0: c9a6 803d 410c bf3c 38a4 d23a 9cca f1bb
000002d0: f2b0 073c ea64 c5bb 3a4f 933c a908 4f3a
000002e0: e864 23ba 6e94 053c b568 adbc c153 8e3a
000002f0: 543c f1ba b765 4abc 54f6 9c3c 30c1 533c
00000300: 56ad b2bb e4d6 553c eaa6 c5ba 56c7 0bbb
00000310: c01c b8bc 270a cdbd 3053 833d 3d78 07bd
00000320: efb3 4eba b9ab 5b3b 0fe7 8fbc 4940 ddbc
00000330: fa6b 7cbb 5661 a23c 36d0 b33d 9ad7 e2bb
00000340: b7cc 553c 5878 133d 3c44 a5bc ed87 afbc
00000350: 087a 363c d7c5 30ba 2589 7e3b 7911 113b
00000360: 55d0 e83b 34e7 6f3d 4df0 3b3c 84ff 95bd
00000370: 6fad e73c c466 4a3d 6db4 d63b d3b3 183a
00000380: 646b 8cbc 9802 08be 3d69 8a3b bc8c 4bbc
00000390: aafa d53a 7d38 453c 5232 193c 4a3d 973b
000003a0: 9507 b0bd 9485 a33c 2263 00bb 9937 023c
000003b0: 72e8 273c 4c93 523a 46b7 0abd 8a67 31bd
000003c0: c12d b73c d1f4 d23b 198b acbc 82c1 92bc
000003d0: 9c4f 5abd 3c38 a3b9 6fca 333b 7f34 00bc
000003e0: 8623 6c3a 2f92 45bc 4158 e6bb 9ba3 eebd
000003f0: 6bf9 c23b a998 693c 41c6 be3c d1c8 b1bc
0.0059636883 -0.011598252 0.0005357502 -0.0077192294 -0.000113641494 -0.0010523577 -0.010278699 0.008592356
0.011488823 0.0024700216 -0.025706211 0.013360575 0.0068431217 -0.04497904 -0.01728623 0.0017237688
-0.035625637 -0.0020996947 0.034923382 -0.00035220917 0.005766116 0.007954428 -0.019930903 0.0017219103
0.024533348 0.009395214 0.03430438 -0.038287554 -0.0042243055 0.007225787 -0.010395659 -0.006420819
0.023585906 -0.0016039301 0.03175972 0.0008100136 -0.0029405216 0.0033983497 -0.00015679297 -0.0030813674
0.009307958 -0.036152426 -0.00020185641 0.0049080974 0.0037567404 0.026736816 0.004899098 0.019881528
-0.03225988 0.01962199 0.012842646 0.00037848458 -0.0013006632 0.0020049822 0.0052823895 -0.029185034
-0.0057455413 0.000378645 -0.004475577 0.018982481 -0.0049545057 -0.055214167 -0.041042905 -0.027383525
-0.028288579 0.0062132026 0.024011651 -0.0032250488 0.012563799 0.0042340183 -0.1058927 -0.007143567
0.01692911 0.047672987 0.10284407 -0.0011521993 0.0015423776 0.0025880057 0.010694416 0.042012863
0.0017206654 0.024882322 0.0076023056 0.13681069 -0.012388281 0.03545641 -0.00043118765 -0.0013814606
-0.01985608 0.0050674304 0.013792301 -0.0008292422 0.00068548037 0.003003387 -0.02850382 -0.10102995
0.0055226213 0.025583714 -0.03614773 -0.008207815 0.009324725 -0.002959762 0.07474316 0.0069347136
-0.016040757 0.0028385334 0.01624535 0.0030244645 -0.03218076 -0.06804825 -0.0022953583 -0.00040017505
-0.058345225 -0.0045343405 -0.004954609 0.008852732 -0.021112522 0.011284993 -0.0014000258 0.0048695607
-0.0059822723 -0.004028936 0.028431302 0.0063935984 0.00020752636 0.0050539165 -0.018096251 -0.019706685
-0.017937195 0.0011499053 -3.2717897e-05 -0.051834796 0.00018536241 -0.03941855 0.004943434 0.008807909
-0.0034025111 0.0032890518 -0.11384888 0.000715753 0.10246376 -0.002799336 -0.0010380312 0.013296615
0.005266116 0.0022851208 0.012618947 0.004488186 0.0044633127 0.01705403 0.0067304084 0.0061271074
-0.0047752536 -0.1029309 -0.010165138 0.04208219 -0.0054118456 -0.04395338 -0.030170102 0.035178836
-0.0062240358 -0.003559155 0.0051185014 0.0010992241 -0.0045446684 0.02188199 0.005907292 0.01593658
-0.020732421 -0.0030707757 0.07614149 0.029496986 -0.016483426 0.0068055587 -0.01697017 -0.0054025073
0.06281812 0.023321273 0.001607067 -0.0073788892 0.008281933 -0.006023993 0.017982114 0.0007897714
-0.0006232993 0.008153064 -0.021168092 0.0010858701 -0.001840482 -0.012353352 0.019160427 0.012924477
-0.005452792 0.013051722 -0.0015079651 -0.002132853 -0.022474647 -0.10011702 0.06412351 -0.033073653
-0.00078850886 0.0033519103 -0.017566232 -0.027008193 -0.0038516507 0.019821804 0.087799475 -0.0069226744
0.013049296 0.03600344 -0.020174138 -0.02142712 0.011137493 -0.00067433476 0.0038839069 0.0022135659
0.0071049132 0.0585701 0.011470866 -0.07324126 0.028280942 0.04941441 0.00655227 0.0005825136
-0.017141052 -0.1328224 0.004223971 -0.01242369 0.0016325314 0.012037394 0.009350376 0.0046154605
-0.08595196 0.019961156 -0.0019590338 0.007947826 0.01024829 0.0008032813 -0.03386619 -0.043311633
0.022360684 0.006437876 -0.02106242 -0.017914537 -0.053298578 -0.0003113168 0.0027433892 -0.007825016
0.0009007979 -0.012058779 -0.0070295637 -0.11652299 0.005950143 0.014257588 0.023287894 -0.021702202

a2c_network.mu.weight f4 [6, 256]
00000000: a1c2 cf3b 35fe 03bb 4bc5 df3a 7269 a9bb
00000010: c057 cf3a 27b3 85bb bd20 853b 01d4 c139
00000020: e661 123b bf41 293b 16b7 0c3d fea9 e73b
00000030: d63f 4b3b 36f1 a9ba 0e4b 50bb 3bf9 c63b
00000040: 6bb0 7d3b 4a68 dcb9 57dc 14bc b74a af3b
00000050: ba49 5e3b 94b8 20ba ff95 01bc 383e 8e3b
00000060: 4b01 1dbd a138 6a3c 20cc 20bc 62e1 58bc
00000070: f2e0 9aba ae11 2a3a e706 1fbb 34b3 6fbd
00000080: db9b 09bb e2ff 803b 65f0 21bc bc31 15bb
00000090: 24e8 0abc 4e35 f6ba e40d 87b9 7ef7 a43b
000000a0: e9bd 6d3b b2cb 9bba 38e5 8dba bfaf 9a3a
000000b0: 4f2c 72ba 1d31 bdba 2434 bf3b 88c3 36bc
000000c0: 1144 bb3c 07ba d23b 3378 65ba 1bd0 b239
000000d0: a092 233a d22c abb9 b99b 8bba 1aca 28bc
000000e0: ff30 f3ba 345d 093a 0a0f 8cba 06c1 1dbc
000000f0: 4714 46bb 6f75 db3c 0556 89bb 86be 8fbc
00000100: f5d7 51bc c509 fc3b 2d0a c13b 2df9 d13b
00000110: 7b16 1eb8 48b2 103c cc45 b6bb 3c79 df3b
00000120: 2fbb 1e3b 7555 0f3c 4a8f 973c a650 083b
00000130: cbc2 93b9 56b8 553b 0036 243b 8a07 4ebc
00000140: fb99 093b 6ced f03b 1af1 973a 5af5 0e3d
00000150: 54cd afb9 4d23 8d3c fe57 1e3b 4046 0d3b
00000160: 6839 6cbd a55c 9aba fc1b f0bc d7d5 81ba
00000170: bf36 68bb 33a8 0b3b 789b 3039 c40d 4dba
00000180: 4b8b 513a 7d2c 83bb 91d5 903d 4358 573a
00000190: c414 b33b 0e76 223c 257f 343c a4fe b63b
000001a0: ee62 123b 6ac0 8d3b c78f 553b 2444 8c3b
000001b0: 5415 ea3d 55c9 093d 3f05 59bb 7260 5ebb
000001c0: 080a 03bc a7b3 1f3b 016d a8bd 419f bdba
000001d0: 0779 a43a 7def 25bb 901a 4b3b 433c 893b
000001e0: f430 983b 5b3f ab3b 782f aebc c76b 18bb
000001f0: 148a bc3a f91c 3fbb f98b 513c 7ecf 113b
00000200: 3cce 333b b04b f9ba 34c1 06bc 220e b93c
00000210: ae7a e938 313a 943a c73d f33a 6a56 c53b
00000220: 8fbc 473c b56a ecba fa0d 69bb fc74 633a
00000230: bca2 9a3b 454a 5bbb d4e4 513d 2e49 6d39
00000240: c345 5c3b 3503 363c f4ca 0d3b 3a36 493b
00000250: 3319 183c 9db0 56bb ec30 093c f4b5 5eba
00000260: cce3 dcba 3d54 2bbd 090a 0438 81d4 5dba
00000270: 90b8 2d3b 9576 74bd dbdf c43d b51e f2bb
00000280: d653 6a3b 67fa 5bbb 684a bd3a 2ac1 cf3a
00000290: 1663 19bb 655b c93b 4ade 283b b3c4 8fbb
000002a0: d3ce fd3c b484 7cbb 3ccf ea3b d1fe 8cb9
000002b0: b251 ad3b 47ac 74b9 326b f3bb f02a 523b
000002c0: 617c a2bc fefa 7cbc 664c 403c d6ef 60bb
000002d0: bc09 4c3c 56db a83b f779 253b c80f 743b
000002e0: 7740 19bb 09ce 6d3c 1cd5 b53c 8e17 66bd
000002f0: 445d ad3b 3710 163c aad7 7db8 463d 58bb
00000300: f7c1 833b c818 10bb d109 afba 4655 2c3b
00000310: 6a23 b3bb 969b 6ebd 214c a8bc 4fdf 263c
00000320: 49f1 01b9 03ac 923a 8f60 cc39 c841 62bb
00000330: e760 b63a 4078 8fbb de71 c73c 2566 b3b8
00000340: 1d03 093c 76b5 553c b2cb 963a fd8c 883c
00000350: 612e f73a a703 b23b 1abf 9a3a 578a 893b
00000360: 6dfc f33a 544d 29bb 7536 7a3c 0362 57bb
00000370: a372 0ebd 6866 e93c 6c17 1c3c 3aaf 3b3b
00000380: 2cf7 73bd 45e8 78bb 75a1 97ba 3c84 aa3b
00000390: 6027 8c3a 3b98 9ebb 7215 c1bc c757 5a3a
000003a0: a7af 153e 13d3 a83b 36b9 c03a 5598 9ebb
000003b0: da0c 413b 97f7 f53b eb0e c7ba 5b55 f8bd
000003c0: 0baa 123a 67c8 353b f674 42bc a383 52bc
000003d0: 6e32 b8bb 4664 163c 8c57 23bb 4169 bb3b
000003e0: 2529 73bd 4e49 383c d28c 743d 6dff 2ebc
000003f0: bfd1 353a d6d4 e73b e1ad 453c ff89 2dbc
0.0063403402 -0.0020140533 0.0017072348 -0.0051700408 0.0015818998 -0.0040801945 0.0040627406 0.00036969784
0.0022336184 0.0025826541 0.03435429 0.007069825 0.003101339 -0.0012965563 -0.0031783017 0.006072191
0.003870989 -0.0004203937 -0.009085736 0.005349483 0.0033918456 -0.000613102 -0.007909297 0.004340913
-0.03833131 0.014295728 -0.009814292 -0.013237329 -0.0011816307 0.000648762 -0.0024265589 -0.05852051
-0.0020997438 0.0039367536 -0.009883975 -0.002276524 -0.008478198 -0.0018784197 -0.00025759556 0.005034386
0.0036276525 -0.0011886267 -0.0010825759 0.0011801644 -0.000923817 -0.0014434193 0.005835073 -0.011155017
0.022859605 0.0064308676 -0.0008753568 0.00034105856 0.00062398054 -0.00032649055 -0.0010651267 -0.010302091
-0.0018554031 0.00052400236 -0.0010685634 -0.00962854 -0.0030224489 0.026789395 -0.0041911625 -0.017546903
-0.012807836 0.0076915943 0.0058911056 0.006407878 -3.7691072e-05 0.008831568 -0.0055625197 0.006819872
0.0024220457 0.008748402 0.018500943 0.0020800023 -0.00028183157 0.0032611093 0.00250566 -0.01257504
0.002099632 0.0073525216 0.001159224 0.034901954 -0.00033531582 0.017228747 0.0024161334 0.0021556765
-0.057671934 -0.0011776878 -0.029310219 -0.0009905648 -0.0035433022 0.0021309971 0.00016842585 -0.00078221806
0.00079934736 -0.004003106 0.070719846 0.0008214751 0.005465122 0.009915842 0.011016642 0.0055845547
0.0022336799 0.004325916 0.0032586919 0.004280584 0.11429849 0.03363927 -0.00331147 -0.0033931998
-0.007997997 0.0024368556 -0.08223916 -0.0014467017 0.0012548276 -0.0025319748 0.0030991174 0.004188092
0.0046445075 0.0052260584 -0.02126287 -0.00232576 0.0014384412 -0.0029161556 0.01278972 0.002224892
0.0027436158 -0.0019019749 -0.008224774 0.022589747 0.00011133157 0.0011308846 0.001855784 0.0060222642
0.012190952 -0.0018037172 -0.003556131 0.0008676795 0.0047191065 -0.0033461016 0.051243618 0.00022629343
0.0033610917 0.011109163 0.0021635862 0.0030702488 0.009283352 -0.0032759078 0.00837348 -0.0008495741
-0.0016852557 -0.041828383 3.14806e-05 -0.00084621465 0.0026507713 -0.0596834 0.096130095 -0.0073889145
0.0035755537 -0.0033566 0.001444173 0.0015850414 -0.0023405007 0.0061449283 0.002576726 -0.004387462
0.03098241 -0.0038531246 0.0071658175 -0.00026892734 0.00528928 -0.00023333832 -0.00742855 0.003206905
-0.0198347 -0.015440701 0.011736965 -0.003432264 0.012453493 0.0051531 0.0025249699 0.0037240852
-0.0023384371 0.014514455 0.022196345 -0.056174807 0.005290659 0.009159139 -6.0520753e-05 -0.0032995506
0.004020925 -0.0021987427 -0.0013354366 0.0026295944 -0.005466868 -0.058253847 -0.020544114 0.010185077
-0.00012392284 0.001119018 0.00038981854 -0.0034524072 0.0013914377 -0.0043783486 0.024346288 -8.554411e-05
0.008362559 0.013043752 0.0011504798 0.016668791 0.0018858426 0.0054325643 0.001180622 0.0041973996
0.0018614657 -0.0025833445 0.015271773 -0.0032864816 -0.034777295 0.028491214 0.009527069 0.0028638379
-0.059561893 -0.003798024 -0.0011568504 0.005203752 0.0010692887 -0.0048399246 -0.023569796 0.000832912
0.14617787 0.005152115 0.0014703635 -0.0048399367 0.0029457123 0.0075063216 -0.0015186941 -0.12125655
0.00055947964 0.0027737857 -0.011868706 -0.012848767 -0.005621246 0.0091791805 -0.0024924008 0.0057193344
-0.05936541 0.011247946 0.05970461 -0.010681015 0.00069358567 0.0070749326 0.012065382 -0.010591983

a2c_network.mu.bias f4 [6]
00000000: be41 a9bd 672a 913d 8e5c a9bd 4a5e b33b
00000010: 38a3 97bd db54 7bbe
-0.082644925 0.07088166 -0.082696065 0.0054738866 -0.074041784 -0.24544089

exp_avg f4 [6]
00000000: adbf c23a 95b2 783a 5f24 f439 dcab 71ba
00000010: baf5 83ba 0afb cbb7
0.0014858149 0.000948706 0.00046566405 -0.00092190295 -0.0010067739 -2.4316385e-05

exp_avg_sq f4 [6]
00000000: 7251 0c38 949d 0c38 3fb0 1538 99e1 1c38
00000010: 149b 4438 7646 1238
3.3454453e-05 3.3525357e-05 3.568851e-05 3.7403403e-05 4.687447e-05 3.4874734e-05

exp_avg f4 [256, 40]
00000000: fca6 9d35 7673 9fb5 23c9 6134 fca6 9db5
00000010: 23c9 6134 0000 0000 9e6a 9db8 49eb 16b8
00000020: bf5f 1739 0efa 97b8 a0d7 7ab8 9158 1339
00000030: b241 1f39 bcc1 ad39 d9f8 7438 d31b 0e38
00000040: ce69 8c38 309e c638 f077 1ab7 c45f 8138
00000050: 3545 2939 879d fab7 3178 76b9 f2d5 a138
00000060: 5ae9 e4b8 5745 2639 188c 3cb9 ce9d 13b9
00000070: 0e56 3339 4ff2 8639 660a c4b7 2c65 2734
00000080: a242 89b3 0400 0080 21a3 eb33 ee49 3baf
00000090: 0400 0080 2c65 2734 0b59 8833 0400 0080
000000a0: f69c 9f37 0776 9fb7 529c 36b5 f69c 9fb7
000000b0: 529c 36b5 0000 0000 6698 0d38 ecac 0fb8
000000c0: f5fd 74b9 2115 0938 278c 7cb8 d892 82b9
000000d0: ddb2 143a f087 8ab9 b499 8e38 5af9 b7b7
000000e0: e315 87b7 832b 8eb8 9466 c6b6 4b36 3339
000000f0: f485 4cb8 fda0 16b7 ac44 ba38 3c60 b138
00000100: ab8e af38 22c2 8eb9 a157 4eb9 814f f0b8
00000110: 021f 0139 2d53 8eb8 3226 97b9 2d49 7fb3
00000120: 5308 2432 0400 0000 b57a ddb3 f99b e72e
00000130: 0400 0000 2d49 7fb3 8e25 21b2 0400 0000
00000140: 1661 2837 8464 28b7 0f74 38b4 1661 28b7
00000150: 0f74 38b4 0000 0000 1da3 3b36 6e0b 3c37
00000160: 4c4e 5bb8 0d3d 93b6 0aea a937 f702 2bb8
00000170: e7e2 53b8 2b9f 2fb9 b952 e1b7 f4c5 62b6
00000180: 8b00 04b8 ad16 25b9 e37b 6138 fac3 2ab8
00000190: 4324 91b8 1f78 9837 c501 1a39 cace 2939
000001a0: 415a 21b8 7cfc 7cb8 1cb2 2039 a267 a937
000001b0: f60f 9db9 8037 f037 49e4 c238 7947 a1b3
000001c0: c7d9 7e33 0400 0000 d0bc 72b2 a735 352f
000001d0: 0400 0000 7947 a1b3 17fb 7cb3 0400 0000
000001e0: 6881 5234 3563 51b4 d39c 8731 6881 52b4
000001f0: d39c 8731 0000 0000 6f02 65b8 934e 0cb8
00000200: e065 9038 909d 32b8 6b97 3935 8ec6 ac38
00000210: c273 2839 9e2e 1839 b9f7 1fb8 075d e6b7
00000220: 9928 2537 6a3c 1138 c3ba bdb7 8bf5 66b8
00000230: 8379 c638 5b41 9f34 9f7f c9b8 4f54 00b8
00000240: 753e aab8 d1c1 2739 647e 2736 06a9 35b7
00000250: 3ce0 beb8 a2e8 d6b8 a8d9 9ab8 e012 ff30
00000260: 5523 35b2 0400 0080 6d29 3c33 a7df 27af
00000270: 0400 0080 e012 ff30 83d8 2d32 0400 0080
00000280: eb9f 4638 1d81 46b8 062b 9fb4 eb9f 46b8
00000290: 062b 9fb4 0000 0000 3dac ac37 7634 65b8
000002a0: 435d 0cb9 359c 1c37 d28f c3b8 b1dc 39b9
000002b0: 5709 c5b8 ec58 97b9 e406 adb6 0c96 3a37
000002c0: 9410 5bb9 5d3c eeb9 a5c2 5134 34cc 95b7
000002d0: 5d5f d038 ed36 fa36 e59c 3939 7bb5 1539
000002e0: 188f 21b9 ae15 99b9 003f e638 68df 21b8
000002f0: fec4 80b9 a508 39b8 fdfc 43b8 e801 90b3
00000300: ee3f 5233 0400 0000 5e55 25b3 9475 1830
00000310: 0400 0000 e801 90b3 1d8c 4bb3 0400 0000
00000320: 990c b037 71de afb7 f2e4 f1b4 990c b0b7
00000330: f2e4 f1b4 0000 0000 09c6 b7b8 8cba 4239
00000340: 7f0e 6db9 4507 13b9 54b0 8138 b8fa 82b9
00000350: 5425 e639 f7e7 b3b9 3442 b0b8 5ce4 23b8
00000360: 3cae 66b9 6c87 1c39 20e0 0bb8 88e9 a539
00000370: 7a3c 0db7 0de2 f2b7 34eb 56b9 6b13 2b38
00000380: ac0c dab8 09c2 2b39 539c e6b8 6da4 4cb9
00000390: c8ae e6b8 ff90 ad39 0d8e 04b8 e02f 5d33
000003a0: 86a7 8cb2 0400 0080 98d1 1fb3 9c5b cf2e
000003b0: 0400 0080 e02f 5d33 b2a2 8f32 0400 0080
000003c0: e2d3 2437 cbd0 24b7 df1e 9834 e2d3 24b7
000003d0: df1e 9834 0000 0000 4ea0 bdb8 5bc4 db38
000003e0: 261e 85b8 6819 e0b8 1ca4 5e38 27ef 77b8
000003f0: 4387 8539 d2ce a3b5 4606 4db8 50b0 66b8
1.174601e-06 -1.1880027e-06 2.1027931e-07 -1.174601e-06 2.1027931e-07 0.0 -7.5062024e-05 -3.5981913e-05
0.0001443615 -7.2468174e-05 -5.980546e-05 0.00014052006 0.00015187895 0.00033141475 5.840589e-05 3.388135e-05
6.695428e-05 9.4708405e-05 -9.20704e-06 6.169037e-05 0.00016142878 -2.9875677e-05 -0.00023505163 7.716929e-05
-0.00010915352 0.00015856825 -0.00017981266 -0.000140778 0.00017102828 0.00025739006 -2.3369863e-05 1.5589893e-07
-6.39168e-08 -6e-45 1.0972713e-07 -1.7033816e-10 -6e-45 1.5589893e-07 6.34919e-08 -6e-45
1.9027368e-05 -1.9009238e-05 -6.802776e-07 -1.9027368e-05 -6.802776e-07 0.0 3.375895e-05 -3.4254903e-05
-0.0002336426 3.2683023e-05 -6.021201e-05 -0.0002490494 0.00056724047 -0.00026422692 6.799717e-05 -2.1931413e-05
-1.6103446e-05 -6.779192e-05 -5.9128015e-06 0.00017090996 -4.8762144e-05 -8.97818e-06 8.881962e-05 8.457943e-05
8.371224e-05 -0.0002722899 -0.00019678335 -0.000114589006 0.0001231395 -6.78658e-05 -0.00028829422 -5.9438367e-08
9.547949e-09 6e-45 -1.0313435e-07 1.053237e-10 6e-45 -5.9438367e-08 -9.379972e-09 6e-45
1.0036185e-05 -1.0036983e-05 -1.7178557e-07 -1.0036185e-05 -1.7178557e-07 0.0 2.7960116e-06 1.1208334e-05
-5.228659e-05 -4.3880486e-06 2.0255353e-05 -4.077234e-05 -5.051764e-05 -0.00016748595 -2.686061e-05 -3.3791848e-06
-3.1471758e-05 -0.00015744074 5.375956e-05 -4.0713676e-05 -6.920893e-05 1.8175748e-05 0.00014687244 0.00016194131
-3.8469447e-05 -6.0316626e-05 0.0001532514 2.0194628e-05 -0.00029957265 2.8636074e-05 9.293162e-05 -7.5101475e-08
5.933705e-08 6e-45 -1.4129185e-08 1.6480915e-10 6e-45 -7.5101475e-08 -5.8901687e-08 6e-45
1.9604852e-07 -1.9500733e-07 3.946846e-09 -1.9604852e-07 3.946846e-09 0.0 -5.460012e-05 -3.345178e-05
6.885431e-05 -4.258525e-05 6.913821e-07 8.238583e-05 0.00016064852 0.00014513216 -3.8139264e-05 -2.7461456e-05
9.844219e-06 3.462696e-05 -2.2617523e-05 -5.5064953e-05 9.464009e-05 2.966361e-07 -9.608198e-05 -3.0596097e-05
-8.117865e-05 0.00015998563 2.4958508e-06 -1.08277945e-05 -9.101673e-05 -0.000102476464 -7.383834e-05 1.8559057e-09
-1.054362e-08 -6e-45 4.3809838e-08 -1.5268019e-10 -6e-45 1.8559057e-09 1.0119154e-08 -6e-45
4.7355814e-05 -4.7327125e-05 -2.9647362e-07 -4.7355814e-05 -2.9647362e-07 0.0 2.0584203e-05 -5.4646713e-05
-0.00013386183 9.334694e-06 -9.325113e-05 -0.00017725189 -9.395432e-05 -0.00028867216 -5.156604e-06 1.1121399e-05
-0.00020891643 -0.00045439872 1.9535453e-07 -1.7857274e-05 9.935976e-05 7.456975e-06 0.00017701423 0.00014277354
-0.00015407463 -0.00029198587 0.00010978989 -3.8593455e-05 -0.00024560833 -4.4115488e-05 -4.6727237e-05 -6.705869e-08
4.895258e-08 6e-45 -3.8494697e-08 5.5464366e-10 6e-45 -6.705869e-08 -4.7392053e-08 6e-45
2.0986701e-05 -2.0965208e-05 -4.5056328e-07 -2.0986701e-05 -4.5056328e-07 0.0 -8.763007e-05 0.00018570776
-0.00022607482 -0.0001402172 6.184043e-05 -0.00024982332 0.0004389683 -0.00034314368 -8.404665e-05 -3.9074905e-05
-0.00021999417 0.00014927768 -3.3348915e-05 0.00031645247 -8.418336e-06 -2.8953911e-05 -0.0002049625 4.078766e-05
-0.000103974104 0.00016380115 -0.00010996372 -0.0001951621 -0.0001099981 0.00033105162 -3.1603548e-05 5.1499114e-08
-1.6374326e-08 -6e-45 -3.7210697e-08 9.429543e-11 -6e-45 5.1499114e-08 1.6721376e-08 -6e-45
9.824495e-06 -9.823775e-06 2.8334668e-07 -9.824495e-06 2.8334668e-07 0.0 -9.0420814e-05 0.00010479308
-6.34755e-05 -0.000106858846 5.3081763e-05 -5.9112117e-05 0.00025468515 -1.2204639e-06 -4.888165e-05 -5.5000477e-05
