logs/rl_games/yam_cube_sort_8192/2026-02-01_08-29-07/nn/last_yam_cube_sort_8192_ep_650_rew_1437.8307.pth (torch, 953214 bytes, 30 tensors)

value_mean_std.running_mean f8 [1]
000000 37 25 92 6a 6c 07 de 3f
       0.46920309455215964

value_mean_std.running_var f8 [1]
000000 08 84 47 35 a5 e2 65 3f
       0.0026715494843618827

value_mean_std.count f8 []
000000 00 00 00 01 00 50 b4 41
       340787201.0

running_mean_std.running_mean f8 [40]
000000 88 bc 72 18 b5 b2 ef 3f ce d3 bd 88 10 38 83 3f
       0.9905648686889359 0.009384278462428865
000010 b1 68 d5 ec 90 a8 0a 3f 3c a9 aa 19 b9 52 83 3f
       5.084697986986029e-05 0.009435125442298735
000020 b1 68 d5 ec 90 a8 0a 3f 00 00 00 00 00 00 00 00
       5.084697986986029e-05 0.0
000030 0d 8f 5b 7c 1b e2 b6 3f c3 32 a3 6d c4 18 93 bf
       0.08938762460780598 -0.01864916724371103
000040 fe a5 38 45 aa a0 c8 3f 97 41 55 ef 1c 26 ba 3f
       0.1924031103128953 0.10214405863849262
000050 5f 59 84 e2 54 b4 8a bf 8e 2f 75 51 d5 b9 c7 3f
       -0.013039267695188426 0.18535868146352324
000060 52 fe 0d a4 e1 89 b3 3f f9 49 25 59 48 fd c2 3f
       0.07632265334358948 0.14835457184615544
000070 f7 cc 29 70 76 2d 4f bf da 7b 42 a7 c5 04 8a 3f
       -0.0009514644919605121 0.012704414526806863
000080 b3 ef cc ef 9d 16 c3 3f 2a df b8 8a 65 f4 4e bf
       0.14912771424303414 -0.0009446616945245391
000090 2f 82 42 9d 86 04 8a 3f 68 a2 03 ca 16 fb c2 3f
       0.012703944849193764 0.1482876287839361
0000a0 2d bb 8d cf 8a 90 4e bf 4c 1b 65 59 22 05 8a 3f
       -0.0009327581202408279 0.012705105164639761
0000b0 1b 92 67 f2 1c c4 f0 be a6 a0 86 1e ae 78 ef be
       -1.5989367193729614e-05 -1.50067362064274e-05
0000c0 52 fb b3 ff 0e d4 30 bf 2f 51 41 d2 9f e8 eb 3e
       -0.00025678030188196644 1.330789979917725e-05
0000d0 14 20 b4 1d 98 02 ec be 7e 94 fc df bc 66 30 bf
       -1.3356272509770817e-05 -0.00025026427464275986
0000e0 94 52 00 b5 b9 2c f6 be 64 0a c3 f3 1e e3 f0 be
       -2.114745012711751e-05 -1.61048803739662e-05
0000f0 d3 dc c8 80 fd dc 30 bf c1 3a 0a e6 1a e8 b3 3f
       -0.0002573126701323595 0.07776039234361588
000100 e4 ef 40 b6 7b bc c1 3f 4d c7 fb fd df 7a 84 3f
       0.13856455229858888 0.009999990404569248
000110 a7 64 ff a9 29 56 d4 3f 4d 5c c2 21 07 c2 06 be
       0.3177589569218732 -6.62342683753517e-10
000120 4d c7 fb fd df 7a 84 3f c1 3a 0a e6 1a e8 b3 3f
       0.009999990404569248 0.07776039234361588
000130 e4 ef 40 b6 7b bc c1 bf 4d c7 fb fd df 7a 84 3f
       -0.13856455229858888 0.009999990404569248

running_mean_std.running_var f8 [40]
000000 e6 21 70 8e 34 24 83 3f a0 85 eb 7c 0b 0a 83 3f
       0.009346399876464195 0.009296502828365416
000010 11 fd 66 17 37 a9 0a 3f 20 a8 14 d3 33 24 83 3f
       5.0851815945213615e-05 0.009346394423648319
000020 11 fd 66 17 37 a9 0a 3f 21 d3 1f 7d c6 34 39 3e
       5.0851815945213615e-05 5.868764989596033e-09
000030 5d 8a f1 5f 92 c8 bd 3f 9f df df 14 68 2b b3 3f
       0.11634173242922814 0.0748810816729688
000040 62 9c 76 05 1d 84 92 3f a8 86 52 96 b0 a2 b7 3f
       0.018082097490744416 0.09232619924525898
000050 58 5b d9 e7 16 83 a9 3f 3d ad cd 98 7b b7 8f 3f
       0.049828258325468056 0.015486684418383074
000060 7b b5 ae 59 8f 52 92 3f f4 cf bc 59 74 7f 6d 3f
       0.017893066262037998 0.003600814101355704
000070 91 49 49 e4 07 ce 69 3f c7 bd 29 a5 d4 23 9f 3e
       0.0031500009666071767 4.640216150547012e-07
000080 fc 15 9d 0c 03 09 6c 3f f7 c0 5b 5e 5b 14 69 3f
       0.0034222659641354163 0.003061464742920457
000090 08 d3 b3 51 74 48 95 3e b2 45 79 d8 48 5c 6d 3f
       3.1714178456926486e-07 0.0035840437665590414
0000a0 ab 25 59 db 6a 01 6a 3f 9b 7e d7 3c 55 ff 98 3e
       0.0031745039985124532 3.724902029860427e-07
0000b0 48 46 c0 c7 35 45 49 3f 47 ba 43 b2 2e 86 53 3f
       0.0007711899374973153 0.001191659547710737
0000c0 71 22 e2 94 f8 89 1f 3f c3 4d 30 e8 2a aa 47 3f
       0.00012031154366999045 0.0007221898562214602
0000d0 c3 9a 47 c0 d0 0d 53 3f e9 2d 91 c7 d2 a2 1d 3f
       0.001162961824883333 0.00011305247780162672
0000e0 af ac 20 08 3e 19 49 3f a8 fd 0a a7 65 81 53 3f
       0.0007659485711476644 0.0011905186367327878
0000f0 d0 e3 eb d6 95 21 1f 3f 7c 31 d9 ce 0e 5f 39 3e
       0.00011875607536272694 5.907220696605033e-09
000100 d2 ba ae bf 45 b1 39 3e 63 b3 f3 ad 6b 35 39 3e
       5.981994450933977e-09 5.869351864972671e-09
000110 7f 93 95 71 48 c3 3b 3e 40 c3 ef 7f c6 34 39 3e
       6.464036217183637e-09 5.868765028623949e-09
000120 63 b3 f3 ad 6b 35 39 3e 7c 31 d9 ce 0e 5f 39 3e
       5.869351864972671e-09 5.907220696605033e-09
000130 d9 da 68 74 45 b1 39 3e 63 b3 f3 ad 6b 35 39 3e
       5.981993406311966e-09 5.869351864972671e-09

running_mean_std.count f8 []
000000 00 00 00 02 00 50 a4 41
       170393601.0

a2c_network.sigma f4 [6]
000000 13 71 be bf 25 e5 bc bf ad 47 ba bf 08 ba b6 40
       -1.4878258 -1.4757429 -1.4553124 5.710209
000010 a6 3f bd 40 78 df 47 3f
       5.9140196 0.7807536

a2c_network.actor_mlp.0.weight f4 [256, 40]
000000 79 05 89 3e 3d 88 81 be 88 f8 7d bd 9e 84 9b bd
       0.26761988 -0.25299254 -0.062004596 -0.07593654
000010 dc 28 18 bd 62 90 8d bd 8c 45 5d 3e 5c 68 92 3e
       -0.03714834 -0.069123045 0.21608561 0.28595245
000020 1c b6 10 3e a6 7c 6a be 84 a2 7c be 64 d9 f5 3c
       0.14131969 -0.22899112 -0.2467137 0.030010886
000030 72 ef a5 bd 90 08 24 3d 1a 6a 2a bd 9b df e2 3e
       -0.08102311 0.04004723 -0.041605093 0.44311222
000040 36 d7 7f 3d 74 45 98 bd d7 bb 7f be dc 0e 1f bd
       0.0624611 -0.07435122 -0.24973999 -0.03883253
000050 51 e5 c5 3d 2f be 4e 3e 48 b1 a0 3d 4c f0 15 3e
       0.09662879 0.20189737 0.07846314 0.14642447
000060 60 e2 6d 3d a9 e3 63 3d eb e2 2d bd a9 98 7c be
       0.058077216 0.055637036 -0.042452734 -0.2466761
000070 a3 d8 95 be 21 6b 21 be d9 23 c5 3e 7c 8d f6 3e
       -0.29266843 -0.15763523 0.38503912 0.4815482
000080 6f b4 3d 3d 55 95 df bd 24 df 2e bd c5 cb 3f bd
       0.046314653 -0.10917155 -0.042693272 -0.04682519
000090 40 2c ae bd 2c 5d fc 3e f6 9f 31 3e 74 5c 1c 3e
       -0.08504534 0.49289834 0.17346177 0.15269643
0000a0 e9 7d 0d 3e ff e1 9e be 38 e7 1f bd 0a 48 8d be
       0.13817562 -0.31031796 -0.039038867 -0.27594024
0000b0 17 eb dc bc 1f af 19 bd bb a6 91 3d 69 a2 ab be
       -0.026967568 -0.037520524 0.071118794 -0.33522347
0000c0 8a 8b 8a bd 59 a3 39 3e 19 16 8c 3d 5a 83 0f 3d
       -0.06764896 0.18128718 0.06840152 0.035037376
0000d0 1c 26 46 3d 5c 3b 84 bc 01 3e c6 bd 31 49 85 3e
       0.048376188 -0.016141586 -0.09679795 0.26032403
0000e0 08 c4 b8 bd b2 82 98 3d 01 42 53 be 17 e5 e0 bd
       -0.09021765 0.07446803 -0.20630647 -0.109811954
0000f0 d1 d6 ff 3b 03 54 71 3c 56 95 c0 bd c6 19 b5 3d
       0.0078075905 0.014729503 -0.094034836 0.088428065
000100 df 5b d1 3d bd 5b f1 bb 11 99 8b 3d 59 43 79 bc
       0.10222601 -0.0073656724 0.068163045 -0.015213811
000110 7c f5 92 bd a3 a1 04 be 07 c4 b2 3e f8 6b af 3d
       -0.07175729 -0.12952285 0.34915182 0.08565515
000120 47 5b 90 bd 84 37 c3 bd bd dc 49 3b 64 f6 7b bd
       -0.0704866 -0.09532073 0.0030801736 -0.061514273
000130 27 70 9d 3d 22 ab aa bd b0 00 41 3d 1f 1d 2e bd
       0.07687407 -0.08333422 0.047119796 -0.04250824
000140 a0 87 43 3d 7c bd d2 bd 52 ad 26 bd 36 75 22 be
       0.047736764 -0.102900475 -0.040692635 -0.15865025
000150 4e 95 0d be 62 ea bc bd ff a7 54 bd fd d8 8b be
       -0.13826486 -0.092243925 -0.051918026 -0.27313986
000160 fa 81 62 3d 68 3a 4d 3c 03 1f 51 3e f0 48 82 3d
       0.055299737 0.012526132 0.20421986 0.06361568
000170 2e 35 03 bd 80 02 ac 3d 2c 6a 52 bc 69 37 35 bf
       -0.032033138 0.08398914 -0.012842696 -0.70787674
000180 46 62 9a bd cc b5 74 bc 29 3e 8d 3e 75 62 f2 3d
       -0.075382754 -0.014935922 0.27586487 0.118351854
000190 8c b0 cf 3c d4 9c 02 bf 40 56 d7 3d ec dd 40 bd
       0.025352739 -0.5102055 0.10514498 -0.04708664
0001a0 62 e2 43 be 8a 68 0c 3e 58 69 d7 3c 72 a4 9d 3e
       -0.19129327 0.13711753 0.026295349 0.30789524
0001b0 4e 9d a8 bd 66 8c 87 bc 04 98 96 be d3 84 dc be
       -0.082331285 -0.01654644 -0.29412854 -0.43070087
0001c0 4b eb 02 3e 7a f6 00 be d0 f1 54 3e 1c 87 ae bd
       0.1278507 -0.12594023 0.20795369 -0.08521864
0001d0 1e 83 9d 3d ad 3f 9d be 42 ee b1 bd 77 9f be bd
       0.07691024 -0.30712643 -0.08688022 -0.09307759
0001e0 a2 ae 86 3e d8 eb 95 bd 18 e2 59 bc 01 2e 80 be
       0.2630511 -0.07320374 -0.013298534 -0.25035098
0001f0 c6 16 06 3d 28 51 c2 bc 33 00 4f bd d7 75 86 3e
       0.032736562 -0.023720339 -0.0505373 0.2626178
000200 e0 96 c7 3d 55 60 34 bd 09 2d a8 bd 3e ec c1 3c
       0.09745574 -0.044037182 -0.08211715 0.02367222
000210 42 f4 aa 3c d5 0b a2 bd b0 44 4c bc 54 b1 b0 3d
       0.020868424 -0.07912413 -0.012467548 0.08627573
000220 91 67 5c bd c0 91 8f 3d f4 0b d5 be 15 43 e7 bd
       -0.053809706 0.070102215 -0.41610682 -0.11292092
000230 96 57 18 3d d8 f1 08 3f 55 d8 a6 3d 06 26 ef 3d
       0.037192903 0.53494024 0.08146731 0.11677174
000240 60 86 59 3e 9f b0 07 3e 9a 96 22 be 6e 07 86 be
       0.21242666 0.1325097 -0.15877762 -0.26177543
000250 d4 8e ba bd 4b d2 58 ba 06 f5 d9 bc f6 b6 d8 be
       -0.091092736 -0.0008271082 -0.026606094 -0.42327088
000260 c8 00 9d 3e 25 d8 29 3e 09 c4 f8 be 8d 33 3a bc
       0.3066466 0.16586359 -0.48587063 -0.01136483
000270 e6 3f 04 3d 92 6c c5 be fb 5d 26 be ed 24 98 3d
       0.0322875 -0.38559395 -0.16246788 0.07428918
000280 5f 21 3f be f7 f5 d0 bb 7c 92 91 3c 53 ce d5 3d
       -0.18665074 -0.0063769775 0.017770045 0.10439744
000290 eb 68 fc bd 35 3b c3 bd 58 1d 8a bd 37 43 76 be
       -0.12324699 -0.09532777 -0.06743878 -0.24049078
0002a0 25 89 9d bd 43 10 cc 3e b3 7c f6 3d 90 5e 89 3e
       -0.07692174 0.39856157 0.12035503 0.26829958
0002b0 0d 4d d3 bd 5f 49 25 3d d7 c2 a5 bc d2 96 10 bf
       -0.10317431 0.040353175 -0.020234508 -0.56480134
0002c0 bf 2c 1a 3c 1f 3b 9f 3d b5 3b e5 be 0e 63 7a ba
       0.009410082 0.07774948 -0.44772115 -0.00095515035
0002d0 d3 ab b7 3c b9 23 b1 3e 65 a4 f1 bd c4 96 43 bd
       0.0224208 0.34597567 -0.11798934 -0.047751203
0002e0 8a 6b 11 be 46 b7 db bd 09 c1 9f 3d e3 57 ea 3d
       -0.14201179 -0.10728316 0.078004904 0.11442544
0002f0 36 82 cc be a8 6a f3 bb 9f 9b 89 be f2 1f b6 be
       -0.39943093 -0.007428486 -0.26876542 -0.35571247
000300 26 92 1c 3e 92 0d 0c 3e 55 71 c8 3e 9c b5 13 3c
       0.15290126 0.13677052 0.39148965 0.009015467
000310 67 1a 0e 3b 99 07 18 bf 5d 1c 5e be 83 a2 13 be
       0.0021683217 -0.59386593 -0.21690507 -0.14417462
000320 c5 54 d0 3d ec 6d df bd bf 5e 0c bd 2f 2d 0a be
       0.101724185 -0.10909638 -0.034270044 -0.13493799
000330 f0 0b 00 bd f3 e9 e3 bd c8 89 45 be 2a 1a 61 3e
       -0.031261384 -0.11128607 -0.1929084 0.21982637
000340 e4 36 e5 3d 28 af 46 3e 84 8e 27 bd 59 3f 48 3d
       0.1119211 0.19402754 -0.040907398 0.048888538
000350 c6 f0 0c be 7d 1d 38 3e f3 b7 c5 bd e9 cb ec bd
       -0.13763723 0.17979999 -0.09654226 -0.1156233
000360 c9 b9 a5 3b 4e 76 40 3d 56 c0 16 3e 7b 10 e4 3d
       0.0050575477 0.046987824 0.14721808 0.11135956
000370 af 1f 17 3d 81 f3 42 3e 9b 81 13 3d cc 60 b5 be
       0.03689545 0.19038202 0.036012273 -0.35425413
000380 27 0e 95 3c 83 ca b5 3e 99 61 8b bd 70 4e 4a 3d
       0.018195225 0.35506067 -0.06805725 0.04939121
000390 0c 84 b9 bd 1d 82 8e 3c b5 a0 d1 3e 09 2d 83 bd
       -0.09058389 0.017396027 0.40942922 -0.06405074
0003a0 4f 4e a6 3e 50 f4 ca 3d 1a 45 35 be d5 d1 2d bd
       0.3248162 0.0990988 -0.17702141 -0.04243644
0003b0 9c b2 18 be 17 8b 03 3e 01 3b 0e be dc d0 34 be
       -0.14911884 0.12846027 -0.13889696 -0.17657799
0003c0 59 7f 15 3e 40 9f 89 be 3b 77 95 bd 0b 77 80 be
       0.1459936 -0.2687931 -0.07298132 -0.25090823
0003d0 ab 82 fd bd e9 98 4d bd 45 43 9c bd cc 5c ae 3d
       -0.123784386 -0.050194655 -0.07630018 0.08513793
0003e0 2c ae 00 3e d0 48 d8 3d 90 31 13 be eb d1 87 bd
       0.12566441 0.10560763 -0.14374375 -0.066318356
0003f0 11 6f 5e be 91 3a 0d be 65 c5 83 3d a1 9c 06 3e
       -0.21722056 -0.13791873 0.064341344 0.13145687

a2c_network.actor_mlp.0.bias f4 [256]
000000 37 91 b5 3d d5 94 01 3e 18 cd 4a be cc 9d b5 3d
       0.08865588 0.12654431 -0.198048 0.08867988
000010 c7 7c 81 bc b4 f1 55 be ff bb 83 3e 1c de 63 3e
       -0.015806569 -0.20892984 0.25729367 0.22252697
000020 87 e3 94 3e e1 c3 bb 3e 42 c0 43 3e 20 64 89 bd
       0.2907984 0.3667288 0.1911631 -0.067085505
000030 e8 b3 1d 3d c7 86 b8 3e fa 1e c5 3e ff 9e c2 be
       0.03850165 0.36040327 0.38500196 -0.3801193
000040 9f 31 93 be 86 be 9e 3e 4c b7 54 3c d1 e5 87 3e
       -0.28748795 0.31004733 0.0129831545 0.26542524
000050 4b 43 bc be 08 96 44 3e e7 ab 95 3e ce 9b fd be
       -0.3677009 0.19197857 0.29232714 -0.49532932
000060 ff 6a bc 3d 79 0b 1f 3f 9c ac 54 3e c9 4f af 3e
       0.092000954 0.6212688 0.2076897 0.3424056
000070 e1 a0 d5 3e 4f c6 87 3e 7f c7 7c 3e ee dc b8 3e
       0.41724303 0.26518485 0.24685477 0.36106056
000080 1d e5 b0 3c 55 4a 7f bb 76 32 06 bf e3 c2 ca 3c
       0.021593625 -0.0038954217 -0.5242075 0.024751132
000090 6a 3a 7b bc ca 1c 49 bb 1e 50 f9 3e 24 90 d0 3e
       -0.015333751 -0.0030687326 0.48693937 0.4073497
0000a0 c9 4b c9 be 2d c1 4d 3e 5a 54 7c 3c f2 da 2d bb
       -0.39315632 0.20093222 0.01540097 -0.0026528207
0000b0 a1 e1 82 3e 00 65 be 3c cd 05 a1 3e 49 20 fe be
       0.25562766 0.02324152 0.31449738 -0.49634007
0000c0 46 05 c7 3e 04 fe 1e 3e 48 43 4b 3e e5 bc 77 be
       0.3887121 0.15526587 0.19849885 -0.24193151
0000d0 c7 7c fa be 9b d0 89 be 32 b8 f3 3b 7c 43 5c be
       -0.48923323 -0.26916966 0.0074377293 -0.21510118
0000e0 7d 89 e1 3e 7e a0 97 bd ab 75 b6 bd f0 92 41 3e
       0.44050208 -0.07403658 -0.08909162 0.18903708
0000f0 3d 43 9b 3e 3d 35 b1 3e 2a 7b 97 be cb 77 c7 3e
       0.30324736 0.3461093 -0.29586154 0.38958582
000100 cc 41 75 bc b7 85 05 bf d0 9e bb 3e 2e 7f b3 be
       -0.0149693005 -0.5215716 0.36644602 -0.35057968
000110 3c 94 8f be b2 d0 cb bd ac 15 93 be a8 7d 6b 3e
       -0.2804278 -0.09951915 -0.28727472 0.22997153
000120 43 53 e2 3e fb dd 86 3e 1f 53 77 3d 09 55 21 bf
       0.4420415 0.26341233 0.060382005 -0.6302038
000130 77 4e a2 3e 62 cd d3 be 2b 1b 28 3e f0 90 e2 3e
       0.3170049 -0.41367632 0.16416614 0.44251204
000140 fc fa bb be 30 99 6a 3e 6f 51 a2 be 87 6f 64 3e
       -0.36714923 0.22909999 -0.31702754 0.2230817
000150 2f e6 e6 3d d1 7f 88 3e 60 54 42 3e 74 60 49 3e
       0.11274373 0.26660016 0.18977499 0.196657
000160 e8 75 a2 3e e3 ba 0a 3e f4 a3 12 bc 53 6c bc 3e
       0.3173058 0.13547854 -0.008950222 0.36801395
000170 de c6 91 3e ed bb 0c bc dd 54 90 3c 94 78 a2 be
       0.28472036 -0.008589727 0.017618591 -0.3173262
000180 78 f4 96 3d 22 39 e7 3e bf 4d 90 bd 77 17 8b 3e
       0.073708475 0.45160776 -0.07046079 0.2716634
000190 57 e4 18 bf a1 1e 34 3e 51 48 1f 3e 4f 8f 45 3e
       -0.5972342 0.17589809 0.1555493 0.19292949
0001a0 53 c9 12 3e 48 4e aa be 6a 37 02 bf b4 08 e5 3d
       0.14334612 -0.3326285 -0.50865805 0.111833006
0001b0 17 56 82 3e f1 88 17 3e a5 91 20 be 9b 0d 8c 3e
       0.25456306 0.14798333 -0.15680559 0.2735413
0001c0 c0 33 fb be f4 d3 cf 3e 44 76 ef 3e ad 2a a9 be
       -0.4906292 0.40591395 0.46769917 -0.33040372
0001d0 82 0d fa 3d a3 d8 0d 3d 2d 0f 76 bd 04 c9 eb bb
       0.12209608 0.03463043 -0.060073067 -0.007195594
0001e0 ef 20 8c 3e 3f 4d 95 38 5e eb 1f 3e d9 ff 1b bd
       0.27368876 7.119262e-05 0.15617129 -0.038085792
0001f0 7e 08 82 be 63 56 1a bd 2d 63 9f 3e e6 84 16 bd
       -0.25397104 -0.03768004 0.31130353 -0.036747836
000200 ce b1 d5 3e da 86 bc 3e b0 fc ac be dc 16 ec 3d
       0.41737217 0.36821634 -0.33786535 0.115277976
000210 23 51 99 3e 37 53 31 3e a7 a2 83 3e b9 9d b4 3e
       0.29944715 0.173169 0.2571003 0.35276583
000220 5c c8 9d be 7f 6a 5b 3e 8b 0e 38 3d 73 cf 24 3e
       -0.30816925 0.21427344 0.044935744 0.1609476
000230 3c 50 1a be 2f 30 0b 3e 5a f3 04 3f 2b e3 68 3e
       -0.1506967 0.135926 0.51933825 0.22742908
000240 59 a2 12 be 4e e2 08 3f 93 ed 23 3e ef f5 e1 3d
       -0.14319743 0.53470314 0.16008596 0.11033236
000250 d4 81 9e 3e d2 52 00 3e 3d 56 72 be 35 be 98 3e
       0.30958426 0.12531593 -0.2366571 0.29832616
000260 b0 96 18 bd 49 c1 f6 be 23 b4 02 3d 97 fa de 3e
       -0.03725308 -0.4819434 0.031910073 0.4355056
000270 83 7f 1d be 34 e8 45 be 8d 48 df be ed 4c 62 3d
       -0.15380673 -0.1932686 -0.4361004 0.055249143
000280 a2 b4 cd be 15 a2 1b 3d 78 d8 f9 bd 32 0b 4f be
       -0.40176874 0.03799637 -0.12199491 -0.20219114
000290 27 35 c8 3e 00 ba 7b 3e 12 23 b5 3c 57 7b 21 be
       0.39103052 0.24582672 0.02211145 -0.15769707
0002a0 3e d1 be 3e cb 64 f9 be 06 8c 7d 3e 2e 2e 84 be
       0.37269014 -0.4870971 0.24760446 -0.25816482
0002b0 7b ff 3b be 64 f6 7b 3e 74 c6 ea be 36 ec a5 3e
       -0.18359177 0.2460571 -0.45854533 0.32406777
0002c0 d1 7a 0d be de a9 c7 3e 35 44 2f 3d 0c b1 fa 3d
       -0.13816382 0.38996786 0.042789657 0.122408
0002d0 c1 ef 23 bf 79 a4 2e be c3 23 ff bc d1 e6 85 be
       -0.6403771 -0.17054929 -0.031144982 -0.2615266
0002e0 b2 48 95 3e dd a6 dc 3d 60 b2 a9 3e 96 34 c7 3e
       0.29157025 0.10774014 0.33143902 0.38907307
0002f0 18 00 63 bd b3 00 1a be 6e 50 1e 3e a2 92 59 3e
       -0.05542001 -0.15039329 0.15460369 0.21247342
000300 c4 c2 b0 bd 73 07 3f be d5 c9 e2 3e 6b e8 1e bd
       -0.086308986 -0.18655185 0.4429461 -0.03879587
000310 1c e9 03 3e 64 09 94 be 96 47 9b 3d 11 85 d5 3e
       0.12881893 -0.28913414 0.07582013 0.41703084
000320 10 22 bb bd 9c 68 02 3e 00 3a 45 3e 3e 89 b2 3e
       -0.09137356 0.12735218 0.19260406 0.34870332
000330 09 55 2d be 2c 99 86 bd b1 fb 15 3e 00 4d 32 bf
       -0.1692697 -0.06572184 0.14646794 -0.6964874
000340 33 c8 68 be b9 fb 97 3e ef 28 13 3f 5f 19 9b be
       -0.2273262 0.29684237 0.57484335 -0.30292794
000350 58 5a 13 3e fa 68 08 3d be c4 35 be a0 ba 9b 3e
       0.14389932 0.03330324 -0.17750832 0.3041582
000360 cb c8 6f 3e 2f fb 26 3e ac be a1 3e 8e 88 0b be
       0.2341644 0.16306756 0.31590784 -0.1362631
000370 f1 94 ac be 9f 28 a3 3e 68 77 ec 3e 7f 44 a4 3e
       -0.33707383 0.3186693 0.4618485 0.32083508
000380 92 c7 85 bb 0a 3b 4f 3e c7 9a 3b bd 98 e9 35 3e
       -0.0040826285 0.20237365 -0.045801904 0.1776489
000390 74 22 06 3e b1 dc 35 be f3 42 80 3e 57 dd f8 be
       0.1309908 -0.17759968 0.25051078 -0.4860637
0003a0 d7 50 07 be d5 a1 8e 3e de 92 c8 3d e7 07 55 be
       -0.13214432 0.27857843 0.09793638 -0.20803796
0003b0 a8 c0 d6 3d f0 42 3a be 8e 70 f7 be 40 3e 43 3d
       0.10485965 -0.18189597 -0.4832806 0.047666788
0003c0 03 f6 e9 bd 1f f8 0b bf 90 e0 02 bd 68 a0 62 3e
       -0.11423876 -0.5467548 -0.03195244 0.22131503
0003d0 d7 83 e6 3c 23 60 88 be 89 92 2b be 63 15 02 3e
       0.028139038 -0.26635846 -0.16755117 0.12703471
0003e0 15 31 13 3e b4 b1 9b be 93 c9 5e 3e 6e 50 0f bf
       0.14374192 -0.30409014 0.21756582 -0.559821
0003f0 34 b4 b9 3c 5e 0d df be 77 d4 3d bd 01 20 a0 be
       0.022668935 -0.43564886 -0.0463452 -0.31274417

a2c_network.actor_mlp.2.weight f4 [256, 256]
000000 22 60 9f bd 73 04 8c 3c df bc 0e 3b e1 e5 da bd
       -0.07782008 0.017091965 0.0021780056 -0.10688377
000010 70 36 97 3c a2 c1 c1 3c 21 9c 03 bd 48 04 bb bd
       0.018458575 0.023651902 -0.032131318 -0.09131676
000020 f4 04 d7 3c b2 2e 0e be 1d 78 3a be 9c 2a b3 bd
       0.026247479 -0.13885 -0.18209882 -0.087483615
000030 4a 23 d8 3d f0 26 5f bd 48 42 89 bd e9 c7 09 3d
       0.10553606 -0.054480493 -0.06702095 0.033637915
000040 13 4a a6 bc 17 27 a9 3d 46 47 c1 3d 15 b0 25 be
       -0.020298993 0.08259409 0.094374225 -0.16180451
000050 da 32 2c 3d 6d a1 4a be d0 7d 96 bb b4 df ae 3d
       0.042040683 -0.19788142 -0.0045926347 0.08538762
000060 fb a6 8d 3d a3 e4 61 bd c9 56 86 bd c3 8d bc bd
       0.069166146 -0.055149686 -0.06559522 -0.092067264
000070 f1 1a f8 bd 64 e8 07 3d 4e 6b 0d be 69 41 c8 bd
       -0.12114514 0.03318061 -0.13810465 -0.09778101
000080 58 15 80 3d 57 c0 18 be 3b 83 6f 3d 93 8b c4 bc
       0.06254071 -0.14917122 0.05847476 -0.023992335
000090 8b da 4b 3e af 30 2c bd dd 54 eb 3a 9e a1 80 bd
       0.19907586 -0.042038616 0.0017954368 -0.06280826
0000a0 8d b2 40 bd 56 5b 61 bb da 5b 26 bd 0f 7e 47 3d
       -0.04704528 -0.0034386716 -0.04061494 0.048704203
0000b0 75 8a d4 bd 67 a1 80 3b 84 69 aa be 24 68 45 3c
       -0.10377971 0.0039254907 -0.33283627 0.012048755
0000c0 1d 6a ed bc 88 51 fa bd 89 60 7b bd 05 a9 03 be
       -0.028981263 -0.12222582 -0.06137136 -0.12857445
0000d0 6b b1 11 bd 54 10 34 3d dd 08 29 be 2e df 0a bd
       -0.03556959 0.043960884 -0.16507287 -0.033904247
0000e0 3b 8c d5 bc af d5 11 bc 18 04 11 3e 9c e2 7a 3d
       -0.026067844 -0.008901044 0.14161718 0.061251268
0000f0 4e d3 8e bd 9d 30 91 be bb 77 70 3c 8e c5 ad bd
       -0.06973897 -0.28357401 0.0146769835 -0.08484946
000100 8a 39 be 3c 10 5a 81 3d b8 ff 52 3c c1 08 8e 3c
       0.023220796 0.06316006 0.012878351 0.017338159
000110 5f 8f 35 3d f4 f8 cc 3c 5b ec ac 3d c3 e1 ac bb
       0.044326182 0.025021054 0.08443519 -0.0052759363
000120 09 38 1f 3d 93 c7 57 3d 05 8a 16 be b3 d9 fb 3c
       0.0388718 0.052680563 -0.14701088 0.030743456
000130 26 08 3c bd 15 0c 93 bd 73 aa 0e be bd 50 83 be
       -0.04590621 -0.07180039 -0.13932209 -0.25647536
000140 ec ce 06 be 89 f7 96 bd 10 d7 ff 3c ae b5 d5 bd
       -0.13164872 -0.07371432 0.03123048 -0.10435043
000150 4d ae a1 3c f7 e4 2e 3d 79 bd 84 bb 3f 9b 1e be
       0.019736433 0.042698827 -0.004050907 -0.15488909
000160 fa 53 3f 3d 22 12 e8 bc 3a 58 a3 bd 4d 9c 0a be
       0.046710946 -0.028328959 -0.07975812 -0.13536187
000170 d4 f8 91 3d 04 f8 62 bd f7 60 87 3d f4 c2 b7 bc
       0.07127538 -0.055412307 0.066102915 -0.022431828
000180 66 10 ed bb 40 17 38 bd b0 90 1b bd a9 6b a2 3c
       -0.007234621 -0.044944048 -0.03797978 0.019826727
000190 a8 ac 88 3c 3f e1 87 3d 01 fc 18 3c fa 4d 2e bd
       0.016683891 0.06634759 0.009337426 -0.042554833
0001a0 ae 68 4d bd ef 64 de 3d 12 c5 b7 3c af 4f 2a 3e
       -0.05014866 0.10859095 0.022432838 0.1663196
0001b0 61 d7 a0 3c 81 84 2a 3d 48 95 4c 3e 46 dc bd 3d
       0.01963395 0.04163027 0.19978821 0.092705294
0001c0 9d 39 30 bd 06 b4 14 be 27 ae 47 bd a0 c8 18 3d
       -0.043023694 -0.14521798 -0.04875007 0.037300706
0001d0 27 da b3 3d 89 80 9d bd cb 74 4c 3d 2a b2 8a 3a
       0.08781844 -0.07690532 0.04991607 0.0010581661
0001e0 7b be 30 bc 9a 79 ef bd 4d 97 13 be 3b 0d c3 bc
       -0.010787602 -0.116931155 -0.14413185 -0.02381002
0001f0 81 be c7 bc 8e 4c cc bd de f9 68 bd d3 31 9c 3d
       -0.024382832 -0.09975539 -0.056878917 0.07626691
000200 3d e4 ad bd 51 a7 6e bd 91 84 18 bd 52 5f 8e 3d
       -0.084907986 -0.058265034 -0.0372358 0.06951775
000210 3f 67 fd bc 0e 44 c9 b9 e6 a4 61 3e 2d ec 15 be
       -0.03093302 -0.00038388412 0.2203556 -0.14640875
000220 d5 ad d0 3c 6e 46 a4 bd 34 b7 1f bd 30 68 77 3d
       0.025473515 -0.08021246 -0.038993075 0.060402095
000230 15 40 9e 3c 1d 15 1c 3c 16 5e fb bc fb af e8 bd
       0.019317666 0.009526518 -0.030684512 -0.113616906
000240 59 be 90 3d b4 2e 47 be bd 7f 06 3d ec ec bd 3b
       0.07067556 -0.1945141 0.032836664 0.0057960656
000250 09 49 3f bd 1d 53 00 be 7b 31 c7 3b 46 fc f4 bc
       -0.04670051 -0.12531705 0.0060788966 -0.02990545
000260 ad a9 0b 3e 58 a5 4c bd 4f 16 26 3c 25 47 96 bd
       0.13638945 -0.04996237 0.010137155 -0.073377885
000270 b2 11 8d 3c fe 62 59 3d 4b 8b d7 3d 5d 2f 48 3c
       0.017220352 0.053072922 0.10524615 0.012218324
000280 95 da 8e bd 09 ed c1 3c ed fa f0 bc 83 ae a3 bd
       -0.06975285 0.023672597 -0.029416526 -0.0799227
000290 bb 3c 86 b8 03 e4 7c 3c c7 c3 1b 3d 47 ff d5 3d
       -6.40093e-05 0.015435222 0.038028505 0.10449081
0002a0 94 e5 17 be 4b c0 0b bc dc 9b 3d 3e 46 cc 44 bd
       -0.14833671 -0.008529733 0.18516487 -0.048046373
0002b0 e6 36 dd bd 74 9d 9a 3d e4 27 ea 3d 48 19 4f 3d
       -0.10801487 0.07549563 0.1143339 0.05056122
0002c0 af 47 2b 3d 4d e4 ce bb 77 06 0c 3c 25 01 e6 bd
       0.04181641 -0.0063138367 0.008546463 -0.11230687
0002d0 38 5a c6 bd eb 22 70 3d b9 3e e4 ba b6 73 ac bd
       -0.096851766 0.05862705 -0.0017413712 -0.084205076
0002e0 a3 31 6b 3d a9 37 d6 3d c3 b1 4a bd 04 e4 88 3d
       0.057420384 0.10459835 -0.049485933 0.066841155
0002f0 1b 50 5d bd 53 ec 4b bd d5 25 93 3d 33 56 1f bd
       -0.054031473 -0.049785923 0.0718495 -0.038900565
000300 ed 2d 3a 3e f8 3e 63 bd 8c 7c 11 be 90 b8 69 bd
       0.18181582 -0.055479974 -0.14207667 -0.05706078
000310 43 da 91 3d 55 28 81 bd 78 18 64 3d 99 af 7a bd
       0.07121708 -0.06306521 0.055687398 -0.06120262
000320 74 49 d7 3d 2f 16 59 bd a1 32 d8 bc b6 07 69 bd
       0.10512057 -0.05299967 -0.02639133 -0.05689212
000330 18 e8 11 3c 7e 06 95 3d c3 6d 00 3e 28 79 b2 3c
       0.008905433 0.07276629 0.12541871 0.021786287
000340 b1 fb a2 bd a8 9a 31 be 0c c3 26 3c 10 eb 2a bb
       -0.079581626 -0.17344153 0.010178339 -0.002608005
000350 77 e7 0d be 81 73 13 3e 1e 9a 11 bd 19 4c 89 bd
       -0.13857828 0.1439953 -0.03554737 -0.067039676
000360 75 41 4f bd fd 71 f5 3c 74 74 13 3d d6 6e e2 39
       -0.050599534 0.02996158 0.03599973 0.00043188658
000370 cc 58 3a be 75 18 14 be 5d 1f e7 bd f1 7c 46 bd
       -0.18197936 -0.14462455 -0.11285279 -0.048458997
000380 63 d7 d0 3d f5 ae fe 3c 1f 73 74 bb a0 96 90 3d
       0.10197332 0.031089285 -0.0037300063 0.070599794
000390 00 60 2a 3e 1a 1b 8f 3e 12 40 10 3c 70 26 bf bd
       0.16638184 0.27950364 0.008804338 -0.09333503
0003a0 ca d4 b5 3d 55 3a 02 be 32 26 ce 3d 8e 37 8c 3d
       0.08878477 -0.12717564 0.10065879 0.06846534
0003b0 51 ef 58 be 63 a3 55 3e 19 47 a7 bd af 71 9d 3d
       -0.21185042 0.20863108 -0.08167858 0.07687699
0003c0 f1 76 83 be cb e6 12 3d b6 c4 00 be b7 c0 97 3d
       -0.25676683 0.035864633 -0.1257504 0.07409804
0003d0 01 70 15 3e b1 33 3e bb b2 72 62 bd 84 c9 ad 3d
       0.14593507 -0.002902251 -0.055285163 0.08485702
0003e0 8f 60 ca bd 2a bf a1 3d 40 bf 73 3c 8f 5e d7 bd
       -0.09881698 0.0789779 0.0148771405 -0.105160825
0003f0 aa 0b c8 3c 70 af 33 3e 98 11 17 be 4d fc e5 bd
       0.024419624 0.17547393 -0.14752805 -0.11229763

a2c_network.actor_mlp.2.bias f4 [256]
000000 55 e4 e5 3c 69 fe 9d be 75 12 96 3d f8 dd 48 3d
       0.028062979 -0.30858162 0.07327739 0.04903981
000010 a3 ea 33 bd f3 24 4f 3d 9f ad 4b 3d 16 d1 a7 bd
       -0.04392494 0.050572347 0.049726125 -0.08194177
000020 63 8b 31 3d 77 ee 8c bd 93 6a 65 be e0 a5 4a 3d
       0.04334582 -0.06881421 -0.22403936 0.049474597
000030 d8 a4 8a 3d a2 5b 94 bd 7c d0 91 3d c2 1e ad bc
       0.06769723 -0.0724404 0.07119843 -0.02113283
000040 02 37 58 bc 9b 2e 44 3d 39 f1 48 be 64 7e 89 3d
       -0.013196709 0.04789601 -0.19623269 0.0671356
000050 fd e0 0f 3d 5c 65 51 3d f9 d5 10 3d 5a 4f 3c 3d
       0.035126675 0.051122054 0.03536031 0.045974113
000060 10 db 3b be 37 c4 d0 3c 51 01 87 be 3d 32 06 bd
       -0.18345284 0.025484188 -0.26368192 -0.032762755
000070 9b 11 65 bd 5b 11 4d bd 91 ee bf 3d 64 f2 68 be
       -0.055924993 -0.05006538 0.09371675 -0.22748715
000080 1d 59 c1 bd f0 43 5d 3d 37 2c d9 bd 8b 9e a1 3c
       -0.09440825 0.05401987 -0.106041364 0.01972892
000090 0a 03 24 3c 0b 8d 67 bd db 55 77 3d b8 71 ea bd
       0.01001049 -0.056530993 0.060384613 -0.114474714
0000a0 04 f7 07 bd c1 e1 ed bb 9b 77 9a bc 9d 63 96 3d
       -0.033194557 -0.007259578 -0.01885586 0.073432185
0000b0 69 cd c2 3c 6f b8 cf bd e8 d5 2a bd a3 d1 92 be
       0.023779588 -0.101426 -0.041707903 -0.28675565
0000c0 1b 51 64 3c b0 5a 78 bd 09 35 93 3c 19 75 1f be
       0.013935353 -0.06063336 0.017969625 -0.15572013
0000d0 d5 86 5c 3d 4c 30 9b 3d 42 85 8f 3d 6f f2 1e bd
       0.053839523 0.07577571 0.07007839 -0.03880542
0000e0 b0 61 46 bd f1 d6 ae 3c 3c f8 bd 3c 06 d6 8b bd
       -0.048433006 0.021342726 0.023189656 -0.06827931
0000f0 08 65 85 3d 1a 5a c4 bd 3a 6a 3e bd b5 07 1c bd
       0.06513411 -0.09587498 -0.046488024 -0.038093287
000100 54 0c 35 be 99 3f 55 bd 77 e9 0c be 10 ef a3 bd
       -0.17680484 -0.052062605 -0.13760935 -0.08004582
000110 50 a1 36 3d fc 61 27 be ae 47 4d be 53 c7 2f bd
       0.044587433 -0.16345972 -0.20046875 -0.0429147
000120 b9 17 62 3d a9 0b 4a be f3 bf 0f be d8 6e 85 3c
       0.055198405 -0.1973101 -0.14038067 0.016288206
000130 e4 4f 9d bd 2d fc 45 be 43 b7 1f 3d f1 a3 6d be
       -0.076812536 -0.19334479 0.03899313 -0.2320707
000140 bb 22 8f bd 23 2d d8 3d 58 4e cd 3d 13 53 2f be
       -0.06989046 0.10555484 0.100247085 -0.17121534
000150 7c 8b 1a be 86 dc 43 bd 2b 26 90 3b 5d ed 20 3d
       -0.15092272 -0.04781773 0.004399081 0.039288867
000160 cb 4d 8b be f8 09 5d 3d b6 6d 98 be b4 6a 01 bd
       -0.2720779 0.053964585 -0.29771203 -0.0315959
000170 21 ca 94 bd dd 22 bc bd 10 f3 0d be 10 11 33 be
       -0.072651155 -0.09186337 -0.13862252 -0.17486978
000180 3a af 6e 3d 5e 7a 20 3d 3b e0 73 be af 4a de 3c
       0.058272578 0.0391792 -0.23816006 0.027135221
000190 c1 4c 84 bd b5 a9 1b bd 30 3b 74 be 86 23 2b bd
       -0.06459952 -0.038003642 -0.23850703 -0.041781925
0001a0 af 47 3f 3d 93 43 c9 3c 6d 91 46 bd b7 e6 47 bd
       0.046699222 0.024568355 -0.048478533 -0.04880401
0001b0 21 e0 c7 be c1 08 6f be 41 5c 35 3d 73 b8 69 3d
       -0.39038184 -0.23343183 0.044277433 0.05706067
0001c0 88 a9 7f 3c 94 11 4f 3d ea 54 7c be 1a 53 56 3d
       0.015604384 0.050553873 -0.24641767 0.052325346
0001d0 9c 49 85 bd 9b 7b 51 3d 38 82 78 3d e7 15 f5 3c
       -0.065081805 0.05114327 0.06067106 0.02991767
0001e0 80 9f ca bd bf 43 9d 3d 12 c7 a0 be ba 9b 37 3d
       -0.098937035 0.07678937 -0.3140188 0.044826247
0001f0 92 ec d9 3c 82 f4 95 bd 76 d5 06 bc 59 a8 a5 3d
       0.026602063 -0.07322027 -0.008229604 0.080887504
000200 d2 d2 8d bd ac c3 39 3d a4 a0 0f be 72 c5 e7 bd
       -0.069249764 0.045352623 -0.14026123 -0.113169566
000210 c4 4e 0e bd 5d e0 ed bc e9 74 85 3d f5 0f 98 3d
       -0.034743086 -0.029037649 0.065164395 0.074249186
000220 a1 cd a4 be 0a 02 48 3d 5a de 5b be 44 a2 56 bd
       -0.32188132 0.04883007 -0.21471539 -0.052400842
000230 55 aa 75 bd cc fc 84 3d f3 fb 2c be 0d a9 08 3d
       -0.059976894 0.0649353 -0.16892986 0.033364344
000240 dc c8 a7 bd 4f 66 8c bc bd b7 e3 3c bf 9b 90 3d
       -0.08192608 -0.017138628 0.027797574 0.07060956
000250 23 da 47 bc f9 f6 b0 be fc 21 47 bd c9 ba 5c 3d
       -0.012198004 -0.34563425 -0.048616394 0.05388907
000260 16 ba 3a 3d 28 51 6c be 08 9a 8d 3d 07 1d ce bc
       0.04558762 -0.23077834 0.06914145 -0.025160326
000270 4a b6 2e 3d 2b 56 84 be fd e7 d4 be d9 8a aa bd
       0.042654313 -0.2584699 -0.41583243 -0.08327264
000280 b7 ed 91 3d bf 9e 92 bd 78 92 f4 3c 94 01 87 3d
       0.07125419 -0.07159185 0.029854998 0.06592098
000290 bd 94 8f 3d 02 9c fd bd 1b 24 ad bd 1e 7a b2 bd
       0.070107915 -0.12383272 -0.08454152 -0.08714698
0002a0 70 94 5f be c3 89 ba bd 0a 88 8e be 5c bd ae bd
       -0.21833968 -0.09108307 -0.27838165 -0.08532211
0002b0 73 6f c5 bd eb 4f 79 3d 6f 85 2d bd 67 98 80 be
       -0.09640398 0.06086723 -0.04236358 -0.25116274
0002c0 26 53 60 be 84 8f aa be 8c 22 3f be c4 10 5d 3d
       -0.21906719 -0.3331262 -0.18665522 0.053971067
0002d0 8f b6 7a be 04 d5 b0 bc bc 39 74 3d e0 84 68 3d
       -0.24483703 -0.021585949 0.059625372 0.056767344
0002e0 a6 75 2c 3b 39 df 5a bd 95 e8 25 be e2 1c 5c be
       0.002631524 -0.053435538 -0.16202004 -0.21495393
0002f0 9a 38 2f 3d cf d5 85 be 37 a4 98 bd c1 75 03 3d
       0.04277859 -0.26139686 -0.074531965 0.03209472
000300 b1 aa 45 bd c6 ad ae 3c ca aa ef 3b 57 7c 98 bd
       -0.048258487 0.021323096 0.007314061 -0.07445591
000310 cc 47 8e be 6d 28 b8 be 9c c1 ab be 9a 13 73 bd
       -0.27789152 -0.35968342 -0.3354615 -0.059344865
000320 05 30 4f bd 18 0d 1f bd 97 59 7e be aa ee 89 3d
       -0.050582904 -0.038830847 -0.24838863 0.06734975
000330 73 d6 c3 3c a8 88 3e bd 29 1e 15 3d 16 52 26 be
       0.023905968 -0.046517044 0.036405716 -0.16242251
000340 57 bc 49 bd de 38 ca bd 8e 53 85 be 3f 6d 2a bd
       -0.04925188 -0.09874128 -0.2604031 -0.04160809
000350 b2 d2 62 3d dd f1 10 3d 52 ea 89 bc 96 b3 99 3d
       0.055376716 0.03538691 -0.016835365 0.075049564
000360 0d f8 50 3d c8 73 4c be 7f a9 9e bd c6 d1 18 be
       0.05101781 -0.19966042 -0.077471726 -0.14923772
000370 61 7f 83 be 6e c7 80 be 78 c6 10 be bf 2f 4c 3c
       -0.2568312 -0.25152153 -0.1413821 0.012462555
000380 5e da d1 be 46 34 4a be 26 4e 58 3d 75 6d 92 3d
       -0.40986913 -0.19746503 0.052808903 0.071497835
000390 cd 1c 4f 3d 2d 35 d9 bd de 7b bc be ec 77 90 3c
       0.050564576 -0.106058456 -0.36813253 0.017635308
0003a0 f8 2c c1 be 5b 29 a2 3d 5e aa 05 3d 87 59 cd 3c
       -0.3772962 0.07918044 0.032633178 0.025067104
0003b0 79 09 ce 3c 80 65 bc bd 51 ea 38 be 6e ee be be
       0.025151001 -0.09199047 -0.18058135 -0.37291282
0003c0 38 a5 0a 3d 99 8f ae 3c c4 99 6b be 34 5b 30 be
       0.03384897 0.021308707 -0.23007876 -0.17222291
0003d0 39 6d d1 bd 7b d4 59 bc 9f 59 87 bc 2e c0 98 b8
       -0.10225911 -0.013295288 -0.016522227 -7.283721e-05
0003e0 09 b0 b0 be 6d 6a 06 bd c5 6a 51 be 03 85 94 be
       -0.34509304 -0.03281634 -0.20450886 -0.2900773
0003f0 83 96 6c 3d 5c 0b 88 bd 39 16 68 3d e7 19 6b 3d
       0.057760727 -0.06642792 0.05666182 0.05739775

a2c_network.value.weight f4 [1, 256]
000000 fd 84 e2 bd fa f3 12 3d f8 2a 81 bb 1f ee c5 bb
       -0.11060522 0.035877205 -0.00394189 -0.006040349
000010 3e f1 b7 bb be ed cf 3b dd 31 4a bb f3 af 13 3c
       -0.005613475 0.0063454797 -0.0030852475 0.0090141175
000020 a4 7a f4 ba 7a b2 99 3c 72 6d 66 bd f9 23 5d bb
       -0.0018652272 0.018761862 -0.05625672 -0.0033743365
000030 f9 f5 ba 3a 5a ea 5c bd 6f 23 92 ba b0 cd 26 ba
       0.0014263979 -0.053934433 -0.0011149476 -0.0006363047
000040 8a 12 9a bd b7 ee a8 3a 9f 81 42 3d 9c 73 2e bc
       -0.07523067 0.0012888525 0.047486898 -0.010647681
000050 89 cd b2 3a cf 43 d8 ba a6 e2 12 bd 32 19 0f ba
       0.0013641577 -0.0016499701 -0.03586068 -0.00054587715
000060 09 96 c3 3b aa f6 aa 3b 71 39 b3 3c e8 b7 12 3c
       0.0059688133 0.005217393 0.021877976 0.0089549795
000070 31 cb b4 ba 78 c2 6f 3b 35 ac 56 3c b2 7f a2 bc
       -0.0013793466 0.0036584418 0.013102581 -0.01983628
000080 3b 1c c1 bb 21 93 54 bb 8f 90 40 3d 55 0d dd 3b
       -0.005893258 -0.0032436328 0.04701286 0.006745974
000090 f6 a1 89 3b fa f6 8b 3b 4f 53 42 3b 25 69 b3 3b
       0.0042002155 0.0042713853 0.0029651707 0.0054751807
0000a0 f8 bb 44 bc 5a 4e 8b 3c ee 3a 1c 3c 6a b9 95 3c
       -0.012007706 0.017005134 0.009535534 0.018276889
0000b0 4f b4 fa b9 d7 d2 1e 3d e0 b9 bf 3b 3e 81 19 bd
       -0.00047818056 0.03877529 0.0058510154 -0.03747677
0000c0 ca 7c 38 39 7d 83 0e 3c c1 b8 63 3a 9a 36 9c bd
       0.00017594095 0.008698341 0.0008686893 -0.07627602
0000d0 25 2e b8 3a 2a 2d c8 3b de 7f 8a ba e7 c9 90 3b
       0.0014051838 0.0061088996 -0.0010566672 0.0044186
0000e0 cd e5 c7 3a 46 6c ca 3c 11 4f 85 bb ea fc ba 3c
       0.0015250981 0.024709832 -0.0040682633 0.022825677
0000f0 9c 8e 02 3b 01 f1 b3 bc b1 88 0f bd 24 08 3b bd
       0.0019921428 -0.021965506 -0.03504247 -0.04566206
000100 ee 6c 0f bd 3c ed 5a 3c 47 88 c5 3c e4 6e 3d bc
       -0.035015993 0.013362225 0.024112834 -0.011562083
000110 b6 c4 45 bb 43 95 c3 3b 84 76 5e bc ed 37 90 bc
       -0.0030177063 0.005968721 -0.013578061 -0.017604792
000120 3f 54 55 3d 98 f2 c5 bc 7c 9e 12 3c c3 a7 3e ba
       0.052082296 -0.02416353 0.008948918 -0.0007272923
000130 7b 72 ba 3b 6e a4 b8 3c 3a c1 0a bc f4 4c e3 3d
       0.0056899167 0.022539344 -0.00846892 0.11098662
000140 53 e4 9c 3a 4c 63 9a b9 72 e0 af 3a a0 15 1f 3e
       0.0011969901 -0.0002944715 0.001341833 0.15535593
000150 f4 48 97 3c 1d 72 53 3e 8e 22 29 3b 80 24 84 3b
       0.018467404 0.20649 0.002580795 0.0040326715
000160 c9 7c 5a 3c 11 e9 a6 39 0d a1 7f bb 1b c5 7d ba
       0.013335415 0.00031835635 -0.0039005906 -0.0009680555
000170 28 2e 2b 3c 4c 3e 9e 39 2a ee 7c bc f8 36 5b be
       0.010448016 0.00030182523 -0.015437642 -0.21407688
000180 0d 5d 13 bc a1 90 3a 3b 09 a4 10 bc 51 af 88 3b
       -0.008994353 0.0028467553 -0.0088281715 0.00417129
000190 bb be a9 3b 41 71 e5 39 db b6 15 3e 90 a7 12 3b
       0.0051802075 0.00043762664 0.14620535 0.0022377707
0001a0 14 ea ae bc ac c9 25 bc 5b 38 bf 3b 7f 16 07 3c
       -0.021351852 -0.010118883 0.0058355755 0.00824511
0001b0 06 34 09 bd c2 85 95 bc a0 d7 6a bc 72 57 0e bb
       -0.03349688 -0.018252257 -0.014333636 -0.0021719602
0001c0 d1 d9 53 bd c5 b1 10 bc bd 65 6c bc a3 9a 87 bb
       -0.051721398 -0.008831446 -0.014428553 -0.004138307
0001d0 51 bd 2d 3b 2e f0 59 b8 60 19 6f 3b 8e dc 2b 3c
       0.0026510546 -5.1960516e-05 0.003648363 0.010489596
0001e0 e3 96 52 bd fe 48 20 3c af 30 82 3d 12 0e 76 3a
       -0.051413428 0.009783028 0.06356942 0.0009386252
0001f0 cd af 43 bb 61 11 5a 3c a2 7b 91 bd f4 c8 9b bc
       -0.0029859424 0.0133098075 -0.07103659 -0.01901672
000200 4a ee 0e bd 95 03 1a bb b4 7f 1f bc ce fb f2 3c
       -0.03489522 -0.002350067 -0.009735037 0.029661085
000210 20 f4 ea bb ba 03 c9 3c 99 fe 33 bc 03 4e bf ba
       -0.0071702152 0.02453791 -0.010985994 -0.0014595393
000220 35 85 f3 3c 5b 71 d2 ba 61 95 ad bc e5 8e e2 3a
       0.029726604 -0.0016055511 -0.021189393 0.0017285018
000230 55 8a 11 3e 82 e7 49 bc db ad 78 3b 02 90 0e bc
       0.14212926 -0.012323262 0.0037945423 -0.008701326
000240 8a b1 14 bb ba 1c 07 3b dd f3 5e 3b f7 ab 1c 3b
       -0.002268883 0.0020616488 0.0034019866 0.002390621
000250 75 ae ac bd 1f f9 87 bb 4a a5 c5 3b 41 61 18 bc
       -0.084317125 -0.0041495706 0.006031667 -0.009300531
000260 ae f9 b3 bc c5 23 4a bc b0 30 e3 3b ac 84 07 bb
       -0.021969642 -0.01233763 0.0069332942 -0.0020678444
000270 b5 b5 1d bb 8c 80 66 bc 22 f8 9d bc 95 ce ab bc
       -0.0024064605 -0.014068734 -0.019283358 -0.02097253
000280 42 aa a9 bb 2f 95 04 3b 65 7e e5 bb 05 85 ad 3b
       -0.005177767 0.0020230522 -0.007003593 0.005295398
000290 8e 71 23 3b 96 af 19 3b 7c 19 51 3c 4a c6 06 3c
       0.002493951 0.0023450605 0.012762424 0.008225987
0002a0 eb 03 03 bc 35 d2 9b bc 79 c9 79 3e 01 bd ad bc
       -0.00799654 -0.019021133 0.24393262 -0.021208288
0002b0 98 4b b1 3c d3 4a 32 3c 9d 34 ee 3b 04 c5 22 bc
       0.021642491 0.010882097 0.0072694556 -0.0099346675
0002c0 a9 a1 d0 3c ee 07 e5 3a 51 e9 9f 3c da 02 bb bc
       0.02546771 0.0017473677 0.019520434 -0.022828508
0002d0 a5 90 23 bd 2a 3d aa 3b b5 5c 18 bb a5 85 08 3c
       -0.039932866 0.0051952796 -0.0023248617 0.008332645
0002e0 ba b7 3f 3c 86 3e dd ba b7 19 1a 3d 41 67 9b 3a
       0.011701519 -0.0016879595 0.03762218 0.0011856334
0002f0 9d d1 9c ba f2 04 91 3c 96 fb 9c 3d 98 fd 00 bc
       -0.0011964325 0.017702553 0.07665174 -0.007872961
000300 cd 94 3a 3c e8 4a 60 3c 02 40 60 3c 2e 80 29 3c
       0.011388016 0.013689734 0.013687136 0.010345502
000310 20 37 2c 3d 47 80 a4 3a 5e 90 2a 3d 9d 51 8e bc
       0.04204476 0.0012550437 0.041641586 -0.0173729
000320 4a ca 43 bc 96 38 1d bb cd 9e ce bb b9 58 b9 bb
       -0.011950085 -0.0023990027 -0.0063055516 -0.0056563285
000330 9d aa 81 bc 70 55 19 3c 43 11 a8 3d 33 84 f1 bc
       -0.015828425 0.009358749 0.082064174 -0.029481983
000340 ce 72 e2 bc d5 5a 13 bc a0 81 98 bb d7 f8 e0 bd
       -0.027642634 -0.008993824 -0.0046541244 -0.109849624
000350 cf e8 38 3c d7 ac 84 bb 70 04 d1 3c bd e7 63 ba
       0.011285975 -0.0040489244 0.025514811 -0.00086938945
000360 9e bf bd 3b 6d e8 6f 3e 31 a5 37 3d 3a 25 90 bd
       0.005790665 0.23428507 0.044835273 -0.070383504
000370 a9 b2 85 3d 3b 82 81 3c a2 1f 0c bc 51 39 45 bc
       0.06528217 0.015809169 -0.008552464 -0.012037591
000380 86 cb d4 bb ba c2 e3 be 73 98 95 3b f3 1e 63 3a
       -0.0064939884 -0.44484502 0.0045652925 0.00086639746
000390 6c f5 b7 ba 67 e3 39 bd 6a 8c 7e bc 77 d0 01 bc
       -0.0014034933 -0.045382883 -0.015536407 -0.007923237
0003a0 38 3c 95 bc dd ed 28 3d fb 53 f7 bb 40 38 a6 3b
       -0.018217191 0.04124247 -0.007547853 0.0050726235
0003b0 e2 71 84 3c 03 4e bf bb 11 12 21 bc 91 05 f1 bb
       0.016167585 -0.005838157 -0.0098309675 -0.0073554
0003c0 19 cb 60 3b 1d c2 c1 b9 a6 ec 3a bd d2 1e d6 bb
       0.0034300743 -0.00036956454 -0.04563584 -0.006534436
0003d0 ed f3 05 bd e9 d8 38 3b 2b 79 5c bb 11 ca 18 bb
       -0.03270333 0.002820546 -0.0033641558 -0.00233138
0003e0 11 28 41 3c 38 e3 87 bb 1b 87 cd 3d 0d 71 9e be
       0.011789338 -0.0041469596 0.10035535 -0.30945626
0003f0 29 08 37 3a 52 b1 6f 3b c2 19 cd bc 60 24 27 3c
       0.0006982112 0.0036574197 -0.025036696 0.010201544

a2c_network.mu.weight f4 [6, 256]
000000 56 4d bb 3c fe 23 04 3d 64 9a 9d 3b 42 34 f1 bb
       0.022864025 0.032260887 0.0048096646 -0.007360966
000010 fb b8 b3 ba 0f a4 63 3b 01 83 68 bb 2a 46 57 bc
       -0.0013711745 0.0034735238 -0.0035478475 -0.013139287
000020 3a b1 f9 3b 8d 4d 8f 3b b1 d8 4f 3c 57 b4 85 3b
       0.007620004 0.0043732584 0.012685941 0.004080336
000030 1d 4b a1 3c b1 66 39 bc b1 5a 1f 3b 0b 48 f5 3a
       0.019689137 -0.011315987 0.002431553 0.0018713487
000040 de cd 26 3c 82 65 2c ba 6f f5 90 3b a6 44 3a 3b
       0.0101809185 -0.0006576405 0.004423789 0.0028422265
000050 15 ab a4 3a 81 65 7d bb 3b 01 58 3c 15 d9 72 bb
       0.0012563193 -0.0038665237 0.013183887 -0.003705566
000060 0d 2e 6b 3b cf 0c 5a ba 9e e5 b1 3c 7c 4d 97 bd
       0.0035885603 -0.00083179487 0.021715935 -0.07387826
000070 ef 7f 46 bc 17 50 28 3b ff dd 3f 3b 02 cf 88 bc
       -0.012115463 0.0025682503 0.0029276607 -0.016700272
000080 3a 5d c8 3c a6 f6 b2 3b cd f9 5b 3c 64 42 6d bc
       0.024458516 0.0054615317 0.013426256 -0.014481161
000090 db 4f 3d 3b 17 7e ad 3b 3f e8 94 3b 1c 9a 2f 3b
       0.002888671 0.005294572 0.0045442875 0.0026794737
0000a0 f6 dc e8 bb d5 02 46 3c 3a 9d e2 3b 36 f9 d4 3b
       -0.0071064187 0.012085636 0.0069157155 0.006499435
0000b0 c5 bb 4d bb 5f e9 b9 3b 2a 1b d3 3a b8 f0 e8 bc
       -0.0031392437 0.005673572 0.0016106118 -0.028435096
0000c0 b9 93 09 3c 3d d1 5b 3b bf 29 f6 bb 4d ab 9a bc
       0.008397036 0.0033541464 -0.0075123007 -0.01888051
0000d0 81 c2 be b9 e7 3c 93 3a 15 2d f7 3b ab 46 37 bb
       -0.0003638454 0.001123336 0.007543216 -0.0027965705
0000e0 52 c9 5e 3a 78 5a 87 bb b8 06 88 ba e5 88 8e 39
       0.0008498627 -0.0041306578 -0.0010377979 0.00027186345
0000f0 fa f6 df 3b 4d 50 91 3d df d5 c6 3c d3 fe 0e 3a
       0.006834862 0.07095394 0.024271904 0.0005454842
000100 74 0e d4 3c 85 9c 96 b9 84 20 bc 3b 80 fa 23 bb
       0.025885798 -0.00028726846 0.005741181 -0.0025021136
000110 6e d8 fd 3a c8 62 4f bc 02 88 78 bd 6e 09 e2 bb
       0.0019366869 -0.012657829 -0.060676582 -0.0068980968
000120 a5 98 78 ba 63 ce 03 3d 4e ce 8f bc b2 bf 37 3b
       -0.0009483195 0.032179248 -0.017554428 0.0028037843
000130 c9 94 99 3a 68 af 4d 3d fa ec e7 3a 9f 90 68 3c
       0.0011717315 0.05021611 0.0017694526 0.014194637
000140 50 f6 6f ba e1 b6 33 3a 86 67 51 ba 08 cd 4d 3d
       -0.000915383 0.0006855559 -0.00079881435 0.05024436
000150 b2 4f 9d 3c 78 18 3c bc 30 7c e9 3c 4e 85 f1 b8
       0.01920304 -0.011480443 0.0285016 -0.000115166054
000160 96 26 a6 bd 4a 35 11 3c 58 93 30 3a 30 d2 0f 3b
       -0.081128284 0.008862803 0.0006735823 0.002194535
000170 f0 31 8e 39 cb bb 03 3c 86 b9 f9 bd c7 71 1f bd
       0.00027121557 0.008040379 -0.12193589 -0.038926866
000180 07 66 da 3a 11 e2 8f ba 7e 4f 49 3e b7 c7 84 bb
       0.0016662487 -0.0010977407 0.1965923 -0.004052128
000190 e0 97 73 39 83 75 90 3b 9d 88 65 bc 89 e7 2e bb
       0.00023230864 0.0044085397 -0.014009622 -0.0026688299
0001a0 d5 50 65 3c d5 38 2d bb c7 91 0c 3c 4e 5e 4d 3a
       0.013996323 -0.002643158 0.008579678 0.0007834182
0001b0 a6 f3 07 3e 7e 43 87 bb b9 dd 6a bb b4 1d d9 3b
       0.13276538 -0.0041279187 -0.0035837723 0.0066258553
0001c0 67 72 31 3c 01 98 2d bb 8e 68 84 bc 55 ea a5 3b
       0.010830498 -0.0026488306 -0.016163137 0.005063335
0001d0 98 0a 04 3c e2 3d 01 3b dd e1 eb 3a 1d 7d 9a ba
       0.008059166 0.0019720723 0.001799639 -0.0011786554
0001e0 ea b1 e0 bc a0 09 9c 3a 9d 2d 15 bd 38 3d 8a 3b
       -0.027428586 0.0011904724 -0.036420453 0.0042187236
0001f0 cf fe 0a 3b ae 68 1b 3b b9 bd 1f bb b0 9a c7 39
       0.0021209007 0.0023713517 -0.0024374558 0.0003807149
000200 15 f1 87 3c 7b 9f 47 3a 7d 71 b8 3c 30 31 c4 bd
       0.016594449 0.0007615012 0.022515053 -0.09579694
000210 46 26 23 3b 3b 6f 36 ba 29 aa 42 3a 31 1d 17 3a
       0.002489464 -0.00069593237 0.00074258685 0.0005764543
000220 72 c7 0e 3d 01 c6 90 b7 7f 39 4e 3d 1f 39 30 3b
       0.034858175 -1.725834e-05 0.0503478 0.0026889516
000230 45 71 96 3c 91 16 01 bb 1a 44 2e bc 10 fc e3 39
       0.018364558 -0.0019697289 -0.010636354 0.00043484615
000240 93 06 d8 3b 59 7b e3 3a 90 93 89 bc db a0 09 3b
       0.0065925806 0.0017355486 -0.016793996 0.0021000418
000250 e7 5a 46 bc 1b 83 45 bd 91 a6 c6 3a 0b b4 50 3b
       -0.012106634 -0.048220735 0.0015155842 0.0031845595
000260 8f 45 2d 3c 28 42 83 3b 3c f8 0e bb bb 4f 92 bc
       0.010575666 0.004005689 -0.002181544 -0.017860284
000270 9b a2 81 bc 99 1b bb bd c1 ed ed 3d 2d 73 aa 3c
       -0.015824607 -0.09136123 0.116176136 0.020806873
000280 66 f1 8c ba fb 14 90 ba 32 76 39 b9 9a c3 5b 3b
       -0.0010753095 -0.0010992581 -0.00017687006 0.0033533336
000290 65 ec 59 3b ab 23 21 3d 1f ed a7 3a 34 3a 54 39
       0.0033252474 0.039340656 0.0012811756 0.00020239578
0002a0 f5 fe 01 3e 27 a2 ee 3b 4a 70 1a 3c 5d 9a 26 3b
       0.12694915 0.0072825137 0.009426186 0.0025421598
0002b0 85 b5 9d bc 9a f7 38 3b 00 61 a6 3b 0a 03 7b 3d
       -0.019251594 0.0028223754 0.0050774813 0.061282195
0002c0 64 b7 88 bd fd 39 f5 bb e5 a6 23 3c 5f ba 73 3a
       -0.06675604 -0.0074837194 0.009988521 0.0009297486
0002d0 92 51 c7 3c 07 53 c1 ba 5b 58 a9 3a 02 4f 73 bb
       0.024330888 -0.0014749476 0.0012920009 -0.003712595
0002e0 1d e2 bb 3b 4d c5 29 3b bc 48 a9 bb 20 5b 14 3d
       0.005733742 0.0025904954 -0.0051661413 0.036219716
0002f0 3b 93 98 b8 67 f1 45 bc 9c e1 c7 3c 91 da 1c 3a
       -7.2753486e-05 -0.012081481 0.024399571 0.00059834967
000300 4f bf a7 3b 36 bc 19 39 20 22 47 b8 0b 2a f3 3a
       0.0051192413 0.00014661331 -4.747708e-05 0.0018551958
000310 6c 11 d6 3a 4c 8c e6 bd ff cd 4e 3d 2b d0 1e bc
       0.0016332096 -0.11257228 0.050489422 -0.009693186
000320 bd f9 98 bb d3 81 56 3b 61 94 b1 3c ae cc d3 ba
       -0.004668443 0.003273119 0.021677198 -0.0016159022
000330 9a 8a 52 b9 7a eb 06 3d 64 5d 66 3c a1 b7 76 3c
       -0.00020078794 0.03293941 0.014060352 0.015058429
000340 ea 4a 96 bc d7 16 95 bb 7b d1 aa bc fe 89 3e ba
       -0.018346269 -0.004549842 -0.020851841 -0.0007268487
000350 3f 43 20 3b a4 38 6c ba 0f 39 92 3b a2 40 c4 ba
       0.0024454144 -0.00090111257 0.0044623683 -0.0014972875
000360 a6 31 ff 39 18 7f 28 3c 82 a4 71 3c 4c 9a 48 bd
       0.0004867438 0.010284208 0.014748694 -0.048975274
000370 7f ea 85 bc 8d 0e 70 3b df 1b a3 3b f2 8e cc bb
       -0.016347168 0.0036629767 0.0049776877 -0.0062426263
000380 87 1b b8 bd cc df 0c bc 37 06 fb 3b 94 92 a0 3b
       -0.089896254 -0.008598279 0.007660653 0.004900286
000390 28 e3 8c 3a 41 7f 07 bd 96 c2 e3 bc 61 b9 81 ba
       0.001074885 -0.033080343 -0.027802747 -0.0009897166
0003a0 a8 99 0f 3e e9 2e ec 3b 29 ae 17 bb 18 e9 2d 3c
       0.14023459 0.0072077406 -0.002314458 0.010614656
0003b0 f7 5f c6 bb d7 d6 61 39 cb 50 5b 3d aa 73 cb bd
       -0.0060539204 0.00021537706 0.053543847 -0.099341705
0003c0 25 2c 7a ba fa 15 05 39 2d 5d e5 3b 11 00 9b bc
       -0.0009543321 0.00012692055 0.006999633 -0.01892093
0003d0 07 54 14 bd 98 ad 14 3c 87 e8 55 3b 73 9d 2e 3b
       -0.036212947 0.009074591 0.0032639818 0.002664414
0003e0 ce cd d5 bd af 17 b8 3b e6 86 52 bd 03 e1 1a bd
       -0.10439645 0.0056180577 -0.05139818 -0.037812244
0003f0 d5 a9 e1 ba 80 89 2c 3a cc 6a 03 bc f6 73 1c bb
       -0.0017216752 0.00065817684 -0.008021068 -0.002387283

a2c_network.mu.bias f4 [6]
000000 12 95 9c bd eb 54 0a 3e 19 22 1d bd e4 59 cc 3c
       -0.076456204 0.13508956 -0.038362596 0.024945207
000010 57 91 ef bd 69 ab cb be
       -0.11697643 -0.39779213

exp_avg f4 [6]
000000 78 cb d2 3a 59 54 30 ba 9d 44 93 ba 28 ed 4f ba
       0.0016082367 -0.0006726436 -0.0011235658 -0.00079317624
000010 a3 97 05 bb 4c 55 7c 39
       -0.0020384572 0.00024064368

exp_avg_sq f4 [6]
000000 7f 88 d3 37 66 f2 e5 37 e6 c0 dd 37 5e 0f 2e 38
       2.5216721e-05 2.7411803e-05 2.6435078e-05 4.1499145e-05
000010 c9 6e 2b 38 6d f6 0d 38
       4.0872754e-05 3.384652e-05
