logs/rl_games/yam_cube_sort_8192/2026-02-01_08-29-07/nn/last_yam_cube_sort_8192_ep_100_rew_1236.9001.pth (torch, 953214 bytes, 30 tensors)

value_mean_std.running_mean f8 [1]
0	0x3fd9d17d1d9400ed	0.4034111775254264

value_mean_std.running_var f8 [1]
0	0x3f87244e9885ac26	0.011299718885046838

value_mean_std.count f8 []
0	0x4189000008000000	52428801.0

running_mean_std.running_mean f8 [40]
0	0x3fefa5f11ef1f514	0.9890065769574528
1	0x3f867b3843882dee	0.010977210579787813
2	0x3ef0f5c284816f08	1.617431578924882e-05
3	0x3f8683b324ca6ea1	0.010993384895577054
4	0x3ef0f5c284816f08	1.617431578924882e-05
5	0x0000000000000000	0.0
6	0x3fbaa1a92574b27f	0.10402924694489889
7	0xbf913e27646a2433	-0.016838660720655162
8	0x3fc8e0932f42312d	0.19435348327204718
9	0x3fbcee848ff6b567	0.11301449312914756
10	0xbf85d457ab56803c	-0.010658917347257206
11	0x3fc7deda6cfb9d25	0.18648844071797402
12	0x3fb993a54dd9d39f	0.09990914488464718
13	0x3fc28b28d8b12d8c	0.14487181263607984
14	0x3f4786b842bbb30a	0.0007179641447386542
15	0x3f8a0572be257926	0.012705704143340112
16	0x3fc29033cc1459bc	0.1450257059556871
17	0x3f33b6d589b3f237	0.00030081475570379067
18	0x3f8a04a9ffe888fa	0.012704208490565073
19	0x3fc26bac64922102	0.14391093168911345
20	0x3f4a15b452988253	0.0007960443956030551
21	0x3f8a049b7c4ef8ab	0.012704100352376754
22	0xbf176e429e0de9e7	-8.938104248371708e-05
23	0x3f1be09e411f9ab5	0.00010634389789708039
24	0xbf34351fb081d73d	-0.0003083422057054036
25	0xbf0d212edec1cd6e	-5.556034361200555e-05
26	0x3f17309206304664	8.846179257229189e-05
27	0xbf336a02d707ac45	-0.0002962357457635993
28	0xbf190cb07a49cc85	-9.555651792840694e-05
29	0x3f176d9a4a87ef2a	8.93712446056709e-05
30	0xbf351431ab14feea	-0.00032163822750773277
31	0x3fb3e81adb427e2e	0.07776038983365005
32	0x3fc1bc7baca6173d	0.13856454782597352
33	0x3f847adff2e48f64	0.009999990081787487
34	0x3fd456299efc0e51	0.31775894666518406
35	0xbe06c207156f57a2	-6.623426623742818e-10
36	0x3f847adff2e48f64	0.009999990081787487
37	0x3fb3e81adb427e2e	0.07776038983365005
38	0xbfc1bc7baca6173d	-0.13856454782597352
39	0x3f847adff2e48f64	0.009999990081787487

running_mean_std.running_var f8 [40]
0	0x3f86448cdedaa6cb	0.010872936774222982
1	0x3f863c3ca37b5f57	0.01085708021075475
2	0x3ef1000ff7559c87	1.621269571696869e-05
3	0x3f864487e3205f51	0.010872899645661656
4	0x3ef1000ff7559c87	1.621269571696869e-05
5	0x3e647ae13a92a2fe	3.814697120105843e-08
6	0x3fbcacda0853e9dc	0.11201250747027508
7	0x3fb25c5d1f90e44c	0.07172185917524238
8	0x3f9280773f808f06	0.018068183184495566
9	0x3fb71e3ad1228562	0.09030501943427319
10	0x3fa8eb4b917097e9	0.04867015982044604
11	0x3f8f8b520eef6b7e	0.015402451592242402
12	0x3f95c824c0ebba3e	0.021271299624397104
13	0x3f70969e97861ac5	0.004049891948290256
14	0x3f6b15887a72ec95	0.0033061662284957307
15	0x3eb18981cd45408c	1.04529481344612e-06
16	0x3f6e45a8eb151294	0.0036953257737500442
17	0x3f6a653a85b67363	0.0032220976842850953
18	0x3ea3efff4505a9b3	5.941834704652405e-07
19	0x3f70d16192b7cdca	0.00410593142031552
20	0x3f6c0bcdf0810f98	0.003423597550893786
21	0x3ea1db8043158242	5.321927628969882e-07
22	0x3f4f469ab36b80d9	0.0009544616103447603
23	0x3f55f26e746ade80	0.0013395384464000293
24	0x3f24d1f41c532334	0.0001588449942231618
25	0x3f4b786a6d5a8734	0.0008383292831306345
26	0x3f54ae7193501de7	0.0012622937331360164
27	0x3f2353c9266acc94	0.00014745550580172863
28	0x3f4ef1af8ca6d210	0.000944338529100865
29	0x3f55b3073302917c	0.0013244219117406189
30	0x3f25b13e3df5494f	0.00016549954214412985
31	0x3e649afd694e47b1	3.83806028409796e-08
32	0x3e64df9e81b78e57	3.88799465641538e-08
33	0x3e647b67723e35ff	3.81507858907572e-08
34	0x3e668ca0c93e2dfe	4.200139716502452e-08
35	0x3e647ae13aeca10d	3.814697124008642e-08
36	0x3e647b67723e35ff	3.81507858907572e-08
37	0x3e649afd694e47b1	3.83806028409796e-08
38	0x3e64df9e784ed25d	3.887994551953182e-08
39	0x3e647b67723e35ff	3.81507858907572e-08

running_mean_std.count f8 []
0	0x4179000010000000	26214401.0

a2c_network.sigma f4 [6]
0	0xbfba7263	-1.4566158
1	0xbfa97ca8	-1.3241167
2	0xbfb6d045	-1.4282309
3	0x3ef10268	0.47072148
4	0x3f0e1cba	0.55512583
5	0xbee58f21	-0.4483576

a2c_network.actor_mlp.0.weight f4 [256, 40]
0	0x3c80ae30	0.01570806
1	0xbbdd09d9	-0.0067455587
2	0x3d792ac8	0.060831815
3	0x3e343252	0.1759732
4	0x3daf7d02	0.08568765
5	0xbd8d9062	-0.069123045
6	0x3dd00e1d	0.10158942
7	0x3e38c2c6	0.1804305
8	0x3dadca18	0.08485812
9	0xbe0d1025	-0.1377569
10	0xbe73b8ea	-0.23801008
11	0xbd50dee9	-0.050993834
12	0xbd8bf5f7	-0.068340234
13	0x3d5715c7	0.052511003
14	0xbc8d031d	-0.017213399
15	0x3ed5c84a	0.4175437
16	0x3d1667bf	0.036720034
17	0xbc2c143b	-0.01050287
18	0x3d197c1f	0.037471887
19	0x3cdbe60c	0.026843093
20	0x3d186e0e	0.03721433
21	0xbc3e7f42	-0.01162702
22	0x3cb90227	0.022584034
23	0x3d6b519e	0.057450883
24	0xbdccda04	-0.10002521
25	0xbd0de199	-0.034638975
26	0xbca7ee4b	-0.02049937
27	0xbe364b91	-0.17802264
28	0xbb11fbe1	-0.0022275376
29	0xbe84c291	-0.25929692
30	0x3e62a350	0.22132611
31	0x3eabb42f	0.33535907
32	0x3db36615	0.08759705
33	0xbddf9555	-0.10917155
34	0x3e34905b	0.17633192
35	0xbdb0022d	-0.08594165
36	0xbdae2c40	-0.08504534
37	0x3eb183e4	0.34670937
38	0x3dfe5629	0.124187775
39	0x3e1c5c74	0.15269643
40	0x3da5e05d	0.080994345
41	0xbe865576	-0.26237077
42	0x3d756a38	0.05991575
43	0xbe6002d7	-0.21876083
44	0x3d936df6	0.07198708
45	0xbd19af1f	-0.037520524
46	0x3daf2744	0.08552411
47	0xbe25bc8c	-0.16185206
48	0xbd98f44e	-0.074684724
49	0x3d6587e0	0.056037784
50	0x3db37e54	0.087643296
51	0x3d25470e	0.040350966
52	0x3d81415d	0.06311295
53	0x3d7d6cde	0.061871402
54	0xbe2e9bba	-0.17051592
55	0xbb0f8ace	-0.0021902802
56	0x3c82f33d	0.015985126
57	0xbab5c8a4	-0.0013869
58	0xbd842dd8	-0.064540565
59	0xbd4dc1e8	-0.05023375
60	0x3cdeff5a	0.02722137
61	0xbdf7baaa	-0.1209615
62	0xbe46f1f4	-0.19428235
63	0x3c034b91	0.008013622
64	0x3de5ab57	0.11214321
65	0xbe044ac1	-0.12919141
66	0xbc8a1dc8	-0.016859904
67	0xbe02e950	-0.12784314
68	0xbcb3378c	-0.021877073
69	0x3e10f737	0.14156805
70	0x3d47b2af	0.04875439
71	0xbe20240e	-0.15638754
72	0x3dac8a2c	0.08424792
73	0xbdc33784	-0.09532073
74	0xbe6132e3	-0.21992068
75	0xbd369b75	-0.04458185
76	0x3d9d7027	0.07687407
77	0xbea69827	-0.32537958
78	0xbdd34688	-0.10316187
79	0xbd2e1d1f	-0.04250824
80	0xbdb704ec	-0.08936486
81	0x3cddc8c5	0.027073273
82	0xbd67706f	-0.05650371
83	0xbcb08d06	-0.02155162
84	0xbe1dc5f8	-0.1540755
85	0xbdbcea62	-0.092243925
86	0xbbb1c839	-0.0054254797
87	0xbe6ac289	-0.22925772
88	0x3b303ef3	0.002689299
89	0xbbb3a763	-0.0054826005
90	0x3e1fa2ae	0.15589401
91	0xbc8e1192	-0.017342363
92	0xbd77e17b	-0.06051777
93	0x3d2ea0f1	0.042633954
94	0xbd95e30d	-0.07318697
95	0xbee56473	-0.448032
96	0xbccc5ede	-0.02494758
97	0x3becb59b	0.0072237975
98	0x3e62f9a1	0.22165538
99	0xbbe53803	-0.0069952025
100	0xbb316e99	-0.0027073978
101	0xbd9f36a8	-0.07774097
102	0x3d833763	0.064070486
103	0x3dc877e3	0.097884916
104	0x3d85a1b3	0.06524982
105	0x3cfaa5d2	0.030596647
106	0xbb9ab8e7	-0.004721749
107	0x3eb6f4eb	0.35733733
108	0xbe2c4640	-0.16823673
109	0xbc920c72	-0.0178282
110	0xbdd503df	-0.10401129
111	0xbe51ba26	-0.20481166
112	0x3dbce488	0.092232764
113	0xbe00f67a	-0.12594023
114	0x3e93589d	0.28778544
115	0xbdeebf57	-0.11657589
116	0x3d9d831e	0.07691024
117	0xbda65edf	-0.08123564
118	0xbd6e40a0	-0.0581671
119	0xbdbe9f77	-0.09307759
120	0x3e7eae95	0.24871285
121	0xbd7ef9de	-0.06225001
122	0x3d571fb4	0.05252047
123	0xbe71add9	-0.23601474
124	0x3dc9d739	0.098555036
125	0xbcc25128	-0.023720339
126	0xbc4f2cf6	-0.012644997
127	0x3de60614	0.11231628
128	0x3d286e41	0.04112077
129	0xbca1f7a1	-0.019771399
130	0xbe04565e	-0.12923571
131	0xbcfea1c2	-0.031082992
132	0x3dd57f05	0.10424618
133	0xbc6e2cc0	-0.014537036
134	0xbd271a77	-0.040796723
135	0x3d926b74	0.07149401
136	0xbdcea646	-0.10090308
137	0x3cb5a724	0.022174425
138	0xbe04c013	-0.12963895
139	0xbdc29c3f	-0.09502458
140	0x3d55b219	0.0521718
141	0x3eb70c12	0.35751396
142	0x3d994a26	0.07484846
143	0xbdaaed02	-0.08345987
144	0xbcaa7d3c	-0.02081167
145	0x3e310b41	0.1728945
146	0xbdd0543a	-0.10172315
147	0xbe0841e5	-0.13306387
148	0x3da43094	0.08017078
149	0xbd938f5d	-0.07205079
150	0x3c60f5d1	0.013730482
151	0xbe341c9c	-0.17589039
152	0x3e30a503	0.17250447
153	0x3e29d825	0.16586359
154	0xbddaf372	-0.10690965
155	0xbd2b57d0	-0.04183179
156	0x3d043fe6	0.0322875
157	0xbe0d87ca	-0.1382133
158	0xbd089c49	-0.03335217
159	0x3d9824ed	0.07428918
160	0xbe454bc3	-0.19267182
161	0xbc1f3a10	-0.009718433
162	0x3e11d8c0	0.1424284
163	0x3de222a6	0.11041765
164	0x3ab91157	0.0014119548
165	0xbdc33b35	-0.09532777
166	0xbdfb0cd9	-0.1225831
167	0xbe33dbd9	-0.17564334
168	0xbdf1794a	-0.11790712
169	0x3e0f7768	0.14010394
170	0x3e02df91	0.12780596
171	0x3e162ef8	0.14666355
172	0xbdf55cc1	-0.11980582
173	0x3d9edade	0.07756589
174	0xbd355713	-0.044272494
175	0xbebc84ff	-0.36820218
176	0xbb4b936b	-0.003106321
177	0xbb892474	-0.0041852538
178	0xbea2c898	-0.31793666
179	0xbd3ce47a	-0.04611633
180	0x3c164aa3	0.009173068
181	0x3e96324e	0.29335254
182	0xbddc8677	-0.10767835
183	0x3dacaaa4	0.084309846
184	0xbd8f40c0	-0.06994772
185	0xbdb461aa	-0.088076904
186	0x3dc08507	0.09400373
187	0x3ca63f45	0.020293841
188	0xbe858995	-0.2608153
189	0x3d299a29	0.041406784
190	0xbdf2167f	-0.11820697
191	0xbe9cc5cb	-0.30619654
192	0x3e1d3ec0	0.15355968
193	0x3e0c0d92	0.13677052
194	0x3e9d6fca	0.3074935
195	0x3d3b67b3	0.045753192
196	0x3b0e1a67	0.0021683217
197	0xbf0b5a63	-0.54434794
198	0xbe5a98d2	-0.21347359
199	0xbe13a283	-0.14417462
200	0x3e080136	0.13281712
201	0xbe1c14fc	-0.1524238
202	0xbcbfaa3a	-0.0233966
203	0xbe2a0402	-0.16603091
204	0xbca70468	-0.020387843
205	0xbde3e9f3	-0.11128607
206	0xbe3e7143	-0.18597893
207	0x3e252fe2	0.16131547
208	0x3d0bbaa0	0.034113526
209	0x3dd1bdd0	0.10241282
210	0xbd2f45a1	-0.042791013
211	0xbdbcbe46	-0.09215979
212	0xbdbd697d	-0.09248636
213	0x3dfbdb48	0.12297684
214	0xbda9daef	-0.082937114
215	0xbdeb84c0	-0.114999294
216	0x3d9e281a	0.077224925
217	0xbc3e1bd0	-0.011603311
218	0x3eb1b211	0.34706166
219	0xbc36afbe	-0.011150299
220	0x3da75492	0.081704274
221	0x3dcdc29b	0.10046884
222	0x3ccdf31f	0.025140343
223	0xbea30ecc	-0.31847227
224	0xbd4f7755	-0.050650913
225	0x3ea71840	0.3263569
226	0x3b2d94cd	0.0026486397
227	0x3dcaae4c	0.09896526
228	0xbd743a02	-0.059625633
229	0xbd164506	-0.03668692
230	0x3ebaf43e	0.36514467
231	0xbe6022c7	-0.21888267
232	0x3de3b984	0.11119369
233	0x3dcaf450	0.0990988
234	0xbbdd7ea9	-0.006759484
235	0xbd4fe8a0	-0.050758958
236	0xbe18b29c	-0.14911884
237	0xbcd807fd	-0.026370997
238	0x3d947f57	0.07250851
239	0xbe34d0dc	-0.17657799
240	0x3cd14d68	0.025549605
241	0xbe183412	-0.14863613
242	0x3d49fecb	0.049315255
243	0xbe059921	-0.13046695
244	0xbac2f3de	-0.0014873703
245	0xbd4d98e9	-0.050194655
246	0xbdd67709	-0.10471923
247	0x3dca583a	0.09880109
248	0x3e2b560e	0.16732046
249	0x3d6b3054	0.057419136
250	0xbd24539c	-0.0401188
251	0xbd285506	-0.04109671
252	0xbe32a36e	-0.17445156
253	0xbdff2576	-0.12458317
254	0x3d6bef18	0.057601064
255	0x3e74e289	0.23914541

a2c_network.actor_mlp.0.bias f4 [256]
0	0x3d14031f	0.03613579
1	0x3dccaa9f	0.09993481
2	0xbd8c797a	-0.06859107
3	0x3d9288c5	0.07154993
4	0x3cee87b9	0.029117452
5	0xbd0c1feb	-0.034210127
6	0x3dc0e5b6	0.09418814
7	0x3e309ca3	0.17247252
8	0x3de4dc78	0.111748636
9	0x3e067f0a	0.13134399
10	0x3da6c761	0.08143497
11	0xbd06c2ab	-0.032900494
12	0x3d90b5c2	0.070659176
13	0x3e4265e9	0.18984188
14	0x3e1db284	0.1540013
15	0xbe06ed10	-0.1317637
16	0xbd8de5ae	-0.069285735
17	0x3dd037a2	0.10166861
18	0xbbfae205	-0.007656338
19	0x3de59b6b	0.11211284
20	0xbe36f232	-0.17865828
21	0x3db99682	0.0906191
22	0x3e0d2035	0.13781817
23	0xbe0ef6e6	-0.13961372
24	0x3dcc321b	0.09970494
25	0x3e5703a7	0.20997487
26	0x3d98452c	0.074350685
27	0x3e1361ba	0.14392748
28	0x3e321201	0.1738968
29	0x3e15462d	0.14577551
30	0x3e02472d	0.12722464
31	0x3e296d30	0.16545558
32	0x3d71dbd7	0.059047546
33	0xbccd814a	-0.025086064
34	0xbe5ca122	-0.21545842
35	0x3db7d6e8	0.08976537
36	0x3df87278	0.12131208
37	0x3d897540	0.06711817
38	0x3e4a6dfa	0.19768515
39	0x3e209465	0.15681608
40	0xbe3faed9	-0.18719043
41	0x3df43961	0.11925007
42	0xbcbb6bd2	-0.022878561
43	0xbd3cf62f	-0.046133216
44	0x3d6121fc	0.05496405
45	0xbcb160f7	-0.021652682
46	0x3de93bb1	0.11388338
47	0xbe60162c	-0.21883458
48	0x3e5b5dc3	0.21422486
49	0x3daddf39	0.08489842
50	0x3d9622ee	0.07330881
51	0xbda799ea	-0.08183654
52	0xbe4ab7ae	-0.1979663
53	0xbdda9fd3	-0.10675015
54	0xbd23bd92	-0.03997571
55	0xbdc1cf48	-0.09463364
56	0x3e2cd9c5	0.16879947
57	0xbd140089	-0.036133323
58	0xbd2151a3	-0.039384495
59	0x3e125027	0.14288388
60	0x3dfc9c27	0.12334471
61	0x3e2305d9	0.159202
62	0xbe03a5d3	-0.12856226
63	0x3e2ceb1f	0.16886567
64	0xbc093360	-0.008374065
65	0xbe7f51bc	-0.24933523
66	0x3e4b19d5	0.19834073
67	0xbe0897b1	-0.13339116
68	0xbe287f72	-0.16454867
69	0xbe06fff2	-0.13183573
70	0xbd9e6451	-0.077339776
71	0x3e1c7223	0.15277915
72	0x3e24d534	0.16096956
73	0x3df21ca9	0.11821873
74	0x3d12b168	0.03581372
75	0xbe91fefb	-0.28514847
76	0x3dc8ffae	0.09814392
77	0xbe01ee6b	-0.12688605
78	0x3d8fec72	0.0702752
79	0x3e264a57	0.16239296
80	0xbe2b1a31	-0.1670921
81	0x3da9434a	0.082647875
82	0xbe25f5fc	-0.16207117
83	0x3dc21e8d	0.09478483
84	0x3d85f89b	0.06541558
85	0x3dfd56f0	0.12370098
86	0x3daedc48	0.08538109
87	0x3da44ddb	0.08022662
88	0x3e443ba1	0.19163372
89	0x3db56f33	0.088591
90	0xbd4cd7bc	-0.050010428
91	0x3e1aabe8	0.1510464
92	0x3e3d390d	0.18478794
93	0x3c0887e7	0.008333183
94	0xbc9e0390	-0.019288808
95	0xbd95913f	-0.07303094
96	0x3d76e369	0.06027547
97	0x3e0a0447	0.13478194
98	0x3d8fc8aa	0.070206955
99	0x3d1deec1	0.03855777
100	0xbe549333	-0.20759277
101	0x3de65f5d	0.11248658
102	0x3daeeb79	0.085410066
103	0x3d72ab23	0.05924524
104	0x3df08d72	0.117457286
105	0xbe1c5a0c	-0.15268725
106	0xbe5c0dde	-0.21489665
107	0x3df65b65	0.12029151
108	0x3e01b13b	0.12665264
109	0x3e1414b2	0.1446102
110	0xbd1e6a01	-0.038675312
111	0x3e1e2966	0.1544548
112	0xbe1e385b	-0.15451185
113	0x3dfd295e	0.12361406
114	0x3e11a7d8	0.14224184
115	0xbddbe8ea	-0.10737784
116	0x3e16d129	0.14728226
117	0x3ca878c6	0.020565402
118	0xbde7edcc	-0.11324653
119	0x3cc0859d	0.023501212
120	0x3e13423f	0.1438074
121	0x3bf1ae57	0.0073755193
122	0x3d469577	0.048482385
123	0x3d41680c	0.047218367
124	0xbda256ea	-0.07926734
125	0xbdcce0dc	-0.10003826
126	0x3dbca398	0.092108905
127	0x3d3e2a89	0.046427283
128	0x3e39718c	0.18109721
129	0x3e260d6d	0.16216059
130	0xbe3e8cdf	-0.18608426
131	0x3ddbe057	0.10736149
132	0x3e0e97d1	0.13925101
133	0x3daa6c74	0.08321467
134	0x3e2a8c1f	0.16655014
135	0x3df65d78	0.120295465
136	0xbdcbc972	-0.09950532
137	0x3dd17931	0.102281936
138	0x3d7afd1b	0.061276536
139	0x3dfe43e9	0.124152966
140	0xbd40dafa	-0.047083832
141	0x3da5d8df	0.080980055
142	0x3e06fc1f	0.13182114
143	0x3d8ef0fe	0.06979559
144	0xbda0ec1f	-0.078575365
145	0x3e449ac3	0.19199662
146	0x3d9071c6	0.070529506
147	0x3d47b4a8	0.04875627
148	0x3de4cb5f	0.111716025
149	0x3dac59c0	0.08415556
150	0xbd9a3a06	-0.07530598
151	0x3e0bf161	0.13666297
152	0x3ded8368	0.115973294
153	0xbe664486	-0.22487077
154	0x3d57433d	0.052554358
155	0x3e1a0ab3	0.15043144
156	0xbe0314a8	-0.12800848
157	0xbde41b98	-0.111380756
158	0xbe1b54a6	-0.1516901
159	0x3dbebbb9	0.09313149
160	0xbdfc07d5	-0.12306181
161	0x3dd1bab3	0.10240688
162	0xbd50a868	-0.050941855
163	0xbd67a6d7	-0.056555595
164	0x3e1d42c2	0.15357497
165	0x3dd2b3f9	0.10288233
166	0xbd691cbe	-0.056912176
167	0xbd286dba	-0.04112027
168	0x3dde11b1	0.10843218
169	0xbe4b7b9a	-0.19871369
170	0x3e1bb247	0.15204726
171	0xbd74c30d	-0.059756327
172	0xbdcaa5cb	-0.09894904
173	0x3df5036b	0.119635426
174	0xbe49731e	-0.1967282
175	0x3dedaf65	0.116057195
176	0x3c078a8e	0.00827278
177	0x3e0382bb	0.12842838
178	0x3db7beeb	0.089719616
179	0x3d2df61b	0.042471033
180	0xbe6d5f46	-0.23180875
181	0xbd7c3370	-0.061572492
182	0x3d83f1dc	0.064426154
183	0xbe111c24	-0.14170891
184	0x3e0abb8a	0.13548103
185	0x3d58816f	0.052857812
186	0x3e071e64	0.13195187
187	0x3e2e4871	0.17019822
188	0x3b05e7b3	0.0020432293
189	0xbd9327fe	-0.07185362
190	0x3def571c	0.11686537
191	0x3e10ac44	0.14128214
192	0x3d9ab0ae	0.0755323
193	0xbe0a802c	-0.13525456
194	0x3e45b1bd	0.19306083
195	0x3aefd910	0.0018298943
196	0x3db20bce	0.08693658
197	0xbe2305f8	-0.15920246
198	0x3e1eb06b	0.15496986
199	0x3e4aa5d7	0.19789825
200	0x3df08fe2	0.117461935
201	0x3dbc7f5b	0.09203979
202	0x3d670619	0.0564023
203	0x3dfbe65b	0.12299796
204	0xbdb818b5	-0.089890875
205	0x3c552224	0.013008628
206	0x3e06b0cc	0.1315338
207	0xbe94343c	-0.28946102
208	0xbd2aaa01	-0.041666035
209	0x3df998d5	0.121873535
210	0x3e60ca0c	0.21952075
211	0xbe01c2c1	-0.12671949
212	0x3d71faab	0.059076946
213	0xbc50feb6	-0.01275604
214	0xbd0cf3cb	-0.034412187
215	0x3df18eba	0.11794801
216	0x3dfa0fbf	0.122100346
217	0x3de35c1b	0.11101552
218	0x3e24e177	0.16101633
219	0xbd79f6ee	-0.061026506
220	0xbde7fe7c	-0.11327836
221	0x3dd4e028	0.10394317
222	0x3e1538ae	0.14572403
223	0x3dbce8ee	0.09224115
224	0x3df7b68d	0.12095366
225	0x3df2fcba	0.1186461
226	0x3c837b4c	0.016050003
227	0x3e021178	0.12701976
228	0x3dd3a04d	0.10333309
229	0xbd92085a	-0.07130499
230	0x3e312a3c	0.17301267
231	0xbe8a4805	-0.27008072
232	0x3a82f337	0.0009990697
233	0x3e051b46	0.12998685
234	0x3e0f0143	0.13965325
235	0xbd221413	-0.039569926
236	0x3d822800	0.06355286
237	0xbd798fd5	-0.060928185
238	0xbe32a3aa	-0.17445245
239	0x3d8b8948	0.06813294
240	0xbdf8f2a4	-0.12155655
241	0xbe76cfe3	-0.2410274
242	0x3d808c03	0.06276705
243	0x3e16c8d5	0.14725049
244	0x3dab3abe	0.083608136
245	0xbe2d42b9	-0.16919984
246	0xbd890074	-0.066895396
247	0x3da681e6	0.08130245
248	0x3d214295	0.03937014
249	0xbdf24677	-0.11829846
250	0x3e2b555d	0.16731782
251	0xbe836e36	-0.25670022
252	0x3d1d2d37	0.0383732
253	0xbe55e174	-0.20886785
254	0xbce9ede2	-0.028555814
255	0xbe10da91	-0.14145876

a2c_network.actor_mlp.2.weight f4 [256, 256]
0	0x3ce9b3d8	0.028528139
1	0xbb62a2e4	-0.0034581954
2	0xbdfa5b22	-0.122244135
3	0x3bef23b0	0.0072979555
4	0xbde14633	-0.109997176
5	0x3d3f73d4	0.04674132
6	0xbdc44c01	-0.09584809
7	0xbe0ccad0	-0.13749242
8	0xbdbba5fd	-0.09162519
9	0xbdd65624	-0.10465649
10	0xbc6e7884	-0.0145551
11	0xbb3c4d9a	-0.0028732778
12	0x3d48fcdc	0.04906927
13	0x3c917060	0.01775378
14	0xbd80312b	-0.06259378
15	0xbb254c04	-0.002522231
16	0xbc81ffff	-0.015869139
17	0xbd8ef0af	-0.069795005
18	0xbd530f91	-0.051528517
19	0xbd69b169	-0.057053957
20	0xbd181f8b	-0.037139457
21	0xbdcbfab4	-0.09959927
22	0xbc70fa0d	-0.014708054
23	0x3cc6a835	0.02425013
24	0x3cf8fda1	0.030394377
25	0xbd84c488	-0.06482798
26	0xbe185ea0	-0.14879847
27	0xbd128791	-0.035773817
28	0x3d573975	0.05254503
29	0xbcc0e883	-0.02354837
30	0xbd030201	-0.031984333
31	0xbe1a9b7e	-0.15098378
32	0x3dae2bf2	0.08504476
33	0xbe31e284	-0.17371565
34	0x3d352491	0.044224326
35	0xbd33d970	-0.043908536
36	0x3c8ad0c3	0.016945248
37	0xbdd072c3	-0.10178139
38	0xbd84ad1f	-0.06478333
39	0xbd4e3a47	-0.050348546
40	0x3c178dad	0.009250087
41	0x3db6c7a4	0.08924797
42	0x3c9ed59a	0.019388963
43	0xbd94ad48	-0.07259613
44	0xbdbd5b4f	-0.09245931
45	0x3cf60d58	0.03003566
46	0xbe190e69	-0.14946903
47	0xba987aef	-0.0011633317
48	0xbd9ffef4	-0.078123
49	0xbe143fb8	-0.14477432
50	0x3ce37f69	0.027770715
51	0xbdf4564d	-0.11930523
52	0xbdf1914b	-0.117952906
53	0x3c259965	0.010107373
54	0x3cfbb1e1	0.030724468
55	0x3bf2ae34	0.0074060205
56	0xbd7cef55	-0.061751682
57	0xbd92c4d7	-0.071664505
58	0xbdb67d90	-0.08910668
59	0xbd331efc	-0.04373072
60	0x3ce13f4f	0.027496008
61	0xbc7dd798	-0.015493296
62	0xbd163009	-0.036666904
63	0xbd45afc5	-0.04826333
64	0xbd4d5549	-0.050130162
65	0x3d641220	0.055681348
66	0xbd0f5e74	-0.035002187
67	0x3aaab4d3	0.001302386
68	0xbd342122	-0.04397691
69	0xbd2e0f15	-0.042494852
70	0x3ddb6211	0.10712064
71	0x3cd96f27	0.02654226
72	0x3da0fc8e	0.07860671
73	0xbd078a93	-0.03309114
74	0xbd0861dc	-0.03329645
75	0xbd466a20	-0.048441052
76	0xbdb60b14	-0.08888832
77	0xbdc0a50c	-0.0940648
78	0xbd9364a6	-0.071969315
79	0xbe0b48da	-0.1360201
80	0xbd9a484a	-0.07533319
81	0x3cb2359c	0.021754079
82	0xbc325cb1	-0.010886357
83	0xbe02d462	-0.1277633
84	0x3d308bd8	0.043102115
85	0xbc3d8b67	-0.011568881
86	0x3c535b11	0.01290013
87	0xbcc8beac	-0.024504982
88	0x3d6c37ae	0.057670288
89	0xbbd8fe6f	-0.0066221277
90	0xbd619967	-0.055077937
91	0xbdd951a2	-0.10611273
92	0x3c5d6429	0.01351265
93	0x3d59e831	0.05319995
94	0x3d1f865b	0.03894649
95	0xbd923932	-0.071398154
96	0xbcbb377b	-0.022853604
97	0x3caa8c99	0.020818995
98	0xbadd06f5	-0.0016863035
99	0xbdbcf68d	-0.09226713
100	0x3cb62bfd	0.022237772
101	0x3d9f1e0d	0.077694036
102	0x3d13151b	0.0359088
103	0xbe1a1173	-0.15045719
104	0x3cc201fc	0.023682587
105	0xbc02160d	-0.007939828
106	0x3c09cd3a	0.008410746
107	0x3d22f214	0.039781645
108	0x3d1c01d2	0.038087673
109	0x3cbd1249	0.023080008
110	0x3e0b7541	0.13618948
111	0xbd9d1908	-0.0767079
112	0xbd55b79b	-0.052177053
113	0xbe5a63d6	-0.21327147
114	0xbda4375b	-0.08018371
115	0x3c130465	0.008973216
116	0xbd8ea1ac	-0.0696443
117	0xbb84be23	-0.0040509864
118	0x3d28e5d7	0.041234817
119	0x3d97e30d	0.074163534
120	0xbcaabf38	-0.020843133
121	0xbd3c5848	-0.04598263
122	0x3c84ddf2	0.016219113
123	0xbb8e282b	-0.0043382845
124	0xbd9fb1d7	-0.07797592
125	0xbd886b51	-0.06661094
126	0xbd3f4c55	-0.046703655
127	0x3c806181	0.015671493
128	0xbd9e7219	-0.07736606
129	0xbd2c5330	-0.04207152
130	0xbd69c513	-0.05707271
131	0x3d6aa638	0.057287425
132	0xbd899faf	-0.0671991
133	0xbd9564a0	-0.07294583
134	0x3d828633	0.06373253
135	0xbca88140	-0.020569444
136	0x3d4b2321	0.04959405
137	0xbc371bb9	-0.011176043
138	0xbc5b8f48	-0.01340086
139	0x3c62c4a5	0.013840829
140	0x3d99c6d1	0.07508624
141	0x3cef8dc6	0.029242408
142	0xbd396ecd	-0.045271683
143	0xbd83ffc8	-0.06445271
144	0xbcc25db5	-0.023726324
145	0xbd7b260a	-0.061315574
146	0xbc24b0e6	-0.0100519415
147	0xbdb3b63a	-0.08774991
148	0x3d5eef27	0.054427292
149	0x3d1ecd28	0.03876987
150	0xbc40e289	-0.01177276
151	0xbd66098c	-0.05616145
152	0x3d370777	0.044684853
153	0xbd9ef373	-0.07761278
154	0x3d40d689	0.047079597
155	0xbd3bd1cd	-0.04585438
156	0xbc4ad14f	-0.012379005
157	0x3c93b677	0.018031342
158	0x3d7a4d4d	0.061108876
159	0xbb25a193	-0.0025273308
160	0xbd72646d	-0.059177805
161	0xbd37e5e4	-0.044896975
162	0xbdc18d57	-0.094507866
163	0xbcd573c4	-0.026056178
164	0xbc620e5d	-0.01379737
165	0xbcb5ef05	-0.0222087
166	0x3d9d8115	0.07690636
167	0x3d676da1	0.056501035
168	0x3b832154	0.0040017758
169	0x3c6a200b	0.014289866
170	0x3d3b57b0	0.045737922
171	0x3d37994b	0.044823926
172	0x3d1b1b4b	0.037867825
173	0x3cc14b3f	0.02359545
174	0x3cd5b927	0.026089264
175	0xbd9dcdd4	-0.07705274
176	0xbd764180	-0.06012106
177	0x3b2ab188	0.0026045758
178	0x3d230e0c	0.039808318
179	0xbdeb4c25	-0.11489133
180	0xbd1fd5d0	-0.039022267
181	0x3d3d590e	0.046227507
182	0xbd050f41	-0.03248525
183	0xbd31de7e	-0.043425076
184	0xbcdd4ba0	-0.0270136
185	0xbd9ddcb0	-0.077081084
186	0x3ce4ef9e	0.02794629
187	0x3d39709d	0.045273412
188	0xbdc6d0d5	-0.097078
189	0xbc4b5398	-0.012410067
190	0x3cb55a27	0.022137715
191	0x3c76186f	0.015020474
192	0x3c5d59c2	0.013510169
193	0xbd023b37	-0.031794753
194	0xbd817523	-0.0632117
195	0xbded8efe	-0.11599539
196	0xbcf75d8f	-0.03019598
197	0x3be312ec	0.006929746
198	0x3d2d6a6c	0.04233782
199	0xbe293d20	-0.16527224
200	0x3d227bfb	0.03966902
201	0xbd797b59	-0.06090865
202	0xbccdbcf9	-0.025114523
203	0x3d8bc920	0.06825471
204	0xbc1dc10f	-0.009628548
205	0x3d29eae0	0.04148376
206	0x3d848f0a	0.06472595
207	0x3cc1025c	0.023560695
208	0xbd4a379a	-0.049369432
209	0xbdd44027	-0.103637986
210	0xbdf30b85	-0.118674316
211	0x3d0a8eeb	0.033827703
212	0x3d5b1ef7	0.053496327
213	0x3d378a22	0.044809468
214	0xbc89659b	-0.016772082
215	0x3c8be03c	0.017074697
216	0xbd52889c	-0.051399812
217	0xbcf417dc	-0.029796533
218	0xbd1b6176	-0.037934743
219	0xbda00589	-0.07813556
220	0xbdf2e761	-0.11860538
221	0xbc9ccdb2	-0.019141052
222	0xbdab18a9	-0.08354313
223	0xbe10164c	-0.14071006
224	0x3d2c7475	0.04210325
225	0xbd220504	-0.039555565
226	0xbe179196	-0.1480163
227	0x3c758efc	0.014987703
228	0x3dfc5786	0.12321381
229	0x3cfa96a9	0.030589418
230	0xbcceaa53	-0.025227701
231	0xbddb1f31	-0.10699309
232	0x3db3e4a9	0.08783848
233	0x3c763ae1	0.015028686
234	0x3d9dba1e	0.07701515
235	0x3d661a38	0.056177348
236	0xbdba5ba0	-0.09099507
237	0x3d320d32	0.043469615
238	0xbc71303d	-0.014720974
239	0x3cd1277a	0.02553152
240	0xbe2723a1	-0.16322185
241	0x3da6be18	0.08141726
242	0xbd666f50	-0.0562585
243	0x3cbacd57	0.022802992
244	0x3d346a5a	0.044046737
245	0xbdba73da	-0.09104128
246	0xbd9b9f24	-0.07598713
247	0x3cf2973f	0.029613135
248	0xbd28f116	-0.041245542
249	0x3d0b145b	0.03395496
250	0xbc761f89	-0.015022167
251	0xbd79a03f	-0.06094384
252	0x3b459bee	0.0030152756
253	0x3ddb69d3	0.10713544
254	0xbcff1144	-0.031136163
255	0x3b2c0fc2	0.002625451

a2c_network.actor_mlp.2.bias f4 [256]
0	0x3d92f780	0.07176113
1	0xbe1960a1	-0.14978267
2	0x3c821628	0.015879706
3	0x3cffac6d	0.031210149
4	0xbd34a481	-0.044102196
5	0x3d5a94ab	0.053364437
6	0x3d86b64e	0.065777406
7	0xbd79bf91	-0.060973708
8	0x3d6d26fe	0.057898514
9	0xbd797478	-0.06090209
10	0xbe281e82	-0.16417888
11	0x3d776c89	0.06040624
12	0x3d48df0e	0.049040847
13	0xbd94536c	-0.07242474
14	0x3d5ca97f	0.05387258
15	0xbd027f32	-0.031859584
16	0xbd09400a	-0.033508338
17	0x3d7b9ced	0.061428953
18	0xbdb65825	-0.08903531
19	0x3d300fe8	0.04298392
20	0x3d7c013b	0.06152461
21	0x3d6a3045	0.05717494
22	0x3d2fb786	0.04289963
23	0x3d6bde64	0.057585135
24	0xbe318f9d	-0.1733994
25	0xba1e9ce6	-0.00060506014
26	0xbe128486	-0.14308366
27	0x3c8bc627	0.01706226
28	0xbd4c2a9c	-0.049845323
29	0xbd84b561	-0.06479908
30	0x3d741372	0.059588857
31	0xbe035941	-0.12827016
32	0xbdc5f9c5	-0.096667804
33	0x3d5746b2	0.052557655
34	0x3d28d51e	0.04121887
35	0x3d845b5b	0.06462737
36	0x3d239b4f	0.039943036
37	0xbd68124b	-0.05665807
38	0x3d625930	0.055260837
39	0xbddf988c	-0.10917768
40	0xbcad47e1	-0.021152439
41	0xbd097b4e	-0.03356486
42	0xbd1a0690	-0.037603915
43	0x3d587b27	0.052851822
44	0x3d710e6d	0.058851648
45	0xbdcd9d32	-0.10039748
46	0xbd69b345	-0.05705573
47	0xbd9ac76c	-0.07557568
48	0x3cdf0a3a	0.027226556
49	0xbd594715	-0.053046305
50	0x3d41633c	0.047213778
51	0xbd307d7f	-0.043088432
52	0x3d49b7a1	0.049247388
53	0x3d7568c5	0.05991437
54	0x3d696add	0.05698668
55	0xbd759eb8	-0.05996582
56	0xbd5d0316	-0.05395802
57	0x3d30af49	0.043135915
58	0x3d1c7c15	0.03820427
59	0xbd38655a	-0.04501853
60	0x3d543bc8	0.051814824
61	0xbdae336d	-0.085059024
62	0xbcc655b5	-0.02421079
63	0xbd9155fe	-0.0709648
64	0xbda54886	-0.080704734
65	0xbd69c4bc	-0.057072386
66	0xbda6a7be	-0.08137463
67	0xbd50d11a	-0.050980665
68	0x3d56126e	0.05226367
69	0xbdbf99c0	-0.09355497
70	0xbda81a85	-0.08208183
71	0xbd3d2692	-0.04617936
72	0x3d81e038	0.063415945
73	0xbda2b9f1	-0.07945622
74	0x3cef94cd	0.029245758
75	0x3d24fe73	0.040281724
76	0xbd94feea	-0.072751835
77	0xbcbac956	-0.022801083
78	0x3d40c3a7	0.04706159
79	0x3d084d1d	0.033276666
80	0xbd173981	-0.036920074
81	0x3dbede62	0.0931976
82	0x3d9a60e8	0.07538015
83	0xbc210c4b	-0.009829591
84	0xbd48b05b	-0.04899631
85	0x3cd2ba55	0.025723616
86	0x3d2fe6be	0.042944662
87	0x3d926cef	0.07149684
88	0xbe0d6c0b	-0.13810746
89	0x3d3b45ab	0.045720737
90	0xbe4ac514	-0.19801742
91	0xbd4f0eb6	-0.05055114
92	0xbd66e2fc	-0.056368813
93	0xbd9aa2fc	-0.07550618
94	0x3d1d18fb	0.0383539
95	0xbda9fac7	-0.08299785
96	0x3d501233	0.050798606
97	0x3d3a0f81	0.045424942
98	0xbddc67d4	-0.10761991
99	0x3d2ccdcc	0.04218845
100	0xbd3aeaf5	-0.04563423
101	0xbd479ccb	-0.048733514
102	0xbd854a27	-0.06508284
103	0xbd30f785	-0.043204803
104	0x3d779a6e	0.06045001
105	0x3d4980d8	0.04919514
106	0xbd98d343	-0.0746217
107	0xbd6293d7	-0.055316772
108	0xbe3ee9d0	-0.1864388
109	0xbe06817f	-0.13135336
110	0x3d7d4dba	0.061841704
111	0x3d823166	0.06357078
112	0x3ca1e01b	0.019760182
113	0x3d61f19c	0.055162057
114	0xbe1a4a2c	-0.15067357
115	0x3d36a625	0.04459204
116	0xbd7f5747	-0.062339094
117	0x3d5c5807	0.053794887
118	0x3d73895c	0.059457168
119	0x3ce474f0	0.027887791
120	0xbdaa6780	-0.08320522
121	0x3d6a2d42	0.057172067
122	0x3c5fa08e	0.013649119
123	0x3d4b2c0f	0.049602564
124	0x3d1bb463	0.038013827
125	0xbd8822b8	-0.06647247
126	0xbd741668	-0.05959168
127	0x3d0a1b36	0.033717357
128	0xbdba0856	-0.09083621
129	0x3d79120b	0.060808223
130	0xbca8c65e	-0.020602401
131	0xbc8e65f5	-0.017382601
132	0xbd53088d	-0.051521827
133	0xbd8e8d51	-0.06960548
134	0x3d956b9b	0.07295915
135	0x3d8ffdd1	0.070308335
136	0xbe0c078d	-0.13674755
137	0x3d0f4a4d	0.034982968
138	0xbe3a3af6	-0.18186554
139	0xbd6b8e04	-0.057508484
140	0x3cb65e9f	0.022261916
141	0x3d4e3b4e	0.050349526
142	0xbdfda255	-0.12384478
143	0x3d624a74	0.055246785
144	0xbdb964d2	-0.09052433
145	0xbd367ead	-0.0445544
146	0x3d563384	0.052295223
147	0x3d7539cb	0.05986957
148	0xbd84f108	-0.064912856
149	0xbe2cd76d	-0.16879053
150	0xbd9c4bc3	-0.07631638
151	0x3d8725e9	0.06599028
152	0x3d0fe60b	0.035131495
153	0xbd9e2f56	-0.07723872
154	0x3d1a7fef	0.037719663
155	0x3d04ae65	0.032392878
156	0x3d50457e	0.050847523
157	0xbe2686a6	-0.16262302
158	0xbe4087eb	-0.18801849
159	0xbd79183a	-0.06081412
160	0x3d427bb3	0.04748125
161	0xbd40fe58	-0.04711756
162	0x3d26badf	0.040705558
163	0x3d3cca3a	0.046091296
164	0x3d31d567	0.043416407
165	0xbd640d5a	-0.055676796
166	0xbd9ef977	-0.077624254
167	0xbd59b7ea	-0.05315391
168	0xbddee3b8	-0.10883278
169	0xbd5ce48d	-0.0539289
170	0xbdb9d8ae	-0.090745315
171	0xbd3acf4c	-0.04560785
172	0xbd8d03db	-0.06885501
173	0x3d8da985	0.06917099
174	0xbd3d641b	-0.046238046
175	0xbddbee44	-0.10738805
176	0xbce0fbe9	-0.02746387
177	0xbdbbe49c	-0.09174463
178	0xbd5bebe7	-0.05369177
179	0x3d88e5e7	0.066844754
180	0xbcd80b14	-0.02637247
181	0xbd5a1875	-0.05324598
182	0x3d509798	0.05092582
183	0x3d30b1d2	0.043138333
184	0x3cba2e17	0.022727055
185	0xbd391d83	-0.04519416
186	0xbdb13e03	-0.08654406
187	0xbdfbc1e2	-0.122928396
188	0x3d50d352	0.05098278
189	0xbe05ce84	-0.1306706
190	0xbd630513	-0.05542476
191	0x3d7f844c	0.062382028
192	0xbd836555	-0.06415812
193	0x3d540344	0.051760927
194	0xbd17c7bb	-0.037055712
195	0xbd68826e	-0.056765012
196	0xbe00dcd3	-0.12584238
197	0xbe294eb6	-0.16533932
198	0xbdd3da5c	-0.10344383
199	0xbc92d9ae	-0.017926063
200	0xbc607771	-0.013700352
201	0xbd27888a	-0.0409017
202	0xbde5f6f3	-0.112287425
203	0x3d3ff736	0.046866618
204	0x3d3ec9b1	0.046579067
205	0xbd84144a	-0.06449182
206	0x3da1b53c	0.07895896
207	0xbe12a0f9	-0.14319219
208	0x3cdb3241	0.026757361
209	0xbda51456	-0.080605194
210	0xbe06b131	-0.1315353
211	0xbd971251	-0.073765405
212	0x3d9f7c25	0.077873506
213	0x3d648ced	0.05579846
214	0xbd0f3ebc	-0.034971938
215	0x3d85f7af	0.065413825
216	0x3d3aef1a	0.04563818
217	0x3d273edc	0.04083143
218	0xbda12d4e	-0.07869969
219	0xbd937e25	-0.072017945
220	0xbd9d471f	-0.07679581
221	0x3cad65ba	0.021166671
222	0xbdd169c6	-0.10225253
223	0x3d3f27b5	0.046668727
224	0xbe4afb52	-0.19822434
225	0x3d2a5ba2	0.041591294
226	0x3d57d618	0.05269441
227	0x3d425262	0.047441848
228	0x3d53b94c	0.051690385
229	0x3cf3ec32	0.029775713
230	0xbde6c209	-0.11267478
231	0x3d71e3fe	0.05905532
232	0xbe129735	-0.14315493
233	0x3db53b03	0.08849146
234	0x3d4287b0	0.047492683
235	0x3cbf7aaf	0.02337393
236	0x3d5d70bd	0.054062594
237	0xbdc5433f	-0.09631967
238	0xbd987444	-0.07444051
239	0xbe3a7e22	-0.18212178
240	0x3d708456	0.058719955
241	0x3d412449	0.047153745
242	0xbda5ad25	-0.08089665
243	0xbdfb72f1	-0.12277783
244	0xbd9ec3eb	-0.07752212
245	0xbcdd3f8d	-0.027007842
246	0xbcba33b8	-0.02272974
247	0x3ce415ec	0.027842484
248	0xbdca9b10	-0.09892857
249	0xbda0b105	-0.07846264
250	0xbe31921f	-0.17340897
251	0xbdb08f91	-0.08621133
252	0x3d6d37da	0.057914592
253	0xbd8f3500	-0.06992531
254	0x3d90e876	0.070755884
255	0x3d6eda98	0.058313936

a2c_network.value.weight f4 [1, 256]
0	0x3cbb2668	0.022845462
1	0xbcbaf30d	-0.022820974
2	0x3c721d96	0.014777562
3	0xbca773f5	-0.020441035
4	0x3c9c3c17	0.019071622
5	0x3b7d8bd7	0.0038688087
6	0x3a06fef4	0.00051496853
7	0x3a3c6ec0	0.0007188134
8	0x3bb54eeb	0.0055330894
9	0xbb15aabe	-0.0022837366
10	0xbcea8dd6	-0.028632086
11	0x3d04a59f	0.03238451
12	0x3c89c027	0.016815258
13	0xbcbc287d	-0.022968525
14	0xbcbe6677	-0.023242218
15	0xba970d28	-0.0011524307
16	0xbc948719	-0.018130826
17	0x3c44c156	0.0120089855
18	0x3d37e86e	0.044899397
19	0x3b0bbebd	0.0021323406
20	0x3c92134d	0.017831469
21	0x3cc69c59	0.024244474
22	0xbcd513da	-0.026010443
23	0x3bb21d2a	0.0054356055
24	0x3c842153	0.016129171
25	0xba860aef	-0.0010226647
26	0x3d5d98df	0.054100867
27	0xbc98ffbd	-0.018676633
28	0xba8f3948	-0.0010927105
29	0x3ccfdbe3	0.025373405
30	0xbc8dd3f2	-0.017312977
31	0xbc53eb80	-0.012934566
32	0x3ca29da7	0.019850565
33	0x3a8f7743	0.0010945577
34	0x3d2ca178	0.042146176
35	0xbb49913b	-0.003075673
36	0x3c91adb5	0.017783025
37	0xbb83083e	-0.0039987853
38	0xbb0de762	-0.0021652807
39	0x3b3cb8e9	0.0028796738
40	0x3c3c024e	0.011475159
41	0xbcfd2d4e	-0.030905392
42	0xbcbb0b8d	-0.022832656
43	0x3c387f8c	0.011260878
44	0x3bd95cd1	0.006633379
45	0x3cd0d7f0	0.025493592
46	0xbafbcdf6	-0.0019211161
47	0xbc49ff64	-0.012328956
48	0xbd40ac23	-0.047039162
49	0x3cf6880b	0.030094167
50	0x3d1251a5	0.035722394
51	0x3b9b68ae	0.0047427034
52	0xbb89f2ea	-0.004209866
53	0x3c7047c5	0.014665549
54	0xbbee41a6	-0.0072710095
55	0xbaab35bb	-0.0013062278
56	0xbc7f1d1a	-0.015570903
57	0x3c93df8c	0.018050931
58	0x3a82bfd8	0.0009975387
59	0xbca3cd8b	-0.019995471
60	0x3bd83597	0.0065981853
61	0xbd357af5	-0.044306714
62	0xbd4311b1	-0.047624294
63	0xbd67362b	-0.056448143
64	0xbca1efcc	-0.019767664
65	0x3b892e0b	0.004186397
66	0x3ca11ca7	0.019666983
67	0x3bb5c765	0.0055474513
68	0x3c4411a1	0.011967094
69	0x3cabd253	0.020974314
70	0xbd90e166	-0.07074241
71	0xbc270b20	-0.0101955235
72	0x3ca93002	0.020652775
73	0x3d2d8275	0.04236074
74	0x3d847716	0.06468026
75	0xbb924aae	-0.004464469
76	0xbc885e87	-0.016646637
77	0xbb96a2a5	-0.0045970255
78	0x3ca0c266	0.019623946
79	0x3caa7549	0.020807879
80	0x3bfd6c6a	0.007733871
81	0x3c26b573	0.010175097
82	0xbb67a4df	-0.0035346074
83	0x3dbcda9e	0.092213854
84	0xbc96708b	-0.018364212
85	0x3c810af3	0.015752291
86	0xbb4615a8	-0.003022531
87	0x3c792204	0.015205864
88	0xbc693266	-0.014233207
89	0x3bd6be9d	0.0065534846
90	0x3cce209c	0.025162034
91	0xbb3c6f59	-0.0028752892
92	0xbb8e3471	-0.0043397476
93	0x3bc14992	0.005898663
94	0xbb08f52a	-0.0020898082
95	0xbd4426bf	-0.047888514
96	0xbc2c76e1	-0.01052639
97	0x3d2c50b7	0.042069163
98	0xbd3b861f	-0.045782205
99	0x3b96236b	0.004581859
100	0x3d05bf25	0.032652993
101	0x3a7f1731	0.0009730934
102	0x3d4f37e0	0.050590396
103	0x3c11bbb4	0.00889485
104	0x3c05a7a2	0.008157643
105	0x3c2b806c	0.01046763
106	0x3be19f64	0.006885456
107	0xbc1729b7	-0.009226254
108	0xbd62123f	-0.055193182
109	0xbd87c559	-0.06629438
110	0x399e75d7	0.00030223906
111	0x3bbcff5b	0.0057677454
112	0xbd1fd255	-0.039018948
113	0xbcca2fea	-0.02468105
114	0xbaf91347	-0.0019002937
115	0xba781298	-0.000946322
116	0xbcbdd25f	-0.023171602
117	0x3cb510ac	0.022102676
118	0xbbf83528	-0.007574696
119	0x3c2b51f3	0.01045655
120	0x3c556539	0.013024622
121	0xbc325ec5	-0.010886853
122	0x3c833d6b	0.016020497
123	0x3cc96d0d	0.024588132
124	0xb7fe8a52	-3.034357e-05
125	0x3b3c8626	0.0028766482
126	0xbc5972b6	-0.013271978
127	0x3c84d26d	0.01621362
128	0xbcba52cc	-0.022744559
129	0x3c1aaef7	0.009441129
130	0xbb2586aa	-0.0025257268
131	0xbd1bb3a9	-0.038013134
132	0x3a4de39f	0.00078540476
133	0xbd2ed4f6	-0.042683564
134	0xbb2be703	-0.0026230223
135	0x3c7d6f53	0.015468436
136	0xbd37d185	-0.044877548
137	0x3c08555e	0.008321134
138	0xbe085456	-0.13313422
139	0xbc1d99d8	-0.009619199
140	0x3d983729	0.07432396
141	0x3c0a6b8f	0.0084484955
142	0xbbb6de50	-0.005580701
143	0x3c1c27f0	0.009531006
144	0x3950e565	0.00019921882
145	0xbc0df3ea	-0.008664111
146	0x3c999d4b	0.018751761
147	0xbbf776f4	-0.007552022
148	0x3c2e467f	0.010636925
149	0x3ba6edc8	0.0050942637
150	0xba96b032	-0.0011496602
151	0x3c0b06e3	0.008485529
152	0x3bb8f688	0.005644623
153	0xbdbaa78e	-0.0911399
154	0x3bdd5a2a	0.006755133
155	0x3cfa4d37	0.030554397
156	0x3bef0dff	0.0072953696
157	0xbd3b6d6d	-0.045758653
158	0xbd437e85	-0.04772808
159	0x3aff188a	0.0019462269
160	0xbceb2496	-0.028703969
161	0x3a676ba7	0.0008827992
162	0x3baf1f69	0.0053443206
163	0x3bf7b015	0.0075588324
164	0x3a4b6c18	0.00077599427
165	0x3d11ccb9	0.03559563
166	0x3c22ab21	0.009928496
167	0x3ca35357	0.0199372
168	0xbcd2fe3c	-0.025755994
169	0x3a801199	0.000977087
170	0x3d8d527d	0.06900499
171	0x3d17056a	0.036870398
172	0xbcb4852e	-0.022036161
173	0xb98cb371	-0.00026836575
174	0xbc72c59d	-0.0148176225
175	0x3bfc88f3	0.0077067553
176	0x3d1bb4a4	0.03801407
177	0x3cc83780	0.024440527
178	0xbc851243	-0.01624406
179	0x3c184a1e	0.009295015
180	0x3d021057	0.031753864
181	0xbca7ecc5	-0.020498643
182	0x3c2f308c	0.010692727
183	0x3b1c9d7c	0.002389758
184	0x3bec2cac	0.0072074737
185	0x3b594492	0.0033152443
186	0xbc923cd1	-0.017851265
187	0xbcd6698d	-0.026173377
188	0x3c3bc340	0.011460125
189	0xbcc2e2a5	-0.023789713
190	0x3b7510d0	0.0037394054
191	0x3c406b3d	0.011744318
192	0xbc8816f5	-0.01661251
193	0x3cd780ad	0.026306475
194	0xbae25b3b	-0.001726962
195	0x3bad7059	0.005292934
196	0xbd0ea881	-0.034828667
197	0xbdfa5ef6	-0.122251436
198	0x3d64f767	0.055900004
199	0xbd0fac0b	-0.035076182
200	0xbc07d02b	-0.008289377
201	0xbc05eda8	-0.008174337
202	0xbbcbfb1c	-0.006225003
203	0xbcda9a2c	-0.026684843
204	0x3c004743	0.00782949
205	0x3ca70935	0.020390132
206	0x3d8f45e0	0.069957495
207	0x39d42813	0.0004046565
208	0x3bcfe5a6	0.006344515
209	0x3d196282	0.03744746
210	0xbcff9f73	-0.031203961
211	0xbd0e9f88	-0.03482011
212	0x3ca4f5aa	0.020136673
213	0xbacbbeaf	-0.0015544499
214	0xbc3abed3	-0.011398035
215	0x3c1bcc98	0.009509228
216	0xbb6298c1	-0.0034575912
217	0x3d640301	0.055666927
218	0x3c3b41dd	0.011429277
219	0xbd511ffe	-0.0510559
220	0xbc45ee0e	-0.012080682
221	0x3d79b734	0.06096573
222	0x3c38f62c	0.011289161
223	0x3c83ab2a	0.016072828
224	0xbd3a9fbb	-0.045562487
225	0xbd89eb78	-0.06734365
226	0xbaca3817	-0.0015428093
227	0xbca966a3	-0.020678824
228	0x3bd41152	0.0064717913
229	0x38ccb318	9.760837e-05
230	0x3af7fdad	0.0018920206
231	0x3bbf6b7c	0.0058416706
232	0xbe058d80	-0.13042259
233	0x3c9d3f9f	0.019195376
234	0xbb948a59	-0.004533094
235	0x3bac6480	0.005261004
236	0x3c1ce42e	0.009575887
237	0x3c817c86	0.015806448
238	0xbc512afd	-0.012766597
239	0xbda04343	-0.07825329
240	0x3ccacb64	0.024755187
241	0xbbb8a579	-0.0056349603
242	0xb9f2074a	-0.00046163268
243	0x3c5c8162	0.013458582
244	0xbd03f9e6	-0.032220744
245	0x3beb4c17	0.0071807015
246	0xbb2e0061	-0.0026550519
247	0x3cbd642a	0.023119051
248	0xbbccd039	-0.006250408
249	0xbc9de27f	-0.01927304
250	0xbd656558	-0.056004852
251	0xbd836390	-0.064154744
252	0xbaeffca8	-0.001830955
253	0x3c8935e3	0.016749328
254	0x3bdd8610	0.0067603663
255	0xbc39a241	-0.011330188

a2c_network.mu.weight f4 [6, 256]
0	0xbae5fef1	-0.0017547292
1	0x3c4606fa	0.012086624
2	0x3bff381b	0.0077886707
3	0xbb9e6bc8	-0.004834626
4	0x3b930193	0.0044862716
5	0xb9ece928	-0.00045187143
6	0xb9bc60ea	-0.0003593036
7	0xbbc35a44	-0.0059616882
8	0xbaa70add	-0.0012744326
9	0xbb2e5406	-0.0026600375
10	0x3d778ba9	0.060435925
11	0x3b416a07	0.002951266
12	0xba9f7c01	-0.0012167693
13	0x39fd3812	0.00048297696
14	0xbb783d5c	-0.003787837
15	0xbabd37e4	-0.0014436212
16	0xbbba491f	-0.0056849862
17	0xb9cc81af	-0.00039006534
18	0xbc65494b	-0.013994525
19	0x3b55e835	0.0032639627
20	0xba72bb13	-0.00092594436
21	0x3b0e003a	0.0021667616
22	0xbbaaadde	-0.005208715
23	0x3b28b4e4	0.0025742585
24	0xbd02f3b9	-0.031970713
25	0xba35a4fb	-0.0006929186
26	0x3bc8dcff	0.0061298604
27	0x3c451920	0.012029916
28	0xb96629ee	-0.0002195013
29	0xbad3b87d	-0.0016153004
30	0x38d1f784	0.00010012
31	0xbd5a9cb8	-0.053372115
32	0xbd0ccb5b	-0.034373622
33	0x3b520720	0.0032047704
34	0xbc9ba293	-0.01899842
35	0x3b277a40	0.0025555044
36	0x3b22251f	0.0024741364
37	0x3ba0fc1f	0.0049128677
38	0xbb150025	-0.0022735682
39	0xbc2d42dc	-0.010575023
40	0xba512cde	-0.0007979403
41	0xbbfb8aa1	-0.007676438
42	0xbb79ed31	-0.0038135762
43	0x3a053e92	0.0005082871
44	0x3a3d8b9f	0.0007230583
45	0x3c08073d	0.008302507
46	0xbc0d2398	-0.008614443
47	0xbc2cff2f	-0.010558887
48	0x3c7b223c	0.015327986
49	0x3c283845	0.010267322
50	0xbb3a0319	-0.0028383194
51	0x3b733f7b	0.0037116695
52	0x392ccbe5	0.00016479155
53	0x3b155b9e	0.0022790204
54	0xbb2c0c0a	-0.0026252293
55	0xbc18f50b	-0.009335767
56	0xba045987	-0.0005048741
57	0x3b8c4804	0.004281046
58	0x3b325f10	0.0027217306
59	0xbb82f07a	-0.003995952
60	0x3bb7653f	0.0055967863
61	0x3cc7dce6	0.024397325
62	0xbba37b4c	-0.0049890634
63	0xbcbae318	-0.022813365
64	0xbc8b41b6	-0.016999107
65	0x3b048f91	0.0020227174
66	0x3c4b7cda	0.012419904
67	0xbb5443de	-0.0032389085
68	0x37f9ddfd	2.9786484e-05
69	0xbb76bd88	-0.003764959
70	0x3bdbdc01	0.006709576
71	0x3b9ae472	0.00472694
72	0x3b25b35e	0.0025283913
73	0x3c18b130	0.009319589
74	0xbc31757d	-0.010831234
75	0x3b258de3	0.0025261573
76	0x3a381b81	0.00070231414
77	0x3b5d41c9	0.0033761135
78	0xbafdc6c6	-0.0019361607
79	0xbcf3e298	-0.029771134
80	0x3b10acc2	0.0022075628
81	0x3b7a2f9d	0.0038175352
82	0x3b0877d6	0.002082338
83	0x3cf374ee	0.029718842
84	0xbc924658	-0.017855808
85	0x3b16809b	0.0022964838
86	0xbba238d7	-0.0049506235
87	0xba46fec9	-0.00075910665
88	0xbd58475a	-0.05280242
89	0x39dc2366	0.00041988044
90	0xbd5915a7	-0.052999165
91	0xbaeea40f	-0.0018206852
92	0xba15ab97	-0.0005709468
93	0x3a327bff	0.0006808638
94	0x3c1dfab8	0.009642296
95	0xbc4351e8	-0.011921383
96	0xbab096a0	-0.0013472624
97	0x3be7c98f	0.007073588
98	0x3d8bd5b6	0.068278715
99	0xbb47e3b4	-0.0030500712
100	0x3b8c2ab1	0.00427755
101	0xbce6446e	-0.028108802
102	0x3be1cacd	0.006890631
103	0xbb95bbf5	-0.0045695254
104	0xbc172d8a	-0.009227166
105	0xbaf161a3	-0.0018415939
106	0xbb4b0ebb	-0.0030984122
107	0xbb194844	-0.002338902
108	0x3ddfeadc	0.10933468
109	0x3ca6b690	0.020350724
110	0xbb41e0aa	-0.0029583373
111	0x39e0d5c3	0.00042883874
112	0xbb867615	-0.004103432
113	0xbb3e2e7c	-0.0029019406
114	0xbdddedf9	-0.10836405
115	0x3b0bde69	0.0021342284
116	0xbc02d36e	-0.007984979
117	0x3bc6a536	0.006062175
118	0xbc0dc40d	-0.008652699
119	0x3a80041a	0.0009766847
120	0xbbf6a0d5	-0.007526497
121	0xbb54650b	-0.003240886
122	0xbbb679fe	-0.005568742
123	0x3ab416c3	0.0013739694
124	0x3a6ec05c	0.0009107643
125	0xbbc34ca0	-0.005960062
126	0x3c6c0960	0.014406532
127	0x3c11026e	0.008850677
128	0x3b061ab5	0.0020462696
129	0xbb454d8a	-0.0030106031
130	0xba195fd7	-0.0005850768
131	0x39ea662f	0.0004470809
132	0x3abb9372	0.001431091
133	0xbaa1c529	-0.0012342084
134	0xbb4400df	-0.0029907746
135	0x3bfb14f1	0.0076624085
136	0x3bf67538	0.007521298
137	0x3b0569fb	0.0020357359
138	0x3c22ec5c	0.009944048
139	0x39746219	0.00023306198
140	0xbba1fcc9	-0.0049434644
141	0xba126a73	-0.000558532
142	0x3c2604a4	0.010132942
143	0x3b3ee7fa	0.0029129968
144	0xbb2f9d15	-0.002679651
145	0x3b1e32b0	0.0024139099
146	0x3c05b066	0.008159732
147	0xbb0c4ec4	-0.0021409253
148	0xbb1cc236	-0.002391947
149	0xbcd0e709	-0.025500791
150	0xbb1450cd	-0.0022631169
151	0x3b827826	0.003981608
152	0x3baa7015	0.0052013495
153	0xbd3f94d3	-0.04677279
154	0xbb4c1287	-0.0031138973
155	0xbb1cd21e	-0.002392895
156	0xbac75c37	-0.0015209977
157	0xbd5db576	-0.054128133
158	0x3dedb1ab	0.11606153
159	0xbc52b7fa	-0.012861246
160	0xbb747e23	-0.0037306629
161	0xba3bdd98	-0.0007166504
162	0xbadc7b40	-0.0016821399
163	0xbb05eb0f	-0.0020434295
164	0xb94d4eeb	-0.00019579723
165	0x3c054f18	0.008136533
166	0xba90d572	-0.001104994
167	0xbbe51610	-0.0069911554
168	0x3d19afba	0.0375211
169	0xbb3aabf2	-0.0028483835
170	0x3aee959a	0.0018202544
171	0x3b9174a4	0.0044389535
172	0xbbda4261	-0.006660745
173	0xbb372e66	-0.002795124
174	0x3b25e6c8	0.0025314558
175	0x3b84d950	0.004054226
176	0xbcc10442	-0.0235616
177	0xbcdf48d2	-0.027256403
178	0x3aced001	0.0015778543
179	0xbb074550	-0.0020640679
180	0x3d1ce5fc	0.038305268
181	0x393d01a8	0.00018025062
182	0x3bf349b0	0.0074245557
183	0xbc0a31b7	-0.0084347045
184	0x3a7f4d96	0.0009739039
185	0x3af840ec	0.0018940247
186	0x3c02b245	0.007977073
187	0xbd2d5b61	-0.042323474
188	0x3b008d18	0.0019615348
189	0x3b91457f	0.0044333334
190	0xbcda1eea	-0.02662607
191	0xbc051837	-0.008123449
192	0x3b0fdff5	0.0021953557
193	0x3a87f016	0.0010371234
194	0x3a27b804	0.0006397965
195	0xbb43501f	-0.0029802395
196	0x3a9181b8	0.0011101281
197	0xbd7656c8	-0.060141355
198	0xbce86bd5	-0.02837173
199	0x3c59abad	0.01328556
200	0xbb675fe2	-0.0035304953
201	0xbaa06c5b	-0.0012239324
202	0x3c8675f1	0.01641366
203	0x3b6c4f2e	0.0036057937
204	0xb9e41c2e	-0.00043508544
205	0x3b2e8fc6	0.0026635989
206	0x3cd5cee0	0.026099622
207	0xbbe2b031	-0.0069179763
208	0x3baca6a0	0.0052688867
209	0x3b8a201b	0.004215253
210	0x3b3ec9ac	0.0029111905
211	0x3c723b38	0.014784627
212	0xbafd1079	-0.0019307277
213	0xbbeba5c4	-0.0071913917
214	0xbc08d874	-0.008352388
215	0x3af19afb	0.0018433029
216	0x3b946200	0.004528284
217	0xbb552d6f	-0.0032528301
218	0x38bda4bd	9.042907e-05
219	0x3c08366a	0.008313755
220	0xbd2c0528	-0.041997105
221	0x3d28e76f	0.041236337
222	0x3aabba25	0.001310174
223	0xbafb7c33	-0.0019186795
224	0xbd7e02ac	-0.062014267
225	0xbc3b5e3d	-0.011436042
226	0xbb76a389	-0.0037634096
227	0xbb8f98ba	-0.00438222
228	0x3ace4a50	0.00157387
229	0x3c8bd163	0.017067617
230	0xbd06b4cb	-0.03288726
231	0xbb536e81	-0.003226191
232	0x3e066a5e	0.13126513
233	0x3c121179	0.008915299
234	0xb9b7e0bb	-0.00035071917
235	0x3b4524d6	0.003008177
236	0x37a9acf4	2.0226908e-05
237	0x3b894ed5	0.0041903057
238	0xba575ae2	-0.0008215142
239	0xbdf0e85c	-0.11763069
240	0x3aacca20	0.0013182797
241	0xbafcb899	-0.0019281089
242	0xbc211f83	-0.009834173
243	0xbc0b41ff	-0.008499621
244	0xbbeb96c3	-0.007189603
245	0x3b1f6aae	0.002432506
246	0xb975c42e	-0.00023438103
247	0x3a227d8f	0.0006198519
248	0xbd90f0f6	-0.0707721
249	0xbbb2ed46	-0.005460414
250	0x3d4cdc58	0.050014824
251	0x3c1b3757	0.009473643
252	0xb9bdf422	-0.00036230782
253	0x3b4cca29	0.0031248427
254	0x3b9fb42b	0.0048737726
255	0x396d1cdc	0.00022612832

a2c_network.mu.bias f4 [6]
0	0xbdc46ea7	-0.09591418
1	0x3d910a17	0.070820026
2	0xbdb36db3	-0.08761158
3	0xbc3532f1	-0.011059509
4	0xbd6e1143	-0.05812193
5	0xbe59c3e9	-0.2126614

exp_avg f4 [6]
0	0x39c90572	0.00038341765
1	0xb826c146	-3.9757484e-05
2	0x3a160c4b	0.00057238777
3	0xb9e7f4e1	-0.00044242202
4	0xba55e2a5	-0.0008159078
5	0x3a8a2918	0.0010540811

exp_avg_sq f4 [6]
0	0x38442fb8	4.6774483e-05
1	0x3838a0eb	4.4018885e-05
2	0x3837125b	4.3647695e-05
3	0x38275287	3.9892762e-05
4	0x38278d6c	3.9947612e-05
5	0x3823bb2d	3.903655e-05
