logs/rl_games/yam_cube_sort_8192/2026-02-01_08-29-07/nn/last_yam_cube_sort_8192_ep_400_rew_1376.5491.pth (torch, 953214 bytes, 30 tensors)

value_mean_std.running_mean f8 [1]
0	0x3fddb41560342742	0.4641164245118611

value_mean_std.running_var f8 [1]
0	0x3f70faa14520cef7	0.0041452693567867105

value_mean_std.count f8 []
0	0x41a9000002000000	209715201.0

running_mean_std.running_mean f8 [40]
0	0x3fefbb38f0aed832	0.9916042996253565
1	0x3f8117b5bfd33f06	0.008346004406490259
2	0x3f0a0cccc8a1cac5	4.9686431410918916e-05
3	0x3f8131c28c9be0dc	0.008395690837901197
4	0x3f0a0cccc8a1cac5	4.9686431410918916e-05
5	0x0000000000000000	0.0
6	0x3fbbd232129a874c	0.10867608026685821
7	0xbf951481de77ffb9	-0.020586041644491824
8	0x3fca8c3b39965cf7	0.20740452110178584
9	0x3fbe7139e3ca0b26	0.11891519366512834
10	0xbf8bedab8e32da52	-0.013636913563783857
11	0x3fc985774d243ee7	0.19938555971793123
12	0x3fb10622929f04c2	0.0664998634301979
13	0x3fc31750ebfc44fc	0.14914905092931707
14	0xbf3ce313a2f91b96	-0.0004407809201193933
15	0x3f8a04c75ef78e1f	0.012704427323973864
16	0x3fc3318fd6358291	0.14995000800538041
17	0xbf4ac90189d5eb3e	-0.0008174188148325279
18	0x3f8a0482adcea37a	0.012703915528463606
19	0x3fc3161c542d1a28	0.14911226377644593
20	0xbf3f117205839bce	-0.0004740622876070994
21	0x3f8a049f44ed571b	0.012704128542889095
22	0xbeb6abccf621f551	-1.3513026364813977e-06
23	0x3ef7eee50b34a848	2.282446139393487e-05
24	0xbf301d377dcde28a	-0.0002458820798021752
25	0x3f0426f1d135edd0	3.843713252657153e-05
26	0x3f039a26a509e569	3.7388138143644116e-05
27	0xbf2f62a31a2889da	-0.00023945084565564386
28	0x3e61bf59eb3d76e7	3.305723109027165e-08
29	0x3ef6349dfea4618a	2.117684918187668e-05
30	0xbf303e852dc5325f	-0.0002478671210795254
31	0x3fb3e81ae4d09f94	0.07776039205839275
32	0x3fc1bc7bb52985d0	0.1385645517903371
33	0x3f847adffcb923d0	0.009999990367889483
34	0x3fd45629a8bf038d	0.3177589557563401
35	0xbe06c207205bd5eb	-6.623426813240575e-10
36	0x3f847adffcb923d0	0.009999990367889483
37	0x3fb3e81ae4d09f94	0.07776039205839275
38	0xbfc1bc7bb52985d0	-0.1385645517903371
39	0x3f847adffcb923d0	0.009999990367889483

running_mean_std.running_var f8 [40]
0	0x3f810cf26478c127	0.008325475398209449
1	0x3f80f353d2046b64	0.008276610228269816
2	0x3f0a0df3cb4fbd9f	4.969501734552604e-05
3	0x3f810cf12c898f0c	0.008325466319724771
4	0x3f0a0df3cb4fbd9f	4.969501734552604e-05
5	0x3e447ae144673801	9.536743073112983e-09
6	0x3fbd81f8d933a314	0.11526446631218007
7	0x3fb2d8260fbeb3bd	0.07361066707990367
8	0x3f924e1fcfac92f1	0.01787614541094035
9	0x3fb77b57916124d0	0.09172580050757806
10	0x3fa959440d37f95d	0.04950916921005686
11	0x3f8f07d46490c61b	0.015151652640358162
12	0x3f8ee4f18df1833a	0.015085112709302007
13	0x3f6b2d1635dfeeae	0.0033173974798027172
14	0x3f684e94f1d5c8f5	0.0029671582294038498
15	0x3e9c5c6747924f6c	4.2261110128862745e-07
16	0x3f693da6546bbea3	0.0030811546924878904
17	0x3f67aa3ba498509b	0.0028887905980444334
18	0x3e95895a17d303ae	3.2091931940694254e-07
19	0x3f6b8b68309e9da1	0.0033623728713398503
20	0x3f688b04b60a1c64	0.002995976640082486
21	0x3e9b1d2430c736b7	4.0402760317641884e-07
22	0x3f45cea801b0507e	0.0006655044884405074
23	0x3f5059e6b13dc583	0.0009979966025322757
24	0x3f1c5ffa2449e2bf	0.00010824169391721992
25	0x3f43561604d955ab	0.0005900962366449011
26	0x3f5017b92a0cd352	0.0009822185749730106
27	0x3f1b64c7354828ff	0.00010449853773067742
28	0x3f45c5612581ef8d	0.0006643986080372297
29	0x3f503c10c5aa3124	0.0009908832350076857
30	0x3f1d1e6c573c09b6	0.00011107956180115324
31	0x3e449c36db002fc1	9.597377864676534e-09
32	0x3e44dfd86e053a80	9.720398209134947e-09
33	0x3e447b677c134bf8	9.537696745592293e-09
34	0x3e468dbd925b62e1	1.0502372814662973e-08
35	0x3e447ae145cf301e	9.53674311214092e-09
36	0x3e447b677c134bf8	9.537696745592293e-09
37	0x3e449c36db002fc1	9.597377864676534e-09
38	0x3e44dfd848624a86	9.72039716451294e-09
39	0x3e447b677c134bf8	9.537696745592293e-09

running_mean_std.count f8 []
0	0x4199000004000000	104857601.0

a2c_network.sigma f4 [6]
0	0xbfcdbeae	-1.6073816
1	0xbfcdfde8	-1.6093111
2	0xbfcb7c95	-1.5897394
3	0x403e6a81	2.9752505
4	0x404302cc	3.0470457
5	0x3eb4253e	0.35184664

a2c_network.actor_mlp.0.weight f4 [256, 40]
0	0x3e0d4b1d	0.13798185
1	0xbe0427c1	-0.1290579
2	0x3d4859e9	0.04891387
3	0x3d5bf477	0.053699937
4	0x3d9714bc	0.07377002
5	0xbd8d9062	-0.069123045
6	0x3e152912	0.14566448
7	0x3e83ace2	0.25717837
8	0x3e1e1645	0.15438183
9	0xbe85baeb	-0.2611917
10	0xbe8b212c	-0.27173746
11	0x3d23f5f5	0.040029485
12	0xbe043392	-0.12910298
13	0x3d0f4c9d	0.034985173
14	0x3d060c69	0.03272668
15	0x3e9f45cc	0.31107938
16	0x3d19d400	0.037555695
17	0xbd272eb2	-0.040816016
18	0xbe457f50	-0.19286847
19	0xbc45c9f2	-0.012072073
20	0x3dce0395	0.10059277
21	0x3dda9c61	0.10674358
22	0x3dfccf1a	0.12344189
23	0x3dd1e4fe	0.10248755
24	0x3d23f819	0.040031526
25	0x3dddc7be	0.108291134
26	0xbd853123	-0.06503513
27	0xbe78c363	-0.24293284
28	0xbe407bd9	-0.18797244
29	0xbe1c8a9e	-0.15287253
30	0x3e989880	0.29803848
31	0x3e87e51b	0.2654198
32	0x3e923331	0.2855468
33	0xbddf9555	-0.10917155
34	0xbe8a47b2	-0.27007824
35	0xbd0d051b	-0.034428697
36	0xbdae2c40	-0.08504534
37	0x3e8db4cb	0.27676997
38	0xbd823af1	-0.063588984
39	0x3e1c5c74	0.15269643
40	0x3d7ef1e5	0.062242407
41	0xbe7695df	-0.24080609
42	0x3d644428	0.05572906
43	0xbe4ccec3	-0.20000748
44	0x3d8adb13	0.06780066
45	0xbd19af1f	-0.037520524
46	0x3d480e8c	0.048841998
47	0xbe827f9b	-0.2548798
48	0xbd7fa4af	-0.062412914
49	0x3dfd1206	0.12356953
50	0x3dcde9b9	0.10054345
51	0x3d83d394	0.0643684
52	0x3d99735e	0.07492708
53	0x3d5f8790	0.05457264
54	0xbde63ede	-0.1124246
55	0x3d893701	0.06699944
56	0xbce79ad8	-0.028272077
57	0x3d7616ca	0.060080327
58	0xbdddd9d3	-0.10832562
59	0xbdd15740	-0.1022172
60	0xbbf60aec	-0.007508626
61	0x3c4530d6	0.012035569
62	0xbdd4cda9	-0.10390789
63	0x3d208ed2	0.039198704
64	0x3dd2b714	0.10288826
65	0xbd365052	-0.044510193
66	0x3e071748	0.13192475
67	0x3c0108ef	0.007875665
68	0x3d2029e8	0.039102465
69	0xbd55db77	-0.05221125
70	0x3e8020d8	0.25025058
71	0xbe12bb0e	-0.14329168
72	0x3e30e6f8	0.17275608
73	0xbdc33784	-0.09532073
74	0xbe4927c4	-0.19644076
75	0xbd4f5e39	-0.050626967
76	0x3d9d7027	0.07687407
77	0xbe9fe37a	-0.31228238
78	0xbe465909	-0.19369902
79	0xbd2e1d1f	-0.04250824
80	0xbb3136b4	-0.0027040662
81	0xbd6f997d	-0.058495987
82	0xbd5897b7	-0.05287906
83	0xbddd9d72	-0.10821046
84	0xbe1a0fdc	-0.15045112
85	0xbdbcea62	-0.092243925
86	0xbd800e64	-0.06252745
87	0xbe81d157	-0.25355026
88	0xba85530a	-0.0010171842
89	0xbc181602	-0.009282591
90	0x3e514d32	0.20439604
91	0x3bd0144b	0.0063500754
92	0xbd3079db	-0.04308496
93	0x3c045e28	0.008079089
94	0xbc9eb456	-0.0193731
95	0xbf1dc5b9	-0.61629826
96	0xbcea502b	-0.02860268
97	0x3d166985	0.036721725
98	0x3e37b6d4	0.17940837
99	0x3d7df70c	0.06200318
100	0x3d467f8a	0.048461474
101	0xbea05302	-0.3131333
102	0x3d00b7a5	0.031425137
103	0x3d45b8e3	0.048272025
104	0xbe096073	-0.13415699
105	0x3e03d28d	0.12873287
106	0x3bdf26cb	0.0068100444
107	0x3ed86bf1	0.42269853
108	0xbdc5455e	-0.09632371
109	0x3d049cd6	0.032376133
110	0xbe926fa2	-0.28600794
111	0xbe8f0617	-0.27934334
112	0x3dccc2e5	0.09998111
113	0xbe00f67a	-0.12594023
114	0x3ecfb80c	0.40570104
115	0xbdd8ec1b	-0.105919085
116	0x3d9d831e	0.07691024
117	0xbe1f821a	-0.15576974
118	0xbd80cd62	-0.06289174
119	0xbdbe9f77	-0.09307759
120	0x3e461e94	0.19347602
121	0xbbecb1cb	-0.007223343
122	0x3d99f351	0.07517112
123	0xbe391d5a	-0.18077603
124	0x3df83ad7	0.12120598
125	0xbcc25128	-0.023720339
126	0xbd311005	-0.043228168
127	0x3e3f5717	0.18685566
128	0x3debd08f	0.11514389
129	0xbd5080e1	-0.05090416
130	0xbdca5168	-0.09878808
131	0x3d030c3d	0.031994093
132	0xbcb6a494	-0.022295274
133	0xbd35c819	-0.04438028
134	0x3d10cc5e	0.03535115
135	0x3c978bdb	0.018499305
136	0xbd731273	-0.059343766
137	0x3d1fd86b	0.03902475
138	0xbe9981c2	-0.2998181
139	0xbde914ca	-0.11380918
140	0x3cceb45d	0.025232488
141	0x3ecdcdfd	0.4019622
142	0x3de2f397	0.11081617
143	0x3d12fd3d	0.035886038
144	0x3ddd3367	0.1080082
145	0x3e6a375c	0.2287268
146	0xbe588c10	-0.2114718
147	0xbe779035	-0.24176104
148	0xbd2a6245	-0.041597623
149	0x3c4c7317	0.012478611
150	0x3c483a0a	0.012220869
151	0xbec3ffa3	-0.38280973
152	0x3ebd2386	0.36941165
153	0x3e29d825	0.16586359
154	0xbf0a0212	-0.5390941
155	0xbc95bb39	-0.018277751
156	0x3d043fe6	0.0322875
157	0xbeb0b53f	-0.3451328
158	0xbe65783e	-0.2240915
159	0x3d9824ed	0.07428918
160	0xbe1cefd5	-0.15325864
161	0xbd49bfca	-0.04925517
162	0x3e27dd43	0.16392998
163	0x3d916af4	0.07100478
164	0x3cbbb3c5	0.02291287
165	0xbdc33b35	-0.09532777
166	0xbe140850	-0.14456296
167	0xbe6fe597	-0.23427425
168	0xbe1dfcea	-0.1542851
169	0x3e9d997d	0.30781165
170	0x3dd536f0	0.10410869
171	0x3e457505	0.1928292
172	0xbdfb17e3	-0.122604154
173	0x3c4f1a94	0.012640614
174	0x3c3b549e	0.0114337485
175	0xbef91f32	-0.48656613
176	0x3975ddf5	0.00023447706
177	0x3c6d36f9	0.0144784385
178	0xbeecb86a	-0.46234447
179	0xbcc6c0e4	-0.0242619
180	0xbd97f203	-0.07419207
181	0x3e8b5f74	0.27221262
182	0xbe0d927b	-0.13825409
183	0x3d4fee80	0.05076456
184	0xbe1eebcc	-0.15519637
185	0xbd6431ed	-0.055711675
186	0x3dd88042	0.10571338
187	0x3d7e5d2c	0.062100574
188	0xbea5ce82	-0.32384115
189	0xbd8431ef	-0.064548366
190	0xbe64107b	-0.22271912
191	0xbeceed08	-0.40415215
192	0x3ea2c21d	0.31788722
193	0x3e0c0d92	0.13677052
194	0x3ec875fe	0.3915252
195	0xbb8d3cbc	-0.0043102186
196	0x3b0e1a67	0.0021683217
197	0xbf246dfd	-0.6423033
198	0xbec5155d	-0.3849286
199	0xbe13a283	-0.14417462
200	0x3ccb46f6	0.02481411
201	0xbd0f781e	-0.035026662
202	0xbca84e2e	-0.020545091
203	0xbd6daf0b	-0.058028262
204	0xbc8fa88c	-0.017536424
205	0xbde3e9f3	-0.11128607
206	0xbe4e90e1	-0.20172454
207	0x3e47e965	0.19522627
208	0x3d2b94f4	0.0418901
209	0x3e33ac78	0.1754626
210	0xbdc97692	-0.098370686
211	0xbc9810ab	-0.018562635
212	0xbe0e6a63	-0.13907771
213	0x3df11f5a	0.11773558
214	0xbdb686ab	-0.089124046
215	0xbe7dc033	-0.2478035
216	0x3d11a5b9	0.035558436
217	0xbd17a60b	-0.037023585
218	0x3e1c5a80	0.15268898
219	0xbc1a27b2	-0.009408878
220	0x3d58d61b	0.052938562
221	0x3e3ba3fd	0.18324275
222	0x3dfd7fa4	0.12377861
223	0xbe9f464b	-0.31108317
224	0xbcfce122	-0.03086907
225	0x3eb3d2e9	0.3512185
226	0xbd77129e	-0.06032049
227	0x3d455b88	0.048182994
228	0xbd923cac	-0.071404785
229	0x3d66d034	0.0563509
230	0x3ea4cb58	0.3218639
231	0xbd9c0fcc	-0.076202005
232	0x3ed5e7bb	0.4177836
233	0x3dcaf450	0.0990988
234	0xbd7dd2fe	-0.061968796
235	0xbd59b64f	-0.05315238
236	0xbe18b29c	-0.14911884
237	0x3dee336a	0.116309
238	0xbe703677	-0.23458277
239	0xbe34d0dc	-0.17657799
240	0x3de00df0	0.10940158
241	0xbe6ef7c3	-0.23336701
242	0x3d1a9757	0.037741985
243	0xbe5b75d8	-0.21431673
244	0xbc55fc80	-0.013060689
245	0xbd4d98e9	-0.050194655
246	0xbdf861c2	-0.12128021
247	0x3df41c46	0.11919455
248	0x3dedc9b6	0.11610739
249	0x3d4c3c88	0.049862415
250	0xbdd40b86	-0.103537604
251	0xbd29e114	-0.041474417
252	0xbe58f0a2	-0.21185544
253	0xbe12a1b1	-0.14319493
254	0x3d25fd45	0.04052474
255	0x3e16cae1	0.1472583

a2c_network.actor_mlp.0.bias f4 [256]
0	0xbbe3b080	-0.0069485307
1	0x3db52e69	0.08846743
2	0xbdde41d5	-0.108524
3	0x3ce676d7	0.02813284
4	0x3d15c9f7	0.03656956
5	0xbe075031	-0.13214184
6	0x3e283032	0.16424635
7	0x3e70bf7a	0.23510543
8	0x3e66f7d4	0.22555476
9	0x3e6c0f16	0.2305263
10	0x3ded7804	0.11595157
11	0xbd080872	-0.03321118
12	0x3ca8920d	0.020577455
13	0x3e988a79	0.29793146
14	0x3e980a2a	0.29695255
15	0xbe89c7be	-0.26910204
16	0xbe3cf037	-0.1845101
17	0x3e4d346a	0.20039526
18	0x3d37345b	0.044727664
19	0x3e19e160	0.1502738
20	0xbea0b27a	-0.31386167
21	0x3e2153f8	0.15754688
22	0x3e53a699	0.2066902
23	0xbe8da3fe	-0.2766418
24	0x3d56308e	0.0522924
25	0x3ee05671	0.4381595
26	0x3e2d62ac	0.16932172
27	0x3e9ca1a8	0.30592084
28	0x3eaf825f	0.34279153
29	0x3e779e8d	0.24181576
30	0x3e326395	0.174208
31	0x3e90160b	0.28141817
32	0xbd42ede6	-0.04759016
33	0xbd5196e8	-0.051169306
34	0xbed438a9	-0.41449478
35	0x3d4afdf6	0.049558602
36	0x3ddb3d18	0.10705012
37	0x3d2793b7	0.040912356
38	0x3ebbd8cf	0.3668885
39	0x3e97e3ac	0.29665887
40	0xbe8dd94d	-0.2770485
41	0x3e07cd4f	0.13261913
42	0xbd0fe55b	-0.03513084
43	0xbd4407fe	-0.047859184
44	0x3e29e978	0.16592968
45	0xbc4df112	-0.012569683
46	0x3e7da1e1	0.24768783
47	0xbec769e3	-0.38947973
48	0x3eb7eee6	0.35924453
49	0x3dd4e850	0.103958726
50	0x3dc63cf7	0.09679597
51	0xbe338623	-0.17531638
52	0xbea908de	-0.33014578
53	0xbe699967	-0.22812425
54	0xbd07cb8e	-0.03315311
55	0xbe11454e	-0.14186594
56	0x3ea2d68e	0.31804317
57	0xbd12162b	-0.035665672
58	0xbd837ffc	-0.064208955
59	0x3e3749b0	0.17899203
60	0x3e789943	0.24277215
61	0x3e94b5b8	0.2904489
62	0xbe413fa9	-0.1887194
63	0x3e962351	0.2932382
64	0xbc2fa9ad	-0.010721606
65	0xbec16314	-0.37770903
66	0x3e886f52	0.2664743
67	0xbe5b8ced	-0.21440478
68	0xbe72c353	-0.23707323
69	0xbe0cc6d5	-0.13747723
70	0xbe28df90	-0.16491532
71	0x3e6ee831	0.23330761
72	0x3e92fb54	0.28707373
73	0x3e538fc2	0.20660308
74	0x3ba298ce	0.0049620634
75	0xbf00a34f	-0.5024919
76	0x3e558924	0.20853096
77	0xbeadb49f	-0.33926865
78	0x3e04fc17	0.1298679
79	0x3eca99a0	0.39570332
80	0xbe9dca4c	-0.30818403
81	0x3e5aac3b	0.21354763
82	0xbe8966ab	-0.26836142
83	0x3e612d6b	0.21989982
84	0x3dc00cfb	0.09377476
85	0x3e422708	0.18960202
86	0x3db3f184	0.087863
87	0x3dfc5bfe	0.123222336
88	0x3e70757c	0.23482317
89	0x3dbef787	0.09324556
90	0xbcfc4b93	-0.030797755
91	0x3e9ba77b	0.30401215
92	0x3e80bc00	0.25143433
93	0x3adc16ed	0.00167915
94	0x3929abb2	0.00016181057
95	0xbe18376f	-0.14864896
96	0x3d4c3b59	0.049861286
97	0x3e9df4ab	0.3085073
98	0x3cc037d0	0.023464113
99	0x3e20d687	0.15706836
100	0xbee3a805	-0.44464126
101	0x3e040d78	0.12895763
102	0x3de282b3	0.11060085
103	0x3e0ba74d	0.13638039
104	0x3e0c1935	0.1368149
105	0xbe646c9e	-0.22307059
106	0xbec75ebd	-0.38939467
107	0x3e214bd1	0.15751578
108	0x3e2a2a6b	0.16617744
109	0x3e03be1e	0.12865493
110	0xbdf5ac99	-0.11995811
111	0x3e7f7d31	0.249501
112	0xbea8d643	-0.3297597
113	0x3e8dd812	0.2770391
114	0x3ea4ed9d	0.32212535
115	0xbe76bb8f	-0.24094985
116	0x3dc41feb	0.095764
117	0x3d7cada8	0.06168905
118	0xbd83c64f	-0.06434309
119	0xbd28631e	-0.04111015
120	0x3e6fd175	0.23419745
121	0xbcd64940	-0.026157975
122	0x3d4dd101	0.05024815
123	0xbd9c9f92	-0.07647623
124	0xbe3173de	-0.17329356
125	0xbd77b53c	-0.060475573
126	0x3e213645	0.15743358
127	0xbbddb642	-0.0067661116
128	0x3eb9821c	0.36232078
129	0x3e95a911	0.2923055
130	0xbe81a413	-0.2532049
131	0x3df078b4	0.11741772
132	0x3e74fbe7	0.23924218
133	0x3e2b3960	0.16721106
134	0x3e6aa5f2	0.22914866
135	0x3e7b642d	0.24549933
136	0xbe384dd2	-0.17998436
137	0x3e1522cb	0.14564054
138	0x3cc332b3	0.023827886
139	0x3e25f513	0.1620677
140	0xbe248806	-0.16067514
141	0x3d9d05ca	0.0766712
142	0x3eb8a039	0.3605974
143	0x3e1e6997	0.15469967
144	0xbdcbe869	-0.09956438
145	0x3ed90a7d	0.42390814
146	0x3dcc4005	0.09973148
147	0x3df31375	0.118689455
148	0x3e536dca	0.2064735
149	0x3db45cbb	0.088067494
150	0xbe484ab9	-0.19559754
151	0x3e7628a5	0.24038942
152	0x3d96501d	0.07339499
153	0xbeba738a	-0.36416274
154	0x3cd0a822	0.025470797
155	0x3ea2a495	0.3176619
156	0xbe1483eb	-0.14503448
157	0xbe158506	-0.14601526
158	0xbe8faa84	-0.2805978
159	0x3daabad4	0.08336416
160	0xbe83e085	-0.25757232
161	0x3daf25c2	0.085521236
162	0xbdb4f451	-0.08835662
163	0xbe27d793	-0.16390829
164	0x3ea20a41	0.31648448
165	0x3e1270bc	0.14300817
166	0xbd48e5d2	-0.0490473
167	0xbdcea21f	-0.10089516
168	0x3e889bb0	0.2668128
169	0xbeb0f49f	-0.3456163
170	0x3e4aa9cd	0.19791336
171	0xbe2dbbd5	-0.16966183
172	0xbe32b2af	-0.17450975
173	0x3e7a10aa	0.2442042
174	0xbead5f7f	-0.3386192
175	0x3e741d7c	0.23839372
176	0xbd7b0dd1	-0.061292473
177	0x3ea21087	0.31653234
178	0x3d745efd	0.0596609
179	0x3dc1c6a4	0.09461716
180	0xbee56eea	-0.44811183
181	0xbe0a3c0b	-0.13499467
182	0x3d02912b	0.031876724
183	0xbe490be0	-0.19633436
184	0x3e51f19a	0.2050232
185	0x3d4ec280	0.05047846
186	0x3e266161	0.16248085
187	0x3e8a784f	0.27044913
188	0xbc9da83f	-0.019245265
189	0xbdd97f1e	-0.10619949
190	0x3e0c0156	0.13672385
191	0x3e45f522	0.19331792
192	0x3c9229ee	0.01784226
193	0xbe0c1b30	-0.13682246
194	0x3ead1866	0.33807677
195	0xbc336954	-0.010950405
196	0x3db0ca85	0.086323775
197	0xbe81f45a	-0.25381738
198	0x3df3f85b	0.119126044
199	0x3eb7af61	0.3587599
200	0x3b8c2ab0	0.0042775497
201	0x3dafe630	0.08588827
202	0x3e138a18	0.14408147
203	0x3e6b50a1	0.22979976
204	0xbda347d5	-0.07972685
205	0xbc696e18	-0.01424744
206	0x3e2502dd	0.16114374
207	0xbf098d7b	-0.5373151
208	0xbd973544	-0.073832065
209	0x3e5cff4d	0.21581765
210	0x3ed3088b	0.41217455
211	0xbe72bda8	-0.2370516
212	0x3d16ea11	0.036844317
213	0x3cabca77	0.020970566
214	0xbe055cd6	-0.13023695
215	0x3e4cc1cc	0.19995803
216	0x3e732d8c	0.23747844
217	0x3e3c3d09	0.18382658
218	0x3e82880c	0.2549442
219	0xbd0a4c4f	-0.03376418
220	0xbe400e6d	-0.18755503
221	0x3e416482	0.18885997
222	0x3e8fd915	0.28095308
223	0x3e777e80	0.2416935
224	0x3d75e430	0.06003207
225	0x3e4fbc4d	0.20286675
226	0xbab79dc3	-0.0014008809
227	0x3e1860db	0.14880697
228	0x3da90b2d	0.08254085
229	0xbe057cbd	-0.13035865
230	0x3e4fa4f5	0.2027777
231	0xbecc3d5d	-0.39890566
232	0xbd53ed03	-0.051739704
233	0x3e582e52	0.2111142
234	0x3dc688c9	0.096940584
235	0xbe1b36ff	-0.15157698
236	0x3d89085f	0.0669105
237	0xbdef8747	-0.11695724
238	0xbe8bf1e2	-0.2733298
239	0x3d59bd03	0.05315877
240	0xbdef5d86	-0.1168776
241	0xbede885c	-0.4346341
242	0xbc5ce5f1	-0.013482557
243	0x3e4a5eda	0.19762745
244	0x3dbdaed9	0.09261865
245	0xbe4e5417	-0.20149265
246	0xbdc20501	-0.09473611
247	0x3deeafa7	0.11654597
248	0x3dc76a1f	0.09737038
249	0xbe6a2042	-0.22863868
250	0x3e48da9e	0.19614646
251	0xbec97850	-0.39349604
252	0x3dac09ee	0.084003314
253	0xbea0fcf4	-0.31442988
254	0xbdaf237d	-0.08551691
255	0xbe70883b	-0.23489468

a2c_network.actor_mlp.2.weight f4 [256, 256]
0	0x3ca1416c	0.019684516
1	0x3d82127c	0.06351182
2	0xbe107586	-0.14107332
3	0x3bb297bd	0.0054502175
4	0xbd7ca327	-0.06167903
5	0x3d557169	0.05211011
6	0xbd8aadb4	-0.067714125
7	0xbd066eab	-0.032820385
8	0xbd2fb476	-0.04289671
9	0xbdb3e8d5	-0.087846436
10	0xbc58957c	-0.013219234
11	0xbc8400cd	-0.016113663
12	0x3da8b692	0.082379475
13	0xbcade679	-0.021228062
14	0xbce79e3c	-0.028273694
15	0x3d50410d	0.050843287
16	0x3d2a3bec	0.041561052
17	0x3cb415d8	0.021983072
18	0x3bcabcbf	0.006187051
19	0xbd8d637d	-0.069037415
20	0xbd1e5d72	-0.038663335
21	0xbe0088d6	-0.12552199
22	0x3a7d625c	0.0009665841
23	0xbc3a2c71	-0.011363135
24	0x3de32788	0.11091524
25	0xbd9ff133	-0.07809677
26	0xbdb3d0d5	-0.08780066
27	0xbda6f09c	-0.08151361
28	0xbcca626e	-0.024705138
29	0xbbdea793	-0.0067948787
30	0xbd99ee89	-0.075162
31	0xbe00cabb	-0.12577336
32	0xbbd0cdba	-0.006372181
33	0xbe0669cf	-0.131263
34	0x3d88dc23	0.06682613
35	0xbc6def0f	-0.014522328
36	0x3da883d4	0.08228269
37	0x3b8a5db4	0.004222596
38	0xbce00a04	-0.027348526
39	0xbc4e8540	-0.012605011
40	0xbd52eb87	-0.051494148
41	0x3c23f477	0.010007015
42	0xbbf32e46	-0.0074212877
43	0xbccb8b1f	-0.024846612
44	0xbd3688d0	-0.04456407
45	0xbd221f52	-0.03958065
46	0xbe285430	-0.16438365
47	0xbc85c4c3	-0.016329175
48	0xbd835f75	-0.06414691
49	0xbc6b723e	-0.014370499
50	0xbdb9e889	-0.09077556
51	0xbe03ee5a	-0.12883893
52	0xbd1631cd	-0.036668587
53	0x3cb4533d	0.022012347
54	0xbddaaae3	-0.10677125
55	0xbd62ed42	-0.055402048
56	0x3cde259d	0.027117545
57	0x3ca1074e	0.019656803
58	0x3d2e552e	0.042561702
59	0x3c216021	0.009849579
60	0xbddefa2e	-0.10887562
61	0xbdaf535a	-0.0856082
62	0x3bf238eb	0.007392039
63	0xbce231d4	-0.02761165
64	0x3c86d390	0.016458303
65	0x3ccd4968	0.025059417
66	0x3b6962f5	0.0035611962
67	0x3c8c259e	0.017107781
68	0xbd730c45	-0.059337873
69	0x3c160f6f	0.009158953
70	0x3d7894e6	0.060688876
71	0xbd11612e	-0.03549307
72	0x3d3fdf38	0.046843737
73	0xbd023396	-0.031787477
74	0xbca8304a	-0.020530839
75	0xbbdd11e8	-0.0067465194
76	0x3caff408	0.021478668
77	0xbdadbc0a	-0.08483131
78	0xbe07a0fe	-0.13245007
79	0xbdd60538	-0.10450214
80	0xbda6fb4e	-0.08153401
81	0xbccb4e8f	-0.024817733
82	0x3c84cc1e	0.016210612
83	0xbdd11713	-0.10209479
84	0xbaed0d4e	-0.001808563
85	0x3d24b4a6	0.040211342
86	0x3c284a18	0.010271572
87	0xbd90868a	-0.07056911
88	0xbc3f99c6	-0.011694377
89	0x3d8f3cd3	0.06994023
90	0xbdbd11fd	-0.092319466
91	0xbd99362b	-0.07481035
92	0x3cdf95a1	0.027293028
93	0xbd559ef8	-0.052153558
94	0x3cd5c5ec	0.026095353
95	0xbd9be5e8	-0.076122105
96	0x3c93def8	0.018050656
97	0x3c4e0ec4	0.012576763
98	0xbd8dc35d	-0.06922028
99	0xbd52c21b	-0.051454645
100	0x3a1d9e55	0.0006012668
101	0x3d037469	0.03209344
102	0x3aa64a10	0.0012686867
103	0xbdb292d7	-0.08719414
104	0xbcc94b7a	-0.024572123
105	0x3d81f83e	0.063461766
106	0x3b5871ac	0.0033026738
107	0x3e2ea80a	0.1705629
108	0x3cb7bff7	0.022430403
109	0x3cd898d8	0.02644007
110	0x3d6f623c	0.058443293
111	0xbc79a971	-0.015238152
112	0xbdc6923e	-0.09695862
113	0xbe173b28	-0.1476866
114	0xbd109d1c	-0.03530608
115	0xbbd8c29a	-0.006614995
116	0x3cdfc67b	0.027316323
117	0x39a240e0	0.00030947383
118	0x3c5c704d	0.013454509
119	0x3d142fcf	0.036178406
120	0x3ca74534	0.02041874
121	0xbc8c6d5d	-0.017141992
122	0x3b90f983	0.0044242754
123	0xbccffa05	-0.025387773
124	0xbce55ccc	-0.02799835
125	0xbde886e6	-0.11353855
126	0xbcf8480c	-0.030307792
127	0x3cec71e8	0.028862908
128	0xbdf48d95	-0.11941067
129	0xbd89faba	-0.067372754
130	0xbcf56580	-0.029955626
131	0x3bbc3da8	0.0057446547
132	0xbd1da7cd	-0.038490105
133	0xbd28cd2d	-0.041211296
134	0x3e0a401a	0.13501015
135	0xbdb41459	-0.087929435
136	0x3dd12d1c	0.10213682
137	0xbd1cc871	-0.038277093
138	0xbc192199	-0.009346389
139	0xbc93f530	-0.01806125
140	0x3d618cba	0.055065848
141	0xbcafd375	-0.021463135
142	0x3c244ccf	0.010028078
143	0xbd7cd961	-0.061730746
144	0x3d1697ba	0.03676579
145	0xbe0ee873	-0.1395586
146	0x3d19cf8e	0.037551455
147	0xbd42bb29	-0.04754177
148	0xbd79f0f3	-0.061020803
149	0x3cd0546f	0.025430886
150	0x3d60d5f1	0.05489153
151	0xbd56038f	-0.052249487
152	0x3d8846c3	0.06654122
153	0xbd4869dc	-0.04892908
154	0xbc54b957	-0.012983642
155	0xbc87a006	-0.016555797
156	0x3da8f734	0.08250275
157	0x3d2d0c22	0.0422479
158	0x3dac0fb1	0.084014304
159	0x3c83221c	0.016007476
160	0xbd9a0ed4	-0.075223595
161	0xbd22b3f8	-0.039722413
162	0xbdb3ed9b	-0.08785554
163	0xbcaa8aef	-0.020818202
164	0x3cbca537	0.023028
165	0x3c8414c3	0.016123181
166	0x3d84b77a	0.06480308
167	0x3cc7fc0c	0.024412178
168	0xbdbea69e	-0.093091235
169	0x3d1779cf	0.0369814
170	0x3e062747	0.1310092
171	0xbab035f0	-0.0013443809
172	0xbd1544f5	-0.036442716
173	0x3d03cde3	0.03217877
174	0x3cd600c9	0.026123421
175	0xbd474e3b	-0.04865859
176	0xbc9accb6	-0.018896442
177	0xbd6f6881	-0.058449272
178	0x3b8db5e3	0.004324661
179	0xbd86d23a	-0.06583066
180	0xbdaf1cf3	-0.085504435
181	0x3ca5edbc	0.020254962
182	0x3cab2425	0.020891258
183	0xbd5bc1f2	-0.053651758
184	0x3d479925	0.048730034
185	0x3d8e452a	0.06946786
186	0xbccf2b38	-0.025289163
187	0x3d245898	0.040123552
188	0xbd2c8dd7	-0.042127457
189	0xbd3e137d	-0.046405304
190	0x3da6199d	0.08110354
191	0xbb1fce4d	-0.002438444
192	0x3ddfc2fc	0.10925862
193	0xbd73f496	-0.059559427
194	0xbdd7b6b3	-0.10532894
195	0xbdf5a66d	-0.11994634
196	0xbd38421c	-0.04498492
197	0xbb9e487c	-0.004830418
198	0xbc76dd99	-0.015067481
199	0xbdc33d0e	-0.0953313
200	0x3cd2da5a	0.025738884
201	0x3d9e1767	0.077193074
202	0xbd12d69e	-0.035849206
203	0xbdaacdec	-0.08340058
204	0x3cb8a63f	0.02254021
205	0xbce2ae23	-0.027670925
206	0x3de2c129	0.110719986
207	0x3d23338e	0.03984409
208	0x3b8cec98	0.004300665
209	0xbe02847e	-0.12745854
210	0xbbf33eb4	-0.0074232463
211	0xbcaec774	-0.021335341
212	0x3c04e212	0.00811054
213	0x3d80c865	0.06288222
214	0xbd7c76ec	-0.06163685
215	0xbd8e869b	-0.06959268
216	0xbd55e7fc	-0.05222319
217	0xbd462cbb	-0.048382502
218	0xbca98127	-0.020691467
219	0xbdea122b	-0.114292465
220	0xbdfcaafa	-0.12337299
221	0xbdbdeb43	-0.09273388
222	0xbd66df28	-0.056365162
223	0xbd8dc672	-0.06922616
224	0x3a0da34e	0.00054030574
225	0xbd25a879	-0.04044387
226	0xbdb91b8c	-0.09038457
227	0x3d760a06	0.060068153
228	0x3d773e77	0.060362305
229	0x3d4cef59	0.050032947
230	0x3c2e1f43	0.010627571
231	0xbd8d5adb	-0.06902095
232	0x3df0951c	0.1174719
233	0xbccaf9b7	-0.024777276
234	0x3d917851	0.07103027
235	0x3e034871	0.12820603
236	0xbdc3d524	-0.09562138
237	0x3d78091e	0.06055557
238	0xbd6fafae	-0.05851715
239	0xb91767a5	-0.00014439093
240	0xbe40b117	-0.18817554
241	0x3cadf722	0.021236006
242	0xbd177a5d	-0.03698193
243	0xbce4e40e	-0.027940776
244	0x3db556f8	0.088544786
245	0xbdabb591	-0.083842404
246	0xbc958547	-0.018252028
247	0xbccff1ac	-0.025383793
248	0xbcd94613	-0.026522672
249	0x3bdf2a1a	0.006810439
250	0xbca0f04f	-0.019645838
251	0xbd1ab2c2	-0.037768133
252	0x3c315ccd	0.010825348
253	0x3d81287f	0.06306552
254	0xbbb4bab1	-0.0055154194
255	0xbce2db60	-0.027692497

a2c_network.actor_mlp.2.bias f4 [256]
0	0x3d28b8ee	0.041191988
1	0xbe5b1bc5	-0.21397312
2	0x3d837663	0.06419065
3	0x3d50701f	0.050888177
4	0xbd39cb22	-0.04535974
5	0x3d3b9d3a	0.04580424
6	0x3d821ca2	0.063531175
7	0xbd9dbd3b	-0.077021085
8	0x3d5a6142	0.05331541
9	0xbd830bc3	-0.06398728
10	0xbe5b06a2	-0.21389249
11	0x3d642170	0.05569595
12	0x3d4cef1b	0.050032716
13	0xbd62127f	-0.05519342
14	0x3d8f4460	0.06995463
15	0xbcdc9385	-0.026925812
16	0xbc4a6f84	-0.012355689
17	0x3d341b5d	0.04397141
18	0xbe29a795	-0.16567834
19	0x3d8b6c63	0.068077825
20	0x3d20b1b2	0.039231963
21	0x3d69206b	0.05691568
22	0x3d662a38	0.056192607
23	0x3d1d7b3f	0.038447615
24	0xbe124667	-0.14284669
25	0x3c910f40	0.017707467
26	0xbe67f661	-0.2265258
27	0x3d523d1e	0.051327817
28	0xbd80801a	-0.062744334
29	0xbd85c3fd	-0.065315224
30	0x3daad4e5	0.08341388
31	0xbe66fd52	-0.22557572
32	0xbda1b653	-0.07896104
33	0x3d12b8d4	0.035820797
34	0xbd3cfded	-0.0461406
35	0x3d8b2dd4	0.067958504
36	0x3c7fead2	0.01561995
37	0xbd777d86	-0.060422443
38	0x3d6bec1d	0.057598222
39	0xbdf4d1e8	-0.11954099
40	0xbd27c446	-0.040958665
41	0xbd1641bb	-0.03668378
42	0xbd06fb6a	-0.03295461
43	0x3da7c7c8	0.08192402
44	0x3d159d26	0.03652682
45	0xbddf75d2	-0.10911144
46	0xbd507a79	-0.05089805
47	0xbe3ebb0e	-0.18626043
48	0x3ba28e97	0.0049608457
49	0xbd98d42e	-0.07462345
50	0x3c8d5c02	0.017255787
51	0xbe0f7b3b	-0.14011852
52	0x3d3e99e7	0.04653349
53	0x3d985335	0.074377455
54	0x3d803e2e	0.0626186
55	0xbd884952	-0.0665461
56	0xbd4f54aa	-0.05061785
57	0x3cece0d5	0.028915802
58	0x3ce3631f	0.027757226
59	0xbd6ae32f	-0.057345565
60	0x3d6e5cbc	0.058193907
61	0xbd790410	-0.06079489
62	0xbbe6326a	-0.007025053
63	0xbd8ae79a	-0.06782456
64	0xbde97d6f	-0.11400878
65	0xbd2db75e	-0.0424112
66	0xbe0b76be	-0.13619515
67	0xbd94f916	-0.07274072
68	0x3cb84867	0.022495462
69	0xbe31321a	-0.17304268
70	0xbe1dca2e	-0.15409157
71	0xbceb0b7a	-0.028691996
72	0x3d6015da	0.05470834
73	0xbe226e97	-0.15862499
74	0xbd8b5afc	-0.06804463
75	0x3cdd8c00	0.027044296
76	0xbdb6915f	-0.08914446
77	0xbdef9f46	-0.11700301
78	0x3d0dd78b	0.034629386
79	0xbe186fec	-0.14886445
80	0xbd808a3e	-0.062763676
81	0x3dd9a5fb	0.106273614
82	0x3dc82c98	0.097741306
83	0xbe1382e6	-0.14405403
84	0xbdcf3c4e	-0.10118924
85	0xbd52c068	-0.051453024
86	0x3b1ee704	0.0024246583
87	0x3d5ccccf	0.05390626
88	0xbe6b2ddc	-0.22966713
89	0x3d412911	0.047158305
90	0xbe93e246	-0.2888357
91	0xbd0b566a	-0.034017958
92	0xbd767e0a	-0.060178794
93	0xbdbac9b3	-0.09120502
94	0xbe0c9186	-0.13727388
95	0xbdc6f086	-0.09713845
96	0x3d225bcc	0.039638326
97	0x3c6f9878	0.014623754
98	0xbe128097	-0.14306866
99	0x3ccd4f8f	0.02506235
100	0xbd982824	-0.07429531
101	0xbd4ead8b	-0.050458472
102	0xbe19ba40	-0.15012455
103	0xbd3ca878	-0.0460591
104	0x3d55c113	0.052186083
105	0x3ce96d8f	0.028494624
106	0xbd5f51b4	-0.054521278
107	0xbd294c4f	-0.04133254
108	0xbe9967ce	-0.2996201
109	0xbe3a7549	-0.18208803
110	0x3d607021	0.054794434
111	0x3d9306a1	0.07178999
112	0x3c92ff84	0.017944105
113	0x3d501d4c	0.05080919
114	0xbe4949d4	-0.1965707
115	0x3d4eaf33	0.05046005
116	0xbd92cec7	-0.07168346
117	0x3d4e09af	0.050302204
118	0x3d53d40a	0.051715888
119	0x3cb8c0e8	0.022552922
120	0xbdc8a0bb	-0.09796282
121	0x3d8a719c	0.067599505
122	0xbe0db68e	-0.1383917
123	0x3d321697	0.043478575
124	0x3cb3b358	0.021936104
125	0xbda387de	-0.07984899
126	0xbb241d50	-0.0025041886
127	0x3dc42f97	0.095793895
128	0xbd53191a	-0.05153761
129	0x3d11f2b5	0.035631854
130	0xbe03821a	-0.12842599
131	0xbd730d1b	-0.05933867
132	0xbd530b14	-0.051524237
133	0xbd4a67a8	-0.04941526
134	0x3d766ce5	0.060162444
135	0x3d892335	0.06696168
136	0xbe97873b	-0.2959536
137	0x3d1ef708	0.038809806
138	0xbe6ac1e6	-0.22925529
139	0xbd89f76b	-0.06736644
140	0xbce4cecd	-0.027930642
141	0x3d72bae5	0.059260268
142	0xbe249081	-0.16070749
143	0x3d1381d0	0.03601247
144	0xbdaf837a	-0.08569999
145	0xbcd51da7	-0.026015116
146	0x3cfaae8e	0.030600812
147	0x3d84171e	0.06449722
148	0xbaf0ad30	-0.0018362161
149	0xbe9b3f1e	-0.30321592
150	0xbd8043e0	-0.06262946
151	0x3d3f9d48	0.046780854
152	0x3d133c27	0.035946038
153	0xbe56eb1f	-0.20988129
154	0x3d955750	0.07292044
155	0x3c9cd599	0.01914482
156	0x3d161abf	0.0366466
157	0xbe8deaab	-0.277181
158	0xbeb20bae	-0.34774536
159	0xbd9ac281	-0.0755663
160	0x3d8256f7	0.063642435
161	0xbd977f29	-0.07397301
162	0x3d43a609	0.047765765
163	0x3d41e9a8	0.047341973
164	0x3d27311e	0.040818326
165	0xbe02a6dc	-0.12758964
166	0xbd97c3c8	-0.07410389
167	0xbd84ab95	-0.06478039
168	0xbdcb7b73	-0.099356554
169	0xbda509d8	-0.08058518
170	0xbe352dd7	-0.17693268
171	0xbdaea9ea	-0.08528502
172	0xbdb79f92	-0.089659825
173	0x3d5e6f6d	0.054305483
174	0xbd351f0a	-0.044219054
175	0xbe2474d3	-0.1606019
176	0xbde150c5	-0.11001734
177	0xbe4be4ba	-0.19911471
178	0xbdf788a0	-0.12086606
179	0x3d6fc532	0.05853767
180	0xbe201435	-0.15632708
181	0xbd154316	-0.03644093
182	0x3d88374e	0.066511735
183	0x3d86d78e	0.065840825
184	0xb90342ca	-0.00012518014
185	0xbd2c59ad	-0.04207771
186	0xbe096a08	-0.13419354
187	0xbe5b851b	-0.21437494
188	0x3d5e26e1	0.054236297
189	0xbe82a597	-0.2551696
190	0xbd8a7a95	-0.06761662
191	0x3d24c8b9	0.040230487
192	0xbd660f51	-0.05616695
193	0x3d05c345	0.032656927
194	0xbc3bb14c	-0.011455845
195	0xbd7baff5	-0.061447103
196	0xbe65811c	-0.22412533
197	0xbe8241a8	-0.25440717
198	0xbe77cf57	-0.24200188
199	0xbc4aa4ee	-0.012368424
200	0xbd228d1c	-0.039685354
201	0xbd024690	-0.031805575
202	0xbe4f83f8	-0.20265186
203	0x3d770858	0.06031069
204	0x3d1158e2	0.035485156
205	0xbca3f87e	-0.020015951
206	0x3d44f7ec	0.048088
207	0xbe325cac	-0.17418164
208	0x3cac624f	0.021042971
209	0xbda78304	-0.08179286
210	0xbe60acb7	-0.21940885
211	0xbd46246a	-0.04837457
212	0x3d7c3797	0.061576452
213	0x3d357e75	0.044310052
214	0xbcbed920	-0.023296893
215	0x3d9b16f1	0.07572735
216	0x3d338395	0.04382666
217	0xbddb505c	-0.10708687
218	0xbdaaf20c	-0.08346948
219	0xbdb344c1	-0.08753348
220	0xbe65005c	-0.22363418
221	0xbe0f6874	-0.1400469
222	0xbe18887f	-0.14895819
223	0x3cfa1a79	0.030530201
224	0xbeac0026	-0.33593863
225	0xbdabd1e9	-0.083896466
226	0x3d575182	0.052567966
227	0x3da72f59	0.08163328
228	0x3d3193d2	0.043353863
229	0xbd1680c1	-0.036743883
230	0xbe8d75c0	-0.276289
231	0x3d021bd9	0.03176484
232	0xbe8774ab	-0.26456198
233	0x3daadf3d	0.083433606
234	0x3d17e3a5	0.037082333
235	0x3cfd3ecb	0.030913731
236	0x3ced4dc2	0.028967742
237	0xbde3e5ec	-0.111278385
238	0xbe0bb06d	-0.1364152
239	0xbe871741	-0.2638493
240	0x3d4600df	0.048340674
241	0x3cd44221	0.025910439
242	0xbe233e85	-0.15941818
243	0xbe1e051c	-0.15431637
244	0xbda0d13d	-0.07852409
245	0xbca2e76b	-0.01988574
246	0xbcc298fd	-0.023754591
247	0xbbf57c06	-0.0074915914
248	0xbea446a8	-0.32085156
249	0xbd64565d	-0.055746425
250	0xbe25ecc6	-0.16203603
251	0xbe4ce203	-0.20008092
252	0x3d5745d5	0.05255683
253	0xbd76106c	-0.060074255
254	0x3d68bc24	0.05682005
255	0x3d3ceedc	0.04612623

a2c_network.value.weight f4 [1, 256]
0	0xbba40849	-0.0050058705
1	0x3a87fd16	0.0010375108
2	0xbc471d2e	-0.012152953
3	0x3ba6c955	0.0050899186
4	0xba9d929f	-0.0012021846
5	0x3ba5eea2	0.0050638476
6	0x3b7572a1	0.0037452357
7	0x39341259	0.00017172973
8	0x3b407bff	0.0029370782
9	0x3b9e8b4e	0.0048383838
10	0xbd42d618	-0.047567457
11	0x3aa6cf01	0.0012726487
12	0x3bfba7b2	0.007679903
13	0xbd850b65	-0.06496314
14	0xbb189f0a	-0.0023288154
15	0x3b05507f	0.002034217
16	0xbca146c0	-0.019687057
17	0x3b417852	0.002952118
18	0x3ccf3bc7	0.025297059
19	0x3b89cb0e	0.004205114
20	0xbb083292	-0.0020782095
21	0x3b47184f	0.003037948
22	0xbd0174d3	-0.031605553
23	0xbbb84f59	-0.0056246934
24	0x3b9d3648	0.0047977306
25	0x3b98f378	0.0046676956
26	0xbb07e98e	-0.0020738575
27	0x3be370dc	0.006940944
28	0x3ab46863	0.001376402
29	0x3b8b9588	0.004259769
30	0x3c00a445	0.007851665
31	0xbbee7a73	-0.0072777807
32	0x3bec152c	0.0072046723
33	0xbb3eb3b5	-0.0029098813
34	0x3cf8a1d6	0.030350607
35	0x3c16678a	0.009179959
36	0x3c2e3fcd	0.0106353285
37	0x3b1b8a3a	0.0023733512
38	0x3be404c4	0.006958576
39	0x3b324da3	0.002720692
40	0xbaf1a6ae	-0.0018436515
41	0xbb4318df	-0.0029769463
42	0x3c30d3a1	0.010792644
43	0x3c1f2bb9	0.009715014
44	0xbb6deae3	-0.0036303333
45	0x3ba0c56e	0.004906348
46	0x3c217447	0.009854383
47	0xbb51763a	-0.0031961338
48	0xbcb94c3c	-0.02261936
49	0x3c0dae64	0.008647535
50	0x3bc37a38	0.0059654973
51	0xbc7537e7	-0.014966941
52	0xba8acdd1	-0.0010589903
53	0xbb9043bb	-0.0044026054
54	0x3c3d2604	0.011544708
55	0x3c96f1db	0.018425873
56	0xbb706bc1	-0.003668532
57	0x3aa8e942	0.0012886899
58	0x3bbaff1d	0.0057066814
59	0xba8383d2	-0.0010033792
60	0x3bfadf9e	0.007656052
61	0xbd49098c	-0.04908137
62	0xbccc0d74	-0.024908759
63	0xbd193b3d	-0.03741001
64	0xbcbc48cd	-0.022983933
65	0x3c30315b	0.010753955
66	0x3c9968d1	0.018726738
67	0xbba6a076	-0.0050850464
68	0xbc767982	-0.015043618
69	0xbbe25897	-0.0069075334
70	0xbbe19e05	-0.0068852925
71	0xbba02aa0	-0.004887894
72	0x3bb4a745	0.005513104
73	0x3d088a97	0.033335295
74	0x3d81aaea	0.063314274
75	0xbbb9aa0c	-0.005666023
76	0x3ba868f2	0.0051394636
77	0x3c711b28	0.014715947
78	0x3c0ef73a	0.008725936
79	0x3da1c708	0.0789929
80	0xbb894474	-0.0041890685
81	0xbb8f5ec1	-0.004375309
82	0x3bfc8711	0.007706531
83	0x3e4ed239	0.20197381
84	0x3b028679	0.0019916578
85	0x3e07cfcb	0.1326286
86	0xbb80602b	-0.003917714
87	0xbc0cefe4	-0.008602116
88	0x3bc9cab0	0.0061581954
89	0x38800fd5	6.1064646e-05
90	0x3c110fdd	0.00885388
91	0xba026b54	-0.00049750996
92	0x3b844a72	0.004037195
93	0x396000d4	0.00021362613
94	0xbcfe9fce	-0.03108206
95	0xbe40ffa0	-0.18847513
96	0x3c0023d9	0.007821047
97	0xbb1354e6	-0.0022481023
98	0x3c31880c	0.010835659
99	0x3b544497	0.0032389516
100	0xbb54bb3e	-0.0032460238
101	0x3c063306	0.008190876
102	0x3e246e9b	0.16057818
103	0x3c214132	0.009842204
104	0x3c47dac3	0.012198153
105	0x3a774408	0.00094324397
106	0x3b8c6a9d	0.00428517
107	0xba97db8d	-0.0011585817
108	0xbd38da0b	-0.045129817
109	0xbd8e4b70	-0.06947982
110	0x38a8a343	8.041274e-05
111	0x3bcca6fe	0.006245493
112	0xbc87b17e	-0.016564127
113	0x3bafb926	0.0053626476
114	0xbb6657db	-0.003514758
115	0x3c1d5840	0.00960356
116	0xb7d8aca5	-2.58296e-05
117	0xbacbe7cf	-0.0015556755
118	0x3b24cf1a	0.0025147856
119	0x3b4034ec	0.002932842
120	0xbcc2478a	-0.023715753
121	0x3b155a6c	0.0022789491
122	0x3d9e25bc	0.07722041
123	0xbb329cf6	-0.00272542
124	0xbbe2ac57	-0.006917517
125	0x3a8b783b	0.001064069
126	0xbd3c4e6f	-0.045973238
127	0xbc868bde	-0.016424116
128	0xbc4d0458	-0.012513243
129	0xb856cafe	-5.1210627e-05
130	0x39363917	0.0001737814
131	0x3c868d28	0.01642473
132	0xbbaf5c45	-0.0053515756
133	0x3b3e79ac	0.0029064221
134	0xbb24cfed	-0.0025148347
135	0x3b0ebd27	0.0021780224
136	0x3d0056de	0.031332843
137	0x3b20df29	0.0024547076
138	0xbd2c4e0f	-0.04206663
139	0x3b5f2415	0.0034048606
140	0x3da636b5	0.08115903
141	0x3bf6bcb2	0.0075298185
142	0x3ce661ff	0.0281229
143	0xbbc9a81e	-0.0061540743
144	0xbb8461df	-0.0040399875
145	0x3c645c41	0.013938011
146	0x3b20dac5	0.002454446
147	0xbb8bff0f	-0.0042723487
148	0xbd17acf6	-0.037030183
149	0xbcd0a0a3	-0.025467223
150	0x3afc8969	0.0019267026
151	0x3a09ee15	0.0005261612
152	0xbc19eb14	-0.009394426
153	0xbd17327d	-0.036913384
154	0x3ad0af66	0.0015921413
155	0x3b8d127d	0.0043051825
156	0xbcb2aa88	-0.021809831
157	0xbcc495ab	-0.023997148
158	0xbc5d6cab	-0.013514678
159	0xbc861b10	-0.016370326
160	0x3beacbd1	0.00716541
161	0xbb67c079	-0.0035362525
162	0x3b1906b6	0.0023349947
163	0xbb439b81	-0.0029847326
164	0xbad52c54	-0.0016263821
165	0x3bab22f4	0.0052226726
166	0xbb160408	-0.0022890586
167	0x3c21987c	0.009863015
168	0x3bce9c21	0.006305233
169	0xbb77ff5b	-0.0037841413
170	0x3e2cd01a	0.1687626
171	0xbbc93d3a	-0.006141332
172	0x3ab71515	0.0013968075
173	0x3c019cb1	0.007910893
174	0x3b9d0ed3	0.004793027
175	0xbb2b7786	-0.002616377
176	0x3c2f3785	0.010694389
177	0x3c357252	0.011074619
178	0x3b5bd101	0.0033541324
179	0xbbe3805e	-0.006942793
180	0x3c473300	0.012158155
181	0xbb3c2c7b	-0.0028713036
182	0xba4c78f9	-0.0007800009
183	0xbbb3a21a	-0.0054819705
184	0xbc25c994	-0.010118861
185	0xbb9ee89c	-0.0048495065
186	0x3b57dc69	0.0032937771
187	0x3c6c3fd4	0.014419515
188	0x3b78b99e	0.0037952433
189	0x3bdc0278	0.0067141615
190	0x3d555fcc	0.052093312
191	0x372dbf00	1.0356074e-05
192	0xbaa622de	-0.0012675186
193	0xb90ed3d4	-0.00013621087
194	0x3b95ce8a	0.0045717405
195	0xb9881a47	-0.0002595952
196	0x3c71f25a	0.014767254
197	0xbd8ba0ff	-0.06817817
198	0x3d487ef6	0.048949204
199	0xbcf36648	-0.029711857
200	0xbae0f2ab	-0.0017162164
201	0xb83ca0af	-4.497234e-05
202	0xbcc5a2fb	-0.024125567
203	0xbc11d859	-0.008901679
204	0x3b5c2cef	0.0033596118
205	0x3c0a0f70	0.008426532
206	0x3d4f6ef7	0.050642934
207	0xbbc78720	-0.006089106
208	0xbc26b198	-0.010174178
209	0xba90b28d	-0.001103954
210	0x3b8dd0a6	0.0043278513
211	0xbd3727a6	-0.044715546
212	0x3b3e6af0	0.002905544
213	0xbb69efd6	-0.0035695932
214	0xbbe3db6c	-0.0069536474
215	0x3b1f5567	0.0024312378
216	0xbb220b0e	-0.0024725827
217	0x3e504bed	0.20341463
218	0x3bc5c8ad	0.0060358853
219	0xbddd24de	-0.107980475
220	0x3d85ba37	0.06529658
221	0x3b97b065	0.004629182
222	0x3a3cfd35	0.00072093616
223	0xbbbd8350	-0.005783476
224	0xbbc0b7ae	-0.0058812713
225	0xbeb10ca2	-0.3457995
226	0x3bbb444d	0.005714929
227	0x39c48978	0.00037486455
228	0x3b11f6fc	0.0022272458
229	0xbcbc3c92	-0.0229781
230	0x39e6ac07	0.0004399719
231	0x3b6796e0	0.0035337731
232	0xbd1a088e	-0.037605815
233	0x3c7db1fb	0.015484328
234	0x3bc40c5b	0.005982918
235	0x3bbd2cce	0.0057731634
236	0xba53deae	-0.0008082193
237	0x394b3fd3	0.00019383365
238	0xbc146d75	-0.0090593
239	0xbc83264e	-0.016009476
240	0x3b5cfb1e	0.0033719013
241	0x3b97032f	0.004608534
242	0xbd1a7d69	-0.037717257
243	0xbb6335c9	-0.003466951
244	0xbd399bd9	-0.045314644
245	0xbadda079	-0.0016908786
246	0xbafe981b	-0.0019423993
247	0xbc0fd85b	-0.0087796105
248	0xbaa3ad10	-0.001248749
249	0x3c05bc79	0.008162611
250	0x3c35cdd4	0.0110964365
251	0xbe90b8db	-0.28266034
252	0x394ee1ff	0.00019729881
253	0x3b707aa1	0.0036694186
254	0xbb89d883	-0.0042067184
255	0x3c0f4d48	0.008746453

a2c_network.mu.weight f4 [6, 256]
0	0xbb270d8b	-0.002549025
1	0x3cb80021	0.022460999
2	0x3b3994fe	0.0028317566
3	0xba69d07d	-0.0008919312
4	0xbb8f02c3	-0.004364343
5	0x39d08e19	0.00039778723
6	0x3acbc0e8	0.0015545161
7	0x3bc3d7b8	0.0059766434
8	0x3b0f2a5a	0.0021845312
9	0xbb368e33	-0.0027855753
10	0x39596d93	0.00020735552
11	0x3b500b8d	0.0031745166
12	0x3b0c5373	0.0021412044
13	0xbbc11ab5	-0.0058930763
14	0x3a8877fd	0.0010411736
15	0xb9ba468c	-0.00035529246
16	0x3ae6ed94	0.0017618411
17	0xbb3a1ea6	-0.0028399616
18	0xbbd1299a	-0.006383133
19	0xba33b4b5	-0.00068552356
20	0xbb12cb6e	-0.0022399086
21	0xbbcd970a	-0.006274109
22	0x3c77a65a	0.015115345
23	0x3a9df053	0.0012049772
24	0xb9d43ddf	-0.0004048189
25	0x3b4d84bd	0.0031359636
26	0x3b1b9ddb	0.0023745212
27	0xbc42f29d	-0.011898664
28	0x3bee9a23	0.007281558
29	0xba680b59	-0.00088517886
30	0xb994979c	-0.00028341718
31	0xbcc26d32	-0.023733709
32	0x3c217e60	0.00985679
33	0x3af3e99f	0.0018609053
34	0x3bb19b28	0.0054201074
35	0xba8f89e2	-0.0010951126
36	0x3af4c069	0.0018673065
37	0x3a4a0be2	0.0007707459
38	0xbb176125	-0.0023098674
39	0xbb1b3c5b	-0.0023687098
40	0x3a29c29c	0.00064758374
41	0x3bd010bd	0.0063496516
42	0x3b9de13c	0.00481811
43	0xbaba43d2	-0.0014210886
44	0x3bf7a1aa	0.0075571137
45	0x3b425e8d	0.0029658407
46	0xbbaa435b	-0.0051960177
47	0xbc6a3e6a	-0.014297107
48	0x3bbdb00e	0.0057888096
49	0x3b0f78fb	0.0021892178
50	0x3b29ccda	0.0025909455
51	0x3bcff8c3	0.0063467934
52	0x3a345ef3	0.00068806036
53	0x3a2b66b3	0.00065384357
54	0xbaa39c9f	-0.001248259
55	0xbb7cdeb6	-0.0038584895
56	0x3ae50c31	0.0017474947
57	0xbb0ed494	-0.0021794187
58	0x3b0b87cf	0.0021290665
59	0x3c179176	0.009250989
60	0x3a0677c5	0.00051295414
61	0x3d801d8b	0.06255635
62	0x3b2613bd	0.0025341355
63	0x3b1d5ca2	0.0024011512
64	0x3c81abf6	0.015829068
65	0xb88e1f7b	-6.776951e-05
66	0x3bf691f3	0.0075247227
67	0xbbbf716d	-0.005842379
68	0xba969c31	-0.001149064
69	0xbc9fa997	-0.019490046
70	0xbd0d2fac	-0.03446929
71	0xbad5762d	-0.001628583
72	0xbb119122	-0.002221175
73	0x3c176605	0.009240632
74	0x3ccf1816	0.02528004
75	0x3c041d17	0.008063576
76	0x3bc67835	0.0060568103
77	0x3c300192	0.010742562
78	0xba72cd9f	-0.00092622073
79	0x3b583516	0.0032990626
80	0xbb56fe9e	-0.0032805572
81	0xbb8e5401	-0.00434351
82	0x39b2965c	0.00034062832
83	0x3bcd05a1	0.0062567745
84	0xba5de2e3	-0.000846429
85	0xbb0f2a3f	-0.002184525
86	0x3bee77d4	0.007277468
87	0xbbf19889	-0.00737292
88	0xbd388456	-0.04504808
89	0xbb03a859	-0.0020089357
90	0xbcba28be	-0.022724506
91	0xbafd25cb	-0.0019313631
92	0x3b01eb20	0.0019823983
93	0x3a3b1368	0.00071363756
94	0xbaff51b9	-0.0019479311
95	0xbc2406c4	-0.010011379
96	0xba4d5f4c	-0.000783433
97	0xbb8a4b6e	-0.0042204177
98	0x3da921be	0.08258389
99	0xba975025	-0.0011544271
100	0x3b076692	0.0020660502
101	0x3ab739d6	0.0013979028
102	0xbca0af0f	-0.019614724
103	0xbbd34c4d	-0.0064483047
104	0xba3b02fa	-0.00071339274
105	0xba2891cd	-0.00064304174
106	0x3b9a937b	0.004717288
107	0x3ab238d4	0.0013597258
108	0x3d6cd87f	0.057823654
109	0x3d0028f3	0.031289052
110	0x3b5daea7	0.0033826025
111	0xbb60e34a	-0.0034315162
112	0xbb09eaef	-0.0021044572
113	0xba7f94e1	-0.0009749663
114	0xbd93e095	-0.0722057
115	0x3b761668	0.0037549976
116	0x3a99d04b	0.001173505
117	0xba9db9bf	-0.0012033506
118	0x3ba609c4	0.005067082
119	0x3b7f1038	0.003891958
120	0x3b13d40d	0.0022556812
121	0xbac302c8	-0.0014878148
122	0x3cc1ea99	0.023671435
123	0xb95e3895	-0.00021192648
124	0x3b025851	0.0019889066
125	0x3a832ae6	0.0010007292
126	0x3c1eee6c	0.009700399
127	0xbc45049b	-0.012025024
128	0x3b1f8af4	0.0024344297
129	0xbba20871	-0.004944854
130	0xbc569b99	-0.013098621
131	0xbc551c0c	-0.013007175
132	0xbb6f3d7d	-0.0036505156
133	0xba573ecb	-0.0008210956
134	0x3b5f7127	0.0034094544
135	0x3bdb0982	0.006684483
136	0xbd485e3e	-0.048918
137	0xbb999278	-0.00468665
138	0xbc8fa1bc	-0.017533176
139	0x3a03ca61	0.000502741
140	0xbbb3f46a	-0.005491783
141	0xbb871142	-0.0041219303
142	0x3cc10e7f	0.023566483
143	0xbaddae93	-0.0016912989
144	0xbb9d4288	-0.004799191
145	0xba70ca1f	-0.0009185392
146	0xb9d1aa03	-0.00039990255
147	0x3bcd369c	0.0062626135
148	0x3c800837	0.015628917
149	0x3a8aa663	0.0010578152
150	0xbb8f34fa	-0.004370329
151	0x3aa464a7	0.0012542204
152	0xba797600	-0.00095161796
153	0xbc9bc178	-0.019013152
154	0x3bb45789	0.005503599
155	0xbb8994f7	-0.004198666
156	0xbcac4e11	-0.021033319
157	0xbc2a756a	-0.01040397
158	0x3dd62139	0.104555555
159	0x3a5ebe74	0.00084970077
160	0x3a80e8ca	0.0009835002
161	0x3c008247	0.007843561
162	0xba23b2dd	-0.0006244609
163	0x3b1d3866	0.0023989915
164	0x3b50ed45	0.0031879705
165	0x3b5ab92b	0.003337453
166	0xbbcf2ec5	-0.006322714
167	0xba9fc5a9	-0.0012189645
168	0x3d32538f	0.04353672
169	0x3b70ba7d	0.003673225
170	0xbc819e64	-0.015822597
171	0x3c49cba2	0.012316616
172	0x3c302d08	0.010752924
173	0x3aac4edf	0.0013146064
174	0x3b8e780c	0.004347807
175	0x3d56336b	0.05229513
176	0xbcec3224	-0.028832503
177	0xbc7acfc9	-0.015308329
178	0x3c4ab87e	0.012373088
179	0x3a1f31e1	0.0006072801
180	0xba290b33	-0.0006448507
181	0x3b9af21f	0.00472857
182	0xbb3562b2	-0.0027677235
183	0x3ad24815	0.0016043211
184	0x39fe8670	0.0004854682
185	0x3b2f7701	0.0026773813
186	0xbcb0682a	-0.021534044
187	0x3a0a2e91	0.0005271221
188	0xbb810ecc	-0.0039385315
189	0xbc6b4baa	-0.014361301
190	0x3a3e33b0	0.0007255627
191	0x3aacc28a	0.0013180536
192	0x39f787bb	0.00047212638
193	0xba84cdbf	-0.0010132118
194	0xba01c6b0	-0.0004950566
195	0x3a142b2f	0.0005652187
196	0xbc80d0ce	-0.015724566
197	0xbd8928e6	-0.06697254
198	0x3cecce73	0.028907036
199	0x3b81f41c	0.0039658677
200	0xbb9f9504	-0.004870059
201	0x3bcd829c	0.0062716734
202	0x3b3d02a8	0.0028840695
203	0x3ac4fbd7	0.0015028667
204	0x3ab65e9d	0.0013913695
205	0x3b727f57	0.003700217
206	0xbb9c0275	-0.004761035
207	0x3c5604ba	0.01306265
208	0x3aa5dd8f	0.0012654531
209	0x3af748f2	0.0018866344
210	0xbc11656d	-0.008874279
211	0x3b86d349	0.0041145426
212	0xb9b6405e	-0.00034761702
213	0xb9bf2630	-0.0003645881
214	0x3b4e991d	0.0031524368
215	0x3a14bacc	0.0005673587
216	0xba996c0a	-0.0011705172
217	0xbbf345d4	-0.0074240956
218	0x3c4dca37	0.012560419
219	0xbadd8531	-0.0016900656
220	0x3b68a361	0.0035497772
221	0x3cba5566	0.0227458
222	0x3b6dfadc	0.0036312854
223	0xbbda0dd2	-0.0066544795
224	0xbd2e33fd	-0.04253005
225	0x3b2ec4ca	0.0026667588
226	0x3ae3d63b	0.0017382571
227	0x3bd8ee92	0.0066202367
228	0x3b43aba6	0.002985695
229	0xbd096a15	-0.033548433
230	0xbd04616c	-0.03231947
231	0xbadd8e6b	-0.0016903406
232	0x3d883331	0.06650389
233	0x3bfe816b	0.0077668927
234	0x3a9868bd	0.0011627894
235	0xbb50a8ff	-0.003183901
236	0x3acef8f1	0.0015790743
237	0xb903c079	-0.00012564835
238	0x3851ae6b	4.9991922e-05
239	0xbde47adf	-0.11156248
240	0x3addee58	0.0016931994
241	0x3c2b53e3	0.010457012
242	0x3ac0b409	0.0014702092
243	0x3b923e00	0.0044629574
244	0x3cda20f6	0.026627045
245	0xba390b25	-0.00070588506
246	0xbb21c20b	-0.002468231
247	0xbb1951b5	-0.0023394648
248	0xbc898b31	-0.016790004
249	0x3841fac4	4.624833e-05
250	0xbc07060a	-0.008241186
251	0xbcbecc35	-0.023290733
252	0x3a97188c	0.0011527701
253	0x3ae57d92	0.0017508736
254	0x3a2b3587	0.00065311085
255	0x39fc9530	0.0004817634

a2c_network.mu.bias f4 [6]
0	0xbd83371f	-0.06406998
1	0x3db2d7f5	0.08732597
2	0xbd26dd95	-0.04073866
3	0x3c2ca72c	0.010537904
4	0xbde2c587	-0.110728316
5	0xbed46590	-0.41483736

exp_avg f4 [6]
0	0x3946ad92	0.00018947411
1	0x3a6a4f39	0.00089381967
2	0xb98ce539	-0.00026873665
3	0xb9cd906d	-0.00039208253
4	0xb95da525	-0.00021137724
5	0xb9092960	-0.00013080752

exp_avg_sq f4 [6]
0	0x37e77f94	2.7596754e-05
1	0x37ddb5ed	2.6429969e-05
2	0x37f170dc	2.8781993e-05
3	0x38149803	3.542752e-05
4	0x380391ff	3.1368803e-05
5	0x37f1a558	2.8806433e-05
