logs/rl_games/yam_cube_sort_8192/2026-02-01_08-29-07/nn/last_yam_cube_sort_8192_ep_200_rew_1403.5098.pth (torch, 953214 bytes, 30 tensors)

value_mean_std.running_mean f8 [1]
00000000: 9501 fc13 f658 dc3f
0.44292976333238104

value_mean_std.running_var f8 [1]
00000000: daab 19a0 0ec8 7d3f
0.007270867472111109

value_mean_std.count f8 []
00000000: 0000 0004 0000 9941
104857601.0

running_mean_std.running_mean f8 [40]
00000000: 0718 1900 95b1 ef3f f9cb 1889 8292 833f
00000010: c4c1 178a c275 f03e ddd7 5d6a bd9a 833f
00000020: c4c1 178a c275 f03e 0000 0000 0000 0000
00000030: 254d ffe9 2e2a be3f cbcc 8618 c040 94bf
00000040: 9046 1273 e30e ca3f a222 6cd1 1326 c03f
00000050: 7968 86ad 79a8 8abf fa74 9a84 5205 c93f
00000060: d94c a8b6 0f9a b33f 3452 b10d dfe5 c23f
00000070: 1ec5 3c1f 1892 353f 7d96 83d8 c904 8a3f
00000080: 3c4d b96a eefc c23f 244d c2ea ce34 39bf
00000090: e0a3 03f8 9f04 8a3f b3c3 1970 7ccf c23f
000000a0: f010 0afb 8a18 233f 8655 9dbe 5404 8a3f
000000b0: 5e13 ad77 2423 edbe c74f adca 662c 153f
000000c0: 5a0f e0db cf65 31bf 4b89 1046 536c fb3e
000000d0: 5c2f 6a0e 2cde 113f 8d4a b82c 17f2 30bf
000000e0: 7c65 ef27 e333 ffbe 2beb 2310 c1e7 113f
000000f0: 0c11 2ec3 0a27 32bf 103f a1e1 1ae8 b33f
00000100: 9f0b 53b2 7bbc c13f a747 72f9 df7a 843f
00000110: 2d07 7ea5 2956 d43f d1ab b71c 07c2 06be
00000120: a747 72f9 df7a 843f 103f a1e1 1ae8 b33f
00000130: 9f0b 53b2 7bbc c1bf a747 72f9 df7a 843f
0.9904274942316541 0.009556789215912064 1.569747894864124e-05 0.00957248669486071 1.569747894864124e-05 0.0 0.11783116543601986 -0.019778253075583046
0.20357936018676925 0.12616203046515745 -0.013016653640807828 0.19547492480061363 0.0765695401135419 0.14764011543833677 0.00032914246479538885 0.012704445762618416
0.14834385119557136 -0.0003846173447154702 0.01270413375500995 0.14695697282470874 0.00014568993130493297 0.012703573290915992 -1.3893735503986499e-05 8.077027693548156e-05
-0.0002654678791034114 2.6152749686877708e-05 6.816047571528205e-05 -0.00025857034481294937 -2.9757199168622167e-05 6.830325949984106e-05 -0.000276985290092805 0.07776039131681167
0.13856455046888258 0.009999990272522142 0.3177589527259553 -6.623426750074654e-10 0.009999990272522142 0.07776039131681167 -0.13856455046888258 0.009999990272522142

running_mean_std.running_var f8 [40]
00000000: bea7 457e de6a 833f 9844 8460 c962 833f
00000010: ba34 804f f17a f03e c255 2504 dc6a 833f
00000020: ba34 804f f17a f03e b15b 2041 e17a 543e
00000030: 632d b81e b19e bc3f ffea 7983 cf58 b23f
00000040: b8db b865 b52c 923f 6486 0ab5 59ff b63f
00000050: dc62 21e8 39fb a83f 265c 41d8 3bce 8e3f
00000060: 3c97 bff3 c15c 913f f9f5 cf90 8bca 6d3f
00000070: 82e1 0829 5f31 693f 7c83 f308 8960 a53e
00000080: 76a9 2852 61a5 6a3f 276b 4e1a 0f9f 683f
00000090: 3d92 6796 8d0c 9b3e 4683 97c8 8879 6d3f
000000a0: 21bd 65f4 d0e8 693f 102e 1a59 cc99 9f3e
000000b0: 712d 849a 4fda 483f 4740 ce47 84df 513f
000000c0: 4bf7 5c4e eb73 203f 675e d470 26f1 453f
000000d0: aa35 b44a 70ca 513f 1e35 5ae5 4332 1f3f
000000e0: fae0 253c b792 493f 36f0 bab8 b456 523f
000000f0: df06 f8e9 3584 213f 5f96 dae7 659b 543e
00000100: ce2f e3d3 b1df 543e a044 cc78 677b 543e
00000110: ecd7 e2ba ff8c 563e c257 d441 e17a 543e
00000120: a044 cc78 677b 543e 5f96 dae7 659b 543e
00000130: d4b7 11c1 b1df 543e a044 cc78 677b 543e
0.009481180408972164 0.009465764291720455 1.5716786009579922e-05 0.009481161953469267 1.5716786009579922e-05 1.907348596432707e-08 0.11179644584642782 0.07166764221066656
0.017748674710869244 0.08983383817624141 0.048791703783256785 0.015041797196472539 0.01695540476057221 0.003636620129781273 0.0030753000831078023 6.370869573246286e-07
0.0032526875304671977 0.003005532739235223 4.030620374391837e-07 0.0035979911378806488 0.003162773241619413 4.708882324975375e-07 0.0007584465684273134 0.0010908881951969972
0.00012552497281064843 0.00066961647977144 0.001085862789128237 0.0001190046253560406 0.0007804293348235008 0.001119305120410819 0.00013363988999519954 1.919178637420954e-08
1.9440247849691794e-08 1.907539330924924e-08 2.1002047816748704e-08 1.9073486003355016e-08 1.907539330924924e-08 1.919178637420954e-08 1.9440246805069797e-08 1.907539330924924e-08

running_mean_std.count f8 []
00000000: 0000 0008 0000 8941
52428801.0

a2c_network.sigma f4 [6]
00000000: 2d7b c6bf 65b4 c4bf 7950 ccbf e621 a73f
00000010: 8da2 b73f 29aa dfbd
-1.550634 -1.5367552 -1.5962058 1.305722 1.4346482 -0.10921127

a2c_network.actor_mlp.0.weight f4 [256, 40]
00000000: 7128 ba3d b28b a5bd 2aa0 303d ea67 ce3d
00000010: a737 8b3d 6290 8dbd 89a7 023e e479 5a3e
00000020: c38f a83d ab40 3dbe 4605 77be 5df5 28bd
00000030: 6d0e 34bd 0f42 803d b95d 29bc da0b e03e
00000040: 33e4 403d 41ec d6bc 4a47 a63d fae3 59bb
00000050: 1f31 5b3d 5570 523d 0165 a43a 2e92 c73d
00000060: 13de 40bb 5a3b ed3a d0bc 0dbd 6911 38be
00000070: ab0f 50bd 2728 98be ce21 4f3e bf2b ab3e
00000080: b3a9 8f3e 5595 dfbd ebba f63c 27bd 6dbd
00000090: 402c aebd 74fb b03e a403 85bd 745c 1c3e
000000a0: c207 873d 293f 7cbe 94fd 6d3d 2596 50be
000000b0: b4b7 8f3d 1faf 19bd 59af ab3d a5dc 5fbe
000000c0: 3a09 10bd eff9 a13d e1c1 b13d 22b9 b63d
000000d0: 3476 073d 3e77 a33d c663 00be 3c4d fe3c
000000e0: a2bf 3d3c 7ad3 383b bf07 47be 844a e7bd
000000f0: 3440 7e3c d202 1abe 5417 06be b570 1f3d
00000100: 2a1f 203e f6ca 67bc fcb7 25bd 4017 bdbd
00000110: 1e14 b23c a1f5 b13d a837 e83d 96e6 15be
00000120: b06c c13c 8437 c3bd fb7b 9dbe 1028 59bd
00000130: 2770 9d3d 4879 a1be 2a97 36bd 1f1d 2ebd
00000140: b011 44bd b6a3 69bc 0110 47bd e81e 81bd
00000150: d7ad 15be 62ea bcbd cd9c 74bd 7d40 87be
00000160: aa22 d83b d13a 0ebc c4c2 0d3e 4908 3e3c
00000170: 7fa5 5abd bb36 e53c 7911 59bd 76e8 f9be
00000180: e53a 23bd 7bb2 99ba 03ba 353e 9b15 a63c
00000190: 0eb1 e03c c392 e0bd d028 ca3d 5b5f 193d
000001a0: 5c4f 1abd 8050 983c deff 063c 8613 b23e
000001b0: fb70 3cbe d240 c73c 8bf7 6abe e46f 8dbe
000001c0: 9ca0 ecbd 7af6 00be ae5e a73e a24d f8bd
000001d0: 1e83 9d3d 3c55 1cbe 7066 193e 779f bebd
000001e0: e55b 773e b4aa 62bd 48a1 a53d d15a 6abe
000001f0: 67f4 013e 2851 c2bc 06a4 2cbd 0c75 0c3e
00000200: db1e a63d 7672 38bd c9ae d4bd b37e 9ebb
00000210: 18ba 203d 2d84 ccbc 66c9 e53c 32da dc3d
00000220: 1621 2cbd 3f53 263d 7686 00be ac9f 36bd
00000230: 4ea1 e33c 18ec ab3e 52fb fa3c 458f 1cbd
00000240: 5e33 353d f0ab 883e 38c1 87bd c112 f0bd
00000250: 0f7f b63d 7187 2dbd 6dcd 093d d411 80be
00000260: df96 9b3e 25d8 293e c1d1 91be 0ad1 12bd
00000270: e63f 043d cf8e 59be 3818 27be ed24 983d
00000280: 7459 31be 00f3 e5bc 68ca fd3d e13d ba3d
00000290: 8d0c 8cbc 353b c3bd c869 f7bd d9a9 39be
000002a0: c073 08be 3b83 5c3e 5efd ff3d 10ec 403e
000002b0: 0b52 13be d618 be3d 5d77 81bd 6fe2 d8be
000002c0: ee59 e73c 08c5 423b 828a efbe f569 1fbd
000002d0: dc8b f3bc 7e8b 8f3e 3b65 ecbd 2760 3d3d
000002e0: d113 20be 5505 91bd 3b4e 923d da58 063c
000002f0: a5bd 95be 1756 473d 8e18 3abe 0243 bbbe
00000300: ca87 c3bc 920d 0c3e 3716 853e d6de 2a3c
00000310: 671a 0e3b 1899 1abf fdc3 24bd 83a2 13be
00000320: 346c df3d cfa9 03be ec91 febc a9b8 11be
00000330: 4eec e5bc f3e9 e3bd ef4c 1dbe 8b5c 2a3e
00000340: 6dee 823c 5a2e 323e c881 83bd a71c 90bd
00000350: 4144 9bbd 2416 e23d 6bea 87bd de92 6bbe
00000360: 2fcf eb3d fdbf abbc 8feb d93e 4c74 b5bb
00000370: 1a83 743d 331d 873d 2b45 ad3d b755 b0be
00000380: 3302 4cbd a3a9 9c3e 3823 0a3b 7930 343e
00000390: 15db 73bc 0827 463d 7813 8b3e 9dab 60be
000003a0: eb52 593e 50f4 ca3d 9ea1 1dbe 0438 5cbd
000003b0: 9cb2 18be ce4e dcbc 03fc f7bc dcd0 34be
000003c0: 22f2 b33d 23ac 58be 838a 103d 4b68 45be
000003d0: c82f 7ebc e998 4dbd 1974 adbd d379 d83d
000003e0: 315b 0c3e b635 aa3d ff6d 5fbd 79a8 c3bc
000003f0: 667f 31be d63e d3bd ada1 223d 10be 9f3e
0.09089745 -0.080832854 0.043121494 0.10078414 0.06797724 -0.069123045 0.12759222 0.2133556
0.08230545 -0.184817 -0.24123105 -0.04124962 -0.04395907 0.062626 -0.010337287 0.43759042
0.047092628 -0.026235702 0.08119066 -0.0033247457 0.053513642 0.05137666 0.0012542309 0.097446784
-0.0029429242 0.0018099353 -0.034603894 -0.17975391 -0.050796192 -0.29718134 0.20227739 0.33431813
0.28059158 -0.10917155 0.030118426 -0.058041718 -0.08504534 0.34566844 -0.06494835 0.15269643
0.065932766 -0.24633469 0.05810316 -0.20369776 0.070174605 -0.037520524 0.08383054 -0.21861513
-0.03516505 0.07908999 0.086795576 0.0892203 0.03307171 0.07981728 -0.1253806 0.031042688
0.011581333 0.0028202222 -0.19436549 -0.112935096 0.015518237 -0.15040138 -0.13094836 0.038925845
0.15636888 -0.014147511 -0.040458664 -0.0923295 0.021738108 0.08689428 0.113387406 -0.14638743
0.023611397 -0.09532073 -0.30758652 -0.053016722 0.07687407 -0.31537843 -0.044577755 -0.04250824
-0.04786843 -0.014260223 -0.048599247 -0.06304723 -0.14617096 -0.092243925 -0.05971985 -0.26416388
0.006595929 -0.008681015 0.13843828 0.011598655 -0.053380486 0.0279802 -0.05299518 -0.48810166
-0.039851088 -0.0011726165 0.17746739 0.020273974 0.027428176 -0.109654926 0.098710656 0.037444454
-0.03767334 0.018593073 0.008239714 0.3478052 -0.18402474 0.0243229 -0.22945993 -0.27624428
-0.11554071 -0.12594023 0.32689422 -0.12124182 0.07691024 -0.1526689 0.14980483 -0.09307759
0.24156149 -0.055338576 0.080874026 -0.22886206 0.12690888 -0.023720339 -0.042148612 0.13716525
0.08111354 -0.045031033 -0.103849 -0.004836881 0.039239973 -0.02496537 0.028050136 0.10783805
-0.04202374 0.040606733 -0.12551293 -0.04458587 0.027786877 0.33578563 0.030637417 -0.03822257
0.04423844 0.26693678 -0.066286504 -0.11722327 0.08910953 -0.042365495 0.033643175 -0.25013602
0.30388543 0.16586359 -0.28480342 -0.035843886 0.0322875 -0.21245883 -0.16317832 0.07428918
-0.1731928 -0.028069973 0.123921216 0.09093834 -0.017095828 -0.09532777 -0.12080723 -0.18131198
-0.13325405 0.21534435 0.12499498 0.1884005 -0.14386766 0.09282081 -0.06321595 -0.42360255
0.028241124 0.002971949 -0.4678536 -0.038919408 -0.029729776 0.28036112 -0.11542746 0.046234276
-0.1563256 -0.07081095 0.071438275 0.008199895 -0.2924625 0.048666086 -0.1817343 -0.3657456
-0.02386846 0.13677052 0.2599351 0.010429105 0.0021683217 -0.6038985 -0.04022597 -0.14417462
0.1090931 -0.12857746 -0.03107544 -0.14230599 -0.02806678 -0.11128607 -0.15361379 0.16636865
0.01598283 0.17400494 -0.06421238 -0.07036715 -0.07581378 0.11039379 -0.066365086 -0.23005244
0.115141265 -0.02096557 0.4256253 -0.0055375453 0.05969534 0.06597366 0.08460458 -0.34440395
-0.049806785 0.30598173 0.002107812 0.17596616 -0.014883776 0.048377067 0.2716329 -0.21940465
0.21223037 0.0990988 -0.15393683 -0.05376436 -0.14911884 -0.026893046 -0.030271536 -0.17657799
0.087864175 -0.21159415 0.035288345 -0.19278066 -0.015514322 -0.050194655 -0.084694095 0.10570111
0.13706662 0.08311026 -0.05454826 -0.023884045 -0.17333755 -0.103147194 0.039704967 0.31199694

a2c_network.actor_mlp.0.bias f4 [256]
00000000: 3394 183d c198 be3d efd3 aebd 9c4e 1b3d
00000010: 941a 6b3d af77 55bd 8824 083e 5f96 533e
00000020: a8df 393e f424 243e 5fe0 c23d 6d4e dabc
00000030: 378e c83d b138 803e 2a61 4f3e 2068 25be
00000040: 614b 9ebd cab3 003e 5715 0fbc 681b 063e
00000050: f257 6cbe 21aa fa3d 5319 173e 3805 36be
00000060: 3501 003e 0917 973e 37e2 e43d 3b58 403e
00000070: 3a22 603e a142 2b3e 2925 1a3e 9d24 453e
00000080: 8e39 39bc 8d21 dcbc b653 85be 0890 9e3d
00000090: 6039 1f3e 0655 c73d 1be8 823e 2b9f 583e
000000a0: 220d 74be d2bc fe3d 76f3 743a c537 3ebd
000000b0: f6b5 f73d 10dc 213c 7c76 1b3e 2e12 80be
000000c0: 86b8 823e a40e cd3d c8cd 813d 5085 b3bd
000000d0: 21f1 5ebe 5bff 18be ef85 28bd a43c b3bd
000000e0: 33ba 683e faf2 96bc 22fa 3ebd 8149 223e
000000f0: 0465 173e 2a17 5b3e ef1d fbbd 0ba6 683e
00000100: 8101 f7bb 9845 8dbe e735 553e aa57 03be
00000110: 7b99 47be 29e1 09be 8d58 d8bd 636f 4c3e
00000120: bfb1 343e 41d1 0f3e f688 ac3c 92cf aebe
00000130: 7032 103e 6d3b 3dbe 86f6 a63d 3a90 723e
00000140: 45bd 28be 1739 183e 59c0 3bbe a4ea 293e
00000150: 3b2a 9e3d 4f53 2d3e d294 913d c38d b83d
00000160: 7224 4e3e 04a2 d93d ce71 a0bd fcec 473e
00000170: ae1a 673e 110d 873c 1171 3abb fc07 b6bd
00000180: e213 5a3d 3e37 373e 3410 a43d 93ef 8b3d
00000190: f188 7fbe 44b4 163e 680b b43d 3fad ad3d
000001a0: 2a71 f73d 4a6f 14be e724 95be e012 1d3e
000001b0: d962 133e 979d fb3d 1dd3 8cbd b694 373e
000001c0: 5d28 32be 67ab 463e 5ad6 4b3e 5215 11be
000001d0: 70a0 063e 4950 383d 49bc d2bd 92ec 90bb
000001e0: f5a5 3f3e 893b c4bc c591 623d b132 eabc
000001f0: 46aa c1bd a144 b3bd 2730 b43d ee37 c23c
00000200: 0fa6 713e ebd0 583e 903a 66be 9071 9a3d
00000210: 55cb 2d3e 1899 da3d 59cf 463e 4fa3 193e
00000220: 88f3 c0bd 409e 053e 102f 163d b6bc e23d
00000230: 48ae e2bd d497 943d 99e5 6c3e b48c c43d
00000240: b306 35bd f3ca 8a3e 1f6c cb3d 9ce2 e83d
00000250: 911d d53d 63bf bd3d 2583 f1bd 6db1 373e
00000260: 1a74 cd3d 339b 66be 4797 183d c2d7 3f3e
00000270: 8937 ffbd 81a6 0bbe ca32 38be 15ff e63d
00000280: b1bb 2dbe 6e51 e63d a0bf a8bd cd37 79bd
00000290: 7cf5 5c3e 9d76 123e 0f67 62bd 87d4 28bd
000002a0: ec0a 273e 215c 6fbe a3da 253e cd53 f5bd
000002b0: 3454 f1bd 0636 253e 4de4 76be 96e5 193e
000002c0: 0de7 843b e128 253e 51f2 cd3d 2a43 6e3d
000002d0: b0ca 8bbe 0737 c1bd 24ff a03d 3726 21be
000002e0: 1f68 313e 4adf 3a3d 95c5 0c3e 0430 4f3e
000002f0: cd2f 913c f47b 86bd 0834 013e 5af4 1f3e
00000300: 5679 833d be32 29be 5963 833e 5f03 023c
00000310: 3151 d13d d3db 53be ccc2 283e 0255 863e
00000320: d312 cb3d 5ea5 dc3d 4e7f d53d 734e 0a3e
00000330: 6b2f 93bd 048a 7d3b 09ff 1e3e 2fd2 afbe
00000340: 4bd8 fcbc 8a26 083e 22ba 953e 40d6 1bbe
00000350: b0bb d13c 737a ed3b 7088 14bd 11e9 0a3e
00000360: 17b4 3d3e a436 0e3e 45e4 313e a3db 42bd
00000370: a036 f9bd 336c f33d 9aa3 383e bbe9 123e
00000380: 1b3e e43d f0f0 043e 75d6 283b d427 063e
00000390: ee0a a63d 2950 d6bd f9ed 303e 7d74 9abe
000003a0: d4bf b0bc 6b02 353e ec86 e33d 39be a0bd
000003b0: 2e27 2d3d 6cc0 a4bd 7290 2ebe 5ce4 223d
000003c0: cd30 f8bd d604 85be d1d3 263d 093b 253e
000003d0: 39a2 b93d ee13 3dbe 877e 4cbd becb cc3d
000003e0: c14e 563d 4ba6 0cbe 1d68 3c3e 30ea 9abe
000003f0: 5675 7f3d b1f5 82be 0c95 48bd e4c7 20be
0.03725071 0.09306479 -0.08536517 0.037916765 0.057398394 -0.052116092 0.13295186 0.20662831
0.18151724 0.16029721 0.09515452 -0.026648724 0.0979275 0.25043252 0.20251909 -0.16153002
-0.07729221 0.12568584 -0.008733115 0.13096392 -0.23080423 0.12239481 0.14755754 -0.17775428
0.1250046 0.29509762 0.111759596 0.18783657 0.21888056 0.16724636 0.15053238 0.19252248
-0.011305226 -0.026871467 -0.2604043 0.077423155 0.1554923 0.09733014 0.25567707 0.21154468
-0.23833135 0.12438358 0.000934414 -0.046439905 0.12095253 0.009879127 0.15181917 -0.2501387
0.25531405 0.10012558 0.06338078 -0.08765662 -0.21771671 -0.1494116 -0.041143354 -0.08751801
0.2272728 -0.018426407 -0.046625264 0.15848352 0.14784628 0.21395555 -0.12261569 0.2271959
-0.007538021 -0.27592158 0.20821343 -0.1282641 -0.19492142 -0.13464798 -0.10563765 0.19964366
0.1764593 0.14044668 0.021061402 -0.3414274 0.1408174 -0.184797 0.08152489 0.2368783
-0.1647845 0.14865528 -0.18335094 0.16593415 0.077228986 0.16926311 0.07108463 0.09011414
0.2013109 0.10626605 -0.078342065 0.19523996 0.22568771 0.016485723 -0.002844874 -0.08888242
0.053241618 0.17892167 0.08010903 0.068328045 -0.24954583 0.14717203 0.08791238 0.0848031
0.12082131 -0.14495578 -0.29129717 0.15339231 0.14393176 0.12285917 -0.06876204 0.17927822
-0.1739821 0.19401322 0.19905987 -0.1416829 0.1314714 0.04499844 -0.10289819 -0.0044227326
0.18715651 -0.02395417 0.055314798 -0.028588625 -0.09456305 -0.08753324 0.08798247 0.02370831
0.23598503 0.21173446 -0.22483277 0.075411916 0.16972096 0.106737316 0.19415034 0.15003704
-0.0942145 0.13048649 0.036665976 0.1107115 -0.11068398 0.072555214 0.2313446 0.095971495
-0.044195842 0.27107963 0.09932732 0.11371347 0.1040603 0.0926502 -0.11792592 0.17938776
0.1003191 -0.22520141 0.037253644 0.18734649 -0.12461764 -0.13637735 -0.17988124 0.11279122
-0.1696613 0.11246 -0.082396746 -0.06084423 0.2157802 0.1430306 -0.055274066 -0.041218307
0.1631276 -0.23374988 0.16196685 -0.11978874 -0.117836386 0.1613389 -0.24110527 0.15028986
0.0040558637 0.16128875 0.10055984 0.05816952 -0.27303076 -0.09434324 0.07861164 -0.15737234
0.17324875 0.0456231 0.13747247 0.2023316 0.017722989 -0.06566611 0.12617505 0.15620556
0.06419627 -0.16523263 0.25661734 0.007935374 0.10220564 -0.20689325 0.16480559 0.2623673
0.099157 0.10773729 0.10424672 0.13506489 -0.07186779 0.0038687 0.15526976 -0.34340045
-0.030864855 0.13295951 0.2924357 -0.15218449 0.025602192 0.007247263 -0.03626293 0.1356547
0.1852573 0.13888031 0.17372234 -0.047572743 -0.12168622 0.11885872 0.18031159 0.14346974
0.11144658 0.12982535 0.0025762592 0.1310113 0.081075534 -0.10464508 0.1727828 -0.30166999
-0.021575846 0.17676704 0.11109719 -0.07848782 0.042273693 -0.08044514 -0.17047289 0.03976856
-0.12118683 -0.25980252 0.040729348 0.16135801 0.09064145 -0.18464634 -0.049925353 0.09999798
0.0523212 -0.1373531 0.18399091 -0.30256796 0.06236776 -0.25578073 -0.048970267 -0.15701252

a2c_network.actor_mlp.2.weight f4 [256, 256]
00000000: 290f f33c ef43 b23c 13d3 d2bd 556b cfbc
00000010: 5b3b d2bd 2dec ad3d 9183 c1bd ac77 04be
00000020: 15e5 0fbd 1f18 e9bd b979 b4bc d006 1fbd
00000030: b980 963d 3358 df3a 2694 d4bd e87f 063d
00000040: 51e6 d5bc 1e95 50bd af8c 34bd e658 68bd
00000050: 3d7d d3ba 8551 a0bd af63 48bd a224 123d
00000060: cb41 233d b489 d4bd f3c1 36be 8cea d1bd
00000070: c3a6 65bc 4b6b 4dbd 52e9 81bd f95f 23be
00000080: bd0e 683d f441 15be c024 bc3d d12b 2dbd
00000090: 3f36 783d 57e9 5bbd b8d9 8ebd 8222 6dbd
000000a0: 8c15 433d f669 543d 0349 8a3c 1ca4 c4bd
000000b0: 5a10 e3bd 54fa f8bb 405e 2ebe 70f0 11b9
000000c0: a4ef 9dbd 7e4d cfbd 0578 82bc 2d0c c0bd
000000d0: ae07 cdbc 22cf 8c3c 5a59 debc 42d2 25bd
000000e0: 3ae8 02bd 2f0c 71bd b2c4 82bd 90ee 1cbc
000000f0: 3faa fabb b7f7 9cbd 65c8 11bd 34ad 80bd
00000100: cf1e 50bd 4721 e03c a26f 60bd 1939 f33c
00000110: bf66 90bd 27ad bfbc 5de8 c43d d5dc 483b
00000120: 9c44 893d 0cb1 493c a9ec 71bd 8d8a 2bbd
00000130: 832b 8fbd 001d 89bd 8208 98bd f0ef 41be
00000140: ff78 80bd e4f9 76bb e86c a53a 114e ecbd
00000150: f77a 573d 2cb8 05bc a3f5 283c 93ea e6bc
00000160: 225b b63c 6640 633b e106 8cbd d15d e7bd
00000170: bfef 1c3c 795c 663c f7c4 853b fab7 a9bd
00000180: c383 31bd da53 a2bc c4c5 0bbd aaaa d6bd
00000190: a7b2 163d 81de 863d 5697 763c 272e cebd
000001a0: fe29 9ebc ab1d 193d 999d 113d 960d cc3d
000001b0: 1d52 863d 2f1b 533d 881c 9d3d 1adf 6bbd
000001c0: 7e11 abbd 3739 59be 0f00 98bd fe02 8e3b
000001d0: 9c5f 28bd 74aa cb3c 42da 283c 1c7c 5c3d
000001e0: aa1d e9bc 4cbe d7bc 2b44 083c 997a 57bc
000001f0: b95a 68bd 544d 83bd 5c3d 5abd d96d 1d3c
00000200: 79fb 15be 715b 49bd 30d5 2abb a867 243d
00000210: 6d2f 72bd a240 cdbd 8d9c b33d ab85 e0bc
00000220: 9485 dd3c d077 0dbd e9d1 13bd 4786 063c
00000230: c258 733d 034a d43a b787 0bbd df4c b0bd
00000240: 7133 9f3b 4043 0bbe baa1 40bc 05bb b8bd
00000250: 201c 083d 24d0 463d 3ecb 803c a9d3 8bbd
00000260: 1ac5 5f3d 3724 73bd 00b8 5d3c 27bd e7bd
00000270: 9b12 a13c 3334 323d 0229 943d bb15 2abb
00000280: e702 21bd 4a89 fdbc 3e4f 6bbd f740 15bb
00000290: 0de9 02bd 4a3a dcbc 965b 0e3d aac9 253d
000002a0: 1d37 35bd 7a9c 103d fbb1 8f3d 1ff0 343d
000002b0: 7def 153c 2b96 563d 7d6c 843d d0a5 5abd
000002c0: ced4 35bd a0e7 41bd 06c4 603b e9aa b7bd
000002d0: 39b5 86bd d7e1 bc3d e48f 15bc d2df 22bd
000002e0: cea2 f5bc 9478 75bd 3ca9 613b 1f85 363d
000002f0: 186e bebd d43d 223c ff1c 283c 0cee 1dbc
00000300: c06e 8a3d b550 dfbc 7b60 a9bd 921b f9bd
00000310: c0bf 00bd b028 e53c e5aa 613d cc58 2cbe
00000320: d54e 6d3d ccba a3bc 13af 14bd b5d8 193d
00000330: caef 423d 56ab 423c 9c1b 753d 2d0c d93c
00000340: ec93 b4bc f376 eebd 144b ccbd dfa8 823b
00000350: 83fe 073d 81ae a03d 91f1 69bd 03ab 34bc
00000360: 5e50 9abd ce5d 30bd 1813 05bb 2d9b 52bd
00000370: 05d6 c2bd 3fc9 85bd 2630 abbd e587 d0bd
00000380: a81e 3e3d eab6 68bd aee6 04be 61e8 cd3c
00000390: 9837 f43d a6ae 513d 8339 8fba 079d 9cbd
000003a0: 945d d73d ddea 3bbc bb1f 8f3d b619 a53d
000003b0: 92b1 01be 6a7d 433d f5e8 d9bc 0cfc ba3b
000003c0: 473e 0abe 8acd 673d 7f02 09bc 3050 153c
000003d0: 3da2 a73d 7566 98bd a183 43bd 71c5 833c
000003e0: 2415 4abd d44c 79bc 3ffd 0bbd 4463 6cbd
000003f0: b0e6 2ebb d211 aa3d df97 1ebd 1827 ffbc
0.029670315 0.021760909 -0.102941655 -0.025319735 -0.102652274 0.084923126 -0.094489224 -0.12936276
-0.03513058 -0.11381554 -0.022030698 -0.038824856 0.07348771 0.0017039835 -0.103798196 0.032836825
-0.0261108 -0.05092346 -0.04407948 -0.056725405 -0.0016135346 -0.078280486 -0.04892319 0.035679467
0.039857667 -0.10377827 -0.17847423 -0.102498144 -0.01401681 -0.05015115 -0.063433304 -0.1595458
0.05665468 -0.1457594 0.09186697 -0.042278115 0.060598608 -0.053689327 -0.0697512 -0.057894237
0.04762797 0.051858865 0.016880518 -0.09601614 -0.11087103 -0.007598201 -0.17028141 -0.00013917848
-0.077117234 -0.10122202 -0.01592637 -0.09377322 -0.025028076 0.017188612 -0.027142216 -0.04048372
-0.03195975 -0.05884951 -0.06385173 -0.009578362 -0.0076496894 -0.07664435 -0.0355915 -0.06283036
-0.05081063 0.027359618 -0.05479396 0.029690312 -0.07050847 -0.023397995 0.09614632 0.0030649204
0.06702539 0.012310278 -0.059063587 -0.04188018 -0.06990721 -0.066949844 -0.07423498 -0.18939185
-0.06273078 -0.0037685568 0.0012620958 -0.115383275 0.052607503 -0.008161586 0.010312471 -0.028188026
0.022260252 0.0034675836 -0.068372495 -0.11297191 0.009578644 0.014060133 0.004082318 -0.08287044
-0.04333855 -0.019815374 -0.03412415 -0.1048177 0.03679147 0.06585408 0.01505073 -0.100673966
-0.019307133 0.03738181 0.035550687 0.09963529 0.065586306 0.051539596 0.076714575 -0.057585813
-0.08352946 -0.21213232 -0.07421886 0.004333853 -0.041106805 0.024861552 0.010305943 0.053829297
-0.028456528 -0.026335858 0.008317034 -0.013151788 -0.056727145 -0.064112335 -0.053281173 0.009608709
-0.1464671 -0.04915947 -0.002606701 0.040137917 -0.05912726 -0.10022093 0.08770094 -0.027407488
0.027041234 -0.03453809 -0.036088858 0.008210725 0.059410818 0.0016196374 -0.034064975 -0.08608412
0.004858427 -0.13599873 -0.011757309 -0.09020046 0.033229947 0.048538342 0.015721913 -0.0682748
0.05463133 -0.05936071 0.013532639 -0.11315375 0.019662192 0.043506812 0.07234384 -0.0025952894
-0.03930941 -0.030949254 -0.057448618 -0.0022774318 -0.031960536 -0.026883263 0.034755312 0.040475525
-0.044242013 0.035305478 0.07016369 0.04417431 0.009151337 0.052389305 0.06466005 -0.053380787
-0.0443924 -0.047340035 0.0034296527 -0.089681454 -0.06577534 0.09222763 -0.0091285445 -0.039764233
-0.029984858 -0.059929445 0.0034433147 0.044560548 -0.092983425 0.009902436 0.010260819 -0.009639274
0.06759405 -0.027260164 -0.08270355 -0.12163462 -0.031432867 0.027973503 0.05509462 -0.16830748
0.05793651 -0.019986533 -0.036299776 0.037560184 0.047591962 0.01188167 0.059840783 0.026495064
-0.02204319 -0.116437815 -0.099752575 0.003987416 0.033201706 0.07845784 -0.05711514 -0.0110271005
-0.0753486 -0.04305821 -0.002030557 -0.05141752 -0.09513477 -0.06532525 -0.08358793 -0.1018217
0.046415955 -0.056815065 -0.12978622 0.025135221 0.11924666 0.05119195 -0.0010927174 -0.07647138
0.105158955 -0.01146957 0.06988474 0.080615446 -0.12665394 0.047727026 -0.02660034 0.005706316
-0.1350032 0.0565925 -0.0083624115 0.0091133565 0.08185241 -0.07441417 -0.047732953 0.016085358
-0.049336568 -0.015216071 -0.03417706 -0.057711855 -0.0026687793 0.0830418 -0.038719054 -0.031146571

a2c_network.actor_mlp.2.bias f4 [256]
00000000: 7e7f 0c3d bf80 22be 6592 083d aa34 193d
00000010: 205b 2dbd 4643 423d a2ee 813d 6411 9cbd
00000020: 7d4c 773d acd3 98bd 0e78 36be 3bb1 6c3d
00000030: 21ea 253d b7c4 58bd cb9c 8a3d 64c3 e8bc
00000040: 5378 b43b aeb1 6e3d 34b8 f4bd 2f73 543d
00000050: ef93 493d 3183 423d 4ca5 4d3d 1805 613d
00000060: abf4 35be 2919 973c 93f7 48be e16f a73c
00000070: 8df3 35bd 0f43 48bd 2b9b 973d 49cd 34be
00000080: 9588 e4bd 16ab 3a3d 3308 933c fdf0 8b3d
00000090: 8e71 ce3c 9b1e 6abd c604 563d d21f e6bd
000000a0: 09fa dbbc 4a58 35bc 6ce0 0fbd fd84 593d
000000b0: e914 4e3d faa9 cebd 9274 43bd 0954 93bd
000000c0: 71f9 3a3d b49d 66bd 7d63 693d 673a a8bd
000000d0: 80c7 2b3d b239 893d f859 873d 9fc4 42bd
000000e0: 88a4 41bd 7b15 fb3c f0cf 1c3d 54ab 97bc
000000f0: b0dd 493d 779f 2ebd 09e0 03bc e1bd 28bd
00000100: 49c7 8cbd c5ca 7bbd 36b2 c4bd f17d 84bd
00000110: 7f4c ee3c e61f 0abe 91e0 9cbd 981e 22bd
00000120: c4e6 613d d0e1 1bbe 59d1 8eba f81f f03c
00000130: 5aeb 91bd 2c15 67bd 09fd 2f3d c833 8dbc
00000140: 439d 4bbd 695d b23d 447c be3d 0485 5ebd
00000150: 1987 7bbd 4b89 7fbc 9814 4c3d 65c3 8a3d
00000160: c7fb 13be e1ca 273d 9c57 70be 9460 44bd
00000170: 5435 4cbd 2b61 a0bd 17c9 d23a 00da 90bd
00000180: 2599 543d f7cc 203d 5f03 01be 9f09 023d
00000190: 16f0 41bd d568 38bd 3d8d b9bd 47d0 3abd
000001a0: dd34 933d db67 0a3d 1d9a 90bd acf6 66bd
000001b0: b596 85be 62cd 11be 0456 813d 292f a73d
000001c0: 8a81 8c3c 7266 753d 4113 3ebe b72b 553d
000001d0: c39e 64bd 6c9e 7a3d d397 803d 20f1 e33c
000001e0: 84d8 8bbd c882 8d3d 5eaa 43bd 0c1d 443d
000001f0: f3f7 e93c 41e1 90bd 2601 6ebd 2c91 083d
00000200: 5b9d 8abd efc6 3f3d e3f9 2ebd 74fe 35b9
00000210: 2679 3bbd 50b8 76bd b213 753d 5366 633d
00000220: 988f 37be 7e42 393d d3f5 49be cc1b 7fbd
00000230: 676d 39bc 4982 833d 5542 d6bd 1364 2f3d
00000240: eaf7 b4bd 1ca8 d6bc 1584 563d 00da 7c3d
00000250: ff77 9fbd 70f4 5bbe 25e1 8bbd 046d 693d
00000260: 6a60 193d 98a6 dcbd ea26 843d 047d bb3b
00000270: 1cc6 4b3d 2244 52be 99d1 70be 23a3 c2bd
00000280: d15e 553d c733 78bd b35b 143d 16f8 2b3d
00000290: 7cc8 3b3d 1430 58bd 1600 90bd a58b 78bd
000002a0: d6e9 8bbd 427c 88bd da45 a8bd 5fe4 5bbd
000002b0: ef44 64bd e299 893d a56e 6abd c177 10be
000002c0: 8189 54bd 0960 f2bd 2b75 0dbd acde 8c3d
000002d0: edca 93bd 03b9 4bbd a899 433d d568 403d
000002e0: e057 bb3c 67e7 0fbd 5e99 b2bd 5e53 28be
000002f0: 8e21 353d d5ef 55be 4aa6 5dbd d2ed 423d
00000300: 741a 40bd 830b 533d cb58 adbc c264 5dbd
00000310: aa5e fbbd e366 37be 5845 26be f06e d5bc
00000320: 9776 eebc 2433 56bd 90d7 ecbd 6fc9 453d
00000330: d0a3 423d 69d3 66bd 9a5f 573d 4ad5 32be
00000340: 73e4 7c3c 4fa1 d2bd 2d6a 12be 78b2 8ebd
00000350: 0092 883d f902 863d d7a0 d0bc 978d 863d
00000360: 3e80 3d3d 415b d73a 6371 89bd 0fcf 96bd
00000370: d35f 0fbe 62db c83a 9d28 e2bd 7e78 f83c
00000380: 08a5 90be 8763 103d 3f8e 4f3d 4c63 8b3d
00000390: 5e61 5a3d 1301 dd3b e96f 09be fcd6 3d3d
000003a0: 5b45 4ebe 529a a63d 7f7a 053d 7b77 b53c
000003b0: 9e13 423d 59a3 acbd e7f0 91bd 1525 68be
000003c0: db54 4f3d 4226 dc3c 7ec7 a1bd 0e2d 21be
000003d0: e1f1 57bd b188 b3bc b9d1 30bd f834 293c
000003e0: 02ae 32be f58d 5fbd e24e 26be bdd1 c1bd
000003f0: 1ec7 783d bd9c 8fbd 7042 513d 0b10 813d
0.034301274 -0.15869425 0.033342738 0.03740374 -0.04232323 0.04742744 0.06344344 -0.076205045
0.06037568 -0.07462248 -0.17819235 0.057786208 0.040506486 -0.052921977 0.06768187 -0.028413482
0.005507508 0.058274917 -0.119491965 0.05186766 0.049213346 0.047488395 0.050206468 0.0549365
-0.17769115 0.018444614 -0.19625692 0.02043909 -0.04442172 -0.048892077 0.07402643 -0.17656435
-0.111588635 0.045573317 0.017948246 0.06833074 0.025200631 -0.057158094 0.052250646 -0.11236538
-0.026852624 -0.011068413 -0.035126135 0.053105343 0.05031291 -0.10091014 -0.047718592 -0.07193763
0.045648042 -0.05630274 0.056979645 -0.08214264 0.041938305 0.06700458 0.06608957 -0.047550794
-0.04727605 0.030649891 0.038284242 -0.018514313 0.049283683 -0.042632546 -0.00804902 -0.041196708
-0.06873948 -0.061472673 -0.096043035 -0.06469334 0.02908921 -0.13488731 -0.0766002 -0.039579958
0.055151716 -0.1522286 -0.0010896131 0.029312119 -0.07124968 -0.056416675 0.042965923 -0.017236605
-0.049710523 0.08709223 0.093010455 -0.054326072 -0.061408136 -0.015596698 0.049824327 0.0677555
-0.14451514 0.040964965 -0.2347092 -0.047943667 -0.049855545 -0.07831033 0.0016081658 -0.0707283
0.051903863 0.03925797 -0.12598942 0.031747457 -0.047348104 -0.04502185 -0.09060142 -0.045608785
0.07187817 0.03379045 -0.07060645 -0.05638759 -0.26091543 -0.14238504 0.06315234 0.08163292
0.017151613 0.059912153 -0.18562032 0.052043643 -0.05581547 0.06118624 0.06278958 0.027824938
-0.068284065 0.0690971 -0.047769897 0.047879264 0.028560614 -0.07074214 -0.058106564 0.03334157
-0.067682944 0.046820577 -0.04271878 -0.00017356296 -0.045769833 -0.060234368 0.059833236 0.055517506
-0.1792587 0.045229428 -0.19722681 -0.06228237 -0.011317587 0.06421334 -0.104618706 0.042820048
-0.08836348 -0.026203208 0.052372057 0.06173134 -0.07786559 -0.21479964 -0.06830052 0.05698873
0.037445463 -0.10773963 0.06452735 0.00572169 0.04974948 -0.20533803 -0.23517455 -0.09503772
0.052092377 -0.060596254 0.036220264 0.04198464 0.045845494 -0.052780226 -0.070312664 -0.06068005
-0.0683171 -0.06664325 -0.08216448 -0.05368459 -0.055729803 0.06718804 -0.057234425 -0.14108182
-0.051888946 -0.118347235 -0.03453557 0.06878409 -0.072164394 -0.049736988 0.04775396 0.046974976
0.02286905 -0.03513279 -0.08720659 -0.16438052 0.044221453 -0.2089227 -0.054113664 0.047590084
-0.046900228 0.05152465 -0.021160504 -0.05405117 -0.12273915 -0.17910342 -0.1623739 -0.026053876
-0.029109282 -0.052294865 -0.11564553 0.048287805 0.047519505 -0.05635396 0.052581407 -0.17464176
0.015435326 -0.102846734 -0.14298315 -0.06967634 0.06668472 0.06543536 -0.02546732 0.06569975
0.04626488 0.0016430394 -0.0671108 -0.07363712 -0.14001398 0.001532417 -0.110429026 0.030330893
-0.2825091 0.035251167 0.050672766 0.06806049 0.053315513 0.006744513 -0.13421597 0.046347603
-0.20143645 0.08134903 0.032587525 0.0221517 0.04738199 -0.084295936 -0.071260266 -0.22670396
0.050618034 0.026873711 -0.07899378 -0.15739843 -0.052720908 -0.021915765 -0.043168757 0.01032757
-0.17449191 -0.05457874 -0.16241029 -0.094638325 0.060736768 -0.07012317 0.05108875 0.06301888

a2c_network.value.weight f4 [1, 256]
00000000: 742b 133c 8895 af3b c3d6 3ebc d913 83bc
00000010: 3d34 7cba dcbb 95bb d6e8 fb3a 6255 373b
00000020: e9c0 723c 7751 b1bb 5fb0 1fbd 2192 dc3a
00000030: 94a0 9bbb cf5e 1cbd 9b2c bebc ca3e 883b
00000040: 01b3 37bc 34bb 2f3b 81a8 223d 55c7 183a
00000050: 94a5 d5ba 08ec a93b ad2a 04bc 9824 093c
00000060: 7ace 4c3c efd9 21bc 2314 d53c c92a 9fbb
00000070: 7425 e83b 4ecc e93a a981 5dbc eafb 853b
00000080: e5d0 ee3c 1069 1fbb 7466 c53c c8d5 99ba
00000090: 4c0c 1d3b 0821 1abc 523a ed3a 80b3 0dba
000000a0: 3e82 263c 14b1 ee3b cc0e 01bc a848 7b3a
000000b0: a4de 11bb 6e0b af3a df26 6cbb 33da 273c
000000c0: fc46 59bd 58a4 943c c86c 53ba 506d 92bc
000000d0: 4f09 85bb de53 e93b 1d16 9ebb 3bff 20bd
000000e0: b874 343b 09fa cb3b 488a 333c 1f98 053c
000000f0: a61b 353b 0da4 43bd cf78 47bd c260 03bc
00000100: 5767 a5bc 949c 103b 83a4 7b3c 8695 c63b
00000110: 1c82 d43a f13f 24bb 0506 b0bd b0b4 c8bb
00000120: e838 213c 1330 453d b38c db3d 54fc 4e3b
00000130: 51fa 9839 3cda 58bb eb95 783b 1420 813d
00000140: 40f7 04bb b3ff 993c 6333 71bb 2d74 0f3e
00000150: 8ca6 c4bc 0f0b 283d b0cb 57bb 11e7 5c3b
00000160: a759 0dbd c7f8 5bbc 55c4 073c 00de a53b
00000170: 3512 dbbb 7fa3 c0ba 5bb0 16bd 10fd f8bd
00000180: e04e aa3b 5b43 b33c f5a0 0abd acb9 3f3c
00000190: 048d 033b 944c 4f3c eba3 8e3d 6f98 403c
000001a0: b7eb dfbc 06b5 1b3b a357 0c3b d735 033c
000001b0: d903 21bd af3f 87bd c576 663b 0939 ccbb
000001c0: caae 76bd 46c9 3c3b b94d b03a 4d04 6f3b
000001d0: 2b9d 36bb 59fe 8ebb 9956 06bb 88b1 03ba
000001e0: 32a0 8dbc bb19 c5ba a2d1 513d 94d2 bc3b
000001f0: 4d72 b53b fd5e e5ba 77aa 28bd f58f 10bd
00000200: d211 89bc e51d bc3a 3f44 bbbb b407 3dbd
00000210: 43f6 afbb 59f3 66bc bb11 8039 4e64 53bb
00000220: ece3 ce3b f5ac 24bb 74ab 9abd d6c2 2bbc
00000230: 6d1e c53d 2b95 f1bb a8d0 3d3c a656 623b
00000240: 52a4 ca3a 0497 093b 8104 cf3a e64c 6cbb
00000250: f0aa 853c 3725 8b3c 42b5 ac3b b416 203c
00000260: 4d58 013c 0473 c5bd c41e 16bc 51ae 093d
00000270: dcc9 083b 1617 0ebd add6 30bd bf27 f03c
00000280: 1c89 6dba 77d7 853b 40ef 03bc 7f84 213c
00000290: 2641 e5bb 644e 713c 1475 883b e7cd ecba
000002a0: ec01 7a3b 0a61 333a 24a1 4c3d 855c 1d3c
000002b0: 99e6 493c 3e78 c73a f7d1 68bc 10a4 23bc
000002c0: 4139 2b3d 5d26 983c a208 2e3c cd2f eb3b
000002d0: 3dde 403c a366 cd3a 4b70 8a3b c493 e2ba
000002e0: 883e a7bb f381 2dbc 0a8a 9bbc e9e9 7cbc
000002f0: f496 373b 224f 2ebb ad88 fe3c 5977 033b
00000300: 8ac7 57bb 76d0 b83b f066 043b 0173 873a
00000310: e8b4 a7bc 68cf e9bd c9c9 583d c57b 3dbd
00000320: 1437 dc3b 3934 8bbb 5693 97bc 175a 89bc
00000330: f155 7f3b 19c2 00bb 24a0 bd3d e101 373b
00000340: 6bfa 733c 0288 7d3c fa0a 0ebc 7d12 01bd
00000350: 927e 7bbb 26db 153b 0115 593c b4a6 813b
00000360: af72 993b cf0f 983d 4e65 973b 2103 3dbd
00000370: a36e 463d ddd6 223d b1ec 333c 3eb8 253c
00000380: 3097 89bb 661d 32be 3b9a f7bb 72ce 75bb
00000390: 7c44 52ba f12c 8a3b c213 ba3c 4eda 2b3b
000003a0: f517 6cbd 2abc 863c 87cb 5f3b 36a4 343b
000003b0: ed43 2538 83c3 3f3b 741a c3bc ac3f 18bd
000003c0: a0b8 b33b f9a5 85bb 8a53 17bd af0e 4cbc
000003d0: fe84 1abd 8897 bc3b 4b6d 07bb e64f 373b
000003e0: 4794 083b de51 2e3b 0658 93bc 7fbf 2fbe
000003f0: b211 97bb 1b2d 1e3b f51c 803c 480f ae3a
0.008982528 0.0053584017 -0.011647883 -0.016000675 -0.0009620821 -0.0045695137 0.0019219171 0.0027974476
0.014816501 -0.0054113227 -0.03898656 0.0016828218 -0.004749367 -0.038176354 -0.023214629 0.0041578757
-0.011212111 0.0026814463 0.03971148 0.00058280426 -0.0016299956 0.005185608 -0.008066815 0.008370541
0.0125004 -0.00987862 0.026010578 -0.0048573953 0.007084543 0.0017837377 -0.013519683 0.0040888684
0.029152343 -0.0024324097 0.024096705 -0.0011736685 0.0023963628 -0.009407289 0.0018099046 -0.0005405471
0.010162888 0.007284293 -0.007877063 0.0009585717 -0.0022257948 0.0013354847 -0.0036033911 0.010244894
-0.05304621 0.018144771 -0.0008065221 -0.01787439 -0.0040599476 0.0071205935 -0.0048244135 -0.039305907
0.002753539 0.006224875 0.010958262 0.008153944 0.0027634888 -0.047763873 -0.048699196 -0.008018674
-0.020190878 0.0022065984 0.015359047 0.006060305 0.0016213092 -0.0025062526 -0.08594898 -0.0061250553
0.009840228 0.04814155 0.107201956 0.0031583505 0.000291782 -0.0033089062 0.0037931155 0.063049465
-0.0020288974 0.018798685 -0.003680431 0.14009161 -0.024005197 0.04102617 -0.0032927804 0.0033707062
-0.034509327 -0.013426012 0.008286555 0.005061865 -0.00668552 -0.0014697163 -0.03678928 -0.12157643
0.005197391 0.021882704 -0.033844907 0.0117019825 0.0020073066 0.012652535 0.069648586 0.011755093
-0.027334077 0.0023759021 0.002141454 0.008008442 -0.03931031 -0.066039436 0.0035166007 -0.006232385
-0.060225286 0.0028806492 0.0013450898 0.003647107 -0.0027864676 -0.0043638167 -0.0020498394 -0.00050237076
-0.017288301 -0.0015037576 0.051225312 0.0057624076 0.0055373074 -0.0017499622 -0.041178193 -0.035293538
-0.01673213 0.0014352171 -0.0057149227 -0.046149924 -0.005369933 -0.014096105 0.00024427273 -0.0032255831
0.0063137915 -0.0025127504 -0.07552233 -0.010483464 0.09624944 -0.0073725185 0.011585392 0.003453651
0.0015460348 0.0020994553 0.0015794189 -0.0036056577 0.01631686 0.016985519 0.005270631 0.009771038
0.007894588 -0.09641078 -0.0091626085 0.033613507 0.002087227 -0.034689985 -0.04317348 0.029315827
-0.00090612634 0.0040845233 -0.008052647 0.00985825 -0.0069962917 0.014728162 0.0041643474 -0.0018066735
0.0038148118 0.0006842768 0.049958363 0.009604578 0.012323045 0.001521833 -0.014210216 -0.009987846
0.04180265 0.01857298 0.010622175 0.007177329 0.011771736 0.0015670847 0.004224812 -0.0017286469
-0.00510389 -0.010590064 -0.01898672 -0.015436628 0.002801356 -0.002659746 0.031071031 0.002006015
-0.003292533 0.005640085 0.0020202957 0.0010333956 -0.020472005 -0.11416513 0.052926812 -0.046260614
0.006720433 -0.004248169 -0.018502872 -0.016766591 0.0038961137 -0.0019646941 0.0925906 0.0027924704
0.014891247 0.015474321 -0.008669609 -0.031511772 -0.0038375002 0.0022866218 0.013249637 0.00395664
0.004682861 0.0742489 0.0046202308 -0.046145562 0.048445355 0.03975569 0.010981725 0.010114728
-0.004198931 -0.17394027 -0.0075562275 -0.0037507084 -0.0008021069 0.004216783 0.0227145 0.002622265
-0.057640035 0.016447145 0.0034148411 0.0027563698 3.9402326e-05 0.0029260821 -0.023816325 -0.037170097
0.0054846555 -0.0040786234 -0.036944903 -0.012454673 -0.037724487 0.0057553686 -0.002066451 0.0027971207
0.0020840333 0.002659909 -0.017986309 -0.17162894 -0.0046102637 0.0024135772 0.015638808 0.0013279701

a2c_network.mu.weight f4 [6, 256]
00000000: 6381 b3bb 5078 c6bb 0ad2 d8bb 5b79 93ba
00000010: 4cf6 493a 18c4 743a c677 7bbb dbb2 743b
00000020: 8726 8c3a 0a36 173b daa5 023d 24d9 d23a
00000030: 0663 0fb9 62fb a3ba 7866 3dbb df34 94b9
00000040: 180f 563c 788e 0bbb 776d 42bc 83b7 b93a
00000050: a5da 56b9 6112 fbba 1dd6 0b3c 1d2e 0f3b
00000060: f706 aabb 25dd 823b 47df 163c a643 0dbc
00000070: 1b79 cb3a edd7 8cbb 6329 bbba 40ea 92bd
00000080: c949 b23a 26e9 9cba 4554 e1bb 4d3e 1fba
00000090: 4e15 1fba c184 86bb 1f9f c8b9 83e1 d83a
000000a0: 9a25 70bb 3403 213c ea4d 57bb 7071 693a
000000b0: f67b f13a 666a b53a d1e7 803b 220e dabc
000000c0: 16eb 7cbc d3ca 023b 57d1 853b fb31 1f3c
000000d0: ec34 bcb9 a6d5 2a3b c35b 0a3b 9cb8 22bb
000000e0: a7c9 fbbb f730 a13a 9281 03ba 56e8 6d3c
000000f0: 95aa fb39 2434 443c 0da6 983a a288 393c
00000100: 36cd 65bb 88f2 423b 8834 86bb eb32 883a
00000110: 8e9a 033b f6b6 9b3b 3c4c 8b3b a986 b73a
00000120: 31ca 9a3b 92da 3f3c 0807 5e3b 14b5 57ba
00000130: dad2 743a 6988 d83b 400d d2b8 a6d0 9dbb
00000140: d297 b63a 1701 713b c41b 173a 84f4 ae3c
00000150: 9364 b539 d643 1f3c f519 983a 8f2b ccba
00000160: 8b1a 5ebd 0b10 6e3a 265a c7bc 1054 3dbb
00000170: e3a9 91ba f06d 9bba a5db 5a3b a766 813b
00000180: 3706 4dbb a901 703b 087f 813d 513c 7dbb
00000190: c8de 1538 d1d9 983b 5624 9a3a 871d b63b
000001a0: d52b 5c3b 73cd 82ba 7bff 3c3a 2763 74ba
000001b0: 02c2 bb3d 8963 2e3d f802 b1ba 62c9 223b
000001c0: 1b38 49bb ef38 deba 00ae 95bd 6ae9 4e3b
000001d0: b367 f83a 1d02 6dba ec76 013b 70ff 1a3b
000001e0: 573e 4b3a 694a c638 b3cf fbbb ef7a dd3a
000001f0: 2d08 27bb 2117 553b 6cdb 103a 5c87 a5bb
00000200: 15cb 363b f962 5bba fa60 aaba 7310 c9ba
00000210: 0141 3b3b 4b5a ae3a be49 323b b6a8 ca3a
00000220: 5583 a5bc a4f7 48bb dd79 663b 20dd 083b
00000230: 2319 8dbb 6c6c 653a 0978 453d f057 673b
00000240: 26e9 d0bb c878 d53b 5e3b 243b 22b8 90b7
00000250: ee13 023c 8d20 a1bc 825e af3a 8c74 78bb
00000260: 7797 c1ba 1787 83b8 2b8f 033b c9b1 163b
00000270: 96a1 6c3a 179e 84bd 585a ef3d 2203 923c
00000280: 5b1c 953a c885 c5ba 95bf c63a ef83 5d3b
00000290: ed79 f939 9704 6b3b 4931 083a a89e 7d3a
000002a0: 1789 003d 6b7e 1d3b 7c4e 93bb 5b12 36ba
000002b0: 2b87 7839 eb63 f2ba c186 acb8 b9ef 063d
000002c0: c644 c6bc 5920 a4bc c650 243c d9cb 5bbb
000002d0: b175 73bc f054 623a b8a0 a53a eceb b9b9
000002e0: 1203 edba f42f e83b dafe 30ba e884 a9bb
000002f0: 14a0 253b 1dfa 74bc af3f 4a3c a471 5a3a
00000300: 331b 85bb 81b2 803a 3c5f d7ba bc56 85ba
00000310: 61f4 d83b a1f4 71bd 4b8e 113c 80e9 ca3c
00000320: a880 d83a 6668 8ebb c803 223c 33f7 6a3b
00000330: 8883 3137 6cb3 7a3b 4c8d 7ebc 6848 623c
00000340: 0e6e d93b ad65 b43b a9c1 973b 60ac b23b
00000350: 201e 98ba 0eb8 1eb8 32dc 41ba e932 f639
00000360: df47 15bb 5eac a03a d9de acb9 9681 93bc
00000370: a979 24bc 0634 063d f0af b23a 8a2e c73a
00000380: 17ea 5ebd d5b9 04bb a44d 163a f825 34bb
00000390: 4b29 babb 12c9 6cbb fc88 1abc 9e89 4e3b
000003a0: c31f f43d 4dbe 2a3b 78ed ff3a 8389 0e3b
000003b0: db01 a8ba adcd 0fbb 9390 d23b 81e3 b1bd
000003c0: 90c5 373b 5f0f 043a a99b f4bb 2e62 a6bc
000003d0: 1896 113c 80fb c43a 079e b13a d505 d0b9
000003e0: bb4f 36bd 529e 433b 1dcf 193d 1ce9 bbbb
000003f0: 2e04 af3a 22a4 3b3a df9f 8e3b 6f5a 373b
-0.0054780706 -0.006056823 -0.0066168355 -0.0011251377 0.00077042426 0.00093370816 -0.003837095 0.0037338051
0.0010692634 0.0023072981 0.03189645 0.0016086441 -0.00013674432 -0.0012510831 -0.0028900187 -0.00028268152
0.013065122 -0.0021294635 -0.011866919 0.0014169071 -0.00020490082 -0.0019155258 0.008534935 0.0021847554
-0.0051888186 0.0039936476 0.009208507 -0.008622086 0.0015523763 -0.0042982013 -0.0014279302 -0.07173586
0.0013602312 -0.0011971339 -0.006876501 -0.0006074652 -0.00060685433 -0.004105181 -0.00038265527 0.00165467
-0.0036643506 0.009827424 -0.0032852837 0.0008905148 0.0018423784 0.0013840913 0.0039338847 -0.026618067
-0.015436908 0.0019957318 0.004083793 0.009716506 -0.00035897584 0.0026067286 0.0021111823 -0.0024829274
-0.007683951 0.0012297918 -0.0005016561 0.014520725 0.00048001544 0.011975322 0.0011646167 0.01132408
-0.0035064942 0.002974661 -0.0040956177 0.0010391151 0.0020081135 0.0047520353 0.004251031 0.0014001924
0.00472381 0.011709826 0.0033878703 -0.0008228582 0.00093392807 0.006608058 -0.00010016048 -0.0048161326
0.0013930744 0.0036774331 0.000576433 0.021356829 0.00034597944 0.009720763 0.0011604415 -0.0015576946
-0.054224532 0.000908137 -0.024334978 -0.0028889216 -0.0011113252 -0.0011858325 0.0033395078 0.0039490047
-0.0031284222 0.0036622083 0.063230574 -0.0038640688 3.573185e-05 0.0046646376 0.0011760097 0.005557719
0.0033595462 -0.0009979442 0.00072097004 -0.0009322636 0.091678634 0.042575393 -0.0013504913 0.0024839272
-0.0030703607 -0.0016954223 -0.073085785 0.003157223 0.0018951803 -0.00090411474 0.001975472 0.0023650788
0.0007753125 9.455236e-05 -0.007684672 0.0016897599 -0.002548705 0.0032515007 0.00055258605 -0.0050515365
0.0027892042 -0.0008368935 -0.0012998872 -0.0015339985 0.002857268 0.0013302056 0.0027204598 0.0015461657
-0.020204226 -0.0030665183 0.003516785 0.0020883754 -0.004305975 0.0008751813 0.048210178 0.0035300218
-0.0063754497 0.0065146424 0.00250598 -1.7251881e-05 0.007939322 -0.019668842 0.0013379606 -0.0037911264
-0.0014769871 -6.271729e-05 0.0020074348 0.0022994152 0.0009026764 -0.06475466 0.116871536 0.01782376
0.0011376248 -0.0015069777 0.0015163297 0.0033800562 0.00047583823 0.003586089 0.00051953323 0.00096748257
0.03138074 0.002403165 -0.00449544 -0.0006945484 0.00023701477 -0.0018492913 -8.226699e-05 0.03294346
-0.024202716 -0.020034956 0.0100290235 -0.003353825 -0.014859603 0.00086338725 0.0012636399 -0.00035461725
-0.001808258 0.0070857946 -0.0006751843 -0.0051733144 0.0025272416 -0.01495221 0.012344285 0.0008332974
-0.0040620803 0.0009818823 -0.001643158 -0.0010172944 0.006620929 -0.059071187 0.008884023 0.024769545
0.0016517835 -0.0043459414 0.009888597 0.0035852909 1.0580647e-05 0.0038253916 -0.0155366175 0.013811208
0.006635434 0.0055052848 0.0046312404 0.0054526776 -0.0011605658 -3.784155e-05 -0.00073951774 0.00046958707
-0.0022778434 0.0012258401 -0.0003297243 -0.018006127 -0.010038772 0.032764457 0.0013632756 0.0015196365
-0.054422464 -0.0020252366 0.0005733615 -0.0027488451 -0.005681192 -0.003613059 -0.009432074 0.0031515132
0.119201206 0.002605337 0.0019525727 0.0021749444 -0.0012817936 -0.002194266 0.006425926 -0.08685971
0.002804134 0.0005037691 -0.007464845 -0.020310488 0.008885883 0.0015028566 0.0013551124 -0.00039677197
-0.04450963 0.0029849005 0.037551034 -0.005734576 0.0013352686 0.00071579416 0.004352554 0.0027977487

a2c_network.mu.bias f4 [6]
00000000: 6049 94bd 4955 b63d 1a24 8fbd 5c0b 373d
00000010: b4c2 5abd 7fdf 7fbe
-0.07240558 0.089029856 -0.06989308 0.044688568 -0.05340834 -0.249876

exp_avg f4 [6]
00000000: 6021 543a 73e0 ad3a f366 90ba 7b7d 7539
00000010: e4da 71ba 4c0c 2aba
0.00080921315 0.0013265744 -0.0011017009 0.00023411766 -0.00092260377 -0.0006486818

exp_avg_sq f4 [6]
00000000: 26e5 0138 7ad8 0b38 3b50 0e38 493f 1438
00000010: e2d3 1c38 fdf8 1d38
3.0969408e-05 3.3341792e-05 3.393016e-05 3.534489e-05 3.739063e-05 3.7663605e-05

exp_avg f4 [256, 40]
00000000: 55ca 93b7 b1bc 9337 6386 3235 55ca 9337
00000010: 6386 3235 0000 0000 cdd3 7d37 0745 24b7
00000020: fb87 bdb8 3214 2138 39e5 1f38 2506 9db8
00000030: 57c4 0738 cca7 dab9 a651 9138 284a ba36
00000040: daf2 8f39 4d4f 0fb9 7592 5fb9 167f f338
00000050: 3941 1ab9 6a5e 8e37 c56e 14ba 40c9 eeb9
00000060: 8702 65b9 6bc4 fcb7 b445 cab8 a4ae cbb7
00000070: b57b 8638 6bfa a238 59e3 ad37 2066 0db4
00000080: d099 54b3 0400 0080 8dbb 69b4 c917 a02e
00000090: 0400 0080 2066 0db4 370d 5833 0400 0080
000000a0: ab7e 8336 794d 83b6 cb08 10b4 ab7e 83b6
000000b0: cb08 10b4 0000 0000 1b59 efb7 2c3c 8fb8
000000c0: 180b 9fb8 f5ad 2eb8 bc67 bbb8 26e1 80b8
000000d0: 1b66 e037 efa7 e338 3561 ceb8 de6b b6b5
000000e0: 5c86 fab6 ff55 8439 4b14 22b8 cfa1 b234
000000f0: 586f 8636 4194 52b7 b899 3839 af62 9eb6
00000100: 859d 6638 5141 dfb8 604d f338 4868 21b9
00000110: 1684 7e38 7d09 39b9 f1c6 2738 5dea 08b3
00000120: 4425 1133 0400 0000 ce49 f332 57e1 3d2d
00000130: 0400 0000 5dea 08b3 6ca2 11b3 0400 0000
00000140: cc47 b7b6 2586 b736 a7a2 87b4 cc47 b736
00000150: a7a2 87b4 0000 0000 55f0 d9b8 e419 b9b8
00000160: 60d9 0239 e6a3 e8b8 6e2d 9eb8 af7a ab38
00000170: 29ca bcb7 5c5a 0138 c52b 5a39 b30f b2b7
00000180: 6941 17b8 9536 e3b8 c681 4139 60c2 1339
00000190: 1a84 8439 e918 db36 2fa7 21b9 52af bbb7
000001a0: 18e8 4038 56b9 6039 2c7b 78b9 2093 2b39
000001b0: 2a6a c638 c1ba dd38 7294 0db8 c9f0 5b34
000001c0: 57ac 99b0 0400 0000 5fdf 4a34 e2b9 81ae
000001d0: 0400 0000 c9f0 5b34 e073 6f30 0400 0000
000001e0: 41d7 0db7 12a6 0d37 c4d0 c534 41d7 0d37
000001f0: c4d0 c534 0000 0000 4427 3738 27c5 6038
00000200: 275d 02b9 e1a9 6138 75ab 4838 9810 e3b8
00000210: 040a 0338 64ed 2db8 4ce1 af38 203d a437
00000220: 45ad 3537 f23d 8fb7 85d0 17b9 4426 1f38
00000230: b01e d6b8 4fc7 1db8 8ef0 f438 8b09 a6b8
00000240: 0d8e d037 3486 07b9 db69 b9b5 99c2 5bb9
00000250: 9325 b036 d49f 6038 6967 9cb7 b9c0 03b3
00000260: a4e9 7031 0400 0080 6e2c 87b3 75e8 c72e
00000270: 0400 0080 b9c0 03b3 07b9 4bb1 0400 0080
00000280: da54 afb8 c84a af38 4402 ec34 da54 af38
00000290: 4402 ec34 0000 0000 6948 5db9 0a15 efb8
000002a0: aeae 9d39 8616 84b9 0d9d b4b8 38e6 6339
000002b0: 6fd0 e6b9 5042 71b8 2b7f d239 d937 e0b7
000002c0: f24a 71b8 0b54 3db9 319d 5837 bbdd 0939
000002d0: b8e7 c139 3ab5 3ab7 5d07 12ba ed2f 87b8
000002e0: 2ac8 7738 7a07 5239 786b 08b9 d0c2 b739
000002f0: fc08 1f39 fd21 4639 3203 3a39 38e9 1834
00000300: dd5a ee33 0400 0000 fea2 ec33 b2c8 a42e
00000310: 0400 0000 38e9 1834 1d3a eeb3 0400 0000
00000320: 8993 4d37 3880 4db7 9d14 ecb4 8993 4db7
00000330: 9d14 ecb4 0000 0000 e62d 9bb8 abcd e2b8
00000340: 0d1d 30b9 c838 a8b8 21e7 a9b8 6472 4ab9
00000350: bf42 e939 0409 0e38 bd48 9339 d499 05b7
00000360: 7d39 0e38 4474 05b4 4fe2 0f38 68be 7138
00000370: ca66 5039 8a9c 84b7 1f66 b7b7 1111 a7b9
00000380: 2bef bb38 484e 4c38 04bd 93b9 85d0 edb8
00000390: 1d8a 0cb8 3435 0bb9 37f1 1bb8 4329 1834
000003a0: c8b5 7732 0400 0080 4def 1c34 da07 d72e
000003b0: 0400 0080 4329 1834 30cb 72b2 0400 0080
000003c0: bffd 5fb7 bfd4 5f37 1af6 0c35 bffd 5f37
000003d0: 1af6 0c35 0000 0000 cfab f338 dedb 8137
000003e0: 6599 cdb8 79e0 f938 40ea 2738 8719 adb8
000003f0: 496d 3739 a6ba a638 1d70 a939 b834 60b6
-1.7617984e-05 1.7611632e-05 6.6505726e-07 1.7617984e-05 6.6505726e-07 0.0 1.5129289e-05 -9.791233e-06
-9.0375506e-05 3.84042e-05 3.8122034e-05 -7.487488e-05 3.2369364e-05 -0.0004170522 6.929347e-05 5.551865e-06
0.00027456024 -0.00013667085 -0.00021321497 0.000116108145 -0.00014710882 1.6971684e-05 -0.0005662258 -0.0004554484
-0.00021840083 -3.0132205e-05 -9.645094e-05 -2.428081e-05 6.41266e-05 7.771406e-05 2.0729074e-05 -1.3168801e-07
-4.9499988e-08 -6e-45 -2.1768047e-07 7.280183e-11 -6e-45 -1.3168801e-07 5.0303438e-08 -6e-45
3.9188503e-06 -3.9131232e-06 -1.3414244e-07 -3.9188503e-06 -1.3414244e-07 0.0 -2.8532513e-05 -6.829979e-05
-7.583777e-05 -4.1646843e-05 -8.936177e-05 -6.145453e-05 2.6750427e-05 0.000108554836 -9.840952e-05 -1.359145e-06
-7.466222e-06 0.00025241074 -3.864271e-05 3.3272815e-07 4.0064733e-06 -1.25514935e-05 0.00017604872 -4.720255e-06
5.4982975e-05 -0.00010645635 0.00011601555 -0.00015393004 6.0681334e-05 -0.0001764651 4.000118e-05 -3.187812e-08
3.3794336e-08 6e-45 2.8322486e-08 1.0793442e-11 6e-45 -3.187812e-08 -3.3908165e-08 6e-45
-5.4621833e-06 5.4694415e-06 -2.5264055e-07 5.4621833e-06 -2.5264055e-07 0.0 -0.00010392132 -8.82631e-05
0.00012478745 -0.000110931505 -7.542489e-05 8.176767e-05 -2.2505485e-05 3.084015e-05 0.00020806406 -2.1226564e-05
-3.6062123e-05 -0.0001083437 0.00018454259 0.00014091423 0.00025275425 6.5296085e-06 -0.00015416437 -2.2373777e-05
4.599252e-05 0.00021431348 -0.00023697008 0.00016362639 9.46115e-05 0.00010572887 -3.375527e-05 2.0483562e-07
-1.1181197e-09 6e-45 1.8893978e-07 -5.89926e-11 6e-45 2.0483562e-07 8.711236e-10 6e-45
-8.454373e-06 8.442921e-06 3.6846006e-07 8.454373e-06 3.6846006e-07 0.0 4.366717e-05 5.3589374e-05
-0.00012432468 5.3802392e-05 4.7843398e-05 -0.00010827294 3.124216e-05 -4.14675e-05 8.386615e-05 1.9578787e-05
1.0828783e-05 -1.7075774e-05 -0.00014478162 3.794419e-05 -0.00010210031 -3.7617338e-05 0.000116796335 -7.917274e-05
2.486168e-05 -0.00012924598 -1.3814382e-06 -0.00020957961 5.249583e-06 5.3554613e-05 -1.8644803e-05 -3.0676095e-08
3.5057406e-09 -6e-45 -6.294509e-08 9.090765e-11 -6e-45 -3.0676095e-08 -2.9645564e-09 -6e-45
-8.360455e-05 8.358579e-05 4.3960074e-07 8.360455e-05 4.3960074e-07 0.0 -0.00021103177 -0.00011400327
0.0003007552 -0.00025193783 -8.612322e-05 0.0002173417 -0.00044024314 -5.7520636e-05 0.0004014907 -2.6728887e-05
-5.7528676e-05 -0.00018055753 1.2911202e-05 0.00013147939 0.00036984473 -1.1128659e-05 -0.0005570555 -6.4462285e-05
5.9075806e-05 0.00020029946 -0.00013010006 0.00035049627 0.00015166769 0.00018895413 0.00017739533 1.4240948e-07
1.10992666e-07 6e-45 1.10192545e-07 7.493507e-11 6e-45 1.4240948e-07 -1.10933094e-07 6e-45
1.2253303e-05 -1.2248805e-05 -4.3973424e-07 -1.2253303e-05 -4.3973424e-07 0.0 -7.399525e-05 -0.000108148284
-0.0001679549 -8.0214406e-05 -8.101599e-05 -0.00019306835 0.00044490953 3.3863835e-05 0.0002809222 -7.963234e-06
3.390898e-05 -1.2428887e-07 3.4304623e-05 5.7636207e-05 0.00019874718 -1.580852e-05 -2.1862854e-05 -0.00031865438
8.9614034e-05 4.8710295e-05 -0.00028178853 -0.000113398804 -3.350723e-05 -0.00013275893 -3.717953e-05 1.4171114e-07
1.44186245e-08 -6e-45 1.4615689e-07 9.778463e-11 -6e-45 1.4171114e-07 -1.4132453e-08 -6e-45
-1.3350916e-05 1.334137e-05 5.251219e-07 1.3350916e-05 5.251219e-07 0.0 0.00011619145 1.5480382e-05
-9.803734e-05 0.000119150565 4.0034065e-05 -8.254038e-05 0.00017492952 7.950263e-05 0.00032317723 -3.3409287e-06
